#executable_target_system_elf_x86_64 = #hal.executable.target<"llvm-cpu", "system-elf-x86_64", {cpu = "znver3", cpu_features = "+prfchw,-cldemote,+avx,+aes,+sahf,+pclmul,-xop,+crc32,-amx-fp8,+xsaves,-avx512fp16,-usermsr,-sm4,-egpr,+sse4.1,-avx10.1,-avx512ifma,+xsave,+sse4.2,-tsxldtrk,-sm3,-ptwrite,-widekl,-movrs,+invpcid,+64bit,+xsavec,-avx512vpopcntdq,+cmov,-avx512vp2intersect,-avx512cd,+movbe,-avxvnniint8,-ccmp,-amx-int8,-kl,-sha512,-avxvnni,-rtm,+adx,+avx2,-hreset,-movdiri,-serialize,+vpclmulqdq,-avx512vl,-uintr,-cf,+clflushopt,-raoint,-cmpccxadd,+bmi,-amx-tile,+sse,-gfni,-avxvnniint16,-amx-fp16,-zu,-ndd,+xsaveopt,+rdrnd,-avx512f,-amx-bf16,-avx512bf16,-avx512vnni,-push2pop2,+cx8,-avx512bw,+sse3,+pku,-nf,-amx-tf32,-amx-avx512,+fsgsbase,+clzero,+mwaitx,-lwp,+lzcnt,+sha,-movdir64b,-ppx,+wbnoinvd,-enqcmd,-amx-transpose,-avxneconvert,-tbm,-pconfig,-amx-complex,+ssse3,+cx16,-avx10.2,+bmi2,+fma,+popcnt,-avxifma,+f16c,-avx512bitalg,+rdpru,+clwb,+mmx,+sse2,+rdseed,-avx512vbmi2,-prefetchi,-amx-movrs,+rdpid,-fma4,-avx512vbmi,+shstk,+vaes,-waitpkg,-sgx,+fxsr,-avx512dq,+sse4a", data_layout = "e-m:e-p270:32:32-p271:32:32-p272:64:64-i64:64-i128:128-f80:128-n8:16:32:64-S128", iree.encoding.resolver = #iree_cpu.cpu_encoding_resolver<>, link_embedded = false, max_stack_allocation_size = 32768 : i64, native_vector_size = 32 : i64, target_triple = "x86_64-unknown-linux-gnu"}>
#map = affine_map<(d0, d1, d2) -> (d0, d2)>
#map1 = affine_map<(d0, d1, d2) -> (d1, d2)>
#map2 = affine_map<(d0, d1, d2) -> (d0, d1)>
#map3 = affine_map<(d0, d1) -> (d0, d1)>
#map4 = affine_map<(d0, d1) -> (d1)>
#device_target_local = #hal.device.target<"local", [#executable_target_system_elf_x86_64]> : !hal.device
module attributes {stream.affinity.default = #hal.device.affinity<@__device_0>} {
  util.global private @__device_0 = #device_target_local
  util.func public @main_graph$async(%arg0: !hal.buffer_view, %arg1: !hal.fence, %arg2: !hal.fence) -> !hal.buffer_view attributes {inlining_policy = #util.inline.never, iree.abi.model = "coarse-fences", iree.abi.stub} {
    %cst = arith.constant dense<"…"> : tensor<32x10xf32>
    %cst_0 = arith.constant dense<"…"> : tensor<32x32xf32>
    %0 = hal.buffer_view.dim<%arg0 : !hal.buffer_view>[0] : index
    %1 = hal.tensor.import wait(%arg1) => %arg0 : !hal.buffer_view -> tensor<?x10xf32>{%0}
    %2 = flow.dispatch.workgroups[%0](%1, %cst, %0) : (tensor<?x10xf32>{%0}, tensor<32x10xf32>, index) -> tensor<?x32xf32>{%0} =
        (%arg3: !iree_tensor_ext.dispatch.tensor<readonly:tensor<?x10xf32>>, %arg4: !iree_tensor_ext.dispatch.tensor<readonly:tensor<32x10xf32>>, %arg5: index, %arg6: !iree_tensor_ext.dispatch.tensor<writeonly:tensor<?x32xf32>>) {
      %cst_1 = arith.constant dense<[… > : tensor<32xf32>
      %cst_2 = arith.constant 0.000000e+00 : f32
      %7 = iree_tensor_ext.dispatch.workload.ordinal %arg5, 0 : index
      %8 = iree_tensor_ext.dispatch.tensor.load %arg3, offsets = [0, 0], sizes = [%7, 10], strides = [1, 1] : !iree_tensor_ext.dispatch.tensor<readonly:tensor<?x10xf32>>{%7} -> tensor<?x10xf32>
      %9 = iree_tensor_ext.dispatch.tensor.load %arg4, offsets = [0, 0], sizes = [32, 10], strides = [1, 1] : !iree_tensor_ext.dispatch.tensor<readonly:tensor<32x10xf32>> -> tensor<32x10xf32>
      %10 = tensor.empty(%7) : tensor<?x32xf32>
      %11 = linalg.fill ins(%cst_2 : f32) outs(%10 : tensor<?x32xf32>) -> tensor<?x32xf32>
      %12 = linalg.generic {indexing_maps = [#map, #map1, #map2], iterator_types = ["parallel", "parallel", "reduction"]} ins(%8, %9 : tensor<?x10xf32>, tensor<32x10xf32>) outs(%11 : tensor<?x32xf32>) {
      ^bb0(%in: f32, %in_3: f32, %out: f32):
        %14 = arith.mulf %in, %in_3 : f32
        %15 = arith.addf %out, %14 : f32
        linalg.yield %15 : f32
      } -> tensor<?x32xf32>
      %13 = linalg.generic {indexing_maps = [#map3, #map4, #map3], iterator_types = ["parallel", "parallel"]} ins(%12, %cst_1 : tensor<?x32xf32>, tensor<32xf32>) outs(%10 : tensor<?x32xf32>) {
      ^bb0(%in: f32, %in_3: f32, %out: f32):
        %14 = arith.addf %in, %in_3 : f32
        %15 = arith.cmpf ugt, %14, %cst_2 : f32
        %16 = arith.select %15, %14, %cst_2 : f32
        linalg.yield %16 : f32
      } -> tensor<?x32xf32>
      iree_tensor_ext.dispatch.tensor.store %13, %arg6, offsets = [0, 0], sizes = [%7, 32], strides = [1, 1] : tensor<?x32xf32> -> !iree_tensor_ext.dispatch.tensor<writeonly:tensor<?x32xf32>>{%7}
      flow.return
    } count(%arg3: index) -> (index, index, index) {
      %x, %y, %z = iree_tensor_ext.dispatch.workgroup_count_from_slice(%arg3)
      flow.return %x, %y, %z : index, index, index
    }
    %3 = flow.dispatch.workgroups[%0](%2, %cst_0, %0) : (tensor<?x32xf32>{%0}, tensor<32x32xf32>, index) -> tensor<?x32xf32>{%0} =
        (%arg3: !iree_tensor_ext.dispatch.tensor<readonly:tensor<?x32xf32>>, %arg4: !iree_tensor_ext.dispatch.tensor<readonly:tensor<32x32xf32>>, %arg5: index, %arg6: !iree_tensor_ext.dispatch.tensor<writeonly:tensor<?x32xf32>>) {
      %cst_1 = arith.constant dense<[… > : tensor<32xf32>
      %cst_2 = arith.constant 0.000000e+00 : f32
      %7 = iree_tensor_ext.dispatch.workload.ordinal %arg5, 0 : index
      %8 = iree_tensor_ext.dispatch.tensor.load %arg3, offsets = [0, 0], sizes = [%7, 32], strides = [1, 1] : !iree_tensor_ext.dispatch.tensor<readonly:tensor<?x32xf32>>{%7} -> tensor<?x32xf32>
      %9 = iree_tensor_ext.dispatch.tensor.load %arg4, offsets = [0, 0], sizes = [32, 32], strides = [1, 1] : !iree_tensor_ext.dispatch.tensor<readonly:tensor<32x32xf32>> -> tensor<32x32xf32>
      %10 = tensor.empty(%7) : tensor<?x32xf32>
      %11 = linalg.fill ins(%cst_2 : f32) outs(%10 : tensor<?x32xf32>) -> tensor<?x32xf32>
      %12 = linalg.generic {indexing_maps = [#map, #map1, #map2], iterator_types = ["parallel", "parallel", "reduction"]} ins(%8, %9 : tensor<?x32xf32>, tensor<32x32xf32>) outs(%11 : tensor<?x32xf32>) {
      ^bb0(%in: f32, %in_3: f32, %out: f32):
        %14 = arith.mulf %in, %in_3 : f32
        %15 = arith.addf %out, %14 : f32
        linalg.yield %15 : f32
      } -> tensor<?x32xf32>
      %13 = linalg.generic {indexing_maps = [#map3, #map4, #map3], iterator_types = ["parallel", "parallel"]} ins(%12, %cst_1 : tensor<?x32xf32>, tensor<32xf32>) outs(%10 : tensor<?x32xf32>) {
      ^bb0(%in: f32, %in_3: f32, %out: f32):
        %14 = arith.addf %in, %in_3 : f32
        %15 = arith.cmpf ugt, %14, %cst_2 : f32
        %16 = arith.select %15, %14, %cst_2 : f32
        linalg.yield %16 : f32
      } -> tensor<?x32xf32>
      iree_tensor_ext.dispatch.tensor.store %13, %arg6, offsets = [0, 0], sizes = [%7, 32], strides = [1, 1] : tensor<?x32xf32> -> !iree_tensor_ext.dispatch.tensor<writeonly:tensor<?x32xf32>>{%7}
      flow.return
    } count(%arg3: index) -> (index, index, index) {
      %x, %y, %z = iree_tensor_ext.dispatch.workgroup_count_from_slice(%arg3)
      flow.return %x, %y, %z : index, index, index
    }
    %4 = flow.dispatch.workgroups[%0](%3, %0) : (tensor<?x32xf32>{%0}, index) -> tensor<?x2xf32>{%0} =
        (%arg3: !iree_tensor_ext.dispatch.tensor<readonly:tensor<?x32xf32>>, %arg4: index, %arg5: !iree_tensor_ext.dispatch.tensor<writeonly:tensor<?x2xf32>>) {
      %cst_1 = arith.constant dense<[0.150014639, -0.112291597]> : tensor<2xf32>
      %cst_2 = arith.constant 0.000000e+00 : f32
      %cst_3 = arith.constant dense<[[… > : tensor<2x32xf32>
      %7 = iree_tensor_ext.dispatch.workload.ordinal %arg4, 0 : index
      %8 = iree_tensor_ext.dispatch.tensor.load %arg3, offsets = [0, 0], sizes = [%7, 32], strides = [1, 1] : !iree_tensor_ext.dispatch.tensor<readonly:tensor<?x32xf32>>{%7} -> tensor<?x32xf32>
      %9 = tensor.empty(%7) : tensor<?x2xf32>
      %10 = linalg.fill ins(%cst_2 : f32) outs(%9 : tensor<?x2xf32>) -> tensor<?x2xf32>
      %11 = linalg.generic {indexing_maps = [#map, #map1, #map2], iterator_types = ["parallel", "parallel", "reduction"]} ins(%8, %cst_3 : tensor<?x32xf32>, tensor<2x32xf32>) outs(%10 : tensor<?x2xf32>) {
      ^bb0(%in: f32, %in_4: f32, %out: f32):
        %13 = arith.mulf %in, %in_4 : f32
        %14 = arith.addf %out, %13 : f32
        linalg.yield %14 : f32
      } -> tensor<?x2xf32>
      %12 = linalg.generic {indexing_maps = [#map3, #map4, #map3], iterator_types = ["parallel", "parallel"]} ins(%11, %cst_1 : tensor<?x2xf32>, tensor<2xf32>) outs(%9 : tensor<?x2xf32>) {
      ^bb0(%in: f32, %in_4: f32, %out: f32):
        %13 = arith.addf %in, %in_4 : f32
        linalg.yield %13 : f32
      } -> tensor<?x2xf32>
      iree_tensor_ext.dispatch.tensor.store %12, %arg5, offsets = [0, 0], sizes = [%7, 2], strides = [1, 1] : tensor<?x2xf32> -> !iree_tensor_ext.dispatch.tensor<writeonly:tensor<?x2xf32>>{%7}
      flow.return
    } count(%arg3: index) -> (index, index, index) {
      %x, %y, %z = iree_tensor_ext.dispatch.workgroup_count_from_slice(%arg3)
      flow.return %x, %y, %z : index, index, index
    }
    %5 = hal.tensor.barrier join(%4 : tensor<?x2xf32>) => %arg2 : !hal.fence
    %6 = hal.tensor.export %5 : tensor<?x2xf32>{%0} -> !hal.buffer_view
    util.return %6 : !hal.buffer_view
  }
  util.func public @main_graph(%arg0: !hal.buffer_view) -> !hal.buffer_view attributes {iree.abi.stub} {
    %0 = util.null : !hal.fence
    %c-1_i32 = arith.constant -1 : i32
    %c0 = arith.constant 0 : index
    %device_0 = hal.devices.get %c0 : !hal.device
    %fence = hal.fence.create device(%device_0 : !hal.device) flags("None") : !hal.fence
    %1 = util.call @main_graph$async(%arg0, %0, %fence) : (!hal.buffer_view, !hal.fence, !hal.fence) -> !hal.buffer_view
    %status = hal.fence.await until([%fence]) timeout_millis(%c-1_i32) flags("None") : i32
    util.return %1 : !hal.buffer_view
  }
}
