hal.executable public @main_graph$async_dispatch_8 {
  hal.executable.variant public @system_elf_x86_64 target(<"llvm-cpu", "system-elf-x86_64", {cpu = "znver3", cpu_features = "+prfchw,-cldemote,+avx,+aes,+sahf,+pclmul,-xop,+crc32,-amx-fp8,+xsaves,-avx512fp16,-usermsr,-sm4,-egpr,+sse4.1,-avx10.1,-avx512ifma,+xsave,+sse4.2,-tsxldtrk,-sm3,-ptwrite,-widekl,-movrs,+invpcid,+64bit,+xsavec,-avx512vpopcntdq,+cmov,-avx512vp2intersect,-avx512cd,+movbe,-avxvnniint8,-ccmp,-amx-int8,-kl,-sha512,-avxvnni,-rtm,+adx,+avx2,-hreset,-movdiri,-serialize,+vpclmulqdq,-avx512vl,-uintr,-cf,+clflushopt,-raoint,-cmpccxadd,+bmi,-amx-tile,+sse,-gfni,-avxvnniint16,-amx-fp16,-zu,-ndd,+xsaveopt,+rdrnd,-avx512f,-amx-bf16,-avx512bf16,-avx512vnni,-push2pop2,+cx8,-avx512bw,+sse3,+pku,-nf,-amx-tf32,-amx-avx512,+fsgsbase,+clzero,+mwaitx,-lwp,+lzcnt,+sha,-movdir64b,-ppx,+wbnoinvd,-enqcmd,-amx-transpose,-avxneconvert,-tbm,-pconfig,-amx-complex,+ssse3,+cx16,-avx10.2,+bmi2,+fma,+popcnt,-avxifma,+f16c,-avx512bitalg,+rdpru,+clwb,+mmx,+sse2,+rdseed,-avx512vbmi2,-prefetchi,-amx-movrs,+rdpid,-fma4,-avx512vbmi,+shstk,+vaes,-waitpkg,-sgx,+fxsr,-avx512dq,+sse4a", data_layout = "e-m:e-p270:32:32-p271:32:32-p272:64:64-i64:64-i128:128-f80:128-n8:16:32:64-S128", iree.encoding.resolver = #iree_cpu.cpu_encoding_resolver<>, link_embedded = false, max_stack_allocation_size = 32768 : i64, native_vector_size = 32 : i64, target_triple = "x86_64-unknown-linux-gnu"}>) {
    hal.executable.export public @main_graph$async_dispatch_8_conv_64x14x14x64x3x3_f32 ordinal(0) layout(#hal.pipeline.layout<bindings = [#hal.pipeline.binding<storage_buffer, "ReadOnly|Indirect">, #hal.pipeline.binding<storage_buffer, ReadOnly>, #hal.pipeline.binding<storage_buffer, Indirect>, #hal.pipeline.binding<storage_buffer, Indirect>], flags = Indirect>) count(%arg0: !hal.device) -> (index, index, index) {
      %x, %y, %z = iree_tensor_ext.dispatch.workgroup_count_from_slice()
      hal.return %x, %y, %z : index, index, index
    }
    builtin.module {
      func.func @main_graph$async_dispatch_8_conv_64x14x14x64x3x3_f32() {
        %cst = arith.constant 9.99999974E-6 : f32
        %cst_0 = arith.constant 0.000000e+00 : f32
        %cst_1 = arith.constant dense<[… > : tensor<64xf32>
        %cst_2 = arith.constant dense<[… > : tensor<64xf32>
        %cst_3 = arith.constant dense<[… > : tensor<64xf32>
        %cst_4 = arith.constant dense<[… > : tensor<64xf32>
        %c431104 = arith.constant 431104 : index
        %c0 = arith.constant 0 : index
        %c135296 = arith.constant 135296 : index
        %c50176 = arith.constant 50176 : index
        %c115712 = arith.constant 115712 : index
        %0 = hal.interface.binding.subspan layout(<bindings = [#hal.pipeline.binding<storage_buffer, "ReadOnly|Indirect">, #hal.pipeline.binding<storage_buffer, ReadOnly>, #hal.pipeline.binding<storage_buffer, Indirect>, #hal.pipeline.binding<storage_buffer, Indirect>], flags = Indirect>) binding(0) alignment(64) offset(%c431104) flags("ReadOnly|Indirect") : !iree_tensor_ext.dispatch.tensor<readonly:tensor<64x16x16xf32>>
        %1 = hal.interface.binding.subspan layout(<bindings = [#hal.pipeline.binding<storage_buffer, "ReadOnly|Indirect">, #hal.pipeline.binding<storage_buffer, ReadOnly>, #hal.pipeline.binding<storage_buffer, Indirect>, #hal.pipeline.binding<storage_buffer, Indirect>], flags = Indirect>) binding(1) alignment(64) offset(%c135296) flags(ReadOnly) : !iree_tensor_ext.dispatch.tensor<readonly:tensor<64x64x3x3xf32>>
        %2 = hal.interface.binding.subspan layout(<bindings = [#hal.pipeline.binding<storage_buffer, "ReadOnly|Indirect">, #hal.pipeline.binding<storage_buffer, ReadOnly>, #hal.pipeline.binding<storage_buffer, Indirect>, #hal.pipeline.binding<storage_buffer, Indirect>], flags = Indirect>) binding(0) alignment(64) offset(%c0) flags("ReadOnly|Indirect") : !iree_tensor_ext.dispatch.tensor<readonly:tensor<64x14x14xf32>>
        %3 = hal.interface.binding.subspan layout(<bindings = [#hal.pipeline.binding<storage_buffer, "ReadOnly|Indirect">, #hal.pipeline.binding<storage_buffer, ReadOnly>, #hal.pipeline.binding<storage_buffer, Indirect>, #hal.pipeline.binding<storage_buffer, Indirect>], flags = Indirect>) binding(2) alignment(64) offset(%c50176) flags(Indirect) : !iree_tensor_ext.dispatch.tensor<readwrite:tensor<64x16x16xf32>>
        %4 = hal.interface.binding.subspan layout(<bindings = [#hal.pipeline.binding<storage_buffer, "ReadOnly|Indirect">, #hal.pipeline.binding<storage_buffer, ReadOnly>, #hal.pipeline.binding<storage_buffer, Indirect>, #hal.pipeline.binding<storage_buffer, Indirect>], flags = Indirect>) binding(3) alignment(64) offset(%c115712) flags(Indirect) : !iree_tensor_ext.dispatch.tensor<writeonly:tensor<64x14x14xf32>>
        %5 = iree_tensor_ext.dispatch.tensor.load %0, offsets = [0, 0, 0], sizes = [64, 16, 16], strides = [1, 1, 1] : !iree_tensor_ext.dispatch.tensor<readonly:tensor<64x16x16xf32>> -> tensor<64x16x16xf32>
        %6 = iree_tensor_ext.dispatch.tensor.load %1, offsets = [0, 0, 0, 0], sizes = [64, 64, 3, 3], strides = [1, 1, 1, 1] : !iree_tensor_ext.dispatch.tensor<readonly:tensor<64x64x3x3xf32>> -> tensor<64x64x3x3xf32>
        %7 = iree_tensor_ext.dispatch.tensor.load %2, offsets = [0, 0, 0], sizes = [64, 14, 14], strides = [1, 1, 1] : !iree_tensor_ext.dispatch.tensor<readonly:tensor<64x14x14xf32>> -> tensor<64x14x14xf32>
        %8 = tensor.empty() : tensor<64x14x14xf32>
        %9 = linalg.fill ins(%cst_0 : f32) outs(%8 : tensor<64x14x14xf32>) -> tensor<64x14x14xf32>
        %10 = linalg.generic {indexing_maps = [affine_map<(d0, d1, d2, d3, d4, d5) -> (d3, d1 + d4, d2 + d5)>, affine_map<(d0, d1, d2, d3, d4, d5) -> (d0, d3, d4, d5)>, affine_map<(d0, d1, d2, d3, d4, d5) -> (d0, d1, d2)>], iterator_types = ["parallel", "parallel", "parallel", "reduction", "reduction", "reduction"]} ins(%5, %6 : tensor<64x16x16xf32>, tensor<64x64x3x3xf32>) outs(%9 : tensor<64x14x14xf32>) {
        ^bb0(%in: f32, %in_5: f32, %out: f32):
          %12 = arith.mulf %in, %in_5 : f32
          %13 = arith.addf %out, %12 : f32
          linalg.yield %13 : f32
        } -> tensor<64x14x14xf32>
        %11:2 = linalg.generic {indexing_maps = [affine_map<(d0, d1, d2) -> (d0, d1, d2)>, affine_map<(d0, d1, d2) -> (d0)>, affine_map<(d0, d1, d2) -> (d0, d1, d2)>, affine_map<(d0, d1, d2) -> (d0)>, affine_map<(d0, d1, d2) -> (d0)>, affine_map<(d0, d1, d2) -> (d0)>, affine_map<(d0, d1, d2) -> (d0, d1, d2)>, affine_map<(d0, d1, d2) -> (d0, d1, d2)>], iterator_types = ["parallel", "parallel", "parallel"]} ins(%7, %cst_1, %10, %cst_2, %cst_3, %cst_4 : tensor<64x14x14xf32>, tensor<64xf32>, tensor<64x14x14xf32>, tensor<64xf32>, tensor<64xf32>, tensor<64xf32>) outs(%8, %8 : tensor<64x14x14xf32>, tensor<64x14x14xf32>) {
        ^bb0(%in: f32, %in_5: f32, %in_6: f32, %in_7: f32, %in_8: f32, %in_9: f32, %out: f32, %out_10: f32):
          %12 = arith.addf %in_6, %in_7 : f32
          %13 = arith.addf %in, %in_5 : f32
          %14 = arith.addf %13, %12 : f32
          %15 = arith.addf %in_9, %cst : f32
          %16 = math.rsqrt %15 : f32
          %17 = arith.subf %14, %in_8 : f32
          %18 = arith.mulf %17, %16 : f32
          %19 = arith.addf %18, %cst_0 : f32
          %20 = arith.cmpf ugt, %19, %cst_0 : f32
          %21 = arith.select %20, %19, %cst_0 : f32
          linalg.yield %14, %21 : f32, f32
        } -> (tensor<64x14x14xf32>, tensor<64x14x14xf32>)
        iree_tensor_ext.dispatch.tensor.store %11#0, %4, offsets = [0, 0, 0], sizes = [64, 14, 14], strides = [1, 1, 1] : tensor<64x14x14xf32> -> !iree_tensor_ext.dispatch.tensor<writeonly:tensor<64x14x14xf32>>
        iree_tensor_ext.dispatch.tensor.store %11#1, %3, offsets = [0, 1, 1], sizes = [64, 14, 14], strides = [1, 1, 1] : tensor<64x14x14xf32> -> !iree_tensor_ext.dispatch.tensor<readwrite:tensor<64x16x16xf32>>
        return
      }
    }
  }
}
