digraph G {
  compound = true;
  subgraph cluster_1 {
    v2 [shape = plain, label = " "];
    label = "";
    v3 [shape = box, label = "arg0"];
    v4 [shape = box, label = "arg1"];
    v5 [shape = box, label = "arg2"];
    v6 [shape = ellipse, label = "%__constant_tensor_6272xf32 = util.global.load\ntensor<6272xf32>"];
    v7 [shape = ellipse, label = "%__constant_tensor_6272xf32_0 = util.global.load\ntensor<6272xf32>"];
    v8 [shape = ellipse, label = "%__constant_tensor_128x64xf32 = util.global.load\ntensor<128x64xf32>"];
    v9 [shape = ellipse, label = "%__constant_tensor_64x32xf32 = util.global.load\ntensor<64x32xf32>"];
    v10 [shape = ellipse, label = "%__constant_tensor_32x32xf32 = util.global.load\ntensor<32x32xf32>"];
    v11 [shape = ellipse, label = "%__constant_tensor_32x5x5xf32 = util.global.load\ntensor<32x5x5xf32>"];
    v12 [shape = ellipse, label = "%__constant_tensor_32x32x3x3xf32 = util.global.load\ntensor<32x32x3x3xf32>"];
    v13 [shape = ellipse, label = "%__constant_tensor_64x64x3x3xf32 = util.global.load\ntensor<64x64x3x3xf32>"];
    v14 [shape = ellipse, label = "%__constant_tensor_128x128x3x3xf32 = util.global.load\ntensor<128x128x3x3xf32>"];
    v15 [shape = ellipse, label = "%__constant_tensor_128xf32 = util.global.load\ntensor<128xf32>"];
    v16 [shape = ellipse, label = "%__constant_tensor_128xf32_1 = util.global.load\ntensor<128xf32>"];
    v17 [shape = ellipse, label = "%__constant_tensor_32x32x3x3xf32_2 = util.global.load\ntensor<32x32x3x3xf32>"];
    v18 [shape = ellipse, label = "%__constant_tensor_64x32x3x3xf32 = util.global.load\ntensor<64x32x3x3xf32>"];
    v19 [shape = ellipse, label = "%__constant_tensor_128x64x3x3xf32 = util.global.load\ntensor<128x64x3x3xf32>"];
    v20 [shape = ellipse, label = "%__constant_tensor_128xf32_3 = util.global.load\ntensor<128xf32>"];
    v21 [shape = ellipse, label = "%0 = hal.tensor.import\n<<NULL ATTRIBUTE>>\ntensor<1x1x224x224xf32>"];
    v22 [shape = ellipse, label = "%1 = flow.tensor.reshape\ntensor<224x224xf32>"];
    v23 [shape = ellipse, label = "%2 = flow.tensor.splat\n<<NULL ATTRIBUTE>>\ntensor<228x228xf32>"];
    v24 [shape = box, label = "%3 = flow.dispatch[]\n@main_graph$async_dispatch_0::@main_graph$async_dispatch_0_slow_memcpy(%1, %2)\n<<NULL ATTRIBUTE>>\ntensor<228x228xf32>"];
    v25 [shape = box, label = "%4 = flow.dispatch[]\n@main_graph$async_dispatch_1::@main_graph$async_dispatch_1_conv_32x112x112x5x5_f32(%3, %__constant_tensor_32x5x5xf32)\n<<NULL ATTRIBUTE>>\ntensor<32x112x112xf32>"];
    v26 [shape = ellipse, label = "%5 = flow.tensor.splat\n<<NULL ATTRIBUTE>>\ntensor<32x57x57xf32>"];
    v27 [shape = box, label = "%6#0%6#1 = flow.dispatch[]\n@main_graph$async_dispatch_2::@main_graph$async_dispatch_2_conv_32x55x55x3x3_f32(%4, %5)\n<<NULL ATTRIBUTE>>\ntensor<32x55x55xf32>\ntensor<32x57x57xf32>"];
    v28 [shape = ellipse, label = "%7 = flow.tensor.splat\n<<NULL ATTRIBUTE>>\ntensor<32x30x30xf32>"];
    v29 [shape = box, label = "%8 = flow.dispatch[]\n@main_graph$async_dispatch_3::@main_graph$async_dispatch_3_conv_32x28x28x32x3x3_f32(%6#1, %__constant_tensor_32x32x3x3xf32_2, %7)\n<<NULL ATTRIBUTE>>\ntensor<32x30x30xf32>"];
    v30 [shape = box, label = "%9 = flow.dispatch[]\n@main_graph$async_dispatch_4::@main_graph$async_dispatch_4_matmul_like_32x28x28x32_f32(%6#0, %__constant_tensor_32x32xf32)\n<<NULL ATTRIBUTE>>\ntensor<32x28x28xf32>"];
    v31 [shape = box, label = "%10#0%10#1 = flow.dispatch[]\n@main_graph$async_dispatch_5::@main_graph$async_dispatch_5_conv_32x28x28x32x3x3_f32(%8, %__constant_tensor_32x32x3x3xf32, %9, %7)\n<<NULL ATTRIBUTE>>\ntensor<32x28x28xf32>\ntensor<32x30x30xf32>"];
    v32 [shape = ellipse, label = "%11 = flow.tensor.splat\n<<NULL ATTRIBUTE>>\ntensor<64x16x16xf32>"];
    v33 [shape = box, label = "%12 = flow.dispatch[]\n@main_graph$async_dispatch_6::@main_graph$async_dispatch_6_conv_64x14x14x32x3x3_f32(%10#1, %__constant_tensor_64x32x3x3xf32, %11)\n<<NULL ATTRIBUTE>>\ntensor<64x16x16xf32>"];
    v34 [shape = box, label = "%13 = flow.dispatch[]\n@main_graph$async_dispatch_7::@main_graph$async_dispatch_7_matmul_like_64x14x14x32_f32(%10#0, %__constant_tensor_64x32xf32)\n<<NULL ATTRIBUTE>>\ntensor<64x14x14xf32>"];
    v35 [shape = box, label = "%14#0%14#1 = flow.dispatch[]\n@main_graph$async_dispatch_8::@main_graph$async_dispatch_8_conv_64x14x14x64x3x3_f32(%12, %__constant_tensor_64x64x3x3xf32, %13, %11)\n<<NULL ATTRIBUTE>>\ntensor<64x14x14xf32>\ntensor<64x16x16xf32>"];
    v36 [shape = ellipse, label = "%15 = flow.tensor.splat\n<<NULL ATTRIBUTE>>\ntensor<128x9x9xf32>"];
    v37 [shape = box, label = "%16 = flow.dispatch[]\n@main_graph$async_dispatch_9::@main_graph$async_dispatch_9_conv_128x7x7x64x3x3_f32(%14#1, %__constant_tensor_128x64x3x3xf32, %__constant_tensor_128xf32_3, %15)\n<<NULL ATTRIBUTE>>\ntensor<128x9x9xf32>"];
    v38 [shape = box, label = "%17 = flow.dispatch[]\n@main_graph$async_dispatch_10::@main_graph$async_dispatch_10_matmul_like_128x7x7x64_f32(%14#0, %__constant_tensor_128x64xf32)\n<<NULL ATTRIBUTE>>\ntensor<128x7x7xf32>"];
    v39 [shape = box, label = "%18 = flow.dispatch[]\n@main_graph$async_dispatch_11::@main_graph$async_dispatch_11_conv_128x7x7x128x3x3_f32(%16, %__constant_tensor_128x128x3x3xf32, %17, %__constant_tensor_128xf32_1, %__constant_tensor_128xf32)\n<<NULL ATTRIBUTE>>\ntensor<128x7x7xf32>"];
    v40 [shape = ellipse, label = "%19 = flow.tensor.reshape\ntensor<6272xf32>"];
    v41 [shape = box, label = "%20 = flow.dispatch[]\n@main_graph$async_dispatch_12::@main_graph$async_dispatch_12_matvec_like_6272_f32(%19, %__constant_tensor_6272xf32_0)\n<<NULL ATTRIBUTE>>\ntensor<f32>"];
    v42 [shape = box, label = "%21 = flow.dispatch[]\n@main_graph$async_dispatch_13::@main_graph$async_dispatch_13_slow_memcpy(%20)\n<<NULL ATTRIBUTE>>\ntensor<f32>"];
    v43 [shape = ellipse, label = "%22 = flow.tensor.reshape\ntensor<1x1xf32>"];
    v44 [shape = box, label = "%23 = flow.dispatch[]\n@main_graph$async_dispatch_14::@main_graph$async_dispatch_14_matvec_like_6272_f32(%19, %__constant_tensor_6272xf32)\n<<NULL ATTRIBUTE>>\ntensor<f32>"];
    v45 [shape = box, label = "%24 = flow.dispatch[]\n@main_graph$async_dispatch_13::@main_graph$async_dispatch_13_slow_memcpy(%23)\n<<NULL ATTRIBUTE>>\ntensor<f32>"];
    v46 [shape = ellipse, label = "%25 = flow.tensor.reshape\ntensor<1x1xf32>"];
    v47 [shape = ellipse, label = "%26#0%26#1 = hal.tensor.barrier\ntensor<1x1xf32>\ntensor<1x1xf32>"];
    v48 [shape = ellipse, label = "%27 = hal.tensor.export\n<<NULL ATTRIBUTE>>\n!hal.buffer_view"];
    v49 [shape = ellipse, label = "%28 = hal.tensor.export\n<<NULL ATTRIBUTE>>\n!hal.buffer_view"];
    v50 [shape = ellipse, label = " = util.return\n"];
  }
  subgraph cluster_51 {
    v52 [shape = plain, label = " "];
    label = "";
    v53 [shape = box, label = "arg0"];
    v54 [shape = ellipse, label = "%0 = util.null\n!hal.fence"];
    v55 [shape = ellipse, label = "%device_0 = hal.devices.get\n!hal.device"];
    v56 [shape = ellipse, label = "%fence = hal.fence.create\n!hal.fence"];
    v57 [shape = ellipse, label = "%1#0%1#1 = util.call\n!hal.buffer_view\n!hal.buffer_view"];
    v58 [shape = ellipse, label = "%status = hal.fence.await\ni32"];
    v59 [shape = ellipse, label = " = util.return\n"];
  }
  v3 -> v21 [style = solid, label = "0"];
  v4 -> v21 [style = solid, label = "1"];
  v21 -> v22 [style = solid, label = ""];
  v22 -> v24 [style = solid, label = "0"];
  v23 -> v24 [style = solid, label = "1"];
  v24 -> v25 [style = solid, label = "0"];
  v11 -> v25 [style = solid, label = "1"];
  v25 -> v27 [style = solid, label = "0"];
  v26 -> v27 [style = solid, label = "1"];
  v27 -> v29 [style = solid, label = "0"];
  v17 -> v29 [style = solid, label = "1"];
  v28 -> v29 [style = solid, label = "2"];
  v27 -> v30 [style = solid, label = "0"];
  v10 -> v30 [style = solid, label = "1"];
  v29 -> v31 [style = solid, label = "0"];
  v12 -> v31 [style = solid, label = "1"];
  v30 -> v31 [style = solid, label = "2"];
  v28 -> v31 [style = solid, label = "3"];
  v31 -> v33 [style = solid, label = "0"];
  v18 -> v33 [style = solid, label = "1"];
  v32 -> v33 [style = solid, label = "2"];
  v31 -> v34 [style = solid, label = "0"];
  v9 -> v34 [style = solid, label = "1"];
  v33 -> v35 [style = solid, label = "0"];
  v13 -> v35 [style = solid, label = "1"];
  v34 -> v35 [style = solid, label = "2"];
  v32 -> v35 [style = solid, label = "3"];
  v35 -> v37 [style = solid, label = "0"];
  v19 -> v37 [style = solid, label = "1"];
  v20 -> v37 [style = solid, label = "2"];
  v36 -> v37 [style = solid, label = "3"];
  v35 -> v38 [style = solid, label = "0"];
  v8 -> v38 [style = solid, label = "1"];
  v37 -> v39 [style = solid, label = "0"];
  v14 -> v39 [style = solid, label = "1"];
  v38 -> v39 [style = solid, label = "2"];
  v16 -> v39 [style = solid, label = "3"];
  v15 -> v39 [style = solid, label = "4"];
  v39 -> v40 [style = solid, label = ""];
  v40 -> v41 [style = solid, label = "0"];
  v7 -> v41 [style = solid, label = "1"];
  v41 -> v42 [style = solid, label = ""];
  v42 -> v43 [style = solid, label = ""];
  v40 -> v44 [style = solid, label = "0"];
  v6 -> v44 [style = solid, label = "1"];
  v44 -> v45 [style = solid, label = ""];
  v45 -> v46 [style = solid, label = ""];
  v43 -> v47 [style = solid, label = "0"];
  v46 -> v47 [style = solid, label = "1"];
  v5 -> v47 [style = solid, label = "2"];
  v47 -> v48 [style = solid, label = ""];
  v47 -> v49 [style = solid, label = ""];
  v48 -> v50 [style = solid, label = "0"];
  v49 -> v50 [style = solid, label = "1"];
  v55 -> v56 [style = solid, label = ""];
  v53 -> v57 [style = solid, label = "0"];
  v54 -> v57 [style = solid, label = "1"];
  v56 -> v57 [style = solid, label = "2"];
  v56 -> v58 [style = solid, label = "1"];
  v57 -> v59 [style = solid, label = "0"];
  v57 -> v59 [style = solid, label = "1"];
}
