#executable_target_embedded_elf_x86_64 = #hal.executable.target<"llvm-cpu", "embedded-elf-x86_64", {cpu = "znver3", cpu_features = "+prfchw,-cldemote,+avx,+aes,+sahf,+pclmul,-xop,+crc32,-amx-fp8,+xsaves,-avx512fp16,-usermsr,-sm4,-egpr,+sse4.1,-avx512ifma,+xsave,+sse4.2,-tsxldtrk,-sm3,-ptwrite,-widekl,-movrs,+invpcid,+64bit,+xsavec,-avx10.1-512,-avx512vpopcntdq,+cmov,-avx512vp2intersect,-avx512cd,+movbe,-avxvnniint8,-ccmp,-amx-int8,-kl,-avx10.1-256,-sha512,-avxvnni,-rtm,+adx,+avx2,-hreset,-movdiri,-serialize,+vpclmulqdq,-avx512vl,-uintr,-cf,+clflushopt,-raoint,-cmpccxadd,+bmi,-amx-tile,+sse,-avx10.2-256,-gfni,-avxvnniint16,-amx-fp16,-zu,-ndd,+xsaveopt,+rdrnd,-avx512f,-amx-bf16,-avx512bf16,-avx512vnni,-push2pop2,+cx8,-avx512bw,+sse3,+pku,-nf,-amx-tf32,-amx-avx512,+fsgsbase,+clzero,+mwaitx,-lwp,+lzcnt,+sha,-movdir64b,-ppx,+wbnoinvd,-enqcmd,-amx-transpose,-avx10.2-512,-avxneconvert,-tbm,-pconfig,-amx-complex,+ssse3,+cx16,+bmi2,+fma,+popcnt,-avxifma,+f16c,-avx512bitalg,+rdpru,+clwb,+mmx,+sse2,+rdseed,-avx512vbmi2,-prefetchi,-amx-movrs,+rdpid,-fma4,-avx512vbmi,+shstk,+vaes,-waitpkg,-sgx,+fxsr,-avx512dq,+sse4a", data_layout = "e-m:e-p270:32:32-p271:32:32-p272:64:64-i64:64-i128:128-f80:128-n8:16:32:64-S128", iree.encoding.resolver = #iree_cpu.cpu_encoding_resolver<>, max_stack_allocation_size = 32768 : i64, native_vector_size = 32 : i64, target_triple = "x86_64-unknown-unknown-eabi-elf"}>
#map = affine_map<(d0, d1, d2) -> (d0, d1, d2)>
#map1 = affine_map<(d0, d1, d2) -> (d0, d1)>
#map2 = affine_map<(d0, d1) -> (d0, d1)>
#map3 = affine_map<(d0, d1, d2) -> (d2)>
#map4 = affine_map<(d0, d1, d2, d3, d4) -> (d0, d1, d3, d4)>
#map5 = affine_map<(d0, d1, d2, d3, d4) -> (d2, d3, d4)>
#map6 = affine_map<(d0, d1, d2, d3, d4) -> (d0, d1, d2)>
#map7 = affine_map<(d0) -> (d0)>
#map8 = affine_map<(d0, d1) -> ()>
#map9 = affine_map<(d0, d1, d2, d3) -> (d0, d1, d2, d3)>
#map10 = affine_map<(d0, d1, d2, d3) -> (d1, d3)>
#map11 = affine_map<(d0, d1, d2, d3, d4) -> (d0, d1, d2, d4)>
#map12 = affine_map<(d0, d1, d2, d3, d4) -> (d0, d1, d2, d3, d4)>
#map13 = affine_map<(d0, d1, d2, d3, d4) -> (d0, d1, d3, d2, d4)>
#map14 = affine_map<(d0, d1) -> (d1)>
#map15 = affine_map<(d0, d1) -> (d0)>
#map16 = affine_map<(d0, d1, d2) -> (d1, d2)>
#map17 = affine_map<(d0, d1, d2) -> (d0, d2)>
#map18 = affine_map<(d0, d1, d2) -> ()>
#map19 = affine_map<(d0, d1, d2, d3, d4) -> (d0, d2, d1, d4)>
#map20 = affine_map<(d0, d1, d2, d3, d4) -> (d0, d3, d1, d4)>
#map21 = affine_map<(d0, d1, d2, d3) -> (d0, d2, d3)>
#map22 = affine_map<(d0, d1, d2, d3, d4) -> (d0, d4, d1, d3)>
#map23 = affine_map<(d0, d1, d2, d3, d4) -> (d0, d1, d3)>
#map24 = affine_map<(d0, d1, d2, d3, d4) -> (d0, d4, d3)>
#map25 = affine_map<(d0, d1, d2, d3, d4) -> (d0, d2, d4)>
#map26 = affine_map<(d0, d1, d2, d3, d4) -> ()>
#map27 = affine_map<(d0, d1, d2, d3, d4) -> (d0, d1, d4)>
#map28 = affine_map<(d0, d1, d2, d3) -> (d0, d2, d1, d3)>
#map29 = affine_map<(d0, d1, d2, d3) -> (d1, d2, d3)>
#map30 = affine_map<(d0, d1, d2, d3) -> (d0, d1)>
#map31 = affine_map<(d0) -> ()>
#map32 = affine_map<(d0, d1, d2, d3) -> (d0, d1, d3)>
#map33 = affine_map<(d0, d1, d2, d3, d4, d5) -> (d0, d3, d1, d4, d5)>
#map34 = affine_map<(d0, d1, d2, d3, d4, d5) -> (d0, d1, d2, d3, d4, d5)>
#map35 = affine_map<(d0, d1, d2, d3, d4, d5) -> (d0, d4, d1, d5, d3)>
#map36 = affine_map<(d0, d1, d2, d3) -> (d0, d2)>
#map37 = affine_map<(d0, d1, d2, d3) -> (d0, d3, d2)>
#map38 = affine_map<(d0, d1, d2, d3) -> ()>
#map39 = affine_map<(d0, d1, d2, d3) -> (d0, d3)>
#device_target_local = #hal.device.target<"local", [#executable_target_embedded_elf_x86_64]> : !hal.device
module @module attributes {stream.affinity.default = #hal.device.affinity<@__device_0>} {
  util.global private @__device_0 = #device_target_local
  util.global private @__hoisted_tensor_32xf32 {stream.affinity.default = #hal.device.affinity<@__device_0>} = dense<[… > : tensor<32xf32>
  util.global private @__hoisted_tensor_32xf32_0 {stream.affinity.default = #hal.device.affinity<@__device_0>} = dense<[… > : tensor<32xf32>
  util.global private @__hoisted_tensor_32xf32_1 {stream.affinity.default = #hal.device.affinity<@__device_0>} = dense<[… > : tensor<32xf32>
  util.global private @__hoisted_tensor_f16 {stream.affinity.default = #hal.device.affinity<@__device_0>} = dense<0.000000e+00> : tensor<f16>
  util.global private @__hoisted_tensor_32xf32_2 {stream.affinity.default = #hal.device.affinity<@__device_0>} = dense<[… > : tensor<32xf32>
  util.global private @__hoisted_tensor_32xf32_3 {stream.affinity.default = #hal.device.affinity<@__device_0>} = dense<[… > : tensor<32xf32>
  util.global private @__hoisted_tensor_32xf32_4 {stream.affinity.default = #hal.device.affinity<@__device_0>} = dense<[… > : tensor<32xf32>
  util.global private @__hoisted_tensor_32xf32_5 {stream.affinity.default = #hal.device.affinity<@__device_0>} = dense<[… > : tensor<32xf32>
  util.global private @__hoisted_tensor_32xf32_6 {stream.affinity.default = #hal.device.affinity<@__device_0>} = dense<[… > : tensor<32xf32>
  util.global private @__hoisted_tensor_32xf32_7 {stream.affinity.default = #hal.device.affinity<@__device_0>} = dense<[… > : tensor<32xf32>
  util.global private @__hoisted_tensor_32xf32_8 {stream.affinity.default = #hal.device.affinity<@__device_0>} = dense<[… > : tensor<32xf32>
  util.global private @__hoisted_tensor_32xf32_9 {stream.affinity.default = #hal.device.affinity<@__device_0>} = dense<[… > : tensor<32xf32>
  util.global private @__hoisted_tensor_32xf32_10 {stream.affinity.default = #hal.device.affinity<@__device_0>} = dense<[… > : tensor<32xf32>
  util.global private @__hoisted_tensor_32xf32_11 {stream.affinity.default = #hal.device.affinity<@__device_0>} = dense<[… > : tensor<32xf32>
  util.global private @__hoisted_tensor_32xf32_12 {stream.affinity.default = #hal.device.affinity<@__device_0>} = dense<[… > : tensor<32xf32>
  util.global private @__hoisted_tensor_32xf32_13 {stream.affinity.default = #hal.device.affinity<@__device_0>} = dense<[… > : tensor<32xf32>
  util.global private @__hoisted_tensor_32xf32_14 {stream.affinity.default = #hal.device.affinity<@__device_0>} = dense<[… > : tensor<32xf32>
  util.global private @__hoisted_tensor_32xf32_15 {stream.affinity.default = #hal.device.affinity<@__device_0>} = dense<[… > : tensor<32xf32>
  util.global private @__hoisted_tensor_32xf32_16 {stream.affinity.default = #hal.device.affinity<@__device_0>} = dense<[… > : tensor<32xf32>
  util.global private @__hoisted_tensor_32xf32_17 {stream.affinity.default = #hal.device.affinity<@__device_0>} = dense<[… > : tensor<32xf32>
  util.global private @__hoisted_tensor_32xf32_18 {stream.affinity.default = #hal.device.affinity<@__device_0>} = dense<[… > : tensor<32xf32>
  util.global private @__hoisted_tensor_32xf32_19 {stream.affinity.default = #hal.device.affinity<@__device_0>} = dense<[… > : tensor<32xf32>
  util.global private @__hoisted_tensor_32xf32_20 {stream.affinity.default = #hal.device.affinity<@__device_0>} = dense<[… > : tensor<32xf32>
  util.global private @__hoisted_tensor_32xf32_21 {stream.affinity.default = #hal.device.affinity<@__device_0>} = dense<[… > : tensor<32xf32>
  util.global private @__hoisted_tensor_32xf32_22 {stream.affinity.default = #hal.device.affinity<@__device_0>} = dense<[… > : tensor<32xf32>
  util.global private @__hoisted_tensor_32xf32_23 {stream.affinity.default = #hal.device.affinity<@__device_0>} = dense<[… > : tensor<32xf32>
  util.global private @__hoisted_tensor_32xf32_24 {stream.affinity.default = #hal.device.affinity<@__device_0>} = dense<[… > : tensor<32xf32>
  util.global private @__hoisted_tensor_32xf32_25 {stream.affinity.default = #hal.device.affinity<@__device_0>} = dense<[… > : tensor<32xf32>
  util.global private @__hoisted_tensor_32xf32_26 {stream.affinity.default = #hal.device.affinity<@__device_0>} = dense<[… > : tensor<32xf32>
  util.global private @__hoisted_tensor_32xf32_27 {stream.affinity.default = #hal.device.affinity<@__device_0>} = dense<[… > : tensor<32xf32>
  util.global private @__hoisted_tensor_32xf32_28 {stream.affinity.default = #hal.device.affinity<@__device_0>} = dense<[… > : tensor<32xf32>
  util.global private @__hoisted_tensor_32xf32_29 {stream.affinity.default = #hal.device.affinity<@__device_0>} = dense<[… > : tensor<32xf32>
  util.global private @__hoisted_tensor_32xf32_30 {stream.affinity.default = #hal.device.affinity<@__device_0>} = dense<[… > : tensor<32xf32>
  util.global private @__hoisted_tensor_32xf32_31 {stream.affinity.default = #hal.device.affinity<@__device_0>} = dense<[… > : tensor<32xf32>
  util.global private @__hoisted_tensor_32xf32_32 {stream.affinity.default = #hal.device.affinity<@__device_0>} = dense<[… > : tensor<32xf32>
  util.global private @__hoisted_tensor_32xf32_33 {stream.affinity.default = #hal.device.affinity<@__device_0>} = dense<[… > : tensor<32xf32>
  util.global private @__hoisted_tensor_32xf32_34 {stream.affinity.default = #hal.device.affinity<@__device_0>} = dense<[… > : tensor<32xf32>
  util.global private @__hoisted_tensor_32xf32_35 {stream.affinity.default = #hal.device.affinity<@__device_0>} = dense<[… > : tensor<32xf32>
  util.global private @__hoisted_tensor_32xf32_36 {stream.affinity.default = #hal.device.affinity<@__device_0>} = dense<[… > : tensor<32xf32>
  util.global private @__hoisted_tensor_32xf32_37 {stream.affinity.default = #hal.device.affinity<@__device_0>} = dense<[… > : tensor<32xf32>
  util.global private @__hoisted_tensor_32xf32_38 {stream.affinity.default = #hal.device.affinity<@__device_0>} = dense<[… > : tensor<32xf32>
  util.global private @__hoisted_tensor_32xf32_39 {stream.affinity.default = #hal.device.affinity<@__device_0>} = dense<[… > : tensor<32xf32>
  util.global private @__hoisted_tensor_32xf32_40 {stream.affinity.default = #hal.device.affinity<@__device_0>} = dense<[… > : tensor<32xf32>
  util.global private @__hoisted_tensor_32xf32_41 {stream.affinity.default = #hal.device.affinity<@__device_0>} = dense<[… > : tensor<32xf32>
  util.global private @__hoisted_tensor_32xf32_42 {stream.affinity.default = #hal.device.affinity<@__device_0>} = dense<[… > : tensor<32xf32>
  util.global private @__hoisted_tensor_32xf32_43 {stream.affinity.default = #hal.device.affinity<@__device_0>} = dense<[… > : tensor<32xf32>
  util.func public @prefill_bs4$async(%arg0: !hal.buffer_view, %arg1: !hal.buffer_view, %arg2: !hal.buffer_view, %arg3: !hal.buffer_view, %arg4: !hal.fence, %arg5: !hal.fence) -> !hal.buffer_view attributes {inlining_policy = #util.inline.never, iree.abi.model = "coarse-fences", iree.abi.stub} {
    %cst = arith.constant 9.99999974E-6 : f32
    %cst_0 = arith.constant 2.048000e+03 : f32
    %cst_1 = arith.constant 1.000000e+00 : f16
    %cst_2 = arith.constant 0.000000e+00 : f32
    %c32000 = arith.constant 32000 : index
    %c1 = arith.constant 1 : index
    %cst_3 = arith.constant dense<1.000000e+00> : tensor<f32>
    %cst_4 = arith.constant dense<0xFC00> : tensor<f16>
    %c0 = arith.constant 0 : index
    %c32 = arith.constant 32 : index
    %c1_i64 = arith.constant 1 : i64
    %c0_i64 = arith.constant 0 : i64
    %c2_i64 = arith.constant 2 : i64
    %c17_i64 = arith.constant 17 : i64
    %c5_i64 = arith.constant 5 : i64
    %c6_i64 = arith.constant 6 : i64
    %c4_i64 = arith.constant 4 : i64
    %c3_i64 = arith.constant 3 : i64
    %c22_i64 = arith.constant 22 : i64
    %c8_i64 = arith.constant 8 : i64
    %c7_i64 = arith.constant 7 : i64
    %c9_i64 = arith.constant 9 : i64
    %c10_i64 = arith.constant 10 : i64
    %c11_i64 = arith.constant 11 : i64
    %c12_i64 = arith.constant 12 : i64
    %c13_i64 = arith.constant 13 : i64
    %c14_i64 = arith.constant 14 : i64
    %c15_i64 = arith.constant 15 : i64
    %c16_i64 = arith.constant 16 : i64
    %c18_i64 = arith.constant 18 : i64
    %c19_i64 = arith.constant 19 : i64
    %c20_i64 = arith.constant 20 : i64
    %c21_i64 = arith.constant 21 : i64
    %cst_5 = arith.constant 1.250000e-01 : f16
    %c8 = arith.constant 8 : index
    %0 = flow.tensor.constant #flow.parameter.named<"model"::"token_embd.weight"> : tensor<32000x2176xi8>
    %1 = flow.tensor.constant #flow.parameter.named<"model"::"blk.0.attn_norm.weight"> : tensor<2048xf32>
    %2 = flow.tensor.constant #flow.parameter.named<"model"::"blk.0.attn_q.weight"> : tensor<2048x2176xi8>
    %3 = flow.tensor.constant #flow.parameter.named<"model"::"blk.0.attn_k.weight"> : tensor<256x2176xi8>
    %4 = flow.tensor.constant #flow.parameter.named<"model"::"blk.0.attn_v.weight"> : tensor<256x2176xi8>
    %5 = flow.tensor.constant #flow.parameter.named<"model"::"blk.0.attn_output.weight"> : tensor<2048x2176xi8>
    %6 = flow.tensor.constant #flow.parameter.named<"model"::"blk.0.ffn_norm.weight"> : tensor<2048xf32>
    %7 = flow.tensor.constant #flow.parameter.named<"model"::"blk.0.ffn_gate.weight"> : tensor<5632x2176xi8>
    %8 = flow.tensor.constant #flow.parameter.named<"model"::"blk.0.ffn_up.weight"> : tensor<5632x2176xi8>
    %9 = flow.tensor.constant #flow.parameter.named<"model"::"blk.0.ffn_down.weight"> : tensor<2048x5984xi8>
    %10 = flow.tensor.constant #flow.parameter.named<"model"::"blk.1.attn_norm.weight"> : tensor<2048xf32>
    %11 = flow.tensor.constant #flow.parameter.named<"model"::"blk.1.attn_q.weight"> : tensor<2048x2176xi8>
    %12 = flow.tensor.constant #flow.parameter.named<"model"::"blk.1.attn_k.weight"> : tensor<256x2176xi8>
    %13 = flow.tensor.constant #flow.parameter.named<"model"::"blk.1.attn_v.weight"> : tensor<256x2176xi8>
    %14 = flow.tensor.constant #flow.parameter.named<"model"::"blk.1.attn_output.weight"> : tensor<2048x2176xi8>
    %15 = flow.tensor.constant #flow.parameter.named<"model"::"blk.1.ffn_norm.weight"> : tensor<2048xf32>
    %16 = flow.tensor.constant #flow.parameter.named<"model"::"blk.1.ffn_gate.weight"> : tensor<5632x2176xi8>
    %17 = flow.tensor.constant #flow.parameter.named<"model"::"blk.1.ffn_up.weight"> : tensor<5632x2176xi8>
    %18 = flow.tensor.constant #flow.parameter.named<"model"::"blk.1.ffn_down.weight"> : tensor<2048x5984xi8>
    %19 = flow.tensor.constant #flow.parameter.named<"model"::"blk.2.attn_norm.weight"> : tensor<2048xf32>
    %20 = flow.tensor.constant #flow.parameter.named<"model"::"blk.2.attn_q.weight"> : tensor<2048x2176xi8>
    %21 = flow.tensor.constant #flow.parameter.named<"model"::"blk.2.attn_k.weight"> : tensor<256x2176xi8>
    %22 = flow.tensor.constant #flow.parameter.named<"model"::"blk.2.attn_v.weight"> : tensor<256x2176xi8>
    %23 = flow.tensor.constant #flow.parameter.named<"model"::"blk.2.attn_output.weight"> : tensor<2048x2176xi8>
    %24 = flow.tensor.constant #flow.parameter.named<"model"::"blk.2.ffn_norm.weight"> : tensor<2048xf32>
    %25 = flow.tensor.constant #flow.parameter.named<"model"::"blk.2.ffn_gate.weight"> : tensor<5632x2176xi8>
    %26 = flow.tensor.constant #flow.parameter.named<"model"::"blk.2.ffn_up.weight"> : tensor<5632x2176xi8>
    %27 = flow.tensor.constant #flow.parameter.named<"model"::"blk.2.ffn_down.weight"> : tensor<2048x5984xi8>
    %28 = flow.tensor.constant #flow.parameter.named<"model"::"blk.3.attn_norm.weight"> : tensor<2048xf32>
    %29 = flow.tensor.constant #flow.parameter.named<"model"::"blk.3.attn_q.weight"> : tensor<2048x2176xi8>
    %30 = flow.tensor.constant #flow.parameter.named<"model"::"blk.3.attn_k.weight"> : tensor<256x2176xi8>
    %31 = flow.tensor.constant #flow.parameter.named<"model"::"blk.3.attn_v.weight"> : tensor<256x2176xi8>
    %32 = flow.tensor.constant #flow.parameter.named<"model"::"blk.3.attn_output.weight"> : tensor<2048x2176xi8>
    %33 = flow.tensor.constant #flow.parameter.named<"model"::"blk.3.ffn_norm.weight"> : tensor<2048xf32>
    %34 = flow.tensor.constant #flow.parameter.named<"model"::"blk.3.ffn_gate.weight"> : tensor<5632x2176xi8>
    %35 = flow.tensor.constant #flow.parameter.named<"model"::"blk.3.ffn_up.weight"> : tensor<5632x2176xi8>
    %36 = flow.tensor.constant #flow.parameter.named<"model"::"blk.3.ffn_down.weight"> : tensor<2048x5984xi8>
    %37 = flow.tensor.constant #flow.parameter.named<"model"::"blk.4.attn_norm.weight"> : tensor<2048xf32>
    %38 = flow.tensor.constant #flow.parameter.named<"model"::"blk.4.attn_q.weight"> : tensor<2048x2176xi8>
    %39 = flow.tensor.constant #flow.parameter.named<"model"::"blk.4.attn_k.weight"> : tensor<256x2176xi8>
    %40 = flow.tensor.constant #flow.parameter.named<"model"::"blk.4.attn_v.weight"> : tensor<256x2176xi8>
    %41 = flow.tensor.constant #flow.parameter.named<"model"::"blk.4.attn_output.weight"> : tensor<2048x2176xi8>
    %42 = flow.tensor.constant #flow.parameter.named<"model"::"blk.4.ffn_norm.weight"> : tensor<2048xf32>
    %43 = flow.tensor.constant #flow.parameter.named<"model"::"blk.4.ffn_gate.weight"> : tensor<5632x2176xi8>
    %44 = flow.tensor.constant #flow.parameter.named<"model"::"blk.4.ffn_up.weight"> : tensor<5632x2176xi8>
    %45 = flow.tensor.constant #flow.parameter.named<"model"::"blk.4.ffn_down.weight"> : tensor<2048x5984xi8>
    %46 = flow.tensor.constant #flow.parameter.named<"model"::"blk.5.attn_norm.weight"> : tensor<2048xf32>
    %47 = flow.tensor.constant #flow.parameter.named<"model"::"blk.5.attn_q.weight"> : tensor<2048x2176xi8>
    %48 = flow.tensor.constant #flow.parameter.named<"model"::"blk.5.attn_k.weight"> : tensor<256x2176xi8>
    %49 = flow.tensor.constant #flow.parameter.named<"model"::"blk.5.attn_v.weight"> : tensor<256x2176xi8>
    %50 = flow.tensor.constant #flow.parameter.named<"model"::"blk.5.attn_output.weight"> : tensor<2048x2176xi8>
    %51 = flow.tensor.constant #flow.parameter.named<"model"::"blk.5.ffn_norm.weight"> : tensor<2048xf32>
    %52 = flow.tensor.constant #flow.parameter.named<"model"::"blk.5.ffn_gate.weight"> : tensor<5632x2176xi8>
    %53 = flow.tensor.constant #flow.parameter.named<"model"::"blk.5.ffn_up.weight"> : tensor<5632x2176xi8>
    %54 = flow.tensor.constant #flow.parameter.named<"model"::"blk.5.ffn_down.weight"> : tensor<2048x5984xi8>
    %55 = flow.tensor.constant #flow.parameter.named<"model"::"blk.6.attn_norm.weight"> : tensor<2048xf32>
    %56 = flow.tensor.constant #flow.parameter.named<"model"::"blk.6.attn_q.weight"> : tensor<2048x2176xi8>
    %57 = flow.tensor.constant #flow.parameter.named<"model"::"blk.6.attn_k.weight"> : tensor<256x2176xi8>
    %58 = flow.tensor.constant #flow.parameter.named<"model"::"blk.6.attn_v.weight"> : tensor<256x2176xi8>
    %59 = flow.tensor.constant #flow.parameter.named<"model"::"blk.6.attn_output.weight"> : tensor<2048x2176xi8>
    %60 = flow.tensor.constant #flow.parameter.named<"model"::"blk.6.ffn_norm.weight"> : tensor<2048xf32>
    %61 = flow.tensor.constant #flow.parameter.named<"model"::"blk.6.ffn_gate.weight"> : tensor<5632x2176xi8>
    %62 = flow.tensor.constant #flow.parameter.named<"model"::"blk.6.ffn_up.weight"> : tensor<5632x2176xi8>
    %63 = flow.tensor.constant #flow.parameter.named<"model"::"blk.6.ffn_down.weight"> : tensor<2048x5984xi8>
    %64 = flow.tensor.constant #flow.parameter.named<"model"::"blk.7.attn_norm.weight"> : tensor<2048xf32>
    %65 = flow.tensor.constant #flow.parameter.named<"model"::"blk.7.attn_q.weight"> : tensor<2048x2176xi8>
    %66 = flow.tensor.constant #flow.parameter.named<"model"::"blk.7.attn_k.weight"> : tensor<256x2176xi8>
    %67 = flow.tensor.constant #flow.parameter.named<"model"::"blk.7.attn_v.weight"> : tensor<256x2176xi8>
    %68 = flow.tensor.constant #flow.parameter.named<"model"::"blk.7.attn_output.weight"> : tensor<2048x2176xi8>
    %69 = flow.tensor.constant #flow.parameter.named<"model"::"blk.7.ffn_norm.weight"> : tensor<2048xf32>
    %70 = flow.tensor.constant #flow.parameter.named<"model"::"blk.7.ffn_gate.weight"> : tensor<5632x2176xi8>
    %71 = flow.tensor.constant #flow.parameter.named<"model"::"blk.7.ffn_up.weight"> : tensor<5632x2176xi8>
    %72 = flow.tensor.constant #flow.parameter.named<"model"::"blk.7.ffn_down.weight"> : tensor<2048x5984xi8>
    %73 = flow.tensor.constant #flow.parameter.named<"model"::"blk.8.attn_norm.weight"> : tensor<2048xf32>
    %74 = flow.tensor.constant #flow.parameter.named<"model"::"blk.8.attn_q.weight"> : tensor<2048x2176xi8>
    %75 = flow.tensor.constant #flow.parameter.named<"model"::"blk.8.attn_k.weight"> : tensor<256x2176xi8>
    %76 = flow.tensor.constant #flow.parameter.named<"model"::"blk.8.attn_v.weight"> : tensor<256x2176xi8>
    %77 = flow.tensor.constant #flow.parameter.named<"model"::"blk.8.attn_output.weight"> : tensor<2048x2176xi8>
    %78 = flow.tensor.constant #flow.parameter.named<"model"::"blk.8.ffn_norm.weight"> : tensor<2048xf32>
    %79 = flow.tensor.constant #flow.parameter.named<"model"::"blk.8.ffn_gate.weight"> : tensor<5632x2176xi8>
    %80 = flow.tensor.constant #flow.parameter.named<"model"::"blk.8.ffn_up.weight"> : tensor<5632x2176xi8>
    %81 = flow.tensor.constant #flow.parameter.named<"model"::"blk.8.ffn_down.weight"> : tensor<2048x5984xi8>
    %82 = flow.tensor.constant #flow.parameter.named<"model"::"blk.9.attn_norm.weight"> : tensor<2048xf32>
    %83 = flow.tensor.constant #flow.parameter.named<"model"::"blk.9.attn_q.weight"> : tensor<2048x2176xi8>
    %84 = flow.tensor.constant #flow.parameter.named<"model"::"blk.9.attn_k.weight"> : tensor<256x2176xi8>
    %85 = flow.tensor.constant #flow.parameter.named<"model"::"blk.9.attn_v.weight"> : tensor<256x2176xi8>
    %86 = flow.tensor.constant #flow.parameter.named<"model"::"blk.9.attn_output.weight"> : tensor<2048x2176xi8>
    %87 = flow.tensor.constant #flow.parameter.named<"model"::"blk.9.ffn_norm.weight"> : tensor<2048xf32>
    %88 = flow.tensor.constant #flow.parameter.named<"model"::"blk.9.ffn_gate.weight"> : tensor<5632x2176xi8>
    %89 = flow.tensor.constant #flow.parameter.named<"model"::"blk.9.ffn_up.weight"> : tensor<5632x2176xi8>
    %90 = flow.tensor.constant #flow.parameter.named<"model"::"blk.9.ffn_down.weight"> : tensor<2048x5984xi8>
    %91 = flow.tensor.constant #flow.parameter.named<"model"::"blk.10.attn_norm.weight"> : tensor<2048xf32>
    %92 = flow.tensor.constant #flow.parameter.named<"model"::"blk.10.attn_q.weight"> : tensor<2048x2176xi8>
    %93 = flow.tensor.constant #flow.parameter.named<"model"::"blk.10.attn_k.weight"> : tensor<256x2176xi8>
    %94 = flow.tensor.constant #flow.parameter.named<"model"::"blk.10.attn_v.weight"> : tensor<256x2176xi8>
    %95 = flow.tensor.constant #flow.parameter.named<"model"::"blk.10.attn_output.weight"> : tensor<2048x2176xi8>
    %96 = flow.tensor.constant #flow.parameter.named<"model"::"blk.10.ffn_norm.weight"> : tensor<2048xf32>
    %97 = flow.tensor.constant #flow.parameter.named<"model"::"blk.10.ffn_gate.weight"> : tensor<5632x2176xi8>
    %98 = flow.tensor.constant #flow.parameter.named<"model"::"blk.10.ffn_up.weight"> : tensor<5632x2176xi8>
    %99 = flow.tensor.constant #flow.parameter.named<"model"::"blk.10.ffn_down.weight"> : tensor<2048x5984xi8>
    %100 = flow.tensor.constant #flow.parameter.named<"model"::"blk.11.attn_norm.weight"> : tensor<2048xf32>
    %101 = flow.tensor.constant #flow.parameter.named<"model"::"blk.11.attn_q.weight"> : tensor<2048x2176xi8>
    %102 = flow.tensor.constant #flow.parameter.named<"model"::"blk.11.attn_k.weight"> : tensor<256x2176xi8>
    %103 = flow.tensor.constant #flow.parameter.named<"model"::"blk.11.attn_v.weight"> : tensor<256x2176xi8>
    %104 = flow.tensor.constant #flow.parameter.named<"model"::"blk.11.attn_output.weight"> : tensor<2048x2176xi8>
    %105 = flow.tensor.constant #flow.parameter.named<"model"::"blk.11.ffn_norm.weight"> : tensor<2048xf32>
    %106 = flow.tensor.constant #flow.parameter.named<"model"::"blk.11.ffn_gate.weight"> : tensor<5632x2176xi8>
    %107 = flow.tensor.constant #flow.parameter.named<"model"::"blk.11.ffn_up.weight"> : tensor<5632x2176xi8>
    %108 = flow.tensor.constant #flow.parameter.named<"model"::"blk.11.ffn_down.weight"> : tensor<2048x5984xi8>
    %109 = flow.tensor.constant #flow.parameter.named<"model"::"blk.12.attn_norm.weight"> : tensor<2048xf32>
    %110 = flow.tensor.constant #flow.parameter.named<"model"::"blk.12.attn_q.weight"> : tensor<2048x2176xi8>
    %111 = flow.tensor.constant #flow.parameter.named<"model"::"blk.12.attn_k.weight"> : tensor<256x2176xi8>
    %112 = flow.tensor.constant #flow.parameter.named<"model"::"blk.12.attn_v.weight"> : tensor<256x2176xi8>
    %113 = flow.tensor.constant #flow.parameter.named<"model"::"blk.12.attn_output.weight"> : tensor<2048x2176xi8>
    %114 = flow.tensor.constant #flow.parameter.named<"model"::"blk.12.ffn_norm.weight"> : tensor<2048xf32>
    %115 = flow.tensor.constant #flow.parameter.named<"model"::"blk.12.ffn_gate.weight"> : tensor<5632x2176xi8>
    %116 = flow.tensor.constant #flow.parameter.named<"model"::"blk.12.ffn_up.weight"> : tensor<5632x2176xi8>
    %117 = flow.tensor.constant #flow.parameter.named<"model"::"blk.12.ffn_down.weight"> : tensor<2048x5984xi8>
    %118 = flow.tensor.constant #flow.parameter.named<"model"::"blk.13.attn_norm.weight"> : tensor<2048xf32>
    %119 = flow.tensor.constant #flow.parameter.named<"model"::"blk.13.attn_q.weight"> : tensor<2048x2176xi8>
    %120 = flow.tensor.constant #flow.parameter.named<"model"::"blk.13.attn_k.weight"> : tensor<256x2176xi8>
    %121 = flow.tensor.constant #flow.parameter.named<"model"::"blk.13.attn_v.weight"> : tensor<256x2176xi8>
    %122 = flow.tensor.constant #flow.parameter.named<"model"::"blk.13.attn_output.weight"> : tensor<2048x2176xi8>
    %123 = flow.tensor.constant #flow.parameter.named<"model"::"blk.13.ffn_norm.weight"> : tensor<2048xf32>
    %124 = flow.tensor.constant #flow.parameter.named<"model"::"blk.13.ffn_gate.weight"> : tensor<5632x2176xi8>
    %125 = flow.tensor.constant #flow.parameter.named<"model"::"blk.13.ffn_up.weight"> : tensor<5632x2176xi8>
    %126 = flow.tensor.constant #flow.parameter.named<"model"::"blk.13.ffn_down.weight"> : tensor<2048x5984xi8>
    %127 = flow.tensor.constant #flow.parameter.named<"model"::"blk.14.attn_norm.weight"> : tensor<2048xf32>
    %128 = flow.tensor.constant #flow.parameter.named<"model"::"blk.14.attn_q.weight"> : tensor<2048x2176xi8>
    %129 = flow.tensor.constant #flow.parameter.named<"model"::"blk.14.attn_k.weight"> : tensor<256x2176xi8>
    %130 = flow.tensor.constant #flow.parameter.named<"model"::"blk.14.attn_v.weight"> : tensor<256x2176xi8>
    %131 = flow.tensor.constant #flow.parameter.named<"model"::"blk.14.attn_output.weight"> : tensor<2048x2176xi8>
    %132 = flow.tensor.constant #flow.parameter.named<"model"::"blk.14.ffn_norm.weight"> : tensor<2048xf32>
    %133 = flow.tensor.constant #flow.parameter.named<"model"::"blk.14.ffn_gate.weight"> : tensor<5632x2176xi8>
    %134 = flow.tensor.constant #flow.parameter.named<"model"::"blk.14.ffn_up.weight"> : tensor<5632x2176xi8>
    %135 = flow.tensor.constant #flow.parameter.named<"model"::"blk.14.ffn_down.weight"> : tensor<2048x5984xi8>
    %136 = flow.tensor.constant #flow.parameter.named<"model"::"blk.15.attn_norm.weight"> : tensor<2048xf32>
    %137 = flow.tensor.constant #flow.parameter.named<"model"::"blk.15.attn_q.weight"> : tensor<2048x2176xi8>
    %138 = flow.tensor.constant #flow.parameter.named<"model"::"blk.15.attn_k.weight"> : tensor<256x2176xi8>
    %139 = flow.tensor.constant #flow.parameter.named<"model"::"blk.15.attn_v.weight"> : tensor<256x2176xi8>
    %140 = flow.tensor.constant #flow.parameter.named<"model"::"blk.15.attn_output.weight"> : tensor<2048x2176xi8>
    %141 = flow.tensor.constant #flow.parameter.named<"model"::"blk.15.ffn_norm.weight"> : tensor<2048xf32>
    %142 = flow.tensor.constant #flow.parameter.named<"model"::"blk.15.ffn_gate.weight"> : tensor<5632x2176xi8>
    %143 = flow.tensor.constant #flow.parameter.named<"model"::"blk.15.ffn_up.weight"> : tensor<5632x2176xi8>
    %144 = flow.tensor.constant #flow.parameter.named<"model"::"blk.15.ffn_down.weight"> : tensor<2048x5984xi8>
    %145 = flow.tensor.constant #flow.parameter.named<"model"::"blk.16.attn_norm.weight"> : tensor<2048xf32>
    %146 = flow.tensor.constant #flow.parameter.named<"model"::"blk.16.attn_q.weight"> : tensor<2048x2176xi8>
    %147 = flow.tensor.constant #flow.parameter.named<"model"::"blk.16.attn_k.weight"> : tensor<256x2176xi8>
    %148 = flow.tensor.constant #flow.parameter.named<"model"::"blk.16.attn_v.weight"> : tensor<256x2176xi8>
    %149 = flow.tensor.constant #flow.parameter.named<"model"::"blk.16.attn_output.weight"> : tensor<2048x2176xi8>
    %150 = flow.tensor.constant #flow.parameter.named<"model"::"blk.16.ffn_norm.weight"> : tensor<2048xf32>
    %151 = flow.tensor.constant #flow.parameter.named<"model"::"blk.16.ffn_gate.weight"> : tensor<5632x2176xi8>
    %152 = flow.tensor.constant #flow.parameter.named<"model"::"blk.16.ffn_up.weight"> : tensor<5632x2176xi8>
    %153 = flow.tensor.constant #flow.parameter.named<"model"::"blk.16.ffn_down.weight"> : tensor<2048x5984xi8>
    %154 = flow.tensor.constant #flow.parameter.named<"model"::"blk.17.attn_norm.weight"> : tensor<2048xf32>
    %155 = flow.tensor.constant #flow.parameter.named<"model"::"blk.17.attn_q.weight"> : tensor<2048x2176xi8>
    %156 = flow.tensor.constant #flow.parameter.named<"model"::"blk.17.attn_k.weight"> : tensor<256x2176xi8>
    %157 = flow.tensor.constant #flow.parameter.named<"model"::"blk.17.attn_v.weight"> : tensor<256x2176xi8>
    %158 = flow.tensor.constant #flow.parameter.named<"model"::"blk.17.attn_output.weight"> : tensor<2048x2176xi8>
    %159 = flow.tensor.constant #flow.parameter.named<"model"::"blk.17.ffn_norm.weight"> : tensor<2048xf32>
    %160 = flow.tensor.constant #flow.parameter.named<"model"::"blk.17.ffn_gate.weight"> : tensor<5632x2176xi8>
    %161 = flow.tensor.constant #flow.parameter.named<"model"::"blk.17.ffn_up.weight"> : tensor<5632x2176xi8>
    %162 = flow.tensor.constant #flow.parameter.named<"model"::"blk.17.ffn_down.weight"> : tensor<2048x5984xi8>
    %163 = flow.tensor.constant #flow.parameter.named<"model"::"blk.18.attn_norm.weight"> : tensor<2048xf32>
    %164 = flow.tensor.constant #flow.parameter.named<"model"::"blk.18.attn_q.weight"> : tensor<2048x2176xi8>
    %165 = flow.tensor.constant #flow.parameter.named<"model"::"blk.18.attn_k.weight"> : tensor<256x2176xi8>
    %166 = flow.tensor.constant #flow.parameter.named<"model"::"blk.18.attn_v.weight"> : tensor<256x2176xi8>
    %167 = flow.tensor.constant #flow.parameter.named<"model"::"blk.18.attn_output.weight"> : tensor<2048x2176xi8>
    %168 = flow.tensor.constant #flow.parameter.named<"model"::"blk.18.ffn_norm.weight"> : tensor<2048xf32>
    %169 = flow.tensor.constant #flow.parameter.named<"model"::"blk.18.ffn_gate.weight"> : tensor<5632x2176xi8>
    %170 = flow.tensor.constant #flow.parameter.named<"model"::"blk.18.ffn_up.weight"> : tensor<5632x2176xi8>
    %171 = flow.tensor.constant #flow.parameter.named<"model"::"blk.18.ffn_down.weight"> : tensor<2048x5984xi8>
    %172 = flow.tensor.constant #flow.parameter.named<"model"::"blk.19.attn_norm.weight"> : tensor<2048xf32>
    %173 = flow.tensor.constant #flow.parameter.named<"model"::"blk.19.attn_q.weight"> : tensor<2048x2176xi8>
    %174 = flow.tensor.constant #flow.parameter.named<"model"::"blk.19.attn_k.weight"> : tensor<256x2176xi8>
    %175 = flow.tensor.constant #flow.parameter.named<"model"::"blk.19.attn_v.weight"> : tensor<256x2176xi8>
    %176 = flow.tensor.constant #flow.parameter.named<"model"::"blk.19.attn_output.weight"> : tensor<2048x2176xi8>
    %177 = flow.tensor.constant #flow.parameter.named<"model"::"blk.19.ffn_norm.weight"> : tensor<2048xf32>
    %178 = flow.tensor.constant #flow.parameter.named<"model"::"blk.19.ffn_gate.weight"> : tensor<5632x2176xi8>
    %179 = flow.tensor.constant #flow.parameter.named<"model"::"blk.19.ffn_up.weight"> : tensor<5632x2176xi8>
    %180 = flow.tensor.constant #flow.parameter.named<"model"::"blk.19.ffn_down.weight"> : tensor<2048x5984xi8>
    %181 = flow.tensor.constant #flow.parameter.named<"model"::"blk.20.attn_norm.weight"> : tensor<2048xf32>
    %182 = flow.tensor.constant #flow.parameter.named<"model"::"blk.20.attn_q.weight"> : tensor<2048x2176xi8>
    %183 = flow.tensor.constant #flow.parameter.named<"model"::"blk.20.attn_k.weight"> : tensor<256x2176xi8>
    %184 = flow.tensor.constant #flow.parameter.named<"model"::"blk.20.attn_v.weight"> : tensor<256x2176xi8>
    %185 = flow.tensor.constant #flow.parameter.named<"model"::"blk.20.attn_output.weight"> : tensor<2048x2176xi8>
    %186 = flow.tensor.constant #flow.parameter.named<"model"::"blk.20.ffn_norm.weight"> : tensor<2048xf32>
    %187 = flow.tensor.constant #flow.parameter.named<"model"::"blk.20.ffn_gate.weight"> : tensor<5632x2176xi8>
    %188 = flow.tensor.constant #flow.parameter.named<"model"::"blk.20.ffn_up.weight"> : tensor<5632x2176xi8>
    %189 = flow.tensor.constant #flow.parameter.named<"model"::"blk.20.ffn_down.weight"> : tensor<2048x5984xi8>
    %190 = flow.tensor.constant #flow.parameter.named<"model"::"blk.21.attn_norm.weight"> : tensor<2048xf32>
    %191 = flow.tensor.constant #flow.parameter.named<"model"::"blk.21.attn_q.weight"> : tensor<2048x2176xi8>
    %192 = flow.tensor.constant #flow.parameter.named<"model"::"blk.21.attn_k.weight"> : tensor<256x2176xi8>
    %193 = flow.tensor.constant #flow.parameter.named<"model"::"blk.21.attn_v.weight"> : tensor<256x2176xi8>
    %194 = flow.tensor.constant #flow.parameter.named<"model"::"blk.21.attn_output.weight"> : tensor<2048x2176xi8>
    %195 = flow.tensor.constant #flow.parameter.named<"model"::"blk.21.ffn_norm.weight"> : tensor<2048xf32>
    %196 = flow.tensor.constant #flow.parameter.named<"model"::"blk.21.ffn_gate.weight"> : tensor<5632x2176xi8>
    %197 = flow.tensor.constant #flow.parameter.named<"model"::"blk.21.ffn_up.weight"> : tensor<5632x2176xi8>
    %198 = flow.tensor.constant #flow.parameter.named<"model"::"blk.21.ffn_down.weight"> : tensor<2048x5984xi8>
    %199 = flow.tensor.constant #flow.parameter.named<"model"::"output_norm.weight"> : tensor<2048xf32>
    %200 = flow.tensor.constant #flow.parameter.named<"model"::"output.weight"> : tensor<32000x2176xi8>
    %201 = hal.buffer_view.dim<%arg0 : !hal.buffer_view>[1] : index
    %202 = hal.tensor.import on(#hal.device.affinity<@__device_0>) wait(%arg4) => %arg0 : !hal.buffer_view -> tensor<4x?xi64>{%201}
    %203 = hal.tensor.import on(#hal.device.affinity<@__device_0>) wait(%arg4) => %arg1 : !hal.buffer_view -> tensor<4xi64>
    %204 = hal.buffer_view.dim<%arg2 : !hal.buffer_view>[1] : index
    %205 = hal.tensor.import on(#hal.device.affinity<@__device_0>) wait(%arg4) => %arg2 : !hal.buffer_view -> tensor<4x?xi64>{%204}
    %206 = hal.buffer_view.dim<%arg3 : !hal.buffer_view>[0] : index
    %207 = hal.tensor.import on(#hal.device.affinity<@__device_0>) wait(%arg4) => %arg3 : !hal.buffer_view -> tensor<?x360448xf16>{%206}
    %208 = arith.muli %204, %c32 : index
    %209 = util.assume.int %208<umin = 32, umax = 2016, udiv = 32> : index
    %210 = flow.tensor.tie_shape %202 : tensor<4x?xi64>{%209}
    %211 = util.assume.int %204<umin = 1, umax = 63> : index
    %212 = flow.tensor.tie_shape %205 : tensor<4x?xi64>{%211}
    %213 = util.assume.int %206<umin = 1, umax = 9007199254740991> : index
    %214 = flow.tensor.tie_shape %207 : tensor<?x360448xf16>{%213}
    %215 = iree_tensor_ext.bitcast %0 : tensor<32000x2176xi8> -> tensor<32000x1088xi16>
    %expanded = tensor.expand_shape %215 [[0], [1, 2]] output_shape [32000, 64, 17] : tensor<32000x1088xi16> into tensor<32000x64x17xi16>
    %extracted_slice = tensor.extract_slice %expanded[0, 0, 0] [32000, 64, 1] [1, 1, 1] : tensor<32000x64x17xi16> to tensor<32000x64xi16>
    %expanded_6 = tensor.expand_shape %extracted_slice [[0], [1, 2]] output_shape [32000, 64, 1] : tensor<32000x64xi16> into tensor<32000x64x1xi16>
    %216 = iree_tensor_ext.bitcast %expanded_6 : tensor<32000x64x1xi16> -> tensor<32000x64x1xf16>
    %extracted_slice_7 = tensor.extract_slice %expanded[0, 0, 1] [32000, 64, 16] [1, 1, 1] : tensor<32000x64x17xi16> to tensor<32000x64x16xi16>
    %217 = iree_tensor_ext.bitcast %extracted_slice_7 : tensor<32000x64x16xi16> -> tensor<32000x64x32xi8>
    %218 = tensor.empty() : tensor<32000x64x32xf16>
    %219 = linalg.generic {indexing_maps = [#map, #map], iterator_types = ["parallel", "parallel", "parallel"]} ins(%217 : tensor<32000x64x32xi8>) outs(%218 : tensor<32000x64x32xf16>) {
    ^bb0(%in: i8, %out: f16):
      %2625 = arith.sitofp %in : i8 to f16
      linalg.yield %2625 : f16
    } -> tensor<32000x64x32xf16>
    %collapsed = tensor.collapse_shape %216 [[0], [1, 2]] : tensor<32000x64x1xf16> into tensor<32000x64xf16>
    %220 = linalg.generic {indexing_maps = [#map1, #map, #map], iterator_types = ["parallel", "parallel", "parallel"]} ins(%collapsed, %219 : tensor<32000x64xf16>, tensor<32000x64x32xf16>) outs(%218 : tensor<32000x64x32xf16>) {
    ^bb0(%in: f16, %in_1472: f16, %out: f16):
      %2625 = arith.mulf %in, %in_1472 : f16
      linalg.yield %2625 : f16
    } -> tensor<32000x64x32xf16>
    %collapsed_8 = tensor.collapse_shape %220 [[0], [1, 2]] : tensor<32000x64x32xf16> into tensor<32000x2048xf16>
    %221 = tensor.empty(%209) : tensor<4x?x2048xf16>
    %222 = linalg.generic {indexing_maps = [#map1, #map], iterator_types = ["parallel", "parallel", "parallel"]} ins(%210 : tensor<4x?xi64>) outs(%221 : tensor<4x?x2048xf16>) {
    ^bb0(%in: i64, %out: f16):
      %2625 = arith.index_cast %in : i64 to index
      %2626 = linalg.index 2 : index
      %2627 = arith.cmpi slt, %2625, %c32000 : index
      cf.assert %2627, "index must be smaller than dim size"
      %2628 = arith.cmpi sge, %in, %c0_i64 : i64
      cf.assert %2628, "index must be larger or equal to 0"
      %extracted = tensor.extract %collapsed_8[%2625, %2626] : tensor<32000x2048xf16>
      linalg.yield %extracted : f16
    } -> tensor<4x?x2048xf16>
    %223 = tensor.empty(%209) : tensor<4x?x2048xf32>
    %224 = linalg.generic {indexing_maps = [#map, #map], iterator_types = ["parallel", "parallel", "parallel"]} ins(%222 : tensor<4x?x2048xf16>) outs(%223 : tensor<4x?x2048xf32>) {
    ^bb0(%in: f16, %out: f32):
      %2625 = arith.extf %in : f16 to f32
      linalg.yield %2625 : f32
    } -> tensor<4x?x2048xf32>
    %225 = linalg.generic {indexing_maps = [#map, #map], iterator_types = ["parallel", "parallel", "parallel"]} ins(%224 : tensor<4x?x2048xf32>) outs(%223 : tensor<4x?x2048xf32>) {
    ^bb0(%in: f32, %out: f32):
      %2625 = math.fpowi %in, %c2_i64 : f32, i64
      linalg.yield %2625 : f32
    } -> tensor<4x?x2048xf32>
    %226 = tensor.empty(%209) : tensor<4x?xf32>
    %227 = linalg.fill ins(%cst_2 : f32) outs(%226 : tensor<4x?xf32>) -> tensor<4x?xf32>
    %228 = linalg.generic {indexing_maps = [#map, #map1], iterator_types = ["parallel", "parallel", "reduction"]} ins(%225 : tensor<4x?x2048xf32>) outs(%227 : tensor<4x?xf32>) {
    ^bb0(%in: f32, %out: f32):
      %2625 = arith.addf %in, %out : f32
      linalg.yield %2625 : f32
    } -> tensor<4x?xf32>
    %229 = linalg.generic {indexing_maps = [#map2, #map2], iterator_types = ["parallel", "parallel"]} ins(%228 : tensor<4x?xf32>) outs(%226 : tensor<4x?xf32>) {
    ^bb0(%in: f32, %out: f32):
      %2625 = arith.divf %in, %cst_0 : f32
      linalg.yield %2625 : f32
    } -> tensor<4x?xf32>
    %230 = linalg.generic {indexing_maps = [#map2, #map2], iterator_types = ["parallel", "parallel"]} ins(%229 : tensor<4x?xf32>) outs(%226 : tensor<4x?xf32>) {
    ^bb0(%in: f32, %out: f32):
      %2625 = arith.addf %in, %cst : f32
      linalg.yield %2625 : f32
    } -> tensor<4x?xf32>
    %231 = linalg.generic {indexing_maps = [#map2, #map2], iterator_types = ["parallel", "parallel"]} ins(%230 : tensor<4x?xf32>) outs(%226 : tensor<4x?xf32>) {
    ^bb0(%in: f32, %out: f32):
      %2625 = math.rsqrt %in : f32
      linalg.yield %2625 : f32
    } -> tensor<4x?xf32>
    %232 = linalg.generic {indexing_maps = [#map, #map1, #map], iterator_types = ["parallel", "parallel", "parallel"]} ins(%224, %231 : tensor<4x?x2048xf32>, tensor<4x?xf32>) outs(%223 : tensor<4x?x2048xf32>) {
    ^bb0(%in: f32, %in_1472: f32, %out: f32):
      %2625 = arith.mulf %in, %in_1472 : f32
      linalg.yield %2625 : f32
    } -> tensor<4x?x2048xf32>
    %233 = linalg.generic {indexing_maps = [#map, #map], iterator_types = ["parallel", "parallel", "parallel"]} ins(%232 : tensor<4x?x2048xf32>) outs(%221 : tensor<4x?x2048xf16>) {
    ^bb0(%in: f32, %out: f16):
      %2625 = arith.truncf %in : f32 to f16
      linalg.yield %2625 : f16
    } -> tensor<4x?x2048xf16>
    %234 = linalg.generic {indexing_maps = [#map3, #map, #map], iterator_types = ["parallel", "parallel", "parallel"]} ins(%1, %233 : tensor<2048xf32>, tensor<4x?x2048xf16>) outs(%223 : tensor<4x?x2048xf32>) {
    ^bb0(%in: f32, %in_1472: f16, %out: f32):
      %2625 = arith.extf %in_1472 : f16 to f32
      %2626 = arith.mulf %in, %2625 : f32
      linalg.yield %2626 : f32
    } -> tensor<4x?x2048xf32>
    %235 = linalg.generic {indexing_maps = [#map, #map], iterator_types = ["parallel", "parallel", "parallel"]} ins(%234 : tensor<4x?x2048xf32>) outs(%221 : tensor<4x?x2048xf16>) {
    ^bb0(%in: f32, %out: f16):
      %2625 = arith.truncf %in : f32 to f16
      linalg.yield %2625 : f16
    } -> tensor<4x?x2048xf16>
    %236 = iree_tensor_ext.bitcast %2 : tensor<2048x2176xi8> -> tensor<2048x1088xi16>
    %expanded_9 = tensor.expand_shape %236 [[0], [1, 2]] output_shape [2048, 64, 17] : tensor<2048x1088xi16> into tensor<2048x64x17xi16>
    %extracted_slice_10 = tensor.extract_slice %expanded_9[0, 0, 0] [2048, 64, 1] [1, 1, 1] : tensor<2048x64x17xi16> to tensor<2048x64xi16>
    %expanded_11 = tensor.expand_shape %extracted_slice_10 [[0], [1, 2]] output_shape [2048, 64, 1] : tensor<2048x64xi16> into tensor<2048x64x1xi16>
    %237 = iree_tensor_ext.bitcast %expanded_11 : tensor<2048x64x1xi16> -> tensor<2048x64x1xf16>
    %extracted_slice_12 = tensor.extract_slice %expanded_9[0, 0, 1] [2048, 64, 16] [1, 1, 1] : tensor<2048x64x17xi16> to tensor<2048x64x16xi16>
    %238 = iree_tensor_ext.bitcast %extracted_slice_12 : tensor<2048x64x16xi16> -> tensor<2048x64x32xi8>
    %239 = tensor.empty() : tensor<2048x64x32xf16>
    %collapsed_13 = tensor.collapse_shape %237 [[0], [1, 2]] : tensor<2048x64x1xf16> into tensor<2048x64xf16>
    %240 = linalg.generic {indexing_maps = [#map1, #map, #map], iterator_types = ["parallel", "parallel", "parallel"]} ins(%collapsed_13, %238 : tensor<2048x64xf16>, tensor<2048x64x32xi8>) outs(%239 : tensor<2048x64x32xf16>) {
    ^bb0(%in: f16, %in_1472: i8, %out: f16):
      %2625 = arith.extsi %in_1472 : i8 to i32
      %2626 = arith.sitofp %2625 : i32 to f16
      %2627 = arith.mulf %2626, %in : f16
      linalg.yield %2627 : f16
    } -> tensor<2048x64x32xf16>
    %expanded_14 = tensor.expand_shape %235 [[0], [1], [2, 3]] output_shape [4, %209, 64, 32] : tensor<4x?x2048xf16> into tensor<4x?x64x32xf16>
    %241 = linalg.fill ins(%cst_2 : f32) outs(%223 : tensor<4x?x2048xf32>) -> tensor<4x?x2048xf32>
    %242 = linalg.generic {indexing_maps = [#map4, #map5, #map6], iterator_types = ["parallel", "parallel", "parallel", "reduction", "reduction"]} ins(%expanded_14, %240 : tensor<4x?x64x32xf16>, tensor<2048x64x32xf16>) outs(%241 : tensor<4x?x2048xf32>) {
    ^bb0(%in: f16, %in_1472: f16, %out: f32):
      %2625 = arith.mulf %in, %in_1472 : f16
      %2626 = arith.extf %2625 : f16 to f32
      %2627 = arith.addf %2626, %out : f32
      linalg.yield %2627 : f32
    } -> tensor<4x?x2048xf32>
    %243 = linalg.generic {indexing_maps = [#map, #map], iterator_types = ["parallel", "parallel", "parallel"]} ins(%242 : tensor<4x?x2048xf32>) outs(%221 : tensor<4x?x2048xf16>) {
    ^bb0(%in: f32, %out: f16):
      %2625 = arith.truncf %in : f32 to f16
      linalg.yield %2625 : f16
    } -> tensor<4x?x2048xf16>
    %244 = iree_tensor_ext.bitcast %3 : tensor<256x2176xi8> -> tensor<256x1088xi16>
    %expanded_15 = tensor.expand_shape %244 [[0], [1, 2]] output_shape [256, 64, 17] : tensor<256x1088xi16> into tensor<256x64x17xi16>
    %extracted_slice_16 = tensor.extract_slice %expanded_15[0, 0, 0] [256, 64, 1] [1, 1, 1] : tensor<256x64x17xi16> to tensor<256x64xi16>
    %expanded_17 = tensor.expand_shape %extracted_slice_16 [[0], [1, 2]] output_shape [256, 64, 1] : tensor<256x64xi16> into tensor<256x64x1xi16>
    %245 = iree_tensor_ext.bitcast %expanded_17 : tensor<256x64x1xi16> -> tensor<256x64x1xf16>
    %extracted_slice_18 = tensor.extract_slice %expanded_15[0, 0, 1] [256, 64, 16] [1, 1, 1] : tensor<256x64x17xi16> to tensor<256x64x16xi16>
    %246 = iree_tensor_ext.bitcast %extracted_slice_18 : tensor<256x64x16xi16> -> tensor<256x64x32xi8>
    %247 = tensor.empty() : tensor<256x64x32xf16>
    %collapsed_19 = tensor.collapse_shape %245 [[0], [1, 2]] : tensor<256x64x1xf16> into tensor<256x64xf16>
    %248 = linalg.generic {indexing_maps = [#map1, #map, #map], iterator_types = ["parallel", "parallel", "parallel"]} ins(%collapsed_19, %246 : tensor<256x64xf16>, tensor<256x64x32xi8>) outs(%247 : tensor<256x64x32xf16>) {
    ^bb0(%in: f16, %in_1472: i8, %out: f16):
      %2625 = arith.extsi %in_1472 : i8 to i32
      %2626 = arith.sitofp %2625 : i32 to f16
      %2627 = arith.mulf %2626, %in : f16
      linalg.yield %2627 : f16
    } -> tensor<256x64x32xf16>
    %249 = tensor.empty(%209) : tensor<4x?x256xf32>
    %250 = linalg.fill ins(%cst_2 : f32) outs(%249 : tensor<4x?x256xf32>) -> tensor<4x?x256xf32>
    %251 = linalg.generic {indexing_maps = [#map4, #map5, #map6], iterator_types = ["parallel", "parallel", "parallel", "reduction", "reduction"]} ins(%expanded_14, %248 : tensor<4x?x64x32xf16>, tensor<256x64x32xf16>) outs(%250 : tensor<4x?x256xf32>) {
    ^bb0(%in: f16, %in_1472: f16, %out: f32):
      %2625 = arith.mulf %in, %in_1472 : f16
      %2626 = arith.extf %2625 : f16 to f32
      %2627 = arith.addf %2626, %out : f32
      linalg.yield %2627 : f32
    } -> tensor<4x?x256xf32>
    %252 = tensor.empty(%209) : tensor<4x?x256xf16>
    %253 = linalg.generic {indexing_maps = [#map, #map], iterator_types = ["parallel", "parallel", "parallel"]} ins(%251 : tensor<4x?x256xf32>) outs(%252 : tensor<4x?x256xf16>) {
    ^bb0(%in: f32, %out: f16):
      %2625 = arith.truncf %in : f32 to f16
      linalg.yield %2625 : f16
    } -> tensor<4x?x256xf16>
    %254 = iree_tensor_ext.bitcast %4 : tensor<256x2176xi8> -> tensor<256x1088xi16>
    %expanded_20 = tensor.expand_shape %254 [[0], [1, 2]] output_shape [256, 64, 17] : tensor<256x1088xi16> into tensor<256x64x17xi16>
    %extracted_slice_21 = tensor.extract_slice %expanded_20[0, 0, 0] [256, 64, 1] [1, 1, 1] : tensor<256x64x17xi16> to tensor<256x64xi16>
    %expanded_22 = tensor.expand_shape %extracted_slice_21 [[0], [1, 2]] output_shape [256, 64, 1] : tensor<256x64xi16> into tensor<256x64x1xi16>
    %255 = iree_tensor_ext.bitcast %expanded_22 : tensor<256x64x1xi16> -> tensor<256x64x1xf16>
    %extracted_slice_23 = tensor.extract_slice %expanded_20[0, 0, 1] [256, 64, 16] [1, 1, 1] : tensor<256x64x17xi16> to tensor<256x64x16xi16>
    %256 = iree_tensor_ext.bitcast %extracted_slice_23 : tensor<256x64x16xi16> -> tensor<256x64x32xi8>
    %collapsed_24 = tensor.collapse_shape %255 [[0], [1, 2]] : tensor<256x64x1xf16> into tensor<256x64xf16>
    %257 = linalg.generic {indexing_maps = [#map1, #map, #map], iterator_types = ["parallel", "parallel", "parallel"]} ins(%collapsed_24, %256 : tensor<256x64xf16>, tensor<256x64x32xi8>) outs(%247 : tensor<256x64x32xf16>) {
    ^bb0(%in: f16, %in_1472: i8, %out: f16):
      %2625 = arith.extsi %in_1472 : i8 to i32
      %2626 = arith.sitofp %2625 : i32 to f16
      %2627 = arith.mulf %2626, %in : f16
      linalg.yield %2627 : f16
    } -> tensor<256x64x32xf16>
    %258 = linalg.generic {indexing_maps = [#map4, #map5, #map6], iterator_types = ["parallel", "parallel", "parallel", "reduction", "reduction"]} ins(%expanded_14, %257 : tensor<4x?x64x32xf16>, tensor<256x64x32xf16>) outs(%250 : tensor<4x?x256xf32>) {
    ^bb0(%in: f16, %in_1472: f16, %out: f32):
      %2625 = arith.mulf %in, %in_1472 : f16
      %2626 = arith.extf %2625 : f16 to f32
      %2627 = arith.addf %2626, %out : f32
      linalg.yield %2627 : f32
    } -> tensor<4x?x256xf32>
    %259 = linalg.generic {indexing_maps = [#map, #map], iterator_types = ["parallel", "parallel", "parallel"]} ins(%258 : tensor<4x?x256xf32>) outs(%252 : tensor<4x?x256xf16>) {
    ^bb0(%in: f32, %out: f16):
      %2625 = arith.truncf %in : f32 to f16
      linalg.yield %2625 : f16
    } -> tensor<4x?x256xf16>
    %expanded_25 = tensor.expand_shape %243 [[0], [1], [2, 3]] output_shape [4, %209, 32, 64] : tensor<4x?x2048xf16> into tensor<4x?x32x64xf16>
    %expanded_26 = tensor.expand_shape %253 [[0], [1], [2, 3]] output_shape [4, %209, 4, 64] : tensor<4x?x256xf16> into tensor<4x?x4x64xf16>
    %expanded_27 = tensor.expand_shape %259 [[0], [1], [2, 3]] output_shape [4, %209, 4, 64] : tensor<4x?x256xf16> into tensor<4x?x4x64xf16>
    %260 = tensor.empty(%209) : tensor<?xi64>
    %261 = linalg.generic {indexing_maps = [#map7], iterator_types = ["parallel"]} outs(%260 : tensor<?xi64>) {
    ^bb0(%out: i64):
      %2625 = linalg.index 0 : index
      %2626 = arith.index_cast %2625 : index to i64
      linalg.yield %2626 : i64
    } -> tensor<?xi64>
    %__hoisted_tensor_32xf32_0 = util.global.load immutable @__hoisted_tensor_32xf32_0 : tensor<32xf32>
    %262 = tensor.empty(%209) : tensor<?xf32>
    %263 = linalg.generic {indexing_maps = [#map7, #map7], iterator_types = ["parallel"]} ins(%261 : tensor<?xi64>) outs(%262 : tensor<?xf32>) {
    ^bb0(%in: i64, %out: f32):
      %2625 = arith.sitofp %in : i64 to f32
      linalg.yield %2625 : f32
    } -> tensor<?xf32>
    %expanded_28 = tensor.expand_shape %263 [[0, 1, 2]] output_shape [1, 1, %209] : tensor<?xf32> into tensor<1x1x?xf32>
    %expanded_29 = tensor.expand_shape %__hoisted_tensor_32xf32_0 [[0, 1, 2, 3, 4]] output_shape [1, 4, 1, 8, 1] : tensor<32xf32> into tensor<1x4x1x8x1xf32>
    %264 = arith.subi %209, %c1 : index
    %265 = arith.divui %264, %c8 : index
    %266 = arith.addi %265, %c1 : index
    %267 = tensor.empty(%266) : tensor<1x?x1x8x1xf32>
    %pack = linalg.pack %expanded_28 padding_value(%cst_2 : f32) outer_dims_perm = [0, 2, 1] inner_dims_pos = [2, 1] inner_tiles = [8, 1] into %267 : tensor<1x1x?xf32> -> tensor<1x?x1x8x1xf32>
    %268 = tensor.empty(%266) : tensor<1x4x?x8x8xf32>
    %269 = linalg.fill ins(%cst_2 : f32) outs(%268 : tensor<1x4x?x8x8xf32>) -> tensor<1x4x?x8x8xf32>
    %270 = linalg.batch_mmt4d ins(%expanded_29, %pack : tensor<1x4x1x8x1xf32>, tensor<1x?x1x8x1xf32>) outs(%269 : tensor<1x4x?x8x8xf32>) -> tensor<1x4x?x8x8xf32>
    %271 = tensor.empty(%209) : tensor<?x32xf32>
    %272 = tensor.empty(%209) : tensor<?x1x32xf32>
    %unpack = linalg.unpack %270 outer_dims_perm = [1, 2, 0] inner_dims_pos = [2, 0] inner_tiles = [8, 8] into %272 : tensor<1x4x?x8x8xf32> -> tensor<?x1x32xf32>
    %273 = linalg.generic {indexing_maps = [#map, #map], iterator_types = ["parallel", "parallel", "parallel"]} ins(%unpack : tensor<?x1x32xf32>) outs(%272 : tensor<?x1x32xf32>) {
    ^bb0(%in: f32, %out: f32):
      %2625 = math.cos %in : f32
      linalg.yield %2625 : f32
    } -> tensor<?x1x32xf32>
    %collapsed_30 = tensor.collapse_shape %273 [[0], [1, 2]] : tensor<?x1x32xf32> into tensor<?x32xf32>
    %274 = linalg.generic {indexing_maps = [#map2, #map8, #map2], iterator_types = ["parallel", "parallel"]} ins(%collapsed_30, %cst_3 : tensor<?x32xf32>, tensor<f32>) outs(%271 : tensor<?x32xf32>) {
    ^bb0(%in: f32, %in_1472: f32, %out: f32):
      %2625 = arith.mulf %in, %in_1472 : f32
      linalg.yield %2625 : f32
    } -> tensor<?x32xf32>
    %275 = tensor.empty(%209) : tensor<?x32xf16>
    %276 = linalg.generic {indexing_maps = [#map2, #map2], iterator_types = ["parallel", "parallel"]} ins(%274 : tensor<?x32xf32>) outs(%275 : tensor<?x32xf16>) {
    ^bb0(%in: f32, %out: f16):
      %2625 = arith.truncf %in : f32 to f16
      linalg.yield %2625 : f16
    } -> tensor<?x32xf16>
    %277 = linalg.generic {indexing_maps = [#map, #map], iterator_types = ["parallel", "parallel", "parallel"]} ins(%unpack : tensor<?x1x32xf32>) outs(%272 : tensor<?x1x32xf32>) {
    ^bb0(%in: f32, %out: f32):
      %2625 = math.sin %in : f32
      linalg.yield %2625 : f32
    } -> tensor<?x1x32xf32>
    %collapsed_31 = tensor.collapse_shape %277 [[0], [1, 2]] : tensor<?x1x32xf32> into tensor<?x32xf32>
    %278 = linalg.generic {indexing_maps = [#map2, #map8, #map2], iterator_types = ["parallel", "parallel"]} ins(%collapsed_31, %cst_3 : tensor<?x32xf32>, tensor<f32>) outs(%271 : tensor<?x32xf32>) {
    ^bb0(%in: f32, %in_1472: f32, %out: f32):
      %2625 = arith.mulf %in, %in_1472 : f32
      linalg.yield %2625 : f32
    } -> tensor<?x32xf32>
    %279 = linalg.generic {indexing_maps = [#map2, #map2], iterator_types = ["parallel", "parallel"]} ins(%278 : tensor<?x32xf32>) outs(%275 : tensor<?x32xf16>) {
    ^bb0(%in: f32, %out: f16):
      %2625 = arith.truncf %in : f32 to f16
      linalg.yield %2625 : f16
    } -> tensor<?x32xf16>
    %extracted_slice_32 = tensor.extract_slice %expanded_25[0, 0, 0, 0] [4, %209, 32, 32] [1, 1, 1, 2] : tensor<4x?x32x64xf16> to tensor<4x?x32x32xf16>
    %extracted_slice_33 = tensor.extract_slice %expanded_25[0, 0, 0, 1] [4, %209, 32, 32] [1, 1, 1, 2] : tensor<4x?x32x64xf16> to tensor<4x?x32x32xf16>
    %280 = tensor.empty(%209) : tensor<4x?x32x32xf16>
    %281 = linalg.generic {indexing_maps = [#map9, #map10, #map9], iterator_types = ["parallel", "parallel", "parallel", "parallel"]} ins(%extracted_slice_32, %276 : tensor<4x?x32x32xf16>, tensor<?x32xf16>) outs(%280 : tensor<4x?x32x32xf16>) {
    ^bb0(%in: f16, %in_1472: f16, %out: f16):
      %2625 = arith.mulf %in, %in_1472 : f16
      linalg.yield %2625 : f16
    } -> tensor<4x?x32x32xf16>
    %282 = linalg.generic {indexing_maps = [#map9, #map10, #map9], iterator_types = ["parallel", "parallel", "parallel", "parallel"]} ins(%extracted_slice_33, %279 : tensor<4x?x32x32xf16>, tensor<?x32xf16>) outs(%280 : tensor<4x?x32x32xf16>) {
    ^bb0(%in: f16, %in_1472: f16, %out: f16):
      %2625 = arith.mulf %in, %in_1472 : f16
      linalg.yield %2625 : f16
    } -> tensor<4x?x32x32xf16>
    %283 = linalg.generic {indexing_maps = [#map9, #map9, #map9], iterator_types = ["parallel", "parallel", "parallel", "parallel"]} ins(%281, %282 : tensor<4x?x32x32xf16>, tensor<4x?x32x32xf16>) outs(%280 : tensor<4x?x32x32xf16>) {
    ^bb0(%in: f16, %in_1472: f16, %out: f16):
      %2625 = arith.subf %in, %in_1472 : f16
      linalg.yield %2625 : f16
    } -> tensor<4x?x32x32xf16>
    %284 = linalg.generic {indexing_maps = [#map9, #map10, #map9], iterator_types = ["parallel", "parallel", "parallel", "parallel"]} ins(%extracted_slice_33, %276 : tensor<4x?x32x32xf16>, tensor<?x32xf16>) outs(%280 : tensor<4x?x32x32xf16>) {
    ^bb0(%in: f16, %in_1472: f16, %out: f16):
      %2625 = arith.mulf %in, %in_1472 : f16
      linalg.yield %2625 : f16
    } -> tensor<4x?x32x32xf16>
    %285 = linalg.generic {indexing_maps = [#map9, #map10, #map9], iterator_types = ["parallel", "parallel", "parallel", "parallel"]} ins(%extracted_slice_32, %279 : tensor<4x?x32x32xf16>, tensor<?x32xf16>) outs(%280 : tensor<4x?x32x32xf16>) {
    ^bb0(%in: f16, %in_1472: f16, %out: f16):
      %2625 = arith.mulf %in, %in_1472 : f16
      linalg.yield %2625 : f16
    } -> tensor<4x?x32x32xf16>
    %286 = linalg.generic {indexing_maps = [#map9, #map9, #map9], iterator_types = ["parallel", "parallel", "parallel", "parallel"]} ins(%284, %285 : tensor<4x?x32x32xf16>, tensor<4x?x32x32xf16>) outs(%280 : tensor<4x?x32x32xf16>) {
    ^bb0(%in: f16, %in_1472: f16, %out: f16):
      %2625 = arith.addf %in, %in_1472 : f16
      linalg.yield %2625 : f16
    } -> tensor<4x?x32x32xf16>
    %__hoisted_tensor_32xf32_1 = util.global.load immutable @__hoisted_tensor_32xf32_1 : tensor<32xf32>
    %expanded_34 = tensor.expand_shape %__hoisted_tensor_32xf32_1 [[0, 1, 2, 3, 4]] output_shape [1, 4, 1, 8, 1] : tensor<32xf32> into tensor<1x4x1x8x1xf32>
    %287 = linalg.batch_mmt4d ins(%expanded_34, %pack : tensor<1x4x1x8x1xf32>, tensor<1x?x1x8x1xf32>) outs(%269 : tensor<1x4x?x8x8xf32>) -> tensor<1x4x?x8x8xf32>
    %unpack_35 = linalg.unpack %287 outer_dims_perm = [1, 2, 0] inner_dims_pos = [2, 0] inner_tiles = [8, 8] into %272 : tensor<1x4x?x8x8xf32> -> tensor<?x1x32xf32>
    %288 = linalg.generic {indexing_maps = [#map, #map], iterator_types = ["parallel", "parallel", "parallel"]} ins(%unpack_35 : tensor<?x1x32xf32>) outs(%272 : tensor<?x1x32xf32>) {
    ^bb0(%in: f32, %out: f32):
      %2625 = math.cos %in : f32
      linalg.yield %2625 : f32
    } -> tensor<?x1x32xf32>
    %collapsed_36 = tensor.collapse_shape %288 [[0], [1, 2]] : tensor<?x1x32xf32> into tensor<?x32xf32>
    %289 = linalg.generic {indexing_maps = [#map2, #map8, #map2], iterator_types = ["parallel", "parallel"]} ins(%collapsed_36, %cst_3 : tensor<?x32xf32>, tensor<f32>) outs(%271 : tensor<?x32xf32>) {
    ^bb0(%in: f32, %in_1472: f32, %out: f32):
      %2625 = arith.mulf %in, %in_1472 : f32
      linalg.yield %2625 : f32
    } -> tensor<?x32xf32>
    %290 = linalg.generic {indexing_maps = [#map2, #map2], iterator_types = ["parallel", "parallel"]} ins(%289 : tensor<?x32xf32>) outs(%275 : tensor<?x32xf16>) {
    ^bb0(%in: f32, %out: f16):
      %2625 = arith.truncf %in : f32 to f16
      linalg.yield %2625 : f16
    } -> tensor<?x32xf16>
    %291 = linalg.generic {indexing_maps = [#map, #map], iterator_types = ["parallel", "parallel", "parallel"]} ins(%unpack_35 : tensor<?x1x32xf32>) outs(%272 : tensor<?x1x32xf32>) {
    ^bb0(%in: f32, %out: f32):
      %2625 = math.sin %in : f32
      linalg.yield %2625 : f32
    } -> tensor<?x1x32xf32>
    %collapsed_37 = tensor.collapse_shape %291 [[0], [1, 2]] : tensor<?x1x32xf32> into tensor<?x32xf32>
    %292 = linalg.generic {indexing_maps = [#map2, #map8, #map2], iterator_types = ["parallel", "parallel"]} ins(%collapsed_37, %cst_3 : tensor<?x32xf32>, tensor<f32>) outs(%271 : tensor<?x32xf32>) {
    ^bb0(%in: f32, %in_1472: f32, %out: f32):
      %2625 = arith.mulf %in, %in_1472 : f32
      linalg.yield %2625 : f32
    } -> tensor<?x32xf32>
    %293 = linalg.generic {indexing_maps = [#map2, #map2], iterator_types = ["parallel", "parallel"]} ins(%292 : tensor<?x32xf32>) outs(%275 : tensor<?x32xf16>) {
    ^bb0(%in: f32, %out: f16):
      %2625 = arith.truncf %in : f32 to f16
      linalg.yield %2625 : f16
    } -> tensor<?x32xf16>
    %extracted_slice_38 = tensor.extract_slice %expanded_26[0, 0, 0, 0] [4, %209, 4, 32] [1, 1, 1, 2] : tensor<4x?x4x64xf16> to tensor<4x?x4x32xf16>
    %extracted_slice_39 = tensor.extract_slice %expanded_26[0, 0, 0, 1] [4, %209, 4, 32] [1, 1, 1, 2] : tensor<4x?x4x64xf16> to tensor<4x?x4x32xf16>
    %294 = tensor.empty(%209) : tensor<4x?x4x32xf16>
    %295 = linalg.generic {indexing_maps = [#map9, #map10, #map9], iterator_types = ["parallel", "parallel", "parallel", "parallel"]} ins(%extracted_slice_38, %290 : tensor<4x?x4x32xf16>, tensor<?x32xf16>) outs(%294 : tensor<4x?x4x32xf16>) {
    ^bb0(%in: f16, %in_1472: f16, %out: f16):
      %2625 = arith.mulf %in, %in_1472 : f16
      linalg.yield %2625 : f16
    } -> tensor<4x?x4x32xf16>
    %296 = linalg.generic {indexing_maps = [#map9, #map10, #map9], iterator_types = ["parallel", "parallel", "parallel", "parallel"]} ins(%extracted_slice_39, %293 : tensor<4x?x4x32xf16>, tensor<?x32xf16>) outs(%294 : tensor<4x?x4x32xf16>) {
    ^bb0(%in: f16, %in_1472: f16, %out: f16):
      %2625 = arith.mulf %in, %in_1472 : f16
      linalg.yield %2625 : f16
    } -> tensor<4x?x4x32xf16>
    %297 = linalg.generic {indexing_maps = [#map9, #map9, #map9], iterator_types = ["parallel", "parallel", "parallel", "parallel"]} ins(%295, %296 : tensor<4x?x4x32xf16>, tensor<4x?x4x32xf16>) outs(%294 : tensor<4x?x4x32xf16>) {
    ^bb0(%in: f16, %in_1472: f16, %out: f16):
      %2625 = arith.subf %in, %in_1472 : f16
      linalg.yield %2625 : f16
    } -> tensor<4x?x4x32xf16>
    %298 = linalg.generic {indexing_maps = [#map9, #map10, #map9], iterator_types = ["parallel", "parallel", "parallel", "parallel"]} ins(%extracted_slice_39, %290 : tensor<4x?x4x32xf16>, tensor<?x32xf16>) outs(%294 : tensor<4x?x4x32xf16>) {
    ^bb0(%in: f16, %in_1472: f16, %out: f16):
      %2625 = arith.mulf %in, %in_1472 : f16
      linalg.yield %2625 : f16
    } -> tensor<4x?x4x32xf16>
    %299 = linalg.generic {indexing_maps = [#map9, #map10, #map9], iterator_types = ["parallel", "parallel", "parallel", "parallel"]} ins(%extracted_slice_38, %293 : tensor<4x?x4x32xf16>, tensor<?x32xf16>) outs(%294 : tensor<4x?x4x32xf16>) {
    ^bb0(%in: f16, %in_1472: f16, %out: f16):
      %2625 = arith.mulf %in, %in_1472 : f16
      linalg.yield %2625 : f16
    } -> tensor<4x?x4x32xf16>
    %300 = linalg.generic {indexing_maps = [#map9, #map9, #map9], iterator_types = ["parallel", "parallel", "parallel", "parallel"]} ins(%298, %299 : tensor<4x?x4x32xf16>, tensor<4x?x4x32xf16>) outs(%294 : tensor<4x?x4x32xf16>) {
    ^bb0(%in: f16, %in_1472: f16, %out: f16):
      %2625 = arith.addf %in, %in_1472 : f16
      linalg.yield %2625 : f16
    } -> tensor<4x?x4x32xf16>
    %301 = tensor.empty(%209) : tensor<4x?x4x2x32xf16>
    %302 = linalg.generic {indexing_maps = [#map11, #map11, #map12], iterator_types = ["parallel", "parallel", "parallel", "parallel", "parallel"]} ins(%297, %300 : tensor<4x?x4x32xf16>, tensor<4x?x4x32xf16>) outs(%301 : tensor<4x?x4x2x32xf16>) {
    ^bb0(%in: f16, %in_1472: f16, %out: f16):
      %2625 = linalg.index 3 : index
      %2626 = arith.cmpi eq, %2625, %c0 : index
      %2627 = arith.select %2626, %in, %in_1472 : f16
      linalg.yield %2627 : f16
    } -> tensor<4x?x4x2x32xf16>
    %collapsed_40 = tensor.collapse_shape %302 [[0], [1], [2], [3, 4]] : tensor<4x?x4x2x32xf16> into tensor<4x?x4x64xf16>
    %expanded_41 = tensor.expand_shape %214 [[0], [1, 2, 3, 4, 5]] output_shape [%213, 22, 2, 4, 32, 64] : tensor<?x360448xf16> into tensor<?x22x2x4x32x64xf16>
    %collapsed_42 = tensor.collapse_shape %expanded_41 [[0, 1, 2], [3], [4], [5]] : tensor<?x22x2x4x32x64xf16> into tensor<?x4x32x64xf16>
    %303 = tensor.empty(%211) : tensor<4x?xi64>
    %304 = linalg.generic {indexing_maps = [#map2, #map2], iterator_types = ["parallel", "parallel"]} ins(%212 : tensor<4x?xi64>) outs(%303 : tensor<4x?xi64>) {
    ^bb0(%in: i64, %out: i64):
      %2625 = arith.muli %in, %c22_i64 : i64
      linalg.yield %2625 : i64
    } -> tensor<4x?xi64>
    %305 = linalg.generic {indexing_maps = [#map2, #map2], iterator_types = ["parallel", "parallel"]} ins(%304 : tensor<4x?xi64>) outs(%303 : tensor<4x?xi64>) {
    ^bb0(%in: i64, %out: i64):
      %2625 = arith.muli %in, %c2_i64 : i64
      linalg.yield %2625 : i64
    } -> tensor<4x?xi64>
    %collapsed_43 = tensor.collapse_shape %305 [[0, 1]] : tensor<4x?xi64> into tensor<?xi64>
    %306 = arith.divui %209, %c32 : index
    %expanded_44 = tensor.expand_shape %collapsed_40 [[0], [1, 2], [3], [4]] output_shape [4, %306, 32, 4, 64] : tensor<4x?x4x64xf16> into tensor<4x?x32x4x64xf16>
    %307 = tensor.empty(%306) : tensor<4x?x4x32x64xf16>
    %308 = linalg.generic {indexing_maps = [#map13, #map12], iterator_types = ["parallel", "parallel", "parallel", "parallel", "parallel"]} ins(%expanded_44 : tensor<4x?x32x4x64xf16>) outs(%307 : tensor<4x?x4x32x64xf16>) {
    ^bb0(%in: f16, %out: f16):
      linalg.yield %in : f16
    } -> tensor<4x?x4x32x64xf16>
    %collapsed_45 = tensor.collapse_shape %308 [[0, 1], [2], [3], [4]] : tensor<4x?x4x32x64xf16> into tensor<?x4x32x64xf16>
    %309 = iree_linalg_ext.scatter dimension_map = [0] unique_indices(true) ins(%collapsed_45, %collapsed_43 : tensor<?x4x32x64xf16>, tensor<?xi64>) outs(%collapsed_42 : tensor<?x4x32x64xf16>) {
    ^bb0(%arg6: f16, %arg7: f16):
      iree_linalg_ext.yield %arg6 : f16
    } -> tensor<?x4x32x64xf16>
    %310 = linalg.generic {indexing_maps = [#map2, #map2], iterator_types = ["parallel", "parallel"]} ins(%305 : tensor<4x?xi64>) outs(%303 : tensor<4x?xi64>) {
    ^bb0(%in: i64, %out: i64):
      %2625 = arith.addi %in, %c1_i64 : i64
      linalg.yield %2625 : i64
    } -> tensor<4x?xi64>
    %collapsed_46 = tensor.collapse_shape %310 [[0, 1]] : tensor<4x?xi64> into tensor<?xi64>
    %expanded_47 = tensor.expand_shape %259 [[0], [1, 2], [3, 4]] output_shape [4, %306, 32, 4, 64] : tensor<4x?x256xf16> into tensor<4x?x32x4x64xf16>
    %311 = linalg.generic {indexing_maps = [#map13, #map12], iterator_types = ["parallel", "parallel", "parallel", "parallel", "parallel"]} ins(%expanded_47 : tensor<4x?x32x4x64xf16>) outs(%307 : tensor<4x?x4x32x64xf16>) {
    ^bb0(%in: f16, %out: f16):
      linalg.yield %in : f16
    } -> tensor<4x?x4x32x64xf16>
    %collapsed_48 = tensor.collapse_shape %311 [[0, 1], [2], [3], [4]] : tensor<4x?x4x32x64xf16> into tensor<?x4x32x64xf16>
    %312 = iree_linalg_ext.scatter dimension_map = [0] unique_indices(true) ins(%collapsed_48, %collapsed_46 : tensor<?x4x32x64xf16>, tensor<?xi64>) outs(%309 : tensor<?x4x32x64xf16>) {
    ^bb0(%arg6: f16, %arg7: f16):
      iree_linalg_ext.yield %arg6 : f16
    } -> tensor<?x4x32x64xf16>
    %313 = tensor.empty(%209) : tensor<4x?xi1>
    %314 = linalg.generic {indexing_maps = [#map14, #map15, #map2], iterator_types = ["parallel", "parallel"]} ins(%261, %203 : tensor<?xi64>, tensor<4xi64>) outs(%313 : tensor<4x?xi1>) {
    ^bb0(%in: i64, %in_1472: i64, %out: i1):
      %2625 = arith.cmpi sge, %in, %in_1472 : i64
      linalg.yield %2625 : i1
    } -> tensor<4x?xi1>
    %315 = tensor.empty(%209, %209) : tensor<?x?xi1>
    %316 = linalg.generic {indexing_maps = [#map14, #map15, #map2], iterator_types = ["parallel", "parallel"]} ins(%261, %261 : tensor<?xi64>, tensor<?xi64>) outs(%315 : tensor<?x?xi1>) {
    ^bb0(%in: i64, %in_1472: i64, %out: i1):
      %2625 = arith.cmpi sgt, %in, %in_1472 : i64
      linalg.yield %2625 : i1
    } -> tensor<?x?xi1>
    %317 = tensor.empty(%209, %209) : tensor<4x?x?xi1>
    %318 = linalg.generic {indexing_maps = [#map16, #map17, #map], iterator_types = ["parallel", "parallel", "parallel"]} ins(%316, %314 : tensor<?x?xi1>, tensor<4x?xi1>) outs(%317 : tensor<4x?x?xi1>) {
    ^bb0(%in: i1, %in_1472: i1, %out: i1):
      %2625 = arith.ori %in, %in_1472 : i1
      linalg.yield %2625 : i1
    } -> tensor<4x?x?xi1>
    %__hoisted_tensor_f16 = util.global.load immutable @__hoisted_tensor_f16 : tensor<f16>
    %319 = tensor.empty(%209, %209) : tensor<4x?x?xf16>
    %320 = linalg.generic {indexing_maps = [#map, #map18, #map18, #map], iterator_types = ["parallel", "parallel", "parallel"]} ins(%318, %cst_4, %__hoisted_tensor_f16 : tensor<4x?x?xi1>, tensor<f16>, tensor<f16>) outs(%319 : tensor<4x?x?xf16>) {
    ^bb0(%in: i1, %in_1472: f16, %in_1473: f16, %out: f16):
      %2625 = arith.select %in, %in_1472, %in_1473 : f16
      linalg.yield %2625 : f16
    } -> tensor<4x?x?xf16>
    %321 = tensor.empty(%209) : tensor<4x32x?x2x32xf16>
    %322 = linalg.generic {indexing_maps = [#map19, #map19, #map12], iterator_types = ["parallel", "parallel", "parallel", "parallel", "parallel"]} ins(%283, %286 : tensor<4x?x32x32xf16>, tensor<4x?x32x32xf16>) outs(%321 : tensor<4x32x?x2x32xf16>) {
    ^bb0(%in: f16, %in_1472: f16, %out: f16):
      %2625 = linalg.index 3 : index
      %2626 = arith.cmpi eq, %2625, %c0 : index
      %2627 = arith.select %2626, %in, %in_1472 : f16
      linalg.yield %2627 : f16
    } -> tensor<4x32x?x2x32xf16>
    %323 = tensor.empty(%209) : tensor<4x4x8x?x64xf16>
    %324 = linalg.generic {indexing_maps = [#map20, #map12], iterator_types = ["parallel", "parallel", "parallel", "parallel", "parallel"]} ins(%collapsed_40 : tensor<4x?x4x64xf16>) outs(%323 : tensor<4x4x8x?x64xf16>) {
    ^bb0(%in: f16, %out: f16):
      linalg.yield %in : f16
    } -> tensor<4x4x8x?x64xf16>
    %325 = tensor.empty(%209, %209) : tensor<4x32x?x?xf16>
    %326 = linalg.generic {indexing_maps = [#map21, #map9], iterator_types = ["parallel", "parallel", "parallel", "parallel"]} ins(%320 : tensor<4x?x?xf16>) outs(%325 : tensor<4x32x?x?xf16>) {
    ^bb0(%in: f16, %out: f16):
      linalg.yield %in : f16
    } -> tensor<4x32x?x?xf16>
    %collapsed_49 = tensor.collapse_shape %322 [[0, 1], [2], [3, 4]] : tensor<4x32x?x2x32xf16> into tensor<128x?x64xf16>
    %collapsed_50 = tensor.collapse_shape %324 [[0, 1, 2], [3], [4]] : tensor<4x4x8x?x64xf16> into tensor<128x?x64xf16>
    %collapsed_51 = tensor.collapse_shape %326 [[0, 1], [2], [3]] : tensor<4x32x?x?xf16> into tensor<128x?x?xf16>
    %327 = tensor.empty(%209) : tensor<128x?x64xf16>
    %328 = tensor.empty(%209) : tensor<4x4x8x64x?xf16>
    %329 = linalg.generic {indexing_maps = [#map22, #map12], iterator_types = ["parallel", "parallel", "parallel", "parallel", "parallel"]} ins(%expanded_27 : tensor<4x?x4x64xf16>) outs(%328 : tensor<4x4x8x64x?xf16>) {
    ^bb0(%in: f16, %out: f16):
      linalg.yield %in : f16
    } -> tensor<4x4x8x64x?xf16>
    %collapsed_52 = tensor.collapse_shape %329 [[0, 1, 2], [3], [4]] : tensor<4x4x8x64x?xf16> into tensor<128x64x?xf16>
    %330 = iree_linalg_ext.attention {indexing_maps = [#map23, #map24, #map25, #map26, #map27, #map6]} ins(%collapsed_49, %collapsed_50, %collapsed_52, %cst_5, %collapsed_51 : tensor<128x?x64xf16>, tensor<128x?x64xf16>, tensor<128x64x?xf16>, f16, tensor<128x?x?xf16>) outs(%327 : tensor<128x?x64xf16>) {
    ^bb0(%arg6: f32):
      iree_linalg_ext.yield %arg6 : f32
    } -> tensor<128x?x64xf16>
    %expanded_53 = tensor.expand_shape %330 [[0, 1], [2], [3]] output_shape [4, 32, %209, 64] : tensor<128x?x64xf16> into tensor<4x32x?x64xf16>
    %331 = tensor.empty(%209) : tensor<4x?x32x64xf16>
    %332 = linalg.generic {indexing_maps = [#map28, #map9], iterator_types = ["parallel", "parallel", "parallel", "parallel"]} ins(%expanded_53 : tensor<4x32x?x64xf16>) outs(%331 : tensor<4x?x32x64xf16>) {
    ^bb0(%in: f16, %out: f16):
      linalg.yield %in : f16
    } -> tensor<4x?x32x64xf16>
    %collapsed_54 = tensor.collapse_shape %332 [[0], [1], [2, 3]] : tensor<4x?x32x64xf16> into tensor<4x?x2048xf16>
    %333 = iree_tensor_ext.bitcast %5 : tensor<2048x2176xi8> -> tensor<2048x1088xi16>
    %expanded_55 = tensor.expand_shape %333 [[0], [1, 2]] output_shape [2048, 64, 17] : tensor<2048x1088xi16> into tensor<2048x64x17xi16>
    %extracted_slice_56 = tensor.extract_slice %expanded_55[0, 0, 0] [2048, 64, 1] [1, 1, 1] : tensor<2048x64x17xi16> to tensor<2048x64xi16>
    %expanded_57 = tensor.expand_shape %extracted_slice_56 [[0], [1, 2]] output_shape [2048, 64, 1] : tensor<2048x64xi16> into tensor<2048x64x1xi16>
    %334 = iree_tensor_ext.bitcast %expanded_57 : tensor<2048x64x1xi16> -> tensor<2048x64x1xf16>
    %extracted_slice_58 = tensor.extract_slice %expanded_55[0, 0, 1] [2048, 64, 16] [1, 1, 1] : tensor<2048x64x17xi16> to tensor<2048x64x16xi16>
    %335 = iree_tensor_ext.bitcast %extracted_slice_58 : tensor<2048x64x16xi16> -> tensor<2048x64x32xi8>
    %collapsed_59 = tensor.collapse_shape %334 [[0], [1, 2]] : tensor<2048x64x1xf16> into tensor<2048x64xf16>
    %336 = linalg.generic {indexing_maps = [#map1, #map, #map], iterator_types = ["parallel", "parallel", "parallel"]} ins(%collapsed_59, %335 : tensor<2048x64xf16>, tensor<2048x64x32xi8>) outs(%239 : tensor<2048x64x32xf16>) {
    ^bb0(%in: f16, %in_1472: i8, %out: f16):
      %2625 = arith.extsi %in_1472 : i8 to i32
      %2626 = arith.sitofp %2625 : i32 to f16
      %2627 = arith.mulf %2626, %in : f16
      linalg.yield %2627 : f16
    } -> tensor<2048x64x32xf16>
    %expanded_60 = tensor.expand_shape %collapsed_54 [[0], [1], [2, 3]] output_shape [4, %209, 64, 32] : tensor<4x?x2048xf16> into tensor<4x?x64x32xf16>
    %337 = linalg.generic {indexing_maps = [#map4, #map5, #map6], iterator_types = ["parallel", "parallel", "parallel", "reduction", "reduction"]} ins(%expanded_60, %336 : tensor<4x?x64x32xf16>, tensor<2048x64x32xf16>) outs(%241 : tensor<4x?x2048xf32>) {
    ^bb0(%in: f16, %in_1472: f16, %out: f32):
      %2625 = arith.mulf %in, %in_1472 : f16
      %2626 = arith.extf %2625 : f16 to f32
      %2627 = arith.addf %2626, %out : f32
      linalg.yield %2627 : f32
    } -> tensor<4x?x2048xf32>
    %338 = linalg.generic {indexing_maps = [#map, #map], iterator_types = ["parallel", "parallel", "parallel"]} ins(%337 : tensor<4x?x2048xf32>) outs(%221 : tensor<4x?x2048xf16>) {
    ^bb0(%in: f32, %out: f16):
      %2625 = arith.truncf %in : f32 to f16
      linalg.yield %2625 : f16
    } -> tensor<4x?x2048xf16>
    %339 = linalg.generic {indexing_maps = [#map, #map, #map], iterator_types = ["parallel", "parallel", "parallel"]} ins(%222, %338 : tensor<4x?x2048xf16>, tensor<4x?x2048xf16>) outs(%221 : tensor<4x?x2048xf16>) {
    ^bb0(%in: f16, %in_1472: f16, %out: f16):
      %2625 = arith.addf %in, %in_1472 : f16
      linalg.yield %2625 : f16
    } -> tensor<4x?x2048xf16>
    %340 = linalg.generic {indexing_maps = [#map, #map], iterator_types = ["parallel", "parallel", "parallel"]} ins(%339 : tensor<4x?x2048xf16>) outs(%223 : tensor<4x?x2048xf32>) {
    ^bb0(%in: f16, %out: f32):
      %2625 = arith.extf %in : f16 to f32
      linalg.yield %2625 : f32
    } -> tensor<4x?x2048xf32>
    %341 = linalg.generic {indexing_maps = [#map, #map], iterator_types = ["parallel", "parallel", "parallel"]} ins(%340 : tensor<4x?x2048xf32>) outs(%223 : tensor<4x?x2048xf32>) {
    ^bb0(%in: f32, %out: f32):
      %2625 = math.fpowi %in, %c2_i64 : f32, i64
      linalg.yield %2625 : f32
    } -> tensor<4x?x2048xf32>
    %342 = linalg.generic {indexing_maps = [#map, #map1], iterator_types = ["parallel", "parallel", "reduction"]} ins(%341 : tensor<4x?x2048xf32>) outs(%227 : tensor<4x?xf32>) {
    ^bb0(%in: f32, %out: f32):
      %2625 = arith.addf %in, %out : f32
      linalg.yield %2625 : f32
    } -> tensor<4x?xf32>
    %343 = linalg.generic {indexing_maps = [#map2, #map2], iterator_types = ["parallel", "parallel"]} ins(%342 : tensor<4x?xf32>) outs(%226 : tensor<4x?xf32>) {
    ^bb0(%in: f32, %out: f32):
      %2625 = arith.divf %in, %cst_0 : f32
      linalg.yield %2625 : f32
    } -> tensor<4x?xf32>
    %344 = linalg.generic {indexing_maps = [#map2, #map2], iterator_types = ["parallel", "parallel"]} ins(%343 : tensor<4x?xf32>) outs(%226 : tensor<4x?xf32>) {
    ^bb0(%in: f32, %out: f32):
      %2625 = arith.addf %in, %cst : f32
      linalg.yield %2625 : f32
    } -> tensor<4x?xf32>
    %345 = linalg.generic {indexing_maps = [#map2, #map2], iterator_types = ["parallel", "parallel"]} ins(%344 : tensor<4x?xf32>) outs(%226 : tensor<4x?xf32>) {
    ^bb0(%in: f32, %out: f32):
      %2625 = math.rsqrt %in : f32
      linalg.yield %2625 : f32
    } -> tensor<4x?xf32>
    %346 = linalg.generic {indexing_maps = [#map, #map1, #map], iterator_types = ["parallel", "parallel", "parallel"]} ins(%340, %345 : tensor<4x?x2048xf32>, tensor<4x?xf32>) outs(%223 : tensor<4x?x2048xf32>) {
    ^bb0(%in: f32, %in_1472: f32, %out: f32):
      %2625 = arith.mulf %in, %in_1472 : f32
      linalg.yield %2625 : f32
    } -> tensor<4x?x2048xf32>
    %347 = linalg.generic {indexing_maps = [#map, #map], iterator_types = ["parallel", "parallel", "parallel"]} ins(%346 : tensor<4x?x2048xf32>) outs(%221 : tensor<4x?x2048xf16>) {
    ^bb0(%in: f32, %out: f16):
      %2625 = arith.truncf %in : f32 to f16
      linalg.yield %2625 : f16
    } -> tensor<4x?x2048xf16>
    %348 = linalg.generic {indexing_maps = [#map3, #map, #map], iterator_types = ["parallel", "parallel", "parallel"]} ins(%6, %347 : tensor<2048xf32>, tensor<4x?x2048xf16>) outs(%223 : tensor<4x?x2048xf32>) {
    ^bb0(%in: f32, %in_1472: f16, %out: f32):
      %2625 = arith.extf %in_1472 : f16 to f32
      %2626 = arith.mulf %in, %2625 : f32
      linalg.yield %2626 : f32
    } -> tensor<4x?x2048xf32>
    %349 = linalg.generic {indexing_maps = [#map, #map], iterator_types = ["parallel", "parallel", "parallel"]} ins(%348 : tensor<4x?x2048xf32>) outs(%221 : tensor<4x?x2048xf16>) {
    ^bb0(%in: f32, %out: f16):
      %2625 = arith.truncf %in : f32 to f16
      linalg.yield %2625 : f16
    } -> tensor<4x?x2048xf16>
    %350 = iree_tensor_ext.bitcast %7 : tensor<5632x2176xi8> -> tensor<5632x1088xi16>
    %expanded_61 = tensor.expand_shape %350 [[0], [1, 2]] output_shape [5632, 64, 17] : tensor<5632x1088xi16> into tensor<5632x64x17xi16>
    %extracted_slice_62 = tensor.extract_slice %expanded_61[0, 0, 0] [5632, 64, 1] [1, 1, 1] : tensor<5632x64x17xi16> to tensor<5632x64xi16>
    %expanded_63 = tensor.expand_shape %extracted_slice_62 [[0], [1, 2]] output_shape [5632, 64, 1] : tensor<5632x64xi16> into tensor<5632x64x1xi16>
    %351 = iree_tensor_ext.bitcast %expanded_63 : tensor<5632x64x1xi16> -> tensor<5632x64x1xf16>
    %extracted_slice_64 = tensor.extract_slice %expanded_61[0, 0, 1] [5632, 64, 16] [1, 1, 1] : tensor<5632x64x17xi16> to tensor<5632x64x16xi16>
    %352 = iree_tensor_ext.bitcast %extracted_slice_64 : tensor<5632x64x16xi16> -> tensor<5632x64x32xi8>
    %353 = tensor.empty() : tensor<5632x64x32xf16>
    %collapsed_65 = tensor.collapse_shape %351 [[0], [1, 2]] : tensor<5632x64x1xf16> into tensor<5632x64xf16>
    %354 = linalg.generic {indexing_maps = [#map1, #map, #map], iterator_types = ["parallel", "parallel", "parallel"]} ins(%collapsed_65, %352 : tensor<5632x64xf16>, tensor<5632x64x32xi8>) outs(%353 : tensor<5632x64x32xf16>) {
    ^bb0(%in: f16, %in_1472: i8, %out: f16):
      %2625 = arith.extsi %in_1472 : i8 to i32
      %2626 = arith.sitofp %2625 : i32 to f16
      %2627 = arith.mulf %2626, %in : f16
      linalg.yield %2627 : f16
    } -> tensor<5632x64x32xf16>
    %expanded_66 = tensor.expand_shape %349 [[0], [1], [2, 3]] output_shape [4, %209, 64, 32] : tensor<4x?x2048xf16> into tensor<4x?x64x32xf16>
    %355 = tensor.empty(%209) : tensor<4x?x5632xf32>
    %356 = linalg.fill ins(%cst_2 : f32) outs(%355 : tensor<4x?x5632xf32>) -> tensor<4x?x5632xf32>
    %357 = linalg.generic {indexing_maps = [#map4, #map5, #map6], iterator_types = ["parallel", "parallel", "parallel", "reduction", "reduction"]} ins(%expanded_66, %354 : tensor<4x?x64x32xf16>, tensor<5632x64x32xf16>) outs(%356 : tensor<4x?x5632xf32>) {
    ^bb0(%in: f16, %in_1472: f16, %out: f32):
      %2625 = arith.mulf %in, %in_1472 : f16
      %2626 = arith.extf %2625 : f16 to f32
      %2627 = arith.addf %2626, %out : f32
      linalg.yield %2627 : f32
    } -> tensor<4x?x5632xf32>
    %358 = tensor.empty(%209) : tensor<4x?x5632xf16>
    %359 = linalg.generic {indexing_maps = [#map, #map], iterator_types = ["parallel", "parallel", "parallel"]} ins(%357 : tensor<4x?x5632xf32>) outs(%358 : tensor<4x?x5632xf16>) {
    ^bb0(%in: f32, %out: f16):
      %2625 = arith.truncf %in : f32 to f16
      linalg.yield %2625 : f16
    } -> tensor<4x?x5632xf16>
    %360 = linalg.generic {indexing_maps = [#map, #map], iterator_types = ["parallel", "parallel", "parallel"]} ins(%359 : tensor<4x?x5632xf16>) outs(%358 : tensor<4x?x5632xf16>) {
    ^bb0(%in: f16, %out: f16):
      %2625 = arith.negf %in : f16
      %2626 = math.exp %2625 : f16
      %2627 = arith.addf %2626, %cst_1 : f16
      %2628 = arith.divf %cst_1, %2627 : f16
      linalg.yield %2628 : f16
    } -> tensor<4x?x5632xf16>
    %361 = linalg.generic {indexing_maps = [#map, #map, #map], iterator_types = ["parallel", "parallel", "parallel"]} ins(%360, %359 : tensor<4x?x5632xf16>, tensor<4x?x5632xf16>) outs(%358 : tensor<4x?x5632xf16>) {
    ^bb0(%in: f16, %in_1472: f16, %out: f16):
      %2625 = arith.mulf %in, %in_1472 : f16
      linalg.yield %2625 : f16
    } -> tensor<4x?x5632xf16>
    %362 = iree_tensor_ext.bitcast %8 : tensor<5632x2176xi8> -> tensor<5632x1088xi16>
    %expanded_67 = tensor.expand_shape %362 [[0], [1, 2]] output_shape [5632, 64, 17] : tensor<5632x1088xi16> into tensor<5632x64x17xi16>
    %extracted_slice_68 = tensor.extract_slice %expanded_67[0, 0, 0] [5632, 64, 1] [1, 1, 1] : tensor<5632x64x17xi16> to tensor<5632x64xi16>
    %expanded_69 = tensor.expand_shape %extracted_slice_68 [[0], [1, 2]] output_shape [5632, 64, 1] : tensor<5632x64xi16> into tensor<5632x64x1xi16>
    %363 = iree_tensor_ext.bitcast %expanded_69 : tensor<5632x64x1xi16> -> tensor<5632x64x1xf16>
    %extracted_slice_70 = tensor.extract_slice %expanded_67[0, 0, 1] [5632, 64, 16] [1, 1, 1] : tensor<5632x64x17xi16> to tensor<5632x64x16xi16>
    %364 = iree_tensor_ext.bitcast %extracted_slice_70 : tensor<5632x64x16xi16> -> tensor<5632x64x32xi8>
    %collapsed_71 = tensor.collapse_shape %363 [[0], [1, 2]] : tensor<5632x64x1xf16> into tensor<5632x64xf16>
    %365 = linalg.generic {indexing_maps = [#map1, #map, #map], iterator_types = ["parallel", "parallel", "parallel"]} ins(%collapsed_71, %364 : tensor<5632x64xf16>, tensor<5632x64x32xi8>) outs(%353 : tensor<5632x64x32xf16>) {
    ^bb0(%in: f16, %in_1472: i8, %out: f16):
      %2625 = arith.extsi %in_1472 : i8 to i32
      %2626 = arith.sitofp %2625 : i32 to f16
      %2627 = arith.mulf %2626, %in : f16
      linalg.yield %2627 : f16
    } -> tensor<5632x64x32xf16>
    %366 = linalg.generic {indexing_maps = [#map4, #map5, #map6], iterator_types = ["parallel", "parallel", "parallel", "reduction", "reduction"]} ins(%expanded_66, %365 : tensor<4x?x64x32xf16>, tensor<5632x64x32xf16>) outs(%356 : tensor<4x?x5632xf32>) {
    ^bb0(%in: f16, %in_1472: f16, %out: f32):
      %2625 = arith.mulf %in, %in_1472 : f16
      %2626 = arith.extf %2625 : f16 to f32
      %2627 = arith.addf %2626, %out : f32
      linalg.yield %2627 : f32
    } -> tensor<4x?x5632xf32>
    %367 = linalg.generic {indexing_maps = [#map, #map], iterator_types = ["parallel", "parallel", "parallel"]} ins(%366 : tensor<4x?x5632xf32>) outs(%358 : tensor<4x?x5632xf16>) {
    ^bb0(%in: f32, %out: f16):
      %2625 = arith.truncf %in : f32 to f16
      linalg.yield %2625 : f16
    } -> tensor<4x?x5632xf16>
    %368 = linalg.generic {indexing_maps = [#map, #map, #map], iterator_types = ["parallel", "parallel", "parallel"]} ins(%361, %367 : tensor<4x?x5632xf16>, tensor<4x?x5632xf16>) outs(%358 : tensor<4x?x5632xf16>) {
    ^bb0(%in: f16, %in_1472: f16, %out: f16):
      %2625 = arith.mulf %in, %in_1472 : f16
      linalg.yield %2625 : f16
    } -> tensor<4x?x5632xf16>
    %369 = iree_tensor_ext.bitcast %9 : tensor<2048x5984xi8> -> tensor<2048x2992xi16>
    %expanded_72 = tensor.expand_shape %369 [[0], [1, 2]] output_shape [2048, 176, 17] : tensor<2048x2992xi16> into tensor<2048x176x17xi16>
    %extracted_slice_73 = tensor.extract_slice %expanded_72[0, 0, 0] [2048, 176, 1] [1, 1, 1] : tensor<2048x176x17xi16> to tensor<2048x176xi16>
    %expanded_74 = tensor.expand_shape %extracted_slice_73 [[0], [1, 2]] output_shape [2048, 176, 1] : tensor<2048x176xi16> into tensor<2048x176x1xi16>
    %370 = iree_tensor_ext.bitcast %expanded_74 : tensor<2048x176x1xi16> -> tensor<2048x176x1xf16>
    %extracted_slice_75 = tensor.extract_slice %expanded_72[0, 0, 1] [2048, 176, 16] [1, 1, 1] : tensor<2048x176x17xi16> to tensor<2048x176x16xi16>
    %371 = iree_tensor_ext.bitcast %extracted_slice_75 : tensor<2048x176x16xi16> -> tensor<2048x176x32xi8>
    %372 = tensor.empty() : tensor<2048x176x32xf16>
    %collapsed_76 = tensor.collapse_shape %370 [[0], [1, 2]] : tensor<2048x176x1xf16> into tensor<2048x176xf16>
    %373 = linalg.generic {indexing_maps = [#map1, #map, #map], iterator_types = ["parallel", "parallel", "parallel"]} ins(%collapsed_76, %371 : tensor<2048x176xf16>, tensor<2048x176x32xi8>) outs(%372 : tensor<2048x176x32xf16>) {
    ^bb0(%in: f16, %in_1472: i8, %out: f16):
      %2625 = arith.extsi %in_1472 : i8 to i32
      %2626 = arith.sitofp %2625 : i32 to f16
      %2627 = arith.mulf %2626, %in : f16
      linalg.yield %2627 : f16
    } -> tensor<2048x176x32xf16>
    %expanded_77 = tensor.expand_shape %368 [[0], [1], [2, 3]] output_shape [4, %209, 176, 32] : tensor<4x?x5632xf16> into tensor<4x?x176x32xf16>
    %374 = linalg.generic {indexing_maps = [#map4, #map5, #map6], iterator_types = ["parallel", "parallel", "parallel", "reduction", "reduction"]} ins(%expanded_77, %373 : tensor<4x?x176x32xf16>, tensor<2048x176x32xf16>) outs(%241 : tensor<4x?x2048xf32>) {
    ^bb0(%in: f16, %in_1472: f16, %out: f32):
      %2625 = arith.mulf %in, %in_1472 : f16
      %2626 = arith.extf %2625 : f16 to f32
      %2627 = arith.addf %2626, %out : f32
      linalg.yield %2627 : f32
    } -> tensor<4x?x2048xf32>
    %375 = linalg.generic {indexing_maps = [#map, #map], iterator_types = ["parallel", "parallel", "parallel"]} ins(%374 : tensor<4x?x2048xf32>) outs(%221 : tensor<4x?x2048xf16>) {
    ^bb0(%in: f32, %out: f16):
      %2625 = arith.truncf %in : f32 to f16
      linalg.yield %2625 : f16
    } -> tensor<4x?x2048xf16>
    %376 = linalg.generic {indexing_maps = [#map, #map, #map], iterator_types = ["parallel", "parallel", "parallel"]} ins(%339, %375 : tensor<4x?x2048xf16>, tensor<4x?x2048xf16>) outs(%221 : tensor<4x?x2048xf16>) {
    ^bb0(%in: f16, %in_1472: f16, %out: f16):
      %2625 = arith.addf %in, %in_1472 : f16
      linalg.yield %2625 : f16
    } -> tensor<4x?x2048xf16>
    %377 = linalg.generic {indexing_maps = [#map, #map], iterator_types = ["parallel", "parallel", "parallel"]} ins(%376 : tensor<4x?x2048xf16>) outs(%223 : tensor<4x?x2048xf32>) {
    ^bb0(%in: f16, %out: f32):
      %2625 = arith.extf %in : f16 to f32
      linalg.yield %2625 : f32
    } -> tensor<4x?x2048xf32>
    %378 = linalg.generic {indexing_maps = [#map, #map], iterator_types = ["parallel", "parallel", "parallel"]} ins(%377 : tensor<4x?x2048xf32>) outs(%223 : tensor<4x?x2048xf32>) {
    ^bb0(%in: f32, %out: f32):
      %2625 = math.fpowi %in, %c2_i64 : f32, i64
      linalg.yield %2625 : f32
    } -> tensor<4x?x2048xf32>
    %379 = linalg.generic {indexing_maps = [#map, #map1], iterator_types = ["parallel", "parallel", "reduction"]} ins(%378 : tensor<4x?x2048xf32>) outs(%227 : tensor<4x?xf32>) {
    ^bb0(%in: f32, %out: f32):
      %2625 = arith.addf %in, %out : f32
      linalg.yield %2625 : f32
    } -> tensor<4x?xf32>
    %380 = linalg.generic {indexing_maps = [#map2, #map2], iterator_types = ["parallel", "parallel"]} ins(%379 : tensor<4x?xf32>) outs(%226 : tensor<4x?xf32>) {
    ^bb0(%in: f32, %out: f32):
      %2625 = arith.divf %in, %cst_0 : f32
      linalg.yield %2625 : f32
    } -> tensor<4x?xf32>
    %381 = linalg.generic {indexing_maps = [#map2, #map2], iterator_types = ["parallel", "parallel"]} ins(%380 : tensor<4x?xf32>) outs(%226 : tensor<4x?xf32>) {
    ^bb0(%in: f32, %out: f32):
      %2625 = arith.addf %in, %cst : f32
      linalg.yield %2625 : f32
    } -> tensor<4x?xf32>
    %382 = linalg.generic {indexing_maps = [#map2, #map2], iterator_types = ["parallel", "parallel"]} ins(%381 : tensor<4x?xf32>) outs(%226 : tensor<4x?xf32>) {
    ^bb0(%in: f32, %out: f32):
      %2625 = math.rsqrt %in : f32
      linalg.yield %2625 : f32
    } -> tensor<4x?xf32>
    %383 = linalg.generic {indexing_maps = [#map, #map1, #map], iterator_types = ["parallel", "parallel", "parallel"]} ins(%377, %382 : tensor<4x?x2048xf32>, tensor<4x?xf32>) outs(%223 : tensor<4x?x2048xf32>) {
    ^bb0(%in: f32, %in_1472: f32, %out: f32):
      %2625 = arith.mulf %in, %in_1472 : f32
      linalg.yield %2625 : f32
    } -> tensor<4x?x2048xf32>
    %384 = linalg.generic {indexing_maps = [#map, #map], iterator_types = ["parallel", "parallel", "parallel"]} ins(%383 : tensor<4x?x2048xf32>) outs(%221 : tensor<4x?x2048xf16>) {
    ^bb0(%in: f32, %out: f16):
      %2625 = arith.truncf %in : f32 to f16
      linalg.yield %2625 : f16
    } -> tensor<4x?x2048xf16>
    %385 = linalg.generic {indexing_maps = [#map3, #map, #map], iterator_types = ["parallel", "parallel", "parallel"]} ins(%10, %384 : tensor<2048xf32>, tensor<4x?x2048xf16>) outs(%223 : tensor<4x?x2048xf32>) {
    ^bb0(%in: f32, %in_1472: f16, %out: f32):
      %2625 = arith.extf %in_1472 : f16 to f32
      %2626 = arith.mulf %in, %2625 : f32
      linalg.yield %2626 : f32
    } -> tensor<4x?x2048xf32>
    %386 = linalg.generic {indexing_maps = [#map, #map], iterator_types = ["parallel", "parallel", "parallel"]} ins(%385 : tensor<4x?x2048xf32>) outs(%221 : tensor<4x?x2048xf16>) {
    ^bb0(%in: f32, %out: f16):
      %2625 = arith.truncf %in : f32 to f16
      linalg.yield %2625 : f16
    } -> tensor<4x?x2048xf16>
    %387 = iree_tensor_ext.bitcast %11 : tensor<2048x2176xi8> -> tensor<2048x1088xi16>
    %expanded_78 = tensor.expand_shape %387 [[0], [1, 2]] output_shape [2048, 64, 17] : tensor<2048x1088xi16> into tensor<2048x64x17xi16>
    %extracted_slice_79 = tensor.extract_slice %expanded_78[0, 0, 0] [2048, 64, 1] [1, 1, 1] : tensor<2048x64x17xi16> to tensor<2048x64xi16>
    %expanded_80 = tensor.expand_shape %extracted_slice_79 [[0], [1, 2]] output_shape [2048, 64, 1] : tensor<2048x64xi16> into tensor<2048x64x1xi16>
    %388 = iree_tensor_ext.bitcast %expanded_80 : tensor<2048x64x1xi16> -> tensor<2048x64x1xf16>
    %extracted_slice_81 = tensor.extract_slice %expanded_78[0, 0, 1] [2048, 64, 16] [1, 1, 1] : tensor<2048x64x17xi16> to tensor<2048x64x16xi16>
    %389 = iree_tensor_ext.bitcast %extracted_slice_81 : tensor<2048x64x16xi16> -> tensor<2048x64x32xi8>
    %collapsed_82 = tensor.collapse_shape %388 [[0], [1, 2]] : tensor<2048x64x1xf16> into tensor<2048x64xf16>
    %390 = linalg.generic {indexing_maps = [#map1, #map, #map], iterator_types = ["parallel", "parallel", "parallel"]} ins(%collapsed_82, %389 : tensor<2048x64xf16>, tensor<2048x64x32xi8>) outs(%239 : tensor<2048x64x32xf16>) {
    ^bb0(%in: f16, %in_1472: i8, %out: f16):
      %2625 = arith.extsi %in_1472 : i8 to i32
      %2626 = arith.sitofp %2625 : i32 to f16
      %2627 = arith.mulf %2626, %in : f16
      linalg.yield %2627 : f16
    } -> tensor<2048x64x32xf16>
    %expanded_83 = tensor.expand_shape %386 [[0], [1], [2, 3]] output_shape [4, %209, 64, 32] : tensor<4x?x2048xf16> into tensor<4x?x64x32xf16>
    %391 = linalg.generic {indexing_maps = [#map4, #map5, #map6], iterator_types = ["parallel", "parallel", "parallel", "reduction", "reduction"]} ins(%expanded_83, %390 : tensor<4x?x64x32xf16>, tensor<2048x64x32xf16>) outs(%241 : tensor<4x?x2048xf32>) {
    ^bb0(%in: f16, %in_1472: f16, %out: f32):
      %2625 = arith.mulf %in, %in_1472 : f16
      %2626 = arith.extf %2625 : f16 to f32
      %2627 = arith.addf %2626, %out : f32
      linalg.yield %2627 : f32
    } -> tensor<4x?x2048xf32>
    %392 = linalg.generic {indexing_maps = [#map, #map], iterator_types = ["parallel", "parallel", "parallel"]} ins(%391 : tensor<4x?x2048xf32>) outs(%221 : tensor<4x?x2048xf16>) {
    ^bb0(%in: f32, %out: f16):
      %2625 = arith.truncf %in : f32 to f16
      linalg.yield %2625 : f16
    } -> tensor<4x?x2048xf16>
    %393 = iree_tensor_ext.bitcast %12 : tensor<256x2176xi8> -> tensor<256x1088xi16>
    %expanded_84 = tensor.expand_shape %393 [[0], [1, 2]] output_shape [256, 64, 17] : tensor<256x1088xi16> into tensor<256x64x17xi16>
    %extracted_slice_85 = tensor.extract_slice %expanded_84[0, 0, 0] [256, 64, 1] [1, 1, 1] : tensor<256x64x17xi16> to tensor<256x64xi16>
    %expanded_86 = tensor.expand_shape %extracted_slice_85 [[0], [1, 2]] output_shape [256, 64, 1] : tensor<256x64xi16> into tensor<256x64x1xi16>
    %394 = iree_tensor_ext.bitcast %expanded_86 : tensor<256x64x1xi16> -> tensor<256x64x1xf16>
    %extracted_slice_87 = tensor.extract_slice %expanded_84[0, 0, 1] [256, 64, 16] [1, 1, 1] : tensor<256x64x17xi16> to tensor<256x64x16xi16>
    %395 = iree_tensor_ext.bitcast %extracted_slice_87 : tensor<256x64x16xi16> -> tensor<256x64x32xi8>
    %collapsed_88 = tensor.collapse_shape %394 [[0], [1, 2]] : tensor<256x64x1xf16> into tensor<256x64xf16>
    %396 = linalg.generic {indexing_maps = [#map1, #map, #map], iterator_types = ["parallel", "parallel", "parallel"]} ins(%collapsed_88, %395 : tensor<256x64xf16>, tensor<256x64x32xi8>) outs(%247 : tensor<256x64x32xf16>) {
    ^bb0(%in: f16, %in_1472: i8, %out: f16):
      %2625 = arith.extsi %in_1472 : i8 to i32
      %2626 = arith.sitofp %2625 : i32 to f16
      %2627 = arith.mulf %2626, %in : f16
      linalg.yield %2627 : f16
    } -> tensor<256x64x32xf16>
    %397 = linalg.generic {indexing_maps = [#map4, #map5, #map6], iterator_types = ["parallel", "parallel", "parallel", "reduction", "reduction"]} ins(%expanded_83, %396 : tensor<4x?x64x32xf16>, tensor<256x64x32xf16>) outs(%250 : tensor<4x?x256xf32>) {
    ^bb0(%in: f16, %in_1472: f16, %out: f32):
      %2625 = arith.mulf %in, %in_1472 : f16
      %2626 = arith.extf %2625 : f16 to f32
      %2627 = arith.addf %2626, %out : f32
      linalg.yield %2627 : f32
    } -> tensor<4x?x256xf32>
    %398 = linalg.generic {indexing_maps = [#map, #map], iterator_types = ["parallel", "parallel", "parallel"]} ins(%397 : tensor<4x?x256xf32>) outs(%252 : tensor<4x?x256xf16>) {
    ^bb0(%in: f32, %out: f16):
      %2625 = arith.truncf %in : f32 to f16
      linalg.yield %2625 : f16
    } -> tensor<4x?x256xf16>
    %399 = iree_tensor_ext.bitcast %13 : tensor<256x2176xi8> -> tensor<256x1088xi16>
    %expanded_89 = tensor.expand_shape %399 [[0], [1, 2]] output_shape [256, 64, 17] : tensor<256x1088xi16> into tensor<256x64x17xi16>
    %extracted_slice_90 = tensor.extract_slice %expanded_89[0, 0, 0] [256, 64, 1] [1, 1, 1] : tensor<256x64x17xi16> to tensor<256x64xi16>
    %expanded_91 = tensor.expand_shape %extracted_slice_90 [[0], [1, 2]] output_shape [256, 64, 1] : tensor<256x64xi16> into tensor<256x64x1xi16>
    %400 = iree_tensor_ext.bitcast %expanded_91 : tensor<256x64x1xi16> -> tensor<256x64x1xf16>
    %extracted_slice_92 = tensor.extract_slice %expanded_89[0, 0, 1] [256, 64, 16] [1, 1, 1] : tensor<256x64x17xi16> to tensor<256x64x16xi16>
    %401 = iree_tensor_ext.bitcast %extracted_slice_92 : tensor<256x64x16xi16> -> tensor<256x64x32xi8>
    %collapsed_93 = tensor.collapse_shape %400 [[0], [1, 2]] : tensor<256x64x1xf16> into tensor<256x64xf16>
    %402 = linalg.generic {indexing_maps = [#map1, #map, #map], iterator_types = ["parallel", "parallel", "parallel"]} ins(%collapsed_93, %401 : tensor<256x64xf16>, tensor<256x64x32xi8>) outs(%247 : tensor<256x64x32xf16>) {
    ^bb0(%in: f16, %in_1472: i8, %out: f16):
      %2625 = arith.extsi %in_1472 : i8 to i32
      %2626 = arith.sitofp %2625 : i32 to f16
      %2627 = arith.mulf %2626, %in : f16
      linalg.yield %2627 : f16
    } -> tensor<256x64x32xf16>
    %403 = linalg.generic {indexing_maps = [#map4, #map5, #map6], iterator_types = ["parallel", "parallel", "parallel", "reduction", "reduction"]} ins(%expanded_83, %402 : tensor<4x?x64x32xf16>, tensor<256x64x32xf16>) outs(%250 : tensor<4x?x256xf32>) {
    ^bb0(%in: f16, %in_1472: f16, %out: f32):
      %2625 = arith.mulf %in, %in_1472 : f16
      %2626 = arith.extf %2625 : f16 to f32
      %2627 = arith.addf %2626, %out : f32
      linalg.yield %2627 : f32
    } -> tensor<4x?x256xf32>
    %404 = linalg.generic {indexing_maps = [#map, #map], iterator_types = ["parallel", "parallel", "parallel"]} ins(%403 : tensor<4x?x256xf32>) outs(%252 : tensor<4x?x256xf16>) {
    ^bb0(%in: f32, %out: f16):
      %2625 = arith.truncf %in : f32 to f16
      linalg.yield %2625 : f16
    } -> tensor<4x?x256xf16>
    %expanded_94 = tensor.expand_shape %392 [[0], [1], [2, 3]] output_shape [4, %209, 32, 64] : tensor<4x?x2048xf16> into tensor<4x?x32x64xf16>
    %expanded_95 = tensor.expand_shape %398 [[0], [1], [2, 3]] output_shape [4, %209, 4, 64] : tensor<4x?x256xf16> into tensor<4x?x4x64xf16>
    %expanded_96 = tensor.expand_shape %404 [[0], [1], [2, 3]] output_shape [4, %209, 4, 64] : tensor<4x?x256xf16> into tensor<4x?x4x64xf16>
    %__hoisted_tensor_32xf32_2 = util.global.load immutable @__hoisted_tensor_32xf32_2 : tensor<32xf32>
    %expanded_97 = tensor.expand_shape %__hoisted_tensor_32xf32_2 [[0, 1, 2, 3, 4]] output_shape [1, 4, 1, 8, 1] : tensor<32xf32> into tensor<1x4x1x8x1xf32>
    %405 = linalg.batch_mmt4d ins(%expanded_97, %pack : tensor<1x4x1x8x1xf32>, tensor<1x?x1x8x1xf32>) outs(%269 : tensor<1x4x?x8x8xf32>) -> tensor<1x4x?x8x8xf32>
    %unpack_98 = linalg.unpack %405 outer_dims_perm = [1, 2, 0] inner_dims_pos = [2, 0] inner_tiles = [8, 8] into %272 : tensor<1x4x?x8x8xf32> -> tensor<?x1x32xf32>
    %406 = linalg.generic {indexing_maps = [#map, #map], iterator_types = ["parallel", "parallel", "parallel"]} ins(%unpack_98 : tensor<?x1x32xf32>) outs(%272 : tensor<?x1x32xf32>) {
    ^bb0(%in: f32, %out: f32):
      %2625 = math.cos %in : f32
      linalg.yield %2625 : f32
    } -> tensor<?x1x32xf32>
    %collapsed_99 = tensor.collapse_shape %406 [[0], [1, 2]] : tensor<?x1x32xf32> into tensor<?x32xf32>
    %407 = linalg.generic {indexing_maps = [#map2, #map8, #map2], iterator_types = ["parallel", "parallel"]} ins(%collapsed_99, %cst_3 : tensor<?x32xf32>, tensor<f32>) outs(%271 : tensor<?x32xf32>) {
    ^bb0(%in: f32, %in_1472: f32, %out: f32):
      %2625 = arith.mulf %in, %in_1472 : f32
      linalg.yield %2625 : f32
    } -> tensor<?x32xf32>
    %408 = linalg.generic {indexing_maps = [#map2, #map2], iterator_types = ["parallel", "parallel"]} ins(%407 : tensor<?x32xf32>) outs(%275 : tensor<?x32xf16>) {
    ^bb0(%in: f32, %out: f16):
      %2625 = arith.truncf %in : f32 to f16
      linalg.yield %2625 : f16
    } -> tensor<?x32xf16>
    %409 = linalg.generic {indexing_maps = [#map, #map], iterator_types = ["parallel", "parallel", "parallel"]} ins(%unpack_98 : tensor<?x1x32xf32>) outs(%272 : tensor<?x1x32xf32>) {
    ^bb0(%in: f32, %out: f32):
      %2625 = math.sin %in : f32
      linalg.yield %2625 : f32
    } -> tensor<?x1x32xf32>
    %collapsed_100 = tensor.collapse_shape %409 [[0], [1, 2]] : tensor<?x1x32xf32> into tensor<?x32xf32>
    %410 = linalg.generic {indexing_maps = [#map2, #map8, #map2], iterator_types = ["parallel", "parallel"]} ins(%collapsed_100, %cst_3 : tensor<?x32xf32>, tensor<f32>) outs(%271 : tensor<?x32xf32>) {
    ^bb0(%in: f32, %in_1472: f32, %out: f32):
      %2625 = arith.mulf %in, %in_1472 : f32
      linalg.yield %2625 : f32
    } -> tensor<?x32xf32>
    %411 = linalg.generic {indexing_maps = [#map2, #map2], iterator_types = ["parallel", "parallel"]} ins(%410 : tensor<?x32xf32>) outs(%275 : tensor<?x32xf16>) {
    ^bb0(%in: f32, %out: f16):
      %2625 = arith.truncf %in : f32 to f16
      linalg.yield %2625 : f16
    } -> tensor<?x32xf16>
    %extracted_slice_101 = tensor.extract_slice %expanded_94[0, 0, 0, 0] [4, %209, 32, 32] [1, 1, 1, 2] : tensor<4x?x32x64xf16> to tensor<4x?x32x32xf16>
    %extracted_slice_102 = tensor.extract_slice %expanded_94[0, 0, 0, 1] [4, %209, 32, 32] [1, 1, 1, 2] : tensor<4x?x32x64xf16> to tensor<4x?x32x32xf16>
    %412 = linalg.generic {indexing_maps = [#map9, #map10, #map9], iterator_types = ["parallel", "parallel", "parallel", "parallel"]} ins(%extracted_slice_101, %408 : tensor<4x?x32x32xf16>, tensor<?x32xf16>) outs(%280 : tensor<4x?x32x32xf16>) {
    ^bb0(%in: f16, %in_1472: f16, %out: f16):
      %2625 = arith.mulf %in, %in_1472 : f16
      linalg.yield %2625 : f16
    } -> tensor<4x?x32x32xf16>
    %413 = linalg.generic {indexing_maps = [#map9, #map10, #map9], iterator_types = ["parallel", "parallel", "parallel", "parallel"]} ins(%extracted_slice_102, %411 : tensor<4x?x32x32xf16>, tensor<?x32xf16>) outs(%280 : tensor<4x?x32x32xf16>) {
    ^bb0(%in: f16, %in_1472: f16, %out: f16):
      %2625 = arith.mulf %in, %in_1472 : f16
      linalg.yield %2625 : f16
    } -> tensor<4x?x32x32xf16>
    %414 = linalg.generic {indexing_maps = [#map9, #map9, #map9], iterator_types = ["parallel", "parallel", "parallel", "parallel"]} ins(%412, %413 : tensor<4x?x32x32xf16>, tensor<4x?x32x32xf16>) outs(%280 : tensor<4x?x32x32xf16>) {
    ^bb0(%in: f16, %in_1472: f16, %out: f16):
      %2625 = arith.subf %in, %in_1472 : f16
      linalg.yield %2625 : f16
    } -> tensor<4x?x32x32xf16>
    %415 = linalg.generic {indexing_maps = [#map9, #map10, #map9], iterator_types = ["parallel", "parallel", "parallel", "parallel"]} ins(%extracted_slice_102, %408 : tensor<4x?x32x32xf16>, tensor<?x32xf16>) outs(%280 : tensor<4x?x32x32xf16>) {
    ^bb0(%in: f16, %in_1472: f16, %out: f16):
      %2625 = arith.mulf %in, %in_1472 : f16
      linalg.yield %2625 : f16
    } -> tensor<4x?x32x32xf16>
    %416 = linalg.generic {indexing_maps = [#map9, #map10, #map9], iterator_types = ["parallel", "parallel", "parallel", "parallel"]} ins(%extracted_slice_101, %411 : tensor<4x?x32x32xf16>, tensor<?x32xf16>) outs(%280 : tensor<4x?x32x32xf16>) {
    ^bb0(%in: f16, %in_1472: f16, %out: f16):
      %2625 = arith.mulf %in, %in_1472 : f16
      linalg.yield %2625 : f16
    } -> tensor<4x?x32x32xf16>
    %417 = linalg.generic {indexing_maps = [#map9, #map9, #map9], iterator_types = ["parallel", "parallel", "parallel", "parallel"]} ins(%415, %416 : tensor<4x?x32x32xf16>, tensor<4x?x32x32xf16>) outs(%280 : tensor<4x?x32x32xf16>) {
    ^bb0(%in: f16, %in_1472: f16, %out: f16):
      %2625 = arith.addf %in, %in_1472 : f16
      linalg.yield %2625 : f16
    } -> tensor<4x?x32x32xf16>
    %__hoisted_tensor_32xf32_3 = util.global.load immutable @__hoisted_tensor_32xf32_3 : tensor<32xf32>
    %expanded_103 = tensor.expand_shape %__hoisted_tensor_32xf32_3 [[0, 1, 2, 3, 4]] output_shape [1, 4, 1, 8, 1] : tensor<32xf32> into tensor<1x4x1x8x1xf32>
    %418 = linalg.batch_mmt4d ins(%expanded_103, %pack : tensor<1x4x1x8x1xf32>, tensor<1x?x1x8x1xf32>) outs(%269 : tensor<1x4x?x8x8xf32>) -> tensor<1x4x?x8x8xf32>
    %unpack_104 = linalg.unpack %418 outer_dims_perm = [1, 2, 0] inner_dims_pos = [2, 0] inner_tiles = [8, 8] into %272 : tensor<1x4x?x8x8xf32> -> tensor<?x1x32xf32>
    %419 = linalg.generic {indexing_maps = [#map, #map], iterator_types = ["parallel", "parallel", "parallel"]} ins(%unpack_104 : tensor<?x1x32xf32>) outs(%272 : tensor<?x1x32xf32>) {
    ^bb0(%in: f32, %out: f32):
      %2625 = math.cos %in : f32
      linalg.yield %2625 : f32
    } -> tensor<?x1x32xf32>
    %collapsed_105 = tensor.collapse_shape %419 [[0], [1, 2]] : tensor<?x1x32xf32> into tensor<?x32xf32>
    %420 = linalg.generic {indexing_maps = [#map2, #map8, #map2], iterator_types = ["parallel", "parallel"]} ins(%collapsed_105, %cst_3 : tensor<?x32xf32>, tensor<f32>) outs(%271 : tensor<?x32xf32>) {
    ^bb0(%in: f32, %in_1472: f32, %out: f32):
      %2625 = arith.mulf %in, %in_1472 : f32
      linalg.yield %2625 : f32
    } -> tensor<?x32xf32>
    %421 = linalg.generic {indexing_maps = [#map2, #map2], iterator_types = ["parallel", "parallel"]} ins(%420 : tensor<?x32xf32>) outs(%275 : tensor<?x32xf16>) {
    ^bb0(%in: f32, %out: f16):
      %2625 = arith.truncf %in : f32 to f16
      linalg.yield %2625 : f16
    } -> tensor<?x32xf16>
    %422 = linalg.generic {indexing_maps = [#map, #map], iterator_types = ["parallel", "parallel", "parallel"]} ins(%unpack_104 : tensor<?x1x32xf32>) outs(%272 : tensor<?x1x32xf32>) {
    ^bb0(%in: f32, %out: f32):
      %2625 = math.sin %in : f32
      linalg.yield %2625 : f32
    } -> tensor<?x1x32xf32>
    %collapsed_106 = tensor.collapse_shape %422 [[0], [1, 2]] : tensor<?x1x32xf32> into tensor<?x32xf32>
    %423 = linalg.generic {indexing_maps = [#map2, #map8, #map2], iterator_types = ["parallel", "parallel"]} ins(%collapsed_106, %cst_3 : tensor<?x32xf32>, tensor<f32>) outs(%271 : tensor<?x32xf32>) {
    ^bb0(%in: f32, %in_1472: f32, %out: f32):
      %2625 = arith.mulf %in, %in_1472 : f32
      linalg.yield %2625 : f32
    } -> tensor<?x32xf32>
    %424 = linalg.generic {indexing_maps = [#map2, #map2], iterator_types = ["parallel", "parallel"]} ins(%423 : tensor<?x32xf32>) outs(%275 : tensor<?x32xf16>) {
    ^bb0(%in: f32, %out: f16):
      %2625 = arith.truncf %in : f32 to f16
      linalg.yield %2625 : f16
    } -> tensor<?x32xf16>
    %extracted_slice_107 = tensor.extract_slice %expanded_95[0, 0, 0, 0] [4, %209, 4, 32] [1, 1, 1, 2] : tensor<4x?x4x64xf16> to tensor<4x?x4x32xf16>
    %extracted_slice_108 = tensor.extract_slice %expanded_95[0, 0, 0, 1] [4, %209, 4, 32] [1, 1, 1, 2] : tensor<4x?x4x64xf16> to tensor<4x?x4x32xf16>
    %425 = linalg.generic {indexing_maps = [#map9, #map10, #map9], iterator_types = ["parallel", "parallel", "parallel", "parallel"]} ins(%extracted_slice_107, %421 : tensor<4x?x4x32xf16>, tensor<?x32xf16>) outs(%294 : tensor<4x?x4x32xf16>) {
    ^bb0(%in: f16, %in_1472: f16, %out: f16):
      %2625 = arith.mulf %in, %in_1472 : f16
      linalg.yield %2625 : f16
    } -> tensor<4x?x4x32xf16>
    %426 = linalg.generic {indexing_maps = [#map9, #map10, #map9], iterator_types = ["parallel", "parallel", "parallel", "parallel"]} ins(%extracted_slice_108, %424 : tensor<4x?x4x32xf16>, tensor<?x32xf16>) outs(%294 : tensor<4x?x4x32xf16>) {
    ^bb0(%in: f16, %in_1472: f16, %out: f16):
      %2625 = arith.mulf %in, %in_1472 : f16
      linalg.yield %2625 : f16
    } -> tensor<4x?x4x32xf16>
    %427 = linalg.generic {indexing_maps = [#map9, #map9, #map9], iterator_types = ["parallel", "parallel", "parallel", "parallel"]} ins(%425, %426 : tensor<4x?x4x32xf16>, tensor<4x?x4x32xf16>) outs(%294 : tensor<4x?x4x32xf16>) {
    ^bb0(%in: f16, %in_1472: f16, %out: f16):
      %2625 = arith.subf %in, %in_1472 : f16
      linalg.yield %2625 : f16
    } -> tensor<4x?x4x32xf16>
    %428 = linalg.generic {indexing_maps = [#map9, #map10, #map9], iterator_types = ["parallel", "parallel", "parallel", "parallel"]} ins(%extracted_slice_108, %421 : tensor<4x?x4x32xf16>, tensor<?x32xf16>) outs(%294 : tensor<4x?x4x32xf16>) {
    ^bb0(%in: f16, %in_1472: f16, %out: f16):
      %2625 = arith.mulf %in, %in_1472 : f16
      linalg.yield %2625 : f16
    } -> tensor<4x?x4x32xf16>
    %429 = linalg.generic {indexing_maps = [#map9, #map10, #map9], iterator_types = ["parallel", "parallel", "parallel", "parallel"]} ins(%extracted_slice_107, %424 : tensor<4x?x4x32xf16>, tensor<?x32xf16>) outs(%294 : tensor<4x?x4x32xf16>) {
    ^bb0(%in: f16, %in_1472: f16, %out: f16):
      %2625 = arith.mulf %in, %in_1472 : f16
      linalg.yield %2625 : f16
    } -> tensor<4x?x4x32xf16>
    %430 = linalg.generic {indexing_maps = [#map9, #map9, #map9], iterator_types = ["parallel", "parallel", "parallel", "parallel"]} ins(%428, %429 : tensor<4x?x4x32xf16>, tensor<4x?x4x32xf16>) outs(%294 : tensor<4x?x4x32xf16>) {
    ^bb0(%in: f16, %in_1472: f16, %out: f16):
      %2625 = arith.addf %in, %in_1472 : f16
      linalg.yield %2625 : f16
    } -> tensor<4x?x4x32xf16>
    %431 = linalg.generic {indexing_maps = [#map11, #map11, #map12], iterator_types = ["parallel", "parallel", "parallel", "parallel", "parallel"]} ins(%427, %430 : tensor<4x?x4x32xf16>, tensor<4x?x4x32xf16>) outs(%301 : tensor<4x?x4x2x32xf16>) {
    ^bb0(%in: f16, %in_1472: f16, %out: f16):
      %2625 = linalg.index 3 : index
      %2626 = arith.cmpi eq, %2625, %c0 : index
      %2627 = arith.select %2626, %in, %in_1472 : f16
      linalg.yield %2627 : f16
    } -> tensor<4x?x4x2x32xf16>
    %collapsed_109 = tensor.collapse_shape %431 [[0], [1], [2], [3, 4]] : tensor<4x?x4x2x32xf16> into tensor<4x?x4x64xf16>
    %432 = linalg.generic {indexing_maps = [#map2, #map2], iterator_types = ["parallel", "parallel"]} ins(%304 : tensor<4x?xi64>) outs(%303 : tensor<4x?xi64>) {
    ^bb0(%in: i64, %out: i64):
      %2625 = arith.addi %in, %c1_i64 : i64
      linalg.yield %2625 : i64
    } -> tensor<4x?xi64>
    %433 = linalg.generic {indexing_maps = [#map2, #map2], iterator_types = ["parallel", "parallel"]} ins(%432 : tensor<4x?xi64>) outs(%303 : tensor<4x?xi64>) {
    ^bb0(%in: i64, %out: i64):
      %2625 = arith.muli %in, %c2_i64 : i64
      linalg.yield %2625 : i64
    } -> tensor<4x?xi64>
    %collapsed_110 = tensor.collapse_shape %433 [[0, 1]] : tensor<4x?xi64> into tensor<?xi64>
    %expanded_111 = tensor.expand_shape %collapsed_109 [[0], [1, 2], [3], [4]] output_shape [4, %306, 32, 4, 64] : tensor<4x?x4x64xf16> into tensor<4x?x32x4x64xf16>
    %434 = linalg.generic {indexing_maps = [#map13, #map12], iterator_types = ["parallel", "parallel", "parallel", "parallel", "parallel"]} ins(%expanded_111 : tensor<4x?x32x4x64xf16>) outs(%307 : tensor<4x?x4x32x64xf16>) {
    ^bb0(%in: f16, %out: f16):
      linalg.yield %in : f16
    } -> tensor<4x?x4x32x64xf16>
    %collapsed_112 = tensor.collapse_shape %434 [[0, 1], [2], [3], [4]] : tensor<4x?x4x32x64xf16> into tensor<?x4x32x64xf16>
    %435 = iree_linalg_ext.scatter dimension_map = [0] unique_indices(true) ins(%collapsed_112, %collapsed_110 : tensor<?x4x32x64xf16>, tensor<?xi64>) outs(%312 : tensor<?x4x32x64xf16>) {
    ^bb0(%arg6: f16, %arg7: f16):
      iree_linalg_ext.yield %arg6 : f16
    } -> tensor<?x4x32x64xf16>
    %436 = linalg.generic {indexing_maps = [#map2, #map2], iterator_types = ["parallel", "parallel"]} ins(%433 : tensor<4x?xi64>) outs(%303 : tensor<4x?xi64>) {
    ^bb0(%in: i64, %out: i64):
      %2625 = arith.addi %in, %c1_i64 : i64
      linalg.yield %2625 : i64
    } -> tensor<4x?xi64>
    %collapsed_113 = tensor.collapse_shape %436 [[0, 1]] : tensor<4x?xi64> into tensor<?xi64>
    %expanded_114 = tensor.expand_shape %404 [[0], [1, 2], [3, 4]] output_shape [4, %306, 32, 4, 64] : tensor<4x?x256xf16> into tensor<4x?x32x4x64xf16>
    %437 = linalg.generic {indexing_maps = [#map13, #map12], iterator_types = ["parallel", "parallel", "parallel", "parallel", "parallel"]} ins(%expanded_114 : tensor<4x?x32x4x64xf16>) outs(%307 : tensor<4x?x4x32x64xf16>) {
    ^bb0(%in: f16, %out: f16):
      linalg.yield %in : f16
    } -> tensor<4x?x4x32x64xf16>
    %collapsed_115 = tensor.collapse_shape %437 [[0, 1], [2], [3], [4]] : tensor<4x?x4x32x64xf16> into tensor<?x4x32x64xf16>
    %438 = iree_linalg_ext.scatter dimension_map = [0] unique_indices(true) ins(%collapsed_115, %collapsed_113 : tensor<?x4x32x64xf16>, tensor<?xi64>) outs(%435 : tensor<?x4x32x64xf16>) {
    ^bb0(%arg6: f16, %arg7: f16):
      iree_linalg_ext.yield %arg6 : f16
    } -> tensor<?x4x32x64xf16>
    %439 = linalg.generic {indexing_maps = [#map19, #map19, #map12], iterator_types = ["parallel", "parallel", "parallel", "parallel", "parallel"]} ins(%414, %417 : tensor<4x?x32x32xf16>, tensor<4x?x32x32xf16>) outs(%321 : tensor<4x32x?x2x32xf16>) {
    ^bb0(%in: f16, %in_1472: f16, %out: f16):
      %2625 = linalg.index 3 : index
      %2626 = arith.cmpi eq, %2625, %c0 : index
      %2627 = arith.select %2626, %in, %in_1472 : f16
      linalg.yield %2627 : f16
    } -> tensor<4x32x?x2x32xf16>
    %440 = linalg.generic {indexing_maps = [#map20, #map12], iterator_types = ["parallel", "parallel", "parallel", "parallel", "parallel"]} ins(%collapsed_109 : tensor<4x?x4x64xf16>) outs(%323 : tensor<4x4x8x?x64xf16>) {
    ^bb0(%in: f16, %out: f16):
      linalg.yield %in : f16
    } -> tensor<4x4x8x?x64xf16>
    %collapsed_116 = tensor.collapse_shape %439 [[0, 1], [2], [3, 4]] : tensor<4x32x?x2x32xf16> into tensor<128x?x64xf16>
    %collapsed_117 = tensor.collapse_shape %440 [[0, 1, 2], [3], [4]] : tensor<4x4x8x?x64xf16> into tensor<128x?x64xf16>
    %441 = linalg.generic {indexing_maps = [#map22, #map12], iterator_types = ["parallel", "parallel", "parallel", "parallel", "parallel"]} ins(%expanded_96 : tensor<4x?x4x64xf16>) outs(%328 : tensor<4x4x8x64x?xf16>) {
    ^bb0(%in: f16, %out: f16):
      linalg.yield %in : f16
    } -> tensor<4x4x8x64x?xf16>
    %collapsed_118 = tensor.collapse_shape %441 [[0, 1, 2], [3], [4]] : tensor<4x4x8x64x?xf16> into tensor<128x64x?xf16>
    %442 = iree_linalg_ext.attention {indexing_maps = [#map23, #map24, #map25, #map26, #map27, #map6]} ins(%collapsed_116, %collapsed_117, %collapsed_118, %cst_5, %collapsed_51 : tensor<128x?x64xf16>, tensor<128x?x64xf16>, tensor<128x64x?xf16>, f16, tensor<128x?x?xf16>) outs(%327 : tensor<128x?x64xf16>) {
    ^bb0(%arg6: f32):
      iree_linalg_ext.yield %arg6 : f32
    } -> tensor<128x?x64xf16>
    %expanded_119 = tensor.expand_shape %442 [[0, 1], [2], [3]] output_shape [4, 32, %209, 64] : tensor<128x?x64xf16> into tensor<4x32x?x64xf16>
    %443 = linalg.generic {indexing_maps = [#map28, #map9], iterator_types = ["parallel", "parallel", "parallel", "parallel"]} ins(%expanded_119 : tensor<4x32x?x64xf16>) outs(%331 : tensor<4x?x32x64xf16>) {
    ^bb0(%in: f16, %out: f16):
      linalg.yield %in : f16
    } -> tensor<4x?x32x64xf16>
    %collapsed_120 = tensor.collapse_shape %443 [[0], [1], [2, 3]] : tensor<4x?x32x64xf16> into tensor<4x?x2048xf16>
    %444 = iree_tensor_ext.bitcast %14 : tensor<2048x2176xi8> -> tensor<2048x1088xi16>
    %expanded_121 = tensor.expand_shape %444 [[0], [1, 2]] output_shape [2048, 64, 17] : tensor<2048x1088xi16> into tensor<2048x64x17xi16>
    %extracted_slice_122 = tensor.extract_slice %expanded_121[0, 0, 0] [2048, 64, 1] [1, 1, 1] : tensor<2048x64x17xi16> to tensor<2048x64xi16>
    %expanded_123 = tensor.expand_shape %extracted_slice_122 [[0], [1, 2]] output_shape [2048, 64, 1] : tensor<2048x64xi16> into tensor<2048x64x1xi16>
    %445 = iree_tensor_ext.bitcast %expanded_123 : tensor<2048x64x1xi16> -> tensor<2048x64x1xf16>
    %extracted_slice_124 = tensor.extract_slice %expanded_121[0, 0, 1] [2048, 64, 16] [1, 1, 1] : tensor<2048x64x17xi16> to tensor<2048x64x16xi16>
    %446 = iree_tensor_ext.bitcast %extracted_slice_124 : tensor<2048x64x16xi16> -> tensor<2048x64x32xi8>
    %collapsed_125 = tensor.collapse_shape %445 [[0], [1, 2]] : tensor<2048x64x1xf16> into tensor<2048x64xf16>
    %447 = linalg.generic {indexing_maps = [#map1, #map, #map], iterator_types = ["parallel", "parallel", "parallel"]} ins(%collapsed_125, %446 : tensor<2048x64xf16>, tensor<2048x64x32xi8>) outs(%239 : tensor<2048x64x32xf16>) {
    ^bb0(%in: f16, %in_1472: i8, %out: f16):
      %2625 = arith.extsi %in_1472 : i8 to i32
      %2626 = arith.sitofp %2625 : i32 to f16
      %2627 = arith.mulf %2626, %in : f16
      linalg.yield %2627 : f16
    } -> tensor<2048x64x32xf16>
    %expanded_126 = tensor.expand_shape %collapsed_120 [[0], [1], [2, 3]] output_shape [4, %209, 64, 32] : tensor<4x?x2048xf16> into tensor<4x?x64x32xf16>
    %448 = linalg.generic {indexing_maps = [#map4, #map5, #map6], iterator_types = ["parallel", "parallel", "parallel", "reduction", "reduction"]} ins(%expanded_126, %447 : tensor<4x?x64x32xf16>, tensor<2048x64x32xf16>) outs(%241 : tensor<4x?x2048xf32>) {
    ^bb0(%in: f16, %in_1472: f16, %out: f32):
      %2625 = arith.mulf %in, %in_1472 : f16
      %2626 = arith.extf %2625 : f16 to f32
      %2627 = arith.addf %2626, %out : f32
      linalg.yield %2627 : f32
    } -> tensor<4x?x2048xf32>
    %449 = linalg.generic {indexing_maps = [#map, #map], iterator_types = ["parallel", "parallel", "parallel"]} ins(%448 : tensor<4x?x2048xf32>) outs(%221 : tensor<4x?x2048xf16>) {
    ^bb0(%in: f32, %out: f16):
      %2625 = arith.truncf %in : f32 to f16
      linalg.yield %2625 : f16
    } -> tensor<4x?x2048xf16>
    %450 = linalg.generic {indexing_maps = [#map, #map, #map], iterator_types = ["parallel", "parallel", "parallel"]} ins(%376, %449 : tensor<4x?x2048xf16>, tensor<4x?x2048xf16>) outs(%221 : tensor<4x?x2048xf16>) {
    ^bb0(%in: f16, %in_1472: f16, %out: f16):
      %2625 = arith.addf %in, %in_1472 : f16
      linalg.yield %2625 : f16
    } -> tensor<4x?x2048xf16>
    %451 = linalg.generic {indexing_maps = [#map, #map], iterator_types = ["parallel", "parallel", "parallel"]} ins(%450 : tensor<4x?x2048xf16>) outs(%223 : tensor<4x?x2048xf32>) {
    ^bb0(%in: f16, %out: f32):
      %2625 = arith.extf %in : f16 to f32
      linalg.yield %2625 : f32
    } -> tensor<4x?x2048xf32>
    %452 = linalg.generic {indexing_maps = [#map, #map], iterator_types = ["parallel", "parallel", "parallel"]} ins(%451 : tensor<4x?x2048xf32>) outs(%223 : tensor<4x?x2048xf32>) {
    ^bb0(%in: f32, %out: f32):
      %2625 = math.fpowi %in, %c2_i64 : f32, i64
      linalg.yield %2625 : f32
    } -> tensor<4x?x2048xf32>
    %453 = linalg.generic {indexing_maps = [#map, #map1], iterator_types = ["parallel", "parallel", "reduction"]} ins(%452 : tensor<4x?x2048xf32>) outs(%227 : tensor<4x?xf32>) {
    ^bb0(%in: f32, %out: f32):
      %2625 = arith.addf %in, %out : f32
      linalg.yield %2625 : f32
    } -> tensor<4x?xf32>
    %454 = linalg.generic {indexing_maps = [#map2, #map2], iterator_types = ["parallel", "parallel"]} ins(%453 : tensor<4x?xf32>) outs(%226 : tensor<4x?xf32>) {
    ^bb0(%in: f32, %out: f32):
      %2625 = arith.divf %in, %cst_0 : f32
      linalg.yield %2625 : f32
    } -> tensor<4x?xf32>
    %455 = linalg.generic {indexing_maps = [#map2, #map2], iterator_types = ["parallel", "parallel"]} ins(%454 : tensor<4x?xf32>) outs(%226 : tensor<4x?xf32>) {
    ^bb0(%in: f32, %out: f32):
      %2625 = arith.addf %in, %cst : f32
      linalg.yield %2625 : f32
    } -> tensor<4x?xf32>
    %456 = linalg.generic {indexing_maps = [#map2, #map2], iterator_types = ["parallel", "parallel"]} ins(%455 : tensor<4x?xf32>) outs(%226 : tensor<4x?xf32>) {
    ^bb0(%in: f32, %out: f32):
      %2625 = math.rsqrt %in : f32
      linalg.yield %2625 : f32
    } -> tensor<4x?xf32>
    %457 = linalg.generic {indexing_maps = [#map, #map1, #map], iterator_types = ["parallel", "parallel", "parallel"]} ins(%451, %456 : tensor<4x?x2048xf32>, tensor<4x?xf32>) outs(%223 : tensor<4x?x2048xf32>) {
    ^bb0(%in: f32, %in_1472: f32, %out: f32):
      %2625 = arith.mulf %in, %in_1472 : f32
      linalg.yield %2625 : f32
    } -> tensor<4x?x2048xf32>
    %458 = linalg.generic {indexing_maps = [#map, #map], iterator_types = ["parallel", "parallel", "parallel"]} ins(%457 : tensor<4x?x2048xf32>) outs(%221 : tensor<4x?x2048xf16>) {
    ^bb0(%in: f32, %out: f16):
      %2625 = arith.truncf %in : f32 to f16
      linalg.yield %2625 : f16
    } -> tensor<4x?x2048xf16>
    %459 = linalg.generic {indexing_maps = [#map3, #map, #map], iterator_types = ["parallel", "parallel", "parallel"]} ins(%15, %458 : tensor<2048xf32>, tensor<4x?x2048xf16>) outs(%223 : tensor<4x?x2048xf32>) {
    ^bb0(%in: f32, %in_1472: f16, %out: f32):
      %2625 = arith.extf %in_1472 : f16 to f32
      %2626 = arith.mulf %in, %2625 : f32
      linalg.yield %2626 : f32
    } -> tensor<4x?x2048xf32>
    %460 = linalg.generic {indexing_maps = [#map, #map], iterator_types = ["parallel", "parallel", "parallel"]} ins(%459 : tensor<4x?x2048xf32>) outs(%221 : tensor<4x?x2048xf16>) {
    ^bb0(%in: f32, %out: f16):
      %2625 = arith.truncf %in : f32 to f16
      linalg.yield %2625 : f16
    } -> tensor<4x?x2048xf16>
    %461 = iree_tensor_ext.bitcast %16 : tensor<5632x2176xi8> -> tensor<5632x1088xi16>
    %expanded_127 = tensor.expand_shape %461 [[0], [1, 2]] output_shape [5632, 64, 17] : tensor<5632x1088xi16> into tensor<5632x64x17xi16>
    %extracted_slice_128 = tensor.extract_slice %expanded_127[0, 0, 0] [5632, 64, 1] [1, 1, 1] : tensor<5632x64x17xi16> to tensor<5632x64xi16>
    %expanded_129 = tensor.expand_shape %extracted_slice_128 [[0], [1, 2]] output_shape [5632, 64, 1] : tensor<5632x64xi16> into tensor<5632x64x1xi16>
    %462 = iree_tensor_ext.bitcast %expanded_129 : tensor<5632x64x1xi16> -> tensor<5632x64x1xf16>
    %extracted_slice_130 = tensor.extract_slice %expanded_127[0, 0, 1] [5632, 64, 16] [1, 1, 1] : tensor<5632x64x17xi16> to tensor<5632x64x16xi16>
    %463 = iree_tensor_ext.bitcast %extracted_slice_130 : tensor<5632x64x16xi16> -> tensor<5632x64x32xi8>
    %collapsed_131 = tensor.collapse_shape %462 [[0], [1, 2]] : tensor<5632x64x1xf16> into tensor<5632x64xf16>
    %464 = linalg.generic {indexing_maps = [#map1, #map, #map], iterator_types = ["parallel", "parallel", "parallel"]} ins(%collapsed_131, %463 : tensor<5632x64xf16>, tensor<5632x64x32xi8>) outs(%353 : tensor<5632x64x32xf16>) {
    ^bb0(%in: f16, %in_1472: i8, %out: f16):
      %2625 = arith.extsi %in_1472 : i8 to i32
      %2626 = arith.sitofp %2625 : i32 to f16
      %2627 = arith.mulf %2626, %in : f16
      linalg.yield %2627 : f16
    } -> tensor<5632x64x32xf16>
    %expanded_132 = tensor.expand_shape %460 [[0], [1], [2, 3]] output_shape [4, %209, 64, 32] : tensor<4x?x2048xf16> into tensor<4x?x64x32xf16>
    %465 = linalg.generic {indexing_maps = [#map4, #map5, #map6], iterator_types = ["parallel", "parallel", "parallel", "reduction", "reduction"]} ins(%expanded_132, %464 : tensor<4x?x64x32xf16>, tensor<5632x64x32xf16>) outs(%356 : tensor<4x?x5632xf32>) {
    ^bb0(%in: f16, %in_1472: f16, %out: f32):
      %2625 = arith.mulf %in, %in_1472 : f16
      %2626 = arith.extf %2625 : f16 to f32
      %2627 = arith.addf %2626, %out : f32
      linalg.yield %2627 : f32
    } -> tensor<4x?x5632xf32>
    %466 = linalg.generic {indexing_maps = [#map, #map], iterator_types = ["parallel", "parallel", "parallel"]} ins(%465 : tensor<4x?x5632xf32>) outs(%358 : tensor<4x?x5632xf16>) {
    ^bb0(%in: f32, %out: f16):
      %2625 = arith.truncf %in : f32 to f16
      linalg.yield %2625 : f16
    } -> tensor<4x?x5632xf16>
    %467 = linalg.generic {indexing_maps = [#map, #map], iterator_types = ["parallel", "parallel", "parallel"]} ins(%466 : tensor<4x?x5632xf16>) outs(%358 : tensor<4x?x5632xf16>) {
    ^bb0(%in: f16, %out: f16):
      %2625 = arith.negf %in : f16
      %2626 = math.exp %2625 : f16
      %2627 = arith.addf %2626, %cst_1 : f16
      %2628 = arith.divf %cst_1, %2627 : f16
      linalg.yield %2628 : f16
    } -> tensor<4x?x5632xf16>
    %468 = linalg.generic {indexing_maps = [#map, #map, #map], iterator_types = ["parallel", "parallel", "parallel"]} ins(%467, %466 : tensor<4x?x5632xf16>, tensor<4x?x5632xf16>) outs(%358 : tensor<4x?x5632xf16>) {
    ^bb0(%in: f16, %in_1472: f16, %out: f16):
      %2625 = arith.mulf %in, %in_1472 : f16
      linalg.yield %2625 : f16
    } -> tensor<4x?x5632xf16>
    %469 = iree_tensor_ext.bitcast %17 : tensor<5632x2176xi8> -> tensor<5632x1088xi16>
    %expanded_133 = tensor.expand_shape %469 [[0], [1, 2]] output_shape [5632, 64, 17] : tensor<5632x1088xi16> into tensor<5632x64x17xi16>
    %extracted_slice_134 = tensor.extract_slice %expanded_133[0, 0, 0] [5632, 64, 1] [1, 1, 1] : tensor<5632x64x17xi16> to tensor<5632x64xi16>
    %expanded_135 = tensor.expand_shape %extracted_slice_134 [[0], [1, 2]] output_shape [5632, 64, 1] : tensor<5632x64xi16> into tensor<5632x64x1xi16>
    %470 = iree_tensor_ext.bitcast %expanded_135 : tensor<5632x64x1xi16> -> tensor<5632x64x1xf16>
    %extracted_slice_136 = tensor.extract_slice %expanded_133[0, 0, 1] [5632, 64, 16] [1, 1, 1] : tensor<5632x64x17xi16> to tensor<5632x64x16xi16>
    %471 = iree_tensor_ext.bitcast %extracted_slice_136 : tensor<5632x64x16xi16> -> tensor<5632x64x32xi8>
    %collapsed_137 = tensor.collapse_shape %470 [[0], [1, 2]] : tensor<5632x64x1xf16> into tensor<5632x64xf16>
    %472 = linalg.generic {indexing_maps = [#map1, #map, #map], iterator_types = ["parallel", "parallel", "parallel"]} ins(%collapsed_137, %471 : tensor<5632x64xf16>, tensor<5632x64x32xi8>) outs(%353 : tensor<5632x64x32xf16>) {
    ^bb0(%in: f16, %in_1472: i8, %out: f16):
      %2625 = arith.extsi %in_1472 : i8 to i32
      %2626 = arith.sitofp %2625 : i32 to f16
      %2627 = arith.mulf %2626, %in : f16
      linalg.yield %2627 : f16
    } -> tensor<5632x64x32xf16>
    %473 = linalg.generic {indexing_maps = [#map4, #map5, #map6], iterator_types = ["parallel", "parallel", "parallel", "reduction", "reduction"]} ins(%expanded_132, %472 : tensor<4x?x64x32xf16>, tensor<5632x64x32xf16>) outs(%356 : tensor<4x?x5632xf32>) {
    ^bb0(%in: f16, %in_1472: f16, %out: f32):
      %2625 = arith.mulf %in, %in_1472 : f16
      %2626 = arith.extf %2625 : f16 to f32
      %2627 = arith.addf %2626, %out : f32
      linalg.yield %2627 : f32
    } -> tensor<4x?x5632xf32>
    %474 = linalg.generic {indexing_maps = [#map, #map], iterator_types = ["parallel", "parallel", "parallel"]} ins(%473 : tensor<4x?x5632xf32>) outs(%358 : tensor<4x?x5632xf16>) {
    ^bb0(%in: f32, %out: f16):
      %2625 = arith.truncf %in : f32 to f16
      linalg.yield %2625 : f16
    } -> tensor<4x?x5632xf16>
    %475 = linalg.generic {indexing_maps = [#map, #map, #map], iterator_types = ["parallel", "parallel", "parallel"]} ins(%468, %474 : tensor<4x?x5632xf16>, tensor<4x?x5632xf16>) outs(%358 : tensor<4x?x5632xf16>) {
    ^bb0(%in: f16, %in_1472: f16, %out: f16):
      %2625 = arith.mulf %in, %in_1472 : f16
      linalg.yield %2625 : f16
    } -> tensor<4x?x5632xf16>
    %476 = iree_tensor_ext.bitcast %18 : tensor<2048x5984xi8> -> tensor<2048x2992xi16>
    %expanded_138 = tensor.expand_shape %476 [[0], [1, 2]] output_shape [2048, 176, 17] : tensor<2048x2992xi16> into tensor<2048x176x17xi16>
    %extracted_slice_139 = tensor.extract_slice %expanded_138[0, 0, 0] [2048, 176, 1] [1, 1, 1] : tensor<2048x176x17xi16> to tensor<2048x176xi16>
    %expanded_140 = tensor.expand_shape %extracted_slice_139 [[0], [1, 2]] output_shape [2048, 176, 1] : tensor<2048x176xi16> into tensor<2048x176x1xi16>
    %477 = iree_tensor_ext.bitcast %expanded_140 : tensor<2048x176x1xi16> -> tensor<2048x176x1xf16>
    %extracted_slice_141 = tensor.extract_slice %expanded_138[0, 0, 1] [2048, 176, 16] [1, 1, 1] : tensor<2048x176x17xi16> to tensor<2048x176x16xi16>
    %478 = iree_tensor_ext.bitcast %extracted_slice_141 : tensor<2048x176x16xi16> -> tensor<2048x176x32xi8>
    %collapsed_142 = tensor.collapse_shape %477 [[0], [1, 2]] : tensor<2048x176x1xf16> into tensor<2048x176xf16>
    %479 = linalg.generic {indexing_maps = [#map1, #map, #map], iterator_types = ["parallel", "parallel", "parallel"]} ins(%collapsed_142, %478 : tensor<2048x176xf16>, tensor<2048x176x32xi8>) outs(%372 : tensor<2048x176x32xf16>) {
    ^bb0(%in: f16, %in_1472: i8, %out: f16):
      %2625 = arith.extsi %in_1472 : i8 to i32
      %2626 = arith.sitofp %2625 : i32 to f16
      %2627 = arith.mulf %2626, %in : f16
      linalg.yield %2627 : f16
    } -> tensor<2048x176x32xf16>
    %expanded_143 = tensor.expand_shape %475 [[0], [1], [2, 3]] output_shape [4, %209, 176, 32] : tensor<4x?x5632xf16> into tensor<4x?x176x32xf16>
    %480 = linalg.generic {indexing_maps = [#map4, #map5, #map6], iterator_types = ["parallel", "parallel", "parallel", "reduction", "reduction"]} ins(%expanded_143, %479 : tensor<4x?x176x32xf16>, tensor<2048x176x32xf16>) outs(%241 : tensor<4x?x2048xf32>) {
    ^bb0(%in: f16, %in_1472: f16, %out: f32):
      %2625 = arith.mulf %in, %in_1472 : f16
      %2626 = arith.extf %2625 : f16 to f32
      %2627 = arith.addf %2626, %out : f32
      linalg.yield %2627 : f32
    } -> tensor<4x?x2048xf32>
    %481 = linalg.generic {indexing_maps = [#map, #map], iterator_types = ["parallel", "parallel", "parallel"]} ins(%480 : tensor<4x?x2048xf32>) outs(%221 : tensor<4x?x2048xf16>) {
    ^bb0(%in: f32, %out: f16):
      %2625 = arith.truncf %in : f32 to f16
      linalg.yield %2625 : f16
    } -> tensor<4x?x2048xf16>
    %482 = linalg.generic {indexing_maps = [#map, #map, #map], iterator_types = ["parallel", "parallel", "parallel"]} ins(%450, %481 : tensor<4x?x2048xf16>, tensor<4x?x2048xf16>) outs(%221 : tensor<4x?x2048xf16>) {
    ^bb0(%in: f16, %in_1472: f16, %out: f16):
      %2625 = arith.addf %in, %in_1472 : f16
      linalg.yield %2625 : f16
    } -> tensor<4x?x2048xf16>
    %483 = linalg.generic {indexing_maps = [#map, #map], iterator_types = ["parallel", "parallel", "parallel"]} ins(%482 : tensor<4x?x2048xf16>) outs(%223 : tensor<4x?x2048xf32>) {
    ^bb0(%in: f16, %out: f32):
      %2625 = arith.extf %in : f16 to f32
      linalg.yield %2625 : f32
    } -> tensor<4x?x2048xf32>
    %484 = linalg.generic {indexing_maps = [#map, #map], iterator_types = ["parallel", "parallel", "parallel"]} ins(%483 : tensor<4x?x2048xf32>) outs(%223 : tensor<4x?x2048xf32>) {
    ^bb0(%in: f32, %out: f32):
      %2625 = math.fpowi %in, %c2_i64 : f32, i64
      linalg.yield %2625 : f32
    } -> tensor<4x?x2048xf32>
    %485 = linalg.generic {indexing_maps = [#map, #map1], iterator_types = ["parallel", "parallel", "reduction"]} ins(%484 : tensor<4x?x2048xf32>) outs(%227 : tensor<4x?xf32>) {
    ^bb0(%in: f32, %out: f32):
      %2625 = arith.addf %in, %out : f32
      linalg.yield %2625 : f32
    } -> tensor<4x?xf32>
    %486 = linalg.generic {indexing_maps = [#map2, #map2], iterator_types = ["parallel", "parallel"]} ins(%485 : tensor<4x?xf32>) outs(%226 : tensor<4x?xf32>) {
    ^bb0(%in: f32, %out: f32):
      %2625 = arith.divf %in, %cst_0 : f32
      linalg.yield %2625 : f32
    } -> tensor<4x?xf32>
    %487 = linalg.generic {indexing_maps = [#map2, #map2], iterator_types = ["parallel", "parallel"]} ins(%486 : tensor<4x?xf32>) outs(%226 : tensor<4x?xf32>) {
    ^bb0(%in: f32, %out: f32):
      %2625 = arith.addf %in, %cst : f32
      linalg.yield %2625 : f32
    } -> tensor<4x?xf32>
    %488 = linalg.generic {indexing_maps = [#map2, #map2], iterator_types = ["parallel", "parallel"]} ins(%487 : tensor<4x?xf32>) outs(%226 : tensor<4x?xf32>) {
    ^bb0(%in: f32, %out: f32):
      %2625 = math.rsqrt %in : f32
      linalg.yield %2625 : f32
    } -> tensor<4x?xf32>
    %489 = linalg.generic {indexing_maps = [#map, #map1, #map], iterator_types = ["parallel", "parallel", "parallel"]} ins(%483, %488 : tensor<4x?x2048xf32>, tensor<4x?xf32>) outs(%223 : tensor<4x?x2048xf32>) {
    ^bb0(%in: f32, %in_1472: f32, %out: f32):
      %2625 = arith.mulf %in, %in_1472 : f32
      linalg.yield %2625 : f32
    } -> tensor<4x?x2048xf32>
    %490 = linalg.generic {indexing_maps = [#map, #map], iterator_types = ["parallel", "parallel", "parallel"]} ins(%489 : tensor<4x?x2048xf32>) outs(%221 : tensor<4x?x2048xf16>) {
    ^bb0(%in: f32, %out: f16):
      %2625 = arith.truncf %in : f32 to f16
      linalg.yield %2625 : f16
    } -> tensor<4x?x2048xf16>
    %491 = linalg.generic {indexing_maps = [#map3, #map, #map], iterator_types = ["parallel", "parallel", "parallel"]} ins(%19, %490 : tensor<2048xf32>, tensor<4x?x2048xf16>) outs(%223 : tensor<4x?x2048xf32>) {
    ^bb0(%in: f32, %in_1472: f16, %out: f32):
      %2625 = arith.extf %in_1472 : f16 to f32
      %2626 = arith.mulf %in, %2625 : f32
      linalg.yield %2626 : f32
    } -> tensor<4x?x2048xf32>
    %492 = linalg.generic {indexing_maps = [#map, #map], iterator_types = ["parallel", "parallel", "parallel"]} ins(%491 : tensor<4x?x2048xf32>) outs(%221 : tensor<4x?x2048xf16>) {
    ^bb0(%in: f32, %out: f16):
      %2625 = arith.truncf %in : f32 to f16
      linalg.yield %2625 : f16
    } -> tensor<4x?x2048xf16>
    %493 = iree_tensor_ext.bitcast %20 : tensor<2048x2176xi8> -> tensor<2048x1088xi16>
    %expanded_144 = tensor.expand_shape %493 [[0], [1, 2]] output_shape [2048, 64, 17] : tensor<2048x1088xi16> into tensor<2048x64x17xi16>
    %extracted_slice_145 = tensor.extract_slice %expanded_144[0, 0, 0] [2048, 64, 1] [1, 1, 1] : tensor<2048x64x17xi16> to tensor<2048x64xi16>
    %expanded_146 = tensor.expand_shape %extracted_slice_145 [[0], [1, 2]] output_shape [2048, 64, 1] : tensor<2048x64xi16> into tensor<2048x64x1xi16>
    %494 = iree_tensor_ext.bitcast %expanded_146 : tensor<2048x64x1xi16> -> tensor<2048x64x1xf16>
    %extracted_slice_147 = tensor.extract_slice %expanded_144[0, 0, 1] [2048, 64, 16] [1, 1, 1] : tensor<2048x64x17xi16> to tensor<2048x64x16xi16>
    %495 = iree_tensor_ext.bitcast %extracted_slice_147 : tensor<2048x64x16xi16> -> tensor<2048x64x32xi8>
    %collapsed_148 = tensor.collapse_shape %494 [[0], [1, 2]] : tensor<2048x64x1xf16> into tensor<2048x64xf16>
    %496 = linalg.generic {indexing_maps = [#map1, #map, #map], iterator_types = ["parallel", "parallel", "parallel"]} ins(%collapsed_148, %495 : tensor<2048x64xf16>, tensor<2048x64x32xi8>) outs(%239 : tensor<2048x64x32xf16>) {
    ^bb0(%in: f16, %in_1472: i8, %out: f16):
      %2625 = arith.extsi %in_1472 : i8 to i32
      %2626 = arith.sitofp %2625 : i32 to f16
      %2627 = arith.mulf %2626, %in : f16
      linalg.yield %2627 : f16
    } -> tensor<2048x64x32xf16>
    %expanded_149 = tensor.expand_shape %492 [[0], [1], [2, 3]] output_shape [4, %209, 64, 32] : tensor<4x?x2048xf16> into tensor<4x?x64x32xf16>
    %497 = linalg.generic {indexing_maps = [#map4, #map5, #map6], iterator_types = ["parallel", "parallel", "parallel", "reduction", "reduction"]} ins(%expanded_149, %496 : tensor<4x?x64x32xf16>, tensor<2048x64x32xf16>) outs(%241 : tensor<4x?x2048xf32>) {
    ^bb0(%in: f16, %in_1472: f16, %out: f32):
      %2625 = arith.mulf %in, %in_1472 : f16
      %2626 = arith.extf %2625 : f16 to f32
      %2627 = arith.addf %2626, %out : f32
      linalg.yield %2627 : f32
    } -> tensor<4x?x2048xf32>
    %498 = linalg.generic {indexing_maps = [#map, #map], iterator_types = ["parallel", "parallel", "parallel"]} ins(%497 : tensor<4x?x2048xf32>) outs(%221 : tensor<4x?x2048xf16>) {
    ^bb0(%in: f32, %out: f16):
      %2625 = arith.truncf %in : f32 to f16
      linalg.yield %2625 : f16
    } -> tensor<4x?x2048xf16>
    %499 = iree_tensor_ext.bitcast %21 : tensor<256x2176xi8> -> tensor<256x1088xi16>
    %expanded_150 = tensor.expand_shape %499 [[0], [1, 2]] output_shape [256, 64, 17] : tensor<256x1088xi16> into tensor<256x64x17xi16>
    %extracted_slice_151 = tensor.extract_slice %expanded_150[0, 0, 0] [256, 64, 1] [1, 1, 1] : tensor<256x64x17xi16> to tensor<256x64xi16>
    %expanded_152 = tensor.expand_shape %extracted_slice_151 [[0], [1, 2]] output_shape [256, 64, 1] : tensor<256x64xi16> into tensor<256x64x1xi16>
    %500 = iree_tensor_ext.bitcast %expanded_152 : tensor<256x64x1xi16> -> tensor<256x64x1xf16>
    %extracted_slice_153 = tensor.extract_slice %expanded_150[0, 0, 1] [256, 64, 16] [1, 1, 1] : tensor<256x64x17xi16> to tensor<256x64x16xi16>
    %501 = iree_tensor_ext.bitcast %extracted_slice_153 : tensor<256x64x16xi16> -> tensor<256x64x32xi8>
    %collapsed_154 = tensor.collapse_shape %500 [[0], [1, 2]] : tensor<256x64x1xf16> into tensor<256x64xf16>
    %502 = linalg.generic {indexing_maps = [#map1, #map, #map], iterator_types = ["parallel", "parallel", "parallel"]} ins(%collapsed_154, %501 : tensor<256x64xf16>, tensor<256x64x32xi8>) outs(%247 : tensor<256x64x32xf16>) {
    ^bb0(%in: f16, %in_1472: i8, %out: f16):
      %2625 = arith.extsi %in_1472 : i8 to i32
      %2626 = arith.sitofp %2625 : i32 to f16
      %2627 = arith.mulf %2626, %in : f16
      linalg.yield %2627 : f16
    } -> tensor<256x64x32xf16>
    %503 = linalg.generic {indexing_maps = [#map4, #map5, #map6], iterator_types = ["parallel", "parallel", "parallel", "reduction", "reduction"]} ins(%expanded_149, %502 : tensor<4x?x64x32xf16>, tensor<256x64x32xf16>) outs(%250 : tensor<4x?x256xf32>) {
    ^bb0(%in: f16, %in_1472: f16, %out: f32):
      %2625 = arith.mulf %in, %in_1472 : f16
      %2626 = arith.extf %2625 : f16 to f32
      %2627 = arith.addf %2626, %out : f32
      linalg.yield %2627 : f32
    } -> tensor<4x?x256xf32>
    %504 = linalg.generic {indexing_maps = [#map, #map], iterator_types = ["parallel", "parallel", "parallel"]} ins(%503 : tensor<4x?x256xf32>) outs(%252 : tensor<4x?x256xf16>) {
    ^bb0(%in: f32, %out: f16):
      %2625 = arith.truncf %in : f32 to f16
      linalg.yield %2625 : f16
    } -> tensor<4x?x256xf16>
    %505 = iree_tensor_ext.bitcast %22 : tensor<256x2176xi8> -> tensor<256x1088xi16>
    %expanded_155 = tensor.expand_shape %505 [[0], [1, 2]] output_shape [256, 64, 17] : tensor<256x1088xi16> into tensor<256x64x17xi16>
    %extracted_slice_156 = tensor.extract_slice %expanded_155[0, 0, 0] [256, 64, 1] [1, 1, 1] : tensor<256x64x17xi16> to tensor<256x64xi16>
    %expanded_157 = tensor.expand_shape %extracted_slice_156 [[0], [1, 2]] output_shape [256, 64, 1] : tensor<256x64xi16> into tensor<256x64x1xi16>
    %506 = iree_tensor_ext.bitcast %expanded_157 : tensor<256x64x1xi16> -> tensor<256x64x1xf16>
    %extracted_slice_158 = tensor.extract_slice %expanded_155[0, 0, 1] [256, 64, 16] [1, 1, 1] : tensor<256x64x17xi16> to tensor<256x64x16xi16>
    %507 = iree_tensor_ext.bitcast %extracted_slice_158 : tensor<256x64x16xi16> -> tensor<256x64x32xi8>
    %collapsed_159 = tensor.collapse_shape %506 [[0], [1, 2]] : tensor<256x64x1xf16> into tensor<256x64xf16>
    %508 = linalg.generic {indexing_maps = [#map1, #map, #map], iterator_types = ["parallel", "parallel", "parallel"]} ins(%collapsed_159, %507 : tensor<256x64xf16>, tensor<256x64x32xi8>) outs(%247 : tensor<256x64x32xf16>) {
    ^bb0(%in: f16, %in_1472: i8, %out: f16):
      %2625 = arith.extsi %in_1472 : i8 to i32
      %2626 = arith.sitofp %2625 : i32 to f16
      %2627 = arith.mulf %2626, %in : f16
      linalg.yield %2627 : f16
    } -> tensor<256x64x32xf16>
    %509 = linalg.generic {indexing_maps = [#map4, #map5, #map6], iterator_types = ["parallel", "parallel", "parallel", "reduction", "reduction"]} ins(%expanded_149, %508 : tensor<4x?x64x32xf16>, tensor<256x64x32xf16>) outs(%250 : tensor<4x?x256xf32>) {
    ^bb0(%in: f16, %in_1472: f16, %out: f32):
      %2625 = arith.mulf %in, %in_1472 : f16
      %2626 = arith.extf %2625 : f16 to f32
      %2627 = arith.addf %2626, %out : f32
      linalg.yield %2627 : f32
    } -> tensor<4x?x256xf32>
    %510 = linalg.generic {indexing_maps = [#map, #map], iterator_types = ["parallel", "parallel", "parallel"]} ins(%509 : tensor<4x?x256xf32>) outs(%252 : tensor<4x?x256xf16>) {
    ^bb0(%in: f32, %out: f16):
      %2625 = arith.truncf %in : f32 to f16
      linalg.yield %2625 : f16
    } -> tensor<4x?x256xf16>
    %expanded_160 = tensor.expand_shape %498 [[0], [1], [2, 3]] output_shape [4, %209, 32, 64] : tensor<4x?x2048xf16> into tensor<4x?x32x64xf16>
    %expanded_161 = tensor.expand_shape %504 [[0], [1], [2, 3]] output_shape [4, %209, 4, 64] : tensor<4x?x256xf16> into tensor<4x?x4x64xf16>
    %expanded_162 = tensor.expand_shape %510 [[0], [1], [2, 3]] output_shape [4, %209, 4, 64] : tensor<4x?x256xf16> into tensor<4x?x4x64xf16>
    %__hoisted_tensor_32xf32_4 = util.global.load immutable @__hoisted_tensor_32xf32_4 : tensor<32xf32>
    %expanded_163 = tensor.expand_shape %__hoisted_tensor_32xf32_4 [[0, 1, 2, 3, 4]] output_shape [1, 4, 1, 8, 1] : tensor<32xf32> into tensor<1x4x1x8x1xf32>
    %511 = linalg.batch_mmt4d ins(%expanded_163, %pack : tensor<1x4x1x8x1xf32>, tensor<1x?x1x8x1xf32>) outs(%269 : tensor<1x4x?x8x8xf32>) -> tensor<1x4x?x8x8xf32>
    %unpack_164 = linalg.unpack %511 outer_dims_perm = [1, 2, 0] inner_dims_pos = [2, 0] inner_tiles = [8, 8] into %272 : tensor<1x4x?x8x8xf32> -> tensor<?x1x32xf32>
    %512 = linalg.generic {indexing_maps = [#map, #map], iterator_types = ["parallel", "parallel", "parallel"]} ins(%unpack_164 : tensor<?x1x32xf32>) outs(%272 : tensor<?x1x32xf32>) {
    ^bb0(%in: f32, %out: f32):
      %2625 = math.cos %in : f32
      linalg.yield %2625 : f32
    } -> tensor<?x1x32xf32>
    %collapsed_165 = tensor.collapse_shape %512 [[0], [1, 2]] : tensor<?x1x32xf32> into tensor<?x32xf32>
    %513 = linalg.generic {indexing_maps = [#map2, #map8, #map2], iterator_types = ["parallel", "parallel"]} ins(%collapsed_165, %cst_3 : tensor<?x32xf32>, tensor<f32>) outs(%271 : tensor<?x32xf32>) {
    ^bb0(%in: f32, %in_1472: f32, %out: f32):
      %2625 = arith.mulf %in, %in_1472 : f32
      linalg.yield %2625 : f32
    } -> tensor<?x32xf32>
    %514 = linalg.generic {indexing_maps = [#map2, #map2], iterator_types = ["parallel", "parallel"]} ins(%513 : tensor<?x32xf32>) outs(%275 : tensor<?x32xf16>) {
    ^bb0(%in: f32, %out: f16):
      %2625 = arith.truncf %in : f32 to f16
      linalg.yield %2625 : f16
    } -> tensor<?x32xf16>
    %515 = linalg.generic {indexing_maps = [#map, #map], iterator_types = ["parallel", "parallel", "parallel"]} ins(%unpack_164 : tensor<?x1x32xf32>) outs(%272 : tensor<?x1x32xf32>) {
    ^bb0(%in: f32, %out: f32):
      %2625 = math.sin %in : f32
      linalg.yield %2625 : f32
    } -> tensor<?x1x32xf32>
    %collapsed_166 = tensor.collapse_shape %515 [[0], [1, 2]] : tensor<?x1x32xf32> into tensor<?x32xf32>
    %516 = linalg.generic {indexing_maps = [#map2, #map8, #map2], iterator_types = ["parallel", "parallel"]} ins(%collapsed_166, %cst_3 : tensor<?x32xf32>, tensor<f32>) outs(%271 : tensor<?x32xf32>) {
    ^bb0(%in: f32, %in_1472: f32, %out: f32):
      %2625 = arith.mulf %in, %in_1472 : f32
      linalg.yield %2625 : f32
    } -> tensor<?x32xf32>
    %517 = linalg.generic {indexing_maps = [#map2, #map2], iterator_types = ["parallel", "parallel"]} ins(%516 : tensor<?x32xf32>) outs(%275 : tensor<?x32xf16>) {
    ^bb0(%in: f32, %out: f16):
      %2625 = arith.truncf %in : f32 to f16
      linalg.yield %2625 : f16
    } -> tensor<?x32xf16>
    %extracted_slice_167 = tensor.extract_slice %expanded_160[0, 0, 0, 0] [4, %209, 32, 32] [1, 1, 1, 2] : tensor<4x?x32x64xf16> to tensor<4x?x32x32xf16>
    %extracted_slice_168 = tensor.extract_slice %expanded_160[0, 0, 0, 1] [4, %209, 32, 32] [1, 1, 1, 2] : tensor<4x?x32x64xf16> to tensor<4x?x32x32xf16>
    %518 = linalg.generic {indexing_maps = [#map9, #map10, #map9], iterator_types = ["parallel", "parallel", "parallel", "parallel"]} ins(%extracted_slice_167, %514 : tensor<4x?x32x32xf16>, tensor<?x32xf16>) outs(%280 : tensor<4x?x32x32xf16>) {
    ^bb0(%in: f16, %in_1472: f16, %out: f16):
      %2625 = arith.mulf %in, %in_1472 : f16
      linalg.yield %2625 : f16
    } -> tensor<4x?x32x32xf16>
    %519 = linalg.generic {indexing_maps = [#map9, #map10, #map9], iterator_types = ["parallel", "parallel", "parallel", "parallel"]} ins(%extracted_slice_168, %517 : tensor<4x?x32x32xf16>, tensor<?x32xf16>) outs(%280 : tensor<4x?x32x32xf16>) {
    ^bb0(%in: f16, %in_1472: f16, %out: f16):
      %2625 = arith.mulf %in, %in_1472 : f16
      linalg.yield %2625 : f16
    } -> tensor<4x?x32x32xf16>
    %520 = linalg.generic {indexing_maps = [#map9, #map9, #map9], iterator_types = ["parallel", "parallel", "parallel", "parallel"]} ins(%518, %519 : tensor<4x?x32x32xf16>, tensor<4x?x32x32xf16>) outs(%280 : tensor<4x?x32x32xf16>) {
    ^bb0(%in: f16, %in_1472: f16, %out: f16):
      %2625 = arith.subf %in, %in_1472 : f16
      linalg.yield %2625 : f16
    } -> tensor<4x?x32x32xf16>
    %521 = linalg.generic {indexing_maps = [#map9, #map10, #map9], iterator_types = ["parallel", "parallel", "parallel", "parallel"]} ins(%extracted_slice_168, %514 : tensor<4x?x32x32xf16>, tensor<?x32xf16>) outs(%280 : tensor<4x?x32x32xf16>) {
    ^bb0(%in: f16, %in_1472: f16, %out: f16):
      %2625 = arith.mulf %in, %in_1472 : f16
      linalg.yield %2625 : f16
    } -> tensor<4x?x32x32xf16>
    %522 = linalg.generic {indexing_maps = [#map9, #map10, #map9], iterator_types = ["parallel", "parallel", "parallel", "parallel"]} ins(%extracted_slice_167, %517 : tensor<4x?x32x32xf16>, tensor<?x32xf16>) outs(%280 : tensor<4x?x32x32xf16>) {
    ^bb0(%in: f16, %in_1472: f16, %out: f16):
      %2625 = arith.mulf %in, %in_1472 : f16
      linalg.yield %2625 : f16
    } -> tensor<4x?x32x32xf16>
    %523 = linalg.generic {indexing_maps = [#map9, #map9, #map9], iterator_types = ["parallel", "parallel", "parallel", "parallel"]} ins(%521, %522 : tensor<4x?x32x32xf16>, tensor<4x?x32x32xf16>) outs(%280 : tensor<4x?x32x32xf16>) {
    ^bb0(%in: f16, %in_1472: f16, %out: f16):
      %2625 = arith.addf %in, %in_1472 : f16
      linalg.yield %2625 : f16
    } -> tensor<4x?x32x32xf16>
    %__hoisted_tensor_32xf32_5 = util.global.load immutable @__hoisted_tensor_32xf32_5 : tensor<32xf32>
    %expanded_169 = tensor.expand_shape %__hoisted_tensor_32xf32_5 [[0, 1, 2, 3, 4]] output_shape [1, 4, 1, 8, 1] : tensor<32xf32> into tensor<1x4x1x8x1xf32>
    %524 = linalg.batch_mmt4d ins(%expanded_169, %pack : tensor<1x4x1x8x1xf32>, tensor<1x?x1x8x1xf32>) outs(%269 : tensor<1x4x?x8x8xf32>) -> tensor<1x4x?x8x8xf32>
    %unpack_170 = linalg.unpack %524 outer_dims_perm = [1, 2, 0] inner_dims_pos = [2, 0] inner_tiles = [8, 8] into %272 : tensor<1x4x?x8x8xf32> -> tensor<?x1x32xf32>
    %525 = linalg.generic {indexing_maps = [#map, #map], iterator_types = ["parallel", "parallel", "parallel"]} ins(%unpack_170 : tensor<?x1x32xf32>) outs(%272 : tensor<?x1x32xf32>) {
    ^bb0(%in: f32, %out: f32):
      %2625 = math.cos %in : f32
      linalg.yield %2625 : f32
    } -> tensor<?x1x32xf32>
    %collapsed_171 = tensor.collapse_shape %525 [[0], [1, 2]] : tensor<?x1x32xf32> into tensor<?x32xf32>
    %526 = linalg.generic {indexing_maps = [#map2, #map8, #map2], iterator_types = ["parallel", "parallel"]} ins(%collapsed_171, %cst_3 : tensor<?x32xf32>, tensor<f32>) outs(%271 : tensor<?x32xf32>) {
    ^bb0(%in: f32, %in_1472: f32, %out: f32):
      %2625 = arith.mulf %in, %in_1472 : f32
      linalg.yield %2625 : f32
    } -> tensor<?x32xf32>
    %527 = linalg.generic {indexing_maps = [#map2, #map2], iterator_types = ["parallel", "parallel"]} ins(%526 : tensor<?x32xf32>) outs(%275 : tensor<?x32xf16>) {
    ^bb0(%in: f32, %out: f16):
      %2625 = arith.truncf %in : f32 to f16
      linalg.yield %2625 : f16
    } -> tensor<?x32xf16>
    %528 = linalg.generic {indexing_maps = [#map, #map], iterator_types = ["parallel", "parallel", "parallel"]} ins(%unpack_170 : tensor<?x1x32xf32>) outs(%272 : tensor<?x1x32xf32>) {
    ^bb0(%in: f32, %out: f32):
      %2625 = math.sin %in : f32
      linalg.yield %2625 : f32
    } -> tensor<?x1x32xf32>
    %collapsed_172 = tensor.collapse_shape %528 [[0], [1, 2]] : tensor<?x1x32xf32> into tensor<?x32xf32>
    %529 = linalg.generic {indexing_maps = [#map2, #map8, #map2], iterator_types = ["parallel", "parallel"]} ins(%collapsed_172, %cst_3 : tensor<?x32xf32>, tensor<f32>) outs(%271 : tensor<?x32xf32>) {
    ^bb0(%in: f32, %in_1472: f32, %out: f32):
      %2625 = arith.mulf %in, %in_1472 : f32
      linalg.yield %2625 : f32
    } -> tensor<?x32xf32>
    %530 = linalg.generic {indexing_maps = [#map2, #map2], iterator_types = ["parallel", "parallel"]} ins(%529 : tensor<?x32xf32>) outs(%275 : tensor<?x32xf16>) {
    ^bb0(%in: f32, %out: f16):
      %2625 = arith.truncf %in : f32 to f16
      linalg.yield %2625 : f16
    } -> tensor<?x32xf16>
    %extracted_slice_173 = tensor.extract_slice %expanded_161[0, 0, 0, 0] [4, %209, 4, 32] [1, 1, 1, 2] : tensor<4x?x4x64xf16> to tensor<4x?x4x32xf16>
    %extracted_slice_174 = tensor.extract_slice %expanded_161[0, 0, 0, 1] [4, %209, 4, 32] [1, 1, 1, 2] : tensor<4x?x4x64xf16> to tensor<4x?x4x32xf16>
    %531 = linalg.generic {indexing_maps = [#map9, #map10, #map9], iterator_types = ["parallel", "parallel", "parallel", "parallel"]} ins(%extracted_slice_173, %527 : tensor<4x?x4x32xf16>, tensor<?x32xf16>) outs(%294 : tensor<4x?x4x32xf16>) {
    ^bb0(%in: f16, %in_1472: f16, %out: f16):
      %2625 = arith.mulf %in, %in_1472 : f16
      linalg.yield %2625 : f16
    } -> tensor<4x?x4x32xf16>
    %532 = linalg.generic {indexing_maps = [#map9, #map10, #map9], iterator_types = ["parallel", "parallel", "parallel", "parallel"]} ins(%extracted_slice_174, %530 : tensor<4x?x4x32xf16>, tensor<?x32xf16>) outs(%294 : tensor<4x?x4x32xf16>) {
    ^bb0(%in: f16, %in_1472: f16, %out: f16):
      %2625 = arith.mulf %in, %in_1472 : f16
      linalg.yield %2625 : f16
    } -> tensor<4x?x4x32xf16>
    %533 = linalg.generic {indexing_maps = [#map9, #map9, #map9], iterator_types = ["parallel", "parallel", "parallel", "parallel"]} ins(%531, %532 : tensor<4x?x4x32xf16>, tensor<4x?x4x32xf16>) outs(%294 : tensor<4x?x4x32xf16>) {
    ^bb0(%in: f16, %in_1472: f16, %out: f16):
      %2625 = arith.subf %in, %in_1472 : f16
      linalg.yield %2625 : f16
    } -> tensor<4x?x4x32xf16>
    %534 = linalg.generic {indexing_maps = [#map9, #map10, #map9], iterator_types = ["parallel", "parallel", "parallel", "parallel"]} ins(%extracted_slice_174, %527 : tensor<4x?x4x32xf16>, tensor<?x32xf16>) outs(%294 : tensor<4x?x4x32xf16>) {
    ^bb0(%in: f16, %in_1472: f16, %out: f16):
      %2625 = arith.mulf %in, %in_1472 : f16
      linalg.yield %2625 : f16
    } -> tensor<4x?x4x32xf16>
    %535 = linalg.generic {indexing_maps = [#map9, #map10, #map9], iterator_types = ["parallel", "parallel", "parallel", "parallel"]} ins(%extracted_slice_173, %530 : tensor<4x?x4x32xf16>, tensor<?x32xf16>) outs(%294 : tensor<4x?x4x32xf16>) {
    ^bb0(%in: f16, %in_1472: f16, %out: f16):
      %2625 = arith.mulf %in, %in_1472 : f16
      linalg.yield %2625 : f16
    } -> tensor<4x?x4x32xf16>
    %536 = linalg.generic {indexing_maps = [#map9, #map9, #map9], iterator_types = ["parallel", "parallel", "parallel", "parallel"]} ins(%534, %535 : tensor<4x?x4x32xf16>, tensor<4x?x4x32xf16>) outs(%294 : tensor<4x?x4x32xf16>) {
    ^bb0(%in: f16, %in_1472: f16, %out: f16):
      %2625 = arith.addf %in, %in_1472 : f16
      linalg.yield %2625 : f16
    } -> tensor<4x?x4x32xf16>
    %537 = linalg.generic {indexing_maps = [#map11, #map11, #map12], iterator_types = ["parallel", "parallel", "parallel", "parallel", "parallel"]} ins(%533, %536 : tensor<4x?x4x32xf16>, tensor<4x?x4x32xf16>) outs(%301 : tensor<4x?x4x2x32xf16>) {
    ^bb0(%in: f16, %in_1472: f16, %out: f16):
      %2625 = linalg.index 3 : index
      %2626 = arith.cmpi eq, %2625, %c0 : index
      %2627 = arith.select %2626, %in, %in_1472 : f16
      linalg.yield %2627 : f16
    } -> tensor<4x?x4x2x32xf16>
    %collapsed_175 = tensor.collapse_shape %537 [[0], [1], [2], [3, 4]] : tensor<4x?x4x2x32xf16> into tensor<4x?x4x64xf16>
    %538 = linalg.generic {indexing_maps = [#map2, #map2], iterator_types = ["parallel", "parallel"]} ins(%304 : tensor<4x?xi64>) outs(%303 : tensor<4x?xi64>) {
    ^bb0(%in: i64, %out: i64):
      %2625 = arith.addi %in, %c2_i64 : i64
      linalg.yield %2625 : i64
    } -> tensor<4x?xi64>
    %539 = linalg.generic {indexing_maps = [#map2, #map2], iterator_types = ["parallel", "parallel"]} ins(%538 : tensor<4x?xi64>) outs(%303 : tensor<4x?xi64>) {
    ^bb0(%in: i64, %out: i64):
      %2625 = arith.muli %in, %c2_i64 : i64
      linalg.yield %2625 : i64
    } -> tensor<4x?xi64>
    %collapsed_176 = tensor.collapse_shape %539 [[0, 1]] : tensor<4x?xi64> into tensor<?xi64>
    %expanded_177 = tensor.expand_shape %collapsed_175 [[0], [1, 2], [3], [4]] output_shape [4, %306, 32, 4, 64] : tensor<4x?x4x64xf16> into tensor<4x?x32x4x64xf16>
    %540 = linalg.generic {indexing_maps = [#map13, #map12], iterator_types = ["parallel", "parallel", "parallel", "parallel", "parallel"]} ins(%expanded_177 : tensor<4x?x32x4x64xf16>) outs(%307 : tensor<4x?x4x32x64xf16>) {
    ^bb0(%in: f16, %out: f16):
      linalg.yield %in : f16
    } -> tensor<4x?x4x32x64xf16>
    %collapsed_178 = tensor.collapse_shape %540 [[0, 1], [2], [3], [4]] : tensor<4x?x4x32x64xf16> into tensor<?x4x32x64xf16>
    %541 = iree_linalg_ext.scatter dimension_map = [0] unique_indices(true) ins(%collapsed_178, %collapsed_176 : tensor<?x4x32x64xf16>, tensor<?xi64>) outs(%438 : tensor<?x4x32x64xf16>) {
    ^bb0(%arg6: f16, %arg7: f16):
      iree_linalg_ext.yield %arg6 : f16
    } -> tensor<?x4x32x64xf16>
…
    } -> tensor<4xf32>
    %2705 = linalg.generic {indexing_maps = [#map7, #map7], iterator_types = ["parallel"]} ins(%2704 : tensor<4xf32>) outs(%223 : tensor<4xf32>) {
    ^bb0(%in: f32, %out: f32):
      %2839 = arith.addf %in, %cst_0 : f32
      linalg.yield %2839 : f32
    } -> tensor<4xf32>
    %2706 = linalg.generic {indexing_maps = [#map7, #map7], iterator_types = ["parallel"]} ins(%2705 : tensor<4xf32>) outs(%223 : tensor<4xf32>) {
    ^bb0(%in: f32, %out: f32):
      %2839 = math.rsqrt %in : f32
      linalg.yield %2839 : f32
    } -> tensor<4xf32>
    %2707 = linalg.generic {indexing_maps = [#map2, #map15, #map2], iterator_types = ["parallel", "parallel"]} ins(%2701, %2706 : tensor<4x2048xf32>, tensor<4xf32>) outs(%220 : tensor<4x2048xf32>) {
    ^bb0(%in: f32, %in_1410: f32, %out: f32):
      %2839 = arith.mulf %in, %in_1410 : f32
      linalg.yield %2839 : f32
    } -> tensor<4x2048xf32>
    %2708 = linalg.generic {indexing_maps = [#map2, #map2], iterator_types = ["parallel", "parallel"]} ins(%2707 : tensor<4x2048xf32>) outs(%218 : tensor<4x2048xf16>) {
    ^bb0(%in: f32, %out: f16):
      %2839 = arith.truncf %in : f32 to f16
      linalg.yield %2839 : f16
    } -> tensor<4x2048xf16>
    %2709 = linalg.generic {indexing_maps = [#map14, #map2, #map2], iterator_types = ["parallel", "parallel"]} ins(%190, %2708 : tensor<2048xf32>, tensor<4x2048xf16>) outs(%220 : tensor<4x2048xf32>) {
    ^bb0(%in: f32, %in_1410: f16, %out: f32):
      %2839 = arith.extf %in_1410 : f16 to f32
      %2840 = arith.mulf %in, %2839 : f32
      linalg.yield %2840 : f32
    } -> tensor<4x2048xf32>
    %2710 = linalg.generic {indexing_maps = [#map2, #map2], iterator_types = ["parallel", "parallel"]} ins(%2709 : tensor<4x2048xf32>) outs(%218 : tensor<4x2048xf16>) {
    ^bb0(%in: f32, %out: f16):
      %2839 = arith.truncf %in : f32 to f16
      linalg.yield %2839 : f16
    } -> tensor<4x2048xf16>
    %2711 = iree_tensor_ext.bitcast %191 : tensor<2048x2176xi8> -> tensor<2048x1088xi16>
    %expanded_1339 = tensor.expand_shape %2711 [[0], [1, 2]] output_shape [2048, 64, 17] : tensor<2048x1088xi16> into tensor<2048x64x17xi16>
    %extracted_slice_1340 = tensor.extract_slice %expanded_1339[0, 0, 0] [2048, 64, 1] [1, 1, 1] : tensor<2048x64x17xi16> to tensor<2048x64xi16>
    %expanded_1341 = tensor.expand_shape %extracted_slice_1340 [[0], [1, 2]] output_shape [2048, 64, 1] : tensor<2048x64xi16> into tensor<2048x64x1xi16>
    %2712 = iree_tensor_ext.bitcast %expanded_1341 : tensor<2048x64x1xi16> -> tensor<2048x64x1xf16>
    %extracted_slice_1342 = tensor.extract_slice %expanded_1339[0, 0, 1] [2048, 64, 16] [1, 1, 1] : tensor<2048x64x17xi16> to tensor<2048x64x16xi16>
    %2713 = iree_tensor_ext.bitcast %extracted_slice_1342 : tensor<2048x64x16xi16> -> tensor<2048x64x32xi8>
    %collapsed_1343 = tensor.collapse_shape %2712 [[0], [1, 2]] : tensor<2048x64x1xf16> into tensor<2048x64xf16>
    %2714 = linalg.generic {indexing_maps = [#map1, #map, #map], iterator_types = ["parallel", "parallel", "parallel"]} ins(%collapsed_1343, %2713 : tensor<2048x64xf16>, tensor<2048x64x32xi8>) outs(%236 : tensor<2048x64x32xf16>) {
    ^bb0(%in: f16, %in_1410: i8, %out: f16):
      %2839 = arith.extsi %in_1410 : i8 to i32
      %2840 = arith.sitofp %2839 : i32 to f16
      %2841 = arith.mulf %2840, %in : f16
      linalg.yield %2841 : f16
    } -> tensor<2048x64x32xf16>
    %expanded_1344 = tensor.expand_shape %2710 [[0], [1, 2]] output_shape [4, 64, 32] : tensor<4x2048xf16> into tensor<4x64x32xf16>
    %2715 = linalg.generic {indexing_maps = [#map21, #map29, #map30], iterator_types = ["parallel", "parallel", "reduction", "reduction"]} ins(%expanded_1344, %2714 : tensor<4x64x32xf16>, tensor<2048x64x32xf16>) outs(%238 : tensor<4x2048xf32>) {
    ^bb0(%in: f16, %in_1410: f16, %out: f32):
      %2839 = arith.mulf %in, %in_1410 : f16
      %2840 = arith.extf %2839 : f16 to f32
      %2841 = arith.addf %2840, %out : f32
      linalg.yield %2841 : f32
    } -> tensor<4x2048xf32>
    %2716 = linalg.generic {indexing_maps = [#map2, #map2], iterator_types = ["parallel", "parallel"]} ins(%2715 : tensor<4x2048xf32>) outs(%218 : tensor<4x2048xf16>) {
    ^bb0(%in: f32, %out: f16):
      %2839 = arith.truncf %in : f32 to f16
      linalg.yield %2839 : f16
    } -> tensor<4x2048xf16>
    %2717 = iree_tensor_ext.bitcast %192 : tensor<256x2176xi8> -> tensor<256x1088xi16>
    %expanded_1345 = tensor.expand_shape %2717 [[0], [1, 2]] output_shape [256, 64, 17] : tensor<256x1088xi16> into tensor<256x64x17xi16>
    %extracted_slice_1346 = tensor.extract_slice %expanded_1345[0, 0, 0] [256, 64, 1] [1, 1, 1] : tensor<256x64x17xi16> to tensor<256x64xi16>
    %expanded_1347 = tensor.expand_shape %extracted_slice_1346 [[0], [1, 2]] output_shape [256, 64, 1] : tensor<256x64xi16> into tensor<256x64x1xi16>
    %2718 = iree_tensor_ext.bitcast %expanded_1347 : tensor<256x64x1xi16> -> tensor<256x64x1xf16>
    %extracted_slice_1348 = tensor.extract_slice %expanded_1345[0, 0, 1] [256, 64, 16] [1, 1, 1] : tensor<256x64x17xi16> to tensor<256x64x16xi16>
    %2719 = iree_tensor_ext.bitcast %extracted_slice_1348 : tensor<256x64x16xi16> -> tensor<256x64x32xi8>
    %collapsed_1349 = tensor.collapse_shape %2718 [[0], [1, 2]] : tensor<256x64x1xf16> into tensor<256x64xf16>
    %2720 = linalg.generic {indexing_maps = [#map1, #map, #map], iterator_types = ["parallel", "parallel", "parallel"]} ins(%collapsed_1349, %2719 : tensor<256x64xf16>, tensor<256x64x32xi8>) outs(%244 : tensor<256x64x32xf16>) {
    ^bb0(%in: f16, %in_1410: i8, %out: f16):
      %2839 = arith.extsi %in_1410 : i8 to i32
      %2840 = arith.sitofp %2839 : i32 to f16
      %2841 = arith.mulf %2840, %in : f16
      linalg.yield %2841 : f16
    } -> tensor<256x64x32xf16>
    %2721 = linalg.generic {indexing_maps = [#map21, #map29, #map30], iterator_types = ["parallel", "parallel", "reduction", "reduction"]} ins(%expanded_1344, %2720 : tensor<4x64x32xf16>, tensor<256x64x32xf16>) outs(%247 : tensor<4x256xf32>) {
    ^bb0(%in: f16, %in_1410: f16, %out: f32):
      %2839 = arith.mulf %in, %in_1410 : f16
      %2840 = arith.extf %2839 : f16 to f32
      %2841 = arith.addf %2840, %out : f32
      linalg.yield %2841 : f32
    } -> tensor<4x256xf32>
    %2722 = linalg.generic {indexing_maps = [#map2, #map2], iterator_types = ["parallel", "parallel"]} ins(%2721 : tensor<4x256xf32>) outs(%249 : tensor<4x256xf16>) {
    ^bb0(%in: f32, %out: f16):
      %2839 = arith.truncf %in : f32 to f16
      linalg.yield %2839 : f16
    } -> tensor<4x256xf16>
    %2723 = iree_tensor_ext.bitcast %193 : tensor<256x2176xi8> -> tensor<256x1088xi16>
    %expanded_1350 = tensor.expand_shape %2723 [[0], [1, 2]] output_shape [256, 64, 17] : tensor<256x1088xi16> into tensor<256x64x17xi16>
    %extracted_slice_1351 = tensor.extract_slice %expanded_1350[0, 0, 0] [256, 64, 1] [1, 1, 1] : tensor<256x64x17xi16> to tensor<256x64xi16>
    %expanded_1352 = tensor.expand_shape %extracted_slice_1351 [[0], [1, 2]] output_shape [256, 64, 1] : tensor<256x64xi16> into tensor<256x64x1xi16>
    %2724 = iree_tensor_ext.bitcast %expanded_1352 : tensor<256x64x1xi16> -> tensor<256x64x1xf16>
    %extracted_slice_1353 = tensor.extract_slice %expanded_1350[0, 0, 1] [256, 64, 16] [1, 1, 1] : tensor<256x64x17xi16> to tensor<256x64x16xi16>
    %2725 = iree_tensor_ext.bitcast %extracted_slice_1353 : tensor<256x64x16xi16> -> tensor<256x64x32xi8>
    %collapsed_1354 = tensor.collapse_shape %2724 [[0], [1, 2]] : tensor<256x64x1xf16> into tensor<256x64xf16>
    %2726 = linalg.generic {indexing_maps = [#map1, #map, #map], iterator_types = ["parallel", "parallel", "parallel"]} ins(%collapsed_1354, %2725 : tensor<256x64xf16>, tensor<256x64x32xi8>) outs(%244 : tensor<256x64x32xf16>) {
    ^bb0(%in: f16, %in_1410: i8, %out: f16):
      %2839 = arith.extsi %in_1410 : i8 to i32
      %2840 = arith.sitofp %2839 : i32 to f16
      %2841 = arith.mulf %2840, %in : f16
      linalg.yield %2841 : f16
    } -> tensor<256x64x32xf16>
    %2727 = linalg.generic {indexing_maps = [#map21, #map29, #map30], iterator_types = ["parallel", "parallel", "reduction", "reduction"]} ins(%expanded_1344, %2726 : tensor<4x64x32xf16>, tensor<256x64x32xf16>) outs(%247 : tensor<4x256xf32>) {
    ^bb0(%in: f16, %in_1410: f16, %out: f32):
      %2839 = arith.mulf %in, %in_1410 : f16
      %2840 = arith.extf %2839 : f16 to f32
      %2841 = arith.addf %2840, %out : f32
      linalg.yield %2841 : f32
    } -> tensor<4x256xf32>
    %2728 = linalg.generic {indexing_maps = [#map2, #map2], iterator_types = ["parallel", "parallel"]} ins(%2727 : tensor<4x256xf32>) outs(%249 : tensor<4x256xf16>) {
    ^bb0(%in: f32, %out: f16):
      %2839 = arith.truncf %in : f32 to f16
      linalg.yield %2839 : f16
    } -> tensor<4x256xf16>
    %expanded_1355 = tensor.expand_shape %2716 [[0, 1], [2, 3]] output_shape [4, 1, 32, 64] : tensor<4x2048xf16> into tensor<4x1x32x64xf16>
    %expanded_1356 = tensor.expand_shape %2722 [[0, 1], [2, 3]] output_shape [4, 1, 4, 64] : tensor<4x256xf16> into tensor<4x1x4x64xf16>
    %__hoisted_tensor_4x4x1x8x1xf32_130 = util.global.load immutable @__hoisted_tensor_4x4x1x8x1xf32_130 : tensor<4x4x1x8x1xf32>
    %2729 = linalg.batch_mmt4d ins(%expanded_31, %__hoisted_tensor_4x4x1x8x1xf32_130 : tensor<4x1x1x1x1xf32>, tensor<4x4x1x8x1xf32>) outs(%264 : tensor<4x1x4x1x8xf32>) -> tensor<4x1x4x1x8xf32>
    %unpack_1357 = linalg.unpack %2729 outer_dims_perm = [0, 2, 1] inner_dims_pos = [2, 1] inner_tiles = [1, 8] into %266 : tensor<4x1x4x1x8xf32> -> tensor<4x32x1xf32>
    %collapsed_1358 = tensor.collapse_shape %unpack_1357 [[0], [1, 2]] : tensor<4x32x1xf32> into tensor<4x32xf32>
    %2730 = linalg.generic {indexing_maps = [#map2, #map2], iterator_types = ["parallel", "parallel"]} ins(%collapsed_1358 : tensor<4x32xf32>) outs(%261 : tensor<4x32xf32>) {
    ^bb0(%in: f32, %out: f32):
      %2839 = math.cos %in : f32
      linalg.yield %2839 : f32
    } -> tensor<4x32xf32>
    %2731 = linalg.generic {indexing_maps = [#map2, #map8, #map2], iterator_types = ["parallel", "parallel"]} ins(%2730, %cst_4 : tensor<4x32xf32>, tensor<f32>) outs(%261 : tensor<4x32xf32>) {
    ^bb0(%in: f32, %in_1410: f32, %out: f32):
      %2839 = arith.mulf %in, %in_1410 : f32
      linalg.yield %2839 : f32
    } -> tensor<4x32xf32>
    %2732 = linalg.generic {indexing_maps = [#map2, #map2], iterator_types = ["parallel", "parallel"]} ins(%2731 : tensor<4x32xf32>) outs(%269 : tensor<4x32xf16>) {
    ^bb0(%in: f32, %out: f16):
      %2839 = arith.truncf %in : f32 to f16
      linalg.yield %2839 : f16
    } -> tensor<4x32xf16>
    %2733 = linalg.generic {indexing_maps = [#map2, #map2], iterator_types = ["parallel", "parallel"]} ins(%collapsed_1358 : tensor<4x32xf32>) outs(%261 : tensor<4x32xf32>) {
    ^bb0(%in: f32, %out: f32):
      %2839 = math.sin %in : f32
      linalg.yield %2839 : f32
    } -> tensor<4x32xf32>
    %2734 = linalg.generic {indexing_maps = [#map2, #map8, #map2], iterator_types = ["parallel", "parallel"]} ins(%2733, %cst_4 : tensor<4x32xf32>, tensor<f32>) outs(%261 : tensor<4x32xf32>) {
    ^bb0(%in: f32, %in_1410: f32, %out: f32):
      %2839 = arith.mulf %in, %in_1410 : f32
      linalg.yield %2839 : f32
    } -> tensor<4x32xf32>
    %2735 = linalg.generic {indexing_maps = [#map2, #map2], iterator_types = ["parallel", "parallel"]} ins(%2734 : tensor<4x32xf32>) outs(%269 : tensor<4x32xf16>) {
    ^bb0(%in: f32, %out: f16):
      %2839 = arith.truncf %in : f32 to f16
      linalg.yield %2839 : f16
    } -> tensor<4x32xf16>
    %extracted_slice_1359 = tensor.extract_slice %expanded_1355[0, 0, 0, 0] [4, 1, 32, 32] [1, 1, 1, 2] : tensor<4x1x32x64xf16> to tensor<4x32x32xf16>
    %extracted_slice_1360 = tensor.extract_slice %expanded_1355[0, 0, 0, 1] [4, 1, 32, 32] [1, 1, 1, 2] : tensor<4x1x32x64xf16> to tensor<4x32x32xf16>
    %2736 = linalg.generic {indexing_maps = [#map, #map17, #map], iterator_types = ["parallel", "parallel", "parallel"]} ins(%extracted_slice_1359, %2732 : tensor<4x32x32xf16>, tensor<4x32xf16>) outs(%274 : tensor<4x32x32xf16>) {
    ^bb0(%in: f16, %in_1410: f16, %out: f16):
      %2839 = arith.mulf %in, %in_1410 : f16
      linalg.yield %2839 : f16
    } -> tensor<4x32x32xf16>
    %2737 = linalg.generic {indexing_maps = [#map, #map17, #map], iterator_types = ["parallel", "parallel", "parallel"]} ins(%extracted_slice_1360, %2735 : tensor<4x32x32xf16>, tensor<4x32xf16>) outs(%274 : tensor<4x32x32xf16>) {
    ^bb0(%in: f16, %in_1410: f16, %out: f16):
      %2839 = arith.mulf %in, %in_1410 : f16
      linalg.yield %2839 : f16
    } -> tensor<4x32x32xf16>
    %2738 = linalg.generic {indexing_maps = [#map, #map, #map], iterator_types = ["parallel", "parallel", "parallel"]} ins(%2736, %2737 : tensor<4x32x32xf16>, tensor<4x32x32xf16>) outs(%274 : tensor<4x32x32xf16>) {
    ^bb0(%in: f16, %in_1410: f16, %out: f16):
      %2839 = arith.subf %in, %in_1410 : f16
      linalg.yield %2839 : f16
    } -> tensor<4x32x32xf16>
    %2739 = linalg.generic {indexing_maps = [#map, #map17, #map], iterator_types = ["parallel", "parallel", "parallel"]} ins(%extracted_slice_1360, %2732 : tensor<4x32x32xf16>, tensor<4x32xf16>) outs(%274 : tensor<4x32x32xf16>) {
    ^bb0(%in: f16, %in_1410: f16, %out: f16):
      %2839 = arith.mulf %in, %in_1410 : f16
      linalg.yield %2839 : f16
    } -> tensor<4x32x32xf16>
    %2740 = linalg.generic {indexing_maps = [#map, #map17, #map], iterator_types = ["parallel", "parallel", "parallel"]} ins(%extracted_slice_1359, %2735 : tensor<4x32x32xf16>, tensor<4x32xf16>) outs(%274 : tensor<4x32x32xf16>) {
    ^bb0(%in: f16, %in_1410: f16, %out: f16):
      %2839 = arith.mulf %in, %in_1410 : f16
      linalg.yield %2839 : f16
    } -> tensor<4x32x32xf16>
    %2741 = linalg.generic {indexing_maps = [#map, #map, #map], iterator_types = ["parallel", "parallel", "parallel"]} ins(%2739, %2740 : tensor<4x32x32xf16>, tensor<4x32x32xf16>) outs(%274 : tensor<4x32x32xf16>) {
    ^bb0(%in: f16, %in_1410: f16, %out: f16):
      %2839 = arith.addf %in, %in_1410 : f16
      linalg.yield %2839 : f16
    } -> tensor<4x32x32xf16>
    %2742 = linalg.generic {indexing_maps = [#map32, #map32, #map9], iterator_types = ["parallel", "parallel", "parallel", "parallel"]} ins(%2738, %2741 : tensor<4x32x32xf16>, tensor<4x32x32xf16>) outs(%281 : tensor<4x32x2x32xf16>) {
    ^bb0(%in: f16, %in_1410: f16, %out: f16):
      %2839 = linalg.index 2 : index
      %2840 = arith.cmpi eq, %2839, %c0 : index
      %2841 = arith.select %2840, %in, %in_1410 : f16
      linalg.yield %2841 : f16
    } -> tensor<4x32x2x32xf16>
    %__hoisted_tensor_4x4x1x8x1xf32_132 = util.global.load immutable @__hoisted_tensor_4x4x1x8x1xf32_132 : tensor<4x4x1x8x1xf32>
    %2743 = linalg.batch_mmt4d ins(%expanded_31, %__hoisted_tensor_4x4x1x8x1xf32_132 : tensor<4x1x1x1x1xf32>, tensor<4x4x1x8x1xf32>) outs(%264 : tensor<4x1x4x1x8xf32>) -> tensor<4x1x4x1x8xf32>
    %unpack_1361 = linalg.unpack %2743 outer_dims_perm = [0, 2, 1] inner_dims_pos = [2, 1] inner_tiles = [1, 8] into %266 : tensor<4x1x4x1x8xf32> -> tensor<4x32x1xf32>
    %collapsed_1362 = tensor.collapse_shape %unpack_1361 [[0], [1, 2]] : tensor<4x32x1xf32> into tensor<4x32xf32>
    %2744 = linalg.generic {indexing_maps = [#map2, #map2], iterator_types = ["parallel", "parallel"]} ins(%collapsed_1362 : tensor<4x32xf32>) outs(%261 : tensor<4x32xf32>) {
    ^bb0(%in: f32, %out: f32):
      %2839 = math.cos %in : f32
      linalg.yield %2839 : f32
    } -> tensor<4x32xf32>
    %2745 = linalg.generic {indexing_maps = [#map2, #map8, #map2], iterator_types = ["parallel", "parallel"]} ins(%2744, %cst_4 : tensor<4x32xf32>, tensor<f32>) outs(%261 : tensor<4x32xf32>) {
    ^bb0(%in: f32, %in_1410: f32, %out: f32):
      %2839 = arith.mulf %in, %in_1410 : f32
      linalg.yield %2839 : f32
    } -> tensor<4x32xf32>
    %2746 = linalg.generic {indexing_maps = [#map2, #map2], iterator_types = ["parallel", "parallel"]} ins(%2745 : tensor<4x32xf32>) outs(%269 : tensor<4x32xf16>) {
    ^bb0(%in: f32, %out: f16):
      %2839 = arith.truncf %in : f32 to f16
      linalg.yield %2839 : f16
    } -> tensor<4x32xf16>
    %2747 = linalg.generic {indexing_maps = [#map2, #map2], iterator_types = ["parallel", "parallel"]} ins(%collapsed_1362 : tensor<4x32xf32>) outs(%261 : tensor<4x32xf32>) {
    ^bb0(%in: f32, %out: f32):
      %2839 = math.sin %in : f32
      linalg.yield %2839 : f32
    } -> tensor<4x32xf32>
    %2748 = linalg.generic {indexing_maps = [#map2, #map8, #map2], iterator_types = ["parallel", "parallel"]} ins(%2747, %cst_4 : tensor<4x32xf32>, tensor<f32>) outs(%261 : tensor<4x32xf32>) {
    ^bb0(%in: f32, %in_1410: f32, %out: f32):
      %2839 = arith.mulf %in, %in_1410 : f32
      linalg.yield %2839 : f32
    } -> tensor<4x32xf32>
    %2749 = linalg.generic {indexing_maps = [#map2, #map2], iterator_types = ["parallel", "parallel"]} ins(%2748 : tensor<4x32xf32>) outs(%269 : tensor<4x32xf16>) {
    ^bb0(%in: f32, %out: f16):
      %2839 = arith.truncf %in : f32 to f16
      linalg.yield %2839 : f16
    } -> tensor<4x32xf16>
    %extracted_slice_1363 = tensor.extract_slice %expanded_1356[0, 0, 0, 0] [4, 1, 4, 32] [1, 1, 1, 2] : tensor<4x1x4x64xf16> to tensor<4x4x32xf16>
    %extracted_slice_1364 = tensor.extract_slice %expanded_1356[0, 0, 0, 1] [4, 1, 4, 32] [1, 1, 1, 2] : tensor<4x1x4x64xf16> to tensor<4x4x32xf16>
    %2750 = linalg.generic {indexing_maps = [#map, #map17, #map], iterator_types = ["parallel", "parallel", "parallel"]} ins(%extracted_slice_1363, %2746 : tensor<4x4x32xf16>, tensor<4x32xf16>) outs(%290 : tensor<4x4x32xf16>) {
    ^bb0(%in: f16, %in_1410: f16, %out: f16):
      %2839 = arith.mulf %in, %in_1410 : f16
      linalg.yield %2839 : f16
    } -> tensor<4x4x32xf16>
    %2751 = linalg.generic {indexing_maps = [#map, #map17, #map], iterator_types = ["parallel", "parallel", "parallel"]} ins(%extracted_slice_1364, %2749 : tensor<4x4x32xf16>, tensor<4x32xf16>) outs(%290 : tensor<4x4x32xf16>) {
    ^bb0(%in: f16, %in_1410: f16, %out: f16):
      %2839 = arith.mulf %in, %in_1410 : f16
      linalg.yield %2839 : f16
    } -> tensor<4x4x32xf16>
    %2752 = linalg.generic {indexing_maps = [#map, #map, #map], iterator_types = ["parallel", "parallel", "parallel"]} ins(%2750, %2751 : tensor<4x4x32xf16>, tensor<4x4x32xf16>) outs(%290 : tensor<4x4x32xf16>) {
    ^bb0(%in: f16, %in_1410: f16, %out: f16):
      %2839 = arith.subf %in, %in_1410 : f16
      linalg.yield %2839 : f16
    } -> tensor<4x4x32xf16>
    %2753 = linalg.generic {indexing_maps = [#map, #map17, #map], iterator_types = ["parallel", "parallel", "parallel"]} ins(%extracted_slice_1364, %2746 : tensor<4x4x32xf16>, tensor<4x32xf16>) outs(%290 : tensor<4x4x32xf16>) {
    ^bb0(%in: f16, %in_1410: f16, %out: f16):
      %2839 = arith.mulf %in, %in_1410 : f16
      linalg.yield %2839 : f16
    } -> tensor<4x4x32xf16>
    %2754 = linalg.generic {indexing_maps = [#map, #map17, #map], iterator_types = ["parallel", "parallel", "parallel"]} ins(%extracted_slice_1363, %2749 : tensor<4x4x32xf16>, tensor<4x32xf16>) outs(%290 : tensor<4x4x32xf16>) {
    ^bb0(%in: f16, %in_1410: f16, %out: f16):
      %2839 = arith.mulf %in, %in_1410 : f16
      linalg.yield %2839 : f16
    } -> tensor<4x4x32xf16>
    %2755 = linalg.generic {indexing_maps = [#map, #map, #map], iterator_types = ["parallel", "parallel", "parallel"]} ins(%2753, %2754 : tensor<4x4x32xf16>, tensor<4x4x32xf16>) outs(%290 : tensor<4x4x32xf16>) {
    ^bb0(%in: f16, %in_1410: f16, %out: f16):
      %2839 = arith.addf %in, %in_1410 : f16
      linalg.yield %2839 : f16
    } -> tensor<4x4x32xf16>
    %2756 = linalg.generic {indexing_maps = [#map32, #map32, #map9], iterator_types = ["parallel", "parallel", "parallel", "parallel"]} ins(%2752, %2755 : tensor<4x4x32xf16>, tensor<4x4x32xf16>) outs(%297 : tensor<4x4x2x32xf16>) {
    ^bb0(%in: f16, %in_1410: f16, %out: f16):
      %2839 = linalg.index 2 : index
      %2840 = arith.cmpi eq, %2839, %c0 : index
      %2841 = arith.select %2840, %in, %in_1410 : f16
      linalg.yield %2841 : f16
    } -> tensor<4x4x2x32xf16>
    %2757 = linalg.generic {indexing_maps = [#map7, #map7], iterator_types = ["parallel"]} ins(%299 : tensor<4xi64>) outs(%300 : tensor<4xi64>) {
    ^bb0(%in: i64, %out: i64):
      %2839 = linalg.index 0 : index
      %2840 = arith.index_cast %in : i64 to index
      %2841 = arith.cmpi slt, %2840, %208 : index
      cf.assert %2841, "index must be smaller than dim size"
      %2842 = arith.cmpi sge, %in, %c0_i64 : i64
      cf.assert %2842, "index must be larger or equal to 0"
      %extracted = tensor.extract %209[%2839, %2840] : tensor<4x?xi64>
      linalg.yield %extracted : i64
    } -> tensor<4xi64>
    %2758 = linalg.generic {indexing_maps = [#map7, #map7], iterator_types = ["parallel"]} ins(%2757 : tensor<4xi64>) outs(%259 : tensor<4xi64>) {
    ^bb0(%in: i64, %out: i64):
      %2839 = arith.muli %in, %c22_i64 : i64
      linalg.yield %2839 : i64
    } -> tensor<4xi64>
    %2759 = linalg.generic {indexing_maps = [#map7, #map7], iterator_types = ["parallel"]} ins(%2758 : tensor<4xi64>) outs(%259 : tensor<4xi64>) {
    ^bb0(%in: i64, %out: i64):
      %2839 = arith.addi %in, %c21_i64 : i64
      linalg.yield %2839 : i64
    } -> tensor<4xi64>
    %2760 = linalg.generic {indexing_maps = [#map7, #map7], iterator_types = ["parallel"]} ins(%2759 : tensor<4xi64>) outs(%259 : tensor<4xi64>) {
    ^bb0(%in: i64, %out: i64):
      %2839 = arith.muli %in, %c2_i64 : i64
      linalg.yield %2839 : i64
    } -> tensor<4xi64>
    %2761 = linalg.generic {indexing_maps = [#map7, #map31, #map7], iterator_types = ["parallel"]} ins(%2760, %cst_5 : tensor<4xi64>, tensor<i64>) outs(%259 : tensor<4xi64>) {
    ^bb0(%in: i64, %in_1410: i64, %out: i64):
      %2839 = arith.addi %in, %in_1410 : i64
      linalg.yield %2839 : i64
    } -> tensor<4xi64>
    %2762 = linalg.generic {indexing_maps = [#map7, #map7], iterator_types = ["parallel"]} ins(%2761 : tensor<4xi64>) outs(%259 : tensor<4xi64>) {
    ^bb0(%in: i64, %out: i64):
      %2839 = arith.muli %in, %c4_i64 : i64
      linalg.yield %2839 : i64
    } -> tensor<4xi64>
    %2763 = linalg.generic {indexing_maps = [#map15, #map14, #map2], iterator_types = ["parallel", "parallel"]} ins(%2762, %303 : tensor<4xi64>, tensor<4xi64>) outs(%308 : tensor<4x4xi64>) {
    ^bb0(%in: i64, %in_1410: i64, %out: i64):
      %2839 = arith.addi %in, %in_1410 : i64
      linalg.yield %2839 : i64
    } -> tensor<4x4xi64>
    %2764 = linalg.generic {indexing_maps = [#map2, #map2], iterator_types = ["parallel", "parallel"]} ins(%2763 : tensor<4x4xi64>) outs(%308 : tensor<4x4xi64>) {
    ^bb0(%in: i64, %out: i64):
      %2839 = arith.muli %in, %c32_i64 : i64
      linalg.yield %2839 : i64
    } -> tensor<4x4xi64>
    %2765 = linalg.generic {indexing_maps = [#map2, #map15, #map2], iterator_types = ["parallel", "parallel"]} ins(%2764, %302 : tensor<4x4xi64>, tensor<4xi64>) outs(%308 : tensor<4x4xi64>) {
    ^bb0(%in: i64, %in_1410: i64, %out: i64):
      %2839 = arith.addi %in, %in_1410 : i64
      linalg.yield %2839 : i64
    } -> tensor<4x4xi64>
    %collapsed_1365 = tensor.collapse_shape %2765 [[0, 1]] : tensor<4x4xi64> into tensor<16xi64>
    %collapsed_1366 = tensor.collapse_shape %2756 [[0, 1], [2, 3]] : tensor<4x4x2x32xf16> into tensor<16x64xf16>
    %2766 = iree_linalg_ext.scatter dimension_map = [0] unique_indices(true) ins(%collapsed_1366, %collapsed_1365 : tensor<16x64xf16>, tensor<16xi64>) outs(%2656 : tensor<?x64xf16>) {
    ^bb0(%arg7: f16, %arg8: f16):
      iree_linalg_ext.yield %arg7 : f16
    } -> tensor<?x64xf16>
    %2767 = linalg.generic {indexing_maps = [#map7, #map31, #map7], iterator_types = ["parallel"]} ins(%2760, %cst_8 : tensor<4xi64>, tensor<i64>) outs(%259 : tensor<4xi64>) {
    ^bb0(%in: i64, %in_1410: i64, %out: i64):
      %2839 = arith.addi %in, %in_1410 : i64
      linalg.yield %2839 : i64
    } -> tensor<4xi64>
    %2768 = linalg.generic {indexing_maps = [#map7, #map7], iterator_types = ["parallel"]} ins(%2767 : tensor<4xi64>) outs(%259 : tensor<4xi64>) {
    ^bb0(%in: i64, %out: i64):
      %2839 = arith.muli %in, %c4_i64 : i64
      linalg.yield %2839 : i64
    } -> tensor<4xi64>
    %2769 = linalg.generic {indexing_maps = [#map15, #map14, #map2], iterator_types = ["parallel", "parallel"]} ins(%2768, %303 : tensor<4xi64>, tensor<4xi64>) outs(%308 : tensor<4x4xi64>) {
    ^bb0(%in: i64, %in_1410: i64, %out: i64):
      %2839 = arith.addi %in, %in_1410 : i64
      linalg.yield %2839 : i64
    } -> tensor<4x4xi64>
    %2770 = linalg.generic {indexing_maps = [#map2, #map2], iterator_types = ["parallel", "parallel"]} ins(%2769 : tensor<4x4xi64>) outs(%308 : tensor<4x4xi64>) {
    ^bb0(%in: i64, %out: i64):
      %2839 = arith.muli %in, %c32_i64 : i64
      linalg.yield %2839 : i64
    } -> tensor<4x4xi64>
    %2771 = linalg.generic {indexing_maps = [#map2, #map15, #map2], iterator_types = ["parallel", "parallel"]} ins(%2770, %302 : tensor<4x4xi64>, tensor<4xi64>) outs(%308 : tensor<4x4xi64>) {
    ^bb0(%in: i64, %in_1410: i64, %out: i64):
      %2839 = arith.addi %in, %in_1410 : i64
      linalg.yield %2839 : i64
    } -> tensor<4x4xi64>
    %collapsed_1367 = tensor.collapse_shape %2771 [[0, 1]] : tensor<4x4xi64> into tensor<16xi64>
    %expanded_1368 = tensor.expand_shape %2728 [[0], [1, 2]] output_shape [4, 4, 64] : tensor<4x256xf16> into tensor<4x4x64xf16>
    %collapsed_1369 = tensor.collapse_shape %expanded_1368 [[0, 1], [2]] : tensor<4x4x64xf16> into tensor<16x64xf16>
    %2772 = iree_linalg_ext.scatter dimension_map = [0] unique_indices(true) ins(%collapsed_1369, %collapsed_1367 : tensor<16x64xf16>, tensor<16xi64>) outs(%2766 : tensor<?x64xf16>) {
    ^bb0(%arg7: f16, %arg8: f16):
      iree_linalg_ext.yield %arg7 : f16
    } -> tensor<?x64xf16>
    %expanded_1370 = tensor.expand_shape %2772 [[0, 1, 2, 3, 4], [5]] output_shape [%210, 22, 2, 4, 32, 64] : tensor<?x64xf16> into tensor<?x22x2x4x32x64xf16>
    %collapsed_1371 = tensor.collapse_shape %expanded_1370 [[0], [1, 2, 3, 4, 5]] : tensor<?x22x2x4x32x64xf16> into tensor<?x360448xf16>
    %extracted_slice_1372 = tensor.extract_slice %expanded_1370[0, 21, 0, 0, 0, 0] [%210, 1, 1, 4, 32, 64] [1, 1, 1, 1, 1, 1] : tensor<?x22x2x4x32x64xf16> to tensor<?x4x32x64xf16>
    %2773 = iree_linalg_ext.gather dimension_map = [0] ins(%extracted_slice_1372, %209 : tensor<?x4x32x64xf16>, tensor<4x?xi64>) outs(%319 : tensor<4x?x4x32x64xf16>) -> tensor<4x?x4x32x64xf16>
    %extracted_slice_1373 = tensor.extract_slice %expanded_1370[0, 21, 1, 0, 0, 0] [%210, 1, 1, 4, 32, 64] [1, 1, 1, 1, 1, 1] : tensor<?x22x2x4x32x64xf16> to tensor<?x4x32x64xf16>
    %2774 = iree_linalg_ext.gather dimension_map = [0] ins(%extracted_slice_1373, %209 : tensor<?x4x32x64xf16>, tensor<4x?xi64>) outs(%319 : tensor<4x?x4x32x64xf16>) -> tensor<4x?x4x32x64xf16>
    %2775 = linalg.generic {indexing_maps = [#map33, #map34], iterator_types = ["parallel", "parallel", "parallel", "parallel", "parallel", "parallel"]} ins(%2773 : tensor<4x?x4x32x64xf16>) outs(%329 : tensor<4x4x8x?x32x64xf16>) {
    ^bb0(%in: f16, %out: f16):
      linalg.yield %in : f16
    } -> tensor<4x4x8x?x32x64xf16>
    %collapsed_1374 = tensor.collapse_shape %2775 [[0, 1, 2], [3, 4], [5]] : tensor<4x4x8x?x32x64xf16> into tensor<128x?x64xf16>
    %collapsed_1375 = tensor.collapse_shape %2742 [[0, 1], [2, 3]] : tensor<4x32x2x32xf16> into tensor<128x64xf16>
    %2776 = linalg.generic {indexing_maps = [#map35, #map34], iterator_types = ["parallel", "parallel", "parallel", "parallel", "parallel", "parallel"]} ins(%2774 : tensor<4x?x4x32x64xf16>) outs(%334 : tensor<4x4x8x64x?x32xf16>) {
    ^bb0(%in: f16, %out: f16):
      linalg.yield %in : f16
    } -> tensor<4x4x8x64x?x32xf16>
    %collapsed_1376 = tensor.collapse_shape %2776 [[0, 1, 2], [3], [4, 5]] : tensor<4x4x8x64x?x32xf16> into tensor<128x64x?xf16>
    %2777 = iree_linalg_ext.attention {indexing_maps = [#map36, #map37, #map32, #map38, #map39, #map30]} ins(%collapsed_1375, %collapsed_1374, %collapsed_1376, %cst_7, %collapsed_51 : tensor<128x64xf16>, tensor<128x?x64xf16>, tensor<128x64x?xf16>, f16, tensor<128x?xf16>) outs(%333 : tensor<128x64xf16>) {
    ^bb0(%arg7: f32):
      iree_linalg_ext.yield %arg7 : f32
    } -> tensor<128x64xf16>
    %expanded_1377 = tensor.expand_shape %2777 [[0, 1, 2], [3]] output_shape [4, 1, 32, 64] : tensor<128x64xf16> into tensor<4x1x32x64xf16>
    %collapsed_1378 = tensor.collapse_shape %expanded_1377 [[0], [1], [2, 3]] : tensor<4x1x32x64xf16> into tensor<4x1x2048xf16>
    %2778 = iree_tensor_ext.bitcast %194 : tensor<2048x2176xi8> -> tensor<2048x1088xi16>
    %expanded_1379 = tensor.expand_shape %2778 [[0], [1, 2]] output_shape [2048, 64, 17] : tensor<2048x1088xi16> into tensor<2048x64x17xi16>
    %extracted_slice_1380 = tensor.extract_slice %expanded_1379[0, 0, 0] [2048, 64, 1] [1, 1, 1] : tensor<2048x64x17xi16> to tensor<2048x64xi16>
    %expanded_1381 = tensor.expand_shape %extracted_slice_1380 [[0], [1, 2]] output_shape [2048, 64, 1] : tensor<2048x64xi16> into tensor<2048x64x1xi16>
    %2779 = iree_tensor_ext.bitcast %expanded_1381 : tensor<2048x64x1xi16> -> tensor<2048x64x1xf16>
    %extracted_slice_1382 = tensor.extract_slice %expanded_1379[0, 0, 1] [2048, 64, 16] [1, 1, 1] : tensor<2048x64x17xi16> to tensor<2048x64x16xi16>
    %2780 = iree_tensor_ext.bitcast %extracted_slice_1382 : tensor<2048x64x16xi16> -> tensor<2048x64x32xi8>
    %collapsed_1383 = tensor.collapse_shape %2779 [[0], [1, 2]] : tensor<2048x64x1xf16> into tensor<2048x64xf16>
    %2781 = linalg.generic {indexing_maps = [#map1, #map, #map], iterator_types = ["parallel", "parallel", "parallel"]} ins(%collapsed_1383, %2780 : tensor<2048x64xf16>, tensor<2048x64x32xi8>) outs(%236 : tensor<2048x64x32xf16>) {
    ^bb0(%in: f16, %in_1410: i8, %out: f16):
      %2839 = arith.extsi %in_1410 : i8 to i32
      %2840 = arith.sitofp %2839 : i32 to f16
      %2841 = arith.mulf %2840, %in : f16
      linalg.yield %2841 : f16
    } -> tensor<2048x64x32xf16>
    %expanded_1384 = tensor.expand_shape %collapsed_1378 [[0], [1], [2, 3]] output_shape [4, 1, 64, 32] : tensor<4x1x2048xf16> into tensor<4x1x64x32xf16>
    %collapsed_1385 = tensor.collapse_shape %expanded_1384 [[0, 1], [2], [3]] : tensor<4x1x64x32xf16> into tensor<4x64x32xf16>
    %2782 = linalg.generic {indexing_maps = [#map21, #map29, #map30], iterator_types = ["parallel", "parallel", "reduction", "reduction"]} ins(%collapsed_1385, %2781 : tensor<4x64x32xf16>, tensor<2048x64x32xf16>) outs(%238 : tensor<4x2048xf32>) {
    ^bb0(%in: f16, %in_1410: f16, %out: f32):
      %2839 = arith.mulf %in, %in_1410 : f16
      %2840 = arith.extf %2839 : f16 to f32
      %2841 = arith.addf %2840, %out : f32
      linalg.yield %2841 : f32
    } -> tensor<4x2048xf32>
    %2783 = linalg.generic {indexing_maps = [#map2, #map2], iterator_types = ["parallel", "parallel"]} ins(%2782 : tensor<4x2048xf32>) outs(%218 : tensor<4x2048xf16>) {
    ^bb0(%in: f32, %out: f16):
      %2839 = arith.truncf %in : f32 to f16
      linalg.yield %2839 : f16
    } -> tensor<4x2048xf16>
    %2784 = linalg.generic {indexing_maps = [#map2, #map2, #map2], iterator_types = ["parallel", "parallel"]} ins(%2700, %2783 : tensor<4x2048xf16>, tensor<4x2048xf16>) outs(%218 : tensor<4x2048xf16>) {
    ^bb0(%in: f16, %in_1410: f16, %out: f16):
      %2839 = arith.addf %in, %in_1410 : f16
      linalg.yield %2839 : f16
    } -> tensor<4x2048xf16>
    %2785 = linalg.generic {indexing_maps = [#map2, #map2], iterator_types = ["parallel", "parallel"]} ins(%2784 : tensor<4x2048xf16>) outs(%220 : tensor<4x2048xf32>) {
    ^bb0(%in: f16, %out: f32):
      %2839 = arith.extf %in : f16 to f32
      linalg.yield %2839 : f32
    } -> tensor<4x2048xf32>
    %2786 = linalg.generic {indexing_maps = [#map2, #map2], iterator_types = ["parallel", "parallel"]} ins(%2785 : tensor<4x2048xf32>) outs(%220 : tensor<4x2048xf32>) {
    ^bb0(%in: f32, %out: f32):
      %2839 = math.fpowi %in, %c2_i64 : f32, i64
      linalg.yield %2839 : f32
    } -> tensor<4x2048xf32>
    %2787 = linalg.generic {indexing_maps = [#map2, #map15], iterator_types = ["parallel", "reduction"]} ins(%2786 : tensor<4x2048xf32>) outs(%224 : tensor<4xf32>) {
    ^bb0(%in: f32, %out: f32):
      %2839 = arith.addf %in, %out : f32
      linalg.yield %2839 : f32
    } -> tensor<4xf32>
    %2788 = linalg.generic {indexing_maps = [#map7, #map7], iterator_types = ["parallel"]} ins(%2787 : tensor<4xf32>) outs(%223 : tensor<4xf32>) {
    ^bb0(%in: f32, %out: f32):
      %2839 = arith.divf %in, %cst_1 : f32
      linalg.yield %2839 : f32
    } -> tensor<4xf32>
    %2789 = linalg.generic {indexing_maps = [#map7, #map7], iterator_types = ["parallel"]} ins(%2788 : tensor<4xf32>) outs(%223 : tensor<4xf32>) {
    ^bb0(%in: f32, %out: f32):
      %2839 = arith.addf %in, %cst_0 : f32
      linalg.yield %2839 : f32
    } -> tensor<4xf32>
    %2790 = linalg.generic {indexing_maps = [#map7, #map7], iterator_types = ["parallel"]} ins(%2789 : tensor<4xf32>) outs(%223 : tensor<4xf32>) {
    ^bb0(%in: f32, %out: f32):
      %2839 = math.rsqrt %in : f32
      linalg.yield %2839 : f32
    } -> tensor<4xf32>
    %2791 = linalg.generic {indexing_maps = [#map2, #map15, #map2], iterator_types = ["parallel", "parallel"]} ins(%2785, %2790 : tensor<4x2048xf32>, tensor<4xf32>) outs(%220 : tensor<4x2048xf32>) {
    ^bb0(%in: f32, %in_1410: f32, %out: f32):
      %2839 = arith.mulf %in, %in_1410 : f32
      linalg.yield %2839 : f32
    } -> tensor<4x2048xf32>
    %2792 = linalg.generic {indexing_maps = [#map2, #map2], iterator_types = ["parallel", "parallel"]} ins(%2791 : tensor<4x2048xf32>) outs(%218 : tensor<4x2048xf16>) {
    ^bb0(%in: f32, %out: f16):
      %2839 = arith.truncf %in : f32 to f16
      linalg.yield %2839 : f16
    } -> tensor<4x2048xf16>
    %2793 = linalg.generic {indexing_maps = [#map14, #map2, #map2], iterator_types = ["parallel", "parallel"]} ins(%195, %2792 : tensor<2048xf32>, tensor<4x2048xf16>) outs(%220 : tensor<4x2048xf32>) {
    ^bb0(%in: f32, %in_1410: f16, %out: f32):
      %2839 = arith.extf %in_1410 : f16 to f32
      %2840 = arith.mulf %in, %2839 : f32
      linalg.yield %2840 : f32
    } -> tensor<4x2048xf32>
    %2794 = linalg.generic {indexing_maps = [#map2, #map2], iterator_types = ["parallel", "parallel"]} ins(%2793 : tensor<4x2048xf32>) outs(%218 : tensor<4x2048xf16>) {
    ^bb0(%in: f32, %out: f16):
      %2839 = arith.truncf %in : f32 to f16
      linalg.yield %2839 : f16
    } -> tensor<4x2048xf16>
    %2795 = iree_tensor_ext.bitcast %196 : tensor<5632x2176xi8> -> tensor<5632x1088xi16>
    %expanded_1386 = tensor.expand_shape %2795 [[0], [1, 2]] output_shape [5632, 64, 17] : tensor<5632x1088xi16> into tensor<5632x64x17xi16>
    %extracted_slice_1387 = tensor.extract_slice %expanded_1386[0, 0, 0] [5632, 64, 1] [1, 1, 1] : tensor<5632x64x17xi16> to tensor<5632x64xi16>
    %expanded_1388 = tensor.expand_shape %extracted_slice_1387 [[0], [1, 2]] output_shape [5632, 64, 1] : tensor<5632x64xi16> into tensor<5632x64x1xi16>
    %2796 = iree_tensor_ext.bitcast %expanded_1388 : tensor<5632x64x1xi16> -> tensor<5632x64x1xf16>
    %extracted_slice_1389 = tensor.extract_slice %expanded_1386[0, 0, 1] [5632, 64, 16] [1, 1, 1] : tensor<5632x64x17xi16> to tensor<5632x64x16xi16>
    %2797 = iree_tensor_ext.bitcast %extracted_slice_1389 : tensor<5632x64x16xi16> -> tensor<5632x64x32xi8>
    %collapsed_1390 = tensor.collapse_shape %2796 [[0], [1, 2]] : tensor<5632x64x1xf16> into tensor<5632x64xf16>
    %2798 = linalg.generic {indexing_maps = [#map1, #map, #map], iterator_types = ["parallel", "parallel", "parallel"]} ins(%collapsed_1390, %2797 : tensor<5632x64xf16>, tensor<5632x64x32xi8>) outs(%357 : tensor<5632x64x32xf16>) {
    ^bb0(%in: f16, %in_1410: i8, %out: f16):
      %2839 = arith.extsi %in_1410 : i8 to i32
      %2840 = arith.sitofp %2839 : i32 to f16
      %2841 = arith.mulf %2840, %in : f16
      linalg.yield %2841 : f16
    } -> tensor<5632x64x32xf16>
    %expanded_1391 = tensor.expand_shape %2794 [[0], [1, 2]] output_shape [4, 64, 32] : tensor<4x2048xf16> into tensor<4x64x32xf16>
    %2799 = linalg.generic {indexing_maps = [#map21, #map29, #map30], iterator_types = ["parallel", "parallel", "reduction", "reduction"]} ins(%expanded_1391, %2798 : tensor<4x64x32xf16>, tensor<5632x64x32xf16>) outs(%360 : tensor<4x5632xf32>) {
    ^bb0(%in: f16, %in_1410: f16, %out: f32):
      %2839 = arith.mulf %in, %in_1410 : f16
      %2840 = arith.extf %2839 : f16 to f32
      %2841 = arith.addf %2840, %out : f32
      linalg.yield %2841 : f32
    } -> tensor<4x5632xf32>
    %2800 = linalg.generic {indexing_maps = [#map2, #map2], iterator_types = ["parallel", "parallel"]} ins(%2799 : tensor<4x5632xf32>) outs(%362 : tensor<4x5632xf16>) {
    ^bb0(%in: f32, %out: f16):
      %2839 = arith.truncf %in : f32 to f16
      linalg.yield %2839 : f16
    } -> tensor<4x5632xf16>
    %2801 = linalg.generic {indexing_maps = [#map2, #map2], iterator_types = ["parallel", "parallel"]} ins(%2800 : tensor<4x5632xf16>) outs(%362 : tensor<4x5632xf16>) {
    ^bb0(%in: f16, %out: f16):
      %2839 = arith.negf %in : f16
      %2840 = math.exp %2839 : f16
      %2841 = arith.addf %2840, %cst_2 : f16
      %2842 = arith.divf %cst_2, %2841 : f16
      linalg.yield %2842 : f16
    } -> tensor<4x5632xf16>
    %2802 = linalg.generic {indexing_maps = [#map2, #map2, #map2], iterator_types = ["parallel", "parallel"]} ins(%2801, %2800 : tensor<4x5632xf16>, tensor<4x5632xf16>) outs(%362 : tensor<4x5632xf16>) {
    ^bb0(%in: f16, %in_1410: f16, %out: f16):
      %2839 = arith.mulf %in, %in_1410 : f16
      linalg.yield %2839 : f16
    } -> tensor<4x5632xf16>
    %2803 = iree_tensor_ext.bitcast %197 : tensor<5632x2176xi8> -> tensor<5632x1088xi16>
    %expanded_1392 = tensor.expand_shape %2803 [[0], [1, 2]] output_shape [5632, 64, 17] : tensor<5632x1088xi16> into tensor<5632x64x17xi16>
    %extracted_slice_1393 = tensor.extract_slice %expanded_1392[0, 0, 0] [5632, 64, 1] [1, 1, 1] : tensor<5632x64x17xi16> to tensor<5632x64xi16>
    %expanded_1394 = tensor.expand_shape %extracted_slice_1393 [[0], [1, 2]] output_shape [5632, 64, 1] : tensor<5632x64xi16> into tensor<5632x64x1xi16>
    %2804 = iree_tensor_ext.bitcast %expanded_1394 : tensor<5632x64x1xi16> -> tensor<5632x64x1xf16>
    %extracted_slice_1395 = tensor.extract_slice %expanded_1392[0, 0, 1] [5632, 64, 16] [1, 1, 1] : tensor<5632x64x17xi16> to tensor<5632x64x16xi16>
    %2805 = iree_tensor_ext.bitcast %extracted_slice_1395 : tensor<5632x64x16xi16> -> tensor<5632x64x32xi8>
    %collapsed_1396 = tensor.collapse_shape %2804 [[0], [1, 2]] : tensor<5632x64x1xf16> into tensor<5632x64xf16>
    %2806 = linalg.generic {indexing_maps = [#map1, #map, #map], iterator_types = ["parallel", "parallel", "parallel"]} ins(%collapsed_1396, %2805 : tensor<5632x64xf16>, tensor<5632x64x32xi8>) outs(%357 : tensor<5632x64x32xf16>) {
    ^bb0(%in: f16, %in_1410: i8, %out: f16):
      %2839 = arith.extsi %in_1410 : i8 to i32
      %2840 = arith.sitofp %2839 : i32 to f16
      %2841 = arith.mulf %2840, %in : f16
      linalg.yield %2841 : f16
    } -> tensor<5632x64x32xf16>
    %2807 = linalg.generic {indexing_maps = [#map21, #map29, #map30], iterator_types = ["parallel", "parallel", "reduction", "reduction"]} ins(%expanded_1391, %2806 : tensor<4x64x32xf16>, tensor<5632x64x32xf16>) outs(%360 : tensor<4x5632xf32>) {
    ^bb0(%in: f16, %in_1410: f16, %out: f32):
      %2839 = arith.mulf %in, %in_1410 : f16
      %2840 = arith.extf %2839 : f16 to f32
      %2841 = arith.addf %2840, %out : f32
      linalg.yield %2841 : f32
    } -> tensor<4x5632xf32>
    %2808 = linalg.generic {indexing_maps = [#map2, #map2], iterator_types = ["parallel", "parallel"]} ins(%2807 : tensor<4x5632xf32>) outs(%362 : tensor<4x5632xf16>) {
    ^bb0(%in: f32, %out: f16):
      %2839 = arith.truncf %in : f32 to f16
      linalg.yield %2839 : f16
    } -> tensor<4x5632xf16>
    %2809 = linalg.generic {indexing_maps = [#map2, #map2, #map2], iterator_types = ["parallel", "parallel"]} ins(%2802, %2808 : tensor<4x5632xf16>, tensor<4x5632xf16>) outs(%362 : tensor<4x5632xf16>) {
    ^bb0(%in: f16, %in_1410: f16, %out: f16):
      %2839 = arith.mulf %in, %in_1410 : f16
      linalg.yield %2839 : f16
    } -> tensor<4x5632xf16>
    %2810 = iree_tensor_ext.bitcast %198 : tensor<2048x5984xi8> -> tensor<2048x2992xi16>
    %expanded_1397 = tensor.expand_shape %2810 [[0], [1, 2]] output_shape [2048, 176, 17] : tensor<2048x2992xi16> into tensor<2048x176x17xi16>
    %extracted_slice_1398 = tensor.extract_slice %expanded_1397[0, 0, 0] [2048, 176, 1] [1, 1, 1] : tensor<2048x176x17xi16> to tensor<2048x176xi16>
    %expanded_1399 = tensor.expand_shape %extracted_slice_1398 [[0], [1, 2]] output_shape [2048, 176, 1] : tensor<2048x176xi16> into tensor<2048x176x1xi16>
    %2811 = iree_tensor_ext.bitcast %expanded_1399 : tensor<2048x176x1xi16> -> tensor<2048x176x1xf16>
    %extracted_slice_1400 = tensor.extract_slice %expanded_1397[0, 0, 1] [2048, 176, 16] [1, 1, 1] : tensor<2048x176x17xi16> to tensor<2048x176x16xi16>
    %2812 = iree_tensor_ext.bitcast %extracted_slice_1400 : tensor<2048x176x16xi16> -> tensor<2048x176x32xi8>
    %collapsed_1401 = tensor.collapse_shape %2811 [[0], [1, 2]] : tensor<2048x176x1xf16> into tensor<2048x176xf16>
    %2813 = linalg.generic {indexing_maps = [#map1, #map, #map], iterator_types = ["parallel", "parallel", "parallel"]} ins(%collapsed_1401, %2812 : tensor<2048x176xf16>, tensor<2048x176x32xi8>) outs(%376 : tensor<2048x176x32xf16>) {
    ^bb0(%in: f16, %in_1410: i8, %out: f16):
      %2839 = arith.extsi %in_1410 : i8 to i32
      %2840 = arith.sitofp %2839 : i32 to f16
      %2841 = arith.mulf %2840, %in : f16
      linalg.yield %2841 : f16
    } -> tensor<2048x176x32xf16>
    %expanded_1402 = tensor.expand_shape %2809 [[0], [1, 2]] output_shape [4, 176, 32] : tensor<4x5632xf16> into tensor<4x176x32xf16>
    %2814 = linalg.generic {indexing_maps = [#map21, #map29, #map30], iterator_types = ["parallel", "parallel", "reduction", "reduction"]} ins(%expanded_1402, %2813 : tensor<4x176x32xf16>, tensor<2048x176x32xf16>) outs(%238 : tensor<4x2048xf32>) {
    ^bb0(%in: f16, %in_1410: f16, %out: f32):
      %2839 = arith.mulf %in, %in_1410 : f16
      %2840 = arith.extf %2839 : f16 to f32
      %2841 = arith.addf %2840, %out : f32
      linalg.yield %2841 : f32
    } -> tensor<4x2048xf32>
    %2815 = linalg.generic {indexing_maps = [#map2, #map2], iterator_types = ["parallel", "parallel"]} ins(%2814 : tensor<4x2048xf32>) outs(%218 : tensor<4x2048xf16>) {
    ^bb0(%in: f32, %out: f16):
      %2839 = arith.truncf %in : f32 to f16
      linalg.yield %2839 : f16
    } -> tensor<4x2048xf16>
    %2816 = linalg.generic {indexing_maps = [#map2, #map2, #map2], iterator_types = ["parallel", "parallel"]} ins(%2784, %2815 : tensor<4x2048xf16>, tensor<4x2048xf16>) outs(%218 : tensor<4x2048xf16>) {
    ^bb0(%in: f16, %in_1410: f16, %out: f16):
      %2839 = arith.addf %in, %in_1410 : f16
      linalg.yield %2839 : f16
    } -> tensor<4x2048xf16>
    %2817 = linalg.generic {indexing_maps = [#map2, #map2], iterator_types = ["parallel", "parallel"]} ins(%2816 : tensor<4x2048xf16>) outs(%220 : tensor<4x2048xf32>) {
    ^bb0(%in: f16, %out: f32):
      %2839 = arith.extf %in : f16 to f32
      linalg.yield %2839 : f32
    } -> tensor<4x2048xf32>
    %2818 = linalg.generic {indexing_maps = [#map2, #map2], iterator_types = ["parallel", "parallel"]} ins(%2817 : tensor<4x2048xf32>) outs(%220 : tensor<4x2048xf32>) {
    ^bb0(%in: f32, %out: f32):
      %2839 = math.fpowi %in, %c2_i64 : f32, i64
      linalg.yield %2839 : f32
    } -> tensor<4x2048xf32>
    %2819 = linalg.generic {indexing_maps = [#map2, #map15], iterator_types = ["parallel", "reduction"]} ins(%2818 : tensor<4x2048xf32>) outs(%224 : tensor<4xf32>) {
    ^bb0(%in: f32, %out: f32):
      %2839 = arith.addf %in, %out : f32
      linalg.yield %2839 : f32
    } -> tensor<4xf32>
    %2820 = linalg.generic {indexing_maps = [#map7, #map7], iterator_types = ["parallel"]} ins(%2819 : tensor<4xf32>) outs(%223 : tensor<4xf32>) {
    ^bb0(%in: f32, %out: f32):
      %2839 = arith.divf %in, %cst_1 : f32
      linalg.yield %2839 : f32
    } -> tensor<4xf32>
    %2821 = linalg.generic {indexing_maps = [#map7, #map7], iterator_types = ["parallel"]} ins(%2820 : tensor<4xf32>) outs(%223 : tensor<4xf32>) {
    ^bb0(%in: f32, %out: f32):
      %2839 = arith.addf %in, %cst_0 : f32
      linalg.yield %2839 : f32
    } -> tensor<4xf32>
    %2822 = linalg.generic {indexing_maps = [#map7, #map7], iterator_types = ["parallel"]} ins(%2821 : tensor<4xf32>) outs(%223 : tensor<4xf32>) {
    ^bb0(%in: f32, %out: f32):
      %2839 = math.rsqrt %in : f32
      linalg.yield %2839 : f32
    } -> tensor<4xf32>
    %2823 = linalg.generic {indexing_maps = [#map2, #map15, #map2], iterator_types = ["parallel", "parallel"]} ins(%2817, %2822 : tensor<4x2048xf32>, tensor<4xf32>) outs(%220 : tensor<4x2048xf32>) {
    ^bb0(%in: f32, %in_1410: f32, %out: f32):
      %2839 = arith.mulf %in, %in_1410 : f32
      linalg.yield %2839 : f32
    } -> tensor<4x2048xf32>
    %2824 = linalg.generic {indexing_maps = [#map2, #map2], iterator_types = ["parallel", "parallel"]} ins(%2823 : tensor<4x2048xf32>) outs(%218 : tensor<4x2048xf16>) {
    ^bb0(%in: f32, %out: f16):
      %2839 = arith.truncf %in : f32 to f16
      linalg.yield %2839 : f16
    } -> tensor<4x2048xf16>
    %2825 = linalg.generic {indexing_maps = [#map14, #map2, #map2], iterator_types = ["parallel", "parallel"]} ins(%199, %2824 : tensor<2048xf32>, tensor<4x2048xf16>) outs(%220 : tensor<4x2048xf32>) {
    ^bb0(%in: f32, %in_1410: f16, %out: f32):
      %2839 = arith.extf %in_1410 : f16 to f32
      %2840 = arith.mulf %in, %2839 : f32
      linalg.yield %2840 : f32
    } -> tensor<4x2048xf32>
    %2826 = linalg.generic {indexing_maps = [#map2, #map2], iterator_types = ["parallel", "parallel"]} ins(%2825 : tensor<4x2048xf32>) outs(%218 : tensor<4x2048xf16>) {
    ^bb0(%in: f32, %out: f16):
      %2839 = arith.truncf %in : f32 to f16
      linalg.yield %2839 : f16
    } -> tensor<4x2048xf16>
    %2827 = iree_tensor_ext.bitcast %200 : tensor<32000x2176xi8> -> tensor<32000x1088xi16>
    %expanded_1403 = tensor.expand_shape %2827 [[0], [1, 2]] output_shape [32000, 64, 17] : tensor<32000x1088xi16> into tensor<32000x64x17xi16>
    %extracted_slice_1404 = tensor.extract_slice %expanded_1403[0, 0, 0] [32000, 64, 1] [1, 1, 1] : tensor<32000x64x17xi16> to tensor<32000x64xi16>
    %expanded_1405 = tensor.expand_shape %extracted_slice_1404 [[0], [1, 2]] output_shape [32000, 64, 1] : tensor<32000x64xi16> into tensor<32000x64x1xi16>
    %2828 = iree_tensor_ext.bitcast %expanded_1405 : tensor<32000x64x1xi16> -> tensor<32000x64x1xf16>
    %extracted_slice_1406 = tensor.extract_slice %expanded_1403[0, 0, 1] [32000, 64, 16] [1, 1, 1] : tensor<32000x64x17xi16> to tensor<32000x64x16xi16>
    %2829 = iree_tensor_ext.bitcast %extracted_slice_1406 : tensor<32000x64x16xi16> -> tensor<32000x64x32xi8>
    %collapsed_1407 = tensor.collapse_shape %2828 [[0], [1, 2]] : tensor<32000x64x1xf16> into tensor<32000x64xf16>
    %2830 = linalg.generic {indexing_maps = [#map1, #map, #map], iterator_types = ["parallel", "parallel", "parallel"]} ins(%collapsed_1407, %2829 : tensor<32000x64xf16>, tensor<32000x64x32xi8>) outs(%215 : tensor<32000x64x32xf16>) {
    ^bb0(%in: f16, %in_1410: i8, %out: f16):
      %2839 = arith.extsi %in_1410 : i8 to i32
      %2840 = arith.sitofp %2839 : i32 to f16
      %2841 = arith.mulf %2840, %in : f16
      linalg.yield %2841 : f16
    } -> tensor<32000x64x32xf16>
    %expanded_1408 = tensor.expand_shape %2826 [[0], [1, 2]] output_shape [4, 64, 32] : tensor<4x2048xf16> into tensor<4x64x32xf16>
    %2831 = tensor.empty() : tensor<4x32000xf32>
    %2832 = linalg.fill ins(%cst_3 : f32) outs(%2831 : tensor<4x32000xf32>) -> tensor<4x32000xf32>
    %2833 = linalg.generic {indexing_maps = [#map21, #map29, #map30], iterator_types = ["parallel", "parallel", "reduction", "reduction"]} ins(%expanded_1408, %2830 : tensor<4x64x32xf16>, tensor<32000x64x32xf16>) outs(%2832 : tensor<4x32000xf32>) {
    ^bb0(%in: f16, %in_1410: f16, %out: f32):
      %2839 = arith.mulf %in, %in_1410 : f16
      %2840 = arith.extf %2839 : f16 to f32
      %2841 = arith.addf %2840, %out : f32
      linalg.yield %2841 : f32
    } -> tensor<4x32000xf32>
    %2834 = tensor.empty() : tensor<4x32000xf16>
    %2835 = linalg.generic {indexing_maps = [#map2, #map2], iterator_types = ["parallel", "parallel"]} ins(%2833 : tensor<4x32000xf32>) outs(%2834 : tensor<4x32000xf16>) {
    ^bb0(%in: f32, %out: f16):
      %2839 = arith.truncf %in : f32 to f16
      linalg.yield %2839 : f16
    } -> tensor<4x32000xf16>
    %expanded_1409 = tensor.expand_shape %2835 [[0, 1], [2]] output_shape [4, 1, 32000] : tensor<4x32000xf16> into tensor<4x1x32000xf16>
    %2836 = hal.tensor.alias on(#hal.device.affinity<@__device_0>) wait(%arg5) => %collapsed_1371 : tensor<?x360448xf16>{%210} to %arg4 : !hal.buffer_view
    %2837:2 = hal.tensor.barrier join(%2836, %expanded_1409 : tensor<?x360448xf16>, tensor<4x1x32000xf16>) => %arg6 : !hal.fence
    %2838 = hal.tensor.export %2837#1 : tensor<4x1x32000xf16> -> !hal.buffer_view
    util.return %2838 : !hal.buffer_view
  }
  util.func public @decode_bs4(%arg0: !hal.buffer_view, %arg1: !hal.buffer_view, %arg2: !hal.buffer_view, %arg3: !hal.buffer_view, %arg4: !hal.buffer_view) -> !hal.buffer_view attributes {iree.abi.stub} {
    %0 = util.null : !hal.fence
    %c-1_i32 = arith.constant -1 : i32
    %c0 = arith.constant 0 : index
    %device_0 = hal.devices.get %c0 : !hal.device
    %fence = hal.fence.create device(%device_0 : !hal.device) flags("None") : !hal.fence
    %1 = util.call @decode_bs4$async(%arg0, %arg1, %arg2, %arg3, %arg4, %0, %fence) : (!hal.buffer_view, !hal.buffer_view, !hal.buffer_view, !hal.buffer_view, !hal.buffer_view, !hal.fence, !hal.fence) -> !hal.buffer_view
    %status = hal.fence.await until([%fence]) timeout_millis(%c-1_i32) flags("None") : i32
    util.return %1 : !hal.buffer_view
  }
}
