#map = affine_map<(d0, d1, d2) -> (d0, d1, d2)>
#map1 = affine_map<(d0, d1, d2) -> (d0, d1, 0)>
#map2 = affine_map<(d0, d1, d2) -> (d0, d1)>
#map3 = affine_map<(d0, d1, d2) -> (d2)>
#map4 = affine_map<(d0, d1, d2, d3, d4) -> (d0, d1, d3, d4)>
#map5 = affine_map<(d0, d1, d2, d3, d4) -> (d2, d3, d4)>
#map6 = affine_map<(d0, d1, d2, d3, d4) -> (d0, d1, d2)>
#map7 = affine_map<(d0) -> (d0)>
#map8 = affine_map<(d0, d1, d2) -> ()>
#map9 = affine_map<(d0, d1, d2, d3) -> (d0, d1, d2, d3)>
#map10 = affine_map<(d0, d1, d2, d3) -> (0, d1, 0, d3)>
#map11 = affine_map<(d0, d1, d2, d3, d4) -> (d0, d1, d2, d4)>
#map12 = affine_map<(d0, d1, d2, d3, d4) -> (d0, d1, d2, d3, d4)>
#map13 = affine_map<(d0, d1) -> (d0, d1)>
#map14 = affine_map<()[s0] -> (s0 * 4)>
#map15 = affine_map<(d0, d1) -> (d1)>
#map16 = affine_map<(d0, d1) -> (d0, 0)>
#map17 = affine_map<(d0, d1, d2, d3) -> (d0, d1, 0, d3)>
#map18 = affine_map<(d0, d1, d2, d3) -> (d0, d1, d2, 0)>
#map19 = affine_map<(d0, d1, d2, d3) -> (0, d1, d2, d3)>
#map20 = affine_map<() -> ()>
#map21 = affine_map<(d0, d1, d2, d3) -> ()>
#map22 = affine_map<(d0, d1, d2, d3) -> (d0, 0, d2, d3)>
#map23 = affine_map<(d0, d1, d2, d3, d4) -> (d0, d1, d3)>
#map24 = affine_map<(d0, d1, d2, d3, d4) -> (d0, d4, d3)>
#map25 = affine_map<(d0, d1, d2, d3, d4) -> (d0, d4, d2)>
#map26 = affine_map<(d0, d1, d2, d3, d4) -> ()>
#map27 = affine_map<(d0, d1, d2, d3, d4) -> (d0, d1, d4)>
#map28 = affine_map<(d0, d1) -> (0, d1)>
#map29 = affine_map<(d0, d1, d2) -> (d1, d2)>
#map30 = affine_map<(d0, d1, d2) -> (0, d1, d2)>
#map31 = affine_map<(d0, d1) -> ()>
#map32 = affine_map<()[s0] -> (s0 * 32)>
module @module {
  util.global private @__auto.token_embd.weight = #flow.parameter.named<"model"::"token_embd.weight"> : tensor<32000x2176xi8>
  util.global private @__auto.blk.0.attn_norm.weight = #flow.parameter.named<"model"::"blk.0.attn_norm.weight"> : tensor<2048xf32>
  util.global private @__auto.blk.0.attn_q.weight = #flow.parameter.named<"model"::"blk.0.attn_q.weight"> : tensor<2048x2176xi8>
  util.global private @__auto.blk.0.attn_k.weight = #flow.parameter.named<"model"::"blk.0.attn_k.weight"> : tensor<256x2176xi8>
  util.global private @__auto.blk.0.attn_v.weight = #flow.parameter.named<"model"::"blk.0.attn_v.weight"> : tensor<256x2176xi8>
  util.global private @__auto.blk.0.attn_output.weight = #flow.parameter.named<"model"::"blk.0.attn_output.weight"> : tensor<2048x2176xi8>
  util.global private @__auto.blk.0.ffn_norm.weight = #flow.parameter.named<"model"::"blk.0.ffn_norm.weight"> : tensor<2048xf32>
  util.global private @__auto.blk.0.ffn_gate.weight = #flow.parameter.named<"model"::"blk.0.ffn_gate.weight"> : tensor<5632x2176xi8>
  util.global private @__auto.blk.0.ffn_up.weight = #flow.parameter.named<"model"::"blk.0.ffn_up.weight"> : tensor<5632x2176xi8>
  util.global private @__auto.blk.0.ffn_down.weight = #flow.parameter.named<"model"::"blk.0.ffn_down.weight"> : tensor<2048x5984xi8>
  util.global private @__auto.blk.1.attn_norm.weight = #flow.parameter.named<"model"::"blk.1.attn_norm.weight"> : tensor<2048xf32>
  util.global private @__auto.blk.1.attn_q.weight = #flow.parameter.named<"model"::"blk.1.attn_q.weight"> : tensor<2048x2176xi8>
  util.global private @__auto.blk.1.attn_k.weight = #flow.parameter.named<"model"::"blk.1.attn_k.weight"> : tensor<256x2176xi8>
  util.global private @__auto.blk.1.attn_v.weight = #flow.parameter.named<"model"::"blk.1.attn_v.weight"> : tensor<256x2176xi8>
  util.global private @__auto.blk.1.attn_output.weight = #flow.parameter.named<"model"::"blk.1.attn_output.weight"> : tensor<2048x2176xi8>
  util.global private @__auto.blk.1.ffn_norm.weight = #flow.parameter.named<"model"::"blk.1.ffn_norm.weight"> : tensor<2048xf32>
  util.global private @__auto.blk.1.ffn_gate.weight = #flow.parameter.named<"model"::"blk.1.ffn_gate.weight"> : tensor<5632x2176xi8>
  util.global private @__auto.blk.1.ffn_up.weight = #flow.parameter.named<"model"::"blk.1.ffn_up.weight"> : tensor<5632x2176xi8>
  util.global private @__auto.blk.1.ffn_down.weight = #flow.parameter.named<"model"::"blk.1.ffn_down.weight"> : tensor<2048x5984xi8>
  util.global private @__auto.blk.2.attn_norm.weight = #flow.parameter.named<"model"::"blk.2.attn_norm.weight"> : tensor<2048xf32>
  util.global private @__auto.blk.2.attn_q.weight = #flow.parameter.named<"model"::"blk.2.attn_q.weight"> : tensor<2048x2176xi8>
  util.global private @__auto.blk.2.attn_k.weight = #flow.parameter.named<"model"::"blk.2.attn_k.weight"> : tensor<256x2176xi8>
  util.global private @__auto.blk.2.attn_v.weight = #flow.parameter.named<"model"::"blk.2.attn_v.weight"> : tensor<256x2176xi8>
  util.global private @__auto.blk.2.attn_output.weight = #flow.parameter.named<"model"::"blk.2.attn_output.weight"> : tensor<2048x2176xi8>
  util.global private @__auto.blk.2.ffn_norm.weight = #flow.parameter.named<"model"::"blk.2.ffn_norm.weight"> : tensor<2048xf32>
  util.global private @__auto.blk.2.ffn_gate.weight = #flow.parameter.named<"model"::"blk.2.ffn_gate.weight"> : tensor<5632x2176xi8>
  util.global private @__auto.blk.2.ffn_up.weight = #flow.parameter.named<"model"::"blk.2.ffn_up.weight"> : tensor<5632x2176xi8>
  util.global private @__auto.blk.2.ffn_down.weight = #flow.parameter.named<"model"::"blk.2.ffn_down.weight"> : tensor<2048x5984xi8>
  util.global private @__auto.blk.3.attn_norm.weight = #flow.parameter.named<"model"::"blk.3.attn_norm.weight"> : tensor<2048xf32>
  util.global private @__auto.blk.3.attn_q.weight = #flow.parameter.named<"model"::"blk.3.attn_q.weight"> : tensor<2048x2176xi8>
  util.global private @__auto.blk.3.attn_k.weight = #flow.parameter.named<"model"::"blk.3.attn_k.weight"> : tensor<256x2176xi8>
  util.global private @__auto.blk.3.attn_v.weight = #flow.parameter.named<"model"::"blk.3.attn_v.weight"> : tensor<256x2176xi8>
  util.global private @__auto.blk.3.attn_output.weight = #flow.parameter.named<"model"::"blk.3.attn_output.weight"> : tensor<2048x2176xi8>
  util.global private @__auto.blk.3.ffn_norm.weight = #flow.parameter.named<"model"::"blk.3.ffn_norm.weight"> : tensor<2048xf32>
  util.global private @__auto.blk.3.ffn_gate.weight = #flow.parameter.named<"model"::"blk.3.ffn_gate.weight"> : tensor<5632x2176xi8>
  util.global private @__auto.blk.3.ffn_up.weight = #flow.parameter.named<"model"::"blk.3.ffn_up.weight"> : tensor<5632x2176xi8>
  util.global private @__auto.blk.3.ffn_down.weight = #flow.parameter.named<"model"::"blk.3.ffn_down.weight"> : tensor<2048x5984xi8>
  util.global private @__auto.blk.4.attn_norm.weight = #flow.parameter.named<"model"::"blk.4.attn_norm.weight"> : tensor<2048xf32>
  util.global private @__auto.blk.4.attn_q.weight = #flow.parameter.named<"model"::"blk.4.attn_q.weight"> : tensor<2048x2176xi8>
  util.global private @__auto.blk.4.attn_k.weight = #flow.parameter.named<"model"::"blk.4.attn_k.weight"> : tensor<256x2176xi8>
  util.global private @__auto.blk.4.attn_v.weight = #flow.parameter.named<"model"::"blk.4.attn_v.weight"> : tensor<256x2176xi8>
  util.global private @__auto.blk.4.attn_output.weight = #flow.parameter.named<"model"::"blk.4.attn_output.weight"> : tensor<2048x2176xi8>
  util.global private @__auto.blk.4.ffn_norm.weight = #flow.parameter.named<"model"::"blk.4.ffn_norm.weight"> : tensor<2048xf32>
  util.global private @__auto.blk.4.ffn_gate.weight = #flow.parameter.named<"model"::"blk.4.ffn_gate.weight"> : tensor<5632x2176xi8>
  util.global private @__auto.blk.4.ffn_up.weight = #flow.parameter.named<"model"::"blk.4.ffn_up.weight"> : tensor<5632x2176xi8>
  util.global private @__auto.blk.4.ffn_down.weight = #flow.parameter.named<"model"::"blk.4.ffn_down.weight"> : tensor<2048x5984xi8>
  util.global private @__auto.blk.5.attn_norm.weight = #flow.parameter.named<"model"::"blk.5.attn_norm.weight"> : tensor<2048xf32>
  util.global private @__auto.blk.5.attn_q.weight = #flow.parameter.named<"model"::"blk.5.attn_q.weight"> : tensor<2048x2176xi8>
  util.global private @__auto.blk.5.attn_k.weight = #flow.parameter.named<"model"::"blk.5.attn_k.weight"> : tensor<256x2176xi8>
  util.global private @__auto.blk.5.attn_v.weight = #flow.parameter.named<"model"::"blk.5.attn_v.weight"> : tensor<256x2176xi8>
  util.global private @__auto.blk.5.attn_output.weight = #flow.parameter.named<"model"::"blk.5.attn_output.weight"> : tensor<2048x2176xi8>
  util.global private @__auto.blk.5.ffn_norm.weight = #flow.parameter.named<"model"::"blk.5.ffn_norm.weight"> : tensor<2048xf32>
  util.global private @__auto.blk.5.ffn_gate.weight = #flow.parameter.named<"model"::"blk.5.ffn_gate.weight"> : tensor<5632x2176xi8>
  util.global private @__auto.blk.5.ffn_up.weight = #flow.parameter.named<"model"::"blk.5.ffn_up.weight"> : tensor<5632x2176xi8>
  util.global private @__auto.blk.5.ffn_down.weight = #flow.parameter.named<"model"::"blk.5.ffn_down.weight"> : tensor<2048x5984xi8>
  util.global private @__auto.blk.6.attn_norm.weight = #flow.parameter.named<"model"::"blk.6.attn_norm.weight"> : tensor<2048xf32>
  util.global private @__auto.blk.6.attn_q.weight = #flow.parameter.named<"model"::"blk.6.attn_q.weight"> : tensor<2048x2176xi8>
  util.global private @__auto.blk.6.attn_k.weight = #flow.parameter.named<"model"::"blk.6.attn_k.weight"> : tensor<256x2176xi8>
  util.global private @__auto.blk.6.attn_v.weight = #flow.parameter.named<"model"::"blk.6.attn_v.weight"> : tensor<256x2176xi8>
  util.global private @__auto.blk.6.attn_output.weight = #flow.parameter.named<"model"::"blk.6.attn_output.weight"> : tensor<2048x2176xi8>
  util.global private @__auto.blk.6.ffn_norm.weight = #flow.parameter.named<"model"::"blk.6.ffn_norm.weight"> : tensor<2048xf32>
  util.global private @__auto.blk.6.ffn_gate.weight = #flow.parameter.named<"model"::"blk.6.ffn_gate.weight"> : tensor<5632x2176xi8>
  util.global private @__auto.blk.6.ffn_up.weight = #flow.parameter.named<"model"::"blk.6.ffn_up.weight"> : tensor<5632x2176xi8>
  util.global private @__auto.blk.6.ffn_down.weight = #flow.parameter.named<"model"::"blk.6.ffn_down.weight"> : tensor<2048x5984xi8>
  util.global private @__auto.blk.7.attn_norm.weight = #flow.parameter.named<"model"::"blk.7.attn_norm.weight"> : tensor<2048xf32>
  util.global private @__auto.blk.7.attn_q.weight = #flow.parameter.named<"model"::"blk.7.attn_q.weight"> : tensor<2048x2176xi8>
  util.global private @__auto.blk.7.attn_k.weight = #flow.parameter.named<"model"::"blk.7.attn_k.weight"> : tensor<256x2176xi8>
  util.global private @__auto.blk.7.attn_v.weight = #flow.parameter.named<"model"::"blk.7.attn_v.weight"> : tensor<256x2176xi8>
  util.global private @__auto.blk.7.attn_output.weight = #flow.parameter.named<"model"::"blk.7.attn_output.weight"> : tensor<2048x2176xi8>
  util.global private @__auto.blk.7.ffn_norm.weight = #flow.parameter.named<"model"::"blk.7.ffn_norm.weight"> : tensor<2048xf32>
  util.global private @__auto.blk.7.ffn_gate.weight = #flow.parameter.named<"model"::"blk.7.ffn_gate.weight"> : tensor<5632x2176xi8>
  util.global private @__auto.blk.7.ffn_up.weight = #flow.parameter.named<"model"::"blk.7.ffn_up.weight"> : tensor<5632x2176xi8>
  util.global private @__auto.blk.7.ffn_down.weight = #flow.parameter.named<"model"::"blk.7.ffn_down.weight"> : tensor<2048x5984xi8>
  util.global private @__auto.blk.8.attn_norm.weight = #flow.parameter.named<"model"::"blk.8.attn_norm.weight"> : tensor<2048xf32>
  util.global private @__auto.blk.8.attn_q.weight = #flow.parameter.named<"model"::"blk.8.attn_q.weight"> : tensor<2048x2176xi8>
  util.global private @__auto.blk.8.attn_k.weight = #flow.parameter.named<"model"::"blk.8.attn_k.weight"> : tensor<256x2176xi8>
  util.global private @__auto.blk.8.attn_v.weight = #flow.parameter.named<"model"::"blk.8.attn_v.weight"> : tensor<256x2176xi8>
  util.global private @__auto.blk.8.attn_output.weight = #flow.parameter.named<"model"::"blk.8.attn_output.weight"> : tensor<2048x2176xi8>
  util.global private @__auto.blk.8.ffn_norm.weight = #flow.parameter.named<"model"::"blk.8.ffn_norm.weight"> : tensor<2048xf32>
  util.global private @__auto.blk.8.ffn_gate.weight = #flow.parameter.named<"model"::"blk.8.ffn_gate.weight"> : tensor<5632x2176xi8>
  util.global private @__auto.blk.8.ffn_up.weight = #flow.parameter.named<"model"::"blk.8.ffn_up.weight"> : tensor<5632x2176xi8>
  util.global private @__auto.blk.8.ffn_down.weight = #flow.parameter.named<"model"::"blk.8.ffn_down.weight"> : tensor<2048x5984xi8>
  util.global private @__auto.blk.9.attn_norm.weight = #flow.parameter.named<"model"::"blk.9.attn_norm.weight"> : tensor<2048xf32>
  util.global private @__auto.blk.9.attn_q.weight = #flow.parameter.named<"model"::"blk.9.attn_q.weight"> : tensor<2048x2176xi8>
  util.global private @__auto.blk.9.attn_k.weight = #flow.parameter.named<"model"::"blk.9.attn_k.weight"> : tensor<256x2176xi8>
  util.global private @__auto.blk.9.attn_v.weight = #flow.parameter.named<"model"::"blk.9.attn_v.weight"> : tensor<256x2176xi8>
  util.global private @__auto.blk.9.attn_output.weight = #flow.parameter.named<"model"::"blk.9.attn_output.weight"> : tensor<2048x2176xi8>
  util.global private @__auto.blk.9.ffn_norm.weight = #flow.parameter.named<"model"::"blk.9.ffn_norm.weight"> : tensor<2048xf32>
  util.global private @__auto.blk.9.ffn_gate.weight = #flow.parameter.named<"model"::"blk.9.ffn_gate.weight"> : tensor<5632x2176xi8>
  util.global private @__auto.blk.9.ffn_up.weight = #flow.parameter.named<"model"::"blk.9.ffn_up.weight"> : tensor<5632x2176xi8>
  util.global private @__auto.blk.9.ffn_down.weight = #flow.parameter.named<"model"::"blk.9.ffn_down.weight"> : tensor<2048x5984xi8>
  util.global private @__auto.blk.10.attn_norm.weight = #flow.parameter.named<"model"::"blk.10.attn_norm.weight"> : tensor<2048xf32>
  util.global private @__auto.blk.10.attn_q.weight = #flow.parameter.named<"model"::"blk.10.attn_q.weight"> : tensor<2048x2176xi8>
  util.global private @__auto.blk.10.attn_k.weight = #flow.parameter.named<"model"::"blk.10.attn_k.weight"> : tensor<256x2176xi8>
  util.global private @__auto.blk.10.attn_v.weight = #flow.parameter.named<"model"::"blk.10.attn_v.weight"> : tensor<256x2176xi8>
  util.global private @__auto.blk.10.attn_output.weight = #flow.parameter.named<"model"::"blk.10.attn_output.weight"> : tensor<2048x2176xi8>
  util.global private @__auto.blk.10.ffn_norm.weight = #flow.parameter.named<"model"::"blk.10.ffn_norm.weight"> : tensor<2048xf32>
  util.global private @__auto.blk.10.ffn_gate.weight = #flow.parameter.named<"model"::"blk.10.ffn_gate.weight"> : tensor<5632x2176xi8>
  util.global private @__auto.blk.10.ffn_up.weight = #flow.parameter.named<"model"::"blk.10.ffn_up.weight"> : tensor<5632x2176xi8>
  util.global private @__auto.blk.10.ffn_down.weight = #flow.parameter.named<"model"::"blk.10.ffn_down.weight"> : tensor<2048x5984xi8>
  util.global private @__auto.blk.11.attn_norm.weight = #flow.parameter.named<"model"::"blk.11.attn_norm.weight"> : tensor<2048xf32>
  util.global private @__auto.blk.11.attn_q.weight = #flow.parameter.named<"model"::"blk.11.attn_q.weight"> : tensor<2048x2176xi8>
  util.global private @__auto.blk.11.attn_k.weight = #flow.parameter.named<"model"::"blk.11.attn_k.weight"> : tensor<256x2176xi8>
  util.global private @__auto.blk.11.attn_v.weight = #flow.parameter.named<"model"::"blk.11.attn_v.weight"> : tensor<256x2176xi8>
  util.global private @__auto.blk.11.attn_output.weight = #flow.parameter.named<"model"::"blk.11.attn_output.weight"> : tensor<2048x2176xi8>
  util.global private @__auto.blk.11.ffn_norm.weight = #flow.parameter.named<"model"::"blk.11.ffn_norm.weight"> : tensor<2048xf32>
  util.global private @__auto.blk.11.ffn_gate.weight = #flow.parameter.named<"model"::"blk.11.ffn_gate.weight"> : tensor<5632x2176xi8>
  util.global private @__auto.blk.11.ffn_up.weight = #flow.parameter.named<"model"::"blk.11.ffn_up.weight"> : tensor<5632x2176xi8>
  util.global private @__auto.blk.11.ffn_down.weight = #flow.parameter.named<"model"::"blk.11.ffn_down.weight"> : tensor<2048x5984xi8>
  util.global private @__auto.blk.12.attn_norm.weight = #flow.parameter.named<"model"::"blk.12.attn_norm.weight"> : tensor<2048xf32>
  util.global private @__auto.blk.12.attn_q.weight = #flow.parameter.named<"model"::"blk.12.attn_q.weight"> : tensor<2048x2176xi8>
  util.global private @__auto.blk.12.attn_k.weight = #flow.parameter.named<"model"::"blk.12.attn_k.weight"> : tensor<256x2176xi8>
  util.global private @__auto.blk.12.attn_v.weight = #flow.parameter.named<"model"::"blk.12.attn_v.weight"> : tensor<256x2176xi8>
  util.global private @__auto.blk.12.attn_output.weight = #flow.parameter.named<"model"::"blk.12.attn_output.weight"> : tensor<2048x2176xi8>
  util.global private @__auto.blk.12.ffn_norm.weight = #flow.parameter.named<"model"::"blk.12.ffn_norm.weight"> : tensor<2048xf32>
  util.global private @__auto.blk.12.ffn_gate.weight = #flow.parameter.named<"model"::"blk.12.ffn_gate.weight"> : tensor<5632x2176xi8>
  util.global private @__auto.blk.12.ffn_up.weight = #flow.parameter.named<"model"::"blk.12.ffn_up.weight"> : tensor<5632x2176xi8>
  util.global private @__auto.blk.12.ffn_down.weight = #flow.parameter.named<"model"::"blk.12.ffn_down.weight"> : tensor<2048x5984xi8>
  util.global private @__auto.blk.13.attn_norm.weight = #flow.parameter.named<"model"::"blk.13.attn_norm.weight"> : tensor<2048xf32>
  util.global private @__auto.blk.13.attn_q.weight = #flow.parameter.named<"model"::"blk.13.attn_q.weight"> : tensor<2048x2176xi8>
  util.global private @__auto.blk.13.attn_k.weight = #flow.parameter.named<"model"::"blk.13.attn_k.weight"> : tensor<256x2176xi8>
  util.global private @__auto.blk.13.attn_v.weight = #flow.parameter.named<"model"::"blk.13.attn_v.weight"> : tensor<256x2176xi8>
  util.global private @__auto.blk.13.attn_output.weight = #flow.parameter.named<"model"::"blk.13.attn_output.weight"> : tensor<2048x2176xi8>
  util.global private @__auto.blk.13.ffn_norm.weight = #flow.parameter.named<"model"::"blk.13.ffn_norm.weight"> : tensor<2048xf32>
  util.global private @__auto.blk.13.ffn_gate.weight = #flow.parameter.named<"model"::"blk.13.ffn_gate.weight"> : tensor<5632x2176xi8>
  util.global private @__auto.blk.13.ffn_up.weight = #flow.parameter.named<"model"::"blk.13.ffn_up.weight"> : tensor<5632x2176xi8>
  util.global private @__auto.blk.13.ffn_down.weight = #flow.parameter.named<"model"::"blk.13.ffn_down.weight"> : tensor<2048x5984xi8>
  util.global private @__auto.blk.14.attn_norm.weight = #flow.parameter.named<"model"::"blk.14.attn_norm.weight"> : tensor<2048xf32>
  util.global private @__auto.blk.14.attn_q.weight = #flow.parameter.named<"model"::"blk.14.attn_q.weight"> : tensor<2048x2176xi8>
  util.global private @__auto.blk.14.attn_k.weight = #flow.parameter.named<"model"::"blk.14.attn_k.weight"> : tensor<256x2176xi8>
  util.global private @__auto.blk.14.attn_v.weight = #flow.parameter.named<"model"::"blk.14.attn_v.weight"> : tensor<256x2176xi8>
  util.global private @__auto.blk.14.attn_output.weight = #flow.parameter.named<"model"::"blk.14.attn_output.weight"> : tensor<2048x2176xi8>
  util.global private @__auto.blk.14.ffn_norm.weight = #flow.parameter.named<"model"::"blk.14.ffn_norm.weight"> : tensor<2048xf32>
  util.global private @__auto.blk.14.ffn_gate.weight = #flow.parameter.named<"model"::"blk.14.ffn_gate.weight"> : tensor<5632x2176xi8>
  util.global private @__auto.blk.14.ffn_up.weight = #flow.parameter.named<"model"::"blk.14.ffn_up.weight"> : tensor<5632x2176xi8>
  util.global private @__auto.blk.14.ffn_down.weight = #flow.parameter.named<"model"::"blk.14.ffn_down.weight"> : tensor<2048x5984xi8>
  util.global private @__auto.blk.15.attn_norm.weight = #flow.parameter.named<"model"::"blk.15.attn_norm.weight"> : tensor<2048xf32>
  util.global private @__auto.blk.15.attn_q.weight = #flow.parameter.named<"model"::"blk.15.attn_q.weight"> : tensor<2048x2176xi8>
  util.global private @__auto.blk.15.attn_k.weight = #flow.parameter.named<"model"::"blk.15.attn_k.weight"> : tensor<256x2176xi8>
  util.global private @__auto.blk.15.attn_v.weight = #flow.parameter.named<"model"::"blk.15.attn_v.weight"> : tensor<256x2176xi8>
  util.global private @__auto.blk.15.attn_output.weight = #flow.parameter.named<"model"::"blk.15.attn_output.weight"> : tensor<2048x2176xi8>
  util.global private @__auto.blk.15.ffn_norm.weight = #flow.parameter.named<"model"::"blk.15.ffn_norm.weight"> : tensor<2048xf32>
  util.global private @__auto.blk.15.ffn_gate.weight = #flow.parameter.named<"model"::"blk.15.ffn_gate.weight"> : tensor<5632x2176xi8>
  util.global private @__auto.blk.15.ffn_up.weight = #flow.parameter.named<"model"::"blk.15.ffn_up.weight"> : tensor<5632x2176xi8>
  util.global private @__auto.blk.15.ffn_down.weight = #flow.parameter.named<"model"::"blk.15.ffn_down.weight"> : tensor<2048x5984xi8>
  util.global private @__auto.blk.16.attn_norm.weight = #flow.parameter.named<"model"::"blk.16.attn_norm.weight"> : tensor<2048xf32>
  util.global private @__auto.blk.16.attn_q.weight = #flow.parameter.named<"model"::"blk.16.attn_q.weight"> : tensor<2048x2176xi8>
  util.global private @__auto.blk.16.attn_k.weight = #flow.parameter.named<"model"::"blk.16.attn_k.weight"> : tensor<256x2176xi8>
  util.global private @__auto.blk.16.attn_v.weight = #flow.parameter.named<"model"::"blk.16.attn_v.weight"> : tensor<256x2176xi8>
  util.global private @__auto.blk.16.attn_output.weight = #flow.parameter.named<"model"::"blk.16.attn_output.weight"> : tensor<2048x2176xi8>
  util.global private @__auto.blk.16.ffn_norm.weight = #flow.parameter.named<"model"::"blk.16.ffn_norm.weight"> : tensor<2048xf32>
  util.global private @__auto.blk.16.ffn_gate.weight = #flow.parameter.named<"model"::"blk.16.ffn_gate.weight"> : tensor<5632x2176xi8>
  util.global private @__auto.blk.16.ffn_up.weight = #flow.parameter.named<"model"::"blk.16.ffn_up.weight"> : tensor<5632x2176xi8>
  util.global private @__auto.blk.16.ffn_down.weight = #flow.parameter.named<"model"::"blk.16.ffn_down.weight"> : tensor<2048x5984xi8>
  util.global private @__auto.blk.17.attn_norm.weight = #flow.parameter.named<"model"::"blk.17.attn_norm.weight"> : tensor<2048xf32>
  util.global private @__auto.blk.17.attn_q.weight = #flow.parameter.named<"model"::"blk.17.attn_q.weight"> : tensor<2048x2176xi8>
  util.global private @__auto.blk.17.attn_k.weight = #flow.parameter.named<"model"::"blk.17.attn_k.weight"> : tensor<256x2176xi8>
  util.global private @__auto.blk.17.attn_v.weight = #flow.parameter.named<"model"::"blk.17.attn_v.weight"> : tensor<256x2176xi8>
  util.global private @__auto.blk.17.attn_output.weight = #flow.parameter.named<"model"::"blk.17.attn_output.weight"> : tensor<2048x2176xi8>
  util.global private @__auto.blk.17.ffn_norm.weight = #flow.parameter.named<"model"::"blk.17.ffn_norm.weight"> : tensor<2048xf32>
  util.global private @__auto.blk.17.ffn_gate.weight = #flow.parameter.named<"model"::"blk.17.ffn_gate.weight"> : tensor<5632x2176xi8>
  util.global private @__auto.blk.17.ffn_up.weight = #flow.parameter.named<"model"::"blk.17.ffn_up.weight"> : tensor<5632x2176xi8>
  util.global private @__auto.blk.17.ffn_down.weight = #flow.parameter.named<"model"::"blk.17.ffn_down.weight"> : tensor<2048x5984xi8>
  util.global private @__auto.blk.18.attn_norm.weight = #flow.parameter.named<"model"::"blk.18.attn_norm.weight"> : tensor<2048xf32>
  util.global private @__auto.blk.18.attn_q.weight = #flow.parameter.named<"model"::"blk.18.attn_q.weight"> : tensor<2048x2176xi8>
  util.global private @__auto.blk.18.attn_k.weight = #flow.parameter.named<"model"::"blk.18.attn_k.weight"> : tensor<256x2176xi8>
  util.global private @__auto.blk.18.attn_v.weight = #flow.parameter.named<"model"::"blk.18.attn_v.weight"> : tensor<256x2176xi8>
  util.global private @__auto.blk.18.attn_output.weight = #flow.parameter.named<"model"::"blk.18.attn_output.weight"> : tensor<2048x2176xi8>
  util.global private @__auto.blk.18.ffn_norm.weight = #flow.parameter.named<"model"::"blk.18.ffn_norm.weight"> : tensor<2048xf32>
  util.global private @__auto.blk.18.ffn_gate.weight = #flow.parameter.named<"model"::"blk.18.ffn_gate.weight"> : tensor<5632x2176xi8>
  util.global private @__auto.blk.18.ffn_up.weight = #flow.parameter.named<"model"::"blk.18.ffn_up.weight"> : tensor<5632x2176xi8>
  util.global private @__auto.blk.18.ffn_down.weight = #flow.parameter.named<"model"::"blk.18.ffn_down.weight"> : tensor<2048x5984xi8>
  util.global private @__auto.blk.19.attn_norm.weight = #flow.parameter.named<"model"::"blk.19.attn_norm.weight"> : tensor<2048xf32>
  util.global private @__auto.blk.19.attn_q.weight = #flow.parameter.named<"model"::"blk.19.attn_q.weight"> : tensor<2048x2176xi8>
  util.global private @__auto.blk.19.attn_k.weight = #flow.parameter.named<"model"::"blk.19.attn_k.weight"> : tensor<256x2176xi8>
  util.global private @__auto.blk.19.attn_v.weight = #flow.parameter.named<"model"::"blk.19.attn_v.weight"> : tensor<256x2176xi8>
  util.global private @__auto.blk.19.attn_output.weight = #flow.parameter.named<"model"::"blk.19.attn_output.weight"> : tensor<2048x2176xi8>
  util.global private @__auto.blk.19.ffn_norm.weight = #flow.parameter.named<"model"::"blk.19.ffn_norm.weight"> : tensor<2048xf32>
  util.global private @__auto.blk.19.ffn_gate.weight = #flow.parameter.named<"model"::"blk.19.ffn_gate.weight"> : tensor<5632x2176xi8>
  util.global private @__auto.blk.19.ffn_up.weight = #flow.parameter.named<"model"::"blk.19.ffn_up.weight"> : tensor<5632x2176xi8>
  util.global private @__auto.blk.19.ffn_down.weight = #flow.parameter.named<"model"::"blk.19.ffn_down.weight"> : tensor<2048x5984xi8>
  util.global private @__auto.blk.20.attn_norm.weight = #flow.parameter.named<"model"::"blk.20.attn_norm.weight"> : tensor<2048xf32>
  util.global private @__auto.blk.20.attn_q.weight = #flow.parameter.named<"model"::"blk.20.attn_q.weight"> : tensor<2048x2176xi8>
  util.global private @__auto.blk.20.attn_k.weight = #flow.parameter.named<"model"::"blk.20.attn_k.weight"> : tensor<256x2176xi8>
  util.global private @__auto.blk.20.attn_v.weight = #flow.parameter.named<"model"::"blk.20.attn_v.weight"> : tensor<256x2176xi8>
  util.global private @__auto.blk.20.attn_output.weight = #flow.parameter.named<"model"::"blk.20.attn_output.weight"> : tensor<2048x2176xi8>
  util.global private @__auto.blk.20.ffn_norm.weight = #flow.parameter.named<"model"::"blk.20.ffn_norm.weight"> : tensor<2048xf32>
  util.global private @__auto.blk.20.ffn_gate.weight = #flow.parameter.named<"model"::"blk.20.ffn_gate.weight"> : tensor<5632x2176xi8>
  util.global private @__auto.blk.20.ffn_up.weight = #flow.parameter.named<"model"::"blk.20.ffn_up.weight"> : tensor<5632x2176xi8>
  util.global private @__auto.blk.20.ffn_down.weight = #flow.parameter.named<"model"::"blk.20.ffn_down.weight"> : tensor<2048x5984xi8>
  util.global private @__auto.blk.21.attn_norm.weight = #flow.parameter.named<"model"::"blk.21.attn_norm.weight"> : tensor<2048xf32>
  util.global private @__auto.blk.21.attn_q.weight = #flow.parameter.named<"model"::"blk.21.attn_q.weight"> : tensor<2048x2176xi8>
  util.global private @__auto.blk.21.attn_k.weight = #flow.parameter.named<"model"::"blk.21.attn_k.weight"> : tensor<256x2176xi8>
  util.global private @__auto.blk.21.attn_v.weight = #flow.parameter.named<"model"::"blk.21.attn_v.weight"> : tensor<256x2176xi8>
  util.global private @__auto.blk.21.attn_output.weight = #flow.parameter.named<"model"::"blk.21.attn_output.weight"> : tensor<2048x2176xi8>
  util.global private @__auto.blk.21.ffn_norm.weight = #flow.parameter.named<"model"::"blk.21.ffn_norm.weight"> : tensor<2048xf32>
  util.global private @__auto.blk.21.ffn_gate.weight = #flow.parameter.named<"model"::"blk.21.ffn_gate.weight"> : tensor<5632x2176xi8>
  util.global private @__auto.blk.21.ffn_up.weight = #flow.parameter.named<"model"::"blk.21.ffn_up.weight"> : tensor<5632x2176xi8>
  util.global private @__auto.blk.21.ffn_down.weight = #flow.parameter.named<"model"::"blk.21.ffn_down.weight"> : tensor<2048x5984xi8>
  util.global private @__auto.output_norm.weight = #flow.parameter.named<"model"::"output_norm.weight"> : tensor<2048xf32>
  util.global private @__auto.output.weight = #flow.parameter.named<"model"::"output.weight"> : tensor<32000x2176xi8>
  util.func public @prefill_bs4$async(%arg0: !hal.buffer_view, %arg1: !hal.buffer_view, %arg2: !hal.buffer_view, %arg3: !hal.buffer_view, %arg4: !hal.fence, %arg5: !hal.fence) -> !hal.buffer_view attributes {inlining_policy = #util.inline.never, iree.abi.model = "coarse-fences", iree.abi.stub} {
    %cst = arith.constant 1.250000e-01 : f16
    %c2 = arith.constant 2 : index
    %cst_0 = arith.constant dense<0> : tensor<i64>
    %c21_i64 = arith.constant 21 : i64
    %c20_i64 = arith.constant 20 : i64
    %c19_i64 = arith.constant 19 : i64
    %c18_i64 = arith.constant 18 : i64
    %c16_i64 = arith.constant 16 : i64
    %c15_i64 = arith.constant 15 : i64
    %c14_i64 = arith.constant 14 : i64
    %c13_i64 = arith.constant 13 : i64
    %c12_i64 = arith.constant 12 : i64
    %c11_i64 = arith.constant 11 : i64
    %c10_i64 = arith.constant 10 : i64
    %c9_i64 = arith.constant 9 : i64
    %c7_i64 = arith.constant 7 : i64
    %c8_i64 = arith.constant 8 : i64
    %c22_i64 = arith.constant 22 : i64
    %c3_i64 = arith.constant 3 : i64
    %c4_i64 = arith.constant 4 : i64
    %c6_i64 = arith.constant 6 : i64
    %c5_i64 = arith.constant 5 : i64
    %c17_i64 = arith.constant 17 : i64
    %c2_i64 = arith.constant 2 : i64
    %c0_i64 = arith.constant 0 : i64
    %c1_i64 = arith.constant 1 : i64
    %c32 = arith.constant 32 : index
    %c0 = arith.constant 0 : index
    %cst_1 = arith.constant dense<0xFC00> : tensor<f16>
    %cst_2 = arith.constant dense<1.000000e+00> : tensor<f32>
    %c1 = arith.constant 1 : index
    %c32000 = arith.constant 32000 : index
    %cst_3 = arith.constant 0.000000e+00 : f32
    %cst_4 = arith.constant 1.000000e+00 : f32
    %c44 = arith.constant 44 : index
    %cst_5 = arith.constant 1.000000e+00 : f16
    %cst_6 = arith.constant 2.048000e+03 : f32
    %cst_7 = arith.constant 9.99999974E-6 : f32
    %cst_8 = arith.constant 6.400000e+01 : f32
    %cst_9 = arith.constant 1.000000e+04 : f32
    %0 = hal.buffer_view.dim<%arg0 : !hal.buffer_view>[1] : index
    %1 = hal.tensor.import on(#hal.device.promise<@__device_0>) wait(%arg4) => %arg0 : !hal.buffer_view -> tensor<4x?xi64>{%0}
    %2 = hal.tensor.import on(#hal.device.promise<@__device_0>) wait(%arg4) => %arg1 : !hal.buffer_view -> tensor<4xi64>
    %3 = hal.buffer_view.dim<%arg2 : !hal.buffer_view>[1] : index
    %4 = hal.tensor.import on(#hal.device.promise<@__device_0>) wait(%arg4) => %arg2 : !hal.buffer_view -> tensor<4x?xi64>{%3}
    %__auto.token_embd.weight = util.global.load @__auto.token_embd.weight : tensor<32000x2176xi8>
    %__auto.blk.0.attn_norm.weight = util.global.load @__auto.blk.0.attn_norm.weight : tensor<2048xf32>
    %__auto.blk.0.attn_q.weight = util.global.load @__auto.blk.0.attn_q.weight : tensor<2048x2176xi8>
    %__auto.blk.0.attn_k.weight = util.global.load @__auto.blk.0.attn_k.weight : tensor<256x2176xi8>
    %__auto.blk.0.attn_v.weight = util.global.load @__auto.blk.0.attn_v.weight : tensor<256x2176xi8>
    %__auto.blk.0.attn_output.weight = util.global.load @__auto.blk.0.attn_output.weight : tensor<2048x2176xi8>
    %__auto.blk.0.ffn_norm.weight = util.global.load @__auto.blk.0.ffn_norm.weight : tensor<2048xf32>
    %__auto.blk.0.ffn_gate.weight = util.global.load @__auto.blk.0.ffn_gate.weight : tensor<5632x2176xi8>
    %__auto.blk.0.ffn_up.weight = util.global.load @__auto.blk.0.ffn_up.weight : tensor<5632x2176xi8>
    %__auto.blk.0.ffn_down.weight = util.global.load @__auto.blk.0.ffn_down.weight : tensor<2048x5984xi8>
    %__auto.blk.1.attn_norm.weight = util.global.load @__auto.blk.1.attn_norm.weight : tensor<2048xf32>
    %__auto.blk.1.attn_q.weight = util.global.load @__auto.blk.1.attn_q.weight : tensor<2048x2176xi8>
    %__auto.blk.1.attn_k.weight = util.global.load @__auto.blk.1.attn_k.weight : tensor<256x2176xi8>
    %__auto.blk.1.attn_v.weight = util.global.load @__auto.blk.1.attn_v.weight : tensor<256x2176xi8>
    %__auto.blk.1.attn_output.weight = util.global.load @__auto.blk.1.attn_output.weight : tensor<2048x2176xi8>
    %__auto.blk.1.ffn_norm.weight = util.global.load @__auto.blk.1.ffn_norm.weight : tensor<2048xf32>
    %__auto.blk.1.ffn_gate.weight = util.global.load @__auto.blk.1.ffn_gate.weight : tensor<5632x2176xi8>
    %__auto.blk.1.ffn_up.weight = util.global.load @__auto.blk.1.ffn_up.weight : tensor<5632x2176xi8>
    %__auto.blk.1.ffn_down.weight = util.global.load @__auto.blk.1.ffn_down.weight : tensor<2048x5984xi8>
    %__auto.blk.2.attn_norm.weight = util.global.load @__auto.blk.2.attn_norm.weight : tensor<2048xf32>
    %__auto.blk.2.attn_q.weight = util.global.load @__auto.blk.2.attn_q.weight : tensor<2048x2176xi8>
    %__auto.blk.2.attn_k.weight = util.global.load @__auto.blk.2.attn_k.weight : tensor<256x2176xi8>
    %__auto.blk.2.attn_v.weight = util.global.load @__auto.blk.2.attn_v.weight : tensor<256x2176xi8>
    %__auto.blk.2.attn_output.weight = util.global.load @__auto.blk.2.attn_output.weight : tensor<2048x2176xi8>
    %__auto.blk.2.ffn_norm.weight = util.global.load @__auto.blk.2.ffn_norm.weight : tensor<2048xf32>
    %__auto.blk.2.ffn_gate.weight = util.global.load @__auto.blk.2.ffn_gate.weight : tensor<5632x2176xi8>
    %__auto.blk.2.ffn_up.weight = util.global.load @__auto.blk.2.ffn_up.weight : tensor<5632x2176xi8>
    %__auto.blk.2.ffn_down.weight = util.global.load @__auto.blk.2.ffn_down.weight : tensor<2048x5984xi8>
    %__auto.blk.3.attn_norm.weight = util.global.load @__auto.blk.3.attn_norm.weight : tensor<2048xf32>
    %__auto.blk.3.attn_q.weight = util.global.load @__auto.blk.3.attn_q.weight : tensor<2048x2176xi8>
    %__auto.blk.3.attn_k.weight = util.global.load @__auto.blk.3.attn_k.weight : tensor<256x2176xi8>
    %__auto.blk.3.attn_v.weight = util.global.load @__auto.blk.3.attn_v.weight : tensor<256x2176xi8>
    %__auto.blk.3.attn_output.weight = util.global.load @__auto.blk.3.attn_output.weight : tensor<2048x2176xi8>
    %__auto.blk.3.ffn_norm.weight = util.global.load @__auto.blk.3.ffn_norm.weight : tensor<2048xf32>
    %__auto.blk.3.ffn_gate.weight = util.global.load @__auto.blk.3.ffn_gate.weight : tensor<5632x2176xi8>
    %__auto.blk.3.ffn_up.weight = util.global.load @__auto.blk.3.ffn_up.weight : tensor<5632x2176xi8>
    %__auto.blk.3.ffn_down.weight = util.global.load @__auto.blk.3.ffn_down.weight : tensor<2048x5984xi8>
    %__auto.blk.4.attn_norm.weight = util.global.load @__auto.blk.4.attn_norm.weight : tensor<2048xf32>
    %__auto.blk.4.attn_q.weight = util.global.load @__auto.blk.4.attn_q.weight : tensor<2048x2176xi8>
    %__auto.blk.4.attn_k.weight = util.global.load @__auto.blk.4.attn_k.weight : tensor<256x2176xi8>
    %__auto.blk.4.attn_v.weight = util.global.load @__auto.blk.4.attn_v.weight : tensor<256x2176xi8>
    %__auto.blk.4.attn_output.weight = util.global.load @__auto.blk.4.attn_output.weight : tensor<2048x2176xi8>
    %__auto.blk.4.ffn_norm.weight = util.global.load @__auto.blk.4.ffn_norm.weight : tensor<2048xf32>
    %__auto.blk.4.ffn_gate.weight = util.global.load @__auto.blk.4.ffn_gate.weight : tensor<5632x2176xi8>
    %__auto.blk.4.ffn_up.weight = util.global.load @__auto.blk.4.ffn_up.weight : tensor<5632x2176xi8>
    %__auto.blk.4.ffn_down.weight = util.global.load @__auto.blk.4.ffn_down.weight : tensor<2048x5984xi8>
    %__auto.blk.5.attn_norm.weight = util.global.load @__auto.blk.5.attn_norm.weight : tensor<2048xf32>
    %__auto.blk.5.attn_q.weight = util.global.load @__auto.blk.5.attn_q.weight : tensor<2048x2176xi8>
    %__auto.blk.5.attn_k.weight = util.global.load @__auto.blk.5.attn_k.weight : tensor<256x2176xi8>
    %__auto.blk.5.attn_v.weight = util.global.load @__auto.blk.5.attn_v.weight : tensor<256x2176xi8>
    %__auto.blk.5.attn_output.weight = util.global.load @__auto.blk.5.attn_output.weight : tensor<2048x2176xi8>
    %__auto.blk.5.ffn_norm.weight = util.global.load @__auto.blk.5.ffn_norm.weight : tensor<2048xf32>
    %__auto.blk.5.ffn_gate.weight = util.global.load @__auto.blk.5.ffn_gate.weight : tensor<5632x2176xi8>
    %__auto.blk.5.ffn_up.weight = util.global.load @__auto.blk.5.ffn_up.weight : tensor<5632x2176xi8>
    %__auto.blk.5.ffn_down.weight = util.global.load @__auto.blk.5.ffn_down.weight : tensor<2048x5984xi8>
    %__auto.blk.6.attn_norm.weight = util.global.load @__auto.blk.6.attn_norm.weight : tensor<2048xf32>
    %__auto.blk.6.attn_q.weight = util.global.load @__auto.blk.6.attn_q.weight : tensor<2048x2176xi8>
    %__auto.blk.6.attn_k.weight = util.global.load @__auto.blk.6.attn_k.weight : tensor<256x2176xi8>
    %__auto.blk.6.attn_v.weight = util.global.load @__auto.blk.6.attn_v.weight : tensor<256x2176xi8>
    %__auto.blk.6.attn_output.weight = util.global.load @__auto.blk.6.attn_output.weight : tensor<2048x2176xi8>
    %__auto.blk.6.ffn_norm.weight = util.global.load @__auto.blk.6.ffn_norm.weight : tensor<2048xf32>
    %__auto.blk.6.ffn_gate.weight = util.global.load @__auto.blk.6.ffn_gate.weight : tensor<5632x2176xi8>
    %__auto.blk.6.ffn_up.weight = util.global.load @__auto.blk.6.ffn_up.weight : tensor<5632x2176xi8>
    %__auto.blk.6.ffn_down.weight = util.global.load @__auto.blk.6.ffn_down.weight : tensor<2048x5984xi8>
    %__auto.blk.7.attn_norm.weight = util.global.load @__auto.blk.7.attn_norm.weight : tensor<2048xf32>
    %__auto.blk.7.attn_q.weight = util.global.load @__auto.blk.7.attn_q.weight : tensor<2048x2176xi8>
    %__auto.blk.7.attn_k.weight = util.global.load @__auto.blk.7.attn_k.weight : tensor<256x2176xi8>
    %__auto.blk.7.attn_v.weight = util.global.load @__auto.blk.7.attn_v.weight : tensor<256x2176xi8>
    %__auto.blk.7.attn_output.weight = util.global.load @__auto.blk.7.attn_output.weight : tensor<2048x2176xi8>
    %__auto.blk.7.ffn_norm.weight = util.global.load @__auto.blk.7.ffn_norm.weight : tensor<2048xf32>
    %__auto.blk.7.ffn_gate.weight = util.global.load @__auto.blk.7.ffn_gate.weight : tensor<5632x2176xi8>
    %__auto.blk.7.ffn_up.weight = util.global.load @__auto.blk.7.ffn_up.weight : tensor<5632x2176xi8>
    %__auto.blk.7.ffn_down.weight = util.global.load @__auto.blk.7.ffn_down.weight : tensor<2048x5984xi8>
    %__auto.blk.8.attn_norm.weight = util.global.load @__auto.blk.8.attn_norm.weight : tensor<2048xf32>
    %__auto.blk.8.attn_q.weight = util.global.load @__auto.blk.8.attn_q.weight : tensor<2048x2176xi8>
    %__auto.blk.8.attn_k.weight = util.global.load @__auto.blk.8.attn_k.weight : tensor<256x2176xi8>
    %__auto.blk.8.attn_v.weight = util.global.load @__auto.blk.8.attn_v.weight : tensor<256x2176xi8>
    %__auto.blk.8.attn_output.weight = util.global.load @__auto.blk.8.attn_output.weight : tensor<2048x2176xi8>
    %__auto.blk.8.ffn_norm.weight = util.global.load @__auto.blk.8.ffn_norm.weight : tensor<2048xf32>
    %__auto.blk.8.ffn_gate.weight = util.global.load @__auto.blk.8.ffn_gate.weight : tensor<5632x2176xi8>
    %__auto.blk.8.ffn_up.weight = util.global.load @__auto.blk.8.ffn_up.weight : tensor<5632x2176xi8>
    %__auto.blk.8.ffn_down.weight = util.global.load @__auto.blk.8.ffn_down.weight : tensor<2048x5984xi8>
    %__auto.blk.9.attn_norm.weight = util.global.load @__auto.blk.9.attn_norm.weight : tensor<2048xf32>
    %__auto.blk.9.attn_q.weight = util.global.load @__auto.blk.9.attn_q.weight : tensor<2048x2176xi8>
    %__auto.blk.9.attn_k.weight = util.global.load @__auto.blk.9.attn_k.weight : tensor<256x2176xi8>
    %__auto.blk.9.attn_v.weight = util.global.load @__auto.blk.9.attn_v.weight : tensor<256x2176xi8>
    %__auto.blk.9.attn_output.weight = util.global.load @__auto.blk.9.attn_output.weight : tensor<2048x2176xi8>
    %__auto.blk.9.ffn_norm.weight = util.global.load @__auto.blk.9.ffn_norm.weight : tensor<2048xf32>
    %__auto.blk.9.ffn_gate.weight = util.global.load @__auto.blk.9.ffn_gate.weight : tensor<5632x2176xi8>
    %__auto.blk.9.ffn_up.weight = util.global.load @__auto.blk.9.ffn_up.weight : tensor<5632x2176xi8>
    %__auto.blk.9.ffn_down.weight = util.global.load @__auto.blk.9.ffn_down.weight : tensor<2048x5984xi8>
    %__auto.blk.10.attn_norm.weight = util.global.load @__auto.blk.10.attn_norm.weight : tensor<2048xf32>
    %__auto.blk.10.attn_q.weight = util.global.load @__auto.blk.10.attn_q.weight : tensor<2048x2176xi8>
    %__auto.blk.10.attn_k.weight = util.global.load @__auto.blk.10.attn_k.weight : tensor<256x2176xi8>
    %__auto.blk.10.attn_v.weight = util.global.load @__auto.blk.10.attn_v.weight : tensor<256x2176xi8>
    %__auto.blk.10.attn_output.weight = util.global.load @__auto.blk.10.attn_output.weight : tensor<2048x2176xi8>
    %__auto.blk.10.ffn_norm.weight = util.global.load @__auto.blk.10.ffn_norm.weight : tensor<2048xf32>
    %__auto.blk.10.ffn_gate.weight = util.global.load @__auto.blk.10.ffn_gate.weight : tensor<5632x2176xi8>
    %__auto.blk.10.ffn_up.weight = util.global.load @__auto.blk.10.ffn_up.weight : tensor<5632x2176xi8>
    %__auto.blk.10.ffn_down.weight = util.global.load @__auto.blk.10.ffn_down.weight : tensor<2048x5984xi8>
    %__auto.blk.11.attn_norm.weight = util.global.load @__auto.blk.11.attn_norm.weight : tensor<2048xf32>
    %__auto.blk.11.attn_q.weight = util.global.load @__auto.blk.11.attn_q.weight : tensor<2048x2176xi8>
    %__auto.blk.11.attn_k.weight = util.global.load @__auto.blk.11.attn_k.weight : tensor<256x2176xi8>
    %__auto.blk.11.attn_v.weight = util.global.load @__auto.blk.11.attn_v.weight : tensor<256x2176xi8>
    %__auto.blk.11.attn_output.weight = util.global.load @__auto.blk.11.attn_output.weight : tensor<2048x2176xi8>
    %__auto.blk.11.ffn_norm.weight = util.global.load @__auto.blk.11.ffn_norm.weight : tensor<2048xf32>
    %__auto.blk.11.ffn_gate.weight = util.global.load @__auto.blk.11.ffn_gate.weight : tensor<5632x2176xi8>
    %__auto.blk.11.ffn_up.weight = util.global.load @__auto.blk.11.ffn_up.weight : tensor<5632x2176xi8>
    %__auto.blk.11.ffn_down.weight = util.global.load @__auto.blk.11.ffn_down.weight : tensor<2048x5984xi8>
    %__auto.blk.12.attn_norm.weight = util.global.load @__auto.blk.12.attn_norm.weight : tensor<2048xf32>
    %__auto.blk.12.attn_q.weight = util.global.load @__auto.blk.12.attn_q.weight : tensor<2048x2176xi8>
    %__auto.blk.12.attn_k.weight = util.global.load @__auto.blk.12.attn_k.weight : tensor<256x2176xi8>
    %__auto.blk.12.attn_v.weight = util.global.load @__auto.blk.12.attn_v.weight : tensor<256x2176xi8>
    %__auto.blk.12.attn_output.weight = util.global.load @__auto.blk.12.attn_output.weight : tensor<2048x2176xi8>
    %__auto.blk.12.ffn_norm.weight = util.global.load @__auto.blk.12.ffn_norm.weight : tensor<2048xf32>
    %__auto.blk.12.ffn_gate.weight = util.global.load @__auto.blk.12.ffn_gate.weight : tensor<5632x2176xi8>
    %__auto.blk.12.ffn_up.weight = util.global.load @__auto.blk.12.ffn_up.weight : tensor<5632x2176xi8>
    %__auto.blk.12.ffn_down.weight = util.global.load @__auto.blk.12.ffn_down.weight : tensor<2048x5984xi8>
    %__auto.blk.13.attn_norm.weight = util.global.load @__auto.blk.13.attn_norm.weight : tensor<2048xf32>
    %__auto.blk.13.attn_q.weight = util.global.load @__auto.blk.13.attn_q.weight : tensor<2048x2176xi8>
    %__auto.blk.13.attn_k.weight = util.global.load @__auto.blk.13.attn_k.weight : tensor<256x2176xi8>
    %__auto.blk.13.attn_v.weight = util.global.load @__auto.blk.13.attn_v.weight : tensor<256x2176xi8>
    %__auto.blk.13.attn_output.weight = util.global.load @__auto.blk.13.attn_output.weight : tensor<2048x2176xi8>
    %__auto.blk.13.ffn_norm.weight = util.global.load @__auto.blk.13.ffn_norm.weight : tensor<2048xf32>
    %__auto.blk.13.ffn_gate.weight = util.global.load @__auto.blk.13.ffn_gate.weight : tensor<5632x2176xi8>
    %__auto.blk.13.ffn_up.weight = util.global.load @__auto.blk.13.ffn_up.weight : tensor<5632x2176xi8>
    %__auto.blk.13.ffn_down.weight = util.global.load @__auto.blk.13.ffn_down.weight : tensor<2048x5984xi8>
    %__auto.blk.14.attn_norm.weight = util.global.load @__auto.blk.14.attn_norm.weight : tensor<2048xf32>
    %__auto.blk.14.attn_q.weight = util.global.load @__auto.blk.14.attn_q.weight : tensor<2048x2176xi8>
    %__auto.blk.14.attn_k.weight = util.global.load @__auto.blk.14.attn_k.weight : tensor<256x2176xi8>
    %__auto.blk.14.attn_v.weight = util.global.load @__auto.blk.14.attn_v.weight : tensor<256x2176xi8>
    %__auto.blk.14.attn_output.weight = util.global.load @__auto.blk.14.attn_output.weight : tensor<2048x2176xi8>
    %__auto.blk.14.ffn_norm.weight = util.global.load @__auto.blk.14.ffn_norm.weight : tensor<2048xf32>
    %__auto.blk.14.ffn_gate.weight = util.global.load @__auto.blk.14.ffn_gate.weight : tensor<5632x2176xi8>
    %__auto.blk.14.ffn_up.weight = util.global.load @__auto.blk.14.ffn_up.weight : tensor<5632x2176xi8>
    %__auto.blk.14.ffn_down.weight = util.global.load @__auto.blk.14.ffn_down.weight : tensor<2048x5984xi8>
    %__auto.blk.15.attn_norm.weight = util.global.load @__auto.blk.15.attn_norm.weight : tensor<2048xf32>
    %__auto.blk.15.attn_q.weight = util.global.load @__auto.blk.15.attn_q.weight : tensor<2048x2176xi8>
    %__auto.blk.15.attn_k.weight = util.global.load @__auto.blk.15.attn_k.weight : tensor<256x2176xi8>
    %__auto.blk.15.attn_v.weight = util.global.load @__auto.blk.15.attn_v.weight : tensor<256x2176xi8>
    %__auto.blk.15.attn_output.weight = util.global.load @__auto.blk.15.attn_output.weight : tensor<2048x2176xi8>
    %__auto.blk.15.ffn_norm.weight = util.global.load @__auto.blk.15.ffn_norm.weight : tensor<2048xf32>
    %__auto.blk.15.ffn_gate.weight = util.global.load @__auto.blk.15.ffn_gate.weight : tensor<5632x2176xi8>
    %__auto.blk.15.ffn_up.weight = util.global.load @__auto.blk.15.ffn_up.weight : tensor<5632x2176xi8>
    %__auto.blk.15.ffn_down.weight = util.global.load @__auto.blk.15.ffn_down.weight : tensor<2048x5984xi8>
    %__auto.blk.16.attn_norm.weight = util.global.load @__auto.blk.16.attn_norm.weight : tensor<2048xf32>
    %__auto.blk.16.attn_q.weight = util.global.load @__auto.blk.16.attn_q.weight : tensor<2048x2176xi8>
    %__auto.blk.16.attn_k.weight = util.global.load @__auto.blk.16.attn_k.weight : tensor<256x2176xi8>
    %__auto.blk.16.attn_v.weight = util.global.load @__auto.blk.16.attn_v.weight : tensor<256x2176xi8>
    %__auto.blk.16.attn_output.weight = util.global.load @__auto.blk.16.attn_output.weight : tensor<2048x2176xi8>
    %__auto.blk.16.ffn_norm.weight = util.global.load @__auto.blk.16.ffn_norm.weight : tensor<2048xf32>
    %__auto.blk.16.ffn_gate.weight = util.global.load @__auto.blk.16.ffn_gate.weight : tensor<5632x2176xi8>
    %__auto.blk.16.ffn_up.weight = util.global.load @__auto.blk.16.ffn_up.weight : tensor<5632x2176xi8>
    %__auto.blk.16.ffn_down.weight = util.global.load @__auto.blk.16.ffn_down.weight : tensor<2048x5984xi8>
    %__auto.blk.17.attn_norm.weight = util.global.load @__auto.blk.17.attn_norm.weight : tensor<2048xf32>
    %__auto.blk.17.attn_q.weight = util.global.load @__auto.blk.17.attn_q.weight : tensor<2048x2176xi8>
    %__auto.blk.17.attn_k.weight = util.global.load @__auto.blk.17.attn_k.weight : tensor<256x2176xi8>
    %__auto.blk.17.attn_v.weight = util.global.load @__auto.blk.17.attn_v.weight : tensor<256x2176xi8>
    %__auto.blk.17.attn_output.weight = util.global.load @__auto.blk.17.attn_output.weight : tensor<2048x2176xi8>
    %__auto.blk.17.ffn_norm.weight = util.global.load @__auto.blk.17.ffn_norm.weight : tensor<2048xf32>
    %__auto.blk.17.ffn_gate.weight = util.global.load @__auto.blk.17.ffn_gate.weight : tensor<5632x2176xi8>
    %__auto.blk.17.ffn_up.weight = util.global.load @__auto.blk.17.ffn_up.weight : tensor<5632x2176xi8>
    %__auto.blk.17.ffn_down.weight = util.global.load @__auto.blk.17.ffn_down.weight : tensor<2048x5984xi8>
    %__auto.blk.18.attn_norm.weight = util.global.load @__auto.blk.18.attn_norm.weight : tensor<2048xf32>
    %__auto.blk.18.attn_q.weight = util.global.load @__auto.blk.18.attn_q.weight : tensor<2048x2176xi8>
    %__auto.blk.18.attn_k.weight = util.global.load @__auto.blk.18.attn_k.weight : tensor<256x2176xi8>
    %__auto.blk.18.attn_v.weight = util.global.load @__auto.blk.18.attn_v.weight : tensor<256x2176xi8>
    %__auto.blk.18.attn_output.weight = util.global.load @__auto.blk.18.attn_output.weight : tensor<2048x2176xi8>
    %__auto.blk.18.ffn_norm.weight = util.global.load @__auto.blk.18.ffn_norm.weight : tensor<2048xf32>
    %__auto.blk.18.ffn_gate.weight = util.global.load @__auto.blk.18.ffn_gate.weight : tensor<5632x2176xi8>
    %__auto.blk.18.ffn_up.weight = util.global.load @__auto.blk.18.ffn_up.weight : tensor<5632x2176xi8>
    %__auto.blk.18.ffn_down.weight = util.global.load @__auto.blk.18.ffn_down.weight : tensor<2048x5984xi8>
    %__auto.blk.19.attn_norm.weight = util.global.load @__auto.blk.19.attn_norm.weight : tensor<2048xf32>
    %__auto.blk.19.attn_q.weight = util.global.load @__auto.blk.19.attn_q.weight : tensor<2048x2176xi8>
    %__auto.blk.19.attn_k.weight = util.global.load @__auto.blk.19.attn_k.weight : tensor<256x2176xi8>
    %__auto.blk.19.attn_v.weight = util.global.load @__auto.blk.19.attn_v.weight : tensor<256x2176xi8>
    %__auto.blk.19.attn_output.weight = util.global.load @__auto.blk.19.attn_output.weight : tensor<2048x2176xi8>
    %__auto.blk.19.ffn_norm.weight = util.global.load @__auto.blk.19.ffn_norm.weight : tensor<2048xf32>
    %__auto.blk.19.ffn_gate.weight = util.global.load @__auto.blk.19.ffn_gate.weight : tensor<5632x2176xi8>
    %__auto.blk.19.ffn_up.weight = util.global.load @__auto.blk.19.ffn_up.weight : tensor<5632x2176xi8>
    %__auto.blk.19.ffn_down.weight = util.global.load @__auto.blk.19.ffn_down.weight : tensor<2048x5984xi8>
    %__auto.blk.20.attn_norm.weight = util.global.load @__auto.blk.20.attn_norm.weight : tensor<2048xf32>
    %__auto.blk.20.attn_q.weight = util.global.load @__auto.blk.20.attn_q.weight : tensor<2048x2176xi8>
    %__auto.blk.20.attn_k.weight = util.global.load @__auto.blk.20.attn_k.weight : tensor<256x2176xi8>
    %__auto.blk.20.attn_v.weight = util.global.load @__auto.blk.20.attn_v.weight : tensor<256x2176xi8>
    %__auto.blk.20.attn_output.weight = util.global.load @__auto.blk.20.attn_output.weight : tensor<2048x2176xi8>
    %__auto.blk.20.ffn_norm.weight = util.global.load @__auto.blk.20.ffn_norm.weight : tensor<2048xf32>
    %__auto.blk.20.ffn_gate.weight = util.global.load @__auto.blk.20.ffn_gate.weight : tensor<5632x2176xi8>
    %__auto.blk.20.ffn_up.weight = util.global.load @__auto.blk.20.ffn_up.weight : tensor<5632x2176xi8>
    %__auto.blk.20.ffn_down.weight = util.global.load @__auto.blk.20.ffn_down.weight : tensor<2048x5984xi8>
    %__auto.blk.21.attn_norm.weight = util.global.load @__auto.blk.21.attn_norm.weight : tensor<2048xf32>
    %__auto.blk.21.attn_q.weight = util.global.load @__auto.blk.21.attn_q.weight : tensor<2048x2176xi8>
    %__auto.blk.21.attn_k.weight = util.global.load @__auto.blk.21.attn_k.weight : tensor<256x2176xi8>
    %__auto.blk.21.attn_v.weight = util.global.load @__auto.blk.21.attn_v.weight : tensor<256x2176xi8>
    %__auto.blk.21.attn_output.weight = util.global.load @__auto.blk.21.attn_output.weight : tensor<2048x2176xi8>
    %__auto.blk.21.ffn_norm.weight = util.global.load @__auto.blk.21.ffn_norm.weight : tensor<2048xf32>
    %__auto.blk.21.ffn_gate.weight = util.global.load @__auto.blk.21.ffn_gate.weight : tensor<5632x2176xi8>
    %__auto.blk.21.ffn_up.weight = util.global.load @__auto.blk.21.ffn_up.weight : tensor<5632x2176xi8>
    %__auto.blk.21.ffn_down.weight = util.global.load @__auto.blk.21.ffn_down.weight : tensor<2048x5984xi8>
    %__auto.output_norm.weight = util.global.load @__auto.output_norm.weight : tensor<2048xf32>
    %__auto.output.weight = util.global.load @__auto.output.weight : tensor<32000x2176xi8>
    %5 = hal.buffer_view.dim<%arg3 : !hal.buffer_view>[0] : index
    %6 = hal.tensor.import on(#hal.device.promise<@__device_0>) wait(%arg4) => %arg3 : !hal.buffer_view -> tensor<?x360448xf16>{%5}
    %7 = arith.muli %3, %c32 : index
    %8 = util.assume.int %7<umin = 32, umax = 2016, udiv = 32> : index
    %9 = flow.tensor.tie_shape %1 : tensor<4x?xi64>{%8}
    %10 = util.assume.int %3<umin = 1, umax = 63> : index
    %11 = flow.tensor.tie_shape %4 : tensor<4x?xi64>{%10}
    %12 = util.assume.int %5<umin = 1, umax = 9007199254740991> : index
    %13 = flow.tensor.tie_shape %6 : tensor<?x360448xf16>{%12}
    %14 = iree_tensor_ext.bitcast %__auto.token_embd.weight : tensor<32000x2176xi8> -> tensor<32000x1088xi16>
    %expanded = tensor.expand_shape %14 [[0], [1, 2]] output_shape [32000, 64, 17] : tensor<32000x1088xi16> into tensor<32000x64x17xi16>
    %extracted_slice = tensor.extract_slice %expanded[0, 0, 0] [32000, 64, 1] [1, 1, 1] : tensor<32000x64x17xi16> to tensor<32000x64x1xi16>
    %15 = iree_tensor_ext.bitcast %extracted_slice : tensor<32000x64x1xi16> -> tensor<32000x64x1xf16>
    %extracted_slice_10 = tensor.extract_slice %expanded[0, 0, 1] [32000, 64, 16] [1, 1, 1] : tensor<32000x64x17xi16> to tensor<32000x64x16xi16>
    %16 = iree_tensor_ext.bitcast %extracted_slice_10 : tensor<32000x64x16xi16> -> tensor<32000x64x32xi8>
    %17 = tensor.empty() : tensor<32000x64x32xf16>
    %18 = linalg.generic {indexing_maps = [#map, #map], iterator_types = ["parallel", "parallel", "parallel"]} ins(%16 : tensor<32000x64x32xi8>) outs(%17 : tensor<32000x64x32xf16>) {
    ^bb0(%in: i8, %out: f16):
      %2495 = arith.sitofp %in : i8 to f16
      linalg.yield %2495 : f16
    } -> tensor<32000x64x32xf16>
    %19 = linalg.generic {indexing_maps = [#map1, #map, #map], iterator_types = ["parallel", "parallel", "parallel"]} ins(%15, %18 : tensor<32000x64x1xf16>, tensor<32000x64x32xf16>) outs(%17 : tensor<32000x64x32xf16>) {
    ^bb0(%in: f16, %in_1456: f16, %out: f16):
      %2495 = arith.mulf %in, %in_1456 : f16
      linalg.yield %2495 : f16
    } -> tensor<32000x64x32xf16>
    %collapsed = tensor.collapse_shape %19 [[0], [1, 2]] : tensor<32000x64x32xf16> into tensor<32000x2048xf16>
    %20 = tensor.empty(%8) : tensor<4x?x2048xf16>
    %21 = linalg.generic {indexing_maps = [#map2, #map], iterator_types = ["parallel", "parallel", "parallel"]} ins(%9 : tensor<4x?xi64>) outs(%20 : tensor<4x?x2048xf16>) {
    ^bb0(%in: i64, %out: f16):
      %2495 = arith.index_cast %in : i64 to index
      %2496 = linalg.index 2 : index
      %2497 = arith.cmpi slt, %2495, %c32000 : index
      cf.assert %2497, "index must be smaller than dim size"
      %2498 = arith.cmpi sge, %in, %c0_i64 : i64
      cf.assert %2498, "index must be larger or equal to 0"
      %extracted = tensor.extract %collapsed[%2495, %2496] : tensor<32000x2048xf16>
      linalg.yield %extracted : f16
    } -> tensor<4x?x2048xf16>
    %22 = tensor.empty(%8) : tensor<4x?x2048xf32>
    %23 = linalg.generic {indexing_maps = [#map, #map], iterator_types = ["parallel", "parallel", "parallel"]} ins(%21 : tensor<4x?x2048xf16>) outs(%22 : tensor<4x?x2048xf32>) {
    ^bb0(%in: f16, %out: f32):
      %2495 = arith.extf %in : f16 to f32
      linalg.yield %2495 : f32
    } -> tensor<4x?x2048xf32>
    %24 = linalg.generic {indexing_maps = [#map, #map], iterator_types = ["parallel", "parallel", "parallel"]} ins(%23 : tensor<4x?x2048xf32>) outs(%22 : tensor<4x?x2048xf32>) {
    ^bb0(%in: f32, %out: f32):
      %2495 = math.fpowi %in, %c2_i64 : f32, i64
      linalg.yield %2495 : f32
    } -> tensor<4x?x2048xf32>
    %25 = tensor.empty(%8) : tensor<4x?x1xf32>
    %26 = linalg.fill ins(%cst_3 : f32) outs(%25 : tensor<4x?x1xf32>) -> tensor<4x?x1xf32>
    %27 = linalg.generic {indexing_maps = [#map, #map1], iterator_types = ["parallel", "parallel", "reduction"]} ins(%24 : tensor<4x?x2048xf32>) outs(%26 : tensor<4x?x1xf32>) {
    ^bb0(%in: f32, %out: f32):
      %2495 = arith.addf %in, %out : f32
      linalg.yield %2495 : f32
    } -> tensor<4x?x1xf32>
    %28 = linalg.generic {indexing_maps = [#map, #map], iterator_types = ["parallel", "parallel", "parallel"]} ins(%27 : tensor<4x?x1xf32>) outs(%25 : tensor<4x?x1xf32>) {
    ^bb0(%in: f32, %out: f32):
      %2495 = arith.divf %in, %cst_6 : f32
      linalg.yield %2495 : f32
    } -> tensor<4x?x1xf32>
    %29 = linalg.generic {indexing_maps = [#map, #map], iterator_types = ["parallel", "parallel", "parallel"]} ins(%28 : tensor<4x?x1xf32>) outs(%25 : tensor<4x?x1xf32>) {
    ^bb0(%in: f32, %out: f32):
      %2495 = arith.addf %in, %cst_7 : f32
      linalg.yield %2495 : f32
    } -> tensor<4x?x1xf32>
    %30 = linalg.generic {indexing_maps = [#map, #map], iterator_types = ["parallel", "parallel", "parallel"]} ins(%29 : tensor<4x?x1xf32>) outs(%25 : tensor<4x?x1xf32>) {
    ^bb0(%in: f32, %out: f32):
      %2495 = math.rsqrt %in : f32
      linalg.yield %2495 : f32
    } -> tensor<4x?x1xf32>
    %31 = linalg.generic {indexing_maps = [#map, #map1, #map], iterator_types = ["parallel", "parallel", "parallel"]} ins(%23, %30 : tensor<4x?x2048xf32>, tensor<4x?x1xf32>) outs(%22 : tensor<4x?x2048xf32>) {
    ^bb0(%in: f32, %in_1456: f32, %out: f32):
      %2495 = arith.mulf %in, %in_1456 : f32
      linalg.yield %2495 : f32
    } -> tensor<4x?x2048xf32>
    %32 = linalg.generic {indexing_maps = [#map, #map], iterator_types = ["parallel", "parallel", "parallel"]} ins(%31 : tensor<4x?x2048xf32>) outs(%20 : tensor<4x?x2048xf16>) {
    ^bb0(%in: f32, %out: f16):
      %2495 = arith.truncf %in : f32 to f16
      linalg.yield %2495 : f16
    } -> tensor<4x?x2048xf16>
    %33 = linalg.generic {indexing_maps = [#map3, #map, #map], iterator_types = ["parallel", "parallel", "parallel"]} ins(%__auto.blk.0.attn_norm.weight, %32 : tensor<2048xf32>, tensor<4x?x2048xf16>) outs(%22 : tensor<4x?x2048xf32>) {
    ^bb0(%in: f32, %in_1456: f16, %out: f32):
      %2495 = arith.extf %in_1456 : f16 to f32
      %2496 = arith.mulf %in, %2495 : f32
      linalg.yield %2496 : f32
    } -> tensor<4x?x2048xf32>
    %34 = linalg.generic {indexing_maps = [#map, #map], iterator_types = ["parallel", "parallel", "parallel"]} ins(%33 : tensor<4x?x2048xf32>) outs(%20 : tensor<4x?x2048xf16>) {
    ^bb0(%in: f32, %out: f16):
      %2495 = arith.truncf %in : f32 to f16
      linalg.yield %2495 : f16
    } -> tensor<4x?x2048xf16>
    %35 = iree_tensor_ext.bitcast %__auto.blk.0.attn_q.weight : tensor<2048x2176xi8> -> tensor<2048x1088xi16>
    %expanded_11 = tensor.expand_shape %35 [[0], [1, 2]] output_shape [2048, 64, 17] : tensor<2048x1088xi16> into tensor<2048x64x17xi16>
    %extracted_slice_12 = tensor.extract_slice %expanded_11[0, 0, 0] [2048, 64, 1] [1, 1, 1] : tensor<2048x64x17xi16> to tensor<2048x64x1xi16>
    %36 = iree_tensor_ext.bitcast %extracted_slice_12 : tensor<2048x64x1xi16> -> tensor<2048x64x1xf16>
    %extracted_slice_13 = tensor.extract_slice %expanded_11[0, 0, 1] [2048, 64, 16] [1, 1, 1] : tensor<2048x64x17xi16> to tensor<2048x64x16xi16>
    %37 = iree_tensor_ext.bitcast %extracted_slice_13 : tensor<2048x64x16xi16> -> tensor<2048x64x32xi8>
    %38 = tensor.empty() : tensor<2048x64x32xf16>
    %39 = linalg.generic {indexing_maps = [#map1, #map, #map], iterator_types = ["parallel", "parallel", "parallel"]} ins(%36, %37 : tensor<2048x64x1xf16>, tensor<2048x64x32xi8>) outs(%38 : tensor<2048x64x32xf16>) {
    ^bb0(%in: f16, %in_1456: i8, %out: f16):
      %2495 = arith.extsi %in_1456 : i8 to i32
      %2496 = arith.sitofp %2495 : i32 to f16
      %2497 = arith.mulf %2496, %in : f16
      linalg.yield %2497 : f16
    } -> tensor<2048x64x32xf16>
    %expanded_14 = tensor.expand_shape %34 [[0], [1], [2, 3]] output_shape [4, %8, 64, 32] : tensor<4x?x2048xf16> into tensor<4x?x64x32xf16>
    %40 = linalg.fill ins(%cst_3 : f32) outs(%22 : tensor<4x?x2048xf32>) -> tensor<4x?x2048xf32>
    %41 = linalg.generic {indexing_maps = [#map4, #map5, #map6], iterator_types = ["parallel", "parallel", "parallel", "reduction", "reduction"]} ins(%expanded_14, %39 : tensor<4x?x64x32xf16>, tensor<2048x64x32xf16>) outs(%40 : tensor<4x?x2048xf32>) {
    ^bb0(%in: f16, %in_1456: f16, %out: f32):
      %2495 = arith.mulf %in, %in_1456 : f16
      %2496 = arith.extf %2495 : f16 to f32
      %2497 = arith.addf %2496, %out : f32
      linalg.yield %2497 : f32
    } -> tensor<4x?x2048xf32>
    %42 = linalg.copy ins(%41 : tensor<4x?x2048xf32>) outs(%20 : tensor<4x?x2048xf16>) -> tensor<4x?x2048xf16>
    %43 = iree_tensor_ext.bitcast %__auto.blk.0.attn_k.weight : tensor<256x2176xi8> -> tensor<256x1088xi16>
    %expanded_15 = tensor.expand_shape %43 [[0], [1, 2]] output_shape [256, 64, 17] : tensor<256x1088xi16> into tensor<256x64x17xi16>
    %extracted_slice_16 = tensor.extract_slice %expanded_15[0, 0, 0] [256, 64, 1] [1, 1, 1] : tensor<256x64x17xi16> to tensor<256x64x1xi16>
    %44 = iree_tensor_ext.bitcast %extracted_slice_16 : tensor<256x64x1xi16> -> tensor<256x64x1xf16>
    %extracted_slice_17 = tensor.extract_slice %expanded_15[0, 0, 1] [256, 64, 16] [1, 1, 1] : tensor<256x64x17xi16> to tensor<256x64x16xi16>
    %45 = iree_tensor_ext.bitcast %extracted_slice_17 : tensor<256x64x16xi16> -> tensor<256x64x32xi8>
    %46 = tensor.empty() : tensor<256x64x32xf16>
    %47 = linalg.generic {indexing_maps = [#map1, #map, #map], iterator_types = ["parallel", "parallel", "parallel"]} ins(%44, %45 : tensor<256x64x1xf16>, tensor<256x64x32xi8>) outs(%46 : tensor<256x64x32xf16>) {
    ^bb0(%in: f16, %in_1456: i8, %out: f16):
      %2495 = arith.extsi %in_1456 : i8 to i32
      %2496 = arith.sitofp %2495 : i32 to f16
      %2497 = arith.mulf %2496, %in : f16
      linalg.yield %2497 : f16
    } -> tensor<256x64x32xf16>
    %48 = tensor.empty(%8) : tensor<4x?x256xf32>
    %49 = linalg.fill ins(%cst_3 : f32) outs(%48 : tensor<4x?x256xf32>) -> tensor<4x?x256xf32>
    %50 = linalg.generic {indexing_maps = [#map4, #map5, #map6], iterator_types = ["parallel", "parallel", "parallel", "reduction", "reduction"]} ins(%expanded_14, %47 : tensor<4x?x64x32xf16>, tensor<256x64x32xf16>) outs(%49 : tensor<4x?x256xf32>) {
    ^bb0(%in: f16, %in_1456: f16, %out: f32):
      %2495 = arith.mulf %in, %in_1456 : f16
      %2496 = arith.extf %2495 : f16 to f32
      %2497 = arith.addf %2496, %out : f32
      linalg.yield %2497 : f32
    } -> tensor<4x?x256xf32>
    %51 = tensor.empty(%8) : tensor<4x?x256xf16>
    %52 = linalg.copy ins(%50 : tensor<4x?x256xf32>) outs(%51 : tensor<4x?x256xf16>) -> tensor<4x?x256xf16>
    %53 = iree_tensor_ext.bitcast %__auto.blk.0.attn_v.weight : tensor<256x2176xi8> -> tensor<256x1088xi16>
    %expanded_18 = tensor.expand_shape %53 [[0], [1, 2]] output_shape [256, 64, 17] : tensor<256x1088xi16> into tensor<256x64x17xi16>
    %extracted_slice_19 = tensor.extract_slice %expanded_18[0, 0, 0] [256, 64, 1] [1, 1, 1] : tensor<256x64x17xi16> to tensor<256x64x1xi16>
    %54 = iree_tensor_ext.bitcast %extracted_slice_19 : tensor<256x64x1xi16> -> tensor<256x64x1xf16>
    %extracted_slice_20 = tensor.extract_slice %expanded_18[0, 0, 1] [256, 64, 16] [1, 1, 1] : tensor<256x64x17xi16> to tensor<256x64x16xi16>
    %55 = iree_tensor_ext.bitcast %extracted_slice_20 : tensor<256x64x16xi16> -> tensor<256x64x32xi8>
    %56 = linalg.generic {indexing_maps = [#map1, #map, #map], iterator_types = ["parallel", "parallel", "parallel"]} ins(%54, %55 : tensor<256x64x1xf16>, tensor<256x64x32xi8>) outs(%46 : tensor<256x64x32xf16>) {
    ^bb0(%in: f16, %in_1456: i8, %out: f16):
      %2495 = arith.extsi %in_1456 : i8 to i32
      %2496 = arith.sitofp %2495 : i32 to f16
      %2497 = arith.mulf %2496, %in : f16
      linalg.yield %2497 : f16
    } -> tensor<256x64x32xf16>
    %57 = linalg.generic {indexing_maps = [#map4, #map5, #map6], iterator_types = ["parallel", "parallel", "parallel", "reduction", "reduction"]} ins(%expanded_14, %56 : tensor<4x?x64x32xf16>, tensor<256x64x32xf16>) outs(%49 : tensor<4x?x256xf32>) {
    ^bb0(%in: f16, %in_1456: f16, %out: f32):
      %2495 = arith.mulf %in, %in_1456 : f16
      %2496 = arith.extf %2495 : f16 to f32
      %2497 = arith.addf %2496, %out : f32
      linalg.yield %2497 : f32
    } -> tensor<4x?x256xf32>
    %58 = linalg.copy ins(%57 : tensor<4x?x256xf32>) outs(%51 : tensor<4x?x256xf16>) -> tensor<4x?x256xf16>
    %expanded_21 = tensor.expand_shape %42 [[0], [1], [2, 3]] output_shape [4, %8, 32, 64] : tensor<4x?x2048xf16> into tensor<4x?x32x64xf16>
    %expanded_22 = tensor.expand_shape %52 [[0], [1], [2, 3]] output_shape [4, %8, 4, 64] : tensor<4x?x256xf16> into tensor<4x?x4x64xf16>
    %expanded_23 = tensor.expand_shape %58 [[0], [1], [2, 3]] output_shape [4, %8, 4, 64] : tensor<4x?x256xf16> into tensor<4x?x4x64xf16>
    %59 = tensor.empty(%8) : tensor<?xi64>
    %60 = linalg.generic {indexing_maps = [#map7], iterator_types = ["parallel"]} outs(%59 : tensor<?xi64>) {
    ^bb0(%out: i64):
      %2495 = linalg.index 0 : index
      %2496 = arith.index_cast %2495 : index to i64
      linalg.yield %2496 : i64
    } -> tensor<?xi64>
    %61 = tensor.empty() : tensor<32xi64>
    %62 = linalg.generic {indexing_maps = [#map7], iterator_types = ["parallel"]} outs(%61 : tensor<32xi64>) {
    ^bb0(%out: i64):
      %2495 = linalg.index 0 : index
      %2496 = arith.index_cast %2495 : index to i64
      %2497 = arith.muli %2496, %c2_i64 : i64
      linalg.yield %2497 : i64
    } -> tensor<32xi64>
    %63 = tensor.empty() : tensor<32xf32>
    %64 = linalg.generic {indexing_maps = [#map7, #map7], iterator_types = ["parallel"]} ins(%62 : tensor<32xi64>) outs(%63 : tensor<32xf32>) {
    ^bb0(%in: i64, %out: f32):
      %2495 = arith.sitofp %in : i64 to f32
      linalg.yield %2495 : f32
    } -> tensor<32xf32>
    %65 = linalg.generic {indexing_maps = [#map7, #map7], iterator_types = ["parallel"]} ins(%64 : tensor<32xf32>) outs(%63 : tensor<32xf32>) {
    ^bb0(%in: f32, %out: f32):
      %2495 = arith.divf %in, %cst_8 : f32
      linalg.yield %2495 : f32
    } -> tensor<32xf32>
    %66 = linalg.generic {indexing_maps = [#map7, #map7], iterator_types = ["parallel"]} ins(%65 : tensor<32xf32>) outs(%63 : tensor<32xf32>) {
    ^bb0(%in: f32, %out: f32):
      %2495 = math.powf %cst_9, %in : f32
      linalg.yield %2495 : f32
    } -> tensor<32xf32>
    %67 = linalg.generic {indexing_maps = [#map7, #map7], iterator_types = ["parallel"]} ins(%66 : tensor<32xf32>) outs(%63 : tensor<32xf32>) {
    ^bb0(%in: f32, %out: f32):
      %2495 = arith.cmpf one, %in, %cst_3 : f32
      cf.assert %2495, "unimplemented: tensor with zero element"
      %2496 = arith.divf %cst_4, %in : f32
      linalg.yield %2496 : f32
    } -> tensor<32xf32>
    %expanded_24 = tensor.expand_shape %67 [[0, 1, 2]] output_shape [1, 32, 1] : tensor<32xf32> into tensor<1x32x1xf32>
    %expanded_25 = tensor.expand_shape %60 [[0, 1, 2]] output_shape [1, 1, %8] : tensor<?xi64> into tensor<1x1x?xi64>
    %68 = tensor.empty(%8) : tensor<1x1x?xf32>
    %69 = linalg.generic {indexing_maps = [#map, #map], iterator_types = ["parallel", "parallel", "parallel"]} ins(%expanded_25 : tensor<1x1x?xi64>) outs(%68 : tensor<1x1x?xf32>) {
    ^bb0(%in: i64, %out: f32):
      %2495 = arith.sitofp %in : i64 to f32
      linalg.yield %2495 : f32
    } -> tensor<1x1x?xf32>
    %70 = tensor.empty(%8) : tensor<1x32x?xf32>
    %71 = linalg.fill ins(%cst_3 : f32) outs(%70 : tensor<1x32x?xf32>) -> tensor<1x32x?xf32>
    %72 = linalg.batch_matmul ins(%expanded_24, %69 : tensor<1x32x1xf32>, tensor<1x1x?xf32>) outs(%71 : tensor<1x32x?xf32>) -> tensor<1x32x?xf32>
    %73 = tensor.empty(%8) : tensor<1x?x32xf32>
    %transposed = linalg.transpose ins(%72 : tensor<1x32x?xf32>) outs(%73 : tensor<1x?x32xf32>) permutation = [0, 2, 1] 
    %74 = linalg.generic {indexing_maps = [#map, #map], iterator_types = ["parallel", "parallel", "parallel"]} ins(%transposed : tensor<1x?x32xf32>) outs(%73 : tensor<1x?x32xf32>) {
    ^bb0(%in: f32, %out: f32):
      %2495 = math.cos %in : f32
      linalg.yield %2495 : f32
    } -> tensor<1x?x32xf32>
    %75 = linalg.generic {indexing_maps = [#map, #map8, #map], iterator_types = ["parallel", "parallel", "parallel"]} ins(%74, %cst_2 : tensor<1x?x32xf32>, tensor<f32>) outs(%73 : tensor<1x?x32xf32>) {
    ^bb0(%in: f32, %in_1456: f32, %out: f32):
      %2495 = arith.mulf %in, %in_1456 : f32
      linalg.yield %2495 : f32
    } -> tensor<1x?x32xf32>
    %76 = tensor.empty(%8) : tensor<1x?x32xf16>
    %77 = linalg.generic {indexing_maps = [#map, #map], iterator_types = ["parallel", "parallel", "parallel"]} ins(%75 : tensor<1x?x32xf32>) outs(%76 : tensor<1x?x32xf16>) {
    ^bb0(%in: f32, %out: f16):
      %2495 = arith.truncf %in : f32 to f16
      linalg.yield %2495 : f16
    } -> tensor<1x?x32xf16>
    %78 = linalg.generic {indexing_maps = [#map, #map], iterator_types = ["parallel", "parallel", "parallel"]} ins(%transposed : tensor<1x?x32xf32>) outs(%73 : tensor<1x?x32xf32>) {
    ^bb0(%in: f32, %out: f32):
      %2495 = math.sin %in : f32
      linalg.yield %2495 : f32
    } -> tensor<1x?x32xf32>
    %79 = linalg.generic {indexing_maps = [#map, #map8, #map], iterator_types = ["parallel", "parallel", "parallel"]} ins(%78, %cst_2 : tensor<1x?x32xf32>, tensor<f32>) outs(%73 : tensor<1x?x32xf32>) {
    ^bb0(%in: f32, %in_1456: f32, %out: f32):
      %2495 = arith.mulf %in, %in_1456 : f32
      linalg.yield %2495 : f32
    } -> tensor<1x?x32xf32>
    %80 = linalg.generic {indexing_maps = [#map, #map], iterator_types = ["parallel", "parallel", "parallel"]} ins(%79 : tensor<1x?x32xf32>) outs(%76 : tensor<1x?x32xf16>) {
    ^bb0(%in: f32, %out: f16):
      %2495 = arith.truncf %in : f32 to f16
      linalg.yield %2495 : f16
    } -> tensor<1x?x32xf16>
    %expanded_26 = tensor.expand_shape %77 [[0], [1], [2, 3]] output_shape [1, %8, 1, 32] : tensor<1x?x32xf16> into tensor<1x?x1x32xf16>
    %expanded_27 = tensor.expand_shape %80 [[0], [1], [2, 3]] output_shape [1, %8, 1, 32] : tensor<1x?x32xf16> into tensor<1x?x1x32xf16>
    %extracted_slice_28 = tensor.extract_slice %expanded_21[0, 0, 0, 0] [4, %8, 32, 32] [1, 1, 1, 2] : tensor<4x?x32x64xf16> to tensor<4x?x32x32xf16>
    %extracted_slice_29 = tensor.extract_slice %expanded_21[0, 0, 0, 1] [4, %8, 32, 32] [1, 1, 1, 2] : tensor<4x?x32x64xf16> to tensor<4x?x32x32xf16>
    %81 = tensor.empty(%8) : tensor<4x?x32x32xf16>
    %82 = linalg.generic {indexing_maps = [#map9, #map10, #map9], iterator_types = ["parallel", "parallel", "parallel", "parallel"]} ins(%extracted_slice_28, %expanded_26 : tensor<4x?x32x32xf16>, tensor<1x?x1x32xf16>) outs(%81 : tensor<4x?x32x32xf16>) {
    ^bb0(%in: f16, %in_1456: f16, %out: f16):
      %2495 = arith.mulf %in, %in_1456 : f16
      linalg.yield %2495 : f16
    } -> tensor<4x?x32x32xf16>
    %83 = linalg.generic {indexing_maps = [#map9, #map10, #map9], iterator_types = ["parallel", "parallel", "parallel", "parallel"]} ins(%extracted_slice_29, %expanded_27 : tensor<4x?x32x32xf16>, tensor<1x?x1x32xf16>) outs(%81 : tensor<4x?x32x32xf16>) {
    ^bb0(%in: f16, %in_1456: f16, %out: f16):
      %2495 = arith.mulf %in, %in_1456 : f16
      linalg.yield %2495 : f16
    } -> tensor<4x?x32x32xf16>
    %84 = linalg.generic {indexing_maps = [#map9, #map9, #map9], iterator_types = ["parallel", "parallel", "parallel", "parallel"]} ins(%82, %83 : tensor<4x?x32x32xf16>, tensor<4x?x32x32xf16>) outs(%81 : tensor<4x?x32x32xf16>) {
    ^bb0(%in: f16, %in_1456: f16, %out: f16):
      %2495 = arith.subf %in, %in_1456 : f16
      linalg.yield %2495 : f16
    } -> tensor<4x?x32x32xf16>
    %85 = linalg.generic {indexing_maps = [#map9, #map10, #map9], iterator_types = ["parallel", "parallel", "parallel", "parallel"]} ins(%extracted_slice_29, %expanded_26 : tensor<4x?x32x32xf16>, tensor<1x?x1x32xf16>) outs(%81 : tensor<4x?x32x32xf16>) {
    ^bb0(%in: f16, %in_1456: f16, %out: f16):
      %2495 = arith.mulf %in, %in_1456 : f16
      linalg.yield %2495 : f16
    } -> tensor<4x?x32x32xf16>
    %86 = linalg.generic {indexing_maps = [#map9, #map10, #map9], iterator_types = ["parallel", "parallel", "parallel", "parallel"]} ins(%extracted_slice_28, %expanded_27 : tensor<4x?x32x32xf16>, tensor<1x?x1x32xf16>) outs(%81 : tensor<4x?x32x32xf16>) {
    ^bb0(%in: f16, %in_1456: f16, %out: f16):
      %2495 = arith.mulf %in, %in_1456 : f16
      linalg.yield %2495 : f16
    } -> tensor<4x?x32x32xf16>
    %87 = linalg.generic {indexing_maps = [#map9, #map9, #map9], iterator_types = ["parallel", "parallel", "parallel", "parallel"]} ins(%85, %86 : tensor<4x?x32x32xf16>, tensor<4x?x32x32xf16>) outs(%81 : tensor<4x?x32x32xf16>) {
    ^bb0(%in: f16, %in_1456: f16, %out: f16):
      %2495 = arith.addf %in, %in_1456 : f16
      linalg.yield %2495 : f16
    } -> tensor<4x?x32x32xf16>
    %88 = tensor.empty(%8) : tensor<4x?x32x2x32xf16>
    %89 = linalg.generic {indexing_maps = [#map11, #map11, #map12], iterator_types = ["parallel", "parallel", "parallel", "parallel", "parallel"]} ins(%84, %87 : tensor<4x?x32x32xf16>, tensor<4x?x32x32xf16>) outs(%88 : tensor<4x?x32x2x32xf16>) {
    ^bb0(%in: f16, %in_1456: f16, %out: f16):
      %2495 = linalg.index 3 : index
      %2496 = arith.cmpi eq, %2495, %c0 : index
      %2497 = arith.select %2496, %in, %in_1456 : f16
      linalg.yield %2497 : f16
    } -> tensor<4x?x32x2x32xf16>
    %collapsed_30 = tensor.collapse_shape %89 [[0], [1], [2], [3, 4]] : tensor<4x?x32x2x32xf16> into tensor<4x?x32x64xf16>
    %90 = linalg.generic {indexing_maps = [#map7, #map7], iterator_types = ["parallel"]} ins(%66 : tensor<32xf32>) outs(%63 : tensor<32xf32>) {
    ^bb0(%in: f32, %out: f32):
      %2495 = arith.cmpf one, %in, %cst_3 : f32
      cf.assert %2495, "unimplemented: tensor with zero element"
      %2496 = arith.divf %cst_4, %in : f32
      linalg.yield %2496 : f32
    } -> tensor<32xf32>
    %expanded_31 = tensor.expand_shape %90 [[0, 1, 2]] output_shape [1, 32, 1] : tensor<32xf32> into tensor<1x32x1xf32>
    %91 = linalg.batch_matmul ins(%expanded_31, %69 : tensor<1x32x1xf32>, tensor<1x1x?xf32>) outs(%71 : tensor<1x32x?xf32>) -> tensor<1x32x?xf32>
    %transposed_32 = linalg.transpose ins(%91 : tensor<1x32x?xf32>) outs(%73 : tensor<1x?x32xf32>) permutation = [0, 2, 1] 
    %92 = linalg.generic {indexing_maps = [#map, #map], iterator_types = ["parallel", "parallel", "parallel"]} ins(%transposed_32 : tensor<1x?x32xf32>) outs(%73 : tensor<1x?x32xf32>) {
    ^bb0(%in: f32, %out: f32):
      %2495 = math.cos %in : f32
      linalg.yield %2495 : f32
    } -> tensor<1x?x32xf32>
    %93 = linalg.generic {indexing_maps = [#map, #map8, #map], iterator_types = ["parallel", "parallel", "parallel"]} ins(%92, %cst_2 : tensor<1x?x32xf32>, tensor<f32>) outs(%73 : tensor<1x?x32xf32>) {
    ^bb0(%in: f32, %in_1456: f32, %out: f32):
      %2495 = arith.mulf %in, %in_1456 : f32
      linalg.yield %2495 : f32
    } -> tensor<1x?x32xf32>
    %94 = linalg.generic {indexing_maps = [#map, #map], iterator_types = ["parallel", "parallel", "parallel"]} ins(%93 : tensor<1x?x32xf32>) outs(%76 : tensor<1x?x32xf16>) {
    ^bb0(%in: f32, %out: f16):
      %2495 = arith.truncf %in : f32 to f16
      linalg.yield %2495 : f16
    } -> tensor<1x?x32xf16>
    %95 = linalg.generic {indexing_maps = [#map, #map], iterator_types = ["parallel", "parallel", "parallel"]} ins(%transposed_32 : tensor<1x?x32xf32>) outs(%73 : tensor<1x?x32xf32>) {
    ^bb0(%in: f32, %out: f32):
      %2495 = math.sin %in : f32
      linalg.yield %2495 : f32
    } -> tensor<1x?x32xf32>
    %96 = linalg.generic {indexing_maps = [#map, #map8, #map], iterator_types = ["parallel", "parallel", "parallel"]} ins(%95, %cst_2 : tensor<1x?x32xf32>, tensor<f32>) outs(%73 : tensor<1x?x32xf32>) {
    ^bb0(%in: f32, %in_1456: f32, %out: f32):
      %2495 = arith.mulf %in, %in_1456 : f32
      linalg.yield %2495 : f32
    } -> tensor<1x?x32xf32>
    %97 = linalg.generic {indexing_maps = [#map, #map], iterator_types = ["parallel", "parallel", "parallel"]} ins(%96 : tensor<1x?x32xf32>) outs(%76 : tensor<1x?x32xf16>) {
    ^bb0(%in: f32, %out: f16):
      %2495 = arith.truncf %in : f32 to f16
      linalg.yield %2495 : f16
    } -> tensor<1x?x32xf16>
    %expanded_33 = tensor.expand_shape %94 [[0], [1], [2, 3]] output_shape [1, %8, 1, 32] : tensor<1x?x32xf16> into tensor<1x?x1x32xf16>
    %expanded_34 = tensor.expand_shape %97 [[0], [1], [2, 3]] output_shape [1, %8, 1, 32] : tensor<1x?x32xf16> into tensor<1x?x1x32xf16>
    %extracted_slice_35 = tensor.extract_slice %expanded_22[0, 0, 0, 0] [4, %8, 4, 32] [1, 1, 1, 2] : tensor<4x?x4x64xf16> to tensor<4x?x4x32xf16>
    %extracted_slice_36 = tensor.extract_slice %expanded_22[0, 0, 0, 1] [4, %8, 4, 32] [1, 1, 1, 2] : tensor<4x?x4x64xf16> to tensor<4x?x4x32xf16>
    %98 = tensor.empty(%8) : tensor<4x?x4x32xf16>
    %99 = linalg.generic {indexing_maps = [#map9, #map10, #map9], iterator_types = ["parallel", "parallel", "parallel", "parallel"]} ins(%extracted_slice_35, %expanded_33 : tensor<4x?x4x32xf16>, tensor<1x?x1x32xf16>) outs(%98 : tensor<4x?x4x32xf16>) {
    ^bb0(%in: f16, %in_1456: f16, %out: f16):
      %2495 = arith.mulf %in, %in_1456 : f16
      linalg.yield %2495 : f16
    } -> tensor<4x?x4x32xf16>
    %100 = linalg.generic {indexing_maps = [#map9, #map10, #map9], iterator_types = ["parallel", "parallel", "parallel", "parallel"]} ins(%extracted_slice_36, %expanded_34 : tensor<4x?x4x32xf16>, tensor<1x?x1x32xf16>) outs(%98 : tensor<4x?x4x32xf16>) {
    ^bb0(%in: f16, %in_1456: f16, %out: f16):
      %2495 = arith.mulf %in, %in_1456 : f16
      linalg.yield %2495 : f16
    } -> tensor<4x?x4x32xf16>
    %101 = linalg.generic {indexing_maps = [#map9, #map9, #map9], iterator_types = ["parallel", "parallel", "parallel", "parallel"]} ins(%99, %100 : tensor<4x?x4x32xf16>, tensor<4x?x4x32xf16>) outs(%98 : tensor<4x?x4x32xf16>) {
    ^bb0(%in: f16, %in_1456: f16, %out: f16):
      %2495 = arith.subf %in, %in_1456 : f16
      linalg.yield %2495 : f16
    } -> tensor<4x?x4x32xf16>
    %102 = linalg.generic {indexing_maps = [#map9, #map10, #map9], iterator_types = ["parallel", "parallel", "parallel", "parallel"]} ins(%extracted_slice_36, %expanded_33 : tensor<4x?x4x32xf16>, tensor<1x?x1x32xf16>) outs(%98 : tensor<4x?x4x32xf16>) {
    ^bb0(%in: f16, %in_1456: f16, %out: f16):
      %2495 = arith.mulf %in, %in_1456 : f16
      linalg.yield %2495 : f16
    } -> tensor<4x?x4x32xf16>
    %103 = linalg.generic {indexing_maps = [#map9, #map10, #map9], iterator_types = ["parallel", "parallel", "parallel", "parallel"]} ins(%extracted_slice_35, %expanded_34 : tensor<4x?x4x32xf16>, tensor<1x?x1x32xf16>) outs(%98 : tensor<4x?x4x32xf16>) {
    ^bb0(%in: f16, %in_1456: f16, %out: f16):
      %2495 = arith.mulf %in, %in_1456 : f16
      linalg.yield %2495 : f16
    } -> tensor<4x?x4x32xf16>
    %104 = linalg.generic {indexing_maps = [#map9, #map9, #map9], iterator_types = ["parallel", "parallel", "parallel", "parallel"]} ins(%102, %103 : tensor<4x?x4x32xf16>, tensor<4x?x4x32xf16>) outs(%98 : tensor<4x?x4x32xf16>) {
    ^bb0(%in: f16, %in_1456: f16, %out: f16):
      %2495 = arith.addf %in, %in_1456 : f16
      linalg.yield %2495 : f16
    } -> tensor<4x?x4x32xf16>
    %105 = tensor.empty(%8) : tensor<4x?x4x2x32xf16>
    %106 = linalg.generic {indexing_maps = [#map11, #map11, #map12], iterator_types = ["parallel", "parallel", "parallel", "parallel", "parallel"]} ins(%101, %104 : tensor<4x?x4x32xf16>, tensor<4x?x4x32xf16>) outs(%105 : tensor<4x?x4x2x32xf16>) {
    ^bb0(%in: f16, %in_1456: f16, %out: f16):
      %2495 = linalg.index 3 : index
      %2496 = arith.cmpi eq, %2495, %c0 : index
      %2497 = arith.select %2496, %in, %in_1456 : f16
      linalg.yield %2497 : f16
    } -> tensor<4x?x4x2x32xf16>
    %collapsed_37 = tensor.collapse_shape %106 [[0], [1], [2], [3, 4]] : tensor<4x?x4x2x32xf16> into tensor<4x?x4x64xf16>
    %expanded_38 = tensor.expand_shape %13 [[0], [1, 2, 3, 4, 5]] output_shape [%12, 22, 2, 4, 32, 64] : tensor<?x360448xf16> into tensor<?x22x2x4x32x64xf16>
    %collapsed_39 = tensor.collapse_shape %expanded_38 [[0, 1, 2], [3], [4], [5]] : tensor<?x22x2x4x32x64xf16> into tensor<?x4x32x64xf16>
    %107 = tensor.empty(%10) : tensor<4x?xi64>
    %108 = linalg.generic {indexing_maps = [#map13, #map13], iterator_types = ["parallel", "parallel"]} ins(%11 : tensor<4x?xi64>) outs(%107 : tensor<4x?xi64>) {
    ^bb0(%in: i64, %out: i64):
      %2495 = arith.muli %in, %c22_i64 : i64
      linalg.yield %2495 : i64
    } -> tensor<4x?xi64>
    %109 = linalg.generic {indexing_maps = [#map13, #map13], iterator_types = ["parallel", "parallel"]} ins(%108 : tensor<4x?xi64>) outs(%107 : tensor<4x?xi64>) {
    ^bb0(%in: i64, %out: i64):
      %2495 = arith.muli %in, %c2_i64 : i64
      linalg.yield %2495 : i64
    } -> tensor<4x?xi64>
    %collapsed_40 = tensor.collapse_shape %109 [[0, 1]] : tensor<4x?xi64> into tensor<?xi64>
    %110 = arith.divsi %8, %c32 : index
    %expanded_41 = tensor.expand_shape %collapsed_37 [[0], [1, 2], [3], [4]] output_shape [4, %110, 32, 4, 64] : tensor<4x?x4x64xf16> into tensor<4x?x32x4x64xf16>
    %collapsed_42 = tensor.collapse_shape %expanded_41 [[0, 1], [2], [3], [4]] : tensor<4x?x32x4x64xf16> into tensor<?x32x4x64xf16>
    %111 = affine.apply #map14()[%110]
    %112 = tensor.empty(%111) : tensor<?x4x32x64xf16>
    %transposed_43 = linalg.transpose ins(%collapsed_42 : tensor<?x32x4x64xf16>) outs(%112 : tensor<?x4x32x64xf16>) permutation = [0, 2, 1, 3] 
    %113 = affine.apply #map14()[%10]
    %expanded_44 = tensor.expand_shape %collapsed_40 [[0, 1]] output_shape [%113, 1] : tensor<?xi64> into tensor<?x1xi64>
    %114 = iree_linalg_ext.scatter dimension_map = [0] unique_indices(true) ins(%transposed_43, %expanded_44 : tensor<?x4x32x64xf16>, tensor<?x1xi64>) outs(%collapsed_39 : tensor<?x4x32x64xf16>) {
    ^bb0(%arg6: f16, %arg7: f16):
      iree_linalg_ext.yield %arg6 : f16
    } -> tensor<?x4x32x64xf16>
    %115 = linalg.generic {indexing_maps = [#map13, #map13], iterator_types = ["parallel", "parallel"]} ins(%109 : tensor<4x?xi64>) outs(%107 : tensor<4x?xi64>) {
    ^bb0(%in: i64, %out: i64):
      %2495 = arith.addi %in, %c1_i64 : i64
      linalg.yield %2495 : i64
    } -> tensor<4x?xi64>
    %collapsed_45 = tensor.collapse_shape %115 [[0, 1]] : tensor<4x?xi64> into tensor<?xi64>
    %expanded_46 = tensor.expand_shape %58 [[0], [1, 2], [3, 4]] output_shape [4, %110, 32, 4, 64] : tensor<4x?x256xf16> into tensor<4x?x32x4x64xf16>
    %collapsed_47 = tensor.collapse_shape %expanded_46 [[0, 1], [2], [3], [4]] : tensor<4x?x32x4x64xf16> into tensor<?x32x4x64xf16>
    %transposed_48 = linalg.transpose ins(%collapsed_47 : tensor<?x32x4x64xf16>) outs(%112 : tensor<?x4x32x64xf16>) permutation = [0, 2, 1, 3] 
    %expanded_49 = tensor.expand_shape %collapsed_45 [[0, 1]] output_shape [%113, 1] : tensor<?xi64> into tensor<?x1xi64>
    %116 = iree_linalg_ext.scatter dimension_map = [0] unique_indices(true) ins(%transposed_48, %expanded_49 : tensor<?x4x32x64xf16>, tensor<?x1xi64>) outs(%114 : tensor<?x4x32x64xf16>) {
    ^bb0(%arg6: f16, %arg7: f16):
      iree_linalg_ext.yield %arg6 : f16
    } -> tensor<?x4x32x64xf16>
    %expanded_50 = tensor.expand_shape %2 [[0, 1]] output_shape [4, 1] : tensor<4xi64> into tensor<4x1xi64>
    %117 = tensor.empty(%8) : tensor<4x?xi1>
    %118 = linalg.generic {indexing_maps = [#map15, #map16, #map13], iterator_types = ["parallel", "parallel"]} ins(%60, %expanded_50 : tensor<?xi64>, tensor<4x1xi64>) outs(%117 : tensor<4x?xi1>) {
    ^bb0(%in: i64, %in_1456: i64, %out: i1):
      %2495 = arith.cmpi sge, %in, %in_1456 : i64
      linalg.yield %2495 : i1
    } -> tensor<4x?xi1>
    %expanded_51 = tensor.expand_shape %60 [[0, 1, 2, 3]] output_shape [1, 1, 1, %8] : tensor<?xi64> into tensor<1x1x1x?xi64>
    %expanded_52 = tensor.expand_shape %60 [[0, 1, 2, 3]] output_shape [1, 1, %8, 1] : tensor<?xi64> into tensor<1x1x?x1xi64>
    %119 = tensor.empty(%8, %8) : tensor<1x1x?x?xi1>
    %120 = linalg.generic {indexing_maps = [#map17, #map18, #map9], iterator_types = ["parallel", "parallel", "parallel", "parallel"]} ins(%expanded_51, %expanded_52 : tensor<1x1x1x?xi64>, tensor<1x1x?x1xi64>) outs(%119 : tensor<1x1x?x?xi1>) {
    ^bb0(%in: i64, %in_1456: i64, %out: i1):
      %2495 = arith.cmpi sgt, %in, %in_1456 : i64
      linalg.yield %2495 : i1
    } -> tensor<1x1x?x?xi1>
    %expanded_53 = tensor.expand_shape %118 [[0], [1, 2, 3]] output_shape [4, 1, 1, %8] : tensor<4x?xi1> into tensor<4x1x1x?xi1>
    %121 = tensor.empty(%8, %8) : tensor<4x1x?x?xi1>
    %122 = linalg.generic {indexing_maps = [#map19, #map17, #map9], iterator_types = ["parallel", "parallel", "parallel", "parallel"]} ins(%120, %expanded_53 : tensor<1x1x?x?xi1>, tensor<4x1x1x?xi1>) outs(%121 : tensor<4x1x?x?xi1>) {
    ^bb0(%in: i1, %in_1456: i1, %out: i1):
      %2495 = arith.ori %in, %in_1456 : i1
      linalg.yield %2495 : i1
    } -> tensor<4x1x?x?xi1>
    %123 = tensor.empty() : tensor<f16>
    %124 = linalg.generic {indexing_maps = [#map20, #map20], iterator_types = []} ins(%cst_0 : tensor<i64>) outs(%123 : tensor<f16>) {
    ^bb0(%in: i64, %out: f16):
      %2495 = arith.sitofp %in : i64 to f16
      linalg.yield %2495 : f16
    } -> tensor<f16>
    %125 = tensor.empty(%8, %8) : tensor<4x1x?x?xf16>
    %126 = linalg.generic {indexing_maps = [#map9, #map21, #map21, #map9], iterator_types = ["parallel", "parallel", "parallel", "parallel"]} ins(%122, %cst_1, %124 : tensor<4x1x?x?xi1>, tensor<f16>, tensor<f16>) outs(%125 : tensor<4x1x?x?xf16>) {
    ^bb0(%in: i1, %in_1456: f16, %in_1457: f16, %out: f16):
      %2495 = arith.select %in, %in_1456, %in_1457 : f16
      linalg.yield %2495 : f16
    } -> tensor<4x1x?x?xf16>
    %127 = tensor.empty(%8) : tensor<4x?x4x8x64xf16>
    %128 = linalg.generic {indexing_maps = [#map11, #map12], iterator_types = ["parallel", "parallel", "parallel", "parallel", "parallel"]} ins(%collapsed_37 : tensor<4x?x4x64xf16>) outs(%127 : tensor<4x?x4x8x64xf16>) {
    ^bb0(%in: f16, %out: f16):
      linalg.yield %in : f16
    } -> tensor<4x?x4x8x64xf16>
    %collapsed_54 = tensor.collapse_shape %128 [[0], [1], [2, 3], [4]] : tensor<4x?x4x8x64xf16> into tensor<4x?x32x64xf16>
    %129 = linalg.generic {indexing_maps = [#map11, #map12], iterator_types = ["parallel", "parallel", "parallel", "parallel", "parallel"]} ins(%expanded_23 : tensor<4x?x4x64xf16>) outs(%127 : tensor<4x?x4x8x64xf16>) {
    ^bb0(%in: f16, %out: f16):
      linalg.yield %in : f16
    } -> tensor<4x?x4x8x64xf16>
    %collapsed_55 = tensor.collapse_shape %129 [[0], [1], [2, 3], [4]] : tensor<4x?x4x8x64xf16> into tensor<4x?x32x64xf16>
    %130 = tensor.empty(%8) : tensor<4x32x?x64xf16>
    %transposed_56 = linalg.transpose ins(%collapsed_30 : tensor<4x?x32x64xf16>) outs(%130 : tensor<4x32x?x64xf16>) permutation = [0, 2, 1, 3] 
    %transposed_57 = linalg.transpose ins(%collapsed_54 : tensor<4x?x32x64xf16>) outs(%130 : tensor<4x32x?x64xf16>) permutation = [0, 2, 1, 3] 
    %transposed_58 = linalg.transpose ins(%collapsed_55 : tensor<4x?x32x64xf16>) outs(%130 : tensor<4x32x?x64xf16>) permutation = [0, 2, 1, 3] 
    %131 = tensor.empty(%8, %8) : tensor<4x32x?x?xf16>
    %132 = linalg.generic {indexing_maps = [#map22, #map9], iterator_types = ["parallel", "parallel", "parallel", "parallel"]} ins(%126 : tensor<4x1x?x?xf16>) outs(%131 : tensor<4x32x?x?xf16>) {
    ^bb0(%in: f16, %out: f16):
      linalg.yield %in : f16
    } -> tensor<4x32x?x?xf16>
    %collapsed_59 = tensor.collapse_shape %transposed_56 [[0, 1], [2], [3]] : tensor<4x32x?x64xf16> into tensor<128x?x64xf16>
    %collapsed_60 = tensor.collapse_shape %transposed_57 [[0, 1], [2], [3]] : tensor<4x32x?x64xf16> into tensor<128x?x64xf16>
    %collapsed_61 = tensor.collapse_shape %transposed_58 [[0, 1], [2], [3]] : tensor<4x32x?x64xf16> into tensor<128x?x64xf16>
    %collapsed_62 = tensor.collapse_shape %132 [[0, 1], [2], [3]] : tensor<4x32x?x?xf16> into tensor<128x?x?xf16>
    %133 = tensor.empty(%8) : tensor<128x?x64xf16>
    %134 = iree_linalg_ext.attention {indexing_maps = [#map23, #map24, #map25, #map26, #map27, #map6]} ins(%collapsed_59, %collapsed_60, %collapsed_61, %cst, %collapsed_62 : tensor<128x?x64xf16>, tensor<128x?x64xf16>, tensor<128x?x64xf16>, f16, tensor<128x?x?xf16>) outs(%133 : tensor<128x?x64xf16>) {
    ^bb0(%arg6: f32):
      iree_linalg_ext.yield %arg6 : f32
    } -> tensor<128x?x64xf16>
    %expanded_63 = tensor.expand_shape %134 [[0, 1], [2], [3]] output_shape [4, 32, %8, 64] : tensor<128x?x64xf16> into tensor<4x32x?x64xf16>
    %dim = tensor.dim %expanded_63, %c2 : tensor<4x32x?x64xf16>
    %135 = tensor.empty(%dim) : tensor<4x?x32x64xf16>
    %transposed_64 = linalg.transpose ins(%expanded_63 : tensor<4x32x?x64xf16>) outs(%135 : tensor<4x?x32x64xf16>) permutation = [0, 2, 1, 3] 
    %collapsed_65 = tensor.collapse_shape %transposed_64 [[0], [1], [2, 3]] : tensor<4x?x32x64xf16> into tensor<4x?x2048xf16>
    %136 = iree_tensor_ext.bitcast %__auto.blk.0.attn_output.weight : tensor<2048x2176xi8> -> tensor<2048x1088xi16>
    %expanded_66 = tensor.expand_shape %136 [[0], [1, 2]] output_shape [2048, 64, 17] : tensor<2048x1088xi16> into tensor<2048x64x17xi16>
    %extracted_slice_67 = tensor.extract_slice %expanded_66[0, 0, 0] [2048, 64, 1] [1, 1, 1] : tensor<2048x64x17xi16> to tensor<2048x64x1xi16>
    %137 = iree_tensor_ext.bitcast %extracted_slice_67 : tensor<2048x64x1xi16> -> tensor<2048x64x1xf16>
    %extracted_slice_68 = tensor.extract_slice %expanded_66[0, 0, 1] [2048, 64, 16] [1, 1, 1] : tensor<2048x64x17xi16> to tensor<2048x64x16xi16>
    %138 = iree_tensor_ext.bitcast %extracted_slice_68 : tensor<2048x64x16xi16> -> tensor<2048x64x32xi8>
    %dim_69 = tensor.dim %collapsed_65, %c1 : tensor<4x?x2048xf16>
    %139 = linalg.generic {indexing_maps = [#map1, #map, #map], iterator_types = ["parallel", "parallel", "parallel"]} ins(%137, %138 : tensor<2048x64x1xf16>, tensor<2048x64x32xi8>) outs(%38 : tensor<2048x64x32xf16>) {
    ^bb0(%in: f16, %in_1456: i8, %out: f16):
      %2495 = arith.extsi %in_1456 : i8 to i32
      %2496 = arith.sitofp %2495 : i32 to f16
      %2497 = arith.mulf %2496, %in : f16
      linalg.yield %2497 : f16
    } -> tensor<2048x64x32xf16>
    %expanded_70 = tensor.expand_shape %collapsed_65 [[0], [1], [2, 3]] output_shape [4, %dim_69, 64, 32] : tensor<4x?x2048xf16> into tensor<4x?x64x32xf16>
    %140 = tensor.empty(%dim_69) : tensor<4x?x2048xf32>
    %141 = linalg.fill ins(%cst_3 : f32) outs(%140 : tensor<4x?x2048xf32>) -> tensor<4x?x2048xf32>
    %142 = linalg.generic {indexing_maps = [#map4, #map5, #map6], iterator_types = ["parallel", "parallel", "parallel", "reduction", "reduction"]} ins(%expanded_70, %139 : tensor<4x?x64x32xf16>, tensor<2048x64x32xf16>) outs(%141 : tensor<4x?x2048xf32>) {
    ^bb0(%in: f16, %in_1456: f16, %out: f32):
      %2495 = arith.mulf %in, %in_1456 : f16
      %2496 = arith.extf %2495 : f16 to f32
      %2497 = arith.addf %2496, %out : f32
      linalg.yield %2497 : f32
    } -> tensor<4x?x2048xf32>
    %143 = tensor.empty(%dim_69) : tensor<4x?x2048xf16>
    %144 = linalg.copy ins(%142 : tensor<4x?x2048xf32>) outs(%143 : tensor<4x?x2048xf16>) -> tensor<4x?x2048xf16>
    %145 = linalg.generic {indexing_maps = [#map, #map, #map], iterator_types = ["parallel", "parallel", "parallel"]} ins(%21, %144 : tensor<4x?x2048xf16>, tensor<4x?x2048xf16>) outs(%20 : tensor<4x?x2048xf16>) {
    ^bb0(%in: f16, %in_1456: f16, %out: f16):
      %2495 = arith.addf %in, %in_1456 : f16
      linalg.yield %2495 : f16
    } -> tensor<4x?x2048xf16>
    %146 = linalg.generic {indexing_maps = [#map, #map], iterator_types = ["parallel", "parallel", "parallel"]} ins(%145 : tensor<4x?x2048xf16>) outs(%22 : tensor<4x?x2048xf32>) {
    ^bb0(%in: f16, %out: f32):
      %2495 = arith.extf %in : f16 to f32
      linalg.yield %2495 : f32
    } -> tensor<4x?x2048xf32>
    %147 = linalg.generic {indexing_maps = [#map, #map], iterator_types = ["parallel", "parallel", "parallel"]} ins(%146 : tensor<4x?x2048xf32>) outs(%22 : tensor<4x?x2048xf32>) {
    ^bb0(%in: f32, %out: f32):
      %2495 = math.fpowi %in, %c2_i64 : f32, i64
      linalg.yield %2495 : f32
    } -> tensor<4x?x2048xf32>
    %148 = linalg.generic {indexing_maps = [#map, #map1], iterator_types = ["parallel", "parallel", "reduction"]} ins(%147 : tensor<4x?x2048xf32>) outs(%26 : tensor<4x?x1xf32>) {
    ^bb0(%in: f32, %out: f32):
      %2495 = arith.addf %in, %out : f32
      linalg.yield %2495 : f32
    } -> tensor<4x?x1xf32>
    %149 = linalg.generic {indexing_maps = [#map, #map], iterator_types = ["parallel", "parallel", "parallel"]} ins(%148 : tensor<4x?x1xf32>) outs(%25 : tensor<4x?x1xf32>) {
    ^bb0(%in: f32, %out: f32):
      %2495 = arith.divf %in, %cst_6 : f32
      linalg.yield %2495 : f32
    } -> tensor<4x?x1xf32>
    %150 = linalg.generic {indexing_maps = [#map, #map], iterator_types = ["parallel", "parallel", "parallel"]} ins(%149 : tensor<4x?x1xf32>) outs(%25 : tensor<4x?x1xf32>) {
    ^bb0(%in: f32, %out: f32):
      %2495 = arith.addf %in, %cst_7 : f32
      linalg.yield %2495 : f32
    } -> tensor<4x?x1xf32>
    %151 = linalg.generic {indexing_maps = [#map, #map], iterator_types = ["parallel", "parallel", "parallel"]} ins(%150 : tensor<4x?x1xf32>) outs(%25 : tensor<4x?x1xf32>) {
    ^bb0(%in: f32, %out: f32):
      %2495 = math.rsqrt %in : f32
      linalg.yield %2495 : f32
    } -> tensor<4x?x1xf32>
    %152 = linalg.generic {indexing_maps = [#map, #map1, #map], iterator_types = ["parallel", "parallel", "parallel"]} ins(%146, %151 : tensor<4x?x2048xf32>, tensor<4x?x1xf32>) outs(%22 : tensor<4x?x2048xf32>) {
    ^bb0(%in: f32, %in_1456: f32, %out: f32):
      %2495 = arith.mulf %in, %in_1456 : f32
      linalg.yield %2495 : f32
    } -> tensor<4x?x2048xf32>
    %153 = linalg.generic {indexing_maps = [#map, #map], iterator_types = ["parallel", "parallel", "parallel"]} ins(%152 : tensor<4x?x2048xf32>) outs(%20 : tensor<4x?x2048xf16>) {
    ^bb0(%in: f32, %out: f16):
      %2495 = arith.truncf %in : f32 to f16
      linalg.yield %2495 : f16
    } -> tensor<4x?x2048xf16>
    %154 = linalg.generic {indexing_maps = [#map3, #map, #map], iterator_types = ["parallel", "parallel", "parallel"]} ins(%__auto.blk.0.ffn_norm.weight, %153 : tensor<2048xf32>, tensor<4x?x2048xf16>) outs(%22 : tensor<4x?x2048xf32>) {
    ^bb0(%in: f32, %in_1456: f16, %out: f32):
      %2495 = arith.extf %in_1456 : f16 to f32
      %2496 = arith.mulf %in, %2495 : f32
      linalg.yield %2496 : f32
    } -> tensor<4x?x2048xf32>
    %155 = linalg.generic {indexing_maps = [#map, #map], iterator_types = ["parallel", "parallel", "parallel"]} ins(%154 : tensor<4x?x2048xf32>) outs(%20 : tensor<4x?x2048xf16>) {
    ^bb0(%in: f32, %out: f16):
      %2495 = arith.truncf %in : f32 to f16
      linalg.yield %2495 : f16
    } -> tensor<4x?x2048xf16>
    %156 = iree_tensor_ext.bitcast %__auto.blk.0.ffn_gate.weight : tensor<5632x2176xi8> -> tensor<5632x1088xi16>
    %expanded_71 = tensor.expand_shape %156 [[0], [1, 2]] output_shape [5632, 64, 17] : tensor<5632x1088xi16> into tensor<5632x64x17xi16>
    %extracted_slice_72 = tensor.extract_slice %expanded_71[0, 0, 0] [5632, 64, 1] [1, 1, 1] : tensor<5632x64x17xi16> to tensor<5632x64x1xi16>
    %157 = iree_tensor_ext.bitcast %extracted_slice_72 : tensor<5632x64x1xi16> -> tensor<5632x64x1xf16>
    %extracted_slice_73 = tensor.extract_slice %expanded_71[0, 0, 1] [5632, 64, 16] [1, 1, 1] : tensor<5632x64x17xi16> to tensor<5632x64x16xi16>
    %158 = iree_tensor_ext.bitcast %extracted_slice_73 : tensor<5632x64x16xi16> -> tensor<5632x64x32xi8>
    %159 = tensor.empty() : tensor<5632x64x32xf16>
    %160 = linalg.generic {indexing_maps = [#map1, #map, #map], iterator_types = ["parallel", "parallel", "parallel"]} ins(%157, %158 : tensor<5632x64x1xf16>, tensor<5632x64x32xi8>) outs(%159 : tensor<5632x64x32xf16>) {
    ^bb0(%in: f16, %in_1456: i8, %out: f16):
      %2495 = arith.extsi %in_1456 : i8 to i32
      %2496 = arith.sitofp %2495 : i32 to f16
      %2497 = arith.mulf %2496, %in : f16
      linalg.yield %2497 : f16
    } -> tensor<5632x64x32xf16>
    %expanded_74 = tensor.expand_shape %155 [[0], [1], [2, 3]] output_shape [4, %8, 64, 32] : tensor<4x?x2048xf16> into tensor<4x?x64x32xf16>
    %161 = tensor.empty(%8) : tensor<4x?x5632xf32>
    %162 = linalg.fill ins(%cst_3 : f32) outs(%161 : tensor<4x?x5632xf32>) -> tensor<4x?x5632xf32>
    %163 = linalg.generic {indexing_maps = [#map4, #map5, #map6], iterator_types = ["parallel", "parallel", "parallel", "reduction", "reduction"]} ins(%expanded_74, %160 : tensor<4x?x64x32xf16>, tensor<5632x64x32xf16>) outs(%162 : tensor<4x?x5632xf32>) {
    ^bb0(%in: f16, %in_1456: f16, %out: f32):
      %2495 = arith.mulf %in, %in_1456 : f16
      %2496 = arith.extf %2495 : f16 to f32
      %2497 = arith.addf %2496, %out : f32
      linalg.yield %2497 : f32
    } -> tensor<4x?x5632xf32>
    %164 = tensor.empty(%8) : tensor<4x?x5632xf16>
    %165 = linalg.copy ins(%163 : tensor<4x?x5632xf32>) outs(%164 : tensor<4x?x5632xf16>) -> tensor<4x?x5632xf16>
    %166 = linalg.generic {indexing_maps = [#map, #map], iterator_types = ["parallel", "parallel", "parallel"]} ins(%165 : tensor<4x?x5632xf16>) outs(%164 : tensor<4x?x5632xf16>) {
    ^bb0(%in: f16, %out: f16):
      %2495 = arith.negf %in : f16
      %2496 = math.exp %2495 : f16
      %2497 = arith.addf %2496, %cst_5 : f16
      %2498 = arith.divf %cst_5, %2497 : f16
      linalg.yield %2498 : f16
    } -> tensor<4x?x5632xf16>
    %167 = linalg.generic {indexing_maps = [#map, #map, #map], iterator_types = ["parallel", "parallel", "parallel"]} ins(%166, %165 : tensor<4x?x5632xf16>, tensor<4x?x5632xf16>) outs(%164 : tensor<4x?x5632xf16>) {
    ^bb0(%in: f16, %in_1456: f16, %out: f16):
      %2495 = arith.mulf %in, %in_1456 : f16
      linalg.yield %2495 : f16
    } -> tensor<4x?x5632xf16>
    %168 = iree_tensor_ext.bitcast %__auto.blk.0.ffn_up.weight : tensor<5632x2176xi8> -> tensor<5632x1088xi16>
    %expanded_75 = tensor.expand_shape %168 [[0], [1, 2]] output_shape [5632, 64, 17] : tensor<5632x1088xi16> into tensor<5632x64x17xi16>
    %extracted_slice_76 = tensor.extract_slice %expanded_75[0, 0, 0] [5632, 64, 1] [1, 1, 1] : tensor<5632x64x17xi16> to tensor<5632x64x1xi16>
    %169 = iree_tensor_ext.bitcast %extracted_slice_76 : tensor<5632x64x1xi16> -> tensor<5632x64x1xf16>
    %extracted_slice_77 = tensor.extract_slice %expanded_75[0, 0, 1] [5632, 64, 16] [1, 1, 1] : tensor<5632x64x17xi16> to tensor<5632x64x16xi16>
    %170 = iree_tensor_ext.bitcast %extracted_slice_77 : tensor<5632x64x16xi16> -> tensor<5632x64x32xi8>
    %171 = linalg.generic {indexing_maps = [#map1, #map, #map], iterator_types = ["parallel", "parallel", "parallel"]} ins(%169, %170 : tensor<5632x64x1xf16>, tensor<5632x64x32xi8>) outs(%159 : tensor<5632x64x32xf16>) {
    ^bb0(%in: f16, %in_1456: i8, %out: f16):
      %2495 = arith.extsi %in_1456 : i8 to i32
      %2496 = arith.sitofp %2495 : i32 to f16
      %2497 = arith.mulf %2496, %in : f16
      linalg.yield %2497 : f16
    } -> tensor<5632x64x32xf16>
    %172 = linalg.generic {indexing_maps = [#map4, #map5, #map6], iterator_types = ["parallel", "parallel", "parallel", "reduction", "reduction"]} ins(%expanded_74, %171 : tensor<4x?x64x32xf16>, tensor<5632x64x32xf16>) outs(%162 : tensor<4x?x5632xf32>) {
    ^bb0(%in: f16, %in_1456: f16, %out: f32):
      %2495 = arith.mulf %in, %in_1456 : f16
      %2496 = arith.extf %2495 : f16 to f32
      %2497 = arith.addf %2496, %out : f32
      linalg.yield %2497 : f32
    } -> tensor<4x?x5632xf32>
    %173 = linalg.copy ins(%172 : tensor<4x?x5632xf32>) outs(%164 : tensor<4x?x5632xf16>) -> tensor<4x?x5632xf16>
    %174 = linalg.generic {indexing_maps = [#map, #map, #map], iterator_types = ["parallel", "parallel", "parallel"]} ins(%167, %173 : tensor<4x?x5632xf16>, tensor<4x?x5632xf16>) outs(%164 : tensor<4x?x5632xf16>) {
    ^bb0(%in: f16, %in_1456: f16, %out: f16):
      %2495 = arith.mulf %in, %in_1456 : f16
      linalg.yield %2495 : f16
    } -> tensor<4x?x5632xf16>
    %175 = iree_tensor_ext.bitcast %__auto.blk.0.ffn_down.weight : tensor<2048x5984xi8> -> tensor<2048x2992xi16>
    %expanded_78 = tensor.expand_shape %175 [[0], [1, 2]] output_shape [2048, 176, 17] : tensor<2048x2992xi16> into tensor<2048x176x17xi16>
    %extracted_slice_79 = tensor.extract_slice %expanded_78[0, 0, 0] [2048, 176, 1] [1, 1, 1] : tensor<2048x176x17xi16> to tensor<2048x176x1xi16>
    %176 = iree_tensor_ext.bitcast %extracted_slice_79 : tensor<2048x176x1xi16> -> tensor<2048x176x1xf16>
    %extracted_slice_80 = tensor.extract_slice %expanded_78[0, 0, 1] [2048, 176, 16] [1, 1, 1] : tensor<2048x176x17xi16> to tensor<2048x176x16xi16>
    %177 = iree_tensor_ext.bitcast %extracted_slice_80 : tensor<2048x176x16xi16> -> tensor<2048x176x32xi8>
    %178 = tensor.empty() : tensor<2048x176x32xf16>
    %179 = linalg.generic {indexing_maps = [#map1, #map, #map], iterator_types = ["parallel", "parallel", "parallel"]} ins(%176, %177 : tensor<2048x176x1xf16>, tensor<2048x176x32xi8>) outs(%178 : tensor<2048x176x32xf16>) {
    ^bb0(%in: f16, %in_1456: i8, %out: f16):
      %2495 = arith.extsi %in_1456 : i8 to i32
      %2496 = arith.sitofp %2495 : i32 to f16
      %2497 = arith.mulf %2496, %in : f16
      linalg.yield %2497 : f16
    } -> tensor<2048x176x32xf16>
    %expanded_81 = tensor.expand_shape %174 [[0], [1], [2, 3]] output_shape [4, %8, 176, 32] : tensor<4x?x5632xf16> into tensor<4x?x176x32xf16>
    %180 = linalg.generic {indexing_maps = [#map4, #map5, #map6], iterator_types = ["parallel", "parallel", "parallel", "reduction", "reduction"]} ins(%expanded_81, %179 : tensor<4x?x176x32xf16>, tensor<2048x176x32xf16>) outs(%40 : tensor<4x?x2048xf32>) {
    ^bb0(%in: f16, %in_1456: f16, %out: f32):
      %2495 = arith.mulf %in, %in_1456 : f16
      %2496 = arith.extf %2495 : f16 to f32
      %2497 = arith.addf %2496, %out : f32
      linalg.yield %2497 : f32
    } -> tensor<4x?x2048xf32>
    %181 = linalg.copy ins(%180 : tensor<4x?x2048xf32>) outs(%20 : tensor<4x?x2048xf16>) -> tensor<4x?x2048xf16>
    %182 = linalg.generic {indexing_maps = [#map, #map, #map], iterator_types = ["parallel", "parallel", "parallel"]} ins(%145, %181 : tensor<4x?x2048xf16>, tensor<4x?x2048xf16>) outs(%20 : tensor<4x?x2048xf16>) {
    ^bb0(%in: f16, %in_1456: f16, %out: f16):
      %2495 = arith.addf %in, %in_1456 : f16
      linalg.yield %2495 : f16
    } -> tensor<4x?x2048xf16>
    %183 = linalg.generic {indexing_maps = [#map, #map], iterator_types = ["parallel", "parallel", "parallel"]} ins(%182 : tensor<4x?x2048xf16>) outs(%22 : tensor<4x?x2048xf32>) {
    ^bb0(%in: f16, %out: f32):
      %2495 = arith.extf %in : f16 to f32
      linalg.yield %2495 : f32
    } -> tensor<4x?x2048xf32>
    %184 = linalg.generic {indexing_maps = [#map, #map], iterator_types = ["parallel", "parallel", "parallel"]} ins(%183 : tensor<4x?x2048xf32>) outs(%22 : tensor<4x?x2048xf32>) {
    ^bb0(%in: f32, %out: f32):
      %2495 = math.fpowi %in, %c2_i64 : f32, i64
      linalg.yield %2495 : f32
    } -> tensor<4x?x2048xf32>
    %185 = linalg.generic {indexing_maps = [#map, #map1], iterator_types = ["parallel", "parallel", "reduction"]} ins(%184 : tensor<4x?x2048xf32>) outs(%26 : tensor<4x?x1xf32>) {
    ^bb0(%in: f32, %out: f32):
      %2495 = arith.addf %in, %out : f32
      linalg.yield %2495 : f32
    } -> tensor<4x?x1xf32>
    %186 = linalg.generic {indexing_maps = [#map, #map], iterator_types = ["parallel", "parallel", "parallel"]} ins(%185 : tensor<4x?x1xf32>) outs(%25 : tensor<4x?x1xf32>) {
    ^bb0(%in: f32, %out: f32):
      %2495 = arith.divf %in, %cst_6 : f32
      linalg.yield %2495 : f32
    } -> tensor<4x?x1xf32>
    %187 = linalg.generic {indexing_maps = [#map, #map], iterator_types = ["parallel", "parallel", "parallel"]} ins(%186 : tensor<4x?x1xf32>) outs(%25 : tensor<4x?x1xf32>) {
    ^bb0(%in: f32, %out: f32):
      %2495 = arith.addf %in, %cst_7 : f32
      linalg.yield %2495 : f32
    } -> tensor<4x?x1xf32>
    %188 = linalg.generic {indexing_maps = [#map, #map], iterator_types = ["parallel", "parallel", "parallel"]} ins(%187 : tensor<4x?x1xf32>) outs(%25 : tensor<4x?x1xf32>) {
    ^bb0(%in: f32, %out: f32):
      %2495 = math.rsqrt %in : f32
      linalg.yield %2495 : f32
    } -> tensor<4x?x1xf32>
    %189 = linalg.generic {indexing_maps = [#map, #map1, #map], iterator_types = ["parallel", "parallel", "parallel"]} ins(%183, %188 : tensor<4x?x2048xf32>, tensor<4x?x1xf32>) outs(%22 : tensor<4x?x2048xf32>) {
    ^bb0(%in: f32, %in_1456: f32, %out: f32):
      %2495 = arith.mulf %in, %in_1456 : f32
      linalg.yield %2495 : f32
    } -> tensor<4x?x2048xf32>
    %190 = linalg.generic {indexing_maps = [#map, #map], iterator_types = ["parallel", "parallel", "parallel"]} ins(%189 : tensor<4x?x2048xf32>) outs(%20 : tensor<4x?x2048xf16>) {
    ^bb0(%in: f32, %out: f16):
      %2495 = arith.truncf %in : f32 to f16
      linalg.yield %2495 : f16
    } -> tensor<4x?x2048xf16>
    %191 = linalg.generic {indexing_maps = [#map3, #map, #map], iterator_types = ["parallel", "parallel", "parallel"]} ins(%__auto.blk.1.attn_norm.weight, %190 : tensor<2048xf32>, tensor<4x?x2048xf16>) outs(%22 : tensor<4x?x2048xf32>) {
    ^bb0(%in: f32, %in_1456: f16, %out: f32):
      %2495 = arith.extf %in_1456 : f16 to f32
      %2496 = arith.mulf %in, %2495 : f32
      linalg.yield %2496 : f32
    } -> tensor<4x?x2048xf32>
    %192 = linalg.generic {indexing_maps = [#map, #map], iterator_types = ["parallel", "parallel", "parallel"]} ins(%191 : tensor<4x?x2048xf32>) outs(%20 : tensor<4x?x2048xf16>) {
    ^bb0(%in: f32, %out: f16):
      %2495 = arith.truncf %in : f32 to f16
      linalg.yield %2495 : f16
    } -> tensor<4x?x2048xf16>
    %193 = iree_tensor_ext.bitcast %__auto.blk.1.attn_q.weight : tensor<2048x2176xi8> -> tensor<2048x1088xi16>
    %expanded_82 = tensor.expand_shape %193 [[0], [1, 2]] output_shape [2048, 64, 17] : tensor<2048x1088xi16> into tensor<2048x64x17xi16>
    %extracted_slice_83 = tensor.extract_slice %expanded_82[0, 0, 0] [2048, 64, 1] [1, 1, 1] : tensor<2048x64x17xi16> to tensor<2048x64x1xi16>
    %194 = iree_tensor_ext.bitcast %extracted_slice_83 : tensor<2048x64x1xi16> -> tensor<2048x64x1xf16>
    %extracted_slice_84 = tensor.extract_slice %expanded_82[0, 0, 1] [2048, 64, 16] [1, 1, 1] : tensor<2048x64x17xi16> to tensor<2048x64x16xi16>
    %195 = iree_tensor_ext.bitcast %extracted_slice_84 : tensor<2048x64x16xi16> -> tensor<2048x64x32xi8>
    %196 = linalg.generic {indexing_maps = [#map1, #map, #map], iterator_types = ["parallel", "parallel", "parallel"]} ins(%194, %195 : tensor<2048x64x1xf16>, tensor<2048x64x32xi8>) outs(%38 : tensor<2048x64x32xf16>) {
    ^bb0(%in: f16, %in_1456: i8, %out: f16):
      %2495 = arith.extsi %in_1456 : i8 to i32
      %2496 = arith.sitofp %2495 : i32 to f16
      %2497 = arith.mulf %2496, %in : f16
      linalg.yield %2497 : f16
    } -> tensor<2048x64x32xf16>
    %expanded_85 = tensor.expand_shape %192 [[0], [1], [2, 3]] output_shape [4, %8, 64, 32] : tensor<4x?x2048xf16> into tensor<4x?x64x32xf16>
    %197 = linalg.generic {indexing_maps = [#map4, #map5, #map6], iterator_types = ["parallel", "parallel", "parallel", "reduction", "reduction"]} ins(%expanded_85, %196 : tensor<4x?x64x32xf16>, tensor<2048x64x32xf16>) outs(%40 : tensor<4x?x2048xf32>) {
    ^bb0(%in: f16, %in_1456: f16, %out: f32):
      %2495 = arith.mulf %in, %in_1456 : f16
      %2496 = arith.extf %2495 : f16 to f32
      %2497 = arith.addf %2496, %out : f32
      linalg.yield %2497 : f32
    } -> tensor<4x?x2048xf32>
    %198 = linalg.copy ins(%197 : tensor<4x?x2048xf32>) outs(%20 : tensor<4x?x2048xf16>) -> tensor<4x?x2048xf16>
    %199 = iree_tensor_ext.bitcast %__auto.blk.1.attn_k.weight : tensor<256x2176xi8> -> tensor<256x1088xi16>
    %expanded_86 = tensor.expand_shape %199 [[0], [1, 2]] output_shape [256, 64, 17] : tensor<256x1088xi16> into tensor<256x64x17xi16>
    %extracted_slice_87 = tensor.extract_slice %expanded_86[0, 0, 0] [256, 64, 1] [1, 1, 1] : tensor<256x64x17xi16> to tensor<256x64x1xi16>
    %200 = iree_tensor_ext.bitcast %extracted_slice_87 : tensor<256x64x1xi16> -> tensor<256x64x1xf16>
    %extracted_slice_88 = tensor.extract_slice %expanded_86[0, 0, 1] [256, 64, 16] [1, 1, 1] : tensor<256x64x17xi16> to tensor<256x64x16xi16>
    %201 = iree_tensor_ext.bitcast %extracted_slice_88 : tensor<256x64x16xi16> -> tensor<256x64x32xi8>
    %202 = linalg.generic {indexing_maps = [#map1, #map, #map], iterator_types = ["parallel", "parallel", "parallel"]} ins(%200, %201 : tensor<256x64x1xf16>, tensor<256x64x32xi8>) outs(%46 : tensor<256x64x32xf16>) {
    ^bb0(%in: f16, %in_1456: i8, %out: f16):
      %2495 = arith.extsi %in_1456 : i8 to i32
      %2496 = arith.sitofp %2495 : i32 to f16
      %2497 = arith.mulf %2496, %in : f16
      linalg.yield %2497 : f16
    } -> tensor<256x64x32xf16>
    %203 = linalg.generic {indexing_maps = [#map4, #map5, #map6], iterator_types = ["parallel", "parallel", "parallel", "reduction", "reduction"]} ins(%expanded_85, %202 : tensor<4x?x64x32xf16>, tensor<256x64x32xf16>) outs(%49 : tensor<4x?x256xf32>) {
    ^bb0(%in: f16, %in_1456: f16, %out: f32):
      %2495 = arith.mulf %in, %in_1456 : f16
      %2496 = arith.extf %2495 : f16 to f32
      %2497 = arith.addf %2496, %out : f32
      linalg.yield %2497 : f32
    } -> tensor<4x?x256xf32>
    %204 = linalg.copy ins(%203 : tensor<4x?x256xf32>) outs(%51 : tensor<4x?x256xf16>) -> tensor<4x?x256xf16>
    %205 = iree_tensor_ext.bitcast %__auto.blk.1.attn_v.weight : tensor<256x2176xi8> -> tensor<256x1088xi16>
    %expanded_89 = tensor.expand_shape %205 [[0], [1, 2]] output_shape [256, 64, 17] : tensor<256x1088xi16> into tensor<256x64x17xi16>
    %extracted_slice_90 = tensor.extract_slice %expanded_89[0, 0, 0] [256, 64, 1] [1, 1, 1] : tensor<256x64x17xi16> to tensor<256x64x1xi16>
    %206 = iree_tensor_ext.bitcast %extracted_slice_90 : tensor<256x64x1xi16> -> tensor<256x64x1xf16>
    %extracted_slice_91 = tensor.extract_slice %expanded_89[0, 0, 1] [256, 64, 16] [1, 1, 1] : tensor<256x64x17xi16> to tensor<256x64x16xi16>
    %207 = iree_tensor_ext.bitcast %extracted_slice_91 : tensor<256x64x16xi16> -> tensor<256x64x32xi8>
    %208 = linalg.generic {indexing_maps = [#map1, #map, #map], iterator_types = ["parallel", "parallel", "parallel"]} ins(%206, %207 : tensor<256x64x1xf16>, tensor<256x64x32xi8>) outs(%46 : tensor<256x64x32xf16>) {
    ^bb0(%in: f16, %in_1456: i8, %out: f16):
      %2495 = arith.extsi %in_1456 : i8 to i32
      %2496 = arith.sitofp %2495 : i32 to f16
      %2497 = arith.mulf %2496, %in : f16
      linalg.yield %2497 : f16
    } -> tensor<256x64x32xf16>
    %209 = linalg.generic {indexing_maps = [#map4, #map5, #map6], iterator_types = ["parallel", "parallel", "parallel", "reduction", "reduction"]} ins(%expanded_85, %208 : tensor<4x?x64x32xf16>, tensor<256x64x32xf16>) outs(%49 : tensor<4x?x256xf32>) {
    ^bb0(%in: f16, %in_1456: f16, %out: f32):
      %2495 = arith.mulf %in, %in_1456 : f16
      %2496 = arith.extf %2495 : f16 to f32
      %2497 = arith.addf %2496, %out : f32
      linalg.yield %2497 : f32
    } -> tensor<4x?x256xf32>
    %210 = linalg.copy ins(%209 : tensor<4x?x256xf32>) outs(%51 : tensor<4x?x256xf16>) -> tensor<4x?x256xf16>
    %expanded_92 = tensor.expand_shape %198 [[0], [1], [2, 3]] output_shape [4, %8, 32, 64] : tensor<4x?x2048xf16> into tensor<4x?x32x64xf16>
    %expanded_93 = tensor.expand_shape %204 [[0], [1], [2, 3]] output_shape [4, %8, 4, 64] : tensor<4x?x256xf16> into tensor<4x?x4x64xf16>
    %expanded_94 = tensor.expand_shape %210 [[0], [1], [2, 3]] output_shape [4, %8, 4, 64] : tensor<4x?x256xf16> into tensor<4x?x4x64xf16>
    %211 = linalg.generic {indexing_maps = [#map7, #map7], iterator_types = ["parallel"]} ins(%66 : tensor<32xf32>) outs(%63 : tensor<32xf32>) {
    ^bb0(%in: f32, %out: f32):
      %2495 = arith.cmpf one, %in, %cst_3 : f32
      cf.assert %2495, "unimplemented: tensor with zero element"
      %2496 = arith.divf %cst_4, %in : f32
      linalg.yield %2496 : f32
    } -> tensor<32xf32>
    %expanded_95 = tensor.expand_shape %211 [[0, 1, 2]] output_shape [1, 32, 1] : tensor<32xf32> into tensor<1x32x1xf32>
    %212 = linalg.batch_matmul ins(%expanded_95, %69 : tensor<1x32x1xf32>, tensor<1x1x?xf32>) outs(%71 : tensor<1x32x?xf32>) -> tensor<1x32x?xf32>
    %transposed_96 = linalg.transpose ins(%212 : tensor<1x32x?xf32>) outs(%73 : tensor<1x?x32xf32>) permutation = [0, 2, 1] 
    %213 = linalg.generic {indexing_maps = [#map, #map], iterator_types = ["parallel", "parallel", "parallel"]} ins(%transposed_96 : tensor<1x?x32xf32>) outs(%73 : tensor<1x?x32xf32>) {
    ^bb0(%in: f32, %out: f32):
      %2495 = math.cos %in : f32
      linalg.yield %2495 : f32
    } -> tensor<1x?x32xf32>
    %214 = linalg.generic {indexing_maps = [#map, #map8, #map], iterator_types = ["parallel", "parallel", "parallel"]} ins(%213, %cst_2 : tensor<1x?x32xf32>, tensor<f32>) outs(%73 : tensor<1x?x32xf32>) {
    ^bb0(%in: f32, %in_1456: f32, %out: f32):
      %2495 = arith.mulf %in, %in_1456 : f32
      linalg.yield %2495 : f32
    } -> tensor<1x?x32xf32>
    %215 = linalg.generic {indexing_maps = [#map, #map], iterator_types = ["parallel", "parallel", "parallel"]} ins(%214 : tensor<1x?x32xf32>) outs(%76 : tensor<1x?x32xf16>) {
    ^bb0(%in: f32, %out: f16):
      %2495 = arith.truncf %in : f32 to f16
      linalg.yield %2495 : f16
    } -> tensor<1x?x32xf16>
    %216 = linalg.generic {indexing_maps = [#map, #map], iterator_types = ["parallel", "parallel", "parallel"]} ins(%transposed_96 : tensor<1x?x32xf32>) outs(%73 : tensor<1x?x32xf32>) {
    ^bb0(%in: f32, %out: f32):
      %2495 = math.sin %in : f32
      linalg.yield %2495 : f32
    } -> tensor<1x?x32xf32>
    %217 = linalg.generic {indexing_maps = [#map, #map8, #map], iterator_types = ["parallel", "parallel", "parallel"]} ins(%216, %cst_2 : tensor<1x?x32xf32>, tensor<f32>) outs(%73 : tensor<1x?x32xf32>) {
    ^bb0(%in: f32, %in_1456: f32, %out: f32):
      %2495 = arith.mulf %in, %in_1456 : f32
      linalg.yield %2495 : f32
    } -> tensor<1x?x32xf32>
    %218 = linalg.generic {indexing_maps = [#map, #map], iterator_types = ["parallel", "parallel", "parallel"]} ins(%217 : tensor<1x?x32xf32>) outs(%76 : tensor<1x?x32xf16>) {
    ^bb0(%in: f32, %out: f16):
      %2495 = arith.truncf %in : f32 to f16
      linalg.yield %2495 : f16
    } -> tensor<1x?x32xf16>
    %expanded_97 = tensor.expand_shape %215 [[0], [1], [2, 3]] output_shape [1, %8, 1, 32] : tensor<1x?x32xf16> into tensor<1x?x1x32xf16>
    %expanded_98 = tensor.expand_shape %218 [[0], [1], [2, 3]] output_shape [1, %8, 1, 32] : tensor<1x?x32xf16> into tensor<1x?x1x32xf16>
    %extracted_slice_99 = tensor.extract_slice %expanded_92[0, 0, 0, 0] [4, %8, 32, 32] [1, 1, 1, 2] : tensor<4x?x32x64xf16> to tensor<4x?x32x32xf16>
    %extracted_slice_100 = tensor.extract_slice %expanded_92[0, 0, 0, 1] [4, %8, 32, 32] [1, 1, 1, 2] : tensor<4x?x32x64xf16> to tensor<4x?x32x32xf16>
    %219 = linalg.generic {indexing_maps = [#map9, #map10, #map9], iterator_types = ["parallel", "parallel", "parallel", "parallel"]} ins(%extracted_slice_99, %expanded_97 : tensor<4x?x32x32xf16>, tensor<1x?x1x32xf16>) outs(%81 : tensor<4x?x32x32xf16>) {
    ^bb0(%in: f16, %in_1456: f16, %out: f16):
      %2495 = arith.mulf %in, %in_1456 : f16
      linalg.yield %2495 : f16
    } -> tensor<4x?x32x32xf16>
    %220 = linalg.generic {indexing_maps = [#map9, #map10, #map9], iterator_types = ["parallel", "parallel", "parallel", "parallel"]} ins(%extracted_slice_100, %expanded_98 : tensor<4x?x32x32xf16>, tensor<1x?x1x32xf16>) outs(%81 : tensor<4x?x32x32xf16>) {
    ^bb0(%in: f16, %in_1456: f16, %out: f16):
      %2495 = arith.mulf %in, %in_1456 : f16
      linalg.yield %2495 : f16
    } -> tensor<4x?x32x32xf16>
    %221 = linalg.generic {indexing_maps = [#map9, #map9, #map9], iterator_types = ["parallel", "parallel", "parallel", "parallel"]} ins(%219, %220 : tensor<4x?x32x32xf16>, tensor<4x?x32x32xf16>) outs(%81 : tensor<4x?x32x32xf16>) {
    ^bb0(%in: f16, %in_1456: f16, %out: f16):
      %2495 = arith.subf %in, %in_1456 : f16
      linalg.yield %2495 : f16
    } -> tensor<4x?x32x32xf16>
    %222 = linalg.generic {indexing_maps = [#map9, #map10, #map9], iterator_types = ["parallel", "parallel", "parallel", "parallel"]} ins(%extracted_slice_100, %expanded_97 : tensor<4x?x32x32xf16>, tensor<1x?x1x32xf16>) outs(%81 : tensor<4x?x32x32xf16>) {
    ^bb0(%in: f16, %in_1456: f16, %out: f16):
      %2495 = arith.mulf %in, %in_1456 : f16
      linalg.yield %2495 : f16
    } -> tensor<4x?x32x32xf16>
    %223 = linalg.generic {indexing_maps = [#map9, #map10, #map9], iterator_types = ["parallel", "parallel", "parallel", "parallel"]} ins(%extracted_slice_99, %expanded_98 : tensor<4x?x32x32xf16>, tensor<1x?x1x32xf16>) outs(%81 : tensor<4x?x32x32xf16>) {
    ^bb0(%in: f16, %in_1456: f16, %out: f16):
      %2495 = arith.mulf %in, %in_1456 : f16
      linalg.yield %2495 : f16
    } -> tensor<4x?x32x32xf16>
    %224 = linalg.generic {indexing_maps = [#map9, #map9, #map9], iterator_types = ["parallel", "parallel", "parallel", "parallel"]} ins(%222, %223 : tensor<4x?x32x32xf16>, tensor<4x?x32x32xf16>) outs(%81 : tensor<4x?x32x32xf16>) {
    ^bb0(%in: f16, %in_1456: f16, %out: f16):
      %2495 = arith.addf %in, %in_1456 : f16
      linalg.yield %2495 : f16
    } -> tensor<4x?x32x32xf16>
    %225 = linalg.generic {indexing_maps = [#map11, #map11, #map12], iterator_types = ["parallel", "parallel", "parallel", "parallel", "parallel"]} ins(%221, %224 : tensor<4x?x32x32xf16>, tensor<4x?x32x32xf16>) outs(%88 : tensor<4x?x32x2x32xf16>) {
    ^bb0(%in: f16, %in_1456: f16, %out: f16):
      %2495 = linalg.index 3 : index
      %2496 = arith.cmpi eq, %2495, %c0 : index
      %2497 = arith.select %2496, %in, %in_1456 : f16
      linalg.yield %2497 : f16
    } -> tensor<4x?x32x2x32xf16>
    %collapsed_101 = tensor.collapse_shape %225 [[0], [1], [2], [3, 4]] : tensor<4x?x32x2x32xf16> into tensor<4x?x32x64xf16>
    %226 = linalg.generic {indexing_maps = [#map7, #map7], iterator_types = ["parallel"]} ins(%66 : tensor<32xf32>) outs(%63 : tensor<32xf32>) {
    ^bb0(%in: f32, %out: f32):
      %2495 = arith.cmpf one, %in, %cst_3 : f32
      cf.assert %2495, "unimplemented: tensor with zero element"
      %2496 = arith.divf %cst_4, %in : f32
      linalg.yield %2496 : f32
    } -> tensor<32xf32>
    %expanded_102 = tensor.expand_shape %226 [[0, 1, 2]] output_shape [1, 32, 1] : tensor<32xf32> into tensor<1x32x1xf32>
    %227 = linalg.batch_matmul ins(%expanded_102, %69 : tensor<1x32x1xf32>, tensor<1x1x?xf32>) outs(%71 : tensor<1x32x?xf32>) -> tensor<1x32x?xf32>
    %transposed_103 = linalg.transpose ins(%227 : tensor<1x32x?xf32>) outs(%73 : tensor<1x?x32xf32>) permutation = [0, 2, 1] 
    %228 = linalg.generic {indexing_maps = [#map, #map], iterator_types = ["parallel", "parallel", "parallel"]} ins(%transposed_103 : tensor<1x?x32xf32>) outs(%73 : tensor<1x?x32xf32>) {
    ^bb0(%in: f32, %out: f32):
      %2495 = math.cos %in : f32
      linalg.yield %2495 : f32
    } -> tensor<1x?x32xf32>
    %229 = linalg.generic {indexing_maps = [#map, #map8, #map], iterator_types = ["parallel", "parallel", "parallel"]} ins(%228, %cst_2 : tensor<1x?x32xf32>, tensor<f32>) outs(%73 : tensor<1x?x32xf32>) {
    ^bb0(%in: f32, %in_1456: f32, %out: f32):
      %2495 = arith.mulf %in, %in_1456 : f32
      linalg.yield %2495 : f32
    } -> tensor<1x?x32xf32>
    %230 = linalg.generic {indexing_maps = [#map, #map], iterator_types = ["parallel", "parallel", "parallel"]} ins(%229 : tensor<1x?x32xf32>) outs(%76 : tensor<1x?x32xf16>) {
    ^bb0(%in: f32, %out: f16):
      %2495 = arith.truncf %in : f32 to f16
      linalg.yield %2495 : f16
    } -> tensor<1x?x32xf16>
    %231 = linalg.generic {indexing_maps = [#map, #map], iterator_types = ["parallel", "parallel", "parallel"]} ins(%transposed_103 : tensor<1x?x32xf32>) outs(%73 : tensor<1x?x32xf32>) {
    ^bb0(%in: f32, %out: f32):
      %2495 = math.sin %in : f32
      linalg.yield %2495 : f32
    } -> tensor<1x?x32xf32>
    %232 = linalg.generic {indexing_maps = [#map, #map8, #map], iterator_types = ["parallel", "parallel", "parallel"]} ins(%231, %cst_2 : tensor<1x?x32xf32>, tensor<f32>) outs(%73 : tensor<1x?x32xf32>) {
    ^bb0(%in: f32, %in_1456: f32, %out: f32):
      %2495 = arith.mulf %in, %in_1456 : f32
      linalg.yield %2495 : f32
    } -> tensor<1x?x32xf32>
    %233 = linalg.generic {indexing_maps = [#map, #map], iterator_types = ["parallel", "parallel", "parallel"]} ins(%232 : tensor<1x?x32xf32>) outs(%76 : tensor<1x?x32xf16>) {
    ^bb0(%in: f32, %out: f16):
      %2495 = arith.truncf %in : f32 to f16
      linalg.yield %2495 : f16
    } -> tensor<1x?x32xf16>
    %expanded_104 = tensor.expand_shape %230 [[0], [1], [2, 3]] output_shape [1, %8, 1, 32] : tensor<1x?x32xf16> into tensor<1x?x1x32xf16>
    %expanded_105 = tensor.expand_shape %233 [[0], [1], [2, 3]] output_shape [1, %8, 1, 32] : tensor<1x?x32xf16> into tensor<1x?x1x32xf16>
    %extracted_slice_106 = tensor.extract_slice %expanded_93[0, 0, 0, 0] [4, %8, 4, 32] [1, 1, 1, 2] : tensor<4x?x4x64xf16> to tensor<4x?x4x32xf16>
    %extracted_slice_107 = tensor.extract_slice %expanded_93[0, 0, 0, 1] [4, %8, 4, 32] [1, 1, 1, 2] : tensor<4x?x4x64xf16> to tensor<4x?x4x32xf16>
    %234 = linalg.generic {indexing_maps = [#map9, #map10, #map9], iterator_types = ["parallel", "parallel", "parallel", "parallel"]} ins(%extracted_slice_106, %expanded_104 : tensor<4x?x4x32xf16>, tensor<1x?x1x32xf16>) outs(%98 : tensor<4x?x4x32xf16>) {
    ^bb0(%in: f16, %in_1456: f16, %out: f16):
      %2495 = arith.mulf %in, %in_1456 : f16
      linalg.yield %2495 : f16
    } -> tensor<4x?x4x32xf16>
    %235 = linalg.generic {indexing_maps = [#map9, #map10, #map9], iterator_types = ["parallel", "parallel", "parallel", "parallel"]} ins(%extracted_slice_107, %expanded_105 : tensor<4x?x4x32xf16>, tensor<1x?x1x32xf16>) outs(%98 : tensor<4x?x4x32xf16>) {
    ^bb0(%in: f16, %in_1456: f16, %out: f16):
      %2495 = arith.mulf %in, %in_1456 : f16
      linalg.yield %2495 : f16
    } -> tensor<4x?x4x32xf16>
    %236 = linalg.generic {indexing_maps = [#map9, #map9, #map9], iterator_types = ["parallel", "parallel", "parallel", "parallel"]} ins(%234, %235 : tensor<4x?x4x32xf16>, tensor<4x?x4x32xf16>) outs(%98 : tensor<4x?x4x32xf16>) {
    ^bb0(%in: f16, %in_1456: f16, %out: f16):
      %2495 = arith.subf %in, %in_1456 : f16
      linalg.yield %2495 : f16
    } -> tensor<4x?x4x32xf16>
    %237 = linalg.generic {indexing_maps = [#map9, #map10, #map9], iterator_types = ["parallel", "parallel", "parallel", "parallel"]} ins(%extracted_slice_107, %expanded_104 : tensor<4x?x4x32xf16>, tensor<1x?x1x32xf16>) outs(%98 : tensor<4x?x4x32xf16>) {
    ^bb0(%in: f16, %in_1456: f16, %out: f16):
      %2495 = arith.mulf %in, %in_1456 : f16
      linalg.yield %2495 : f16
    } -> tensor<4x?x4x32xf16>
    %238 = linalg.generic {indexing_maps = [#map9, #map10, #map9], iterator_types = ["parallel", "parallel", "parallel", "parallel"]} ins(%extracted_slice_106, %expanded_105 : tensor<4x?x4x32xf16>, tensor<1x?x1x32xf16>) outs(%98 : tensor<4x?x4x32xf16>) {
    ^bb0(%in: f16, %in_1456: f16, %out: f16):
      %2495 = arith.mulf %in, %in_1456 : f16
      linalg.yield %2495 : f16
    } -> tensor<4x?x4x32xf16>
    %239 = linalg.generic {indexing_maps = [#map9, #map9, #map9], iterator_types = ["parallel", "parallel", "parallel", "parallel"]} ins(%237, %238 : tensor<4x?x4x32xf16>, tensor<4x?x4x32xf16>) outs(%98 : tensor<4x?x4x32xf16>) {
    ^bb0(%in: f16, %in_1456: f16, %out: f16):
      %2495 = arith.addf %in, %in_1456 : f16
      linalg.yield %2495 : f16
    } -> tensor<4x?x4x32xf16>
    %240 = linalg.generic {indexing_maps = [#map11, #map11, #map12], iterator_types = ["parallel", "parallel", "parallel", "parallel", "parallel"]} ins(%236, %239 : tensor<4x?x4x32xf16>, tensor<4x?x4x32xf16>) outs(%105 : tensor<4x?x4x2x32xf16>) {
    ^bb0(%in: f16, %in_1456: f16, %out: f16):
      %2495 = linalg.index 3 : index
      %2496 = arith.cmpi eq, %2495, %c0 : index
      %2497 = arith.select %2496, %in, %in_1456 : f16
      linalg.yield %2497 : f16
    } -> tensor<4x?x4x2x32xf16>
    %collapsed_108 = tensor.collapse_shape %240 [[0], [1], [2], [3, 4]] : tensor<4x?x4x2x32xf16> into tensor<4x?x4x64xf16>
    %241 = linalg.generic {indexing_maps = [#map13, #map13], iterator_types = ["parallel", "parallel"]} ins(%108 : tensor<4x?xi64>) outs(%107 : tensor<4x?xi64>) {
    ^bb0(%in: i64, %out: i64):
      %2495 = arith.addi %in, %c1_i64 : i64
      linalg.yield %2495 : i64
    } -> tensor<4x?xi64>
    %242 = linalg.generic {indexing_maps = [#map13, #map13], iterator_types = ["parallel", "parallel"]} ins(%241 : tensor<4x?xi64>) outs(%107 : tensor<4x?xi64>) {
    ^bb0(%in: i64, %out: i64):
      %2495 = arith.muli %in, %c2_i64 : i64
      linalg.yield %2495 : i64
    } -> tensor<4x?xi64>
    %collapsed_109 = tensor.collapse_shape %242 [[0, 1]] : tensor<4x?xi64> into tensor<?xi64>
    %expanded_110 = tensor.expand_shape %collapsed_108 [[0], [1, 2], [3], [4]] output_shape [4, %110, 32, 4, 64] : tensor<4x?x4x64xf16> into tensor<4x?x32x4x64xf16>
    %collapsed_111 = tensor.collapse_shape %expanded_110 [[0, 1], [2], [3], [4]] : tensor<4x?x32x4x64xf16> into tensor<?x32x4x64xf16>
    %transposed_112 = linalg.transpose ins(%collapsed_111 : tensor<?x32x4x64xf16>) outs(%112 : tensor<?x4x32x64xf16>) permutation = [0, 2, 1, 3] 
    %expanded_113 = tensor.expand_shape %collapsed_109 [[0, 1]] output_shape [%113, 1] : tensor<?xi64> into tensor<?x1xi64>
    %243 = iree_linalg_ext.scatter dimension_map = [0] unique_indices(true) ins(%transposed_112, %expanded_113 : tensor<?x4x32x64xf16>, tensor<?x1xi64>) outs(%116 : tensor<?x4x32x64xf16>) {
    ^bb0(%arg6: f16, %arg7: f16):
      iree_linalg_ext.yield %arg6 : f16
    } -> tensor<?x4x32x64xf16>
    %244 = linalg.generic {indexing_maps = [#map13, #map13], iterator_types = ["parallel", "parallel"]} ins(%242 : tensor<4x?xi64>) outs(%107 : tensor<4x?xi64>) {
    ^bb0(%in: i64, %out: i64):
      %2495 = arith.addi %in, %c1_i64 : i64
      linalg.yield %2495 : i64
    } -> tensor<4x?xi64>
    %collapsed_114 = tensor.collapse_shape %244 [[0, 1]] : tensor<4x?xi64> into tensor<?xi64>
    %expanded_115 = tensor.expand_shape %210 [[0], [1, 2], [3, 4]] output_shape [4, %110, 32, 4, 64] : tensor<4x?x256xf16> into tensor<4x?x32x4x64xf16>
    %collapsed_116 = tensor.collapse_shape %expanded_115 [[0, 1], [2], [3], [4]] : tensor<4x?x32x4x64xf16> into tensor<?x32x4x64xf16>
    %transposed_117 = linalg.transpose ins(%collapsed_116 : tensor<?x32x4x64xf16>) outs(%112 : tensor<?x4x32x64xf16>) permutation = [0, 2, 1, 3] 
    %expanded_118 = tensor.expand_shape %collapsed_114 [[0, 1]] output_shape [%113, 1] : tensor<?xi64> into tensor<?x1xi64>
    %245 = iree_linalg_ext.scatter dimension_map = [0] unique_indices(true) ins(%transposed_117, %expanded_118 : tensor<?x4x32x64xf16>, tensor<?x1xi64>) outs(%243 : tensor<?x4x32x64xf16>) {
    ^bb0(%arg6: f16, %arg7: f16):
      iree_linalg_ext.yield %arg6 : f16
    } -> tensor<?x4x32x64xf16>
    %246 = linalg.generic {indexing_maps = [#map11, #map12], iterator_types = ["parallel", "parallel", "parallel", "parallel", "parallel"]} ins(%collapsed_108 : tensor<4x?x4x64xf16>) outs(%127 : tensor<4x?x4x8x64xf16>) {
    ^bb0(%in: f16, %out: f16):
      linalg.yield %in : f16
    } -> tensor<4x?x4x8x64xf16>
    %collapsed_119 = tensor.collapse_shape %246 [[0], [1], [2, 3], [4]] : tensor<4x?x4x8x64xf16> into tensor<4x?x32x64xf16>
    %247 = linalg.generic {indexing_maps = [#map11, #map12], iterator_types = ["parallel", "parallel", "parallel", "parallel", "parallel"]} ins(%expanded_94 : tensor<4x?x4x64xf16>) outs(%127 : tensor<4x?x4x8x64xf16>) {
    ^bb0(%in: f16, %out: f16):
      linalg.yield %in : f16
    } -> tensor<4x?x4x8x64xf16>
    %collapsed_120 = tensor.collapse_shape %247 [[0], [1], [2, 3], [4]] : tensor<4x?x4x8x64xf16> into tensor<4x?x32x64xf16>
    %transposed_121 = linalg.transpose ins(%collapsed_101 : tensor<4x?x32x64xf16>) outs(%130 : tensor<4x32x?x64xf16>) permutation = [0, 2, 1, 3] 
    %transposed_122 = linalg.transpose ins(%collapsed_119 : tensor<4x?x32x64xf16>) outs(%130 : tensor<4x32x?x64xf16>) permutation = [0, 2, 1, 3] 
    %transposed_123 = linalg.transpose ins(%collapsed_120 : tensor<4x?x32x64xf16>) outs(%130 : tensor<4x32x?x64xf16>) permutation = [0, 2, 1, 3] 
    %collapsed_124 = tensor.collapse_shape %transposed_121 [[0, 1], [2], [3]] : tensor<4x32x?x64xf16> into tensor<128x?x64xf16>
    %collapsed_125 = tensor.collapse_shape %transposed_122 [[0, 1], [2], [3]] : tensor<4x32x?x64xf16> into tensor<128x?x64xf16>
    %collapsed_126 = tensor.collapse_shape %transposed_123 [[0, 1], [2], [3]] : tensor<4x32x?x64xf16> into tensor<128x?x64xf16>
    %248 = iree_linalg_ext.attention {indexing_maps = [#map23, #map24, #map25, #map26, #map27, #map6]} ins(%collapsed_124, %collapsed_125, %collapsed_126, %cst, %collapsed_62 : tensor<128x?x64xf16>, tensor<128x?x64xf16>, tensor<128x?x64xf16>, f16, tensor<128x?x?xf16>) outs(%133 : tensor<128x?x64xf16>) {
    ^bb0(%arg6: f32):
      iree_linalg_ext.yield %arg6 : f32
    } -> tensor<128x?x64xf16>
    %expanded_127 = tensor.expand_shape %248 [[0, 1], [2], [3]] output_shape [4, 32, %8, 64] : tensor<128x?x64xf16> into tensor<4x32x?x64xf16>
    %dim_128 = tensor.dim %expanded_127, %c2 : tensor<4x32x?x64xf16>
    %249 = tensor.empty(%dim_128) : tensor<4x?x32x64xf16>
    %transposed_129 = linalg.transpose ins(%expanded_127 : tensor<4x32x?x64xf16>) outs(%249 : tensor<4x?x32x64xf16>) permutation = [0, 2, 1, 3] 
    %collapsed_130 = tensor.collapse_shape %transposed_129 [[0], [1], [2, 3]] : tensor<4x?x32x64xf16> into tensor<4x?x2048xf16>
    %250 = iree_tensor_ext.bitcast %__auto.blk.1.attn_output.weight : tensor<2048x2176xi8> -> tensor<2048x1088xi16>
    %expanded_131 = tensor.expand_shape %250 [[0], [1, 2]] output_shape [2048, 64, 17] : tensor<2048x1088xi16> into tensor<2048x64x17xi16>
    %extracted_slice_132 = tensor.extract_slice %expanded_131[0, 0, 0] [2048, 64, 1] [1, 1, 1] : tensor<2048x64x17xi16> to tensor<2048x64x1xi16>
    %251 = iree_tensor_ext.bitcast %extracted_slice_132 : tensor<2048x64x1xi16> -> tensor<2048x64x1xf16>
    %extracted_slice_133 = tensor.extract_slice %expanded_131[0, 0, 1] [2048, 64, 16] [1, 1, 1] : tensor<2048x64x17xi16> to tensor<2048x64x16xi16>
    %252 = iree_tensor_ext.bitcast %extracted_slice_133 : tensor<2048x64x16xi16> -> tensor<2048x64x32xi8>
    %dim_134 = tensor.dim %collapsed_130, %c1 : tensor<4x?x2048xf16>
    %253 = linalg.generic {indexing_maps = [#map1, #map, #map], iterator_types = ["parallel", "parallel", "parallel"]} ins(%251, %252 : tensor<2048x64x1xf16>, tensor<2048x64x32xi8>) outs(%38 : tensor<2048x64x32xf16>) {
    ^bb0(%in: f16, %in_1456: i8, %out: f16):
      %2495 = arith.extsi %in_1456 : i8 to i32
      %2496 = arith.sitofp %2495 : i32 to f16
      %2497 = arith.mulf %2496, %in : f16
      linalg.yield %2497 : f16
    } -> tensor<2048x64x32xf16>
    %expanded_135 = tensor.expand_shape %collapsed_130 [[0], [1], [2, 3]] output_shape [4, %dim_134, 64, 32] : tensor<4x?x2048xf16> into tensor<4x?x64x32xf16>
    %254 = tensor.empty(%dim_134) : tensor<4x?x2048xf32>
    %255 = linalg.fill ins(%cst_3 : f32) outs(%254 : tensor<4x?x2048xf32>) -> tensor<4x?x2048xf32>
    %256 = linalg.generic {indexing_maps = [#map4, #map5, #map6], iterator_types = ["parallel", "parallel", "parallel", "reduction", "reduction"]} ins(%expanded_135, %253 : tensor<4x?x64x32xf16>, tensor<2048x64x32xf16>) outs(%255 : tensor<4x?x2048xf32>) {
    ^bb0(%in: f16, %in_1456: f16, %out: f32):
      %2495 = arith.mulf %in, %in_1456 : f16
      %2496 = arith.extf %2495 : f16 to f32
      %2497 = arith.addf %2496, %out : f32
      linalg.yield %2497 : f32
    } -> tensor<4x?x2048xf32>
    %257 = tensor.empty(%dim_134) : tensor<4x?x2048xf16>
    %258 = linalg.copy ins(%256 : tensor<4x?x2048xf32>) outs(%257 : tensor<4x?x2048xf16>) -> tensor<4x?x2048xf16>
    %259 = linalg.generic {indexing_maps = [#map, #map, #map], iterator_types = ["parallel", "parallel", "parallel"]} ins(%182, %258 : tensor<4x?x2048xf16>, tensor<4x?x2048xf16>) outs(%20 : tensor<4x?x2048xf16>) {
    ^bb0(%in: f16, %in_1456: f16, %out: f16):
      %2495 = arith.addf %in, %in_1456 : f16
      linalg.yield %2495 : f16
    } -> tensor<4x?x2048xf16>
    %260 = linalg.generic {indexing_maps = [#map, #map], iterator_types = ["parallel", "parallel", "parallel"]} ins(%259 : tensor<4x?x2048xf16>) outs(%22 : tensor<4x?x2048xf32>) {
    ^bb0(%in: f16, %out: f32):
      %2495 = arith.extf %in : f16 to f32
      linalg.yield %2495 : f32
    } -> tensor<4x?x2048xf32>
    %261 = linalg.generic {indexing_maps = [#map, #map], iterator_types = ["parallel", "parallel", "parallel"]} ins(%260 : tensor<4x?x2048xf32>) outs(%22 : tensor<4x?x2048xf32>) {
    ^bb0(%in: f32, %out: f32):
      %2495 = math.fpowi %in, %c2_i64 : f32, i64
      linalg.yield %2495 : f32
    } -> tensor<4x?x2048xf32>
    %262 = linalg.generic {indexing_maps = [#map, #map1], iterator_types = ["parallel", "parallel", "reduction"]} ins(%261 : tensor<4x?x2048xf32>) outs(%26 : tensor<4x?x1xf32>) {
    ^bb0(%in: f32, %out: f32):
      %2495 = arith.addf %in, %out : f32
      linalg.yield %2495 : f32
    } -> tensor<4x?x1xf32>
    %263 = linalg.generic {indexing_maps = [#map, #map], iterator_types = ["parallel", "parallel", "parallel"]} ins(%262 : tensor<4x?x1xf32>) outs(%25 : tensor<4x?x1xf32>) {
    ^bb0(%in: f32, %out: f32):
      %2495 = arith.divf %in, %cst_6 : f32
      linalg.yield %2495 : f32
    } -> tensor<4x?x1xf32>
    %264 = linalg.generic {indexing_maps = [#map, #map], iterator_types = ["parallel", "parallel", "parallel"]} ins(%263 : tensor<4x?x1xf32>) outs(%25 : tensor<4x?x1xf32>) {
    ^bb0(%in: f32, %out: f32):
      %2495 = arith.addf %in, %cst_7 : f32
      linalg.yield %2495 : f32
    } -> tensor<4x?x1xf32>
    %265 = linalg.generic {indexing_maps = [#map, #map], iterator_types = ["parallel", "parallel", "parallel"]} ins(%264 : tensor<4x?x1xf32>) outs(%25 : tensor<4x?x1xf32>) {
    ^bb0(%in: f32, %out: f32):
      %2495 = math.rsqrt %in : f32
      linalg.yield %2495 : f32
    } -> tensor<4x?x1xf32>
    %266 = linalg.generic {indexing_maps = [#map, #map1, #map], iterator_types = ["parallel", "parallel", "parallel"]} ins(%260, %265 : tensor<4x?x2048xf32>, tensor<4x?x1xf32>) outs(%22 : tensor<4x?x2048xf32>) {
    ^bb0(%in: f32, %in_1456: f32, %out: f32):
      %2495 = arith.mulf %in, %in_1456 : f32
      linalg.yield %2495 : f32
    } -> tensor<4x?x2048xf32>
    %267 = linalg.generic {indexing_maps = [#map, #map], iterator_types = ["parallel", "parallel", "parallel"]} ins(%266 : tensor<4x?x2048xf32>) outs(%20 : tensor<4x?x2048xf16>) {
    ^bb0(%in: f32, %out: f16):
      %2495 = arith.truncf %in : f32 to f16
      linalg.yield %2495 : f16
    } -> tensor<4x?x2048xf16>
    %268 = linalg.generic {indexing_maps = [#map3, #map, #map], iterator_types = ["parallel", "parallel", "parallel"]} ins(%__auto.blk.1.ffn_norm.weight, %267 : tensor<2048xf32>, tensor<4x?x2048xf16>) outs(%22 : tensor<4x?x2048xf32>) {
    ^bb0(%in: f32, %in_1456: f16, %out: f32):
      %2495 = arith.extf %in_1456 : f16 to f32
      %2496 = arith.mulf %in, %2495 : f32
      linalg.yield %2496 : f32
    } -> tensor<4x?x2048xf32>
    %269 = linalg.generic {indexing_maps = [#map, #map], iterator_types = ["parallel", "parallel", "parallel"]} ins(%268 : tensor<4x?x2048xf32>) outs(%20 : tensor<4x?x2048xf16>) {
    ^bb0(%in: f32, %out: f16):
      %2495 = arith.truncf %in : f32 to f16
      linalg.yield %2495 : f16
    } -> tensor<4x?x2048xf16>
    %270 = iree_tensor_ext.bitcast %__auto.blk.1.ffn_gate.weight : tensor<5632x2176xi8> -> tensor<5632x1088xi16>
    %expanded_136 = tensor.expand_shape %270 [[0], [1, 2]] output_shape [5632, 64, 17] : tensor<5632x1088xi16> into tensor<5632x64x17xi16>
    %extracted_slice_137 = tensor.extract_slice %expanded_136[0, 0, 0] [5632, 64, 1] [1, 1, 1] : tensor<5632x64x17xi16> to tensor<5632x64x1xi16>
    %271 = iree_tensor_ext.bitcast %extracted_slice_137 : tensor<5632x64x1xi16> -> tensor<5632x64x1xf16>
    %extracted_slice_138 = tensor.extract_slice %expanded_136[0, 0, 1] [5632, 64, 16] [1, 1, 1] : tensor<5632x64x17xi16> to tensor<5632x64x16xi16>
    %272 = iree_tensor_ext.bitcast %extracted_slice_138 : tensor<5632x64x16xi16> -> tensor<5632x64x32xi8>
    %273 = linalg.generic {indexing_maps = [#map1, #map, #map], iterator_types = ["parallel", "parallel", "parallel"]} ins(%271, %272 : tensor<5632x64x1xf16>, tensor<5632x64x32xi8>) outs(%159 : tensor<5632x64x32xf16>) {
    ^bb0(%in: f16, %in_1456: i8, %out: f16):
      %2495 = arith.extsi %in_1456 : i8 to i32
      %2496 = arith.sitofp %2495 : i32 to f16
      %2497 = arith.mulf %2496, %in : f16
      linalg.yield %2497 : f16
    } -> tensor<5632x64x32xf16>
    %expanded_139 = tensor.expand_shape %269 [[0], [1], [2, 3]] output_shape [4, %8, 64, 32] : tensor<4x?x2048xf16> into tensor<4x?x64x32xf16>
    %274 = linalg.generic {indexing_maps = [#map4, #map5, #map6], iterator_types = ["parallel", "parallel", "parallel", "reduction", "reduction"]} ins(%expanded_139, %273 : tensor<4x?x64x32xf16>, tensor<5632x64x32xf16>) outs(%162 : tensor<4x?x5632xf32>) {
    ^bb0(%in: f16, %in_1456: f16, %out: f32):
      %2495 = arith.mulf %in, %in_1456 : f16
      %2496 = arith.extf %2495 : f16 to f32
      %2497 = arith.addf %2496, %out : f32
      linalg.yield %2497 : f32
    } -> tensor<4x?x5632xf32>
    %275 = linalg.copy ins(%274 : tensor<4x?x5632xf32>) outs(%164 : tensor<4x?x5632xf16>) -> tensor<4x?x5632xf16>
    %276 = linalg.generic {indexing_maps = [#map, #map], iterator_types = ["parallel", "parallel", "parallel"]} ins(%275 : tensor<4x?x5632xf16>) outs(%164 : tensor<4x?x5632xf16>) {
    ^bb0(%in: f16, %out: f16):
      %2495 = arith.negf %in : f16
      %2496 = math.exp %2495 : f16
      %2497 = arith.addf %2496, %cst_5 : f16
      %2498 = arith.divf %cst_5, %2497 : f16
      linalg.yield %2498 : f16
    } -> tensor<4x?x5632xf16>
    %277 = linalg.generic {indexing_maps = [#map, #map, #map], iterator_types = ["parallel", "parallel", "parallel"]} ins(%276, %275 : tensor<4x?x5632xf16>, tensor<4x?x5632xf16>) outs(%164 : tensor<4x?x5632xf16>) {
    ^bb0(%in: f16, %in_1456: f16, %out: f16):
      %2495 = arith.mulf %in, %in_1456 : f16
      linalg.yield %2495 : f16
    } -> tensor<4x?x5632xf16>
    %278 = iree_tensor_ext.bitcast %__auto.blk.1.ffn_up.weight : tensor<5632x2176xi8> -> tensor<5632x1088xi16>
    %expanded_140 = tensor.expand_shape %278 [[0], [1, 2]] output_shape [5632, 64, 17] : tensor<5632x1088xi16> into tensor<5632x64x17xi16>
    %extracted_slice_141 = tensor.extract_slice %expanded_140[0, 0, 0] [5632, 64, 1] [1, 1, 1] : tensor<5632x64x17xi16> to tensor<5632x64x1xi16>
    %279 = iree_tensor_ext.bitcast %extracted_slice_141 : tensor<5632x64x1xi16> -> tensor<5632x64x1xf16>
    %extracted_slice_142 = tensor.extract_slice %expanded_140[0, 0, 1] [5632, 64, 16] [1, 1, 1] : tensor<5632x64x17xi16> to tensor<5632x64x16xi16>
    %280 = iree_tensor_ext.bitcast %extracted_slice_142 : tensor<5632x64x16xi16> -> tensor<5632x64x32xi8>
    %281 = linalg.generic {indexing_maps = [#map1, #map, #map], iterator_types = ["parallel", "parallel", "parallel"]} ins(%279, %280 : tensor<5632x64x1xf16>, tensor<5632x64x32xi8>) outs(%159 : tensor<5632x64x32xf16>) {
    ^bb0(%in: f16, %in_1456: i8, %out: f16):
      %2495 = arith.extsi %in_1456 : i8 to i32
      %2496 = arith.sitofp %2495 : i32 to f16
      %2497 = arith.mulf %2496, %in : f16
      linalg.yield %2497 : f16
    } -> tensor<5632x64x32xf16>
    %282 = linalg.generic {indexing_maps = [#map4, #map5, #map6], iterator_types = ["parallel", "parallel", "parallel", "reduction", "reduction"]} ins(%expanded_139, %281 : tensor<4x?x64x32xf16>, tensor<5632x64x32xf16>) outs(%162 : tensor<4x?x5632xf32>) {
    ^bb0(%in: f16, %in_1456: f16, %out: f32):
      %2495 = arith.mulf %in, %in_1456 : f16
      %2496 = arith.extf %2495 : f16 to f32
      %2497 = arith.addf %2496, %out : f32
      linalg.yield %2497 : f32
    } -> tensor<4x?x5632xf32>
    %283 = linalg.copy ins(%282 : tensor<4x?x5632xf32>) outs(%164 : tensor<4x?x5632xf16>) -> tensor<4x?x5632xf16>
    %284 = linalg.generic {indexing_maps = [#map, #map, #map], iterator_types = ["parallel", "parallel", "parallel"]} ins(%277, %283 : tensor<4x?x5632xf16>, tensor<4x?x5632xf16>) outs(%164 : tensor<4x?x5632xf16>) {
    ^bb0(%in: f16, %in_1456: f16, %out: f16):
      %2495 = arith.mulf %in, %in_1456 : f16
      linalg.yield %2495 : f16
    } -> tensor<4x?x5632xf16>
    %285 = iree_tensor_ext.bitcast %__auto.blk.1.ffn_down.weight : tensor<2048x5984xi8> -> tensor<2048x2992xi16>
    %expanded_143 = tensor.expand_shape %285 [[0], [1, 2]] output_shape [2048, 176, 17] : tensor<2048x2992xi16> into tensor<2048x176x17xi16>
    %extracted_slice_144 = tensor.extract_slice %expanded_143[0, 0, 0] [2048, 176, 1] [1, 1, 1] : tensor<2048x176x17xi16> to tensor<2048x176x1xi16>
    %286 = iree_tensor_ext.bitcast %extracted_slice_144 : tensor<2048x176x1xi16> -> tensor<2048x176x1xf16>
    %extracted_slice_145 = tensor.extract_slice %expanded_143[0, 0, 1] [2048, 176, 16] [1, 1, 1] : tensor<2048x176x17xi16> to tensor<2048x176x16xi16>
    %287 = iree_tensor_ext.bitcast %extracted_slice_145 : tensor<2048x176x16xi16> -> tensor<2048x176x32xi8>
    %288 = linalg.generic {indexing_maps = [#map1, #map, #map], iterator_types = ["parallel", "parallel", "parallel"]} ins(%286, %287 : tensor<2048x176x1xf16>, tensor<2048x176x32xi8>) outs(%178 : tensor<2048x176x32xf16>) {
    ^bb0(%in: f16, %in_1456: i8, %out: f16):
      %2495 = arith.extsi %in_1456 : i8 to i32
      %2496 = arith.sitofp %2495 : i32 to f16
      %2497 = arith.mulf %2496, %in : f16
      linalg.yield %2497 : f16
    } -> tensor<2048x176x32xf16>
    %expanded_146 = tensor.expand_shape %284 [[0], [1], [2, 3]] output_shape [4, %8, 176, 32] : tensor<4x?x5632xf16> into tensor<4x?x176x32xf16>
    %289 = linalg.generic {indexing_maps = [#map4, #map5, #map6], iterator_types = ["parallel", "parallel", "parallel", "reduction", "reduction"]} ins(%expanded_146, %288 : tensor<4x?x176x32xf16>, tensor<2048x176x32xf16>) outs(%40 : tensor<4x?x2048xf32>) {
    ^bb0(%in: f16, %in_1456: f16, %out: f32):
      %2495 = arith.mulf %in, %in_1456 : f16
      %2496 = arith.extf %2495 : f16 to f32
      %2497 = arith.addf %2496, %out : f32
      linalg.yield %2497 : f32
    } -> tensor<4x?x2048xf32>
    %290 = linalg.copy ins(%289 : tensor<4x?x2048xf32>) outs(%20 : tensor<4x?x2048xf16>) -> tensor<4x?x2048xf16>
    %291 = linalg.generic {indexing_maps = [#map, #map, #map], iterator_types = ["parallel", "parallel", "parallel"]} ins(%259, %290 : tensor<4x?x2048xf16>, tensor<4x?x2048xf16>) outs(%20 : tensor<4x?x2048xf16>) {
    ^bb0(%in: f16, %in_1456: f16, %out: f16):
      %2495 = arith.addf %in, %in_1456 : f16
      linalg.yield %2495 : f16
    } -> tensor<4x?x2048xf16>
    %292 = linalg.generic {indexing_maps = [#map, #map], iterator_types = ["parallel", "parallel", "parallel"]} ins(%291 : tensor<4x?x2048xf16>) outs(%22 : tensor<4x?x2048xf32>) {
    ^bb0(%in: f16, %out: f32):
      %2495 = arith.extf %in : f16 to f32
      linalg.yield %2495 : f32
    } -> tensor<4x?x2048xf32>
    %293 = linalg.generic {indexing_maps = [#map, #map], iterator_types = ["parallel", "parallel", "parallel"]} ins(%292 : tensor<4x?x2048xf32>) outs(%22 : tensor<4x?x2048xf32>) {
    ^bb0(%in: f32, %out: f32):
      %2495 = math.fpowi %in, %c2_i64 : f32, i64
      linalg.yield %2495 : f32
    } -> tensor<4x?x2048xf32>
    %294 = linalg.generic {indexing_maps = [#map, #map1], iterator_types = ["parallel", "parallel", "reduction"]} ins(%293 : tensor<4x?x2048xf32>) outs(%26 : tensor<4x?x1xf32>) {
    ^bb0(%in: f32, %out: f32):
      %2495 = arith.addf %in, %out : f32
      linalg.yield %2495 : f32
    } -> tensor<4x?x1xf32>
    %295 = linalg.generic {indexing_maps = [#map, #map], iterator_types = ["parallel", "parallel", "parallel"]} ins(%294 : tensor<4x?x1xf32>) outs(%25 : tensor<4x?x1xf32>) {
    ^bb0(%in: f32, %out: f32):
      %2495 = arith.divf %in, %cst_6 : f32
      linalg.yield %2495 : f32
    } -> tensor<4x?x1xf32>
    %296 = linalg.generic {indexing_maps = [#map, #map], iterator_types = ["parallel", "parallel", "parallel"]} ins(%295 : tensor<4x?x1xf32>) outs(%25 : tensor<4x?x1xf32>) {
    ^bb0(%in: f32, %out: f32):
      %2495 = arith.addf %in, %cst_7 : f32
      linalg.yield %2495 : f32
    } -> tensor<4x?x1xf32>
    %297 = linalg.generic {indexing_maps = [#map, #map], iterator_types = ["parallel", "parallel", "parallel"]} ins(%296 : tensor<4x?x1xf32>) outs(%25 : tensor<4x?x1xf32>) {
    ^bb0(%in: f32, %out: f32):
      %2495 = math.rsqrt %in : f32
      linalg.yield %2495 : f32
    } -> tensor<4x?x1xf32>
    %298 = linalg.generic {indexing_maps = [#map, #map1, #map], iterator_types = ["parallel", "parallel", "parallel"]} ins(%292, %297 : tensor<4x?x2048xf32>, tensor<4x?x1xf32>) outs(%22 : tensor<4x?x2048xf32>) {
    ^bb0(%in: f32, %in_1456: f32, %out: f32):
      %2495 = arith.mulf %in, %in_1456 : f32
      linalg.yield %2495 : f32
    } -> tensor<4x?x2048xf32>
    %299 = linalg.generic {indexing_maps = [#map, #map], iterator_types = ["parallel", "parallel", "parallel"]} ins(%298 : tensor<4x?x2048xf32>) outs(%20 : tensor<4x?x2048xf16>) {
    ^bb0(%in: f32, %out: f16):
      %2495 = arith.truncf %in : f32 to f16
      linalg.yield %2495 : f16
    } -> tensor<4x?x2048xf16>
    %300 = linalg.generic {indexing_maps = [#map3, #map, #map], iterator_types = ["parallel", "parallel", "parallel"]} ins(%__auto.blk.2.attn_norm.weight, %299 : tensor<2048xf32>, tensor<4x?x2048xf16>) outs(%22 : tensor<4x?x2048xf32>) {
    ^bb0(%in: f32, %in_1456: f16, %out: f32):
      %2495 = arith.extf %in_1456 : f16 to f32
      %2496 = arith.mulf %in, %2495 : f32
      linalg.yield %2496 : f32
    } -> tensor<4x?x2048xf32>
    %301 = linalg.generic {indexing_maps = [#map, #map], iterator_types = ["parallel", "parallel", "parallel"]} ins(%300 : tensor<4x?x2048xf32>) outs(%20 : tensor<4x?x2048xf16>) {
    ^bb0(%in: f32, %out: f16):
      %2495 = arith.truncf %in : f32 to f16
      linalg.yield %2495 : f16
    } -> tensor<4x?x2048xf16>
    %302 = iree_tensor_ext.bitcast %__auto.blk.2.attn_q.weight : tensor<2048x2176xi8> -> tensor<2048x1088xi16>
    %expanded_147 = tensor.expand_shape %302 [[0], [1, 2]] output_shape [2048, 64, 17] : tensor<2048x1088xi16> into tensor<2048x64x17xi16>
    %extracted_slice_148 = tensor.extract_slice %expanded_147[0, 0, 0] [2048, 64, 1] [1, 1, 1] : tensor<2048x64x17xi16> to tensor<2048x64x1xi16>
    %303 = iree_tensor_ext.bitcast %extracted_slice_148 : tensor<2048x64x1xi16> -> tensor<2048x64x1xf16>
    %extracted_slice_149 = tensor.extract_slice %expanded_147[0, 0, 1] [2048, 64, 16] [1, 1, 1] : tensor<2048x64x17xi16> to tensor<2048x64x16xi16>
    %304 = iree_tensor_ext.bitcast %extracted_slice_149 : tensor<2048x64x16xi16> -> tensor<2048x64x32xi8>
    %305 = linalg.generic {indexing_maps = [#map1, #map, #map], iterator_types = ["parallel", "parallel", "parallel"]} ins(%303, %304 : tensor<2048x64x1xf16>, tensor<2048x64x32xi8>) outs(%38 : tensor<2048x64x32xf16>) {
    ^bb0(%in: f16, %in_1456: i8, %out: f16):
      %2495 = arith.extsi %in_1456 : i8 to i32
      %2496 = arith.sitofp %2495 : i32 to f16
      %2497 = arith.mulf %2496, %in : f16
      linalg.yield %2497 : f16
    } -> tensor<2048x64x32xf16>
    %expanded_150 = tensor.expand_shape %301 [[0], [1], [2, 3]] output_shape [4, %8, 64, 32] : tensor<4x?x2048xf16> into tensor<4x?x64x32xf16>
    %306 = linalg.generic {indexing_maps = [#map4, #map5, #map6], iterator_types = ["parallel", "parallel", "parallel", "reduction", "reduction"]} ins(%expanded_150, %305 : tensor<4x?x64x32xf16>, tensor<2048x64x32xf16>) outs(%40 : tensor<4x?x2048xf32>) {
    ^bb0(%in: f16, %in_1456: f16, %out: f32):
      %2495 = arith.mulf %in, %in_1456 : f16
      %2496 = arith.extf %2495 : f16 to f32
      %2497 = arith.addf %2496, %out : f32
      linalg.yield %2497 : f32
    } -> tensor<4x?x2048xf32>
    %307 = linalg.copy ins(%306 : tensor<4x?x2048xf32>) outs(%20 : tensor<4x?x2048xf16>) -> tensor<4x?x2048xf16>
    %308 = iree_tensor_ext.bitcast %__auto.blk.2.attn_k.weight : tensor<256x2176xi8> -> tensor<256x1088xi16>
    %expanded_151 = tensor.expand_shape %308 [[0], [1, 2]] output_shape [256, 64, 17] : tensor<256x1088xi16> into tensor<256x64x17xi16>
    %extracted_slice_152 = tensor.extract_slice %expanded_151[0, 0, 0] [256, 64, 1] [1, 1, 1] : tensor<256x64x17xi16> to tensor<256x64x1xi16>
    %309 = iree_tensor_ext.bitcast %extracted_slice_152 : tensor<256x64x1xi16> -> tensor<256x64x1xf16>
    %extracted_slice_153 = tensor.extract_slice %expanded_151[0, 0, 1] [256, 64, 16] [1, 1, 1] : tensor<256x64x17xi16> to tensor<256x64x16xi16>
    %310 = iree_tensor_ext.bitcast %extracted_slice_153 : tensor<256x64x16xi16> -> tensor<256x64x32xi8>
    %311 = linalg.generic {indexing_maps = [#map1, #map, #map], iterator_types = ["parallel", "parallel", "parallel"]} ins(%309, %310 : tensor<256x64x1xf16>, tensor<256x64x32xi8>) outs(%46 : tensor<256x64x32xf16>) {
    ^bb0(%in: f16, %in_1456: i8, %out: f16):
      %2495 = arith.extsi %in_1456 : i8 to i32
      %2496 = arith.sitofp %2495 : i32 to f16
      %2497 = arith.mulf %2496, %in : f16
      linalg.yield %2497 : f16
    } -> tensor<256x64x32xf16>
    %312 = linalg.generic {indexing_maps = [#map4, #map5, #map6], iterator_types = ["parallel", "parallel", "parallel", "reduction", "reduction"]} ins(%expanded_150, %311 : tensor<4x?x64x32xf16>, tensor<256x64x32xf16>) outs(%49 : tensor<4x?x256xf32>) {
    ^bb0(%in: f16, %in_1456: f16, %out: f32):
      %2495 = arith.mulf %in, %in_1456 : f16
      %2496 = arith.extf %2495 : f16 to f32
      %2497 = arith.addf %2496, %out : f32
      linalg.yield %2497 : f32
    } -> tensor<4x?x256xf32>
    %313 = linalg.copy ins(%312 : tensor<4x?x256xf32>) outs(%51 : tensor<4x?x256xf16>) -> tensor<4x?x256xf16>
    %314 = iree_tensor_ext.bitcast %__auto.blk.2.attn_v.weight : tensor<256x2176xi8> -> tensor<256x1088xi16>
    %expanded_154 = tensor.expand_shape %314 [[0], [1, 2]] output_shape [256, 64, 17] : tensor<256x1088xi16> into tensor<256x64x17xi16>
    %extracted_slice_155 = tensor.extract_slice %expanded_154[0, 0, 0] [256, 64, 1] [1, 1, 1] : tensor<256x64x17xi16> to tensor<256x64x1xi16>
…
    %2609 = linalg.generic {indexing_maps = [#map, #map], iterator_types = ["parallel", "parallel", "parallel"]} ins(%2608 : tensor<4x1x2048xf32>) outs(%18 : tensor<4x1x2048xf16>) {
    ^bb0(%in: f32, %out: f16):
      %2742 = arith.truncf %in : f32 to f16
      linalg.yield %2742 : f16
    } -> tensor<4x1x2048xf16>
    %2610 = iree_tensor_ext.bitcast %__auto.blk.21.attn_q.weight : tensor<2048x2176xi8> -> tensor<2048x1088xi16>
    %expanded_1432 = tensor.expand_shape %2610 [[0], [1, 2]] output_shape [2048, 64, 17] : tensor<2048x1088xi16> into tensor<2048x64x17xi16>
    %extracted_slice_1433 = tensor.extract_slice %expanded_1432[0, 0, 0] [2048, 64, 1] [1, 1, 1] : tensor<2048x64x17xi16> to tensor<2048x64x1xi16>
    %2611 = iree_tensor_ext.bitcast %extracted_slice_1433 : tensor<2048x64x1xi16> -> tensor<2048x64x1xf16>
    %extracted_slice_1434 = tensor.extract_slice %expanded_1432[0, 0, 1] [2048, 64, 16] [1, 1, 1] : tensor<2048x64x17xi16> to tensor<2048x64x16xi16>
    %2612 = iree_tensor_ext.bitcast %extracted_slice_1434 : tensor<2048x64x16xi16> -> tensor<2048x64x32xi8>
    %2613 = linalg.generic {indexing_maps = [#map1, #map, #map], iterator_types = ["parallel", "parallel", "parallel"]} ins(%2611, %2612 : tensor<2048x64x1xf16>, tensor<2048x64x32xi8>) outs(%36 : tensor<2048x64x32xf16>) {
    ^bb0(%in: f16, %in_1505: i8, %out: f16):
      %2742 = arith.extsi %in_1505 : i8 to i32
      %2743 = arith.sitofp %2742 : i32 to f16
      %2744 = arith.mulf %2743, %in : f16
      linalg.yield %2744 : f16
    } -> tensor<2048x64x32xf16>
    %expanded_1435 = tensor.expand_shape %2609 [[0], [1], [2, 3]] output_shape [4, 1, 64, 32] : tensor<4x1x2048xf16> into tensor<4x1x64x32xf16>
    %2614 = linalg.generic {indexing_maps = [#map4, #map5, #map6], iterator_types = ["parallel", "parallel", "parallel", "reduction", "reduction"]} ins(%expanded_1435, %2613 : tensor<4x1x64x32xf16>, tensor<2048x64x32xf16>) outs(%38 : tensor<4x1x2048xf32>) {
    ^bb0(%in: f16, %in_1505: f16, %out: f32):
      %2742 = arith.mulf %in, %in_1505 : f16
      %2743 = arith.extf %2742 : f16 to f32
      %2744 = arith.addf %2743, %out : f32
      linalg.yield %2744 : f32
    } -> tensor<4x1x2048xf32>
    %2615 = linalg.copy ins(%2614 : tensor<4x1x2048xf32>) outs(%18 : tensor<4x1x2048xf16>) -> tensor<4x1x2048xf16>
    %2616 = iree_tensor_ext.bitcast %__auto.blk.21.attn_k.weight : tensor<256x2176xi8> -> tensor<256x1088xi16>
    %expanded_1436 = tensor.expand_shape %2616 [[0], [1, 2]] output_shape [256, 64, 17] : tensor<256x1088xi16> into tensor<256x64x17xi16>
    %extracted_slice_1437 = tensor.extract_slice %expanded_1436[0, 0, 0] [256, 64, 1] [1, 1, 1] : tensor<256x64x17xi16> to tensor<256x64x1xi16>
    %2617 = iree_tensor_ext.bitcast %extracted_slice_1437 : tensor<256x64x1xi16> -> tensor<256x64x1xf16>
    %extracted_slice_1438 = tensor.extract_slice %expanded_1436[0, 0, 1] [256, 64, 16] [1, 1, 1] : tensor<256x64x17xi16> to tensor<256x64x16xi16>
    %2618 = iree_tensor_ext.bitcast %extracted_slice_1438 : tensor<256x64x16xi16> -> tensor<256x64x32xi8>
    %2619 = linalg.generic {indexing_maps = [#map1, #map, #map], iterator_types = ["parallel", "parallel", "parallel"]} ins(%2617, %2618 : tensor<256x64x1xf16>, tensor<256x64x32xi8>) outs(%44 : tensor<256x64x32xf16>) {
    ^bb0(%in: f16, %in_1505: i8, %out: f16):
      %2742 = arith.extsi %in_1505 : i8 to i32
      %2743 = arith.sitofp %2742 : i32 to f16
      %2744 = arith.mulf %2743, %in : f16
      linalg.yield %2744 : f16
    } -> tensor<256x64x32xf16>
    %2620 = linalg.generic {indexing_maps = [#map4, #map5, #map6], iterator_types = ["parallel", "parallel", "parallel", "reduction", "reduction"]} ins(%expanded_1435, %2619 : tensor<4x1x64x32xf16>, tensor<256x64x32xf16>) outs(%47 : tensor<4x1x256xf32>) {
    ^bb0(%in: f16, %in_1505: f16, %out: f32):
      %2742 = arith.mulf %in, %in_1505 : f16
      %2743 = arith.extf %2742 : f16 to f32
      %2744 = arith.addf %2743, %out : f32
      linalg.yield %2744 : f32
    } -> tensor<4x1x256xf32>
    %2621 = linalg.copy ins(%2620 : tensor<4x1x256xf32>) outs(%49 : tensor<4x1x256xf16>) -> tensor<4x1x256xf16>
    %2622 = iree_tensor_ext.bitcast %__auto.blk.21.attn_v.weight : tensor<256x2176xi8> -> tensor<256x1088xi16>
    %expanded_1439 = tensor.expand_shape %2622 [[0], [1, 2]] output_shape [256, 64, 17] : tensor<256x1088xi16> into tensor<256x64x17xi16>
    %extracted_slice_1440 = tensor.extract_slice %expanded_1439[0, 0, 0] [256, 64, 1] [1, 1, 1] : tensor<256x64x17xi16> to tensor<256x64x1xi16>
    %2623 = iree_tensor_ext.bitcast %extracted_slice_1440 : tensor<256x64x1xi16> -> tensor<256x64x1xf16>
    %extracted_slice_1441 = tensor.extract_slice %expanded_1439[0, 0, 1] [256, 64, 16] [1, 1, 1] : tensor<256x64x17xi16> to tensor<256x64x16xi16>
    %2624 = iree_tensor_ext.bitcast %extracted_slice_1441 : tensor<256x64x16xi16> -> tensor<256x64x32xi8>
    %2625 = linalg.generic {indexing_maps = [#map1, #map, #map], iterator_types = ["parallel", "parallel", "parallel"]} ins(%2623, %2624 : tensor<256x64x1xf16>, tensor<256x64x32xi8>) outs(%44 : tensor<256x64x32xf16>) {
    ^bb0(%in: f16, %in_1505: i8, %out: f16):
      %2742 = arith.extsi %in_1505 : i8 to i32
      %2743 = arith.sitofp %2742 : i32 to f16
      %2744 = arith.mulf %2743, %in : f16
      linalg.yield %2744 : f16
    } -> tensor<256x64x32xf16>
    %2626 = linalg.generic {indexing_maps = [#map4, #map5, #map6], iterator_types = ["parallel", "parallel", "parallel", "reduction", "reduction"]} ins(%expanded_1435, %2625 : tensor<4x1x64x32xf16>, tensor<256x64x32xf16>) outs(%47 : tensor<4x1x256xf32>) {
    ^bb0(%in: f16, %in_1505: f16, %out: f32):
      %2742 = arith.mulf %in, %in_1505 : f16
      %2743 = arith.extf %2742 : f16 to f32
      %2744 = arith.addf %2743, %out : f32
      linalg.yield %2744 : f32
    } -> tensor<4x1x256xf32>
    %2627 = linalg.copy ins(%2626 : tensor<4x1x256xf32>) outs(%49 : tensor<4x1x256xf16>) -> tensor<4x1x256xf16>
    %expanded_1442 = tensor.expand_shape %2615 [[0], [1], [2, 3]] output_shape [4, 1, 32, 64] : tensor<4x1x2048xf16> into tensor<4x1x32x64xf16>
    %expanded_1443 = tensor.expand_shape %2621 [[0], [1], [2, 3]] output_shape [4, 1, 4, 64] : tensor<4x1x256xf16> into tensor<4x1x4x64xf16>
    %expanded_1444 = tensor.expand_shape %2627 [[0], [1], [2, 3]] output_shape [4, 1, 4, 64] : tensor<4x1x256xf16> into tensor<4x1x4x64xf16>
    %2628 = linalg.generic {indexing_maps = [#map7, #map7], iterator_types = ["parallel"]} ins(%66 : tensor<32xf32>) outs(%63 : tensor<32xf32>) {
    ^bb0(%in: f32, %out: f32):
      %2742 = arith.cmpf one, %in, %cst_5 : f32
      cf.assert %2742, "unimplemented: tensor with zero element"
      %2743 = arith.divf %cst_6, %in : f32
      linalg.yield %2743 : f32
    } -> tensor<32xf32>
    %expanded_1445 = tensor.expand_shape %2628 [[0, 1]] output_shape [32, 1] : tensor<32xf32> into tensor<32x1xf32>
    %2629 = linalg.generic {indexing_maps = [#map29, #map], iterator_types = ["parallel", "parallel", "parallel"]} ins(%expanded_1445 : tensor<32x1xf32>) outs(%68 : tensor<4x32x1xf32>) {
    ^bb0(%in: f32, %out: f32):
      linalg.yield %in : f32
    } -> tensor<4x32x1xf32>
    %2630 = linalg.batch_matmul ins(%2629, %70 : tensor<4x32x1xf32>, tensor<4x1x1xf32>) outs(%71 : tensor<4x32x1xf32>) -> tensor<4x32x1xf32>
    %transposed_1446 = linalg.transpose ins(%2630 : tensor<4x32x1xf32>) outs(%73 : tensor<4x1x32xf32>) permutation = [0, 2, 1] 
    %2631 = linalg.generic {indexing_maps = [#map, #map], iterator_types = ["parallel", "parallel", "parallel"]} ins(%transposed_1446 : tensor<4x1x32xf32>) outs(%73 : tensor<4x1x32xf32>) {
    ^bb0(%in: f32, %out: f32):
      %2742 = math.cos %in : f32
      linalg.yield %2742 : f32
    } -> tensor<4x1x32xf32>
    %2632 = linalg.generic {indexing_maps = [#map, #map8, #map], iterator_types = ["parallel", "parallel", "parallel"]} ins(%2631, %cst_4 : tensor<4x1x32xf32>, tensor<f32>) outs(%73 : tensor<4x1x32xf32>) {
    ^bb0(%in: f32, %in_1505: f32, %out: f32):
      %2742 = arith.mulf %in, %in_1505 : f32
      linalg.yield %2742 : f32
    } -> tensor<4x1x32xf32>
    %2633 = linalg.generic {indexing_maps = [#map, #map], iterator_types = ["parallel", "parallel", "parallel"]} ins(%2632 : tensor<4x1x32xf32>) outs(%76 : tensor<4x1x32xf16>) {
    ^bb0(%in: f32, %out: f16):
      %2742 = arith.truncf %in : f32 to f16
      linalg.yield %2742 : f16
    } -> tensor<4x1x32xf16>
    %2634 = linalg.generic {indexing_maps = [#map, #map], iterator_types = ["parallel", "parallel", "parallel"]} ins(%transposed_1446 : tensor<4x1x32xf32>) outs(%73 : tensor<4x1x32xf32>) {
    ^bb0(%in: f32, %out: f32):
      %2742 = math.sin %in : f32
      linalg.yield %2742 : f32
    } -> tensor<4x1x32xf32>
    %2635 = linalg.generic {indexing_maps = [#map, #map8, #map], iterator_types = ["parallel", "parallel", "parallel"]} ins(%2634, %cst_4 : tensor<4x1x32xf32>, tensor<f32>) outs(%73 : tensor<4x1x32xf32>) {
    ^bb0(%in: f32, %in_1505: f32, %out: f32):
      %2742 = arith.mulf %in, %in_1505 : f32
      linalg.yield %2742 : f32
    } -> tensor<4x1x32xf32>
    %2636 = linalg.generic {indexing_maps = [#map, #map], iterator_types = ["parallel", "parallel", "parallel"]} ins(%2635 : tensor<4x1x32xf32>) outs(%76 : tensor<4x1x32xf16>) {
    ^bb0(%in: f32, %out: f16):
      %2742 = arith.truncf %in : f32 to f16
      linalg.yield %2742 : f16
    } -> tensor<4x1x32xf16>
    %expanded_1447 = tensor.expand_shape %2633 [[0], [1], [2, 3]] output_shape [4, 1, 1, 32] : tensor<4x1x32xf16> into tensor<4x1x1x32xf16>
    %expanded_1448 = tensor.expand_shape %2636 [[0], [1], [2, 3]] output_shape [4, 1, 1, 32] : tensor<4x1x32xf16> into tensor<4x1x1x32xf16>
    %extracted_slice_1449 = tensor.extract_slice %expanded_1442[0, 0, 0, 0] [4, 1, 32, 32] [1, 1, 1, 2] : tensor<4x1x32x64xf16> to tensor<4x1x32x32xf16>
    %extracted_slice_1450 = tensor.extract_slice %expanded_1442[0, 0, 0, 1] [4, 1, 32, 32] [1, 1, 1, 2] : tensor<4x1x32x64xf16> to tensor<4x1x32x32xf16>
    %2637 = linalg.generic {indexing_maps = [#map9, #map17, #map9], iterator_types = ["parallel", "parallel", "parallel", "parallel"]} ins(%extracted_slice_1449, %expanded_1447 : tensor<4x1x32x32xf16>, tensor<4x1x1x32xf16>) outs(%82 : tensor<4x1x32x32xf16>) {
    ^bb0(%in: f16, %in_1505: f16, %out: f16):
      %2742 = arith.mulf %in, %in_1505 : f16
      linalg.yield %2742 : f16
    } -> tensor<4x1x32x32xf16>
    %2638 = linalg.generic {indexing_maps = [#map9, #map17, #map9], iterator_types = ["parallel", "parallel", "parallel", "parallel"]} ins(%extracted_slice_1450, %expanded_1448 : tensor<4x1x32x32xf16>, tensor<4x1x1x32xf16>) outs(%82 : tensor<4x1x32x32xf16>) {
    ^bb0(%in: f16, %in_1505: f16, %out: f16):
      %2742 = arith.mulf %in, %in_1505 : f16
      linalg.yield %2742 : f16
    } -> tensor<4x1x32x32xf16>
    %2639 = linalg.generic {indexing_maps = [#map9, #map9, #map9], iterator_types = ["parallel", "parallel", "parallel", "parallel"]} ins(%2637, %2638 : tensor<4x1x32x32xf16>, tensor<4x1x32x32xf16>) outs(%82 : tensor<4x1x32x32xf16>) {
    ^bb0(%in: f16, %in_1505: f16, %out: f16):
      %2742 = arith.subf %in, %in_1505 : f16
      linalg.yield %2742 : f16
    } -> tensor<4x1x32x32xf16>
    %2640 = linalg.generic {indexing_maps = [#map9, #map17, #map9], iterator_types = ["parallel", "parallel", "parallel", "parallel"]} ins(%extracted_slice_1450, %expanded_1447 : tensor<4x1x32x32xf16>, tensor<4x1x1x32xf16>) outs(%82 : tensor<4x1x32x32xf16>) {
    ^bb0(%in: f16, %in_1505: f16, %out: f16):
      %2742 = arith.mulf %in, %in_1505 : f16
      linalg.yield %2742 : f16
    } -> tensor<4x1x32x32xf16>
    %2641 = linalg.generic {indexing_maps = [#map9, #map17, #map9], iterator_types = ["parallel", "parallel", "parallel", "parallel"]} ins(%extracted_slice_1449, %expanded_1448 : tensor<4x1x32x32xf16>, tensor<4x1x1x32xf16>) outs(%82 : tensor<4x1x32x32xf16>) {
    ^bb0(%in: f16, %in_1505: f16, %out: f16):
      %2742 = arith.mulf %in, %in_1505 : f16
      linalg.yield %2742 : f16
    } -> tensor<4x1x32x32xf16>
    %2642 = linalg.generic {indexing_maps = [#map9, #map9, #map9], iterator_types = ["parallel", "parallel", "parallel", "parallel"]} ins(%2640, %2641 : tensor<4x1x32x32xf16>, tensor<4x1x32x32xf16>) outs(%82 : tensor<4x1x32x32xf16>) {
    ^bb0(%in: f16, %in_1505: f16, %out: f16):
      %2742 = arith.addf %in, %in_1505 : f16
      linalg.yield %2742 : f16
    } -> tensor<4x1x32x32xf16>
    %2643 = linalg.generic {indexing_maps = [#map11, #map11, #map12], iterator_types = ["parallel", "parallel", "parallel", "parallel", "parallel"]} ins(%2639, %2642 : tensor<4x1x32x32xf16>, tensor<4x1x32x32xf16>) outs(%89 : tensor<4x1x32x2x32xf16>) {
    ^bb0(%in: f16, %in_1505: f16, %out: f16):
      %2742 = linalg.index 3 : index
      %2743 = arith.cmpi eq, %2742, %c0 : index
      %2744 = arith.select %2743, %in, %in_1505 : f16
      linalg.yield %2744 : f16
    } -> tensor<4x1x32x2x32xf16>
    %collapsed_1451 = tensor.collapse_shape %2643 [[0], [1], [2], [3, 4]] : tensor<4x1x32x2x32xf16> into tensor<4x1x32x64xf16>
    %2644 = linalg.generic {indexing_maps = [#map7, #map7], iterator_types = ["parallel"]} ins(%66 : tensor<32xf32>) outs(%63 : tensor<32xf32>) {
    ^bb0(%in: f32, %out: f32):
      %2742 = arith.cmpf one, %in, %cst_5 : f32
      cf.assert %2742, "unimplemented: tensor with zero element"
      %2743 = arith.divf %cst_6, %in : f32
      linalg.yield %2743 : f32
    } -> tensor<32xf32>
    %expanded_1452 = tensor.expand_shape %2644 [[0, 1]] output_shape [32, 1] : tensor<32xf32> into tensor<32x1xf32>
    %2645 = linalg.generic {indexing_maps = [#map29, #map], iterator_types = ["parallel", "parallel", "parallel"]} ins(%expanded_1452 : tensor<32x1xf32>) outs(%68 : tensor<4x32x1xf32>) {
    ^bb0(%in: f32, %out: f32):
      linalg.yield %in : f32
    } -> tensor<4x32x1xf32>
    %2646 = linalg.batch_matmul ins(%2645, %70 : tensor<4x32x1xf32>, tensor<4x1x1xf32>) outs(%71 : tensor<4x32x1xf32>) -> tensor<4x32x1xf32>
    %transposed_1453 = linalg.transpose ins(%2646 : tensor<4x32x1xf32>) outs(%73 : tensor<4x1x32xf32>) permutation = [0, 2, 1] 
    %2647 = linalg.generic {indexing_maps = [#map, #map], iterator_types = ["parallel", "parallel", "parallel"]} ins(%transposed_1453 : tensor<4x1x32xf32>) outs(%73 : tensor<4x1x32xf32>) {
    ^bb0(%in: f32, %out: f32):
      %2742 = math.cos %in : f32
      linalg.yield %2742 : f32
    } -> tensor<4x1x32xf32>
    %2648 = linalg.generic {indexing_maps = [#map, #map8, #map], iterator_types = ["parallel", "parallel", "parallel"]} ins(%2647, %cst_4 : tensor<4x1x32xf32>, tensor<f32>) outs(%73 : tensor<4x1x32xf32>) {
    ^bb0(%in: f32, %in_1505: f32, %out: f32):
      %2742 = arith.mulf %in, %in_1505 : f32
      linalg.yield %2742 : f32
    } -> tensor<4x1x32xf32>
    %2649 = linalg.generic {indexing_maps = [#map, #map], iterator_types = ["parallel", "parallel", "parallel"]} ins(%2648 : tensor<4x1x32xf32>) outs(%76 : tensor<4x1x32xf16>) {
    ^bb0(%in: f32, %out: f16):
      %2742 = arith.truncf %in : f32 to f16
      linalg.yield %2742 : f16
    } -> tensor<4x1x32xf16>
    %2650 = linalg.generic {indexing_maps = [#map, #map], iterator_types = ["parallel", "parallel", "parallel"]} ins(%transposed_1453 : tensor<4x1x32xf32>) outs(%73 : tensor<4x1x32xf32>) {
    ^bb0(%in: f32, %out: f32):
      %2742 = math.sin %in : f32
      linalg.yield %2742 : f32
    } -> tensor<4x1x32xf32>
    %2651 = linalg.generic {indexing_maps = [#map, #map8, #map], iterator_types = ["parallel", "parallel", "parallel"]} ins(%2650, %cst_4 : tensor<4x1x32xf32>, tensor<f32>) outs(%73 : tensor<4x1x32xf32>) {
    ^bb0(%in: f32, %in_1505: f32, %out: f32):
      %2742 = arith.mulf %in, %in_1505 : f32
      linalg.yield %2742 : f32
    } -> tensor<4x1x32xf32>
    %2652 = linalg.generic {indexing_maps = [#map, #map], iterator_types = ["parallel", "parallel", "parallel"]} ins(%2651 : tensor<4x1x32xf32>) outs(%76 : tensor<4x1x32xf16>) {
    ^bb0(%in: f32, %out: f16):
      %2742 = arith.truncf %in : f32 to f16
      linalg.yield %2742 : f16
    } -> tensor<4x1x32xf16>
    %expanded_1454 = tensor.expand_shape %2649 [[0], [1], [2, 3]] output_shape [4, 1, 1, 32] : tensor<4x1x32xf16> into tensor<4x1x1x32xf16>
    %expanded_1455 = tensor.expand_shape %2652 [[0], [1], [2, 3]] output_shape [4, 1, 1, 32] : tensor<4x1x32xf16> into tensor<4x1x1x32xf16>
    %extracted_slice_1456 = tensor.extract_slice %expanded_1443[0, 0, 0, 0] [4, 1, 4, 32] [1, 1, 1, 2] : tensor<4x1x4x64xf16> to tensor<4x1x4x32xf16>
    %extracted_slice_1457 = tensor.extract_slice %expanded_1443[0, 0, 0, 1] [4, 1, 4, 32] [1, 1, 1, 2] : tensor<4x1x4x64xf16> to tensor<4x1x4x32xf16>
    %2653 = linalg.generic {indexing_maps = [#map9, #map17, #map9], iterator_types = ["parallel", "parallel", "parallel", "parallel"]} ins(%extracted_slice_1456, %expanded_1454 : tensor<4x1x4x32xf16>, tensor<4x1x1x32xf16>) outs(%100 : tensor<4x1x4x32xf16>) {
    ^bb0(%in: f16, %in_1505: f16, %out: f16):
      %2742 = arith.mulf %in, %in_1505 : f16
      linalg.yield %2742 : f16
    } -> tensor<4x1x4x32xf16>
    %2654 = linalg.generic {indexing_maps = [#map9, #map17, #map9], iterator_types = ["parallel", "parallel", "parallel", "parallel"]} ins(%extracted_slice_1457, %expanded_1455 : tensor<4x1x4x32xf16>, tensor<4x1x1x32xf16>) outs(%100 : tensor<4x1x4x32xf16>) {
    ^bb0(%in: f16, %in_1505: f16, %out: f16):
      %2742 = arith.mulf %in, %in_1505 : f16
      linalg.yield %2742 : f16
    } -> tensor<4x1x4x32xf16>
    %2655 = linalg.generic {indexing_maps = [#map9, #map9, #map9], iterator_types = ["parallel", "parallel", "parallel", "parallel"]} ins(%2653, %2654 : tensor<4x1x4x32xf16>, tensor<4x1x4x32xf16>) outs(%100 : tensor<4x1x4x32xf16>) {
    ^bb0(%in: f16, %in_1505: f16, %out: f16):
      %2742 = arith.subf %in, %in_1505 : f16
      linalg.yield %2742 : f16
    } -> tensor<4x1x4x32xf16>
    %2656 = linalg.generic {indexing_maps = [#map9, #map17, #map9], iterator_types = ["parallel", "parallel", "parallel", "parallel"]} ins(%extracted_slice_1457, %expanded_1454 : tensor<4x1x4x32xf16>, tensor<4x1x1x32xf16>) outs(%100 : tensor<4x1x4x32xf16>) {
    ^bb0(%in: f16, %in_1505: f16, %out: f16):
      %2742 = arith.mulf %in, %in_1505 : f16
      linalg.yield %2742 : f16
    } -> tensor<4x1x4x32xf16>
    %2657 = linalg.generic {indexing_maps = [#map9, #map17, #map9], iterator_types = ["parallel", "parallel", "parallel", "parallel"]} ins(%extracted_slice_1456, %expanded_1455 : tensor<4x1x4x32xf16>, tensor<4x1x1x32xf16>) outs(%100 : tensor<4x1x4x32xf16>) {
    ^bb0(%in: f16, %in_1505: f16, %out: f16):
      %2742 = arith.mulf %in, %in_1505 : f16
      linalg.yield %2742 : f16
    } -> tensor<4x1x4x32xf16>
    %2658 = linalg.generic {indexing_maps = [#map9, #map9, #map9], iterator_types = ["parallel", "parallel", "parallel", "parallel"]} ins(%2656, %2657 : tensor<4x1x4x32xf16>, tensor<4x1x4x32xf16>) outs(%100 : tensor<4x1x4x32xf16>) {
    ^bb0(%in: f16, %in_1505: f16, %out: f16):
      %2742 = arith.addf %in, %in_1505 : f16
      linalg.yield %2742 : f16
    } -> tensor<4x1x4x32xf16>
    %2659 = linalg.generic {indexing_maps = [#map11, #map11, #map12], iterator_types = ["parallel", "parallel", "parallel", "parallel", "parallel"]} ins(%2655, %2658 : tensor<4x1x4x32xf16>, tensor<4x1x4x32xf16>) outs(%107 : tensor<4x1x4x2x32xf16>) {
    ^bb0(%in: f16, %in_1505: f16, %out: f16):
      %2742 = linalg.index 3 : index
      %2743 = arith.cmpi eq, %2742, %c0 : index
      %2744 = arith.select %2743, %in, %in_1505 : f16
      linalg.yield %2744 : f16
    } -> tensor<4x1x4x2x32xf16>
    %2660 = linalg.generic {indexing_maps = [#map13, #map13], iterator_types = ["parallel", "parallel"]} ins(%expanded_44 : tensor<4x1xi64>) outs(%111 : tensor<4x1xi64>) {
    ^bb0(%in: i64, %out: i64):
      %2742 = linalg.index 0 : index
      %2743 = arith.index_cast %in : i64 to index
      %2744 = arith.cmpi slt, %2743, %7 : index
      cf.assert %2744, "index must be smaller than dim size"
      %2745 = arith.cmpi sge, %in, %c0_i64 : i64
      cf.assert %2745, "index must be larger or equal to 0"
      %extracted = tensor.extract %8[%2742, %2743] : tensor<4x?xi64>
      linalg.yield %extracted : i64
    } -> tensor<4x1xi64>
    %expanded_1458 = tensor.expand_shape %2660 [[0], [1, 2]] output_shape [4, 1, 1] : tensor<4x1xi64> into tensor<4x1x1xi64>
    %2661 = linalg.generic {indexing_maps = [#map, #map], iterator_types = ["parallel", "parallel", "parallel"]} ins(%expanded_1458 : tensor<4x1x1xi64>) outs(%115 : tensor<4x1x1xi64>) {
    ^bb0(%in: i64, %out: i64):
      %2742 = arith.muli %in, %c22_i64 : i64
      linalg.yield %2742 : i64
    } -> tensor<4x1x1xi64>
    %2662 = linalg.generic {indexing_maps = [#map, #map], iterator_types = ["parallel", "parallel", "parallel"]} ins(%2661 : tensor<4x1x1xi64>) outs(%115 : tensor<4x1x1xi64>) {
    ^bb0(%in: i64, %out: i64):
      %2742 = arith.addi %in, %c21_i64 : i64
      linalg.yield %2742 : i64
    } -> tensor<4x1x1xi64>
    %2663 = linalg.generic {indexing_maps = [#map, #map], iterator_types = ["parallel", "parallel", "parallel"]} ins(%2662 : tensor<4x1x1xi64>) outs(%115 : tensor<4x1x1xi64>) {
    ^bb0(%in: i64, %out: i64):
      %2742 = arith.muli %in, %c2_i64 : i64
      linalg.yield %2742 : i64
    } -> tensor<4x1x1xi64>
    %2664 = linalg.generic {indexing_maps = [#map, #map30, #map], iterator_types = ["parallel", "parallel", "parallel"]} ins(%2663, %cst_1 : tensor<4x1x1xi64>, tensor<1x1x1xi64>) outs(%115 : tensor<4x1x1xi64>) {
    ^bb0(%in: i64, %in_1505: i64, %out: i64):
      %2742 = arith.addi %in, %in_1505 : i64
      linalg.yield %2742 : i64
    } -> tensor<4x1x1xi64>
    %2665 = linalg.generic {indexing_maps = [#map, #map], iterator_types = ["parallel", "parallel", "parallel"]} ins(%2664 : tensor<4x1x1xi64>) outs(%115 : tensor<4x1x1xi64>) {
    ^bb0(%in: i64, %out: i64):
      %2742 = arith.muli %in, %c4_i64 : i64
      linalg.yield %2742 : i64
    } -> tensor<4x1x1xi64>
    %2666 = linalg.generic {indexing_maps = [#map1, #map30, #map], iterator_types = ["parallel", "parallel", "parallel"]} ins(%2665, %expanded_47 : tensor<4x1x1xi64>, tensor<1x1x4xi64>) outs(%120 : tensor<4x1x4xi64>) {
    ^bb0(%in: i64, %in_1505: i64, %out: i64):
      %2742 = arith.addi %in, %in_1505 : i64
      linalg.yield %2742 : i64
    } -> tensor<4x1x4xi64>
    %2667 = linalg.generic {indexing_maps = [#map, #map], iterator_types = ["parallel", "parallel", "parallel"]} ins(%2666 : tensor<4x1x4xi64>) outs(%120 : tensor<4x1x4xi64>) {
    ^bb0(%in: i64, %out: i64):
      %2742 = arith.muli %in, %c32_i64 : i64
      linalg.yield %2742 : i64
    } -> tensor<4x1x4xi64>
    %2668 = linalg.generic {indexing_maps = [#map, #map1, #map], iterator_types = ["parallel", "parallel", "parallel"]} ins(%2667, %expanded_46 : tensor<4x1x4xi64>, tensor<4x1x1xi64>) outs(%120 : tensor<4x1x4xi64>) {
    ^bb0(%in: i64, %in_1505: i64, %out: i64):
      %2742 = arith.addi %in, %in_1505 : i64
      linalg.yield %2742 : i64
    } -> tensor<4x1x4xi64>
    %collapsed_1459 = tensor.collapse_shape %2668 [[0, 1, 2]] : tensor<4x1x4xi64> into tensor<16xi64>
    %expanded_1460 = tensor.expand_shape %collapsed_1459 [[0, 1]] output_shape [16, 1] : tensor<16xi64> into tensor<16x1xi64>
    %collapsed_1461 = tensor.collapse_shape %2659 [[0, 1, 2], [3, 4]] : tensor<4x1x4x2x32xf16> into tensor<16x64xf16>
    %2669 = iree_linalg_ext.scatter dimension_map = [0] unique_indices(true) ins(%collapsed_1461, %expanded_1460 : tensor<16x64xf16>, tensor<16x1xi64>) outs(%2555 : tensor<?x64xf16>) {
    ^bb0(%arg7: f16, %arg8: f16):
      iree_linalg_ext.yield %arg7 : f16
    } -> tensor<?x64xf16>
    %2670 = linalg.generic {indexing_maps = [#map, #map30, #map], iterator_types = ["parallel", "parallel", "parallel"]} ins(%2663, %cst_0 : tensor<4x1x1xi64>, tensor<1x1x1xi64>) outs(%115 : tensor<4x1x1xi64>) {
    ^bb0(%in: i64, %in_1505: i64, %out: i64):
      %2742 = arith.addi %in, %in_1505 : i64
      linalg.yield %2742 : i64
    } -> tensor<4x1x1xi64>
    %2671 = linalg.generic {indexing_maps = [#map, #map], iterator_types = ["parallel", "parallel", "parallel"]} ins(%2670 : tensor<4x1x1xi64>) outs(%115 : tensor<4x1x1xi64>) {
    ^bb0(%in: i64, %out: i64):
      %2742 = arith.muli %in, %c4_i64 : i64
      linalg.yield %2742 : i64
    } -> tensor<4x1x1xi64>
    %2672 = linalg.generic {indexing_maps = [#map1, #map30, #map], iterator_types = ["parallel", "parallel", "parallel"]} ins(%2671, %expanded_47 : tensor<4x1x1xi64>, tensor<1x1x4xi64>) outs(%120 : tensor<4x1x4xi64>) {
    ^bb0(%in: i64, %in_1505: i64, %out: i64):
      %2742 = arith.addi %in, %in_1505 : i64
      linalg.yield %2742 : i64
    } -> tensor<4x1x4xi64>
    %2673 = linalg.generic {indexing_maps = [#map, #map], iterator_types = ["parallel", "parallel", "parallel"]} ins(%2672 : tensor<4x1x4xi64>) outs(%120 : tensor<4x1x4xi64>) {
    ^bb0(%in: i64, %out: i64):
      %2742 = arith.muli %in, %c32_i64 : i64
      linalg.yield %2742 : i64
    } -> tensor<4x1x4xi64>
    %2674 = linalg.generic {indexing_maps = [#map, #map1, #map], iterator_types = ["parallel", "parallel", "parallel"]} ins(%2673, %expanded_46 : tensor<4x1x4xi64>, tensor<4x1x1xi64>) outs(%120 : tensor<4x1x4xi64>) {
    ^bb0(%in: i64, %in_1505: i64, %out: i64):
      %2742 = arith.addi %in, %in_1505 : i64
      linalg.yield %2742 : i64
    } -> tensor<4x1x4xi64>
    %collapsed_1462 = tensor.collapse_shape %2674 [[0, 1, 2]] : tensor<4x1x4xi64> into tensor<16xi64>
    %expanded_1463 = tensor.expand_shape %collapsed_1462 [[0, 1]] output_shape [16, 1] : tensor<16xi64> into tensor<16x1xi64>
    %collapsed_1464 = tensor.collapse_shape %expanded_1444 [[0, 1, 2], [3]] : tensor<4x1x4x64xf16> into tensor<16x64xf16>
    %2675 = iree_linalg_ext.scatter dimension_map = [0] unique_indices(true) ins(%collapsed_1464, %expanded_1463 : tensor<16x64xf16>, tensor<16x1xi64>) outs(%2669 : tensor<?x64xf16>) {
    ^bb0(%arg7: f16, %arg8: f16):
      iree_linalg_ext.yield %arg7 : f16
    } -> tensor<?x64xf16>
    %expanded_1465 = tensor.expand_shape %2675 [[0, 1, 2, 3, 4], [5]] output_shape [%131, 22, 2, 4, 32, 64] : tensor<?x64xf16> into tensor<?x22x2x4x32x64xf16>
    %collapsed_1466 = tensor.collapse_shape %expanded_1465 [[0], [1, 2, 3, 4, 5]] : tensor<?x22x2x4x32x64xf16> into tensor<?x360448xf16>
    %dim_1467 = tensor.dim %expanded_1465, %c0 : tensor<?x22x2x4x32x64xf16>
    %extracted_slice_1468 = tensor.extract_slice %expanded_1465[0, 21, 0, 0, 0, 0] [%dim_1467, 1, 1, 4, 32, 64] [1, 1, 1, 1, 1, 1] : tensor<?x22x2x4x32x64xf16> to tensor<?x4x32x64xf16>
    %2676 = iree_linalg_ext.gather dimension_map = [0] ins(%extracted_slice_1468, %8 : tensor<?x4x32x64xf16>, tensor<4x?xi64>) outs(%132 : tensor<4x?x4x32x64xf16>) -> tensor<4x?x4x32x64xf16>
    %extracted_slice_1469 = tensor.extract_slice %expanded_1465[0, 21, 1, 0, 0, 0] [%dim_1467, 1, 1, 4, 32, 64] [1, 1, 1, 1, 1, 1] : tensor<?x22x2x4x32x64xf16> to tensor<?x4x32x64xf16>
    %2677 = iree_linalg_ext.gather dimension_map = [0] ins(%extracted_slice_1469, %8 : tensor<?x4x32x64xf16>, tensor<4x?xi64>) outs(%132 : tensor<4x?x4x32x64xf16>) -> tensor<4x?x4x32x64xf16>
    %transposed_1470 = linalg.transpose ins(%2676 : tensor<4x?x4x32x64xf16>) outs(%135 : tensor<4x?x32x4x64xf16>) permutation = [0, 1, 3, 2, 4] 
    %collapsed_1471 = tensor.collapse_shape %transposed_1470 [[0], [1, 2], [3], [4]] : tensor<4x?x32x4x64xf16> into tensor<4x?x4x64xf16>
    %transposed_1472 = linalg.transpose ins(%2677 : tensor<4x?x4x32x64xf16>) outs(%135 : tensor<4x?x32x4x64xf16>) permutation = [0, 1, 3, 2, 4] 
    %collapsed_1473 = tensor.collapse_shape %transposed_1472 [[0], [1, 2], [3], [4]] : tensor<4x?x32x4x64xf16> into tensor<4x?x4x64xf16>
    %2678 = linalg.generic {indexing_maps = [#map11, #map12], iterator_types = ["parallel", "parallel", "parallel", "parallel", "parallel"]} ins(%collapsed_1471 : tensor<4x?x4x64xf16>) outs(%146 : tensor<4x?x4x8x64xf16>) {
    ^bb0(%in: f16, %out: f16):
      linalg.yield %in : f16
    } -> tensor<4x?x4x8x64xf16>
    %collapsed_1474 = tensor.collapse_shape %2678 [[0], [1], [2, 3], [4]] : tensor<4x?x4x8x64xf16> into tensor<4x?x32x64xf16>
    %2679 = linalg.generic {indexing_maps = [#map11, #map12], iterator_types = ["parallel", "parallel", "parallel", "parallel", "parallel"]} ins(%collapsed_1473 : tensor<4x?x4x64xf16>) outs(%146 : tensor<4x?x4x8x64xf16>) {
    ^bb0(%in: f16, %out: f16):
      linalg.yield %in : f16
    } -> tensor<4x?x4x8x64xf16>
    %collapsed_1475 = tensor.collapse_shape %2679 [[0], [1], [2, 3], [4]] : tensor<4x?x4x8x64xf16> into tensor<4x?x32x64xf16>
    %transposed_1476 = linalg.transpose ins(%collapsed_1451 : tensor<4x1x32x64xf16>) outs(%149 : tensor<4x32x1x64xf16>) permutation = [0, 2, 1, 3] 
    %transposed_1477 = linalg.transpose ins(%collapsed_1474 : tensor<4x?x32x64xf16>) outs(%151 : tensor<4x32x?x64xf16>) permutation = [0, 2, 1, 3] 
    %transposed_1478 = linalg.transpose ins(%collapsed_1475 : tensor<4x?x32x64xf16>) outs(%151 : tensor<4x32x?x64xf16>) permutation = [0, 2, 1, 3] 
    %collapsed_1479 = tensor.collapse_shape %transposed_1476 [[0, 1], [2], [3]] : tensor<4x32x1x64xf16> into tensor<128x1x64xf16>
    %collapsed_1480 = tensor.collapse_shape %transposed_1477 [[0, 1], [2], [3]] : tensor<4x32x?x64xf16> into tensor<128x?x64xf16>
    %collapsed_1481 = tensor.collapse_shape %transposed_1478 [[0, 1], [2], [3]] : tensor<4x32x?x64xf16> into tensor<128x?x64xf16>
    %2680 = iree_linalg_ext.attention {indexing_maps = [#map23, #map24, #map25, #map26, #map27, #map6]} ins(%collapsed_1479, %collapsed_1480, %collapsed_1481, %cst, %collapsed_73 : tensor<128x1x64xf16>, tensor<128x?x64xf16>, tensor<128x?x64xf16>, f16, tensor<128x1x?xf16>) outs(%154 : tensor<128x1x64xf16>) {
    ^bb0(%arg7: f32):
      iree_linalg_ext.yield %arg7 : f32
    } -> tensor<128x1x64xf16>
    %expanded_1482 = tensor.expand_shape %2680 [[0, 1], [2], [3]] output_shape [4, 32, 1, 64] : tensor<128x1x64xf16> into tensor<4x32x1x64xf16>
    %transposed_1483 = linalg.transpose ins(%expanded_1482 : tensor<4x32x1x64xf16>) outs(%81 : tensor<4x1x32x64xf16>) permutation = [0, 2, 1, 3] 
    %collapsed_1484 = tensor.collapse_shape %transposed_1483 [[0], [1], [2, 3]] : tensor<4x1x32x64xf16> into tensor<4x1x2048xf16>
    %2681 = iree_tensor_ext.bitcast %__auto.blk.21.attn_output.weight : tensor<2048x2176xi8> -> tensor<2048x1088xi16>
    %expanded_1485 = tensor.expand_shape %2681 [[0], [1, 2]] output_shape [2048, 64, 17] : tensor<2048x1088xi16> into tensor<2048x64x17xi16>
    %extracted_slice_1486 = tensor.extract_slice %expanded_1485[0, 0, 0] [2048, 64, 1] [1, 1, 1] : tensor<2048x64x17xi16> to tensor<2048x64x1xi16>
    %2682 = iree_tensor_ext.bitcast %extracted_slice_1486 : tensor<2048x64x1xi16> -> tensor<2048x64x1xf16>
    %extracted_slice_1487 = tensor.extract_slice %expanded_1485[0, 0, 1] [2048, 64, 16] [1, 1, 1] : tensor<2048x64x17xi16> to tensor<2048x64x16xi16>
    %2683 = iree_tensor_ext.bitcast %extracted_slice_1487 : tensor<2048x64x16xi16> -> tensor<2048x64x32xi8>
    %2684 = linalg.generic {indexing_maps = [#map1, #map, #map], iterator_types = ["parallel", "parallel", "parallel"]} ins(%2682, %2683 : tensor<2048x64x1xf16>, tensor<2048x64x32xi8>) outs(%36 : tensor<2048x64x32xf16>) {
    ^bb0(%in: f16, %in_1505: i8, %out: f16):
      %2742 = arith.extsi %in_1505 : i8 to i32
      %2743 = arith.sitofp %2742 : i32 to f16
      %2744 = arith.mulf %2743, %in : f16
      linalg.yield %2744 : f16
    } -> tensor<2048x64x32xf16>
    %expanded_1488 = tensor.expand_shape %collapsed_1484 [[0], [1], [2, 3]] output_shape [4, 1, 64, 32] : tensor<4x1x2048xf16> into tensor<4x1x64x32xf16>
    %2685 = linalg.generic {indexing_maps = [#map4, #map5, #map6], iterator_types = ["parallel", "parallel", "parallel", "reduction", "reduction"]} ins(%expanded_1488, %2684 : tensor<4x1x64x32xf16>, tensor<2048x64x32xf16>) outs(%38 : tensor<4x1x2048xf32>) {
    ^bb0(%in: f16, %in_1505: f16, %out: f32):
      %2742 = arith.mulf %in, %in_1505 : f16
      %2743 = arith.extf %2742 : f16 to f32
      %2744 = arith.addf %2743, %out : f32
      linalg.yield %2744 : f32
    } -> tensor<4x1x2048xf32>
    %2686 = linalg.copy ins(%2685 : tensor<4x1x2048xf32>) outs(%18 : tensor<4x1x2048xf16>) -> tensor<4x1x2048xf16>
    %2687 = linalg.generic {indexing_maps = [#map, #map, #map], iterator_types = ["parallel", "parallel", "parallel"]} ins(%2599, %2686 : tensor<4x1x2048xf16>, tensor<4x1x2048xf16>) outs(%18 : tensor<4x1x2048xf16>) {
    ^bb0(%in: f16, %in_1505: f16, %out: f16):
      %2742 = arith.addf %in, %in_1505 : f16
      linalg.yield %2742 : f16
    } -> tensor<4x1x2048xf16>
    %2688 = linalg.generic {indexing_maps = [#map, #map], iterator_types = ["parallel", "parallel", "parallel"]} ins(%2687 : tensor<4x1x2048xf16>) outs(%20 : tensor<4x1x2048xf32>) {
    ^bb0(%in: f16, %out: f32):
      %2742 = arith.extf %in : f16 to f32
      linalg.yield %2742 : f32
    } -> tensor<4x1x2048xf32>
    %2689 = linalg.generic {indexing_maps = [#map, #map], iterator_types = ["parallel", "parallel", "parallel"]} ins(%2688 : tensor<4x1x2048xf32>) outs(%20 : tensor<4x1x2048xf32>) {
    ^bb0(%in: f32, %out: f32):
      %2742 = math.fpowi %in, %c2_i64 : f32, i64
      linalg.yield %2742 : f32
    } -> tensor<4x1x2048xf32>
    %2690 = linalg.generic {indexing_maps = [#map, #map1], iterator_types = ["parallel", "parallel", "reduction"]} ins(%2689 : tensor<4x1x2048xf32>) outs(%24 : tensor<4x1x1xf32>) {
    ^bb0(%in: f32, %out: f32):
      %2742 = arith.addf %in, %out : f32
      linalg.yield %2742 : f32
    } -> tensor<4x1x1xf32>
    %2691 = linalg.generic {indexing_maps = [#map, #map], iterator_types = ["parallel", "parallel", "parallel"]} ins(%2690 : tensor<4x1x1xf32>) outs(%23 : tensor<4x1x1xf32>) {
    ^bb0(%in: f32, %out: f32):
      %2742 = arith.divf %in, %cst_8 : f32
      linalg.yield %2742 : f32
    } -> tensor<4x1x1xf32>
    %2692 = linalg.generic {indexing_maps = [#map, #map], iterator_types = ["parallel", "parallel", "parallel"]} ins(%2691 : tensor<4x1x1xf32>) outs(%23 : tensor<4x1x1xf32>) {
    ^bb0(%in: f32, %out: f32):
      %2742 = arith.addf %in, %cst_9 : f32
      linalg.yield %2742 : f32
    } -> tensor<4x1x1xf32>
    %2693 = linalg.generic {indexing_maps = [#map, #map], iterator_types = ["parallel", "parallel", "parallel"]} ins(%2692 : tensor<4x1x1xf32>) outs(%23 : tensor<4x1x1xf32>) {
    ^bb0(%in: f32, %out: f32):
      %2742 = math.rsqrt %in : f32
      linalg.yield %2742 : f32
    } -> tensor<4x1x1xf32>
    %2694 = linalg.generic {indexing_maps = [#map, #map1, #map], iterator_types = ["parallel", "parallel", "parallel"]} ins(%2688, %2693 : tensor<4x1x2048xf32>, tensor<4x1x1xf32>) outs(%20 : tensor<4x1x2048xf32>) {
    ^bb0(%in: f32, %in_1505: f32, %out: f32):
      %2742 = arith.mulf %in, %in_1505 : f32
      linalg.yield %2742 : f32
    } -> tensor<4x1x2048xf32>
    %2695 = linalg.generic {indexing_maps = [#map, #map], iterator_types = ["parallel", "parallel", "parallel"]} ins(%2694 : tensor<4x1x2048xf32>) outs(%18 : tensor<4x1x2048xf16>) {
    ^bb0(%in: f32, %out: f16):
      %2742 = arith.truncf %in : f32 to f16
      linalg.yield %2742 : f16
    } -> tensor<4x1x2048xf16>
    %2696 = linalg.generic {indexing_maps = [#map3, #map, #map], iterator_types = ["parallel", "parallel", "parallel"]} ins(%__auto.blk.21.ffn_norm.weight, %2695 : tensor<2048xf32>, tensor<4x1x2048xf16>) outs(%20 : tensor<4x1x2048xf32>) {
    ^bb0(%in: f32, %in_1505: f16, %out: f32):
      %2742 = arith.extf %in_1505 : f16 to f32
      %2743 = arith.mulf %in, %2742 : f32
      linalg.yield %2743 : f32
    } -> tensor<4x1x2048xf32>
    %2697 = linalg.generic {indexing_maps = [#map, #map], iterator_types = ["parallel", "parallel", "parallel"]} ins(%2696 : tensor<4x1x2048xf32>) outs(%18 : tensor<4x1x2048xf16>) {
    ^bb0(%in: f32, %out: f16):
      %2742 = arith.truncf %in : f32 to f16
      linalg.yield %2742 : f16
    } -> tensor<4x1x2048xf16>
    %2698 = iree_tensor_ext.bitcast %__auto.blk.21.ffn_gate.weight : tensor<5632x2176xi8> -> tensor<5632x1088xi16>
    %expanded_1489 = tensor.expand_shape %2698 [[0], [1, 2]] output_shape [5632, 64, 17] : tensor<5632x1088xi16> into tensor<5632x64x17xi16>
    %extracted_slice_1490 = tensor.extract_slice %expanded_1489[0, 0, 0] [5632, 64, 1] [1, 1, 1] : tensor<5632x64x17xi16> to tensor<5632x64x1xi16>
    %2699 = iree_tensor_ext.bitcast %extracted_slice_1490 : tensor<5632x64x1xi16> -> tensor<5632x64x1xf16>
    %extracted_slice_1491 = tensor.extract_slice %expanded_1489[0, 0, 1] [5632, 64, 16] [1, 1, 1] : tensor<5632x64x17xi16> to tensor<5632x64x16xi16>
    %2700 = iree_tensor_ext.bitcast %extracted_slice_1491 : tensor<5632x64x16xi16> -> tensor<5632x64x32xi8>
    %2701 = linalg.generic {indexing_maps = [#map1, #map, #map], iterator_types = ["parallel", "parallel", "parallel"]} ins(%2699, %2700 : tensor<5632x64x1xf16>, tensor<5632x64x32xi8>) outs(%176 : tensor<5632x64x32xf16>) {
    ^bb0(%in: f16, %in_1505: i8, %out: f16):
      %2742 = arith.extsi %in_1505 : i8 to i32
      %2743 = arith.sitofp %2742 : i32 to f16
      %2744 = arith.mulf %2743, %in : f16
      linalg.yield %2744 : f16
    } -> tensor<5632x64x32xf16>
    %expanded_1492 = tensor.expand_shape %2697 [[0], [1], [2, 3]] output_shape [4, 1, 64, 32] : tensor<4x1x2048xf16> into tensor<4x1x64x32xf16>
    %2702 = linalg.generic {indexing_maps = [#map4, #map5, #map6], iterator_types = ["parallel", "parallel", "parallel", "reduction", "reduction"]} ins(%expanded_1492, %2701 : tensor<4x1x64x32xf16>, tensor<5632x64x32xf16>) outs(%179 : tensor<4x1x5632xf32>) {
    ^bb0(%in: f16, %in_1505: f16, %out: f32):
      %2742 = arith.mulf %in, %in_1505 : f16
      %2743 = arith.extf %2742 : f16 to f32
      %2744 = arith.addf %2743, %out : f32
      linalg.yield %2744 : f32
    } -> tensor<4x1x5632xf32>
    %2703 = linalg.copy ins(%2702 : tensor<4x1x5632xf32>) outs(%181 : tensor<4x1x5632xf16>) -> tensor<4x1x5632xf16>
    %2704 = linalg.generic {indexing_maps = [#map, #map], iterator_types = ["parallel", "parallel", "parallel"]} ins(%2703 : tensor<4x1x5632xf16>) outs(%181 : tensor<4x1x5632xf16>) {
    ^bb0(%in: f16, %out: f16):
      %2742 = arith.negf %in : f16
      %2743 = math.exp %2742 : f16
      %2744 = arith.addf %2743, %cst_7 : f16
      %2745 = arith.divf %cst_7, %2744 : f16
      linalg.yield %2745 : f16
    } -> tensor<4x1x5632xf16>
    %2705 = linalg.generic {indexing_maps = [#map, #map, #map], iterator_types = ["parallel", "parallel", "parallel"]} ins(%2704, %2703 : tensor<4x1x5632xf16>, tensor<4x1x5632xf16>) outs(%181 : tensor<4x1x5632xf16>) {
    ^bb0(%in: f16, %in_1505: f16, %out: f16):
      %2742 = arith.mulf %in, %in_1505 : f16
      linalg.yield %2742 : f16
    } -> tensor<4x1x5632xf16>
    %2706 = iree_tensor_ext.bitcast %__auto.blk.21.ffn_up.weight : tensor<5632x2176xi8> -> tensor<5632x1088xi16>
    %expanded_1493 = tensor.expand_shape %2706 [[0], [1, 2]] output_shape [5632, 64, 17] : tensor<5632x1088xi16> into tensor<5632x64x17xi16>
    %extracted_slice_1494 = tensor.extract_slice %expanded_1493[0, 0, 0] [5632, 64, 1] [1, 1, 1] : tensor<5632x64x17xi16> to tensor<5632x64x1xi16>
    %2707 = iree_tensor_ext.bitcast %extracted_slice_1494 : tensor<5632x64x1xi16> -> tensor<5632x64x1xf16>
    %extracted_slice_1495 = tensor.extract_slice %expanded_1493[0, 0, 1] [5632, 64, 16] [1, 1, 1] : tensor<5632x64x17xi16> to tensor<5632x64x16xi16>
    %2708 = iree_tensor_ext.bitcast %extracted_slice_1495 : tensor<5632x64x16xi16> -> tensor<5632x64x32xi8>
    %2709 = linalg.generic {indexing_maps = [#map1, #map, #map], iterator_types = ["parallel", "parallel", "parallel"]} ins(%2707, %2708 : tensor<5632x64x1xf16>, tensor<5632x64x32xi8>) outs(%176 : tensor<5632x64x32xf16>) {
    ^bb0(%in: f16, %in_1505: i8, %out: f16):
      %2742 = arith.extsi %in_1505 : i8 to i32
      %2743 = arith.sitofp %2742 : i32 to f16
      %2744 = arith.mulf %2743, %in : f16
      linalg.yield %2744 : f16
    } -> tensor<5632x64x32xf16>
    %2710 = linalg.generic {indexing_maps = [#map4, #map5, #map6], iterator_types = ["parallel", "parallel", "parallel", "reduction", "reduction"]} ins(%expanded_1492, %2709 : tensor<4x1x64x32xf16>, tensor<5632x64x32xf16>) outs(%179 : tensor<4x1x5632xf32>) {
    ^bb0(%in: f16, %in_1505: f16, %out: f32):
      %2742 = arith.mulf %in, %in_1505 : f16
      %2743 = arith.extf %2742 : f16 to f32
      %2744 = arith.addf %2743, %out : f32
      linalg.yield %2744 : f32
    } -> tensor<4x1x5632xf32>
    %2711 = linalg.copy ins(%2710 : tensor<4x1x5632xf32>) outs(%181 : tensor<4x1x5632xf16>) -> tensor<4x1x5632xf16>
    %2712 = linalg.generic {indexing_maps = [#map, #map, #map], iterator_types = ["parallel", "parallel", "parallel"]} ins(%2705, %2711 : tensor<4x1x5632xf16>, tensor<4x1x5632xf16>) outs(%181 : tensor<4x1x5632xf16>) {
    ^bb0(%in: f16, %in_1505: f16, %out: f16):
      %2742 = arith.mulf %in, %in_1505 : f16
      linalg.yield %2742 : f16
    } -> tensor<4x1x5632xf16>
    %2713 = iree_tensor_ext.bitcast %__auto.blk.21.ffn_down.weight : tensor<2048x5984xi8> -> tensor<2048x2992xi16>
    %expanded_1496 = tensor.expand_shape %2713 [[0], [1, 2]] output_shape [2048, 176, 17] : tensor<2048x2992xi16> into tensor<2048x176x17xi16>
    %extracted_slice_1497 = tensor.extract_slice %expanded_1496[0, 0, 0] [2048, 176, 1] [1, 1, 1] : tensor<2048x176x17xi16> to tensor<2048x176x1xi16>
    %2714 = iree_tensor_ext.bitcast %extracted_slice_1497 : tensor<2048x176x1xi16> -> tensor<2048x176x1xf16>
    %extracted_slice_1498 = tensor.extract_slice %expanded_1496[0, 0, 1] [2048, 176, 16] [1, 1, 1] : tensor<2048x176x17xi16> to tensor<2048x176x16xi16>
    %2715 = iree_tensor_ext.bitcast %extracted_slice_1498 : tensor<2048x176x16xi16> -> tensor<2048x176x32xi8>
    %2716 = linalg.generic {indexing_maps = [#map1, #map, #map], iterator_types = ["parallel", "parallel", "parallel"]} ins(%2714, %2715 : tensor<2048x176x1xf16>, tensor<2048x176x32xi8>) outs(%195 : tensor<2048x176x32xf16>) {
    ^bb0(%in: f16, %in_1505: i8, %out: f16):
      %2742 = arith.extsi %in_1505 : i8 to i32
      %2743 = arith.sitofp %2742 : i32 to f16
      %2744 = arith.mulf %2743, %in : f16
      linalg.yield %2744 : f16
    } -> tensor<2048x176x32xf16>
    %expanded_1499 = tensor.expand_shape %2712 [[0], [1], [2, 3]] output_shape [4, 1, 176, 32] : tensor<4x1x5632xf16> into tensor<4x1x176x32xf16>
    %2717 = linalg.generic {indexing_maps = [#map4, #map5, #map6], iterator_types = ["parallel", "parallel", "parallel", "reduction", "reduction"]} ins(%expanded_1499, %2716 : tensor<4x1x176x32xf16>, tensor<2048x176x32xf16>) outs(%38 : tensor<4x1x2048xf32>) {
    ^bb0(%in: f16, %in_1505: f16, %out: f32):
      %2742 = arith.mulf %in, %in_1505 : f16
      %2743 = arith.extf %2742 : f16 to f32
      %2744 = arith.addf %2743, %out : f32
      linalg.yield %2744 : f32
    } -> tensor<4x1x2048xf32>
    %2718 = linalg.copy ins(%2717 : tensor<4x1x2048xf32>) outs(%18 : tensor<4x1x2048xf16>) -> tensor<4x1x2048xf16>
    %2719 = linalg.generic {indexing_maps = [#map, #map, #map], iterator_types = ["parallel", "parallel", "parallel"]} ins(%2687, %2718 : tensor<4x1x2048xf16>, tensor<4x1x2048xf16>) outs(%18 : tensor<4x1x2048xf16>) {
    ^bb0(%in: f16, %in_1505: f16, %out: f16):
      %2742 = arith.addf %in, %in_1505 : f16
      linalg.yield %2742 : f16
    } -> tensor<4x1x2048xf16>
    %2720 = linalg.generic {indexing_maps = [#map, #map], iterator_types = ["parallel", "parallel", "parallel"]} ins(%2719 : tensor<4x1x2048xf16>) outs(%20 : tensor<4x1x2048xf32>) {
    ^bb0(%in: f16, %out: f32):
      %2742 = arith.extf %in : f16 to f32
      linalg.yield %2742 : f32
    } -> tensor<4x1x2048xf32>
    %2721 = linalg.generic {indexing_maps = [#map, #map], iterator_types = ["parallel", "parallel", "parallel"]} ins(%2720 : tensor<4x1x2048xf32>) outs(%20 : tensor<4x1x2048xf32>) {
    ^bb0(%in: f32, %out: f32):
      %2742 = math.fpowi %in, %c2_i64 : f32, i64
      linalg.yield %2742 : f32
    } -> tensor<4x1x2048xf32>
    %2722 = linalg.generic {indexing_maps = [#map, #map1], iterator_types = ["parallel", "parallel", "reduction"]} ins(%2721 : tensor<4x1x2048xf32>) outs(%24 : tensor<4x1x1xf32>) {
    ^bb0(%in: f32, %out: f32):
      %2742 = arith.addf %in, %out : f32
      linalg.yield %2742 : f32
    } -> tensor<4x1x1xf32>
    %2723 = linalg.generic {indexing_maps = [#map, #map], iterator_types = ["parallel", "parallel", "parallel"]} ins(%2722 : tensor<4x1x1xf32>) outs(%23 : tensor<4x1x1xf32>) {
    ^bb0(%in: f32, %out: f32):
      %2742 = arith.divf %in, %cst_8 : f32
      linalg.yield %2742 : f32
    } -> tensor<4x1x1xf32>
    %2724 = linalg.generic {indexing_maps = [#map, #map], iterator_types = ["parallel", "parallel", "parallel"]} ins(%2723 : tensor<4x1x1xf32>) outs(%23 : tensor<4x1x1xf32>) {
    ^bb0(%in: f32, %out: f32):
      %2742 = arith.addf %in, %cst_9 : f32
      linalg.yield %2742 : f32
    } -> tensor<4x1x1xf32>
    %2725 = linalg.generic {indexing_maps = [#map, #map], iterator_types = ["parallel", "parallel", "parallel"]} ins(%2724 : tensor<4x1x1xf32>) outs(%23 : tensor<4x1x1xf32>) {
    ^bb0(%in: f32, %out: f32):
      %2742 = math.rsqrt %in : f32
      linalg.yield %2742 : f32
    } -> tensor<4x1x1xf32>
    %2726 = linalg.generic {indexing_maps = [#map, #map1, #map], iterator_types = ["parallel", "parallel", "parallel"]} ins(%2720, %2725 : tensor<4x1x2048xf32>, tensor<4x1x1xf32>) outs(%20 : tensor<4x1x2048xf32>) {
    ^bb0(%in: f32, %in_1505: f32, %out: f32):
      %2742 = arith.mulf %in, %in_1505 : f32
      linalg.yield %2742 : f32
    } -> tensor<4x1x2048xf32>
    %2727 = linalg.generic {indexing_maps = [#map, #map], iterator_types = ["parallel", "parallel", "parallel"]} ins(%2726 : tensor<4x1x2048xf32>) outs(%18 : tensor<4x1x2048xf16>) {
    ^bb0(%in: f32, %out: f16):
      %2742 = arith.truncf %in : f32 to f16
      linalg.yield %2742 : f16
    } -> tensor<4x1x2048xf16>
    %2728 = linalg.generic {indexing_maps = [#map3, #map, #map], iterator_types = ["parallel", "parallel", "parallel"]} ins(%__auto.output_norm.weight, %2727 : tensor<2048xf32>, tensor<4x1x2048xf16>) outs(%20 : tensor<4x1x2048xf32>) {
    ^bb0(%in: f32, %in_1505: f16, %out: f32):
      %2742 = arith.extf %in_1505 : f16 to f32
      %2743 = arith.mulf %in, %2742 : f32
      linalg.yield %2743 : f32
    } -> tensor<4x1x2048xf32>
    %2729 = linalg.generic {indexing_maps = [#map, #map], iterator_types = ["parallel", "parallel", "parallel"]} ins(%2728 : tensor<4x1x2048xf32>) outs(%18 : tensor<4x1x2048xf16>) {
    ^bb0(%in: f32, %out: f16):
      %2742 = arith.truncf %in : f32 to f16
      linalg.yield %2742 : f16
    } -> tensor<4x1x2048xf16>
    %2730 = iree_tensor_ext.bitcast %__auto.output.weight : tensor<32000x2176xi8> -> tensor<32000x1088xi16>
    %expanded_1500 = tensor.expand_shape %2730 [[0], [1, 2]] output_shape [32000, 64, 17] : tensor<32000x1088xi16> into tensor<32000x64x17xi16>
    %extracted_slice_1501 = tensor.extract_slice %expanded_1500[0, 0, 0] [32000, 64, 1] [1, 1, 1] : tensor<32000x64x17xi16> to tensor<32000x64x1xi16>
    %2731 = iree_tensor_ext.bitcast %extracted_slice_1501 : tensor<32000x64x1xi16> -> tensor<32000x64x1xf16>
    %extracted_slice_1502 = tensor.extract_slice %expanded_1500[0, 0, 1] [32000, 64, 16] [1, 1, 1] : tensor<32000x64x17xi16> to tensor<32000x64x16xi16>
    %2732 = iree_tensor_ext.bitcast %extracted_slice_1502 : tensor<32000x64x16xi16> -> tensor<32000x64x32xi8>
    %2733 = linalg.generic {indexing_maps = [#map1, #map, #map], iterator_types = ["parallel", "parallel", "parallel"]} ins(%2731, %2732 : tensor<32000x64x1xf16>, tensor<32000x64x32xi8>) outs(%15 : tensor<32000x64x32xf16>) {
    ^bb0(%in: f16, %in_1505: i8, %out: f16):
      %2742 = arith.extsi %in_1505 : i8 to i32
      %2743 = arith.sitofp %2742 : i32 to f16
      %2744 = arith.mulf %2743, %in : f16
      linalg.yield %2744 : f16
    } -> tensor<32000x64x32xf16>
    %expanded_1503 = tensor.expand_shape %2729 [[0], [1], [2, 3]] output_shape [4, 1, 64, 32] : tensor<4x1x2048xf16> into tensor<4x1x64x32xf16>
    %2734 = tensor.empty() : tensor<4x1x32000xf32>
    %2735 = linalg.fill ins(%cst_5 : f32) outs(%2734 : tensor<4x1x32000xf32>) -> tensor<4x1x32000xf32>
    %2736 = linalg.generic {indexing_maps = [#map4, #map5, #map6], iterator_types = ["parallel", "parallel", "parallel", "reduction", "reduction"]} ins(%expanded_1503, %2733 : tensor<4x1x64x32xf16>, tensor<32000x64x32xf16>) outs(%2735 : tensor<4x1x32000xf32>) {
    ^bb0(%in: f16, %in_1505: f16, %out: f32):
      %2742 = arith.mulf %in, %in_1505 : f16
      %2743 = arith.extf %2742 : f16 to f32
      %2744 = arith.addf %2743, %out : f32
      linalg.yield %2744 : f32
    } -> tensor<4x1x32000xf32>
    %2737 = tensor.empty() : tensor<4x1x32000xf16>
    %2738 = linalg.copy ins(%2736 : tensor<4x1x32000xf32>) outs(%2737 : tensor<4x1x32000xf16>) -> tensor<4x1x32000xf16>
    %dim_1504 = tensor.dim %collapsed_1466, %c0 : tensor<?x360448xf16>
    %2739 = hal.tensor.alias on(#hal.device.promise<@__device_0>) wait(%arg5) => %collapsed_1466 : tensor<?x360448xf16>{%dim_1504} to %arg4 : !hal.buffer_view
    %2740:2 = hal.tensor.barrier join(%2739, %2738 : tensor<?x360448xf16>, tensor<4x1x32000xf16>) => %arg6 : !hal.fence
    %2741 = hal.tensor.export %2740#1 : tensor<4x1x32000xf16> -> !hal.buffer_view
    util.return %2741 : !hal.buffer_view
  }
  util.func public @decode_bs4(%arg0: !hal.buffer_view, %arg1: !hal.buffer_view, %arg2: !hal.buffer_view, %arg3: !hal.buffer_view, %arg4: !hal.buffer_view) -> !hal.buffer_view attributes {iree.abi.stub} {
    %0 = util.null : !hal.fence
    %c-1_i32 = arith.constant -1 : i32
    %c0 = arith.constant 0 : index
    %device_0 = hal.devices.get %c0 : !hal.device
    %fence = hal.fence.create device(%device_0 : !hal.device) flags("None") : !hal.fence
    %1 = util.call @decode_bs4$async(%arg0, %arg1, %arg2, %arg3, %arg4, %0, %fence) : (!hal.buffer_view, !hal.buffer_view, !hal.buffer_view, !hal.buffer_view, !hal.buffer_view, !hal.fence, !hal.fence) -> !hal.buffer_view
    %status = hal.fence.await until([%fence]) timeout_millis(%c-1_i32) flags("None") : i32
    util.return %1 : !hal.buffer_view
  }
}
