#map = affine_map<(d0, d1, d2) -> (d0, d1, d2)>
#map1 = affine_map<(d0, d1, d2) -> (d0, d1, 0)>
#map2 = affine_map<(d0, d1, d2) -> (d0, d1)>
#map3 = affine_map<(d0, d1, d2) -> (d2)>
#map4 = affine_map<(d0, d1, d2, d3, d4) -> (d0, d1, d3, d4)>
#map5 = affine_map<(d0, d1, d2, d3, d4) -> (d2, d3, d4)>
#map6 = affine_map<(d0, d1, d2, d3, d4) -> (d0, d1, d2)>
#map7 = affine_map<(d0) -> (d0)>
#map8 = affine_map<(d0, d1, d2) -> ()>
#map9 = affine_map<(d0, d1, d2, d3) -> (d0, d1, d2, d3)>
#map10 = affine_map<(d0, d1, d2, d3) -> (0, d1, 0, d3)>
#map11 = affine_map<(d0, d1, d2, d3, d4) -> (d0, d1, d2, d4)>
#map12 = affine_map<(d0, d1, d2, d3, d4) -> (d0, d1, d2, d3, d4)>
#map13 = affine_map<(d0, d1) -> (d0, d1)>
#map14 = affine_map<()[s0] -> (s0 * 4)>
#map15 = affine_map<(d0, d1) -> (d1)>
#map16 = affine_map<(d0, d1) -> (d0, 0)>
#map17 = affine_map<(d0, d1, d2, d3) -> (d0, d1, 0, d3)>
#map18 = affine_map<(d0, d1, d2, d3) -> (d0, d1, d2, 0)>
#map19 = affine_map<(d0, d1, d2, d3) -> (0, d1, d2, d3)>
#map20 = affine_map<() -> ()>
#map21 = affine_map<(d0, d1, d2, d3) -> ()>
#map22 = affine_map<(d0, d1, d2, d3) -> (d0, 0, d2, d3)>
#map23 = affine_map<(d0, d1, d2, d3, d4) -> (d0, d1, d3)>
#map24 = affine_map<(d0, d1, d2, d3, d4) -> (d0, d4, d3)>
#map25 = affine_map<(d0, d1, d2, d3, d4) -> (d0, d4, d2)>
#map26 = affine_map<(d0, d1, d2, d3, d4) -> ()>
#map27 = affine_map<(d0, d1, d2, d3, d4) -> (d0, d1, d4)>
#map28 = affine_map<(d0, d1) -> (0, d1)>
#map29 = affine_map<(d0, d1, d2) -> (d1, d2)>
#map30 = affine_map<(d0, d1, d2) -> (0, d1, d2)>
#map31 = affine_map<(d0, d1) -> ()>
#map32 = affine_map<()[s0] -> (s0 * 32)>
module @module {
  util.global private @__auto.token_embd.weight = #flow.parameter.named<"model"::"token_embd.weight"> : tensor<32000x2176xi8>
  util.global private @__auto.blk.0.attn_norm.weight = #flow.parameter.named<"model"::"blk.0.attn_norm.weight"> : tensor<2048xf32>
  util.global private @__auto.blk.0.attn_q.weight = #flow.parameter.named<"model"::"blk.0.attn_q.weight"> : tensor<2048x2176xi8>
  util.global private @__auto.blk.0.attn_k.weight = #flow.parameter.named<"model"::"blk.0.attn_k.weight"> : tensor<256x2176xi8>
  util.global private @__auto.blk.0.attn_v.weight = #flow.parameter.named<"model"::"blk.0.attn_v.weight"> : tensor<256x2176xi8>
  util.global private @__auto.blk.0.attn_output.weight = #flow.parameter.named<"model"::"blk.0.attn_output.weight"> : tensor<2048x2176xi8>
  util.global private @__auto.blk.0.ffn_norm.weight = #flow.parameter.named<"model"::"blk.0.ffn_norm.weight"> : tensor<2048xf32>
  util.global private @__auto.blk.0.ffn_gate.weight = #flow.parameter.named<"model"::"blk.0.ffn_gate.weight"> : tensor<5632x2176xi8>
  util.global private @__auto.blk.0.ffn_up.weight = #flow.parameter.named<"model"::"blk.0.ffn_up.weight"> : tensor<5632x2176xi8>
  util.global private @__auto.blk.0.ffn_down.weight = #flow.parameter.named<"model"::"blk.0.ffn_down.weight"> : tensor<2048x5984xi8>
  util.global private @__auto.blk.1.attn_norm.weight = #flow.parameter.named<"model"::"blk.1.attn_norm.weight"> : tensor<2048xf32>
  util.global private @__auto.blk.1.attn_q.weight = #flow.parameter.named<"model"::"blk.1.attn_q.weight"> : tensor<2048x2176xi8>
  util.global private @__auto.blk.1.attn_k.weight = #flow.parameter.named<"model"::"blk.1.attn_k.weight"> : tensor<256x2176xi8>
  util.global private @__auto.blk.1.attn_v.weight = #flow.parameter.named<"model"::"blk.1.attn_v.weight"> : tensor<256x2176xi8>
  util.global private @__auto.blk.1.attn_output.weight = #flow.parameter.named<"model"::"blk.1.attn_output.weight"> : tensor<2048x2176xi8>
  util.global private @__auto.blk.1.ffn_norm.weight = #flow.parameter.named<"model"::"blk.1.ffn_norm.weight"> : tensor<2048xf32>
  util.global private @__auto.blk.1.ffn_gate.weight = #flow.parameter.named<"model"::"blk.1.ffn_gate.weight"> : tensor<5632x2176xi8>
  util.global private @__auto.blk.1.ffn_up.weight = #flow.parameter.named<"model"::"blk.1.ffn_up.weight"> : tensor<5632x2176xi8>
  util.global private @__auto.blk.1.ffn_down.weight = #flow.parameter.named<"model"::"blk.1.ffn_down.weight"> : tensor<2048x5984xi8>
  util.global private @__auto.blk.2.attn_norm.weight = #flow.parameter.named<"model"::"blk.2.attn_norm.weight"> : tensor<2048xf32>
  util.global private @__auto.blk.2.attn_q.weight = #flow.parameter.named<"model"::"blk.2.attn_q.weight"> : tensor<2048x2176xi8>
  util.global private @__auto.blk.2.attn_k.weight = #flow.parameter.named<"model"::"blk.2.attn_k.weight"> : tensor<256x2176xi8>
  util.global private @__auto.blk.2.attn_v.weight = #flow.parameter.named<"model"::"blk.2.attn_v.weight"> : tensor<256x2176xi8>
  util.global private @__auto.blk.2.attn_output.weight = #flow.parameter.named<"model"::"blk.2.attn_output.weight"> : tensor<2048x2176xi8>
  util.global private @__auto.blk.2.ffn_norm.weight = #flow.parameter.named<"model"::"blk.2.ffn_norm.weight"> : tensor<2048xf32>
  util.global private @__auto.blk.2.ffn_gate.weight = #flow.parameter.named<"model"::"blk.2.ffn_gate.weight"> : tensor<5632x2176xi8>
  util.global private @__auto.blk.2.ffn_up.weight = #flow.parameter.named<"model"::"blk.2.ffn_up.weight"> : tensor<5632x2176xi8>
  util.global private @__auto.blk.2.ffn_down.weight = #flow.parameter.named<"model"::"blk.2.ffn_down.weight"> : tensor<2048x5984xi8>
  util.global private @__auto.blk.3.attn_norm.weight = #flow.parameter.named<"model"::"blk.3.attn_norm.weight"> : tensor<2048xf32>
  util.global private @__auto.blk.3.attn_q.weight = #flow.parameter.named<"model"::"blk.3.attn_q.weight"> : tensor<2048x2176xi8>
  util.global private @__auto.blk.3.attn_k.weight = #flow.parameter.named<"model"::"blk.3.attn_k.weight"> : tensor<256x2176xi8>
  util.global private @__auto.blk.3.attn_v.weight = #flow.parameter.named<"model"::"blk.3.attn_v.weight"> : tensor<256x2176xi8>
  util.global private @__auto.blk.3.attn_output.weight = #flow.parameter.named<"model"::"blk.3.attn_output.weight"> : tensor<2048x2176xi8>
  util.global private @__auto.blk.3.ffn_norm.weight = #flow.parameter.named<"model"::"blk.3.ffn_norm.weight"> : tensor<2048xf32>
  util.global private @__auto.blk.3.ffn_gate.weight = #flow.parameter.named<"model"::"blk.3.ffn_gate.weight"> : tensor<5632x2176xi8>
  util.global private @__auto.blk.3.ffn_up.weight = #flow.parameter.named<"model"::"blk.3.ffn_up.weight"> : tensor<5632x2176xi8>
  util.global private @__auto.blk.3.ffn_down.weight = #flow.parameter.named<"model"::"blk.3.ffn_down.weight"> : tensor<2048x5984xi8>
  util.global private @__auto.blk.4.attn_norm.weight = #flow.parameter.named<"model"::"blk.4.attn_norm.weight"> : tensor<2048xf32>
  util.global private @__auto.blk.4.attn_q.weight = #flow.parameter.named<"model"::"blk.4.attn_q.weight"> : tensor<2048x2176xi8>
  util.global private @__auto.blk.4.attn_k.weight = #flow.parameter.named<"model"::"blk.4.attn_k.weight"> : tensor<256x2176xi8>
  util.global private @__auto.blk.4.attn_v.weight = #flow.parameter.named<"model"::"blk.4.attn_v.weight"> : tensor<256x2176xi8>
  util.global private @__auto.blk.4.attn_output.weight = #flow.parameter.named<"model"::"blk.4.attn_output.weight"> : tensor<2048x2176xi8>
  util.global private @__auto.blk.4.ffn_norm.weight = #flow.parameter.named<"model"::"blk.4.ffn_norm.weight"> : tensor<2048xf32>
  util.global private @__auto.blk.4.ffn_gate.weight = #flow.parameter.named<"model"::"blk.4.ffn_gate.weight"> : tensor<5632x2176xi8>
  util.global private @__auto.blk.4.ffn_up.weight = #flow.parameter.named<"model"::"blk.4.ffn_up.weight"> : tensor<5632x2176xi8>
  util.global private @__auto.blk.4.ffn_down.weight = #flow.parameter.named<"model"::"blk.4.ffn_down.weight"> : tensor<2048x5984xi8>
  util.global private @__auto.blk.5.attn_norm.weight = #flow.parameter.named<"model"::"blk.5.attn_norm.weight"> : tensor<2048xf32>
  util.global private @__auto.blk.5.attn_q.weight = #flow.parameter.named<"model"::"blk.5.attn_q.weight"> : tensor<2048x2176xi8>
  util.global private @__auto.blk.5.attn_k.weight = #flow.parameter.named<"model"::"blk.5.attn_k.weight"> : tensor<256x2176xi8>
  util.global private @__auto.blk.5.attn_v.weight = #flow.parameter.named<"model"::"blk.5.attn_v.weight"> : tensor<256x2176xi8>
  util.global private @__auto.blk.5.attn_output.weight = #flow.parameter.named<"model"::"blk.5.attn_output.weight"> : tensor<2048x2176xi8>
  util.global private @__auto.blk.5.ffn_norm.weight = #flow.parameter.named<"model"::"blk.5.ffn_norm.weight"> : tensor<2048xf32>
  util.global private @__auto.blk.5.ffn_gate.weight = #flow.parameter.named<"model"::"blk.5.ffn_gate.weight"> : tensor<5632x2176xi8>
  util.global private @__auto.blk.5.ffn_up.weight = #flow.parameter.named<"model"::"blk.5.ffn_up.weight"> : tensor<5632x2176xi8>
  util.global private @__auto.blk.5.ffn_down.weight = #flow.parameter.named<"model"::"blk.5.ffn_down.weight"> : tensor<2048x5984xi8>
  util.global private @__auto.blk.6.attn_norm.weight = #flow.parameter.named<"model"::"blk.6.attn_norm.weight"> : tensor<2048xf32>
  util.global private @__auto.blk.6.attn_q.weight = #flow.parameter.named<"model"::"blk.6.attn_q.weight"> : tensor<2048x2176xi8>
  util.global private @__auto.blk.6.attn_k.weight = #flow.parameter.named<"model"::"blk.6.attn_k.weight"> : tensor<256x2176xi8>
  util.global private @__auto.blk.6.attn_v.weight = #flow.parameter.named<"model"::"blk.6.attn_v.weight"> : tensor<256x2176xi8>
  util.global private @__auto.blk.6.attn_output.weight = #flow.parameter.named<"model"::"blk.6.attn_output.weight"> : tensor<2048x2176xi8>
  util.global private @__auto.blk.6.ffn_norm.weight = #flow.parameter.named<"model"::"blk.6.ffn_norm.weight"> : tensor<2048xf32>
  util.global private @__auto.blk.6.ffn_gate.weight = #flow.parameter.named<"model"::"blk.6.ffn_gate.weight"> : tensor<5632x2176xi8>
  util.global private @__auto.blk.6.ffn_up.weight = #flow.parameter.named<"model"::"blk.6.ffn_up.weight"> : tensor<5632x2176xi8>
  util.global private @__auto.blk.6.ffn_down.weight = #flow.parameter.named<"model"::"blk.6.ffn_down.weight"> : tensor<2048x5984xi8>
  util.global private @__auto.blk.7.attn_norm.weight = #flow.parameter.named<"model"::"blk.7.attn_norm.weight"> : tensor<2048xf32>
  util.global private @__auto.blk.7.attn_q.weight = #flow.parameter.named<"model"::"blk.7.attn_q.weight"> : tensor<2048x2176xi8>
  util.global private @__auto.blk.7.attn_k.weight = #flow.parameter.named<"model"::"blk.7.attn_k.weight"> : tensor<256x2176xi8>
  util.global private @__auto.blk.7.attn_v.weight = #flow.parameter.named<"model"::"blk.7.attn_v.weight"> : tensor<256x2176xi8>
  util.global private @__auto.blk.7.attn_output.weight = #flow.parameter.named<"model"::"blk.7.attn_output.weight"> : tensor<2048x2176xi8>
  util.global private @__auto.blk.7.ffn_norm.weight = #flow.parameter.named<"model"::"blk.7.ffn_norm.weight"> : tensor<2048xf32>
  util.global private @__auto.blk.7.ffn_gate.weight = #flow.parameter.named<"model"::"blk.7.ffn_gate.weight"> : tensor<5632x2176xi8>
  util.global private @__auto.blk.7.ffn_up.weight = #flow.parameter.named<"model"::"blk.7.ffn_up.weight"> : tensor<5632x2176xi8>
  util.global private @__auto.blk.7.ffn_down.weight = #flow.parameter.named<"model"::"blk.7.ffn_down.weight"> : tensor<2048x5984xi8>
  util.global private @__auto.blk.8.attn_norm.weight = #flow.parameter.named<"model"::"blk.8.attn_norm.weight"> : tensor<2048xf32>
  util.global private @__auto.blk.8.attn_q.weight = #flow.parameter.named<"model"::"blk.8.attn_q.weight"> : tensor<2048x2176xi8>
  util.global private @__auto.blk.8.attn_k.weight = #flow.parameter.named<"model"::"blk.8.attn_k.weight"> : tensor<256x2176xi8>
  util.global private @__auto.blk.8.attn_v.weight = #flow.parameter.named<"model"::"blk.8.attn_v.weight"> : tensor<256x2176xi8>
  util.global private @__auto.blk.8.attn_output.weight = #flow.parameter.named<"model"::"blk.8.attn_output.weight"> : tensor<2048x2176xi8>
  util.global private @__auto.blk.8.ffn_norm.weight = #flow.parameter.named<"model"::"blk.8.ffn_norm.weight"> : tensor<2048xf32>
  util.global private @__auto.blk.8.ffn_gate.weight = #flow.parameter.named<"model"::"blk.8.ffn_gate.weight"> : tensor<5632x2176xi8>
  util.global private @__auto.blk.8.ffn_up.weight = #flow.parameter.named<"model"::"blk.8.ffn_up.weight"> : tensor<5632x2176xi8>
  util.global private @__auto.blk.8.ffn_down.weight = #flow.parameter.named<"model"::"blk.8.ffn_down.weight"> : tensor<2048x5984xi8>
  util.global private @__auto.blk.9.attn_norm.weight = #flow.parameter.named<"model"::"blk.9.attn_norm.weight"> : tensor<2048xf32>
  util.global private @__auto.blk.9.attn_q.weight = #flow.parameter.named<"model"::"blk.9.attn_q.weight"> : tensor<2048x2176xi8>
  util.global private @__auto.blk.9.attn_k.weight = #flow.parameter.named<"model"::"blk.9.attn_k.weight"> : tensor<256x2176xi8>
  util.global private @__auto.blk.9.attn_v.weight = #flow.parameter.named<"model"::"blk.9.attn_v.weight"> : tensor<256x2176xi8>
  util.global private @__auto.blk.9.attn_output.weight = #flow.parameter.named<"model"::"blk.9.attn_output.weight"> : tensor<2048x2176xi8>
  util.global private @__auto.blk.9.ffn_norm.weight = #flow.parameter.named<"model"::"blk.9.ffn_norm.weight"> : tensor<2048xf32>
  util.global private @__auto.blk.9.ffn_gate.weight = #flow.parameter.named<"model"::"blk.9.ffn_gate.weight"> : tensor<5632x2176xi8>
  util.global private @__auto.blk.9.ffn_up.weight = #flow.parameter.named<"model"::"blk.9.ffn_up.weight"> : tensor<5632x2176xi8>
  util.global private @__auto.blk.9.ffn_down.weight = #flow.parameter.named<"model"::"blk.9.ffn_down.weight"> : tensor<2048x5984xi8>
  util.global private @__auto.blk.10.attn_norm.weight = #flow.parameter.named<"model"::"blk.10.attn_norm.weight"> : tensor<2048xf32>
  util.global private @__auto.blk.10.attn_q.weight = #flow.parameter.named<"model"::"blk.10.attn_q.weight"> : tensor<2048x2176xi8>
  util.global private @__auto.blk.10.attn_k.weight = #flow.parameter.named<"model"::"blk.10.attn_k.weight"> : tensor<256x2176xi8>
  util.global private @__auto.blk.10.attn_v.weight = #flow.parameter.named<"model"::"blk.10.attn_v.weight"> : tensor<256x2176xi8>
  util.global private @__auto.blk.10.attn_output.weight = #flow.parameter.named<"model"::"blk.10.attn_output.weight"> : tensor<2048x2176xi8>
  util.global private @__auto.blk.10.ffn_norm.weight = #flow.parameter.named<"model"::"blk.10.ffn_norm.weight"> : tensor<2048xf32>
  util.global private @__auto.blk.10.ffn_gate.weight = #flow.parameter.named<"model"::"blk.10.ffn_gate.weight"> : tensor<5632x2176xi8>
  util.global private @__auto.blk.10.ffn_up.weight = #flow.parameter.named<"model"::"blk.10.ffn_up.weight"> : tensor<5632x2176xi8>
  util.global private @__auto.blk.10.ffn_down.weight = #flow.parameter.named<"model"::"blk.10.ffn_down.weight"> : tensor<2048x5984xi8>
  util.global private @__auto.blk.11.attn_norm.weight = #flow.parameter.named<"model"::"blk.11.attn_norm.weight"> : tensor<2048xf32>
  util.global private @__auto.blk.11.attn_q.weight = #flow.parameter.named<"model"::"blk.11.attn_q.weight"> : tensor<2048x2176xi8>
  util.global private @__auto.blk.11.attn_k.weight = #flow.parameter.named<"model"::"blk.11.attn_k.weight"> : tensor<256x2176xi8>
  util.global private @__auto.blk.11.attn_v.weight = #flow.parameter.named<"model"::"blk.11.attn_v.weight"> : tensor<256x2176xi8>
  util.global private @__auto.blk.11.attn_output.weight = #flow.parameter.named<"model"::"blk.11.attn_output.weight"> : tensor<2048x2176xi8>
  util.global private @__auto.blk.11.ffn_norm.weight = #flow.parameter.named<"model"::"blk.11.ffn_norm.weight"> : tensor<2048xf32>
  util.global private @__auto.blk.11.ffn_gate.weight = #flow.parameter.named<"model"::"blk.11.ffn_gate.weight"> : tensor<5632x2176xi8>
  util.global private @__auto.blk.11.ffn_up.weight = #flow.parameter.named<"model"::"blk.11.ffn_up.weight"> : tensor<5632x2176xi8>
  util.global private @__auto.blk.11.ffn_down.weight = #flow.parameter.named<"model"::"blk.11.ffn_down.weight"> : tensor<2048x5984xi8>
  util.global private @__auto.blk.12.attn_norm.weight = #flow.parameter.named<"model"::"blk.12.attn_norm.weight"> : tensor<2048xf32>
  util.global private @__auto.blk.12.attn_q.weight = #flow.parameter.named<"model"::"blk.12.attn_q.weight"> : tensor<2048x2176xi8>
  util.global private @__auto.blk.12.attn_k.weight = #flow.parameter.named<"model"::"blk.12.attn_k.weight"> : tensor<256x2176xi8>
  util.global private @__auto.blk.12.attn_v.weight = #flow.parameter.named<"model"::"blk.12.attn_v.weight"> : tensor<256x2176xi8>
  util.global private @__auto.blk.12.attn_output.weight = #flow.parameter.named<"model"::"blk.12.attn_output.weight"> : tensor<2048x2176xi8>
  util.global private @__auto.blk.12.ffn_norm.weight = #flow.parameter.named<"model"::"blk.12.ffn_norm.weight"> : tensor<2048xf32>
  util.global private @__auto.blk.12.ffn_gate.weight = #flow.parameter.named<"model"::"blk.12.ffn_gate.weight"> : tensor<5632x2176xi8>
  util.global private @__auto.blk.12.ffn_up.weight = #flow.parameter.named<"model"::"blk.12.ffn_up.weight"> : tensor<5632x2176xi8>
  util.global private @__auto.blk.12.ffn_down.weight = #flow.parameter.named<"model"::"blk.12.ffn_down.weight"> : tensor<2048x5984xi8>
  util.global private @__auto.blk.13.attn_norm.weight = #flow.parameter.named<"model"::"blk.13.attn_norm.weight"> : tensor<2048xf32>
  util.global private @__auto.blk.13.attn_q.weight = #flow.parameter.named<"model"::"blk.13.attn_q.weight"> : tensor<2048x2176xi8>
  util.global private @__auto.blk.13.attn_k.weight = #flow.parameter.named<"model"::"blk.13.attn_k.weight"> : tensor<256x2176xi8>
  util.global private @__auto.blk.13.attn_v.weight = #flow.parameter.named<"model"::"blk.13.attn_v.weight"> : tensor<256x2176xi8>
  util.global private @__auto.blk.13.attn_output.weight = #flow.parameter.named<"model"::"blk.13.attn_output.weight"> : tensor<2048x2176xi8>
  util.global private @__auto.blk.13.ffn_norm.weight = #flow.parameter.named<"model"::"blk.13.ffn_norm.weight"> : tensor<2048xf32>
  util.global private @__auto.blk.13.ffn_gate.weight = #flow.parameter.named<"model"::"blk.13.ffn_gate.weight"> : tensor<5632x2176xi8>
  util.global private @__auto.blk.13.ffn_up.weight = #flow.parameter.named<"model"::"blk.13.ffn_up.weight"> : tensor<5632x2176xi8>
  util.global private @__auto.blk.13.ffn_down.weight = #flow.parameter.named<"model"::"blk.13.ffn_down.weight"> : tensor<2048x5984xi8>
  util.global private @__auto.blk.14.attn_norm.weight = #flow.parameter.named<"model"::"blk.14.attn_norm.weight"> : tensor<2048xf32>
  util.global private @__auto.blk.14.attn_q.weight = #flow.parameter.named<"model"::"blk.14.attn_q.weight"> : tensor<2048x2176xi8>
  util.global private @__auto.blk.14.attn_k.weight = #flow.parameter.named<"model"::"blk.14.attn_k.weight"> : tensor<256x2176xi8>
  util.global private @__auto.blk.14.attn_v.weight = #flow.parameter.named<"model"::"blk.14.attn_v.weight"> : tensor<256x2176xi8>
  util.global private @__auto.blk.14.attn_output.weight = #flow.parameter.named<"model"::"blk.14.attn_output.weight"> : tensor<2048x2176xi8>
  util.global private @__auto.blk.14.ffn_norm.weight = #flow.parameter.named<"model"::"blk.14.ffn_norm.weight"> : tensor<2048xf32>
  util.global private @__auto.blk.14.ffn_gate.weight = #flow.parameter.named<"model"::"blk.14.ffn_gate.weight"> : tensor<5632x2176xi8>
  util.global private @__auto.blk.14.ffn_up.weight = #flow.parameter.named<"model"::"blk.14.ffn_up.weight"> : tensor<5632x2176xi8>
  util.global private @__auto.blk.14.ffn_down.weight = #flow.parameter.named<"model"::"blk.14.ffn_down.weight"> : tensor<2048x5984xi8>
  util.global private @__auto.blk.15.attn_norm.weight = #flow.parameter.named<"model"::"blk.15.attn_norm.weight"> : tensor<2048xf32>
  util.global private @__auto.blk.15.attn_q.weight = #flow.parameter.named<"model"::"blk.15.attn_q.weight"> : tensor<2048x2176xi8>
  util.global private @__auto.blk.15.attn_k.weight = #flow.parameter.named<"model"::"blk.15.attn_k.weight"> : tensor<256x2176xi8>
  util.global private @__auto.blk.15.attn_v.weight = #flow.parameter.named<"model"::"blk.15.attn_v.weight"> : tensor<256x2176xi8>
  util.global private @__auto.blk.15.attn_output.weight = #flow.parameter.named<"model"::"blk.15.attn_output.weight"> : tensor<2048x2176xi8>
  util.global private @__auto.blk.15.ffn_norm.weight = #flow.parameter.named<"model"::"blk.15.ffn_norm.weight"> : tensor<2048xf32>
  util.global private @__auto.blk.15.ffn_gate.weight = #flow.parameter.named<"model"::"blk.15.ffn_gate.weight"> : tensor<5632x2176xi8>
  util.global private @__auto.blk.15.ffn_up.weight = #flow.parameter.named<"model"::"blk.15.ffn_up.weight"> : tensor<5632x2176xi8>
  util.global private @__auto.blk.15.ffn_down.weight = #flow.parameter.named<"model"::"blk.15.ffn_down.weight"> : tensor<2048x5984xi8>
  util.global private @__auto.blk.16.attn_norm.weight = #flow.parameter.named<"model"::"blk.16.attn_norm.weight"> : tensor<2048xf32>
  util.global private @__auto.blk.16.attn_q.weight = #flow.parameter.named<"model"::"blk.16.attn_q.weight"> : tensor<2048x2176xi8>
  util.global private @__auto.blk.16.attn_k.weight = #flow.parameter.named<"model"::"blk.16.attn_k.weight"> : tensor<256x2176xi8>
  util.global private @__auto.blk.16.attn_v.weight = #flow.parameter.named<"model"::"blk.16.attn_v.weight"> : tensor<256x2176xi8>
  util.global private @__auto.blk.16.attn_output.weight = #flow.parameter.named<"model"::"blk.16.attn_output.weight"> : tensor<2048x2176xi8>
  util.global private @__auto.blk.16.ffn_norm.weight = #flow.parameter.named<"model"::"blk.16.ffn_norm.weight"> : tensor<2048xf32>
  util.global private @__auto.blk.16.ffn_gate.weight = #flow.parameter.named<"model"::"blk.16.ffn_gate.weight"> : tensor<5632x2176xi8>
  util.global private @__auto.blk.16.ffn_up.weight = #flow.parameter.named<"model"::"blk.16.ffn_up.weight"> : tensor<5632x2176xi8>
  util.global private @__auto.blk.16.ffn_down.weight = #flow.parameter.named<"model"::"blk.16.ffn_down.weight"> : tensor<2048x5984xi8>
  util.global private @__auto.blk.17.attn_norm.weight = #flow.parameter.named<"model"::"blk.17.attn_norm.weight"> : tensor<2048xf32>
  util.global private @__auto.blk.17.attn_q.weight = #flow.parameter.named<"model"::"blk.17.attn_q.weight"> : tensor<2048x2176xi8>
  util.global private @__auto.blk.17.attn_k.weight = #flow.parameter.named<"model"::"blk.17.attn_k.weight"> : tensor<256x2176xi8>
  util.global private @__auto.blk.17.attn_v.weight = #flow.parameter.named<"model"::"blk.17.attn_v.weight"> : tensor<256x2176xi8>
  util.global private @__auto.blk.17.attn_output.weight = #flow.parameter.named<"model"::"blk.17.attn_output.weight"> : tensor<2048x2176xi8>
  util.global private @__auto.blk.17.ffn_norm.weight = #flow.parameter.named<"model"::"blk.17.ffn_norm.weight"> : tensor<2048xf32>
  util.global private @__auto.blk.17.ffn_gate.weight = #flow.parameter.named<"model"::"blk.17.ffn_gate.weight"> : tensor<5632x2176xi8>
  util.global private @__auto.blk.17.ffn_up.weight = #flow.parameter.named<"model"::"blk.17.ffn_up.weight"> : tensor<5632x2176xi8>
  util.global private @__auto.blk.17.ffn_down.weight = #flow.parameter.named<"model"::"blk.17.ffn_down.weight"> : tensor<2048x5984xi8>
  util.global private @__auto.blk.18.attn_norm.weight = #flow.parameter.named<"model"::"blk.18.attn_norm.weight"> : tensor<2048xf32>
  util.global private @__auto.blk.18.attn_q.weight = #flow.parameter.named<"model"::"blk.18.attn_q.weight"> : tensor<2048x2176xi8>
  util.global private @__auto.blk.18.attn_k.weight = #flow.parameter.named<"model"::"blk.18.attn_k.weight"> : tensor<256x2176xi8>
  util.global private @__auto.blk.18.attn_v.weight = #flow.parameter.named<"model"::"blk.18.attn_v.weight"> : tensor<256x2176xi8>
  util.global private @__auto.blk.18.attn_output.weight = #flow.parameter.named<"model"::"blk.18.attn_output.weight"> : tensor<2048x2176xi8>
  util.global private @__auto.blk.18.ffn_norm.weight = #flow.parameter.named<"model"::"blk.18.ffn_norm.weight"> : tensor<2048xf32>
  util.global private @__auto.blk.18.ffn_gate.weight = #flow.parameter.named<"model"::"blk.18.ffn_gate.weight"> : tensor<5632x2176xi8>
  util.global private @__auto.blk.18.ffn_up.weight = #flow.parameter.named<"model"::"blk.18.ffn_up.weight"> : tensor<5632x2176xi8>
  util.global private @__auto.blk.18.ffn_down.weight = #flow.parameter.named<"model"::"blk.18.ffn_down.weight"> : tensor<2048x5984xi8>
  util.global private @__auto.blk.19.attn_norm.weight = #flow.parameter.named<"model"::"blk.19.attn_norm.weight"> : tensor<2048xf32>
  util.global private @__auto.blk.19.attn_q.weight = #flow.parameter.named<"model"::"blk.19.attn_q.weight"> : tensor<2048x2176xi8>
  util.global private @__auto.blk.19.attn_k.weight = #flow.parameter.named<"model"::"blk.19.attn_k.weight"> : tensor<256x2176xi8>
  util.global private @__auto.blk.19.attn_v.weight = #flow.parameter.named<"model"::"blk.19.attn_v.weight"> : tensor<256x2176xi8>
  util.global private @__auto.blk.19.attn_output.weight = #flow.parameter.named<"model"::"blk.19.attn_output.weight"> : tensor<2048x2176xi8>
  util.global private @__auto.blk.19.ffn_norm.weight = #flow.parameter.named<"model"::"blk.19.ffn_norm.weight"> : tensor<2048xf32>
  util.global private @__auto.blk.19.ffn_gate.weight = #flow.parameter.named<"model"::"blk.19.ffn_gate.weight"> : tensor<5632x2176xi8>
  util.global private @__auto.blk.19.ffn_up.weight = #flow.parameter.named<"model"::"blk.19.ffn_up.weight"> : tensor<5632x2176xi8>
  util.global private @__auto.blk.19.ffn_down.weight = #flow.parameter.named<"model"::"blk.19.ffn_down.weight"> : tensor<2048x5984xi8>
  util.global private @__auto.blk.20.attn_norm.weight = #flow.parameter.named<"model"::"blk.20.attn_norm.weight"> : tensor<2048xf32>
  util.global private @__auto.blk.20.attn_q.weight = #flow.parameter.named<"model"::"blk.20.attn_q.weight"> : tensor<2048x2176xi8>
  util.global private @__auto.blk.20.attn_k.weight = #flow.parameter.named<"model"::"blk.20.attn_k.weight"> : tensor<256x2176xi8>
  util.global private @__auto.blk.20.attn_v.weight = #flow.parameter.named<"model"::"blk.20.attn_v.weight"> : tensor<256x2176xi8>
  util.global private @__auto.blk.20.attn_output.weight = #flow.parameter.named<"model"::"blk.20.attn_output.weight"> : tensor<2048x2176xi8>
  util.global private @__auto.blk.20.ffn_norm.weight = #flow.parameter.named<"model"::"blk.20.ffn_norm.weight"> : tensor<2048xf32>
  util.global private @__auto.blk.20.ffn_gate.weight = #flow.parameter.named<"model"::"blk.20.ffn_gate.weight"> : tensor<5632x2176xi8>
  util.global private @__auto.blk.20.ffn_up.weight = #flow.parameter.named<"model"::"blk.20.ffn_up.weight"> : tensor<5632x2176xi8>
  util.global private @__auto.blk.20.ffn_down.weight = #flow.parameter.named<"model"::"blk.20.ffn_down.weight"> : tensor<2048x5984xi8>
  util.global private @__auto.blk.21.attn_norm.weight = #flow.parameter.named<"model"::"blk.21.attn_norm.weight"> : tensor<2048xf32>
  util.global private @__auto.blk.21.attn_q.weight = #flow.parameter.named<"model"::"blk.21.attn_q.weight"> : tensor<2048x2176xi8>
  util.global private @__auto.blk.21.attn_k.weight = #flow.parameter.named<"model"::"blk.21.attn_k.weight"> : tensor<256x2176xi8>
  util.global private @__auto.blk.21.attn_v.weight = #flow.parameter.named<"model"::"blk.21.attn_v.weight"> : tensor<256x2176xi8>
  util.global private @__auto.blk.21.attn_output.weight = #flow.parameter.named<"model"::"blk.21.attn_output.weight"> : tensor<2048x2176xi8>
  util.global private @__auto.blk.21.ffn_norm.weight = #flow.parameter.named<"model"::"blk.21.ffn_norm.weight"> : tensor<2048xf32>
  util.global private @__auto.blk.21.ffn_gate.weight = #flow.parameter.named<"model"::"blk.21.ffn_gate.weight"> : tensor<5632x2176xi8>
  util.global private @__auto.blk.21.ffn_up.weight = #flow.parameter.named<"model"::"blk.21.ffn_up.weight"> : tensor<5632x2176xi8>
  util.global private @__auto.blk.21.ffn_down.weight = #flow.parameter.named<"model"::"blk.21.ffn_down.weight"> : tensor<2048x5984xi8>
  util.global private @__auto.output_norm.weight = #flow.parameter.named<"model"::"output_norm.weight"> : tensor<2048xf32>
  util.global private @__auto.output.weight = #flow.parameter.named<"model"::"output.weight"> : tensor<32000x2176xi8>
  util.func public @prefill_bs4$async(%arg0: !hal.buffer_view, %arg1: !hal.buffer_view, %arg2: !hal.buffer_view, %arg3: !hal.buffer_view, %arg4: !hal.fence, %arg5: !hal.fence) -> !hal.buffer_view attributes {inlining_policy = #util.inline.never, iree.abi.model = "coarse-fences", iree.abi.stub} {
    %cst = arith.constant 1.250000e-01 : f16
    %c3 = arith.constant 3 : index
    %c2 = arith.constant 2 : index
    %cst_0 = arith.constant dense<0> : tensor<i64>
    %c21_i64 = arith.constant 21 : i64
    %c20_i64 = arith.constant 20 : i64
    %c19_i64 = arith.constant 19 : i64
    %c18_i64 = arith.constant 18 : i64
    %c16_i64 = arith.constant 16 : i64
    %c15_i64 = arith.constant 15 : i64
    %c14_i64 = arith.constant 14 : i64
    %c13_i64 = arith.constant 13 : i64
    %c12_i64 = arith.constant 12 : i64
    %c11_i64 = arith.constant 11 : i64
    %c10_i64 = arith.constant 10 : i64
    %c9_i64 = arith.constant 9 : i64
    %c7_i64 = arith.constant 7 : i64
    %c8_i64 = arith.constant 8 : i64
    %c22_i64 = arith.constant 22 : i64
    %c3_i64 = arith.constant 3 : i64
    %c4_i64 = arith.constant 4 : i64
    %c6_i64 = arith.constant 6 : i64
    %c5_i64 = arith.constant 5 : i64
    %c17_i64 = arith.constant 17 : i64
    %c2_i64 = arith.constant 2 : i64
    %c0_i64 = arith.constant 0 : i64
    %c1_i64 = arith.constant 1 : i64
    %c32 = arith.constant 32 : index
    %c0 = arith.constant 0 : index
    %cst_1 = arith.constant dense<0xFC00> : tensor<f16>
    %cst_2 = arith.constant dense<1.000000e+00> : tensor<f32>
    %c1 = arith.constant 1 : index
    %c32000 = arith.constant 32000 : index
    %cst_3 = arith.constant 0.000000e+00 : f32
    %cst_4 = arith.constant 1.000000e+00 : f32
    %c44 = arith.constant 44 : index
    %cst_5 = arith.constant 1.000000e+00 : f16
    %cst_6 = arith.constant 2.048000e+03 : f32
    %cst_7 = arith.constant 9.99999974E-6 : f32
    %cst_8 = arith.constant 6.400000e+01 : f32
    %cst_9 = arith.constant 1.000000e+04 : f32
    %0 = hal.buffer_view.dim<%arg0 : !hal.buffer_view>[1] : index
    %1 = hal.tensor.import on(#hal.device.promise<@__device_0>) wait(%arg4) => %arg0 : !hal.buffer_view -> tensor<4x?xi64>{%0}
    %2 = hal.tensor.import on(#hal.device.promise<@__device_0>) wait(%arg4) => %arg1 : !hal.buffer_view -> tensor<4xi64>
    %3 = hal.buffer_view.dim<%arg2 : !hal.buffer_view>[1] : index
    %4 = hal.tensor.import on(#hal.device.promise<@__device_0>) wait(%arg4) => %arg2 : !hal.buffer_view -> tensor<4x?xi64>{%3}
    %dim = tensor.dim %4, %c1 : tensor<4x?xi64>
    %__auto.token_embd.weight = util.global.load @__auto.token_embd.weight : tensor<32000x2176xi8>
    %__auto.blk.0.attn_norm.weight = util.global.load @__auto.blk.0.attn_norm.weight : tensor<2048xf32>
    %__auto.blk.0.attn_q.weight = util.global.load @__auto.blk.0.attn_q.weight : tensor<2048x2176xi8>
    %__auto.blk.0.attn_k.weight = util.global.load @__auto.blk.0.attn_k.weight : tensor<256x2176xi8>
    %__auto.blk.0.attn_v.weight = util.global.load @__auto.blk.0.attn_v.weight : tensor<256x2176xi8>
    %__auto.blk.0.attn_output.weight = util.global.load @__auto.blk.0.attn_output.weight : tensor<2048x2176xi8>
    %__auto.blk.0.ffn_norm.weight = util.global.load @__auto.blk.0.ffn_norm.weight : tensor<2048xf32>
    %__auto.blk.0.ffn_gate.weight = util.global.load @__auto.blk.0.ffn_gate.weight : tensor<5632x2176xi8>
    %__auto.blk.0.ffn_up.weight = util.global.load @__auto.blk.0.ffn_up.weight : tensor<5632x2176xi8>
    %__auto.blk.0.ffn_down.weight = util.global.load @__auto.blk.0.ffn_down.weight : tensor<2048x5984xi8>
    %__auto.blk.1.attn_norm.weight = util.global.load @__auto.blk.1.attn_norm.weight : tensor<2048xf32>
    %__auto.blk.1.attn_q.weight = util.global.load @__auto.blk.1.attn_q.weight : tensor<2048x2176xi8>
    %__auto.blk.1.attn_k.weight = util.global.load @__auto.blk.1.attn_k.weight : tensor<256x2176xi8>
    %__auto.blk.1.attn_v.weight = util.global.load @__auto.blk.1.attn_v.weight : tensor<256x2176xi8>
    %__auto.blk.1.attn_output.weight = util.global.load @__auto.blk.1.attn_output.weight : tensor<2048x2176xi8>
    %__auto.blk.1.ffn_norm.weight = util.global.load @__auto.blk.1.ffn_norm.weight : tensor<2048xf32>
    %__auto.blk.1.ffn_gate.weight = util.global.load @__auto.blk.1.ffn_gate.weight : tensor<5632x2176xi8>
    %__auto.blk.1.ffn_up.weight = util.global.load @__auto.blk.1.ffn_up.weight : tensor<5632x2176xi8>
    %__auto.blk.1.ffn_down.weight = util.global.load @__auto.blk.1.ffn_down.weight : tensor<2048x5984xi8>
    %__auto.blk.2.attn_norm.weight = util.global.load @__auto.blk.2.attn_norm.weight : tensor<2048xf32>
    %__auto.blk.2.attn_q.weight = util.global.load @__auto.blk.2.attn_q.weight : tensor<2048x2176xi8>
    %__auto.blk.2.attn_k.weight = util.global.load @__auto.blk.2.attn_k.weight : tensor<256x2176xi8>
    %__auto.blk.2.attn_v.weight = util.global.load @__auto.blk.2.attn_v.weight : tensor<256x2176xi8>
    %__auto.blk.2.attn_output.weight = util.global.load @__auto.blk.2.attn_output.weight : tensor<2048x2176xi8>
    %__auto.blk.2.ffn_norm.weight = util.global.load @__auto.blk.2.ffn_norm.weight : tensor<2048xf32>
    %__auto.blk.2.ffn_gate.weight = util.global.load @__auto.blk.2.ffn_gate.weight : tensor<5632x2176xi8>
    %__auto.blk.2.ffn_up.weight = util.global.load @__auto.blk.2.ffn_up.weight : tensor<5632x2176xi8>
    %__auto.blk.2.ffn_down.weight = util.global.load @__auto.blk.2.ffn_down.weight : tensor<2048x5984xi8>
    %__auto.blk.3.attn_norm.weight = util.global.load @__auto.blk.3.attn_norm.weight : tensor<2048xf32>
    %__auto.blk.3.attn_q.weight = util.global.load @__auto.blk.3.attn_q.weight : tensor<2048x2176xi8>
    %__auto.blk.3.attn_k.weight = util.global.load @__auto.blk.3.attn_k.weight : tensor<256x2176xi8>
    %__auto.blk.3.attn_v.weight = util.global.load @__auto.blk.3.attn_v.weight : tensor<256x2176xi8>
    %__auto.blk.3.attn_output.weight = util.global.load @__auto.blk.3.attn_output.weight : tensor<2048x2176xi8>
    %__auto.blk.3.ffn_norm.weight = util.global.load @__auto.blk.3.ffn_norm.weight : tensor<2048xf32>
    %__auto.blk.3.ffn_gate.weight = util.global.load @__auto.blk.3.ffn_gate.weight : tensor<5632x2176xi8>
    %__auto.blk.3.ffn_up.weight = util.global.load @__auto.blk.3.ffn_up.weight : tensor<5632x2176xi8>
    %__auto.blk.3.ffn_down.weight = util.global.load @__auto.blk.3.ffn_down.weight : tensor<2048x5984xi8>
    %__auto.blk.4.attn_norm.weight = util.global.load @__auto.blk.4.attn_norm.weight : tensor<2048xf32>
    %__auto.blk.4.attn_q.weight = util.global.load @__auto.blk.4.attn_q.weight : tensor<2048x2176xi8>
    %__auto.blk.4.attn_k.weight = util.global.load @__auto.blk.4.attn_k.weight : tensor<256x2176xi8>
    %__auto.blk.4.attn_v.weight = util.global.load @__auto.blk.4.attn_v.weight : tensor<256x2176xi8>
    %__auto.blk.4.attn_output.weight = util.global.load @__auto.blk.4.attn_output.weight : tensor<2048x2176xi8>
    %__auto.blk.4.ffn_norm.weight = util.global.load @__auto.blk.4.ffn_norm.weight : tensor<2048xf32>
    %__auto.blk.4.ffn_gate.weight = util.global.load @__auto.blk.4.ffn_gate.weight : tensor<5632x2176xi8>
    %__auto.blk.4.ffn_up.weight = util.global.load @__auto.blk.4.ffn_up.weight : tensor<5632x2176xi8>
    %__auto.blk.4.ffn_down.weight = util.global.load @__auto.blk.4.ffn_down.weight : tensor<2048x5984xi8>
    %__auto.blk.5.attn_norm.weight = util.global.load @__auto.blk.5.attn_norm.weight : tensor<2048xf32>
    %__auto.blk.5.attn_q.weight = util.global.load @__auto.blk.5.attn_q.weight : tensor<2048x2176xi8>
    %__auto.blk.5.attn_k.weight = util.global.load @__auto.blk.5.attn_k.weight : tensor<256x2176xi8>
    %__auto.blk.5.attn_v.weight = util.global.load @__auto.blk.5.attn_v.weight : tensor<256x2176xi8>
    %__auto.blk.5.attn_output.weight = util.global.load @__auto.blk.5.attn_output.weight : tensor<2048x2176xi8>
    %__auto.blk.5.ffn_norm.weight = util.global.load @__auto.blk.5.ffn_norm.weight : tensor<2048xf32>
    %__auto.blk.5.ffn_gate.weight = util.global.load @__auto.blk.5.ffn_gate.weight : tensor<5632x2176xi8>
    %__auto.blk.5.ffn_up.weight = util.global.load @__auto.blk.5.ffn_up.weight : tensor<5632x2176xi8>
    %__auto.blk.5.ffn_down.weight = util.global.load @__auto.blk.5.ffn_down.weight : tensor<2048x5984xi8>
    %__auto.blk.6.attn_norm.weight = util.global.load @__auto.blk.6.attn_norm.weight : tensor<2048xf32>
    %__auto.blk.6.attn_q.weight = util.global.load @__auto.blk.6.attn_q.weight : tensor<2048x2176xi8>
    %__auto.blk.6.attn_k.weight = util.global.load @__auto.blk.6.attn_k.weight : tensor<256x2176xi8>
    %__auto.blk.6.attn_v.weight = util.global.load @__auto.blk.6.attn_v.weight : tensor<256x2176xi8>
    %__auto.blk.6.attn_output.weight = util.global.load @__auto.blk.6.attn_output.weight : tensor<2048x2176xi8>
    %__auto.blk.6.ffn_norm.weight = util.global.load @__auto.blk.6.ffn_norm.weight : tensor<2048xf32>
    %__auto.blk.6.ffn_gate.weight = util.global.load @__auto.blk.6.ffn_gate.weight : tensor<5632x2176xi8>
    %__auto.blk.6.ffn_up.weight = util.global.load @__auto.blk.6.ffn_up.weight : tensor<5632x2176xi8>
    %__auto.blk.6.ffn_down.weight = util.global.load @__auto.blk.6.ffn_down.weight : tensor<2048x5984xi8>
    %__auto.blk.7.attn_norm.weight = util.global.load @__auto.blk.7.attn_norm.weight : tensor<2048xf32>
    %__auto.blk.7.attn_q.weight = util.global.load @__auto.blk.7.attn_q.weight : tensor<2048x2176xi8>
    %__auto.blk.7.attn_k.weight = util.global.load @__auto.blk.7.attn_k.weight : tensor<256x2176xi8>
    %__auto.blk.7.attn_v.weight = util.global.load @__auto.blk.7.attn_v.weight : tensor<256x2176xi8>
    %__auto.blk.7.attn_output.weight = util.global.load @__auto.blk.7.attn_output.weight : tensor<2048x2176xi8>
    %__auto.blk.7.ffn_norm.weight = util.global.load @__auto.blk.7.ffn_norm.weight : tensor<2048xf32>
    %__auto.blk.7.ffn_gate.weight = util.global.load @__auto.blk.7.ffn_gate.weight : tensor<5632x2176xi8>
    %__auto.blk.7.ffn_up.weight = util.global.load @__auto.blk.7.ffn_up.weight : tensor<5632x2176xi8>
    %__auto.blk.7.ffn_down.weight = util.global.load @__auto.blk.7.ffn_down.weight : tensor<2048x5984xi8>
    %__auto.blk.8.attn_norm.weight = util.global.load @__auto.blk.8.attn_norm.weight : tensor<2048xf32>
    %__auto.blk.8.attn_q.weight = util.global.load @__auto.blk.8.attn_q.weight : tensor<2048x2176xi8>
    %__auto.blk.8.attn_k.weight = util.global.load @__auto.blk.8.attn_k.weight : tensor<256x2176xi8>
    %__auto.blk.8.attn_v.weight = util.global.load @__auto.blk.8.attn_v.weight : tensor<256x2176xi8>
    %__auto.blk.8.attn_output.weight = util.global.load @__auto.blk.8.attn_output.weight : tensor<2048x2176xi8>
    %__auto.blk.8.ffn_norm.weight = util.global.load @__auto.blk.8.ffn_norm.weight : tensor<2048xf32>
    %__auto.blk.8.ffn_gate.weight = util.global.load @__auto.blk.8.ffn_gate.weight : tensor<5632x2176xi8>
    %__auto.blk.8.ffn_up.weight = util.global.load @__auto.blk.8.ffn_up.weight : tensor<5632x2176xi8>
    %__auto.blk.8.ffn_down.weight = util.global.load @__auto.blk.8.ffn_down.weight : tensor<2048x5984xi8>
    %__auto.blk.9.attn_norm.weight = util.global.load @__auto.blk.9.attn_norm.weight : tensor<2048xf32>
    %__auto.blk.9.attn_q.weight = util.global.load @__auto.blk.9.attn_q.weight : tensor<2048x2176xi8>
    %__auto.blk.9.attn_k.weight = util.global.load @__auto.blk.9.attn_k.weight : tensor<256x2176xi8>
    %__auto.blk.9.attn_v.weight = util.global.load @__auto.blk.9.attn_v.weight : tensor<256x2176xi8>
    %__auto.blk.9.attn_output.weight = util.global.load @__auto.blk.9.attn_output.weight : tensor<2048x2176xi8>
    %__auto.blk.9.ffn_norm.weight = util.global.load @__auto.blk.9.ffn_norm.weight : tensor<2048xf32>
    %__auto.blk.9.ffn_gate.weight = util.global.load @__auto.blk.9.ffn_gate.weight : tensor<5632x2176xi8>
    %__auto.blk.9.ffn_up.weight = util.global.load @__auto.blk.9.ffn_up.weight : tensor<5632x2176xi8>
    %__auto.blk.9.ffn_down.weight = util.global.load @__auto.blk.9.ffn_down.weight : tensor<2048x5984xi8>
    %__auto.blk.10.attn_norm.weight = util.global.load @__auto.blk.10.attn_norm.weight : tensor<2048xf32>
    %__auto.blk.10.attn_q.weight = util.global.load @__auto.blk.10.attn_q.weight : tensor<2048x2176xi8>
    %__auto.blk.10.attn_k.weight = util.global.load @__auto.blk.10.attn_k.weight : tensor<256x2176xi8>
    %__auto.blk.10.attn_v.weight = util.global.load @__auto.blk.10.attn_v.weight : tensor<256x2176xi8>
    %__auto.blk.10.attn_output.weight = util.global.load @__auto.blk.10.attn_output.weight : tensor<2048x2176xi8>
    %__auto.blk.10.ffn_norm.weight = util.global.load @__auto.blk.10.ffn_norm.weight : tensor<2048xf32>
    %__auto.blk.10.ffn_gate.weight = util.global.load @__auto.blk.10.ffn_gate.weight : tensor<5632x2176xi8>
    %__auto.blk.10.ffn_up.weight = util.global.load @__auto.blk.10.ffn_up.weight : tensor<5632x2176xi8>
    %__auto.blk.10.ffn_down.weight = util.global.load @__auto.blk.10.ffn_down.weight : tensor<2048x5984xi8>
    %__auto.blk.11.attn_norm.weight = util.global.load @__auto.blk.11.attn_norm.weight : tensor<2048xf32>
    %__auto.blk.11.attn_q.weight = util.global.load @__auto.blk.11.attn_q.weight : tensor<2048x2176xi8>
    %__auto.blk.11.attn_k.weight = util.global.load @__auto.blk.11.attn_k.weight : tensor<256x2176xi8>
    %__auto.blk.11.attn_v.weight = util.global.load @__auto.blk.11.attn_v.weight : tensor<256x2176xi8>
    %__auto.blk.11.attn_output.weight = util.global.load @__auto.blk.11.attn_output.weight : tensor<2048x2176xi8>
    %__auto.blk.11.ffn_norm.weight = util.global.load @__auto.blk.11.ffn_norm.weight : tensor<2048xf32>
    %__auto.blk.11.ffn_gate.weight = util.global.load @__auto.blk.11.ffn_gate.weight : tensor<5632x2176xi8>
    %__auto.blk.11.ffn_up.weight = util.global.load @__auto.blk.11.ffn_up.weight : tensor<5632x2176xi8>
    %__auto.blk.11.ffn_down.weight = util.global.load @__auto.blk.11.ffn_down.weight : tensor<2048x5984xi8>
    %__auto.blk.12.attn_norm.weight = util.global.load @__auto.blk.12.attn_norm.weight : tensor<2048xf32>
    %__auto.blk.12.attn_q.weight = util.global.load @__auto.blk.12.attn_q.weight : tensor<2048x2176xi8>
    %__auto.blk.12.attn_k.weight = util.global.load @__auto.blk.12.attn_k.weight : tensor<256x2176xi8>
    %__auto.blk.12.attn_v.weight = util.global.load @__auto.blk.12.attn_v.weight : tensor<256x2176xi8>
    %__auto.blk.12.attn_output.weight = util.global.load @__auto.blk.12.attn_output.weight : tensor<2048x2176xi8>
    %__auto.blk.12.ffn_norm.weight = util.global.load @__auto.blk.12.ffn_norm.weight : tensor<2048xf32>
    %__auto.blk.12.ffn_gate.weight = util.global.load @__auto.blk.12.ffn_gate.weight : tensor<5632x2176xi8>
    %__auto.blk.12.ffn_up.weight = util.global.load @__auto.blk.12.ffn_up.weight : tensor<5632x2176xi8>
    %__auto.blk.12.ffn_down.weight = util.global.load @__auto.blk.12.ffn_down.weight : tensor<2048x5984xi8>
    %__auto.blk.13.attn_norm.weight = util.global.load @__auto.blk.13.attn_norm.weight : tensor<2048xf32>
    %__auto.blk.13.attn_q.weight = util.global.load @__auto.blk.13.attn_q.weight : tensor<2048x2176xi8>
    %__auto.blk.13.attn_k.weight = util.global.load @__auto.blk.13.attn_k.weight : tensor<256x2176xi8>
    %__auto.blk.13.attn_v.weight = util.global.load @__auto.blk.13.attn_v.weight : tensor<256x2176xi8>
    %__auto.blk.13.attn_output.weight = util.global.load @__auto.blk.13.attn_output.weight : tensor<2048x2176xi8>
    %__auto.blk.13.ffn_norm.weight = util.global.load @__auto.blk.13.ffn_norm.weight : tensor<2048xf32>
    %__auto.blk.13.ffn_gate.weight = util.global.load @__auto.blk.13.ffn_gate.weight : tensor<5632x2176xi8>
    %__auto.blk.13.ffn_up.weight = util.global.load @__auto.blk.13.ffn_up.weight : tensor<5632x2176xi8>
    %__auto.blk.13.ffn_down.weight = util.global.load @__auto.blk.13.ffn_down.weight : tensor<2048x5984xi8>
    %__auto.blk.14.attn_norm.weight = util.global.load @__auto.blk.14.attn_norm.weight : tensor<2048xf32>
    %__auto.blk.14.attn_q.weight = util.global.load @__auto.blk.14.attn_q.weight : tensor<2048x2176xi8>
    %__auto.blk.14.attn_k.weight = util.global.load @__auto.blk.14.attn_k.weight : tensor<256x2176xi8>
    %__auto.blk.14.attn_v.weight = util.global.load @__auto.blk.14.attn_v.weight : tensor<256x2176xi8>
    %__auto.blk.14.attn_output.weight = util.global.load @__auto.blk.14.attn_output.weight : tensor<2048x2176xi8>
    %__auto.blk.14.ffn_norm.weight = util.global.load @__auto.blk.14.ffn_norm.weight : tensor<2048xf32>
    %__auto.blk.14.ffn_gate.weight = util.global.load @__auto.blk.14.ffn_gate.weight : tensor<5632x2176xi8>
    %__auto.blk.14.ffn_up.weight = util.global.load @__auto.blk.14.ffn_up.weight : tensor<5632x2176xi8>
    %__auto.blk.14.ffn_down.weight = util.global.load @__auto.blk.14.ffn_down.weight : tensor<2048x5984xi8>
    %__auto.blk.15.attn_norm.weight = util.global.load @__auto.blk.15.attn_norm.weight : tensor<2048xf32>
    %__auto.blk.15.attn_q.weight = util.global.load @__auto.blk.15.attn_q.weight : tensor<2048x2176xi8>
    %__auto.blk.15.attn_k.weight = util.global.load @__auto.blk.15.attn_k.weight : tensor<256x2176xi8>
    %__auto.blk.15.attn_v.weight = util.global.load @__auto.blk.15.attn_v.weight : tensor<256x2176xi8>
    %__auto.blk.15.attn_output.weight = util.global.load @__auto.blk.15.attn_output.weight : tensor<2048x2176xi8>
    %__auto.blk.15.ffn_norm.weight = util.global.load @__auto.blk.15.ffn_norm.weight : tensor<2048xf32>
    %__auto.blk.15.ffn_gate.weight = util.global.load @__auto.blk.15.ffn_gate.weight : tensor<5632x2176xi8>
    %__auto.blk.15.ffn_up.weight = util.global.load @__auto.blk.15.ffn_up.weight : tensor<5632x2176xi8>
    %__auto.blk.15.ffn_down.weight = util.global.load @__auto.blk.15.ffn_down.weight : tensor<2048x5984xi8>
    %__auto.blk.16.attn_norm.weight = util.global.load @__auto.blk.16.attn_norm.weight : tensor<2048xf32>
    %__auto.blk.16.attn_q.weight = util.global.load @__auto.blk.16.attn_q.weight : tensor<2048x2176xi8>
    %__auto.blk.16.attn_k.weight = util.global.load @__auto.blk.16.attn_k.weight : tensor<256x2176xi8>
    %__auto.blk.16.attn_v.weight = util.global.load @__auto.blk.16.attn_v.weight : tensor<256x2176xi8>
    %__auto.blk.16.attn_output.weight = util.global.load @__auto.blk.16.attn_output.weight : tensor<2048x2176xi8>
    %__auto.blk.16.ffn_norm.weight = util.global.load @__auto.blk.16.ffn_norm.weight : tensor<2048xf32>
    %__auto.blk.16.ffn_gate.weight = util.global.load @__auto.blk.16.ffn_gate.weight : tensor<5632x2176xi8>
    %__auto.blk.16.ffn_up.weight = util.global.load @__auto.blk.16.ffn_up.weight : tensor<5632x2176xi8>
    %__auto.blk.16.ffn_down.weight = util.global.load @__auto.blk.16.ffn_down.weight : tensor<2048x5984xi8>
    %__auto.blk.17.attn_norm.weight = util.global.load @__auto.blk.17.attn_norm.weight : tensor<2048xf32>
    %__auto.blk.17.attn_q.weight = util.global.load @__auto.blk.17.attn_q.weight : tensor<2048x2176xi8>
    %__auto.blk.17.attn_k.weight = util.global.load @__auto.blk.17.attn_k.weight : tensor<256x2176xi8>
    %__auto.blk.17.attn_v.weight = util.global.load @__auto.blk.17.attn_v.weight : tensor<256x2176xi8>
    %__auto.blk.17.attn_output.weight = util.global.load @__auto.blk.17.attn_output.weight : tensor<2048x2176xi8>
    %__auto.blk.17.ffn_norm.weight = util.global.load @__auto.blk.17.ffn_norm.weight : tensor<2048xf32>
    %__auto.blk.17.ffn_gate.weight = util.global.load @__auto.blk.17.ffn_gate.weight : tensor<5632x2176xi8>
    %__auto.blk.17.ffn_up.weight = util.global.load @__auto.blk.17.ffn_up.weight : tensor<5632x2176xi8>
    %__auto.blk.17.ffn_down.weight = util.global.load @__auto.blk.17.ffn_down.weight : tensor<2048x5984xi8>
    %__auto.blk.18.attn_norm.weight = util.global.load @__auto.blk.18.attn_norm.weight : tensor<2048xf32>
    %__auto.blk.18.attn_q.weight = util.global.load @__auto.blk.18.attn_q.weight : tensor<2048x2176xi8>
    %__auto.blk.18.attn_k.weight = util.global.load @__auto.blk.18.attn_k.weight : tensor<256x2176xi8>
    %__auto.blk.18.attn_v.weight = util.global.load @__auto.blk.18.attn_v.weight : tensor<256x2176xi8>
    %__auto.blk.18.attn_output.weight = util.global.load @__auto.blk.18.attn_output.weight : tensor<2048x2176xi8>
    %__auto.blk.18.ffn_norm.weight = util.global.load @__auto.blk.18.ffn_norm.weight : tensor<2048xf32>
    %__auto.blk.18.ffn_gate.weight = util.global.load @__auto.blk.18.ffn_gate.weight : tensor<5632x2176xi8>
    %__auto.blk.18.ffn_up.weight = util.global.load @__auto.blk.18.ffn_up.weight : tensor<5632x2176xi8>
    %__auto.blk.18.ffn_down.weight = util.global.load @__auto.blk.18.ffn_down.weight : tensor<2048x5984xi8>
    %__auto.blk.19.attn_norm.weight = util.global.load @__auto.blk.19.attn_norm.weight : tensor<2048xf32>
    %__auto.blk.19.attn_q.weight = util.global.load @__auto.blk.19.attn_q.weight : tensor<2048x2176xi8>
    %__auto.blk.19.attn_k.weight = util.global.load @__auto.blk.19.attn_k.weight : tensor<256x2176xi8>
    %__auto.blk.19.attn_v.weight = util.global.load @__auto.blk.19.attn_v.weight : tensor<256x2176xi8>
    %__auto.blk.19.attn_output.weight = util.global.load @__auto.blk.19.attn_output.weight : tensor<2048x2176xi8>
    %__auto.blk.19.ffn_norm.weight = util.global.load @__auto.blk.19.ffn_norm.weight : tensor<2048xf32>
    %__auto.blk.19.ffn_gate.weight = util.global.load @__auto.blk.19.ffn_gate.weight : tensor<5632x2176xi8>
    %__auto.blk.19.ffn_up.weight = util.global.load @__auto.blk.19.ffn_up.weight : tensor<5632x2176xi8>
    %__auto.blk.19.ffn_down.weight = util.global.load @__auto.blk.19.ffn_down.weight : tensor<2048x5984xi8>
    %__auto.blk.20.attn_norm.weight = util.global.load @__auto.blk.20.attn_norm.weight : tensor<2048xf32>
    %__auto.blk.20.attn_q.weight = util.global.load @__auto.blk.20.attn_q.weight : tensor<2048x2176xi8>
    %__auto.blk.20.attn_k.weight = util.global.load @__auto.blk.20.attn_k.weight : tensor<256x2176xi8>
    %__auto.blk.20.attn_v.weight = util.global.load @__auto.blk.20.attn_v.weight : tensor<256x2176xi8>
    %__auto.blk.20.attn_output.weight = util.global.load @__auto.blk.20.attn_output.weight : tensor<2048x2176xi8>
    %__auto.blk.20.ffn_norm.weight = util.global.load @__auto.blk.20.ffn_norm.weight : tensor<2048xf32>
    %__auto.blk.20.ffn_gate.weight = util.global.load @__auto.blk.20.ffn_gate.weight : tensor<5632x2176xi8>
    %__auto.blk.20.ffn_up.weight = util.global.load @__auto.blk.20.ffn_up.weight : tensor<5632x2176xi8>
    %__auto.blk.20.ffn_down.weight = util.global.load @__auto.blk.20.ffn_down.weight : tensor<2048x5984xi8>
    %__auto.blk.21.attn_norm.weight = util.global.load @__auto.blk.21.attn_norm.weight : tensor<2048xf32>
    %__auto.blk.21.attn_q.weight = util.global.load @__auto.blk.21.attn_q.weight : tensor<2048x2176xi8>
    %__auto.blk.21.attn_k.weight = util.global.load @__auto.blk.21.attn_k.weight : tensor<256x2176xi8>
    %__auto.blk.21.attn_v.weight = util.global.load @__auto.blk.21.attn_v.weight : tensor<256x2176xi8>
    %__auto.blk.21.attn_output.weight = util.global.load @__auto.blk.21.attn_output.weight : tensor<2048x2176xi8>
    %__auto.blk.21.ffn_norm.weight = util.global.load @__auto.blk.21.ffn_norm.weight : tensor<2048xf32>
    %__auto.blk.21.ffn_gate.weight = util.global.load @__auto.blk.21.ffn_gate.weight : tensor<5632x2176xi8>
    %__auto.blk.21.ffn_up.weight = util.global.load @__auto.blk.21.ffn_up.weight : tensor<5632x2176xi8>
    %__auto.blk.21.ffn_down.weight = util.global.load @__auto.blk.21.ffn_down.weight : tensor<2048x5984xi8>
    %__auto.output_norm.weight = util.global.load @__auto.output_norm.weight : tensor<2048xf32>
    %__auto.output.weight = util.global.load @__auto.output.weight : tensor<32000x2176xi8>
    %5 = hal.buffer_view.dim<%arg3 : !hal.buffer_view>[0] : index
    %6 = hal.tensor.import on(#hal.device.promise<@__device_0>) wait(%arg4) => %arg3 : !hal.buffer_view -> tensor<?x360448xf16>{%5}
    %dim_10 = tensor.dim %6, %c0 : tensor<?x360448xf16>
    %7 = arith.muli %dim, %c32 : index
    %8 = util.assume.int %7<umin = 32, umax = 2016, udiv = 32> : index
    %9 = flow.tensor.tie_shape %1 : tensor<4x?xi64>{%8}
    %10 = util.assume.int %dim<umin = 1, umax = 63> : index
    %11 = flow.tensor.tie_shape %4 : tensor<4x?xi64>{%10}
    %12 = util.assume.int %dim_10<umin = 1, umax = 9007199254740991> : index
    %13 = flow.tensor.tie_shape %6 : tensor<?x360448xf16>{%12}
    %dim_11 = tensor.dim %9, %c1 : tensor<4x?xi64>
    %14 = arith.index_cast %dim_11 : index to i64
    %15 = iree_tensor_ext.bitcast %__auto.token_embd.weight : tensor<32000x2176xi8> -> tensor<32000x1088xi16>
    %expanded = tensor.expand_shape %15 [[0], [1, 2]] output_shape [32000, 64, 17] : tensor<32000x1088xi16> into tensor<32000x64x17xi16>
    %extracted_slice = tensor.extract_slice %expanded[0, 0, 0] [32000, 64, 1] [1, 1, 1] : tensor<32000x64x17xi16> to tensor<32000x64x1xi16>
    %16 = iree_tensor_ext.bitcast %extracted_slice : tensor<32000x64x1xi16> -> tensor<32000x64x1xf16>
    %extracted_slice_12 = tensor.extract_slice %expanded[0, 0, 1] [32000, 64, 16] [1, 1, 1] : tensor<32000x64x17xi16> to tensor<32000x64x16xi16>
    %17 = iree_tensor_ext.bitcast %extracted_slice_12 : tensor<32000x64x16xi16> -> tensor<32000x64x32xi8>
    %18 = tensor.empty() : tensor<32000x64x32xf16>
    %19 = linalg.generic {indexing_maps = [#map, #map], iterator_types = ["parallel", "parallel", "parallel"]} ins(%17 : tensor<32000x64x32xi8>) outs(%18 : tensor<32000x64x32xf16>) {
    ^bb0(%in: i8, %out: f16):
      %3358 = arith.sitofp %in : i8 to f16
      linalg.yield %3358 : f16
    } -> tensor<32000x64x32xf16>
    %20 = linalg.generic {indexing_maps = [#map1, #map, #map], iterator_types = ["parallel", "parallel", "parallel"]} ins(%16, %19 : tensor<32000x64x1xf16>, tensor<32000x64x32xf16>) outs(%18 : tensor<32000x64x32xf16>) {
    ^bb0(%in: f16, %in_1860: f16, %out: f16):
      %3358 = arith.mulf %in, %in_1860 : f16
      linalg.yield %3358 : f16
    } -> tensor<32000x64x32xf16>
    %collapsed = tensor.collapse_shape %20 [[0], [1, 2]] : tensor<32000x64x32xf16> into tensor<32000x2048xf16>
    %21 = tensor.empty(%dim_11) : tensor<4x?x2048xf16>
    %22 = linalg.generic {indexing_maps = [#map2, #map], iterator_types = ["parallel", "parallel", "parallel"]} ins(%9 : tensor<4x?xi64>) outs(%21 : tensor<4x?x2048xf16>) {
    ^bb0(%in: i64, %out: f16):
      %3358 = arith.index_cast %in : i64 to index
      %3359 = linalg.index 2 : index
      %3360 = arith.cmpi slt, %3358, %c32000 : index
      cf.assert %3360, "index must be smaller than dim size"
      %3361 = arith.cmpi sge, %in, %c0_i64 : i64
      cf.assert %3361, "index must be larger or equal to 0"
      %extracted = tensor.extract %collapsed[%3358, %3359] : tensor<32000x2048xf16>
      linalg.yield %extracted : f16
    } -> tensor<4x?x2048xf16>
    %23 = tensor.empty(%dim_11) : tensor<4x?x2048xf32>
    %24 = linalg.generic {indexing_maps = [#map, #map], iterator_types = ["parallel", "parallel", "parallel"]} ins(%22 : tensor<4x?x2048xf16>) outs(%23 : tensor<4x?x2048xf32>) {
    ^bb0(%in: f16, %out: f32):
      %3358 = arith.extf %in : f16 to f32
      linalg.yield %3358 : f32
    } -> tensor<4x?x2048xf32>
    %25 = linalg.generic {indexing_maps = [#map, #map], iterator_types = ["parallel", "parallel", "parallel"]} ins(%24 : tensor<4x?x2048xf32>) outs(%23 : tensor<4x?x2048xf32>) {
    ^bb0(%in: f32, %out: f32):
      %3358 = math.fpowi %in, %c2_i64 : f32, i64
      linalg.yield %3358 : f32
    } -> tensor<4x?x2048xf32>
    %26 = tensor.empty(%dim_11) : tensor<4x?x1xf32>
    %27 = linalg.fill ins(%cst_3 : f32) outs(%26 : tensor<4x?x1xf32>) -> tensor<4x?x1xf32>
    %28 = linalg.generic {indexing_maps = [#map, #map1], iterator_types = ["parallel", "parallel", "reduction"]} ins(%25 : tensor<4x?x2048xf32>) outs(%27 : tensor<4x?x1xf32>) {
    ^bb0(%in: f32, %out: f32):
      %3358 = arith.addf %in, %out : f32
      linalg.yield %3358 : f32
    } -> tensor<4x?x1xf32>
    %29 = linalg.generic {indexing_maps = [#map, #map], iterator_types = ["parallel", "parallel", "parallel"]} ins(%28 : tensor<4x?x1xf32>) outs(%26 : tensor<4x?x1xf32>) {
    ^bb0(%in: f32, %out: f32):
      %3358 = arith.divf %in, %cst_6 : f32
      linalg.yield %3358 : f32
    } -> tensor<4x?x1xf32>
    %30 = linalg.generic {indexing_maps = [#map, #map], iterator_types = ["parallel", "parallel", "parallel"]} ins(%29 : tensor<4x?x1xf32>) outs(%26 : tensor<4x?x1xf32>) {
    ^bb0(%in: f32, %out: f32):
      %3358 = arith.addf %in, %cst_7 : f32
      linalg.yield %3358 : f32
    } -> tensor<4x?x1xf32>
    %31 = linalg.generic {indexing_maps = [#map, #map], iterator_types = ["parallel", "parallel", "parallel"]} ins(%30 : tensor<4x?x1xf32>) outs(%26 : tensor<4x?x1xf32>) {
    ^bb0(%in: f32, %out: f32):
      %3358 = math.rsqrt %in : f32
      linalg.yield %3358 : f32
    } -> tensor<4x?x1xf32>
    %32 = linalg.generic {indexing_maps = [#map, #map1, #map], iterator_types = ["parallel", "parallel", "parallel"]} ins(%24, %31 : tensor<4x?x2048xf32>, tensor<4x?x1xf32>) outs(%23 : tensor<4x?x2048xf32>) {
    ^bb0(%in: f32, %in_1860: f32, %out: f32):
      %3358 = arith.mulf %in, %in_1860 : f32
      linalg.yield %3358 : f32
    } -> tensor<4x?x2048xf32>
    %33 = linalg.generic {indexing_maps = [#map, #map], iterator_types = ["parallel", "parallel", "parallel"]} ins(%32 : tensor<4x?x2048xf32>) outs(%21 : tensor<4x?x2048xf16>) {
    ^bb0(%in: f32, %out: f16):
      %3358 = arith.truncf %in : f32 to f16
      linalg.yield %3358 : f16
    } -> tensor<4x?x2048xf16>
    %34 = linalg.generic {indexing_maps = [#map3, #map, #map], iterator_types = ["parallel", "parallel", "parallel"]} ins(%__auto.blk.0.attn_norm.weight, %33 : tensor<2048xf32>, tensor<4x?x2048xf16>) outs(%23 : tensor<4x?x2048xf32>) {
    ^bb0(%in: f32, %in_1860: f16, %out: f32):
      %3358 = arith.extf %in_1860 : f16 to f32
      %3359 = arith.mulf %in, %3358 : f32
      linalg.yield %3359 : f32
    } -> tensor<4x?x2048xf32>
    %35 = linalg.generic {indexing_maps = [#map, #map], iterator_types = ["parallel", "parallel", "parallel"]} ins(%34 : tensor<4x?x2048xf32>) outs(%21 : tensor<4x?x2048xf16>) {
    ^bb0(%in: f32, %out: f16):
      %3358 = arith.truncf %in : f32 to f16
      linalg.yield %3358 : f16
    } -> tensor<4x?x2048xf16>
    %36 = iree_tensor_ext.bitcast %__auto.blk.0.attn_q.weight : tensor<2048x2176xi8> -> tensor<2048x1088xi16>
    %expanded_13 = tensor.expand_shape %36 [[0], [1, 2]] output_shape [2048, 64, 17] : tensor<2048x1088xi16> into tensor<2048x64x17xi16>
    %extracted_slice_14 = tensor.extract_slice %expanded_13[0, 0, 0] [2048, 64, 1] [1, 1, 1] : tensor<2048x64x17xi16> to tensor<2048x64x1xi16>
    %37 = iree_tensor_ext.bitcast %extracted_slice_14 : tensor<2048x64x1xi16> -> tensor<2048x64x1xf16>
    %extracted_slice_15 = tensor.extract_slice %expanded_13[0, 0, 1] [2048, 64, 16] [1, 1, 1] : tensor<2048x64x17xi16> to tensor<2048x64x16xi16>
    %38 = iree_tensor_ext.bitcast %extracted_slice_15 : tensor<2048x64x16xi16> -> tensor<2048x64x32xi8>
    %dim_16 = tensor.dim %35, %c1 : tensor<4x?x2048xf16>
    %39 = tensor.empty() : tensor<2048x64x32xf16>
    %40 = linalg.generic {indexing_maps = [#map1, #map, #map], iterator_types = ["parallel", "parallel", "parallel"]} ins(%37, %38 : tensor<2048x64x1xf16>, tensor<2048x64x32xi8>) outs(%39 : tensor<2048x64x32xf16>) {
    ^bb0(%in: f16, %in_1860: i8, %out: f16):
      %3358 = arith.extsi %in_1860 : i8 to i32
      %3359 = arith.sitofp %3358 : i32 to f16
      %3360 = arith.mulf %3359, %in : f16
      linalg.yield %3360 : f16
    } -> tensor<2048x64x32xf16>
    %expanded_17 = tensor.expand_shape %35 [[0], [1], [2, 3]] output_shape [4, %dim_16, 64, 32] : tensor<4x?x2048xf16> into tensor<4x?x64x32xf16>
    %41 = tensor.empty(%dim_16) : tensor<4x?x2048xf32>
    %42 = linalg.fill ins(%cst_3 : f32) outs(%41 : tensor<4x?x2048xf32>) -> tensor<4x?x2048xf32>
    %43 = linalg.generic {indexing_maps = [#map4, #map5, #map6], iterator_types = ["parallel", "parallel", "parallel", "reduction", "reduction"]} ins(%expanded_17, %40 : tensor<4x?x64x32xf16>, tensor<2048x64x32xf16>) outs(%42 : tensor<4x?x2048xf32>) {
    ^bb0(%in: f16, %in_1860: f16, %out: f32):
      %3358 = arith.mulf %in, %in_1860 : f16
      %3359 = arith.extf %3358 : f16 to f32
      %3360 = arith.addf %3359, %out : f32
      linalg.yield %3360 : f32
    } -> tensor<4x?x2048xf32>
    %44 = tensor.empty(%dim_16) : tensor<4x?x2048xf16>
    %45 = linalg.copy ins(%43 : tensor<4x?x2048xf32>) outs(%44 : tensor<4x?x2048xf16>) -> tensor<4x?x2048xf16>
    %46 = iree_tensor_ext.bitcast %__auto.blk.0.attn_k.weight : tensor<256x2176xi8> -> tensor<256x1088xi16>
    %expanded_18 = tensor.expand_shape %46 [[0], [1, 2]] output_shape [256, 64, 17] : tensor<256x1088xi16> into tensor<256x64x17xi16>
    %extracted_slice_19 = tensor.extract_slice %expanded_18[0, 0, 0] [256, 64, 1] [1, 1, 1] : tensor<256x64x17xi16> to tensor<256x64x1xi16>
    %47 = iree_tensor_ext.bitcast %extracted_slice_19 : tensor<256x64x1xi16> -> tensor<256x64x1xf16>
    %extracted_slice_20 = tensor.extract_slice %expanded_18[0, 0, 1] [256, 64, 16] [1, 1, 1] : tensor<256x64x17xi16> to tensor<256x64x16xi16>
    %48 = iree_tensor_ext.bitcast %extracted_slice_20 : tensor<256x64x16xi16> -> tensor<256x64x32xi8>
    %dim_21 = tensor.dim %35, %c1 : tensor<4x?x2048xf16>
    %49 = tensor.empty() : tensor<256x64x32xf16>
    %50 = linalg.generic {indexing_maps = [#map1, #map, #map], iterator_types = ["parallel", "parallel", "parallel"]} ins(%47, %48 : tensor<256x64x1xf16>, tensor<256x64x32xi8>) outs(%49 : tensor<256x64x32xf16>) {
    ^bb0(%in: f16, %in_1860: i8, %out: f16):
      %3358 = arith.extsi %in_1860 : i8 to i32
      %3359 = arith.sitofp %3358 : i32 to f16
      %3360 = arith.mulf %3359, %in : f16
      linalg.yield %3360 : f16
    } -> tensor<256x64x32xf16>
    %expanded_22 = tensor.expand_shape %35 [[0], [1], [2, 3]] output_shape [4, %dim_21, 64, 32] : tensor<4x?x2048xf16> into tensor<4x?x64x32xf16>
    %51 = tensor.empty(%dim_21) : tensor<4x?x256xf32>
    %52 = linalg.fill ins(%cst_3 : f32) outs(%51 : tensor<4x?x256xf32>) -> tensor<4x?x256xf32>
    %53 = linalg.generic {indexing_maps = [#map4, #map5, #map6], iterator_types = ["parallel", "parallel", "parallel", "reduction", "reduction"]} ins(%expanded_22, %50 : tensor<4x?x64x32xf16>, tensor<256x64x32xf16>) outs(%52 : tensor<4x?x256xf32>) {
    ^bb0(%in: f16, %in_1860: f16, %out: f32):
      %3358 = arith.mulf %in, %in_1860 : f16
      %3359 = arith.extf %3358 : f16 to f32
      %3360 = arith.addf %3359, %out : f32
      linalg.yield %3360 : f32
    } -> tensor<4x?x256xf32>
    %54 = tensor.empty(%dim_21) : tensor<4x?x256xf16>
    %55 = linalg.copy ins(%53 : tensor<4x?x256xf32>) outs(%54 : tensor<4x?x256xf16>) -> tensor<4x?x256xf16>
    %56 = iree_tensor_ext.bitcast %__auto.blk.0.attn_v.weight : tensor<256x2176xi8> -> tensor<256x1088xi16>
    %expanded_23 = tensor.expand_shape %56 [[0], [1, 2]] output_shape [256, 64, 17] : tensor<256x1088xi16> into tensor<256x64x17xi16>
    %extracted_slice_24 = tensor.extract_slice %expanded_23[0, 0, 0] [256, 64, 1] [1, 1, 1] : tensor<256x64x17xi16> to tensor<256x64x1xi16>
    %57 = iree_tensor_ext.bitcast %extracted_slice_24 : tensor<256x64x1xi16> -> tensor<256x64x1xf16>
    %extracted_slice_25 = tensor.extract_slice %expanded_23[0, 0, 1] [256, 64, 16] [1, 1, 1] : tensor<256x64x17xi16> to tensor<256x64x16xi16>
    %58 = iree_tensor_ext.bitcast %extracted_slice_25 : tensor<256x64x16xi16> -> tensor<256x64x32xi8>
    %dim_26 = tensor.dim %35, %c1 : tensor<4x?x2048xf16>
    %59 = tensor.empty() : tensor<256x64x32xf16>
    %60 = linalg.generic {indexing_maps = [#map1, #map, #map], iterator_types = ["parallel", "parallel", "parallel"]} ins(%57, %58 : tensor<256x64x1xf16>, tensor<256x64x32xi8>) outs(%59 : tensor<256x64x32xf16>) {
    ^bb0(%in: f16, %in_1860: i8, %out: f16):
      %3358 = arith.extsi %in_1860 : i8 to i32
      %3359 = arith.sitofp %3358 : i32 to f16
      %3360 = arith.mulf %3359, %in : f16
      linalg.yield %3360 : f16
    } -> tensor<256x64x32xf16>
    %expanded_27 = tensor.expand_shape %35 [[0], [1], [2, 3]] output_shape [4, %dim_26, 64, 32] : tensor<4x?x2048xf16> into tensor<4x?x64x32xf16>
    %61 = tensor.empty(%dim_26) : tensor<4x?x256xf32>
    %62 = linalg.fill ins(%cst_3 : f32) outs(%61 : tensor<4x?x256xf32>) -> tensor<4x?x256xf32>
    %63 = linalg.generic {indexing_maps = [#map4, #map5, #map6], iterator_types = ["parallel", "parallel", "parallel", "reduction", "reduction"]} ins(%expanded_27, %60 : tensor<4x?x64x32xf16>, tensor<256x64x32xf16>) outs(%62 : tensor<4x?x256xf32>) {
    ^bb0(%in: f16, %in_1860: f16, %out: f32):
      %3358 = arith.mulf %in, %in_1860 : f16
      %3359 = arith.extf %3358 : f16 to f32
      %3360 = arith.addf %3359, %out : f32
      linalg.yield %3360 : f32
    } -> tensor<4x?x256xf32>
    %64 = tensor.empty(%dim_26) : tensor<4x?x256xf16>
    %65 = linalg.copy ins(%63 : tensor<4x?x256xf32>) outs(%64 : tensor<4x?x256xf16>) -> tensor<4x?x256xf16>
    %dim_28 = tensor.dim %45, %c1 : tensor<4x?x2048xf16>
    %expanded_29 = tensor.expand_shape %45 [[0], [1], [2, 3]] output_shape [4, %dim_28, 32, 64] : tensor<4x?x2048xf16> into tensor<4x?x32x64xf16>
    %dim_30 = tensor.dim %55, %c1 : tensor<4x?x256xf16>
    %expanded_31 = tensor.expand_shape %55 [[0], [1], [2, 3]] output_shape [4, %dim_30, 4, 64] : tensor<4x?x256xf16> into tensor<4x?x4x64xf16>
    %dim_32 = tensor.dim %65, %c1 : tensor<4x?x256xf16>
    %expanded_33 = tensor.expand_shape %65 [[0], [1], [2, 3]] output_shape [4, %dim_32, 4, 64] : tensor<4x?x256xf16> into tensor<4x?x4x64xf16>
    %66 = tensor.empty(%dim_11) : tensor<?xi64>
    %67 = linalg.generic {indexing_maps = [#map7], iterator_types = ["parallel"]} outs(%66 : tensor<?xi64>) {
    ^bb0(%out: i64):
      %3358 = linalg.index 0 : index
      %3359 = arith.index_cast %3358 : index to i64
      linalg.yield %3359 : i64
    } -> tensor<?xi64>
    %68 = tensor.empty() : tensor<32xi64>
    %69 = linalg.generic {indexing_maps = [#map7], iterator_types = ["parallel"]} outs(%68 : tensor<32xi64>) {
    ^bb0(%out: i64):
      %3358 = linalg.index 0 : index
      %3359 = arith.index_cast %3358 : index to i64
      %3360 = arith.muli %3359, %c2_i64 : i64
      linalg.yield %3360 : i64
    } -> tensor<32xi64>
    %70 = tensor.empty() : tensor<32xf32>
    %71 = linalg.generic {indexing_maps = [#map7, #map7], iterator_types = ["parallel"]} ins(%69 : tensor<32xi64>) outs(%70 : tensor<32xf32>) {
    ^bb0(%in: i64, %out: f32):
      %3358 = arith.sitofp %in : i64 to f32
      linalg.yield %3358 : f32
    } -> tensor<32xf32>
    %72 = linalg.generic {indexing_maps = [#map7, #map7], iterator_types = ["parallel"]} ins(%71 : tensor<32xf32>) outs(%70 : tensor<32xf32>) {
    ^bb0(%in: f32, %out: f32):
      %3358 = arith.divf %in, %cst_8 : f32
      linalg.yield %3358 : f32
    } -> tensor<32xf32>
    %73 = linalg.generic {indexing_maps = [#map7, #map7], iterator_types = ["parallel"]} ins(%72 : tensor<32xf32>) outs(%70 : tensor<32xf32>) {
    ^bb0(%in: f32, %out: f32):
      %3358 = math.powf %cst_9, %in : f32
      linalg.yield %3358 : f32
    } -> tensor<32xf32>
    %74 = linalg.generic {indexing_maps = [#map7, #map7], iterator_types = ["parallel"]} ins(%73 : tensor<32xf32>) outs(%70 : tensor<32xf32>) {
    ^bb0(%in: f32, %out: f32):
      %3358 = arith.cmpf one, %in, %cst_3 : f32
      cf.assert %3358, "unimplemented: tensor with zero element"
      %3359 = arith.divf %cst_4, %in : f32
      linalg.yield %3359 : f32
    } -> tensor<32xf32>
    %expanded_34 = tensor.expand_shape %74 [[0, 1, 2]] output_shape [1, 32, 1] : tensor<32xf32> into tensor<1x32x1xf32>
    %expanded_35 = tensor.expand_shape %67 [[0, 1, 2]] output_shape [1, 1, %dim_11] : tensor<?xi64> into tensor<1x1x?xi64>
    %75 = tensor.empty(%dim_11) : tensor<1x1x?xf32>
    %76 = linalg.generic {indexing_maps = [#map, #map], iterator_types = ["parallel", "parallel", "parallel"]} ins(%expanded_35 : tensor<1x1x?xi64>) outs(%75 : tensor<1x1x?xf32>) {
    ^bb0(%in: i64, %out: f32):
      %3358 = arith.sitofp %in : i64 to f32
      linalg.yield %3358 : f32
    } -> tensor<1x1x?xf32>
    %77 = tensor.empty(%dim_11) : tensor<1x32x?xf32>
    %78 = linalg.fill ins(%cst_3 : f32) outs(%77 : tensor<1x32x?xf32>) -> tensor<1x32x?xf32>
    %79 = linalg.batch_matmul ins(%expanded_34, %76 : tensor<1x32x1xf32>, tensor<1x1x?xf32>) outs(%78 : tensor<1x32x?xf32>) -> tensor<1x32x?xf32>
    %80 = tensor.empty(%dim_11) : tensor<1x?x32xf32>
    %transposed = linalg.transpose ins(%79 : tensor<1x32x?xf32>) outs(%80 : tensor<1x?x32xf32>) permutation = [0, 2, 1] 
    %81 = linalg.generic {indexing_maps = [#map, #map], iterator_types = ["parallel", "parallel", "parallel"]} ins(%transposed : tensor<1x?x32xf32>) outs(%80 : tensor<1x?x32xf32>) {
    ^bb0(%in: f32, %out: f32):
      %3358 = math.cos %in : f32
      linalg.yield %3358 : f32
    } -> tensor<1x?x32xf32>
    %82 = linalg.generic {indexing_maps = [#map, #map8, #map], iterator_types = ["parallel", "parallel", "parallel"]} ins(%81, %cst_2 : tensor<1x?x32xf32>, tensor<f32>) outs(%80 : tensor<1x?x32xf32>) {
    ^bb0(%in: f32, %in_1860: f32, %out: f32):
      %3358 = arith.mulf %in, %in_1860 : f32
      linalg.yield %3358 : f32
    } -> tensor<1x?x32xf32>
    %83 = tensor.empty(%dim_11) : tensor<1x?x32xf16>
    %84 = linalg.generic {indexing_maps = [#map, #map], iterator_types = ["parallel", "parallel", "parallel"]} ins(%82 : tensor<1x?x32xf32>) outs(%83 : tensor<1x?x32xf16>) {
    ^bb0(%in: f32, %out: f16):
      %3358 = arith.truncf %in : f32 to f16
      linalg.yield %3358 : f16
    } -> tensor<1x?x32xf16>
    %85 = linalg.generic {indexing_maps = [#map, #map], iterator_types = ["parallel", "parallel", "parallel"]} ins(%transposed : tensor<1x?x32xf32>) outs(%80 : tensor<1x?x32xf32>) {
    ^bb0(%in: f32, %out: f32):
      %3358 = math.sin %in : f32
      linalg.yield %3358 : f32
    } -> tensor<1x?x32xf32>
    %86 = linalg.generic {indexing_maps = [#map, #map8, #map], iterator_types = ["parallel", "parallel", "parallel"]} ins(%85, %cst_2 : tensor<1x?x32xf32>, tensor<f32>) outs(%80 : tensor<1x?x32xf32>) {
    ^bb0(%in: f32, %in_1860: f32, %out: f32):
      %3358 = arith.mulf %in, %in_1860 : f32
      linalg.yield %3358 : f32
    } -> tensor<1x?x32xf32>
    %87 = linalg.generic {indexing_maps = [#map, #map], iterator_types = ["parallel", "parallel", "parallel"]} ins(%86 : tensor<1x?x32xf32>) outs(%83 : tensor<1x?x32xf16>) {
    ^bb0(%in: f32, %out: f16):
      %3358 = arith.truncf %in : f32 to f16
      linalg.yield %3358 : f16
    } -> tensor<1x?x32xf16>
    %expanded_36 = tensor.expand_shape %84 [[0], [1], [2, 3]] output_shape [1, %dim_11, 1, 32] : tensor<1x?x32xf16> into tensor<1x?x1x32xf16>
    %expanded_37 = tensor.expand_shape %87 [[0], [1], [2, 3]] output_shape [1, %dim_11, 1, 32] : tensor<1x?x32xf16> into tensor<1x?x1x32xf16>
    %extracted_slice_38 = tensor.extract_slice %expanded_29[0, 0, 0, 0] [4, %dim_28, 32, 32] [1, 1, 1, 2] : tensor<4x?x32x64xf16> to tensor<4x?x32x32xf16>
    %extracted_slice_39 = tensor.extract_slice %expanded_29[0, 0, 0, 1] [4, %dim_28, 32, 32] [1, 1, 1, 2] : tensor<4x?x32x64xf16> to tensor<4x?x32x32xf16>
    %88 = tensor.empty(%dim_28) : tensor<4x?x32x32xf16>
    %89 = linalg.generic {indexing_maps = [#map9, #map10, #map9], iterator_types = ["parallel", "parallel", "parallel", "parallel"]} ins(%extracted_slice_38, %expanded_36 : tensor<4x?x32x32xf16>, tensor<1x?x1x32xf16>) outs(%88 : tensor<4x?x32x32xf16>) {
    ^bb0(%in: f16, %in_1860: f16, %out: f16):
      %3358 = arith.mulf %in, %in_1860 : f16
      linalg.yield %3358 : f16
    } -> tensor<4x?x32x32xf16>
    %90 = linalg.generic {indexing_maps = [#map9, #map10, #map9], iterator_types = ["parallel", "parallel", "parallel", "parallel"]} ins(%extracted_slice_39, %expanded_37 : tensor<4x?x32x32xf16>, tensor<1x?x1x32xf16>) outs(%88 : tensor<4x?x32x32xf16>) {
    ^bb0(%in: f16, %in_1860: f16, %out: f16):
      %3358 = arith.mulf %in, %in_1860 : f16
      linalg.yield %3358 : f16
    } -> tensor<4x?x32x32xf16>
    %91 = linalg.generic {indexing_maps = [#map9, #map9, #map9], iterator_types = ["parallel", "parallel", "parallel", "parallel"]} ins(%89, %90 : tensor<4x?x32x32xf16>, tensor<4x?x32x32xf16>) outs(%88 : tensor<4x?x32x32xf16>) {
    ^bb0(%in: f16, %in_1860: f16, %out: f16):
      %3358 = arith.subf %in, %in_1860 : f16
      linalg.yield %3358 : f16
    } -> tensor<4x?x32x32xf16>
    %92 = linalg.generic {indexing_maps = [#map9, #map10, #map9], iterator_types = ["parallel", "parallel", "parallel", "parallel"]} ins(%extracted_slice_39, %expanded_36 : tensor<4x?x32x32xf16>, tensor<1x?x1x32xf16>) outs(%88 : tensor<4x?x32x32xf16>) {
    ^bb0(%in: f16, %in_1860: f16, %out: f16):
      %3358 = arith.mulf %in, %in_1860 : f16
      linalg.yield %3358 : f16
    } -> tensor<4x?x32x32xf16>
    %93 = linalg.generic {indexing_maps = [#map9, #map10, #map9], iterator_types = ["parallel", "parallel", "parallel", "parallel"]} ins(%extracted_slice_38, %expanded_37 : tensor<4x?x32x32xf16>, tensor<1x?x1x32xf16>) outs(%88 : tensor<4x?x32x32xf16>) {
    ^bb0(%in: f16, %in_1860: f16, %out: f16):
      %3358 = arith.mulf %in, %in_1860 : f16
      linalg.yield %3358 : f16
    } -> tensor<4x?x32x32xf16>
    %94 = linalg.generic {indexing_maps = [#map9, #map9, #map9], iterator_types = ["parallel", "parallel", "parallel", "parallel"]} ins(%92, %93 : tensor<4x?x32x32xf16>, tensor<4x?x32x32xf16>) outs(%88 : tensor<4x?x32x32xf16>) {
    ^bb0(%in: f16, %in_1860: f16, %out: f16):
      %3358 = arith.addf %in, %in_1860 : f16
      linalg.yield %3358 : f16
    } -> tensor<4x?x32x32xf16>
    %dim_40 = tensor.dim %91, %c1 : tensor<4x?x32x32xf16>
    %95 = tensor.empty(%dim_40) : tensor<4x?x32x2x32xf16>
    %96 = linalg.generic {indexing_maps = [#map11, #map11, #map12], iterator_types = ["parallel", "parallel", "parallel", "parallel", "parallel"]} ins(%91, %94 : tensor<4x?x32x32xf16>, tensor<4x?x32x32xf16>) outs(%95 : tensor<4x?x32x2x32xf16>) {
    ^bb0(%in: f16, %in_1860: f16, %out: f16):
      %3358 = linalg.index 3 : index
      %3359 = arith.cmpi eq, %3358, %c0 : index
      %3360 = arith.select %3359, %in, %in_1860 : f16
      linalg.yield %3360 : f16
    } -> tensor<4x?x32x2x32xf16>
    %collapsed_41 = tensor.collapse_shape %96 [[0], [1], [2], [3, 4]] : tensor<4x?x32x2x32xf16> into tensor<4x?x32x64xf16>
    %97 = linalg.generic {indexing_maps = [#map7, #map7], iterator_types = ["parallel"]} ins(%73 : tensor<32xf32>) outs(%70 : tensor<32xf32>) {
    ^bb0(%in: f32, %out: f32):
      %3358 = arith.cmpf one, %in, %cst_3 : f32
      cf.assert %3358, "unimplemented: tensor with zero element"
      %3359 = arith.divf %cst_4, %in : f32
      linalg.yield %3359 : f32
    } -> tensor<32xf32>
    %expanded_42 = tensor.expand_shape %97 [[0, 1, 2]] output_shape [1, 32, 1] : tensor<32xf32> into tensor<1x32x1xf32>
    %98 = linalg.batch_matmul ins(%expanded_42, %76 : tensor<1x32x1xf32>, tensor<1x1x?xf32>) outs(%78 : tensor<1x32x?xf32>) -> tensor<1x32x?xf32>
    %transposed_43 = linalg.transpose ins(%98 : tensor<1x32x?xf32>) outs(%80 : tensor<1x?x32xf32>) permutation = [0, 2, 1] 
    %99 = linalg.generic {indexing_maps = [#map, #map], iterator_types = ["parallel", "parallel", "parallel"]} ins(%transposed_43 : tensor<1x?x32xf32>) outs(%80 : tensor<1x?x32xf32>) {
    ^bb0(%in: f32, %out: f32):
      %3358 = math.cos %in : f32
      linalg.yield %3358 : f32
    } -> tensor<1x?x32xf32>
    %100 = linalg.generic {indexing_maps = [#map, #map8, #map], iterator_types = ["parallel", "parallel", "parallel"]} ins(%99, %cst_2 : tensor<1x?x32xf32>, tensor<f32>) outs(%80 : tensor<1x?x32xf32>) {
    ^bb0(%in: f32, %in_1860: f32, %out: f32):
      %3358 = arith.mulf %in, %in_1860 : f32
      linalg.yield %3358 : f32
    } -> tensor<1x?x32xf32>
    %101 = linalg.generic {indexing_maps = [#map, #map], iterator_types = ["parallel", "parallel", "parallel"]} ins(%100 : tensor<1x?x32xf32>) outs(%83 : tensor<1x?x32xf16>) {
    ^bb0(%in: f32, %out: f16):
      %3358 = arith.truncf %in : f32 to f16
      linalg.yield %3358 : f16
    } -> tensor<1x?x32xf16>
    %102 = linalg.generic {indexing_maps = [#map, #map], iterator_types = ["parallel", "parallel", "parallel"]} ins(%transposed_43 : tensor<1x?x32xf32>) outs(%80 : tensor<1x?x32xf32>) {
    ^bb0(%in: f32, %out: f32):
      %3358 = math.sin %in : f32
      linalg.yield %3358 : f32
    } -> tensor<1x?x32xf32>
    %103 = linalg.generic {indexing_maps = [#map, #map8, #map], iterator_types = ["parallel", "parallel", "parallel"]} ins(%102, %cst_2 : tensor<1x?x32xf32>, tensor<f32>) outs(%80 : tensor<1x?x32xf32>) {
    ^bb0(%in: f32, %in_1860: f32, %out: f32):
      %3358 = arith.mulf %in, %in_1860 : f32
      linalg.yield %3358 : f32
    } -> tensor<1x?x32xf32>
    %104 = linalg.generic {indexing_maps = [#map, #map], iterator_types = ["parallel", "parallel", "parallel"]} ins(%103 : tensor<1x?x32xf32>) outs(%83 : tensor<1x?x32xf16>) {
    ^bb0(%in: f32, %out: f16):
      %3358 = arith.truncf %in : f32 to f16
      linalg.yield %3358 : f16
    } -> tensor<1x?x32xf16>
    %expanded_44 = tensor.expand_shape %101 [[0], [1], [2, 3]] output_shape [1, %dim_11, 1, 32] : tensor<1x?x32xf16> into tensor<1x?x1x32xf16>
    %expanded_45 = tensor.expand_shape %104 [[0], [1], [2, 3]] output_shape [1, %dim_11, 1, 32] : tensor<1x?x32xf16> into tensor<1x?x1x32xf16>
    %extracted_slice_46 = tensor.extract_slice %expanded_31[0, 0, 0, 0] [4, %dim_30, 4, 32] [1, 1, 1, 2] : tensor<4x?x4x64xf16> to tensor<4x?x4x32xf16>
    %extracted_slice_47 = tensor.extract_slice %expanded_31[0, 0, 0, 1] [4, %dim_30, 4, 32] [1, 1, 1, 2] : tensor<4x?x4x64xf16> to tensor<4x?x4x32xf16>
    %105 = tensor.empty(%dim_30) : tensor<4x?x4x32xf16>
    %106 = linalg.generic {indexing_maps = [#map9, #map10, #map9], iterator_types = ["parallel", "parallel", "parallel", "parallel"]} ins(%extracted_slice_46, %expanded_44 : tensor<4x?x4x32xf16>, tensor<1x?x1x32xf16>) outs(%105 : tensor<4x?x4x32xf16>) {
    ^bb0(%in: f16, %in_1860: f16, %out: f16):
      %3358 = arith.mulf %in, %in_1860 : f16
      linalg.yield %3358 : f16
    } -> tensor<4x?x4x32xf16>
    %107 = linalg.generic {indexing_maps = [#map9, #map10, #map9], iterator_types = ["parallel", "parallel", "parallel", "parallel"]} ins(%extracted_slice_47, %expanded_45 : tensor<4x?x4x32xf16>, tensor<1x?x1x32xf16>) outs(%105 : tensor<4x?x4x32xf16>) {
    ^bb0(%in: f16, %in_1860: f16, %out: f16):
      %3358 = arith.mulf %in, %in_1860 : f16
      linalg.yield %3358 : f16
    } -> tensor<4x?x4x32xf16>
    %108 = linalg.generic {indexing_maps = [#map9, #map9, #map9], iterator_types = ["parallel", "parallel", "parallel", "parallel"]} ins(%106, %107 : tensor<4x?x4x32xf16>, tensor<4x?x4x32xf16>) outs(%105 : tensor<4x?x4x32xf16>) {
    ^bb0(%in: f16, %in_1860: f16, %out: f16):
      %3358 = arith.subf %in, %in_1860 : f16
      linalg.yield %3358 : f16
    } -> tensor<4x?x4x32xf16>
    %109 = linalg.generic {indexing_maps = [#map9, #map10, #map9], iterator_types = ["parallel", "parallel", "parallel", "parallel"]} ins(%extracted_slice_47, %expanded_44 : tensor<4x?x4x32xf16>, tensor<1x?x1x32xf16>) outs(%105 : tensor<4x?x4x32xf16>) {
    ^bb0(%in: f16, %in_1860: f16, %out: f16):
      %3358 = arith.mulf %in, %in_1860 : f16
      linalg.yield %3358 : f16
    } -> tensor<4x?x4x32xf16>
    %110 = linalg.generic {indexing_maps = [#map9, #map10, #map9], iterator_types = ["parallel", "parallel", "parallel", "parallel"]} ins(%extracted_slice_46, %expanded_45 : tensor<4x?x4x32xf16>, tensor<1x?x1x32xf16>) outs(%105 : tensor<4x?x4x32xf16>) {
    ^bb0(%in: f16, %in_1860: f16, %out: f16):
      %3358 = arith.mulf %in, %in_1860 : f16
      linalg.yield %3358 : f16
    } -> tensor<4x?x4x32xf16>
    %111 = linalg.generic {indexing_maps = [#map9, #map9, #map9], iterator_types = ["parallel", "parallel", "parallel", "parallel"]} ins(%109, %110 : tensor<4x?x4x32xf16>, tensor<4x?x4x32xf16>) outs(%105 : tensor<4x?x4x32xf16>) {
    ^bb0(%in: f16, %in_1860: f16, %out: f16):
      %3358 = arith.addf %in, %in_1860 : f16
      linalg.yield %3358 : f16
    } -> tensor<4x?x4x32xf16>
    %dim_48 = tensor.dim %108, %c1 : tensor<4x?x4x32xf16>
    %112 = tensor.empty(%dim_48) : tensor<4x?x4x2x32xf16>
    %113 = linalg.generic {indexing_maps = [#map11, #map11, #map12], iterator_types = ["parallel", "parallel", "parallel", "parallel", "parallel"]} ins(%108, %111 : tensor<4x?x4x32xf16>, tensor<4x?x4x32xf16>) outs(%112 : tensor<4x?x4x2x32xf16>) {
    ^bb0(%in: f16, %in_1860: f16, %out: f16):
      %3358 = linalg.index 3 : index
      %3359 = arith.cmpi eq, %3358, %c0 : index
      %3360 = arith.select %3359, %in, %in_1860 : f16
      linalg.yield %3360 : f16
    } -> tensor<4x?x4x2x32xf16>
    %collapsed_49 = tensor.collapse_shape %113 [[0], [1], [2], [3, 4]] : tensor<4x?x4x2x32xf16> into tensor<4x?x4x64xf16>
    %dim_50 = tensor.dim %13, %c0 : tensor<?x360448xf16>
    %expanded_51 = tensor.expand_shape %13 [[0], [1, 2, 3, 4, 5]] output_shape [%dim_50, 22, 2, 4, 32, 64] : tensor<?x360448xf16> into tensor<?x22x2x4x32x64xf16>
    %collapsed_52 = tensor.collapse_shape %expanded_51 [[0, 1, 2], [3], [4], [5]] : tensor<?x22x2x4x32x64xf16> into tensor<?x4x32x64xf16>
    %dim_53 = tensor.dim %11, %c1 : tensor<4x?xi64>
    %114 = tensor.empty(%dim_53) : tensor<4x?xi64>
    %115 = linalg.generic {indexing_maps = [#map13, #map13], iterator_types = ["parallel", "parallel"]} ins(%11 : tensor<4x?xi64>) outs(%114 : tensor<4x?xi64>) {
    ^bb0(%in: i64, %out: i64):
      %3358 = arith.muli %in, %c22_i64 : i64
      linalg.yield %3358 : i64
    } -> tensor<4x?xi64>
    %116 = linalg.generic {indexing_maps = [#map13, #map13], iterator_types = ["parallel", "parallel"]} ins(%115 : tensor<4x?xi64>) outs(%114 : tensor<4x?xi64>) {
    ^bb0(%in: i64, %out: i64):
      %3358 = arith.muli %in, %c2_i64 : i64
      linalg.yield %3358 : i64
    } -> tensor<4x?xi64>
    %collapsed_54 = tensor.collapse_shape %116 [[0, 1]] : tensor<4x?xi64> into tensor<?xi64>
    %dim_55 = tensor.dim %113, %c1 : tensor<4x?x4x2x32xf16>
    %117 = arith.divsi %dim_55, %c32 : index
    %expanded_56 = tensor.expand_shape %collapsed_49 [[0], [1, 2], [3], [4]] output_shape [4, %117, 32, 4, 64] : tensor<4x?x4x64xf16> into tensor<4x?x32x4x64xf16>
    %collapsed_57 = tensor.collapse_shape %expanded_56 [[0, 1], [2], [3], [4]] : tensor<4x?x32x4x64xf16> into tensor<?x32x4x64xf16>
    %118 = affine.apply #map14()[%117]
    %119 = tensor.empty(%118) : tensor<?x4x32x64xf16>
    %transposed_58 = linalg.transpose ins(%collapsed_57 : tensor<?x32x4x64xf16>) outs(%119 : tensor<?x4x32x64xf16>) permutation = [0, 2, 1, 3] 
    %120 = affine.apply #map14()[%dim_53]
    %expanded_59 = tensor.expand_shape %collapsed_54 [[0, 1]] output_shape [%120, 1] : tensor<?xi64> into tensor<?x1xi64>
    %121 = iree_linalg_ext.scatter dimension_map = [0] unique_indices(true) ins(%transposed_58, %expanded_59 : tensor<?x4x32x64xf16>, tensor<?x1xi64>) outs(%collapsed_52 : tensor<?x4x32x64xf16>) {
    ^bb0(%arg6: f16, %arg7: f16):
      iree_linalg_ext.yield %arg6 : f16
    } -> tensor<?x4x32x64xf16>
    %122 = linalg.generic {indexing_maps = [#map13, #map13], iterator_types = ["parallel", "parallel"]} ins(%116 : tensor<4x?xi64>) outs(%114 : tensor<4x?xi64>) {
    ^bb0(%in: i64, %out: i64):
      %3358 = arith.addi %in, %c1_i64 : i64
      linalg.yield %3358 : i64
    } -> tensor<4x?xi64>
    %collapsed_60 = tensor.collapse_shape %122 [[0, 1]] : tensor<4x?xi64> into tensor<?xi64>
    %123 = arith.divsi %dim_32, %c32 : index
    %expanded_61 = tensor.expand_shape %65 [[0], [1, 2], [3, 4]] output_shape [4, %123, 32, 4, 64] : tensor<4x?x256xf16> into tensor<4x?x32x4x64xf16>
    %collapsed_62 = tensor.collapse_shape %expanded_61 [[0, 1], [2], [3], [4]] : tensor<4x?x32x4x64xf16> into tensor<?x32x4x64xf16>
    %124 = affine.apply #map14()[%123]
    %125 = tensor.empty(%124) : tensor<?x4x32x64xf16>
    %transposed_63 = linalg.transpose ins(%collapsed_62 : tensor<?x32x4x64xf16>) outs(%125 : tensor<?x4x32x64xf16>) permutation = [0, 2, 1, 3] 
    %expanded_64 = tensor.expand_shape %collapsed_60 [[0, 1]] output_shape [%120, 1] : tensor<?xi64> into tensor<?x1xi64>
    %126 = iree_linalg_ext.scatter dimension_map = [0] unique_indices(true) ins(%transposed_63, %expanded_64 : tensor<?x4x32x64xf16>, tensor<?x1xi64>) outs(%121 : tensor<?x4x32x64xf16>) {
    ^bb0(%arg6: f16, %arg7: f16):
      iree_linalg_ext.yield %arg6 : f16
    } -> tensor<?x4x32x64xf16>
    %expanded_65 = tensor.expand_shape %2 [[0, 1]] output_shape [4, 1] : tensor<4xi64> into tensor<4x1xi64>
    %127 = tensor.empty(%dim_11) : tensor<4x?xi1>
    %128 = linalg.generic {indexing_maps = [#map15, #map16, #map13], iterator_types = ["parallel", "parallel"]} ins(%67, %expanded_65 : tensor<?xi64>, tensor<4x1xi64>) outs(%127 : tensor<4x?xi1>) {
    ^bb0(%in: i64, %in_1860: i64, %out: i1):
      %3358 = arith.cmpi sge, %in, %in_1860 : i64
      linalg.yield %3358 : i1
    } -> tensor<4x?xi1>
    %expanded_66 = tensor.expand_shape %67 [[0, 1, 2, 3]] output_shape [1, 1, 1, %dim_11] : tensor<?xi64> into tensor<1x1x1x?xi64>
    %expanded_67 = tensor.expand_shape %67 [[0, 1, 2, 3]] output_shape [1, 1, %dim_11, 1] : tensor<?xi64> into tensor<1x1x?x1xi64>
    %129 = tensor.empty(%dim_11, %dim_11) : tensor<1x1x?x?xi1>
    %130 = linalg.generic {indexing_maps = [#map17, #map18, #map9], iterator_types = ["parallel", "parallel", "parallel", "parallel"]} ins(%expanded_66, %expanded_67 : tensor<1x1x1x?xi64>, tensor<1x1x?x1xi64>) outs(%129 : tensor<1x1x?x?xi1>) {
    ^bb0(%in: i64, %in_1860: i64, %out: i1):
      %3358 = arith.cmpi sgt, %in, %in_1860 : i64
      linalg.yield %3358 : i1
    } -> tensor<1x1x?x?xi1>
    %expanded_68 = tensor.expand_shape %128 [[0], [1, 2, 3]] output_shape [4, 1, 1, %dim_11] : tensor<4x?xi1> into tensor<4x1x1x?xi1>
    %131 = tensor.empty(%dim_11, %dim_11) : tensor<4x1x?x?xi1>
    %132 = linalg.generic {indexing_maps = [#map19, #map17, #map9], iterator_types = ["parallel", "parallel", "parallel", "parallel"]} ins(%130, %expanded_68 : tensor<1x1x?x?xi1>, tensor<4x1x1x?xi1>) outs(%131 : tensor<4x1x?x?xi1>) {
    ^bb0(%in: i1, %in_1860: i1, %out: i1):
      %3358 = arith.ori %in, %in_1860 : i1
      linalg.yield %3358 : i1
    } -> tensor<4x1x?x?xi1>
    %133 = tensor.empty() : tensor<f16>
    %134 = linalg.generic {indexing_maps = [#map20, #map20], iterator_types = []} ins(%cst_0 : tensor<i64>) outs(%133 : tensor<f16>) {
    ^bb0(%in: i64, %out: f16):
      %3358 = arith.sitofp %in : i64 to f16
      linalg.yield %3358 : f16
    } -> tensor<f16>
    %135 = tensor.empty(%dim_11, %dim_11) : tensor<4x1x?x?xf16>
    %136 = linalg.generic {indexing_maps = [#map9, #map21, #map21, #map9], iterator_types = ["parallel", "parallel", "parallel", "parallel"]} ins(%132, %cst_1, %134 : tensor<4x1x?x?xi1>, tensor<f16>, tensor<f16>) outs(%135 : tensor<4x1x?x?xf16>) {
    ^bb0(%in: i1, %in_1860: f16, %in_1861: f16, %out: f16):
      %3358 = arith.select %in, %in_1860, %in_1861 : f16
      linalg.yield %3358 : f16
    } -> tensor<4x1x?x?xf16>
    %137 = arith.index_cast %14 : i64 to index
    %138 = tensor.empty(%137) : tensor<4x?x4x8x64xf16>
    %139 = linalg.generic {indexing_maps = [#map11, #map12], iterator_types = ["parallel", "parallel", "parallel", "parallel", "parallel"]} ins(%collapsed_49 : tensor<4x?x4x64xf16>) outs(%138 : tensor<4x?x4x8x64xf16>) {
    ^bb0(%in: f16, %out: f16):
      linalg.yield %in : f16
    } -> tensor<4x?x4x8x64xf16>
    %collapsed_69 = tensor.collapse_shape %139 [[0], [1], [2, 3], [4]] : tensor<4x?x4x8x64xf16> into tensor<4x?x32x64xf16>
    %140 = linalg.generic {indexing_maps = [#map11, #map12], iterator_types = ["parallel", "parallel", "parallel", "parallel", "parallel"]} ins(%expanded_33 : tensor<4x?x4x64xf16>) outs(%138 : tensor<4x?x4x8x64xf16>) {
    ^bb0(%in: f16, %out: f16):
      linalg.yield %in : f16
    } -> tensor<4x?x4x8x64xf16>
    %collapsed_70 = tensor.collapse_shape %140 [[0], [1], [2, 3], [4]] : tensor<4x?x4x8x64xf16> into tensor<4x?x32x64xf16>
    %dim_71 = tensor.dim %96, %c1 : tensor<4x?x32x2x32xf16>
    %141 = tensor.empty(%dim_71) : tensor<4x32x?x64xf16>
    %transposed_72 = linalg.transpose ins(%collapsed_41 : tensor<4x?x32x64xf16>) outs(%141 : tensor<4x32x?x64xf16>) permutation = [0, 2, 1, 3] 
    %142 = tensor.empty(%dim_55) : tensor<4x32x?x64xf16>
    %transposed_73 = linalg.transpose ins(%collapsed_69 : tensor<4x?x32x64xf16>) outs(%142 : tensor<4x32x?x64xf16>) permutation = [0, 2, 1, 3] 
    %143 = tensor.empty(%dim_32) : tensor<4x32x?x64xf16>
    %transposed_74 = linalg.transpose ins(%collapsed_70 : tensor<4x?x32x64xf16>) outs(%143 : tensor<4x32x?x64xf16>) permutation = [0, 2, 1, 3] 
    %dim_75 = tensor.dim %136, %c2 : tensor<4x1x?x?xf16>
    %dim_76 = tensor.dim %136, %c3 : tensor<4x1x?x?xf16>
    %144 = tensor.empty(%dim_75, %dim_76) : tensor<4x32x?x?xf16>
    %145 = linalg.generic {indexing_maps = [#map22, #map9], iterator_types = ["parallel", "parallel", "parallel", "parallel"]} ins(%136 : tensor<4x1x?x?xf16>) outs(%144 : tensor<4x32x?x?xf16>) {
    ^bb0(%in: f16, %out: f16):
      linalg.yield %in : f16
    } -> tensor<4x32x?x?xf16>
    %collapsed_77 = tensor.collapse_shape %transposed_72 [[0, 1], [2], [3]] : tensor<4x32x?x64xf16> into tensor<128x?x64xf16>
    %collapsed_78 = tensor.collapse_shape %transposed_73 [[0, 1], [2], [3]] : tensor<4x32x?x64xf16> into tensor<128x?x64xf16>
    %collapsed_79 = tensor.collapse_shape %transposed_74 [[0, 1], [2], [3]] : tensor<4x32x?x64xf16> into tensor<128x?x64xf16>
    %collapsed_80 = tensor.collapse_shape %145 [[0, 1], [2], [3]] : tensor<4x32x?x?xf16> into tensor<128x?x?xf16>
    %dim_81 = tensor.dim %transposed_72, %c2 : tensor<4x32x?x64xf16>
    %146 = tensor.empty(%dim_81) : tensor<128x?x64xf16>
    %147 = iree_linalg_ext.attention {indexing_maps = [#map23, #map24, #map25, #map26, #map27, #map6]} ins(%collapsed_77, %collapsed_78, %collapsed_79, %cst, %collapsed_80 : tensor<128x?x64xf16>, tensor<128x?x64xf16>, tensor<128x?x64xf16>, f16, tensor<128x?x?xf16>) outs(%146 : tensor<128x?x64xf16>) {
    ^bb0(%arg6: f32):
      iree_linalg_ext.yield %arg6 : f32
    } -> tensor<128x?x64xf16>
    %expanded_82 = tensor.expand_shape %147 [[0, 1], [2], [3]] output_shape [4, 32, %dim_81, 64] : tensor<128x?x64xf16> into tensor<4x32x?x64xf16>
    %dim_83 = tensor.dim %expanded_82, %c2 : tensor<4x32x?x64xf16>
    %148 = tensor.empty(%dim_83) : tensor<4x?x32x64xf16>
    %transposed_84 = linalg.transpose ins(%expanded_82 : tensor<4x32x?x64xf16>) outs(%148 : tensor<4x?x32x64xf16>) permutation = [0, 2, 1, 3] 
    %collapsed_85 = tensor.collapse_shape %transposed_84 [[0], [1], [2, 3]] : tensor<4x?x32x64xf16> into tensor<4x?x2048xf16>
    %149 = iree_tensor_ext.bitcast %__auto.blk.0.attn_output.weight : tensor<2048x2176xi8> -> tensor<2048x1088xi16>
    %expanded_86 = tensor.expand_shape %149 [[0], [1, 2]] output_shape [2048, 64, 17] : tensor<2048x1088xi16> into tensor<2048x64x17xi16>
    %extracted_slice_87 = tensor.extract_slice %expanded_86[0, 0, 0] [2048, 64, 1] [1, 1, 1] : tensor<2048x64x17xi16> to tensor<2048x64x1xi16>
    %150 = iree_tensor_ext.bitcast %extracted_slice_87 : tensor<2048x64x1xi16> -> tensor<2048x64x1xf16>
    %extracted_slice_88 = tensor.extract_slice %expanded_86[0, 0, 1] [2048, 64, 16] [1, 1, 1] : tensor<2048x64x17xi16> to tensor<2048x64x16xi16>
    %151 = iree_tensor_ext.bitcast %extracted_slice_88 : tensor<2048x64x16xi16> -> tensor<2048x64x32xi8>
    %dim_89 = tensor.dim %collapsed_85, %c1 : tensor<4x?x2048xf16>
    %152 = tensor.empty() : tensor<2048x64x32xf16>
    %153 = linalg.generic {indexing_maps = [#map1, #map, #map], iterator_types = ["parallel", "parallel", "parallel"]} ins(%150, %151 : tensor<2048x64x1xf16>, tensor<2048x64x32xi8>) outs(%152 : tensor<2048x64x32xf16>) {
    ^bb0(%in: f16, %in_1860: i8, %out: f16):
      %3358 = arith.extsi %in_1860 : i8 to i32
      %3359 = arith.sitofp %3358 : i32 to f16
      %3360 = arith.mulf %3359, %in : f16
      linalg.yield %3360 : f16
    } -> tensor<2048x64x32xf16>
    %expanded_90 = tensor.expand_shape %collapsed_85 [[0], [1], [2, 3]] output_shape [4, %dim_89, 64, 32] : tensor<4x?x2048xf16> into tensor<4x?x64x32xf16>
    %154 = tensor.empty(%dim_89) : tensor<4x?x2048xf32>
    %155 = linalg.fill ins(%cst_3 : f32) outs(%154 : tensor<4x?x2048xf32>) -> tensor<4x?x2048xf32>
    %156 = linalg.generic {indexing_maps = [#map4, #map5, #map6], iterator_types = ["parallel", "parallel", "parallel", "reduction", "reduction"]} ins(%expanded_90, %153 : tensor<4x?x64x32xf16>, tensor<2048x64x32xf16>) outs(%155 : tensor<4x?x2048xf32>) {
    ^bb0(%in: f16, %in_1860: f16, %out: f32):
      %3358 = arith.mulf %in, %in_1860 : f16
      %3359 = arith.extf %3358 : f16 to f32
      %3360 = arith.addf %3359, %out : f32
      linalg.yield %3360 : f32
    } -> tensor<4x?x2048xf32>
    %157 = tensor.empty(%dim_89) : tensor<4x?x2048xf16>
    %158 = linalg.copy ins(%156 : tensor<4x?x2048xf32>) outs(%157 : tensor<4x?x2048xf16>) -> tensor<4x?x2048xf16>
    %159 = linalg.generic {indexing_maps = [#map, #map, #map], iterator_types = ["parallel", "parallel", "parallel"]} ins(%22, %158 : tensor<4x?x2048xf16>, tensor<4x?x2048xf16>) outs(%21 : tensor<4x?x2048xf16>) {
    ^bb0(%in: f16, %in_1860: f16, %out: f16):
      %3358 = arith.addf %in, %in_1860 : f16
      linalg.yield %3358 : f16
    } -> tensor<4x?x2048xf16>
    %160 = linalg.generic {indexing_maps = [#map, #map], iterator_types = ["parallel", "parallel", "parallel"]} ins(%159 : tensor<4x?x2048xf16>) outs(%23 : tensor<4x?x2048xf32>) {
    ^bb0(%in: f16, %out: f32):
      %3358 = arith.extf %in : f16 to f32
      linalg.yield %3358 : f32
    } -> tensor<4x?x2048xf32>
    %161 = linalg.generic {indexing_maps = [#map, #map], iterator_types = ["parallel", "parallel", "parallel"]} ins(%160 : tensor<4x?x2048xf32>) outs(%23 : tensor<4x?x2048xf32>) {
    ^bb0(%in: f32, %out: f32):
      %3358 = math.fpowi %in, %c2_i64 : f32, i64
      linalg.yield %3358 : f32
    } -> tensor<4x?x2048xf32>
    %162 = linalg.generic {indexing_maps = [#map, #map1], iterator_types = ["parallel", "parallel", "reduction"]} ins(%161 : tensor<4x?x2048xf32>) outs(%27 : tensor<4x?x1xf32>) {
    ^bb0(%in: f32, %out: f32):
      %3358 = arith.addf %in, %out : f32
      linalg.yield %3358 : f32
    } -> tensor<4x?x1xf32>
    %163 = linalg.generic {indexing_maps = [#map, #map], iterator_types = ["parallel", "parallel", "parallel"]} ins(%162 : tensor<4x?x1xf32>) outs(%26 : tensor<4x?x1xf32>) {
    ^bb0(%in: f32, %out: f32):
      %3358 = arith.divf %in, %cst_6 : f32
      linalg.yield %3358 : f32
    } -> tensor<4x?x1xf32>
    %164 = linalg.generic {indexing_maps = [#map, #map], iterator_types = ["parallel", "parallel", "parallel"]} ins(%163 : tensor<4x?x1xf32>) outs(%26 : tensor<4x?x1xf32>) {
    ^bb0(%in: f32, %out: f32):
      %3358 = arith.addf %in, %cst_7 : f32
      linalg.yield %3358 : f32
    } -> tensor<4x?x1xf32>
    %165 = linalg.generic {indexing_maps = [#map, #map], iterator_types = ["parallel", "parallel", "parallel"]} ins(%164 : tensor<4x?x1xf32>) outs(%26 : tensor<4x?x1xf32>) {
    ^bb0(%in: f32, %out: f32):
      %3358 = math.rsqrt %in : f32
      linalg.yield %3358 : f32
    } -> tensor<4x?x1xf32>
    %166 = linalg.generic {indexing_maps = [#map, #map1, #map], iterator_types = ["parallel", "parallel", "parallel"]} ins(%160, %165 : tensor<4x?x2048xf32>, tensor<4x?x1xf32>) outs(%23 : tensor<4x?x2048xf32>) {
    ^bb0(%in: f32, %in_1860: f32, %out: f32):
      %3358 = arith.mulf %in, %in_1860 : f32
      linalg.yield %3358 : f32
    } -> tensor<4x?x2048xf32>
    %167 = linalg.generic {indexing_maps = [#map, #map], iterator_types = ["parallel", "parallel", "parallel"]} ins(%166 : tensor<4x?x2048xf32>) outs(%21 : tensor<4x?x2048xf16>) {
    ^bb0(%in: f32, %out: f16):
      %3358 = arith.truncf %in : f32 to f16
      linalg.yield %3358 : f16
    } -> tensor<4x?x2048xf16>
    %168 = linalg.generic {indexing_maps = [#map3, #map, #map], iterator_types = ["parallel", "parallel", "parallel"]} ins(%__auto.blk.0.ffn_norm.weight, %167 : tensor<2048xf32>, tensor<4x?x2048xf16>) outs(%23 : tensor<4x?x2048xf32>) {
    ^bb0(%in: f32, %in_1860: f16, %out: f32):
      %3358 = arith.extf %in_1860 : f16 to f32
      %3359 = arith.mulf %in, %3358 : f32
      linalg.yield %3359 : f32
    } -> tensor<4x?x2048xf32>
    %169 = linalg.generic {indexing_maps = [#map, #map], iterator_types = ["parallel", "parallel", "parallel"]} ins(%168 : tensor<4x?x2048xf32>) outs(%21 : tensor<4x?x2048xf16>) {
    ^bb0(%in: f32, %out: f16):
      %3358 = arith.truncf %in : f32 to f16
      linalg.yield %3358 : f16
    } -> tensor<4x?x2048xf16>
    %170 = iree_tensor_ext.bitcast %__auto.blk.0.ffn_gate.weight : tensor<5632x2176xi8> -> tensor<5632x1088xi16>
    %expanded_91 = tensor.expand_shape %170 [[0], [1, 2]] output_shape [5632, 64, 17] : tensor<5632x1088xi16> into tensor<5632x64x17xi16>
    %extracted_slice_92 = tensor.extract_slice %expanded_91[0, 0, 0] [5632, 64, 1] [1, 1, 1] : tensor<5632x64x17xi16> to tensor<5632x64x1xi16>
    %171 = iree_tensor_ext.bitcast %extracted_slice_92 : tensor<5632x64x1xi16> -> tensor<5632x64x1xf16>
    %extracted_slice_93 = tensor.extract_slice %expanded_91[0, 0, 1] [5632, 64, 16] [1, 1, 1] : tensor<5632x64x17xi16> to tensor<5632x64x16xi16>
    %172 = iree_tensor_ext.bitcast %extracted_slice_93 : tensor<5632x64x16xi16> -> tensor<5632x64x32xi8>
    %dim_94 = tensor.dim %169, %c1 : tensor<4x?x2048xf16>
    %173 = tensor.empty() : tensor<5632x64x32xf16>
    %174 = linalg.generic {indexing_maps = [#map1, #map, #map], iterator_types = ["parallel", "parallel", "parallel"]} ins(%171, %172 : tensor<5632x64x1xf16>, tensor<5632x64x32xi8>) outs(%173 : tensor<5632x64x32xf16>) {
    ^bb0(%in: f16, %in_1860: i8, %out: f16):
      %3358 = arith.extsi %in_1860 : i8 to i32
      %3359 = arith.sitofp %3358 : i32 to f16
      %3360 = arith.mulf %3359, %in : f16
      linalg.yield %3360 : f16
    } -> tensor<5632x64x32xf16>
    %expanded_95 = tensor.expand_shape %169 [[0], [1], [2, 3]] output_shape [4, %dim_94, 64, 32] : tensor<4x?x2048xf16> into tensor<4x?x64x32xf16>
    %175 = tensor.empty(%dim_94) : tensor<4x?x5632xf32>
    %176 = linalg.fill ins(%cst_3 : f32) outs(%175 : tensor<4x?x5632xf32>) -> tensor<4x?x5632xf32>
    %177 = linalg.generic {indexing_maps = [#map4, #map5, #map6], iterator_types = ["parallel", "parallel", "parallel", "reduction", "reduction"]} ins(%expanded_95, %174 : tensor<4x?x64x32xf16>, tensor<5632x64x32xf16>) outs(%176 : tensor<4x?x5632xf32>) {
    ^bb0(%in: f16, %in_1860: f16, %out: f32):
      %3358 = arith.mulf %in, %in_1860 : f16
      %3359 = arith.extf %3358 : f16 to f32
      %3360 = arith.addf %3359, %out : f32
      linalg.yield %3360 : f32
    } -> tensor<4x?x5632xf32>
    %178 = tensor.empty(%dim_94) : tensor<4x?x5632xf16>
    %179 = linalg.copy ins(%177 : tensor<4x?x5632xf32>) outs(%178 : tensor<4x?x5632xf16>) -> tensor<4x?x5632xf16>
    %dim_96 = tensor.dim %179, %c1 : tensor<4x?x5632xf16>
    %180 = tensor.empty(%dim_96) : tensor<4x?x5632xf16>
    %181 = linalg.generic {indexing_maps = [#map, #map], iterator_types = ["parallel", "parallel", "parallel"]} ins(%179 : tensor<4x?x5632xf16>) outs(%180 : tensor<4x?x5632xf16>) {
    ^bb0(%in: f16, %out: f16):
      %3358 = arith.negf %in : f16
      %3359 = math.exp %3358 : f16
      %3360 = arith.addf %3359, %cst_5 : f16
      %3361 = arith.divf %cst_5, %3360 : f16
      linalg.yield %3361 : f16
    } -> tensor<4x?x5632xf16>
    %182 = linalg.generic {indexing_maps = [#map, #map, #map], iterator_types = ["parallel", "parallel", "parallel"]} ins(%181, %179 : tensor<4x?x5632xf16>, tensor<4x?x5632xf16>) outs(%180 : tensor<4x?x5632xf16>) {
    ^bb0(%in: f16, %in_1860: f16, %out: f16):
      %3358 = arith.mulf %in, %in_1860 : f16
      linalg.yield %3358 : f16
    } -> tensor<4x?x5632xf16>
    %183 = iree_tensor_ext.bitcast %__auto.blk.0.ffn_up.weight : tensor<5632x2176xi8> -> tensor<5632x1088xi16>
    %expanded_97 = tensor.expand_shape %183 [[0], [1, 2]] output_shape [5632, 64, 17] : tensor<5632x1088xi16> into tensor<5632x64x17xi16>
    %extracted_slice_98 = tensor.extract_slice %expanded_97[0, 0, 0] [5632, 64, 1] [1, 1, 1] : tensor<5632x64x17xi16> to tensor<5632x64x1xi16>
    %184 = iree_tensor_ext.bitcast %extracted_slice_98 : tensor<5632x64x1xi16> -> tensor<5632x64x1xf16>
    %extracted_slice_99 = tensor.extract_slice %expanded_97[0, 0, 1] [5632, 64, 16] [1, 1, 1] : tensor<5632x64x17xi16> to tensor<5632x64x16xi16>
    %185 = iree_tensor_ext.bitcast %extracted_slice_99 : tensor<5632x64x16xi16> -> tensor<5632x64x32xi8>
    %dim_100 = tensor.dim %169, %c1 : tensor<4x?x2048xf16>
    %186 = tensor.empty() : tensor<5632x64x32xf16>
    %187 = linalg.generic {indexing_maps = [#map1, #map, #map], iterator_types = ["parallel", "parallel", "parallel"]} ins(%184, %185 : tensor<5632x64x1xf16>, tensor<5632x64x32xi8>) outs(%186 : tensor<5632x64x32xf16>) {
    ^bb0(%in: f16, %in_1860: i8, %out: f16):
      %3358 = arith.extsi %in_1860 : i8 to i32
      %3359 = arith.sitofp %3358 : i32 to f16
      %3360 = arith.mulf %3359, %in : f16
      linalg.yield %3360 : f16
    } -> tensor<5632x64x32xf16>
    %expanded_101 = tensor.expand_shape %169 [[0], [1], [2, 3]] output_shape [4, %dim_100, 64, 32] : tensor<4x?x2048xf16> into tensor<4x?x64x32xf16>
    %188 = tensor.empty(%dim_100) : tensor<4x?x5632xf32>
    %189 = linalg.fill ins(%cst_3 : f32) outs(%188 : tensor<4x?x5632xf32>) -> tensor<4x?x5632xf32>
    %190 = linalg.generic {indexing_maps = [#map4, #map5, #map6], iterator_types = ["parallel", "parallel", "parallel", "reduction", "reduction"]} ins(%expanded_101, %187 : tensor<4x?x64x32xf16>, tensor<5632x64x32xf16>) outs(%189 : tensor<4x?x5632xf32>) {
    ^bb0(%in: f16, %in_1860: f16, %out: f32):
      %3358 = arith.mulf %in, %in_1860 : f16
      %3359 = arith.extf %3358 : f16 to f32
      %3360 = arith.addf %3359, %out : f32
      linalg.yield %3360 : f32
    } -> tensor<4x?x5632xf32>
    %191 = tensor.empty(%dim_100) : tensor<4x?x5632xf16>
    %192 = linalg.copy ins(%190 : tensor<4x?x5632xf32>) outs(%191 : tensor<4x?x5632xf16>) -> tensor<4x?x5632xf16>
    %193 = linalg.generic {indexing_maps = [#map, #map, #map], iterator_types = ["parallel", "parallel", "parallel"]} ins(%182, %192 : tensor<4x?x5632xf16>, tensor<4x?x5632xf16>) outs(%180 : tensor<4x?x5632xf16>) {
    ^bb0(%in: f16, %in_1860: f16, %out: f16):
      %3358 = arith.mulf %in, %in_1860 : f16
      linalg.yield %3358 : f16
    } -> tensor<4x?x5632xf16>
    %194 = iree_tensor_ext.bitcast %__auto.blk.0.ffn_down.weight : tensor<2048x5984xi8> -> tensor<2048x2992xi16>
    %expanded_102 = tensor.expand_shape %194 [[0], [1, 2]] output_shape [2048, 176, 17] : tensor<2048x2992xi16> into tensor<2048x176x17xi16>
    %extracted_slice_103 = tensor.extract_slice %expanded_102[0, 0, 0] [2048, 176, 1] [1, 1, 1] : tensor<2048x176x17xi16> to tensor<2048x176x1xi16>
    %195 = iree_tensor_ext.bitcast %extracted_slice_103 : tensor<2048x176x1xi16> -> tensor<2048x176x1xf16>
    %extracted_slice_104 = tensor.extract_slice %expanded_102[0, 0, 1] [2048, 176, 16] [1, 1, 1] : tensor<2048x176x17xi16> to tensor<2048x176x16xi16>
    %196 = iree_tensor_ext.bitcast %extracted_slice_104 : tensor<2048x176x16xi16> -> tensor<2048x176x32xi8>
    %dim_105 = tensor.dim %193, %c1 : tensor<4x?x5632xf16>
    %197 = tensor.empty() : tensor<2048x176x32xf16>
    %198 = linalg.generic {indexing_maps = [#map1, #map, #map], iterator_types = ["parallel", "parallel", "parallel"]} ins(%195, %196 : tensor<2048x176x1xf16>, tensor<2048x176x32xi8>) outs(%197 : tensor<2048x176x32xf16>) {
    ^bb0(%in: f16, %in_1860: i8, %out: f16):
      %3358 = arith.extsi %in_1860 : i8 to i32
      %3359 = arith.sitofp %3358 : i32 to f16
      %3360 = arith.mulf %3359, %in : f16
      linalg.yield %3360 : f16
    } -> tensor<2048x176x32xf16>
    %expanded_106 = tensor.expand_shape %193 [[0], [1], [2, 3]] output_shape [4, %dim_105, 176, 32] : tensor<4x?x5632xf16> into tensor<4x?x176x32xf16>
    %199 = tensor.empty(%dim_105) : tensor<4x?x2048xf32>
    %200 = linalg.fill ins(%cst_3 : f32) outs(%199 : tensor<4x?x2048xf32>) -> tensor<4x?x2048xf32>
    %201 = linalg.generic {indexing_maps = [#map4, #map5, #map6], iterator_types = ["parallel", "parallel", "parallel", "reduction", "reduction"]} ins(%expanded_106, %198 : tensor<4x?x176x32xf16>, tensor<2048x176x32xf16>) outs(%200 : tensor<4x?x2048xf32>) {
    ^bb0(%in: f16, %in_1860: f16, %out: f32):
      %3358 = arith.mulf %in, %in_1860 : f16
      %3359 = arith.extf %3358 : f16 to f32
      %3360 = arith.addf %3359, %out : f32
      linalg.yield %3360 : f32
    } -> tensor<4x?x2048xf32>
    %202 = tensor.empty(%dim_105) : tensor<4x?x2048xf16>
    %203 = linalg.copy ins(%201 : tensor<4x?x2048xf32>) outs(%202 : tensor<4x?x2048xf16>) -> tensor<4x?x2048xf16>
    %204 = linalg.generic {indexing_maps = [#map, #map, #map], iterator_types = ["parallel", "parallel", "parallel"]} ins(%159, %203 : tensor<4x?x2048xf16>, tensor<4x?x2048xf16>) outs(%21 : tensor<4x?x2048xf16>) {
    ^bb0(%in: f16, %in_1860: f16, %out: f16):
      %3358 = arith.addf %in, %in_1860 : f16
      linalg.yield %3358 : f16
    } -> tensor<4x?x2048xf16>
    %205 = linalg.generic {indexing_maps = [#map, #map], iterator_types = ["parallel", "parallel", "parallel"]} ins(%204 : tensor<4x?x2048xf16>) outs(%23 : tensor<4x?x2048xf32>) {
    ^bb0(%in: f16, %out: f32):
      %3358 = arith.extf %in : f16 to f32
      linalg.yield %3358 : f32
    } -> tensor<4x?x2048xf32>
    %206 = linalg.generic {indexing_maps = [#map, #map], iterator_types = ["parallel", "parallel", "parallel"]} ins(%205 : tensor<4x?x2048xf32>) outs(%23 : tensor<4x?x2048xf32>) {
    ^bb0(%in: f32, %out: f32):
      %3358 = math.fpowi %in, %c2_i64 : f32, i64
      linalg.yield %3358 : f32
    } -> tensor<4x?x2048xf32>
    %207 = linalg.generic {indexing_maps = [#map, #map1], iterator_types = ["parallel", "parallel", "reduction"]} ins(%206 : tensor<4x?x2048xf32>) outs(%27 : tensor<4x?x1xf32>) {
    ^bb0(%in: f32, %out: f32):
      %3358 = arith.addf %in, %out : f32
      linalg.yield %3358 : f32
    } -> tensor<4x?x1xf32>
    %208 = linalg.generic {indexing_maps = [#map, #map], iterator_types = ["parallel", "parallel", "parallel"]} ins(%207 : tensor<4x?x1xf32>) outs(%26 : tensor<4x?x1xf32>) {
    ^bb0(%in: f32, %out: f32):
      %3358 = arith.divf %in, %cst_6 : f32
      linalg.yield %3358 : f32
    } -> tensor<4x?x1xf32>
    %209 = linalg.generic {indexing_maps = [#map, #map], iterator_types = ["parallel", "parallel", "parallel"]} ins(%208 : tensor<4x?x1xf32>) outs(%26 : tensor<4x?x1xf32>) {
    ^bb0(%in: f32, %out: f32):
      %3358 = arith.addf %in, %cst_7 : f32
      linalg.yield %3358 : f32
    } -> tensor<4x?x1xf32>
    %210 = linalg.generic {indexing_maps = [#map, #map], iterator_types = ["parallel", "parallel", "parallel"]} ins(%209 : tensor<4x?x1xf32>) outs(%26 : tensor<4x?x1xf32>) {
    ^bb0(%in: f32, %out: f32):
      %3358 = math.rsqrt %in : f32
      linalg.yield %3358 : f32
    } -> tensor<4x?x1xf32>
    %211 = linalg.generic {indexing_maps = [#map, #map1, #map], iterator_types = ["parallel", "parallel", "parallel"]} ins(%205, %210 : tensor<4x?x2048xf32>, tensor<4x?x1xf32>) outs(%23 : tensor<4x?x2048xf32>) {
    ^bb0(%in: f32, %in_1860: f32, %out: f32):
      %3358 = arith.mulf %in, %in_1860 : f32
      linalg.yield %3358 : f32
    } -> tensor<4x?x2048xf32>
    %212 = linalg.generic {indexing_maps = [#map, #map], iterator_types = ["parallel", "parallel", "parallel"]} ins(%211 : tensor<4x?x2048xf32>) outs(%21 : tensor<4x?x2048xf16>) {
    ^bb0(%in: f32, %out: f16):
      %3358 = arith.truncf %in : f32 to f16
      linalg.yield %3358 : f16
    } -> tensor<4x?x2048xf16>
    %213 = linalg.generic {indexing_maps = [#map3, #map, #map], iterator_types = ["parallel", "parallel", "parallel"]} ins(%__auto.blk.1.attn_norm.weight, %212 : tensor<2048xf32>, tensor<4x?x2048xf16>) outs(%23 : tensor<4x?x2048xf32>) {
    ^bb0(%in: f32, %in_1860: f16, %out: f32):
      %3358 = arith.extf %in_1860 : f16 to f32
      %3359 = arith.mulf %in, %3358 : f32
      linalg.yield %3359 : f32
    } -> tensor<4x?x2048xf32>
    %214 = linalg.generic {indexing_maps = [#map, #map], iterator_types = ["parallel", "parallel", "parallel"]} ins(%213 : tensor<4x?x2048xf32>) outs(%21 : tensor<4x?x2048xf16>) {
    ^bb0(%in: f32, %out: f16):
      %3358 = arith.truncf %in : f32 to f16
      linalg.yield %3358 : f16
    } -> tensor<4x?x2048xf16>
    %215 = iree_tensor_ext.bitcast %__auto.blk.1.attn_q.weight : tensor<2048x2176xi8> -> tensor<2048x1088xi16>
    %expanded_107 = tensor.expand_shape %215 [[0], [1, 2]] output_shape [2048, 64, 17] : tensor<2048x1088xi16> into tensor<2048x64x17xi16>
    %extracted_slice_108 = tensor.extract_slice %expanded_107[0, 0, 0] [2048, 64, 1] [1, 1, 1] : tensor<2048x64x17xi16> to tensor<2048x64x1xi16>
    %216 = iree_tensor_ext.bitcast %extracted_slice_108 : tensor<2048x64x1xi16> -> tensor<2048x64x1xf16>
    %extracted_slice_109 = tensor.extract_slice %expanded_107[0, 0, 1] [2048, 64, 16] [1, 1, 1] : tensor<2048x64x17xi16> to tensor<2048x64x16xi16>
    %217 = iree_tensor_ext.bitcast %extracted_slice_109 : tensor<2048x64x16xi16> -> tensor<2048x64x32xi8>
    %dim_110 = tensor.dim %214, %c1 : tensor<4x?x2048xf16>
    %218 = tensor.empty() : tensor<2048x64x32xf16>
    %219 = linalg.generic {indexing_maps = [#map1, #map, #map], iterator_types = ["parallel", "parallel", "parallel"]} ins(%216, %217 : tensor<2048x64x1xf16>, tensor<2048x64x32xi8>) outs(%218 : tensor<2048x64x32xf16>) {
    ^bb0(%in: f16, %in_1860: i8, %out: f16):
      %3358 = arith.extsi %in_1860 : i8 to i32
      %3359 = arith.sitofp %3358 : i32 to f16
      %3360 = arith.mulf %3359, %in : f16
      linalg.yield %3360 : f16
    } -> tensor<2048x64x32xf16>
    %expanded_111 = tensor.expand_shape %214 [[0], [1], [2, 3]] output_shape [4, %dim_110, 64, 32] : tensor<4x?x2048xf16> into tensor<4x?x64x32xf16>
    %220 = tensor.empty(%dim_110) : tensor<4x?x2048xf32>
    %221 = linalg.fill ins(%cst_3 : f32) outs(%220 : tensor<4x?x2048xf32>) -> tensor<4x?x2048xf32>
    %222 = linalg.generic {indexing_maps = [#map4, #map5, #map6], iterator_types = ["parallel", "parallel", "parallel", "reduction", "reduction"]} ins(%expanded_111, %219 : tensor<4x?x64x32xf16>, tensor<2048x64x32xf16>) outs(%221 : tensor<4x?x2048xf32>) {
    ^bb0(%in: f16, %in_1860: f16, %out: f32):
      %3358 = arith.mulf %in, %in_1860 : f16
      %3359 = arith.extf %3358 : f16 to f32
      %3360 = arith.addf %3359, %out : f32
      linalg.yield %3360 : f32
    } -> tensor<4x?x2048xf32>
    %223 = tensor.empty(%dim_110) : tensor<4x?x2048xf16>
    %224 = linalg.copy ins(%222 : tensor<4x?x2048xf32>) outs(%223 : tensor<4x?x2048xf16>) -> tensor<4x?x2048xf16>
    %225 = iree_tensor_ext.bitcast %__auto.blk.1.attn_k.weight : tensor<256x2176xi8> -> tensor<256x1088xi16>
    %expanded_112 = tensor.expand_shape %225 [[0], [1, 2]] output_shape [256, 64, 17] : tensor<256x1088xi16> into tensor<256x64x17xi16>
    %extracted_slice_113 = tensor.extract_slice %expanded_112[0, 0, 0] [256, 64, 1] [1, 1, 1] : tensor<256x64x17xi16> to tensor<256x64x1xi16>
    %226 = iree_tensor_ext.bitcast %extracted_slice_113 : tensor<256x64x1xi16> -> tensor<256x64x1xf16>
    %extracted_slice_114 = tensor.extract_slice %expanded_112[0, 0, 1] [256, 64, 16] [1, 1, 1] : tensor<256x64x17xi16> to tensor<256x64x16xi16>
    %227 = iree_tensor_ext.bitcast %extracted_slice_114 : tensor<256x64x16xi16> -> tensor<256x64x32xi8>
    %dim_115 = tensor.dim %214, %c1 : tensor<4x?x2048xf16>
    %228 = tensor.empty() : tensor<256x64x32xf16>
    %229 = linalg.generic {indexing_maps = [#map1, #map, #map], iterator_types = ["parallel", "parallel", "parallel"]} ins(%226, %227 : tensor<256x64x1xf16>, tensor<256x64x32xi8>) outs(%228 : tensor<256x64x32xf16>) {
    ^bb0(%in: f16, %in_1860: i8, %out: f16):
      %3358 = arith.extsi %in_1860 : i8 to i32
      %3359 = arith.sitofp %3358 : i32 to f16
      %3360 = arith.mulf %3359, %in : f16
      linalg.yield %3360 : f16
    } -> tensor<256x64x32xf16>
    %expanded_116 = tensor.expand_shape %214 [[0], [1], [2, 3]] output_shape [4, %dim_115, 64, 32] : tensor<4x?x2048xf16> into tensor<4x?x64x32xf16>
    %230 = tensor.empty(%dim_115) : tensor<4x?x256xf32>
    %231 = linalg.fill ins(%cst_3 : f32) outs(%230 : tensor<4x?x256xf32>) -> tensor<4x?x256xf32>
    %232 = linalg.generic {indexing_maps = [#map4, #map5, #map6], iterator_types = ["parallel", "parallel", "parallel", "reduction", "reduction"]} ins(%expanded_116, %229 : tensor<4x?x64x32xf16>, tensor<256x64x32xf16>) outs(%231 : tensor<4x?x256xf32>) {
    ^bb0(%in: f16, %in_1860: f16, %out: f32):
      %3358 = arith.mulf %in, %in_1860 : f16
      %3359 = arith.extf %3358 : f16 to f32
      %3360 = arith.addf %3359, %out : f32
      linalg.yield %3360 : f32
    } -> tensor<4x?x256xf32>
    %233 = tensor.empty(%dim_115) : tensor<4x?x256xf16>
    %234 = linalg.copy ins(%232 : tensor<4x?x256xf32>) outs(%233 : tensor<4x?x256xf16>) -> tensor<4x?x256xf16>
    %235 = iree_tensor_ext.bitcast %__auto.blk.1.attn_v.weight : tensor<256x2176xi8> -> tensor<256x1088xi16>
    %expanded_117 = tensor.expand_shape %235 [[0], [1, 2]] output_shape [256, 64, 17] : tensor<256x1088xi16> into tensor<256x64x17xi16>
    %extracted_slice_118 = tensor.extract_slice %expanded_117[0, 0, 0] [256, 64, 1] [1, 1, 1] : tensor<256x64x17xi16> to tensor<256x64x1xi16>
    %236 = iree_tensor_ext.bitcast %extracted_slice_118 : tensor<256x64x1xi16> -> tensor<256x64x1xf16>
    %extracted_slice_119 = tensor.extract_slice %expanded_117[0, 0, 1] [256, 64, 16] [1, 1, 1] : tensor<256x64x17xi16> to tensor<256x64x16xi16>
    %237 = iree_tensor_ext.bitcast %extracted_slice_119 : tensor<256x64x16xi16> -> tensor<256x64x32xi8>
    %dim_120 = tensor.dim %214, %c1 : tensor<4x?x2048xf16>
    %238 = tensor.empty() : tensor<256x64x32xf16>
    %239 = linalg.generic {indexing_maps = [#map1, #map, #map], iterator_types = ["parallel", "parallel", "parallel"]} ins(%236, %237 : tensor<256x64x1xf16>, tensor<256x64x32xi8>) outs(%238 : tensor<256x64x32xf16>) {
    ^bb0(%in: f16, %in_1860: i8, %out: f16):
      %3358 = arith.extsi %in_1860 : i8 to i32
      %3359 = arith.sitofp %3358 : i32 to f16
      %3360 = arith.mulf %3359, %in : f16
      linalg.yield %3360 : f16
    } -> tensor<256x64x32xf16>
    %expanded_121 = tensor.expand_shape %214 [[0], [1], [2, 3]] output_shape [4, %dim_120, 64, 32] : tensor<4x?x2048xf16> into tensor<4x?x64x32xf16>
    %240 = tensor.empty(%dim_120) : tensor<4x?x256xf32>
    %241 = linalg.fill ins(%cst_3 : f32) outs(%240 : tensor<4x?x256xf32>) -> tensor<4x?x256xf32>
    %242 = linalg.generic {indexing_maps = [#map4, #map5, #map6], iterator_types = ["parallel", "parallel", "parallel", "reduction", "reduction"]} ins(%expanded_121, %239 : tensor<4x?x64x32xf16>, tensor<256x64x32xf16>) outs(%241 : tensor<4x?x256xf32>) {
    ^bb0(%in: f16, %in_1860: f16, %out: f32):
      %3358 = arith.mulf %in, %in_1860 : f16
      %3359 = arith.extf %3358 : f16 to f32
      %3360 = arith.addf %3359, %out : f32
      linalg.yield %3360 : f32
    } -> tensor<4x?x256xf32>
    %243 = tensor.empty(%dim_120) : tensor<4x?x256xf16>
    %244 = linalg.copy ins(%242 : tensor<4x?x256xf32>) outs(%243 : tensor<4x?x256xf16>) -> tensor<4x?x256xf16>
    %dim_122 = tensor.dim %224, %c1 : tensor<4x?x2048xf16>
    %expanded_123 = tensor.expand_shape %224 [[0], [1], [2, 3]] output_shape [4, %dim_122, 32, 64] : tensor<4x?x2048xf16> into tensor<4x?x32x64xf16>
    %dim_124 = tensor.dim %234, %c1 : tensor<4x?x256xf16>
    %expanded_125 = tensor.expand_shape %234 [[0], [1], [2, 3]] output_shape [4, %dim_124, 4, 64] : tensor<4x?x256xf16> into tensor<4x?x4x64xf16>
    %dim_126 = tensor.dim %244, %c1 : tensor<4x?x256xf16>
    %expanded_127 = tensor.expand_shape %244 [[0], [1], [2, 3]] output_shape [4, %dim_126, 4, 64] : tensor<4x?x256xf16> into tensor<4x?x4x64xf16>
    %245 = linalg.generic {indexing_maps = [#map7, #map7], iterator_types = ["parallel"]} ins(%73 : tensor<32xf32>) outs(%70 : tensor<32xf32>) {
    ^bb0(%in: f32, %out: f32):
      %3358 = arith.cmpf one, %in, %cst_3 : f32
      cf.assert %3358, "unimplemented: tensor with zero element"
      %3359 = arith.divf %cst_4, %in : f32
      linalg.yield %3359 : f32
    } -> tensor<32xf32>
    %expanded_128 = tensor.expand_shape %245 [[0, 1, 2]] output_shape [1, 32, 1] : tensor<32xf32> into tensor<1x32x1xf32>
    %246 = linalg.batch_matmul ins(%expanded_128, %76 : tensor<1x32x1xf32>, tensor<1x1x?xf32>) outs(%78 : tensor<1x32x?xf32>) -> tensor<1x32x?xf32>
    %transposed_129 = linalg.transpose ins(%246 : tensor<1x32x?xf32>) outs(%80 : tensor<1x?x32xf32>) permutation = [0, 2, 1] 
    %247 = linalg.generic {indexing_maps = [#map, #map], iterator_types = ["parallel", "parallel", "parallel"]} ins(%transposed_129 : tensor<1x?x32xf32>) outs(%80 : tensor<1x?x32xf32>) {
    ^bb0(%in: f32, %out: f32):
      %3358 = math.cos %in : f32
      linalg.yield %3358 : f32
    } -> tensor<1x?x32xf32>
    %248 = linalg.generic {indexing_maps = [#map, #map8, #map], iterator_types = ["parallel", "parallel", "parallel"]} ins(%247, %cst_2 : tensor<1x?x32xf32>, tensor<f32>) outs(%80 : tensor<1x?x32xf32>) {
    ^bb0(%in: f32, %in_1860: f32, %out: f32):
      %3358 = arith.mulf %in, %in_1860 : f32
      linalg.yield %3358 : f32
    } -> tensor<1x?x32xf32>
    %249 = linalg.generic {indexing_maps = [#map, #map], iterator_types = ["parallel", "parallel", "parallel"]} ins(%248 : tensor<1x?x32xf32>) outs(%83 : tensor<1x?x32xf16>) {
    ^bb0(%in: f32, %out: f16):
      %3358 = arith.truncf %in : f32 to f16
      linalg.yield %3358 : f16
    } -> tensor<1x?x32xf16>
    %250 = linalg.generic {indexing_maps = [#map, #map], iterator_types = ["parallel", "parallel", "parallel"]} ins(%transposed_129 : tensor<1x?x32xf32>) outs(%80 : tensor<1x?x32xf32>) {
    ^bb0(%in: f32, %out: f32):
      %3358 = math.sin %in : f32
      linalg.yield %3358 : f32
    } -> tensor<1x?x32xf32>
    %251 = linalg.generic {indexing_maps = [#map, #map8, #map], iterator_types = ["parallel", "parallel", "parallel"]} ins(%250, %cst_2 : tensor<1x?x32xf32>, tensor<f32>) outs(%80 : tensor<1x?x32xf32>) {
    ^bb0(%in: f32, %in_1860: f32, %out: f32):
      %3358 = arith.mulf %in, %in_1860 : f32
      linalg.yield %3358 : f32
    } -> tensor<1x?x32xf32>
    %252 = linalg.generic {indexing_maps = [#map, #map], iterator_types = ["parallel", "parallel", "parallel"]} ins(%251 : tensor<1x?x32xf32>) outs(%83 : tensor<1x?x32xf16>) {
    ^bb0(%in: f32, %out: f16):
      %3358 = arith.truncf %in : f32 to f16
      linalg.yield %3358 : f16
    } -> tensor<1x?x32xf16>
    %expanded_130 = tensor.expand_shape %249 [[0], [1], [2, 3]] output_shape [1, %dim_11, 1, 32] : tensor<1x?x32xf16> into tensor<1x?x1x32xf16>
    %expanded_131 = tensor.expand_shape %252 [[0], [1], [2, 3]] output_shape [1, %dim_11, 1, 32] : tensor<1x?x32xf16> into tensor<1x?x1x32xf16>
    %extracted_slice_132 = tensor.extract_slice %expanded_123[0, 0, 0, 0] [4, %dim_122, 32, 32] [1, 1, 1, 2] : tensor<4x?x32x64xf16> to tensor<4x?x32x32xf16>
    %extracted_slice_133 = tensor.extract_slice %expanded_123[0, 0, 0, 1] [4, %dim_122, 32, 32] [1, 1, 1, 2] : tensor<4x?x32x64xf16> to tensor<4x?x32x32xf16>
    %253 = tensor.empty(%dim_122) : tensor<4x?x32x32xf16>
    %254 = linalg.generic {indexing_maps = [#map9, #map10, #map9], iterator_types = ["parallel", "parallel", "parallel", "parallel"]} ins(%extracted_slice_132, %expanded_130 : tensor<4x?x32x32xf16>, tensor<1x?x1x32xf16>) outs(%253 : tensor<4x?x32x32xf16>) {
    ^bb0(%in: f16, %in_1860: f16, %out: f16):
      %3358 = arith.mulf %in, %in_1860 : f16
      linalg.yield %3358 : f16
    } -> tensor<4x?x32x32xf16>
    %255 = linalg.generic {indexing_maps = [#map9, #map10, #map9], iterator_types = ["parallel", "parallel", "parallel", "parallel"]} ins(%extracted_slice_133, %expanded_131 : tensor<4x?x32x32xf16>, tensor<1x?x1x32xf16>) outs(%253 : tensor<4x?x32x32xf16>) {
    ^bb0(%in: f16, %in_1860: f16, %out: f16):
      %3358 = arith.mulf %in, %in_1860 : f16
      linalg.yield %3358 : f16
    } -> tensor<4x?x32x32xf16>
    %256 = linalg.generic {indexing_maps = [#map9, #map9, #map9], iterator_types = ["parallel", "parallel", "parallel", "parallel"]} ins(%254, %255 : tensor<4x?x32x32xf16>, tensor<4x?x32x32xf16>) outs(%253 : tensor<4x?x32x32xf16>) {
    ^bb0(%in: f16, %in_1860: f16, %out: f16):
      %3358 = arith.subf %in, %in_1860 : f16
      linalg.yield %3358 : f16
    } -> tensor<4x?x32x32xf16>
    %257 = linalg.generic {indexing_maps = [#map9, #map10, #map9], iterator_types = ["parallel", "parallel", "parallel", "parallel"]} ins(%extracted_slice_133, %expanded_130 : tensor<4x?x32x32xf16>, tensor<1x?x1x32xf16>) outs(%253 : tensor<4x?x32x32xf16>) {
    ^bb0(%in: f16, %in_1860: f16, %out: f16):
      %3358 = arith.mulf %in, %in_1860 : f16
      linalg.yield %3358 : f16
    } -> tensor<4x?x32x32xf16>
    %258 = linalg.generic {indexing_maps = [#map9, #map10, #map9], iterator_types = ["parallel", "parallel", "parallel", "parallel"]} ins(%extracted_slice_132, %expanded_131 : tensor<4x?x32x32xf16>, tensor<1x?x1x32xf16>) outs(%253 : tensor<4x?x32x32xf16>) {
    ^bb0(%in: f16, %in_1860: f16, %out: f16):
      %3358 = arith.mulf %in, %in_1860 : f16
      linalg.yield %3358 : f16
    } -> tensor<4x?x32x32xf16>
    %259 = linalg.generic {indexing_maps = [#map9, #map9, #map9], iterator_types = ["parallel", "parallel", "parallel", "parallel"]} ins(%257, %258 : tensor<4x?x32x32xf16>, tensor<4x?x32x32xf16>) outs(%253 : tensor<4x?x32x32xf16>) {
    ^bb0(%in: f16, %in_1860: f16, %out: f16):
      %3358 = arith.addf %in, %in_1860 : f16
      linalg.yield %3358 : f16
    } -> tensor<4x?x32x32xf16>
    %dim_134 = tensor.dim %256, %c1 : tensor<4x?x32x32xf16>
    %260 = tensor.empty(%dim_134) : tensor<4x?x32x2x32xf16>
    %261 = linalg.generic {indexing_maps = [#map11, #map11, #map12], iterator_types = ["parallel", "parallel", "parallel", "parallel", "parallel"]} ins(%256, %259 : tensor<4x?x32x32xf16>, tensor<4x?x32x32xf16>) outs(%260 : tensor<4x?x32x2x32xf16>) {
    ^bb0(%in: f16, %in_1860: f16, %out: f16):
      %3358 = linalg.index 3 : index
      %3359 = arith.cmpi eq, %3358, %c0 : index
      %3360 = arith.select %3359, %in, %in_1860 : f16
      linalg.yield %3360 : f16
    } -> tensor<4x?x32x2x32xf16>
    %collapsed_135 = tensor.collapse_shape %261 [[0], [1], [2], [3, 4]] : tensor<4x?x32x2x32xf16> into tensor<4x?x32x64xf16>
    %262 = linalg.generic {indexing_maps = [#map7, #map7], iterator_types = ["parallel"]} ins(%73 : tensor<32xf32>) outs(%70 : tensor<32xf32>) {
    ^bb0(%in: f32, %out: f32):
      %3358 = arith.cmpf one, %in, %cst_3 : f32
      cf.assert %3358, "unimplemented: tensor with zero element"
      %3359 = arith.divf %cst_4, %in : f32
      linalg.yield %3359 : f32
    } -> tensor<32xf32>
    %expanded_136 = tensor.expand_shape %262 [[0, 1, 2]] output_shape [1, 32, 1] : tensor<32xf32> into tensor<1x32x1xf32>
    %263 = linalg.batch_matmul ins(%expanded_136, %76 : tensor<1x32x1xf32>, tensor<1x1x?xf32>) outs(%78 : tensor<1x32x?xf32>) -> tensor<1x32x?xf32>
    %transposed_137 = linalg.transpose ins(%263 : tensor<1x32x?xf32>) outs(%80 : tensor<1x?x32xf32>) permutation = [0, 2, 1] 
    %264 = linalg.generic {indexing_maps = [#map, #map], iterator_types = ["parallel", "parallel", "parallel"]} ins(%transposed_137 : tensor<1x?x32xf32>) outs(%80 : tensor<1x?x32xf32>) {
    ^bb0(%in: f32, %out: f32):
      %3358 = math.cos %in : f32
      linalg.yield %3358 : f32
    } -> tensor<1x?x32xf32>
    %265 = linalg.generic {indexing_maps = [#map, #map8, #map], iterator_types = ["parallel", "parallel", "parallel"]} ins(%264, %cst_2 : tensor<1x?x32xf32>, tensor<f32>) outs(%80 : tensor<1x?x32xf32>) {
    ^bb0(%in: f32, %in_1860: f32, %out: f32):
      %3358 = arith.mulf %in, %in_1860 : f32
      linalg.yield %3358 : f32
    } -> tensor<1x?x32xf32>
    %266 = linalg.generic {indexing_maps = [#map, #map], iterator_types = ["parallel", "parallel", "parallel"]} ins(%265 : tensor<1x?x32xf32>) outs(%83 : tensor<1x?x32xf16>) {
    ^bb0(%in: f32, %out: f16):
      %3358 = arith.truncf %in : f32 to f16
      linalg.yield %3358 : f16
    } -> tensor<1x?x32xf16>
    %267 = linalg.generic {indexing_maps = [#map, #map], iterator_types = ["parallel", "parallel", "parallel"]} ins(%transposed_137 : tensor<1x?x32xf32>) outs(%80 : tensor<1x?x32xf32>) {
    ^bb0(%in: f32, %out: f32):
      %3358 = math.sin %in : f32
      linalg.yield %3358 : f32
    } -> tensor<1x?x32xf32>
    %268 = linalg.generic {indexing_maps = [#map, #map8, #map], iterator_types = ["parallel", "parallel", "parallel"]} ins(%267, %cst_2 : tensor<1x?x32xf32>, tensor<f32>) outs(%80 : tensor<1x?x32xf32>) {
    ^bb0(%in: f32, %in_1860: f32, %out: f32):
      %3358 = arith.mulf %in, %in_1860 : f32
      linalg.yield %3358 : f32
    } -> tensor<1x?x32xf32>
    %269 = linalg.generic {indexing_maps = [#map, #map], iterator_types = ["parallel", "parallel", "parallel"]} ins(%268 : tensor<1x?x32xf32>) outs(%83 : tensor<1x?x32xf16>) {
    ^bb0(%in: f32, %out: f16):
      %3358 = arith.truncf %in : f32 to f16
      linalg.yield %3358 : f16
    } -> tensor<1x?x32xf16>
    %expanded_138 = tensor.expand_shape %266 [[0], [1], [2, 3]] output_shape [1, %dim_11, 1, 32] : tensor<1x?x32xf16> into tensor<1x?x1x32xf16>
    %expanded_139 = tensor.expand_shape %269 [[0], [1], [2, 3]] output_shape [1, %dim_11, 1, 32] : tensor<1x?x32xf16> into tensor<1x?x1x32xf16>
    %extracted_slice_140 = tensor.extract_slice %expanded_125[0, 0, 0, 0] [4, %dim_124, 4, 32] [1, 1, 1, 2] : tensor<4x?x4x64xf16> to tensor<4x?x4x32xf16>
    %extracted_slice_141 = tensor.extract_slice %expanded_125[0, 0, 0, 1] [4, %dim_124, 4, 32] [1, 1, 1, 2] : tensor<4x?x4x64xf16> to tensor<4x?x4x32xf16>
    %270 = tensor.empty(%dim_124) : tensor<4x?x4x32xf16>
    %271 = linalg.generic {indexing_maps = [#map9, #map10, #map9], iterator_types = ["parallel", "parallel", "parallel", "parallel"]} ins(%extracted_slice_140, %expanded_138 : tensor<4x?x4x32xf16>, tensor<1x?x1x32xf16>) outs(%270 : tensor<4x?x4x32xf16>) {
    ^bb0(%in: f16, %in_1860: f16, %out: f16):
      %3358 = arith.mulf %in, %in_1860 : f16
      linalg.yield %3358 : f16
    } -> tensor<4x?x4x32xf16>
    %272 = linalg.generic {indexing_maps = [#map9, #map10, #map9], iterator_types = ["parallel", "parallel", "parallel", "parallel"]} ins(%extracted_slice_141, %expanded_139 : tensor<4x?x4x32xf16>, tensor<1x?x1x32xf16>) outs(%270 : tensor<4x?x4x32xf16>) {
    ^bb0(%in: f16, %in_1860: f16, %out: f16):
      %3358 = arith.mulf %in, %in_1860 : f16
      linalg.yield %3358 : f16
    } -> tensor<4x?x4x32xf16>
    %273 = linalg.generic {indexing_maps = [#map9, #map9, #map9], iterator_types = ["parallel", "parallel", "parallel", "parallel"]} ins(%271, %272 : tensor<4x?x4x32xf16>, tensor<4x?x4x32xf16>) outs(%270 : tensor<4x?x4x32xf16>) {
    ^bb0(%in: f16, %in_1860: f16, %out: f16):
      %3358 = arith.subf %in, %in_1860 : f16
      linalg.yield %3358 : f16
    } -> tensor<4x?x4x32xf16>
    %274 = linalg.generic {indexing_maps = [#map9, #map10, #map9], iterator_types = ["parallel", "parallel", "parallel", "parallel"]} ins(%extracted_slice_141, %expanded_138 : tensor<4x?x4x32xf16>, tensor<1x?x1x32xf16>) outs(%270 : tensor<4x?x4x32xf16>) {
    ^bb0(%in: f16, %in_1860: f16, %out: f16):
      %3358 = arith.mulf %in, %in_1860 : f16
      linalg.yield %3358 : f16
    } -> tensor<4x?x4x32xf16>
    %275 = linalg.generic {indexing_maps = [#map9, #map10, #map9], iterator_types = ["parallel", "parallel", "parallel", "parallel"]} ins(%extracted_slice_140, %expanded_139 : tensor<4x?x4x32xf16>, tensor<1x?x1x32xf16>) outs(%270 : tensor<4x?x4x32xf16>) {
    ^bb0(%in: f16, %in_1860: f16, %out: f16):
      %3358 = arith.mulf %in, %in_1860 : f16
      linalg.yield %3358 : f16
    } -> tensor<4x?x4x32xf16>
    %276 = linalg.generic {indexing_maps = [#map9, #map9, #map9], iterator_types = ["parallel", "parallel", "parallel", "parallel"]} ins(%274, %275 : tensor<4x?x4x32xf16>, tensor<4x?x4x32xf16>) outs(%270 : tensor<4x?x4x32xf16>) {
    ^bb0(%in: f16, %in_1860: f16, %out: f16):
      %3358 = arith.addf %in, %in_1860 : f16
      linalg.yield %3358 : f16
    } -> tensor<4x?x4x32xf16>
    %dim_142 = tensor.dim %273, %c1 : tensor<4x?x4x32xf16>
    %277 = tensor.empty(%dim_142) : tensor<4x?x4x2x32xf16>
    %278 = linalg.generic {indexing_maps = [#map11, #map11, #map12], iterator_types = ["parallel", "parallel", "parallel", "parallel", "parallel"]} ins(%273, %276 : tensor<4x?x4x32xf16>, tensor<4x?x4x32xf16>) outs(%277 : tensor<4x?x4x2x32xf16>) {
    ^bb0(%in: f16, %in_1860: f16, %out: f16):
      %3358 = linalg.index 3 : index
      %3359 = arith.cmpi eq, %3358, %c0 : index
      %3360 = arith.select %3359, %in, %in_1860 : f16
      linalg.yield %3360 : f16
    } -> tensor<4x?x4x2x32xf16>
    %collapsed_143 = tensor.collapse_shape %278 [[0], [1], [2], [3, 4]] : tensor<4x?x4x2x32xf16> into tensor<4x?x4x64xf16>
    %279 = linalg.generic {indexing_maps = [#map13, #map13], iterator_types = ["parallel", "parallel"]} ins(%115 : tensor<4x?xi64>) outs(%114 : tensor<4x?xi64>) {
    ^bb0(%in: i64, %out: i64):
      %3358 = arith.addi %in, %c1_i64 : i64
      linalg.yield %3358 : i64
    } -> tensor<4x?xi64>
    %280 = linalg.generic {indexing_maps = [#map13, #map13], iterator_types = ["parallel", "parallel"]} ins(%279 : tensor<4x?xi64>) outs(%114 : tensor<4x?xi64>) {
    ^bb0(%in: i64, %out: i64):
      %3358 = arith.muli %in, %c2_i64 : i64
      linalg.yield %3358 : i64
    } -> tensor<4x?xi64>
    %collapsed_144 = tensor.collapse_shape %280 [[0, 1]] : tensor<4x?xi64> into tensor<?xi64>
    %dim_145 = tensor.dim %278, %c1 : tensor<4x?x4x2x32xf16>
    %281 = arith.divsi %dim_145, %c32 : index
    %expanded_146 = tensor.expand_shape %collapsed_143 [[0], [1, 2], [3], [4]] output_shape [4, %281, 32, 4, 64] : tensor<4x?x4x64xf16> into tensor<4x?x32x4x64xf16>
    %collapsed_147 = tensor.collapse_shape %expanded_146 [[0, 1], [2], [3], [4]] : tensor<4x?x32x4x64xf16> into tensor<?x32x4x64xf16>
    %282 = affine.apply #map14()[%281]
    %283 = tensor.empty(%282) : tensor<?x4x32x64xf16>
    %transposed_148 = linalg.transpose ins(%collapsed_147 : tensor<?x32x4x64xf16>) outs(%283 : tensor<?x4x32x64xf16>) permutation = [0, 2, 1, 3] 
    %expanded_149 = tensor.expand_shape %collapsed_144 [[0, 1]] output_shape [%120, 1] : tensor<?xi64> into tensor<?x1xi64>
    %284 = iree_linalg_ext.scatter dimension_map = [0] unique_indices(true) ins(%transposed_148, %expanded_149 : tensor<?x4x32x64xf16>, tensor<?x1xi64>) outs(%126 : tensor<?x4x32x64xf16>) {
    ^bb0(%arg6: f16, %arg7: f16):
      iree_linalg_ext.yield %arg6 : f16
    } -> tensor<?x4x32x64xf16>
    %285 = linalg.generic {indexing_maps = [#map13, #map13], iterator_types = ["parallel", "parallel"]} ins(%280 : tensor<4x?xi64>) outs(%114 : tensor<4x?xi64>) {
    ^bb0(%in: i64, %out: i64):
      %3358 = arith.addi %in, %c1_i64 : i64
      linalg.yield %3358 : i64
    } -> tensor<4x?xi64>
    %collapsed_150 = tensor.collapse_shape %285 [[0, 1]] : tensor<4x?xi64> into tensor<?xi64>
    %286 = arith.divsi %dim_126, %c32 : index
    %expanded_151 = tensor.expand_shape %244 [[0], [1, 2], [3, 4]] output_shape [4, %286, 32, 4, 64] : tensor<4x?x256xf16> into tensor<4x?x32x4x64xf16>
    %collapsed_152 = tensor.collapse_shape %expanded_151 [[0, 1], [2], [3], [4]] : tensor<4x?x32x4x64xf16> into tensor<?x32x4x64xf16>
    %287 = affine.apply #map14()[%286]
    %288 = tensor.empty(%287) : tensor<?x4x32x64xf16>
    %transposed_153 = linalg.transpose ins(%collapsed_152 : tensor<?x32x4x64xf16>) outs(%288 : tensor<?x4x32x64xf16>) permutation = [0, 2, 1, 3] 
    %expanded_154 = tensor.expand_shape %collapsed_150 [[0, 1]] output_shape [%120, 1] : tensor<?xi64> into tensor<?x1xi64>
    %289 = iree_linalg_ext.scatter dimension_map = [0] unique_indices(true) ins(%transposed_153, %expanded_154 : tensor<?x4x32x64xf16>, tensor<?x1xi64>) outs(%284 : tensor<?x4x32x64xf16>) {
    ^bb0(%arg6: f16, %arg7: f16):
      iree_linalg_ext.yield %arg6 : f16
    } -> tensor<?x4x32x64xf16>
    %290 = linalg.generic {indexing_maps = [#map11, #map12], iterator_types = ["parallel", "parallel", "parallel", "parallel", "parallel"]} ins(%collapsed_143 : tensor<4x?x4x64xf16>) outs(%138 : tensor<4x?x4x8x64xf16>) {
    ^bb0(%in: f16, %out: f16):
      linalg.yield %in : f16
    } -> tensor<4x?x4x8x64xf16>
    %collapsed_155 = tensor.collapse_shape %290 [[0], [1], [2, 3], [4]] : tensor<4x?x4x8x64xf16> into tensor<4x?x32x64xf16>
    %291 = linalg.generic {indexing_maps = [#map11, #map12], iterator_types = ["parallel", "parallel", "parallel", "parallel", "parallel"]} ins(%expanded_127 : tensor<4x?x4x64xf16>) outs(%138 : tensor<4x?x4x8x64xf16>) {
    ^bb0(%in: f16, %out: f16):
      linalg.yield %in : f16
    } -> tensor<4x?x4x8x64xf16>
    %collapsed_156 = tensor.collapse_shape %291 [[0], [1], [2, 3], [4]] : tensor<4x?x4x8x64xf16> into tensor<4x?x32x64xf16>
    %dim_157 = tensor.dim %261, %c1 : tensor<4x?x32x2x32xf16>
    %292 = tensor.empty(%dim_157) : tensor<4x32x?x64xf16>
    %transposed_158 = linalg.transpose ins(%collapsed_135 : tensor<4x?x32x64xf16>) outs(%292 : tensor<4x32x?x64xf16>) permutation = [0, 2, 1, 3] 
    %293 = tensor.empty(%dim_145) : tensor<4x32x?x64xf16>
    %transposed_159 = linalg.transpose ins(%collapsed_155 : tensor<4x?x32x64xf16>) outs(%293 : tensor<4x32x?x64xf16>) permutation = [0, 2, 1, 3] 
    %294 = tensor.empty(%dim_126) : tensor<4x32x?x64xf16>
    %transposed_160 = linalg.transpose ins(%collapsed_156 : tensor<4x?x32x64xf16>) outs(%294 : tensor<4x32x?x64xf16>) permutation = [0, 2, 1, 3] 
    %collapsed_161 = tensor.collapse_shape %transposed_158 [[0, 1], [2], [3]] : tensor<4x32x?x64xf16> into tensor<128x?x64xf16>
    %collapsed_162 = tensor.collapse_shape %transposed_159 [[0, 1], [2], [3]] : tensor<4x32x?x64xf16> into tensor<128x?x64xf16>
    %collapsed_163 = tensor.collapse_shape %transposed_160 [[0, 1], [2], [3]] : tensor<4x32x?x64xf16> into tensor<128x?x64xf16>
    %dim_164 = tensor.dim %transposed_158, %c2 : tensor<4x32x?x64xf16>
    %295 = tensor.empty(%dim_164) : tensor<128x?x64xf16>
    %296 = iree_linalg_ext.attention {indexing_maps = [#map23, #map24, #map25, #map26, #map27, #map6]} ins(%collapsed_161, %collapsed_162, %collapsed_163, %cst, %collapsed_80 : tensor<128x?x64xf16>, tensor<128x?x64xf16>, tensor<128x?x64xf16>, f16, tensor<128x?x?xf16>) outs(%295 : tensor<128x?x64xf16>) {
    ^bb0(%arg6: f32):
      iree_linalg_ext.yield %arg6 : f32
    } -> tensor<128x?x64xf16>
    %expanded_165 = tensor.expand_shape %296 [[0, 1], [2], [3]] output_shape [4, 32, %dim_164, 64] : tensor<128x?x64xf16> into tensor<4x32x?x64xf16>
    %dim_166 = tensor.dim %expanded_165, %c2 : tensor<4x32x?x64xf16>
    %297 = tensor.empty(%dim_166) : tensor<4x?x32x64xf16>
    %transposed_167 = linalg.transpose ins(%expanded_165 : tensor<4x32x?x64xf16>) outs(%297 : tensor<4x?x32x64xf16>) permutation = [0, 2, 1, 3] 
    %collapsed_168 = tensor.collapse_shape %transposed_167 [[0], [1], [2, 3]] : tensor<4x?x32x64xf16> into tensor<4x?x2048xf16>
    %298 = iree_tensor_ext.bitcast %__auto.blk.1.attn_output.weight : tensor<2048x2176xi8> -> tensor<2048x1088xi16>
    %expanded_169 = tensor.expand_shape %298 [[0], [1, 2]] output_shape [2048, 64, 17] : tensor<2048x1088xi16> into tensor<2048x64x17xi16>
    %extracted_slice_170 = tensor.extract_slice %expanded_169[0, 0, 0] [2048, 64, 1] [1, 1, 1] : tensor<2048x64x17xi16> to tensor<2048x64x1xi16>
    %299 = iree_tensor_ext.bitcast %extracted_slice_170 : tensor<2048x64x1xi16> -> tensor<2048x64x1xf16>
    %extracted_slice_171 = tensor.extract_slice %expanded_169[0, 0, 1] [2048, 64, 16] [1, 1, 1] : tensor<2048x64x17xi16> to tensor<2048x64x16xi16>
    %300 = iree_tensor_ext.bitcast %extracted_slice_171 : tensor<2048x64x16xi16> -> tensor<2048x64x32xi8>
    %dim_172 = tensor.dim %collapsed_168, %c1 : tensor<4x?x2048xf16>
    %301 = tensor.empty() : tensor<2048x64x32xf16>
    %302 = linalg.generic {indexing_maps = [#map1, #map, #map], iterator_types = ["parallel", "parallel", "parallel"]} ins(%299, %300 : tensor<2048x64x1xf16>, tensor<2048x64x32xi8>) outs(%301 : tensor<2048x64x32xf16>) {
    ^bb0(%in: f16, %in_1860: i8, %out: f16):
      %3358 = arith.extsi %in_1860 : i8 to i32
      %3359 = arith.sitofp %3358 : i32 to f16
      %3360 = arith.mulf %3359, %in : f16
      linalg.yield %3360 : f16
    } -> tensor<2048x64x32xf16>
    %expanded_173 = tensor.expand_shape %collapsed_168 [[0], [1], [2, 3]] output_shape [4, %dim_172, 64, 32] : tensor<4x?x2048xf16> into tensor<4x?x64x32xf16>
    %303 = tensor.empty(%dim_172) : tensor<4x?x2048xf32>
    %304 = linalg.fill ins(%cst_3 : f32) outs(%303 : tensor<4x?x2048xf32>) -> tensor<4x?x2048xf32>
    %305 = linalg.generic {indexing_maps = [#map4, #map5, #map6], iterator_types = ["parallel", "parallel", "parallel", "reduction", "reduction"]} ins(%expanded_173, %302 : tensor<4x?x64x32xf16>, tensor<2048x64x32xf16>) outs(%304 : tensor<4x?x2048xf32>) {
    ^bb0(%in: f16, %in_1860: f16, %out: f32):
      %3358 = arith.mulf %in, %in_1860 : f16
      %3359 = arith.extf %3358 : f16 to f32
      %3360 = arith.addf %3359, %out : f32
      linalg.yield %3360 : f32
    } -> tensor<4x?x2048xf32>
    %306 = tensor.empty(%dim_172) : tensor<4x?x2048xf16>
    %307 = linalg.copy ins(%305 : tensor<4x?x2048xf32>) outs(%306 : tensor<4x?x2048xf16>) -> tensor<4x?x2048xf16>
    %308 = linalg.generic {indexing_maps = [#map, #map, #map], iterator_types = ["parallel", "parallel", "parallel"]} ins(%204, %307 : tensor<4x?x2048xf16>, tensor<4x?x2048xf16>) outs(%21 : tensor<4x?x2048xf16>) {
    ^bb0(%in: f16, %in_1860: f16, %out: f16):
      %3358 = arith.addf %in, %in_1860 : f16
      linalg.yield %3358 : f16
    } -> tensor<4x?x2048xf16>
    %309 = linalg.generic {indexing_maps = [#map, #map], iterator_types = ["parallel", "parallel", "parallel"]} ins(%308 : tensor<4x?x2048xf16>) outs(%23 : tensor<4x?x2048xf32>) {
    ^bb0(%in: f16, %out: f32):
      %3358 = arith.extf %in : f16 to f32
      linalg.yield %3358 : f32
    } -> tensor<4x?x2048xf32>
    %310 = linalg.generic {indexing_maps = [#map, #map], iterator_types = ["parallel", "parallel", "parallel"]} ins(%309 : tensor<4x?x2048xf32>) outs(%23 : tensor<4x?x2048xf32>) {
    ^bb0(%in: f32, %out: f32):
      %3358 = math.fpowi %in, %c2_i64 : f32, i64
      linalg.yield %3358 : f32
    } -> tensor<4x?x2048xf32>
    %311 = linalg.generic {indexing_maps = [#map, #map1], iterator_types = ["parallel", "parallel", "reduction"]} ins(%310 : tensor<4x?x2048xf32>) outs(%27 : tensor<4x?x1xf32>) {
    ^bb0(%in: f32, %out: f32):
      %3358 = arith.addf %in, %out : f32
      linalg.yield %3358 : f32
    } -> tensor<4x?x1xf32>
    %312 = linalg.generic {indexing_maps = [#map, #map], iterator_types = ["parallel", "parallel", "parallel"]} ins(%311 : tensor<4x?x1xf32>) outs(%26 : tensor<4x?x1xf32>) {
    ^bb0(%in: f32, %out: f32):
      %3358 = arith.divf %in, %cst_6 : f32
      linalg.yield %3358 : f32
    } -> tensor<4x?x1xf32>
    %313 = linalg.generic {indexing_maps = [#map, #map], iterator_types = ["parallel", "parallel", "parallel"]} ins(%312 : tensor<4x?x1xf32>) outs(%26 : tensor<4x?x1xf32>) {
    ^bb0(%in: f32, %out: f32):
      %3358 = arith.addf %in, %cst_7 : f32
      linalg.yield %3358 : f32
    } -> tensor<4x?x1xf32>
    %314 = linalg.generic {indexing_maps = [#map, #map], iterator_types = ["parallel", "parallel", "parallel"]} ins(%313 : tensor<4x?x1xf32>) outs(%26 : tensor<4x?x1xf32>) {
    ^bb0(%in: f32, %out: f32):
      %3358 = math.rsqrt %in : f32
      linalg.yield %3358 : f32
    } -> tensor<4x?x1xf32>
    %315 = linalg.generic {indexing_maps = [#map, #map1, #map], iterator_types = ["parallel", "parallel", "parallel"]} ins(%309, %314 : tensor<4x?x2048xf32>, tensor<4x?x1xf32>) outs(%23 : tensor<4x?x2048xf32>) {
    ^bb0(%in: f32, %in_1860: f32, %out: f32):
      %3358 = arith.mulf %in, %in_1860 : f32
      linalg.yield %3358 : f32
    } -> tensor<4x?x2048xf32>
    %316 = linalg.generic {indexing_maps = [#map, #map], iterator_types = ["parallel", "parallel", "parallel"]} ins(%315 : tensor<4x?x2048xf32>) outs(%21 : tensor<4x?x2048xf16>) {
    ^bb0(%in: f32, %out: f16):
      %3358 = arith.truncf %in : f32 to f16
      linalg.yield %3358 : f16
    } -> tensor<4x?x2048xf16>
    %317 = linalg.generic {indexing_maps = [#map3, #map, #map], iterator_types = ["parallel", "parallel", "parallel"]} ins(%__auto.blk.1.ffn_norm.weight, %316 : tensor<2048xf32>, tensor<4x?x2048xf16>) outs(%23 : tensor<4x?x2048xf32>) {
    ^bb0(%in: f32, %in_1860: f16, %out: f32):
      %3358 = arith.extf %in_1860 : f16 to f32
      %3359 = arith.mulf %in, %3358 : f32
      linalg.yield %3359 : f32
    } -> tensor<4x?x2048xf32>
    %318 = linalg.generic {indexing_maps = [#map, #map], iterator_types = ["parallel", "parallel", "parallel"]} ins(%317 : tensor<4x?x2048xf32>) outs(%21 : tensor<4x?x2048xf16>) {
    ^bb0(%in: f32, %out: f16):
      %3358 = arith.truncf %in : f32 to f16
      linalg.yield %3358 : f16
    } -> tensor<4x?x2048xf16>
    %319 = iree_tensor_ext.bitcast %__auto.blk.1.ffn_gate.weight : tensor<5632x2176xi8> -> tensor<5632x1088xi16>
    %expanded_174 = tensor.expand_shape %319 [[0], [1, 2]] output_shape [5632, 64, 17] : tensor<5632x1088xi16> into tensor<5632x64x17xi16>
    %extracted_slice_175 = tensor.extract_slice %expanded_174[0, 0, 0] [5632, 64, 1] [1, 1, 1] : tensor<5632x64x17xi16> to tensor<5632x64x1xi16>
    %320 = iree_tensor_ext.bitcast %extracted_slice_175 : tensor<5632x64x1xi16> -> tensor<5632x64x1xf16>
    %extracted_slice_176 = tensor.extract_slice %expanded_174[0, 0, 1] [5632, 64, 16] [1, 1, 1] : tensor<5632x64x17xi16> to tensor<5632x64x16xi16>
    %321 = iree_tensor_ext.bitcast %extracted_slice_176 : tensor<5632x64x16xi16> -> tensor<5632x64x32xi8>
    %dim_177 = tensor.dim %318, %c1 : tensor<4x?x2048xf16>
    %322 = tensor.empty() : tensor<5632x64x32xf16>
    %323 = linalg.generic {indexing_maps = [#map1, #map, #map], iterator_types = ["parallel", "parallel", "parallel"]} ins(%320, %321 : tensor<5632x64x1xf16>, tensor<5632x64x32xi8>) outs(%322 : tensor<5632x64x32xf16>) {
    ^bb0(%in: f16, %in_1860: i8, %out: f16):
      %3358 = arith.extsi %in_1860 : i8 to i32
      %3359 = arith.sitofp %3358 : i32 to f16
      %3360 = arith.mulf %3359, %in : f16
      linalg.yield %3360 : f16
    } -> tensor<5632x64x32xf16>
    %expanded_178 = tensor.expand_shape %318 [[0], [1], [2, 3]] output_shape [4, %dim_177, 64, 32] : tensor<4x?x2048xf16> into tensor<4x?x64x32xf16>
    %324 = tensor.empty(%dim_177) : tensor<4x?x5632xf32>
    %325 = linalg.fill ins(%cst_3 : f32) outs(%324 : tensor<4x?x5632xf32>) -> tensor<4x?x5632xf32>
    %326 = linalg.generic {indexing_maps = [#map4, #map5, #map6], iterator_types = ["parallel", "parallel", "parallel", "reduction", "reduction"]} ins(%expanded_178, %323 : tensor<4x?x64x32xf16>, tensor<5632x64x32xf16>) outs(%325 : tensor<4x?x5632xf32>) {
    ^bb0(%in: f16, %in_1860: f16, %out: f32):
      %3358 = arith.mulf %in, %in_1860 : f16
      %3359 = arith.extf %3358 : f16 to f32
      %3360 = arith.addf %3359, %out : f32
      linalg.yield %3360 : f32
    } -> tensor<4x?x5632xf32>
    %327 = tensor.empty(%dim_177) : tensor<4x?x5632xf16>
    %328 = linalg.copy ins(%326 : tensor<4x?x5632xf32>) outs(%327 : tensor<4x?x5632xf16>) -> tensor<4x?x5632xf16>
    %dim_179 = tensor.dim %328, %c1 : tensor<4x?x5632xf16>
    %329 = tensor.empty(%dim_179) : tensor<4x?x5632xf16>
    %330 = linalg.generic {indexing_maps = [#map, #map], iterator_types = ["parallel", "parallel", "parallel"]} ins(%328 : tensor<4x?x5632xf16>) outs(%329 : tensor<4x?x5632xf16>) {
    ^bb0(%in: f16, %out: f16):
      %3358 = arith.negf %in : f16
      %3359 = math.exp %3358 : f16
      %3360 = arith.addf %3359, %cst_5 : f16
      %3361 = arith.divf %cst_5, %3360 : f16
      linalg.yield %3361 : f16
    } -> tensor<4x?x5632xf16>
    %331 = linalg.generic {indexing_maps = [#map, #map, #map], iterator_types = ["parallel", "parallel", "parallel"]} ins(%330, %328 : tensor<4x?x5632xf16>, tensor<4x?x5632xf16>) outs(%329 : tensor<4x?x5632xf16>) {
    ^bb0(%in: f16, %in_1860: f16, %out: f16):
      %3358 = arith.mulf %in, %in_1860 : f16
      linalg.yield %3358 : f16
    } -> tensor<4x?x5632xf16>
    %332 = iree_tensor_ext.bitcast %__auto.blk.1.ffn_up.weight : tensor<5632x2176xi8> -> tensor<5632x1088xi16>
    %expanded_180 = tensor.expand_shape %332 [[0], [1, 2]] output_shape [5632, 64, 17] : tensor<5632x1088xi16> into tensor<5632x64x17xi16>
    %extracted_slice_181 = tensor.extract_slice %expanded_180[0, 0, 0] [5632, 64, 1] [1, 1, 1] : tensor<5632x64x17xi16> to tensor<5632x64x1xi16>
    %333 = iree_tensor_ext.bitcast %extracted_slice_181 : tensor<5632x64x1xi16> -> tensor<5632x64x1xf16>
    %extracted_slice_182 = tensor.extract_slice %expanded_180[0, 0, 1] [5632, 64, 16] [1, 1, 1] : tensor<5632x64x17xi16> to tensor<5632x64x16xi16>
    %334 = iree_tensor_ext.bitcast %extracted_slice_182 : tensor<5632x64x16xi16> -> tensor<5632x64x32xi8>
    %dim_183 = tensor.dim %318, %c1 : tensor<4x?x2048xf16>
    %335 = tensor.empty() : tensor<5632x64x32xf16>
    %336 = linalg.generic {indexing_maps = [#map1, #map, #map], iterator_types = ["parallel", "parallel", "parallel"]} ins(%333, %334 : tensor<5632x64x1xf16>, tensor<5632x64x32xi8>) outs(%335 : tensor<5632x64x32xf16>) {
    ^bb0(%in: f16, %in_1860: i8, %out: f16):
      %3358 = arith.extsi %in_1860 : i8 to i32
      %3359 = arith.sitofp %3358 : i32 to f16
      %3360 = arith.mulf %3359, %in : f16
      linalg.yield %3360 : f16
    } -> tensor<5632x64x32xf16>
    %expanded_184 = tensor.expand_shape %318 [[0], [1], [2, 3]] output_shape [4, %dim_183, 64, 32] : tensor<4x?x2048xf16> into tensor<4x?x64x32xf16>
    %337 = tensor.empty(%dim_183) : tensor<4x?x5632xf32>
    %338 = linalg.fill ins(%cst_3 : f32) outs(%337 : tensor<4x?x5632xf32>) -> tensor<4x?x5632xf32>
    %339 = linalg.generic {indexing_maps = [#map4, #map5, #map6], iterator_types = ["parallel", "parallel", "parallel", "reduction", "reduction"]} ins(%expanded_184, %336 : tensor<4x?x64x32xf16>, tensor<5632x64x32xf16>) outs(%338 : tensor<4x?x5632xf32>) {
    ^bb0(%in: f16, %in_1860: f16, %out: f32):
      %3358 = arith.mulf %in, %in_1860 : f16
      %3359 = arith.extf %3358 : f16 to f32
      %3360 = arith.addf %3359, %out : f32
      linalg.yield %3360 : f32
    } -> tensor<4x?x5632xf32>
    %340 = tensor.empty(%dim_183) : tensor<4x?x5632xf16>
    %341 = linalg.copy ins(%339 : tensor<4x?x5632xf32>) outs(%340 : tensor<4x?x5632xf16>) -> tensor<4x?x5632xf16>
    %342 = linalg.generic {indexing_maps = [#map, #map, #map], iterator_types = ["parallel", "parallel", "parallel"]} ins(%331, %341 : tensor<4x?x5632xf16>, tensor<4x?x5632xf16>) outs(%329 : tensor<4x?x5632xf16>) {
    ^bb0(%in: f16, %in_1860: f16, %out: f16):
      %3358 = arith.mulf %in, %in_1860 : f16
      linalg.yield %3358 : f16
    } -> tensor<4x?x5632xf16>
    %343 = iree_tensor_ext.bitcast %__auto.blk.1.ffn_down.weight : tensor<2048x5984xi8> -> tensor<2048x2992xi16>
    %expanded_185 = tensor.expand_shape %343 [[0], [1, 2]] output_shape [2048, 176, 17] : tensor<2048x2992xi16> into tensor<2048x176x17xi16>
    %extracted_slice_186 = tensor.extract_slice %expanded_185[0, 0, 0] [2048, 176, 1] [1, 1, 1] : tensor<2048x176x17xi16> to tensor<2048x176x1xi16>
    %344 = iree_tensor_ext.bitcast %extracted_slice_186 : tensor<2048x176x1xi16> -> tensor<2048x176x1xf16>
    %extracted_slice_187 = tensor.extract_slice %expanded_185[0, 0, 1] [2048, 176, 16] [1, 1, 1] : tensor<2048x176x17xi16> to tensor<2048x176x16xi16>
    %345 = iree_tensor_ext.bitcast %extracted_slice_187 : tensor<2048x176x16xi16> -> tensor<2048x176x32xi8>
    %dim_188 = tensor.dim %342, %c1 : tensor<4x?x5632xf16>
    %346 = tensor.empty() : tensor<2048x176x32xf16>
    %347 = linalg.generic {indexing_maps = [#map1, #map, #map], iterator_types = ["parallel", "parallel", "parallel"]} ins(%344, %345 : tensor<2048x176x1xf16>, tensor<2048x176x32xi8>) outs(%346 : tensor<2048x176x32xf16>) {
    ^bb0(%in: f16, %in_1860: i8, %out: f16):
      %3358 = arith.extsi %in_1860 : i8 to i32
      %3359 = arith.sitofp %3358 : i32 to f16
      %3360 = arith.mulf %3359, %in : f16
      linalg.yield %3360 : f16
    } -> tensor<2048x176x32xf16>
    %expanded_189 = tensor.expand_shape %342 [[0], [1], [2, 3]] output_shape [4, %dim_188, 176, 32] : tensor<4x?x5632xf16> into tensor<4x?x176x32xf16>
    %348 = tensor.empty(%dim_188) : tensor<4x?x2048xf32>
    %349 = linalg.fill ins(%cst_3 : f32) outs(%348 : tensor<4x?x2048xf32>) -> tensor<4x?x2048xf32>
    %350 = linalg.generic {indexing_maps = [#map4, #map5, #map6], iterator_types = ["parallel", "parallel", "parallel", "reduction", "reduction"]} ins(%expanded_189, %347 : tensor<4x?x176x32xf16>, tensor<2048x176x32xf16>) outs(%349 : tensor<4x?x2048xf32>) {
    ^bb0(%in: f16, %in_1860: f16, %out: f32):
      %3358 = arith.mulf %in, %in_1860 : f16
      %3359 = arith.extf %3358 : f16 to f32
      %3360 = arith.addf %3359, %out : f32
      linalg.yield %3360 : f32
    } -> tensor<4x?x2048xf32>
    %351 = tensor.empty(%dim_188) : tensor<4x?x2048xf16>
    %352 = linalg.copy ins(%350 : tensor<4x?x2048xf32>) outs(%351 : tensor<4x?x2048xf16>) -> tensor<4x?x2048xf16>
    %353 = linalg.generic {indexing_maps = [#map, #map, #map], iterator_types = ["parallel", "parallel", "parallel"]} ins(%308, %352 : tensor<4x?x2048xf16>, tensor<4x?x2048xf16>) outs(%21 : tensor<4x?x2048xf16>) {
    ^bb0(%in: f16, %in_1860: f16, %out: f16):
      %3358 = arith.addf %in, %in_1860 : f16
      linalg.yield %3358 : f16
    } -> tensor<4x?x2048xf16>
    %354 = linalg.generic {indexing_maps = [#map, #map], iterator_types = ["parallel", "parallel", "parallel"]} ins(%353 : tensor<4x?x2048xf16>) outs(%23 : tensor<4x?x2048xf32>) {
    ^bb0(%in: f16, %out: f32):
      %3358 = arith.extf %in : f16 to f32
…
    %3424 = iree_tensor_ext.bitcast %extracted_slice_1630 : tensor<256x64x16xi16> -> tensor<256x64x32xi8>
    %3425 = tensor.empty() : tensor<256x64x32xf16>
    %3426 = linalg.generic {indexing_maps = [#map1, #map, #map], iterator_types = ["parallel", "parallel", "parallel"]} ins(%3423, %3424 : tensor<256x64x1xf16>, tensor<256x64x32xi8>) outs(%3425 : tensor<256x64x32xf16>) {
    ^bb0(%in: f16, %in_1706: i8, %out: f16):
      %3584 = arith.extsi %in_1706 : i8 to i32
      %3585 = arith.sitofp %3584 : i32 to f16
      %3586 = arith.mulf %3585, %in : f16
      linalg.yield %3586 : f16
    } -> tensor<256x64x32xf16>
    %expanded_1631 = tensor.expand_shape %3411 [[0], [1], [2, 3]] output_shape [4, 1, 64, 32] : tensor<4x1x2048xf16> into tensor<4x1x64x32xf16>
    %3427 = tensor.empty() : tensor<4x1x256xf32>
    %3428 = linalg.fill ins(%cst_5 : f32) outs(%3427 : tensor<4x1x256xf32>) -> tensor<4x1x256xf32>
    %3429 = linalg.generic {indexing_maps = [#map4, #map5, #map6], iterator_types = ["parallel", "parallel", "parallel", "reduction", "reduction"]} ins(%expanded_1631, %3426 : tensor<4x1x64x32xf16>, tensor<256x64x32xf16>) outs(%3428 : tensor<4x1x256xf32>) {
    ^bb0(%in: f16, %in_1706: f16, %out: f32):
      %3584 = arith.mulf %in, %in_1706 : f16
      %3585 = arith.extf %3584 : f16 to f32
      %3586 = arith.addf %3585, %out : f32
      linalg.yield %3586 : f32
    } -> tensor<4x1x256xf32>
    %3430 = tensor.empty() : tensor<4x1x256xf16>
    %3431 = linalg.copy ins(%3429 : tensor<4x1x256xf32>) outs(%3430 : tensor<4x1x256xf16>) -> tensor<4x1x256xf16>
    %3432 = iree_tensor_ext.bitcast %__auto.blk.21.attn_v.weight : tensor<256x2176xi8> -> tensor<256x1088xi16>
    %expanded_1632 = tensor.expand_shape %3432 [[0], [1, 2]] output_shape [256, 64, 17] : tensor<256x1088xi16> into tensor<256x64x17xi16>
    %extracted_slice_1633 = tensor.extract_slice %expanded_1632[0, 0, 0] [256, 64, 1] [1, 1, 1] : tensor<256x64x17xi16> to tensor<256x64x1xi16>
    %3433 = iree_tensor_ext.bitcast %extracted_slice_1633 : tensor<256x64x1xi16> -> tensor<256x64x1xf16>
    %extracted_slice_1634 = tensor.extract_slice %expanded_1632[0, 0, 1] [256, 64, 16] [1, 1, 1] : tensor<256x64x17xi16> to tensor<256x64x16xi16>
    %3434 = iree_tensor_ext.bitcast %extracted_slice_1634 : tensor<256x64x16xi16> -> tensor<256x64x32xi8>
    %3435 = tensor.empty() : tensor<256x64x32xf16>
    %3436 = linalg.generic {indexing_maps = [#map1, #map, #map], iterator_types = ["parallel", "parallel", "parallel"]} ins(%3433, %3434 : tensor<256x64x1xf16>, tensor<256x64x32xi8>) outs(%3435 : tensor<256x64x32xf16>) {
    ^bb0(%in: f16, %in_1706: i8, %out: f16):
      %3584 = arith.extsi %in_1706 : i8 to i32
      %3585 = arith.sitofp %3584 : i32 to f16
      %3586 = arith.mulf %3585, %in : f16
      linalg.yield %3586 : f16
    } -> tensor<256x64x32xf16>
    %expanded_1635 = tensor.expand_shape %3411 [[0], [1], [2, 3]] output_shape [4, 1, 64, 32] : tensor<4x1x2048xf16> into tensor<4x1x64x32xf16>
    %3437 = tensor.empty() : tensor<4x1x256xf32>
    %3438 = linalg.fill ins(%cst_5 : f32) outs(%3437 : tensor<4x1x256xf32>) -> tensor<4x1x256xf32>
    %3439 = linalg.generic {indexing_maps = [#map4, #map5, #map6], iterator_types = ["parallel", "parallel", "parallel", "reduction", "reduction"]} ins(%expanded_1635, %3436 : tensor<4x1x64x32xf16>, tensor<256x64x32xf16>) outs(%3438 : tensor<4x1x256xf32>) {
    ^bb0(%in: f16, %in_1706: f16, %out: f32):
      %3584 = arith.mulf %in, %in_1706 : f16
      %3585 = arith.extf %3584 : f16 to f32
      %3586 = arith.addf %3585, %out : f32
      linalg.yield %3586 : f32
    } -> tensor<4x1x256xf32>
    %3440 = tensor.empty() : tensor<4x1x256xf16>
    %3441 = linalg.copy ins(%3439 : tensor<4x1x256xf32>) outs(%3440 : tensor<4x1x256xf16>) -> tensor<4x1x256xf16>
    %expanded_1636 = tensor.expand_shape %3421 [[0], [1], [2, 3]] output_shape [4, 1, 32, 64] : tensor<4x1x2048xf16> into tensor<4x1x32x64xf16>
    %expanded_1637 = tensor.expand_shape %3431 [[0], [1], [2, 3]] output_shape [4, 1, 4, 64] : tensor<4x1x256xf16> into tensor<4x1x4x64xf16>
    %expanded_1638 = tensor.expand_shape %3441 [[0], [1], [2, 3]] output_shape [4, 1, 4, 64] : tensor<4x1x256xf16> into tensor<4x1x4x64xf16>
    %3442 = linalg.generic {indexing_maps = [#map7, #map7], iterator_types = ["parallel"]} ins(%72 : tensor<32xf32>) outs(%69 : tensor<32xf32>) {
    ^bb0(%in: f32, %out: f32):
      %3584 = arith.cmpf one, %in, %cst_5 : f32
      cf.assert %3584, "unimplemented: tensor with zero element"
      %3585 = arith.divf %cst_6, %in : f32
      linalg.yield %3585 : f32
    } -> tensor<32xf32>
    %expanded_1639 = tensor.expand_shape %3442 [[0, 1]] output_shape [32, 1] : tensor<32xf32> into tensor<32x1xf32>
    %3443 = linalg.generic {indexing_maps = [#map29, #map], iterator_types = ["parallel", "parallel", "parallel"]} ins(%expanded_1639 : tensor<32x1xf32>) outs(%74 : tensor<4x32x1xf32>) {
    ^bb0(%in: f32, %out: f32):
      linalg.yield %in : f32
    } -> tensor<4x32x1xf32>
    %3444 = linalg.batch_matmul ins(%3443, %76 : tensor<4x32x1xf32>, tensor<4x1x1xf32>) outs(%77 : tensor<4x32x1xf32>) -> tensor<4x32x1xf32>
    %transposed_1640 = linalg.transpose ins(%3444 : tensor<4x32x1xf32>) outs(%79 : tensor<4x1x32xf32>) permutation = [0, 2, 1] 
    %3445 = linalg.generic {indexing_maps = [#map, #map], iterator_types = ["parallel", "parallel", "parallel"]} ins(%transposed_1640 : tensor<4x1x32xf32>) outs(%79 : tensor<4x1x32xf32>) {
    ^bb0(%in: f32, %out: f32):
      %3584 = math.cos %in : f32
      linalg.yield %3584 : f32
    } -> tensor<4x1x32xf32>
    %3446 = linalg.generic {indexing_maps = [#map, #map8, #map], iterator_types = ["parallel", "parallel", "parallel"]} ins(%3445, %cst_4 : tensor<4x1x32xf32>, tensor<f32>) outs(%79 : tensor<4x1x32xf32>) {
    ^bb0(%in: f32, %in_1706: f32, %out: f32):
      %3584 = arith.mulf %in, %in_1706 : f32
      linalg.yield %3584 : f32
    } -> tensor<4x1x32xf32>
    %3447 = linalg.generic {indexing_maps = [#map, #map], iterator_types = ["parallel", "parallel", "parallel"]} ins(%3446 : tensor<4x1x32xf32>) outs(%82 : tensor<4x1x32xf16>) {
    ^bb0(%in: f32, %out: f16):
      %3584 = arith.truncf %in : f32 to f16
      linalg.yield %3584 : f16
    } -> tensor<4x1x32xf16>
    %3448 = linalg.generic {indexing_maps = [#map, #map], iterator_types = ["parallel", "parallel", "parallel"]} ins(%transposed_1640 : tensor<4x1x32xf32>) outs(%79 : tensor<4x1x32xf32>) {
    ^bb0(%in: f32, %out: f32):
      %3584 = math.sin %in : f32
      linalg.yield %3584 : f32
    } -> tensor<4x1x32xf32>
    %3449 = linalg.generic {indexing_maps = [#map, #map8, #map], iterator_types = ["parallel", "parallel", "parallel"]} ins(%3448, %cst_4 : tensor<4x1x32xf32>, tensor<f32>) outs(%79 : tensor<4x1x32xf32>) {
    ^bb0(%in: f32, %in_1706: f32, %out: f32):
      %3584 = arith.mulf %in, %in_1706 : f32
      linalg.yield %3584 : f32
    } -> tensor<4x1x32xf32>
    %3450 = linalg.generic {indexing_maps = [#map, #map], iterator_types = ["parallel", "parallel", "parallel"]} ins(%3449 : tensor<4x1x32xf32>) outs(%82 : tensor<4x1x32xf16>) {
    ^bb0(%in: f32, %out: f16):
      %3584 = arith.truncf %in : f32 to f16
      linalg.yield %3584 : f16
    } -> tensor<4x1x32xf16>
    %expanded_1641 = tensor.expand_shape %3447 [[0], [1], [2, 3]] output_shape [4, 1, 1, 32] : tensor<4x1x32xf16> into tensor<4x1x1x32xf16>
    %expanded_1642 = tensor.expand_shape %3450 [[0], [1], [2, 3]] output_shape [4, 1, 1, 32] : tensor<4x1x32xf16> into tensor<4x1x1x32xf16>
    %extracted_slice_1643 = tensor.extract_slice %expanded_1636[0, 0, 0, 0] [4, 1, 32, 32] [1, 1, 1, 2] : tensor<4x1x32x64xf16> to tensor<4x1x32x32xf16>
    %extracted_slice_1644 = tensor.extract_slice %expanded_1636[0, 0, 0, 1] [4, 1, 32, 32] [1, 1, 1, 2] : tensor<4x1x32x64xf16> to tensor<4x1x32x32xf16>
    %3451 = linalg.generic {indexing_maps = [#map9, #map17, #map9], iterator_types = ["parallel", "parallel", "parallel", "parallel"]} ins(%extracted_slice_1643, %expanded_1641 : tensor<4x1x32x32xf16>, tensor<4x1x1x32xf16>) outs(%88 : tensor<4x1x32x32xf16>) {
    ^bb0(%in: f16, %in_1706: f16, %out: f16):
      %3584 = arith.mulf %in, %in_1706 : f16
      linalg.yield %3584 : f16
    } -> tensor<4x1x32x32xf16>
    %3452 = linalg.generic {indexing_maps = [#map9, #map17, #map9], iterator_types = ["parallel", "parallel", "parallel", "parallel"]} ins(%extracted_slice_1644, %expanded_1642 : tensor<4x1x32x32xf16>, tensor<4x1x1x32xf16>) outs(%88 : tensor<4x1x32x32xf16>) {
    ^bb0(%in: f16, %in_1706: f16, %out: f16):
      %3584 = arith.mulf %in, %in_1706 : f16
      linalg.yield %3584 : f16
    } -> tensor<4x1x32x32xf16>
    %3453 = linalg.generic {indexing_maps = [#map9, #map9, #map9], iterator_types = ["parallel", "parallel", "parallel", "parallel"]} ins(%3451, %3452 : tensor<4x1x32x32xf16>, tensor<4x1x32x32xf16>) outs(%88 : tensor<4x1x32x32xf16>) {
    ^bb0(%in: f16, %in_1706: f16, %out: f16):
      %3584 = arith.subf %in, %in_1706 : f16
      linalg.yield %3584 : f16
    } -> tensor<4x1x32x32xf16>
    %3454 = linalg.generic {indexing_maps = [#map9, #map17, #map9], iterator_types = ["parallel", "parallel", "parallel", "parallel"]} ins(%extracted_slice_1644, %expanded_1641 : tensor<4x1x32x32xf16>, tensor<4x1x1x32xf16>) outs(%88 : tensor<4x1x32x32xf16>) {
    ^bb0(%in: f16, %in_1706: f16, %out: f16):
      %3584 = arith.mulf %in, %in_1706 : f16
      linalg.yield %3584 : f16
    } -> tensor<4x1x32x32xf16>
    %3455 = linalg.generic {indexing_maps = [#map9, #map17, #map9], iterator_types = ["parallel", "parallel", "parallel", "parallel"]} ins(%extracted_slice_1643, %expanded_1642 : tensor<4x1x32x32xf16>, tensor<4x1x1x32xf16>) outs(%88 : tensor<4x1x32x32xf16>) {
    ^bb0(%in: f16, %in_1706: f16, %out: f16):
      %3584 = arith.mulf %in, %in_1706 : f16
      linalg.yield %3584 : f16
    } -> tensor<4x1x32x32xf16>
    %3456 = linalg.generic {indexing_maps = [#map9, #map9, #map9], iterator_types = ["parallel", "parallel", "parallel", "parallel"]} ins(%3454, %3455 : tensor<4x1x32x32xf16>, tensor<4x1x32x32xf16>) outs(%88 : tensor<4x1x32x32xf16>) {
    ^bb0(%in: f16, %in_1706: f16, %out: f16):
      %3584 = arith.addf %in, %in_1706 : f16
      linalg.yield %3584 : f16
    } -> tensor<4x1x32x32xf16>
    %3457 = tensor.empty() : tensor<4x1x32x2x32xf16>
    %3458 = linalg.generic {indexing_maps = [#map11, #map11, #map12], iterator_types = ["parallel", "parallel", "parallel", "parallel", "parallel"]} ins(%3453, %3456 : tensor<4x1x32x32xf16>, tensor<4x1x32x32xf16>) outs(%3457 : tensor<4x1x32x2x32xf16>) {
    ^bb0(%in: f16, %in_1706: f16, %out: f16):
      %3584 = linalg.index 3 : index
      %3585 = arith.cmpi eq, %3584, %c0 : index
      %3586 = arith.select %3585, %in, %in_1706 : f16
      linalg.yield %3586 : f16
    } -> tensor<4x1x32x2x32xf16>
    %collapsed_1645 = tensor.collapse_shape %3458 [[0], [1], [2], [3, 4]] : tensor<4x1x32x2x32xf16> into tensor<4x1x32x64xf16>
    %3459 = linalg.generic {indexing_maps = [#map7, #map7], iterator_types = ["parallel"]} ins(%72 : tensor<32xf32>) outs(%69 : tensor<32xf32>) {
    ^bb0(%in: f32, %out: f32):
      %3584 = arith.cmpf one, %in, %cst_5 : f32
      cf.assert %3584, "unimplemented: tensor with zero element"
      %3585 = arith.divf %cst_6, %in : f32
      linalg.yield %3585 : f32
    } -> tensor<32xf32>
    %expanded_1646 = tensor.expand_shape %3459 [[0, 1]] output_shape [32, 1] : tensor<32xf32> into tensor<32x1xf32>
    %3460 = linalg.generic {indexing_maps = [#map29, #map], iterator_types = ["parallel", "parallel", "parallel"]} ins(%expanded_1646 : tensor<32x1xf32>) outs(%74 : tensor<4x32x1xf32>) {
    ^bb0(%in: f32, %out: f32):
      linalg.yield %in : f32
    } -> tensor<4x32x1xf32>
    %3461 = linalg.batch_matmul ins(%3460, %76 : tensor<4x32x1xf32>, tensor<4x1x1xf32>) outs(%77 : tensor<4x32x1xf32>) -> tensor<4x32x1xf32>
    %transposed_1647 = linalg.transpose ins(%3461 : tensor<4x32x1xf32>) outs(%79 : tensor<4x1x32xf32>) permutation = [0, 2, 1] 
    %3462 = linalg.generic {indexing_maps = [#map, #map], iterator_types = ["parallel", "parallel", "parallel"]} ins(%transposed_1647 : tensor<4x1x32xf32>) outs(%79 : tensor<4x1x32xf32>) {
    ^bb0(%in: f32, %out: f32):
      %3584 = math.cos %in : f32
      linalg.yield %3584 : f32
    } -> tensor<4x1x32xf32>
    %3463 = linalg.generic {indexing_maps = [#map, #map8, #map], iterator_types = ["parallel", "parallel", "parallel"]} ins(%3462, %cst_4 : tensor<4x1x32xf32>, tensor<f32>) outs(%79 : tensor<4x1x32xf32>) {
    ^bb0(%in: f32, %in_1706: f32, %out: f32):
      %3584 = arith.mulf %in, %in_1706 : f32
      linalg.yield %3584 : f32
    } -> tensor<4x1x32xf32>
    %3464 = linalg.generic {indexing_maps = [#map, #map], iterator_types = ["parallel", "parallel", "parallel"]} ins(%3463 : tensor<4x1x32xf32>) outs(%82 : tensor<4x1x32xf16>) {
    ^bb0(%in: f32, %out: f16):
      %3584 = arith.truncf %in : f32 to f16
      linalg.yield %3584 : f16
    } -> tensor<4x1x32xf16>
    %3465 = linalg.generic {indexing_maps = [#map, #map], iterator_types = ["parallel", "parallel", "parallel"]} ins(%transposed_1647 : tensor<4x1x32xf32>) outs(%79 : tensor<4x1x32xf32>) {
    ^bb0(%in: f32, %out: f32):
      %3584 = math.sin %in : f32
      linalg.yield %3584 : f32
    } -> tensor<4x1x32xf32>
    %3466 = linalg.generic {indexing_maps = [#map, #map8, #map], iterator_types = ["parallel", "parallel", "parallel"]} ins(%3465, %cst_4 : tensor<4x1x32xf32>, tensor<f32>) outs(%79 : tensor<4x1x32xf32>) {
    ^bb0(%in: f32, %in_1706: f32, %out: f32):
      %3584 = arith.mulf %in, %in_1706 : f32
      linalg.yield %3584 : f32
    } -> tensor<4x1x32xf32>
    %3467 = linalg.generic {indexing_maps = [#map, #map], iterator_types = ["parallel", "parallel", "parallel"]} ins(%3466 : tensor<4x1x32xf32>) outs(%82 : tensor<4x1x32xf16>) {
    ^bb0(%in: f32, %out: f16):
      %3584 = arith.truncf %in : f32 to f16
      linalg.yield %3584 : f16
    } -> tensor<4x1x32xf16>
    %expanded_1648 = tensor.expand_shape %3464 [[0], [1], [2, 3]] output_shape [4, 1, 1, 32] : tensor<4x1x32xf16> into tensor<4x1x1x32xf16>
    %expanded_1649 = tensor.expand_shape %3467 [[0], [1], [2, 3]] output_shape [4, 1, 1, 32] : tensor<4x1x32xf16> into tensor<4x1x1x32xf16>
    %extracted_slice_1650 = tensor.extract_slice %expanded_1637[0, 0, 0, 0] [4, 1, 4, 32] [1, 1, 1, 2] : tensor<4x1x4x64xf16> to tensor<4x1x4x32xf16>
    %extracted_slice_1651 = tensor.extract_slice %expanded_1637[0, 0, 0, 1] [4, 1, 4, 32] [1, 1, 1, 2] : tensor<4x1x4x64xf16> to tensor<4x1x4x32xf16>
    %3468 = linalg.generic {indexing_maps = [#map9, #map17, #map9], iterator_types = ["parallel", "parallel", "parallel", "parallel"]} ins(%extracted_slice_1650, %expanded_1648 : tensor<4x1x4x32xf16>, tensor<4x1x1x32xf16>) outs(%106 : tensor<4x1x4x32xf16>) {
    ^bb0(%in: f16, %in_1706: f16, %out: f16):
      %3584 = arith.mulf %in, %in_1706 : f16
      linalg.yield %3584 : f16
    } -> tensor<4x1x4x32xf16>
    %3469 = linalg.generic {indexing_maps = [#map9, #map17, #map9], iterator_types = ["parallel", "parallel", "parallel", "parallel"]} ins(%extracted_slice_1651, %expanded_1649 : tensor<4x1x4x32xf16>, tensor<4x1x1x32xf16>) outs(%106 : tensor<4x1x4x32xf16>) {
    ^bb0(%in: f16, %in_1706: f16, %out: f16):
      %3584 = arith.mulf %in, %in_1706 : f16
      linalg.yield %3584 : f16
    } -> tensor<4x1x4x32xf16>
    %3470 = linalg.generic {indexing_maps = [#map9, #map9, #map9], iterator_types = ["parallel", "parallel", "parallel", "parallel"]} ins(%3468, %3469 : tensor<4x1x4x32xf16>, tensor<4x1x4x32xf16>) outs(%106 : tensor<4x1x4x32xf16>) {
    ^bb0(%in: f16, %in_1706: f16, %out: f16):
      %3584 = arith.subf %in, %in_1706 : f16
      linalg.yield %3584 : f16
    } -> tensor<4x1x4x32xf16>
    %3471 = linalg.generic {indexing_maps = [#map9, #map17, #map9], iterator_types = ["parallel", "parallel", "parallel", "parallel"]} ins(%extracted_slice_1651, %expanded_1648 : tensor<4x1x4x32xf16>, tensor<4x1x1x32xf16>) outs(%106 : tensor<4x1x4x32xf16>) {
    ^bb0(%in: f16, %in_1706: f16, %out: f16):
      %3584 = arith.mulf %in, %in_1706 : f16
      linalg.yield %3584 : f16
    } -> tensor<4x1x4x32xf16>
    %3472 = linalg.generic {indexing_maps = [#map9, #map17, #map9], iterator_types = ["parallel", "parallel", "parallel", "parallel"]} ins(%extracted_slice_1650, %expanded_1649 : tensor<4x1x4x32xf16>, tensor<4x1x1x32xf16>) outs(%106 : tensor<4x1x4x32xf16>) {
    ^bb0(%in: f16, %in_1706: f16, %out: f16):
      %3584 = arith.mulf %in, %in_1706 : f16
      linalg.yield %3584 : f16
    } -> tensor<4x1x4x32xf16>
    %3473 = linalg.generic {indexing_maps = [#map9, #map9, #map9], iterator_types = ["parallel", "parallel", "parallel", "parallel"]} ins(%3471, %3472 : tensor<4x1x4x32xf16>, tensor<4x1x4x32xf16>) outs(%106 : tensor<4x1x4x32xf16>) {
    ^bb0(%in: f16, %in_1706: f16, %out: f16):
      %3584 = arith.addf %in, %in_1706 : f16
      linalg.yield %3584 : f16
    } -> tensor<4x1x4x32xf16>
    %3474 = tensor.empty() : tensor<4x1x4x2x32xf16>
    %3475 = linalg.generic {indexing_maps = [#map11, #map11, #map12], iterator_types = ["parallel", "parallel", "parallel", "parallel", "parallel"]} ins(%3470, %3473 : tensor<4x1x4x32xf16>, tensor<4x1x4x32xf16>) outs(%3474 : tensor<4x1x4x2x32xf16>) {
    ^bb0(%in: f16, %in_1706: f16, %out: f16):
      %3584 = linalg.index 3 : index
      %3585 = arith.cmpi eq, %3584, %c0 : index
      %3586 = arith.select %3585, %in, %in_1706 : f16
      linalg.yield %3586 : f16
    } -> tensor<4x1x4x2x32xf16>
    %3476 = linalg.generic {indexing_maps = [#map13, #map13], iterator_types = ["parallel", "parallel"]} ins(%expanded_49 : tensor<4x1xi64>) outs(%117 : tensor<4x1xi64>) {
    ^bb0(%in: i64, %out: i64):
      %3584 = linalg.index 0 : index
      %3585 = arith.index_cast %in : i64 to index
      %3586 = arith.cmpi slt, %3585, %dim_14 : index
      cf.assert %3586, "index must be smaller than dim size"
      %3587 = arith.cmpi sge, %in, %c0_i64 : i64
      cf.assert %3587, "index must be larger or equal to 0"
      %extracted = tensor.extract %8[%3584, %3585] : tensor<4x?xi64>
      linalg.yield %extracted : i64
    } -> tensor<4x1xi64>
    %expanded_1652 = tensor.expand_shape %3476 [[0], [1, 2]] output_shape [4, 1, 1] : tensor<4x1xi64> into tensor<4x1x1xi64>
    %3477 = linalg.generic {indexing_maps = [#map, #map], iterator_types = ["parallel", "parallel", "parallel"]} ins(%expanded_1652 : tensor<4x1x1xi64>) outs(%121 : tensor<4x1x1xi64>) {
    ^bb0(%in: i64, %out: i64):
      %3584 = arith.muli %in, %c22_i64 : i64
      linalg.yield %3584 : i64
    } -> tensor<4x1x1xi64>
    %3478 = linalg.generic {indexing_maps = [#map, #map], iterator_types = ["parallel", "parallel", "parallel"]} ins(%3477 : tensor<4x1x1xi64>) outs(%121 : tensor<4x1x1xi64>) {
    ^bb0(%in: i64, %out: i64):
      %3584 = arith.addi %in, %c21_i64 : i64
      linalg.yield %3584 : i64
    } -> tensor<4x1x1xi64>
    %3479 = linalg.generic {indexing_maps = [#map, #map], iterator_types = ["parallel", "parallel", "parallel"]} ins(%3478 : tensor<4x1x1xi64>) outs(%121 : tensor<4x1x1xi64>) {
    ^bb0(%in: i64, %out: i64):
      %3584 = arith.muli %in, %c2_i64 : i64
      linalg.yield %3584 : i64
    } -> tensor<4x1x1xi64>
    %3480 = linalg.generic {indexing_maps = [#map, #map30, #map], iterator_types = ["parallel", "parallel", "parallel"]} ins(%3479, %cst_1 : tensor<4x1x1xi64>, tensor<1x1x1xi64>) outs(%121 : tensor<4x1x1xi64>) {
    ^bb0(%in: i64, %in_1706: i64, %out: i64):
      %3584 = arith.addi %in, %in_1706 : i64
      linalg.yield %3584 : i64
    } -> tensor<4x1x1xi64>
    %3481 = linalg.generic {indexing_maps = [#map, #map], iterator_types = ["parallel", "parallel", "parallel"]} ins(%3480 : tensor<4x1x1xi64>) outs(%121 : tensor<4x1x1xi64>) {
    ^bb0(%in: i64, %out: i64):
      %3584 = arith.muli %in, %c4_i64 : i64
      linalg.yield %3584 : i64
    } -> tensor<4x1x1xi64>
    %3482 = linalg.generic {indexing_maps = [#map1, #map30, #map], iterator_types = ["parallel", "parallel", "parallel"]} ins(%3481, %expanded_52 : tensor<4x1x1xi64>, tensor<1x1x4xi64>) outs(%126 : tensor<4x1x4xi64>) {
    ^bb0(%in: i64, %in_1706: i64, %out: i64):
      %3584 = arith.addi %in, %in_1706 : i64
      linalg.yield %3584 : i64
    } -> tensor<4x1x4xi64>
    %3483 = linalg.generic {indexing_maps = [#map, #map], iterator_types = ["parallel", "parallel", "parallel"]} ins(%3482 : tensor<4x1x4xi64>) outs(%126 : tensor<4x1x4xi64>) {
    ^bb0(%in: i64, %out: i64):
      %3584 = arith.muli %in, %c32_i64 : i64
      linalg.yield %3584 : i64
    } -> tensor<4x1x4xi64>
    %3484 = linalg.generic {indexing_maps = [#map, #map1, #map], iterator_types = ["parallel", "parallel", "parallel"]} ins(%3483, %expanded_51 : tensor<4x1x4xi64>, tensor<4x1x1xi64>) outs(%126 : tensor<4x1x4xi64>) {
    ^bb0(%in: i64, %in_1706: i64, %out: i64):
      %3584 = arith.addi %in, %in_1706 : i64
      linalg.yield %3584 : i64
    } -> tensor<4x1x4xi64>
    %collapsed_1653 = tensor.collapse_shape %3484 [[0, 1, 2]] : tensor<4x1x4xi64> into tensor<16xi64>
    %expanded_1654 = tensor.expand_shape %collapsed_1653 [[0, 1]] output_shape [16, 1] : tensor<16xi64> into tensor<16x1xi64>
    %collapsed_1655 = tensor.collapse_shape %3475 [[0, 1, 2], [3, 4]] : tensor<4x1x4x2x32xf16> into tensor<16x64xf16>
    %3485 = iree_linalg_ext.scatter dimension_map = [0] unique_indices(true) ins(%collapsed_1655, %expanded_1654 : tensor<16x64xf16>, tensor<16x1xi64>) outs(%3332 : tensor<?x64xf16>) {
    ^bb0(%arg7: f16, %arg8: f16):
      iree_linalg_ext.yield %arg7 : f16
    } -> tensor<?x64xf16>
    %3486 = linalg.generic {indexing_maps = [#map, #map30, #map], iterator_types = ["parallel", "parallel", "parallel"]} ins(%3479, %cst_0 : tensor<4x1x1xi64>, tensor<1x1x1xi64>) outs(%121 : tensor<4x1x1xi64>) {
    ^bb0(%in: i64, %in_1706: i64, %out: i64):
      %3584 = arith.addi %in, %in_1706 : i64
      linalg.yield %3584 : i64
    } -> tensor<4x1x1xi64>
    %3487 = linalg.generic {indexing_maps = [#map, #map], iterator_types = ["parallel", "parallel", "parallel"]} ins(%3486 : tensor<4x1x1xi64>) outs(%121 : tensor<4x1x1xi64>) {
    ^bb0(%in: i64, %out: i64):
      %3584 = arith.muli %in, %c4_i64 : i64
      linalg.yield %3584 : i64
    } -> tensor<4x1x1xi64>
    %3488 = linalg.generic {indexing_maps = [#map1, #map30, #map], iterator_types = ["parallel", "parallel", "parallel"]} ins(%3487, %expanded_52 : tensor<4x1x1xi64>, tensor<1x1x4xi64>) outs(%126 : tensor<4x1x4xi64>) {
    ^bb0(%in: i64, %in_1706: i64, %out: i64):
      %3584 = arith.addi %in, %in_1706 : i64
      linalg.yield %3584 : i64
    } -> tensor<4x1x4xi64>
    %3489 = linalg.generic {indexing_maps = [#map, #map], iterator_types = ["parallel", "parallel", "parallel"]} ins(%3488 : tensor<4x1x4xi64>) outs(%126 : tensor<4x1x4xi64>) {
    ^bb0(%in: i64, %out: i64):
      %3584 = arith.muli %in, %c32_i64 : i64
      linalg.yield %3584 : i64
    } -> tensor<4x1x4xi64>
    %3490 = linalg.generic {indexing_maps = [#map, #map1, #map], iterator_types = ["parallel", "parallel", "parallel"]} ins(%3489, %expanded_51 : tensor<4x1x4xi64>, tensor<4x1x1xi64>) outs(%126 : tensor<4x1x4xi64>) {
    ^bb0(%in: i64, %in_1706: i64, %out: i64):
      %3584 = arith.addi %in, %in_1706 : i64
      linalg.yield %3584 : i64
    } -> tensor<4x1x4xi64>
    %collapsed_1656 = tensor.collapse_shape %3490 [[0, 1, 2]] : tensor<4x1x4xi64> into tensor<16xi64>
    %expanded_1657 = tensor.expand_shape %collapsed_1656 [[0, 1]] output_shape [16, 1] : tensor<16xi64> into tensor<16x1xi64>
    %collapsed_1658 = tensor.collapse_shape %expanded_1638 [[0, 1, 2], [3]] : tensor<4x1x4x64xf16> into tensor<16x64xf16>
    %3491 = iree_linalg_ext.scatter dimension_map = [0] unique_indices(true) ins(%collapsed_1658, %expanded_1657 : tensor<16x64xf16>, tensor<16x1xi64>) outs(%3485 : tensor<?x64xf16>) {
    ^bb0(%arg7: f16, %arg8: f16):
      iree_linalg_ext.yield %arg7 : f16
    } -> tensor<?x64xf16>
    %dim_1659 = tensor.dim %3491, %c0 : tensor<?x64xf16>
    %3492 = arith.divsi %dim_1659, %c5632 : index
    %expanded_1660 = tensor.expand_shape %3491 [[0, 1, 2, 3, 4], [5]] output_shape [%3492, 22, 2, 4, 32, 64] : tensor<?x64xf16> into tensor<?x22x2x4x32x64xf16>
    %collapsed_1661 = tensor.collapse_shape %expanded_1660 [[0], [1, 2, 3, 4, 5]] : tensor<?x22x2x4x32x64xf16> into tensor<?x360448xf16>
    %dim_1662 = tensor.dim %expanded_1660, %c0 : tensor<?x22x2x4x32x64xf16>
    %dim_1663 = tensor.dim %8, %c1 : tensor<4x?xi64>
    %extracted_slice_1664 = tensor.extract_slice %expanded_1660[0, %c21, %c0, 0, 0, 0] [%dim_1662, 1, 1, 4, 32, 64] [1, 1, 1, 1, 1, 1] : tensor<?x22x2x4x32x64xf16> to tensor<?x4x32x64xf16>
    %3493 = tensor.empty(%dim_1663) : tensor<4x?x4x32x64xf16>
    %3494 = iree_linalg_ext.gather dimension_map = [0] ins(%extracted_slice_1664, %8 : tensor<?x4x32x64xf16>, tensor<4x?xi64>) outs(%3493 : tensor<4x?x4x32x64xf16>) -> tensor<4x?x4x32x64xf16>
    %dim_1665 = tensor.dim %expanded_1660, %c0 : tensor<?x22x2x4x32x64xf16>
    %dim_1666 = tensor.dim %8, %c1 : tensor<4x?xi64>
    %extracted_slice_1667 = tensor.extract_slice %expanded_1660[0, %c21, %c1, 0, 0, 0] [%dim_1665, 1, 1, 4, 32, 64] [1, 1, 1, 1, 1, 1] : tensor<?x22x2x4x32x64xf16> to tensor<?x4x32x64xf16>
    %3495 = tensor.empty(%dim_1666) : tensor<4x?x4x32x64xf16>
    %3496 = iree_linalg_ext.gather dimension_map = [0] ins(%extracted_slice_1667, %8 : tensor<?x4x32x64xf16>, tensor<4x?xi64>) outs(%3495 : tensor<4x?x4x32x64xf16>) -> tensor<4x?x4x32x64xf16>
    %dim_1668 = tensor.dim %3494, %c1 : tensor<4x?x4x32x64xf16>
    %3497 = tensor.empty(%dim_1668) : tensor<4x?x32x4x64xf16>
    %transposed_1669 = linalg.transpose ins(%3494 : tensor<4x?x4x32x64xf16>) outs(%3497 : tensor<4x?x32x4x64xf16>) permutation = [0, 1, 3, 2, 4] 
    %collapsed_1670 = tensor.collapse_shape %transposed_1669 [[0], [1, 2], [3], [4]] : tensor<4x?x32x4x64xf16> into tensor<4x?x4x64xf16>
    %dim_1671 = tensor.dim %3496, %c1 : tensor<4x?x4x32x64xf16>
    %3498 = tensor.empty(%dim_1671) : tensor<4x?x32x4x64xf16>
    %transposed_1672 = linalg.transpose ins(%3496 : tensor<4x?x4x32x64xf16>) outs(%3498 : tensor<4x?x32x4x64xf16>) permutation = [0, 1, 3, 2, 4] 
    %collapsed_1673 = tensor.collapse_shape %transposed_1672 [[0], [1, 2], [3], [4]] : tensor<4x?x32x4x64xf16> into tensor<4x?x4x64xf16>
    %3499 = linalg.generic {indexing_maps = [#map11, #map12], iterator_types = ["parallel", "parallel", "parallel", "parallel", "parallel"]} ins(%collapsed_1670 : tensor<4x?x4x64xf16>) outs(%154 : tensor<4x?x4x8x64xf16>) {
    ^bb0(%in: f16, %out: f16):
      linalg.yield %in : f16
    } -> tensor<4x?x4x8x64xf16>
    %collapsed_1674 = tensor.collapse_shape %3499 [[0], [1], [2, 3], [4]] : tensor<4x?x4x8x64xf16> into tensor<4x?x32x64xf16>
    %3500 = linalg.generic {indexing_maps = [#map11, #map12], iterator_types = ["parallel", "parallel", "parallel", "parallel", "parallel"]} ins(%collapsed_1673 : tensor<4x?x4x64xf16>) outs(%154 : tensor<4x?x4x8x64xf16>) {
    ^bb0(%in: f16, %out: f16):
      linalg.yield %in : f16
    } -> tensor<4x?x4x8x64xf16>
    %collapsed_1675 = tensor.collapse_shape %3500 [[0], [1], [2, 3], [4]] : tensor<4x?x4x8x64xf16> into tensor<4x?x32x64xf16>
    %transposed_1676 = linalg.transpose ins(%collapsed_1645 : tensor<4x1x32x64xf16>) outs(%157 : tensor<4x32x1x64xf16>) permutation = [0, 2, 1, 3] 
    %3501 = affine.apply #map32()[%dim_1668]
    %3502 = tensor.empty(%3501) : tensor<4x32x?x64xf16>
    %transposed_1677 = linalg.transpose ins(%collapsed_1674 : tensor<4x?x32x64xf16>) outs(%3502 : tensor<4x32x?x64xf16>) permutation = [0, 2, 1, 3] 
    %3503 = affine.apply #map32()[%dim_1671]
    %3504 = tensor.empty(%3503) : tensor<4x32x?x64xf16>
    %transposed_1678 = linalg.transpose ins(%collapsed_1675 : tensor<4x?x32x64xf16>) outs(%3504 : tensor<4x32x?x64xf16>) permutation = [0, 2, 1, 3] 
    %collapsed_1679 = tensor.collapse_shape %transposed_1676 [[0, 1], [2], [3]] : tensor<4x32x1x64xf16> into tensor<128x1x64xf16>
    %collapsed_1680 = tensor.collapse_shape %transposed_1677 [[0, 1], [2], [3]] : tensor<4x32x?x64xf16> into tensor<128x?x64xf16>
    %collapsed_1681 = tensor.collapse_shape %transposed_1678 [[0, 1], [2], [3]] : tensor<4x32x?x64xf16> into tensor<128x?x64xf16>
    %3505 = iree_linalg_ext.attention {indexing_maps = [#map23, #map24, #map25, #map26, #map27, #map6]} ins(%collapsed_1679, %collapsed_1680, %collapsed_1681, %cst, %collapsed_84 : tensor<128x1x64xf16>, tensor<128x?x64xf16>, tensor<128x?x64xf16>, f16, tensor<128x1x?xf16>) outs(%164 : tensor<128x1x64xf16>) {
    ^bb0(%arg7: f32):
      iree_linalg_ext.yield %arg7 : f32
    } -> tensor<128x1x64xf16>
    %expanded_1682 = tensor.expand_shape %3505 [[0, 1], [2], [3]] output_shape [4, 32, 1, 64] : tensor<128x1x64xf16> into tensor<4x32x1x64xf16>
    %transposed_1683 = linalg.transpose ins(%expanded_1682 : tensor<4x32x1x64xf16>) outs(%87 : tensor<4x1x32x64xf16>) permutation = [0, 2, 1, 3] 
    %collapsed_1684 = tensor.collapse_shape %transposed_1683 [[0], [1], [2, 3]] : tensor<4x1x32x64xf16> into tensor<4x1x2048xf16>
    %3506 = iree_tensor_ext.bitcast %__auto.blk.21.attn_output.weight : tensor<2048x2176xi8> -> tensor<2048x1088xi16>
    %expanded_1685 = tensor.expand_shape %3506 [[0], [1, 2]] output_shape [2048, 64, 17] : tensor<2048x1088xi16> into tensor<2048x64x17xi16>
    %extracted_slice_1686 = tensor.extract_slice %expanded_1685[0, 0, 0] [2048, 64, 1] [1, 1, 1] : tensor<2048x64x17xi16> to tensor<2048x64x1xi16>
    %3507 = iree_tensor_ext.bitcast %extracted_slice_1686 : tensor<2048x64x1xi16> -> tensor<2048x64x1xf16>
    %extracted_slice_1687 = tensor.extract_slice %expanded_1685[0, 0, 1] [2048, 64, 16] [1, 1, 1] : tensor<2048x64x17xi16> to tensor<2048x64x16xi16>
    %3508 = iree_tensor_ext.bitcast %extracted_slice_1687 : tensor<2048x64x16xi16> -> tensor<2048x64x32xi8>
    %3509 = tensor.empty() : tensor<2048x64x32xf16>
    %3510 = linalg.generic {indexing_maps = [#map1, #map, #map], iterator_types = ["parallel", "parallel", "parallel"]} ins(%3507, %3508 : tensor<2048x64x1xf16>, tensor<2048x64x32xi8>) outs(%3509 : tensor<2048x64x32xf16>) {
    ^bb0(%in: f16, %in_1706: i8, %out: f16):
      %3584 = arith.extsi %in_1706 : i8 to i32
      %3585 = arith.sitofp %3584 : i32 to f16
      %3586 = arith.mulf %3585, %in : f16
      linalg.yield %3586 : f16
    } -> tensor<2048x64x32xf16>
    %expanded_1688 = tensor.expand_shape %collapsed_1684 [[0], [1], [2, 3]] output_shape [4, 1, 64, 32] : tensor<4x1x2048xf16> into tensor<4x1x64x32xf16>
    %3511 = tensor.empty() : tensor<4x1x2048xf32>
    %3512 = linalg.fill ins(%cst_5 : f32) outs(%3511 : tensor<4x1x2048xf32>) -> tensor<4x1x2048xf32>
    %3513 = linalg.generic {indexing_maps = [#map4, #map5, #map6], iterator_types = ["parallel", "parallel", "parallel", "reduction", "reduction"]} ins(%expanded_1688, %3510 : tensor<4x1x64x32xf16>, tensor<2048x64x32xf16>) outs(%3512 : tensor<4x1x2048xf32>) {
    ^bb0(%in: f16, %in_1706: f16, %out: f32):
      %3584 = arith.mulf %in, %in_1706 : f16
      %3585 = arith.extf %3584 : f16 to f32
      %3586 = arith.addf %3585, %out : f32
      linalg.yield %3586 : f32
    } -> tensor<4x1x2048xf32>
    %3514 = tensor.empty() : tensor<4x1x2048xf16>
    %3515 = linalg.copy ins(%3513 : tensor<4x1x2048xf32>) outs(%3514 : tensor<4x1x2048xf16>) -> tensor<4x1x2048xf16>
    %3516 = linalg.generic {indexing_maps = [#map, #map, #map], iterator_types = ["parallel", "parallel", "parallel"]} ins(%3401, %3515 : tensor<4x1x2048xf16>, tensor<4x1x2048xf16>) outs(%18 : tensor<4x1x2048xf16>) {
    ^bb0(%in: f16, %in_1706: f16, %out: f16):
      %3584 = arith.addf %in, %in_1706 : f16
      linalg.yield %3584 : f16
    } -> tensor<4x1x2048xf16>
    %3517 = linalg.generic {indexing_maps = [#map, #map], iterator_types = ["parallel", "parallel", "parallel"]} ins(%3516 : tensor<4x1x2048xf16>) outs(%20 : tensor<4x1x2048xf32>) {
    ^bb0(%in: f16, %out: f32):
      %3584 = arith.extf %in : f16 to f32
      linalg.yield %3584 : f32
    } -> tensor<4x1x2048xf32>
    %3518 = linalg.generic {indexing_maps = [#map, #map], iterator_types = ["parallel", "parallel", "parallel"]} ins(%3517 : tensor<4x1x2048xf32>) outs(%20 : tensor<4x1x2048xf32>) {
    ^bb0(%in: f32, %out: f32):
      %3584 = math.fpowi %in, %c2_i64 : f32, i64
      linalg.yield %3584 : f32
    } -> tensor<4x1x2048xf32>
    %3519 = linalg.generic {indexing_maps = [#map, #map1], iterator_types = ["parallel", "parallel", "reduction"]} ins(%3518 : tensor<4x1x2048xf32>) outs(%24 : tensor<4x1x1xf32>) {
    ^bb0(%in: f32, %out: f32):
      %3584 = arith.addf %in, %out : f32
      linalg.yield %3584 : f32
    } -> tensor<4x1x1xf32>
    %3520 = linalg.generic {indexing_maps = [#map, #map], iterator_types = ["parallel", "parallel", "parallel"]} ins(%3519 : tensor<4x1x1xf32>) outs(%23 : tensor<4x1x1xf32>) {
    ^bb0(%in: f32, %out: f32):
      %3584 = arith.divf %in, %cst_8 : f32
      linalg.yield %3584 : f32
    } -> tensor<4x1x1xf32>
    %3521 = linalg.generic {indexing_maps = [#map, #map], iterator_types = ["parallel", "parallel", "parallel"]} ins(%3520 : tensor<4x1x1xf32>) outs(%23 : tensor<4x1x1xf32>) {
    ^bb0(%in: f32, %out: f32):
      %3584 = arith.addf %in, %cst_9 : f32
      linalg.yield %3584 : f32
    } -> tensor<4x1x1xf32>
    %3522 = linalg.generic {indexing_maps = [#map, #map], iterator_types = ["parallel", "parallel", "parallel"]} ins(%3521 : tensor<4x1x1xf32>) outs(%23 : tensor<4x1x1xf32>) {
    ^bb0(%in: f32, %out: f32):
      %3584 = math.rsqrt %in : f32
      linalg.yield %3584 : f32
    } -> tensor<4x1x1xf32>
    %3523 = linalg.generic {indexing_maps = [#map, #map1, #map], iterator_types = ["parallel", "parallel", "parallel"]} ins(%3517, %3522 : tensor<4x1x2048xf32>, tensor<4x1x1xf32>) outs(%20 : tensor<4x1x2048xf32>) {
    ^bb0(%in: f32, %in_1706: f32, %out: f32):
      %3584 = arith.mulf %in, %in_1706 : f32
      linalg.yield %3584 : f32
    } -> tensor<4x1x2048xf32>
    %3524 = linalg.generic {indexing_maps = [#map, #map], iterator_types = ["parallel", "parallel", "parallel"]} ins(%3523 : tensor<4x1x2048xf32>) outs(%18 : tensor<4x1x2048xf16>) {
    ^bb0(%in: f32, %out: f16):
      %3584 = arith.truncf %in : f32 to f16
      linalg.yield %3584 : f16
    } -> tensor<4x1x2048xf16>
    %3525 = linalg.generic {indexing_maps = [#map3, #map, #map], iterator_types = ["parallel", "parallel", "parallel"]} ins(%__auto.blk.21.ffn_norm.weight, %3524 : tensor<2048xf32>, tensor<4x1x2048xf16>) outs(%20 : tensor<4x1x2048xf32>) {
    ^bb0(%in: f32, %in_1706: f16, %out: f32):
      %3584 = arith.extf %in_1706 : f16 to f32
      %3585 = arith.mulf %in, %3584 : f32
      linalg.yield %3585 : f32
    } -> tensor<4x1x2048xf32>
    %3526 = linalg.generic {indexing_maps = [#map, #map], iterator_types = ["parallel", "parallel", "parallel"]} ins(%3525 : tensor<4x1x2048xf32>) outs(%18 : tensor<4x1x2048xf16>) {
    ^bb0(%in: f32, %out: f16):
      %3584 = arith.truncf %in : f32 to f16
      linalg.yield %3584 : f16
    } -> tensor<4x1x2048xf16>
    %3527 = iree_tensor_ext.bitcast %__auto.blk.21.ffn_gate.weight : tensor<5632x2176xi8> -> tensor<5632x1088xi16>
    %expanded_1689 = tensor.expand_shape %3527 [[0], [1, 2]] output_shape [5632, 64, 17] : tensor<5632x1088xi16> into tensor<5632x64x17xi16>
    %extracted_slice_1690 = tensor.extract_slice %expanded_1689[0, 0, 0] [5632, 64, 1] [1, 1, 1] : tensor<5632x64x17xi16> to tensor<5632x64x1xi16>
    %3528 = iree_tensor_ext.bitcast %extracted_slice_1690 : tensor<5632x64x1xi16> -> tensor<5632x64x1xf16>
    %extracted_slice_1691 = tensor.extract_slice %expanded_1689[0, 0, 1] [5632, 64, 16] [1, 1, 1] : tensor<5632x64x17xi16> to tensor<5632x64x16xi16>
    %3529 = iree_tensor_ext.bitcast %extracted_slice_1691 : tensor<5632x64x16xi16> -> tensor<5632x64x32xi8>
    %3530 = tensor.empty() : tensor<5632x64x32xf16>
    %3531 = linalg.generic {indexing_maps = [#map1, #map, #map], iterator_types = ["parallel", "parallel", "parallel"]} ins(%3528, %3529 : tensor<5632x64x1xf16>, tensor<5632x64x32xi8>) outs(%3530 : tensor<5632x64x32xf16>) {
    ^bb0(%in: f16, %in_1706: i8, %out: f16):
      %3584 = arith.extsi %in_1706 : i8 to i32
      %3585 = arith.sitofp %3584 : i32 to f16
      %3586 = arith.mulf %3585, %in : f16
      linalg.yield %3586 : f16
    } -> tensor<5632x64x32xf16>
    %expanded_1692 = tensor.expand_shape %3526 [[0], [1], [2, 3]] output_shape [4, 1, 64, 32] : tensor<4x1x2048xf16> into tensor<4x1x64x32xf16>
    %3532 = tensor.empty() : tensor<4x1x5632xf32>
    %3533 = linalg.fill ins(%cst_5 : f32) outs(%3532 : tensor<4x1x5632xf32>) -> tensor<4x1x5632xf32>
    %3534 = linalg.generic {indexing_maps = [#map4, #map5, #map6], iterator_types = ["parallel", "parallel", "parallel", "reduction", "reduction"]} ins(%expanded_1692, %3531 : tensor<4x1x64x32xf16>, tensor<5632x64x32xf16>) outs(%3533 : tensor<4x1x5632xf32>) {
    ^bb0(%in: f16, %in_1706: f16, %out: f32):
      %3584 = arith.mulf %in, %in_1706 : f16
      %3585 = arith.extf %3584 : f16 to f32
      %3586 = arith.addf %3585, %out : f32
      linalg.yield %3586 : f32
    } -> tensor<4x1x5632xf32>
    %3535 = tensor.empty() : tensor<4x1x5632xf16>
    %3536 = linalg.copy ins(%3534 : tensor<4x1x5632xf32>) outs(%3535 : tensor<4x1x5632xf16>) -> tensor<4x1x5632xf16>
    %3537 = linalg.generic {indexing_maps = [#map, #map], iterator_types = ["parallel", "parallel", "parallel"]} ins(%3536 : tensor<4x1x5632xf16>) outs(%197 : tensor<4x1x5632xf16>) {
    ^bb0(%in: f16, %out: f16):
      %3584 = arith.negf %in : f16
      %3585 = math.exp %3584 : f16
      %3586 = arith.addf %3585, %cst_7 : f16
      %3587 = arith.divf %cst_7, %3586 : f16
      linalg.yield %3587 : f16
    } -> tensor<4x1x5632xf16>
    %3538 = linalg.generic {indexing_maps = [#map, #map, #map], iterator_types = ["parallel", "parallel", "parallel"]} ins(%3537, %3536 : tensor<4x1x5632xf16>, tensor<4x1x5632xf16>) outs(%197 : tensor<4x1x5632xf16>) {
    ^bb0(%in: f16, %in_1706: f16, %out: f16):
      %3584 = arith.mulf %in, %in_1706 : f16
      linalg.yield %3584 : f16
    } -> tensor<4x1x5632xf16>
    %3539 = iree_tensor_ext.bitcast %__auto.blk.21.ffn_up.weight : tensor<5632x2176xi8> -> tensor<5632x1088xi16>
    %expanded_1693 = tensor.expand_shape %3539 [[0], [1, 2]] output_shape [5632, 64, 17] : tensor<5632x1088xi16> into tensor<5632x64x17xi16>
    %extracted_slice_1694 = tensor.extract_slice %expanded_1693[0, 0, 0] [5632, 64, 1] [1, 1, 1] : tensor<5632x64x17xi16> to tensor<5632x64x1xi16>
    %3540 = iree_tensor_ext.bitcast %extracted_slice_1694 : tensor<5632x64x1xi16> -> tensor<5632x64x1xf16>
    %extracted_slice_1695 = tensor.extract_slice %expanded_1693[0, 0, 1] [5632, 64, 16] [1, 1, 1] : tensor<5632x64x17xi16> to tensor<5632x64x16xi16>
    %3541 = iree_tensor_ext.bitcast %extracted_slice_1695 : tensor<5632x64x16xi16> -> tensor<5632x64x32xi8>
    %3542 = tensor.empty() : tensor<5632x64x32xf16>
    %3543 = linalg.generic {indexing_maps = [#map1, #map, #map], iterator_types = ["parallel", "parallel", "parallel"]} ins(%3540, %3541 : tensor<5632x64x1xf16>, tensor<5632x64x32xi8>) outs(%3542 : tensor<5632x64x32xf16>) {
    ^bb0(%in: f16, %in_1706: i8, %out: f16):
      %3584 = arith.extsi %in_1706 : i8 to i32
      %3585 = arith.sitofp %3584 : i32 to f16
      %3586 = arith.mulf %3585, %in : f16
      linalg.yield %3586 : f16
    } -> tensor<5632x64x32xf16>
    %expanded_1696 = tensor.expand_shape %3526 [[0], [1], [2, 3]] output_shape [4, 1, 64, 32] : tensor<4x1x2048xf16> into tensor<4x1x64x32xf16>
    %3544 = tensor.empty() : tensor<4x1x5632xf32>
    %3545 = linalg.fill ins(%cst_5 : f32) outs(%3544 : tensor<4x1x5632xf32>) -> tensor<4x1x5632xf32>
    %3546 = linalg.generic {indexing_maps = [#map4, #map5, #map6], iterator_types = ["parallel", "parallel", "parallel", "reduction", "reduction"]} ins(%expanded_1696, %3543 : tensor<4x1x64x32xf16>, tensor<5632x64x32xf16>) outs(%3545 : tensor<4x1x5632xf32>) {
    ^bb0(%in: f16, %in_1706: f16, %out: f32):
      %3584 = arith.mulf %in, %in_1706 : f16
      %3585 = arith.extf %3584 : f16 to f32
      %3586 = arith.addf %3585, %out : f32
      linalg.yield %3586 : f32
    } -> tensor<4x1x5632xf32>
    %3547 = tensor.empty() : tensor<4x1x5632xf16>
    %3548 = linalg.copy ins(%3546 : tensor<4x1x5632xf32>) outs(%3547 : tensor<4x1x5632xf16>) -> tensor<4x1x5632xf16>
    %3549 = linalg.generic {indexing_maps = [#map, #map, #map], iterator_types = ["parallel", "parallel", "parallel"]} ins(%3538, %3548 : tensor<4x1x5632xf16>, tensor<4x1x5632xf16>) outs(%197 : tensor<4x1x5632xf16>) {
    ^bb0(%in: f16, %in_1706: f16, %out: f16):
      %3584 = arith.mulf %in, %in_1706 : f16
      linalg.yield %3584 : f16
    } -> tensor<4x1x5632xf16>
    %3550 = iree_tensor_ext.bitcast %__auto.blk.21.ffn_down.weight : tensor<2048x5984xi8> -> tensor<2048x2992xi16>
    %expanded_1697 = tensor.expand_shape %3550 [[0], [1, 2]] output_shape [2048, 176, 17] : tensor<2048x2992xi16> into tensor<2048x176x17xi16>
    %extracted_slice_1698 = tensor.extract_slice %expanded_1697[0, 0, 0] [2048, 176, 1] [1, 1, 1] : tensor<2048x176x17xi16> to tensor<2048x176x1xi16>
    %3551 = iree_tensor_ext.bitcast %extracted_slice_1698 : tensor<2048x176x1xi16> -> tensor<2048x176x1xf16>
    %extracted_slice_1699 = tensor.extract_slice %expanded_1697[0, 0, 1] [2048, 176, 16] [1, 1, 1] : tensor<2048x176x17xi16> to tensor<2048x176x16xi16>
    %3552 = iree_tensor_ext.bitcast %extracted_slice_1699 : tensor<2048x176x16xi16> -> tensor<2048x176x32xi8>
    %3553 = tensor.empty() : tensor<2048x176x32xf16>
    %3554 = linalg.generic {indexing_maps = [#map1, #map, #map], iterator_types = ["parallel", "parallel", "parallel"]} ins(%3551, %3552 : tensor<2048x176x1xf16>, tensor<2048x176x32xi8>) outs(%3553 : tensor<2048x176x32xf16>) {
    ^bb0(%in: f16, %in_1706: i8, %out: f16):
      %3584 = arith.extsi %in_1706 : i8 to i32
      %3585 = arith.sitofp %3584 : i32 to f16
      %3586 = arith.mulf %3585, %in : f16
      linalg.yield %3586 : f16
    } -> tensor<2048x176x32xf16>
    %expanded_1700 = tensor.expand_shape %3549 [[0], [1], [2, 3]] output_shape [4, 1, 176, 32] : tensor<4x1x5632xf16> into tensor<4x1x176x32xf16>
    %3555 = tensor.empty() : tensor<4x1x2048xf32>
    %3556 = linalg.fill ins(%cst_5 : f32) outs(%3555 : tensor<4x1x2048xf32>) -> tensor<4x1x2048xf32>
    %3557 = linalg.generic {indexing_maps = [#map4, #map5, #map6], iterator_types = ["parallel", "parallel", "parallel", "reduction", "reduction"]} ins(%expanded_1700, %3554 : tensor<4x1x176x32xf16>, tensor<2048x176x32xf16>) outs(%3556 : tensor<4x1x2048xf32>) {
    ^bb0(%in: f16, %in_1706: f16, %out: f32):
      %3584 = arith.mulf %in, %in_1706 : f16
      %3585 = arith.extf %3584 : f16 to f32
      %3586 = arith.addf %3585, %out : f32
      linalg.yield %3586 : f32
    } -> tensor<4x1x2048xf32>
    %3558 = tensor.empty() : tensor<4x1x2048xf16>
    %3559 = linalg.copy ins(%3557 : tensor<4x1x2048xf32>) outs(%3558 : tensor<4x1x2048xf16>) -> tensor<4x1x2048xf16>
    %3560 = linalg.generic {indexing_maps = [#map, #map, #map], iterator_types = ["parallel", "parallel", "parallel"]} ins(%3516, %3559 : tensor<4x1x2048xf16>, tensor<4x1x2048xf16>) outs(%18 : tensor<4x1x2048xf16>) {
    ^bb0(%in: f16, %in_1706: f16, %out: f16):
      %3584 = arith.addf %in, %in_1706 : f16
      linalg.yield %3584 : f16
    } -> tensor<4x1x2048xf16>
    %3561 = linalg.generic {indexing_maps = [#map, #map], iterator_types = ["parallel", "parallel", "parallel"]} ins(%3560 : tensor<4x1x2048xf16>) outs(%20 : tensor<4x1x2048xf32>) {
    ^bb0(%in: f16, %out: f32):
      %3584 = arith.extf %in : f16 to f32
      linalg.yield %3584 : f32
    } -> tensor<4x1x2048xf32>
    %3562 = linalg.generic {indexing_maps = [#map, #map], iterator_types = ["parallel", "parallel", "parallel"]} ins(%3561 : tensor<4x1x2048xf32>) outs(%20 : tensor<4x1x2048xf32>) {
    ^bb0(%in: f32, %out: f32):
      %3584 = math.fpowi %in, %c2_i64 : f32, i64
      linalg.yield %3584 : f32
    } -> tensor<4x1x2048xf32>
    %3563 = linalg.generic {indexing_maps = [#map, #map1], iterator_types = ["parallel", "parallel", "reduction"]} ins(%3562 : tensor<4x1x2048xf32>) outs(%24 : tensor<4x1x1xf32>) {
    ^bb0(%in: f32, %out: f32):
      %3584 = arith.addf %in, %out : f32
      linalg.yield %3584 : f32
    } -> tensor<4x1x1xf32>
    %3564 = linalg.generic {indexing_maps = [#map, #map], iterator_types = ["parallel", "parallel", "parallel"]} ins(%3563 : tensor<4x1x1xf32>) outs(%23 : tensor<4x1x1xf32>) {
    ^bb0(%in: f32, %out: f32):
      %3584 = arith.divf %in, %cst_8 : f32
      linalg.yield %3584 : f32
    } -> tensor<4x1x1xf32>
    %3565 = linalg.generic {indexing_maps = [#map, #map], iterator_types = ["parallel", "parallel", "parallel"]} ins(%3564 : tensor<4x1x1xf32>) outs(%23 : tensor<4x1x1xf32>) {
    ^bb0(%in: f32, %out: f32):
      %3584 = arith.addf %in, %cst_9 : f32
      linalg.yield %3584 : f32
    } -> tensor<4x1x1xf32>
    %3566 = linalg.generic {indexing_maps = [#map, #map], iterator_types = ["parallel", "parallel", "parallel"]} ins(%3565 : tensor<4x1x1xf32>) outs(%23 : tensor<4x1x1xf32>) {
    ^bb0(%in: f32, %out: f32):
      %3584 = math.rsqrt %in : f32
      linalg.yield %3584 : f32
    } -> tensor<4x1x1xf32>
    %3567 = linalg.generic {indexing_maps = [#map, #map1, #map], iterator_types = ["parallel", "parallel", "parallel"]} ins(%3561, %3566 : tensor<4x1x2048xf32>, tensor<4x1x1xf32>) outs(%20 : tensor<4x1x2048xf32>) {
    ^bb0(%in: f32, %in_1706: f32, %out: f32):
      %3584 = arith.mulf %in, %in_1706 : f32
      linalg.yield %3584 : f32
    } -> tensor<4x1x2048xf32>
    %3568 = linalg.generic {indexing_maps = [#map, #map], iterator_types = ["parallel", "parallel", "parallel"]} ins(%3567 : tensor<4x1x2048xf32>) outs(%18 : tensor<4x1x2048xf16>) {
    ^bb0(%in: f32, %out: f16):
      %3584 = arith.truncf %in : f32 to f16
      linalg.yield %3584 : f16
    } -> tensor<4x1x2048xf16>
    %3569 = linalg.generic {indexing_maps = [#map3, #map, #map], iterator_types = ["parallel", "parallel", "parallel"]} ins(%__auto.output_norm.weight, %3568 : tensor<2048xf32>, tensor<4x1x2048xf16>) outs(%20 : tensor<4x1x2048xf32>) {
    ^bb0(%in: f32, %in_1706: f16, %out: f32):
      %3584 = arith.extf %in_1706 : f16 to f32
      %3585 = arith.mulf %in, %3584 : f32
      linalg.yield %3585 : f32
    } -> tensor<4x1x2048xf32>
    %3570 = linalg.generic {indexing_maps = [#map, #map], iterator_types = ["parallel", "parallel", "parallel"]} ins(%3569 : tensor<4x1x2048xf32>) outs(%18 : tensor<4x1x2048xf16>) {
    ^bb0(%in: f32, %out: f16):
      %3584 = arith.truncf %in : f32 to f16
      linalg.yield %3584 : f16
    } -> tensor<4x1x2048xf16>
    %3571 = iree_tensor_ext.bitcast %__auto.output.weight : tensor<32000x2176xi8> -> tensor<32000x1088xi16>
    %expanded_1701 = tensor.expand_shape %3571 [[0], [1, 2]] output_shape [32000, 64, 17] : tensor<32000x1088xi16> into tensor<32000x64x17xi16>
    %extracted_slice_1702 = tensor.extract_slice %expanded_1701[0, 0, 0] [32000, 64, 1] [1, 1, 1] : tensor<32000x64x17xi16> to tensor<32000x64x1xi16>
    %3572 = iree_tensor_ext.bitcast %extracted_slice_1702 : tensor<32000x64x1xi16> -> tensor<32000x64x1xf16>
    %extracted_slice_1703 = tensor.extract_slice %expanded_1701[0, 0, 1] [32000, 64, 16] [1, 1, 1] : tensor<32000x64x17xi16> to tensor<32000x64x16xi16>
    %3573 = iree_tensor_ext.bitcast %extracted_slice_1703 : tensor<32000x64x16xi16> -> tensor<32000x64x32xi8>
    %3574 = tensor.empty() : tensor<32000x64x32xf16>
    %3575 = linalg.generic {indexing_maps = [#map1, #map, #map], iterator_types = ["parallel", "parallel", "parallel"]} ins(%3572, %3573 : tensor<32000x64x1xf16>, tensor<32000x64x32xi8>) outs(%3574 : tensor<32000x64x32xf16>) {
    ^bb0(%in: f16, %in_1706: i8, %out: f16):
      %3584 = arith.extsi %in_1706 : i8 to i32
      %3585 = arith.sitofp %3584 : i32 to f16
      %3586 = arith.mulf %3585, %in : f16
      linalg.yield %3586 : f16
    } -> tensor<32000x64x32xf16>
    %expanded_1704 = tensor.expand_shape %3570 [[0], [1], [2, 3]] output_shape [4, 1, 64, 32] : tensor<4x1x2048xf16> into tensor<4x1x64x32xf16>
    %3576 = tensor.empty() : tensor<4x1x32000xf32>
    %3577 = linalg.fill ins(%cst_5 : f32) outs(%3576 : tensor<4x1x32000xf32>) -> tensor<4x1x32000xf32>
    %3578 = linalg.generic {indexing_maps = [#map4, #map5, #map6], iterator_types = ["parallel", "parallel", "parallel", "reduction", "reduction"]} ins(%expanded_1704, %3575 : tensor<4x1x64x32xf16>, tensor<32000x64x32xf16>) outs(%3577 : tensor<4x1x32000xf32>) {
    ^bb0(%in: f16, %in_1706: f16, %out: f32):
      %3584 = arith.mulf %in, %in_1706 : f16
      %3585 = arith.extf %3584 : f16 to f32
      %3586 = arith.addf %3585, %out : f32
      linalg.yield %3586 : f32
    } -> tensor<4x1x32000xf32>
    %3579 = tensor.empty() : tensor<4x1x32000xf16>
    %3580 = linalg.copy ins(%3578 : tensor<4x1x32000xf32>) outs(%3579 : tensor<4x1x32000xf16>) -> tensor<4x1x32000xf16>
    %dim_1705 = tensor.dim %collapsed_1661, %c0 : tensor<?x360448xf16>
    %3581 = hal.tensor.alias on(#hal.device.promise<@__device_0>) wait(%arg5) => %collapsed_1661 : tensor<?x360448xf16>{%dim_1705} to %arg4 : !hal.buffer_view
    %3582:2 = hal.tensor.barrier join(%3581, %3580 : tensor<?x360448xf16>, tensor<4x1x32000xf16>) => %arg6 : !hal.fence
    %3583 = hal.tensor.export %3582#1 : tensor<4x1x32000xf16> -> !hal.buffer_view
    util.return %3583 : !hal.buffer_view
  }
  util.func public @decode_bs4(%arg0: !hal.buffer_view, %arg1: !hal.buffer_view, %arg2: !hal.buffer_view, %arg3: !hal.buffer_view, %arg4: !hal.buffer_view) -> !hal.buffer_view attributes {iree.abi.stub} {
    %0 = util.null : !hal.fence
    %c-1_i32 = arith.constant -1 : i32
    %c0 = arith.constant 0 : index
    %device_0 = hal.devices.get %c0 : !hal.device
    %fence = hal.fence.create device(%device_0 : !hal.device) flags("None") : !hal.fence
    %1 = util.call @decode_bs4$async(%arg0, %arg1, %arg2, %arg3, %arg4, %0, %fence) : (!hal.buffer_view, !hal.buffer_view, !hal.buffer_view, !hal.buffer_view, !hal.buffer_view, !hal.fence, !hal.fence) -> !hal.buffer_view
    %status = hal.fence.await until([%fence]) timeout_millis(%c-1_i32) flags("None") : i32
    util.return %1 : !hal.buffer_view
  }
}
