#executable_target_embedded_elf_x86_64 = #hal.executable.target<"llvm-cpu", "embedded-elf-x86_64", {cpu = "znver3", cpu_features = "+prfchw,-cldemote,+avx,+aes,+sahf,+pclmul,-xop,+crc32,-amx-fp8,+xsaves,-avx512fp16,-usermsr,-sm4,-egpr,+sse4.1,-avx512ifma,+xsave,+sse4.2,-tsxldtrk,-sm3,-ptwrite,-widekl,-movrs,+invpcid,+64bit,+xsavec,-avx10.1-512,-avx512vpopcntdq,+cmov,-avx512vp2intersect,-avx512cd,+movbe,-avxvnniint8,-ccmp,-amx-int8,-kl,-avx10.1-256,-sha512,-avxvnni,-rtm,+adx,+avx2,-hreset,-movdiri,-serialize,+vpclmulqdq,-avx512vl,-uintr,-cf,+clflushopt,-raoint,-cmpccxadd,+bmi,-amx-tile,+sse,-avx10.2-256,-gfni,-avxvnniint16,-amx-fp16,-zu,-ndd,+xsaveopt,+rdrnd,-avx512f,-amx-bf16,-avx512bf16,-avx512vnni,-push2pop2,+cx8,-avx512bw,+sse3,+pku,-nf,-amx-tf32,-amx-avx512,+fsgsbase,+clzero,+mwaitx,-lwp,+lzcnt,+sha,-movdir64b,-ppx,+wbnoinvd,-enqcmd,-amx-transpose,-avx10.2-512,-avxneconvert,-tbm,-pconfig,-amx-complex,+ssse3,+cx16,+bmi2,+fma,+popcnt,-avxifma,+f16c,-avx512bitalg,+rdpru,+clwb,+mmx,+sse2,+rdseed,-avx512vbmi2,-prefetchi,-amx-movrs,+rdpid,-fma4,-avx512vbmi,+shstk,+vaes,-waitpkg,-sgx,+fxsr,-avx512dq,+sse4a", data_layout = "e-m:e-p270:32:32-p271:32:32-p272:64:64-i64:64-i128:128-f80:128-n8:16:32:64-S128", iree.encoding.resolver = #iree_cpu.cpu_encoding_resolver<>, max_stack_allocation_size = 32768 : i64, native_vector_size = 32 : i64, target_triple = "x86_64-unknown-unknown-eabi-elf"}>
#map = affine_map<(d0, d1) -> (d0)>
#map1 = affine_map<(d0, d1) -> (d0, d1)>
#map2 = affine_map<(d0) -> (d0)>
#map3 = affine_map<(d0, d1) -> (d1)>
#map4 = affine_map<(d0, d1, d2) -> (d0, d1)>
#map5 = affine_map<(d0, d1, d2) -> (d0, d1, d2)>
#map6 = affine_map<(d0, d1, d2, d3) -> (d0, d2, d3)>
#map7 = affine_map<(d0, d1, d2, d3) -> (d1, d2, d3)>
#map8 = affine_map<(d0, d1, d2, d3) -> (d0, d1)>
#map9 = affine_map<(d0, d1, d2, d3, d4) -> (d0, d1, d2, d4)>
#map10 = affine_map<(d0, d1, d2, d3, d4) -> (d1, d4)>
#map11 = affine_map<(d0, d1, d2, d3, d4) -> (d0, d1, d2, d3, d4)>
#map12 = affine_map<(d0, d1, d2, d3) -> (d0, d1, d2, d3)>
#map13 = affine_map<(d0, d1, d2, d3) -> (d0, d2, d1, d3)>
#map14 = affine_map<(d0, d1, d2, d3, d4) -> (d0, d2, d1, d4)>
#map15 = affine_map<(d0, d1, d2, d3, d4) -> (d2, d4)>
#map16 = affine_map<(d0, d1, d2, d3, d4, d5, d6) -> (d0, d1, d2, d3, d5)>
#map17 = affine_map<(d0, d1, d2, d3, d4, d5, d6) -> (d0, d6, d1, d5)>
#map18 = affine_map<(d0, d1, d2, d3, d4, d5, d6) -> (d0, d6, d1, d4)>
#map19 = affine_map<(d0, d1, d2, d3, d4, d5, d6) -> ()>
#map20 = affine_map<(d0, d1, d2, d3, d4, d5, d6) -> (d0, d1, d2, d3, d6)>
#map21 = affine_map<(d0, d1, d2, d3, d4, d5, d6) -> (d0, d1, d2, d3, d4)>
#map22 = affine_map<(d0, d1, d2, d3, d4) -> (d0, d3, d1, d2, d4)>
#map23 = affine_map<(d0, d1, d2, d3) -> (d0, d1, d3)>
#map24 = affine_map<(d0, d1, d2, d3) -> (d0, d3)>
#map25 = affine_map<(d0, d1, d2, d3, d4, d5) -> (d0, d3, d1, d4, d5)>
#map26 = affine_map<(d0, d1, d2, d3, d4, d5) -> (d0, d1, d2, d3, d4, d5)>
#map27 = affine_map<(d0, d1, d2, d3, d4, d5) -> (d0, d4, d1, d5, d3)>
#map28 = affine_map<(d0, d1, d2, d3) -> (d0, d2)>
#map29 = affine_map<(d0, d1, d2, d3) -> (d0, d3, d2)>
#map30 = affine_map<(d0, d1, d2, d3) -> ()>
#device_target_local = #hal.device.target<"local", [#executable_target_embedded_elf_x86_64]> : !hal.device
module @module attributes {stream.affinity.default = #hal.device.affinity<@__device_0>} {
  util.global private @__device_0 = #device_target_local
  util.func public @prefill_bs4$async(%arg0: !hal.buffer_view, %arg1: !hal.buffer_view, %arg2: !hal.buffer_view, %arg3: !hal.buffer_view, %arg4: !hal.fence, %arg5: !hal.fence) -> !hal.buffer_view attributes {inlining_policy = #util.inline.never, iree.abi.model = "coarse-fences", iree.abi.stub} {
    %c1024 = arith.constant 1024 : index
    %c32768 = arith.constant 32768 : index
    %c8192 = arith.constant 8192 : index
    %c4 = arith.constant 4 : index
    %c44 = arith.constant 44 : index
    %0 = flow.tensor.constant #flow.parameter.named<"model"::"output.weight"> : tensor<32000x2176xi8>
    %1 = flow.tensor.constant #flow.parameter.named<"model"::"output_norm.weight"> : tensor<2048xf32>
    %2 = flow.tensor.constant #flow.parameter.named<"model"::"blk.21.ffn_down.weight"> : tensor<2048x5984xi8>
    %3 = flow.tensor.constant #flow.parameter.named<"model"::"blk.21.ffn_up.weight"> : tensor<5632x2176xi8>
    %4 = flow.tensor.constant #flow.parameter.named<"model"::"blk.21.ffn_gate.weight"> : tensor<5632x2176xi8>
    %5 = flow.tensor.constant #flow.parameter.named<"model"::"blk.21.ffn_norm.weight"> : tensor<2048xf32>
    %6 = flow.tensor.constant #flow.parameter.named<"model"::"blk.21.attn_output.weight"> : tensor<2048x2176xi8>
    %7 = flow.tensor.constant #flow.parameter.named<"model"::"blk.21.attn_v.weight"> : tensor<256x2176xi8>
    %8 = flow.tensor.constant #flow.parameter.named<"model"::"blk.21.attn_k.weight"> : tensor<256x2176xi8>
    %9 = flow.tensor.constant #flow.parameter.named<"model"::"blk.21.attn_q.weight"> : tensor<2048x2176xi8>
    %10 = flow.tensor.constant #flow.parameter.named<"model"::"blk.21.attn_norm.weight"> : tensor<2048xf32>
    %11 = flow.tensor.constant #flow.parameter.named<"model"::"blk.20.ffn_down.weight"> : tensor<2048x5984xi8>
    %12 = flow.tensor.constant #flow.parameter.named<"model"::"blk.20.ffn_up.weight"> : tensor<5632x2176xi8>
    %13 = flow.tensor.constant #flow.parameter.named<"model"::"blk.20.ffn_gate.weight"> : tensor<5632x2176xi8>
    %14 = flow.tensor.constant #flow.parameter.named<"model"::"blk.20.ffn_norm.weight"> : tensor<2048xf32>
    %15 = flow.tensor.constant #flow.parameter.named<"model"::"blk.20.attn_output.weight"> : tensor<2048x2176xi8>
    %16 = flow.tensor.constant #flow.parameter.named<"model"::"blk.20.attn_v.weight"> : tensor<256x2176xi8>
    %17 = flow.tensor.constant #flow.parameter.named<"model"::"blk.20.attn_k.weight"> : tensor<256x2176xi8>
    %18 = flow.tensor.constant #flow.parameter.named<"model"::"blk.20.attn_q.weight"> : tensor<2048x2176xi8>
    %19 = flow.tensor.constant #flow.parameter.named<"model"::"blk.20.attn_norm.weight"> : tensor<2048xf32>
    %20 = flow.tensor.constant #flow.parameter.named<"model"::"blk.19.ffn_down.weight"> : tensor<2048x5984xi8>
    %21 = flow.tensor.constant #flow.parameter.named<"model"::"blk.19.ffn_up.weight"> : tensor<5632x2176xi8>
    %22 = flow.tensor.constant #flow.parameter.named<"model"::"blk.19.ffn_gate.weight"> : tensor<5632x2176xi8>
    %23 = flow.tensor.constant #flow.parameter.named<"model"::"blk.19.ffn_norm.weight"> : tensor<2048xf32>
    %24 = flow.tensor.constant #flow.parameter.named<"model"::"blk.19.attn_output.weight"> : tensor<2048x2176xi8>
    %25 = flow.tensor.constant #flow.parameter.named<"model"::"blk.19.attn_v.weight"> : tensor<256x2176xi8>
    %26 = flow.tensor.constant #flow.parameter.named<"model"::"blk.19.attn_k.weight"> : tensor<256x2176xi8>
    %27 = flow.tensor.constant #flow.parameter.named<"model"::"blk.19.attn_q.weight"> : tensor<2048x2176xi8>
    %28 = flow.tensor.constant #flow.parameter.named<"model"::"blk.19.attn_norm.weight"> : tensor<2048xf32>
    %29 = flow.tensor.constant #flow.parameter.named<"model"::"blk.18.ffn_down.weight"> : tensor<2048x5984xi8>
    %30 = flow.tensor.constant #flow.parameter.named<"model"::"blk.18.ffn_up.weight"> : tensor<5632x2176xi8>
    %31 = flow.tensor.constant #flow.parameter.named<"model"::"blk.18.ffn_gate.weight"> : tensor<5632x2176xi8>
    %32 = flow.tensor.constant #flow.parameter.named<"model"::"blk.18.ffn_norm.weight"> : tensor<2048xf32>
    %33 = flow.tensor.constant #flow.parameter.named<"model"::"blk.18.attn_output.weight"> : tensor<2048x2176xi8>
    %34 = flow.tensor.constant #flow.parameter.named<"model"::"blk.18.attn_v.weight"> : tensor<256x2176xi8>
    %35 = flow.tensor.constant #flow.parameter.named<"model"::"blk.18.attn_k.weight"> : tensor<256x2176xi8>
    %36 = flow.tensor.constant #flow.parameter.named<"model"::"blk.18.attn_q.weight"> : tensor<2048x2176xi8>
    %37 = flow.tensor.constant #flow.parameter.named<"model"::"blk.18.attn_norm.weight"> : tensor<2048xf32>
    %38 = flow.tensor.constant #flow.parameter.named<"model"::"blk.17.ffn_down.weight"> : tensor<2048x5984xi8>
    %39 = flow.tensor.constant #flow.parameter.named<"model"::"blk.17.ffn_up.weight"> : tensor<5632x2176xi8>
    %40 = flow.tensor.constant #flow.parameter.named<"model"::"blk.17.ffn_gate.weight"> : tensor<5632x2176xi8>
    %41 = flow.tensor.constant #flow.parameter.named<"model"::"blk.17.ffn_norm.weight"> : tensor<2048xf32>
    %42 = flow.tensor.constant #flow.parameter.named<"model"::"blk.17.attn_output.weight"> : tensor<2048x2176xi8>
    %43 = flow.tensor.constant #flow.parameter.named<"model"::"blk.17.attn_v.weight"> : tensor<256x2176xi8>
    %44 = flow.tensor.constant #flow.parameter.named<"model"::"blk.17.attn_k.weight"> : tensor<256x2176xi8>
    %45 = flow.tensor.constant #flow.parameter.named<"model"::"blk.17.attn_q.weight"> : tensor<2048x2176xi8>
    %46 = flow.tensor.constant #flow.parameter.named<"model"::"blk.17.attn_norm.weight"> : tensor<2048xf32>
    %47 = flow.tensor.constant #flow.parameter.named<"model"::"blk.16.ffn_down.weight"> : tensor<2048x5984xi8>
    %48 = flow.tensor.constant #flow.parameter.named<"model"::"blk.16.ffn_up.weight"> : tensor<5632x2176xi8>
    %49 = flow.tensor.constant #flow.parameter.named<"model"::"blk.16.ffn_gate.weight"> : tensor<5632x2176xi8>
    %50 = flow.tensor.constant #flow.parameter.named<"model"::"blk.16.ffn_norm.weight"> : tensor<2048xf32>
    %51 = flow.tensor.constant #flow.parameter.named<"model"::"blk.16.attn_output.weight"> : tensor<2048x2176xi8>
    %52 = flow.tensor.constant #flow.parameter.named<"model"::"blk.16.attn_v.weight"> : tensor<256x2176xi8>
    %53 = flow.tensor.constant #flow.parameter.named<"model"::"blk.16.attn_k.weight"> : tensor<256x2176xi8>
    %54 = flow.tensor.constant #flow.parameter.named<"model"::"blk.16.attn_q.weight"> : tensor<2048x2176xi8>
    %55 = flow.tensor.constant #flow.parameter.named<"model"::"blk.16.attn_norm.weight"> : tensor<2048xf32>
    %56 = flow.tensor.constant #flow.parameter.named<"model"::"blk.15.ffn_down.weight"> : tensor<2048x5984xi8>
    %57 = flow.tensor.constant #flow.parameter.named<"model"::"blk.15.ffn_up.weight"> : tensor<5632x2176xi8>
    %58 = flow.tensor.constant #flow.parameter.named<"model"::"blk.15.ffn_gate.weight"> : tensor<5632x2176xi8>
    %59 = flow.tensor.constant #flow.parameter.named<"model"::"blk.15.ffn_norm.weight"> : tensor<2048xf32>
    %60 = flow.tensor.constant #flow.parameter.named<"model"::"blk.15.attn_output.weight"> : tensor<2048x2176xi8>
    %61 = flow.tensor.constant #flow.parameter.named<"model"::"blk.15.attn_v.weight"> : tensor<256x2176xi8>
    %62 = flow.tensor.constant #flow.parameter.named<"model"::"blk.15.attn_k.weight"> : tensor<256x2176xi8>
    %63 = flow.tensor.constant #flow.parameter.named<"model"::"blk.15.attn_q.weight"> : tensor<2048x2176xi8>
    %64 = flow.tensor.constant #flow.parameter.named<"model"::"blk.15.attn_norm.weight"> : tensor<2048xf32>
    %65 = flow.tensor.constant #flow.parameter.named<"model"::"blk.14.ffn_down.weight"> : tensor<2048x5984xi8>
    %66 = flow.tensor.constant #flow.parameter.named<"model"::"blk.14.ffn_up.weight"> : tensor<5632x2176xi8>
    %67 = flow.tensor.constant #flow.parameter.named<"model"::"blk.14.ffn_gate.weight"> : tensor<5632x2176xi8>
    %68 = flow.tensor.constant #flow.parameter.named<"model"::"blk.14.ffn_norm.weight"> : tensor<2048xf32>
    %69 = flow.tensor.constant #flow.parameter.named<"model"::"blk.14.attn_output.weight"> : tensor<2048x2176xi8>
    %70 = flow.tensor.constant #flow.parameter.named<"model"::"blk.14.attn_v.weight"> : tensor<256x2176xi8>
    %71 = flow.tensor.constant #flow.parameter.named<"model"::"blk.14.attn_k.weight"> : tensor<256x2176xi8>
    %72 = flow.tensor.constant #flow.parameter.named<"model"::"blk.14.attn_q.weight"> : tensor<2048x2176xi8>
    %73 = flow.tensor.constant #flow.parameter.named<"model"::"blk.14.attn_norm.weight"> : tensor<2048xf32>
    %74 = flow.tensor.constant #flow.parameter.named<"model"::"blk.13.ffn_down.weight"> : tensor<2048x5984xi8>
    %75 = flow.tensor.constant #flow.parameter.named<"model"::"blk.13.ffn_up.weight"> : tensor<5632x2176xi8>
    %76 = flow.tensor.constant #flow.parameter.named<"model"::"blk.13.ffn_gate.weight"> : tensor<5632x2176xi8>
    %77 = flow.tensor.constant #flow.parameter.named<"model"::"blk.13.ffn_norm.weight"> : tensor<2048xf32>
    %78 = flow.tensor.constant #flow.parameter.named<"model"::"blk.13.attn_output.weight"> : tensor<2048x2176xi8>
    %79 = flow.tensor.constant #flow.parameter.named<"model"::"blk.13.attn_v.weight"> : tensor<256x2176xi8>
    %80 = flow.tensor.constant #flow.parameter.named<"model"::"blk.13.attn_k.weight"> : tensor<256x2176xi8>
    %81 = flow.tensor.constant #flow.parameter.named<"model"::"blk.13.attn_q.weight"> : tensor<2048x2176xi8>
    %82 = flow.tensor.constant #flow.parameter.named<"model"::"blk.13.attn_norm.weight"> : tensor<2048xf32>
    %83 = flow.tensor.constant #flow.parameter.named<"model"::"blk.12.ffn_down.weight"> : tensor<2048x5984xi8>
    %84 = flow.tensor.constant #flow.parameter.named<"model"::"blk.12.ffn_up.weight"> : tensor<5632x2176xi8>
    %85 = flow.tensor.constant #flow.parameter.named<"model"::"blk.12.ffn_gate.weight"> : tensor<5632x2176xi8>
    %86 = flow.tensor.constant #flow.parameter.named<"model"::"blk.12.ffn_norm.weight"> : tensor<2048xf32>
    %87 = flow.tensor.constant #flow.parameter.named<"model"::"blk.12.attn_output.weight"> : tensor<2048x2176xi8>
    %88 = flow.tensor.constant #flow.parameter.named<"model"::"blk.12.attn_v.weight"> : tensor<256x2176xi8>
    %89 = flow.tensor.constant #flow.parameter.named<"model"::"blk.12.attn_k.weight"> : tensor<256x2176xi8>
    %90 = flow.tensor.constant #flow.parameter.named<"model"::"blk.12.attn_q.weight"> : tensor<2048x2176xi8>
    %91 = flow.tensor.constant #flow.parameter.named<"model"::"blk.12.attn_norm.weight"> : tensor<2048xf32>
    %92 = flow.tensor.constant #flow.parameter.named<"model"::"blk.11.ffn_down.weight"> : tensor<2048x5984xi8>
    %93 = flow.tensor.constant #flow.parameter.named<"model"::"blk.11.ffn_up.weight"> : tensor<5632x2176xi8>
    %94 = flow.tensor.constant #flow.parameter.named<"model"::"blk.11.ffn_gate.weight"> : tensor<5632x2176xi8>
    %95 = flow.tensor.constant #flow.parameter.named<"model"::"blk.11.ffn_norm.weight"> : tensor<2048xf32>
    %96 = flow.tensor.constant #flow.parameter.named<"model"::"blk.11.attn_output.weight"> : tensor<2048x2176xi8>
    %97 = flow.tensor.constant #flow.parameter.named<"model"::"blk.11.attn_v.weight"> : tensor<256x2176xi8>
    %98 = flow.tensor.constant #flow.parameter.named<"model"::"blk.11.attn_k.weight"> : tensor<256x2176xi8>
    %99 = flow.tensor.constant #flow.parameter.named<"model"::"blk.11.attn_q.weight"> : tensor<2048x2176xi8>
    %100 = flow.tensor.constant #flow.parameter.named<"model"::"blk.11.attn_norm.weight"> : tensor<2048xf32>
    %101 = flow.tensor.constant #flow.parameter.named<"model"::"blk.10.ffn_down.weight"> : tensor<2048x5984xi8>
    %102 = flow.tensor.constant #flow.parameter.named<"model"::"blk.10.ffn_up.weight"> : tensor<5632x2176xi8>
    %103 = flow.tensor.constant #flow.parameter.named<"model"::"blk.10.ffn_gate.weight"> : tensor<5632x2176xi8>
    %104 = flow.tensor.constant #flow.parameter.named<"model"::"blk.10.ffn_norm.weight"> : tensor<2048xf32>
    %105 = flow.tensor.constant #flow.parameter.named<"model"::"blk.10.attn_output.weight"> : tensor<2048x2176xi8>
    %106 = flow.tensor.constant #flow.parameter.named<"model"::"blk.10.attn_v.weight"> : tensor<256x2176xi8>
    %107 = flow.tensor.constant #flow.parameter.named<"model"::"blk.10.attn_k.weight"> : tensor<256x2176xi8>
    %108 = flow.tensor.constant #flow.parameter.named<"model"::"blk.10.attn_q.weight"> : tensor<2048x2176xi8>
    %109 = flow.tensor.constant #flow.parameter.named<"model"::"blk.10.attn_norm.weight"> : tensor<2048xf32>
    %110 = flow.tensor.constant #flow.parameter.named<"model"::"blk.9.ffn_down.weight"> : tensor<2048x5984xi8>
    %111 = flow.tensor.constant #flow.parameter.named<"model"::"blk.9.ffn_up.weight"> : tensor<5632x2176xi8>
    %112 = flow.tensor.constant #flow.parameter.named<"model"::"blk.9.ffn_gate.weight"> : tensor<5632x2176xi8>
    %113 = flow.tensor.constant #flow.parameter.named<"model"::"blk.9.ffn_norm.weight"> : tensor<2048xf32>
    %114 = flow.tensor.constant #flow.parameter.named<"model"::"blk.9.attn_output.weight"> : tensor<2048x2176xi8>
    %115 = flow.tensor.constant #flow.parameter.named<"model"::"blk.9.attn_v.weight"> : tensor<256x2176xi8>
    %116 = flow.tensor.constant #flow.parameter.named<"model"::"blk.9.attn_k.weight"> : tensor<256x2176xi8>
    %117 = flow.tensor.constant #flow.parameter.named<"model"::"blk.9.attn_q.weight"> : tensor<2048x2176xi8>
    %118 = flow.tensor.constant #flow.parameter.named<"model"::"blk.9.attn_norm.weight"> : tensor<2048xf32>
    %119 = flow.tensor.constant #flow.parameter.named<"model"::"blk.8.ffn_down.weight"> : tensor<2048x5984xi8>
    %120 = flow.tensor.constant #flow.parameter.named<"model"::"blk.8.ffn_up.weight"> : tensor<5632x2176xi8>
    %121 = flow.tensor.constant #flow.parameter.named<"model"::"blk.8.ffn_gate.weight"> : tensor<5632x2176xi8>
    %122 = flow.tensor.constant #flow.parameter.named<"model"::"blk.8.ffn_norm.weight"> : tensor<2048xf32>
    %123 = flow.tensor.constant #flow.parameter.named<"model"::"blk.8.attn_output.weight"> : tensor<2048x2176xi8>
    %124 = flow.tensor.constant #flow.parameter.named<"model"::"blk.8.attn_v.weight"> : tensor<256x2176xi8>
    %125 = flow.tensor.constant #flow.parameter.named<"model"::"blk.8.attn_k.weight"> : tensor<256x2176xi8>
    %126 = flow.tensor.constant #flow.parameter.named<"model"::"blk.8.attn_q.weight"> : tensor<2048x2176xi8>
    %127 = flow.tensor.constant #flow.parameter.named<"model"::"blk.8.attn_norm.weight"> : tensor<2048xf32>
    %128 = flow.tensor.constant #flow.parameter.named<"model"::"blk.7.ffn_down.weight"> : tensor<2048x5984xi8>
    %129 = flow.tensor.constant #flow.parameter.named<"model"::"blk.7.ffn_up.weight"> : tensor<5632x2176xi8>
    %130 = flow.tensor.constant #flow.parameter.named<"model"::"blk.7.ffn_gate.weight"> : tensor<5632x2176xi8>
    %131 = flow.tensor.constant #flow.parameter.named<"model"::"blk.7.ffn_norm.weight"> : tensor<2048xf32>
    %132 = flow.tensor.constant #flow.parameter.named<"model"::"blk.7.attn_output.weight"> : tensor<2048x2176xi8>
    %133 = flow.tensor.constant #flow.parameter.named<"model"::"blk.7.attn_v.weight"> : tensor<256x2176xi8>
    %134 = flow.tensor.constant #flow.parameter.named<"model"::"blk.7.attn_k.weight"> : tensor<256x2176xi8>
    %135 = flow.tensor.constant #flow.parameter.named<"model"::"blk.7.attn_q.weight"> : tensor<2048x2176xi8>
    %136 = flow.tensor.constant #flow.parameter.named<"model"::"blk.7.attn_norm.weight"> : tensor<2048xf32>
    %137 = flow.tensor.constant #flow.parameter.named<"model"::"blk.6.ffn_down.weight"> : tensor<2048x5984xi8>
    %138 = flow.tensor.constant #flow.parameter.named<"model"::"blk.6.ffn_up.weight"> : tensor<5632x2176xi8>
    %139 = flow.tensor.constant #flow.parameter.named<"model"::"blk.6.ffn_gate.weight"> : tensor<5632x2176xi8>
    %140 = flow.tensor.constant #flow.parameter.named<"model"::"blk.6.ffn_norm.weight"> : tensor<2048xf32>
    %141 = flow.tensor.constant #flow.parameter.named<"model"::"blk.6.attn_output.weight"> : tensor<2048x2176xi8>
    %142 = flow.tensor.constant #flow.parameter.named<"model"::"blk.6.attn_v.weight"> : tensor<256x2176xi8>
    %143 = flow.tensor.constant #flow.parameter.named<"model"::"blk.6.attn_k.weight"> : tensor<256x2176xi8>
    %144 = flow.tensor.constant #flow.parameter.named<"model"::"blk.6.attn_q.weight"> : tensor<2048x2176xi8>
    %145 = flow.tensor.constant #flow.parameter.named<"model"::"blk.6.attn_norm.weight"> : tensor<2048xf32>
    %146 = flow.tensor.constant #flow.parameter.named<"model"::"blk.5.ffn_down.weight"> : tensor<2048x5984xi8>
    %147 = flow.tensor.constant #flow.parameter.named<"model"::"blk.5.ffn_up.weight"> : tensor<5632x2176xi8>
    %148 = flow.tensor.constant #flow.parameter.named<"model"::"blk.5.ffn_gate.weight"> : tensor<5632x2176xi8>
    %149 = flow.tensor.constant #flow.parameter.named<"model"::"blk.5.ffn_norm.weight"> : tensor<2048xf32>
    %150 = flow.tensor.constant #flow.parameter.named<"model"::"blk.5.attn_output.weight"> : tensor<2048x2176xi8>
    %151 = flow.tensor.constant #flow.parameter.named<"model"::"blk.5.attn_v.weight"> : tensor<256x2176xi8>
    %152 = flow.tensor.constant #flow.parameter.named<"model"::"blk.5.attn_k.weight"> : tensor<256x2176xi8>
    %153 = flow.tensor.constant #flow.parameter.named<"model"::"blk.5.attn_q.weight"> : tensor<2048x2176xi8>
    %154 = flow.tensor.constant #flow.parameter.named<"model"::"blk.5.attn_norm.weight"> : tensor<2048xf32>
    %155 = flow.tensor.constant #flow.parameter.named<"model"::"blk.4.ffn_down.weight"> : tensor<2048x5984xi8>
    %156 = flow.tensor.constant #flow.parameter.named<"model"::"blk.4.ffn_up.weight"> : tensor<5632x2176xi8>
    %157 = flow.tensor.constant #flow.parameter.named<"model"::"blk.4.ffn_gate.weight"> : tensor<5632x2176xi8>
    %158 = flow.tensor.constant #flow.parameter.named<"model"::"blk.4.ffn_norm.weight"> : tensor<2048xf32>
    %159 = flow.tensor.constant #flow.parameter.named<"model"::"blk.4.attn_output.weight"> : tensor<2048x2176xi8>
    %160 = flow.tensor.constant #flow.parameter.named<"model"::"blk.4.attn_v.weight"> : tensor<256x2176xi8>
    %161 = flow.tensor.constant #flow.parameter.named<"model"::"blk.4.attn_k.weight"> : tensor<256x2176xi8>
    %162 = flow.tensor.constant #flow.parameter.named<"model"::"blk.4.attn_q.weight"> : tensor<2048x2176xi8>
    %163 = flow.tensor.constant #flow.parameter.named<"model"::"blk.4.attn_norm.weight"> : tensor<2048xf32>
    %164 = flow.tensor.constant #flow.parameter.named<"model"::"blk.3.ffn_down.weight"> : tensor<2048x5984xi8>
    %165 = flow.tensor.constant #flow.parameter.named<"model"::"blk.3.ffn_up.weight"> : tensor<5632x2176xi8>
    %166 = flow.tensor.constant #flow.parameter.named<"model"::"blk.3.ffn_gate.weight"> : tensor<5632x2176xi8>
    %167 = flow.tensor.constant #flow.parameter.named<"model"::"blk.3.ffn_norm.weight"> : tensor<2048xf32>
    %168 = flow.tensor.constant #flow.parameter.named<"model"::"blk.3.attn_output.weight"> : tensor<2048x2176xi8>
    %169 = flow.tensor.constant #flow.parameter.named<"model"::"blk.3.attn_v.weight"> : tensor<256x2176xi8>
    %170 = flow.tensor.constant #flow.parameter.named<"model"::"blk.3.attn_k.weight"> : tensor<256x2176xi8>
    %171 = flow.tensor.constant #flow.parameter.named<"model"::"blk.3.attn_q.weight"> : tensor<2048x2176xi8>
    %172 = flow.tensor.constant #flow.parameter.named<"model"::"blk.3.attn_norm.weight"> : tensor<2048xf32>
    %173 = flow.tensor.constant #flow.parameter.named<"model"::"blk.2.ffn_down.weight"> : tensor<2048x5984xi8>
    %174 = flow.tensor.constant #flow.parameter.named<"model"::"blk.2.ffn_up.weight"> : tensor<5632x2176xi8>
    %175 = flow.tensor.constant #flow.parameter.named<"model"::"blk.2.ffn_gate.weight"> : tensor<5632x2176xi8>
    %176 = flow.tensor.constant #flow.parameter.named<"model"::"blk.2.ffn_norm.weight"> : tensor<2048xf32>
    %177 = flow.tensor.constant #flow.parameter.named<"model"::"blk.2.attn_output.weight"> : tensor<2048x2176xi8>
    %178 = flow.tensor.constant #flow.parameter.named<"model"::"blk.2.attn_v.weight"> : tensor<256x2176xi8>
    %179 = flow.tensor.constant #flow.parameter.named<"model"::"blk.2.attn_k.weight"> : tensor<256x2176xi8>
    %180 = flow.tensor.constant #flow.parameter.named<"model"::"blk.2.attn_q.weight"> : tensor<2048x2176xi8>
    %181 = flow.tensor.constant #flow.parameter.named<"model"::"blk.2.attn_norm.weight"> : tensor<2048xf32>
    %182 = flow.tensor.constant #flow.parameter.named<"model"::"blk.1.ffn_down.weight"> : tensor<2048x5984xi8>
    %183 = flow.tensor.constant #flow.parameter.named<"model"::"blk.1.ffn_up.weight"> : tensor<5632x2176xi8>
    %184 = flow.tensor.constant #flow.parameter.named<"model"::"blk.1.ffn_gate.weight"> : tensor<5632x2176xi8>
    %185 = flow.tensor.constant #flow.parameter.named<"model"::"blk.1.ffn_norm.weight"> : tensor<2048xf32>
    %186 = flow.tensor.constant #flow.parameter.named<"model"::"blk.1.attn_output.weight"> : tensor<2048x2176xi8>
    %187 = flow.tensor.constant #flow.parameter.named<"model"::"blk.1.attn_v.weight"> : tensor<256x2176xi8>
    %188 = flow.tensor.constant #flow.parameter.named<"model"::"blk.1.attn_k.weight"> : tensor<256x2176xi8>
    %189 = flow.tensor.constant #flow.parameter.named<"model"::"blk.1.attn_q.weight"> : tensor<2048x2176xi8>
    %190 = flow.tensor.constant #flow.parameter.named<"model"::"blk.1.attn_norm.weight"> : tensor<2048xf32>
    %191 = flow.tensor.constant #flow.parameter.named<"model"::"blk.0.ffn_down.weight"> : tensor<2048x5984xi8>
    %192 = flow.tensor.constant #flow.parameter.named<"model"::"blk.0.ffn_up.weight"> : tensor<5632x2176xi8>
    %193 = flow.tensor.constant #flow.parameter.named<"model"::"blk.0.ffn_gate.weight"> : tensor<5632x2176xi8>
    %194 = flow.tensor.constant #flow.parameter.named<"model"::"blk.0.ffn_norm.weight"> : tensor<2048xf32>
    %195 = flow.tensor.constant #flow.parameter.named<"model"::"blk.0.attn_output.weight"> : tensor<2048x2176xi8>
    %196 = flow.tensor.constant #flow.parameter.named<"model"::"blk.0.attn_v.weight"> : tensor<256x2176xi8>
    %197 = flow.tensor.constant #flow.parameter.named<"model"::"blk.0.attn_k.weight"> : tensor<256x2176xi8>
    %198 = flow.tensor.constant #flow.parameter.named<"model"::"blk.0.attn_q.weight"> : tensor<2048x2176xi8>
    %199 = flow.tensor.constant #flow.parameter.named<"model"::"blk.0.attn_norm.weight"> : tensor<2048xf32>
    %200 = flow.tensor.constant #flow.parameter.named<"model"::"token_embd.weight"> : tensor<32000x2176xi8>
    %c8 = arith.constant 8 : index
    %c32 = arith.constant 32 : index
    %c1 = arith.constant 1 : index
    %201 = hal.buffer_view.dim<%arg0 : !hal.buffer_view>[1] : index
    %202 = hal.tensor.import on(#hal.device.affinity<@__device_0>) wait(%arg4) => %arg0 : !hal.buffer_view -> tensor<4x?xi64>{%201}
    %203 = hal.tensor.import on(#hal.device.affinity<@__device_0>) wait(%arg4) => %arg1 : !hal.buffer_view -> tensor<4xi64>
    %204 = hal.buffer_view.dim<%arg2 : !hal.buffer_view>[1] : index
    %205 = hal.tensor.import on(#hal.device.affinity<@__device_0>) wait(%arg4) => %arg2 : !hal.buffer_view -> tensor<4x?xi64>{%204}
    %206 = hal.buffer_view.dim<%arg3 : !hal.buffer_view>[0] : index
    %207 = hal.tensor.import on(#hal.device.affinity<@__device_0>) wait(%arg4) => %arg3 : !hal.buffer_view -> tensor<?x360448xf16>{%206}
    %208 = arith.muli %204, %c32 : index
    %209 = util.assume.int %208<umin = 32, umax = 2016, udiv = 32> : index
    %210 = flow.tensor.tie_shape %202 : tensor<4x?xi64>{%209}
    %211 = util.assume.int %204<umin = 1, umax = 63> : index
    %212 = flow.tensor.tie_shape %205 : tensor<4x?xi64>{%211}
    %213 = util.assume.int %206<umin = 1, umax = 9007199254740991> : index
    %214 = flow.tensor.tie_shape %207 : tensor<?x360448xf16>{%213}
    %215 = flow.tensor.bitcast %200 : tensor<32000x2176xi8> -> tensor<32000x64x17xi16>
    %216 = flow.tensor.bitcast %200 : tensor<32000x2176xi8> -> tensor<32000x64x1x17xi16>
    %217 = flow.dispatch.workgroups(%216) : (tensor<32000x64x1x17xi16>) -> tensor<32000x64x1xi16> =
        (%arg6: !iree_tensor_ext.dispatch.tensor<readonly:tensor<32000x64x1x17xi16>>, %arg7: !iree_tensor_ext.dispatch.tensor<writeonly:tensor<32000x64x1xi16>>) {
      %2233 = iree_tensor_ext.dispatch.tensor.load %arg6, offsets = [0, 0, 0, 0], sizes = [32000, 64, 1, 1], strides = [1, 1, 1, 1] : !iree_tensor_ext.dispatch.tensor<readonly:tensor<32000x64x1x17xi16>> -> tensor<32000x64x1xi16>
      iree_tensor_ext.dispatch.tensor.store %2233, %arg7, offsets = [0, 0, 0], sizes = [32000, 64, 1], strides = [1, 1, 1] : tensor<32000x64x1xi16> -> !iree_tensor_ext.dispatch.tensor<writeonly:tensor<32000x64x1xi16>>
      flow.return
    } count() -> (index, index, index) {
      %x, %y, %z = iree_tensor_ext.dispatch.workgroup_count_from_slice()
      flow.return %x, %y, %z : index, index, index
    }
    %218 = flow.dispatch.workgroups(%215) : (tensor<32000x64x17xi16>) -> tensor<32000x64x16xi16> =
        (%arg6: !iree_tensor_ext.dispatch.tensor<readonly:tensor<32000x64x17xi16>>, %arg7: !iree_tensor_ext.dispatch.tensor<writeonly:tensor<32000x64x16xi16>>) {
      %2233 = iree_tensor_ext.dispatch.tensor.load %arg6, offsets = [0, 0, 1], sizes = [32000, 64, 16], strides = [1, 1, 1] : !iree_tensor_ext.dispatch.tensor<readonly:tensor<32000x64x17xi16>> -> tensor<32000x64x16xi16>
      iree_tensor_ext.dispatch.tensor.store %2233, %arg7, offsets = [0, 0, 0], sizes = [32000, 64, 16], strides = [1, 1, 1] : tensor<32000x64x16xi16> -> !iree_tensor_ext.dispatch.tensor<writeonly:tensor<32000x64x16xi16>>
      flow.return
    } count() -> (index, index, index) {
      %x, %y, %z = iree_tensor_ext.dispatch.workgroup_count_from_slice()
      flow.return %x, %y, %z : index, index, index
    }
    %219 = flow.tensor.bitcast %217 : tensor<32000x64x1xi16> -> tensor<2048000xf16>
    %220 = flow.tensor.bitcast %218 : tensor<32000x64x16xi16> -> tensor<2048000x32xi8>
    %221 = flow.dispatch.workgroups(%219, %220) : (tensor<2048000xf16>, tensor<2048000x32xi8>) -> tensor<2048000x32xf16> =
        (%arg6: !iree_tensor_ext.dispatch.tensor<readonly:tensor<2048000xf16>>, %arg7: !iree_tensor_ext.dispatch.tensor<readonly:tensor<2048000x32xi8>>, %arg8: !iree_tensor_ext.dispatch.tensor<writeonly:tensor<2048000x32xf16>>) {
      %2233 = iree_tensor_ext.dispatch.tensor.load %arg6, offsets = [0], sizes = [2048000], strides = [1] : !iree_tensor_ext.dispatch.tensor<readonly:tensor<2048000xf16>> -> tensor<2048000xf16>
      %2234 = iree_tensor_ext.dispatch.tensor.load %arg7, offsets = [0, 0], sizes = [2048000, 32], strides = [1, 1] : !iree_tensor_ext.dispatch.tensor<readonly:tensor<2048000x32xi8>> -> tensor<2048000x32xi8>
      %2235 = tensor.empty() : tensor<2048000x32xf16>
      %2236 = linalg.generic {indexing_maps = [#map, #map1, #map1], iterator_types = ["parallel", "parallel"]} ins(%2233, %2234 : tensor<2048000xf16>, tensor<2048000x32xi8>) outs(%2235 : tensor<2048000x32xf16>) {
      ^bb0(%in: f16, %in_0: i8, %out: f16):
        %2237 = arith.sitofp %in_0 : i8 to f16
        %2238 = arith.mulf %in, %2237 : f16
        linalg.yield %2238 : f16
      } -> tensor<2048000x32xf16>
      iree_tensor_ext.dispatch.tensor.store %2236, %arg8, offsets = [0, 0], sizes = [2048000, 32], strides = [1, 1] : tensor<2048000x32xf16> -> !iree_tensor_ext.dispatch.tensor<writeonly:tensor<2048000x32xf16>>
      flow.return
    } count() -> (index, index, index) {
      %x, %y, %z = iree_tensor_ext.dispatch.workgroup_count_from_slice()
      flow.return %x, %y, %z : index, index, index
    }
    %222 = flow.tensor.reshape %221 : tensor<2048000x32xf16> -> tensor<32000x2048xf16>
    %223 = arith.muli %209, %c4 overflow<nsw> : index
    %224 = flow.tensor.reshape %210 : tensor<4x?xi64>{%209} -> tensor<?xi64>{%223}
    %225 = flow.dispatch.workgroups[%223](%223, %222, %224) : (index, tensor<32000x2048xf16>, tensor<?xi64>{%223}) -> tensor<?x2048xf16>{%223} =
        (%arg6: index, %arg7: !iree_tensor_ext.dispatch.tensor<readonly:tensor<32000x2048xf16>>, %arg8: !iree_tensor_ext.dispatch.tensor<readonly:tensor<?xi64>>, %arg9: !iree_tensor_ext.dispatch.tensor<writeonly:tensor<?x2048xf16>>) {
      %c0_i64 = arith.constant 0 : i64
      %c32000 = arith.constant 32000 : index
      %c32_0 = arith.constant 32 : index
      %2233 = iree_tensor_ext.dispatch.workload.ordinal %arg6, 0 : index
      %2234 = iree_tensor_ext.dispatch.tensor.load %arg7, offsets = [0, 0], sizes = [32000, 2048], strides = [1, 1] : !iree_tensor_ext.dispatch.tensor<readonly:tensor<32000x2048xf16>> -> tensor<32000x2048xf16>
      %2235 = iree_tensor_ext.dispatch.tensor.load %arg8, offsets = [0], sizes = [%2233], strides = [1] : !iree_tensor_ext.dispatch.tensor<readonly:tensor<?xi64>>{%2233} -> tensor<?xi64>
      %2236 = tensor.empty(%2233) : tensor<?x2048xf16>
      %2237 = linalg.generic {indexing_maps = [#map, #map1], iterator_types = ["parallel", "parallel"]} ins(%2235 : tensor<?xi64>) outs(%2236 : tensor<?x2048xf16>) {
      ^bb0(%in: i64, %out: f16):
        %2238 = linalg.index 1 : index
        %2239 = arith.remsi %2238, %c32_0 : index
        %2240 = arith.divsi %2238, %c32_0 : index
        %2241 = arith.index_cast %in : i64 to index
        %2242 = arith.muli %2240, %c32_0 overflow<nsw> : index
        %2243 = arith.addi %2239, %2242 : index
        %2244 = arith.cmpi slt, %2241, %c32000 : index
        cf.assert %2244, "index must be smaller than dim size"
        %2245 = arith.cmpi sge, %in, %c0_i64 : i64
        cf.assert %2245, "index must be larger or equal to 0"
        %extracted = tensor.extract %2234[%2241, %2243] : tensor<32000x2048xf16>
        linalg.yield %extracted : f16
      } -> tensor<?x2048xf16>
      iree_tensor_ext.dispatch.tensor.store %2237, %arg9, offsets = [0, 0], sizes = [%2233, 2048], strides = [1, 1] : tensor<?x2048xf16> -> !iree_tensor_ext.dispatch.tensor<writeonly:tensor<?x2048xf16>>{%2233}
      flow.return
    } count(%arg6: index) -> (index, index, index) {
      %x, %y, %z = iree_tensor_ext.dispatch.workgroup_count_from_slice(%arg6)
      flow.return %x, %y, %z : index, index, index
    }
    %226 = arith.muli %209, %c8192 overflow<nsw> : index
    %227 = flow.tensor.reshape %225 : tensor<?x2048xf16>{%223} -> tensor<?xf16>{%226}
    %228 = flow.dispatch.workgroups[%226](%226, %227) : (index, tensor<?xf16>{%226}) -> tensor<?xf32>{%226} =
        (%arg6: index, %arg7: !iree_tensor_ext.dispatch.tensor<readonly:tensor<?xf16>>, %arg8: !iree_tensor_ext.dispatch.tensor<writeonly:tensor<?xf32>>) {
      %2233 = iree_tensor_ext.dispatch.workload.ordinal %arg6, 0 : index
      %2234 = iree_tensor_ext.dispatch.tensor.load %arg7, offsets = [0], sizes = [%2233], strides = [1] : !iree_tensor_ext.dispatch.tensor<readonly:tensor<?xf16>>{%2233} -> tensor<?xf16>
      %2235 = tensor.empty(%2233) : tensor<?xf32>
      %2236 = linalg.generic {indexing_maps = [#map2, #map2], iterator_types = ["parallel"]} ins(%2234 : tensor<?xf16>) outs(%2235 : tensor<?xf32>) {
      ^bb0(%in: f16, %out: f32):
        %2237 = arith.extf %in : f16 to f32
        linalg.yield %2237 : f32
      } -> tensor<?xf32>
      iree_tensor_ext.dispatch.tensor.store %2236, %arg8, offsets = [0], sizes = [%2233], strides = [1] : tensor<?xf32> -> !iree_tensor_ext.dispatch.tensor<writeonly:tensor<?xf32>>{%2233}
      flow.return
    } count(%arg6: index) -> (index, index, index) {
      %x, %y, %z = iree_tensor_ext.dispatch.workgroup_count_from_slice(%arg6)
      flow.return %x, %y, %z : index, index, index
    }
    %229 = flow.dispatch.workgroups[%223](%223, %225) : (index, tensor<?x2048xf16>{%223}) -> tensor<?xf32>{%223} =
        (%arg6: index, %arg7: !iree_tensor_ext.dispatch.tensor<readonly:tensor<?x2048xf16>>, %arg8: !iree_tensor_ext.dispatch.tensor<writeonly:tensor<?xf32>>) {
      %c2_i64 = arith.constant 2 : i64
      %cst = arith.constant 0.000000e+00 : f32
      %2233 = iree_tensor_ext.dispatch.workload.ordinal %arg6, 0 : index
      %2234 = iree_tensor_ext.dispatch.tensor.load %arg7, offsets = [0, 0], sizes = [%2233, 2048], strides = [1, 1] : !iree_tensor_ext.dispatch.tensor<readonly:tensor<?x2048xf16>>{%2233} -> tensor<?x2048xf16>
      %2235 = tensor.empty(%2233) : tensor<?xf32>
      %2236 = linalg.fill ins(%cst : f32) outs(%2235 : tensor<?xf32>) -> tensor<?xf32>
      %2237 = tensor.empty(%2233) : tensor<?x2048xf32>
      %2238 = linalg.generic {indexing_maps = [#map1, #map1], iterator_types = ["parallel", "parallel"]} ins(%2234 : tensor<?x2048xf16>) outs(%2237 : tensor<?x2048xf32>) {
      ^bb0(%in: f16, %out: f32):
        %2240 = arith.extf %in : f16 to f32
        linalg.yield %2240 : f32
      } -> tensor<?x2048xf32>
      %2239 = linalg.generic {indexing_maps = [#map1, #map], iterator_types = ["parallel", "reduction"]} ins(%2238 : tensor<?x2048xf32>) outs(%2236 : tensor<?xf32>) {
      ^bb0(%in: f32, %out: f32):
        %2240 = math.fpowi %in, %c2_i64 : f32, i64
        %2241 = arith.addf %2240, %out : f32
        linalg.yield %2241 : f32
      } -> tensor<?xf32>
      iree_tensor_ext.dispatch.tensor.store %2239, %arg8, offsets = [0], sizes = [%2233], strides = [1] : tensor<?xf32> -> !iree_tensor_ext.dispatch.tensor<writeonly:tensor<?xf32>>{%2233}
      flow.return
    } count(%arg6: index) -> (index, index, index) {
      %x, %y, %z = iree_tensor_ext.dispatch.workgroup_count_from_slice(%arg6)
      flow.return %x, %y, %z : index, index, index
    }
    %230 = flow.tensor.reshape %228 : tensor<?xf32>{%226} -> tensor<?x2048xf32>{%223}
    %231 = flow.dispatch.workgroups[%223](%223, %230, %229) : (index, tensor<?x2048xf32>{%223}, tensor<?xf32>{%223}) -> tensor<?x2048xf16>{%223} =
        (%arg6: index, %arg7: !iree_tensor_ext.dispatch.tensor<readonly:tensor<?x2048xf32>>, %arg8: !iree_tensor_ext.dispatch.tensor<readonly:tensor<?xf32>>, %arg9: !iree_tensor_ext.dispatch.tensor<writeonly:tensor<?x2048xf16>>) {
      %cst = arith.constant 9.99999974E-6 : f32
      %cst_0 = arith.constant 2.048000e+03 : f32
      %2233 = iree_tensor_ext.dispatch.workload.ordinal %arg6, 0 : index
      %2234 = iree_tensor_ext.dispatch.tensor.load %arg7, offsets = [0, 0], sizes = [%2233, 2048], strides = [1, 1] : !iree_tensor_ext.dispatch.tensor<readonly:tensor<?x2048xf32>>{%2233} -> tensor<?x2048xf32>
      %2235 = iree_tensor_ext.dispatch.tensor.load %arg8, offsets = [0], sizes = [%2233], strides = [1] : !iree_tensor_ext.dispatch.tensor<readonly:tensor<?xf32>>{%2233} -> tensor<?xf32>
      %2236 = tensor.empty(%2233) : tensor<?x2048xf16>
      %2237 = linalg.generic {indexing_maps = [#map1, #map, #map1], iterator_types = ["parallel", "parallel"]} ins(%2234, %2235 : tensor<?x2048xf32>, tensor<?xf32>) outs(%2236 : tensor<?x2048xf16>) {
      ^bb0(%in: f32, %in_1: f32, %out: f16):
        %2238 = arith.divf %in_1, %cst_0 : f32
        %2239 = arith.addf %2238, %cst : f32
        %2240 = math.rsqrt %2239 : f32
        %2241 = arith.mulf %in, %2240 : f32
        %2242 = arith.truncf %2241 : f32 to f16
        linalg.yield %2242 : f16
      } -> tensor<?x2048xf16>
      iree_tensor_ext.dispatch.tensor.store %2237, %arg9, offsets = [0, 0], sizes = [%2233, 2048], strides = [1, 1] : tensor<?x2048xf16> -> !iree_tensor_ext.dispatch.tensor<writeonly:tensor<?x2048xf16>>{%2233}
      flow.return
    } count(%arg6: index) -> (index, index, index) {
      %x, %y, %z = iree_tensor_ext.dispatch.workgroup_count_from_slice(%arg6)
      flow.return %x, %y, %z : index, index, index
    }
    %232 = flow.dispatch.workgroups[%223](%223, %199, %231) : (index, tensor<2048xf32>, tensor<?x2048xf16>{%223}) -> tensor<?x2048xf16>{%223} =
        (%arg6: index, %arg7: !iree_tensor_ext.dispatch.tensor<readonly:tensor<2048xf32>>, %arg8: !iree_tensor_ext.dispatch.tensor<readonly:tensor<?x2048xf16>>, %arg9: !iree_tensor_ext.dispatch.tensor<writeonly:tensor<?x2048xf16>>) {
      %2233 = iree_tensor_ext.dispatch.workload.ordinal %arg6, 0 : index
      %2234 = iree_tensor_ext.dispatch.tensor.load %arg7, offsets = [0], sizes = [2048], strides = [1] : !iree_tensor_ext.dispatch.tensor<readonly:tensor<2048xf32>> -> tensor<2048xf32>
      %2235 = iree_tensor_ext.dispatch.tensor.load %arg8, offsets = [0, 0], sizes = [%2233, 2048], strides = [1, 1] : !iree_tensor_ext.dispatch.tensor<readonly:tensor<?x2048xf16>>{%2233} -> tensor<?x2048xf16>
      %2236 = tensor.empty(%2233) : tensor<?x2048xf16>
      %2237 = linalg.generic {indexing_maps = [#map3, #map1, #map1], iterator_types = ["parallel", "parallel"]} ins(%2234, %2235 : tensor<2048xf32>, tensor<?x2048xf16>) outs(%2236 : tensor<?x2048xf16>) {
      ^bb0(%in: f32, %in_0: f16, %out: f16):
        %2238 = arith.extf %in_0 : f16 to f32
        %2239 = arith.mulf %in, %2238 : f32
        %2240 = arith.truncf %2239 : f32 to f16
        linalg.yield %2240 : f16
      } -> tensor<?x2048xf16>
      iree_tensor_ext.dispatch.tensor.store %2237, %arg9, offsets = [0, 0], sizes = [%2233, 2048], strides = [1, 1] : tensor<?x2048xf16> -> !iree_tensor_ext.dispatch.tensor<writeonly:tensor<?x2048xf16>>{%2233}
      flow.return
    } count(%arg6: index) -> (index, index, index) {
      %x, %y, %z = iree_tensor_ext.dispatch.workgroup_count_from_slice(%arg6)
      flow.return %x, %y, %z : index, index, index
    }
    %233 = flow.tensor.bitcast %198 : tensor<2048x2176xi8> -> tensor<2048x64x17xi16>
    %234 = flow.tensor.bitcast %198 : tensor<2048x2176xi8> -> tensor<2048x64x1x17xi16>
    %235 = flow.dispatch.workgroups(%234) : (tensor<2048x64x1x17xi16>) -> tensor<2048x64x1xi16> =
        (%arg6: !iree_tensor_ext.dispatch.tensor<readonly:tensor<2048x64x1x17xi16>>, %arg7: !iree_tensor_ext.dispatch.tensor<writeonly:tensor<2048x64x1xi16>>) {
      %2233 = iree_tensor_ext.dispatch.tensor.load %arg6, offsets = [0, 0, 0, 0], sizes = [2048, 64, 1, 1], strides = [1, 1, 1, 1] : !iree_tensor_ext.dispatch.tensor<readonly:tensor<2048x64x1x17xi16>> -> tensor<2048x64x1xi16>
      iree_tensor_ext.dispatch.tensor.store %2233, %arg7, offsets = [0, 0, 0], sizes = [2048, 64, 1], strides = [1, 1, 1] : tensor<2048x64x1xi16> -> !iree_tensor_ext.dispatch.tensor<writeonly:tensor<2048x64x1xi16>>
      flow.return
    } count() -> (index, index, index) {
      %x, %y, %z = iree_tensor_ext.dispatch.workgroup_count_from_slice()
      flow.return %x, %y, %z : index, index, index
    }
    %236 = flow.dispatch.workgroups(%233) : (tensor<2048x64x17xi16>) -> tensor<2048x64x16xi16> =
        (%arg6: !iree_tensor_ext.dispatch.tensor<readonly:tensor<2048x64x17xi16>>, %arg7: !iree_tensor_ext.dispatch.tensor<writeonly:tensor<2048x64x16xi16>>) {
      %2233 = iree_tensor_ext.dispatch.tensor.load %arg6, offsets = [0, 0, 1], sizes = [2048, 64, 16], strides = [1, 1, 1] : !iree_tensor_ext.dispatch.tensor<readonly:tensor<2048x64x17xi16>> -> tensor<2048x64x16xi16>
      iree_tensor_ext.dispatch.tensor.store %2233, %arg7, offsets = [0, 0, 0], sizes = [2048, 64, 16], strides = [1, 1, 1] : tensor<2048x64x16xi16> -> !iree_tensor_ext.dispatch.tensor<writeonly:tensor<2048x64x16xi16>>
      flow.return
    } count() -> (index, index, index) {
      %x, %y, %z = iree_tensor_ext.dispatch.workgroup_count_from_slice()
      flow.return %x, %y, %z : index, index, index
    }
    %237 = flow.tensor.bitcast %236 : tensor<2048x64x16xi16> -> tensor<2048x64x32xi8>
    %238 = flow.tensor.bitcast %235 : tensor<2048x64x1xi16> -> tensor<2048x64xf16>
    %239 = flow.tensor.reshape %232 : tensor<?x2048xf16>{%223} -> tensor<?x64x32xf16>{%223}
    %240 = flow.dispatch.workgroups[%223](%238, %237, %223, %239) : (tensor<2048x64xf16>, tensor<2048x64x32xi8>, index, tensor<?x64x32xf16>{%223}) -> tensor<?x2048xf16>{%223} =
        (%arg6: !iree_tensor_ext.dispatch.tensor<readonly:tensor<2048x64xf16>>, %arg7: !iree_tensor_ext.dispatch.tensor<readonly:tensor<2048x64x32xi8>>, %arg8: index, %arg9: !iree_tensor_ext.dispatch.tensor<readonly:tensor<?x64x32xf16>>, %arg10: !iree_tensor_ext.dispatch.tensor<writeonly:tensor<?x2048xf16>>) {
      %cst = arith.constant 0.000000e+00 : f32
      %2233 = iree_tensor_ext.dispatch.workload.ordinal %arg8, 0 : index
      %2234 = iree_tensor_ext.dispatch.tensor.load %arg6, offsets = [0, 0], sizes = [2048, 64], strides = [1, 1] : !iree_tensor_ext.dispatch.tensor<readonly:tensor<2048x64xf16>> -> tensor<2048x64xf16>
      %2235 = iree_tensor_ext.dispatch.tensor.load %arg7, offsets = [0, 0, 0], sizes = [2048, 64, 32], strides = [1, 1, 1] : !iree_tensor_ext.dispatch.tensor<readonly:tensor<2048x64x32xi8>> -> tensor<2048x64x32xi8>
      %2236 = iree_tensor_ext.dispatch.tensor.load %arg9, offsets = [0, 0, 0], sizes = [%2233, 64, 32], strides = [1, 1, 1] : !iree_tensor_ext.dispatch.tensor<readonly:tensor<?x64x32xf16>>{%2233} -> tensor<?x64x32xf16>
      %2237 = tensor.empty() : tensor<2048x64x32xf16>
      %2238 = linalg.generic {indexing_maps = [#map4, #map5, #map5], iterator_types = ["parallel", "parallel", "parallel"]} ins(%2234, %2235 : tensor<2048x64xf16>, tensor<2048x64x32xi8>) outs(%2237 : tensor<2048x64x32xf16>) {
      ^bb0(%in: f16, %in_0: i8, %out: f16):
        %2244 = arith.extsi %in_0 : i8 to i32
        %2245 = arith.sitofp %2244 : i32 to f16
        %2246 = arith.mulf %2245, %in : f16
        linalg.yield %2246 : f16
      } -> tensor<2048x64x32xf16>
      %2239 = tensor.empty(%2233) : tensor<?x2048xf32>
      %2240 = linalg.fill ins(%cst : f32) outs(%2239 : tensor<?x2048xf32>) -> tensor<?x2048xf32>
      %2241 = linalg.generic {indexing_maps = [#map6, #map7, #map8], iterator_types = ["parallel", "parallel", "reduction", "reduction"]} ins(%2236, %2238 : tensor<?x64x32xf16>, tensor<2048x64x32xf16>) outs(%2240 : tensor<?x2048xf32>) {
      ^bb0(%in: f16, %in_0: f16, %out: f32):
        %2244 = arith.mulf %in, %in_0 : f16
        %2245 = arith.extf %2244 : f16 to f32
        %2246 = arith.addf %2245, %out : f32
        linalg.yield %2246 : f32
      } -> tensor<?x2048xf32>
      %2242 = tensor.empty(%2233) : tensor<?x2048xf16>
      %2243 = linalg.generic {indexing_maps = [#map1, #map1], iterator_types = ["parallel", "parallel"]} ins(%2241 : tensor<?x2048xf32>) outs(%2242 : tensor<?x2048xf16>) {
      ^bb0(%in: f32, %out: f16):
        %2244 = arith.truncf %in : f32 to f16
        linalg.yield %2244 : f16
      } -> tensor<?x2048xf16>
      iree_tensor_ext.dispatch.tensor.store %2243, %arg10, offsets = [0, 0], sizes = [%2233, 2048], strides = [1, 1] : tensor<?x2048xf16> -> !iree_tensor_ext.dispatch.tensor<writeonly:tensor<?x2048xf16>>{%2233}
      flow.return
    } count(%arg6: index) -> (index, index, index) {
      %x, %y, %z = iree_tensor_ext.dispatch.workgroup_count_from_slice(%arg6)
      flow.return %x, %y, %z : index, index, index
    }
    %241 = flow.tensor.reshape %240 : tensor<?x2048xf16>{%223} -> tensor<4x?x32x64xf16>{%209}
    %242 = flow.tensor.bitcast %197 : tensor<256x2176xi8> -> tensor<256x64x17xi16>
    %243 = flow.tensor.bitcast %197 : tensor<256x2176xi8> -> tensor<256x64x1x17xi16>
    %244 = flow.dispatch.workgroups(%243) : (tensor<256x64x1x17xi16>) -> tensor<256x64x1xi16> =
        (%arg6: !iree_tensor_ext.dispatch.tensor<readonly:tensor<256x64x1x17xi16>>, %arg7: !iree_tensor_ext.dispatch.tensor<writeonly:tensor<256x64x1xi16>>) {
      %2233 = iree_tensor_ext.dispatch.tensor.load %arg6, offsets = [0, 0, 0, 0], sizes = [256, 64, 1, 1], strides = [1, 1, 1, 1] : !iree_tensor_ext.dispatch.tensor<readonly:tensor<256x64x1x17xi16>> -> tensor<256x64x1xi16>
      iree_tensor_ext.dispatch.tensor.store %2233, %arg7, offsets = [0, 0, 0], sizes = [256, 64, 1], strides = [1, 1, 1] : tensor<256x64x1xi16> -> !iree_tensor_ext.dispatch.tensor<writeonly:tensor<256x64x1xi16>>
      flow.return
    } count() -> (index, index, index) {
      %x, %y, %z = iree_tensor_ext.dispatch.workgroup_count_from_slice()
      flow.return %x, %y, %z : index, index, index
    }
    %245 = flow.dispatch.workgroups(%242) : (tensor<256x64x17xi16>) -> tensor<256x64x16xi16> =
        (%arg6: !iree_tensor_ext.dispatch.tensor<readonly:tensor<256x64x17xi16>>, %arg7: !iree_tensor_ext.dispatch.tensor<writeonly:tensor<256x64x16xi16>>) {
      %2233 = iree_tensor_ext.dispatch.tensor.load %arg6, offsets = [0, 0, 1], sizes = [256, 64, 16], strides = [1, 1, 1] : !iree_tensor_ext.dispatch.tensor<readonly:tensor<256x64x17xi16>> -> tensor<256x64x16xi16>
      iree_tensor_ext.dispatch.tensor.store %2233, %arg7, offsets = [0, 0, 0], sizes = [256, 64, 16], strides = [1, 1, 1] : tensor<256x64x16xi16> -> !iree_tensor_ext.dispatch.tensor<writeonly:tensor<256x64x16xi16>>
      flow.return
    } count() -> (index, index, index) {
      %x, %y, %z = iree_tensor_ext.dispatch.workgroup_count_from_slice()
      flow.return %x, %y, %z : index, index, index
    }
    %246 = flow.tensor.bitcast %245 : tensor<256x64x16xi16> -> tensor<256x64x32xi8>
    %247 = flow.tensor.bitcast %244 : tensor<256x64x1xi16> -> tensor<256x64xf16>
    %248 = flow.dispatch.workgroups[%223](%247, %246, %223, %239) : (tensor<256x64xf16>, tensor<256x64x32xi8>, index, tensor<?x64x32xf16>{%223}) -> tensor<?x256xf16>{%223} =
        (%arg6: !iree_tensor_ext.dispatch.tensor<readonly:tensor<256x64xf16>>, %arg7: !iree_tensor_ext.dispatch.tensor<readonly:tensor<256x64x32xi8>>, %arg8: index, %arg9: !iree_tensor_ext.dispatch.tensor<readonly:tensor<?x64x32xf16>>, %arg10: !iree_tensor_ext.dispatch.tensor<writeonly:tensor<?x256xf16>>) {
      %cst = arith.constant 0.000000e+00 : f32
      %2233 = iree_tensor_ext.dispatch.workload.ordinal %arg8, 0 : index
      %2234 = iree_tensor_ext.dispatch.tensor.load %arg6, offsets = [0, 0], sizes = [256, 64], strides = [1, 1] : !iree_tensor_ext.dispatch.tensor<readonly:tensor<256x64xf16>> -> tensor<256x64xf16>
      %2235 = iree_tensor_ext.dispatch.tensor.load %arg7, offsets = [0, 0, 0], sizes = [256, 64, 32], strides = [1, 1, 1] : !iree_tensor_ext.dispatch.tensor<readonly:tensor<256x64x32xi8>> -> tensor<256x64x32xi8>
      %2236 = iree_tensor_ext.dispatch.tensor.load %arg9, offsets = [0, 0, 0], sizes = [%2233, 64, 32], strides = [1, 1, 1] : !iree_tensor_ext.dispatch.tensor<readonly:tensor<?x64x32xf16>>{%2233} -> tensor<?x64x32xf16>
      %2237 = tensor.empty() : tensor<256x64x32xf16>
      %2238 = linalg.generic {indexing_maps = [#map4, #map5, #map5], iterator_types = ["parallel", "parallel", "parallel"]} ins(%2234, %2235 : tensor<256x64xf16>, tensor<256x64x32xi8>) outs(%2237 : tensor<256x64x32xf16>) {
      ^bb0(%in: f16, %in_0: i8, %out: f16):
        %2244 = arith.extsi %in_0 : i8 to i32
        %2245 = arith.sitofp %2244 : i32 to f16
        %2246 = arith.mulf %2245, %in : f16
        linalg.yield %2246 : f16
      } -> tensor<256x64x32xf16>
      %2239 = tensor.empty(%2233) : tensor<?x256xf32>
      %2240 = linalg.fill ins(%cst : f32) outs(%2239 : tensor<?x256xf32>) -> tensor<?x256xf32>
      %2241 = linalg.generic {indexing_maps = [#map6, #map7, #map8], iterator_types = ["parallel", "parallel", "reduction", "reduction"]} ins(%2236, %2238 : tensor<?x64x32xf16>, tensor<256x64x32xf16>) outs(%2240 : tensor<?x256xf32>) {
      ^bb0(%in: f16, %in_0: f16, %out: f32):
        %2244 = arith.mulf %in, %in_0 : f16
        %2245 = arith.extf %2244 : f16 to f32
        %2246 = arith.addf %2245, %out : f32
        linalg.yield %2246 : f32
      } -> tensor<?x256xf32>
      %2242 = tensor.empty(%2233) : tensor<?x256xf16>
      %2243 = linalg.generic {indexing_maps = [#map1, #map1], iterator_types = ["parallel", "parallel"]} ins(%2241 : tensor<?x256xf32>) outs(%2242 : tensor<?x256xf16>) {
      ^bb0(%in: f32, %out: f16):
        %2244 = arith.truncf %in : f32 to f16
        linalg.yield %2244 : f16
      } -> tensor<?x256xf16>
      iree_tensor_ext.dispatch.tensor.store %2243, %arg10, offsets = [0, 0], sizes = [%2233, 256], strides = [1, 1] : tensor<?x256xf16> -> !iree_tensor_ext.dispatch.tensor<writeonly:tensor<?x256xf16>>{%2233}
      flow.return
    } count(%arg6: index) -> (index, index, index) {
      %x, %y, %z = iree_tensor_ext.dispatch.workgroup_count_from_slice(%arg6)
      flow.return %x, %y, %z : index, index, index
    }
    %249 = flow.tensor.reshape %248 : tensor<?x256xf16>{%223} -> tensor<4x?x4x64xf16>{%209}
    %250 = flow.tensor.bitcast %196 : tensor<256x2176xi8> -> tensor<256x64x17xi16>
    %251 = flow.tensor.bitcast %196 : tensor<256x2176xi8> -> tensor<256x64x1x17xi16>
    %252 = flow.dispatch.workgroups(%251) : (tensor<256x64x1x17xi16>) -> tensor<256x64x1xi16> =
        (%arg6: !iree_tensor_ext.dispatch.tensor<readonly:tensor<256x64x1x17xi16>>, %arg7: !iree_tensor_ext.dispatch.tensor<writeonly:tensor<256x64x1xi16>>) {
      %2233 = iree_tensor_ext.dispatch.tensor.load %arg6, offsets = [0, 0, 0, 0], sizes = [256, 64, 1, 1], strides = [1, 1, 1, 1] : !iree_tensor_ext.dispatch.tensor<readonly:tensor<256x64x1x17xi16>> -> tensor<256x64x1xi16>
      iree_tensor_ext.dispatch.tensor.store %2233, %arg7, offsets = [0, 0, 0], sizes = [256, 64, 1], strides = [1, 1, 1] : tensor<256x64x1xi16> -> !iree_tensor_ext.dispatch.tensor<writeonly:tensor<256x64x1xi16>>
      flow.return
    } count() -> (index, index, index) {
      %x, %y, %z = iree_tensor_ext.dispatch.workgroup_count_from_slice()
      flow.return %x, %y, %z : index, index, index
    }
    %253 = flow.dispatch.workgroups(%250) : (tensor<256x64x17xi16>) -> tensor<256x64x16xi16> =
        (%arg6: !iree_tensor_ext.dispatch.tensor<readonly:tensor<256x64x17xi16>>, %arg7: !iree_tensor_ext.dispatch.tensor<writeonly:tensor<256x64x16xi16>>) {
      %2233 = iree_tensor_ext.dispatch.tensor.load %arg6, offsets = [0, 0, 1], sizes = [256, 64, 16], strides = [1, 1, 1] : !iree_tensor_ext.dispatch.tensor<readonly:tensor<256x64x17xi16>> -> tensor<256x64x16xi16>
      iree_tensor_ext.dispatch.tensor.store %2233, %arg7, offsets = [0, 0, 0], sizes = [256, 64, 16], strides = [1, 1, 1] : tensor<256x64x16xi16> -> !iree_tensor_ext.dispatch.tensor<writeonly:tensor<256x64x16xi16>>
      flow.return
    } count() -> (index, index, index) {
      %x, %y, %z = iree_tensor_ext.dispatch.workgroup_count_from_slice()
      flow.return %x, %y, %z : index, index, index
    }
    %254 = flow.tensor.bitcast %253 : tensor<256x64x16xi16> -> tensor<256x64x32xi8>
    %255 = flow.tensor.bitcast %252 : tensor<256x64x1xi16> -> tensor<256x64xf16>
    %256 = flow.dispatch.workgroups[%223](%255, %254, %223, %239) : (tensor<256x64xf16>, tensor<256x64x32xi8>, index, tensor<?x64x32xf16>{%223}) -> tensor<?x256xf16>{%223} =
        (%arg6: !iree_tensor_ext.dispatch.tensor<readonly:tensor<256x64xf16>>, %arg7: !iree_tensor_ext.dispatch.tensor<readonly:tensor<256x64x32xi8>>, %arg8: index, %arg9: !iree_tensor_ext.dispatch.tensor<readonly:tensor<?x64x32xf16>>, %arg10: !iree_tensor_ext.dispatch.tensor<writeonly:tensor<?x256xf16>>) {
      %cst = arith.constant 0.000000e+00 : f32
      %2233 = iree_tensor_ext.dispatch.workload.ordinal %arg8, 0 : index
      %2234 = iree_tensor_ext.dispatch.tensor.load %arg6, offsets = [0, 0], sizes = [256, 64], strides = [1, 1] : !iree_tensor_ext.dispatch.tensor<readonly:tensor<256x64xf16>> -> tensor<256x64xf16>
      %2235 = iree_tensor_ext.dispatch.tensor.load %arg7, offsets = [0, 0, 0], sizes = [256, 64, 32], strides = [1, 1, 1] : !iree_tensor_ext.dispatch.tensor<readonly:tensor<256x64x32xi8>> -> tensor<256x64x32xi8>
      %2236 = iree_tensor_ext.dispatch.tensor.load %arg9, offsets = [0, 0, 0], sizes = [%2233, 64, 32], strides = [1, 1, 1] : !iree_tensor_ext.dispatch.tensor<readonly:tensor<?x64x32xf16>>{%2233} -> tensor<?x64x32xf16>
      %2237 = tensor.empty() : tensor<256x64x32xf16>
      %2238 = linalg.generic {indexing_maps = [#map4, #map5, #map5], iterator_types = ["parallel", "parallel", "parallel"]} ins(%2234, %2235 : tensor<256x64xf16>, tensor<256x64x32xi8>) outs(%2237 : tensor<256x64x32xf16>) {
      ^bb0(%in: f16, %in_0: i8, %out: f16):
        %2244 = arith.extsi %in_0 : i8 to i32
        %2245 = arith.sitofp %2244 : i32 to f16
        %2246 = arith.mulf %2245, %in : f16
        linalg.yield %2246 : f16
      } -> tensor<256x64x32xf16>
      %2239 = tensor.empty(%2233) : tensor<?x256xf32>
      %2240 = linalg.fill ins(%cst : f32) outs(%2239 : tensor<?x256xf32>) -> tensor<?x256xf32>
      %2241 = linalg.generic {indexing_maps = [#map6, #map7, #map8], iterator_types = ["parallel", "parallel", "reduction", "reduction"]} ins(%2236, %2238 : tensor<?x64x32xf16>, tensor<256x64x32xf16>) outs(%2240 : tensor<?x256xf32>) {
      ^bb0(%in: f16, %in_0: f16, %out: f32):
        %2244 = arith.mulf %in, %in_0 : f16
        %2245 = arith.extf %2244 : f16 to f32
        %2246 = arith.addf %2245, %out : f32
        linalg.yield %2246 : f32
      } -> tensor<?x256xf32>
      %2242 = tensor.empty(%2233) : tensor<?x256xf16>
      %2243 = linalg.generic {indexing_maps = [#map1, #map1], iterator_types = ["parallel", "parallel"]} ins(%2241 : tensor<?x256xf32>) outs(%2242 : tensor<?x256xf16>) {
      ^bb0(%in: f32, %out: f16):
        %2244 = arith.truncf %in : f32 to f16
        linalg.yield %2244 : f16
      } -> tensor<?x256xf16>
      iree_tensor_ext.dispatch.tensor.store %2243, %arg10, offsets = [0, 0], sizes = [%2233, 256], strides = [1, 1] : tensor<?x256xf16> -> !iree_tensor_ext.dispatch.tensor<writeonly:tensor<?x256xf16>>{%2233}
      flow.return
    } count(%arg6: index) -> (index, index, index) {
      %x, %y, %z = iree_tensor_ext.dispatch.workgroup_count_from_slice(%arg6)
      flow.return %x, %y, %z : index, index, index
    }
    %257 = arith.divui %209, %c32 : index
    %258 = arith.subi %209, %c1 : index
    %259 = arith.divui %258, %c8 : index
    %260 = arith.addi %259, %c1 : index
    %261 = flow.dispatch.workgroups[%209, %260](%209, %260) : (index, index) -> tensor<1x?x1x8x1xf32>{%260} =
        (%arg6: index, %arg7: index, %arg8: !iree_tensor_ext.dispatch.tensor<writeonly:tensor<1x?x1x8x1xf32>>) {
      %cst = arith.constant 0.000000e+00 : f32
      %2233 = iree_tensor_ext.dispatch.workload.ordinal %arg6, 0 : index
      %2234 = iree_tensor_ext.dispatch.workload.ordinal %arg7, 1 : index
      %2235 = tensor.empty(%2234) : tensor<1x?x1x8x1xf32>
      %2236 = tensor.empty(%2233) : tensor<1x1x?xf32>
      %2237 = linalg.generic {indexing_maps = [#map5], iterator_types = ["parallel", "parallel", "parallel"]} outs(%2236 : tensor<1x1x?xf32>) {
      ^bb0(%out: f32):
        %2238 = linalg.index 2 : index
        %2239 = arith.index_cast %2238 : index to i64
        %2240 = arith.sitofp %2239 : i64 to f32
        linalg.yield %2240 : f32
      } -> tensor<1x1x?xf32>
      %pack = linalg.pack %2237 padding_value(%cst : f32) outer_dims_perm = [0, 2, 1] inner_dims_pos = [2, 1] inner_tiles = [8, 1] into %2235 : tensor<1x1x?xf32> -> tensor<1x?x1x8x1xf32>
      iree_tensor_ext.dispatch.tensor.store %pack, %arg8, offsets = [0, 0, 0, 0, 0], sizes = [1, %2234, 1, 8, 1], strides = [1, 1, 1, 1, 1] : tensor<1x?x1x8x1xf32> -> !iree_tensor_ext.dispatch.tensor<writeonly:tensor<1x?x1x8x1xf32>>{%2234}
      flow.return
    } count(%arg6: index, %arg7: index) -> (index, index, index) {
      %x, %y, %z = iree_tensor_ext.dispatch.workgroup_count_from_slice(%arg6, %arg7)
      flow.return %x, %y, %z : index, index, index
    }
    %262 = flow.dispatch.workgroups[%260](%261, %260) : (tensor<1x?x1x8x1xf32>{%260}, index) -> tensor<1x4x?x8x8xf32>{%260} =
        (%arg6: !iree_tensor_ext.dispatch.tensor<readonly:tensor<1x?x1x8x1xf32>>, %arg7: index, %arg8: !iree_tensor_ext.dispatch.tensor<writeonly:tensor<1x4x?x8x8xf32>>) {
      %cst = arith.constant 0.000000e+00 : f32
      %cst_0 = arith.constant dense<[[[[[… > : tensor<1x4x1x8x1xf32>
      %2233 = iree_tensor_ext.dispatch.workload.ordinal %arg7, 0 : index
      %2234 = iree_tensor_ext.dispatch.tensor.load %arg6, offsets = [0, 0, 0, 0, 0], sizes = [1, %2233, 1, 8, 1], strides = [1, 1, 1, 1, 1] : !iree_tensor_ext.dispatch.tensor<readonly:tensor<1x?x1x8x1xf32>>{%2233} -> tensor<1x?x1x8x1xf32>
      %2235 = tensor.empty(%2233) : tensor<1x4x?x8x8xf32>
      %2236 = linalg.fill ins(%cst : f32) outs(%2235 : tensor<1x4x?x8x8xf32>) -> tensor<1x4x?x8x8xf32>
      %2237 = linalg.batch_mmt4d ins(%cst_0, %2234 : tensor<1x4x1x8x1xf32>, tensor<1x?x1x8x1xf32>) outs(%2236 : tensor<1x4x?x8x8xf32>) -> tensor<1x4x?x8x8xf32>
      iree_tensor_ext.dispatch.tensor.store %2237, %arg8, offsets = [0, 0, 0, 0, 0], sizes = [1, 4, %2233, 8, 8], strides = [1, 1, 1, 1, 1] : tensor<1x4x?x8x8xf32> -> !iree_tensor_ext.dispatch.tensor<writeonly:tensor<1x4x?x8x8xf32>>{%2233}
      flow.return
    } count(%arg6: index) -> (index, index, index) {
      %x, %y, %z = iree_tensor_ext.dispatch.workgroup_count_from_slice(%arg6)
      flow.return %x, %y, %z : index, index, index
    }
    %263 = flow.dispatch.workgroups[%260, %209](%262, %260, %209) : (tensor<1x4x?x8x8xf32>{%260}, index, index) -> tensor<?x1x32xf32>{%209} =
        (%arg6: !iree_tensor_ext.dispatch.tensor<readonly:tensor<1x4x?x8x8xf32>>, %arg7: index, %arg8: index, %arg9: !iree_tensor_ext.dispatch.tensor<writeonly:tensor<?x1x32xf32>>) {
      %2233 = iree_tensor_ext.dispatch.workload.ordinal %arg7, 0 : index
      %2234 = iree_tensor_ext.dispatch.workload.ordinal %arg8, 1 : index
      %2235 = iree_tensor_ext.dispatch.tensor.load %arg6, offsets = [0, 0, 0, 0, 0], sizes = [1, 4, %2233, 8, 8], strides = [1, 1, 1, 1, 1] : !iree_tensor_ext.dispatch.tensor<readonly:tensor<1x4x?x8x8xf32>>{%2233} -> tensor<1x4x?x8x8xf32>
      %2236 = tensor.empty(%2234) : tensor<?x1x32xf32>
      %unpack = linalg.unpack %2235 outer_dims_perm = [1, 2, 0] inner_dims_pos = [2, 0] inner_tiles = [8, 8] into %2236 : tensor<1x4x?x8x8xf32> -> tensor<?x1x32xf32>
      iree_tensor_ext.dispatch.tensor.store %unpack, %arg9, offsets = [0, 0, 0], sizes = [%2234, 1, 32], strides = [1, 1, 1] : tensor<?x1x32xf32> -> !iree_tensor_ext.dispatch.tensor<writeonly:tensor<?x1x32xf32>>{%2234}
      flow.return
    } count(%arg6: index, %arg7: index) -> (index, index, index) {
      %x, %y, %z = iree_tensor_ext.dispatch.workgroup_count_from_slice(%arg6, %arg7)
      flow.return %x, %y, %z : index, index, index
    }
    %264 = arith.divsi %209, %c32 : index
    %265 = arith.muli %264, %c32 overflow<nsw> : index
    %266 = arith.muli %209, %c32 overflow<nsw> : index
    %267 = flow.tensor.reshape %263 : tensor<?x1x32xf32>{%209} -> tensor<?xf32>{%266}
    %268 = arith.muli %264, %c1024 overflow<nsw> : index
    %269 = flow.dispatch.workgroups[%268, %266](%268, %267, %266) : (index, tensor<?xf32>{%266}, index) -> tensor<?xf16>{%268} =
        (%arg6: index, %arg7: !iree_tensor_ext.dispatch.tensor<readonly:tensor<?xf32>>, %arg8: index, %arg9: !iree_tensor_ext.dispatch.tensor<writeonly:tensor<?xf16>>) {
      %2233 = iree_tensor_ext.dispatch.workload.ordinal %arg6, 0 : index
      %2234 = iree_tensor_ext.dispatch.workload.ordinal %arg8, 1 : index
      %2235 = iree_tensor_ext.dispatch.tensor.load %arg7, offsets = [0], sizes = [%2234], strides = [1] : !iree_tensor_ext.dispatch.tensor<readonly:tensor<?xf32>>{%2234} -> tensor<?xf32>
      %2236 = tensor.empty(%2233) : tensor<?xf16>
      %2237 = linalg.generic {indexing_maps = [#map2, #map2], iterator_types = ["parallel"]} ins(%2235 : tensor<?xf32>) outs(%2236 : tensor<?xf16>) {
      ^bb0(%in: f32, %out: f16):
        %2238 = math.cos %in : f32
        %2239 = arith.truncf %2238 : f32 to f16
        linalg.yield %2239 : f16
      } -> tensor<?xf16>
      iree_tensor_ext.dispatch.tensor.store %2237, %arg9, offsets = [0], sizes = [%2233], strides = [1] : tensor<?xf16> -> !iree_tensor_ext.dispatch.tensor<writeonly:tensor<?xf16>>{%2233}
      flow.return
    } count(%arg6: index, %arg7: index) -> (index, index, index) {
      %x, %y, %z = iree_tensor_ext.dispatch.workgroup_count_from_slice(%arg6, %arg7)
      flow.return %x, %y, %z : index, index, index
    }
    %270 = flow.dispatch.workgroups[%268, %266](%268, %267, %266) : (index, tensor<?xf32>{%266}, index) -> tensor<?xf16>{%268} =
        (%arg6: index, %arg7: !iree_tensor_ext.dispatch.tensor<readonly:tensor<?xf32>>, %arg8: index, %arg9: !iree_tensor_ext.dispatch.tensor<writeonly:tensor<?xf16>>) {
      %2233 = iree_tensor_ext.dispatch.workload.ordinal %arg6, 0 : index
      %2234 = iree_tensor_ext.dispatch.workload.ordinal %arg8, 1 : index
      %2235 = iree_tensor_ext.dispatch.tensor.load %arg7, offsets = [0], sizes = [%2234], strides = [1] : !iree_tensor_ext.dispatch.tensor<readonly:tensor<?xf32>>{%2234} -> tensor<?xf32>
      %2236 = tensor.empty(%2233) : tensor<?xf16>
      %2237 = linalg.generic {indexing_maps = [#map2, #map2], iterator_types = ["parallel"]} ins(%2235 : tensor<?xf32>) outs(%2236 : tensor<?xf16>) {
      ^bb0(%in: f32, %out: f16):
        %2238 = math.sin %in : f32
        %2239 = arith.truncf %2238 : f32 to f16
        linalg.yield %2239 : f16
      } -> tensor<?xf16>
      iree_tensor_ext.dispatch.tensor.store %2237, %arg9, offsets = [0], sizes = [%2233], strides = [1] : tensor<?xf16> -> !iree_tensor_ext.dispatch.tensor<writeonly:tensor<?xf16>>{%2233}
      flow.return
    } count(%arg6: index, %arg7: index) -> (index, index, index) {
      %x, %y, %z = iree_tensor_ext.dispatch.workgroup_count_from_slice(%arg6, %arg7)
      flow.return %x, %y, %z : index, index, index
    }
    %271 = flow.dispatch.workgroups[%209](%241, %209) : (tensor<4x?x32x64xf16>{%209}, index) -> tensor<4x?x32x32xf16>{%209} =
        (%arg6: !iree_tensor_ext.dispatch.tensor<readonly:tensor<4x?x32x64xf16>>, %arg7: index, %arg8: !iree_tensor_ext.dispatch.tensor<writeonly:tensor<4x?x32x32xf16>>) {
      %2233 = iree_tensor_ext.dispatch.workload.ordinal %arg7, 0 : index
      %2234 = iree_tensor_ext.dispatch.tensor.load %arg6, offsets = [0, 0, 0, 0], sizes = [4, %2233, 32, 32], strides = [1, 1, 1, 2] : !iree_tensor_ext.dispatch.tensor<readonly:tensor<4x?x32x64xf16>>{%2233} -> tensor<4x?x32x32xf16>
      iree_tensor_ext.dispatch.tensor.store %2234, %arg8, offsets = [0, 0, 0, 0], sizes = [4, %2233, 32, 32], strides = [1, 1, 1, 1] : tensor<4x?x32x32xf16> -> !iree_tensor_ext.dispatch.tensor<writeonly:tensor<4x?x32x32xf16>>{%2233}
      flow.return
    } count(%arg6: index) -> (index, index, index) {
      %x, %y, %z = iree_tensor_ext.dispatch.workgroup_count_from_slice(%arg6)
      flow.return %x, %y, %z : index, index, index
    }
    %272 = flow.dispatch.workgroups[%209](%241, %209) : (tensor<4x?x32x64xf16>{%209}, index) -> tensor<4x?x32x32xf16>{%209} =
        (%arg6: !iree_tensor_ext.dispatch.tensor<readonly:tensor<4x?x32x64xf16>>, %arg7: index, %arg8: !iree_tensor_ext.dispatch.tensor<writeonly:tensor<4x?x32x32xf16>>) {
      %2233 = iree_tensor_ext.dispatch.workload.ordinal %arg7, 0 : index
      %2234 = iree_tensor_ext.dispatch.tensor.load %arg6, offsets = [0, 0, 0, 1], sizes = [4, %2233, 32, 32], strides = [1, 1, 1, 2] : !iree_tensor_ext.dispatch.tensor<readonly:tensor<4x?x32x64xf16>>{%2233} -> tensor<4x?x32x32xf16>
      iree_tensor_ext.dispatch.tensor.store %2234, %arg8, offsets = [0, 0, 0, 0], sizes = [4, %2233, 32, 32], strides = [1, 1, 1, 1] : tensor<4x?x32x32xf16> -> !iree_tensor_ext.dispatch.tensor<writeonly:tensor<4x?x32x32xf16>>{%2233}
      flow.return
    } count(%arg6: index) -> (index, index, index) {
      %x, %y, %z = iree_tensor_ext.dispatch.workgroup_count_from_slice(%arg6)
      flow.return %x, %y, %z : index, index, index
    }
    %273 = flow.dispatch.workgroups[%209](%249, %209) : (tensor<4x?x4x64xf16>{%209}, index) -> tensor<4x?x4x32xf16>{%209} =
        (%arg6: !iree_tensor_ext.dispatch.tensor<readonly:tensor<4x?x4x64xf16>>, %arg7: index, %arg8: !iree_tensor_ext.dispatch.tensor<writeonly:tensor<4x?x4x32xf16>>) {
      %2233 = iree_tensor_ext.dispatch.workload.ordinal %arg7, 0 : index
      %2234 = iree_tensor_ext.dispatch.tensor.load %arg6, offsets = [0, 0, 0, 0], sizes = [4, %2233, 4, 32], strides = [1, 1, 1, 2] : !iree_tensor_ext.dispatch.tensor<readonly:tensor<4x?x4x64xf16>>{%2233} -> tensor<4x?x4x32xf16>
      iree_tensor_ext.dispatch.tensor.store %2234, %arg8, offsets = [0, 0, 0, 0], sizes = [4, %2233, 4, 32], strides = [1, 1, 1, 1] : tensor<4x?x4x32xf16> -> !iree_tensor_ext.dispatch.tensor<writeonly:tensor<4x?x4x32xf16>>{%2233}
      flow.return
    } count(%arg6: index) -> (index, index, index) {
      %x, %y, %z = iree_tensor_ext.dispatch.workgroup_count_from_slice(%arg6)
      flow.return %x, %y, %z : index, index, index
    }
    %274 = flow.dispatch.workgroups[%209](%249, %209) : (tensor<4x?x4x64xf16>{%209}, index) -> tensor<4x?x4x32xf16>{%209} =
        (%arg6: !iree_tensor_ext.dispatch.tensor<readonly:tensor<4x?x4x64xf16>>, %arg7: index, %arg8: !iree_tensor_ext.dispatch.tensor<writeonly:tensor<4x?x4x32xf16>>) {
      %2233 = iree_tensor_ext.dispatch.workload.ordinal %arg7, 0 : index
      %2234 = iree_tensor_ext.dispatch.tensor.load %arg6, offsets = [0, 0, 0, 1], sizes = [4, %2233, 4, 32], strides = [1, 1, 1, 2] : !iree_tensor_ext.dispatch.tensor<readonly:tensor<4x?x4x64xf16>>{%2233} -> tensor<4x?x4x32xf16>
      iree_tensor_ext.dispatch.tensor.store %2234, %arg8, offsets = [0, 0, 0, 0], sizes = [4, %2233, 4, 32], strides = [1, 1, 1, 1] : tensor<4x?x4x32xf16> -> !iree_tensor_ext.dispatch.tensor<writeonly:tensor<4x?x4x32xf16>>{%2233}
      flow.return
    } count(%arg6: index) -> (index, index, index) {
      %x, %y, %z = iree_tensor_ext.dispatch.workgroup_count_from_slice(%arg6)
      flow.return %x, %y, %z : index, index, index
    }
    %275 = arith.muli %264, %c32 : index
    %276 = flow.tensor.reshape %269 : tensor<?xf16>{%268} -> tensor<?x32xf16>{%265}
    %277 = flow.tensor.reshape %270 : tensor<?xf16>{%268} -> tensor<?x32xf16>{%265}
    %278 = flow.dispatch.workgroups[%275, %265](%273, %276, %274, %277, %275, %265) : (tensor<4x?x4x32xf16>{%275}, tensor<?x32xf16>{%265}, tensor<4x?x4x32xf16>{%275}, tensor<?x32xf16>{%265}, index, index) -> tensor<4x?x4x2x32xf16>{%265} =
        (%arg6: !iree_tensor_ext.dispatch.tensor<readonly:tensor<4x?x4x32xf16>>, %arg7: !iree_tensor_ext.dispatch.tensor<readonly:tensor<?x32xf16>>, %arg8: !iree_tensor_ext.dispatch.tensor<readonly:tensor<4x?x4x32xf16>>, %arg9: !iree_tensor_ext.dispatch.tensor<readonly:tensor<?x32xf16>>, %arg10: index, %arg11: index, %arg12: !iree_tensor_ext.dispatch.tensor<writeonly:tensor<4x?x4x2x32xf16>>) {
      %c0 = arith.constant 0 : index
      %2233 = iree_tensor_ext.dispatch.workload.ordinal %arg10, 0 : index
      %2234 = iree_tensor_ext.dispatch.workload.ordinal %arg11, 1 : index
      %2235 = iree_tensor_ext.dispatch.tensor.load %arg6, offsets = [0, 0, 0, 0], sizes = [4, %2233, 4, 32], strides = [1, 1, 1, 1] : !iree_tensor_ext.dispatch.tensor<readonly:tensor<4x?x4x32xf16>>{%2233} -> tensor<4x?x4x32xf16>
      %2236 = iree_tensor_ext.dispatch.tensor.load %arg7, offsets = [0, 0], sizes = [%2234, 32], strides = [1, 1] : !iree_tensor_ext.dispatch.tensor<readonly:tensor<?x32xf16>>{%2234} -> tensor<?x32xf16>
      %2237 = iree_tensor_ext.dispatch.tensor.load %arg8, offsets = [0, 0, 0, 0], sizes = [4, %2233, 4, 32], strides = [1, 1, 1, 1] : !iree_tensor_ext.dispatch.tensor<readonly:tensor<4x?x4x32xf16>>{%2233} -> tensor<4x?x4x32xf16>
      %2238 = iree_tensor_ext.dispatch.tensor.load %arg9, offsets = [0, 0], sizes = [%2234, 32], strides = [1, 1] : !iree_tensor_ext.dispatch.tensor<readonly:tensor<?x32xf16>>{%2234} -> tensor<?x32xf16>
      %2239 = tensor.empty(%2234) : tensor<4x?x4x2x32xf16>
      %2240 = linalg.generic {indexing_maps = [#map9, #map10, #map9, #map10, #map11], iterator_types = ["parallel", "parallel", "parallel", "parallel", "parallel"]} ins(%2235, %2236, %2237, %2238 : tensor<4x?x4x32xf16>, tensor<?x32xf16>, tensor<4x?x4x32xf16>, tensor<?x32xf16>) outs(%2239 : tensor<4x?x4x2x32xf16>) {
      ^bb0(%in: f16, %in_0: f16, %in_1: f16, %in_2: f16, %out: f16):
        %2241 = linalg.index 3 : index
        %2242 = arith.mulf %in, %in_2 : f16
        %2243 = arith.mulf %in_1, %in_0 : f16
        %2244 = arith.mulf %in_1, %in_2 : f16
        %2245 = arith.mulf %in, %in_0 : f16
        %2246 = arith.addf %2243, %2242 : f16
        %2247 = arith.subf %2245, %2244 : f16
        %2248 = arith.cmpi eq, %2241, %c0 : index
        %2249 = arith.select %2248, %2247, %2246 : f16
        linalg.yield %2249 : f16
      } -> tensor<4x?x4x2x32xf16>
      iree_tensor_ext.dispatch.tensor.store %2240, %arg12, offsets = [0, 0, 0, 0, 0], sizes = [4, %2234, 4, 2, 32], strides = [1, 1, 1, 1, 1] : tensor<4x?x4x2x32xf16> -> !iree_tensor_ext.dispatch.tensor<writeonly:tensor<4x?x4x2x32xf16>>{%2234}
      flow.return
    } count(%arg6: index, %arg7: index) -> (index, index, index) {
      %x, %y, %z = iree_tensor_ext.dispatch.workgroup_count_from_slice(%arg6, %arg7)
      flow.return %x, %y, %z : index, index, index
    }
    %279 = arith.muli %211, %c4 overflow<nsw> : index
    %280 = flow.tensor.reshape %212 : tensor<4x?xi64>{%211} -> tensor<?xi64>{%279}
    %281:2 = flow.dispatch.workgroups[%279](%279, %280) : (index, tensor<?xi64>{%279}) -> (tensor<?xi64>{%279}, tensor<?xi64>{%279}) =
        (%arg6: index, %arg7: !iree_tensor_ext.dispatch.tensor<readonly:tensor<?xi64>>, %arg8: !iree_tensor_ext.dispatch.tensor<writeonly:tensor<?xi64>>, %arg9: !iree_tensor_ext.dispatch.tensor<writeonly:tensor<?xi64>>) {
      %c44_i64 = arith.constant 44 : i64
      %c22_i64 = arith.constant 22 : i64
      %2233 = iree_tensor_ext.dispatch.workload.ordinal %arg6, 0 : index
      %2234 = iree_tensor_ext.dispatch.tensor.load %arg7, offsets = [0], sizes = [%2233], strides = [1] : !iree_tensor_ext.dispatch.tensor<readonly:tensor<?xi64>>{%2233} -> tensor<?xi64>
      %2235 = tensor.empty(%2233) : tensor<?xi64>
      %2236:2 = linalg.generic {indexing_maps = [#map2, #map2, #map2], iterator_types = ["parallel"]} ins(%2234 : tensor<?xi64>) outs(%2235, %2235 : tensor<?xi64>, tensor<?xi64>) {
      ^bb0(%in: i64, %out: i64, %out_0: i64):
        %2237 = arith.muli %in, %c22_i64 : i64
        %2238 = arith.muli %in, %c44_i64 : i64
        linalg.yield %2237, %2238 : i64, i64
      } -> (tensor<?xi64>, tensor<?xi64>)
      iree_tensor_ext.dispatch.tensor.store %2236#0, %arg8, offsets = [0], sizes = [%2233], strides = [1] : tensor<?xi64> -> !iree_tensor_ext.dispatch.tensor<writeonly:tensor<?xi64>>{%2233}
      iree_tensor_ext.dispatch.tensor.store %2236#1, %arg9, offsets = [0], sizes = [%2233], strides = [1] : tensor<?xi64> -> !iree_tensor_ext.dispatch.tensor<writeonly:tensor<?xi64>>{%2233}
      flow.return
    } count(%arg6: index) -> (index, index, index) {
      %x, %y, %z = iree_tensor_ext.dispatch.workgroup_count_from_slice(%arg6)
      flow.return %x, %y, %z : index, index, index
    }
    %282 = flow.tensor.reshape %281#1 : tensor<?xi64>{%279} -> tensor<4x?xi64>{%211}
    %283 = arith.muli %264, %c4 overflow<nsw> : index
    %284 = flow.tensor.reshape %278 : tensor<4x?x4x2x32xf16>{%265} -> tensor<?x32x4x64xf16>{%283}
    %285 = flow.dispatch.workgroups[%283](%283, %284) : (index, tensor<?x32x4x64xf16>{%283}) -> tensor<?x4x32x64xf16>{%283} =
        (%arg6: index, %arg7: !iree_tensor_ext.dispatch.tensor<readonly:tensor<?x32x4x64xf16>>, %arg8: !iree_tensor_ext.dispatch.tensor<writeonly:tensor<?x4x32x64xf16>>) {
      %2233 = iree_tensor_ext.dispatch.workload.ordinal %arg6, 0 : index
      %2234 = iree_tensor_ext.dispatch.tensor.load %arg7, offsets = [0, 0, 0, 0], sizes = [%2233, 32, 4, 64], strides = [1, 1, 1, 1] : !iree_tensor_ext.dispatch.tensor<readonly:tensor<?x32x4x64xf16>>{%2233} -> tensor<?x32x4x64xf16>
      %2235 = tensor.empty(%2233) : tensor<?x4x32x64xf16>
      %2236 = linalg.generic {indexing_maps = [#map12, #map13], iterator_types = ["parallel", "parallel", "parallel", "parallel"]} ins(%2234 : tensor<?x32x4x64xf16>) outs(%2235 : tensor<?x4x32x64xf16>) {
      ^bb0(%in: f16, %out: f16):
        linalg.yield %in : f16
      } -> tensor<?x4x32x64xf16>
      iree_tensor_ext.dispatch.tensor.store %2236, %arg8, offsets = [0, 0, 0, 0], sizes = [%2233, 4, 32, 64], strides = [1, 1, 1, 1] : tensor<?x4x32x64xf16> -> !iree_tensor_ext.dispatch.tensor<writeonly:tensor<?x4x32x64xf16>>{%2233}
      flow.return
    } count(%arg6: index) -> (index, index, index) {
      %x, %y, %z = iree_tensor_ext.dispatch.workgroup_count_from_slice(%arg6)
      flow.return %x, %y, %z : index, index, index
    }
    %286 = flow.tensor.reshape %285 : tensor<?x4x32x64xf16>{%283} -> tensor<4x?x4x32x2x1x32xf16>{%264}
    %287 = arith.muli %213, %c44 overflow<nsw> : index
    %288 = flow.tensor.reshape %214 : tensor<?x360448xf16>{%213} -> tensor<?x4x32x2x1x32xf16>{%287}
    %289 = flow.dispatch.workgroups[%264, %211, %287](%286, %282, %288, %264, %211, %287) : (tensor<4x?x4x32x2x1x32xf16>{%264}, tensor<4x?xi64>{%211}, tensor<?x4x32x2x1x32xf16>{%287}, index, index, index) -> %288{%287} =
        (%arg6: !iree_tensor_ext.dispatch.tensor<readonly:tensor<4x?x4x32x2x1x32xf16>>, %arg7: !iree_tensor_ext.dispatch.tensor<readonly:tensor<4x?xi64>>, %arg8: !iree_tensor_ext.dispatch.tensor<readwrite:tensor<?x4x32x2x1x32xf16>>, %arg9: index, %arg10: index, %arg11: index) {
      %2233 = iree_tensor_ext.dispatch.workload.ordinal %arg9, 0 : index
      %2234 = iree_tensor_ext.dispatch.workload.ordinal %arg10, 1 : index
      %2235 = iree_tensor_ext.dispatch.workload.ordinal %arg11, 2 : index
      %2236 = iree_tensor_ext.dispatch.tensor.load %arg6, offsets = [0, 0, 0, 0, 0, 0, 0], sizes = [4, %2233, 4, 32, 2, 1, 32], strides = [1, 1, 1, 1, 1, 1, 1] : !iree_tensor_ext.dispatch.tensor<readonly:tensor<4x?x4x32x2x1x32xf16>>{%2233} -> tensor<4x?x4x32x2x1x32xf16>
      %2237 = iree_tensor_ext.dispatch.tensor.load %arg7, offsets = [0, 0], sizes = [4, %2234], strides = [1, 1] : !iree_tensor_ext.dispatch.tensor<readonly:tensor<4x?xi64>>{%2234} -> tensor<4x?xi64>
      %2238 = iree_tensor_ext.dispatch.tensor.load %arg8, offsets = [0, 0, 0, 0, 0, 0], sizes = [%2235, 4, 32, 2, 1, 32], strides = [1, 1, 1, 1, 1, 1] : !iree_tensor_ext.dispatch.tensor<readwrite:tensor<?x4x32x2x1x32xf16>>{%2235} -> tensor<?x4x32x2x1x32xf16>
      %2239 = iree_linalg_ext.scatter dimension_map = [0] unique_indices(true) ins(%2236, %2237 : tensor<4x?x4x32x2x1x32xf16>, tensor<4x?xi64>) outs(%2238 : tensor<?x4x32x2x1x32xf16>) {
      ^bb0(%arg12: f16, %arg13: f16):
        iree_linalg_ext.yield %arg12 : f16
      } -> tensor<?x4x32x2x1x32xf16>
      iree_tensor_ext.dispatch.tensor.store %2239, %arg8, offsets = [0, 0, 0, 0, 0, 0], sizes = [%2235, 4, 32, 2, 1, 32], strides = [1, 1, 1, 1, 1, 1] : tensor<?x4x32x2x1x32xf16> -> !iree_tensor_ext.dispatch.tensor<readwrite:tensor<?x4x32x2x1x32xf16>>{%2235}
      flow.return
    } count(%arg6: index, %arg7: index, %arg8: index) -> (index, index, index) {
      %x, %y, %z = iree_tensor_ext.dispatch.workgroup_count_from_slice(%arg6, %arg7, %arg8)
      flow.return %x, %y, %z : index, index, index
    }
    %290 = flow.dispatch.workgroups[%279](%279, %281#1) : (index, tensor<?xi64>{%279}) -> tensor<?xi64>{%279} =
        (%arg6: index, %arg7: !iree_tensor_ext.dispatch.tensor<readonly:tensor<?xi64>>, %arg8: !iree_tensor_ext.dispatch.tensor<writeonly:tensor<?xi64>>) {
      %c1_i64 = arith.constant 1 : i64
      %2233 = iree_tensor_ext.dispatch.workload.ordinal %arg6, 0 : index
      %2234 = iree_tensor_ext.dispatch.tensor.load %arg7, offsets = [0], sizes = [%2233], strides = [1] : !iree_tensor_ext.dispatch.tensor<readonly:tensor<?xi64>>{%2233} -> tensor<?xi64>
      %2235 = tensor.empty(%2233) : tensor<?xi64>
      %2236 = linalg.generic {indexing_maps = [#map2, #map2], iterator_types = ["parallel"]} ins(%2234 : tensor<?xi64>) outs(%2235 : tensor<?xi64>) {
      ^bb0(%in: i64, %out: i64):
        %2237 = arith.addi %in, %c1_i64 : i64
        linalg.yield %2237 : i64
      } -> tensor<?xi64>
      iree_tensor_ext.dispatch.tensor.store %2236, %arg8, offsets = [0], sizes = [%2233], strides = [1] : tensor<?xi64> -> !iree_tensor_ext.dispatch.tensor<writeonly:tensor<?xi64>>{%2233}
      flow.return
    } count(%arg6: index) -> (index, index, index) {
      %x, %y, %z = iree_tensor_ext.dispatch.workgroup_count_from_slice(%arg6)
      flow.return %x, %y, %z : index, index, index
    }
    %291 = flow.tensor.reshape %290 : tensor<?xi64>{%279} -> tensor<4x?xi64>{%211}
    %292 = arith.muli %257, %c4 overflow<nsw> : index
    %293 = flow.tensor.reshape %256 : tensor<?x256xf16>{%223} -> tensor<?x32x4x64xf16>{%292}
    %294 = flow.dispatch.workgroups[%292](%292, %293) : (index, tensor<?x32x4x64xf16>{%292}) -> tensor<?x4x32x64xf16>{%292} =
        (%arg6: index, %arg7: !iree_tensor_ext.dispatch.tensor<readonly:tensor<?x32x4x64xf16>>, %arg8: !iree_tensor_ext.dispatch.tensor<writeonly:tensor<?x4x32x64xf16>>) {
      %2233 = iree_tensor_ext.dispatch.workload.ordinal %arg6, 0 : index
      %2234 = iree_tensor_ext.dispatch.tensor.load %arg7, offsets = [0, 0, 0, 0], sizes = [%2233, 32, 4, 64], strides = [1, 1, 1, 1] : !iree_tensor_ext.dispatch.tensor<readonly:tensor<?x32x4x64xf16>>{%2233} -> tensor<?x32x4x64xf16>
      %2235 = tensor.empty(%2233) : tensor<?x4x32x64xf16>
      %2236 = linalg.generic {indexing_maps = [#map12, #map13], iterator_types = ["parallel", "parallel", "parallel", "parallel"]} ins(%2234 : tensor<?x32x4x64xf16>) outs(%2235 : tensor<?x4x32x64xf16>) {
      ^bb0(%in: f16, %out: f16):
        linalg.yield %in : f16
      } -> tensor<?x4x32x64xf16>
      iree_tensor_ext.dispatch.tensor.store %2236, %arg8, offsets = [0, 0, 0, 0], sizes = [%2233, 4, 32, 64], strides = [1, 1, 1, 1] : tensor<?x4x32x64xf16> -> !iree_tensor_ext.dispatch.tensor<writeonly:tensor<?x4x32x64xf16>>{%2233}
      flow.return
    } count(%arg6: index) -> (index, index, index) {
      %x, %y, %z = iree_tensor_ext.dispatch.workgroup_count_from_slice(%arg6)
      flow.return %x, %y, %z : index, index, index
    }
    %295 = flow.tensor.reshape %294 : tensor<?x4x32x64xf16>{%292} -> tensor<4x?x4x32x2x1x32xf16>{%257}
    %296 = flow.dispatch.workgroups[%257, %211, %287](%295, %291, %289, %257, %211, %287) : (tensor<4x?x4x32x2x1x32xf16>{%257}, tensor<4x?xi64>{%211}, tensor<?x4x32x2x1x32xf16>{%287}, index, index, index) -> %289{%287} =
        (%arg6: !iree_tensor_ext.dispatch.tensor<readonly:tensor<4x?x4x32x2x1x32xf16>>, %arg7: !iree_tensor_ext.dispatch.tensor<readonly:tensor<4x?xi64>>, %arg8: !iree_tensor_ext.dispatch.tensor<readwrite:tensor<?x4x32x2x1x32xf16>>, %arg9: index, %arg10: index, %arg11: index) {
      %2233 = iree_tensor_ext.dispatch.workload.ordinal %arg9, 0 : index
      %2234 = iree_tensor_ext.dispatch.workload.ordinal %arg10, 1 : index
      %2235 = iree_tensor_ext.dispatch.workload.ordinal %arg11, 2 : index
      %2236 = iree_tensor_ext.dispatch.tensor.load %arg6, offsets = [0, 0, 0, 0, 0, 0, 0], sizes = [4, %2233, 4, 32, 2, 1, 32], strides = [1, 1, 1, 1, 1, 1, 1] : !iree_tensor_ext.dispatch.tensor<readonly:tensor<4x?x4x32x2x1x32xf16>>{%2233} -> tensor<4x?x4x32x2x1x32xf16>
      %2237 = iree_tensor_ext.dispatch.tensor.load %arg7, offsets = [0, 0], sizes = [4, %2234], strides = [1, 1] : !iree_tensor_ext.dispatch.tensor<readonly:tensor<4x?xi64>>{%2234} -> tensor<4x?xi64>
      %2238 = iree_tensor_ext.dispatch.tensor.load %arg8, offsets = [0, 0, 0, 0, 0, 0], sizes = [%2235, 4, 32, 2, 1, 32], strides = [1, 1, 1, 1, 1, 1] : !iree_tensor_ext.dispatch.tensor<readwrite:tensor<?x4x32x2x1x32xf16>>{%2235} -> tensor<?x4x32x2x1x32xf16>
      %2239 = iree_linalg_ext.scatter dimension_map = [0] unique_indices(true) ins(%2236, %2237 : tensor<4x?x4x32x2x1x32xf16>, tensor<4x?xi64>) outs(%2238 : tensor<?x4x32x2x1x32xf16>) {
      ^bb0(%arg12: f16, %arg13: f16):
        iree_linalg_ext.yield %arg12 : f16
      } -> tensor<?x4x32x2x1x32xf16>
      iree_tensor_ext.dispatch.tensor.store %2239, %arg8, offsets = [0, 0, 0, 0, 0, 0], sizes = [%2235, 4, 32, 2, 1, 32], strides = [1, 1, 1, 1, 1, 1] : tensor<?x4x32x2x1x32xf16> -> !iree_tensor_ext.dispatch.tensor<readwrite:tensor<?x4x32x2x1x32xf16>>{%2235}
      flow.return
    } count(%arg6: index, %arg7: index, %arg8: index) -> (index, index, index) {
      %x, %y, %z = iree_tensor_ext.dispatch.workgroup_count_from_slice(%arg6, %arg7, %arg8)
      flow.return %x, %y, %z : index, index, index
    }
    %297 = flow.dispatch.workgroups[%275, %265](%271, %276, %272, %277, %275, %265) : (tensor<4x?x32x32xf16>{%275}, tensor<?x32xf16>{%265}, tensor<4x?x32x32xf16>{%275}, tensor<?x32xf16>{%265}, index, index) -> tensor<4x32x?x2x32xf16>{%265} =
        (%arg6: !iree_tensor_ext.dispatch.tensor<readonly:tensor<4x?x32x32xf16>>, %arg7: !iree_tensor_ext.dispatch.tensor<readonly:tensor<?x32xf16>>, %arg8: !iree_tensor_ext.dispatch.tensor<readonly:tensor<4x?x32x32xf16>>, %arg9: !iree_tensor_ext.dispatch.tensor<readonly:tensor<?x32xf16>>, %arg10: index, %arg11: index, %arg12: !iree_tensor_ext.dispatch.tensor<writeonly:tensor<4x32x?x2x32xf16>>) {
      %c0 = arith.constant 0 : index
      %2233 = iree_tensor_ext.dispatch.workload.ordinal %arg10, 0 : index
      %2234 = iree_tensor_ext.dispatch.workload.ordinal %arg11, 1 : index
      %2235 = iree_tensor_ext.dispatch.tensor.load %arg6, offsets = [0, 0, 0, 0], sizes = [4, %2233, 32, 32], strides = [1, 1, 1, 1] : !iree_tensor_ext.dispatch.tensor<readonly:tensor<4x?x32x32xf16>>{%2233} -> tensor<4x?x32x32xf16>
      %2236 = iree_tensor_ext.dispatch.tensor.load %arg7, offsets = [0, 0], sizes = [%2234, 32], strides = [1, 1] : !iree_tensor_ext.dispatch.tensor<readonly:tensor<?x32xf16>>{%2234} -> tensor<?x32xf16>
      %2237 = iree_tensor_ext.dispatch.tensor.load %arg8, offsets = [0, 0, 0, 0], sizes = [4, %2233, 32, 32], strides = [1, 1, 1, 1] : !iree_tensor_ext.dispatch.tensor<readonly:tensor<4x?x32x32xf16>>{%2233} -> tensor<4x?x32x32xf16>
      %2238 = iree_tensor_ext.dispatch.tensor.load %arg9, offsets = [0, 0], sizes = [%2234, 32], strides = [1, 1] : !iree_tensor_ext.dispatch.tensor<readonly:tensor<?x32xf16>>{%2234} -> tensor<?x32xf16>
      %2239 = tensor.empty(%2234) : tensor<4x32x?x2x32xf16>
      %2240 = linalg.generic {indexing_maps = [#map14, #map15, #map14, #map15, #map11], iterator_types = ["parallel", "parallel", "parallel", "parallel", "parallel"]} ins(%2235, %2236, %2237, %2238 : tensor<4x?x32x32xf16>, tensor<?x32xf16>, tensor<4x?x32x32xf16>, tensor<?x32xf16>) outs(%2239 : tensor<4x32x?x2x32xf16>) {
      ^bb0(%in: f16, %in_0: f16, %in_1: f16, %in_2: f16, %out: f16):
        %2241 = linalg.index 3 : index
        %2242 = arith.mulf %in, %in_2 : f16
        %2243 = arith.mulf %in_1, %in_0 : f16
        %2244 = arith.mulf %in_1, %in_2 : f16
        %2245 = arith.mulf %in, %in_0 : f16
        %2246 = arith.addf %2243, %2242 : f16
        %2247 = arith.subf %2245, %2244 : f16
        %2248 = arith.cmpi eq, %2241, %c0 : index
        %2249 = arith.select %2248, %2247, %2246 : f16
        linalg.yield %2249 : f16
      } -> tensor<4x32x?x2x32xf16>
      iree_tensor_ext.dispatch.tensor.store %2240, %arg12, offsets = [0, 0, 0, 0, 0], sizes = [4, 32, %2234, 2, 32], strides = [1, 1, 1, 1, 1] : tensor<4x32x?x2x32xf16> -> !iree_tensor_ext.dispatch.tensor<writeonly:tensor<4x32x?x2x32xf16>>{%2234}
      flow.return
    } count(%arg6: index, %arg7: index) -> (index, index, index) {
      %x, %y, %z = iree_tensor_ext.dispatch.workgroup_count_from_slice(%arg6, %arg7)
      flow.return %x, %y, %z : index, index, index
    }
    %298 = arith.muli %264, %264 overflow<nsw> : index
    %299 = arith.muli %298, %c32768 overflow<nsw> : index
    %300 = flow.dispatch.workgroups[%299, %264](%299, %264, %203) : (index, index, tensor<4xi64>) -> tensor<4x?xf16>{%299} =
        (%arg6: index, %arg7: index, %arg8: !iree_tensor_ext.dispatch.tensor<readonly:tensor<4xi64>>, %arg9: !iree_tensor_ext.dispatch.tensor<writeonly:tensor<4x?xf16>>) {
      %cst = arith.constant 0xFC00 : f16
      %cst_0 = arith.constant 0.000000e+00 : f16
      %c32_1 = arith.constant 32 : index
      %2233 = iree_tensor_ext.dispatch.workload.ordinal %arg6, 0 : index
      %2234 = iree_tensor_ext.dispatch.workload.ordinal %arg7, 1 : index
      %2235 = iree_tensor_ext.dispatch.tensor.load %arg8, offsets = [0], sizes = [4], strides = [1] : !iree_tensor_ext.dispatch.tensor<readonly:tensor<4xi64>> -> tensor<4xi64>
      %2236 = tensor.empty(%2233) : tensor<4x?xf16>
      %2237 = linalg.generic {indexing_maps = [#map, #map1], iterator_types = ["parallel", "parallel"]} ins(%2235 : tensor<4xi64>) outs(%2236 : tensor<4x?xf16>) {
      ^bb0(%in: i64, %out: f16):
        %2238 = linalg.index 1 : index
        %2239 = arith.remsi %2238, %c32_1 : index
        %2240 = arith.divsi %2238, %c32_1 : index
        %2241 = arith.remsi %2240, %2234 : index
        %2242 = arith.divsi %2240, %2234 : index
        %2243 = arith.remsi %2242, %c32_1 : index
        %2244 = arith.divsi %2242, %c32_1 : index
        %2245 = arith.remsi %2244, %2234 : index
        %2246 = arith.muli %2241, %c32_1 overflow<nsw> : index
        %2247 = arith.addi %2239, %2246 : index
        %2248 = arith.index_cast %2247 : index to i64
        %2249 = arith.cmpi sge, %2248, %in : i64
        %2250 = arith.muli %2245, %c32_1 overflow<nsw> : index
        %2251 = arith.addi %2243, %2250 : index
        %2252 = arith.index_cast %2251 : index to i64
        %2253 = arith.cmpi sgt, %2248, %2252 : i64
        %2254 = arith.ori %2253, %2249 : i1
        %2255 = arith.select %2254, %cst, %cst_0 : f16
        linalg.yield %2255 : f16
      } -> tensor<4x?xf16>
      iree_tensor_ext.dispatch.tensor.store %2237, %arg9, offsets = [0, 0], sizes = [4, %2233], strides = [1, 1] : tensor<4x?xf16> -> !iree_tensor_ext.dispatch.tensor<writeonly:tensor<4x?xf16>>{%2233}
      flow.return
    } count(%arg6: index, %arg7: index) -> (index, index, index) {
      %x, %y, %z = iree_tensor_ext.dispatch.workgroup_count_from_slice(%arg6, %arg7)
      flow.return %x, %y, %z : index, index, index
    }
    %301 = flow.tensor.reshape %297 : tensor<4x32x?x2x32xf16>{%265} -> tensor<4x4x8x?x64xf16>{%265}
    %302 = flow.tensor.reshape %278 : tensor<4x?x4x2x32xf16>{%265} -> tensor<4x?x4x64xf16>{%265}
    %303 = flow.tensor.reshape %256 : tensor<?x256xf16>{%223} -> tensor<4x?x4x64xf16>{%209}
    %304 = flow.tensor.reshape %300 : tensor<4x?xf16>{%299} -> tensor<4x4x8x?x?xf16>{%265, %265}
    %305 = flow.dispatch.workgroups[%265, %209](%265, %301, %302, %303, %304, %209) : (index, tensor<4x4x8x?x64xf16>{%265}, tensor<4x?x4x64xf16>{%265}, tensor<4x?x4x64xf16>{%209}, tensor<4x4x8x?x?xf16>{%265, %265}, index) -> tensor<4x?x4x8x64xf16>{%265} =
        (%arg6: index, %arg7: !iree_tensor_ext.dispatch.tensor<readonly:tensor<4x4x8x?x64xf16>>, %arg8: !iree_tensor_ext.dispatch.tensor<readonly:tensor<4x?x4x64xf16>>, %arg9: !iree_tensor_ext.dispatch.tensor<readonly:tensor<4x?x4x64xf16>>, %arg10: !iree_tensor_ext.dispatch.tensor<readonly:tensor<4x4x8x?x?xf16>>, %arg11: index, %arg12: !iree_tensor_ext.dispatch.tensor<writeonly:tensor<4x?x4x8x64xf16>>) {
      %cst = arith.constant 1.250000e-01 : f16
      %2233 = iree_tensor_ext.dispatch.workload.ordinal %arg6, 0 : index
      %2234 = iree_tensor_ext.dispatch.workload.ordinal %arg11, 1 : index
      %2235 = iree_tensor_ext.dispatch.tensor.load %arg7, offsets = [0, 0, 0, 0, 0], sizes = [4, 4, 8, %2233, 64], strides = [1, 1, 1, 1, 1] : !iree_tensor_ext.dispatch.tensor<readonly:tensor<4x4x8x?x64xf16>>{%2233} -> tensor<4x4x8x?x64xf16>
      %2236 = iree_tensor_ext.dispatch.tensor.load %arg8, offsets = [0, 0, 0, 0], sizes = [4, %2233, 4, 64], strides = [1, 1, 1, 1] : !iree_tensor_ext.dispatch.tensor<readonly:tensor<4x?x4x64xf16>>{%2233} -> tensor<4x?x4x64xf16>
      %2237 = iree_tensor_ext.dispatch.tensor.load %arg9, offsets = [0, 0, 0, 0], sizes = [4, %2234, 4, 64], strides = [1, 1, 1, 1] : !iree_tensor_ext.dispatch.tensor<readonly:tensor<4x?x4x64xf16>>{%2234} -> tensor<4x?x4x64xf16>
      %2238 = iree_tensor_ext.dispatch.tensor.load %arg10, offsets = [0, 0, 0, 0, 0], sizes = [4, 4, 8, %2233, %2233], strides = [1, 1, 1, 1, 1] : !iree_tensor_ext.dispatch.tensor<readonly:tensor<4x4x8x?x?xf16>>{%2233, %2233} -> tensor<4x4x8x?x?xf16>
      %2239 = tensor.empty(%2233) : tensor<4x4x8x?x64xf16>
      %2240 = iree_linalg_ext.attention {indexing_maps = [#map16, #map17, #map18, #map19, #map20, #map21]} ins(%2235, %2236, %2237, %cst, %2238 : tensor<4x4x8x?x64xf16>, tensor<4x?x4x64xf16>, tensor<4x?x4x64xf16>, f16, tensor<4x4x8x?x?xf16>) outs(%2239 : tensor<4x4x8x?x64xf16>) {
      ^bb0(%arg13: f32):
        iree_linalg_ext.yield %arg13 : f32
      } -> tensor<4x4x8x?x64xf16>
      %2241 = tensor.empty(%2233) : tensor<4x?x4x8x64xf16>
      %2242 = linalg.generic {indexing_maps = [#map11, #map22], iterator_types = ["parallel", "parallel", "parallel", "parallel", "parallel"]} ins(%2240 : tensor<4x4x8x?x64xf16>) outs(%2241 : tensor<4x?x4x8x64xf16>) {
      ^bb0(%in: f16, %out: f16):
        linalg.yield %in : f16
      } -> tensor<4x?x4x8x64xf16>
      iree_tensor_ext.dispatch.tensor.store %2242, %arg12, offsets = [0, 0, 0, 0, 0], sizes = [4, %2233, 4, 8, 64], strides = [1, 1, 1, 1, 1] : tensor<4x?x4x8x64xf16> -> !iree_tensor_ext.dispatch.tensor<writeonly:tensor<4x?x4x8x64xf16>>{%2233}
      flow.return
    } count(%arg6: index, %arg7: index) -> (index, index, index) {
      %x, %y, %z = iree_tensor_ext.dispatch.workgroup_count_from_slice(%arg6, %arg7)
      flow.return %x, %y, %z : index, index, index
    }
    %306 = flow.tensor.bitcast %195 : tensor<2048x2176xi8> -> tensor<2048x64x17xi16>
    %307 = flow.tensor.bitcast %195 : tensor<2048x2176xi8> -> tensor<2048x64x1x17xi16>
    %308 = flow.dispatch.workgroups(%307) : (tensor<2048x64x1x17xi16>) -> tensor<2048x64x1xi16> =
        (%arg6: !iree_tensor_ext.dispatch.tensor<readonly:tensor<2048x64x1x17xi16>>, %arg7: !iree_tensor_ext.dispatch.tensor<writeonly:tensor<2048x64x1xi16>>) {
      %2233 = iree_tensor_ext.dispatch.tensor.load %arg6, offsets = [0, 0, 0, 0], sizes = [2048, 64, 1, 1], strides = [1, 1, 1, 1] : !iree_tensor_ext.dispatch.tensor<readonly:tensor<2048x64x1x17xi16>> -> tensor<2048x64x1xi16>
      iree_tensor_ext.dispatch.tensor.store %2233, %arg7, offsets = [0, 0, 0], sizes = [2048, 64, 1], strides = [1, 1, 1] : tensor<2048x64x1xi16> -> !iree_tensor_ext.dispatch.tensor<writeonly:tensor<2048x64x1xi16>>
      flow.return
    } count() -> (index, index, index) {
      %x, %y, %z = iree_tensor_ext.dispatch.workgroup_count_from_slice()
      flow.return %x, %y, %z : index, index, index
    }
    %309 = flow.dispatch.workgroups(%306) : (tensor<2048x64x17xi16>) -> tensor<2048x64x16xi16> =
        (%arg6: !iree_tensor_ext.dispatch.tensor<readonly:tensor<2048x64x17xi16>>, %arg7: !iree_tensor_ext.dispatch.tensor<writeonly:tensor<2048x64x16xi16>>) {
      %2233 = iree_tensor_ext.dispatch.tensor.load %arg6, offsets = [0, 0, 1], sizes = [2048, 64, 16], strides = [1, 1, 1] : !iree_tensor_ext.dispatch.tensor<readonly:tensor<2048x64x17xi16>> -> tensor<2048x64x16xi16>
      iree_tensor_ext.dispatch.tensor.store %2233, %arg7, offsets = [0, 0, 0], sizes = [2048, 64, 16], strides = [1, 1, 1] : tensor<2048x64x16xi16> -> !iree_tensor_ext.dispatch.tensor<writeonly:tensor<2048x64x16xi16>>
      flow.return
    } count() -> (index, index, index) {
      %x, %y, %z = iree_tensor_ext.dispatch.workgroup_count_from_slice()
      flow.return %x, %y, %z : index, index, index
    }
    %310 = flow.tensor.bitcast %309 : tensor<2048x64x16xi16> -> tensor<2048x64x32xi8>
    %311 = flow.tensor.bitcast %308 : tensor<2048x64x1xi16> -> tensor<2048x64xf16>
    %312 = flow.tensor.reshape %305 : tensor<4x?x4x8x64xf16>{%265} -> tensor<?x64x32xf16>{%223}
    %313 = flow.dispatch.workgroups[%223](%311, %310, %223, %312, %225) : (tensor<2048x64xf16>, tensor<2048x64x32xi8>, index, tensor<?x64x32xf16>{%223}, tensor<?x2048xf16>{%223}) -> tensor<?x2048xf16>{%223} =
        (%arg6: !iree_tensor_ext.dispatch.tensor<readonly:tensor<2048x64xf16>>, %arg7: !iree_tensor_ext.dispatch.tensor<readonly:tensor<2048x64x32xi8>>, %arg8: index, %arg9: !iree_tensor_ext.dispatch.tensor<readonly:tensor<?x64x32xf16>>, %arg10: !iree_tensor_ext.dispatch.tensor<readonly:tensor<?x2048xf16>>, %arg11: !iree_tensor_ext.dispatch.tensor<writeonly:tensor<?x2048xf16>>) {
      %cst = arith.constant 0.000000e+00 : f32
      %2233 = iree_tensor_ext.dispatch.workload.ordinal %arg8, 0 : index
      %2234 = iree_tensor_ext.dispatch.tensor.load %arg6, offsets = [0, 0], sizes = [2048, 64], strides = [1, 1] : !iree_tensor_ext.dispatch.tensor<readonly:tensor<2048x64xf16>> -> tensor<2048x64xf16>
      %2235 = iree_tensor_ext.dispatch.tensor.load %arg7, offsets = [0, 0, 0], sizes = [2048, 64, 32], strides = [1, 1, 1] : !iree_tensor_ext.dispatch.tensor<readonly:tensor<2048x64x32xi8>> -> tensor<2048x64x32xi8>
      %2236 = iree_tensor_ext.dispatch.tensor.load %arg9, offsets = [0, 0, 0], sizes = [%2233, 64, 32], strides = [1, 1, 1] : !iree_tensor_ext.dispatch.tensor<readonly:tensor<?x64x32xf16>>{%2233} -> tensor<?x64x32xf16>
      %2237 = iree_tensor_ext.dispatch.tensor.load %arg10, offsets = [0, 0], sizes = [%2233, 2048], strides = [1, 1] : !iree_tensor_ext.dispatch.tensor<readonly:tensor<?x2048xf16>>{%2233} -> tensor<?x2048xf16>
      %2238 = tensor.empty() : tensor<2048x64x32xf16>
      %2239 = linalg.generic {indexing_maps = [#map4, #map5, #map5], iterator_types = ["parallel", "parallel", "parallel"]} ins(%2234, %2235 : tensor<2048x64xf16>, tensor<2048x64x32xi8>) outs(%2238 : tensor<2048x64x32xf16>) {
      ^bb0(%in: f16, %in_0: i8, %out: f16):
        %2245 = arith.extsi %in_0 : i8 to i32
        %2246 = arith.sitofp %2245 : i32 to f16
        %2247 = arith.mulf %2246, %in : f16
        linalg.yield %2247 : f16
      } -> tensor<2048x64x32xf16>
      %2240 = tensor.empty(%2233) : tensor<?x2048xf32>
      %2241 = linalg.fill ins(%cst : f32) outs(%2240 : tensor<?x2048xf32>) -> tensor<?x2048xf32>
      %2242 = linalg.generic {indexing_maps = [#map6, #map7, #map8], iterator_types = ["parallel", "parallel", "reduction", "reduction"]} ins(%2236, %2239 : tensor<?x64x32xf16>, tensor<2048x64x32xf16>) outs(%2241 : tensor<?x2048xf32>) {
      ^bb0(%in: f16, %in_0: f16, %out: f32):
        %2245 = arith.mulf %in, %in_0 : f16
        %2246 = arith.extf %2245 : f16 to f32
        %2247 = arith.addf %2246, %out : f32
        linalg.yield %2247 : f32
      } -> tensor<?x2048xf32>
      %2243 = tensor.empty(%2233) : tensor<?x2048xf16>
      %2244 = linalg.generic {indexing_maps = [#map1, #map1, #map1], iterator_types = ["parallel", "parallel"]} ins(%2237, %2242 : tensor<?x2048xf16>, tensor<?x2048xf32>) outs(%2243 : tensor<?x2048xf16>) {
      ^bb0(%in: f16, %in_0: f32, %out: f16):
        %2245 = arith.truncf %in_0 : f32 to f16
        %2246 = arith.addf %in, %2245 : f16
        linalg.yield %2246 : f16
      } -> tensor<?x2048xf16>
      iree_tensor_ext.dispatch.tensor.store %2244, %arg11, offsets = [0, 0], sizes = [%2233, 2048], strides = [1, 1] : tensor<?x2048xf16> -> !iree_tensor_ext.dispatch.tensor<writeonly:tensor<?x2048xf16>>{%2233}
      flow.return
    } count(%arg6: index) -> (index, index, index) {
      %x, %y, %z = iree_tensor_ext.dispatch.workgroup_count_from_slice(%arg6)
      flow.return %x, %y, %z : index, index, index
    }
    %314 = flow.tensor.reshape %313 : tensor<?x2048xf16>{%223} -> tensor<?xf16>{%226}
    %315 = flow.dispatch.workgroups[%226](%226, %314) : (index, tensor<?xf16>{%226}) -> tensor<?xf32>{%226} =
        (%arg6: index, %arg7: !iree_tensor_ext.dispatch.tensor<readonly:tensor<?xf16>>, %arg8: !iree_tensor_ext.dispatch.tensor<writeonly:tensor<?xf32>>) {
      %2233 = iree_tensor_ext.dispatch.workload.ordinal %arg6, 0 : index
      %2234 = iree_tensor_ext.dispatch.tensor.load %arg7, offsets = [0], sizes = [%2233], strides = [1] : !iree_tensor_ext.dispatch.tensor<readonly:tensor<?xf16>>{%2233} -> tensor<?xf16>
      %2235 = tensor.empty(%2233) : tensor<?xf32>
      %2236 = linalg.generic {indexing_maps = [#map2, #map2], iterator_types = ["parallel"]} ins(%2234 : tensor<?xf16>) outs(%2235 : tensor<?xf32>) {
      ^bb0(%in: f16, %out: f32):
        %2237 = arith.extf %in : f16 to f32
        linalg.yield %2237 : f32
      } -> tensor<?xf32>
      iree_tensor_ext.dispatch.tensor.store %2236, %arg8, offsets = [0], sizes = [%2233], strides = [1] : tensor<?xf32> -> !iree_tensor_ext.dispatch.tensor<writeonly:tensor<?xf32>>{%2233}
      flow.return
    } count(%arg6: index) -> (index, index, index) {
      %x, %y, %z = iree_tensor_ext.dispatch.workgroup_count_from_slice(%arg6)
      flow.return %x, %y, %z : index, index, index
    }
    %316 = flow.dispatch.workgroups[%223](%223, %313) : (index, tensor<?x2048xf16>{%223}) -> tensor<?xf32>{%223} =
        (%arg6: index, %arg7: !iree_tensor_ext.dispatch.tensor<readonly:tensor<?x2048xf16>>, %arg8: !iree_tensor_ext.dispatch.tensor<writeonly:tensor<?xf32>>) {
      %c2_i64 = arith.constant 2 : i64
      %cst = arith.constant 0.000000e+00 : f32
      %2233 = iree_tensor_ext.dispatch.workload.ordinal %arg6, 0 : index
      %2234 = iree_tensor_ext.dispatch.tensor.load %arg7, offsets = [0, 0], sizes = [%2233, 2048], strides = [1, 1] : !iree_tensor_ext.dispatch.tensor<readonly:tensor<?x2048xf16>>{%2233} -> tensor<?x2048xf16>
      %2235 = tensor.empty(%2233) : tensor<?xf32>
      %2236 = linalg.fill ins(%cst : f32) outs(%2235 : tensor<?xf32>) -> tensor<?xf32>
      %2237 = tensor.empty(%2233) : tensor<?x2048xf32>
      %2238 = linalg.generic {indexing_maps = [#map1, #map1], iterator_types = ["parallel", "parallel"]} ins(%2234 : tensor<?x2048xf16>) outs(%2237 : tensor<?x2048xf32>) {
      ^bb0(%in: f16, %out: f32):
        %2240 = arith.extf %in : f16 to f32
        linalg.yield %2240 : f32
      } -> tensor<?x2048xf32>
      %2239 = linalg.generic {indexing_maps = [#map1, #map], iterator_types = ["parallel", "reduction"]} ins(%2238 : tensor<?x2048xf32>) outs(%2236 : tensor<?xf32>) {
      ^bb0(%in: f32, %out: f32):
        %2240 = math.fpowi %in, %c2_i64 : f32, i64
        %2241 = arith.addf %2240, %out : f32
        linalg.yield %2241 : f32
      } -> tensor<?xf32>
      iree_tensor_ext.dispatch.tensor.store %2239, %arg8, offsets = [0], sizes = [%2233], strides = [1] : tensor<?xf32> -> !iree_tensor_ext.dispatch.tensor<writeonly:tensor<?xf32>>{%2233}
      flow.return
    } count(%arg6: index) -> (index, index, index) {
      %x, %y, %z = iree_tensor_ext.dispatch.workgroup_count_from_slice(%arg6)
      flow.return %x, %y, %z : index, index, index
    }
    %317 = flow.tensor.reshape %315 : tensor<?xf32>{%226} -> tensor<?x2048xf32>{%223}
    %318 = flow.dispatch.workgroups[%223](%223, %317, %316) : (index, tensor<?x2048xf32>{%223}, tensor<?xf32>{%223}) -> tensor<?x2048xf16>{%223} =
        (%arg6: index, %arg7: !iree_tensor_ext.dispatch.tensor<readonly:tensor<?x2048xf32>>, %arg8: !iree_tensor_ext.dispatch.tensor<readonly:tensor<?xf32>>, %arg9: !iree_tensor_ext.dispatch.tensor<writeonly:tensor<?x2048xf16>>) {
      %cst = arith.constant 9.99999974E-6 : f32
      %cst_0 = arith.constant 2.048000e+03 : f32
      %2233 = iree_tensor_ext.dispatch.workload.ordinal %arg6, 0 : index
      %2234 = iree_tensor_ext.dispatch.tensor.load %arg7, offsets = [0, 0], sizes = [%2233, 2048], strides = [1, 1] : !iree_tensor_ext.dispatch.tensor<readonly:tensor<?x2048xf32>>{%2233} -> tensor<?x2048xf32>
      %2235 = iree_tensor_ext.dispatch.tensor.load %arg8, offsets = [0], sizes = [%2233], strides = [1] : !iree_tensor_ext.dispatch.tensor<readonly:tensor<?xf32>>{%2233} -> tensor<?xf32>
      %2236 = tensor.empty(%2233) : tensor<?x2048xf16>
      %2237 = linalg.generic {indexing_maps = [#map1, #map, #map1], iterator_types = ["parallel", "parallel"]} ins(%2234, %2235 : tensor<?x2048xf32>, tensor<?xf32>) outs(%2236 : tensor<?x2048xf16>) {
      ^bb0(%in: f32, %in_1: f32, %out: f16):
        %2238 = arith.divf %in_1, %cst_0 : f32
        %2239 = arith.addf %2238, %cst : f32
        %2240 = math.rsqrt %2239 : f32
        %2241 = arith.mulf %in, %2240 : f32
        %2242 = arith.truncf %2241 : f32 to f16
        linalg.yield %2242 : f16
      } -> tensor<?x2048xf16>
      iree_tensor_ext.dispatch.tensor.store %2237, %arg9, offsets = [0, 0], sizes = [%2233, 2048], strides = [1, 1] : tensor<?x2048xf16> -> !iree_tensor_ext.dispatch.tensor<writeonly:tensor<?x2048xf16>>{%2233}
      flow.return
    } count(%arg6: index) -> (index, index, index) {
      %x, %y, %z = iree_tensor_ext.dispatch.workgroup_count_from_slice(%arg6)
      flow.return %x, %y, %z : index, index, index
    }
    %319 = flow.dispatch.workgroups[%223](%223, %194, %318) : (index, tensor<2048xf32>, tensor<?x2048xf16>{%223}) -> tensor<?x2048xf16>{%223} =
        (%arg6: index, %arg7: !iree_tensor_ext.dispatch.tensor<readonly:tensor<2048xf32>>, %arg8: !iree_tensor_ext.dispatch.tensor<readonly:tensor<?x2048xf16>>, %arg9: !iree_tensor_ext.dispatch.tensor<writeonly:tensor<?x2048xf16>>) {
      %2233 = iree_tensor_ext.dispatch.workload.ordinal %arg6, 0 : index
      %2234 = iree_tensor_ext.dispatch.tensor.load %arg7, offsets = [0], sizes = [2048], strides = [1] : !iree_tensor_ext.dispatch.tensor<readonly:tensor<2048xf32>> -> tensor<2048xf32>
      %2235 = iree_tensor_ext.dispatch.tensor.load %arg8, offsets = [0, 0], sizes = [%2233, 2048], strides = [1, 1] : !iree_tensor_ext.dispatch.tensor<readonly:tensor<?x2048xf16>>{%2233} -> tensor<?x2048xf16>
      %2236 = tensor.empty(%2233) : tensor<?x2048xf16>
      %2237 = linalg.generic {indexing_maps = [#map3, #map1, #map1], iterator_types = ["parallel", "parallel"]} ins(%2234, %2235 : tensor<2048xf32>, tensor<?x2048xf16>) outs(%2236 : tensor<?x2048xf16>) {
      ^bb0(%in: f32, %in_0: f16, %out: f16):
        %2238 = arith.extf %in_0 : f16 to f32
        %2239 = arith.mulf %in, %2238 : f32
        %2240 = arith.truncf %2239 : f32 to f16
        linalg.yield %2240 : f16
      } -> tensor<?x2048xf16>
      iree_tensor_ext.dispatch.tensor.store %2237, %arg9, offsets = [0, 0], sizes = [%2233, 2048], strides = [1, 1] : tensor<?x2048xf16> -> !iree_tensor_ext.dispatch.tensor<writeonly:tensor<?x2048xf16>>{%2233}
      flow.return
    } count(%arg6: index) -> (index, index, index) {
      %x, %y, %z = iree_tensor_ext.dispatch.workgroup_count_from_slice(%arg6)
      flow.return %x, %y, %z : index, index, index
    }
    %320 = flow.tensor.bitcast %193 : tensor<5632x2176xi8> -> tensor<5632x64x17xi16>
    %321 = flow.tensor.bitcast %193 : tensor<5632x2176xi8> -> tensor<5632x64x1x17xi16>
    %322 = flow.dispatch.workgroups(%321) : (tensor<5632x64x1x17xi16>) -> tensor<5632x64x1xi16> =
        (%arg6: !iree_tensor_ext.dispatch.tensor<readonly:tensor<5632x64x1x17xi16>>, %arg7: !iree_tensor_ext.dispatch.tensor<writeonly:tensor<5632x64x1xi16>>) {
      %2233 = iree_tensor_ext.dispatch.tensor.load %arg6, offsets = [0, 0, 0, 0], sizes = [5632, 64, 1, 1], strides = [1, 1, 1, 1] : !iree_tensor_ext.dispatch.tensor<readonly:tensor<5632x64x1x17xi16>> -> tensor<5632x64x1xi16>
      iree_tensor_ext.dispatch.tensor.store %2233, %arg7, offsets = [0, 0, 0], sizes = [5632, 64, 1], strides = [1, 1, 1] : tensor<5632x64x1xi16> -> !iree_tensor_ext.dispatch.tensor<writeonly:tensor<5632x64x1xi16>>
      flow.return
    } count() -> (index, index, index) {
      %x, %y, %z = iree_tensor_ext.dispatch.workgroup_count_from_slice()
      flow.return %x, %y, %z : index, index, index
    }
    %323 = flow.dispatch.workgroups(%320) : (tensor<5632x64x17xi16>) -> tensor<5632x64x16xi16> =
        (%arg6: !iree_tensor_ext.dispatch.tensor<readonly:tensor<5632x64x17xi16>>, %arg7: !iree_tensor_ext.dispatch.tensor<writeonly:tensor<5632x64x16xi16>>) {
      %2233 = iree_tensor_ext.dispatch.tensor.load %arg6, offsets = [0, 0, 1], sizes = [5632, 64, 16], strides = [1, 1, 1] : !iree_tensor_ext.dispatch.tensor<readonly:tensor<5632x64x17xi16>> -> tensor<5632x64x16xi16>
      iree_tensor_ext.dispatch.tensor.store %2233, %arg7, offsets = [0, 0, 0], sizes = [5632, 64, 16], strides = [1, 1, 1] : tensor<5632x64x16xi16> -> !iree_tensor_ext.dispatch.tensor<writeonly:tensor<5632x64x16xi16>>
      flow.return
    } count() -> (index, index, index) {
      %x, %y, %z = iree_tensor_ext.dispatch.workgroup_count_from_slice()
      flow.return %x, %y, %z : index, index, index
    }
    %324 = flow.tensor.bitcast %323 : tensor<5632x64x16xi16> -> tensor<5632x64x32xi8>
    %325 = flow.tensor.bitcast %322 : tensor<5632x64x1xi16> -> tensor<5632x64xf16>
    %326 = flow.tensor.bitcast %192 : tensor<5632x2176xi8> -> tensor<5632x64x1x17xi16>
    %327 = flow.dispatch.workgroups(%326) : (tensor<5632x64x1x17xi16>) -> tensor<5632x64x1xi16> =
        (%arg6: !iree_tensor_ext.dispatch.tensor<readonly:tensor<5632x64x1x17xi16>>, %arg7: !iree_tensor_ext.dispatch.tensor<writeonly:tensor<5632x64x1xi16>>) {
      %2233 = iree_tensor_ext.dispatch.tensor.load %arg6, offsets = [0, 0, 0, 0], sizes = [5632, 64, 1, 1], strides = [1, 1, 1, 1] : !iree_tensor_ext.dispatch.tensor<readonly:tensor<5632x64x1x17xi16>> -> tensor<5632x64x1xi16>
      iree_tensor_ext.dispatch.tensor.store %2233, %arg7, offsets = [0, 0, 0], sizes = [5632, 64, 1], strides = [1, 1, 1] : tensor<5632x64x1xi16> -> !iree_tensor_ext.dispatch.tensor<writeonly:tensor<5632x64x1xi16>>
      flow.return
    } count() -> (index, index, index) {
      %x, %y, %z = iree_tensor_ext.dispatch.workgroup_count_from_slice()
      flow.return %x, %y, %z : index, index, index
    }
    %328 = flow.tensor.bitcast %327 : tensor<5632x64x1xi16> -> tensor<5632x64xf16>
    %329 = flow.tensor.bitcast %192 : tensor<5632x2176xi8> -> tensor<5632x64x17xi16>
    %330 = flow.dispatch.workgroups(%329) : (tensor<5632x64x17xi16>) -> tensor<5632x64x16xi16> =
        (%arg6: !iree_tensor_ext.dispatch.tensor<readonly:tensor<5632x64x17xi16>>, %arg7: !iree_tensor_ext.dispatch.tensor<writeonly:tensor<5632x64x16xi16>>) {
      %2233 = iree_tensor_ext.dispatch.tensor.load %arg6, offsets = [0, 0, 1], sizes = [5632, 64, 16], strides = [1, 1, 1] : !iree_tensor_ext.dispatch.tensor<readonly:tensor<5632x64x17xi16>> -> tensor<5632x64x16xi16>
      iree_tensor_ext.dispatch.tensor.store %2233, %arg7, offsets = [0, 0, 0], sizes = [5632, 64, 16], strides = [1, 1, 1] : tensor<5632x64x16xi16> -> !iree_tensor_ext.dispatch.tensor<writeonly:tensor<5632x64x16xi16>>
      flow.return
    } count() -> (index, index, index) {
      %x, %y, %z = iree_tensor_ext.dispatch.workgroup_count_from_slice()
      flow.return %x, %y, %z : index, index, index
    }
    %331 = flow.tensor.bitcast %330 : tensor<5632x64x16xi16> -> tensor<5632x64x32xi8>
    %332 = flow.tensor.reshape %319 : tensor<?x2048xf16>{%223} -> tensor<?x64x32xf16>{%223}
    %333 = flow.dispatch.workgroups[%223](%328, %331, %223, %332) : (tensor<5632x64xf16>, tensor<5632x64x32xi8>, index, tensor<?x64x32xf16>{%223}) -> tensor<?x5632xf16>{%223} =
        (%arg6: !iree_tensor_ext.dispatch.tensor<readonly:tensor<5632x64xf16>>, %arg7: !iree_tensor_ext.dispatch.tensor<readonly:tensor<5632x64x32xi8>>, %arg8: index, %arg9: !iree_tensor_ext.dispatch.tensor<readonly:tensor<?x64x32xf16>>, %arg10: !iree_tensor_ext.dispatch.tensor<writeonly:tensor<?x5632xf16>>) {
      %cst = arith.constant 0.000000e+00 : f32
      %2233 = iree_tensor_ext.dispatch.workload.ordinal %arg8, 0 : index
      %2234 = iree_tensor_ext.dispatch.tensor.load %arg6, offsets = [0, 0], sizes = [5632, 64], strides = [1, 1] : !iree_tensor_ext.dispatch.tensor<readonly:tensor<5632x64xf16>> -> tensor<5632x64xf16>
      %2235 = iree_tensor_ext.dispatch.tensor.load %arg7, offsets = [0, 0, 0], sizes = [5632, 64, 32], strides = [1, 1, 1] : !iree_tensor_ext.dispatch.tensor<readonly:tensor<5632x64x32xi8>> -> tensor<5632x64x32xi8>
      %2236 = iree_tensor_ext.dispatch.tensor.load %arg9, offsets = [0, 0, 0], sizes = [%2233, 64, 32], strides = [1, 1, 1] : !iree_tensor_ext.dispatch.tensor<readonly:tensor<?x64x32xf16>>{%2233} -> tensor<?x64x32xf16>
      %2237 = tensor.empty() : tensor<5632x64x32xf16>
      %2238 = linalg.generic {indexing_maps = [#map4, #map5, #map5], iterator_types = ["parallel", "parallel", "parallel"]} ins(%2234, %2235 : tensor<5632x64xf16>, tensor<5632x64x32xi8>) outs(%2237 : tensor<5632x64x32xf16>) {
      ^bb0(%in: f16, %in_0: i8, %out: f16):
        %2244 = arith.extsi %in_0 : i8 to i32
        %2245 = arith.sitofp %2244 : i32 to f16
        %2246 = arith.mulf %2245, %in : f16
        linalg.yield %2246 : f16
      } -> tensor<5632x64x32xf16>
      %2239 = tensor.empty(%2233) : tensor<?x5632xf32>
      %2240 = linalg.fill ins(%cst : f32) outs(%2239 : tensor<?x5632xf32>) -> tensor<?x5632xf32>
      %2241 = linalg.generic {indexing_maps = [#map6, #map7, #map8], iterator_types = ["parallel", "parallel", "reduction", "reduction"]} ins(%2236, %2238 : tensor<?x64x32xf16>, tensor<5632x64x32xf16>) outs(%2240 : tensor<?x5632xf32>) {
      ^bb0(%in: f16, %in_0: f16, %out: f32):
        %2244 = arith.mulf %in, %in_0 : f16
        %2245 = arith.extf %2244 : f16 to f32
        %2246 = arith.addf %2245, %out : f32
        linalg.yield %2246 : f32
      } -> tensor<?x5632xf32>
      %2242 = tensor.empty(%2233) : tensor<?x5632xf16>
      %2243 = linalg.generic {indexing_maps = [#map1, #map1], iterator_types = ["parallel", "parallel"]} ins(%2241 : tensor<?x5632xf32>) outs(%2242 : tensor<?x5632xf16>) {
      ^bb0(%in: f32, %out: f16):
        %2244 = arith.truncf %in : f32 to f16
        linalg.yield %2244 : f16
      } -> tensor<?x5632xf16>
      iree_tensor_ext.dispatch.tensor.store %2243, %arg10, offsets = [0, 0], sizes = [%2233, 5632], strides = [1, 1] : tensor<?x5632xf16> -> !iree_tensor_ext.dispatch.tensor<writeonly:tensor<?x5632xf16>>{%2233}
      flow.return
    } count(%arg6: index) -> (index, index, index) {
      %x, %y, %z = iree_tensor_ext.dispatch.workgroup_count_from_slice(%arg6)
      flow.return %x, %y, %z : index, index, index
    }
    %334 = flow.dispatch.workgroups[%223](%325, %324, %223, %332, %333) : (tensor<5632x64xf16>, tensor<5632x64x32xi8>, index, tensor<?x64x32xf16>{%223}, tensor<?x5632xf16>{%223}) -> tensor<?x5632xf16>{%223} =
        (%arg6: !iree_tensor_ext.dispatch.tensor<readonly:tensor<5632x64xf16>>, %arg7: !iree_tensor_ext.dispatch.tensor<readonly:tensor<5632x64x32xi8>>, %arg8: index, %arg9: !iree_tensor_ext.dispatch.tensor<readonly:tensor<?x64x32xf16>>, %arg10: !iree_tensor_ext.dispatch.tensor<readonly:tensor<?x5632xf16>>, %arg11: !iree_tensor_ext.dispatch.tensor<writeonly:tensor<?x5632xf16>>) {
      %cst = arith.constant 1.000000e+00 : f16
      %cst_0 = arith.constant 0.000000e+00 : f32
      %2233 = iree_tensor_ext.dispatch.workload.ordinal %arg8, 0 : index
      %2234 = iree_tensor_ext.dispatch.tensor.load %arg6, offsets = [0, 0], sizes = [5632, 64], strides = [1, 1] : !iree_tensor_ext.dispatch.tensor<readonly:tensor<5632x64xf16>> -> tensor<5632x64xf16>
      %2235 = iree_tensor_ext.dispatch.tensor.load %arg7, offsets = [0, 0, 0], sizes = [5632, 64, 32], strides = [1, 1, 1] : !iree_tensor_ext.dispatch.tensor<readonly:tensor<5632x64x32xi8>> -> tensor<5632x64x32xi8>
      %2236 = iree_tensor_ext.dispatch.tensor.load %arg9, offsets = [0, 0, 0], sizes = [%2233, 64, 32], strides = [1, 1, 1] : !iree_tensor_ext.dispatch.tensor<readonly:tensor<?x64x32xf16>>{%2233} -> tensor<?x64x32xf16>
      %2237 = iree_tensor_ext.dispatch.tensor.load %arg10, offsets = [0, 0], sizes = [%2233, 5632], strides = [1, 1] : !iree_tensor_ext.dispatch.tensor<readonly:tensor<?x5632xf16>>{%2233} -> tensor<?x5632xf16>
      %2238 = tensor.empty() : tensor<5632x64x32xf16>
      %2239 = linalg.generic {indexing_maps = [#map4, #map5, #map5], iterator_types = ["parallel", "parallel", "parallel"]} ins(%2234, %2235 : tensor<5632x64xf16>, tensor<5632x64x32xi8>) outs(%2238 : tensor<5632x64x32xf16>) {
      ^bb0(%in: f16, %in_1: i8, %out: f16):
        %2245 = arith.extsi %in_1 : i8 to i32
        %2246 = arith.sitofp %2245 : i32 to f16
        %2247 = arith.mulf %2246, %in : f16
        linalg.yield %2247 : f16
      } -> tensor<5632x64x32xf16>
      %2240 = tensor.empty(%2233) : tensor<?x5632xf32>
      %2241 = linalg.fill ins(%cst_0 : f32) outs(%2240 : tensor<?x5632xf32>) -> tensor<?x5632xf32>
      %2242 = linalg.generic {indexing_maps = [#map6, #map7, #map8], iterator_types = ["parallel", "parallel", "reduction", "reduction"]} ins(%2236, %2239 : tensor<?x64x32xf16>, tensor<5632x64x32xf16>) outs(%2241 : tensor<?x5632xf32>) {
      ^bb0(%in: f16, %in_1: f16, %out: f32):
        %2245 = arith.mulf %in, %in_1 : f16
        %2246 = arith.extf %2245 : f16 to f32
        %2247 = arith.addf %2246, %out : f32
        linalg.yield %2247 : f32
      } -> tensor<?x5632xf32>
      %2243 = tensor.empty(%2233) : tensor<?x5632xf16>
      %2244 = linalg.generic {indexing_maps = [#map1, #map1, #map1], iterator_types = ["parallel", "parallel"]} ins(%2242, %2237 : tensor<?x5632xf32>, tensor<?x5632xf16>) outs(%2243 : tensor<?x5632xf16>) {
      ^bb0(%in: f32, %in_1: f16, %out: f16):
        %2245 = arith.truncf %in : f32 to f16
        %2246 = arith.negf %2245 : f16
        %2247 = math.exp %2246 : f16
        %2248 = arith.addf %2247, %cst : f16
        %2249 = arith.divf %cst, %2248 : f16
        %2250 = arith.mulf %2249, %2245 : f16
        %2251 = arith.mulf %2250, %in_1 : f16
        linalg.yield %2251 : f16
      } -> tensor<?x5632xf16>
      iree_tensor_ext.dispatch.tensor.store %2244, %arg11, offsets = [0, 0], sizes = [%2233, 5632], strides = [1, 1] : tensor<?x5632xf16> -> !iree_tensor_ext.dispatch.tensor<writeonly:tensor<?x5632xf16>>{%2233}
      flow.return
    } count(%arg6: index) -> (index, index, index) {
      %x, %y, %z = iree_tensor_ext.dispatch.workgroup_count_from_slice(%arg6)
      flow.return %x, %y, %z : index, index, index
    }
    %335 = flow.tensor.bitcast %191 : tensor<2048x5984xi8> -> tensor<2048x176x17xi16>
    %336 = flow.tensor.bitcast %191 : tensor<2048x5984xi8> -> tensor<2048x176x1x17xi16>
    %337 = flow.dispatch.workgroups(%336) : (tensor<2048x176x1x17xi16>) -> tensor<2048x176x1xi16> =
        (%arg6: !iree_tensor_ext.dispatch.tensor<readonly:tensor<2048x176x1x17xi16>>, %arg7: !iree_tensor_ext.dispatch.tensor<writeonly:tensor<2048x176x1xi16>>) {
      %2233 = iree_tensor_ext.dispatch.tensor.load %arg6, offsets = [0, 0, 0, 0], sizes = [2048, 176, 1, 1], strides = [1, 1, 1, 1] : !iree_tensor_ext.dispatch.tensor<readonly:tensor<2048x176x1x17xi16>> -> tensor<2048x176x1xi16>
      iree_tensor_ext.dispatch.tensor.store %2233, %arg7, offsets = [0, 0, 0], sizes = [2048, 176, 1], strides = [1, 1, 1] : tensor<2048x176x1xi16> -> !iree_tensor_ext.dispatch.tensor<writeonly:tensor<2048x176x1xi16>>
      flow.return
    } count() -> (index, index, index) {
      %x, %y, %z = iree_tensor_ext.dispatch.workgroup_count_from_slice()
      flow.return %x, %y, %z : index, index, index
    }
    %338 = flow.dispatch.workgroups(%335) : (tensor<2048x176x17xi16>) -> tensor<2048x176x16xi16> =
        (%arg6: !iree_tensor_ext.dispatch.tensor<readonly:tensor<2048x176x17xi16>>, %arg7: !iree_tensor_ext.dispatch.tensor<writeonly:tensor<2048x176x16xi16>>) {
      %2233 = iree_tensor_ext.dispatch.tensor.load %arg6, offsets = [0, 0, 1], sizes = [2048, 176, 16], strides = [1, 1, 1] : !iree_tensor_ext.dispatch.tensor<readonly:tensor<2048x176x17xi16>> -> tensor<2048x176x16xi16>
      iree_tensor_ext.dispatch.tensor.store %2233, %arg7, offsets = [0, 0, 0], sizes = [2048, 176, 16], strides = [1, 1, 1] : tensor<2048x176x16xi16> -> !iree_tensor_ext.dispatch.tensor<writeonly:tensor<2048x176x16xi16>>
      flow.return
    } count() -> (index, index, index) {
      %x, %y, %z = iree_tensor_ext.dispatch.workgroup_count_from_slice()
      flow.return %x, %y, %z : index, index, index
    }
    %339 = flow.tensor.bitcast %338 : tensor<2048x176x16xi16> -> tensor<2048x176x32xi8>
    %340 = flow.tensor.bitcast %337 : tensor<2048x176x1xi16> -> tensor<2048x176xf16>
    %341 = flow.tensor.reshape %334 : tensor<?x5632xf16>{%223} -> tensor<?x176x32xf16>{%223}
    %342 = flow.dispatch.workgroups[%223](%340, %339, %223, %341, %313) : (tensor<2048x176xf16>, tensor<2048x176x32xi8>, index, tensor<?x176x32xf16>{%223}, tensor<?x2048xf16>{%223}) -> tensor<?x2048xf16>{%223} =
        (%arg6: !iree_tensor_ext.dispatch.tensor<readonly:tensor<2048x176xf16>>, %arg7: !iree_tensor_ext.dispatch.tensor<readonly:tensor<2048x176x32xi8>>, %arg8: index, %arg9: !iree_tensor_ext.dispatch.tensor<readonly:tensor<?x176x32xf16>>, %arg10: !iree_tensor_ext.dispatch.tensor<readonly:tensor<?x2048xf16>>, %arg11: !iree_tensor_ext.dispatch.tensor<writeonly:tensor<?x2048xf16>>) {
      %cst = arith.constant 0.000000e+00 : f32
      %2233 = iree_tensor_ext.dispatch.workload.ordinal %arg8, 0 : index
      %2234 = iree_tensor_ext.dispatch.tensor.load %arg6, offsets = [0, 0], sizes = [2048, 176], strides = [1, 1] : !iree_tensor_ext.dispatch.tensor<readonly:tensor<2048x176xf16>> -> tensor<2048x176xf16>
      %2235 = iree_tensor_ext.dispatch.tensor.load %arg7, offsets = [0, 0, 0], sizes = [2048, 176, 32], strides = [1, 1, 1] : !iree_tensor_ext.dispatch.tensor<readonly:tensor<2048x176x32xi8>> -> tensor<2048x176x32xi8>
      %2236 = iree_tensor_ext.dispatch.tensor.load %arg9, offsets = [0, 0, 0], sizes = [%2233, 176, 32], strides = [1, 1, 1] : !iree_tensor_ext.dispatch.tensor<readonly:tensor<?x176x32xf16>>{%2233} -> tensor<?x176x32xf16>
      %2237 = iree_tensor_ext.dispatch.tensor.load %arg10, offsets = [0, 0], sizes = [%2233, 2048], strides = [1, 1] : !iree_tensor_ext.dispatch.tensor<readonly:tensor<?x2048xf16>>{%2233} -> tensor<?x2048xf16>
      %2238 = tensor.empty() : tensor<2048x176x32xf16>
      %2239 = linalg.generic {indexing_maps = [#map4, #map5, #map5], iterator_types = ["parallel", "parallel", "parallel"]} ins(%2234, %2235 : tensor<2048x176xf16>, tensor<2048x176x32xi8>) outs(%2238 : tensor<2048x176x32xf16>) {
      ^bb0(%in: f16, %in_0: i8, %out: f16):
        %2245 = arith.extsi %in_0 : i8 to i32
        %2246 = arith.sitofp %2245 : i32 to f16
        %2247 = arith.mulf %2246, %in : f16
        linalg.yield %2247 : f16
      } -> tensor<2048x176x32xf16>
      %2240 = tensor.empty(%2233) : tensor<?x2048xf32>
      %2241 = linalg.fill ins(%cst : f32) outs(%2240 : tensor<?x2048xf32>) -> tensor<?x2048xf32>
      %2242 = linalg.generic {indexing_maps = [#map6, #map7, #map8], iterator_types = ["parallel", "parallel", "reduction", "reduction"]} ins(%2236, %2239 : tensor<?x176x32xf16>, tensor<2048x176x32xf16>) outs(%2241 : tensor<?x2048xf32>) {
      ^bb0(%in: f16, %in_0: f16, %out: f32):
        %2245 = arith.mulf %in, %in_0 : f16
        %2246 = arith.extf %2245 : f16 to f32
        %2247 = arith.addf %2246, %out : f32
        linalg.yield %2247 : f32
      } -> tensor<?x2048xf32>
      %2243 = tensor.empty(%2233) : tensor<?x2048xf16>
      %2244 = linalg.generic {indexing_maps = [#map1, #map1, #map1], iterator_types = ["parallel", "parallel"]} ins(%2237, %2242 : tensor<?x2048xf16>, tensor<?x2048xf32>) outs(%2243 : tensor<?x2048xf16>) {
      ^bb0(%in: f16, %in_0: f32, %out: f16):
        %2245 = arith.truncf %in_0 : f32 to f16
        %2246 = arith.addf %in, %2245 : f16
        linalg.yield %2246 : f16
      } -> tensor<?x2048xf16>
      iree_tensor_ext.dispatch.tensor.store %2244, %arg11, offsets = [0, 0], sizes = [%2233, 2048], strides = [1, 1] : tensor<?x2048xf16> -> !iree_tensor_ext.dispatch.tensor<writeonly:tensor<?x2048xf16>>{%2233}
      flow.return
    } count(%arg6: index) -> (index, index, index) {
      %x, %y, %z = iree_tensor_ext.dispatch.workgroup_count_from_slice(%arg6)
      flow.return %x, %y, %z : index, index, index
    }
    %343 = flow.tensor.reshape %342 : tensor<?x2048xf16>{%223} -> tensor<?xf16>{%226}
    %344 = flow.dispatch.workgroups[%226](%226, %343) : (index, tensor<?xf16>{%226}) -> tensor<?xf32>{%226} =
        (%arg6: index, %arg7: !iree_tensor_ext.dispatch.tensor<readonly:tensor<?xf16>>, %arg8: !iree_tensor_ext.dispatch.tensor<writeonly:tensor<?xf32>>) {
      %2233 = iree_tensor_ext.dispatch.workload.ordinal %arg6, 0 : index
      %2234 = iree_tensor_ext.dispatch.tensor.load %arg7, offsets = [0], sizes = [%2233], strides = [1] : !iree_tensor_ext.dispatch.tensor<readonly:tensor<?xf16>>{%2233} -> tensor<?xf16>
      %2235 = tensor.empty(%2233) : tensor<?xf32>
      %2236 = linalg.generic {indexing_maps = [#map2, #map2], iterator_types = ["parallel"]} ins(%2234 : tensor<?xf16>) outs(%2235 : tensor<?xf32>) {
      ^bb0(%in: f16, %out: f32):
        %2237 = arith.extf %in : f16 to f32
        linalg.yield %2237 : f32
      } -> tensor<?xf32>
      iree_tensor_ext.dispatch.tensor.store %2236, %arg8, offsets = [0], sizes = [%2233], strides = [1] : tensor<?xf32> -> !iree_tensor_ext.dispatch.tensor<writeonly:tensor<?xf32>>{%2233}
      flow.return
    } count(%arg6: index) -> (index, index, index) {
      %x, %y, %z = iree_tensor_ext.dispatch.workgroup_count_from_slice(%arg6)
      flow.return %x, %y, %z : index, index, index
    }
    %345 = flow.dispatch.workgroups[%223](%223, %342) : (index, tensor<?x2048xf16>{%223}) -> tensor<?xf32>{%223} =
        (%arg6: index, %arg7: !iree_tensor_ext.dispatch.tensor<readonly:tensor<?x2048xf16>>, %arg8: !iree_tensor_ext.dispatch.tensor<writeonly:tensor<?xf32>>) {
      %c2_i64 = arith.constant 2 : i64
      %cst = arith.constant 0.000000e+00 : f32
      %2233 = iree_tensor_ext.dispatch.workload.ordinal %arg6, 0 : index
      %2234 = iree_tensor_ext.dispatch.tensor.load %arg7, offsets = [0, 0], sizes = [%2233, 2048], strides = [1, 1] : !iree_tensor_ext.dispatch.tensor<readonly:tensor<?x2048xf16>>{%2233} -> tensor<?x2048xf16>
      %2235 = tensor.empty(%2233) : tensor<?xf32>
      %2236 = linalg.fill ins(%cst : f32) outs(%2235 : tensor<?xf32>) -> tensor<?xf32>
      %2237 = tensor.empty(%2233) : tensor<?x2048xf32>
      %2238 = linalg.generic {indexing_maps = [#map1, #map1], iterator_types = ["parallel", "parallel"]} ins(%2234 : tensor<?x2048xf16>) outs(%2237 : tensor<?x2048xf32>) {
      ^bb0(%in: f16, %out: f32):
        %2240 = arith.extf %in : f16 to f32
        linalg.yield %2240 : f32
      } -> tensor<?x2048xf32>
      %2239 = linalg.generic {indexing_maps = [#map1, #map], iterator_types = ["parallel", "reduction"]} ins(%2238 : tensor<?x2048xf32>) outs(%2236 : tensor<?xf32>) {
      ^bb0(%in: f32, %out: f32):
        %2240 = math.fpowi %in, %c2_i64 : f32, i64
        %2241 = arith.addf %2240, %out : f32
        linalg.yield %2241 : f32
      } -> tensor<?xf32>
      iree_tensor_ext.dispatch.tensor.store %2239, %arg8, offsets = [0], sizes = [%2233], strides = [1] : tensor<?xf32> -> !iree_tensor_ext.dispatch.tensor<writeonly:tensor<?xf32>>{%2233}
      flow.return
    } count(%arg6: index) -> (index, index, index) {
      %x, %y, %z = iree_tensor_ext.dispatch.workgroup_count_from_slice(%arg6)
      flow.return %x, %y, %z : index, index, index
    }
    %346 = flow.tensor.reshape %344 : tensor<?xf32>{%226} -> tensor<?x2048xf32>{%223}
    %347 = flow.dispatch.workgroups[%223](%223, %346, %345) : (index, tensor<?x2048xf32>{%223}, tensor<?xf32>{%223}) -> tensor<?x2048xf16>{%223} =
        (%arg6: index, %arg7: !iree_tensor_ext.dispatch.tensor<readonly:tensor<?x2048xf32>>, %arg8: !iree_tensor_ext.dispatch.tensor<readonly:tensor<?xf32>>, %arg9: !iree_tensor_ext.dispatch.tensor<writeonly:tensor<?x2048xf16>>) {
      %cst = arith.constant 9.99999974E-6 : f32
      %cst_0 = arith.constant 2.048000e+03 : f32
      %2233 = iree_tensor_ext.dispatch.workload.ordinal %arg6, 0 : index
      %2234 = iree_tensor_ext.dispatch.tensor.load %arg7, offsets = [0, 0], sizes = [%2233, 2048], strides = [1, 1] : !iree_tensor_ext.dispatch.tensor<readonly:tensor<?x2048xf32>>{%2233} -> tensor<?x2048xf32>
      %2235 = iree_tensor_ext.dispatch.tensor.load %arg8, offsets = [0], sizes = [%2233], strides = [1] : !iree_tensor_ext.dispatch.tensor<readonly:tensor<?xf32>>{%2233} -> tensor<?xf32>
      %2236 = tensor.empty(%2233) : tensor<?x2048xf16>
      %2237 = linalg.generic {indexing_maps = [#map1, #map, #map1], iterator_types = ["parallel", "parallel"]} ins(%2234, %2235 : tensor<?x2048xf32>, tensor<?xf32>) outs(%2236 : tensor<?x2048xf16>) {
      ^bb0(%in: f32, %in_1: f32, %out: f16):
        %2238 = arith.divf %in_1, %cst_0 : f32
        %2239 = arith.addf %2238, %cst : f32
        %2240 = math.rsqrt %2239 : f32
        %2241 = arith.mulf %in, %2240 : f32
        %2242 = arith.truncf %2241 : f32 to f16
        linalg.yield %2242 : f16
      } -> tensor<?x2048xf16>
      iree_tensor_ext.dispatch.tensor.store %2237, %arg9, offsets = [0, 0], sizes = [%2233, 2048], strides = [1, 1] : tensor<?x2048xf16> -> !iree_tensor_ext.dispatch.tensor<writeonly:tensor<?x2048xf16>>{%2233}
      flow.return
    } count(%arg6: index) -> (index, index, index) {
      %x, %y, %z = iree_tensor_ext.dispatch.workgroup_count_from_slice(%arg6)
      flow.return %x, %y, %z : index, index, index
    }
    %348 = flow.dispatch.workgroups[%223](%223, %190, %347) : (index, tensor<2048xf32>, tensor<?x2048xf16>{%223}) -> tensor<?x2048xf16>{%223} =
        (%arg6: index, %arg7: !iree_tensor_ext.dispatch.tensor<readonly:tensor<2048xf32>>, %arg8: !iree_tensor_ext.dispatch.tensor<readonly:tensor<?x2048xf16>>, %arg9: !iree_tensor_ext.dispatch.tensor<writeonly:tensor<?x2048xf16>>) {
      %2233 = iree_tensor_ext.dispatch.workload.ordinal %arg6, 0 : index
      %2234 = iree_tensor_ext.dispatch.tensor.load %arg7, offsets = [0], sizes = [2048], strides = [1] : !iree_tensor_ext.dispatch.tensor<readonly:tensor<2048xf32>> -> tensor<2048xf32>
      %2235 = iree_tensor_ext.dispatch.tensor.load %arg8, offsets = [0, 0], sizes = [%2233, 2048], strides = [1, 1] : !iree_tensor_ext.dispatch.tensor<readonly:tensor<?x2048xf16>>{%2233} -> tensor<?x2048xf16>
      %2236 = tensor.empty(%2233) : tensor<?x2048xf16>
      %2237 = linalg.generic {indexing_maps = [#map3, #map1, #map1], iterator_types = ["parallel", "parallel"]} ins(%2234, %2235 : tensor<2048xf32>, tensor<?x2048xf16>) outs(%2236 : tensor<?x2048xf16>) {
      ^bb0(%in: f32, %in_0: f16, %out: f16):
        %2238 = arith.extf %in_0 : f16 to f32
        %2239 = arith.mulf %in, %2238 : f32
        %2240 = arith.truncf %2239 : f32 to f16
        linalg.yield %2240 : f16
      } -> tensor<?x2048xf16>
      iree_tensor_ext.dispatch.tensor.store %2237, %arg9, offsets = [0, 0], sizes = [%2233, 2048], strides = [1, 1] : tensor<?x2048xf16> -> !iree_tensor_ext.dispatch.tensor<writeonly:tensor<?x2048xf16>>{%2233}
      flow.return
    } count(%arg6: index) -> (index, index, index) {
      %x, %y, %z = iree_tensor_ext.dispatch.workgroup_count_from_slice(%arg6)
      flow.return %x, %y, %z : index, index, index
    }
    %349 = flow.tensor.bitcast %189 : tensor<2048x2176xi8> -> tensor<2048x64x17xi16>
    %350 = flow.tensor.bitcast %189 : tensor<2048x2176xi8> -> tensor<2048x64x1x17xi16>
    %351 = flow.dispatch.workgroups(%350) : (tensor<2048x64x1x17xi16>) -> tensor<2048x64x1xi16> =
        (%arg6: !iree_tensor_ext.dispatch.tensor<readonly:tensor<2048x64x1x17xi16>>, %arg7: !iree_tensor_ext.dispatch.tensor<writeonly:tensor<2048x64x1xi16>>) {
      %2233 = iree_tensor_ext.dispatch.tensor.load %arg6, offsets = [0, 0, 0, 0], sizes = [2048, 64, 1, 1], strides = [1, 1, 1, 1] : !iree_tensor_ext.dispatch.tensor<readonly:tensor<2048x64x1x17xi16>> -> tensor<2048x64x1xi16>
      iree_tensor_ext.dispatch.tensor.store %2233, %arg7, offsets = [0, 0, 0], sizes = [2048, 64, 1], strides = [1, 1, 1] : tensor<2048x64x1xi16> -> !iree_tensor_ext.dispatch.tensor<writeonly:tensor<2048x64x1xi16>>
      flow.return
    } count() -> (index, index, index) {
      %x, %y, %z = iree_tensor_ext.dispatch.workgroup_count_from_slice()
      flow.return %x, %y, %z : index, index, index
    }
    %352 = flow.dispatch.workgroups(%349) : (tensor<2048x64x17xi16>) -> tensor<2048x64x16xi16> =
        (%arg6: !iree_tensor_ext.dispatch.tensor<readonly:tensor<2048x64x17xi16>>, %arg7: !iree_tensor_ext.dispatch.tensor<writeonly:tensor<2048x64x16xi16>>) {
      %2233 = iree_tensor_ext.dispatch.tensor.load %arg6, offsets = [0, 0, 1], sizes = [2048, 64, 16], strides = [1, 1, 1] : !iree_tensor_ext.dispatch.tensor<readonly:tensor<2048x64x17xi16>> -> tensor<2048x64x16xi16>
      iree_tensor_ext.dispatch.tensor.store %2233, %arg7, offsets = [0, 0, 0], sizes = [2048, 64, 16], strides = [1, 1, 1] : tensor<2048x64x16xi16> -> !iree_tensor_ext.dispatch.tensor<writeonly:tensor<2048x64x16xi16>>
      flow.return
    } count() -> (index, index, index) {
      %x, %y, %z = iree_tensor_ext.dispatch.workgroup_count_from_slice()
      flow.return %x, %y, %z : index, index, index
    }
    %353 = flow.tensor.bitcast %352 : tensor<2048x64x16xi16> -> tensor<2048x64x32xi8>
    %354 = flow.tensor.bitcast %351 : tensor<2048x64x1xi16> -> tensor<2048x64xf16>
    %355 = flow.tensor.reshape %348 : tensor<?x2048xf16>{%223} -> tensor<?x64x32xf16>{%223}
    %356 = flow.dispatch.workgroups[%223](%354, %353, %223, %355) : (tensor<2048x64xf16>, tensor<2048x64x32xi8>, index, tensor<?x64x32xf16>{%223}) -> tensor<?x2048xf16>{%223} =
        (%arg6: !iree_tensor_ext.dispatch.tensor<readonly:tensor<2048x64xf16>>, %arg7: !iree_tensor_ext.dispatch.tensor<readonly:tensor<2048x64x32xi8>>, %arg8: index, %arg9: !iree_tensor_ext.dispatch.tensor<readonly:tensor<?x64x32xf16>>, %arg10: !iree_tensor_ext.dispatch.tensor<writeonly:tensor<?x2048xf16>>) {
      %cst = arith.constant 0.000000e+00 : f32
      %2233 = iree_tensor_ext.dispatch.workload.ordinal %arg8, 0 : index
      %2234 = iree_tensor_ext.dispatch.tensor.load %arg6, offsets = [0, 0], sizes = [2048, 64], strides = [1, 1] : !iree_tensor_ext.dispatch.tensor<readonly:tensor<2048x64xf16>> -> tensor<2048x64xf16>
      %2235 = iree_tensor_ext.dispatch.tensor.load %arg7, offsets = [0, 0, 0], sizes = [2048, 64, 32], strides = [1, 1, 1] : !iree_tensor_ext.dispatch.tensor<readonly:tensor<2048x64x32xi8>> -> tensor<2048x64x32xi8>
      %2236 = iree_tensor_ext.dispatch.tensor.load %arg9, offsets = [0, 0, 0], sizes = [%2233, 64, 32], strides = [1, 1, 1] : !iree_tensor_ext.dispatch.tensor<readonly:tensor<?x64x32xf16>>{%2233} -> tensor<?x64x32xf16>
      %2237 = tensor.empty() : tensor<2048x64x32xf16>
      %2238 = linalg.generic {indexing_maps = [#map4, #map5, #map5], iterator_types = ["parallel", "parallel", "parallel"]} ins(%2234, %2235 : tensor<2048x64xf16>, tensor<2048x64x32xi8>) outs(%2237 : tensor<2048x64x32xf16>) {
      ^bb0(%in: f16, %in_0: i8, %out: f16):
        %2244 = arith.extsi %in_0 : i8 to i32
        %2245 = arith.sitofp %2244 : i32 to f16
        %2246 = arith.mulf %2245, %in : f16
        linalg.yield %2246 : f16
      } -> tensor<2048x64x32xf16>
      %2239 = tensor.empty(%2233) : tensor<?x2048xf32>
      %2240 = linalg.fill ins(%cst : f32) outs(%2239 : tensor<?x2048xf32>) -> tensor<?x2048xf32>
      %2241 = linalg.generic {indexing_maps = [#map6, #map7, #map8], iterator_types = ["parallel", "parallel", "reduction", "reduction"]} ins(%2236, %2238 : tensor<?x64x32xf16>, tensor<2048x64x32xf16>) outs(%2240 : tensor<?x2048xf32>) {
      ^bb0(%in: f16, %in_0: f16, %out: f32):
        %2244 = arith.mulf %in, %in_0 : f16
        %2245 = arith.extf %2244 : f16 to f32
        %2246 = arith.addf %2245, %out : f32
        linalg.yield %2246 : f32
      } -> tensor<?x2048xf32>
      %2242 = tensor.empty(%2233) : tensor<?x2048xf16>
      %2243 = linalg.generic {indexing_maps = [#map1, #map1], iterator_types = ["parallel", "parallel"]} ins(%2241 : tensor<?x2048xf32>) outs(%2242 : tensor<?x2048xf16>) {
      ^bb0(%in: f32, %out: f16):
        %2244 = arith.truncf %in : f32 to f16
        linalg.yield %2244 : f16
      } -> tensor<?x2048xf16>
      iree_tensor_ext.dispatch.tensor.store %2243, %arg10, offsets = [0, 0], sizes = [%2233, 2048], strides = [1, 1] : tensor<?x2048xf16> -> !iree_tensor_ext.dispatch.tensor<writeonly:tensor<?x2048xf16>>{%2233}
      flow.return
    } count(%arg6: index) -> (index, index, index) {
      %x, %y, %z = iree_tensor_ext.dispatch.workgroup_count_from_slice(%arg6)
      flow.return %x, %y, %z : index, index, index
    }
    %357 = flow.tensor.reshape %356 : tensor<?x2048xf16>{%223} -> tensor<4x?x32x64xf16>{%209}
    %358 = flow.tensor.bitcast %188 : tensor<256x2176xi8> -> tensor<256x64x17xi16>
    %359 = flow.tensor.bitcast %188 : tensor<256x2176xi8> -> tensor<256x64x1x17xi16>
    %360 = flow.dispatch.workgroups(%359) : (tensor<256x64x1x17xi16>) -> tensor<256x64x1xi16> =
        (%arg6: !iree_tensor_ext.dispatch.tensor<readonly:tensor<256x64x1x17xi16>>, %arg7: !iree_tensor_ext.dispatch.tensor<writeonly:tensor<256x64x1xi16>>) {
      %2233 = iree_tensor_ext.dispatch.tensor.load %arg6, offsets = [0, 0, 0, 0], sizes = [256, 64, 1, 1], strides = [1, 1, 1, 1] : !iree_tensor_ext.dispatch.tensor<readonly:tensor<256x64x1x17xi16>> -> tensor<256x64x1xi16>
      iree_tensor_ext.dispatch.tensor.store %2233, %arg7, offsets = [0, 0, 0], sizes = [256, 64, 1], strides = [1, 1, 1] : tensor<256x64x1xi16> -> !iree_tensor_ext.dispatch.tensor<writeonly:tensor<256x64x1xi16>>
      flow.return
    } count() -> (index, index, index) {
      %x, %y, %z = iree_tensor_ext.dispatch.workgroup_count_from_slice()
      flow.return %x, %y, %z : index, index, index
    }
    %361 = flow.dispatch.workgroups(%358) : (tensor<256x64x17xi16>) -> tensor<256x64x16xi16> =
        (%arg6: !iree_tensor_ext.dispatch.tensor<readonly:tensor<256x64x17xi16>>, %arg7: !iree_tensor_ext.dispatch.tensor<writeonly:tensor<256x64x16xi16>>) {
      %2233 = iree_tensor_ext.dispatch.tensor.load %arg6, offsets = [0, 0, 1], sizes = [256, 64, 16], strides = [1, 1, 1] : !iree_tensor_ext.dispatch.tensor<readonly:tensor<256x64x17xi16>> -> tensor<256x64x16xi16>
      iree_tensor_ext.dispatch.tensor.store %2233, %arg7, offsets = [0, 0, 0], sizes = [256, 64, 16], strides = [1, 1, 1] : tensor<256x64x16xi16> -> !iree_tensor_ext.dispatch.tensor<writeonly:tensor<256x64x16xi16>>
      flow.return
    } count() -> (index, index, index) {
      %x, %y, %z = iree_tensor_ext.dispatch.workgroup_count_from_slice()
      flow.return %x, %y, %z : index, index, index
    }
    %362 = flow.tensor.bitcast %361 : tensor<256x64x16xi16> -> tensor<256x64x32xi8>
    %363 = flow.tensor.bitcast %360 : tensor<256x64x1xi16> -> tensor<256x64xf16>
    %364 = flow.dispatch.workgroups[%223](%363, %362, %223, %355) : (tensor<256x64xf16>, tensor<256x64x32xi8>, index, tensor<?x64x32xf16>{%223}) -> tensor<?x256xf16>{%223} =
        (%arg6: !iree_tensor_ext.dispatch.tensor<readonly:tensor<256x64xf16>>, %arg7: !iree_tensor_ext.dispatch.tensor<readonly:tensor<256x64x32xi8>>, %arg8: index, %arg9: !iree_tensor_ext.dispatch.tensor<readonly:tensor<?x64x32xf16>>, %arg10: !iree_tensor_ext.dispatch.tensor<writeonly:tensor<?x256xf16>>) {
      %cst = arith.constant 0.000000e+00 : f32
      %2233 = iree_tensor_ext.dispatch.workload.ordinal %arg8, 0 : index
      %2234 = iree_tensor_ext.dispatch.tensor.load %arg6, offsets = [0, 0], sizes = [256, 64], strides = [1, 1] : !iree_tensor_ext.dispatch.tensor<readonly:tensor<256x64xf16>> -> tensor<256x64xf16>
      %2235 = iree_tensor_ext.dispatch.tensor.load %arg7, offsets = [0, 0, 0], sizes = [256, 64, 32], strides = [1, 1, 1] : !iree_tensor_ext.dispatch.tensor<readonly:tensor<256x64x32xi8>> -> tensor<256x64x32xi8>
      %2236 = iree_tensor_ext.dispatch.tensor.load %arg9, offsets = [0, 0, 0], sizes = [%2233, 64, 32], strides = [1, 1, 1] : !iree_tensor_ext.dispatch.tensor<readonly:tensor<?x64x32xf16>>{%2233} -> tensor<?x64x32xf16>
      %2237 = tensor.empty() : tensor<256x64x32xf16>
      %2238 = linalg.generic {indexing_maps = [#map4, #map5, #map5], iterator_types = ["parallel", "parallel", "parallel"]} ins(%2234, %2235 : tensor<256x64xf16>, tensor<256x64x32xi8>) outs(%2237 : tensor<256x64x32xf16>) {
      ^bb0(%in: f16, %in_0: i8, %out: f16):
        %2244 = arith.extsi %in_0 : i8 to i32
        %2245 = arith.sitofp %2244 : i32 to f16
        %2246 = arith.mulf %2245, %in : f16
        linalg.yield %2246 : f16
      } -> tensor<256x64x32xf16>
      %2239 = tensor.empty(%2233) : tensor<?x256xf32>
      %2240 = linalg.fill ins(%cst : f32) outs(%2239 : tensor<?x256xf32>) -> tensor<?x256xf32>
      %2241 = linalg.generic {indexing_maps = [#map6, #map7, #map8], iterator_types = ["parallel", "parallel", "reduction", "reduction"]} ins(%2236, %2238 : tensor<?x64x32xf16>, tensor<256x64x32xf16>) outs(%2240 : tensor<?x256xf32>) {
      ^bb0(%in: f16, %in_0: f16, %out: f32):
        %2244 = arith.mulf %in, %in_0 : f16
        %2245 = arith.extf %2244 : f16 to f32
        %2246 = arith.addf %2245, %out : f32
        linalg.yield %2246 : f32
      } -> tensor<?x256xf32>
      %2242 = tensor.empty(%2233) : tensor<?x256xf16>
      %2243 = linalg.generic {indexing_maps = [#map1, #map1], iterator_types = ["parallel", "parallel"]} ins(%2241 : tensor<?x256xf32>) outs(%2242 : tensor<?x256xf16>) {
      ^bb0(%in: f32, %out: f16):
        %2244 = arith.truncf %in : f32 to f16
        linalg.yield %2244 : f16
      } -> tensor<?x256xf16>
      iree_tensor_ext.dispatch.tensor.store %2243, %arg10, offsets = [0, 0], sizes = [%2233, 256], strides = [1, 1] : tensor<?x256xf16> -> !iree_tensor_ext.dispatch.tensor<writeonly:tensor<?x256xf16>>{%2233}
      flow.return
    } count(%arg6: index) -> (index, index, index) {
      %x, %y, %z = iree_tensor_ext.dispatch.workgroup_count_from_slice(%arg6)
      flow.return %x, %y, %z : index, index, index
    }
    %365 = flow.tensor.reshape %364 : tensor<?x256xf16>{%223} -> tensor<4x?x4x64xf16>{%209}
    %366 = flow.tensor.bitcast %187 : tensor<256x2176xi8> -> tensor<256x64x17xi16>
    %367 = flow.tensor.bitcast %187 : tensor<256x2176xi8> -> tensor<256x64x1x17xi16>
    %368 = flow.dispatch.workgroups(%367) : (tensor<256x64x1x17xi16>) -> tensor<256x64x1xi16> =
        (%arg6: !iree_tensor_ext.dispatch.tensor<readonly:tensor<256x64x1x17xi16>>, %arg7: !iree_tensor_ext.dispatch.tensor<writeonly:tensor<256x64x1xi16>>) {
      %2233 = iree_tensor_ext.dispatch.tensor.load %arg6, offsets = [0, 0, 0, 0], sizes = [256, 64, 1, 1], strides = [1, 1, 1, 1] : !iree_tensor_ext.dispatch.tensor<readonly:tensor<256x64x1x17xi16>> -> tensor<256x64x1xi16>
      iree_tensor_ext.dispatch.tensor.store %2233, %arg7, offsets = [0, 0, 0], sizes = [256, 64, 1], strides = [1, 1, 1] : tensor<256x64x1xi16> -> !iree_tensor_ext.dispatch.tensor<writeonly:tensor<256x64x1xi16>>
      flow.return
    } count() -> (index, index, index) {
      %x, %y, %z = iree_tensor_ext.dispatch.workgroup_count_from_slice()
      flow.return %x, %y, %z : index, index, index
    }
    %369 = flow.dispatch.workgroups(%366) : (tensor<256x64x17xi16>) -> tensor<256x64x16xi16> =
        (%arg6: !iree_tensor_ext.dispatch.tensor<readonly:tensor<256x64x17xi16>>, %arg7: !iree_tensor_ext.dispatch.tensor<writeonly:tensor<256x64x16xi16>>) {
      %2233 = iree_tensor_ext.dispatch.tensor.load %arg6, offsets = [0, 0, 1], sizes = [256, 64, 16], strides = [1, 1, 1] : !iree_tensor_ext.dispatch.tensor<readonly:tensor<256x64x17xi16>> -> tensor<256x64x16xi16>
      iree_tensor_ext.dispatch.tensor.store %2233, %arg7, offsets = [0, 0, 0], sizes = [256, 64, 16], strides = [1, 1, 1] : tensor<256x64x16xi16> -> !iree_tensor_ext.dispatch.tensor<writeonly:tensor<256x64x16xi16>>
      flow.return
    } count() -> (index, index, index) {
      %x, %y, %z = iree_tensor_ext.dispatch.workgroup_count_from_slice()
      flow.return %x, %y, %z : index, index, index
    }
    %370 = flow.tensor.bitcast %369 : tensor<256x64x16xi16> -> tensor<256x64x32xi8>
    %371 = flow.tensor.bitcast %368 : tensor<256x64x1xi16> -> tensor<256x64xf16>
    %372 = flow.dispatch.workgroups[%223](%371, %370, %223, %355) : (tensor<256x64xf16>, tensor<256x64x32xi8>, index, tensor<?x64x32xf16>{%223}) -> tensor<?x256xf16>{%223} =
        (%arg6: !iree_tensor_ext.dispatch.tensor<readonly:tensor<256x64xf16>>, %arg7: !iree_tensor_ext.dispatch.tensor<readonly:tensor<256x64x32xi8>>, %arg8: index, %arg9: !iree_tensor_ext.dispatch.tensor<readonly:tensor<?x64x32xf16>>, %arg10: !iree_tensor_ext.dispatch.tensor<writeonly:tensor<?x256xf16>>) {
      %cst = arith.constant 0.000000e+00 : f32
      %2233 = iree_tensor_ext.dispatch.workload.ordinal %arg8, 0 : index
      %2234 = iree_tensor_ext.dispatch.tensor.load %arg6, offsets = [0, 0], sizes = [256, 64], strides = [1, 1] : !iree_tensor_ext.dispatch.tensor<readonly:tensor<256x64xf16>> -> tensor<256x64xf16>
      %2235 = iree_tensor_ext.dispatch.tensor.load %arg7, offsets = [0, 0, 0], sizes = [256, 64, 32], strides = [1, 1, 1] : !iree_tensor_ext.dispatch.tensor<readonly:tensor<256x64x32xi8>> -> tensor<256x64x32xi8>
      %2236 = iree_tensor_ext.dispatch.tensor.load %arg9, offsets = [0, 0, 0], sizes = [%2233, 64, 32], strides = [1, 1, 1] : !iree_tensor_ext.dispatch.tensor<readonly:tensor<?x64x32xf16>>{%2233} -> tensor<?x64x32xf16>
      %2237 = tensor.empty() : tensor<256x64x32xf16>
      %2238 = linalg.generic {indexing_maps = [#map4, #map5, #map5], iterator_types = ["parallel", "parallel", "parallel"]} ins(%2234, %2235 : tensor<256x64xf16>, tensor<256x64x32xi8>) outs(%2237 : tensor<256x64x32xf16>) {
      ^bb0(%in: f16, %in_0: i8, %out: f16):
        %2244 = arith.extsi %in_0 : i8 to i32
        %2245 = arith.sitofp %2244 : i32 to f16
        %2246 = arith.mulf %2245, %in : f16
        linalg.yield %2246 : f16
      } -> tensor<256x64x32xf16>
      %2239 = tensor.empty(%2233) : tensor<?x256xf32>
      %2240 = linalg.fill ins(%cst : f32) outs(%2239 : tensor<?x256xf32>) -> tensor<?x256xf32>
      %2241 = linalg.generic {indexing_maps = [#map6, #map7, #map8], iterator_types = ["parallel", "parallel", "reduction", "reduction"]} ins(%2236, %2238 : tensor<?x64x32xf16>, tensor<256x64x32xf16>) outs(%2240 : tensor<?x256xf32>) {
      ^bb0(%in: f16, %in_0: f16, %out: f32):
        %2244 = arith.mulf %in, %in_0 : f16
        %2245 = arith.extf %2244 : f16 to f32
        %2246 = arith.addf %2245, %out : f32
        linalg.yield %2246 : f32
      } -> tensor<?x256xf32>
      %2242 = tensor.empty(%2233) : tensor<?x256xf16>
      %2243 = linalg.generic {indexing_maps = [#map1, #map1], iterator_types = ["parallel", "parallel"]} ins(%2241 : tensor<?x256xf32>) outs(%2242 : tensor<?x256xf16>) {
      ^bb0(%in: f32, %out: f16):
        %2244 = arith.truncf %in : f32 to f16
        linalg.yield %2244 : f16
      } -> tensor<?x256xf16>
      iree_tensor_ext.dispatch.tensor.store %2243, %arg10, offsets = [0, 0], sizes = [%2233, 256], strides = [1, 1] : tensor<?x256xf16> -> !iree_tensor_ext.dispatch.tensor<writeonly:tensor<?x256xf16>>{%2233}
      flow.return
    } count(%arg6: index) -> (index, index, index) {
      %x, %y, %z = iree_tensor_ext.dispatch.workgroup_count_from_slice(%arg6)
      flow.return %x, %y, %z : index, index, index
    }
    %373 = flow.dispatch.workgroups[%209](%357, %209) : (tensor<4x?x32x64xf16>{%209}, index) -> tensor<4x?x32x32xf16>{%209} =
        (%arg6: !iree_tensor_ext.dispatch.tensor<readonly:tensor<4x?x32x64xf16>>, %arg7: index, %arg8: !iree_tensor_ext.dispatch.tensor<writeonly:tensor<4x?x32x32xf16>>) {
      %2233 = iree_tensor_ext.dispatch.workload.ordinal %arg7, 0 : index
      %2234 = iree_tensor_ext.dispatch.tensor.load %arg6, offsets = [0, 0, 0, 0], sizes = [4, %2233, 32, 32], strides = [1, 1, 1, 2] : !iree_tensor_ext.dispatch.tensor<readonly:tensor<4x?x32x64xf16>>{%2233} -> tensor<4x?x32x32xf16>
      iree_tensor_ext.dispatch.tensor.store %2234, %arg8, offsets = [0, 0, 0, 0], sizes = [4, %2233, 32, 32], strides = [1, 1, 1, 1] : tensor<4x?x32x32xf16> -> !iree_tensor_ext.dispatch.tensor<writeonly:tensor<4x?x32x32xf16>>{%2233}
      flow.return
    } count(%arg6: index) -> (index, index, index) {
      %x, %y, %z = iree_tensor_ext.dispatch.workgroup_count_from_slice(%arg6)
      flow.return %x, %y, %z : index, index, index
    }
    %374 = flow.dispatch.workgroups[%209](%357, %209) : (tensor<4x?x32x64xf16>{%209}, index) -> tensor<4x?x32x32xf16>{%209} =
        (%arg6: !iree_tensor_ext.dispatch.tensor<readonly:tensor<4x?x32x64xf16>>, %arg7: index, %arg8: !iree_tensor_ext.dispatch.tensor<writeonly:tensor<4x?x32x32xf16>>) {
      %2233 = iree_tensor_ext.dispatch.workload.ordinal %arg7, 0 : index
      %2234 = iree_tensor_ext.dispatch.tensor.load %arg6, offsets = [0, 0, 0, 1], sizes = [4, %2233, 32, 32], strides = [1, 1, 1, 2] : !iree_tensor_ext.dispatch.tensor<readonly:tensor<4x?x32x64xf16>>{%2233} -> tensor<4x?x32x32xf16>
      iree_tensor_ext.dispatch.tensor.store %2234, %arg8, offsets = [0, 0, 0, 0], sizes = [4, %2233, 32, 32], strides = [1, 1, 1, 1] : tensor<4x?x32x32xf16> -> !iree_tensor_ext.dispatch.tensor<writeonly:tensor<4x?x32x32xf16>>{%2233}
      flow.return
    } count(%arg6: index) -> (index, index, index) {
      %x, %y, %z = iree_tensor_ext.dispatch.workgroup_count_from_slice(%arg6)
      flow.return %x, %y, %z : index, index, index
    }
    %375 = flow.dispatch.workgroups[%209](%365, %209) : (tensor<4x?x4x64xf16>{%209}, index) -> tensor<4x?x4x32xf16>{%209} =
        (%arg6: !iree_tensor_ext.dispatch.tensor<readonly:tensor<4x?x4x64xf16>>, %arg7: index, %arg8: !iree_tensor_ext.dispatch.tensor<writeonly:tensor<4x?x4x32xf16>>) {
      %2233 = iree_tensor_ext.dispatch.workload.ordinal %arg7, 0 : index
      %2234 = iree_tensor_ext.dispatch.tensor.load %arg6, offsets = [0, 0, 0, 0], sizes = [4, %2233, 4, 32], strides = [1, 1, 1, 2] : !iree_tensor_ext.dispatch.tensor<readonly:tensor<4x?x4x64xf16>>{%2233} -> tensor<4x?x4x32xf16>
      iree_tensor_ext.dispatch.tensor.store %2234, %arg8, offsets = [0, 0, 0, 0], sizes = [4, %2233, 4, 32], strides = [1, 1, 1, 1] : tensor<4x?x4x32xf16> -> !iree_tensor_ext.dispatch.tensor<writeonly:tensor<4x?x4x32xf16>>{%2233}
      flow.return
    } count(%arg6: index) -> (index, index, index) {
      %x, %y, %z = iree_tensor_ext.dispatch.workgroup_count_from_slice(%arg6)
      flow.return %x, %y, %z : index, index, index
    }
    %376 = flow.dispatch.workgroups[%209](%365, %209) : (tensor<4x?x4x64xf16>{%209}, index) -> tensor<4x?x4x32xf16>{%209} =
        (%arg6: !iree_tensor_ext.dispatch.tensor<readonly:tensor<4x?x4x64xf16>>, %arg7: index, %arg8: !iree_tensor_ext.dispatch.tensor<writeonly:tensor<4x?x4x32xf16>>) {
      %2233 = iree_tensor_ext.dispatch.workload.ordinal %arg7, 0 : index
      %2234 = iree_tensor_ext.dispatch.tensor.load %arg6, offsets = [0, 0, 0, 1], sizes = [4, %2233, 4, 32], strides = [1, 1, 1, 2] : !iree_tensor_ext.dispatch.tensor<readonly:tensor<4x?x4x64xf16>>{%2233} -> tensor<4x?x4x32xf16>
      iree_tensor_ext.dispatch.tensor.store %2234, %arg8, offsets = [0, 0, 0, 0], sizes = [4, %2233, 4, 32], strides = [1, 1, 1, 1] : tensor<4x?x4x32xf16> -> !iree_tensor_ext.dispatch.tensor<writeonly:tensor<4x?x4x32xf16>>{%2233}
      flow.return
    } count(%arg6: index) -> (index, index, index) {
      %x, %y, %z = iree_tensor_ext.dispatch.workgroup_count_from_slice(%arg6)
      flow.return %x, %y, %z : index, index, index
    }
    %377 = flow.dispatch.workgroups[%275, %265](%375, %276, %376, %277, %275, %265) : (tensor<4x?x4x32xf16>{%275}, tensor<?x32xf16>{%265}, tensor<4x?x4x32xf16>{%275}, tensor<?x32xf16>{%265}, index, index) -> tensor<4x?x4x2x32xf16>{%265} =
…
      %2176 = iree_tensor_ext.dispatch.tensor.load %arg9, offsets = [0, 0, 0, 0], sizes = [%2173, 2, 32, 1], strides = [1, 1, 1, 1] : !iree_tensor_ext.dispatch.tensor<readwrite:tensor<?x2x32x1xf16>>{%2173} -> tensor<?x2x32x1xf16>
      %2177 = iree_linalg_ext.scatter dimension_map = [0] unique_indices(true) ins(%2174, %2175 : tensor<4x4x2x32x1xf16>, tensor<4x4xi64>) outs(%2176 : tensor<?x2x32x1xf16>) {
      ^bb0(%arg11: f16, %arg12: f16):
        iree_linalg_ext.yield %arg11 : f16
      } -> tensor<?x2x32x1xf16>
      iree_tensor_ext.dispatch.tensor.store %2177, %arg9, offsets = [0, 0, 0, 0], sizes = [%2173, 2, 32, 1], strides = [1, 1, 1, 1] : tensor<?x2x32x1xf16> -> !iree_tensor_ext.dispatch.tensor<readwrite:tensor<?x2x32x1xf16>>{%2173}
      flow.return
    } count(%arg7: index) -> (index, index, index) {
      %x, %y, %z = iree_tensor_ext.dispatch.workgroup_count_from_slice(%arg7)
      flow.return %x, %y, %z : index, index, index
    }
    %2110 = flow.tensor.reshape %2109 : tensor<?x2x32x1xf16>{%273} -> tensor<?x22x2x4x32x64xf16>{%210}
    %2111 = flow.tensor.reshape %2109 : tensor<?x2x32x1xf16>{%273} -> tensor<?x360448xf16>{%210}
    %2112 = flow.dispatch.workgroups[%210, %208](%2110, %210, %209, %208) : (tensor<?x22x2x4x32x64xf16>{%210}, index, tensor<4x?xi64>{%208}, index) -> tensor<4x4x8x?x32x64xf16>{%208} =
        (%arg7: !iree_tensor_ext.dispatch.tensor<readonly:tensor<?x22x2x4x32x64xf16>>, %arg8: index, %arg9: !iree_tensor_ext.dispatch.tensor<readonly:tensor<4x?xi64>>, %arg10: index, %arg11: !iree_tensor_ext.dispatch.tensor<writeonly:tensor<4x4x8x?x32x64xf16>>) {
      %2173 = iree_tensor_ext.dispatch.workload.ordinal %arg8, 0 : index
      %2174 = iree_tensor_ext.dispatch.workload.ordinal %arg10, 1 : index
      %2175 = iree_tensor_ext.dispatch.tensor.load %arg9, offsets = [0, 0], sizes = [4, %2174], strides = [1, 1] : !iree_tensor_ext.dispatch.tensor<readonly:tensor<4x?xi64>>{%2174} -> tensor<4x?xi64>
      %2176 = tensor.empty(%2174) : tensor<4x4x8x?x32x64xf16>
      %2177 = tensor.empty(%2174) : tensor<4x?x4x32x64xf16>
      %2178 = iree_tensor_ext.dispatch.tensor.load %arg7, offsets = [0, 21, 0, 0, 0, 0], sizes = [%2173, 1, 1, 4, 32, 64], strides = [1, 1, 1, 1, 1, 1] : !iree_tensor_ext.dispatch.tensor<readonly:tensor<?x22x2x4x32x64xf16>>{%2173} -> tensor<?x4x32x64xf16>
      %2179 = iree_linalg_ext.gather dimension_map = [0] ins(%2178, %2175 : tensor<?x4x32x64xf16>, tensor<4x?xi64>) outs(%2177 : tensor<4x?x4x32x64xf16>) -> tensor<4x?x4x32x64xf16>
      %2180 = linalg.generic {indexing_maps = [#map25, #map26], iterator_types = ["parallel", "parallel", "parallel", "parallel", "parallel", "parallel"]} ins(%2179 : tensor<4x?x4x32x64xf16>) outs(%2176 : tensor<4x4x8x?x32x64xf16>) {
      ^bb0(%in: f16, %out: f16):
        linalg.yield %in : f16
      } -> tensor<4x4x8x?x32x64xf16>
      iree_tensor_ext.dispatch.tensor.store %2180, %arg11, offsets = [0, 0, 0, 0, 0, 0], sizes = [4, 4, 8, %2174, 32, 64], strides = [1, 1, 1, 1, 1, 1] : tensor<4x4x8x?x32x64xf16> -> !iree_tensor_ext.dispatch.tensor<writeonly:tensor<4x4x8x?x32x64xf16>>{%2174}
      flow.return
    } count(%arg7: index, %arg8: index) -> (index, index, index) {
      %x, %y, %z = iree_tensor_ext.dispatch.workgroup_count_from_slice(%arg7, %arg8)
      flow.return %x, %y, %z : index, index, index
    }
    %2113 = flow.tensor.reshape %2112 : tensor<4x4x8x?x32x64xf16>{%208} -> tensor<128x?x64xf16>{%283}
    %2114 = flow.tensor.reshape %2100 : tensor<4x32x2x32xf16> -> tensor<128x64xf16>
    %2115 = flow.dispatch.workgroups[%210, %208](%2110, %210, %209, %208) : (tensor<?x22x2x4x32x64xf16>{%210}, index, tensor<4x?xi64>{%208}, index) -> tensor<4x4x8x64x?x32xf16>{%208} =
        (%arg7: !iree_tensor_ext.dispatch.tensor<readonly:tensor<?x22x2x4x32x64xf16>>, %arg8: index, %arg9: !iree_tensor_ext.dispatch.tensor<readonly:tensor<4x?xi64>>, %arg10: index, %arg11: !iree_tensor_ext.dispatch.tensor<writeonly:tensor<4x4x8x64x?x32xf16>>) {
      %2173 = iree_tensor_ext.dispatch.workload.ordinal %arg8, 0 : index
      %2174 = iree_tensor_ext.dispatch.workload.ordinal %arg10, 1 : index
      %2175 = iree_tensor_ext.dispatch.tensor.load %arg9, offsets = [0, 0], sizes = [4, %2174], strides = [1, 1] : !iree_tensor_ext.dispatch.tensor<readonly:tensor<4x?xi64>>{%2174} -> tensor<4x?xi64>
      %2176 = tensor.empty(%2174) : tensor<4x4x8x64x?x32xf16>
      %2177 = tensor.empty(%2174) : tensor<4x?x4x32x64xf16>
      %2178 = iree_tensor_ext.dispatch.tensor.load %arg7, offsets = [0, 21, 1, 0, 0, 0], sizes = [%2173, 1, 1, 4, 32, 64], strides = [1, 1, 1, 1, 1, 1] : !iree_tensor_ext.dispatch.tensor<readonly:tensor<?x22x2x4x32x64xf16>>{%2173} -> tensor<?x4x32x64xf16>
      %2179 = iree_linalg_ext.gather dimension_map = [0] ins(%2178, %2175 : tensor<?x4x32x64xf16>, tensor<4x?xi64>) outs(%2177 : tensor<4x?x4x32x64xf16>) -> tensor<4x?x4x32x64xf16>
      %2180 = linalg.generic {indexing_maps = [#map27, #map26], iterator_types = ["parallel", "parallel", "parallel", "parallel", "parallel", "parallel"]} ins(%2179 : tensor<4x?x4x32x64xf16>) outs(%2176 : tensor<4x4x8x64x?x32xf16>) {
      ^bb0(%in: f16, %out: f16):
        linalg.yield %in : f16
      } -> tensor<4x4x8x64x?x32xf16>
      iree_tensor_ext.dispatch.tensor.store %2180, %arg11, offsets = [0, 0, 0, 0, 0, 0], sizes = [4, 4, 8, 64, %2174, 32], strides = [1, 1, 1, 1, 1, 1] : tensor<4x4x8x64x?x32xf16> -> !iree_tensor_ext.dispatch.tensor<writeonly:tensor<4x4x8x64x?x32xf16>>{%2174}
      flow.return
    } count(%arg7: index, %arg8: index) -> (index, index, index) {
      %x, %y, %z = iree_tensor_ext.dispatch.workgroup_count_from_slice(%arg7, %arg8)
      flow.return %x, %y, %z : index, index, index
    }
    %2116 = flow.tensor.reshape %2115 : tensor<4x4x8x64x?x32xf16>{%208} -> tensor<128x64x?xf16>{%283}
    %2117 = flow.dispatch.workgroups[%283, %279](%2114, %2113, %2116, %288, %283, %279) : (tensor<128x64xf16>, tensor<128x?x64xf16>{%283}, tensor<128x64x?xf16>{%283}, tensor<128x?xf16>{%279}, index, index) -> tensor<128x64xf16> =
        (%arg7: !iree_tensor_ext.dispatch.tensor<readonly:tensor<128x64xf16>>, %arg8: !iree_tensor_ext.dispatch.tensor<readonly:tensor<128x?x64xf16>>, %arg9: !iree_tensor_ext.dispatch.tensor<readonly:tensor<128x64x?xf16>>, %arg10: !iree_tensor_ext.dispatch.tensor<readonly:tensor<128x?xf16>>, %arg11: index, %arg12: index, %arg13: !iree_tensor_ext.dispatch.tensor<writeonly:tensor<128x64xf16>>) {
      %cst_0 = arith.constant 1.250000e-01 : f16
      %2173 = iree_tensor_ext.dispatch.workload.ordinal %arg11, 0 : index
      %2174 = iree_tensor_ext.dispatch.workload.ordinal %arg12, 1 : index
      %2175 = iree_tensor_ext.dispatch.tensor.load %arg7, offsets = [0, 0], sizes = [128, 64], strides = [1, 1] : !iree_tensor_ext.dispatch.tensor<readonly:tensor<128x64xf16>> -> tensor<128x64xf16>
      %2176 = iree_tensor_ext.dispatch.tensor.load %arg8, offsets = [0, 0, 0], sizes = [128, %2173, 64], strides = [1, 1, 1] : !iree_tensor_ext.dispatch.tensor<readonly:tensor<128x?x64xf16>>{%2173} -> tensor<128x?x64xf16>
      %2177 = iree_tensor_ext.dispatch.tensor.load %arg9, offsets = [0, 0, 0], sizes = [128, 64, %2173], strides = [1, 1, 1] : !iree_tensor_ext.dispatch.tensor<readonly:tensor<128x64x?xf16>>{%2173} -> tensor<128x64x?xf16>
      %2178 = iree_tensor_ext.dispatch.tensor.load %arg10, offsets = [0, 0], sizes = [128, %2174], strides = [1, 1] : !iree_tensor_ext.dispatch.tensor<readonly:tensor<128x?xf16>>{%2174} -> tensor<128x?xf16>
      %2179 = tensor.empty() : tensor<128x64xf16>
      %2180 = iree_linalg_ext.attention {indexing_maps = [#map28, #map29, #map23, #map30, #map24, #map8]} ins(%2175, %2176, %2177, %cst_0, %2178 : tensor<128x64xf16>, tensor<128x?x64xf16>, tensor<128x64x?xf16>, f16, tensor<128x?xf16>) outs(%2179 : tensor<128x64xf16>) {
      ^bb0(%arg14: f32):
        iree_linalg_ext.yield %arg14 : f32
      } -> tensor<128x64xf16>
      iree_tensor_ext.dispatch.tensor.store %2180, %arg13, offsets = [0, 0], sizes = [128, 64], strides = [1, 1] : tensor<128x64xf16> -> !iree_tensor_ext.dispatch.tensor<writeonly:tensor<128x64xf16>>
      flow.return
    } count(%arg7: index, %arg8: index) -> (index, index, index) {
      %x, %y, %z = iree_tensor_ext.dispatch.workgroup_count_from_slice(%arg7, %arg8)
      flow.return %x, %y, %z : index, index, index
    }
    %2118 = flow.tensor.bitcast %6 : tensor<2048x2176xi8> -> tensor<2048x64x17xi16>
    %2119 = flow.tensor.bitcast %6 : tensor<2048x2176xi8> -> tensor<2048x64x1x17xi16>
    %2120 = flow.dispatch.workgroups(%2119) : (tensor<2048x64x1x17xi16>) -> tensor<2048x64x1xi16> =
        (%arg7: !iree_tensor_ext.dispatch.tensor<readonly:tensor<2048x64x1x17xi16>>, %arg8: !iree_tensor_ext.dispatch.tensor<writeonly:tensor<2048x64x1xi16>>) {
      %2173 = iree_tensor_ext.dispatch.tensor.load %arg7, offsets = [0, 0, 0, 0], sizes = [2048, 64, 1, 1], strides = [1, 1, 1, 1] : !iree_tensor_ext.dispatch.tensor<readonly:tensor<2048x64x1x17xi16>> -> tensor<2048x64x1xi16>
      iree_tensor_ext.dispatch.tensor.store %2173, %arg8, offsets = [0, 0, 0], sizes = [2048, 64, 1], strides = [1, 1, 1] : tensor<2048x64x1xi16> -> !iree_tensor_ext.dispatch.tensor<writeonly:tensor<2048x64x1xi16>>
      flow.return
    } count() -> (index, index, index) {
      %x, %y, %z = iree_tensor_ext.dispatch.workgroup_count_from_slice()
      flow.return %x, %y, %z : index, index, index
    }
    %2121 = flow.dispatch.workgroups(%2118) : (tensor<2048x64x17xi16>) -> tensor<2048x64x16xi16> =
        (%arg7: !iree_tensor_ext.dispatch.tensor<readonly:tensor<2048x64x17xi16>>, %arg8: !iree_tensor_ext.dispatch.tensor<writeonly:tensor<2048x64x16xi16>>) {
      %2173 = iree_tensor_ext.dispatch.tensor.load %arg7, offsets = [0, 0, 1], sizes = [2048, 64, 16], strides = [1, 1, 1] : !iree_tensor_ext.dispatch.tensor<readonly:tensor<2048x64x17xi16>> -> tensor<2048x64x16xi16>
      iree_tensor_ext.dispatch.tensor.store %2173, %arg8, offsets = [0, 0, 0], sizes = [2048, 64, 16], strides = [1, 1, 1] : tensor<2048x64x16xi16> -> !iree_tensor_ext.dispatch.tensor<writeonly:tensor<2048x64x16xi16>>
      flow.return
    } count() -> (index, index, index) {
      %x, %y, %z = iree_tensor_ext.dispatch.workgroup_count_from_slice()
      flow.return %x, %y, %z : index, index, index
    }
    %2122 = flow.tensor.bitcast %2121 : tensor<2048x64x16xi16> -> tensor<2048x64x32xi8>
    %2123 = flow.tensor.bitcast %2120 : tensor<2048x64x1xi16> -> tensor<2048x64xf16>
    %2124 = flow.tensor.reshape %2117 : tensor<128x64xf16> -> tensor<4x64x32xf16>
    %2125 = flow.dispatch.workgroups(%2123, %2122, %2124, %2066) : (tensor<2048x64xf16>, tensor<2048x64x32xi8>, tensor<4x64x32xf16>, tensor<4x2048xf16>) -> tensor<4x2048xf16> =
        (%arg7: !iree_tensor_ext.dispatch.tensor<readonly:tensor<2048x64xf16>>, %arg8: !iree_tensor_ext.dispatch.tensor<readonly:tensor<2048x64x32xi8>>, %arg9: !iree_tensor_ext.dispatch.tensor<readonly:tensor<4x64x32xf16>>, %arg10: !iree_tensor_ext.dispatch.tensor<readonly:tensor<4x2048xf16>>, %arg11: !iree_tensor_ext.dispatch.tensor<writeonly:tensor<4x2048xf16>>) {
      %cst_0 = arith.constant 0.000000e+00 : f32
      %2173 = iree_tensor_ext.dispatch.tensor.load %arg7, offsets = [0, 0], sizes = [2048, 64], strides = [1, 1] : !iree_tensor_ext.dispatch.tensor<readonly:tensor<2048x64xf16>> -> tensor<2048x64xf16>
      %2174 = iree_tensor_ext.dispatch.tensor.load %arg8, offsets = [0, 0, 0], sizes = [2048, 64, 32], strides = [1, 1, 1] : !iree_tensor_ext.dispatch.tensor<readonly:tensor<2048x64x32xi8>> -> tensor<2048x64x32xi8>
      %2175 = iree_tensor_ext.dispatch.tensor.load %arg9, offsets = [0, 0, 0], sizes = [4, 64, 32], strides = [1, 1, 1] : !iree_tensor_ext.dispatch.tensor<readonly:tensor<4x64x32xf16>> -> tensor<4x64x32xf16>
      %2176 = iree_tensor_ext.dispatch.tensor.load %arg10, offsets = [0, 0], sizes = [4, 2048], strides = [1, 1] : !iree_tensor_ext.dispatch.tensor<readonly:tensor<4x2048xf16>> -> tensor<4x2048xf16>
      %2177 = tensor.empty() : tensor<4x2048xf16>
      %2178 = tensor.empty() : tensor<4x2048xf32>
      %2179 = tensor.empty() : tensor<2048x64x32xf16>
      %2180 = linalg.generic {indexing_maps = [#map4, #map5, #map5], iterator_types = ["parallel", "parallel", "parallel"]} ins(%2173, %2174 : tensor<2048x64xf16>, tensor<2048x64x32xi8>) outs(%2179 : tensor<2048x64x32xf16>) {
      ^bb0(%in: f16, %in_1: i8, %out: f16):
        %2184 = arith.extsi %in_1 : i8 to i32
        %2185 = arith.sitofp %2184 : i32 to f16
        %2186 = arith.mulf %2185, %in : f16
        linalg.yield %2186 : f16
      } -> tensor<2048x64x32xf16>
      %2181 = linalg.fill ins(%cst_0 : f32) outs(%2178 : tensor<4x2048xf32>) -> tensor<4x2048xf32>
      %2182 = linalg.generic {indexing_maps = [#map6, #map7, #map8], iterator_types = ["parallel", "parallel", "reduction", "reduction"]} ins(%2175, %2180 : tensor<4x64x32xf16>, tensor<2048x64x32xf16>) outs(%2181 : tensor<4x2048xf32>) {
      ^bb0(%in: f16, %in_1: f16, %out: f32):
        %2184 = arith.mulf %in, %in_1 : f16
        %2185 = arith.extf %2184 : f16 to f32
        %2186 = arith.addf %2185, %out : f32
        linalg.yield %2186 : f32
      } -> tensor<4x2048xf32>
      %2183 = linalg.generic {indexing_maps = [#map1, #map1, #map1], iterator_types = ["parallel", "parallel"]} ins(%2176, %2182 : tensor<4x2048xf16>, tensor<4x2048xf32>) outs(%2177 : tensor<4x2048xf16>) {
      ^bb0(%in: f16, %in_1: f32, %out: f16):
        %2184 = arith.truncf %in_1 : f32 to f16
        %2185 = arith.addf %in, %2184 : f16
        linalg.yield %2185 : f16
      } -> tensor<4x2048xf16>
      iree_tensor_ext.dispatch.tensor.store %2183, %arg11, offsets = [0, 0], sizes = [4, 2048], strides = [1, 1] : tensor<4x2048xf16> -> !iree_tensor_ext.dispatch.tensor<writeonly:tensor<4x2048xf16>>
      flow.return
    } count() -> (index, index, index) {
      %x, %y, %z = iree_tensor_ext.dispatch.workgroup_count_from_slice()
      flow.return %x, %y, %z : index, index, index
    }
    %2126 = flow.tensor.reshape %2125 : tensor<4x2048xf16> -> tensor<8192xf16>
    %2127 = flow.dispatch.workgroups(%2126) : (tensor<8192xf16>) -> tensor<8192xf32> =
        (%arg7: !iree_tensor_ext.dispatch.tensor<readonly:tensor<8192xf16>>, %arg8: !iree_tensor_ext.dispatch.tensor<writeonly:tensor<8192xf32>>) {
      %2173 = iree_tensor_ext.dispatch.tensor.load %arg7, offsets = [0], sizes = [8192], strides = [1] : !iree_tensor_ext.dispatch.tensor<readonly:tensor<8192xf16>> -> tensor<8192xf16>
      %2174 = tensor.empty() : tensor<8192xf32>
      %2175 = linalg.generic {indexing_maps = [#map2, #map2], iterator_types = ["parallel"]} ins(%2173 : tensor<8192xf16>) outs(%2174 : tensor<8192xf32>) {
      ^bb0(%in: f16, %out: f32):
        %2176 = arith.extf %in : f16 to f32
        linalg.yield %2176 : f32
      } -> tensor<8192xf32>
      iree_tensor_ext.dispatch.tensor.store %2175, %arg8, offsets = [0], sizes = [8192], strides = [1] : tensor<8192xf32> -> !iree_tensor_ext.dispatch.tensor<writeonly:tensor<8192xf32>>
      flow.return
    } count() -> (index, index, index) {
      %x, %y, %z = iree_tensor_ext.dispatch.workgroup_count_from_slice()
      flow.return %x, %y, %z : index, index, index
    }
    %2128 = flow.tensor.reshape %2127 : tensor<8192xf32> -> tensor<4x2048xf32>
    %2129 = flow.dispatch.workgroups(%2125) : (tensor<4x2048xf16>) -> tensor<4xf32> =
        (%arg7: !iree_tensor_ext.dispatch.tensor<readonly:tensor<4x2048xf16>>, %arg8: !iree_tensor_ext.dispatch.tensor<writeonly:tensor<4xf32>>) {
      %cst_0 = arith.constant 0.000000e+00 : f32
      %c2_i64 = arith.constant 2 : i64
      %2173 = iree_tensor_ext.dispatch.tensor.load %arg7, offsets = [0, 0], sizes = [4, 2048], strides = [1, 1] : !iree_tensor_ext.dispatch.tensor<readonly:tensor<4x2048xf16>> -> tensor<4x2048xf16>
      %2174 = tensor.empty() : tensor<4xf32>
      %2175 = tensor.empty() : tensor<4x2048xf32>
      %2176 = linalg.fill ins(%cst_0 : f32) outs(%2174 : tensor<4xf32>) -> tensor<4xf32>
      %2177 = linalg.generic {indexing_maps = [#map1, #map1], iterator_types = ["parallel", "parallel"]} ins(%2173 : tensor<4x2048xf16>) outs(%2175 : tensor<4x2048xf32>) {
      ^bb0(%in: f16, %out: f32):
        %2179 = arith.extf %in : f16 to f32
        linalg.yield %2179 : f32
      } -> tensor<4x2048xf32>
      %2178 = linalg.generic {indexing_maps = [#map1, #map], iterator_types = ["parallel", "reduction"]} ins(%2177 : tensor<4x2048xf32>) outs(%2176 : tensor<4xf32>) {
      ^bb0(%in: f32, %out: f32):
        %2179 = math.fpowi %in, %c2_i64 : f32, i64
        %2180 = arith.addf %2179, %out : f32
        linalg.yield %2180 : f32
      } -> tensor<4xf32>
      iree_tensor_ext.dispatch.tensor.store %2178, %arg8, offsets = [0], sizes = [4], strides = [1] : tensor<4xf32> -> !iree_tensor_ext.dispatch.tensor<writeonly:tensor<4xf32>>
      flow.return
    } count() -> (index, index, index) {
      %x, %y, %z = iree_tensor_ext.dispatch.workgroup_count_from_slice()
      flow.return %x, %y, %z : index, index, index
    }
    %2130 = flow.dispatch.workgroups(%2128, %2129) : (tensor<4x2048xf32>, tensor<4xf32>) -> tensor<4x2048xf16> =
        (%arg7: !iree_tensor_ext.dispatch.tensor<readonly:tensor<4x2048xf32>>, %arg8: !iree_tensor_ext.dispatch.tensor<readonly:tensor<4xf32>>, %arg9: !iree_tensor_ext.dispatch.tensor<writeonly:tensor<4x2048xf16>>) {
      %cst_0 = arith.constant 2.048000e+03 : f32
      %cst_1 = arith.constant 9.99999974E-6 : f32
      %2173 = iree_tensor_ext.dispatch.tensor.load %arg7, offsets = [0, 0], sizes = [4, 2048], strides = [1, 1] : !iree_tensor_ext.dispatch.tensor<readonly:tensor<4x2048xf32>> -> tensor<4x2048xf32>
      %2174 = iree_tensor_ext.dispatch.tensor.load %arg8, offsets = [0], sizes = [4], strides = [1] : !iree_tensor_ext.dispatch.tensor<readonly:tensor<4xf32>> -> tensor<4xf32>
      %2175 = tensor.empty() : tensor<4x2048xf16>
      %2176 = linalg.generic {indexing_maps = [#map1, #map, #map1], iterator_types = ["parallel", "parallel"]} ins(%2173, %2174 : tensor<4x2048xf32>, tensor<4xf32>) outs(%2175 : tensor<4x2048xf16>) {
      ^bb0(%in: f32, %in_2: f32, %out: f16):
        %2177 = arith.divf %in_2, %cst_0 : f32
        %2178 = arith.addf %2177, %cst_1 : f32
        %2179 = math.rsqrt %2178 : f32
        %2180 = arith.mulf %in, %2179 : f32
        %2181 = arith.truncf %2180 : f32 to f16
        linalg.yield %2181 : f16
      } -> tensor<4x2048xf16>
      iree_tensor_ext.dispatch.tensor.store %2176, %arg9, offsets = [0, 0], sizes = [4, 2048], strides = [1, 1] : tensor<4x2048xf16> -> !iree_tensor_ext.dispatch.tensor<writeonly:tensor<4x2048xf16>>
      flow.return
    } count() -> (index, index, index) {
      %x, %y, %z = iree_tensor_ext.dispatch.workgroup_count_from_slice()
      flow.return %x, %y, %z : index, index, index
    }
    %2131 = flow.dispatch.workgroups(%5, %2130) : (tensor<2048xf32>, tensor<4x2048xf16>) -> tensor<4x2048xf16> =
        (%arg7: !iree_tensor_ext.dispatch.tensor<readonly:tensor<2048xf32>>, %arg8: !iree_tensor_ext.dispatch.tensor<readonly:tensor<4x2048xf16>>, %arg9: !iree_tensor_ext.dispatch.tensor<writeonly:tensor<4x2048xf16>>) {
      %2173 = iree_tensor_ext.dispatch.tensor.load %arg7, offsets = [0], sizes = [2048], strides = [1] : !iree_tensor_ext.dispatch.tensor<readonly:tensor<2048xf32>> -> tensor<2048xf32>
      %2174 = iree_tensor_ext.dispatch.tensor.load %arg8, offsets = [0, 0], sizes = [4, 2048], strides = [1, 1] : !iree_tensor_ext.dispatch.tensor<readonly:tensor<4x2048xf16>> -> tensor<4x2048xf16>
      %2175 = tensor.empty() : tensor<4x2048xf16>
      %2176 = linalg.generic {indexing_maps = [#map3, #map1, #map1], iterator_types = ["parallel", "parallel"]} ins(%2173, %2174 : tensor<2048xf32>, tensor<4x2048xf16>) outs(%2175 : tensor<4x2048xf16>) {
      ^bb0(%in: f32, %in_0: f16, %out: f16):
        %2177 = arith.extf %in_0 : f16 to f32
        %2178 = arith.mulf %in, %2177 : f32
        %2179 = arith.truncf %2178 : f32 to f16
        linalg.yield %2179 : f16
      } -> tensor<4x2048xf16>
      iree_tensor_ext.dispatch.tensor.store %2176, %arg9, offsets = [0, 0], sizes = [4, 2048], strides = [1, 1] : tensor<4x2048xf16> -> !iree_tensor_ext.dispatch.tensor<writeonly:tensor<4x2048xf16>>
      flow.return
    } count() -> (index, index, index) {
      %x, %y, %z = iree_tensor_ext.dispatch.workgroup_count_from_slice()
      flow.return %x, %y, %z : index, index, index
    }
    %2132 = flow.tensor.reshape %2131 : tensor<4x2048xf16> -> tensor<4x64x32xf16>
    %2133 = flow.tensor.bitcast %4 : tensor<5632x2176xi8> -> tensor<5632x64x17xi16>
    %2134 = flow.tensor.bitcast %4 : tensor<5632x2176xi8> -> tensor<5632x64x1x17xi16>
    %2135 = flow.dispatch.workgroups(%2134) : (tensor<5632x64x1x17xi16>) -> tensor<5632x64x1xi16> =
        (%arg7: !iree_tensor_ext.dispatch.tensor<readonly:tensor<5632x64x1x17xi16>>, %arg8: !iree_tensor_ext.dispatch.tensor<writeonly:tensor<5632x64x1xi16>>) {
      %2173 = iree_tensor_ext.dispatch.tensor.load %arg7, offsets = [0, 0, 0, 0], sizes = [5632, 64, 1, 1], strides = [1, 1, 1, 1] : !iree_tensor_ext.dispatch.tensor<readonly:tensor<5632x64x1x17xi16>> -> tensor<5632x64x1xi16>
      iree_tensor_ext.dispatch.tensor.store %2173, %arg8, offsets = [0, 0, 0], sizes = [5632, 64, 1], strides = [1, 1, 1] : tensor<5632x64x1xi16> -> !iree_tensor_ext.dispatch.tensor<writeonly:tensor<5632x64x1xi16>>
      flow.return
    } count() -> (index, index, index) {
      %x, %y, %z = iree_tensor_ext.dispatch.workgroup_count_from_slice()
      flow.return %x, %y, %z : index, index, index
    }
    %2136 = flow.dispatch.workgroups(%2133) : (tensor<5632x64x17xi16>) -> tensor<5632x64x16xi16> =
        (%arg7: !iree_tensor_ext.dispatch.tensor<readonly:tensor<5632x64x17xi16>>, %arg8: !iree_tensor_ext.dispatch.tensor<writeonly:tensor<5632x64x16xi16>>) {
      %2173 = iree_tensor_ext.dispatch.tensor.load %arg7, offsets = [0, 0, 1], sizes = [5632, 64, 16], strides = [1, 1, 1] : !iree_tensor_ext.dispatch.tensor<readonly:tensor<5632x64x17xi16>> -> tensor<5632x64x16xi16>
      iree_tensor_ext.dispatch.tensor.store %2173, %arg8, offsets = [0, 0, 0], sizes = [5632, 64, 16], strides = [1, 1, 1] : tensor<5632x64x16xi16> -> !iree_tensor_ext.dispatch.tensor<writeonly:tensor<5632x64x16xi16>>
      flow.return
    } count() -> (index, index, index) {
      %x, %y, %z = iree_tensor_ext.dispatch.workgroup_count_from_slice()
      flow.return %x, %y, %z : index, index, index
    }
    %2137 = flow.tensor.bitcast %2136 : tensor<5632x64x16xi16> -> tensor<5632x64x32xi8>
    %2138 = flow.tensor.bitcast %2135 : tensor<5632x64x1xi16> -> tensor<5632x64xf16>
    %2139 = flow.tensor.bitcast %3 : tensor<5632x2176xi8> -> tensor<5632x64x1x17xi16>
    %2140 = flow.dispatch.workgroups(%2139) : (tensor<5632x64x1x17xi16>) -> tensor<5632x64x1xi16> =
        (%arg7: !iree_tensor_ext.dispatch.tensor<readonly:tensor<5632x64x1x17xi16>>, %arg8: !iree_tensor_ext.dispatch.tensor<writeonly:tensor<5632x64x1xi16>>) {
      %2173 = iree_tensor_ext.dispatch.tensor.load %arg7, offsets = [0, 0, 0, 0], sizes = [5632, 64, 1, 1], strides = [1, 1, 1, 1] : !iree_tensor_ext.dispatch.tensor<readonly:tensor<5632x64x1x17xi16>> -> tensor<5632x64x1xi16>
      iree_tensor_ext.dispatch.tensor.store %2173, %arg8, offsets = [0, 0, 0], sizes = [5632, 64, 1], strides = [1, 1, 1] : tensor<5632x64x1xi16> -> !iree_tensor_ext.dispatch.tensor<writeonly:tensor<5632x64x1xi16>>
      flow.return
    } count() -> (index, index, index) {
      %x, %y, %z = iree_tensor_ext.dispatch.workgroup_count_from_slice()
      flow.return %x, %y, %z : index, index, index
    }
    %2141 = flow.tensor.bitcast %2140 : tensor<5632x64x1xi16> -> tensor<5632x64xf16>
    %2142 = flow.tensor.bitcast %3 : tensor<5632x2176xi8> -> tensor<5632x64x17xi16>
    %2143 = flow.dispatch.workgroups(%2142) : (tensor<5632x64x17xi16>) -> tensor<5632x64x16xi16> =
        (%arg7: !iree_tensor_ext.dispatch.tensor<readonly:tensor<5632x64x17xi16>>, %arg8: !iree_tensor_ext.dispatch.tensor<writeonly:tensor<5632x64x16xi16>>) {
      %2173 = iree_tensor_ext.dispatch.tensor.load %arg7, offsets = [0, 0, 1], sizes = [5632, 64, 16], strides = [1, 1, 1] : !iree_tensor_ext.dispatch.tensor<readonly:tensor<5632x64x17xi16>> -> tensor<5632x64x16xi16>
      iree_tensor_ext.dispatch.tensor.store %2173, %arg8, offsets = [0, 0, 0], sizes = [5632, 64, 16], strides = [1, 1, 1] : tensor<5632x64x16xi16> -> !iree_tensor_ext.dispatch.tensor<writeonly:tensor<5632x64x16xi16>>
      flow.return
    } count() -> (index, index, index) {
      %x, %y, %z = iree_tensor_ext.dispatch.workgroup_count_from_slice()
      flow.return %x, %y, %z : index, index, index
    }
    %2144 = flow.tensor.bitcast %2143 : tensor<5632x64x16xi16> -> tensor<5632x64x32xi8>
    %2145 = flow.dispatch.workgroups(%2141, %2144, %2132) : (tensor<5632x64xf16>, tensor<5632x64x32xi8>, tensor<4x64x32xf16>) -> tensor<4x5632xf16> =
        (%arg7: !iree_tensor_ext.dispatch.tensor<readonly:tensor<5632x64xf16>>, %arg8: !iree_tensor_ext.dispatch.tensor<readonly:tensor<5632x64x32xi8>>, %arg9: !iree_tensor_ext.dispatch.tensor<readonly:tensor<4x64x32xf16>>, %arg10: !iree_tensor_ext.dispatch.tensor<writeonly:tensor<4x5632xf16>>) {
      %cst_0 = arith.constant 0.000000e+00 : f32
      %2173 = iree_tensor_ext.dispatch.tensor.load %arg7, offsets = [0, 0], sizes = [5632, 64], strides = [1, 1] : !iree_tensor_ext.dispatch.tensor<readonly:tensor<5632x64xf16>> -> tensor<5632x64xf16>
      %2174 = iree_tensor_ext.dispatch.tensor.load %arg8, offsets = [0, 0, 0], sizes = [5632, 64, 32], strides = [1, 1, 1] : !iree_tensor_ext.dispatch.tensor<readonly:tensor<5632x64x32xi8>> -> tensor<5632x64x32xi8>
      %2175 = iree_tensor_ext.dispatch.tensor.load %arg9, offsets = [0, 0, 0], sizes = [4, 64, 32], strides = [1, 1, 1] : !iree_tensor_ext.dispatch.tensor<readonly:tensor<4x64x32xf16>> -> tensor<4x64x32xf16>
      %2176 = tensor.empty() : tensor<4x5632xf16>
      %2177 = tensor.empty() : tensor<4x5632xf32>
      %2178 = tensor.empty() : tensor<5632x64x32xf16>
      %2179 = linalg.generic {indexing_maps = [#map4, #map5, #map5], iterator_types = ["parallel", "parallel", "parallel"]} ins(%2173, %2174 : tensor<5632x64xf16>, tensor<5632x64x32xi8>) outs(%2178 : tensor<5632x64x32xf16>) {
      ^bb0(%in: f16, %in_1: i8, %out: f16):
        %2183 = arith.extsi %in_1 : i8 to i32
        %2184 = arith.sitofp %2183 : i32 to f16
        %2185 = arith.mulf %2184, %in : f16
        linalg.yield %2185 : f16
      } -> tensor<5632x64x32xf16>
      %2180 = linalg.fill ins(%cst_0 : f32) outs(%2177 : tensor<4x5632xf32>) -> tensor<4x5632xf32>
      %2181 = linalg.generic {indexing_maps = [#map6, #map7, #map8], iterator_types = ["parallel", "parallel", "reduction", "reduction"]} ins(%2175, %2179 : tensor<4x64x32xf16>, tensor<5632x64x32xf16>) outs(%2180 : tensor<4x5632xf32>) {
      ^bb0(%in: f16, %in_1: f16, %out: f32):
        %2183 = arith.mulf %in, %in_1 : f16
        %2184 = arith.extf %2183 : f16 to f32
        %2185 = arith.addf %2184, %out : f32
        linalg.yield %2185 : f32
      } -> tensor<4x5632xf32>
      %2182 = linalg.generic {indexing_maps = [#map1, #map1], iterator_types = ["parallel", "parallel"]} ins(%2181 : tensor<4x5632xf32>) outs(%2176 : tensor<4x5632xf16>) {
      ^bb0(%in: f32, %out: f16):
        %2183 = arith.truncf %in : f32 to f16
        linalg.yield %2183 : f16
      } -> tensor<4x5632xf16>
      iree_tensor_ext.dispatch.tensor.store %2182, %arg10, offsets = [0, 0], sizes = [4, 5632], strides = [1, 1] : tensor<4x5632xf16> -> !iree_tensor_ext.dispatch.tensor<writeonly:tensor<4x5632xf16>>
      flow.return
    } count() -> (index, index, index) {
      %x, %y, %z = iree_tensor_ext.dispatch.workgroup_count_from_slice()
      flow.return %x, %y, %z : index, index, index
    }
    %2146 = flow.dispatch.workgroups(%2138, %2137, %2132, %2145) : (tensor<5632x64xf16>, tensor<5632x64x32xi8>, tensor<4x64x32xf16>, tensor<4x5632xf16>) -> tensor<4x5632xf16> =
        (%arg7: !iree_tensor_ext.dispatch.tensor<readonly:tensor<5632x64xf16>>, %arg8: !iree_tensor_ext.dispatch.tensor<readonly:tensor<5632x64x32xi8>>, %arg9: !iree_tensor_ext.dispatch.tensor<readonly:tensor<4x64x32xf16>>, %arg10: !iree_tensor_ext.dispatch.tensor<readonly:tensor<4x5632xf16>>, %arg11: !iree_tensor_ext.dispatch.tensor<writeonly:tensor<4x5632xf16>>) {
      %cst_0 = arith.constant 0.000000e+00 : f32
      %cst_1 = arith.constant 1.000000e+00 : f16
      %2173 = iree_tensor_ext.dispatch.tensor.load %arg7, offsets = [0, 0], sizes = [5632, 64], strides = [1, 1] : !iree_tensor_ext.dispatch.tensor<readonly:tensor<5632x64xf16>> -> tensor<5632x64xf16>
      %2174 = iree_tensor_ext.dispatch.tensor.load %arg8, offsets = [0, 0, 0], sizes = [5632, 64, 32], strides = [1, 1, 1] : !iree_tensor_ext.dispatch.tensor<readonly:tensor<5632x64x32xi8>> -> tensor<5632x64x32xi8>
      %2175 = iree_tensor_ext.dispatch.tensor.load %arg9, offsets = [0, 0, 0], sizes = [4, 64, 32], strides = [1, 1, 1] : !iree_tensor_ext.dispatch.tensor<readonly:tensor<4x64x32xf16>> -> tensor<4x64x32xf16>
      %2176 = iree_tensor_ext.dispatch.tensor.load %arg10, offsets = [0, 0], sizes = [4, 5632], strides = [1, 1] : !iree_tensor_ext.dispatch.tensor<readonly:tensor<4x5632xf16>> -> tensor<4x5632xf16>
      %2177 = tensor.empty() : tensor<4x5632xf16>
      %2178 = tensor.empty() : tensor<4x5632xf32>
      %2179 = tensor.empty() : tensor<5632x64x32xf16>
      %2180 = linalg.generic {indexing_maps = [#map4, #map5, #map5], iterator_types = ["parallel", "parallel", "parallel"]} ins(%2173, %2174 : tensor<5632x64xf16>, tensor<5632x64x32xi8>) outs(%2179 : tensor<5632x64x32xf16>) {
      ^bb0(%in: f16, %in_2: i8, %out: f16):
        %2184 = arith.extsi %in_2 : i8 to i32
        %2185 = arith.sitofp %2184 : i32 to f16
        %2186 = arith.mulf %2185, %in : f16
        linalg.yield %2186 : f16
      } -> tensor<5632x64x32xf16>
      %2181 = linalg.fill ins(%cst_0 : f32) outs(%2178 : tensor<4x5632xf32>) -> tensor<4x5632xf32>
      %2182 = linalg.generic {indexing_maps = [#map6, #map7, #map8], iterator_types = ["parallel", "parallel", "reduction", "reduction"]} ins(%2175, %2180 : tensor<4x64x32xf16>, tensor<5632x64x32xf16>) outs(%2181 : tensor<4x5632xf32>) {
      ^bb0(%in: f16, %in_2: f16, %out: f32):
        %2184 = arith.mulf %in, %in_2 : f16
        %2185 = arith.extf %2184 : f16 to f32
        %2186 = arith.addf %2185, %out : f32
        linalg.yield %2186 : f32
      } -> tensor<4x5632xf32>
      %2183 = linalg.generic {indexing_maps = [#map1, #map1, #map1], iterator_types = ["parallel", "parallel"]} ins(%2182, %2176 : tensor<4x5632xf32>, tensor<4x5632xf16>) outs(%2177 : tensor<4x5632xf16>) {
      ^bb0(%in: f32, %in_2: f16, %out: f16):
        %2184 = arith.truncf %in : f32 to f16
        %2185 = arith.negf %2184 : f16
        %2186 = math.exp %2185 : f16
        %2187 = arith.addf %2186, %cst_1 : f16
        %2188 = arith.divf %cst_1, %2187 : f16
        %2189 = arith.mulf %2188, %2184 : f16
        %2190 = arith.mulf %2189, %in_2 : f16
        linalg.yield %2190 : f16
      } -> tensor<4x5632xf16>
      iree_tensor_ext.dispatch.tensor.store %2183, %arg11, offsets = [0, 0], sizes = [4, 5632], strides = [1, 1] : tensor<4x5632xf16> -> !iree_tensor_ext.dispatch.tensor<writeonly:tensor<4x5632xf16>>
      flow.return
    } count() -> (index, index, index) {
      %x, %y, %z = iree_tensor_ext.dispatch.workgroup_count_from_slice()
      flow.return %x, %y, %z : index, index, index
    }
    %2147 = flow.tensor.reshape %2146 : tensor<4x5632xf16> -> tensor<4x176x32xf16>
    %2148 = flow.tensor.bitcast %2 : tensor<2048x5984xi8> -> tensor<2048x176x17xi16>
    %2149 = flow.tensor.bitcast %2 : tensor<2048x5984xi8> -> tensor<2048x176x1x17xi16>
    %2150 = flow.dispatch.workgroups(%2149) : (tensor<2048x176x1x17xi16>) -> tensor<2048x176x1xi16> =
        (%arg7: !iree_tensor_ext.dispatch.tensor<readonly:tensor<2048x176x1x17xi16>>, %arg8: !iree_tensor_ext.dispatch.tensor<writeonly:tensor<2048x176x1xi16>>) {
      %2173 = iree_tensor_ext.dispatch.tensor.load %arg7, offsets = [0, 0, 0, 0], sizes = [2048, 176, 1, 1], strides = [1, 1, 1, 1] : !iree_tensor_ext.dispatch.tensor<readonly:tensor<2048x176x1x17xi16>> -> tensor<2048x176x1xi16>
      iree_tensor_ext.dispatch.tensor.store %2173, %arg8, offsets = [0, 0, 0], sizes = [2048, 176, 1], strides = [1, 1, 1] : tensor<2048x176x1xi16> -> !iree_tensor_ext.dispatch.tensor<writeonly:tensor<2048x176x1xi16>>
      flow.return
    } count() -> (index, index, index) {
      %x, %y, %z = iree_tensor_ext.dispatch.workgroup_count_from_slice()
      flow.return %x, %y, %z : index, index, index
    }
    %2151 = flow.dispatch.workgroups(%2148) : (tensor<2048x176x17xi16>) -> tensor<2048x176x16xi16> =
        (%arg7: !iree_tensor_ext.dispatch.tensor<readonly:tensor<2048x176x17xi16>>, %arg8: !iree_tensor_ext.dispatch.tensor<writeonly:tensor<2048x176x16xi16>>) {
      %2173 = iree_tensor_ext.dispatch.tensor.load %arg7, offsets = [0, 0, 1], sizes = [2048, 176, 16], strides = [1, 1, 1] : !iree_tensor_ext.dispatch.tensor<readonly:tensor<2048x176x17xi16>> -> tensor<2048x176x16xi16>
      iree_tensor_ext.dispatch.tensor.store %2173, %arg8, offsets = [0, 0, 0], sizes = [2048, 176, 16], strides = [1, 1, 1] : tensor<2048x176x16xi16> -> !iree_tensor_ext.dispatch.tensor<writeonly:tensor<2048x176x16xi16>>
      flow.return
    } count() -> (index, index, index) {
      %x, %y, %z = iree_tensor_ext.dispatch.workgroup_count_from_slice()
      flow.return %x, %y, %z : index, index, index
    }
    %2152 = flow.tensor.bitcast %2151 : tensor<2048x176x16xi16> -> tensor<2048x176x32xi8>
    %2153 = flow.tensor.bitcast %2150 : tensor<2048x176x1xi16> -> tensor<2048x176xf16>
    %2154 = flow.dispatch.workgroups(%2153, %2152, %2147, %2125) : (tensor<2048x176xf16>, tensor<2048x176x32xi8>, tensor<4x176x32xf16>, tensor<4x2048xf16>) -> tensor<4x2048xf16> =
        (%arg7: !iree_tensor_ext.dispatch.tensor<readonly:tensor<2048x176xf16>>, %arg8: !iree_tensor_ext.dispatch.tensor<readonly:tensor<2048x176x32xi8>>, %arg9: !iree_tensor_ext.dispatch.tensor<readonly:tensor<4x176x32xf16>>, %arg10: !iree_tensor_ext.dispatch.tensor<readonly:tensor<4x2048xf16>>, %arg11: !iree_tensor_ext.dispatch.tensor<writeonly:tensor<4x2048xf16>>) {
      %cst_0 = arith.constant 0.000000e+00 : f32
      %2173 = iree_tensor_ext.dispatch.tensor.load %arg7, offsets = [0, 0], sizes = [2048, 176], strides = [1, 1] : !iree_tensor_ext.dispatch.tensor<readonly:tensor<2048x176xf16>> -> tensor<2048x176xf16>
      %2174 = iree_tensor_ext.dispatch.tensor.load %arg8, offsets = [0, 0, 0], sizes = [2048, 176, 32], strides = [1, 1, 1] : !iree_tensor_ext.dispatch.tensor<readonly:tensor<2048x176x32xi8>> -> tensor<2048x176x32xi8>
      %2175 = iree_tensor_ext.dispatch.tensor.load %arg9, offsets = [0, 0, 0], sizes = [4, 176, 32], strides = [1, 1, 1] : !iree_tensor_ext.dispatch.tensor<readonly:tensor<4x176x32xf16>> -> tensor<4x176x32xf16>
      %2176 = iree_tensor_ext.dispatch.tensor.load %arg10, offsets = [0, 0], sizes = [4, 2048], strides = [1, 1] : !iree_tensor_ext.dispatch.tensor<readonly:tensor<4x2048xf16>> -> tensor<4x2048xf16>
      %2177 = tensor.empty() : tensor<4x2048xf16>
      %2178 = tensor.empty() : tensor<4x2048xf32>
      %2179 = tensor.empty() : tensor<2048x176x32xf16>
      %2180 = linalg.generic {indexing_maps = [#map4, #map5, #map5], iterator_types = ["parallel", "parallel", "parallel"]} ins(%2173, %2174 : tensor<2048x176xf16>, tensor<2048x176x32xi8>) outs(%2179 : tensor<2048x176x32xf16>) {
      ^bb0(%in: f16, %in_1: i8, %out: f16):
        %2184 = arith.extsi %in_1 : i8 to i32
        %2185 = arith.sitofp %2184 : i32 to f16
        %2186 = arith.mulf %2185, %in : f16
        linalg.yield %2186 : f16
      } -> tensor<2048x176x32xf16>
      %2181 = linalg.fill ins(%cst_0 : f32) outs(%2178 : tensor<4x2048xf32>) -> tensor<4x2048xf32>
      %2182 = linalg.generic {indexing_maps = [#map6, #map7, #map8], iterator_types = ["parallel", "parallel", "reduction", "reduction"]} ins(%2175, %2180 : tensor<4x176x32xf16>, tensor<2048x176x32xf16>) outs(%2181 : tensor<4x2048xf32>) {
      ^bb0(%in: f16, %in_1: f16, %out: f32):
        %2184 = arith.mulf %in, %in_1 : f16
        %2185 = arith.extf %2184 : f16 to f32
        %2186 = arith.addf %2185, %out : f32
        linalg.yield %2186 : f32
      } -> tensor<4x2048xf32>
      %2183 = linalg.generic {indexing_maps = [#map1, #map1, #map1], iterator_types = ["parallel", "parallel"]} ins(%2176, %2182 : tensor<4x2048xf16>, tensor<4x2048xf32>) outs(%2177 : tensor<4x2048xf16>) {
      ^bb0(%in: f16, %in_1: f32, %out: f16):
        %2184 = arith.truncf %in_1 : f32 to f16
        %2185 = arith.addf %in, %2184 : f16
        linalg.yield %2185 : f16
      } -> tensor<4x2048xf16>
      iree_tensor_ext.dispatch.tensor.store %2183, %arg11, offsets = [0, 0], sizes = [4, 2048], strides = [1, 1] : tensor<4x2048xf16> -> !iree_tensor_ext.dispatch.tensor<writeonly:tensor<4x2048xf16>>
      flow.return
    } count() -> (index, index, index) {
      %x, %y, %z = iree_tensor_ext.dispatch.workgroup_count_from_slice()
      flow.return %x, %y, %z : index, index, index
    }
    %2155 = flow.tensor.reshape %2154 : tensor<4x2048xf16> -> tensor<8192xf16>
    %2156 = flow.dispatch.workgroups(%2155) : (tensor<8192xf16>) -> tensor<8192xf32> =
        (%arg7: !iree_tensor_ext.dispatch.tensor<readonly:tensor<8192xf16>>, %arg8: !iree_tensor_ext.dispatch.tensor<writeonly:tensor<8192xf32>>) {
      %2173 = iree_tensor_ext.dispatch.tensor.load %arg7, offsets = [0], sizes = [8192], strides = [1] : !iree_tensor_ext.dispatch.tensor<readonly:tensor<8192xf16>> -> tensor<8192xf16>
      %2174 = tensor.empty() : tensor<8192xf32>
      %2175 = linalg.generic {indexing_maps = [#map2, #map2], iterator_types = ["parallel"]} ins(%2173 : tensor<8192xf16>) outs(%2174 : tensor<8192xf32>) {
      ^bb0(%in: f16, %out: f32):
        %2176 = arith.extf %in : f16 to f32
        linalg.yield %2176 : f32
      } -> tensor<8192xf32>
      iree_tensor_ext.dispatch.tensor.store %2175, %arg8, offsets = [0], sizes = [8192], strides = [1] : tensor<8192xf32> -> !iree_tensor_ext.dispatch.tensor<writeonly:tensor<8192xf32>>
      flow.return
    } count() -> (index, index, index) {
      %x, %y, %z = iree_tensor_ext.dispatch.workgroup_count_from_slice()
      flow.return %x, %y, %z : index, index, index
    }
    %2157 = flow.tensor.reshape %2156 : tensor<8192xf32> -> tensor<4x2048xf32>
    %2158 = flow.dispatch.workgroups(%2154) : (tensor<4x2048xf16>) -> tensor<4xf32> =
        (%arg7: !iree_tensor_ext.dispatch.tensor<readonly:tensor<4x2048xf16>>, %arg8: !iree_tensor_ext.dispatch.tensor<writeonly:tensor<4xf32>>) {
      %cst_0 = arith.constant 0.000000e+00 : f32
      %c2_i64 = arith.constant 2 : i64
      %2173 = iree_tensor_ext.dispatch.tensor.load %arg7, offsets = [0, 0], sizes = [4, 2048], strides = [1, 1] : !iree_tensor_ext.dispatch.tensor<readonly:tensor<4x2048xf16>> -> tensor<4x2048xf16>
      %2174 = tensor.empty() : tensor<4xf32>
      %2175 = tensor.empty() : tensor<4x2048xf32>
      %2176 = linalg.fill ins(%cst_0 : f32) outs(%2174 : tensor<4xf32>) -> tensor<4xf32>
      %2177 = linalg.generic {indexing_maps = [#map1, #map1], iterator_types = ["parallel", "parallel"]} ins(%2173 : tensor<4x2048xf16>) outs(%2175 : tensor<4x2048xf32>) {
      ^bb0(%in: f16, %out: f32):
        %2179 = arith.extf %in : f16 to f32
        linalg.yield %2179 : f32
      } -> tensor<4x2048xf32>
      %2178 = linalg.generic {indexing_maps = [#map1, #map], iterator_types = ["parallel", "reduction"]} ins(%2177 : tensor<4x2048xf32>) outs(%2176 : tensor<4xf32>) {
      ^bb0(%in: f32, %out: f32):
        %2179 = math.fpowi %in, %c2_i64 : f32, i64
        %2180 = arith.addf %2179, %out : f32
        linalg.yield %2180 : f32
      } -> tensor<4xf32>
      iree_tensor_ext.dispatch.tensor.store %2178, %arg8, offsets = [0], sizes = [4], strides = [1] : tensor<4xf32> -> !iree_tensor_ext.dispatch.tensor<writeonly:tensor<4xf32>>
      flow.return
    } count() -> (index, index, index) {
      %x, %y, %z = iree_tensor_ext.dispatch.workgroup_count_from_slice()
      flow.return %x, %y, %z : index, index, index
    }
    %2159 = flow.dispatch.workgroups(%2157, %2158) : (tensor<4x2048xf32>, tensor<4xf32>) -> tensor<4x2048xf16> =
        (%arg7: !iree_tensor_ext.dispatch.tensor<readonly:tensor<4x2048xf32>>, %arg8: !iree_tensor_ext.dispatch.tensor<readonly:tensor<4xf32>>, %arg9: !iree_tensor_ext.dispatch.tensor<writeonly:tensor<4x2048xf16>>) {
      %cst_0 = arith.constant 2.048000e+03 : f32
      %cst_1 = arith.constant 9.99999974E-6 : f32
      %2173 = iree_tensor_ext.dispatch.tensor.load %arg7, offsets = [0, 0], sizes = [4, 2048], strides = [1, 1] : !iree_tensor_ext.dispatch.tensor<readonly:tensor<4x2048xf32>> -> tensor<4x2048xf32>
      %2174 = iree_tensor_ext.dispatch.tensor.load %arg8, offsets = [0], sizes = [4], strides = [1] : !iree_tensor_ext.dispatch.tensor<readonly:tensor<4xf32>> -> tensor<4xf32>
      %2175 = tensor.empty() : tensor<4x2048xf16>
      %2176 = linalg.generic {indexing_maps = [#map1, #map, #map1], iterator_types = ["parallel", "parallel"]} ins(%2173, %2174 : tensor<4x2048xf32>, tensor<4xf32>) outs(%2175 : tensor<4x2048xf16>) {
      ^bb0(%in: f32, %in_2: f32, %out: f16):
        %2177 = arith.divf %in_2, %cst_0 : f32
        %2178 = arith.addf %2177, %cst_1 : f32
        %2179 = math.rsqrt %2178 : f32
        %2180 = arith.mulf %in, %2179 : f32
        %2181 = arith.truncf %2180 : f32 to f16
        linalg.yield %2181 : f16
      } -> tensor<4x2048xf16>
      iree_tensor_ext.dispatch.tensor.store %2176, %arg9, offsets = [0, 0], sizes = [4, 2048], strides = [1, 1] : tensor<4x2048xf16> -> !iree_tensor_ext.dispatch.tensor<writeonly:tensor<4x2048xf16>>
      flow.return
    } count() -> (index, index, index) {
      %x, %y, %z = iree_tensor_ext.dispatch.workgroup_count_from_slice()
      flow.return %x, %y, %z : index, index, index
    }
    %2160 = flow.dispatch.workgroups(%1, %2159) : (tensor<2048xf32>, tensor<4x2048xf16>) -> tensor<4x2048xf16> =
        (%arg7: !iree_tensor_ext.dispatch.tensor<readonly:tensor<2048xf32>>, %arg8: !iree_tensor_ext.dispatch.tensor<readonly:tensor<4x2048xf16>>, %arg9: !iree_tensor_ext.dispatch.tensor<writeonly:tensor<4x2048xf16>>) {
      %2173 = iree_tensor_ext.dispatch.tensor.load %arg7, offsets = [0], sizes = [2048], strides = [1] : !iree_tensor_ext.dispatch.tensor<readonly:tensor<2048xf32>> -> tensor<2048xf32>
      %2174 = iree_tensor_ext.dispatch.tensor.load %arg8, offsets = [0, 0], sizes = [4, 2048], strides = [1, 1] : !iree_tensor_ext.dispatch.tensor<readonly:tensor<4x2048xf16>> -> tensor<4x2048xf16>
      %2175 = tensor.empty() : tensor<4x2048xf16>
      %2176 = linalg.generic {indexing_maps = [#map3, #map1, #map1], iterator_types = ["parallel", "parallel"]} ins(%2173, %2174 : tensor<2048xf32>, tensor<4x2048xf16>) outs(%2175 : tensor<4x2048xf16>) {
      ^bb0(%in: f32, %in_0: f16, %out: f16):
        %2177 = arith.extf %in_0 : f16 to f32
        %2178 = arith.mulf %in, %2177 : f32
        %2179 = arith.truncf %2178 : f32 to f16
        linalg.yield %2179 : f16
      } -> tensor<4x2048xf16>
      iree_tensor_ext.dispatch.tensor.store %2176, %arg9, offsets = [0, 0], sizes = [4, 2048], strides = [1, 1] : tensor<4x2048xf16> -> !iree_tensor_ext.dispatch.tensor<writeonly:tensor<4x2048xf16>>
      flow.return
    } count() -> (index, index, index) {
      %x, %y, %z = iree_tensor_ext.dispatch.workgroup_count_from_slice()
      flow.return %x, %y, %z : index, index, index
    }
    %2161 = flow.tensor.reshape %2160 : tensor<4x2048xf16> -> tensor<4x64x32xf16>
    %2162 = flow.tensor.bitcast %0 : tensor<32000x2176xi8> -> tensor<32000x64x17xi16>
    %2163 = flow.tensor.bitcast %0 : tensor<32000x2176xi8> -> tensor<32000x64x1x17xi16>
    %2164 = flow.dispatch.workgroups(%2163) : (tensor<32000x64x1x17xi16>) -> tensor<32000x64x1xi16> =
        (%arg7: !iree_tensor_ext.dispatch.tensor<readonly:tensor<32000x64x1x17xi16>>, %arg8: !iree_tensor_ext.dispatch.tensor<writeonly:tensor<32000x64x1xi16>>) {
      %2173 = iree_tensor_ext.dispatch.tensor.load %arg7, offsets = [0, 0, 0, 0], sizes = [32000, 64, 1, 1], strides = [1, 1, 1, 1] : !iree_tensor_ext.dispatch.tensor<readonly:tensor<32000x64x1x17xi16>> -> tensor<32000x64x1xi16>
      iree_tensor_ext.dispatch.tensor.store %2173, %arg8, offsets = [0, 0, 0], sizes = [32000, 64, 1], strides = [1, 1, 1] : tensor<32000x64x1xi16> -> !iree_tensor_ext.dispatch.tensor<writeonly:tensor<32000x64x1xi16>>
      flow.return
    } count() -> (index, index, index) {
      %x, %y, %z = iree_tensor_ext.dispatch.workgroup_count_from_slice()
      flow.return %x, %y, %z : index, index, index
    }
    %2165 = flow.dispatch.workgroups(%2162) : (tensor<32000x64x17xi16>) -> tensor<32000x64x16xi16> =
        (%arg7: !iree_tensor_ext.dispatch.tensor<readonly:tensor<32000x64x17xi16>>, %arg8: !iree_tensor_ext.dispatch.tensor<writeonly:tensor<32000x64x16xi16>>) {
      %2173 = iree_tensor_ext.dispatch.tensor.load %arg7, offsets = [0, 0, 1], sizes = [32000, 64, 16], strides = [1, 1, 1] : !iree_tensor_ext.dispatch.tensor<readonly:tensor<32000x64x17xi16>> -> tensor<32000x64x16xi16>
      iree_tensor_ext.dispatch.tensor.store %2173, %arg8, offsets = [0, 0, 0], sizes = [32000, 64, 16], strides = [1, 1, 1] : tensor<32000x64x16xi16> -> !iree_tensor_ext.dispatch.tensor<writeonly:tensor<32000x64x16xi16>>
      flow.return
    } count() -> (index, index, index) {
      %x, %y, %z = iree_tensor_ext.dispatch.workgroup_count_from_slice()
      flow.return %x, %y, %z : index, index, index
    }
    %2166 = flow.tensor.bitcast %2165 : tensor<32000x64x16xi16> -> tensor<32000x64x32xi8>
    %2167 = flow.tensor.bitcast %2164 : tensor<32000x64x1xi16> -> tensor<32000x64xf16>
    %2168 = flow.dispatch.workgroups(%2167, %2166, %2161) : (tensor<32000x64xf16>, tensor<32000x64x32xi8>, tensor<4x64x32xf16>) -> tensor<4x32000xf16> =
        (%arg7: !iree_tensor_ext.dispatch.tensor<readonly:tensor<32000x64xf16>>, %arg8: !iree_tensor_ext.dispatch.tensor<readonly:tensor<32000x64x32xi8>>, %arg9: !iree_tensor_ext.dispatch.tensor<readonly:tensor<4x64x32xf16>>, %arg10: !iree_tensor_ext.dispatch.tensor<writeonly:tensor<4x32000xf16>>) {
      %cst_0 = arith.constant 0.000000e+00 : f32
      %2173 = iree_tensor_ext.dispatch.tensor.load %arg7, offsets = [0, 0], sizes = [32000, 64], strides = [1, 1] : !iree_tensor_ext.dispatch.tensor<readonly:tensor<32000x64xf16>> -> tensor<32000x64xf16>
      %2174 = iree_tensor_ext.dispatch.tensor.load %arg8, offsets = [0, 0, 0], sizes = [32000, 64, 32], strides = [1, 1, 1] : !iree_tensor_ext.dispatch.tensor<readonly:tensor<32000x64x32xi8>> -> tensor<32000x64x32xi8>
      %2175 = iree_tensor_ext.dispatch.tensor.load %arg9, offsets = [0, 0, 0], sizes = [4, 64, 32], strides = [1, 1, 1] : !iree_tensor_ext.dispatch.tensor<readonly:tensor<4x64x32xf16>> -> tensor<4x64x32xf16>
      %2176 = tensor.empty() : tensor<4x32000xf16>
      %2177 = tensor.empty() : tensor<4x32000xf32>
      %2178 = tensor.empty() : tensor<32000x64x32xf16>
      %2179 = linalg.generic {indexing_maps = [#map4, #map5, #map5], iterator_types = ["parallel", "parallel", "parallel"]} ins(%2173, %2174 : tensor<32000x64xf16>, tensor<32000x64x32xi8>) outs(%2178 : tensor<32000x64x32xf16>) {
      ^bb0(%in: f16, %in_1: i8, %out: f16):
        %2183 = arith.extsi %in_1 : i8 to i32
        %2184 = arith.sitofp %2183 : i32 to f16
        %2185 = arith.mulf %2184, %in : f16
        linalg.yield %2185 : f16
      } -> tensor<32000x64x32xf16>
      %2180 = linalg.fill ins(%cst_0 : f32) outs(%2177 : tensor<4x32000xf32>) -> tensor<4x32000xf32>
      %2181 = linalg.generic {indexing_maps = [#map6, #map7, #map8], iterator_types = ["parallel", "parallel", "reduction", "reduction"]} ins(%2175, %2179 : tensor<4x64x32xf16>, tensor<32000x64x32xf16>) outs(%2180 : tensor<4x32000xf32>) {
      ^bb0(%in: f16, %in_1: f16, %out: f32):
        %2183 = arith.mulf %in, %in_1 : f16
        %2184 = arith.extf %2183 : f16 to f32
        %2185 = arith.addf %2184, %out : f32
        linalg.yield %2185 : f32
      } -> tensor<4x32000xf32>
      %2182 = linalg.generic {indexing_maps = [#map1, #map1], iterator_types = ["parallel", "parallel"]} ins(%2181 : tensor<4x32000xf32>) outs(%2176 : tensor<4x32000xf16>) {
      ^bb0(%in: f32, %out: f16):
        %2183 = arith.truncf %in : f32 to f16
        linalg.yield %2183 : f16
      } -> tensor<4x32000xf16>
      iree_tensor_ext.dispatch.tensor.store %2182, %arg10, offsets = [0, 0], sizes = [4, 32000], strides = [1, 1] : tensor<4x32000xf16> -> !iree_tensor_ext.dispatch.tensor<writeonly:tensor<4x32000xf16>>
      flow.return
    } count() -> (index, index, index) {
      %x, %y, %z = iree_tensor_ext.dispatch.workgroup_count_from_slice()
      flow.return %x, %y, %z : index, index, index
    }
    %2169 = flow.tensor.reshape %2168 : tensor<4x32000xf16> -> tensor<4x1x32000xf16>
    %2170 = hal.tensor.alias on(#hal.device.affinity<@__device_0>) wait(%arg5) => %2111 : tensor<?x360448xf16>{%210} to %arg4 : !hal.buffer_view
    %2171:2 = hal.tensor.barrier join(%2170, %2169 : tensor<?x360448xf16>, tensor<4x1x32000xf16>) => %arg6 : !hal.fence
    %2172 = hal.tensor.export %2171#1 : tensor<4x1x32000xf16> -> !hal.buffer_view
    util.return %2172 : !hal.buffer_view
  }
  util.func public @decode_bs4(%arg0: !hal.buffer_view, %arg1: !hal.buffer_view, %arg2: !hal.buffer_view, %arg3: !hal.buffer_view, %arg4: !hal.buffer_view) -> !hal.buffer_view attributes {iree.abi.stub} {
    %0 = util.null : !hal.fence
    %c-1_i32 = arith.constant -1 : i32
    %c0 = arith.constant 0 : index
    %device_0 = hal.devices.get %c0 : !hal.device
    %fence = hal.fence.create device(%device_0 : !hal.device) flags("None") : !hal.fence
    %1 = util.call @decode_bs4$async(%arg0, %arg1, %arg2, %arg3, %arg4, %0, %fence) : (!hal.buffer_view, !hal.buffer_view, !hal.buffer_view, !hal.buffer_view, !hal.buffer_view, !hal.fence, !hal.fence) -> !hal.buffer_view
    %status = hal.fence.await until([%fence]) timeout_millis(%c-1_i32) flags("None") : i32
    util.return %1 : !hal.buffer_view
  }
}
