#executable_target_embedded_elf_x86_64 = #hal.executable.target<"llvm-cpu", "embedded-elf-x86_64", {cpu = "znver3", cpu_features = "+prfchw,-cldemote,+avx,+aes,+sahf,+pclmul,-xop,+crc32,-amx-fp8,+xsaves,-avx512fp16,-usermsr,-sm4,-egpr,+sse4.1,-avx512ifma,+xsave,+sse4.2,-tsxldtrk,-sm3,-ptwrite,-widekl,-movrs,+invpcid,+64bit,+xsavec,-avx10.1-512,-avx512vpopcntdq,+cmov,-avx512vp2intersect,-avx512cd,+movbe,-avxvnniint8,-ccmp,-amx-int8,-kl,-avx10.1-256,-sha512,-avxvnni,-rtm,+adx,+avx2,-hreset,-movdiri,-serialize,+vpclmulqdq,-avx512vl,-uintr,-cf,+clflushopt,-raoint,-cmpccxadd,+bmi,-amx-tile,+sse,-avx10.2-256,-gfni,-avxvnniint16,-amx-fp16,-zu,-ndd,+xsaveopt,+rdrnd,-avx512f,-amx-bf16,-avx512bf16,-avx512vnni,-push2pop2,+cx8,-avx512bw,+sse3,+pku,-nf,-amx-tf32,-amx-avx512,+fsgsbase,+clzero,+mwaitx,-lwp,+lzcnt,+sha,-movdir64b,-ppx,+wbnoinvd,-enqcmd,-amx-transpose,-avx10.2-512,-avxneconvert,-tbm,-pconfig,-amx-complex,+ssse3,+cx16,+bmi2,+fma,+popcnt,-avxifma,+f16c,-avx512bitalg,+rdpru,+clwb,+mmx,+sse2,+rdseed,-avx512vbmi2,-prefetchi,-amx-movrs,+rdpid,-fma4,-avx512vbmi,+shstk,+vaes,-waitpkg,-sgx,+fxsr,-avx512dq,+sse4a", data_layout = "e-m:e-p270:32:32-p271:32:32-p272:64:64-i64:64-i128:128-f80:128-n8:16:32:64-S128", iree.encoding.resolver = #iree_cpu.cpu_encoding_resolver<>, max_stack_allocation_size = 32768 : i64, native_vector_size = 32 : i64, target_triple = "x86_64-unknown-unknown-eabi-elf"}>
#map = affine_map<(d0, d1) -> (d0)>
#map1 = affine_map<(d0, d1) -> (d0, d1)>
#map2 = affine_map<(d0) -> (d0)>
#map3 = affine_map<(d0, d1) -> (d1)>
#map4 = affine_map<(d0, d1, d2) -> (d0, d1)>
#map5 = affine_map<(d0, d1, d2) -> (d0, d1, d2)>
#map6 = affine_map<(d0, d1, d2, d3) -> (d0, d2, d3)>
#map7 = affine_map<(d0, d1, d2, d3) -> (d1, d2, d3)>
#map8 = affine_map<(d0, d1, d2, d3) -> (d0, d1)>
#map9 = affine_map<(d0, d1, d2, d3, d4) -> (d0, d1, d2, d4)>
#map10 = affine_map<(d0, d1, d2, d3, d4) -> (d1, d4)>
#map11 = affine_map<(d0, d1, d2, d3, d4) -> (d0, d1, d2, d3, d4)>
#map12 = affine_map<(d0, d1, d2, d3) -> (d0, d1, d2, d3)>
#map13 = affine_map<(d0, d1, d2, d3) -> (d0, d2, d1, d3)>
#map14 = affine_map<(d0, d1, d2, d3, d4) -> (d0, d2, d1, d4)>
#map15 = affine_map<(d0, d1, d2, d3, d4) -> (d2, d4)>
#map16 = affine_map<(d0, d1, d2, d3, d4, d5, d6) -> (d0, d1, d2, d3, d5)>
#map17 = affine_map<(d0, d1, d2, d3, d4, d5, d6) -> (d0, d6, d1, d5)>
#map18 = affine_map<(d0, d1, d2, d3, d4, d5, d6) -> (d0, d6, d1, d4)>
#map19 = affine_map<(d0, d1, d2, d3, d4, d5, d6) -> ()>
#map20 = affine_map<(d0, d1, d2, d3, d4, d5, d6) -> (d0, d1, d2, d3, d6)>
#map21 = affine_map<(d0, d1, d2, d3, d4, d5, d6) -> (d0, d1, d2, d3, d4)>
#map22 = affine_map<(d0, d1, d2, d3, d4) -> (d0, d3, d1, d2, d4)>
#map23 = affine_map<(d0, d1, d2, d3) -> (d0, d1, d3)>
#map24 = affine_map<(d0, d1, d2, d3) -> (d0, d3)>
#map25 = affine_map<(d0, d1, d2, d3, d4, d5) -> (d0, d3, d1, d4, d5)>
#map26 = affine_map<(d0, d1, d2, d3, d4, d5) -> (d0, d1, d2, d3, d4, d5)>
#map27 = affine_map<(d0, d1, d2, d3, d4, d5) -> (d0, d4, d1, d5, d3)>
#map28 = affine_map<(d0, d1, d2, d3) -> (d0, d2)>
#map29 = affine_map<(d0, d1, d2, d3) -> (d0, d3, d2)>
#map30 = affine_map<(d0, d1, d2, d3) -> ()>
#device_target_local = #hal.device.target<"local", [#executable_target_embedded_elf_x86_64]> : !hal.device
module @module attributes {stream.affinity.default = #hal.device.affinity<@__device_0>} {
  util.global private @__device_0 = #device_target_local
  flow.executable private @prefill_bs4$async_dispatch_0 {
    flow.executable.export public @prefill_bs4$async_dispatch_0_slow_memcpy workgroups() -> (index, index, index) {
      %x, %y, %z = iree_tensor_ext.dispatch.workgroup_count_from_slice()
      flow.return %x, %y, %z : index, index, index
    }
    builtin.module {
      func.func @prefill_bs4$async_dispatch_0_slow_memcpy(%arg0: !iree_tensor_ext.dispatch.tensor<readonly:tensor<32000x64x1x17xi16>>, %arg1: !iree_tensor_ext.dispatch.tensor<writeonly:tensor<32000x64x1xi16>>) {
        %0 = iree_tensor_ext.dispatch.tensor.load %arg0, offsets = [0, 0, 0, 0], sizes = [32000, 64, 1, 1], strides = [1, 1, 1, 1] : !iree_tensor_ext.dispatch.tensor<readonly:tensor<32000x64x1x17xi16>> -> tensor<32000x64x1xi16>
        iree_tensor_ext.dispatch.tensor.store %0, %arg1, offsets = [0, 0, 0], sizes = [32000, 64, 1], strides = [1, 1, 1] : tensor<32000x64x1xi16> -> !iree_tensor_ext.dispatch.tensor<writeonly:tensor<32000x64x1xi16>>
        return
      }
    }
  }
  flow.executable private @prefill_bs4$async_dispatch_1 {
    flow.executable.export public @prefill_bs4$async_dispatch_1_slow_memcpy workgroups() -> (index, index, index) {
      %x, %y, %z = iree_tensor_ext.dispatch.workgroup_count_from_slice()
      flow.return %x, %y, %z : index, index, index
    }
    builtin.module {
      func.func @prefill_bs4$async_dispatch_1_slow_memcpy(%arg0: !iree_tensor_ext.dispatch.tensor<readonly:tensor<32000x64x17xi16>>, %arg1: !iree_tensor_ext.dispatch.tensor<writeonly:tensor<32000x64x16xi16>>) {
        %0 = iree_tensor_ext.dispatch.tensor.load %arg0, offsets = [0, 0, 1], sizes = [32000, 64, 16], strides = [1, 1, 1] : !iree_tensor_ext.dispatch.tensor<readonly:tensor<32000x64x17xi16>> -> tensor<32000x64x16xi16>
        iree_tensor_ext.dispatch.tensor.store %0, %arg1, offsets = [0, 0, 0], sizes = [32000, 64, 16], strides = [1, 1, 1] : tensor<32000x64x16xi16> -> !iree_tensor_ext.dispatch.tensor<writeonly:tensor<32000x64x16xi16>>
        return
      }
    }
  }
  flow.executable private @prefill_bs4$async_dispatch_2 {
    flow.executable.export public @prefill_bs4$async_dispatch_2_elementwise_2048000x32_f16xi8xf16 workgroups() -> (index, index, index) {
      %x, %y, %z = iree_tensor_ext.dispatch.workgroup_count_from_slice()
      flow.return %x, %y, %z : index, index, index
    }
    builtin.module {
      func.func @prefill_bs4$async_dispatch_2_elementwise_2048000x32_f16xi8xf16(%arg0: !iree_tensor_ext.dispatch.tensor<readonly:tensor<2048000xf16>>, %arg1: !iree_tensor_ext.dispatch.tensor<readonly:tensor<2048000x32xi8>>, %arg2: !iree_tensor_ext.dispatch.tensor<writeonly:tensor<2048000x32xf16>>) {
        %0 = iree_tensor_ext.dispatch.tensor.load %arg0, offsets = [0], sizes = [2048000], strides = [1] : !iree_tensor_ext.dispatch.tensor<readonly:tensor<2048000xf16>> -> tensor<2048000xf16>
        %1 = iree_tensor_ext.dispatch.tensor.load %arg1, offsets = [0, 0], sizes = [2048000, 32], strides = [1, 1] : !iree_tensor_ext.dispatch.tensor<readonly:tensor<2048000x32xi8>> -> tensor<2048000x32xi8>
        %2 = tensor.empty() : tensor<2048000x32xf16>
        %3 = linalg.generic {indexing_maps = [#map, #map1, #map1], iterator_types = ["parallel", "parallel"]} ins(%0, %1 : tensor<2048000xf16>, tensor<2048000x32xi8>) outs(%2 : tensor<2048000x32xf16>) {
        ^bb0(%in: f16, %in_0: i8, %out: f16):
          %4 = arith.sitofp %in_0 : i8 to f16
          %5 = arith.mulf %in, %4 : f16
          linalg.yield %5 : f16
        } -> tensor<2048000x32xf16>
        iree_tensor_ext.dispatch.tensor.store %3, %arg2, offsets = [0, 0], sizes = [2048000, 32], strides = [1, 1] : tensor<2048000x32xf16> -> !iree_tensor_ext.dispatch.tensor<writeonly:tensor<2048000x32xf16>>
        return
      }
    }
  }
  flow.executable private @prefill_bs4$async_dispatch_3 {
    flow.executable.export public @prefill_bs4$async_dispatch_3_elementwise_broadcast_Dx2048_i64xf16 workgroups(%arg0: index) -> (index, index, index) {
      %x, %y, %z = iree_tensor_ext.dispatch.workgroup_count_from_slice(%arg0)
      flow.return %x, %y, %z : index, index, index
    }
    builtin.module {
      func.func @prefill_bs4$async_dispatch_3_elementwise_broadcast_Dx2048_i64xf16(%arg0: index, %arg1: !iree_tensor_ext.dispatch.tensor<readonly:tensor<32000x2048xf16>>, %arg2: !iree_tensor_ext.dispatch.tensor<readonly:tensor<?xi64>>, %arg3: !iree_tensor_ext.dispatch.tensor<writeonly:tensor<?x2048xf16>>) {
        %c32 = arith.constant 32 : index
        %0 = iree_tensor_ext.dispatch.workload.ordinal %arg0, 0 : index
        %1 = flow.dispatch.tie_shape %arg2 : !iree_tensor_ext.dispatch.tensor<readonly:tensor<?xi64>>{%0}
        %2 = flow.dispatch.tie_shape %arg3 : !iree_tensor_ext.dispatch.tensor<writeonly:tensor<?x2048xf16>>{%0}
        %3 = iree_tensor_ext.dispatch.tensor.load %arg1, offsets = [0, 0], sizes = [32000, 2048], strides = [1, 1] : !iree_tensor_ext.dispatch.tensor<readonly:tensor<32000x2048xf16>> -> tensor<32000x2048xf16>
        %4 = iree_tensor_ext.dispatch.tensor.load %1, offsets = [0], sizes = [%0], strides = [1] : !iree_tensor_ext.dispatch.tensor<readonly:tensor<?xi64>>{%0} -> tensor<?xi64>
        %5 = tensor.empty(%0) : tensor<?x2048xf16>
        %6 = linalg.generic {indexing_maps = [#map, #map1], iterator_types = ["parallel", "parallel"]} ins(%4 : tensor<?xi64>) outs(%5 : tensor<?x2048xf16>) {
        ^bb0(%in: i64, %out: f16):
          %7 = linalg.index 1 : index
          %8 = arith.remsi %7, %c32 : index
          %9 = arith.divsi %7, %c32 : index
          %10 = arith.index_cast %in : i64 to index
          %11 = arith.muli %9, %c32 overflow<nsw> : index
          %12 = arith.addi %8, %11 : index
          %extracted = tensor.extract %3[%10, %12] : tensor<32000x2048xf16>
          linalg.yield %extracted : f16
        } -> tensor<?x2048xf16>
        iree_tensor_ext.dispatch.tensor.store %6, %2, offsets = [0, 0], sizes = [%0, 2048], strides = [1, 1] : tensor<?x2048xf16> -> !iree_tensor_ext.dispatch.tensor<writeonly:tensor<?x2048xf16>>{%0}
        return
      }
    }
  }
  flow.executable private @prefill_bs4$async_dispatch_4 {
    flow.executable.export public @prefill_bs4$async_dispatch_4_elementwise_D_f16xf32 workgroups(%arg0: index) -> (index, index, index) {
      %x, %y, %z = iree_tensor_ext.dispatch.workgroup_count_from_slice(%arg0)
      flow.return %x, %y, %z : index, index, index
    }
    builtin.module {
      func.func @prefill_bs4$async_dispatch_4_elementwise_D_f16xf32(%arg0: index, %arg1: !iree_tensor_ext.dispatch.tensor<readonly:tensor<?xf16>>, %arg2: !iree_tensor_ext.dispatch.tensor<writeonly:tensor<?xf32>>) {
        %0 = iree_tensor_ext.dispatch.workload.ordinal %arg0, 0 : index
        %1 = flow.dispatch.tie_shape %arg1 : !iree_tensor_ext.dispatch.tensor<readonly:tensor<?xf16>>{%0}
        %2 = flow.dispatch.tie_shape %arg2 : !iree_tensor_ext.dispatch.tensor<writeonly:tensor<?xf32>>{%0}
        %3 = iree_tensor_ext.dispatch.tensor.load %1, offsets = [0], sizes = [%0], strides = [1] : !iree_tensor_ext.dispatch.tensor<readonly:tensor<?xf16>>{%0} -> tensor<?xf16>
        %4 = tensor.empty(%0) : tensor<?xf32>
        %5 = linalg.generic {indexing_maps = [#map2, #map2], iterator_types = ["parallel"]} ins(%3 : tensor<?xf16>) outs(%4 : tensor<?xf32>) {
        ^bb0(%in: f16, %out: f32):
          %6 = arith.extf %in : f16 to f32
          linalg.yield %6 : f32
        } -> tensor<?xf32>
        iree_tensor_ext.dispatch.tensor.store %5, %2, offsets = [0], sizes = [%0], strides = [1] : tensor<?xf32> -> !iree_tensor_ext.dispatch.tensor<writeonly:tensor<?xf32>>{%0}
        return
      }
    }
  }
  flow.executable private @prefill_bs4$async_dispatch_5 {
    flow.executable.export public @prefill_bs4$async_dispatch_5_reduction_Dx2048_f32 workgroups(%arg0: index) -> (index, index, index) {
      %x, %y, %z = iree_tensor_ext.dispatch.workgroup_count_from_slice(%arg0)
      flow.return %x, %y, %z : index, index, index
    }
    builtin.module {
      func.func @prefill_bs4$async_dispatch_5_reduction_Dx2048_f32(%arg0: index, %arg1: !iree_tensor_ext.dispatch.tensor<readonly:tensor<?x2048xf16>>, %arg2: !iree_tensor_ext.dispatch.tensor<writeonly:tensor<?xf32>>) {
        %c2_i64 = arith.constant 2 : i64
        %cst = arith.constant 0.000000e+00 : f32
        %0 = iree_tensor_ext.dispatch.workload.ordinal %arg0, 0 : index
        %1 = flow.dispatch.tie_shape %arg1 : !iree_tensor_ext.dispatch.tensor<readonly:tensor<?x2048xf16>>{%0}
        %2 = flow.dispatch.tie_shape %arg2 : !iree_tensor_ext.dispatch.tensor<writeonly:tensor<?xf32>>{%0}
        %3 = iree_tensor_ext.dispatch.tensor.load %1, offsets = [0, 0], sizes = [%0, 2048], strides = [1, 1] : !iree_tensor_ext.dispatch.tensor<readonly:tensor<?x2048xf16>>{%0} -> tensor<?x2048xf16>
        %4 = tensor.empty(%0) : tensor<?xf32>
        %5 = linalg.fill ins(%cst : f32) outs(%4 : tensor<?xf32>) -> tensor<?xf32>
        %6 = tensor.empty(%0) : tensor<?x2048xf32>
        %7 = linalg.generic {indexing_maps = [#map1, #map1], iterator_types = ["parallel", "parallel"]} ins(%3 : tensor<?x2048xf16>) outs(%6 : tensor<?x2048xf32>) {
        ^bb0(%in: f16, %out: f32):
          %9 = arith.extf %in : f16 to f32
          linalg.yield %9 : f32
        } -> tensor<?x2048xf32>
        %8 = linalg.generic {indexing_maps = [#map1, #map], iterator_types = ["parallel", "reduction"]} ins(%7 : tensor<?x2048xf32>) outs(%5 : tensor<?xf32>) {
        ^bb0(%in: f32, %out: f32):
          %9 = math.fpowi %in, %c2_i64 : f32, i64
          %10 = arith.addf %9, %out : f32
          linalg.yield %10 : f32
        } -> tensor<?xf32>
        iree_tensor_ext.dispatch.tensor.store %8, %2, offsets = [0], sizes = [%0], strides = [1] : tensor<?xf32> -> !iree_tensor_ext.dispatch.tensor<writeonly:tensor<?xf32>>{%0}
        return
      }
    }
  }
  flow.executable private @prefill_bs4$async_dispatch_6 {
    flow.executable.export public @prefill_bs4$async_dispatch_6_elementwise_Dx2048_f32xf32xf16 workgroups(%arg0: index) -> (index, index, index) {
      %x, %y, %z = iree_tensor_ext.dispatch.workgroup_count_from_slice(%arg0)
      flow.return %x, %y, %z : index, index, index
    }
    builtin.module {
      func.func @prefill_bs4$async_dispatch_6_elementwise_Dx2048_f32xf32xf16(%arg0: index, %arg1: !iree_tensor_ext.dispatch.tensor<readonly:tensor<?x2048xf32>>, %arg2: !iree_tensor_ext.dispatch.tensor<readonly:tensor<?xf32>>, %arg3: !iree_tensor_ext.dispatch.tensor<writeonly:tensor<?x2048xf16>>) {
        %cst = arith.constant 9.99999974E-6 : f32
        %cst_0 = arith.constant 2.048000e+03 : f32
        %0 = iree_tensor_ext.dispatch.workload.ordinal %arg0, 0 : index
        %1 = flow.dispatch.tie_shape %arg1 : !iree_tensor_ext.dispatch.tensor<readonly:tensor<?x2048xf32>>{%0}
        %2 = flow.dispatch.tie_shape %arg2 : !iree_tensor_ext.dispatch.tensor<readonly:tensor<?xf32>>{%0}
        %3 = flow.dispatch.tie_shape %arg3 : !iree_tensor_ext.dispatch.tensor<writeonly:tensor<?x2048xf16>>{%0}
        %4 = iree_tensor_ext.dispatch.tensor.load %1, offsets = [0, 0], sizes = [%0, 2048], strides = [1, 1] : !iree_tensor_ext.dispatch.tensor<readonly:tensor<?x2048xf32>>{%0} -> tensor<?x2048xf32>
        %5 = iree_tensor_ext.dispatch.tensor.load %2, offsets = [0], sizes = [%0], strides = [1] : !iree_tensor_ext.dispatch.tensor<readonly:tensor<?xf32>>{%0} -> tensor<?xf32>
        %6 = tensor.empty(%0) : tensor<?x2048xf16>
        %7 = linalg.generic {indexing_maps = [#map1, #map, #map1], iterator_types = ["parallel", "parallel"]} ins(%4, %5 : tensor<?x2048xf32>, tensor<?xf32>) outs(%6 : tensor<?x2048xf16>) {
        ^bb0(%in: f32, %in_1: f32, %out: f16):
          %8 = arith.divf %in_1, %cst_0 : f32
          %9 = arith.addf %8, %cst : f32
          %10 = math.rsqrt %9 : f32
          %11 = arith.mulf %in, %10 : f32
          %12 = arith.truncf %11 : f32 to f16
          linalg.yield %12 : f16
        } -> tensor<?x2048xf16>
        iree_tensor_ext.dispatch.tensor.store %7, %3, offsets = [0, 0], sizes = [%0, 2048], strides = [1, 1] : tensor<?x2048xf16> -> !iree_tensor_ext.dispatch.tensor<writeonly:tensor<?x2048xf16>>{%0}
        return
      }
    }
  }
  flow.executable private @prefill_bs4$async_dispatch_7 {
    flow.executable.export public @prefill_bs4$async_dispatch_7_elementwise_Dx2048_f32xf16xf16 workgroups(%arg0: index) -> (index, index, index) {
      %x, %y, %z = iree_tensor_ext.dispatch.workgroup_count_from_slice(%arg0)
      flow.return %x, %y, %z : index, index, index
    }
    builtin.module {
      func.func @prefill_bs4$async_dispatch_7_elementwise_Dx2048_f32xf16xf16(%arg0: index, %arg1: !iree_tensor_ext.dispatch.tensor<readonly:tensor<2048xf32>>, %arg2: !iree_tensor_ext.dispatch.tensor<readonly:tensor<?x2048xf16>>, %arg3: !iree_tensor_ext.dispatch.tensor<writeonly:tensor<?x2048xf16>>) {
        %0 = iree_tensor_ext.dispatch.workload.ordinal %arg0, 0 : index
        %1 = flow.dispatch.tie_shape %arg2 : !iree_tensor_ext.dispatch.tensor<readonly:tensor<?x2048xf16>>{%0}
        %2 = flow.dispatch.tie_shape %arg3 : !iree_tensor_ext.dispatch.tensor<writeonly:tensor<?x2048xf16>>{%0}
        %3 = iree_tensor_ext.dispatch.tensor.load %arg1, offsets = [0], sizes = [2048], strides = [1] : !iree_tensor_ext.dispatch.tensor<readonly:tensor<2048xf32>> -> tensor<2048xf32>
        %4 = iree_tensor_ext.dispatch.tensor.load %1, offsets = [0, 0], sizes = [%0, 2048], strides = [1, 1] : !iree_tensor_ext.dispatch.tensor<readonly:tensor<?x2048xf16>>{%0} -> tensor<?x2048xf16>
        %5 = tensor.empty(%0) : tensor<?x2048xf16>
        %6 = linalg.generic {indexing_maps = [#map3, #map1, #map1], iterator_types = ["parallel", "parallel"]} ins(%3, %4 : tensor<2048xf32>, tensor<?x2048xf16>) outs(%5 : tensor<?x2048xf16>) {
        ^bb0(%in: f32, %in_0: f16, %out: f16):
          %7 = arith.extf %in_0 : f16 to f32
          %8 = arith.mulf %in, %7 : f32
          %9 = arith.truncf %8 : f32 to f16
          linalg.yield %9 : f16
        } -> tensor<?x2048xf16>
        iree_tensor_ext.dispatch.tensor.store %6, %2, offsets = [0, 0], sizes = [%0, 2048], strides = [1, 1] : tensor<?x2048xf16> -> !iree_tensor_ext.dispatch.tensor<writeonly:tensor<?x2048xf16>>{%0}
        return
      }
    }
  }
  flow.executable private @prefill_bs4$async_dispatch_8 {
    flow.executable.export public @prefill_bs4$async_dispatch_8_slow_memcpy workgroups() -> (index, index, index) {
      %x, %y, %z = iree_tensor_ext.dispatch.workgroup_count_from_slice()
      flow.return %x, %y, %z : index, index, index
    }
    builtin.module {
      func.func @prefill_bs4$async_dispatch_8_slow_memcpy(%arg0: !iree_tensor_ext.dispatch.tensor<readonly:tensor<2048x64x1x17xi16>>, %arg1: !iree_tensor_ext.dispatch.tensor<writeonly:tensor<2048x64x1xi16>>) {
        %0 = iree_tensor_ext.dispatch.tensor.load %arg0, offsets = [0, 0, 0, 0], sizes = [2048, 64, 1, 1], strides = [1, 1, 1, 1] : !iree_tensor_ext.dispatch.tensor<readonly:tensor<2048x64x1x17xi16>> -> tensor<2048x64x1xi16>
        iree_tensor_ext.dispatch.tensor.store %0, %arg1, offsets = [0, 0, 0], sizes = [2048, 64, 1], strides = [1, 1, 1] : tensor<2048x64x1xi16> -> !iree_tensor_ext.dispatch.tensor<writeonly:tensor<2048x64x1xi16>>
        return
      }
    }
  }
  flow.executable private @prefill_bs4$async_dispatch_9 {
    flow.executable.export public @prefill_bs4$async_dispatch_9_slow_memcpy workgroups() -> (index, index, index) {
      %x, %y, %z = iree_tensor_ext.dispatch.workgroup_count_from_slice()
      flow.return %x, %y, %z : index, index, index
    }
    builtin.module {
      func.func @prefill_bs4$async_dispatch_9_slow_memcpy(%arg0: !iree_tensor_ext.dispatch.tensor<readonly:tensor<2048x64x17xi16>>, %arg1: !iree_tensor_ext.dispatch.tensor<writeonly:tensor<2048x64x16xi16>>) {
        %0 = iree_tensor_ext.dispatch.tensor.load %arg0, offsets = [0, 0, 1], sizes = [2048, 64, 16], strides = [1, 1, 1] : !iree_tensor_ext.dispatch.tensor<readonly:tensor<2048x64x17xi16>> -> tensor<2048x64x16xi16>
        iree_tensor_ext.dispatch.tensor.store %0, %arg1, offsets = [0, 0, 0], sizes = [2048, 64, 16], strides = [1, 1, 1] : tensor<2048x64x16xi16> -> !iree_tensor_ext.dispatch.tensor<writeonly:tensor<2048x64x16xi16>>
        return
      }
    }
  }
  flow.executable private @prefill_bs4$async_dispatch_10 {
    flow.executable.export public @prefill_bs4$async_dispatch_10_matmul_like_Dx2048x64x32_f16xf16xf32 workgroups(%arg0: index) -> (index, index, index) {
      %x, %y, %z = iree_tensor_ext.dispatch.workgroup_count_from_slice(%arg0)
      flow.return %x, %y, %z : index, index, index
    }
    builtin.module {
      func.func @prefill_bs4$async_dispatch_10_matmul_like_Dx2048x64x32_f16xf16xf32(%arg0: !iree_tensor_ext.dispatch.tensor<readonly:tensor<2048x64xf16>>, %arg1: !iree_tensor_ext.dispatch.tensor<readonly:tensor<2048x64x32xi8>>, %arg2: index, %arg3: !iree_tensor_ext.dispatch.tensor<readonly:tensor<?x64x32xf16>>, %arg4: !iree_tensor_ext.dispatch.tensor<writeonly:tensor<?x2048xf16>>) {
        %cst = arith.constant 0.000000e+00 : f32
        %0 = iree_tensor_ext.dispatch.workload.ordinal %arg2, 0 : index
        %1 = flow.dispatch.tie_shape %arg3 : !iree_tensor_ext.dispatch.tensor<readonly:tensor<?x64x32xf16>>{%0}
        %2 = flow.dispatch.tie_shape %arg4 : !iree_tensor_ext.dispatch.tensor<writeonly:tensor<?x2048xf16>>{%0}
        %3 = iree_tensor_ext.dispatch.tensor.load %arg0, offsets = [0, 0], sizes = [2048, 64], strides = [1, 1] : !iree_tensor_ext.dispatch.tensor<readonly:tensor<2048x64xf16>> -> tensor<2048x64xf16>
        %4 = iree_tensor_ext.dispatch.tensor.load %arg1, offsets = [0, 0, 0], sizes = [2048, 64, 32], strides = [1, 1, 1] : !iree_tensor_ext.dispatch.tensor<readonly:tensor<2048x64x32xi8>> -> tensor<2048x64x32xi8>
        %5 = iree_tensor_ext.dispatch.tensor.load %1, offsets = [0, 0, 0], sizes = [%0, 64, 32], strides = [1, 1, 1] : !iree_tensor_ext.dispatch.tensor<readonly:tensor<?x64x32xf16>>{%0} -> tensor<?x64x32xf16>
        %6 = tensor.empty() : tensor<2048x64x32xf16>
        %7 = linalg.generic {indexing_maps = [#map4, #map5, #map5], iterator_types = ["parallel", "parallel", "parallel"]} ins(%3, %4 : tensor<2048x64xf16>, tensor<2048x64x32xi8>) outs(%6 : tensor<2048x64x32xf16>) {
        ^bb0(%in: f16, %in_0: i8, %out: f16):
          %13 = arith.extsi %in_0 : i8 to i32
          %14 = arith.sitofp %13 : i32 to f16
          %15 = arith.mulf %14, %in : f16
          linalg.yield %15 : f16
        } -> tensor<2048x64x32xf16>
        %8 = tensor.empty(%0) : tensor<?x2048xf32>
        %9 = linalg.fill ins(%cst : f32) outs(%8 : tensor<?x2048xf32>) -> tensor<?x2048xf32>
        %10 = linalg.generic {indexing_maps = [#map6, #map7, #map8], iterator_types = ["parallel", "parallel", "reduction", "reduction"]} ins(%5, %7 : tensor<?x64x32xf16>, tensor<2048x64x32xf16>) outs(%9 : tensor<?x2048xf32>) {
        ^bb0(%in: f16, %in_0: f16, %out: f32):
          %13 = arith.mulf %in, %in_0 : f16
          %14 = arith.extf %13 : f16 to f32
          %15 = arith.addf %14, %out : f32
          linalg.yield %15 : f32
        } -> tensor<?x2048xf32>
        %11 = tensor.empty(%0) : tensor<?x2048xf16>
        %12 = linalg.generic {indexing_maps = [#map1, #map1], iterator_types = ["parallel", "parallel"]} ins(%10 : tensor<?x2048xf32>) outs(%11 : tensor<?x2048xf16>) {
        ^bb0(%in: f32, %out: f16):
          %13 = arith.truncf %in : f32 to f16
          linalg.yield %13 : f16
        } -> tensor<?x2048xf16>
        iree_tensor_ext.dispatch.tensor.store %12, %2, offsets = [0, 0], sizes = [%0, 2048], strides = [1, 1] : tensor<?x2048xf16> -> !iree_tensor_ext.dispatch.tensor<writeonly:tensor<?x2048xf16>>{%0}
        return
      }
    }
  }
  flow.executable private @prefill_bs4$async_dispatch_11 {
    flow.executable.export public @prefill_bs4$async_dispatch_11_slow_memcpy workgroups() -> (index, index, index) {
      %x, %y, %z = iree_tensor_ext.dispatch.workgroup_count_from_slice()
      flow.return %x, %y, %z : index, index, index
    }
    builtin.module {
      func.func @prefill_bs4$async_dispatch_11_slow_memcpy(%arg0: !iree_tensor_ext.dispatch.tensor<readonly:tensor<256x64x1x17xi16>>, %arg1: !iree_tensor_ext.dispatch.tensor<writeonly:tensor<256x64x1xi16>>) {
        %0 = iree_tensor_ext.dispatch.tensor.load %arg0, offsets = [0, 0, 0, 0], sizes = [256, 64, 1, 1], strides = [1, 1, 1, 1] : !iree_tensor_ext.dispatch.tensor<readonly:tensor<256x64x1x17xi16>> -> tensor<256x64x1xi16>
        iree_tensor_ext.dispatch.tensor.store %0, %arg1, offsets = [0, 0, 0], sizes = [256, 64, 1], strides = [1, 1, 1] : tensor<256x64x1xi16> -> !iree_tensor_ext.dispatch.tensor<writeonly:tensor<256x64x1xi16>>
        return
      }
    }
  }
  flow.executable private @prefill_bs4$async_dispatch_12 {
    flow.executable.export public @prefill_bs4$async_dispatch_12_slow_memcpy workgroups() -> (index, index, index) {
      %x, %y, %z = iree_tensor_ext.dispatch.workgroup_count_from_slice()
      flow.return %x, %y, %z : index, index, index
    }
    builtin.module {
      func.func @prefill_bs4$async_dispatch_12_slow_memcpy(%arg0: !iree_tensor_ext.dispatch.tensor<readonly:tensor<256x64x17xi16>>, %arg1: !iree_tensor_ext.dispatch.tensor<writeonly:tensor<256x64x16xi16>>) {
        %0 = iree_tensor_ext.dispatch.tensor.load %arg0, offsets = [0, 0, 1], sizes = [256, 64, 16], strides = [1, 1, 1] : !iree_tensor_ext.dispatch.tensor<readonly:tensor<256x64x17xi16>> -> tensor<256x64x16xi16>
        iree_tensor_ext.dispatch.tensor.store %0, %arg1, offsets = [0, 0, 0], sizes = [256, 64, 16], strides = [1, 1, 1] : tensor<256x64x16xi16> -> !iree_tensor_ext.dispatch.tensor<writeonly:tensor<256x64x16xi16>>
        return
      }
    }
  }
  flow.executable private @prefill_bs4$async_dispatch_13 {
    flow.executable.export public @prefill_bs4$async_dispatch_13_matmul_like_Dx256x64x32_f16xf16xf32 workgroups(%arg0: index) -> (index, index, index) {
      %x, %y, %z = iree_tensor_ext.dispatch.workgroup_count_from_slice(%arg0)
      flow.return %x, %y, %z : index, index, index
    }
    builtin.module {
      func.func @prefill_bs4$async_dispatch_13_matmul_like_Dx256x64x32_f16xf16xf32(%arg0: !iree_tensor_ext.dispatch.tensor<readonly:tensor<256x64xf16>>, %arg1: !iree_tensor_ext.dispatch.tensor<readonly:tensor<256x64x32xi8>>, %arg2: index, %arg3: !iree_tensor_ext.dispatch.tensor<readonly:tensor<?x64x32xf16>>, %arg4: !iree_tensor_ext.dispatch.tensor<writeonly:tensor<?x256xf16>>) {
        %cst = arith.constant 0.000000e+00 : f32
        %0 = iree_tensor_ext.dispatch.workload.ordinal %arg2, 0 : index
        %1 = flow.dispatch.tie_shape %arg3 : !iree_tensor_ext.dispatch.tensor<readonly:tensor<?x64x32xf16>>{%0}
        %2 = flow.dispatch.tie_shape %arg4 : !iree_tensor_ext.dispatch.tensor<writeonly:tensor<?x256xf16>>{%0}
        %3 = iree_tensor_ext.dispatch.tensor.load %arg0, offsets = [0, 0], sizes = [256, 64], strides = [1, 1] : !iree_tensor_ext.dispatch.tensor<readonly:tensor<256x64xf16>> -> tensor<256x64xf16>
        %4 = iree_tensor_ext.dispatch.tensor.load %arg1, offsets = [0, 0, 0], sizes = [256, 64, 32], strides = [1, 1, 1] : !iree_tensor_ext.dispatch.tensor<readonly:tensor<256x64x32xi8>> -> tensor<256x64x32xi8>
        %5 = iree_tensor_ext.dispatch.tensor.load %1, offsets = [0, 0, 0], sizes = [%0, 64, 32], strides = [1, 1, 1] : !iree_tensor_ext.dispatch.tensor<readonly:tensor<?x64x32xf16>>{%0} -> tensor<?x64x32xf16>
        %6 = tensor.empty() : tensor<256x64x32xf16>
        %7 = linalg.generic {indexing_maps = [#map4, #map5, #map5], iterator_types = ["parallel", "parallel", "parallel"]} ins(%3, %4 : tensor<256x64xf16>, tensor<256x64x32xi8>) outs(%6 : tensor<256x64x32xf16>) {
        ^bb0(%in: f16, %in_0: i8, %out: f16):
          %13 = arith.extsi %in_0 : i8 to i32
          %14 = arith.sitofp %13 : i32 to f16
          %15 = arith.mulf %14, %in : f16
          linalg.yield %15 : f16
        } -> tensor<256x64x32xf16>
        %8 = tensor.empty(%0) : tensor<?x256xf32>
        %9 = linalg.fill ins(%cst : f32) outs(%8 : tensor<?x256xf32>) -> tensor<?x256xf32>
        %10 = linalg.generic {indexing_maps = [#map6, #map7, #map8], iterator_types = ["parallel", "parallel", "reduction", "reduction"]} ins(%5, %7 : tensor<?x64x32xf16>, tensor<256x64x32xf16>) outs(%9 : tensor<?x256xf32>) {
        ^bb0(%in: f16, %in_0: f16, %out: f32):
          %13 = arith.mulf %in, %in_0 : f16
          %14 = arith.extf %13 : f16 to f32
          %15 = arith.addf %14, %out : f32
          linalg.yield %15 : f32
        } -> tensor<?x256xf32>
        %11 = tensor.empty(%0) : tensor<?x256xf16>
        %12 = linalg.generic {indexing_maps = [#map1, #map1], iterator_types = ["parallel", "parallel"]} ins(%10 : tensor<?x256xf32>) outs(%11 : tensor<?x256xf16>) {
        ^bb0(%in: f32, %out: f16):
          %13 = arith.truncf %in : f32 to f16
          linalg.yield %13 : f16
        } -> tensor<?x256xf16>
        iree_tensor_ext.dispatch.tensor.store %12, %2, offsets = [0, 0], sizes = [%0, 256], strides = [1, 1] : tensor<?x256xf16> -> !iree_tensor_ext.dispatch.tensor<writeonly:tensor<?x256xf16>>{%0}
        return
      }
    }
  }
  flow.executable private @prefill_bs4$async_dispatch_17 {
    flow.executable.export public @prefill_bs4$async_dispatch_17_elementwise_broadcast_1x1xD_f32_pack workgroups(%arg0: index, %arg1: index) -> (index, index, index) {
      %x, %y, %z = iree_tensor_ext.dispatch.workgroup_count_from_slice(%arg0, %arg1)
      flow.return %x, %y, %z : index, index, index
    }
    builtin.module {
      func.func @prefill_bs4$async_dispatch_17_elementwise_broadcast_1x1xD_f32_pack(%arg0: index, %arg1: index, %arg2: !iree_tensor_ext.dispatch.tensor<writeonly:tensor<1x?x1x8x1xf32>>) {
        %cst = arith.constant 0.000000e+00 : f32
        %0 = iree_tensor_ext.dispatch.workload.ordinal %arg1, 1 : index
        %1 = flow.dispatch.tie_shape %arg2 : !iree_tensor_ext.dispatch.tensor<writeonly:tensor<1x?x1x8x1xf32>>{%0}
        %2 = iree_tensor_ext.dispatch.workload.ordinal %arg0, 0 : index
        %3 = tensor.empty(%0) : tensor<1x?x1x8x1xf32>
        %4 = tensor.empty(%2) : tensor<1x1x?xf32>
        %5 = linalg.generic {indexing_maps = [#map5], iterator_types = ["parallel", "parallel", "parallel"]} outs(%4 : tensor<1x1x?xf32>) {
        ^bb0(%out: f32):
          %6 = linalg.index 2 : index
          %7 = arith.index_cast %6 : index to i64
          %8 = arith.sitofp %7 : i64 to f32
          linalg.yield %8 : f32
        } -> tensor<1x1x?xf32>
        %pack = linalg.pack %5 padding_value(%cst : f32) outer_dims_perm = [0, 2, 1] inner_dims_pos = [2, 1] inner_tiles = [8, 1] into %3 : tensor<1x1x?xf32> -> tensor<1x?x1x8x1xf32>
        iree_tensor_ext.dispatch.tensor.store %pack, %1, offsets = [0, 0, 0, 0, 0], sizes = [1, %0, 1, 8, 1], strides = [1, 1, 1, 1, 1] : tensor<1x?x1x8x1xf32> -> !iree_tensor_ext.dispatch.tensor<writeonly:tensor<1x?x1x8x1xf32>>{%0}
        return
      }
    }
  }
  flow.executable private @prefill_bs4$async_dispatch_18 {
    flow.executable.export public @prefill_bs4$async_dispatch_18_batch_mmt4d_1x4xDx1x8x8x1_f32 workgroups(%arg0: index) -> (index, index, index) {
      %x, %y, %z = iree_tensor_ext.dispatch.workgroup_count_from_slice(%arg0)
      flow.return %x, %y, %z : index, index, index
    }
    builtin.module {
      func.func @prefill_bs4$async_dispatch_18_batch_mmt4d_1x4xDx1x8x8x1_f32(%arg0: !iree_tensor_ext.dispatch.tensor<readonly:tensor<1x?x1x8x1xf32>>, %arg1: index, %arg2: !iree_tensor_ext.dispatch.tensor<writeonly:tensor<1x4x?x8x8xf32>>) {
        %cst = arith.constant 0.000000e+00 : f32
        %cst_0 = arith.constant dense<[[[[[… > : tensor<1x4x1x8x1xf32>
        %0 = iree_tensor_ext.dispatch.workload.ordinal %arg1, 0 : index
        %1 = flow.dispatch.tie_shape %arg0 : !iree_tensor_ext.dispatch.tensor<readonly:tensor<1x?x1x8x1xf32>>{%0}
        %2 = flow.dispatch.tie_shape %arg2 : !iree_tensor_ext.dispatch.tensor<writeonly:tensor<1x4x?x8x8xf32>>{%0}
        %3 = iree_tensor_ext.dispatch.tensor.load %1, offsets = [0, 0, 0, 0, 0], sizes = [1, %0, 1, 8, 1], strides = [1, 1, 1, 1, 1] : !iree_tensor_ext.dispatch.tensor<readonly:tensor<1x?x1x8x1xf32>>{%0} -> tensor<1x?x1x8x1xf32>
        %4 = tensor.empty(%0) : tensor<1x4x?x8x8xf32>
        %5 = linalg.fill ins(%cst : f32) outs(%4 : tensor<1x4x?x8x8xf32>) -> tensor<1x4x?x8x8xf32>
        %6 = linalg.batch_mmt4d ins(%cst_0, %3 : tensor<1x4x1x8x1xf32>, tensor<1x?x1x8x1xf32>) outs(%5 : tensor<1x4x?x8x8xf32>) -> tensor<1x4x?x8x8xf32>
        iree_tensor_ext.dispatch.tensor.store %6, %2, offsets = [0, 0, 0, 0, 0], sizes = [1, 4, %0, 8, 8], strides = [1, 1, 1, 1, 1] : tensor<1x4x?x8x8xf32> -> !iree_tensor_ext.dispatch.tensor<writeonly:tensor<1x4x?x8x8xf32>>{%0}
        return
      }
    }
  }
  flow.executable private @prefill_bs4$async_dispatch_19 {
    flow.executable.export public @prefill_bs4$async_dispatch_19_unpack_f32 workgroups(%arg0: index, %arg1: index) -> (index, index, index) {
      %x, %y, %z = iree_tensor_ext.dispatch.workgroup_count_from_slice(%arg0, %arg1)
      flow.return %x, %y, %z : index, index, index
    }
    builtin.module {
      func.func @prefill_bs4$async_dispatch_19_unpack_f32(%arg0: !iree_tensor_ext.dispatch.tensor<readonly:tensor<1x4x?x8x8xf32>>, %arg1: index, %arg2: index, %arg3: !iree_tensor_ext.dispatch.tensor<writeonly:tensor<?x1x32xf32>>) {
        %0 = iree_tensor_ext.dispatch.workload.ordinal %arg1, 0 : index
        %1 = iree_tensor_ext.dispatch.workload.ordinal %arg2, 1 : index
        %2 = flow.dispatch.tie_shape %arg0 : !iree_tensor_ext.dispatch.tensor<readonly:tensor<1x4x?x8x8xf32>>{%0}
        %3 = flow.dispatch.tie_shape %arg3 : !iree_tensor_ext.dispatch.tensor<writeonly:tensor<?x1x32xf32>>{%1}
        %4 = iree_tensor_ext.dispatch.tensor.load %2, offsets = [0, 0, 0, 0, 0], sizes = [1, 4, %0, 8, 8], strides = [1, 1, 1, 1, 1] : !iree_tensor_ext.dispatch.tensor<readonly:tensor<1x4x?x8x8xf32>>{%0} -> tensor<1x4x?x8x8xf32>
        %5 = tensor.empty(%1) : tensor<?x1x32xf32>
        %unpack = linalg.unpack %4 outer_dims_perm = [1, 2, 0] inner_dims_pos = [2, 0] inner_tiles = [8, 8] into %5 : tensor<1x4x?x8x8xf32> -> tensor<?x1x32xf32>
        iree_tensor_ext.dispatch.tensor.store %unpack, %3, offsets = [0, 0, 0], sizes = [%1, 1, 32], strides = [1, 1, 1] : tensor<?x1x32xf32> -> !iree_tensor_ext.dispatch.tensor<writeonly:tensor<?x1x32xf32>>{%1}
        return
      }
    }
  }
  flow.executable private @prefill_bs4$async_dispatch_20 {
    flow.executable.export public @prefill_bs4$async_dispatch_20_elementwise_D_f32xf16 workgroups(%arg0: index, %arg1: index) -> (index, index, index) {
      %x, %y, %z = iree_tensor_ext.dispatch.workgroup_count_from_slice(%arg0, %arg1)
      flow.return %x, %y, %z : index, index, index
    }
    builtin.module {
      func.func @prefill_bs4$async_dispatch_20_elementwise_D_f32xf16(%arg0: index, %arg1: !iree_tensor_ext.dispatch.tensor<readonly:tensor<?xf32>>, %arg2: index, %arg3: !iree_tensor_ext.dispatch.tensor<writeonly:tensor<?xf16>>) {
        %0 = iree_tensor_ext.dispatch.workload.ordinal %arg0, 0 : index
        %1 = iree_tensor_ext.dispatch.workload.ordinal %arg2, 1 : index
        %2 = flow.dispatch.tie_shape %arg1 : !iree_tensor_ext.dispatch.tensor<readonly:tensor<?xf32>>{%1}
        %3 = flow.dispatch.tie_shape %arg3 : !iree_tensor_ext.dispatch.tensor<writeonly:tensor<?xf16>>{%0}
        %4 = iree_tensor_ext.dispatch.tensor.load %2, offsets = [0], sizes = [%1], strides = [1] : !iree_tensor_ext.dispatch.tensor<readonly:tensor<?xf32>>{%1} -> tensor<?xf32>
        %5 = tensor.empty(%0) : tensor<?xf16>
        %6 = linalg.generic {indexing_maps = [#map2, #map2], iterator_types = ["parallel"]} ins(%4 : tensor<?xf32>) outs(%5 : tensor<?xf16>) {
        ^bb0(%in: f32, %out: f16):
          %7 = math.cos %in : f32
          %8 = arith.truncf %7 : f32 to f16
          linalg.yield %8 : f16
        } -> tensor<?xf16>
        iree_tensor_ext.dispatch.tensor.store %6, %3, offsets = [0], sizes = [%0], strides = [1] : tensor<?xf16> -> !iree_tensor_ext.dispatch.tensor<writeonly:tensor<?xf16>>{%0}
        return
      }
    }
  }
  flow.executable private @prefill_bs4$async_dispatch_21 {
    flow.executable.export public @prefill_bs4$async_dispatch_21_elementwise_D_f32xf16 workgroups(%arg0: index, %arg1: index) -> (index, index, index) {
      %x, %y, %z = iree_tensor_ext.dispatch.workgroup_count_from_slice(%arg0, %arg1)
      flow.return %x, %y, %z : index, index, index
    }
    builtin.module {
      func.func @prefill_bs4$async_dispatch_21_elementwise_D_f32xf16(%arg0: index, %arg1: !iree_tensor_ext.dispatch.tensor<readonly:tensor<?xf32>>, %arg2: index, %arg3: !iree_tensor_ext.dispatch.tensor<writeonly:tensor<?xf16>>) {
        %0 = iree_tensor_ext.dispatch.workload.ordinal %arg0, 0 : index
        %1 = iree_tensor_ext.dispatch.workload.ordinal %arg2, 1 : index
        %2 = flow.dispatch.tie_shape %arg1 : !iree_tensor_ext.dispatch.tensor<readonly:tensor<?xf32>>{%1}
        %3 = flow.dispatch.tie_shape %arg3 : !iree_tensor_ext.dispatch.tensor<writeonly:tensor<?xf16>>{%0}
        %4 = iree_tensor_ext.dispatch.tensor.load %2, offsets = [0], sizes = [%1], strides = [1] : !iree_tensor_ext.dispatch.tensor<readonly:tensor<?xf32>>{%1} -> tensor<?xf32>
        %5 = tensor.empty(%0) : tensor<?xf16>
        %6 = linalg.generic {indexing_maps = [#map2, #map2], iterator_types = ["parallel"]} ins(%4 : tensor<?xf32>) outs(%5 : tensor<?xf16>) {
        ^bb0(%in: f32, %out: f16):
          %7 = math.sin %in : f32
          %8 = arith.truncf %7 : f32 to f16
          linalg.yield %8 : f16
        } -> tensor<?xf16>
        iree_tensor_ext.dispatch.tensor.store %6, %3, offsets = [0], sizes = [%0], strides = [1] : tensor<?xf16> -> !iree_tensor_ext.dispatch.tensor<writeonly:tensor<?xf16>>{%0}
        return
      }
    }
  }
  flow.executable private @prefill_bs4$async_dispatch_22 {
    flow.executable.export public @prefill_bs4$async_dispatch_22_slow_memcpy workgroups(%arg0: index) -> (index, index, index) {
      %x, %y, %z = iree_tensor_ext.dispatch.workgroup_count_from_slice(%arg0)
      flow.return %x, %y, %z : index, index, index
    }
    builtin.module {
      func.func @prefill_bs4$async_dispatch_22_slow_memcpy(%arg0: !iree_tensor_ext.dispatch.tensor<readonly:tensor<4x?x32x64xf16>>, %arg1: index, %arg2: !iree_tensor_ext.dispatch.tensor<writeonly:tensor<4x?x32x32xf16>>) {
        %0 = iree_tensor_ext.dispatch.workload.ordinal %arg1, 0 : index
        %1 = flow.dispatch.tie_shape %arg0 : !iree_tensor_ext.dispatch.tensor<readonly:tensor<4x?x32x64xf16>>{%0}
        %2 = flow.dispatch.tie_shape %arg2 : !iree_tensor_ext.dispatch.tensor<writeonly:tensor<4x?x32x32xf16>>{%0}
        %3 = iree_tensor_ext.dispatch.tensor.load %1, offsets = [0, 0, 0, 0], sizes = [4, %0, 32, 32], strides = [1, 1, 1, 2] : !iree_tensor_ext.dispatch.tensor<readonly:tensor<4x?x32x64xf16>>{%0} -> tensor<4x?x32x32xf16>
        iree_tensor_ext.dispatch.tensor.store %3, %2, offsets = [0, 0, 0, 0], sizes = [4, %0, 32, 32], strides = [1, 1, 1, 1] : tensor<4x?x32x32xf16> -> !iree_tensor_ext.dispatch.tensor<writeonly:tensor<4x?x32x32xf16>>{%0}
        return
      }
    }
  }
  flow.executable private @prefill_bs4$async_dispatch_23 {
    flow.executable.export public @prefill_bs4$async_dispatch_23_slow_memcpy workgroups(%arg0: index) -> (index, index, index) {
      %x, %y, %z = iree_tensor_ext.dispatch.workgroup_count_from_slice(%arg0)
      flow.return %x, %y, %z : index, index, index
    }
    builtin.module {
      func.func @prefill_bs4$async_dispatch_23_slow_memcpy(%arg0: !iree_tensor_ext.dispatch.tensor<readonly:tensor<4x?x32x64xf16>>, %arg1: index, %arg2: !iree_tensor_ext.dispatch.tensor<writeonly:tensor<4x?x32x32xf16>>) {
        %0 = iree_tensor_ext.dispatch.workload.ordinal %arg1, 0 : index
        %1 = flow.dispatch.tie_shape %arg0 : !iree_tensor_ext.dispatch.tensor<readonly:tensor<4x?x32x64xf16>>{%0}
        %2 = flow.dispatch.tie_shape %arg2 : !iree_tensor_ext.dispatch.tensor<writeonly:tensor<4x?x32x32xf16>>{%0}
        %3 = iree_tensor_ext.dispatch.tensor.load %1, offsets = [0, 0, 0, 1], sizes = [4, %0, 32, 32], strides = [1, 1, 1, 2] : !iree_tensor_ext.dispatch.tensor<readonly:tensor<4x?x32x64xf16>>{%0} -> tensor<4x?x32x32xf16>
        iree_tensor_ext.dispatch.tensor.store %3, %2, offsets = [0, 0, 0, 0], sizes = [4, %0, 32, 32], strides = [1, 1, 1, 1] : tensor<4x?x32x32xf16> -> !iree_tensor_ext.dispatch.tensor<writeonly:tensor<4x?x32x32xf16>>{%0}
        return
      }
    }
  }
  flow.executable private @prefill_bs4$async_dispatch_24 {
    flow.executable.export public @prefill_bs4$async_dispatch_24_slow_memcpy workgroups(%arg0: index) -> (index, index, index) {
      %x, %y, %z = iree_tensor_ext.dispatch.workgroup_count_from_slice(%arg0)
      flow.return %x, %y, %z : index, index, index
    }
    builtin.module {
      func.func @prefill_bs4$async_dispatch_24_slow_memcpy(%arg0: !iree_tensor_ext.dispatch.tensor<readonly:tensor<4x?x4x64xf16>>, %arg1: index, %arg2: !iree_tensor_ext.dispatch.tensor<writeonly:tensor<4x?x4x32xf16>>) {
        %0 = iree_tensor_ext.dispatch.workload.ordinal %arg1, 0 : index
        %1 = flow.dispatch.tie_shape %arg0 : !iree_tensor_ext.dispatch.tensor<readonly:tensor<4x?x4x64xf16>>{%0}
        %2 = flow.dispatch.tie_shape %arg2 : !iree_tensor_ext.dispatch.tensor<writeonly:tensor<4x?x4x32xf16>>{%0}
        %3 = iree_tensor_ext.dispatch.tensor.load %1, offsets = [0, 0, 0, 0], sizes = [4, %0, 4, 32], strides = [1, 1, 1, 2] : !iree_tensor_ext.dispatch.tensor<readonly:tensor<4x?x4x64xf16>>{%0} -> tensor<4x?x4x32xf16>
        iree_tensor_ext.dispatch.tensor.store %3, %2, offsets = [0, 0, 0, 0], sizes = [4, %0, 4, 32], strides = [1, 1, 1, 1] : tensor<4x?x4x32xf16> -> !iree_tensor_ext.dispatch.tensor<writeonly:tensor<4x?x4x32xf16>>{%0}
        return
      }
    }
  }
  flow.executable private @prefill_bs4$async_dispatch_25 {
    flow.executable.export public @prefill_bs4$async_dispatch_25_slow_memcpy workgroups(%arg0: index) -> (index, index, index) {
      %x, %y, %z = iree_tensor_ext.dispatch.workgroup_count_from_slice(%arg0)
      flow.return %x, %y, %z : index, index, index
    }
    builtin.module {
      func.func @prefill_bs4$async_dispatch_25_slow_memcpy(%arg0: !iree_tensor_ext.dispatch.tensor<readonly:tensor<4x?x4x64xf16>>, %arg1: index, %arg2: !iree_tensor_ext.dispatch.tensor<writeonly:tensor<4x?x4x32xf16>>) {
        %0 = iree_tensor_ext.dispatch.workload.ordinal %arg1, 0 : index
        %1 = flow.dispatch.tie_shape %arg0 : !iree_tensor_ext.dispatch.tensor<readonly:tensor<4x?x4x64xf16>>{%0}
        %2 = flow.dispatch.tie_shape %arg2 : !iree_tensor_ext.dispatch.tensor<writeonly:tensor<4x?x4x32xf16>>{%0}
        %3 = iree_tensor_ext.dispatch.tensor.load %1, offsets = [0, 0, 0, 1], sizes = [4, %0, 4, 32], strides = [1, 1, 1, 2] : !iree_tensor_ext.dispatch.tensor<readonly:tensor<4x?x4x64xf16>>{%0} -> tensor<4x?x4x32xf16>
        iree_tensor_ext.dispatch.tensor.store %3, %2, offsets = [0, 0, 0, 0], sizes = [4, %0, 4, 32], strides = [1, 1, 1, 1] : tensor<4x?x4x32xf16> -> !iree_tensor_ext.dispatch.tensor<writeonly:tensor<4x?x4x32xf16>>{%0}
        return
      }
    }
  }
  flow.executable private @prefill_bs4$async_dispatch_26 {
    flow.executable.export public @prefill_bs4$async_dispatch_26_elementwise_broadcast_4xDx4x2x32_f16 workgroups(%arg0: index, %arg1: index) -> (index, index, index) {
      %x, %y, %z = iree_tensor_ext.dispatch.workgroup_count_from_slice(%arg0, %arg1)
      flow.return %x, %y, %z : index, index, index
    }
    builtin.module {
      func.func @prefill_bs4$async_dispatch_26_elementwise_broadcast_4xDx4x2x32_f16(%arg0: !iree_tensor_ext.dispatch.tensor<readonly:tensor<4x?x4x32xf16>>, %arg1: !iree_tensor_ext.dispatch.tensor<readonly:tensor<?x32xf16>>, %arg2: !iree_tensor_ext.dispatch.tensor<readonly:tensor<4x?x4x32xf16>>, %arg3: !iree_tensor_ext.dispatch.tensor<readonly:tensor<?x32xf16>>, %arg4: index, %arg5: index, %arg6: index, %arg7: !iree_tensor_ext.dispatch.tensor<writeonly:tensor<4x?x4x2x32xf16>>) {
        %c0 = arith.constant 0 : index
        %0 = iree_tensor_ext.dispatch.workload.ordinal %arg5, 1 : index
        %1 = flow.dispatch.tie_shape %arg0 : !iree_tensor_ext.dispatch.tensor<readonly:tensor<4x?x4x32xf16>>{%arg6}
        %2 = flow.dispatch.tie_shape %arg1 : !iree_tensor_ext.dispatch.tensor<readonly:tensor<?x32xf16>>{%0}
        %3 = flow.dispatch.tie_shape %arg2 : !iree_tensor_ext.dispatch.tensor<readonly:tensor<4x?x4x32xf16>>{%arg6}
        %4 = flow.dispatch.tie_shape %arg3 : !iree_tensor_ext.dispatch.tensor<readonly:tensor<?x32xf16>>{%0}
        %5 = flow.dispatch.tie_shape %arg7 : !iree_tensor_ext.dispatch.tensor<writeonly:tensor<4x?x4x2x32xf16>>{%0}
        %6 = iree_tensor_ext.dispatch.workload.ordinal %arg4, 0 : index
        %7 = iree_tensor_ext.dispatch.tensor.load %1, offsets = [0, 0, 0, 0], sizes = [4, %6, 4, 32], strides = [1, 1, 1, 1] : !iree_tensor_ext.dispatch.tensor<readonly:tensor<4x?x4x32xf16>>{%arg6} -> tensor<4x?x4x32xf16>
        %8 = iree_tensor_ext.dispatch.tensor.load %2, offsets = [0, 0], sizes = [%0, 32], strides = [1, 1] : !iree_tensor_ext.dispatch.tensor<readonly:tensor<?x32xf16>>{%0} -> tensor<?x32xf16>
        %9 = iree_tensor_ext.dispatch.tensor.load %3, offsets = [0, 0, 0, 0], sizes = [4, %6, 4, 32], strides = [1, 1, 1, 1] : !iree_tensor_ext.dispatch.tensor<readonly:tensor<4x?x4x32xf16>>{%arg6} -> tensor<4x?x4x32xf16>
        %10 = iree_tensor_ext.dispatch.tensor.load %4, offsets = [0, 0], sizes = [%0, 32], strides = [1, 1] : !iree_tensor_ext.dispatch.tensor<readonly:tensor<?x32xf16>>{%0} -> tensor<?x32xf16>
        %11 = tensor.empty(%0) : tensor<4x?x4x2x32xf16>
        %12 = linalg.generic {indexing_maps = [#map9, #map10, #map9, #map10, #map11], iterator_types = ["parallel", "parallel", "parallel", "parallel", "parallel"]} ins(%7, %8, %9, %10 : tensor<4x?x4x32xf16>, tensor<?x32xf16>, tensor<4x?x4x32xf16>, tensor<?x32xf16>) outs(%11 : tensor<4x?x4x2x32xf16>) {
        ^bb0(%in: f16, %in_0: f16, %in_1: f16, %in_2: f16, %out: f16):
          %13 = linalg.index 3 : index
          %14 = arith.mulf %in, %in_2 : f16
          %15 = arith.mulf %in_1, %in_0 : f16
          %16 = arith.mulf %in_1, %in_2 : f16
          %17 = arith.mulf %in, %in_0 : f16
          %18 = arith.addf %15, %14 : f16
          %19 = arith.subf %17, %16 : f16
          %20 = arith.cmpi eq, %13, %c0 : index
          %21 = arith.select %20, %19, %18 : f16
          linalg.yield %21 : f16
        } -> tensor<4x?x4x2x32xf16>
        iree_tensor_ext.dispatch.tensor.store %12, %5, offsets = [0, 0, 0, 0, 0], sizes = [4, %0, 4, 2, 32], strides = [1, 1, 1, 1, 1] : tensor<4x?x4x2x32xf16> -> !iree_tensor_ext.dispatch.tensor<writeonly:tensor<4x?x4x2x32xf16>>{%0}
        return
      }
    }
  }
  flow.executable private @prefill_bs4$async_dispatch_27 {
    flow.executable.export public @prefill_bs4$async_dispatch_27_elementwise_D_i64 workgroups(%arg0: index) -> (index, index, index) {
      %x, %y, %z = iree_tensor_ext.dispatch.workgroup_count_from_slice(%arg0)
      flow.return %x, %y, %z : index, index, index
    }
    builtin.module {
      func.func @prefill_bs4$async_dispatch_27_elementwise_D_i64(%arg0: index, %arg1: !iree_tensor_ext.dispatch.tensor<readonly:tensor<?xi64>>, %arg2: !iree_tensor_ext.dispatch.tensor<writeonly:tensor<?xi64>>, %arg3: !iree_tensor_ext.dispatch.tensor<writeonly:tensor<?xi64>>) {
        %c44_i64 = arith.constant 44 : i64
        %c22_i64 = arith.constant 22 : i64
        %0 = iree_tensor_ext.dispatch.workload.ordinal %arg0, 0 : index
        %1 = flow.dispatch.tie_shape %arg1 : !iree_tensor_ext.dispatch.tensor<readonly:tensor<?xi64>>{%0}
        %2 = flow.dispatch.tie_shape %arg2 : !iree_tensor_ext.dispatch.tensor<writeonly:tensor<?xi64>>{%0}
        %3 = flow.dispatch.tie_shape %arg3 : !iree_tensor_ext.dispatch.tensor<writeonly:tensor<?xi64>>{%0}
        %4 = iree_tensor_ext.dispatch.tensor.load %1, offsets = [0], sizes = [%0], strides = [1] : !iree_tensor_ext.dispatch.tensor<readonly:tensor<?xi64>>{%0} -> tensor<?xi64>
        %5 = tensor.empty(%0) : tensor<?xi64>
        %6:2 = linalg.generic {indexing_maps = [#map2, #map2, #map2], iterator_types = ["parallel"]} ins(%4 : tensor<?xi64>) outs(%5, %5 : tensor<?xi64>, tensor<?xi64>) {
        ^bb0(%in: i64, %out: i64, %out_0: i64):
          %7 = arith.muli %in, %c22_i64 : i64
          %8 = arith.muli %in, %c44_i64 : i64
          linalg.yield %7, %8 : i64, i64
        } -> (tensor<?xi64>, tensor<?xi64>)
        iree_tensor_ext.dispatch.tensor.store %6#0, %2, offsets = [0], sizes = [%0], strides = [1] : tensor<?xi64> -> !iree_tensor_ext.dispatch.tensor<writeonly:tensor<?xi64>>{%0}
        iree_tensor_ext.dispatch.tensor.store %6#1, %3, offsets = [0], sizes = [%0], strides = [1] : tensor<?xi64> -> !iree_tensor_ext.dispatch.tensor<writeonly:tensor<?xi64>>{%0}
        return
      }
    }
  }
  flow.executable private @prefill_bs4$async_dispatch_28 {
    flow.executable.export public @prefill_bs4$async_dispatch_28_transpose_Dx32x4x64_f16 workgroups(%arg0: index) -> (index, index, index) {
      %x, %y, %z = iree_tensor_ext.dispatch.workgroup_count_from_slice(%arg0)
      flow.return %x, %y, %z : index, index, index
    }
    builtin.module {
      func.func @prefill_bs4$async_dispatch_28_transpose_Dx32x4x64_f16(%arg0: index, %arg1: !iree_tensor_ext.dispatch.tensor<readonly:tensor<?x32x4x64xf16>>, %arg2: !iree_tensor_ext.dispatch.tensor<writeonly:tensor<?x4x32x64xf16>>) {
        %0 = iree_tensor_ext.dispatch.workload.ordinal %arg0, 0 : index
        %1 = flow.dispatch.tie_shape %arg1 : !iree_tensor_ext.dispatch.tensor<readonly:tensor<?x32x4x64xf16>>{%0}
        %2 = flow.dispatch.tie_shape %arg2 : !iree_tensor_ext.dispatch.tensor<writeonly:tensor<?x4x32x64xf16>>{%0}
        %3 = iree_tensor_ext.dispatch.tensor.load %1, offsets = [0, 0, 0, 0], sizes = [%0, 32, 4, 64], strides = [1, 1, 1, 1] : !iree_tensor_ext.dispatch.tensor<readonly:tensor<?x32x4x64xf16>>{%0} -> tensor<?x32x4x64xf16>
        %4 = tensor.empty(%0) : tensor<?x4x32x64xf16>
        %5 = linalg.generic {indexing_maps = [#map12, #map13], iterator_types = ["parallel", "parallel", "parallel", "parallel"]} ins(%3 : tensor<?x32x4x64xf16>) outs(%4 : tensor<?x4x32x64xf16>) {
        ^bb0(%in: f16, %out: f16):
          linalg.yield %in : f16
        } -> tensor<?x4x32x64xf16>
        iree_tensor_ext.dispatch.tensor.store %5, %2, offsets = [0, 0, 0, 0], sizes = [%0, 4, 32, 64], strides = [1, 1, 1, 1] : tensor<?x4x32x64xf16> -> !iree_tensor_ext.dispatch.tensor<writeonly:tensor<?x4x32x64xf16>>{%0}
        return
      }
    }
  }
  flow.executable private @prefill_bs4$async_dispatch_29 {
    flow.executable.export public @prefill_bs4$async_dispatch_29_scatter_4xDx4x32x2x1x32xf16_dispatch_tensor_store workgroups(%arg0: index, %arg1: index, %arg2: index) -> (index, index, index) {
      %x, %y, %z = iree_tensor_ext.dispatch.workgroup_count_from_slice(%arg0, %arg1, %arg2)
      flow.return %x, %y, %z : index, index, index
    }
    builtin.module {
      func.func @prefill_bs4$async_dispatch_29_scatter_4xDx4x32x2x1x32xf16_dispatch_tensor_store(%arg0: !iree_tensor_ext.dispatch.tensor<readonly:tensor<4x?x4x32x2x1x32xf16>>, %arg1: !iree_tensor_ext.dispatch.tensor<readonly:tensor<4x?xi64>>, %arg2: !iree_tensor_ext.dispatch.tensor<readwrite:tensor<?x4x32x2x1x32xf16>>, %arg3: index, %arg4: index, %arg5: index) {
        %0 = iree_tensor_ext.dispatch.workload.ordinal %arg3, 0 : index
        %1 = iree_tensor_ext.dispatch.workload.ordinal %arg4, 1 : index
        %2 = iree_tensor_ext.dispatch.workload.ordinal %arg5, 2 : index
        %3 = flow.dispatch.tie_shape %arg0 : !iree_tensor_ext.dispatch.tensor<readonly:tensor<4x?x4x32x2x1x32xf16>>{%0}
        %4 = flow.dispatch.tie_shape %arg1 : !iree_tensor_ext.dispatch.tensor<readonly:tensor<4x?xi64>>{%1}
        %5 = flow.dispatch.tie_shape %arg2 : !iree_tensor_ext.dispatch.tensor<readwrite:tensor<?x4x32x2x1x32xf16>>{%2}
        %6 = iree_tensor_ext.dispatch.tensor.load %3, offsets = [0, 0, 0, 0, 0, 0, 0], sizes = [4, %0, 4, 32, 2, 1, 32], strides = [1, 1, 1, 1, 1, 1, 1] : !iree_tensor_ext.dispatch.tensor<readonly:tensor<4x?x4x32x2x1x32xf16>>{%0} -> tensor<4x?x4x32x2x1x32xf16>
        %7 = iree_tensor_ext.dispatch.tensor.load %4, offsets = [0, 0], sizes = [4, %1], strides = [1, 1] : !iree_tensor_ext.dispatch.tensor<readonly:tensor<4x?xi64>>{%1} -> tensor<4x?xi64>
        %8 = iree_tensor_ext.dispatch.tensor.load %5, offsets = [0, 0, 0, 0, 0, 0], sizes = [%2, 4, 32, 2, 1, 32], strides = [1, 1, 1, 1, 1, 1] : !iree_tensor_ext.dispatch.tensor<readwrite:tensor<?x4x32x2x1x32xf16>>{%2} -> tensor<?x4x32x2x1x32xf16>
        %9 = iree_linalg_ext.scatter dimension_map = [0] unique_indices(true) ins(%6, %7 : tensor<4x?x4x32x2x1x32xf16>, tensor<4x?xi64>) outs(%8 : tensor<?x4x32x2x1x32xf16>) {
        ^bb0(%arg6: f16, %arg7: f16):
          iree_linalg_ext.yield %arg6 : f16
        } -> tensor<?x4x32x2x1x32xf16>
        iree_tensor_ext.dispatch.tensor.store %9, %5, offsets = [0, 0, 0, 0, 0, 0], sizes = [%2, 4, 32, 2, 1, 32], strides = [1, 1, 1, 1, 1, 1] : tensor<?x4x32x2x1x32xf16> -> !iree_tensor_ext.dispatch.tensor<readwrite:tensor<?x4x32x2x1x32xf16>>{%2}
        return
      }
    }
  }
  flow.executable private @prefill_bs4$async_dispatch_30 {
    flow.executable.export public @prefill_bs4$async_dispatch_30_elementwise_D_i64 workgroups(%arg0: index) -> (index, index, index) {
      %x, %y, %z = iree_tensor_ext.dispatch.workgroup_count_from_slice(%arg0)
      flow.return %x, %y, %z : index, index, index
    }
    builtin.module {
      func.func @prefill_bs4$async_dispatch_30_elementwise_D_i64(%arg0: index, %arg1: !iree_tensor_ext.dispatch.tensor<readonly:tensor<?xi64>>, %arg2: !iree_tensor_ext.dispatch.tensor<writeonly:tensor<?xi64>>) {
        %c1_i64 = arith.constant 1 : i64
        %0 = iree_tensor_ext.dispatch.workload.ordinal %arg0, 0 : index
        %1 = flow.dispatch.tie_shape %arg1 : !iree_tensor_ext.dispatch.tensor<readonly:tensor<?xi64>>{%0}
        %2 = flow.dispatch.tie_shape %arg2 : !iree_tensor_ext.dispatch.tensor<writeonly:tensor<?xi64>>{%0}
        %3 = iree_tensor_ext.dispatch.tensor.load %1, offsets = [0], sizes = [%0], strides = [1] : !iree_tensor_ext.dispatch.tensor<readonly:tensor<?xi64>>{%0} -> tensor<?xi64>
        %4 = tensor.empty(%0) : tensor<?xi64>
        %5 = linalg.generic {indexing_maps = [#map2, #map2], iterator_types = ["parallel"]} ins(%3 : tensor<?xi64>) outs(%4 : tensor<?xi64>) {
        ^bb0(%in: i64, %out: i64):
          %6 = arith.addi %in, %c1_i64 : i64
          linalg.yield %6 : i64
        } -> tensor<?xi64>
        iree_tensor_ext.dispatch.tensor.store %5, %2, offsets = [0], sizes = [%0], strides = [1] : tensor<?xi64> -> !iree_tensor_ext.dispatch.tensor<writeonly:tensor<?xi64>>{%0}
        return
      }
    }
  }
  flow.executable private @prefill_bs4$async_dispatch_33 {
    flow.executable.export public @prefill_bs4$async_dispatch_33_elementwise_broadcast_4x32xDx2x32_f16 workgroups(%arg0: index, %arg1: index) -> (index, index, index) {
      %x, %y, %z = iree_tensor_ext.dispatch.workgroup_count_from_slice(%arg0, %arg1)
      flow.return %x, %y, %z : index, index, index
    }
    builtin.module {
      func.func @prefill_bs4$async_dispatch_33_elementwise_broadcast_4x32xDx2x32_f16(%arg0: !iree_tensor_ext.dispatch.tensor<readonly:tensor<4x?x32x32xf16>>, %arg1: !iree_tensor_ext.dispatch.tensor<readonly:tensor<?x32xf16>>, %arg2: !iree_tensor_ext.dispatch.tensor<readonly:tensor<4x?x32x32xf16>>, %arg3: !iree_tensor_ext.dispatch.tensor<readonly:tensor<?x32xf16>>, %arg4: index, %arg5: index, %arg6: index, %arg7: !iree_tensor_ext.dispatch.tensor<writeonly:tensor<4x32x?x2x32xf16>>) {
        %c0 = arith.constant 0 : index
        %0 = iree_tensor_ext.dispatch.workload.ordinal %arg5, 1 : index
        %1 = flow.dispatch.tie_shape %arg0 : !iree_tensor_ext.dispatch.tensor<readonly:tensor<4x?x32x32xf16>>{%arg6}
        %2 = flow.dispatch.tie_shape %arg1 : !iree_tensor_ext.dispatch.tensor<readonly:tensor<?x32xf16>>{%0}
        %3 = flow.dispatch.tie_shape %arg2 : !iree_tensor_ext.dispatch.tensor<readonly:tensor<4x?x32x32xf16>>{%arg6}
        %4 = flow.dispatch.tie_shape %arg3 : !iree_tensor_ext.dispatch.tensor<readonly:tensor<?x32xf16>>{%0}
        %5 = flow.dispatch.tie_shape %arg7 : !iree_tensor_ext.dispatch.tensor<writeonly:tensor<4x32x?x2x32xf16>>{%0}
        %6 = iree_tensor_ext.dispatch.workload.ordinal %arg4, 0 : index
        %7 = iree_tensor_ext.dispatch.tensor.load %1, offsets = [0, 0, 0, 0], sizes = [4, %6, 32, 32], strides = [1, 1, 1, 1] : !iree_tensor_ext.dispatch.tensor<readonly:tensor<4x?x32x32xf16>>{%arg6} -> tensor<4x?x32x32xf16>
        %8 = iree_tensor_ext.dispatch.tensor.load %2, offsets = [0, 0], sizes = [%0, 32], strides = [1, 1] : !iree_tensor_ext.dispatch.tensor<readonly:tensor<?x32xf16>>{%0} -> tensor<?x32xf16>
        %9 = iree_tensor_ext.dispatch.tensor.load %3, offsets = [0, 0, 0, 0], sizes = [4, %6, 32, 32], strides = [1, 1, 1, 1] : !iree_tensor_ext.dispatch.tensor<readonly:tensor<4x?x32x32xf16>>{%arg6} -> tensor<4x?x32x32xf16>
        %10 = iree_tensor_ext.dispatch.tensor.load %4, offsets = [0, 0], sizes = [%0, 32], strides = [1, 1] : !iree_tensor_ext.dispatch.tensor<readonly:tensor<?x32xf16>>{%0} -> tensor<?x32xf16>
        %11 = tensor.empty(%0) : tensor<4x32x?x2x32xf16>
        %12 = linalg.generic {indexing_maps = [#map14, #map15, #map14, #map15, #map11], iterator_types = ["parallel", "parallel", "parallel", "parallel", "parallel"]} ins(%7, %8, %9, %10 : tensor<4x?x32x32xf16>, tensor<?x32xf16>, tensor<4x?x32x32xf16>, tensor<?x32xf16>) outs(%11 : tensor<4x32x?x2x32xf16>) {
        ^bb0(%in: f16, %in_0: f16, %in_1: f16, %in_2: f16, %out: f16):
          %13 = linalg.index 3 : index
          %14 = arith.mulf %in, %in_2 : f16
          %15 = arith.mulf %in_1, %in_0 : f16
          %16 = arith.mulf %in_1, %in_2 : f16
          %17 = arith.mulf %in, %in_0 : f16
          %18 = arith.addf %15, %14 : f16
          %19 = arith.subf %17, %16 : f16
          %20 = arith.cmpi eq, %13, %c0 : index
          %21 = arith.select %20, %19, %18 : f16
          linalg.yield %21 : f16
        } -> tensor<4x32x?x2x32xf16>
        iree_tensor_ext.dispatch.tensor.store %12, %5, offsets = [0, 0, 0, 0, 0], sizes = [4, 32, %0, 2, 32], strides = [1, 1, 1, 1, 1] : tensor<4x32x?x2x32xf16> -> !iree_tensor_ext.dispatch.tensor<writeonly:tensor<4x32x?x2x32xf16>>{%0}
        return
      }
    }
  }
  flow.executable private @prefill_bs4$async_dispatch_34 {
    flow.executable.export public @prefill_bs4$async_dispatch_34_elementwise_broadcast_4xD_i64xf16 workgroups(%arg0: index, %arg1: index) -> (index, index, index) {
      %x, %y, %z = iree_tensor_ext.dispatch.workgroup_count_from_slice(%arg0, %arg1)
      flow.return %x, %y, %z : index, index, index
    }
    builtin.module {
      func.func @prefill_bs4$async_dispatch_34_elementwise_broadcast_4xD_i64xf16(%arg0: index, %arg1: index, %arg2: !iree_tensor_ext.dispatch.tensor<readonly:tensor<4xi64>>, %arg3: !iree_tensor_ext.dispatch.tensor<writeonly:tensor<4x?xf16>>) {
        %cst = arith.constant 0xFC00 : f16
        %cst_0 = arith.constant 0.000000e+00 : f16
        %c32 = arith.constant 32 : index
        %0 = iree_tensor_ext.dispatch.workload.ordinal %arg0, 0 : index
        %1 = flow.dispatch.tie_shape %arg3 : !iree_tensor_ext.dispatch.tensor<writeonly:tensor<4x?xf16>>{%0}
        %2 = iree_tensor_ext.dispatch.workload.ordinal %arg1, 1 : index
        %3 = iree_tensor_ext.dispatch.tensor.load %arg2, offsets = [0], sizes = [4], strides = [1] : !iree_tensor_ext.dispatch.tensor<readonly:tensor<4xi64>> -> tensor<4xi64>
        %4 = tensor.empty(%0) : tensor<4x?xf16>
        %5 = linalg.generic {indexing_maps = [#map, #map1], iterator_types = ["parallel", "parallel"]} ins(%3 : tensor<4xi64>) outs(%4 : tensor<4x?xf16>) {
        ^bb0(%in: i64, %out: f16):
          %6 = linalg.index 1 : index
          %7 = arith.remsi %6, %c32 : index
          %8 = arith.divsi %6, %c32 : index
          %9 = arith.remsi %8, %2 : index
          %10 = arith.divsi %8, %2 : index
          %11 = arith.remsi %10, %c32 : index
          %12 = arith.divsi %10, %c32 : index
          %13 = arith.remsi %12, %2 : index
          %14 = arith.muli %9, %c32 overflow<nsw> : index
          %15 = arith.addi %7, %14 : index
          %16 = arith.index_cast %15 : index to i64
          %17 = arith.cmpi sge, %16, %in : i64
          %18 = arith.muli %13, %c32 overflow<nsw> : index
          %19 = arith.addi %11, %18 : index
          %20 = arith.index_cast %19 : index to i64
          %21 = arith.cmpi sgt, %16, %20 : i64
          %22 = arith.ori %21, %17 : i1
          %23 = arith.select %22, %cst, %cst_0 : f16
          linalg.yield %23 : f16
        } -> tensor<4x?xf16>
        iree_tensor_ext.dispatch.tensor.store %5, %1, offsets = [0, 0], sizes = [4, %0], strides = [1, 1] : tensor<4x?xf16> -> !iree_tensor_ext.dispatch.tensor<writeonly:tensor<4x?xf16>>{%0}
        return
      }
    }
  }
  flow.executable private @prefill_bs4$async_dispatch_35 {
    flow.executable.export public @prefill_bs4$async_dispatch_35_attention_4x4x8xDxDxf16_generic workgroups(%arg0: index, %arg1: index) -> (index, index, index) {
      %x, %y, %z = iree_tensor_ext.dispatch.workgroup_count_from_slice(%arg0, %arg1)
      flow.return %x, %y, %z : index, index, index
    }
    builtin.module {
      func.func @prefill_bs4$async_dispatch_35_attention_4x4x8xDxDxf16_generic(%arg0: index, %arg1: !iree_tensor_ext.dispatch.tensor<readonly:tensor<4x4x8x?x64xf16>>, %arg2: !iree_tensor_ext.dispatch.tensor<readonly:tensor<4x?x4x64xf16>>, %arg3: !iree_tensor_ext.dispatch.tensor<readonly:tensor<4x?x4x64xf16>>, %arg4: !iree_tensor_ext.dispatch.tensor<readonly:tensor<4x4x8x?x?xf16>>, %arg5: index, %arg6: !iree_tensor_ext.dispatch.tensor<writeonly:tensor<4x?x4x8x64xf16>>) {
        %cst = arith.constant 1.250000e-01 : f16
        %0 = iree_tensor_ext.dispatch.workload.ordinal %arg0, 0 : index
        %1 = iree_tensor_ext.dispatch.workload.ordinal %arg5, 1 : index
        %2 = flow.dispatch.tie_shape %arg1 : !iree_tensor_ext.dispatch.tensor<readonly:tensor<4x4x8x?x64xf16>>{%0}
        %3 = flow.dispatch.tie_shape %arg2 : !iree_tensor_ext.dispatch.tensor<readonly:tensor<4x?x4x64xf16>>{%0}
        %4 = flow.dispatch.tie_shape %arg3 : !iree_tensor_ext.dispatch.tensor<readonly:tensor<4x?x4x64xf16>>{%1}
        %5 = flow.dispatch.tie_shape %arg4 : !iree_tensor_ext.dispatch.tensor<readonly:tensor<4x4x8x?x?xf16>>{%0, %0}
        %6 = flow.dispatch.tie_shape %arg6 : !iree_tensor_ext.dispatch.tensor<writeonly:tensor<4x?x4x8x64xf16>>{%0}
        %7 = iree_tensor_ext.dispatch.tensor.load %2, offsets = [0, 0, 0, 0, 0], sizes = [4, 4, 8, %0, 64], strides = [1, 1, 1, 1, 1] : !iree_tensor_ext.dispatch.tensor<readonly:tensor<4x4x8x?x64xf16>>{%0} -> tensor<4x4x8x?x64xf16>
        %8 = iree_tensor_ext.dispatch.tensor.load %3, offsets = [0, 0, 0, 0], sizes = [4, %0, 4, 64], strides = [1, 1, 1, 1] : !iree_tensor_ext.dispatch.tensor<readonly:tensor<4x?x4x64xf16>>{%0} -> tensor<4x?x4x64xf16>
        %9 = iree_tensor_ext.dispatch.tensor.load %4, offsets = [0, 0, 0, 0], sizes = [4, %1, 4, 64], strides = [1, 1, 1, 1] : !iree_tensor_ext.dispatch.tensor<readonly:tensor<4x?x4x64xf16>>{%1} -> tensor<4x?x4x64xf16>
        %10 = iree_tensor_ext.dispatch.tensor.load %5, offsets = [0, 0, 0, 0, 0], sizes = [4, 4, 8, %0, %0], strides = [1, 1, 1, 1, 1] : !iree_tensor_ext.dispatch.tensor<readonly:tensor<4x4x8x?x?xf16>>{%0, %0} -> tensor<4x4x8x?x?xf16>
        %11 = tensor.empty(%0) : tensor<4x4x8x?x64xf16>
        %12 = iree_linalg_ext.attention {indexing_maps = [#map16, #map17, #map18, #map19, #map20, #map21]} ins(%7, %8, %9, %cst, %10 : tensor<4x4x8x?x64xf16>, tensor<4x?x4x64xf16>, tensor<4x?x4x64xf16>, f16, tensor<4x4x8x?x?xf16>) outs(%11 : tensor<4x4x8x?x64xf16>) {
        ^bb0(%arg7: f32):
          iree_linalg_ext.yield %arg7 : f32
        } -> tensor<4x4x8x?x64xf16>
        %13 = tensor.empty(%0) : tensor<4x?x4x8x64xf16>
        %14 = linalg.generic {indexing_maps = [#map11, #map22], iterator_types = ["parallel", "parallel", "parallel", "parallel", "parallel"]} ins(%12 : tensor<4x4x8x?x64xf16>) outs(%13 : tensor<4x?x4x8x64xf16>) {
        ^bb0(%in: f16, %out: f16):
          linalg.yield %in : f16
        } -> tensor<4x?x4x8x64xf16>
        iree_tensor_ext.dispatch.tensor.store %14, %6, offsets = [0, 0, 0, 0, 0], sizes = [4, %0, 4, 8, 64], strides = [1, 1, 1, 1, 1] : tensor<4x?x4x8x64xf16> -> !iree_tensor_ext.dispatch.tensor<writeonly:tensor<4x?x4x8x64xf16>>{%0}
        return
      }
    }
  }
  flow.executable private @prefill_bs4$async_dispatch_38 {
    flow.executable.export public @prefill_bs4$async_dispatch_38_matmul_like_Dx2048x64x32_f16xf16xf32 workgroups(%arg0: index) -> (index, index, index) {
      %x, %y, %z = iree_tensor_ext.dispatch.workgroup_count_from_slice(%arg0)
      flow.return %x, %y, %z : index, index, index
    }
    builtin.module {
      func.func @prefill_bs4$async_dispatch_38_matmul_like_Dx2048x64x32_f16xf16xf32(%arg0: !iree_tensor_ext.dispatch.tensor<readonly:tensor<2048x64xf16>>, %arg1: !iree_tensor_ext.dispatch.tensor<readonly:tensor<2048x64x32xi8>>, %arg2: index, %arg3: !iree_tensor_ext.dispatch.tensor<readonly:tensor<?x64x32xf16>>, %arg4: !iree_tensor_ext.dispatch.tensor<readonly:tensor<?x2048xf16>>, %arg5: !iree_tensor_ext.dispatch.tensor<writeonly:tensor<?x2048xf16>>) {
        %cst = arith.constant 0.000000e+00 : f32
        %0 = iree_tensor_ext.dispatch.workload.ordinal %arg2, 0 : index
        %1 = flow.dispatch.tie_shape %arg3 : !iree_tensor_ext.dispatch.tensor<readonly:tensor<?x64x32xf16>>{%0}
        %2 = flow.dispatch.tie_shape %arg4 : !iree_tensor_ext.dispatch.tensor<readonly:tensor<?x2048xf16>>{%0}
        %3 = flow.dispatch.tie_shape %arg5 : !iree_tensor_ext.dispatch.tensor<writeonly:tensor<?x2048xf16>>{%0}
        %4 = iree_tensor_ext.dispatch.tensor.load %arg0, offsets = [0, 0], sizes = [2048, 64], strides = [1, 1] : !iree_tensor_ext.dispatch.tensor<readonly:tensor<2048x64xf16>> -> tensor<2048x64xf16>
        %5 = iree_tensor_ext.dispatch.tensor.load %arg1, offsets = [0, 0, 0], sizes = [2048, 64, 32], strides = [1, 1, 1] : !iree_tensor_ext.dispatch.tensor<readonly:tensor<2048x64x32xi8>> -> tensor<2048x64x32xi8>
        %6 = iree_tensor_ext.dispatch.tensor.load %1, offsets = [0, 0, 0], sizes = [%0, 64, 32], strides = [1, 1, 1] : !iree_tensor_ext.dispatch.tensor<readonly:tensor<?x64x32xf16>>{%0} -> tensor<?x64x32xf16>
        %7 = iree_tensor_ext.dispatch.tensor.load %2, offsets = [0, 0], sizes = [%0, 2048], strides = [1, 1] : !iree_tensor_ext.dispatch.tensor<readonly:tensor<?x2048xf16>>{%0} -> tensor<?x2048xf16>
        %8 = tensor.empty() : tensor<2048x64x32xf16>
        %9 = linalg.generic {indexing_maps = [#map4, #map5, #map5], iterator_types = ["parallel", "parallel", "parallel"]} ins(%4, %5 : tensor<2048x64xf16>, tensor<2048x64x32xi8>) outs(%8 : tensor<2048x64x32xf16>) {
        ^bb0(%in: f16, %in_0: i8, %out: f16):
          %15 = arith.extsi %in_0 : i8 to i32
          %16 = arith.sitofp %15 : i32 to f16
          %17 = arith.mulf %16, %in : f16
          linalg.yield %17 : f16
        } -> tensor<2048x64x32xf16>
        %10 = tensor.empty(%0) : tensor<?x2048xf32>
        %11 = linalg.fill ins(%cst : f32) outs(%10 : tensor<?x2048xf32>) -> tensor<?x2048xf32>
        %12 = linalg.generic {indexing_maps = [#map6, #map7, #map8], iterator_types = ["parallel", "parallel", "reduction", "reduction"]} ins(%6, %9 : tensor<?x64x32xf16>, tensor<2048x64x32xf16>) outs(%11 : tensor<?x2048xf32>) {
        ^bb0(%in: f16, %in_0: f16, %out: f32):
          %15 = arith.mulf %in, %in_0 : f16
          %16 = arith.extf %15 : f16 to f32
          %17 = arith.addf %16, %out : f32
          linalg.yield %17 : f32
        } -> tensor<?x2048xf32>
        %13 = tensor.empty(%0) : tensor<?x2048xf16>
        %14 = linalg.generic {indexing_maps = [#map1, #map1, #map1], iterator_types = ["parallel", "parallel"]} ins(%7, %12 : tensor<?x2048xf16>, tensor<?x2048xf32>) outs(%13 : tensor<?x2048xf16>) {
        ^bb0(%in: f16, %in_0: f32, %out: f16):
          %15 = arith.truncf %in_0 : f32 to f16
          %16 = arith.addf %in, %15 : f16
          linalg.yield %16 : f16
        } -> tensor<?x2048xf16>
        iree_tensor_ext.dispatch.tensor.store %14, %3, offsets = [0, 0], sizes = [%0, 2048], strides = [1, 1] : tensor<?x2048xf16> -> !iree_tensor_ext.dispatch.tensor<writeonly:tensor<?x2048xf16>>{%0}
        return
      }
    }
  }
  flow.executable private @prefill_bs4$async_dispatch_43 {
    flow.executable.export public @prefill_bs4$async_dispatch_43_slow_memcpy workgroups() -> (index, index, index) {
      %x, %y, %z = iree_tensor_ext.dispatch.workgroup_count_from_slice()
      flow.return %x, %y, %z : index, index, index
    }
    builtin.module {
      func.func @prefill_bs4$async_dispatch_43_slow_memcpy(%arg0: !iree_tensor_ext.dispatch.tensor<readonly:tensor<5632x64x1x17xi16>>, %arg1: !iree_tensor_ext.dispatch.tensor<writeonly:tensor<5632x64x1xi16>>) {
        %0 = iree_tensor_ext.dispatch.tensor.load %arg0, offsets = [0, 0, 0, 0], sizes = [5632, 64, 1, 1], strides = [1, 1, 1, 1] : !iree_tensor_ext.dispatch.tensor<readonly:tensor<5632x64x1x17xi16>> -> tensor<5632x64x1xi16>
        iree_tensor_ext.dispatch.tensor.store %0, %arg1, offsets = [0, 0, 0], sizes = [5632, 64, 1], strides = [1, 1, 1] : tensor<5632x64x1xi16> -> !iree_tensor_ext.dispatch.tensor<writeonly:tensor<5632x64x1xi16>>
        return
      }
    }
  }
  flow.executable private @prefill_bs4$async_dispatch_44 {
    flow.executable.export public @prefill_bs4$async_dispatch_44_slow_memcpy workgroups() -> (index, index, index) {
      %x, %y, %z = iree_tensor_ext.dispatch.workgroup_count_from_slice()
      flow.return %x, %y, %z : index, index, index
    }
    builtin.module {
      func.func @prefill_bs4$async_dispatch_44_slow_memcpy(%arg0: !iree_tensor_ext.dispatch.tensor<readonly:tensor<5632x64x17xi16>>, %arg1: !iree_tensor_ext.dispatch.tensor<writeonly:tensor<5632x64x16xi16>>) {
        %0 = iree_tensor_ext.dispatch.tensor.load %arg0, offsets = [0, 0, 1], sizes = [5632, 64, 16], strides = [1, 1, 1] : !iree_tensor_ext.dispatch.tensor<readonly:tensor<5632x64x17xi16>> -> tensor<5632x64x16xi16>
        iree_tensor_ext.dispatch.tensor.store %0, %arg1, offsets = [0, 0, 0], sizes = [5632, 64, 16], strides = [1, 1, 1] : tensor<5632x64x16xi16> -> !iree_tensor_ext.dispatch.tensor<writeonly:tensor<5632x64x16xi16>>
        return
      }
    }
  }
  flow.executable private @prefill_bs4$async_dispatch_47 {
    flow.executable.export public @prefill_bs4$async_dispatch_47_matmul_like_Dx5632x64x32_f16xf16xf32 workgroups(%arg0: index) -> (index, index, index) {
      %x, %y, %z = iree_tensor_ext.dispatch.workgroup_count_from_slice(%arg0)
      flow.return %x, %y, %z : index, index, index
    }
    builtin.module {
      func.func @prefill_bs4$async_dispatch_47_matmul_like_Dx5632x64x32_f16xf16xf32(%arg0: !iree_tensor_ext.dispatch.tensor<readonly:tensor<5632x64xf16>>, %arg1: !iree_tensor_ext.dispatch.tensor<readonly:tensor<5632x64x32xi8>>, %arg2: index, %arg3: !iree_tensor_ext.dispatch.tensor<readonly:tensor<?x64x32xf16>>, %arg4: !iree_tensor_ext.dispatch.tensor<writeonly:tensor<?x5632xf16>>) {
        %cst = arith.constant 0.000000e+00 : f32
        %0 = iree_tensor_ext.dispatch.workload.ordinal %arg2, 0 : index
        %1 = flow.dispatch.tie_shape %arg3 : !iree_tensor_ext.dispatch.tensor<readonly:tensor<?x64x32xf16>>{%0}
        %2 = flow.dispatch.tie_shape %arg4 : !iree_tensor_ext.dispatch.tensor<writeonly:tensor<?x5632xf16>>{%0}
        %3 = iree_tensor_ext.dispatch.tensor.load %arg0, offsets = [0, 0], sizes = [5632, 64], strides = [1, 1] : !iree_tensor_ext.dispatch.tensor<readonly:tensor<5632x64xf16>> -> tensor<5632x64xf16>
        %4 = iree_tensor_ext.dispatch.tensor.load %arg1, offsets = [0, 0, 0], sizes = [5632, 64, 32], strides = [1, 1, 1] : !iree_tensor_ext.dispatch.tensor<readonly:tensor<5632x64x32xi8>> -> tensor<5632x64x32xi8>
        %5 = iree_tensor_ext.dispatch.tensor.load %1, offsets = [0, 0, 0], sizes = [%0, 64, 32], strides = [1, 1, 1] : !iree_tensor_ext.dispatch.tensor<readonly:tensor<?x64x32xf16>>{%0} -> tensor<?x64x32xf16>
        %6 = tensor.empty() : tensor<5632x64x32xf16>
        %7 = linalg.generic {indexing_maps = [#map4, #map5, #map5], iterator_types = ["parallel", "parallel", "parallel"]} ins(%3, %4 : tensor<5632x64xf16>, tensor<5632x64x32xi8>) outs(%6 : tensor<5632x64x32xf16>) {
        ^bb0(%in: f16, %in_0: i8, %out: f16):
          %13 = arith.extsi %in_0 : i8 to i32
          %14 = arith.sitofp %13 : i32 to f16
          %15 = arith.mulf %14, %in : f16
          linalg.yield %15 : f16
        } -> tensor<5632x64x32xf16>
        %8 = tensor.empty(%0) : tensor<?x5632xf32>
        %9 = linalg.fill ins(%cst : f32) outs(%8 : tensor<?x5632xf32>) -> tensor<?x5632xf32>
        %10 = linalg.generic {indexing_maps = [#map6, #map7, #map8], iterator_types = ["parallel", "parallel", "reduction", "reduction"]} ins(%5, %7 : tensor<?x64x32xf16>, tensor<5632x64x32xf16>) outs(%9 : tensor<?x5632xf32>) {
        ^bb0(%in: f16, %in_0: f16, %out: f32):
          %13 = arith.mulf %in, %in_0 : f16
          %14 = arith.extf %13 : f16 to f32
          %15 = arith.addf %14, %out : f32
          linalg.yield %15 : f32
        } -> tensor<?x5632xf32>
        %11 = tensor.empty(%0) : tensor<?x5632xf16>
        %12 = linalg.generic {indexing_maps = [#map1, #map1], iterator_types = ["parallel", "parallel"]} ins(%10 : tensor<?x5632xf32>) outs(%11 : tensor<?x5632xf16>) {
        ^bb0(%in: f32, %out: f16):
          %13 = arith.truncf %in : f32 to f16
          linalg.yield %13 : f16
        } -> tensor<?x5632xf16>
        iree_tensor_ext.dispatch.tensor.store %12, %2, offsets = [0, 0], sizes = [%0, 5632], strides = [1, 1] : tensor<?x5632xf16> -> !iree_tensor_ext.dispatch.tensor<writeonly:tensor<?x5632xf16>>{%0}
        return
      }
    }
  }
  flow.executable private @prefill_bs4$async_dispatch_48 {
    flow.executable.export public @prefill_bs4$async_dispatch_48_matmul_like_Dx5632x64x32_f16xf16xf32 workgroups(%arg0: index) -> (index, index, index) {
      %x, %y, %z = iree_tensor_ext.dispatch.workgroup_count_from_slice(%arg0)
      flow.return %x, %y, %z : index, index, index
    }
    builtin.module {
      func.func @prefill_bs4$async_dispatch_48_matmul_like_Dx5632x64x32_f16xf16xf32(%arg0: !iree_tensor_ext.dispatch.tensor<readonly:tensor<5632x64xf16>>, %arg1: !iree_tensor_ext.dispatch.tensor<readonly:tensor<5632x64x32xi8>>, %arg2: index, %arg3: !iree_tensor_ext.dispatch.tensor<readonly:tensor<?x64x32xf16>>, %arg4: !iree_tensor_ext.dispatch.tensor<readonly:tensor<?x5632xf16>>, %arg5: !iree_tensor_ext.dispatch.tensor<writeonly:tensor<?x5632xf16>>) {
        %cst = arith.constant 1.000000e+00 : f16
        %cst_0 = arith.constant 0.000000e+00 : f32
        %0 = iree_tensor_ext.dispatch.workload.ordinal %arg2, 0 : index
        %1 = flow.dispatch.tie_shape %arg3 : !iree_tensor_ext.dispatch.tensor<readonly:tensor<?x64x32xf16>>{%0}
        %2 = flow.dispatch.tie_shape %arg4 : !iree_tensor_ext.dispatch.tensor<readonly:tensor<?x5632xf16>>{%0}
        %3 = flow.dispatch.tie_shape %arg5 : !iree_tensor_ext.dispatch.tensor<writeonly:tensor<?x5632xf16>>{%0}
        %4 = iree_tensor_ext.dispatch.tensor.load %arg0, offsets = [0, 0], sizes = [5632, 64], strides = [1, 1] : !iree_tensor_ext.dispatch.tensor<readonly:tensor<5632x64xf16>> -> tensor<5632x64xf16>
        %5 = iree_tensor_ext.dispatch.tensor.load %arg1, offsets = [0, 0, 0], sizes = [5632, 64, 32], strides = [1, 1, 1] : !iree_tensor_ext.dispatch.tensor<readonly:tensor<5632x64x32xi8>> -> tensor<5632x64x32xi8>
        %6 = iree_tensor_ext.dispatch.tensor.load %1, offsets = [0, 0, 0], sizes = [%0, 64, 32], strides = [1, 1, 1] : !iree_tensor_ext.dispatch.tensor<readonly:tensor<?x64x32xf16>>{%0} -> tensor<?x64x32xf16>
        %7 = iree_tensor_ext.dispatch.tensor.load %2, offsets = [0, 0], sizes = [%0, 5632], strides = [1, 1] : !iree_tensor_ext.dispatch.tensor<readonly:tensor<?x5632xf16>>{%0} -> tensor<?x5632xf16>
        %8 = tensor.empty() : tensor<5632x64x32xf16>
        %9 = linalg.generic {indexing_maps = [#map4, #map5, #map5], iterator_types = ["parallel", "parallel", "parallel"]} ins(%4, %5 : tensor<5632x64xf16>, tensor<5632x64x32xi8>) outs(%8 : tensor<5632x64x32xf16>) {
        ^bb0(%in: f16, %in_1: i8, %out: f16):
          %15 = arith.extsi %in_1 : i8 to i32
          %16 = arith.sitofp %15 : i32 to f16
          %17 = arith.mulf %16, %in : f16
          linalg.yield %17 : f16
        } -> tensor<5632x64x32xf16>
        %10 = tensor.empty(%0) : tensor<?x5632xf32>
        %11 = linalg.fill ins(%cst_0 : f32) outs(%10 : tensor<?x5632xf32>) -> tensor<?x5632xf32>
        %12 = linalg.generic {indexing_maps = [#map6, #map7, #map8], iterator_types = ["parallel", "parallel", "reduction", "reduction"]} ins(%6, %9 : tensor<?x64x32xf16>, tensor<5632x64x32xf16>) outs(%11 : tensor<?x5632xf32>) {
        ^bb0(%in: f16, %in_1: f16, %out: f32):
          %15 = arith.mulf %in, %in_1 : f16
          %16 = arith.extf %15 : f16 to f32
          %17 = arith.addf %16, %out : f32
          linalg.yield %17 : f32
        } -> tensor<?x5632xf32>
        %13 = tensor.empty(%0) : tensor<?x5632xf16>
        %14 = linalg.generic {indexing_maps = [#map1, #map1, #map1], iterator_types = ["parallel", "parallel"]} ins(%12, %7 : tensor<?x5632xf32>, tensor<?x5632xf16>) outs(%13 : tensor<?x5632xf16>) {
        ^bb0(%in: f32, %in_1: f16, %out: f16):
          %15 = arith.truncf %in : f32 to f16
          %16 = arith.negf %15 : f16
          %17 = math.exp %16 : f16
          %18 = arith.addf %17, %cst : f16
          %19 = arith.divf %cst, %18 : f16
          %20 = arith.mulf %19, %15 : f16
          %21 = arith.mulf %20, %in_1 : f16
          linalg.yield %21 : f16
        } -> tensor<?x5632xf16>
        iree_tensor_ext.dispatch.tensor.store %14, %3, offsets = [0, 0], sizes = [%0, 5632], strides = [1, 1] : tensor<?x5632xf16> -> !iree_tensor_ext.dispatch.tensor<writeonly:tensor<?x5632xf16>>{%0}
        return
      }
    }
  }
  flow.executable private @prefill_bs4$async_dispatch_49 {
    flow.executable.export public @prefill_bs4$async_dispatch_49_slow_memcpy workgroups() -> (index, index, index) {
      %x, %y, %z = iree_tensor_ext.dispatch.workgroup_count_from_slice()
      flow.return %x, %y, %z : index, index, index
    }
    builtin.module {
      func.func @prefill_bs4$async_dispatch_49_slow_memcpy(%arg0: !iree_tensor_ext.dispatch.tensor<readonly:tensor<2048x176x1x17xi16>>, %arg1: !iree_tensor_ext.dispatch.tensor<writeonly:tensor<2048x176x1xi16>>) {
        %0 = iree_tensor_ext.dispatch.tensor.load %arg0, offsets = [0, 0, 0, 0], sizes = [2048, 176, 1, 1], strides = [1, 1, 1, 1] : !iree_tensor_ext.dispatch.tensor<readonly:tensor<2048x176x1x17xi16>> -> tensor<2048x176x1xi16>
        iree_tensor_ext.dispatch.tensor.store %0, %arg1, offsets = [0, 0, 0], sizes = [2048, 176, 1], strides = [1, 1, 1] : tensor<2048x176x1xi16> -> !iree_tensor_ext.dispatch.tensor<writeonly:tensor<2048x176x1xi16>>
        return
      }
    }
  }
  flow.executable private @prefill_bs4$async_dispatch_50 {
    flow.executable.export public @prefill_bs4$async_dispatch_50_slow_memcpy workgroups() -> (index, index, index) {
      %x, %y, %z = iree_tensor_ext.dispatch.workgroup_count_from_slice()
      flow.return %x, %y, %z : index, index, index
    }
    builtin.module {
      func.func @prefill_bs4$async_dispatch_50_slow_memcpy(%arg0: !iree_tensor_ext.dispatch.tensor<readonly:tensor<2048x176x17xi16>>, %arg1: !iree_tensor_ext.dispatch.tensor<writeonly:tensor<2048x176x16xi16>>) {
        %0 = iree_tensor_ext.dispatch.tensor.load %arg0, offsets = [0, 0, 1], sizes = [2048, 176, 16], strides = [1, 1, 1] : !iree_tensor_ext.dispatch.tensor<readonly:tensor<2048x176x17xi16>> -> tensor<2048x176x16xi16>
        iree_tensor_ext.dispatch.tensor.store %0, %arg1, offsets = [0, 0, 0], sizes = [2048, 176, 16], strides = [1, 1, 1] : tensor<2048x176x16xi16> -> !iree_tensor_ext.dispatch.tensor<writeonly:tensor<2048x176x16xi16>>
        return
      }
    }
  }
  flow.executable private @prefill_bs4$async_dispatch_51 {
    flow.executable.export public @prefill_bs4$async_dispatch_51_matmul_like_Dx2048x176x32_f16xf16xf32 workgroups(%arg0: index) -> (index, index, index) {
      %x, %y, %z = iree_tensor_ext.dispatch.workgroup_count_from_slice(%arg0)
      flow.return %x, %y, %z : index, index, index
    }
    builtin.module {
      func.func @prefill_bs4$async_dispatch_51_matmul_like_Dx2048x176x32_f16xf16xf32(%arg0: !iree_tensor_ext.dispatch.tensor<readonly:tensor<2048x176xf16>>, %arg1: !iree_tensor_ext.dispatch.tensor<readonly:tensor<2048x176x32xi8>>, %arg2: index, %arg3: !iree_tensor_ext.dispatch.tensor<readonly:tensor<?x176x32xf16>>, %arg4: !iree_tensor_ext.dispatch.tensor<readonly:tensor<?x2048xf16>>, %arg5: !iree_tensor_ext.dispatch.tensor<writeonly:tensor<?x2048xf16>>) {
        %cst = arith.constant 0.000000e+00 : f32
        %0 = iree_tensor_ext.dispatch.workload.ordinal %arg2, 0 : index
        %1 = flow.dispatch.tie_shape %arg3 : !iree_tensor_ext.dispatch.tensor<readonly:tensor<?x176x32xf16>>{%0}
        %2 = flow.dispatch.tie_shape %arg4 : !iree_tensor_ext.dispatch.tensor<readonly:tensor<?x2048xf16>>{%0}
        %3 = flow.dispatch.tie_shape %arg5 : !iree_tensor_ext.dispatch.tensor<writeonly:tensor<?x2048xf16>>{%0}
        %4 = iree_tensor_ext.dispatch.tensor.load %arg0, offsets = [0, 0], sizes = [2048, 176], strides = [1, 1] : !iree_tensor_ext.dispatch.tensor<readonly:tensor<2048x176xf16>> -> tensor<2048x176xf16>
        %5 = iree_tensor_ext.dispatch.tensor.load %arg1, offsets = [0, 0, 0], sizes = [2048, 176, 32], strides = [1, 1, 1] : !iree_tensor_ext.dispatch.tensor<readonly:tensor<2048x176x32xi8>> -> tensor<2048x176x32xi8>
        %6 = iree_tensor_ext.dispatch.tensor.load %1, offsets = [0, 0, 0], sizes = [%0, 176, 32], strides = [1, 1, 1] : !iree_tensor_ext.dispatch.tensor<readonly:tensor<?x176x32xf16>>{%0} -> tensor<?x176x32xf16>
        %7 = iree_tensor_ext.dispatch.tensor.load %2, offsets = [0, 0], sizes = [%0, 2048], strides = [1, 1] : !iree_tensor_ext.dispatch.tensor<readonly:tensor<?x2048xf16>>{%0} -> tensor<?x2048xf16>
        %8 = tensor.empty() : tensor<2048x176x32xf16>
        %9 = linalg.generic {indexing_maps = [#map4, #map5, #map5], iterator_types = ["parallel", "parallel", "parallel"]} ins(%4, %5 : tensor<2048x176xf16>, tensor<2048x176x32xi8>) outs(%8 : tensor<2048x176x32xf16>) {
        ^bb0(%in: f16, %in_0: i8, %out: f16):
          %15 = arith.extsi %in_0 : i8 to i32
          %16 = arith.sitofp %15 : i32 to f16
          %17 = arith.mulf %16, %in : f16
          linalg.yield %17 : f16
        } -> tensor<2048x176x32xf16>
        %10 = tensor.empty(%0) : tensor<?x2048xf32>
        %11 = linalg.fill ins(%cst : f32) outs(%10 : tensor<?x2048xf32>) -> tensor<?x2048xf32>
        %12 = linalg.generic {indexing_maps = [#map6, #map7, #map8], iterator_types = ["parallel", "parallel", "reduction", "reduction"]} ins(%6, %9 : tensor<?x176x32xf16>, tensor<2048x176x32xf16>) outs(%11 : tensor<?x2048xf32>) {
        ^bb0(%in: f16, %in_0: f16, %out: f32):
          %15 = arith.mulf %in, %in_0 : f16
          %16 = arith.extf %15 : f16 to f32
          %17 = arith.addf %16, %out : f32
          linalg.yield %17 : f32
        } -> tensor<?x2048xf32>
        %13 = tensor.empty(%0) : tensor<?x2048xf16>
        %14 = linalg.generic {indexing_maps = [#map1, #map1, #map1], iterator_types = ["parallel", "parallel"]} ins(%7, %12 : tensor<?x2048xf16>, tensor<?x2048xf32>) outs(%13 : tensor<?x2048xf16>) {
        ^bb0(%in: f16, %in_0: f32, %out: f16):
          %15 = arith.truncf %in_0 : f32 to f16
          %16 = arith.addf %in, %15 : f16
          linalg.yield %16 : f16
        } -> tensor<?x2048xf16>
        iree_tensor_ext.dispatch.tensor.store %14, %3, offsets = [0, 0], sizes = [%0, 2048], strides = [1, 1] : tensor<?x2048xf16> -> !iree_tensor_ext.dispatch.tensor<writeonly:tensor<?x2048xf16>>{%0}
        return
      }
    }
  }
  flow.executable private @prefill_bs4$async_dispatch_70 {
    flow.executable.export public @prefill_bs4$async_dispatch_70_elementwise_D_i64 workgroups(%arg0: index) -> (index, index, index) {
      %x, %y, %z = iree_tensor_ext.dispatch.workgroup_count_from_slice(%arg0)
      flow.return %x, %y, %z : index, index, index
    }
    builtin.module {
      func.func @prefill_bs4$async_dispatch_70_elementwise_D_i64(%arg0: index, %arg1: !iree_tensor_ext.dispatch.tensor<readonly:tensor<?xi64>>, %arg2: !iree_tensor_ext.dispatch.tensor<writeonly:tensor<?xi64>>) {
        %c2_i64 = arith.constant 2 : i64
        %c1_i64 = arith.constant 1 : i64
        %0 = iree_tensor_ext.dispatch.workload.ordinal %arg0, 0 : index
        %1 = flow.dispatch.tie_shape %arg1 : !iree_tensor_ext.dispatch.tensor<readonly:tensor<?xi64>>{%0}
        %2 = flow.dispatch.tie_shape %arg2 : !iree_tensor_ext.dispatch.tensor<writeonly:tensor<?xi64>>{%0}
        %3 = iree_tensor_ext.dispatch.tensor.load %1, offsets = [0], sizes = [%0], strides = [1] : !iree_tensor_ext.dispatch.tensor<readonly:tensor<?xi64>>{%0} -> tensor<?xi64>
        %4 = tensor.empty(%0) : tensor<?xi64>
        %5 = linalg.generic {indexing_maps = [#map2, #map2], iterator_types = ["parallel"]} ins(%3 : tensor<?xi64>) outs(%4 : tensor<?xi64>) {
        ^bb0(%in: i64, %out: i64):
          %6 = arith.addi %in, %c1_i64 : i64
          %7 = arith.muli %6, %c2_i64 : i64
          linalg.yield %7 : i64
        } -> tensor<?xi64>
        iree_tensor_ext.dispatch.tensor.store %5, %2, offsets = [0], sizes = [%0], strides = [1] : tensor<?xi64> -> !iree_tensor_ext.dispatch.tensor<writeonly:tensor<?xi64>>{%0}
        return
      }
    }
  }
  flow.executable private @prefill_bs4$async_dispatch_112 {
    flow.executable.export public @prefill_bs4$async_dispatch_112_elementwise_D_i64 workgroups(%arg0: index) -> (index, index, index) {
      %x, %y, %z = iree_tensor_ext.dispatch.workgroup_count_from_slice(%arg0)
      flow.return %x, %y, %z : index, index, index
    }
    builtin.module {
      func.func @prefill_bs4$async_dispatch_112_elementwise_D_i64(%arg0: index, %arg1: !iree_tensor_ext.dispatch.tensor<readonly:tensor<?xi64>>, %arg2: !iree_tensor_ext.dispatch.tensor<writeonly:tensor<?xi64>>) {
        %c2_i64 = arith.constant 2 : i64
        %0 = iree_tensor_ext.dispatch.workload.ordinal %arg0, 0 : index
        %1 = flow.dispatch.tie_shape %arg1 : !iree_tensor_ext.dispatch.tensor<readonly:tensor<?xi64>>{%0}
        %2 = flow.dispatch.tie_shape %arg2 : !iree_tensor_ext.dispatch.tensor<writeonly:tensor<?xi64>>{%0}
        %3 = iree_tensor_ext.dispatch.tensor.load %1, offsets = [0], sizes = [%0], strides = [1] : !iree_tensor_ext.dispatch.tensor<readonly:tensor<?xi64>>{%0} -> tensor<?xi64>
        %4 = tensor.empty(%0) : tensor<?xi64>
        %5 = linalg.generic {indexing_maps = [#map2, #map2], iterator_types = ["parallel"]} ins(%3 : tensor<?xi64>) outs(%4 : tensor<?xi64>) {
        ^bb0(%in: i64, %out: i64):
          %6 = arith.addi %in, %c2_i64 : i64
          %7 = arith.muli %6, %c2_i64 : i64
          linalg.yield %7 : i64
        } -> tensor<?xi64>
        iree_tensor_ext.dispatch.tensor.store %5, %2, offsets = [0], sizes = [%0], strides = [1] : tensor<?xi64> -> !iree_tensor_ext.dispatch.tensor<writeonly:tensor<?xi64>>{%0}
        return
      }
    }
  }
  flow.executable private @prefill_bs4$async_dispatch_154 {
    flow.executable.export public @prefill_bs4$async_dispatch_154_elementwise_D_i64 workgroups(%arg0: index) -> (index, index, index) {
      %x, %y, %z = iree_tensor_ext.dispatch.workgroup_count_from_slice(%arg0)
      flow.return %x, %y, %z : index, index, index
    }
    builtin.module {
      func.func @prefill_bs4$async_dispatch_154_elementwise_D_i64(%arg0: index, %arg1: !iree_tensor_ext.dispatch.tensor<readonly:tensor<?xi64>>, %arg2: !iree_tensor_ext.dispatch.tensor<writeonly:tensor<?xi64>>) {
        %c2_i64 = arith.constant 2 : i64
        %c3_i64 = arith.constant 3 : i64
        %0 = iree_tensor_ext.dispatch.workload.ordinal %arg0, 0 : index
        %1 = flow.dispatch.tie_shape %arg1 : !iree_tensor_ext.dispatch.tensor<readonly:tensor<?xi64>>{%0}
        %2 = flow.dispatch.tie_shape %arg2 : !iree_tensor_ext.dispatch.tensor<writeonly:tensor<?xi64>>{%0}
        %3 = iree_tensor_ext.dispatch.tensor.load %1, offsets = [0], sizes = [%0], strides = [1] : !iree_tensor_ext.dispatch.tensor<readonly:tensor<?xi64>>{%0} -> tensor<?xi64>
        %4 = tensor.empty(%0) : tensor<?xi64>
        %5 = linalg.generic {indexing_maps = [#map2, #map2], iterator_types = ["parallel"]} ins(%3 : tensor<?xi64>) outs(%4 : tensor<?xi64>) {
        ^bb0(%in: i64, %out: i64):
          %6 = arith.addi %in, %c3_i64 : i64
          %7 = arith.muli %6, %c2_i64 : i64
          linalg.yield %7 : i64
        } -> tensor<?xi64>
        iree_tensor_ext.dispatch.tensor.store %5, %2, offsets = [0], sizes = [%0], strides = [1] : tensor<?xi64> -> !iree_tensor_ext.dispatch.tensor<writeonly:tensor<?xi64>>{%0}
        return
      }
    }
  }
  flow.executable private @prefill_bs4$async_dispatch_196 {
    flow.executable.export public @prefill_bs4$async_dispatch_196_elementwise_D_i64 workgroups(%arg0: index) -> (index, index, index) {
      %x, %y, %z = iree_tensor_ext.dispatch.workgroup_count_from_slice(%arg0)
      flow.return %x, %y, %z : index, index, index
    }
    builtin.module {
      func.func @prefill_bs4$async_dispatch_196_elementwise_D_i64(%arg0: index, %arg1: !iree_tensor_ext.dispatch.tensor<readonly:tensor<?xi64>>, %arg2: !iree_tensor_ext.dispatch.tensor<writeonly:tensor<?xi64>>) {
        %c2_i64 = arith.constant 2 : i64
        %c4_i64 = arith.constant 4 : i64
        %0 = iree_tensor_ext.dispatch.workload.ordinal %arg0, 0 : index
        %1 = flow.dispatch.tie_shape %arg1 : !iree_tensor_ext.dispatch.tensor<readonly:tensor<?xi64>>{%0}
        %2 = flow.dispatch.tie_shape %arg2 : !iree_tensor_ext.dispatch.tensor<writeonly:tensor<?xi64>>{%0}
        %3 = iree_tensor_ext.dispatch.tensor.load %1, offsets = [0], sizes = [%0], strides = [1] : !iree_tensor_ext.dispatch.tensor<readonly:tensor<?xi64>>{%0} -> tensor<?xi64>
        %4 = tensor.empty(%0) : tensor<?xi64>
        %5 = linalg.generic {indexing_maps = [#map2, #map2], iterator_types = ["parallel"]} ins(%3 : tensor<?xi64>) outs(%4 : tensor<?xi64>) {
        ^bb0(%in: i64, %out: i64):
          %6 = arith.addi %in, %c4_i64 : i64
          %7 = arith.muli %6, %c2_i64 : i64
          linalg.yield %7 : i64
        } -> tensor<?xi64>
        iree_tensor_ext.dispatch.tensor.store %5, %2, offsets = [0], sizes = [%0], strides = [1] : tensor<?xi64> -> !iree_tensor_ext.dispatch.tensor<writeonly:tensor<?xi64>>{%0}
        return
      }
    }
  }
  flow.executable private @prefill_bs4$async_dispatch_238 {
    flow.executable.export public @prefill_bs4$async_dispatch_238_elementwise_D_i64 workgroups(%arg0: index) -> (index, index, index) {
      %x, %y, %z = iree_tensor_ext.dispatch.workgroup_count_from_slice(%arg0)
      flow.return %x, %y, %z : index, index, index
    }
    builtin.module {
      func.func @prefill_bs4$async_dispatch_238_elementwise_D_i64(%arg0: index, %arg1: !iree_tensor_ext.dispatch.tensor<readonly:tensor<?xi64>>, %arg2: !iree_tensor_ext.dispatch.tensor<writeonly:tensor<?xi64>>) {
        %c2_i64 = arith.constant 2 : i64
        %c5_i64 = arith.constant 5 : i64
        %0 = iree_tensor_ext.dispatch.workload.ordinal %arg0, 0 : index
        %1 = flow.dispatch.tie_shape %arg1 : !iree_tensor_ext.dispatch.tensor<readonly:tensor<?xi64>>{%0}
        %2 = flow.dispatch.tie_shape %arg2 : !iree_tensor_ext.dispatch.tensor<writeonly:tensor<?xi64>>{%0}
        %3 = iree_tensor_ext.dispatch.tensor.load %1, offsets = [0], sizes = [%0], strides = [1] : !iree_tensor_ext.dispatch.tensor<readonly:tensor<?xi64>>{%0} -> tensor<?xi64>
        %4 = tensor.empty(%0) : tensor<?xi64>
        %5 = linalg.generic {indexing_maps = [#map2, #map2], iterator_types = ["parallel"]} ins(%3 : tensor<?xi64>) outs(%4 : tensor<?xi64>) {
        ^bb0(%in: i64, %out: i64):
          %6 = arith.addi %in, %c5_i64 : i64
          %7 = arith.muli %6, %c2_i64 : i64
          linalg.yield %7 : i64
        } -> tensor<?xi64>
        iree_tensor_ext.dispatch.tensor.store %5, %2, offsets = [0], sizes = [%0], strides = [1] : tensor<?xi64> -> !iree_tensor_ext.dispatch.tensor<writeonly:tensor<?xi64>>{%0}
        return
      }
    }
  }
  flow.executable private @prefill_bs4$async_dispatch_280 {
    flow.executable.export public @prefill_bs4$async_dispatch_280_elementwise_D_i64 workgroups(%arg0: index) -> (index, index, index) {
      %x, %y, %z = iree_tensor_ext.dispatch.workgroup_count_from_slice(%arg0)
      flow.return %x, %y, %z : index, index, index
    }
    builtin.module {
      func.func @prefill_bs4$async_dispatch_280_elementwise_D_i64(%arg0: index, %arg1: !iree_tensor_ext.dispatch.tensor<readonly:tensor<?xi64>>, %arg2: !iree_tensor_ext.dispatch.tensor<writeonly:tensor<?xi64>>) {
        %c2_i64 = arith.constant 2 : i64
        %c6_i64 = arith.constant 6 : i64
        %0 = iree_tensor_ext.dispatch.workload.ordinal %arg0, 0 : index
        %1 = flow.dispatch.tie_shape %arg1 : !iree_tensor_ext.dispatch.tensor<readonly:tensor<?xi64>>{%0}
        %2 = flow.dispatch.tie_shape %arg2 : !iree_tensor_ext.dispatch.tensor<writeonly:tensor<?xi64>>{%0}
        %3 = iree_tensor_ext.dispatch.tensor.load %1, offsets = [0], sizes = [%0], strides = [1] : !iree_tensor_ext.dispatch.tensor<readonly:tensor<?xi64>>{%0} -> tensor<?xi64>
        %4 = tensor.empty(%0) : tensor<?xi64>
        %5 = linalg.generic {indexing_maps = [#map2, #map2], iterator_types = ["parallel"]} ins(%3 : tensor<?xi64>) outs(%4 : tensor<?xi64>) {
        ^bb0(%in: i64, %out: i64):
          %6 = arith.addi %in, %c6_i64 : i64
          %7 = arith.muli %6, %c2_i64 : i64
          linalg.yield %7 : i64
        } -> tensor<?xi64>
        iree_tensor_ext.dispatch.tensor.store %5, %2, offsets = [0], sizes = [%0], strides = [1] : tensor<?xi64> -> !iree_tensor_ext.dispatch.tensor<writeonly:tensor<?xi64>>{%0}
        return
      }
    }
  }
  flow.executable private @prefill_bs4$async_dispatch_322 {
    flow.executable.export public @prefill_bs4$async_dispatch_322_elementwise_D_i64 workgroups(%arg0: index) -> (index, index, index) {
      %x, %y, %z = iree_tensor_ext.dispatch.workgroup_count_from_slice(%arg0)
      flow.return %x, %y, %z : index, index, index
    }
    builtin.module {
      func.func @prefill_bs4$async_dispatch_322_elementwise_D_i64(%arg0: index, %arg1: !iree_tensor_ext.dispatch.tensor<readonly:tensor<?xi64>>, %arg2: !iree_tensor_ext.dispatch.tensor<writeonly:tensor<?xi64>>) {
        %c2_i64 = arith.constant 2 : i64
        %c7_i64 = arith.constant 7 : i64
        %0 = iree_tensor_ext.dispatch.workload.ordinal %arg0, 0 : index
        %1 = flow.dispatch.tie_shape %arg1 : !iree_tensor_ext.dispatch.tensor<readonly:tensor<?xi64>>{%0}
        %2 = flow.dispatch.tie_shape %arg2 : !iree_tensor_ext.dispatch.tensor<writeonly:tensor<?xi64>>{%0}
        %3 = iree_tensor_ext.dispatch.tensor.load %1, offsets = [0], sizes = [%0], strides = [1] : !iree_tensor_ext.dispatch.tensor<readonly:tensor<?xi64>>{%0} -> tensor<?xi64>
        %4 = tensor.empty(%0) : tensor<?xi64>
        %5 = linalg.generic {indexing_maps = [#map2, #map2], iterator_types = ["parallel"]} ins(%3 : tensor<?xi64>) outs(%4 : tensor<?xi64>) {
        ^bb0(%in: i64, %out: i64):
          %6 = arith.addi %in, %c7_i64 : i64
          %7 = arith.muli %6, %c2_i64 : i64
          linalg.yield %7 : i64
        } -> tensor<?xi64>
        iree_tensor_ext.dispatch.tensor.store %5, %2, offsets = [0], sizes = [%0], strides = [1] : tensor<?xi64> -> !iree_tensor_ext.dispatch.tensor<writeonly:tensor<?xi64>>{%0}
        return
      }
    }
  }
  flow.executable private @prefill_bs4$async_dispatch_364 {
    flow.executable.export public @prefill_bs4$async_dispatch_364_elementwise_D_i64 workgroups(%arg0: index) -> (index, index, index) {
      %x, %y, %z = iree_tensor_ext.dispatch.workgroup_count_from_slice(%arg0)
      flow.return %x, %y, %z : index, index, index
    }
    builtin.module {
      func.func @prefill_bs4$async_dispatch_364_elementwise_D_i64(%arg0: index, %arg1: !iree_tensor_ext.dispatch.tensor<readonly:tensor<?xi64>>, %arg2: !iree_tensor_ext.dispatch.tensor<writeonly:tensor<?xi64>>) {
        %c2_i64 = arith.constant 2 : i64
        %c8_i64 = arith.constant 8 : i64
        %0 = iree_tensor_ext.dispatch.workload.ordinal %arg0, 0 : index
        %1 = flow.dispatch.tie_shape %arg1 : !iree_tensor_ext.dispatch.tensor<readonly:tensor<?xi64>>{%0}
        %2 = flow.dispatch.tie_shape %arg2 : !iree_tensor_ext.dispatch.tensor<writeonly:tensor<?xi64>>{%0}
        %3 = iree_tensor_ext.dispatch.tensor.load %1, offsets = [0], sizes = [%0], strides = [1] : !iree_tensor_ext.dispatch.tensor<readonly:tensor<?xi64>>{%0} -> tensor<?xi64>
        %4 = tensor.empty(%0) : tensor<?xi64>
        %5 = linalg.generic {indexing_maps = [#map2, #map2], iterator_types = ["parallel"]} ins(%3 : tensor<?xi64>) outs(%4 : tensor<?xi64>) {
        ^bb0(%in: i64, %out: i64):
          %6 = arith.addi %in, %c8_i64 : i64
          %7 = arith.muli %6, %c2_i64 : i64
          linalg.yield %7 : i64
        } -> tensor<?xi64>
        iree_tensor_ext.dispatch.tensor.store %5, %2, offsets = [0], sizes = [%0], strides = [1] : tensor<?xi64> -> !iree_tensor_ext.dispatch.tensor<writeonly:tensor<?xi64>>{%0}
        return
      }
    }
  }
  flow.executable private @prefill_bs4$async_dispatch_406 {
    flow.executable.export public @prefill_bs4$async_dispatch_406_elementwise_D_i64 workgroups(%arg0: index) -> (index, index, index) {
      %x, %y, %z = iree_tensor_ext.dispatch.workgroup_count_from_slice(%arg0)
      flow.return %x, %y, %z : index, index, index
    }
    builtin.module {
      func.func @prefill_bs4$async_dispatch_406_elementwise_D_i64(%arg0: index, %arg1: !iree_tensor_ext.dispatch.tensor<readonly:tensor<?xi64>>, %arg2: !iree_tensor_ext.dispatch.tensor<writeonly:tensor<?xi64>>) {
        %c2_i64 = arith.constant 2 : i64
        %c9_i64 = arith.constant 9 : i64
        %0 = iree_tensor_ext.dispatch.workload.ordinal %arg0, 0 : index
        %1 = flow.dispatch.tie_shape %arg1 : !iree_tensor_ext.dispatch.tensor<readonly:tensor<?xi64>>{%0}
        %2 = flow.dispatch.tie_shape %arg2 : !iree_tensor_ext.dispatch.tensor<writeonly:tensor<?xi64>>{%0}
        %3 = iree_tensor_ext.dispatch.tensor.load %1, offsets = [0], sizes = [%0], strides = [1] : !iree_tensor_ext.dispatch.tensor<readonly:tensor<?xi64>>{%0} -> tensor<?xi64>
        %4 = tensor.empty(%0) : tensor<?xi64>
        %5 = linalg.generic {indexing_maps = [#map2, #map2], iterator_types = ["parallel"]} ins(%3 : tensor<?xi64>) outs(%4 : tensor<?xi64>) {
        ^bb0(%in: i64, %out: i64):
          %6 = arith.addi %in, %c9_i64 : i64
          %7 = arith.muli %6, %c2_i64 : i64
          linalg.yield %7 : i64
        } -> tensor<?xi64>
        iree_tensor_ext.dispatch.tensor.store %5, %2, offsets = [0], sizes = [%0], strides = [1] : tensor<?xi64> -> !iree_tensor_ext.dispatch.tensor<writeonly:tensor<?xi64>>{%0}
        return
      }
    }
  }
  flow.executable private @prefill_bs4$async_dispatch_448 {
    flow.executable.export public @prefill_bs4$async_dispatch_448_elementwise_D_i64 workgroups(%arg0: index) -> (index, index, index) {
      %x, %y, %z = iree_tensor_ext.dispatch.workgroup_count_from_slice(%arg0)
      flow.return %x, %y, %z : index, index, index
    }
    builtin.module {
      func.func @prefill_bs4$async_dispatch_448_elementwise_D_i64(%arg0: index, %arg1: !iree_tensor_ext.dispatch.tensor<readonly:tensor<?xi64>>, %arg2: !iree_tensor_ext.dispatch.tensor<writeonly:tensor<?xi64>>) {
        %c2_i64 = arith.constant 2 : i64
        %c10_i64 = arith.constant 10 : i64
        %0 = iree_tensor_ext.dispatch.workload.ordinal %arg0, 0 : index
        %1 = flow.dispatch.tie_shape %arg1 : !iree_tensor_ext.dispatch.tensor<readonly:tensor<?xi64>>{%0}
        %2 = flow.dispatch.tie_shape %arg2 : !iree_tensor_ext.dispatch.tensor<writeonly:tensor<?xi64>>{%0}
        %3 = iree_tensor_ext.dispatch.tensor.load %1, offsets = [0], sizes = [%0], strides = [1] : !iree_tensor_ext.dispatch.tensor<readonly:tensor<?xi64>>{%0} -> tensor<?xi64>
        %4 = tensor.empty(%0) : tensor<?xi64>
        %5 = linalg.generic {indexing_maps = [#map2, #map2], iterator_types = ["parallel"]} ins(%3 : tensor<?xi64>) outs(%4 : tensor<?xi64>) {
        ^bb0(%in: i64, %out: i64):
          %6 = arith.addi %in, %c10_i64 : i64
          %7 = arith.muli %6, %c2_i64 : i64
          linalg.yield %7 : i64
        } -> tensor<?xi64>
        iree_tensor_ext.dispatch.tensor.store %5, %2, offsets = [0], sizes = [%0], strides = [1] : tensor<?xi64> -> !iree_tensor_ext.dispatch.tensor<writeonly:tensor<?xi64>>{%0}
        return
      }
    }
  }
  flow.executable private @prefill_bs4$async_dispatch_490 {
    flow.executable.export public @prefill_bs4$async_dispatch_490_elementwise_D_i64 workgroups(%arg0: index) -> (index, index, index) {
      %x, %y, %z = iree_tensor_ext.dispatch.workgroup_count_from_slice(%arg0)
      flow.return %x, %y, %z : index, index, index
    }
    builtin.module {
      func.func @prefill_bs4$async_dispatch_490_elementwise_D_i64(%arg0: index, %arg1: !iree_tensor_ext.dispatch.tensor<readonly:tensor<?xi64>>, %arg2: !iree_tensor_ext.dispatch.tensor<writeonly:tensor<?xi64>>) {
        %c2_i64 = arith.constant 2 : i64
        %c11_i64 = arith.constant 11 : i64
        %0 = iree_tensor_ext.dispatch.workload.ordinal %arg0, 0 : index
        %1 = flow.dispatch.tie_shape %arg1 : !iree_tensor_ext.dispatch.tensor<readonly:tensor<?xi64>>{%0}
        %2 = flow.dispatch.tie_shape %arg2 : !iree_tensor_ext.dispatch.tensor<writeonly:tensor<?xi64>>{%0}
        %3 = iree_tensor_ext.dispatch.tensor.load %1, offsets = [0], sizes = [%0], strides = [1] : !iree_tensor_ext.dispatch.tensor<readonly:tensor<?xi64>>{%0} -> tensor<?xi64>
        %4 = tensor.empty(%0) : tensor<?xi64>
        %5 = linalg.generic {indexing_maps = [#map2, #map2], iterator_types = ["parallel"]} ins(%3 : tensor<?xi64>) outs(%4 : tensor<?xi64>) {
        ^bb0(%in: i64, %out: i64):
          %6 = arith.addi %in, %c11_i64 : i64
          %7 = arith.muli %6, %c2_i64 : i64
          linalg.yield %7 : i64
        } -> tensor<?xi64>
        iree_tensor_ext.dispatch.tensor.store %5, %2, offsets = [0], sizes = [%0], strides = [1] : tensor<?xi64> -> !iree_tensor_ext.dispatch.tensor<writeonly:tensor<?xi64>>{%0}
        return
      }
    }
  }
  flow.executable private @prefill_bs4$async_dispatch_532 {
    flow.executable.export public @prefill_bs4$async_dispatch_532_elementwise_D_i64 workgroups(%arg0: index) -> (index, index, index) {
      %x, %y, %z = iree_tensor_ext.dispatch.workgroup_count_from_slice(%arg0)
      flow.return %x, %y, %z : index, index, index
    }
    builtin.module {
      func.func @prefill_bs4$async_dispatch_532_elementwise_D_i64(%arg0: index, %arg1: !iree_tensor_ext.dispatch.tensor<readonly:tensor<?xi64>>, %arg2: !iree_tensor_ext.dispatch.tensor<writeonly:tensor<?xi64>>) {
        %c2_i64 = arith.constant 2 : i64
        %c12_i64 = arith.constant 12 : i64
        %0 = iree_tensor_ext.dispatch.workload.ordinal %arg0, 0 : index
        %1 = flow.dispatch.tie_shape %arg1 : !iree_tensor_ext.dispatch.tensor<readonly:tensor<?xi64>>{%0}
        %2 = flow.dispatch.tie_shape %arg2 : !iree_tensor_ext.dispatch.tensor<writeonly:tensor<?xi64>>{%0}
        %3 = iree_tensor_ext.dispatch.tensor.load %1, offsets = [0], sizes = [%0], strides = [1] : !iree_tensor_ext.dispatch.tensor<readonly:tensor<?xi64>>{%0} -> tensor<?xi64>
        %4 = tensor.empty(%0) : tensor<?xi64>
        %5 = linalg.generic {indexing_maps = [#map2, #map2], iterator_types = ["parallel"]} ins(%3 : tensor<?xi64>) outs(%4 : tensor<?xi64>) {
        ^bb0(%in: i64, %out: i64):
          %6 = arith.addi %in, %c12_i64 : i64
          %7 = arith.muli %6, %c2_i64 : i64
          linalg.yield %7 : i64
        } -> tensor<?xi64>
        iree_tensor_ext.dispatch.tensor.store %5, %2, offsets = [0], sizes = [%0], strides = [1] : tensor<?xi64> -> !iree_tensor_ext.dispatch.tensor<writeonly:tensor<?xi64>>{%0}
        return
      }
    }
  }
  flow.executable private @prefill_bs4$async_dispatch_574 {
    flow.executable.export public @prefill_bs4$async_dispatch_574_elementwise_D_i64 workgroups(%arg0: index) -> (index, index, index) {
      %x, %y, %z = iree_tensor_ext.dispatch.workgroup_count_from_slice(%arg0)
      flow.return %x, %y, %z : index, index, index
    }
    builtin.module {
      func.func @prefill_bs4$async_dispatch_574_elementwise_D_i64(%arg0: index, %arg1: !iree_tensor_ext.dispatch.tensor<readonly:tensor<?xi64>>, %arg2: !iree_tensor_ext.dispatch.tensor<writeonly:tensor<?xi64>>) {
        %c2_i64 = arith.constant 2 : i64
        %c13_i64 = arith.constant 13 : i64
        %0 = iree_tensor_ext.dispatch.workload.ordinal %arg0, 0 : index
        %1 = flow.dispatch.tie_shape %arg1 : !iree_tensor_ext.dispatch.tensor<readonly:tensor<?xi64>>{%0}
        %2 = flow.dispatch.tie_shape %arg2 : !iree_tensor_ext.dispatch.tensor<writeonly:tensor<?xi64>>{%0}
        %3 = iree_tensor_ext.dispatch.tensor.load %1, offsets = [0], sizes = [%0], strides = [1] : !iree_tensor_ext.dispatch.tensor<readonly:tensor<?xi64>>{%0} -> tensor<?xi64>
        %4 = tensor.empty(%0) : tensor<?xi64>
        %5 = linalg.generic {indexing_maps = [#map2, #map2], iterator_types = ["parallel"]} ins(%3 : tensor<?xi64>) outs(%4 : tensor<?xi64>) {
        ^bb0(%in: i64, %out: i64):
          %6 = arith.addi %in, %c13_i64 : i64
          %7 = arith.muli %6, %c2_i64 : i64
          linalg.yield %7 : i64
        } -> tensor<?xi64>
        iree_tensor_ext.dispatch.tensor.store %5, %2, offsets = [0], sizes = [%0], strides = [1] : tensor<?xi64> -> !iree_tensor_ext.dispatch.tensor<writeonly:tensor<?xi64>>{%0}
        return
      }
    }
  }
  flow.executable private @prefill_bs4$async_dispatch_616 {
    flow.executable.export public @prefill_bs4$async_dispatch_616_elementwise_D_i64 workgroups(%arg0: index) -> (index, index, index) {
      %x, %y, %z = iree_tensor_ext.dispatch.workgroup_count_from_slice(%arg0)
      flow.return %x, %y, %z : index, index, index
    }
    builtin.module {
      func.func @prefill_bs4$async_dispatch_616_elementwise_D_i64(%arg0: index, %arg1: !iree_tensor_ext.dispatch.tensor<readonly:tensor<?xi64>>, %arg2: !iree_tensor_ext.dispatch.tensor<writeonly:tensor<?xi64>>) {
        %c2_i64 = arith.constant 2 : i64
        %c14_i64 = arith.constant 14 : i64
        %0 = iree_tensor_ext.dispatch.workload.ordinal %arg0, 0 : index
        %1 = flow.dispatch.tie_shape %arg1 : !iree_tensor_ext.dispatch.tensor<readonly:tensor<?xi64>>{%0}
        %2 = flow.dispatch.tie_shape %arg2 : !iree_tensor_ext.dispatch.tensor<writeonly:tensor<?xi64>>{%0}
        %3 = iree_tensor_ext.dispatch.tensor.load %1, offsets = [0], sizes = [%0], strides = [1] : !iree_tensor_ext.dispatch.tensor<readonly:tensor<?xi64>>{%0} -> tensor<?xi64>
        %4 = tensor.empty(%0) : tensor<?xi64>
        %5 = linalg.generic {indexing_maps = [#map2, #map2], iterator_types = ["parallel"]} ins(%3 : tensor<?xi64>) outs(%4 : tensor<?xi64>) {
        ^bb0(%in: i64, %out: i64):
          %6 = arith.addi %in, %c14_i64 : i64
          %7 = arith.muli %6, %c2_i64 : i64
          linalg.yield %7 : i64
        } -> tensor<?xi64>
        iree_tensor_ext.dispatch.tensor.store %5, %2, offsets = [0], sizes = [%0], strides = [1] : tensor<?xi64> -> !iree_tensor_ext.dispatch.tensor<writeonly:tensor<?xi64>>{%0}
        return
      }
    }
  }
  flow.executable private @prefill_bs4$async_dispatch_658 {
    flow.executable.export public @prefill_bs4$async_dispatch_658_elementwise_D_i64 workgroups(%arg0: index) -> (index, index, index) {
      %x, %y, %z = iree_tensor_ext.dispatch.workgroup_count_from_slice(%arg0)
      flow.return %x, %y, %z : index, index, index
    }
    builtin.module {
      func.func @prefill_bs4$async_dispatch_658_elementwise_D_i64(%arg0: index, %arg1: !iree_tensor_ext.dispatch.tensor<readonly:tensor<?xi64>>, %arg2: !iree_tensor_ext.dispatch.tensor<writeonly:tensor<?xi64>>) {
        %c2_i64 = arith.constant 2 : i64
        %c15_i64 = arith.constant 15 : i64
        %0 = iree_tensor_ext.dispatch.workload.ordinal %arg0, 0 : index
        %1 = flow.dispatch.tie_shape %arg1 : !iree_tensor_ext.dispatch.tensor<readonly:tensor<?xi64>>{%0}
        %2 = flow.dispatch.tie_shape %arg2 : !iree_tensor_ext.dispatch.tensor<writeonly:tensor<?xi64>>{%0}
        %3 = iree_tensor_ext.dispatch.tensor.load %1, offsets = [0], sizes = [%0], strides = [1] : !iree_tensor_ext.dispatch.tensor<readonly:tensor<?xi64>>{%0} -> tensor<?xi64>
        %4 = tensor.empty(%0) : tensor<?xi64>
        %5 = linalg.generic {indexing_maps = [#map2, #map2], iterator_types = ["parallel"]} ins(%3 : tensor<?xi64>) outs(%4 : tensor<?xi64>) {
        ^bb0(%in: i64, %out: i64):
          %6 = arith.addi %in, %c15_i64 : i64
          %7 = arith.muli %6, %c2_i64 : i64
          linalg.yield %7 : i64
        } -> tensor<?xi64>
        iree_tensor_ext.dispatch.tensor.store %5, %2, offsets = [0], sizes = [%0], strides = [1] : tensor<?xi64> -> !iree_tensor_ext.dispatch.tensor<writeonly:tensor<?xi64>>{%0}
        return
      }
    }
  }
  flow.executable private @prefill_bs4$async_dispatch_700 {
    flow.executable.export public @prefill_bs4$async_dispatch_700_elementwise_D_i64 workgroups(%arg0: index) -> (index, index, index) {
      %x, %y, %z = iree_tensor_ext.dispatch.workgroup_count_from_slice(%arg0)
      flow.return %x, %y, %z : index, index, index
    }
    builtin.module {
      func.func @prefill_bs4$async_dispatch_700_elementwise_D_i64(%arg0: index, %arg1: !iree_tensor_ext.dispatch.tensor<readonly:tensor<?xi64>>, %arg2: !iree_tensor_ext.dispatch.tensor<writeonly:tensor<?xi64>>) {
        %c2_i64 = arith.constant 2 : i64
        %c16_i64 = arith.constant 16 : i64
        %0 = iree_tensor_ext.dispatch.workload.ordinal %arg0, 0 : index
        %1 = flow.dispatch.tie_shape %arg1 : !iree_tensor_ext.dispatch.tensor<readonly:tensor<?xi64>>{%0}
        %2 = flow.dispatch.tie_shape %arg2 : !iree_tensor_ext.dispatch.tensor<writeonly:tensor<?xi64>>{%0}
        %3 = iree_tensor_ext.dispatch.tensor.load %1, offsets = [0], sizes = [%0], strides = [1] : !iree_tensor_ext.dispatch.tensor<readonly:tensor<?xi64>>{%0} -> tensor<?xi64>
        %4 = tensor.empty(%0) : tensor<?xi64>
        %5 = linalg.generic {indexing_maps = [#map2, #map2], iterator_types = ["parallel"]} ins(%3 : tensor<?xi64>) outs(%4 : tensor<?xi64>) {
        ^bb0(%in: i64, %out: i64):
          %6 = arith.addi %in, %c16_i64 : i64
          %7 = arith.muli %6, %c2_i64 : i64
          linalg.yield %7 : i64
        } -> tensor<?xi64>
        iree_tensor_ext.dispatch.tensor.store %5, %2, offsets = [0], sizes = [%0], strides = [1] : tensor<?xi64> -> !iree_tensor_ext.dispatch.tensor<writeonly:tensor<?xi64>>{%0}
        return
      }
    }
  }
  flow.executable private @prefill_bs4$async_dispatch_742 {
    flow.executable.export public @prefill_bs4$async_dispatch_742_elementwise_D_i64 workgroups(%arg0: index) -> (index, index, index) {
      %x, %y, %z = iree_tensor_ext.dispatch.workgroup_count_from_slice(%arg0)
      flow.return %x, %y, %z : index, index, index
    }
    builtin.module {
      func.func @prefill_bs4$async_dispatch_742_elementwise_D_i64(%arg0: index, %arg1: !iree_tensor_ext.dispatch.tensor<readonly:tensor<?xi64>>, %arg2: !iree_tensor_ext.dispatch.tensor<writeonly:tensor<?xi64>>) {
        %c2_i64 = arith.constant 2 : i64
        %c17_i64 = arith.constant 17 : i64
        %0 = iree_tensor_ext.dispatch.workload.ordinal %arg0, 0 : index
        %1 = flow.dispatch.tie_shape %arg1 : !iree_tensor_ext.dispatch.tensor<readonly:tensor<?xi64>>{%0}
        %2 = flow.dispatch.tie_shape %arg2 : !iree_tensor_ext.dispatch.tensor<writeonly:tensor<?xi64>>{%0}
        %3 = iree_tensor_ext.dispatch.tensor.load %1, offsets = [0], sizes = [%0], strides = [1] : !iree_tensor_ext.dispatch.tensor<readonly:tensor<?xi64>>{%0} -> tensor<?xi64>
        %4 = tensor.empty(%0) : tensor<?xi64>
        %5 = linalg.generic {indexing_maps = [#map2, #map2], iterator_types = ["parallel"]} ins(%3 : tensor<?xi64>) outs(%4 : tensor<?xi64>) {
        ^bb0(%in: i64, %out: i64):
          %6 = arith.addi %in, %c17_i64 : i64
          %7 = arith.muli %6, %c2_i64 : i64
          linalg.yield %7 : i64
        } -> tensor<?xi64>
        iree_tensor_ext.dispatch.tensor.store %5, %2, offsets = [0], sizes = [%0], strides = [1] : tensor<?xi64> -> !iree_tensor_ext.dispatch.tensor<writeonly:tensor<?xi64>>{%0}
        return
      }
    }
  }
  flow.executable private @prefill_bs4$async_dispatch_784 {
    flow.executable.export public @prefill_bs4$async_dispatch_784_elementwise_D_i64 workgroups(%arg0: index) -> (index, index, index) {
      %x, %y, %z = iree_tensor_ext.dispatch.workgroup_count_from_slice(%arg0)
      flow.return %x, %y, %z : index, index, index
    }
    builtin.module {
      func.func @prefill_bs4$async_dispatch_784_elementwise_D_i64(%arg0: index, %arg1: !iree_tensor_ext.dispatch.tensor<readonly:tensor<?xi64>>, %arg2: !iree_tensor_ext.dispatch.tensor<writeonly:tensor<?xi64>>) {
        %c2_i64 = arith.constant 2 : i64
        %c18_i64 = arith.constant 18 : i64
        %0 = iree_tensor_ext.dispatch.workload.ordinal %arg0, 0 : index
        %1 = flow.dispatch.tie_shape %arg1 : !iree_tensor_ext.dispatch.tensor<readonly:tensor<?xi64>>{%0}
        %2 = flow.dispatch.tie_shape %arg2 : !iree_tensor_ext.dispatch.tensor<writeonly:tensor<?xi64>>{%0}
        %3 = iree_tensor_ext.dispatch.tensor.load %1, offsets = [0], sizes = [%0], strides = [1] : !iree_tensor_ext.dispatch.tensor<readonly:tensor<?xi64>>{%0} -> tensor<?xi64>
        %4 = tensor.empty(%0) : tensor<?xi64>
        %5 = linalg.generic {indexing_maps = [#map2, #map2], iterator_types = ["parallel"]} ins(%3 : tensor<?xi64>) outs(%4 : tensor<?xi64>) {
        ^bb0(%in: i64, %out: i64):
          %6 = arith.addi %in, %c18_i64 : i64
          %7 = arith.muli %6, %c2_i64 : i64
          linalg.yield %7 : i64
        } -> tensor<?xi64>
        iree_tensor_ext.dispatch.tensor.store %5, %2, offsets = [0], sizes = [%0], strides = [1] : tensor<?xi64> -> !iree_tensor_ext.dispatch.tensor<writeonly:tensor<?xi64>>{%0}
        return
      }
    }
  }
  flow.executable private @prefill_bs4$async_dispatch_826 {
    flow.executable.export public @prefill_bs4$async_dispatch_826_elementwise_D_i64 workgroups(%arg0: index) -> (index, index, index) {
      %x, %y, %z = iree_tensor_ext.dispatch.workgroup_count_from_slice(%arg0)
      flow.return %x, %y, %z : index, index, index
    }
    builtin.module {
      func.func @prefill_bs4$async_dispatch_826_elementwise_D_i64(%arg0: index, %arg1: !iree_tensor_ext.dispatch.tensor<readonly:tensor<?xi64>>, %arg2: !iree_tensor_ext.dispatch.tensor<writeonly:tensor<?xi64>>) {
        %c2_i64 = arith.constant 2 : i64
        %c19_i64 = arith.constant 19 : i64
        %0 = iree_tensor_ext.dispatch.workload.ordinal %arg0, 0 : index
        %1 = flow.dispatch.tie_shape %arg1 : !iree_tensor_ext.dispatch.tensor<readonly:tensor<?xi64>>{%0}
        %2 = flow.dispatch.tie_shape %arg2 : !iree_tensor_ext.dispatch.tensor<writeonly:tensor<?xi64>>{%0}
        %3 = iree_tensor_ext.dispatch.tensor.load %1, offsets = [0], sizes = [%0], strides = [1] : !iree_tensor_ext.dispatch.tensor<readonly:tensor<?xi64>>{%0} -> tensor<?xi64>
        %4 = tensor.empty(%0) : tensor<?xi64>
        %5 = linalg.generic {indexing_maps = [#map2, #map2], iterator_types = ["parallel"]} ins(%3 : tensor<?xi64>) outs(%4 : tensor<?xi64>) {
        ^bb0(%in: i64, %out: i64):
          %6 = arith.addi %in, %c19_i64 : i64
          %7 = arith.muli %6, %c2_i64 : i64
          linalg.yield %7 : i64
        } -> tensor<?xi64>
        iree_tensor_ext.dispatch.tensor.store %5, %2, offsets = [0], sizes = [%0], strides = [1] : tensor<?xi64> -> !iree_tensor_ext.dispatch.tensor<writeonly:tensor<?xi64>>{%0}
        return
      }
    }
  }
  flow.executable private @prefill_bs4$async_dispatch_868 {
    flow.executable.export public @prefill_bs4$async_dispatch_868_elementwise_D_i64 workgroups(%arg0: index) -> (index, index, index) {
      %x, %y, %z = iree_tensor_ext.dispatch.workgroup_count_from_slice(%arg0)
      flow.return %x, %y, %z : index, index, index
    }
    builtin.module {
      func.func @prefill_bs4$async_dispatch_868_elementwise_D_i64(%arg0: index, %arg1: !iree_tensor_ext.dispatch.tensor<readonly:tensor<?xi64>>, %arg2: !iree_tensor_ext.dispatch.tensor<writeonly:tensor<?xi64>>) {
        %c2_i64 = arith.constant 2 : i64
        %c20_i64 = arith.constant 20 : i64
        %0 = iree_tensor_ext.dispatch.workload.ordinal %arg0, 0 : index
        %1 = flow.dispatch.tie_shape %arg1 : !iree_tensor_ext.dispatch.tensor<readonly:tensor<?xi64>>{%0}
        %2 = flow.dispatch.tie_shape %arg2 : !iree_tensor_ext.dispatch.tensor<writeonly:tensor<?xi64>>{%0}
        %3 = iree_tensor_ext.dispatch.tensor.load %1, offsets = [0], sizes = [%0], strides = [1] : !iree_tensor_ext.dispatch.tensor<readonly:tensor<?xi64>>{%0} -> tensor<?xi64>
        %4 = tensor.empty(%0) : tensor<?xi64>
        %5 = linalg.generic {indexing_maps = [#map2, #map2], iterator_types = ["parallel"]} ins(%3 : tensor<?xi64>) outs(%4 : tensor<?xi64>) {
        ^bb0(%in: i64, %out: i64):
          %6 = arith.addi %in, %c20_i64 : i64
          %7 = arith.muli %6, %c2_i64 : i64
          linalg.yield %7 : i64
        } -> tensor<?xi64>
        iree_tensor_ext.dispatch.tensor.store %5, %2, offsets = [0], sizes = [%0], strides = [1] : tensor<?xi64> -> !iree_tensor_ext.dispatch.tensor<writeonly:tensor<?xi64>>{%0}
        return
      }
    }
  }
  flow.executable private @prefill_bs4$async_dispatch_908 {
    flow.executable.export public @prefill_bs4$async_dispatch_908_elementwise_D_i64 workgroups(%arg0: index) -> (index, index, index) {
      %x, %y, %z = iree_tensor_ext.dispatch.workgroup_count_from_slice(%arg0)
      flow.return %x, %y, %z : index, index, index
    }
    builtin.module {
      func.func @prefill_bs4$async_dispatch_908_elementwise_D_i64(%arg0: index, %arg1: !iree_tensor_ext.dispatch.tensor<readonly:tensor<?xi64>>, %arg2: !iree_tensor_ext.dispatch.tensor<writeonly:tensor<?xi64>>) {
        %c2_i64 = arith.constant 2 : i64
        %c21_i64 = arith.constant 21 : i64
        %0 = iree_tensor_ext.dispatch.workload.ordinal %arg0, 0 : index
        %1 = flow.dispatch.tie_shape %arg1 : !iree_tensor_ext.dispatch.tensor<readonly:tensor<?xi64>>{%0}
        %2 = flow.dispatch.tie_shape %arg2 : !iree_tensor_ext.dispatch.tensor<writeonly:tensor<?xi64>>{%0}
        %3 = iree_tensor_ext.dispatch.tensor.load %1, offsets = [0], sizes = [%0], strides = [1] : !iree_tensor_ext.dispatch.tensor<readonly:tensor<?xi64>>{%0} -> tensor<?xi64>
        %4 = tensor.empty(%0) : tensor<?xi64>
        %5 = linalg.generic {indexing_maps = [#map2, #map2], iterator_types = ["parallel"]} ins(%3 : tensor<?xi64>) outs(%4 : tensor<?xi64>) {
        ^bb0(%in: i64, %out: i64):
          %6 = arith.addi %in, %c21_i64 : i64
          %7 = arith.muli %6, %c2_i64 : i64
          linalg.yield %7 : i64
        } -> tensor<?xi64>
        iree_tensor_ext.dispatch.tensor.store %5, %2, offsets = [0], sizes = [%0], strides = [1] : tensor<?xi64> -> !iree_tensor_ext.dispatch.tensor<writeonly:tensor<?xi64>>{%0}
        return
      }
    }
  }
  flow.executable private @prefill_bs4$async_dispatch_914 {
    flow.executable.export public @prefill_bs4$async_dispatch_914_slow_memcpy workgroups(%arg0: index) -> (index, index, index) {
      %x, %y, %z = iree_tensor_ext.dispatch.workgroup_count_from_slice(%arg0)
      flow.return %x, %y, %z : index, index, index
    }
    builtin.module {
      func.func @prefill_bs4$async_dispatch_914_slow_memcpy(%arg0: !iree_tensor_ext.dispatch.tensor<readonly:tensor<4x?x4x8x64xf16>>, %arg1: index, %arg2: !iree_tensor_ext.dispatch.tensor<writeonly:tensor<4x?x4x8x32xf16>>) {
        %0 = iree_tensor_ext.dispatch.workload.ordinal %arg1, 0 : index
        %1 = flow.dispatch.tie_shape %arg0 : !iree_tensor_ext.dispatch.tensor<readonly:tensor<4x?x4x8x64xf16>>{%0}
        %2 = flow.dispatch.tie_shape %arg2 : !iree_tensor_ext.dispatch.tensor<writeonly:tensor<4x?x4x8x32xf16>>{%0}
        %3 = iree_tensor_ext.dispatch.tensor.load %1, offsets = [0, 0, 0, 0, 0], sizes = [4, %0, 4, 8, 32], strides = [1, 1, 1, 1, 2] : !iree_tensor_ext.dispatch.tensor<readonly:tensor<4x?x4x8x64xf16>>{%0} -> tensor<4x?x4x8x32xf16>
        iree_tensor_ext.dispatch.tensor.store %3, %2, offsets = [0, 0, 0, 0, 0], sizes = [4, %0, 4, 8, 32], strides = [1, 1, 1, 1, 1] : tensor<4x?x4x8x32xf16> -> !iree_tensor_ext.dispatch.tensor<writeonly:tensor<4x?x4x8x32xf16>>{%0}
        return
      }
    }
  }
  flow.executable private @prefill_bs4$async_dispatch_915 {
    flow.executable.export public @prefill_bs4$async_dispatch_915_slow_memcpy workgroups(%arg0: index) -> (index, index, index) {
      %x, %y, %z = iree_tensor_ext.dispatch.workgroup_count_from_slice(%arg0)
      flow.return %x, %y, %z : index, index, index
    }
    builtin.module {
      func.func @prefill_bs4$async_dispatch_915_slow_memcpy(%arg0: !iree_tensor_ext.dispatch.tensor<readonly:tensor<4x?x4x8x64xf16>>, %arg1: index, %arg2: !iree_tensor_ext.dispatch.tensor<writeonly:tensor<4x?x4x8x32xf16>>) {
        %0 = iree_tensor_ext.dispatch.workload.ordinal %arg1, 0 : index
        %1 = flow.dispatch.tie_shape %arg0 : !iree_tensor_ext.dispatch.tensor<readonly:tensor<4x?x4x8x64xf16>>{%0}
        %2 = flow.dispatch.tie_shape %arg2 : !iree_tensor_ext.dispatch.tensor<writeonly:tensor<4x?x4x8x32xf16>>{%0}
        %3 = iree_tensor_ext.dispatch.tensor.load %1, offsets = [0, 0, 0, 0, 1], sizes = [4, %0, 4, 8, 32], strides = [1, 1, 1, 1, 2] : !iree_tensor_ext.dispatch.tensor<readonly:tensor<4x?x4x8x64xf16>>{%0} -> tensor<4x?x4x8x32xf16>
        iree_tensor_ext.dispatch.tensor.store %3, %2, offsets = [0, 0, 0, 0, 0], sizes = [4, %0, 4, 8, 32], strides = [1, 1, 1, 1, 1] : tensor<4x?x4x8x32xf16> -> !iree_tensor_ext.dispatch.tensor<writeonly:tensor<4x?x4x8x32xf16>>{%0}
        return
      }
    }
  }
  flow.executable private @prefill_bs4$async_dispatch_916 {
    flow.executable.export public @prefill_bs4$async_dispatch_916_elementwise_broadcast_4x32xDx2x32_f16 workgroups(%arg0: index, %arg1: index) -> (index, index, index) {
      %x, %y, %z = iree_tensor_ext.dispatch.workgroup_count_from_slice(%arg0, %arg1)
      flow.return %x, %y, %z : index, index, index
    }
    builtin.module {
      func.func @prefill_bs4$async_dispatch_916_elementwise_broadcast_4x32xDx2x32_f16(%arg0: !iree_tensor_ext.dispatch.tensor<readonly:tensor<4x?x32x32xf16>>, %arg1: !iree_tensor_ext.dispatch.tensor<readonly:tensor<?x32xf16>>, %arg2: !iree_tensor_ext.dispatch.tensor<readonly:tensor<4x?x32x32xf16>>, %arg3: !iree_tensor_ext.dispatch.tensor<readonly:tensor<?x32xf16>>, %arg4: index, %arg5: index, %arg6: !iree_tensor_ext.dispatch.tensor<writeonly:tensor<4x32x?x2x32xf16>>) {
        %c0 = arith.constant 0 : index
        %0 = iree_tensor_ext.dispatch.workload.ordinal %arg4, 0 : index
        %1 = iree_tensor_ext.dispatch.workload.ordinal %arg5, 1 : index
        %2 = flow.dispatch.tie_shape %arg0 : !iree_tensor_ext.dispatch.tensor<readonly:tensor<4x?x32x32xf16>>{%0}
        %3 = flow.dispatch.tie_shape %arg1 : !iree_tensor_ext.dispatch.tensor<readonly:tensor<?x32xf16>>{%1}
        %4 = flow.dispatch.tie_shape %arg2 : !iree_tensor_ext.dispatch.tensor<readonly:tensor<4x?x32x32xf16>>{%0}
        %5 = flow.dispatch.tie_shape %arg3 : !iree_tensor_ext.dispatch.tensor<readonly:tensor<?x32xf16>>{%1}
        %6 = flow.dispatch.tie_shape %arg6 : !iree_tensor_ext.dispatch.tensor<writeonly:tensor<4x32x?x2x32xf16>>{%1}
        %7 = iree_tensor_ext.dispatch.tensor.load %2, offsets = [0, 0, 0, 0], sizes = [4, %0, 32, 32], strides = [1, 1, 1, 1] : !iree_tensor_ext.dispatch.tensor<readonly:tensor<4x?x32x32xf16>>{%0} -> tensor<4x?x32x32xf16>
        %8 = iree_tensor_ext.dispatch.tensor.load %3, offsets = [0, 0], sizes = [%1, 32], strides = [1, 1] : !iree_tensor_ext.dispatch.tensor<readonly:tensor<?x32xf16>>{%1} -> tensor<?x32xf16>
        %9 = iree_tensor_ext.dispatch.tensor.load %4, offsets = [0, 0, 0, 0], sizes = [4, %0, 32, 32], strides = [1, 1, 1, 1] : !iree_tensor_ext.dispatch.tensor<readonly:tensor<4x?x32x32xf16>>{%0} -> tensor<4x?x32x32xf16>
        %10 = iree_tensor_ext.dispatch.tensor.load %5, offsets = [0, 0], sizes = [%1, 32], strides = [1, 1] : !iree_tensor_ext.dispatch.tensor<readonly:tensor<?x32xf16>>{%1} -> tensor<?x32xf16>
        %11 = tensor.empty(%1) : tensor<4x32x?x2x32xf16>
        %12 = linalg.generic {indexing_maps = [#map14, #map15, #map14, #map15, #map11], iterator_types = ["parallel", "parallel", "parallel", "parallel", "parallel"]} ins(%7, %8, %9, %10 : tensor<4x?x32x32xf16>, tensor<?x32xf16>, tensor<4x?x32x32xf16>, tensor<?x32xf16>) outs(%11 : tensor<4x32x?x2x32xf16>) {
        ^bb0(%in: f16, %in_0: f16, %in_1: f16, %in_2: f16, %out: f16):
          %13 = linalg.index 3 : index
          %14 = arith.mulf %in, %in_2 : f16
          %15 = arith.mulf %in_1, %in_0 : f16
          %16 = arith.mulf %in_1, %in_2 : f16
          %17 = arith.mulf %in, %in_0 : f16
          %18 = arith.addf %15, %14 : f16
          %19 = arith.subf %17, %16 : f16
          %20 = arith.cmpi eq, %13, %c0 : index
          %21 = arith.select %20, %19, %18 : f16
          linalg.yield %21 : f16
        } -> tensor<4x32x?x2x32xf16>
        iree_tensor_ext.dispatch.tensor.store %12, %6, offsets = [0, 0, 0, 0, 0], sizes = [4, 32, %1, 2, 32], strides = [1, 1, 1, 1, 1] : tensor<4x32x?x2x32xf16> -> !iree_tensor_ext.dispatch.tensor<writeonly:tensor<4x32x?x2x32xf16>>{%1}
        return
      }
    }
  }
  flow.executable private @prefill_bs4$async_dispatch_940 {
    flow.executable.export public @prefill_bs4$async_dispatch_940_matmul_like_Dx32000x64x32_f16xf16xf32 workgroups(%arg0: index) -> (index, index, index) {
      %x, %y, %z = iree_tensor_ext.dispatch.workgroup_count_from_slice(%arg0)
      flow.return %x, %y, %z : index, index, index
    }
    builtin.module {
      func.func @prefill_bs4$async_dispatch_940_matmul_like_Dx32000x64x32_f16xf16xf32(%arg0: !iree_tensor_ext.dispatch.tensor<readonly:tensor<32000x64xf16>>, %arg1: !iree_tensor_ext.dispatch.tensor<readonly:tensor<32000x64x32xi8>>, %arg2: index, %arg3: !iree_tensor_ext.dispatch.tensor<readonly:tensor<?x64x32xf16>>, %arg4: !iree_tensor_ext.dispatch.tensor<writeonly:tensor<?x32000xf16>>) {
        %cst = arith.constant 0.000000e+00 : f32
        %0 = iree_tensor_ext.dispatch.workload.ordinal %arg2, 0 : index
        %1 = flow.dispatch.tie_shape %arg3 : !iree_tensor_ext.dispatch.tensor<readonly:tensor<?x64x32xf16>>{%0}
        %2 = flow.dispatch.tie_shape %arg4 : !iree_tensor_ext.dispatch.tensor<writeonly:tensor<?x32000xf16>>{%0}
        %3 = iree_tensor_ext.dispatch.tensor.load %arg0, offsets = [0, 0], sizes = [32000, 64], strides = [1, 1] : !iree_tensor_ext.dispatch.tensor<readonly:tensor<32000x64xf16>> -> tensor<32000x64xf16>
        %4 = iree_tensor_ext.dispatch.tensor.load %arg1, offsets = [0, 0, 0], sizes = [32000, 64, 32], strides = [1, 1, 1] : !iree_tensor_ext.dispatch.tensor<readonly:tensor<32000x64x32xi8>> -> tensor<32000x64x32xi8>
        %5 = iree_tensor_ext.dispatch.tensor.load %1, offsets = [0, 0, 0], sizes = [%0, 64, 32], strides = [1, 1, 1] : !iree_tensor_ext.dispatch.tensor<readonly:tensor<?x64x32xf16>>{%0} -> tensor<?x64x32xf16>
        %6 = tensor.empty() : tensor<32000x64x32xf16>
        %7 = linalg.generic {indexing_maps = [#map4, #map5, #map5], iterator_types = ["parallel", "parallel", "parallel"]} ins(%3, %4 : tensor<32000x64xf16>, tensor<32000x64x32xi8>) outs(%6 : tensor<32000x64x32xf16>) {
        ^bb0(%in: f16, %in_0: i8, %out: f16):
          %13 = arith.extsi %in_0 : i8 to i32
          %14 = arith.sitofp %13 : i32 to f16
          %15 = arith.mulf %14, %in : f16
          linalg.yield %15 : f16
        } -> tensor<32000x64x32xf16>
        %8 = tensor.empty(%0) : tensor<?x32000xf32>
        %9 = linalg.fill ins(%cst : f32) outs(%8 : tensor<?x32000xf32>) -> tensor<?x32000xf32>
        %10 = linalg.generic {indexing_maps = [#map6, #map7, #map8], iterator_types = ["parallel", "parallel", "reduction", "reduction"]} ins(%5, %7 : tensor<?x64x32xf16>, tensor<32000x64x32xf16>) outs(%9 : tensor<?x32000xf32>) {
        ^bb0(%in: f16, %in_0: f16, %out: f32):
          %13 = arith.mulf %in, %in_0 : f16
          %14 = arith.extf %13 : f16 to f32
          %15 = arith.addf %14, %out : f32
          linalg.yield %15 : f32
        } -> tensor<?x32000xf32>
        %11 = tensor.empty(%0) : tensor<?x32000xf16>
        %12 = linalg.generic {indexing_maps = [#map1, #map1], iterator_types = ["parallel", "parallel"]} ins(%10 : tensor<?x32000xf32>) outs(%11 : tensor<?x32000xf16>) {
        ^bb0(%in: f32, %out: f16):
          %13 = arith.truncf %in : f32 to f16
          linalg.yield %13 : f16
        } -> tensor<?x32000xf16>
        iree_tensor_ext.dispatch.tensor.store %12, %2, offsets = [0, 0], sizes = [%0, 32000], strides = [1, 1] : tensor<?x32000xf16> -> !iree_tensor_ext.dispatch.tensor<writeonly:tensor<?x32000xf16>>{%0}
        return
      }
    }
  }
  util.global private @__parameter_model_output_weight_tensor_32000x2176xi8 {inlining_policy = #util.inline.never, stream.affinity.default = #hal.device.affinity<@__device_0>} = #flow.parameter.named<"model"::"output.weight"> : tensor<32000x2176xi8>
  util.global private @__parameter_model_output_norm_weight_tensor_2048xf32 {inlining_policy = #util.inline.never, stream.affinity.default = #hal.device.affinity<@__device_0>} = #flow.parameter.named<"model"::"output_norm.weight"> : tensor<2048xf32>
  util.global private @__parameter_model_blk_21_ffn_down_weight_tensor_2048x5984xi8 {inlining_policy = #util.inline.never, stream.affinity.default = #hal.device.affinity<@__device_0>} = #flow.parameter.named<"model"::"blk.21.ffn_down.weight"> : tensor<2048x5984xi8>
  util.global private @__parameter_model_blk_21_ffn_up_weight_tensor_5632x2176xi8 {inlining_policy = #util.inline.never, stream.affinity.default = #hal.device.affinity<@__device_0>} = #flow.parameter.named<"model"::"blk.21.ffn_up.weight"> : tensor<5632x2176xi8>
  util.global private @__parameter_model_blk_21_ffn_gate_weight_tensor_5632x2176xi8 {inlining_policy = #util.inline.never, stream.affinity.default = #hal.device.affinity<@__device_0>} = #flow.parameter.named<"model"::"blk.21.ffn_gate.weight"> : tensor<5632x2176xi8>
  util.global private @__parameter_model_blk_21_ffn_norm_weight_tensor_2048xf32 {inlining_policy = #util.inline.never, stream.affinity.default = #hal.device.affinity<@__device_0>} = #flow.parameter.named<"model"::"blk.21.ffn_norm.weight"> : tensor<2048xf32>
  util.global private @__parameter_model_blk_21_attn_output_weight_tensor_2048x2176xi8 {inlining_policy = #util.inline.never, stream.affinity.default = #hal.device.affinity<@__device_0>} = #flow.parameter.named<"model"::"blk.21.attn_output.weight"> : tensor<2048x2176xi8>
  util.global private @__parameter_model_blk_21_attn_v_weight_tensor_256x2176xi8 {inlining_policy = #util.inline.never, stream.affinity.default = #hal.device.affinity<@__device_0>} = #flow.parameter.named<"model"::"blk.21.attn_v.weight"> : tensor<256x2176xi8>
  util.global private @__parameter_model_blk_21_attn_k_weight_tensor_256x2176xi8 {inlining_policy = #util.inline.never, stream.affinity.default = #hal.device.affinity<@__device_0>} = #flow.parameter.named<"model"::"blk.21.attn_k.weight"> : tensor<256x2176xi8>
  util.global private @__parameter_model_blk_21_attn_q_weight_tensor_2048x2176xi8 {inlining_policy = #util.inline.never, stream.affinity.default = #hal.device.affinity<@__device_0>} = #flow.parameter.named<"model"::"blk.21.attn_q.weight"> : tensor<2048x2176xi8>
  util.global private @__parameter_model_blk_21_attn_norm_weight_tensor_2048xf32 {inlining_policy = #util.inline.never, stream.affinity.default = #hal.device.affinity<@__device_0>} = #flow.parameter.named<"model"::"blk.21.attn_norm.weight"> : tensor<2048xf32>
  util.global private @__parameter_model_blk_20_ffn_down_weight_tensor_2048x5984xi8 {inlining_policy = #util.inline.never, stream.affinity.default = #hal.device.affinity<@__device_0>} = #flow.parameter.named<"model"::"blk.20.ffn_down.weight"> : tensor<2048x5984xi8>
  util.global private @__parameter_model_blk_20_ffn_up_weight_tensor_5632x2176xi8 {inlining_policy = #util.inline.never, stream.affinity.default = #hal.device.affinity<@__device_0>} = #flow.parameter.named<"model"::"blk.20.ffn_up.weight"> : tensor<5632x2176xi8>
  util.global private @__parameter_model_blk_20_ffn_gate_weight_tensor_5632x2176xi8 {inlining_policy = #util.inline.never, stream.affinity.default = #hal.device.affinity<@__device_0>} = #flow.parameter.named<"model"::"blk.20.ffn_gate.weight"> : tensor<5632x2176xi8>
  util.global private @__parameter_model_blk_20_ffn_norm_weight_tensor_2048xf32 {inlining_policy = #util.inline.never, stream.affinity.default = #hal.device.affinity<@__device_0>} = #flow.parameter.named<"model"::"blk.20.ffn_norm.weight"> : tensor<2048xf32>
  util.global private @__parameter_model_blk_20_attn_output_weight_tensor_2048x2176xi8 {inlining_policy = #util.inline.never, stream.affinity.default = #hal.device.affinity<@__device_0>} = #flow.parameter.named<"model"::"blk.20.attn_output.weight"> : tensor<2048x2176xi8>
  util.global private @__parameter_model_blk_20_attn_v_weight_tensor_256x2176xi8 {inlining_policy = #util.inline.never, stream.affinity.default = #hal.device.affinity<@__device_0>} = #flow.parameter.named<"model"::"blk.20.attn_v.weight"> : tensor<256x2176xi8>
  util.global private @__parameter_model_blk_20_attn_k_weight_tensor_256x2176xi8 {inlining_policy = #util.inline.never, stream.affinity.default = #hal.device.affinity<@__device_0>} = #flow.parameter.named<"model"::"blk.20.attn_k.weight"> : tensor<256x2176xi8>
  util.global private @__parameter_model_blk_20_attn_q_weight_tensor_2048x2176xi8 {inlining_policy = #util.inline.never, stream.affinity.default = #hal.device.affinity<@__device_0>} = #flow.parameter.named<"model"::"blk.20.attn_q.weight"> : tensor<2048x2176xi8>
  util.global private @__parameter_model_blk_20_attn_norm_weight_tensor_2048xf32 {inlining_policy = #util.inline.never, stream.affinity.default = #hal.device.affinity<@__device_0>} = #flow.parameter.named<"model"::"blk.20.attn_norm.weight"> : tensor<2048xf32>
  util.global private @__parameter_model_blk_19_ffn_down_weight_tensor_2048x5984xi8 {inlining_policy = #util.inline.never, stream.affinity.default = #hal.device.affinity<@__device_0>} = #flow.parameter.named<"model"::"blk.19.ffn_down.weight"> : tensor<2048x5984xi8>
  util.global private @__parameter_model_blk_19_ffn_up_weight_tensor_5632x2176xi8 {inlining_policy = #util.inline.never, stream.affinity.default = #hal.device.affinity<@__device_0>} = #flow.parameter.named<"model"::"blk.19.ffn_up.weight"> : tensor<5632x2176xi8>
  util.global private @__parameter_model_blk_19_ffn_gate_weight_tensor_5632x2176xi8 {inlining_policy = #util.inline.never, stream.affinity.default = #hal.device.affinity<@__device_0>} = #flow.parameter.named<"model"::"blk.19.ffn_gate.weight"> : tensor<5632x2176xi8>
  util.global private @__parameter_model_blk_19_ffn_norm_weight_tensor_2048xf32 {inlining_policy = #util.inline.never, stream.affinity.default = #hal.device.affinity<@__device_0>} = #flow.parameter.named<"model"::"blk.19.ffn_norm.weight"> : tensor<2048xf32>
  util.global private @__parameter_model_blk_19_attn_output_weight_tensor_2048x2176xi8 {inlining_policy = #util.inline.never, stream.affinity.default = #hal.device.affinity<@__device_0>} = #flow.parameter.named<"model"::"blk.19.attn_output.weight"> : tensor<2048x2176xi8>
  util.global private @__parameter_model_blk_19_attn_v_weight_tensor_256x2176xi8 {inlining_policy = #util.inline.never, stream.affinity.default = #hal.device.affinity<@__device_0>} = #flow.parameter.named<"model"::"blk.19.attn_v.weight"> : tensor<256x2176xi8>
  util.global private @__parameter_model_blk_19_attn_k_weight_tensor_256x2176xi8 {inlining_policy = #util.inline.never, stream.affinity.default = #hal.device.affinity<@__device_0>} = #flow.parameter.named<"model"::"blk.19.attn_k.weight"> : tensor<256x2176xi8>
  util.global private @__parameter_model_blk_19_attn_q_weight_tensor_2048x2176xi8 {inlining_policy = #util.inline.never, stream.affinity.default = #hal.device.affinity<@__device_0>} = #flow.parameter.named<"model"::"blk.19.attn_q.weight"> : tensor<2048x2176xi8>
  util.global private @__parameter_model_blk_19_attn_norm_weight_tensor_2048xf32 {inlining_policy = #util.inline.never, stream.affinity.default = #hal.device.affinity<@__device_0>} = #flow.parameter.named<"model"::"blk.19.attn_norm.weight"> : tensor<2048xf32>
  util.global private @__parameter_model_blk_18_ffn_down_weight_tensor_2048x5984xi8 {inlining_policy = #util.inline.never, stream.affinity.default = #hal.device.affinity<@__device_0>} = #flow.parameter.named<"model"::"blk.18.ffn_down.weight"> : tensor<2048x5984xi8>
  util.global private @__parameter_model_blk_18_ffn_up_weight_tensor_5632x2176xi8 {inlining_policy = #util.inline.never, stream.affinity.default = #hal.device.affinity<@__device_0>} = #flow.parameter.named<"model"::"blk.18.ffn_up.weight"> : tensor<5632x2176xi8>
  util.global private @__parameter_model_blk_18_ffn_gate_weight_tensor_5632x2176xi8 {inlining_policy = #util.inline.never, stream.affinity.default = #hal.device.affinity<@__device_0>} = #flow.parameter.named<"model"::"blk.18.ffn_gate.weight"> : tensor<5632x2176xi8>
  util.global private @__parameter_model_blk_18_ffn_norm_weight_tensor_2048xf32 {inlining_policy = #util.inline.never, stream.affinity.default = #hal.device.affinity<@__device_0>} = #flow.parameter.named<"model"::"blk.18.ffn_norm.weight"> : tensor<2048xf32>
  util.global private @__parameter_model_blk_18_attn_output_weight_tensor_2048x2176xi8 {inlining_policy = #util.inline.never, stream.affinity.default = #hal.device.affinity<@__device_0>} = #flow.parameter.named<"model"::"blk.18.attn_output.weight"> : tensor<2048x2176xi8>
  util.global private @__parameter_model_blk_18_attn_v_weight_tensor_256x2176xi8 {inlining_policy = #util.inline.never, stream.affinity.default = #hal.device.affinity<@__device_0>} = #flow.parameter.named<"model"::"blk.18.attn_v.weight"> : tensor<256x2176xi8>
  util.global private @__parameter_model_blk_18_attn_k_weight_tensor_256x2176xi8 {inlining_policy = #util.inline.never, stream.affinity.default = #hal.device.affinity<@__device_0>} = #flow.parameter.named<"model"::"blk.18.attn_k.weight"> : tensor<256x2176xi8>
  util.global private @__parameter_model_blk_18_attn_q_weight_tensor_2048x2176xi8 {inlining_policy = #util.inline.never, stream.affinity.default = #hal.device.affinity<@__device_0>} = #flow.parameter.named<"model"::"blk.18.attn_q.weight"> : tensor<2048x2176xi8>
  util.global private @__parameter_model_blk_18_attn_norm_weight_tensor_2048xf32 {inlining_policy = #util.inline.never, stream.affinity.default = #hal.device.affinity<@__device_0>} = #flow.parameter.named<"model"::"blk.18.attn_norm.weight"> : tensor<2048xf32>
  util.global private @__parameter_model_blk_17_ffn_down_weight_tensor_2048x5984xi8 {inlining_policy = #util.inline.never, stream.affinity.default = #hal.device.affinity<@__device_0>} = #flow.parameter.named<"model"::"blk.17.ffn_down.weight"> : tensor<2048x5984xi8>
  util.global private @__parameter_model_blk_17_ffn_up_weight_tensor_5632x2176xi8 {inlining_policy = #util.inline.never, stream.affinity.default = #hal.device.affinity<@__device_0>} = #flow.parameter.named<"model"::"blk.17.ffn_up.weight"> : tensor<5632x2176xi8>
  util.global private @__parameter_model_blk_17_ffn_gate_weight_tensor_5632x2176xi8 {inlining_policy = #util.inline.never, stream.affinity.default = #hal.device.affinity<@__device_0>} = #flow.parameter.named<"model"::"blk.17.ffn_gate.weight"> : tensor<5632x2176xi8>
  util.global private @__parameter_model_blk_17_ffn_norm_weight_tensor_2048xf32 {inlining_policy = #util.inline.never, stream.affinity.default = #hal.device.affinity<@__device_0>} = #flow.parameter.named<"model"::"blk.17.ffn_norm.weight"> : tensor<2048xf32>
  util.global private @__parameter_model_blk_17_attn_output_weight_tensor_2048x2176xi8 {inlining_policy = #util.inline.never, stream.affinity.default = #hal.device.affinity<@__device_0>} = #flow.parameter.named<"model"::"blk.17.attn_output.weight"> : tensor<2048x2176xi8>
  util.global private @__parameter_model_blk_17_attn_v_weight_tensor_256x2176xi8 {inlining_policy = #util.inline.never, stream.affinity.default = #hal.device.affinity<@__device_0>} = #flow.parameter.named<"model"::"blk.17.attn_v.weight"> : tensor<256x2176xi8>
  util.global private @__parameter_model_blk_17_attn_k_weight_tensor_256x2176xi8 {inlining_policy = #util.inline.never, stream.affinity.default = #hal.device.affinity<@__device_0>} = #flow.parameter.named<"model"::"blk.17.attn_k.weight"> : tensor<256x2176xi8>
  util.global private @__parameter_model_blk_17_attn_q_weight_tensor_2048x2176xi8 {inlining_policy = #util.inline.never, stream.affinity.default = #hal.device.affinity<@__device_0>} = #flow.parameter.named<"model"::"blk.17.attn_q.weight"> : tensor<2048x2176xi8>
  util.global private @__parameter_model_blk_17_attn_norm_weight_tensor_2048xf32 {inlining_policy = #util.inline.never, stream.affinity.default = #hal.device.affinity<@__device_0>} = #flow.parameter.named<"model"::"blk.17.attn_norm.weight"> : tensor<2048xf32>
  util.global private @__parameter_model_blk_16_ffn_down_weight_tensor_2048x5984xi8 {inlining_policy = #util.inline.never, stream.affinity.default = #hal.device.affinity<@__device_0>} = #flow.parameter.named<"model"::"blk.16.ffn_down.weight"> : tensor<2048x5984xi8>
  util.global private @__parameter_model_blk_16_ffn_up_weight_tensor_5632x2176xi8 {inlining_policy = #util.inline.never, stream.affinity.default = #hal.device.affinity<@__device_0>} = #flow.parameter.named<"model"::"blk.16.ffn_up.weight"> : tensor<5632x2176xi8>
  util.global private @__parameter_model_blk_16_ffn_gate_weight_tensor_5632x2176xi8 {inlining_policy = #util.inline.never, stream.affinity.default = #hal.device.affinity<@__device_0>} = #flow.parameter.named<"model"::"blk.16.ffn_gate.weight"> : tensor<5632x2176xi8>
  util.global private @__parameter_model_blk_16_ffn_norm_weight_tensor_2048xf32 {inlining_policy = #util.inline.never, stream.affinity.default = #hal.device.affinity<@__device_0>} = #flow.parameter.named<"model"::"blk.16.ffn_norm.weight"> : tensor<2048xf32>
  util.global private @__parameter_model_blk_16_attn_output_weight_tensor_2048x2176xi8 {inlining_policy = #util.inline.never, stream.affinity.default = #hal.device.affinity<@__device_0>} = #flow.parameter.named<"model"::"blk.16.attn_output.weight"> : tensor<2048x2176xi8>
  util.global private @__parameter_model_blk_16_attn_v_weight_tensor_256x2176xi8 {inlining_policy = #util.inline.never, stream.affinity.default = #hal.device.affinity<@__device_0>} = #flow.parameter.named<"model"::"blk.16.attn_v.weight"> : tensor<256x2176xi8>
  util.global private @__parameter_model_blk_16_attn_k_weight_tensor_256x2176xi8 {inlining_policy = #util.inline.never, stream.affinity.default = #hal.device.affinity<@__device_0>} = #flow.parameter.named<"model"::"blk.16.attn_k.weight"> : tensor<256x2176xi8>
  util.global private @__parameter_model_blk_16_attn_q_weight_tensor_2048x2176xi8 {inlining_policy = #util.inline.never, stream.affinity.default = #hal.device.affinity<@__device_0>} = #flow.parameter.named<"model"::"blk.16.attn_q.weight"> : tensor<2048x2176xi8>
  util.global private @__parameter_model_blk_16_attn_norm_weight_tensor_2048xf32 {inlining_policy = #util.inline.never, stream.affinity.default = #hal.device.affinity<@__device_0>} = #flow.parameter.named<"model"::"blk.16.attn_norm.weight"> : tensor<2048xf32>
  util.global private @__parameter_model_blk_15_ffn_down_weight_tensor_2048x5984xi8 {inlining_policy = #util.inline.never, stream.affinity.default = #hal.device.affinity<@__device_0>} = #flow.parameter.named<"model"::"blk.15.ffn_down.weight"> : tensor<2048x5984xi8>
  util.global private @__parameter_model_blk_15_ffn_up_weight_tensor_5632x2176xi8 {inlining_policy = #util.inline.never, stream.affinity.default = #hal.device.affinity<@__device_0>} = #flow.parameter.named<"model"::"blk.15.ffn_up.weight"> : tensor<5632x2176xi8>
  util.global private @__parameter_model_blk_15_ffn_gate_weight_tensor_5632x2176xi8 {inlining_policy = #util.inline.never, stream.affinity.default = #hal.device.affinity<@__device_0>} = #flow.parameter.named<"model"::"blk.15.ffn_gate.weight"> : tensor<5632x2176xi8>
  util.global private @__parameter_model_blk_15_ffn_norm_weight_tensor_2048xf32 {inlining_policy = #util.inline.never, stream.affinity.default = #hal.device.affinity<@__device_0>} = #flow.parameter.named<"model"::"blk.15.ffn_norm.weight"> : tensor<2048xf32>
  util.global private @__parameter_model_blk_15_attn_output_weight_tensor_2048x2176xi8 {inlining_policy = #util.inline.never, stream.affinity.default = #hal.device.affinity<@__device_0>} = #flow.parameter.named<"model"::"blk.15.attn_output.weight"> : tensor<2048x2176xi8>
  util.global private @__parameter_model_blk_15_attn_v_weight_tensor_256x2176xi8 {inlining_policy = #util.inline.never, stream.affinity.default = #hal.device.affinity<@__device_0>} = #flow.parameter.named<"model"::"blk.15.attn_v.weight"> : tensor<256x2176xi8>
  util.global private @__parameter_model_blk_15_attn_k_weight_tensor_256x2176xi8 {inlining_policy = #util.inline.never, stream.affinity.default = #hal.device.affinity<@__device_0>} = #flow.parameter.named<"model"::"blk.15.attn_k.weight"> : tensor<256x2176xi8>
  util.global private @__parameter_model_blk_15_attn_q_weight_tensor_2048x2176xi8 {inlining_policy = #util.inline.never, stream.affinity.default = #hal.device.affinity<@__device_0>} = #flow.parameter.named<"model"::"blk.15.attn_q.weight"> : tensor<2048x2176xi8>
  util.global private @__parameter_model_blk_15_attn_norm_weight_tensor_2048xf32 {inlining_policy = #util.inline.never, stream.affinity.default = #hal.device.affinity<@__device_0>} = #flow.parameter.named<"model"::"blk.15.attn_norm.weight"> : tensor<2048xf32>
  util.global private @__parameter_model_blk_14_ffn_down_weight_tensor_2048x5984xi8 {inlining_policy = #util.inline.never, stream.affinity.default = #hal.device.affinity<@__device_0>} = #flow.parameter.named<"model"::"blk.14.ffn_down.weight"> : tensor<2048x5984xi8>
  util.global private @__parameter_model_blk_14_ffn_up_weight_tensor_5632x2176xi8 {inlining_policy = #util.inline.never, stream.affinity.default = #hal.device.affinity<@__device_0>} = #flow.parameter.named<"model"::"blk.14.ffn_up.weight"> : tensor<5632x2176xi8>
  util.global private @__parameter_model_blk_14_ffn_gate_weight_tensor_5632x2176xi8 {inlining_policy = #util.inline.never, stream.affinity.default = #hal.device.affinity<@__device_0>} = #flow.parameter.named<"model"::"blk.14.ffn_gate.weight"> : tensor<5632x2176xi8>
  util.global private @__parameter_model_blk_14_ffn_norm_weight_tensor_2048xf32 {inlining_policy = #util.inline.never, stream.affinity.default = #hal.device.affinity<@__device_0>} = #flow.parameter.named<"model"::"blk.14.ffn_norm.weight"> : tensor<2048xf32>
  util.global private @__parameter_model_blk_14_attn_output_weight_tensor_2048x2176xi8 {inlining_policy = #util.inline.never, stream.affinity.default = #hal.device.affinity<@__device_0>} = #flow.parameter.named<"model"::"blk.14.attn_output.weight"> : tensor<2048x2176xi8>
  util.global private @__parameter_model_blk_14_attn_v_weight_tensor_256x2176xi8 {inlining_policy = #util.inline.never, stream.affinity.default = #hal.device.affinity<@__device_0>} = #flow.parameter.named<"model"::"blk.14.attn_v.weight"> : tensor<256x2176xi8>
  util.global private @__parameter_model_blk_14_attn_k_weight_tensor_256x2176xi8 {inlining_policy = #util.inline.never, stream.affinity.default = #hal.device.affinity<@__device_0>} = #flow.parameter.named<"model"::"blk.14.attn_k.weight"> : tensor<256x2176xi8>
  util.global private @__parameter_model_blk_14_attn_q_weight_tensor_2048x2176xi8 {inlining_policy = #util.inline.never, stream.affinity.default = #hal.device.affinity<@__device_0>} = #flow.parameter.named<"model"::"blk.14.attn_q.weight"> : tensor<2048x2176xi8>
  util.global private @__parameter_model_blk_14_attn_norm_weight_tensor_2048xf32 {inlining_policy = #util.inline.never, stream.affinity.default = #hal.device.affinity<@__device_0>} = #flow.parameter.named<"model"::"blk.14.attn_norm.weight"> : tensor<2048xf32>
  util.global private @__parameter_model_blk_13_ffn_down_weight_tensor_2048x5984xi8 {inlining_policy = #util.inline.never, stream.affinity.default = #hal.device.affinity<@__device_0>} = #flow.parameter.named<"model"::"blk.13.ffn_down.weight"> : tensor<2048x5984xi8>
  util.global private @__parameter_model_blk_13_ffn_up_weight_tensor_5632x2176xi8 {inlining_policy = #util.inline.never, stream.affinity.default = #hal.device.affinity<@__device_0>} = #flow.parameter.named<"model"::"blk.13.ffn_up.weight"> : tensor<5632x2176xi8>
  util.global private @__parameter_model_blk_13_ffn_gate_weight_tensor_5632x2176xi8 {inlining_policy = #util.inline.never, stream.affinity.default = #hal.device.affinity<@__device_0>} = #flow.parameter.named<"model"::"blk.13.ffn_gate.weight"> : tensor<5632x2176xi8>
  util.global private @__parameter_model_blk_13_ffn_norm_weight_tensor_2048xf32 {inlining_policy = #util.inline.never, stream.affinity.default = #hal.device.affinity<@__device_0>} = #flow.parameter.named<"model"::"blk.13.ffn_norm.weight"> : tensor<2048xf32>
  util.global private @__parameter_model_blk_13_attn_output_weight_tensor_2048x2176xi8 {inlining_policy = #util.inline.never, stream.affinity.default = #hal.device.affinity<@__device_0>} = #flow.parameter.named<"model"::"blk.13.attn_output.weight"> : tensor<2048x2176xi8>
…
    %1641 = flow.dispatch @decode_bs4$async_dispatch_805::@decode_bs4$async_dispatch_805_elementwise_4_i64[%7](%4, %66, %7) : (tensor<4x?xi64>{%7}, tensor<4xi64>, index) -> tensor<4xi64>
    %1642 = flow.dispatch @decode_bs4$async_dispatch_31::@decode_bs4$async_dispatch_31_elementwise_broadcast_4x4_i64(%1641, %67) : (tensor<4xi64>, tensor<4xi64>) -> tensor<4x4xi64>
    %1643 = flow.dispatch @decode_bs4$async_dispatch_32::@decode_bs4$async_dispatch_32_scatter_Dx2x32x1xf16_dispatch_tensor_store[%70](%1640, %1642, %1558, %70) : (tensor<4x4x2x32x1xf16>, tensor<4x4xi64>, tensor<?x2x32x1xf16>{%70}, index) -> %1558{%70}
    %1644 = flow.dispatch @decode_bs4$async_dispatch_33::@decode_bs4$async_dispatch_33_elementwise_broadcast_4x4_i64(%1641, %67) : (tensor<4xi64>, tensor<4xi64>) -> tensor<4x4xi64>
    %1645 = flow.dispatch @decode_bs4$async_dispatch_32::@decode_bs4$async_dispatch_32_scatter_Dx2x32x1xf16_dispatch_tensor_store[%70](%1633, %1644, %1643, %70) : (tensor<4x4x2x32x1xf16>, tensor<4x4xi64>, tensor<?x2x32x1xf16>{%70}, index) -> %1643{%70}
    %1646 = flow.tensor.reshape %1645 : tensor<?x2x32x1xf16>{%70} -> tensor<?x22x2x4x32x64xf16>{%8}
    %1647 = flow.dispatch @decode_bs4$async_dispatch_810::@decode_bs4$async_dispatch_810_gather_4xDx4x32x64xf16_generic[%8, %7](%1646, %8, %4, %7) : (tensor<?x22x2x4x32x64xf16>{%8}, index, tensor<4x?xi64>{%7}, index) -> tensor<4x4x8x?x32x64xf16>{%7}
    %1648 = flow.tensor.reshape %1647 : tensor<4x4x8x?x32x64xf16>{%7} -> tensor<128x?x64xf16>{%80}
    %1649 = flow.tensor.reshape %1636 : tensor<4x32x2x32xf16> -> tensor<128x64xf16>
    %1650 = flow.dispatch @decode_bs4$async_dispatch_811::@decode_bs4$async_dispatch_811_gather_4xDx4x32x64xf16_generic[%8, %7](%1646, %8, %4, %7) : (tensor<?x22x2x4x32x64xf16>{%8}, index, tensor<4x?xi64>{%7}, index) -> tensor<4x4x8x64x?x32xf16>{%7}
    %1651 = flow.tensor.reshape %1650 : tensor<4x4x8x64x?x32xf16>{%7} -> tensor<128x64x?xf16>{%80}
    %1652 = flow.dispatch @decode_bs4$async_dispatch_38::@decode_bs4$async_dispatch_38_attention_128xDx64xf16_dispatch_tensor_store[%80, %76](%1649, %1648, %1651, %85, %80, %76) : (tensor<128x64xf16>, tensor<128x?x64xf16>{%80}, tensor<128x64x?xf16>{%80}, tensor<128x?xf16>{%76}, index, index) -> tensor<128x64xf16>
    %1653 = flow.tensor.bitcast %__parameter_model_blk_18_attn_output_weight_tensor_2048x2176xi8 : tensor<2048x2176xi8> -> tensor<2048x64x17xi16>
    %1654 = flow.tensor.bitcast %__parameter_model_blk_18_attn_output_weight_tensor_2048x2176xi8 : tensor<2048x2176xi8> -> tensor<2048x64x1x17xi16>
    %1655 = flow.dispatch @prefill_bs4$async_dispatch_8::@prefill_bs4$async_dispatch_8_slow_memcpy(%1654) : (tensor<2048x64x1x17xi16>) -> tensor<2048x64x1xi16>
    %1656 = flow.dispatch @prefill_bs4$async_dispatch_9::@prefill_bs4$async_dispatch_9_slow_memcpy(%1653) : (tensor<2048x64x17xi16>) -> tensor<2048x64x16xi16>
    %1657 = flow.tensor.bitcast %1656 : tensor<2048x64x16xi16> -> tensor<2048x64x32xi8>
    %1658 = flow.tensor.bitcast %1655 : tensor<2048x64x1xi16> -> tensor<2048x64xf16>
    %1659 = flow.tensor.reshape %1652 : tensor<128x64xf16> -> tensor<4x64x32xf16>
    %1660 = flow.dispatch @decode_bs4$async_dispatch_41::@decode_bs4$async_dispatch_41_matmul_like_4x2048x64x32_f16xf16xf32(%1658, %1657, %1659, %1602) : (tensor<2048x64xf16>, tensor<2048x64x32xi8>, tensor<4x64x32xf16>, tensor<4x2048xf16>) -> tensor<4x2048xf16>
    %1661 = flow.tensor.reshape %1660 : tensor<4x2048xf16> -> tensor<8192xf16>
    %1662 = flow.dispatch @decode_bs4$async_dispatch_4::@decode_bs4$async_dispatch_4_elementwise_8192_f16xf32(%1661) : (tensor<8192xf16>) -> tensor<8192xf32>
    %1663 = flow.tensor.reshape %1662 : tensor<8192xf32> -> tensor<4x2048xf32>
    %1664 = flow.dispatch @decode_bs4$async_dispatch_5::@decode_bs4$async_dispatch_5_reduction_4x2048_f32(%1660) : (tensor<4x2048xf16>) -> tensor<4xf32>
    %1665 = flow.dispatch @decode_bs4$async_dispatch_6::@decode_bs4$async_dispatch_6_elementwise_4x2048_f32xf32xf16(%1663, %1664) : (tensor<4x2048xf32>, tensor<4xf32>) -> tensor<4x2048xf16>
    %1666 = flow.dispatch @decode_bs4$async_dispatch_7::@decode_bs4$async_dispatch_7_elementwise_4x2048_f32xf16xf16(%__parameter_model_blk_18_ffn_norm_weight_tensor_2048xf32, %1665) : (tensor<2048xf32>, tensor<4x2048xf16>) -> tensor<4x2048xf16>
    %1667 = flow.tensor.reshape %1666 : tensor<4x2048xf16> -> tensor<4x64x32xf16>
    %1668 = flow.tensor.bitcast %__parameter_model_blk_18_ffn_gate_weight_tensor_5632x2176xi8 : tensor<5632x2176xi8> -> tensor<5632x64x17xi16>
    %1669 = flow.tensor.bitcast %__parameter_model_blk_18_ffn_gate_weight_tensor_5632x2176xi8 : tensor<5632x2176xi8> -> tensor<5632x64x1x17xi16>
    %1670 = flow.dispatch @prefill_bs4$async_dispatch_43::@prefill_bs4$async_dispatch_43_slow_memcpy(%1669) : (tensor<5632x64x1x17xi16>) -> tensor<5632x64x1xi16>
    %1671 = flow.dispatch @prefill_bs4$async_dispatch_44::@prefill_bs4$async_dispatch_44_slow_memcpy(%1668) : (tensor<5632x64x17xi16>) -> tensor<5632x64x16xi16>
    %1672 = flow.tensor.bitcast %1671 : tensor<5632x64x16xi16> -> tensor<5632x64x32xi8>
    %1673 = flow.tensor.bitcast %1670 : tensor<5632x64x1xi16> -> tensor<5632x64xf16>
    %1674 = flow.tensor.bitcast %__parameter_model_blk_18_ffn_up_weight_tensor_5632x2176xi8 : tensor<5632x2176xi8> -> tensor<5632x64x1x17xi16>
    %1675 = flow.dispatch @prefill_bs4$async_dispatch_43::@prefill_bs4$async_dispatch_43_slow_memcpy(%1674) : (tensor<5632x64x1x17xi16>) -> tensor<5632x64x1xi16>
    %1676 = flow.tensor.bitcast %1675 : tensor<5632x64x1xi16> -> tensor<5632x64xf16>
    %1677 = flow.tensor.bitcast %__parameter_model_blk_18_ffn_up_weight_tensor_5632x2176xi8 : tensor<5632x2176xi8> -> tensor<5632x64x17xi16>
    %1678 = flow.dispatch @prefill_bs4$async_dispatch_44::@prefill_bs4$async_dispatch_44_slow_memcpy(%1677) : (tensor<5632x64x17xi16>) -> tensor<5632x64x16xi16>
    %1679 = flow.tensor.bitcast %1678 : tensor<5632x64x16xi16> -> tensor<5632x64x32xi8>
    %1680 = flow.dispatch @decode_bs4$async_dispatch_50::@decode_bs4$async_dispatch_50_matmul_like_4x5632x64x32_f16xf16xf32(%1676, %1679, %1667) : (tensor<5632x64xf16>, tensor<5632x64x32xi8>, tensor<4x64x32xf16>) -> tensor<4x5632xf16>
    %1681 = flow.dispatch @decode_bs4$async_dispatch_51::@decode_bs4$async_dispatch_51_matmul_like_4x5632x64x32_f16xf16xf32(%1673, %1672, %1667, %1680) : (tensor<5632x64xf16>, tensor<5632x64x32xi8>, tensor<4x64x32xf16>, tensor<4x5632xf16>) -> tensor<4x5632xf16>
    %1682 = flow.tensor.reshape %1681 : tensor<4x5632xf16> -> tensor<4x176x32xf16>
    %1683 = flow.tensor.bitcast %__parameter_model_blk_18_ffn_down_weight_tensor_2048x5984xi8 : tensor<2048x5984xi8> -> tensor<2048x176x17xi16>
    %1684 = flow.tensor.bitcast %__parameter_model_blk_18_ffn_down_weight_tensor_2048x5984xi8 : tensor<2048x5984xi8> -> tensor<2048x176x1x17xi16>
    %1685 = flow.dispatch @prefill_bs4$async_dispatch_49::@prefill_bs4$async_dispatch_49_slow_memcpy(%1684) : (tensor<2048x176x1x17xi16>) -> tensor<2048x176x1xi16>
    %1686 = flow.dispatch @prefill_bs4$async_dispatch_50::@prefill_bs4$async_dispatch_50_slow_memcpy(%1683) : (tensor<2048x176x17xi16>) -> tensor<2048x176x16xi16>
    %1687 = flow.tensor.bitcast %1686 : tensor<2048x176x16xi16> -> tensor<2048x176x32xi8>
    %1688 = flow.tensor.bitcast %1685 : tensor<2048x176x1xi16> -> tensor<2048x176xf16>
    %1689 = flow.dispatch @decode_bs4$async_dispatch_54::@decode_bs4$async_dispatch_54_matmul_like_4x2048x176x32_f16xf16xf32(%1688, %1687, %1682, %1660) : (tensor<2048x176xf16>, tensor<2048x176x32xi8>, tensor<4x176x32xf16>, tensor<4x2048xf16>) -> tensor<4x2048xf16>
    %1690 = flow.tensor.reshape %1689 : tensor<4x2048xf16> -> tensor<8192xf16>
    %1691 = flow.dispatch @decode_bs4$async_dispatch_4::@decode_bs4$async_dispatch_4_elementwise_8192_f16xf32(%1690) : (tensor<8192xf16>) -> tensor<8192xf32>
    %1692 = flow.tensor.reshape %1691 : tensor<8192xf32> -> tensor<4x2048xf32>
    %1693 = flow.dispatch @decode_bs4$async_dispatch_5::@decode_bs4$async_dispatch_5_reduction_4x2048_f32(%1689) : (tensor<4x2048xf16>) -> tensor<4xf32>
    %1694 = flow.dispatch @decode_bs4$async_dispatch_6::@decode_bs4$async_dispatch_6_elementwise_4x2048_f32xf32xf16(%1692, %1693) : (tensor<4x2048xf32>, tensor<4xf32>) -> tensor<4x2048xf16>
    %1695 = flow.dispatch @decode_bs4$async_dispatch_7::@decode_bs4$async_dispatch_7_elementwise_4x2048_f32xf16xf16(%__parameter_model_blk_19_attn_norm_weight_tensor_2048xf32, %1694) : (tensor<2048xf32>, tensor<4x2048xf16>) -> tensor<4x2048xf16>
    %1696 = flow.tensor.reshape %1695 : tensor<4x2048xf16> -> tensor<4x64x32xf16>
    %1697 = flow.tensor.bitcast %__parameter_model_blk_19_attn_q_weight_tensor_2048x2176xi8 : tensor<2048x2176xi8> -> tensor<2048x64x17xi16>
    %1698 = flow.tensor.bitcast %__parameter_model_blk_19_attn_q_weight_tensor_2048x2176xi8 : tensor<2048x2176xi8> -> tensor<2048x64x1x17xi16>
    %1699 = flow.dispatch @prefill_bs4$async_dispatch_8::@prefill_bs4$async_dispatch_8_slow_memcpy(%1698) : (tensor<2048x64x1x17xi16>) -> tensor<2048x64x1xi16>
    %1700 = flow.dispatch @prefill_bs4$async_dispatch_9::@prefill_bs4$async_dispatch_9_slow_memcpy(%1697) : (tensor<2048x64x17xi16>) -> tensor<2048x64x16xi16>
    %1701 = flow.tensor.bitcast %1700 : tensor<2048x64x16xi16> -> tensor<2048x64x32xi8>
    %1702 = flow.tensor.bitcast %1699 : tensor<2048x64x1xi16> -> tensor<2048x64xf16>
    %1703 = flow.dispatch @decode_bs4$async_dispatch_10::@decode_bs4$async_dispatch_10_matmul_like_4x2048x64x32_f16xf16xf32(%1702, %1701, %1696) : (tensor<2048x64xf16>, tensor<2048x64x32xi8>, tensor<4x64x32xf16>) -> tensor<4x2048xf16>
    %1704 = flow.tensor.reshape %1703 : tensor<4x2048xf16> -> tensor<4x1x32x64xf16>
    %1705 = flow.tensor.bitcast %__parameter_model_blk_19_attn_k_weight_tensor_256x2176xi8 : tensor<256x2176xi8> -> tensor<256x64x17xi16>
    %1706 = flow.tensor.bitcast %__parameter_model_blk_19_attn_k_weight_tensor_256x2176xi8 : tensor<256x2176xi8> -> tensor<256x64x1x17xi16>
    %1707 = flow.dispatch @prefill_bs4$async_dispatch_11::@prefill_bs4$async_dispatch_11_slow_memcpy(%1706) : (tensor<256x64x1x17xi16>) -> tensor<256x64x1xi16>
    %1708 = flow.dispatch @prefill_bs4$async_dispatch_12::@prefill_bs4$async_dispatch_12_slow_memcpy(%1705) : (tensor<256x64x17xi16>) -> tensor<256x64x16xi16>
    %1709 = flow.tensor.bitcast %1708 : tensor<256x64x16xi16> -> tensor<256x64x32xi8>
    %1710 = flow.tensor.bitcast %1707 : tensor<256x64x1xi16> -> tensor<256x64xf16>
    %1711 = flow.dispatch @decode_bs4$async_dispatch_13::@decode_bs4$async_dispatch_13_matmul_like_4x256x64x32_f16xf16xf32(%1710, %1709, %1696) : (tensor<256x64xf16>, tensor<256x64x32xi8>, tensor<4x64x32xf16>) -> tensor<4x256xf16>
    %1712 = flow.tensor.reshape %1711 : tensor<4x256xf16> -> tensor<4x1x4x64xf16>
    %1713 = flow.tensor.bitcast %__parameter_model_blk_19_attn_v_weight_tensor_256x2176xi8 : tensor<256x2176xi8> -> tensor<256x64x17xi16>
    %1714 = flow.tensor.bitcast %__parameter_model_blk_19_attn_v_weight_tensor_256x2176xi8 : tensor<256x2176xi8> -> tensor<256x64x1x17xi16>
    %1715 = flow.dispatch @prefill_bs4$async_dispatch_11::@prefill_bs4$async_dispatch_11_slow_memcpy(%1714) : (tensor<256x64x1x17xi16>) -> tensor<256x64x1xi16>
    %1716 = flow.dispatch @prefill_bs4$async_dispatch_12::@prefill_bs4$async_dispatch_12_slow_memcpy(%1713) : (tensor<256x64x17xi16>) -> tensor<256x64x16xi16>
    %1717 = flow.tensor.bitcast %1716 : tensor<256x64x16xi16> -> tensor<256x64x32xi8>
    %1718 = flow.tensor.bitcast %1715 : tensor<256x64x1xi16> -> tensor<256x64xf16>
    %1719 = flow.dispatch @decode_bs4$async_dispatch_13::@decode_bs4$async_dispatch_13_matmul_like_4x256x64x32_f16xf16xf32(%1718, %1717, %1696) : (tensor<256x64xf16>, tensor<256x64x32xi8>, tensor<4x64x32xf16>) -> tensor<4x256xf16>
    %1720 = flow.tensor.reshape %1719 : tensor<4x256xf16> -> tensor<4x4x2x32x1xf16>
    %1721 = flow.dispatch @decode_bs4$async_dispatch_22::@decode_bs4$async_dispatch_22_slow_memcpy(%1704) : (tensor<4x1x32x64xf16>) -> tensor<4x32x32xf16>
    %1722 = flow.dispatch @decode_bs4$async_dispatch_23::@decode_bs4$async_dispatch_23_slow_memcpy(%1704) : (tensor<4x1x32x64xf16>) -> tensor<4x32x32xf16>
    %1723 = flow.dispatch @decode_bs4$async_dispatch_24::@decode_bs4$async_dispatch_24_elementwise_broadcast_4x32x2x32_f16(%1721, %59, %1722, %60) : (tensor<4x32x32xf16>, tensor<4x32xf16>, tensor<4x32x32xf16>, tensor<4x32xf16>) -> tensor<4x32x2x32xf16>
    %1724 = flow.dispatch @decode_bs4$async_dispatch_25::@decode_bs4$async_dispatch_25_slow_memcpy(%1712) : (tensor<4x1x4x64xf16>) -> tensor<4x4x32xf16>
    %1725 = flow.dispatch @decode_bs4$async_dispatch_26::@decode_bs4$async_dispatch_26_slow_memcpy(%1712) : (tensor<4x1x4x64xf16>) -> tensor<4x4x32xf16>
    %1726 = flow.dispatch @decode_bs4$async_dispatch_27::@decode_bs4$async_dispatch_27_elementwise_broadcast_4x4x2x32_f16(%1724, %59, %1725, %60) : (tensor<4x4x32xf16>, tensor<4x32xf16>, tensor<4x4x32xf16>, tensor<4x32xf16>) -> tensor<4x4x2x32xf16>
    %1727 = flow.tensor.reshape %1726 : tensor<4x4x2x32xf16> -> tensor<4x4x2x32x1xf16>
    %1728 = flow.dispatch @decode_bs4$async_dispatch_848::@decode_bs4$async_dispatch_848_elementwise_4_i64[%7](%4, %66, %7) : (tensor<4x?xi64>{%7}, tensor<4xi64>, index) -> tensor<4xi64>
    %1729 = flow.dispatch @decode_bs4$async_dispatch_31::@decode_bs4$async_dispatch_31_elementwise_broadcast_4x4_i64(%1728, %67) : (tensor<4xi64>, tensor<4xi64>) -> tensor<4x4xi64>
    %1730 = flow.dispatch @decode_bs4$async_dispatch_32::@decode_bs4$async_dispatch_32_scatter_Dx2x32x1xf16_dispatch_tensor_store[%70](%1727, %1729, %1645, %70) : (tensor<4x4x2x32x1xf16>, tensor<4x4xi64>, tensor<?x2x32x1xf16>{%70}, index) -> %1645{%70}
    %1731 = flow.dispatch @decode_bs4$async_dispatch_33::@decode_bs4$async_dispatch_33_elementwise_broadcast_4x4_i64(%1728, %67) : (tensor<4xi64>, tensor<4xi64>) -> tensor<4x4xi64>
    %1732 = flow.dispatch @decode_bs4$async_dispatch_32::@decode_bs4$async_dispatch_32_scatter_Dx2x32x1xf16_dispatch_tensor_store[%70](%1720, %1731, %1730, %70) : (tensor<4x4x2x32x1xf16>, tensor<4x4xi64>, tensor<?x2x32x1xf16>{%70}, index) -> %1730{%70}
    %1733 = flow.tensor.reshape %1732 : tensor<?x2x32x1xf16>{%70} -> tensor<?x22x2x4x32x64xf16>{%8}
    %1734 = flow.dispatch @decode_bs4$async_dispatch_853::@decode_bs4$async_dispatch_853_gather_4xDx4x32x64xf16_generic[%8, %7](%1733, %8, %4, %7) : (tensor<?x22x2x4x32x64xf16>{%8}, index, tensor<4x?xi64>{%7}, index) -> tensor<4x4x8x?x32x64xf16>{%7}
    %1735 = flow.tensor.reshape %1734 : tensor<4x4x8x?x32x64xf16>{%7} -> tensor<128x?x64xf16>{%80}
    %1736 = flow.tensor.reshape %1723 : tensor<4x32x2x32xf16> -> tensor<128x64xf16>
    %1737 = flow.dispatch @decode_bs4$async_dispatch_854::@decode_bs4$async_dispatch_854_gather_4xDx4x32x64xf16_generic[%8, %7](%1733, %8, %4, %7) : (tensor<?x22x2x4x32x64xf16>{%8}, index, tensor<4x?xi64>{%7}, index) -> tensor<4x4x8x64x?x32xf16>{%7}
    %1738 = flow.tensor.reshape %1737 : tensor<4x4x8x64x?x32xf16>{%7} -> tensor<128x64x?xf16>{%80}
    %1739 = flow.dispatch @decode_bs4$async_dispatch_38::@decode_bs4$async_dispatch_38_attention_128xDx64xf16_dispatch_tensor_store[%80, %76](%1736, %1735, %1738, %85, %80, %76) : (tensor<128x64xf16>, tensor<128x?x64xf16>{%80}, tensor<128x64x?xf16>{%80}, tensor<128x?xf16>{%76}, index, index) -> tensor<128x64xf16>
    %1740 = flow.tensor.bitcast %__parameter_model_blk_19_attn_output_weight_tensor_2048x2176xi8 : tensor<2048x2176xi8> -> tensor<2048x64x17xi16>
    %1741 = flow.tensor.bitcast %__parameter_model_blk_19_attn_output_weight_tensor_2048x2176xi8 : tensor<2048x2176xi8> -> tensor<2048x64x1x17xi16>
    %1742 = flow.dispatch @prefill_bs4$async_dispatch_8::@prefill_bs4$async_dispatch_8_slow_memcpy(%1741) : (tensor<2048x64x1x17xi16>) -> tensor<2048x64x1xi16>
    %1743 = flow.dispatch @prefill_bs4$async_dispatch_9::@prefill_bs4$async_dispatch_9_slow_memcpy(%1740) : (tensor<2048x64x17xi16>) -> tensor<2048x64x16xi16>
    %1744 = flow.tensor.bitcast %1743 : tensor<2048x64x16xi16> -> tensor<2048x64x32xi8>
    %1745 = flow.tensor.bitcast %1742 : tensor<2048x64x1xi16> -> tensor<2048x64xf16>
    %1746 = flow.tensor.reshape %1739 : tensor<128x64xf16> -> tensor<4x64x32xf16>
    %1747 = flow.dispatch @decode_bs4$async_dispatch_41::@decode_bs4$async_dispatch_41_matmul_like_4x2048x64x32_f16xf16xf32(%1745, %1744, %1746, %1689) : (tensor<2048x64xf16>, tensor<2048x64x32xi8>, tensor<4x64x32xf16>, tensor<4x2048xf16>) -> tensor<4x2048xf16>
    %1748 = flow.tensor.reshape %1747 : tensor<4x2048xf16> -> tensor<8192xf16>
    %1749 = flow.dispatch @decode_bs4$async_dispatch_4::@decode_bs4$async_dispatch_4_elementwise_8192_f16xf32(%1748) : (tensor<8192xf16>) -> tensor<8192xf32>
    %1750 = flow.tensor.reshape %1749 : tensor<8192xf32> -> tensor<4x2048xf32>
    %1751 = flow.dispatch @decode_bs4$async_dispatch_5::@decode_bs4$async_dispatch_5_reduction_4x2048_f32(%1747) : (tensor<4x2048xf16>) -> tensor<4xf32>
    %1752 = flow.dispatch @decode_bs4$async_dispatch_6::@decode_bs4$async_dispatch_6_elementwise_4x2048_f32xf32xf16(%1750, %1751) : (tensor<4x2048xf32>, tensor<4xf32>) -> tensor<4x2048xf16>
    %1753 = flow.dispatch @decode_bs4$async_dispatch_7::@decode_bs4$async_dispatch_7_elementwise_4x2048_f32xf16xf16(%__parameter_model_blk_19_ffn_norm_weight_tensor_2048xf32, %1752) : (tensor<2048xf32>, tensor<4x2048xf16>) -> tensor<4x2048xf16>
    %1754 = flow.tensor.reshape %1753 : tensor<4x2048xf16> -> tensor<4x64x32xf16>
    %1755 = flow.tensor.bitcast %__parameter_model_blk_19_ffn_gate_weight_tensor_5632x2176xi8 : tensor<5632x2176xi8> -> tensor<5632x64x17xi16>
    %1756 = flow.tensor.bitcast %__parameter_model_blk_19_ffn_gate_weight_tensor_5632x2176xi8 : tensor<5632x2176xi8> -> tensor<5632x64x1x17xi16>
    %1757 = flow.dispatch @prefill_bs4$async_dispatch_43::@prefill_bs4$async_dispatch_43_slow_memcpy(%1756) : (tensor<5632x64x1x17xi16>) -> tensor<5632x64x1xi16>
    %1758 = flow.dispatch @prefill_bs4$async_dispatch_44::@prefill_bs4$async_dispatch_44_slow_memcpy(%1755) : (tensor<5632x64x17xi16>) -> tensor<5632x64x16xi16>
    %1759 = flow.tensor.bitcast %1758 : tensor<5632x64x16xi16> -> tensor<5632x64x32xi8>
    %1760 = flow.tensor.bitcast %1757 : tensor<5632x64x1xi16> -> tensor<5632x64xf16>
    %1761 = flow.tensor.bitcast %__parameter_model_blk_19_ffn_up_weight_tensor_5632x2176xi8 : tensor<5632x2176xi8> -> tensor<5632x64x1x17xi16>
    %1762 = flow.dispatch @prefill_bs4$async_dispatch_43::@prefill_bs4$async_dispatch_43_slow_memcpy(%1761) : (tensor<5632x64x1x17xi16>) -> tensor<5632x64x1xi16>
    %1763 = flow.tensor.bitcast %1762 : tensor<5632x64x1xi16> -> tensor<5632x64xf16>
    %1764 = flow.tensor.bitcast %__parameter_model_blk_19_ffn_up_weight_tensor_5632x2176xi8 : tensor<5632x2176xi8> -> tensor<5632x64x17xi16>
    %1765 = flow.dispatch @prefill_bs4$async_dispatch_44::@prefill_bs4$async_dispatch_44_slow_memcpy(%1764) : (tensor<5632x64x17xi16>) -> tensor<5632x64x16xi16>
    %1766 = flow.tensor.bitcast %1765 : tensor<5632x64x16xi16> -> tensor<5632x64x32xi8>
    %1767 = flow.dispatch @decode_bs4$async_dispatch_50::@decode_bs4$async_dispatch_50_matmul_like_4x5632x64x32_f16xf16xf32(%1763, %1766, %1754) : (tensor<5632x64xf16>, tensor<5632x64x32xi8>, tensor<4x64x32xf16>) -> tensor<4x5632xf16>
    %1768 = flow.dispatch @decode_bs4$async_dispatch_51::@decode_bs4$async_dispatch_51_matmul_like_4x5632x64x32_f16xf16xf32(%1760, %1759, %1754, %1767) : (tensor<5632x64xf16>, tensor<5632x64x32xi8>, tensor<4x64x32xf16>, tensor<4x5632xf16>) -> tensor<4x5632xf16>
    %1769 = flow.tensor.reshape %1768 : tensor<4x5632xf16> -> tensor<4x176x32xf16>
    %1770 = flow.tensor.bitcast %__parameter_model_blk_19_ffn_down_weight_tensor_2048x5984xi8 : tensor<2048x5984xi8> -> tensor<2048x176x17xi16>
    %1771 = flow.tensor.bitcast %__parameter_model_blk_19_ffn_down_weight_tensor_2048x5984xi8 : tensor<2048x5984xi8> -> tensor<2048x176x1x17xi16>
    %1772 = flow.dispatch @prefill_bs4$async_dispatch_49::@prefill_bs4$async_dispatch_49_slow_memcpy(%1771) : (tensor<2048x176x1x17xi16>) -> tensor<2048x176x1xi16>
    %1773 = flow.dispatch @prefill_bs4$async_dispatch_50::@prefill_bs4$async_dispatch_50_slow_memcpy(%1770) : (tensor<2048x176x17xi16>) -> tensor<2048x176x16xi16>
    %1774 = flow.tensor.bitcast %1773 : tensor<2048x176x16xi16> -> tensor<2048x176x32xi8>
    %1775 = flow.tensor.bitcast %1772 : tensor<2048x176x1xi16> -> tensor<2048x176xf16>
    %1776 = flow.dispatch @decode_bs4$async_dispatch_54::@decode_bs4$async_dispatch_54_matmul_like_4x2048x176x32_f16xf16xf32(%1775, %1774, %1769, %1747) : (tensor<2048x176xf16>, tensor<2048x176x32xi8>, tensor<4x176x32xf16>, tensor<4x2048xf16>) -> tensor<4x2048xf16>
    %1777 = flow.tensor.reshape %1776 : tensor<4x2048xf16> -> tensor<8192xf16>
    %1778 = flow.dispatch @decode_bs4$async_dispatch_4::@decode_bs4$async_dispatch_4_elementwise_8192_f16xf32(%1777) : (tensor<8192xf16>) -> tensor<8192xf32>
    %1779 = flow.tensor.reshape %1778 : tensor<8192xf32> -> tensor<4x2048xf32>
    %1780 = flow.dispatch @decode_bs4$async_dispatch_5::@decode_bs4$async_dispatch_5_reduction_4x2048_f32(%1776) : (tensor<4x2048xf16>) -> tensor<4xf32>
    %1781 = flow.dispatch @decode_bs4$async_dispatch_6::@decode_bs4$async_dispatch_6_elementwise_4x2048_f32xf32xf16(%1779, %1780) : (tensor<4x2048xf32>, tensor<4xf32>) -> tensor<4x2048xf16>
    %1782 = flow.dispatch @decode_bs4$async_dispatch_7::@decode_bs4$async_dispatch_7_elementwise_4x2048_f32xf16xf16(%__parameter_model_blk_20_attn_norm_weight_tensor_2048xf32, %1781) : (tensor<2048xf32>, tensor<4x2048xf16>) -> tensor<4x2048xf16>
    %1783 = flow.tensor.reshape %1782 : tensor<4x2048xf16> -> tensor<4x64x32xf16>
    %1784 = flow.tensor.bitcast %__parameter_model_blk_20_attn_q_weight_tensor_2048x2176xi8 : tensor<2048x2176xi8> -> tensor<2048x64x17xi16>
    %1785 = flow.tensor.bitcast %__parameter_model_blk_20_attn_q_weight_tensor_2048x2176xi8 : tensor<2048x2176xi8> -> tensor<2048x64x1x17xi16>
    %1786 = flow.dispatch @prefill_bs4$async_dispatch_8::@prefill_bs4$async_dispatch_8_slow_memcpy(%1785) : (tensor<2048x64x1x17xi16>) -> tensor<2048x64x1xi16>
    %1787 = flow.dispatch @prefill_bs4$async_dispatch_9::@prefill_bs4$async_dispatch_9_slow_memcpy(%1784) : (tensor<2048x64x17xi16>) -> tensor<2048x64x16xi16>
    %1788 = flow.tensor.bitcast %1787 : tensor<2048x64x16xi16> -> tensor<2048x64x32xi8>
    %1789 = flow.tensor.bitcast %1786 : tensor<2048x64x1xi16> -> tensor<2048x64xf16>
    %1790 = flow.dispatch @decode_bs4$async_dispatch_10::@decode_bs4$async_dispatch_10_matmul_like_4x2048x64x32_f16xf16xf32(%1789, %1788, %1783) : (tensor<2048x64xf16>, tensor<2048x64x32xi8>, tensor<4x64x32xf16>) -> tensor<4x2048xf16>
    %1791 = flow.tensor.reshape %1790 : tensor<4x2048xf16> -> tensor<4x1x32x64xf16>
    %1792 = flow.tensor.bitcast %__parameter_model_blk_20_attn_k_weight_tensor_256x2176xi8 : tensor<256x2176xi8> -> tensor<256x64x17xi16>
    %1793 = flow.tensor.bitcast %__parameter_model_blk_20_attn_k_weight_tensor_256x2176xi8 : tensor<256x2176xi8> -> tensor<256x64x1x17xi16>
    %1794 = flow.dispatch @prefill_bs4$async_dispatch_11::@prefill_bs4$async_dispatch_11_slow_memcpy(%1793) : (tensor<256x64x1x17xi16>) -> tensor<256x64x1xi16>
    %1795 = flow.dispatch @prefill_bs4$async_dispatch_12::@prefill_bs4$async_dispatch_12_slow_memcpy(%1792) : (tensor<256x64x17xi16>) -> tensor<256x64x16xi16>
    %1796 = flow.tensor.bitcast %1795 : tensor<256x64x16xi16> -> tensor<256x64x32xi8>
    %1797 = flow.tensor.bitcast %1794 : tensor<256x64x1xi16> -> tensor<256x64xf16>
    %1798 = flow.dispatch @decode_bs4$async_dispatch_13::@decode_bs4$async_dispatch_13_matmul_like_4x256x64x32_f16xf16xf32(%1797, %1796, %1783) : (tensor<256x64xf16>, tensor<256x64x32xi8>, tensor<4x64x32xf16>) -> tensor<4x256xf16>
    %1799 = flow.tensor.reshape %1798 : tensor<4x256xf16> -> tensor<4x1x4x64xf16>
    %1800 = flow.tensor.bitcast %__parameter_model_blk_20_attn_v_weight_tensor_256x2176xi8 : tensor<256x2176xi8> -> tensor<256x64x17xi16>
    %1801 = flow.tensor.bitcast %__parameter_model_blk_20_attn_v_weight_tensor_256x2176xi8 : tensor<256x2176xi8> -> tensor<256x64x1x17xi16>
    %1802 = flow.dispatch @prefill_bs4$async_dispatch_11::@prefill_bs4$async_dispatch_11_slow_memcpy(%1801) : (tensor<256x64x1x17xi16>) -> tensor<256x64x1xi16>
    %1803 = flow.dispatch @prefill_bs4$async_dispatch_12::@prefill_bs4$async_dispatch_12_slow_memcpy(%1800) : (tensor<256x64x17xi16>) -> tensor<256x64x16xi16>
    %1804 = flow.tensor.bitcast %1803 : tensor<256x64x16xi16> -> tensor<256x64x32xi8>
    %1805 = flow.tensor.bitcast %1802 : tensor<256x64x1xi16> -> tensor<256x64xf16>
    %1806 = flow.dispatch @decode_bs4$async_dispatch_13::@decode_bs4$async_dispatch_13_matmul_like_4x256x64x32_f16xf16xf32(%1805, %1804, %1783) : (tensor<256x64xf16>, tensor<256x64x32xi8>, tensor<4x64x32xf16>) -> tensor<4x256xf16>
    %1807 = flow.tensor.reshape %1806 : tensor<4x256xf16> -> tensor<4x4x2x32x1xf16>
    %1808 = flow.dispatch @decode_bs4$async_dispatch_22::@decode_bs4$async_dispatch_22_slow_memcpy(%1791) : (tensor<4x1x32x64xf16>) -> tensor<4x32x32xf16>
    %1809 = flow.dispatch @decode_bs4$async_dispatch_23::@decode_bs4$async_dispatch_23_slow_memcpy(%1791) : (tensor<4x1x32x64xf16>) -> tensor<4x32x32xf16>
    %1810 = flow.dispatch @decode_bs4$async_dispatch_24::@decode_bs4$async_dispatch_24_elementwise_broadcast_4x32x2x32_f16(%1808, %59, %1809, %60) : (tensor<4x32x32xf16>, tensor<4x32xf16>, tensor<4x32x32xf16>, tensor<4x32xf16>) -> tensor<4x32x2x32xf16>
    %1811 = flow.dispatch @decode_bs4$async_dispatch_25::@decode_bs4$async_dispatch_25_slow_memcpy(%1799) : (tensor<4x1x4x64xf16>) -> tensor<4x4x32xf16>
    %1812 = flow.dispatch @decode_bs4$async_dispatch_26::@decode_bs4$async_dispatch_26_slow_memcpy(%1799) : (tensor<4x1x4x64xf16>) -> tensor<4x4x32xf16>
    %1813 = flow.dispatch @decode_bs4$async_dispatch_27::@decode_bs4$async_dispatch_27_elementwise_broadcast_4x4x2x32_f16(%1811, %59, %1812, %60) : (tensor<4x4x32xf16>, tensor<4x32xf16>, tensor<4x4x32xf16>, tensor<4x32xf16>) -> tensor<4x4x2x32xf16>
    %1814 = flow.tensor.reshape %1813 : tensor<4x4x2x32xf16> -> tensor<4x4x2x32x1xf16>
    %1815 = flow.dispatch @decode_bs4$async_dispatch_891::@decode_bs4$async_dispatch_891_elementwise_4_i64[%7](%4, %66, %7) : (tensor<4x?xi64>{%7}, tensor<4xi64>, index) -> tensor<4xi64>
    %1816 = flow.dispatch @decode_bs4$async_dispatch_31::@decode_bs4$async_dispatch_31_elementwise_broadcast_4x4_i64(%1815, %67) : (tensor<4xi64>, tensor<4xi64>) -> tensor<4x4xi64>
    %1817 = flow.dispatch @decode_bs4$async_dispatch_32::@decode_bs4$async_dispatch_32_scatter_Dx2x32x1xf16_dispatch_tensor_store[%70](%1814, %1816, %1732, %70) : (tensor<4x4x2x32x1xf16>, tensor<4x4xi64>, tensor<?x2x32x1xf16>{%70}, index) -> %1732{%70}
    %1818 = flow.dispatch @decode_bs4$async_dispatch_33::@decode_bs4$async_dispatch_33_elementwise_broadcast_4x4_i64(%1815, %67) : (tensor<4xi64>, tensor<4xi64>) -> tensor<4x4xi64>
    %1819 = flow.dispatch @decode_bs4$async_dispatch_32::@decode_bs4$async_dispatch_32_scatter_Dx2x32x1xf16_dispatch_tensor_store[%70](%1807, %1818, %1817, %70) : (tensor<4x4x2x32x1xf16>, tensor<4x4xi64>, tensor<?x2x32x1xf16>{%70}, index) -> %1817{%70}
    %1820 = flow.tensor.reshape %1819 : tensor<?x2x32x1xf16>{%70} -> tensor<?x22x2x4x32x64xf16>{%8}
    %1821 = flow.dispatch @decode_bs4$async_dispatch_896::@decode_bs4$async_dispatch_896_gather_4xDx4x32x64xf16_generic[%8, %7](%1820, %8, %4, %7) : (tensor<?x22x2x4x32x64xf16>{%8}, index, tensor<4x?xi64>{%7}, index) -> tensor<4x4x8x?x32x64xf16>{%7}
    %1822 = flow.tensor.reshape %1821 : tensor<4x4x8x?x32x64xf16>{%7} -> tensor<128x?x64xf16>{%80}
    %1823 = flow.tensor.reshape %1810 : tensor<4x32x2x32xf16> -> tensor<128x64xf16>
    %1824 = flow.dispatch @decode_bs4$async_dispatch_897::@decode_bs4$async_dispatch_897_gather_4xDx4x32x64xf16_generic[%8, %7](%1820, %8, %4, %7) : (tensor<?x22x2x4x32x64xf16>{%8}, index, tensor<4x?xi64>{%7}, index) -> tensor<4x4x8x64x?x32xf16>{%7}
    %1825 = flow.tensor.reshape %1824 : tensor<4x4x8x64x?x32xf16>{%7} -> tensor<128x64x?xf16>{%80}
    %1826 = flow.dispatch @decode_bs4$async_dispatch_38::@decode_bs4$async_dispatch_38_attention_128xDx64xf16_dispatch_tensor_store[%80, %76](%1823, %1822, %1825, %85, %80, %76) : (tensor<128x64xf16>, tensor<128x?x64xf16>{%80}, tensor<128x64x?xf16>{%80}, tensor<128x?xf16>{%76}, index, index) -> tensor<128x64xf16>
    %1827 = flow.tensor.bitcast %__parameter_model_blk_20_attn_output_weight_tensor_2048x2176xi8 : tensor<2048x2176xi8> -> tensor<2048x64x17xi16>
    %1828 = flow.tensor.bitcast %__parameter_model_blk_20_attn_output_weight_tensor_2048x2176xi8 : tensor<2048x2176xi8> -> tensor<2048x64x1x17xi16>
    %1829 = flow.dispatch @prefill_bs4$async_dispatch_8::@prefill_bs4$async_dispatch_8_slow_memcpy(%1828) : (tensor<2048x64x1x17xi16>) -> tensor<2048x64x1xi16>
    %1830 = flow.dispatch @prefill_bs4$async_dispatch_9::@prefill_bs4$async_dispatch_9_slow_memcpy(%1827) : (tensor<2048x64x17xi16>) -> tensor<2048x64x16xi16>
    %1831 = flow.tensor.bitcast %1830 : tensor<2048x64x16xi16> -> tensor<2048x64x32xi8>
    %1832 = flow.tensor.bitcast %1829 : tensor<2048x64x1xi16> -> tensor<2048x64xf16>
    %1833 = flow.tensor.reshape %1826 : tensor<128x64xf16> -> tensor<4x64x32xf16>
    %1834 = flow.dispatch @decode_bs4$async_dispatch_41::@decode_bs4$async_dispatch_41_matmul_like_4x2048x64x32_f16xf16xf32(%1832, %1831, %1833, %1776) : (tensor<2048x64xf16>, tensor<2048x64x32xi8>, tensor<4x64x32xf16>, tensor<4x2048xf16>) -> tensor<4x2048xf16>
    %1835 = flow.tensor.reshape %1834 : tensor<4x2048xf16> -> tensor<8192xf16>
    %1836 = flow.dispatch @decode_bs4$async_dispatch_4::@decode_bs4$async_dispatch_4_elementwise_8192_f16xf32(%1835) : (tensor<8192xf16>) -> tensor<8192xf32>
    %1837 = flow.tensor.reshape %1836 : tensor<8192xf32> -> tensor<4x2048xf32>
    %1838 = flow.dispatch @decode_bs4$async_dispatch_5::@decode_bs4$async_dispatch_5_reduction_4x2048_f32(%1834) : (tensor<4x2048xf16>) -> tensor<4xf32>
    %1839 = flow.dispatch @decode_bs4$async_dispatch_6::@decode_bs4$async_dispatch_6_elementwise_4x2048_f32xf32xf16(%1837, %1838) : (tensor<4x2048xf32>, tensor<4xf32>) -> tensor<4x2048xf16>
    %1840 = flow.dispatch @decode_bs4$async_dispatch_7::@decode_bs4$async_dispatch_7_elementwise_4x2048_f32xf16xf16(%__parameter_model_blk_20_ffn_norm_weight_tensor_2048xf32, %1839) : (tensor<2048xf32>, tensor<4x2048xf16>) -> tensor<4x2048xf16>
    %1841 = flow.tensor.reshape %1840 : tensor<4x2048xf16> -> tensor<4x64x32xf16>
    %1842 = flow.tensor.bitcast %__parameter_model_blk_20_ffn_gate_weight_tensor_5632x2176xi8 : tensor<5632x2176xi8> -> tensor<5632x64x17xi16>
    %1843 = flow.tensor.bitcast %__parameter_model_blk_20_ffn_gate_weight_tensor_5632x2176xi8 : tensor<5632x2176xi8> -> tensor<5632x64x1x17xi16>
    %1844 = flow.dispatch @prefill_bs4$async_dispatch_43::@prefill_bs4$async_dispatch_43_slow_memcpy(%1843) : (tensor<5632x64x1x17xi16>) -> tensor<5632x64x1xi16>
    %1845 = flow.dispatch @prefill_bs4$async_dispatch_44::@prefill_bs4$async_dispatch_44_slow_memcpy(%1842) : (tensor<5632x64x17xi16>) -> tensor<5632x64x16xi16>
    %1846 = flow.tensor.bitcast %1845 : tensor<5632x64x16xi16> -> tensor<5632x64x32xi8>
    %1847 = flow.tensor.bitcast %1844 : tensor<5632x64x1xi16> -> tensor<5632x64xf16>
    %1848 = flow.tensor.bitcast %__parameter_model_blk_20_ffn_up_weight_tensor_5632x2176xi8 : tensor<5632x2176xi8> -> tensor<5632x64x1x17xi16>
    %1849 = flow.dispatch @prefill_bs4$async_dispatch_43::@prefill_bs4$async_dispatch_43_slow_memcpy(%1848) : (tensor<5632x64x1x17xi16>) -> tensor<5632x64x1xi16>
    %1850 = flow.tensor.bitcast %1849 : tensor<5632x64x1xi16> -> tensor<5632x64xf16>
    %1851 = flow.tensor.bitcast %__parameter_model_blk_20_ffn_up_weight_tensor_5632x2176xi8 : tensor<5632x2176xi8> -> tensor<5632x64x17xi16>
    %1852 = flow.dispatch @prefill_bs4$async_dispatch_44::@prefill_bs4$async_dispatch_44_slow_memcpy(%1851) : (tensor<5632x64x17xi16>) -> tensor<5632x64x16xi16>
    %1853 = flow.tensor.bitcast %1852 : tensor<5632x64x16xi16> -> tensor<5632x64x32xi8>
    %1854 = flow.dispatch @decode_bs4$async_dispatch_50::@decode_bs4$async_dispatch_50_matmul_like_4x5632x64x32_f16xf16xf32(%1850, %1853, %1841) : (tensor<5632x64xf16>, tensor<5632x64x32xi8>, tensor<4x64x32xf16>) -> tensor<4x5632xf16>
    %1855 = flow.dispatch @decode_bs4$async_dispatch_51::@decode_bs4$async_dispatch_51_matmul_like_4x5632x64x32_f16xf16xf32(%1847, %1846, %1841, %1854) : (tensor<5632x64xf16>, tensor<5632x64x32xi8>, tensor<4x64x32xf16>, tensor<4x5632xf16>) -> tensor<4x5632xf16>
    %1856 = flow.tensor.reshape %1855 : tensor<4x5632xf16> -> tensor<4x176x32xf16>
    %1857 = flow.tensor.bitcast %__parameter_model_blk_20_ffn_down_weight_tensor_2048x5984xi8 : tensor<2048x5984xi8> -> tensor<2048x176x17xi16>
    %1858 = flow.tensor.bitcast %__parameter_model_blk_20_ffn_down_weight_tensor_2048x5984xi8 : tensor<2048x5984xi8> -> tensor<2048x176x1x17xi16>
    %1859 = flow.dispatch @prefill_bs4$async_dispatch_49::@prefill_bs4$async_dispatch_49_slow_memcpy(%1858) : (tensor<2048x176x1x17xi16>) -> tensor<2048x176x1xi16>
    %1860 = flow.dispatch @prefill_bs4$async_dispatch_50::@prefill_bs4$async_dispatch_50_slow_memcpy(%1857) : (tensor<2048x176x17xi16>) -> tensor<2048x176x16xi16>
    %1861 = flow.tensor.bitcast %1860 : tensor<2048x176x16xi16> -> tensor<2048x176x32xi8>
    %1862 = flow.tensor.bitcast %1859 : tensor<2048x176x1xi16> -> tensor<2048x176xf16>
    %1863 = flow.dispatch @decode_bs4$async_dispatch_54::@decode_bs4$async_dispatch_54_matmul_like_4x2048x176x32_f16xf16xf32(%1862, %1861, %1856, %1834) : (tensor<2048x176xf16>, tensor<2048x176x32xi8>, tensor<4x176x32xf16>, tensor<4x2048xf16>) -> tensor<4x2048xf16>
    %1864 = flow.tensor.reshape %1863 : tensor<4x2048xf16> -> tensor<8192xf16>
    %1865 = flow.dispatch @decode_bs4$async_dispatch_4::@decode_bs4$async_dispatch_4_elementwise_8192_f16xf32(%1864) : (tensor<8192xf16>) -> tensor<8192xf32>
    %1866 = flow.tensor.reshape %1865 : tensor<8192xf32> -> tensor<4x2048xf32>
    %1867 = flow.dispatch @decode_bs4$async_dispatch_5::@decode_bs4$async_dispatch_5_reduction_4x2048_f32(%1863) : (tensor<4x2048xf16>) -> tensor<4xf32>
    %1868 = flow.dispatch @decode_bs4$async_dispatch_6::@decode_bs4$async_dispatch_6_elementwise_4x2048_f32xf32xf16(%1866, %1867) : (tensor<4x2048xf32>, tensor<4xf32>) -> tensor<4x2048xf16>
    %1869 = flow.dispatch @decode_bs4$async_dispatch_7::@decode_bs4$async_dispatch_7_elementwise_4x2048_f32xf16xf16(%__parameter_model_blk_21_attn_norm_weight_tensor_2048xf32, %1868) : (tensor<2048xf32>, tensor<4x2048xf16>) -> tensor<4x2048xf16>
    %1870 = flow.tensor.reshape %1869 : tensor<4x2048xf16> -> tensor<4x64x32xf16>
    %1871 = flow.tensor.bitcast %__parameter_model_blk_21_attn_q_weight_tensor_2048x2176xi8 : tensor<2048x2176xi8> -> tensor<2048x64x17xi16>
    %1872 = flow.tensor.bitcast %__parameter_model_blk_21_attn_q_weight_tensor_2048x2176xi8 : tensor<2048x2176xi8> -> tensor<2048x64x1x17xi16>
    %1873 = flow.dispatch @prefill_bs4$async_dispatch_8::@prefill_bs4$async_dispatch_8_slow_memcpy(%1872) : (tensor<2048x64x1x17xi16>) -> tensor<2048x64x1xi16>
    %1874 = flow.dispatch @prefill_bs4$async_dispatch_9::@prefill_bs4$async_dispatch_9_slow_memcpy(%1871) : (tensor<2048x64x17xi16>) -> tensor<2048x64x16xi16>
    %1875 = flow.tensor.bitcast %1874 : tensor<2048x64x16xi16> -> tensor<2048x64x32xi8>
    %1876 = flow.tensor.bitcast %1873 : tensor<2048x64x1xi16> -> tensor<2048x64xf16>
    %1877 = flow.dispatch @decode_bs4$async_dispatch_10::@decode_bs4$async_dispatch_10_matmul_like_4x2048x64x32_f16xf16xf32(%1876, %1875, %1870) : (tensor<2048x64xf16>, tensor<2048x64x32xi8>, tensor<4x64x32xf16>) -> tensor<4x2048xf16>
    %1878 = flow.tensor.reshape %1877 : tensor<4x2048xf16> -> tensor<4x1x32x64xf16>
    %1879 = flow.tensor.bitcast %__parameter_model_blk_21_attn_k_weight_tensor_256x2176xi8 : tensor<256x2176xi8> -> tensor<256x64x17xi16>
    %1880 = flow.tensor.bitcast %__parameter_model_blk_21_attn_k_weight_tensor_256x2176xi8 : tensor<256x2176xi8> -> tensor<256x64x1x17xi16>
    %1881 = flow.dispatch @prefill_bs4$async_dispatch_11::@prefill_bs4$async_dispatch_11_slow_memcpy(%1880) : (tensor<256x64x1x17xi16>) -> tensor<256x64x1xi16>
    %1882 = flow.dispatch @prefill_bs4$async_dispatch_12::@prefill_bs4$async_dispatch_12_slow_memcpy(%1879) : (tensor<256x64x17xi16>) -> tensor<256x64x16xi16>
    %1883 = flow.tensor.bitcast %1882 : tensor<256x64x16xi16> -> tensor<256x64x32xi8>
    %1884 = flow.tensor.bitcast %1881 : tensor<256x64x1xi16> -> tensor<256x64xf16>
    %1885 = flow.dispatch @decode_bs4$async_dispatch_13::@decode_bs4$async_dispatch_13_matmul_like_4x256x64x32_f16xf16xf32(%1884, %1883, %1870) : (tensor<256x64xf16>, tensor<256x64x32xi8>, tensor<4x64x32xf16>) -> tensor<4x256xf16>
    %1886 = flow.tensor.reshape %1885 : tensor<4x256xf16> -> tensor<4x1x4x64xf16>
    %1887 = flow.tensor.bitcast %__parameter_model_blk_21_attn_v_weight_tensor_256x2176xi8 : tensor<256x2176xi8> -> tensor<256x64x17xi16>
    %1888 = flow.tensor.bitcast %__parameter_model_blk_21_attn_v_weight_tensor_256x2176xi8 : tensor<256x2176xi8> -> tensor<256x64x1x17xi16>
    %1889 = flow.dispatch @prefill_bs4$async_dispatch_11::@prefill_bs4$async_dispatch_11_slow_memcpy(%1888) : (tensor<256x64x1x17xi16>) -> tensor<256x64x1xi16>
    %1890 = flow.dispatch @prefill_bs4$async_dispatch_12::@prefill_bs4$async_dispatch_12_slow_memcpy(%1887) : (tensor<256x64x17xi16>) -> tensor<256x64x16xi16>
    %1891 = flow.tensor.bitcast %1890 : tensor<256x64x16xi16> -> tensor<256x64x32xi8>
    %1892 = flow.tensor.bitcast %1889 : tensor<256x64x1xi16> -> tensor<256x64xf16>
    %1893 = flow.dispatch @decode_bs4$async_dispatch_13::@decode_bs4$async_dispatch_13_matmul_like_4x256x64x32_f16xf16xf32(%1892, %1891, %1870) : (tensor<256x64xf16>, tensor<256x64x32xi8>, tensor<4x64x32xf16>) -> tensor<4x256xf16>
    %1894 = flow.tensor.reshape %1893 : tensor<4x256xf16> -> tensor<4x4x2x32x1xf16>
    %1895 = flow.dispatch @decode_bs4$async_dispatch_22::@decode_bs4$async_dispatch_22_slow_memcpy(%1878) : (tensor<4x1x32x64xf16>) -> tensor<4x32x32xf16>
    %1896 = flow.dispatch @decode_bs4$async_dispatch_23::@decode_bs4$async_dispatch_23_slow_memcpy(%1878) : (tensor<4x1x32x64xf16>) -> tensor<4x32x32xf16>
    %1897 = flow.dispatch @decode_bs4$async_dispatch_24::@decode_bs4$async_dispatch_24_elementwise_broadcast_4x32x2x32_f16(%1895, %59, %1896, %60) : (tensor<4x32x32xf16>, tensor<4x32xf16>, tensor<4x32x32xf16>, tensor<4x32xf16>) -> tensor<4x32x2x32xf16>
    %1898 = flow.dispatch @decode_bs4$async_dispatch_25::@decode_bs4$async_dispatch_25_slow_memcpy(%1886) : (tensor<4x1x4x64xf16>) -> tensor<4x4x32xf16>
    %1899 = flow.dispatch @decode_bs4$async_dispatch_26::@decode_bs4$async_dispatch_26_slow_memcpy(%1886) : (tensor<4x1x4x64xf16>) -> tensor<4x4x32xf16>
    %1900 = flow.dispatch @decode_bs4$async_dispatch_27::@decode_bs4$async_dispatch_27_elementwise_broadcast_4x4x2x32_f16(%1898, %59, %1899, %60) : (tensor<4x4x32xf16>, tensor<4x32xf16>, tensor<4x4x32xf16>, tensor<4x32xf16>) -> tensor<4x4x2x32xf16>
    %1901 = flow.tensor.reshape %1900 : tensor<4x4x2x32xf16> -> tensor<4x4x2x32x1xf16>
    %1902 = flow.dispatch @decode_bs4$async_dispatch_934::@decode_bs4$async_dispatch_934_elementwise_4_i64[%7](%4, %66, %7) : (tensor<4x?xi64>{%7}, tensor<4xi64>, index) -> tensor<4xi64>
    %1903 = flow.dispatch @decode_bs4$async_dispatch_31::@decode_bs4$async_dispatch_31_elementwise_broadcast_4x4_i64(%1902, %67) : (tensor<4xi64>, tensor<4xi64>) -> tensor<4x4xi64>
    %1904 = flow.dispatch @decode_bs4$async_dispatch_32::@decode_bs4$async_dispatch_32_scatter_Dx2x32x1xf16_dispatch_tensor_store[%70](%1901, %1903, %1819, %70) : (tensor<4x4x2x32x1xf16>, tensor<4x4xi64>, tensor<?x2x32x1xf16>{%70}, index) -> %1819{%70}
    %1905 = flow.dispatch @decode_bs4$async_dispatch_33::@decode_bs4$async_dispatch_33_elementwise_broadcast_4x4_i64(%1902, %67) : (tensor<4xi64>, tensor<4xi64>) -> tensor<4x4xi64>
    %1906 = flow.dispatch @decode_bs4$async_dispatch_32::@decode_bs4$async_dispatch_32_scatter_Dx2x32x1xf16_dispatch_tensor_store[%70](%1894, %1905, %1904, %70) : (tensor<4x4x2x32x1xf16>, tensor<4x4xi64>, tensor<?x2x32x1xf16>{%70}, index) -> %1904{%70}
    %1907 = flow.tensor.reshape %1906 : tensor<?x2x32x1xf16>{%70} -> tensor<?x22x2x4x32x64xf16>{%8}
    %1908 = flow.tensor.reshape %1906 : tensor<?x2x32x1xf16>{%70} -> tensor<?x360448xf16>{%8}
    %1909 = flow.dispatch @decode_bs4$async_dispatch_939::@decode_bs4$async_dispatch_939_gather_4xDx4x32x64xf16_generic[%8, %7](%1907, %8, %4, %7) : (tensor<?x22x2x4x32x64xf16>{%8}, index, tensor<4x?xi64>{%7}, index) -> tensor<4x4x8x?x32x64xf16>{%7}
    %1910 = flow.tensor.reshape %1909 : tensor<4x4x8x?x32x64xf16>{%7} -> tensor<128x?x64xf16>{%80}
    %1911 = flow.tensor.reshape %1897 : tensor<4x32x2x32xf16> -> tensor<128x64xf16>
    %1912 = flow.dispatch @decode_bs4$async_dispatch_940::@decode_bs4$async_dispatch_940_gather_4xDx4x32x64xf16_generic[%8, %7](%1907, %8, %4, %7) : (tensor<?x22x2x4x32x64xf16>{%8}, index, tensor<4x?xi64>{%7}, index) -> tensor<4x4x8x64x?x32xf16>{%7}
    %1913 = flow.tensor.reshape %1912 : tensor<4x4x8x64x?x32xf16>{%7} -> tensor<128x64x?xf16>{%80}
    %1914 = flow.dispatch @decode_bs4$async_dispatch_38::@decode_bs4$async_dispatch_38_attention_128xDx64xf16_dispatch_tensor_store[%80, %76](%1911, %1910, %1913, %85, %80, %76) : (tensor<128x64xf16>, tensor<128x?x64xf16>{%80}, tensor<128x64x?xf16>{%80}, tensor<128x?xf16>{%76}, index, index) -> tensor<128x64xf16>
    %1915 = flow.tensor.bitcast %__parameter_model_blk_21_attn_output_weight_tensor_2048x2176xi8 : tensor<2048x2176xi8> -> tensor<2048x64x17xi16>
    %1916 = flow.tensor.bitcast %__parameter_model_blk_21_attn_output_weight_tensor_2048x2176xi8 : tensor<2048x2176xi8> -> tensor<2048x64x1x17xi16>
    %1917 = flow.dispatch @prefill_bs4$async_dispatch_8::@prefill_bs4$async_dispatch_8_slow_memcpy(%1916) : (tensor<2048x64x1x17xi16>) -> tensor<2048x64x1xi16>
    %1918 = flow.dispatch @prefill_bs4$async_dispatch_9::@prefill_bs4$async_dispatch_9_slow_memcpy(%1915) : (tensor<2048x64x17xi16>) -> tensor<2048x64x16xi16>
    %1919 = flow.tensor.bitcast %1918 : tensor<2048x64x16xi16> -> tensor<2048x64x32xi8>
    %1920 = flow.tensor.bitcast %1917 : tensor<2048x64x1xi16> -> tensor<2048x64xf16>
    %1921 = flow.tensor.reshape %1914 : tensor<128x64xf16> -> tensor<4x64x32xf16>
    %1922 = flow.dispatch @decode_bs4$async_dispatch_41::@decode_bs4$async_dispatch_41_matmul_like_4x2048x64x32_f16xf16xf32(%1920, %1919, %1921, %1863) : (tensor<2048x64xf16>, tensor<2048x64x32xi8>, tensor<4x64x32xf16>, tensor<4x2048xf16>) -> tensor<4x2048xf16>
    %1923 = flow.tensor.reshape %1922 : tensor<4x2048xf16> -> tensor<8192xf16>
    %1924 = flow.dispatch @decode_bs4$async_dispatch_4::@decode_bs4$async_dispatch_4_elementwise_8192_f16xf32(%1923) : (tensor<8192xf16>) -> tensor<8192xf32>
    %1925 = flow.tensor.reshape %1924 : tensor<8192xf32> -> tensor<4x2048xf32>
    %1926 = flow.dispatch @decode_bs4$async_dispatch_5::@decode_bs4$async_dispatch_5_reduction_4x2048_f32(%1922) : (tensor<4x2048xf16>) -> tensor<4xf32>
    %1927 = flow.dispatch @decode_bs4$async_dispatch_6::@decode_bs4$async_dispatch_6_elementwise_4x2048_f32xf32xf16(%1925, %1926) : (tensor<4x2048xf32>, tensor<4xf32>) -> tensor<4x2048xf16>
    %1928 = flow.dispatch @decode_bs4$async_dispatch_7::@decode_bs4$async_dispatch_7_elementwise_4x2048_f32xf16xf16(%__parameter_model_blk_21_ffn_norm_weight_tensor_2048xf32, %1927) : (tensor<2048xf32>, tensor<4x2048xf16>) -> tensor<4x2048xf16>
    %1929 = flow.tensor.reshape %1928 : tensor<4x2048xf16> -> tensor<4x64x32xf16>
    %1930 = flow.tensor.bitcast %__parameter_model_blk_21_ffn_gate_weight_tensor_5632x2176xi8 : tensor<5632x2176xi8> -> tensor<5632x64x17xi16>
    %1931 = flow.tensor.bitcast %__parameter_model_blk_21_ffn_gate_weight_tensor_5632x2176xi8 : tensor<5632x2176xi8> -> tensor<5632x64x1x17xi16>
    %1932 = flow.dispatch @prefill_bs4$async_dispatch_43::@prefill_bs4$async_dispatch_43_slow_memcpy(%1931) : (tensor<5632x64x1x17xi16>) -> tensor<5632x64x1xi16>
    %1933 = flow.dispatch @prefill_bs4$async_dispatch_44::@prefill_bs4$async_dispatch_44_slow_memcpy(%1930) : (tensor<5632x64x17xi16>) -> tensor<5632x64x16xi16>
    %1934 = flow.tensor.bitcast %1933 : tensor<5632x64x16xi16> -> tensor<5632x64x32xi8>
    %1935 = flow.tensor.bitcast %1932 : tensor<5632x64x1xi16> -> tensor<5632x64xf16>
    %1936 = flow.tensor.bitcast %__parameter_model_blk_21_ffn_up_weight_tensor_5632x2176xi8 : tensor<5632x2176xi8> -> tensor<5632x64x1x17xi16>
    %1937 = flow.dispatch @prefill_bs4$async_dispatch_43::@prefill_bs4$async_dispatch_43_slow_memcpy(%1936) : (tensor<5632x64x1x17xi16>) -> tensor<5632x64x1xi16>
    %1938 = flow.tensor.bitcast %1937 : tensor<5632x64x1xi16> -> tensor<5632x64xf16>
    %1939 = flow.tensor.bitcast %__parameter_model_blk_21_ffn_up_weight_tensor_5632x2176xi8 : tensor<5632x2176xi8> -> tensor<5632x64x17xi16>
    %1940 = flow.dispatch @prefill_bs4$async_dispatch_44::@prefill_bs4$async_dispatch_44_slow_memcpy(%1939) : (tensor<5632x64x17xi16>) -> tensor<5632x64x16xi16>
    %1941 = flow.tensor.bitcast %1940 : tensor<5632x64x16xi16> -> tensor<5632x64x32xi8>
    %1942 = flow.dispatch @decode_bs4$async_dispatch_50::@decode_bs4$async_dispatch_50_matmul_like_4x5632x64x32_f16xf16xf32(%1938, %1941, %1929) : (tensor<5632x64xf16>, tensor<5632x64x32xi8>, tensor<4x64x32xf16>) -> tensor<4x5632xf16>
    %1943 = flow.dispatch @decode_bs4$async_dispatch_51::@decode_bs4$async_dispatch_51_matmul_like_4x5632x64x32_f16xf16xf32(%1935, %1934, %1929, %1942) : (tensor<5632x64xf16>, tensor<5632x64x32xi8>, tensor<4x64x32xf16>, tensor<4x5632xf16>) -> tensor<4x5632xf16>
    %1944 = flow.tensor.reshape %1943 : tensor<4x5632xf16> -> tensor<4x176x32xf16>
    %1945 = flow.tensor.bitcast %__parameter_model_blk_21_ffn_down_weight_tensor_2048x5984xi8 : tensor<2048x5984xi8> -> tensor<2048x176x17xi16>
    %1946 = flow.tensor.bitcast %__parameter_model_blk_21_ffn_down_weight_tensor_2048x5984xi8 : tensor<2048x5984xi8> -> tensor<2048x176x1x17xi16>
    %1947 = flow.dispatch @prefill_bs4$async_dispatch_49::@prefill_bs4$async_dispatch_49_slow_memcpy(%1946) : (tensor<2048x176x1x17xi16>) -> tensor<2048x176x1xi16>
    %1948 = flow.dispatch @prefill_bs4$async_dispatch_50::@prefill_bs4$async_dispatch_50_slow_memcpy(%1945) : (tensor<2048x176x17xi16>) -> tensor<2048x176x16xi16>
    %1949 = flow.tensor.bitcast %1948 : tensor<2048x176x16xi16> -> tensor<2048x176x32xi8>
    %1950 = flow.tensor.bitcast %1947 : tensor<2048x176x1xi16> -> tensor<2048x176xf16>
    %1951 = flow.dispatch @decode_bs4$async_dispatch_54::@decode_bs4$async_dispatch_54_matmul_like_4x2048x176x32_f16xf16xf32(%1950, %1949, %1944, %1922) : (tensor<2048x176xf16>, tensor<2048x176x32xi8>, tensor<4x176x32xf16>, tensor<4x2048xf16>) -> tensor<4x2048xf16>
    %1952 = flow.tensor.reshape %1951 : tensor<4x2048xf16> -> tensor<8192xf16>
    %1953 = flow.dispatch @decode_bs4$async_dispatch_4::@decode_bs4$async_dispatch_4_elementwise_8192_f16xf32(%1952) : (tensor<8192xf16>) -> tensor<8192xf32>
    %1954 = flow.tensor.reshape %1953 : tensor<8192xf32> -> tensor<4x2048xf32>
    %1955 = flow.dispatch @decode_bs4$async_dispatch_5::@decode_bs4$async_dispatch_5_reduction_4x2048_f32(%1951) : (tensor<4x2048xf16>) -> tensor<4xf32>
    %1956 = flow.dispatch @decode_bs4$async_dispatch_6::@decode_bs4$async_dispatch_6_elementwise_4x2048_f32xf32xf16(%1954, %1955) : (tensor<4x2048xf32>, tensor<4xf32>) -> tensor<4x2048xf16>
    %1957 = flow.dispatch @decode_bs4$async_dispatch_7::@decode_bs4$async_dispatch_7_elementwise_4x2048_f32xf16xf16(%__parameter_model_output_norm_weight_tensor_2048xf32, %1956) : (tensor<2048xf32>, tensor<4x2048xf16>) -> tensor<4x2048xf16>
    %1958 = flow.tensor.reshape %1957 : tensor<4x2048xf16> -> tensor<4x64x32xf16>
    %1959 = flow.tensor.bitcast %__parameter_model_output_weight_tensor_32000x2176xi8 : tensor<32000x2176xi8> -> tensor<32000x64x17xi16>
    %1960 = flow.tensor.bitcast %__parameter_model_output_weight_tensor_32000x2176xi8 : tensor<32000x2176xi8> -> tensor<32000x64x1x17xi16>
    %1961 = flow.dispatch @prefill_bs4$async_dispatch_0::@prefill_bs4$async_dispatch_0_slow_memcpy(%1960) : (tensor<32000x64x1x17xi16>) -> tensor<32000x64x1xi16>
    %1962 = flow.dispatch @prefill_bs4$async_dispatch_1::@prefill_bs4$async_dispatch_1_slow_memcpy(%1959) : (tensor<32000x64x17xi16>) -> tensor<32000x64x16xi16>
    %1963 = flow.tensor.bitcast %1962 : tensor<32000x64x16xi16> -> tensor<32000x64x32xi8>
    %1964 = flow.tensor.bitcast %1961 : tensor<32000x64x1xi16> -> tensor<32000x64xf16>
    %1965 = flow.dispatch @decode_bs4$async_dispatch_964::@decode_bs4$async_dispatch_964_matmul_like_4x32000x64x32_f16xf16xf32(%1964, %1963, %1958) : (tensor<32000x64xf16>, tensor<32000x64x32xi8>, tensor<4x64x32xf16>) -> tensor<4x32000xf16>
    %1966 = flow.tensor.reshape %1965 : tensor<4x32000xf16> -> tensor<4x1x32000xf16>
    %1967 = hal.tensor.alias on(#hal.device.affinity<@__device_0>) wait(%arg5) => %1908 : tensor<?x360448xf16>{%8} to %arg4 : !hal.buffer_view
    %1968:2 = hal.tensor.barrier join(%1967, %1966 : tensor<?x360448xf16>, tensor<4x1x32000xf16>) => %arg6 : !hal.fence
    %1969 = hal.tensor.export %1968#1 : tensor<4x1x32000xf16> -> !hal.buffer_view
    util.return %1969 : !hal.buffer_view
  }
  util.func public @decode_bs4(%arg0: !hal.buffer_view, %arg1: !hal.buffer_view, %arg2: !hal.buffer_view, %arg3: !hal.buffer_view, %arg4: !hal.buffer_view) -> !hal.buffer_view attributes {iree.abi.stub} {
    %0 = util.null : !hal.fence
    %c-1_i32 = arith.constant -1 : i32
    %c0 = arith.constant 0 : index
    %device_0 = hal.devices.get %c0 : !hal.device
    %fence = hal.fence.create device(%device_0 : !hal.device) flags("None") : !hal.fence
    %1 = util.call @decode_bs4$async(%arg0, %arg1, %arg2, %arg3, %arg4, %0, %fence) : (!hal.buffer_view, !hal.buffer_view, !hal.buffer_view, !hal.buffer_view, !hal.buffer_view, !hal.fence, !hal.fence) -> !hal.buffer_view
    %status = hal.fence.await until([%fence]) timeout_millis(%c-1_i32) flags("None") : i32
    util.return %1 : !hal.buffer_view
  }
}
