#map = affine_map<(d0, d1, d2) -> (d0, d1, 0)>
#map1 = affine_map<(d0, d1, d2) -> (d0, d1, d2)>
#map2 = affine_map<(d0, d1, d2, d3, d4) -> (d0, d1, d3, d4)>
#map3 = affine_map<(d0, d1, d2, d3, d4) -> (d2, d3, d4)>
#map4 = affine_map<(d0, d1, d2, d3, d4) -> (d0, d1, d2)>
#map5 = affine_map<(d0, d1, d2, d3, d4) -> (d0, d1, d2, d4)>
#map6 = affine_map<(d0, d1, d2, d3, d4) -> (d0, d1, d2, d3, d4)>
module @module {
  util.global private @__auto.token_embd.weight = #flow.parameter.named<"model"::"token_embd.weight"> : tensor<32000x2176xi8>
  util.global private @__auto.blk.0.attn_norm.weight = #flow.parameter.named<"model"::"blk.0.attn_norm.weight"> : tensor<2048xf32>
  util.global private @__auto.blk.0.attn_q.weight = #flow.parameter.named<"model"::"blk.0.attn_q.weight"> : tensor<2048x2176xi8>
  util.global private @__auto.blk.0.attn_k.weight = #flow.parameter.named<"model"::"blk.0.attn_k.weight"> : tensor<256x2176xi8>
  util.global private @__auto.blk.0.attn_v.weight = #flow.parameter.named<"model"::"blk.0.attn_v.weight"> : tensor<256x2176xi8>
  util.global private @__auto.blk.0.attn_output.weight = #flow.parameter.named<"model"::"blk.0.attn_output.weight"> : tensor<2048x2176xi8>
  util.global private @__auto.blk.0.ffn_norm.weight = #flow.parameter.named<"model"::"blk.0.ffn_norm.weight"> : tensor<2048xf32>
  util.global private @__auto.blk.0.ffn_gate.weight = #flow.parameter.named<"model"::"blk.0.ffn_gate.weight"> : tensor<5632x2176xi8>
  util.global private @__auto.blk.0.ffn_up.weight = #flow.parameter.named<"model"::"blk.0.ffn_up.weight"> : tensor<5632x2176xi8>
  util.global private @__auto.blk.0.ffn_down.weight = #flow.parameter.named<"model"::"blk.0.ffn_down.weight"> : tensor<2048x5984xi8>
  util.global private @__auto.blk.1.attn_norm.weight = #flow.parameter.named<"model"::"blk.1.attn_norm.weight"> : tensor<2048xf32>
  util.global private @__auto.blk.1.attn_q.weight = #flow.parameter.named<"model"::"blk.1.attn_q.weight"> : tensor<2048x2176xi8>
  util.global private @__auto.blk.1.attn_k.weight = #flow.parameter.named<"model"::"blk.1.attn_k.weight"> : tensor<256x2176xi8>
  util.global private @__auto.blk.1.attn_v.weight = #flow.parameter.named<"model"::"blk.1.attn_v.weight"> : tensor<256x2176xi8>
  util.global private @__auto.blk.1.attn_output.weight = #flow.parameter.named<"model"::"blk.1.attn_output.weight"> : tensor<2048x2176xi8>
  util.global private @__auto.blk.1.ffn_norm.weight = #flow.parameter.named<"model"::"blk.1.ffn_norm.weight"> : tensor<2048xf32>
  util.global private @__auto.blk.1.ffn_gate.weight = #flow.parameter.named<"model"::"blk.1.ffn_gate.weight"> : tensor<5632x2176xi8>
  util.global private @__auto.blk.1.ffn_up.weight = #flow.parameter.named<"model"::"blk.1.ffn_up.weight"> : tensor<5632x2176xi8>
  util.global private @__auto.blk.1.ffn_down.weight = #flow.parameter.named<"model"::"blk.1.ffn_down.weight"> : tensor<2048x5984xi8>
  util.global private @__auto.blk.2.attn_norm.weight = #flow.parameter.named<"model"::"blk.2.attn_norm.weight"> : tensor<2048xf32>
  util.global private @__auto.blk.2.attn_q.weight = #flow.parameter.named<"model"::"blk.2.attn_q.weight"> : tensor<2048x2176xi8>
  util.global private @__auto.blk.2.attn_k.weight = #flow.parameter.named<"model"::"blk.2.attn_k.weight"> : tensor<256x2176xi8>
  util.global private @__auto.blk.2.attn_v.weight = #flow.parameter.named<"model"::"blk.2.attn_v.weight"> : tensor<256x2176xi8>
  util.global private @__auto.blk.2.attn_output.weight = #flow.parameter.named<"model"::"blk.2.attn_output.weight"> : tensor<2048x2176xi8>
  util.global private @__auto.blk.2.ffn_norm.weight = #flow.parameter.named<"model"::"blk.2.ffn_norm.weight"> : tensor<2048xf32>
  util.global private @__auto.blk.2.ffn_gate.weight = #flow.parameter.named<"model"::"blk.2.ffn_gate.weight"> : tensor<5632x2176xi8>
  util.global private @__auto.blk.2.ffn_up.weight = #flow.parameter.named<"model"::"blk.2.ffn_up.weight"> : tensor<5632x2176xi8>
  util.global private @__auto.blk.2.ffn_down.weight = #flow.parameter.named<"model"::"blk.2.ffn_down.weight"> : tensor<2048x5984xi8>
  util.global private @__auto.blk.3.attn_norm.weight = #flow.parameter.named<"model"::"blk.3.attn_norm.weight"> : tensor<2048xf32>
  util.global private @__auto.blk.3.attn_q.weight = #flow.parameter.named<"model"::"blk.3.attn_q.weight"> : tensor<2048x2176xi8>
  util.global private @__auto.blk.3.attn_k.weight = #flow.parameter.named<"model"::"blk.3.attn_k.weight"> : tensor<256x2176xi8>
  util.global private @__auto.blk.3.attn_v.weight = #flow.parameter.named<"model"::"blk.3.attn_v.weight"> : tensor<256x2176xi8>
  util.global private @__auto.blk.3.attn_output.weight = #flow.parameter.named<"model"::"blk.3.attn_output.weight"> : tensor<2048x2176xi8>
  util.global private @__auto.blk.3.ffn_norm.weight = #flow.parameter.named<"model"::"blk.3.ffn_norm.weight"> : tensor<2048xf32>
  util.global private @__auto.blk.3.ffn_gate.weight = #flow.parameter.named<"model"::"blk.3.ffn_gate.weight"> : tensor<5632x2176xi8>
  util.global private @__auto.blk.3.ffn_up.weight = #flow.parameter.named<"model"::"blk.3.ffn_up.weight"> : tensor<5632x2176xi8>
  util.global private @__auto.blk.3.ffn_down.weight = #flow.parameter.named<"model"::"blk.3.ffn_down.weight"> : tensor<2048x5984xi8>
  util.global private @__auto.blk.4.attn_norm.weight = #flow.parameter.named<"model"::"blk.4.attn_norm.weight"> : tensor<2048xf32>
  util.global private @__auto.blk.4.attn_q.weight = #flow.parameter.named<"model"::"blk.4.attn_q.weight"> : tensor<2048x2176xi8>
  util.global private @__auto.blk.4.attn_k.weight = #flow.parameter.named<"model"::"blk.4.attn_k.weight"> : tensor<256x2176xi8>
  util.global private @__auto.blk.4.attn_v.weight = #flow.parameter.named<"model"::"blk.4.attn_v.weight"> : tensor<256x2176xi8>
  util.global private @__auto.blk.4.attn_output.weight = #flow.parameter.named<"model"::"blk.4.attn_output.weight"> : tensor<2048x2176xi8>
  util.global private @__auto.blk.4.ffn_norm.weight = #flow.parameter.named<"model"::"blk.4.ffn_norm.weight"> : tensor<2048xf32>
  util.global private @__auto.blk.4.ffn_gate.weight = #flow.parameter.named<"model"::"blk.4.ffn_gate.weight"> : tensor<5632x2176xi8>
  util.global private @__auto.blk.4.ffn_up.weight = #flow.parameter.named<"model"::"blk.4.ffn_up.weight"> : tensor<5632x2176xi8>
  util.global private @__auto.blk.4.ffn_down.weight = #flow.parameter.named<"model"::"blk.4.ffn_down.weight"> : tensor<2048x5984xi8>
  util.global private @__auto.blk.5.attn_norm.weight = #flow.parameter.named<"model"::"blk.5.attn_norm.weight"> : tensor<2048xf32>
  util.global private @__auto.blk.5.attn_q.weight = #flow.parameter.named<"model"::"blk.5.attn_q.weight"> : tensor<2048x2176xi8>
  util.global private @__auto.blk.5.attn_k.weight = #flow.parameter.named<"model"::"blk.5.attn_k.weight"> : tensor<256x2176xi8>
  util.global private @__auto.blk.5.attn_v.weight = #flow.parameter.named<"model"::"blk.5.attn_v.weight"> : tensor<256x2176xi8>
  util.global private @__auto.blk.5.attn_output.weight = #flow.parameter.named<"model"::"blk.5.attn_output.weight"> : tensor<2048x2176xi8>
  util.global private @__auto.blk.5.ffn_norm.weight = #flow.parameter.named<"model"::"blk.5.ffn_norm.weight"> : tensor<2048xf32>
  util.global private @__auto.blk.5.ffn_gate.weight = #flow.parameter.named<"model"::"blk.5.ffn_gate.weight"> : tensor<5632x2176xi8>
  util.global private @__auto.blk.5.ffn_up.weight = #flow.parameter.named<"model"::"blk.5.ffn_up.weight"> : tensor<5632x2176xi8>
  util.global private @__auto.blk.5.ffn_down.weight = #flow.parameter.named<"model"::"blk.5.ffn_down.weight"> : tensor<2048x5984xi8>
  util.global private @__auto.blk.6.attn_norm.weight = #flow.parameter.named<"model"::"blk.6.attn_norm.weight"> : tensor<2048xf32>
  util.global private @__auto.blk.6.attn_q.weight = #flow.parameter.named<"model"::"blk.6.attn_q.weight"> : tensor<2048x2176xi8>
  util.global private @__auto.blk.6.attn_k.weight = #flow.parameter.named<"model"::"blk.6.attn_k.weight"> : tensor<256x2176xi8>
  util.global private @__auto.blk.6.attn_v.weight = #flow.parameter.named<"model"::"blk.6.attn_v.weight"> : tensor<256x2176xi8>
  util.global private @__auto.blk.6.attn_output.weight = #flow.parameter.named<"model"::"blk.6.attn_output.weight"> : tensor<2048x2176xi8>
  util.global private @__auto.blk.6.ffn_norm.weight = #flow.parameter.named<"model"::"blk.6.ffn_norm.weight"> : tensor<2048xf32>
  util.global private @__auto.blk.6.ffn_gate.weight = #flow.parameter.named<"model"::"blk.6.ffn_gate.weight"> : tensor<5632x2176xi8>
  util.global private @__auto.blk.6.ffn_up.weight = #flow.parameter.named<"model"::"blk.6.ffn_up.weight"> : tensor<5632x2176xi8>
  util.global private @__auto.blk.6.ffn_down.weight = #flow.parameter.named<"model"::"blk.6.ffn_down.weight"> : tensor<2048x5984xi8>
  util.global private @__auto.blk.7.attn_norm.weight = #flow.parameter.named<"model"::"blk.7.attn_norm.weight"> : tensor<2048xf32>
  util.global private @__auto.blk.7.attn_q.weight = #flow.parameter.named<"model"::"blk.7.attn_q.weight"> : tensor<2048x2176xi8>
  util.global private @__auto.blk.7.attn_k.weight = #flow.parameter.named<"model"::"blk.7.attn_k.weight"> : tensor<256x2176xi8>
  util.global private @__auto.blk.7.attn_v.weight = #flow.parameter.named<"model"::"blk.7.attn_v.weight"> : tensor<256x2176xi8>
  util.global private @__auto.blk.7.attn_output.weight = #flow.parameter.named<"model"::"blk.7.attn_output.weight"> : tensor<2048x2176xi8>
  util.global private @__auto.blk.7.ffn_norm.weight = #flow.parameter.named<"model"::"blk.7.ffn_norm.weight"> : tensor<2048xf32>
  util.global private @__auto.blk.7.ffn_gate.weight = #flow.parameter.named<"model"::"blk.7.ffn_gate.weight"> : tensor<5632x2176xi8>
  util.global private @__auto.blk.7.ffn_up.weight = #flow.parameter.named<"model"::"blk.7.ffn_up.weight"> : tensor<5632x2176xi8>
  util.global private @__auto.blk.7.ffn_down.weight = #flow.parameter.named<"model"::"blk.7.ffn_down.weight"> : tensor<2048x5984xi8>
  util.global private @__auto.blk.8.attn_norm.weight = #flow.parameter.named<"model"::"blk.8.attn_norm.weight"> : tensor<2048xf32>
  util.global private @__auto.blk.8.attn_q.weight = #flow.parameter.named<"model"::"blk.8.attn_q.weight"> : tensor<2048x2176xi8>
  util.global private @__auto.blk.8.attn_k.weight = #flow.parameter.named<"model"::"blk.8.attn_k.weight"> : tensor<256x2176xi8>
  util.global private @__auto.blk.8.attn_v.weight = #flow.parameter.named<"model"::"blk.8.attn_v.weight"> : tensor<256x2176xi8>
  util.global private @__auto.blk.8.attn_output.weight = #flow.parameter.named<"model"::"blk.8.attn_output.weight"> : tensor<2048x2176xi8>
  util.global private @__auto.blk.8.ffn_norm.weight = #flow.parameter.named<"model"::"blk.8.ffn_norm.weight"> : tensor<2048xf32>
  util.global private @__auto.blk.8.ffn_gate.weight = #flow.parameter.named<"model"::"blk.8.ffn_gate.weight"> : tensor<5632x2176xi8>
  util.global private @__auto.blk.8.ffn_up.weight = #flow.parameter.named<"model"::"blk.8.ffn_up.weight"> : tensor<5632x2176xi8>
  util.global private @__auto.blk.8.ffn_down.weight = #flow.parameter.named<"model"::"blk.8.ffn_down.weight"> : tensor<2048x5984xi8>
  util.global private @__auto.blk.9.attn_norm.weight = #flow.parameter.named<"model"::"blk.9.attn_norm.weight"> : tensor<2048xf32>
  util.global private @__auto.blk.9.attn_q.weight = #flow.parameter.named<"model"::"blk.9.attn_q.weight"> : tensor<2048x2176xi8>
  util.global private @__auto.blk.9.attn_k.weight = #flow.parameter.named<"model"::"blk.9.attn_k.weight"> : tensor<256x2176xi8>
  util.global private @__auto.blk.9.attn_v.weight = #flow.parameter.named<"model"::"blk.9.attn_v.weight"> : tensor<256x2176xi8>
  util.global private @__auto.blk.9.attn_output.weight = #flow.parameter.named<"model"::"blk.9.attn_output.weight"> : tensor<2048x2176xi8>
  util.global private @__auto.blk.9.ffn_norm.weight = #flow.parameter.named<"model"::"blk.9.ffn_norm.weight"> : tensor<2048xf32>
  util.global private @__auto.blk.9.ffn_gate.weight = #flow.parameter.named<"model"::"blk.9.ffn_gate.weight"> : tensor<5632x2176xi8>
  util.global private @__auto.blk.9.ffn_up.weight = #flow.parameter.named<"model"::"blk.9.ffn_up.weight"> : tensor<5632x2176xi8>
  util.global private @__auto.blk.9.ffn_down.weight = #flow.parameter.named<"model"::"blk.9.ffn_down.weight"> : tensor<2048x5984xi8>
  util.global private @__auto.blk.10.attn_norm.weight = #flow.parameter.named<"model"::"blk.10.attn_norm.weight"> : tensor<2048xf32>
  util.global private @__auto.blk.10.attn_q.weight = #flow.parameter.named<"model"::"blk.10.attn_q.weight"> : tensor<2048x2176xi8>
  util.global private @__auto.blk.10.attn_k.weight = #flow.parameter.named<"model"::"blk.10.attn_k.weight"> : tensor<256x2176xi8>
  util.global private @__auto.blk.10.attn_v.weight = #flow.parameter.named<"model"::"blk.10.attn_v.weight"> : tensor<256x2176xi8>
  util.global private @__auto.blk.10.attn_output.weight = #flow.parameter.named<"model"::"blk.10.attn_output.weight"> : tensor<2048x2176xi8>
  util.global private @__auto.blk.10.ffn_norm.weight = #flow.parameter.named<"model"::"blk.10.ffn_norm.weight"> : tensor<2048xf32>
  util.global private @__auto.blk.10.ffn_gate.weight = #flow.parameter.named<"model"::"blk.10.ffn_gate.weight"> : tensor<5632x2176xi8>
  util.global private @__auto.blk.10.ffn_up.weight = #flow.parameter.named<"model"::"blk.10.ffn_up.weight"> : tensor<5632x2176xi8>
  util.global private @__auto.blk.10.ffn_down.weight = #flow.parameter.named<"model"::"blk.10.ffn_down.weight"> : tensor<2048x5984xi8>
  util.global private @__auto.blk.11.attn_norm.weight = #flow.parameter.named<"model"::"blk.11.attn_norm.weight"> : tensor<2048xf32>
  util.global private @__auto.blk.11.attn_q.weight = #flow.parameter.named<"model"::"blk.11.attn_q.weight"> : tensor<2048x2176xi8>
  util.global private @__auto.blk.11.attn_k.weight = #flow.parameter.named<"model"::"blk.11.attn_k.weight"> : tensor<256x2176xi8>
  util.global private @__auto.blk.11.attn_v.weight = #flow.parameter.named<"model"::"blk.11.attn_v.weight"> : tensor<256x2176xi8>
  util.global private @__auto.blk.11.attn_output.weight = #flow.parameter.named<"model"::"blk.11.attn_output.weight"> : tensor<2048x2176xi8>
  util.global private @__auto.blk.11.ffn_norm.weight = #flow.parameter.named<"model"::"blk.11.ffn_norm.weight"> : tensor<2048xf32>
  util.global private @__auto.blk.11.ffn_gate.weight = #flow.parameter.named<"model"::"blk.11.ffn_gate.weight"> : tensor<5632x2176xi8>
  util.global private @__auto.blk.11.ffn_up.weight = #flow.parameter.named<"model"::"blk.11.ffn_up.weight"> : tensor<5632x2176xi8>
  util.global private @__auto.blk.11.ffn_down.weight = #flow.parameter.named<"model"::"blk.11.ffn_down.weight"> : tensor<2048x5984xi8>
  util.global private @__auto.blk.12.attn_norm.weight = #flow.parameter.named<"model"::"blk.12.attn_norm.weight"> : tensor<2048xf32>
  util.global private @__auto.blk.12.attn_q.weight = #flow.parameter.named<"model"::"blk.12.attn_q.weight"> : tensor<2048x2176xi8>
  util.global private @__auto.blk.12.attn_k.weight = #flow.parameter.named<"model"::"blk.12.attn_k.weight"> : tensor<256x2176xi8>
  util.global private @__auto.blk.12.attn_v.weight = #flow.parameter.named<"model"::"blk.12.attn_v.weight"> : tensor<256x2176xi8>
  util.global private @__auto.blk.12.attn_output.weight = #flow.parameter.named<"model"::"blk.12.attn_output.weight"> : tensor<2048x2176xi8>
  util.global private @__auto.blk.12.ffn_norm.weight = #flow.parameter.named<"model"::"blk.12.ffn_norm.weight"> : tensor<2048xf32>
  util.global private @__auto.blk.12.ffn_gate.weight = #flow.parameter.named<"model"::"blk.12.ffn_gate.weight"> : tensor<5632x2176xi8>
  util.global private @__auto.blk.12.ffn_up.weight = #flow.parameter.named<"model"::"blk.12.ffn_up.weight"> : tensor<5632x2176xi8>
  util.global private @__auto.blk.12.ffn_down.weight = #flow.parameter.named<"model"::"blk.12.ffn_down.weight"> : tensor<2048x5984xi8>
  util.global private @__auto.blk.13.attn_norm.weight = #flow.parameter.named<"model"::"blk.13.attn_norm.weight"> : tensor<2048xf32>
  util.global private @__auto.blk.13.attn_q.weight = #flow.parameter.named<"model"::"blk.13.attn_q.weight"> : tensor<2048x2176xi8>
  util.global private @__auto.blk.13.attn_k.weight = #flow.parameter.named<"model"::"blk.13.attn_k.weight"> : tensor<256x2176xi8>
  util.global private @__auto.blk.13.attn_v.weight = #flow.parameter.named<"model"::"blk.13.attn_v.weight"> : tensor<256x2176xi8>
  util.global private @__auto.blk.13.attn_output.weight = #flow.parameter.named<"model"::"blk.13.attn_output.weight"> : tensor<2048x2176xi8>
  util.global private @__auto.blk.13.ffn_norm.weight = #flow.parameter.named<"model"::"blk.13.ffn_norm.weight"> : tensor<2048xf32>
  util.global private @__auto.blk.13.ffn_gate.weight = #flow.parameter.named<"model"::"blk.13.ffn_gate.weight"> : tensor<5632x2176xi8>
  util.global private @__auto.blk.13.ffn_up.weight = #flow.parameter.named<"model"::"blk.13.ffn_up.weight"> : tensor<5632x2176xi8>
  util.global private @__auto.blk.13.ffn_down.weight = #flow.parameter.named<"model"::"blk.13.ffn_down.weight"> : tensor<2048x5984xi8>
  util.global private @__auto.blk.14.attn_norm.weight = #flow.parameter.named<"model"::"blk.14.attn_norm.weight"> : tensor<2048xf32>
  util.global private @__auto.blk.14.attn_q.weight = #flow.parameter.named<"model"::"blk.14.attn_q.weight"> : tensor<2048x2176xi8>
  util.global private @__auto.blk.14.attn_k.weight = #flow.parameter.named<"model"::"blk.14.attn_k.weight"> : tensor<256x2176xi8>
  util.global private @__auto.blk.14.attn_v.weight = #flow.parameter.named<"model"::"blk.14.attn_v.weight"> : tensor<256x2176xi8>
  util.global private @__auto.blk.14.attn_output.weight = #flow.parameter.named<"model"::"blk.14.attn_output.weight"> : tensor<2048x2176xi8>
  util.global private @__auto.blk.14.ffn_norm.weight = #flow.parameter.named<"model"::"blk.14.ffn_norm.weight"> : tensor<2048xf32>
  util.global private @__auto.blk.14.ffn_gate.weight = #flow.parameter.named<"model"::"blk.14.ffn_gate.weight"> : tensor<5632x2176xi8>
  util.global private @__auto.blk.14.ffn_up.weight = #flow.parameter.named<"model"::"blk.14.ffn_up.weight"> : tensor<5632x2176xi8>
  util.global private @__auto.blk.14.ffn_down.weight = #flow.parameter.named<"model"::"blk.14.ffn_down.weight"> : tensor<2048x5984xi8>
  util.global private @__auto.blk.15.attn_norm.weight = #flow.parameter.named<"model"::"blk.15.attn_norm.weight"> : tensor<2048xf32>
  util.global private @__auto.blk.15.attn_q.weight = #flow.parameter.named<"model"::"blk.15.attn_q.weight"> : tensor<2048x2176xi8>
  util.global private @__auto.blk.15.attn_k.weight = #flow.parameter.named<"model"::"blk.15.attn_k.weight"> : tensor<256x2176xi8>
  util.global private @__auto.blk.15.attn_v.weight = #flow.parameter.named<"model"::"blk.15.attn_v.weight"> : tensor<256x2176xi8>
  util.global private @__auto.blk.15.attn_output.weight = #flow.parameter.named<"model"::"blk.15.attn_output.weight"> : tensor<2048x2176xi8>
  util.global private @__auto.blk.15.ffn_norm.weight = #flow.parameter.named<"model"::"blk.15.ffn_norm.weight"> : tensor<2048xf32>
  util.global private @__auto.blk.15.ffn_gate.weight = #flow.parameter.named<"model"::"blk.15.ffn_gate.weight"> : tensor<5632x2176xi8>
  util.global private @__auto.blk.15.ffn_up.weight = #flow.parameter.named<"model"::"blk.15.ffn_up.weight"> : tensor<5632x2176xi8>
  util.global private @__auto.blk.15.ffn_down.weight = #flow.parameter.named<"model"::"blk.15.ffn_down.weight"> : tensor<2048x5984xi8>
  util.global private @__auto.blk.16.attn_norm.weight = #flow.parameter.named<"model"::"blk.16.attn_norm.weight"> : tensor<2048xf32>
  util.global private @__auto.blk.16.attn_q.weight = #flow.parameter.named<"model"::"blk.16.attn_q.weight"> : tensor<2048x2176xi8>
  util.global private @__auto.blk.16.attn_k.weight = #flow.parameter.named<"model"::"blk.16.attn_k.weight"> : tensor<256x2176xi8>
  util.global private @__auto.blk.16.attn_v.weight = #flow.parameter.named<"model"::"blk.16.attn_v.weight"> : tensor<256x2176xi8>
  util.global private @__auto.blk.16.attn_output.weight = #flow.parameter.named<"model"::"blk.16.attn_output.weight"> : tensor<2048x2176xi8>
  util.global private @__auto.blk.16.ffn_norm.weight = #flow.parameter.named<"model"::"blk.16.ffn_norm.weight"> : tensor<2048xf32>
  util.global private @__auto.blk.16.ffn_gate.weight = #flow.parameter.named<"model"::"blk.16.ffn_gate.weight"> : tensor<5632x2176xi8>
  util.global private @__auto.blk.16.ffn_up.weight = #flow.parameter.named<"model"::"blk.16.ffn_up.weight"> : tensor<5632x2176xi8>
  util.global private @__auto.blk.16.ffn_down.weight = #flow.parameter.named<"model"::"blk.16.ffn_down.weight"> : tensor<2048x5984xi8>
  util.global private @__auto.blk.17.attn_norm.weight = #flow.parameter.named<"model"::"blk.17.attn_norm.weight"> : tensor<2048xf32>
  util.global private @__auto.blk.17.attn_q.weight = #flow.parameter.named<"model"::"blk.17.attn_q.weight"> : tensor<2048x2176xi8>
  util.global private @__auto.blk.17.attn_k.weight = #flow.parameter.named<"model"::"blk.17.attn_k.weight"> : tensor<256x2176xi8>
  util.global private @__auto.blk.17.attn_v.weight = #flow.parameter.named<"model"::"blk.17.attn_v.weight"> : tensor<256x2176xi8>
  util.global private @__auto.blk.17.attn_output.weight = #flow.parameter.named<"model"::"blk.17.attn_output.weight"> : tensor<2048x2176xi8>
  util.global private @__auto.blk.17.ffn_norm.weight = #flow.parameter.named<"model"::"blk.17.ffn_norm.weight"> : tensor<2048xf32>
  util.global private @__auto.blk.17.ffn_gate.weight = #flow.parameter.named<"model"::"blk.17.ffn_gate.weight"> : tensor<5632x2176xi8>
  util.global private @__auto.blk.17.ffn_up.weight = #flow.parameter.named<"model"::"blk.17.ffn_up.weight"> : tensor<5632x2176xi8>
  util.global private @__auto.blk.17.ffn_down.weight = #flow.parameter.named<"model"::"blk.17.ffn_down.weight"> : tensor<2048x5984xi8>
  util.global private @__auto.blk.18.attn_norm.weight = #flow.parameter.named<"model"::"blk.18.attn_norm.weight"> : tensor<2048xf32>
  util.global private @__auto.blk.18.attn_q.weight = #flow.parameter.named<"model"::"blk.18.attn_q.weight"> : tensor<2048x2176xi8>
  util.global private @__auto.blk.18.attn_k.weight = #flow.parameter.named<"model"::"blk.18.attn_k.weight"> : tensor<256x2176xi8>
  util.global private @__auto.blk.18.attn_v.weight = #flow.parameter.named<"model"::"blk.18.attn_v.weight"> : tensor<256x2176xi8>
  util.global private @__auto.blk.18.attn_output.weight = #flow.parameter.named<"model"::"blk.18.attn_output.weight"> : tensor<2048x2176xi8>
  util.global private @__auto.blk.18.ffn_norm.weight = #flow.parameter.named<"model"::"blk.18.ffn_norm.weight"> : tensor<2048xf32>
  util.global private @__auto.blk.18.ffn_gate.weight = #flow.parameter.named<"model"::"blk.18.ffn_gate.weight"> : tensor<5632x2176xi8>
  util.global private @__auto.blk.18.ffn_up.weight = #flow.parameter.named<"model"::"blk.18.ffn_up.weight"> : tensor<5632x2176xi8>
  util.global private @__auto.blk.18.ffn_down.weight = #flow.parameter.named<"model"::"blk.18.ffn_down.weight"> : tensor<2048x5984xi8>
  util.global private @__auto.blk.19.attn_norm.weight = #flow.parameter.named<"model"::"blk.19.attn_norm.weight"> : tensor<2048xf32>
  util.global private @__auto.blk.19.attn_q.weight = #flow.parameter.named<"model"::"blk.19.attn_q.weight"> : tensor<2048x2176xi8>
  util.global private @__auto.blk.19.attn_k.weight = #flow.parameter.named<"model"::"blk.19.attn_k.weight"> : tensor<256x2176xi8>
  util.global private @__auto.blk.19.attn_v.weight = #flow.parameter.named<"model"::"blk.19.attn_v.weight"> : tensor<256x2176xi8>
  util.global private @__auto.blk.19.attn_output.weight = #flow.parameter.named<"model"::"blk.19.attn_output.weight"> : tensor<2048x2176xi8>
  util.global private @__auto.blk.19.ffn_norm.weight = #flow.parameter.named<"model"::"blk.19.ffn_norm.weight"> : tensor<2048xf32>
  util.global private @__auto.blk.19.ffn_gate.weight = #flow.parameter.named<"model"::"blk.19.ffn_gate.weight"> : tensor<5632x2176xi8>
  util.global private @__auto.blk.19.ffn_up.weight = #flow.parameter.named<"model"::"blk.19.ffn_up.weight"> : tensor<5632x2176xi8>
  util.global private @__auto.blk.19.ffn_down.weight = #flow.parameter.named<"model"::"blk.19.ffn_down.weight"> : tensor<2048x5984xi8>
  util.global private @__auto.blk.20.attn_norm.weight = #flow.parameter.named<"model"::"blk.20.attn_norm.weight"> : tensor<2048xf32>
  util.global private @__auto.blk.20.attn_q.weight = #flow.parameter.named<"model"::"blk.20.attn_q.weight"> : tensor<2048x2176xi8>
  util.global private @__auto.blk.20.attn_k.weight = #flow.parameter.named<"model"::"blk.20.attn_k.weight"> : tensor<256x2176xi8>
  util.global private @__auto.blk.20.attn_v.weight = #flow.parameter.named<"model"::"blk.20.attn_v.weight"> : tensor<256x2176xi8>
  util.global private @__auto.blk.20.attn_output.weight = #flow.parameter.named<"model"::"blk.20.attn_output.weight"> : tensor<2048x2176xi8>
  util.global private @__auto.blk.20.ffn_norm.weight = #flow.parameter.named<"model"::"blk.20.ffn_norm.weight"> : tensor<2048xf32>
  util.global private @__auto.blk.20.ffn_gate.weight = #flow.parameter.named<"model"::"blk.20.ffn_gate.weight"> : tensor<5632x2176xi8>
  util.global private @__auto.blk.20.ffn_up.weight = #flow.parameter.named<"model"::"blk.20.ffn_up.weight"> : tensor<5632x2176xi8>
  util.global private @__auto.blk.20.ffn_down.weight = #flow.parameter.named<"model"::"blk.20.ffn_down.weight"> : tensor<2048x5984xi8>
  util.global private @__auto.blk.21.attn_norm.weight = #flow.parameter.named<"model"::"blk.21.attn_norm.weight"> : tensor<2048xf32>
  util.global private @__auto.blk.21.attn_q.weight = #flow.parameter.named<"model"::"blk.21.attn_q.weight"> : tensor<2048x2176xi8>
  util.global private @__auto.blk.21.attn_k.weight = #flow.parameter.named<"model"::"blk.21.attn_k.weight"> : tensor<256x2176xi8>
  util.global private @__auto.blk.21.attn_v.weight = #flow.parameter.named<"model"::"blk.21.attn_v.weight"> : tensor<256x2176xi8>
  util.global private @__auto.blk.21.attn_output.weight = #flow.parameter.named<"model"::"blk.21.attn_output.weight"> : tensor<2048x2176xi8>
  util.global private @__auto.blk.21.ffn_norm.weight = #flow.parameter.named<"model"::"blk.21.ffn_norm.weight"> : tensor<2048xf32>
  util.global private @__auto.blk.21.ffn_gate.weight = #flow.parameter.named<"model"::"blk.21.ffn_gate.weight"> : tensor<5632x2176xi8>
  util.global private @__auto.blk.21.ffn_up.weight = #flow.parameter.named<"model"::"blk.21.ffn_up.weight"> : tensor<5632x2176xi8>
  util.global private @__auto.blk.21.ffn_down.weight = #flow.parameter.named<"model"::"blk.21.ffn_down.weight"> : tensor<2048x5984xi8>
  util.global private @__auto.output_norm.weight = #flow.parameter.named<"model"::"output_norm.weight"> : tensor<2048xf32>
  util.global private @__auto.output.weight = #flow.parameter.named<"model"::"output.weight"> : tensor<32000x2176xi8>
  func.func @prefill_bs4(%arg0: !torch.vtensor<[4,?],si64> {iree.abi.affinity = #hal.device.promise<@__device_0>}, %arg1: !torch.vtensor<[4],si64> {iree.abi.affinity = #hal.device.promise<@__device_0>}, %arg2: !torch.vtensor<[4,?],si64> {iree.abi.affinity = #hal.device.promise<@__device_0>}, %arg3: !torch.tensor<[?,360448],f16> {iree.abi.affinity = #hal.device.promise<@__device_0>}) -> !torch.vtensor<[4,?,32000],f16> attributes {torch.assume_strict_symbolic_shapes} {
    %__auto.token_embd.weight = util.global.load @__auto.token_embd.weight : tensor<32000x2176xi8>
    %0 = torch_c.from_builtin_tensor %__auto.token_embd.weight : tensor<32000x2176xi8> -> !torch.vtensor<[32000,2176],ui8>
    %1 = torch.vtensor.literal(dense<1.000000e+00> : tensor<f32>) : !torch.vtensor<[],f32>
    %2 = torch.vtensor.literal(dense<1.000000e+00> : tensor<f32>) : !torch.vtensor<[],f32>
    %3 = torch.vtensor.literal(dense<0xFC00> : tensor<f16>) : !torch.vtensor<[],f16>
    %__auto.blk.0.attn_norm.weight = util.global.load @__auto.blk.0.attn_norm.weight : tensor<2048xf32>
    %4 = torch_c.from_builtin_tensor %__auto.blk.0.attn_norm.weight : tensor<2048xf32> -> !torch.vtensor<[2048],f32>
    %__auto.blk.0.attn_q.weight = util.global.load @__auto.blk.0.attn_q.weight : tensor<2048x2176xi8>
    %5 = torch_c.from_builtin_tensor %__auto.blk.0.attn_q.weight : tensor<2048x2176xi8> -> !torch.vtensor<[2048,2176],ui8>
    %__auto.blk.0.attn_k.weight = util.global.load @__auto.blk.0.attn_k.weight : tensor<256x2176xi8>
    %6 = torch_c.from_builtin_tensor %__auto.blk.0.attn_k.weight : tensor<256x2176xi8> -> !torch.vtensor<[256,2176],ui8>
    %__auto.blk.0.attn_v.weight = util.global.load @__auto.blk.0.attn_v.weight : tensor<256x2176xi8>
    %7 = torch_c.from_builtin_tensor %__auto.blk.0.attn_v.weight : tensor<256x2176xi8> -> !torch.vtensor<[256,2176],ui8>
    %__auto.blk.0.attn_output.weight = util.global.load @__auto.blk.0.attn_output.weight : tensor<2048x2176xi8>
    %8 = torch_c.from_builtin_tensor %__auto.blk.0.attn_output.weight : tensor<2048x2176xi8> -> !torch.vtensor<[2048,2176],ui8>
    %__auto.blk.0.ffn_norm.weight = util.global.load @__auto.blk.0.ffn_norm.weight : tensor<2048xf32>
    %9 = torch_c.from_builtin_tensor %__auto.blk.0.ffn_norm.weight : tensor<2048xf32> -> !torch.vtensor<[2048],f32>
    %__auto.blk.0.ffn_gate.weight = util.global.load @__auto.blk.0.ffn_gate.weight : tensor<5632x2176xi8>
    %10 = torch_c.from_builtin_tensor %__auto.blk.0.ffn_gate.weight : tensor<5632x2176xi8> -> !torch.vtensor<[5632,2176],ui8>
    %__auto.blk.0.ffn_up.weight = util.global.load @__auto.blk.0.ffn_up.weight : tensor<5632x2176xi8>
    %11 = torch_c.from_builtin_tensor %__auto.blk.0.ffn_up.weight : tensor<5632x2176xi8> -> !torch.vtensor<[5632,2176],ui8>
    %__auto.blk.0.ffn_down.weight = util.global.load @__auto.blk.0.ffn_down.weight : tensor<2048x5984xi8>
    %12 = torch_c.from_builtin_tensor %__auto.blk.0.ffn_down.weight : tensor<2048x5984xi8> -> !torch.vtensor<[2048,5984],ui8>
    %13 = torch.vtensor.literal(dense<1.000000e+00> : tensor<f32>) : !torch.vtensor<[],f32>
    %14 = torch.vtensor.literal(dense<1.000000e+00> : tensor<f32>) : !torch.vtensor<[],f32>
    %15 = torch.vtensor.literal(dense<0xFC00> : tensor<f16>) : !torch.vtensor<[],f16>
    %__auto.blk.1.attn_norm.weight = util.global.load @__auto.blk.1.attn_norm.weight : tensor<2048xf32>
    %16 = torch_c.from_builtin_tensor %__auto.blk.1.attn_norm.weight : tensor<2048xf32> -> !torch.vtensor<[2048],f32>
    %__auto.blk.1.attn_q.weight = util.global.load @__auto.blk.1.attn_q.weight : tensor<2048x2176xi8>
    %17 = torch_c.from_builtin_tensor %__auto.blk.1.attn_q.weight : tensor<2048x2176xi8> -> !torch.vtensor<[2048,2176],ui8>
    %__auto.blk.1.attn_k.weight = util.global.load @__auto.blk.1.attn_k.weight : tensor<256x2176xi8>
    %18 = torch_c.from_builtin_tensor %__auto.blk.1.attn_k.weight : tensor<256x2176xi8> -> !torch.vtensor<[256,2176],ui8>
    %__auto.blk.1.attn_v.weight = util.global.load @__auto.blk.1.attn_v.weight : tensor<256x2176xi8>
    %19 = torch_c.from_builtin_tensor %__auto.blk.1.attn_v.weight : tensor<256x2176xi8> -> !torch.vtensor<[256,2176],ui8>
    %__auto.blk.1.attn_output.weight = util.global.load @__auto.blk.1.attn_output.weight : tensor<2048x2176xi8>
    %20 = torch_c.from_builtin_tensor %__auto.blk.1.attn_output.weight : tensor<2048x2176xi8> -> !torch.vtensor<[2048,2176],ui8>
    %__auto.blk.1.ffn_norm.weight = util.global.load @__auto.blk.1.ffn_norm.weight : tensor<2048xf32>
    %21 = torch_c.from_builtin_tensor %__auto.blk.1.ffn_norm.weight : tensor<2048xf32> -> !torch.vtensor<[2048],f32>
    %__auto.blk.1.ffn_gate.weight = util.global.load @__auto.blk.1.ffn_gate.weight : tensor<5632x2176xi8>
    %22 = torch_c.from_builtin_tensor %__auto.blk.1.ffn_gate.weight : tensor<5632x2176xi8> -> !torch.vtensor<[5632,2176],ui8>
    %__auto.blk.1.ffn_up.weight = util.global.load @__auto.blk.1.ffn_up.weight : tensor<5632x2176xi8>
    %23 = torch_c.from_builtin_tensor %__auto.blk.1.ffn_up.weight : tensor<5632x2176xi8> -> !torch.vtensor<[5632,2176],ui8>
    %__auto.blk.1.ffn_down.weight = util.global.load @__auto.blk.1.ffn_down.weight : tensor<2048x5984xi8>
    %24 = torch_c.from_builtin_tensor %__auto.blk.1.ffn_down.weight : tensor<2048x5984xi8> -> !torch.vtensor<[2048,5984],ui8>
    %25 = torch.vtensor.literal(dense<1.000000e+00> : tensor<f32>) : !torch.vtensor<[],f32>
    %26 = torch.vtensor.literal(dense<1.000000e+00> : tensor<f32>) : !torch.vtensor<[],f32>
    %27 = torch.vtensor.literal(dense<0xFC00> : tensor<f16>) : !torch.vtensor<[],f16>
    %__auto.blk.2.attn_norm.weight = util.global.load @__auto.blk.2.attn_norm.weight : tensor<2048xf32>
    %28 = torch_c.from_builtin_tensor %__auto.blk.2.attn_norm.weight : tensor<2048xf32> -> !torch.vtensor<[2048],f32>
    %__auto.blk.2.attn_q.weight = util.global.load @__auto.blk.2.attn_q.weight : tensor<2048x2176xi8>
    %29 = torch_c.from_builtin_tensor %__auto.blk.2.attn_q.weight : tensor<2048x2176xi8> -> !torch.vtensor<[2048,2176],ui8>
    %__auto.blk.2.attn_k.weight = util.global.load @__auto.blk.2.attn_k.weight : tensor<256x2176xi8>
    %30 = torch_c.from_builtin_tensor %__auto.blk.2.attn_k.weight : tensor<256x2176xi8> -> !torch.vtensor<[256,2176],ui8>
    %__auto.blk.2.attn_v.weight = util.global.load @__auto.blk.2.attn_v.weight : tensor<256x2176xi8>
    %31 = torch_c.from_builtin_tensor %__auto.blk.2.attn_v.weight : tensor<256x2176xi8> -> !torch.vtensor<[256,2176],ui8>
    %__auto.blk.2.attn_output.weight = util.global.load @__auto.blk.2.attn_output.weight : tensor<2048x2176xi8>
    %32 = torch_c.from_builtin_tensor %__auto.blk.2.attn_output.weight : tensor<2048x2176xi8> -> !torch.vtensor<[2048,2176],ui8>
    %__auto.blk.2.ffn_norm.weight = util.global.load @__auto.blk.2.ffn_norm.weight : tensor<2048xf32>
    %33 = torch_c.from_builtin_tensor %__auto.blk.2.ffn_norm.weight : tensor<2048xf32> -> !torch.vtensor<[2048],f32>
    %__auto.blk.2.ffn_gate.weight = util.global.load @__auto.blk.2.ffn_gate.weight : tensor<5632x2176xi8>
    %34 = torch_c.from_builtin_tensor %__auto.blk.2.ffn_gate.weight : tensor<5632x2176xi8> -> !torch.vtensor<[5632,2176],ui8>
    %__auto.blk.2.ffn_up.weight = util.global.load @__auto.blk.2.ffn_up.weight : tensor<5632x2176xi8>
    %35 = torch_c.from_builtin_tensor %__auto.blk.2.ffn_up.weight : tensor<5632x2176xi8> -> !torch.vtensor<[5632,2176],ui8>
    %__auto.blk.2.ffn_down.weight = util.global.load @__auto.blk.2.ffn_down.weight : tensor<2048x5984xi8>
    %36 = torch_c.from_builtin_tensor %__auto.blk.2.ffn_down.weight : tensor<2048x5984xi8> -> !torch.vtensor<[2048,5984],ui8>
    %37 = torch.vtensor.literal(dense<1.000000e+00> : tensor<f32>) : !torch.vtensor<[],f32>
    %38 = torch.vtensor.literal(dense<1.000000e+00> : tensor<f32>) : !torch.vtensor<[],f32>
    %39 = torch.vtensor.literal(dense<0xFC00> : tensor<f16>) : !torch.vtensor<[],f16>
    %__auto.blk.3.attn_norm.weight = util.global.load @__auto.blk.3.attn_norm.weight : tensor<2048xf32>
    %40 = torch_c.from_builtin_tensor %__auto.blk.3.attn_norm.weight : tensor<2048xf32> -> !torch.vtensor<[2048],f32>
    %__auto.blk.3.attn_q.weight = util.global.load @__auto.blk.3.attn_q.weight : tensor<2048x2176xi8>
    %41 = torch_c.from_builtin_tensor %__auto.blk.3.attn_q.weight : tensor<2048x2176xi8> -> !torch.vtensor<[2048,2176],ui8>
    %__auto.blk.3.attn_k.weight = util.global.load @__auto.blk.3.attn_k.weight : tensor<256x2176xi8>
    %42 = torch_c.from_builtin_tensor %__auto.blk.3.attn_k.weight : tensor<256x2176xi8> -> !torch.vtensor<[256,2176],ui8>
    %__auto.blk.3.attn_v.weight = util.global.load @__auto.blk.3.attn_v.weight : tensor<256x2176xi8>
    %43 = torch_c.from_builtin_tensor %__auto.blk.3.attn_v.weight : tensor<256x2176xi8> -> !torch.vtensor<[256,2176],ui8>
    %__auto.blk.3.attn_output.weight = util.global.load @__auto.blk.3.attn_output.weight : tensor<2048x2176xi8>
    %44 = torch_c.from_builtin_tensor %__auto.blk.3.attn_output.weight : tensor<2048x2176xi8> -> !torch.vtensor<[2048,2176],ui8>
    %__auto.blk.3.ffn_norm.weight = util.global.load @__auto.blk.3.ffn_norm.weight : tensor<2048xf32>
    %45 = torch_c.from_builtin_tensor %__auto.blk.3.ffn_norm.weight : tensor<2048xf32> -> !torch.vtensor<[2048],f32>
    %__auto.blk.3.ffn_gate.weight = util.global.load @__auto.blk.3.ffn_gate.weight : tensor<5632x2176xi8>
    %46 = torch_c.from_builtin_tensor %__auto.blk.3.ffn_gate.weight : tensor<5632x2176xi8> -> !torch.vtensor<[5632,2176],ui8>
    %__auto.blk.3.ffn_up.weight = util.global.load @__auto.blk.3.ffn_up.weight : tensor<5632x2176xi8>
    %47 = torch_c.from_builtin_tensor %__auto.blk.3.ffn_up.weight : tensor<5632x2176xi8> -> !torch.vtensor<[5632,2176],ui8>
    %__auto.blk.3.ffn_down.weight = util.global.load @__auto.blk.3.ffn_down.weight : tensor<2048x5984xi8>
    %48 = torch_c.from_builtin_tensor %__auto.blk.3.ffn_down.weight : tensor<2048x5984xi8> -> !torch.vtensor<[2048,5984],ui8>
    %49 = torch.vtensor.literal(dense<1.000000e+00> : tensor<f32>) : !torch.vtensor<[],f32>
    %50 = torch.vtensor.literal(dense<1.000000e+00> : tensor<f32>) : !torch.vtensor<[],f32>
    %51 = torch.vtensor.literal(dense<0xFC00> : tensor<f16>) : !torch.vtensor<[],f16>
    %__auto.blk.4.attn_norm.weight = util.global.load @__auto.blk.4.attn_norm.weight : tensor<2048xf32>
    %52 = torch_c.from_builtin_tensor %__auto.blk.4.attn_norm.weight : tensor<2048xf32> -> !torch.vtensor<[2048],f32>
    %__auto.blk.4.attn_q.weight = util.global.load @__auto.blk.4.attn_q.weight : tensor<2048x2176xi8>
    %53 = torch_c.from_builtin_tensor %__auto.blk.4.attn_q.weight : tensor<2048x2176xi8> -> !torch.vtensor<[2048,2176],ui8>
    %__auto.blk.4.attn_k.weight = util.global.load @__auto.blk.4.attn_k.weight : tensor<256x2176xi8>
    %54 = torch_c.from_builtin_tensor %__auto.blk.4.attn_k.weight : tensor<256x2176xi8> -> !torch.vtensor<[256,2176],ui8>
    %__auto.blk.4.attn_v.weight = util.global.load @__auto.blk.4.attn_v.weight : tensor<256x2176xi8>
    %55 = torch_c.from_builtin_tensor %__auto.blk.4.attn_v.weight : tensor<256x2176xi8> -> !torch.vtensor<[256,2176],ui8>
    %__auto.blk.4.attn_output.weight = util.global.load @__auto.blk.4.attn_output.weight : tensor<2048x2176xi8>
    %56 = torch_c.from_builtin_tensor %__auto.blk.4.attn_output.weight : tensor<2048x2176xi8> -> !torch.vtensor<[2048,2176],ui8>
    %__auto.blk.4.ffn_norm.weight = util.global.load @__auto.blk.4.ffn_norm.weight : tensor<2048xf32>
    %57 = torch_c.from_builtin_tensor %__auto.blk.4.ffn_norm.weight : tensor<2048xf32> -> !torch.vtensor<[2048],f32>
    %__auto.blk.4.ffn_gate.weight = util.global.load @__auto.blk.4.ffn_gate.weight : tensor<5632x2176xi8>
    %58 = torch_c.from_builtin_tensor %__auto.blk.4.ffn_gate.weight : tensor<5632x2176xi8> -> !torch.vtensor<[5632,2176],ui8>
    %__auto.blk.4.ffn_up.weight = util.global.load @__auto.blk.4.ffn_up.weight : tensor<5632x2176xi8>
    %59 = torch_c.from_builtin_tensor %__auto.blk.4.ffn_up.weight : tensor<5632x2176xi8> -> !torch.vtensor<[5632,2176],ui8>
    %__auto.blk.4.ffn_down.weight = util.global.load @__auto.blk.4.ffn_down.weight : tensor<2048x5984xi8>
    %60 = torch_c.from_builtin_tensor %__auto.blk.4.ffn_down.weight : tensor<2048x5984xi8> -> !torch.vtensor<[2048,5984],ui8>
    %61 = torch.vtensor.literal(dense<1.000000e+00> : tensor<f32>) : !torch.vtensor<[],f32>
    %62 = torch.vtensor.literal(dense<1.000000e+00> : tensor<f32>) : !torch.vtensor<[],f32>
    %63 = torch.vtensor.literal(dense<0xFC00> : tensor<f16>) : !torch.vtensor<[],f16>
    %__auto.blk.5.attn_norm.weight = util.global.load @__auto.blk.5.attn_norm.weight : tensor<2048xf32>
    %64 = torch_c.from_builtin_tensor %__auto.blk.5.attn_norm.weight : tensor<2048xf32> -> !torch.vtensor<[2048],f32>
    %__auto.blk.5.attn_q.weight = util.global.load @__auto.blk.5.attn_q.weight : tensor<2048x2176xi8>
    %65 = torch_c.from_builtin_tensor %__auto.blk.5.attn_q.weight : tensor<2048x2176xi8> -> !torch.vtensor<[2048,2176],ui8>
    %__auto.blk.5.attn_k.weight = util.global.load @__auto.blk.5.attn_k.weight : tensor<256x2176xi8>
    %66 = torch_c.from_builtin_tensor %__auto.blk.5.attn_k.weight : tensor<256x2176xi8> -> !torch.vtensor<[256,2176],ui8>
    %__auto.blk.5.attn_v.weight = util.global.load @__auto.blk.5.attn_v.weight : tensor<256x2176xi8>
    %67 = torch_c.from_builtin_tensor %__auto.blk.5.attn_v.weight : tensor<256x2176xi8> -> !torch.vtensor<[256,2176],ui8>
    %__auto.blk.5.attn_output.weight = util.global.load @__auto.blk.5.attn_output.weight : tensor<2048x2176xi8>
    %68 = torch_c.from_builtin_tensor %__auto.blk.5.attn_output.weight : tensor<2048x2176xi8> -> !torch.vtensor<[2048,2176],ui8>
    %__auto.blk.5.ffn_norm.weight = util.global.load @__auto.blk.5.ffn_norm.weight : tensor<2048xf32>
    %69 = torch_c.from_builtin_tensor %__auto.blk.5.ffn_norm.weight : tensor<2048xf32> -> !torch.vtensor<[2048],f32>
    %__auto.blk.5.ffn_gate.weight = util.global.load @__auto.blk.5.ffn_gate.weight : tensor<5632x2176xi8>
    %70 = torch_c.from_builtin_tensor %__auto.blk.5.ffn_gate.weight : tensor<5632x2176xi8> -> !torch.vtensor<[5632,2176],ui8>
    %__auto.blk.5.ffn_up.weight = util.global.load @__auto.blk.5.ffn_up.weight : tensor<5632x2176xi8>
    %71 = torch_c.from_builtin_tensor %__auto.blk.5.ffn_up.weight : tensor<5632x2176xi8> -> !torch.vtensor<[5632,2176],ui8>
    %__auto.blk.5.ffn_down.weight = util.global.load @__auto.blk.5.ffn_down.weight : tensor<2048x5984xi8>
    %72 = torch_c.from_builtin_tensor %__auto.blk.5.ffn_down.weight : tensor<2048x5984xi8> -> !torch.vtensor<[2048,5984],ui8>
    %73 = torch.vtensor.literal(dense<1.000000e+00> : tensor<f32>) : !torch.vtensor<[],f32>
    %74 = torch.vtensor.literal(dense<1.000000e+00> : tensor<f32>) : !torch.vtensor<[],f32>
    %75 = torch.vtensor.literal(dense<0xFC00> : tensor<f16>) : !torch.vtensor<[],f16>
    %__auto.blk.6.attn_norm.weight = util.global.load @__auto.blk.6.attn_norm.weight : tensor<2048xf32>
    %76 = torch_c.from_builtin_tensor %__auto.blk.6.attn_norm.weight : tensor<2048xf32> -> !torch.vtensor<[2048],f32>
    %__auto.blk.6.attn_q.weight = util.global.load @__auto.blk.6.attn_q.weight : tensor<2048x2176xi8>
    %77 = torch_c.from_builtin_tensor %__auto.blk.6.attn_q.weight : tensor<2048x2176xi8> -> !torch.vtensor<[2048,2176],ui8>
    %__auto.blk.6.attn_k.weight = util.global.load @__auto.blk.6.attn_k.weight : tensor<256x2176xi8>
    %78 = torch_c.from_builtin_tensor %__auto.blk.6.attn_k.weight : tensor<256x2176xi8> -> !torch.vtensor<[256,2176],ui8>
    %__auto.blk.6.attn_v.weight = util.global.load @__auto.blk.6.attn_v.weight : tensor<256x2176xi8>
    %79 = torch_c.from_builtin_tensor %__auto.blk.6.attn_v.weight : tensor<256x2176xi8> -> !torch.vtensor<[256,2176],ui8>
    %__auto.blk.6.attn_output.weight = util.global.load @__auto.blk.6.attn_output.weight : tensor<2048x2176xi8>
    %80 = torch_c.from_builtin_tensor %__auto.blk.6.attn_output.weight : tensor<2048x2176xi8> -> !torch.vtensor<[2048,2176],ui8>
    %__auto.blk.6.ffn_norm.weight = util.global.load @__auto.blk.6.ffn_norm.weight : tensor<2048xf32>
    %81 = torch_c.from_builtin_tensor %__auto.blk.6.ffn_norm.weight : tensor<2048xf32> -> !torch.vtensor<[2048],f32>
    %__auto.blk.6.ffn_gate.weight = util.global.load @__auto.blk.6.ffn_gate.weight : tensor<5632x2176xi8>
    %82 = torch_c.from_builtin_tensor %__auto.blk.6.ffn_gate.weight : tensor<5632x2176xi8> -> !torch.vtensor<[5632,2176],ui8>
    %__auto.blk.6.ffn_up.weight = util.global.load @__auto.blk.6.ffn_up.weight : tensor<5632x2176xi8>
    %83 = torch_c.from_builtin_tensor %__auto.blk.6.ffn_up.weight : tensor<5632x2176xi8> -> !torch.vtensor<[5632,2176],ui8>
    %__auto.blk.6.ffn_down.weight = util.global.load @__auto.blk.6.ffn_down.weight : tensor<2048x5984xi8>
    %84 = torch_c.from_builtin_tensor %__auto.blk.6.ffn_down.weight : tensor<2048x5984xi8> -> !torch.vtensor<[2048,5984],ui8>
    %85 = torch.vtensor.literal(dense<1.000000e+00> : tensor<f32>) : !torch.vtensor<[],f32>
    %86 = torch.vtensor.literal(dense<1.000000e+00> : tensor<f32>) : !torch.vtensor<[],f32>
    %87 = torch.vtensor.literal(dense<0xFC00> : tensor<f16>) : !torch.vtensor<[],f16>
    %__auto.blk.7.attn_norm.weight = util.global.load @__auto.blk.7.attn_norm.weight : tensor<2048xf32>
    %88 = torch_c.from_builtin_tensor %__auto.blk.7.attn_norm.weight : tensor<2048xf32> -> !torch.vtensor<[2048],f32>
    %__auto.blk.7.attn_q.weight = util.global.load @__auto.blk.7.attn_q.weight : tensor<2048x2176xi8>
    %89 = torch_c.from_builtin_tensor %__auto.blk.7.attn_q.weight : tensor<2048x2176xi8> -> !torch.vtensor<[2048,2176],ui8>
    %__auto.blk.7.attn_k.weight = util.global.load @__auto.blk.7.attn_k.weight : tensor<256x2176xi8>
    %90 = torch_c.from_builtin_tensor %__auto.blk.7.attn_k.weight : tensor<256x2176xi8> -> !torch.vtensor<[256,2176],ui8>
    %__auto.blk.7.attn_v.weight = util.global.load @__auto.blk.7.attn_v.weight : tensor<256x2176xi8>
    %91 = torch_c.from_builtin_tensor %__auto.blk.7.attn_v.weight : tensor<256x2176xi8> -> !torch.vtensor<[256,2176],ui8>
    %__auto.blk.7.attn_output.weight = util.global.load @__auto.blk.7.attn_output.weight : tensor<2048x2176xi8>
    %92 = torch_c.from_builtin_tensor %__auto.blk.7.attn_output.weight : tensor<2048x2176xi8> -> !torch.vtensor<[2048,2176],ui8>
    %__auto.blk.7.ffn_norm.weight = util.global.load @__auto.blk.7.ffn_norm.weight : tensor<2048xf32>
    %93 = torch_c.from_builtin_tensor %__auto.blk.7.ffn_norm.weight : tensor<2048xf32> -> !torch.vtensor<[2048],f32>
    %__auto.blk.7.ffn_gate.weight = util.global.load @__auto.blk.7.ffn_gate.weight : tensor<5632x2176xi8>
    %94 = torch_c.from_builtin_tensor %__auto.blk.7.ffn_gate.weight : tensor<5632x2176xi8> -> !torch.vtensor<[5632,2176],ui8>
    %__auto.blk.7.ffn_up.weight = util.global.load @__auto.blk.7.ffn_up.weight : tensor<5632x2176xi8>
    %95 = torch_c.from_builtin_tensor %__auto.blk.7.ffn_up.weight : tensor<5632x2176xi8> -> !torch.vtensor<[5632,2176],ui8>
    %__auto.blk.7.ffn_down.weight = util.global.load @__auto.blk.7.ffn_down.weight : tensor<2048x5984xi8>
    %96 = torch_c.from_builtin_tensor %__auto.blk.7.ffn_down.weight : tensor<2048x5984xi8> -> !torch.vtensor<[2048,5984],ui8>
    %97 = torch.vtensor.literal(dense<1.000000e+00> : tensor<f32>) : !torch.vtensor<[],f32>
    %98 = torch.vtensor.literal(dense<1.000000e+00> : tensor<f32>) : !torch.vtensor<[],f32>
    %99 = torch.vtensor.literal(dense<0xFC00> : tensor<f16>) : !torch.vtensor<[],f16>
    %__auto.blk.8.attn_norm.weight = util.global.load @__auto.blk.8.attn_norm.weight : tensor<2048xf32>
    %100 = torch_c.from_builtin_tensor %__auto.blk.8.attn_norm.weight : tensor<2048xf32> -> !torch.vtensor<[2048],f32>
    %__auto.blk.8.attn_q.weight = util.global.load @__auto.blk.8.attn_q.weight : tensor<2048x2176xi8>
    %101 = torch_c.from_builtin_tensor %__auto.blk.8.attn_q.weight : tensor<2048x2176xi8> -> !torch.vtensor<[2048,2176],ui8>
    %__auto.blk.8.attn_k.weight = util.global.load @__auto.blk.8.attn_k.weight : tensor<256x2176xi8>
    %102 = torch_c.from_builtin_tensor %__auto.blk.8.attn_k.weight : tensor<256x2176xi8> -> !torch.vtensor<[256,2176],ui8>
    %__auto.blk.8.attn_v.weight = util.global.load @__auto.blk.8.attn_v.weight : tensor<256x2176xi8>
    %103 = torch_c.from_builtin_tensor %__auto.blk.8.attn_v.weight : tensor<256x2176xi8> -> !torch.vtensor<[256,2176],ui8>
    %__auto.blk.8.attn_output.weight = util.global.load @__auto.blk.8.attn_output.weight : tensor<2048x2176xi8>
    %104 = torch_c.from_builtin_tensor %__auto.blk.8.attn_output.weight : tensor<2048x2176xi8> -> !torch.vtensor<[2048,2176],ui8>
    %__auto.blk.8.ffn_norm.weight = util.global.load @__auto.blk.8.ffn_norm.weight : tensor<2048xf32>
    %105 = torch_c.from_builtin_tensor %__auto.blk.8.ffn_norm.weight : tensor<2048xf32> -> !torch.vtensor<[2048],f32>
    %__auto.blk.8.ffn_gate.weight = util.global.load @__auto.blk.8.ffn_gate.weight : tensor<5632x2176xi8>
    %106 = torch_c.from_builtin_tensor %__auto.blk.8.ffn_gate.weight : tensor<5632x2176xi8> -> !torch.vtensor<[5632,2176],ui8>
    %__auto.blk.8.ffn_up.weight = util.global.load @__auto.blk.8.ffn_up.weight : tensor<5632x2176xi8>
    %107 = torch_c.from_builtin_tensor %__auto.blk.8.ffn_up.weight : tensor<5632x2176xi8> -> !torch.vtensor<[5632,2176],ui8>
    %__auto.blk.8.ffn_down.weight = util.global.load @__auto.blk.8.ffn_down.weight : tensor<2048x5984xi8>
    %108 = torch_c.from_builtin_tensor %__auto.blk.8.ffn_down.weight : tensor<2048x5984xi8> -> !torch.vtensor<[2048,5984],ui8>
    %109 = torch.vtensor.literal(dense<1.000000e+00> : tensor<f32>) : !torch.vtensor<[],f32>
    %110 = torch.vtensor.literal(dense<1.000000e+00> : tensor<f32>) : !torch.vtensor<[],f32>
    %111 = torch.vtensor.literal(dense<0xFC00> : tensor<f16>) : !torch.vtensor<[],f16>
    %__auto.blk.9.attn_norm.weight = util.global.load @__auto.blk.9.attn_norm.weight : tensor<2048xf32>
    %112 = torch_c.from_builtin_tensor %__auto.blk.9.attn_norm.weight : tensor<2048xf32> -> !torch.vtensor<[2048],f32>
    %__auto.blk.9.attn_q.weight = util.global.load @__auto.blk.9.attn_q.weight : tensor<2048x2176xi8>
    %113 = torch_c.from_builtin_tensor %__auto.blk.9.attn_q.weight : tensor<2048x2176xi8> -> !torch.vtensor<[2048,2176],ui8>
    %__auto.blk.9.attn_k.weight = util.global.load @__auto.blk.9.attn_k.weight : tensor<256x2176xi8>
    %114 = torch_c.from_builtin_tensor %__auto.blk.9.attn_k.weight : tensor<256x2176xi8> -> !torch.vtensor<[256,2176],ui8>
    %__auto.blk.9.attn_v.weight = util.global.load @__auto.blk.9.attn_v.weight : tensor<256x2176xi8>
    %115 = torch_c.from_builtin_tensor %__auto.blk.9.attn_v.weight : tensor<256x2176xi8> -> !torch.vtensor<[256,2176],ui8>
    %__auto.blk.9.attn_output.weight = util.global.load @__auto.blk.9.attn_output.weight : tensor<2048x2176xi8>
    %116 = torch_c.from_builtin_tensor %__auto.blk.9.attn_output.weight : tensor<2048x2176xi8> -> !torch.vtensor<[2048,2176],ui8>
    %__auto.blk.9.ffn_norm.weight = util.global.load @__auto.blk.9.ffn_norm.weight : tensor<2048xf32>
    %117 = torch_c.from_builtin_tensor %__auto.blk.9.ffn_norm.weight : tensor<2048xf32> -> !torch.vtensor<[2048],f32>
    %__auto.blk.9.ffn_gate.weight = util.global.load @__auto.blk.9.ffn_gate.weight : tensor<5632x2176xi8>
    %118 = torch_c.from_builtin_tensor %__auto.blk.9.ffn_gate.weight : tensor<5632x2176xi8> -> !torch.vtensor<[5632,2176],ui8>
    %__auto.blk.9.ffn_up.weight = util.global.load @__auto.blk.9.ffn_up.weight : tensor<5632x2176xi8>
    %119 = torch_c.from_builtin_tensor %__auto.blk.9.ffn_up.weight : tensor<5632x2176xi8> -> !torch.vtensor<[5632,2176],ui8>
    %__auto.blk.9.ffn_down.weight = util.global.load @__auto.blk.9.ffn_down.weight : tensor<2048x5984xi8>
    %120 = torch_c.from_builtin_tensor %__auto.blk.9.ffn_down.weight : tensor<2048x5984xi8> -> !torch.vtensor<[2048,5984],ui8>
    %121 = torch.vtensor.literal(dense<1.000000e+00> : tensor<f32>) : !torch.vtensor<[],f32>
    %122 = torch.vtensor.literal(dense<1.000000e+00> : tensor<f32>) : !torch.vtensor<[],f32>
    %123 = torch.vtensor.literal(dense<0xFC00> : tensor<f16>) : !torch.vtensor<[],f16>
    %__auto.blk.10.attn_norm.weight = util.global.load @__auto.blk.10.attn_norm.weight : tensor<2048xf32>
    %124 = torch_c.from_builtin_tensor %__auto.blk.10.attn_norm.weight : tensor<2048xf32> -> !torch.vtensor<[2048],f32>
    %__auto.blk.10.attn_q.weight = util.global.load @__auto.blk.10.attn_q.weight : tensor<2048x2176xi8>
    %125 = torch_c.from_builtin_tensor %__auto.blk.10.attn_q.weight : tensor<2048x2176xi8> -> !torch.vtensor<[2048,2176],ui8>
    %__auto.blk.10.attn_k.weight = util.global.load @__auto.blk.10.attn_k.weight : tensor<256x2176xi8>
    %126 = torch_c.from_builtin_tensor %__auto.blk.10.attn_k.weight : tensor<256x2176xi8> -> !torch.vtensor<[256,2176],ui8>
    %__auto.blk.10.attn_v.weight = util.global.load @__auto.blk.10.attn_v.weight : tensor<256x2176xi8>
    %127 = torch_c.from_builtin_tensor %__auto.blk.10.attn_v.weight : tensor<256x2176xi8> -> !torch.vtensor<[256,2176],ui8>
    %__auto.blk.10.attn_output.weight = util.global.load @__auto.blk.10.attn_output.weight : tensor<2048x2176xi8>
    %128 = torch_c.from_builtin_tensor %__auto.blk.10.attn_output.weight : tensor<2048x2176xi8> -> !torch.vtensor<[2048,2176],ui8>
    %__auto.blk.10.ffn_norm.weight = util.global.load @__auto.blk.10.ffn_norm.weight : tensor<2048xf32>
    %129 = torch_c.from_builtin_tensor %__auto.blk.10.ffn_norm.weight : tensor<2048xf32> -> !torch.vtensor<[2048],f32>
    %__auto.blk.10.ffn_gate.weight = util.global.load @__auto.blk.10.ffn_gate.weight : tensor<5632x2176xi8>
    %130 = torch_c.from_builtin_tensor %__auto.blk.10.ffn_gate.weight : tensor<5632x2176xi8> -> !torch.vtensor<[5632,2176],ui8>
    %__auto.blk.10.ffn_up.weight = util.global.load @__auto.blk.10.ffn_up.weight : tensor<5632x2176xi8>
    %131 = torch_c.from_builtin_tensor %__auto.blk.10.ffn_up.weight : tensor<5632x2176xi8> -> !torch.vtensor<[5632,2176],ui8>
    %__auto.blk.10.ffn_down.weight = util.global.load @__auto.blk.10.ffn_down.weight : tensor<2048x5984xi8>
    %132 = torch_c.from_builtin_tensor %__auto.blk.10.ffn_down.weight : tensor<2048x5984xi8> -> !torch.vtensor<[2048,5984],ui8>
    %133 = torch.vtensor.literal(dense<1.000000e+00> : tensor<f32>) : !torch.vtensor<[],f32>
    %134 = torch.vtensor.literal(dense<1.000000e+00> : tensor<f32>) : !torch.vtensor<[],f32>
    %135 = torch.vtensor.literal(dense<0xFC00> : tensor<f16>) : !torch.vtensor<[],f16>
    %__auto.blk.11.attn_norm.weight = util.global.load @__auto.blk.11.attn_norm.weight : tensor<2048xf32>
    %136 = torch_c.from_builtin_tensor %__auto.blk.11.attn_norm.weight : tensor<2048xf32> -> !torch.vtensor<[2048],f32>
    %__auto.blk.11.attn_q.weight = util.global.load @__auto.blk.11.attn_q.weight : tensor<2048x2176xi8>
    %137 = torch_c.from_builtin_tensor %__auto.blk.11.attn_q.weight : tensor<2048x2176xi8> -> !torch.vtensor<[2048,2176],ui8>
    %__auto.blk.11.attn_k.weight = util.global.load @__auto.blk.11.attn_k.weight : tensor<256x2176xi8>
    %138 = torch_c.from_builtin_tensor %__auto.blk.11.attn_k.weight : tensor<256x2176xi8> -> !torch.vtensor<[256,2176],ui8>
    %__auto.blk.11.attn_v.weight = util.global.load @__auto.blk.11.attn_v.weight : tensor<256x2176xi8>
    %139 = torch_c.from_builtin_tensor %__auto.blk.11.attn_v.weight : tensor<256x2176xi8> -> !torch.vtensor<[256,2176],ui8>
    %__auto.blk.11.attn_output.weight = util.global.load @__auto.blk.11.attn_output.weight : tensor<2048x2176xi8>
    %140 = torch_c.from_builtin_tensor %__auto.blk.11.attn_output.weight : tensor<2048x2176xi8> -> !torch.vtensor<[2048,2176],ui8>
    %__auto.blk.11.ffn_norm.weight = util.global.load @__auto.blk.11.ffn_norm.weight : tensor<2048xf32>
    %141 = torch_c.from_builtin_tensor %__auto.blk.11.ffn_norm.weight : tensor<2048xf32> -> !torch.vtensor<[2048],f32>
    %__auto.blk.11.ffn_gate.weight = util.global.load @__auto.blk.11.ffn_gate.weight : tensor<5632x2176xi8>
    %142 = torch_c.from_builtin_tensor %__auto.blk.11.ffn_gate.weight : tensor<5632x2176xi8> -> !torch.vtensor<[5632,2176],ui8>
    %__auto.blk.11.ffn_up.weight = util.global.load @__auto.blk.11.ffn_up.weight : tensor<5632x2176xi8>
    %143 = torch_c.from_builtin_tensor %__auto.blk.11.ffn_up.weight : tensor<5632x2176xi8> -> !torch.vtensor<[5632,2176],ui8>
    %__auto.blk.11.ffn_down.weight = util.global.load @__auto.blk.11.ffn_down.weight : tensor<2048x5984xi8>
    %144 = torch_c.from_builtin_tensor %__auto.blk.11.ffn_down.weight : tensor<2048x5984xi8> -> !torch.vtensor<[2048,5984],ui8>
    %145 = torch.vtensor.literal(dense<1.000000e+00> : tensor<f32>) : !torch.vtensor<[],f32>
    %146 = torch.vtensor.literal(dense<1.000000e+00> : tensor<f32>) : !torch.vtensor<[],f32>
    %147 = torch.vtensor.literal(dense<0xFC00> : tensor<f16>) : !torch.vtensor<[],f16>
    %__auto.blk.12.attn_norm.weight = util.global.load @__auto.blk.12.attn_norm.weight : tensor<2048xf32>
    %148 = torch_c.from_builtin_tensor %__auto.blk.12.attn_norm.weight : tensor<2048xf32> -> !torch.vtensor<[2048],f32>
    %__auto.blk.12.attn_q.weight = util.global.load @__auto.blk.12.attn_q.weight : tensor<2048x2176xi8>
    %149 = torch_c.from_builtin_tensor %__auto.blk.12.attn_q.weight : tensor<2048x2176xi8> -> !torch.vtensor<[2048,2176],ui8>
    %__auto.blk.12.attn_k.weight = util.global.load @__auto.blk.12.attn_k.weight : tensor<256x2176xi8>
    %150 = torch_c.from_builtin_tensor %__auto.blk.12.attn_k.weight : tensor<256x2176xi8> -> !torch.vtensor<[256,2176],ui8>
    %__auto.blk.12.attn_v.weight = util.global.load @__auto.blk.12.attn_v.weight : tensor<256x2176xi8>
    %151 = torch_c.from_builtin_tensor %__auto.blk.12.attn_v.weight : tensor<256x2176xi8> -> !torch.vtensor<[256,2176],ui8>
    %__auto.blk.12.attn_output.weight = util.global.load @__auto.blk.12.attn_output.weight : tensor<2048x2176xi8>
    %152 = torch_c.from_builtin_tensor %__auto.blk.12.attn_output.weight : tensor<2048x2176xi8> -> !torch.vtensor<[2048,2176],ui8>
    %__auto.blk.12.ffn_norm.weight = util.global.load @__auto.blk.12.ffn_norm.weight : tensor<2048xf32>
    %153 = torch_c.from_builtin_tensor %__auto.blk.12.ffn_norm.weight : tensor<2048xf32> -> !torch.vtensor<[2048],f32>
    %__auto.blk.12.ffn_gate.weight = util.global.load @__auto.blk.12.ffn_gate.weight : tensor<5632x2176xi8>
    %154 = torch_c.from_builtin_tensor %__auto.blk.12.ffn_gate.weight : tensor<5632x2176xi8> -> !torch.vtensor<[5632,2176],ui8>
    %__auto.blk.12.ffn_up.weight = util.global.load @__auto.blk.12.ffn_up.weight : tensor<5632x2176xi8>
    %155 = torch_c.from_builtin_tensor %__auto.blk.12.ffn_up.weight : tensor<5632x2176xi8> -> !torch.vtensor<[5632,2176],ui8>
    %__auto.blk.12.ffn_down.weight = util.global.load @__auto.blk.12.ffn_down.weight : tensor<2048x5984xi8>
    %156 = torch_c.from_builtin_tensor %__auto.blk.12.ffn_down.weight : tensor<2048x5984xi8> -> !torch.vtensor<[2048,5984],ui8>
    %157 = torch.vtensor.literal(dense<1.000000e+00> : tensor<f32>) : !torch.vtensor<[],f32>
    %158 = torch.vtensor.literal(dense<1.000000e+00> : tensor<f32>) : !torch.vtensor<[],f32>
    %159 = torch.vtensor.literal(dense<0xFC00> : tensor<f16>) : !torch.vtensor<[],f16>
    %__auto.blk.13.attn_norm.weight = util.global.load @__auto.blk.13.attn_norm.weight : tensor<2048xf32>
    %160 = torch_c.from_builtin_tensor %__auto.blk.13.attn_norm.weight : tensor<2048xf32> -> !torch.vtensor<[2048],f32>
    %__auto.blk.13.attn_q.weight = util.global.load @__auto.blk.13.attn_q.weight : tensor<2048x2176xi8>
    %161 = torch_c.from_builtin_tensor %__auto.blk.13.attn_q.weight : tensor<2048x2176xi8> -> !torch.vtensor<[2048,2176],ui8>
    %__auto.blk.13.attn_k.weight = util.global.load @__auto.blk.13.attn_k.weight : tensor<256x2176xi8>
    %162 = torch_c.from_builtin_tensor %__auto.blk.13.attn_k.weight : tensor<256x2176xi8> -> !torch.vtensor<[256,2176],ui8>
    %__auto.blk.13.attn_v.weight = util.global.load @__auto.blk.13.attn_v.weight : tensor<256x2176xi8>
    %163 = torch_c.from_builtin_tensor %__auto.blk.13.attn_v.weight : tensor<256x2176xi8> -> !torch.vtensor<[256,2176],ui8>
    %__auto.blk.13.attn_output.weight = util.global.load @__auto.blk.13.attn_output.weight : tensor<2048x2176xi8>
    %164 = torch_c.from_builtin_tensor %__auto.blk.13.attn_output.weight : tensor<2048x2176xi8> -> !torch.vtensor<[2048,2176],ui8>
    %__auto.blk.13.ffn_norm.weight = util.global.load @__auto.blk.13.ffn_norm.weight : tensor<2048xf32>
    %165 = torch_c.from_builtin_tensor %__auto.blk.13.ffn_norm.weight : tensor<2048xf32> -> !torch.vtensor<[2048],f32>
    %__auto.blk.13.ffn_gate.weight = util.global.load @__auto.blk.13.ffn_gate.weight : tensor<5632x2176xi8>
    %166 = torch_c.from_builtin_tensor %__auto.blk.13.ffn_gate.weight : tensor<5632x2176xi8> -> !torch.vtensor<[5632,2176],ui8>
    %__auto.blk.13.ffn_up.weight = util.global.load @__auto.blk.13.ffn_up.weight : tensor<5632x2176xi8>
    %167 = torch_c.from_builtin_tensor %__auto.blk.13.ffn_up.weight : tensor<5632x2176xi8> -> !torch.vtensor<[5632,2176],ui8>
    %__auto.blk.13.ffn_down.weight = util.global.load @__auto.blk.13.ffn_down.weight : tensor<2048x5984xi8>
    %168 = torch_c.from_builtin_tensor %__auto.blk.13.ffn_down.weight : tensor<2048x5984xi8> -> !torch.vtensor<[2048,5984],ui8>
    %169 = torch.vtensor.literal(dense<1.000000e+00> : tensor<f32>) : !torch.vtensor<[],f32>
    %170 = torch.vtensor.literal(dense<1.000000e+00> : tensor<f32>) : !torch.vtensor<[],f32>
    %171 = torch.vtensor.literal(dense<0xFC00> : tensor<f16>) : !torch.vtensor<[],f16>
    %__auto.blk.14.attn_norm.weight = util.global.load @__auto.blk.14.attn_norm.weight : tensor<2048xf32>
    %172 = torch_c.from_builtin_tensor %__auto.blk.14.attn_norm.weight : tensor<2048xf32> -> !torch.vtensor<[2048],f32>
    %__auto.blk.14.attn_q.weight = util.global.load @__auto.blk.14.attn_q.weight : tensor<2048x2176xi8>
    %173 = torch_c.from_builtin_tensor %__auto.blk.14.attn_q.weight : tensor<2048x2176xi8> -> !torch.vtensor<[2048,2176],ui8>
    %__auto.blk.14.attn_k.weight = util.global.load @__auto.blk.14.attn_k.weight : tensor<256x2176xi8>
    %174 = torch_c.from_builtin_tensor %__auto.blk.14.attn_k.weight : tensor<256x2176xi8> -> !torch.vtensor<[256,2176],ui8>
    %__auto.blk.14.attn_v.weight = util.global.load @__auto.blk.14.attn_v.weight : tensor<256x2176xi8>
    %175 = torch_c.from_builtin_tensor %__auto.blk.14.attn_v.weight : tensor<256x2176xi8> -> !torch.vtensor<[256,2176],ui8>
    %__auto.blk.14.attn_output.weight = util.global.load @__auto.blk.14.attn_output.weight : tensor<2048x2176xi8>
    %176 = torch_c.from_builtin_tensor %__auto.blk.14.attn_output.weight : tensor<2048x2176xi8> -> !torch.vtensor<[2048,2176],ui8>
    %__auto.blk.14.ffn_norm.weight = util.global.load @__auto.blk.14.ffn_norm.weight : tensor<2048xf32>
    %177 = torch_c.from_builtin_tensor %__auto.blk.14.ffn_norm.weight : tensor<2048xf32> -> !torch.vtensor<[2048],f32>
    %__auto.blk.14.ffn_gate.weight = util.global.load @__auto.blk.14.ffn_gate.weight : tensor<5632x2176xi8>
    %178 = torch_c.from_builtin_tensor %__auto.blk.14.ffn_gate.weight : tensor<5632x2176xi8> -> !torch.vtensor<[5632,2176],ui8>
    %__auto.blk.14.ffn_up.weight = util.global.load @__auto.blk.14.ffn_up.weight : tensor<5632x2176xi8>
    %179 = torch_c.from_builtin_tensor %__auto.blk.14.ffn_up.weight : tensor<5632x2176xi8> -> !torch.vtensor<[5632,2176],ui8>
    %__auto.blk.14.ffn_down.weight = util.global.load @__auto.blk.14.ffn_down.weight : tensor<2048x5984xi8>
    %180 = torch_c.from_builtin_tensor %__auto.blk.14.ffn_down.weight : tensor<2048x5984xi8> -> !torch.vtensor<[2048,5984],ui8>
    %181 = torch.vtensor.literal(dense<1.000000e+00> : tensor<f32>) : !torch.vtensor<[],f32>
    %182 = torch.vtensor.literal(dense<1.000000e+00> : tensor<f32>) : !torch.vtensor<[],f32>
    %183 = torch.vtensor.literal(dense<0xFC00> : tensor<f16>) : !torch.vtensor<[],f16>
    %__auto.blk.15.attn_norm.weight = util.global.load @__auto.blk.15.attn_norm.weight : tensor<2048xf32>
    %184 = torch_c.from_builtin_tensor %__auto.blk.15.attn_norm.weight : tensor<2048xf32> -> !torch.vtensor<[2048],f32>
    %__auto.blk.15.attn_q.weight = util.global.load @__auto.blk.15.attn_q.weight : tensor<2048x2176xi8>
    %185 = torch_c.from_builtin_tensor %__auto.blk.15.attn_q.weight : tensor<2048x2176xi8> -> !torch.vtensor<[2048,2176],ui8>
    %__auto.blk.15.attn_k.weight = util.global.load @__auto.blk.15.attn_k.weight : tensor<256x2176xi8>
    %186 = torch_c.from_builtin_tensor %__auto.blk.15.attn_k.weight : tensor<256x2176xi8> -> !torch.vtensor<[256,2176],ui8>
    %__auto.blk.15.attn_v.weight = util.global.load @__auto.blk.15.attn_v.weight : tensor<256x2176xi8>
    %187 = torch_c.from_builtin_tensor %__auto.blk.15.attn_v.weight : tensor<256x2176xi8> -> !torch.vtensor<[256,2176],ui8>
    %__auto.blk.15.attn_output.weight = util.global.load @__auto.blk.15.attn_output.weight : tensor<2048x2176xi8>
    %188 = torch_c.from_builtin_tensor %__auto.blk.15.attn_output.weight : tensor<2048x2176xi8> -> !torch.vtensor<[2048,2176],ui8>
    %__auto.blk.15.ffn_norm.weight = util.global.load @__auto.blk.15.ffn_norm.weight : tensor<2048xf32>
    %189 = torch_c.from_builtin_tensor %__auto.blk.15.ffn_norm.weight : tensor<2048xf32> -> !torch.vtensor<[2048],f32>
    %__auto.blk.15.ffn_gate.weight = util.global.load @__auto.blk.15.ffn_gate.weight : tensor<5632x2176xi8>
    %190 = torch_c.from_builtin_tensor %__auto.blk.15.ffn_gate.weight : tensor<5632x2176xi8> -> !torch.vtensor<[5632,2176],ui8>
    %__auto.blk.15.ffn_up.weight = util.global.load @__auto.blk.15.ffn_up.weight : tensor<5632x2176xi8>
    %191 = torch_c.from_builtin_tensor %__auto.blk.15.ffn_up.weight : tensor<5632x2176xi8> -> !torch.vtensor<[5632,2176],ui8>
    %__auto.blk.15.ffn_down.weight = util.global.load @__auto.blk.15.ffn_down.weight : tensor<2048x5984xi8>
    %192 = torch_c.from_builtin_tensor %__auto.blk.15.ffn_down.weight : tensor<2048x5984xi8> -> !torch.vtensor<[2048,5984],ui8>
    %193 = torch.vtensor.literal(dense<1.000000e+00> : tensor<f32>) : !torch.vtensor<[],f32>
    %194 = torch.vtensor.literal(dense<1.000000e+00> : tensor<f32>) : !torch.vtensor<[],f32>
    %195 = torch.vtensor.literal(dense<0xFC00> : tensor<f16>) : !torch.vtensor<[],f16>
    %__auto.blk.16.attn_norm.weight = util.global.load @__auto.blk.16.attn_norm.weight : tensor<2048xf32>
    %196 = torch_c.from_builtin_tensor %__auto.blk.16.attn_norm.weight : tensor<2048xf32> -> !torch.vtensor<[2048],f32>
    %__auto.blk.16.attn_q.weight = util.global.load @__auto.blk.16.attn_q.weight : tensor<2048x2176xi8>
    %197 = torch_c.from_builtin_tensor %__auto.blk.16.attn_q.weight : tensor<2048x2176xi8> -> !torch.vtensor<[2048,2176],ui8>
    %__auto.blk.16.attn_k.weight = util.global.load @__auto.blk.16.attn_k.weight : tensor<256x2176xi8>
    %198 = torch_c.from_builtin_tensor %__auto.blk.16.attn_k.weight : tensor<256x2176xi8> -> !torch.vtensor<[256,2176],ui8>
    %__auto.blk.16.attn_v.weight = util.global.load @__auto.blk.16.attn_v.weight : tensor<256x2176xi8>
    %199 = torch_c.from_builtin_tensor %__auto.blk.16.attn_v.weight : tensor<256x2176xi8> -> !torch.vtensor<[256,2176],ui8>
    %__auto.blk.16.attn_output.weight = util.global.load @__auto.blk.16.attn_output.weight : tensor<2048x2176xi8>
    %200 = torch_c.from_builtin_tensor %__auto.blk.16.attn_output.weight : tensor<2048x2176xi8> -> !torch.vtensor<[2048,2176],ui8>
    %__auto.blk.16.ffn_norm.weight = util.global.load @__auto.blk.16.ffn_norm.weight : tensor<2048xf32>
    %201 = torch_c.from_builtin_tensor %__auto.blk.16.ffn_norm.weight : tensor<2048xf32> -> !torch.vtensor<[2048],f32>
    %__auto.blk.16.ffn_gate.weight = util.global.load @__auto.blk.16.ffn_gate.weight : tensor<5632x2176xi8>
    %202 = torch_c.from_builtin_tensor %__auto.blk.16.ffn_gate.weight : tensor<5632x2176xi8> -> !torch.vtensor<[5632,2176],ui8>
    %__auto.blk.16.ffn_up.weight = util.global.load @__auto.blk.16.ffn_up.weight : tensor<5632x2176xi8>
    %203 = torch_c.from_builtin_tensor %__auto.blk.16.ffn_up.weight : tensor<5632x2176xi8> -> !torch.vtensor<[5632,2176],ui8>
    %__auto.blk.16.ffn_down.weight = util.global.load @__auto.blk.16.ffn_down.weight : tensor<2048x5984xi8>
    %204 = torch_c.from_builtin_tensor %__auto.blk.16.ffn_down.weight : tensor<2048x5984xi8> -> !torch.vtensor<[2048,5984],ui8>
    %205 = torch.vtensor.literal(dense<1.000000e+00> : tensor<f32>) : !torch.vtensor<[],f32>
    %206 = torch.vtensor.literal(dense<1.000000e+00> : tensor<f32>) : !torch.vtensor<[],f32>
    %207 = torch.vtensor.literal(dense<0xFC00> : tensor<f16>) : !torch.vtensor<[],f16>
    %__auto.blk.17.attn_norm.weight = util.global.load @__auto.blk.17.attn_norm.weight : tensor<2048xf32>
    %208 = torch_c.from_builtin_tensor %__auto.blk.17.attn_norm.weight : tensor<2048xf32> -> !torch.vtensor<[2048],f32>
    %__auto.blk.17.attn_q.weight = util.global.load @__auto.blk.17.attn_q.weight : tensor<2048x2176xi8>
    %209 = torch_c.from_builtin_tensor %__auto.blk.17.attn_q.weight : tensor<2048x2176xi8> -> !torch.vtensor<[2048,2176],ui8>
    %__auto.blk.17.attn_k.weight = util.global.load @__auto.blk.17.attn_k.weight : tensor<256x2176xi8>
    %210 = torch_c.from_builtin_tensor %__auto.blk.17.attn_k.weight : tensor<256x2176xi8> -> !torch.vtensor<[256,2176],ui8>
    %__auto.blk.17.attn_v.weight = util.global.load @__auto.blk.17.attn_v.weight : tensor<256x2176xi8>
    %211 = torch_c.from_builtin_tensor %__auto.blk.17.attn_v.weight : tensor<256x2176xi8> -> !torch.vtensor<[256,2176],ui8>
    %__auto.blk.17.attn_output.weight = util.global.load @__auto.blk.17.attn_output.weight : tensor<2048x2176xi8>
    %212 = torch_c.from_builtin_tensor %__auto.blk.17.attn_output.weight : tensor<2048x2176xi8> -> !torch.vtensor<[2048,2176],ui8>
    %__auto.blk.17.ffn_norm.weight = util.global.load @__auto.blk.17.ffn_norm.weight : tensor<2048xf32>
    %213 = torch_c.from_builtin_tensor %__auto.blk.17.ffn_norm.weight : tensor<2048xf32> -> !torch.vtensor<[2048],f32>
    %__auto.blk.17.ffn_gate.weight = util.global.load @__auto.blk.17.ffn_gate.weight : tensor<5632x2176xi8>
    %214 = torch_c.from_builtin_tensor %__auto.blk.17.ffn_gate.weight : tensor<5632x2176xi8> -> !torch.vtensor<[5632,2176],ui8>
    %__auto.blk.17.ffn_up.weight = util.global.load @__auto.blk.17.ffn_up.weight : tensor<5632x2176xi8>
    %215 = torch_c.from_builtin_tensor %__auto.blk.17.ffn_up.weight : tensor<5632x2176xi8> -> !torch.vtensor<[5632,2176],ui8>
    %__auto.blk.17.ffn_down.weight = util.global.load @__auto.blk.17.ffn_down.weight : tensor<2048x5984xi8>
    %216 = torch_c.from_builtin_tensor %__auto.blk.17.ffn_down.weight : tensor<2048x5984xi8> -> !torch.vtensor<[2048,5984],ui8>
    %217 = torch.vtensor.literal(dense<1.000000e+00> : tensor<f32>) : !torch.vtensor<[],f32>
    %218 = torch.vtensor.literal(dense<1.000000e+00> : tensor<f32>) : !torch.vtensor<[],f32>
    %219 = torch.vtensor.literal(dense<0xFC00> : tensor<f16>) : !torch.vtensor<[],f16>
    %__auto.blk.18.attn_norm.weight = util.global.load @__auto.blk.18.attn_norm.weight : tensor<2048xf32>
    %220 = torch_c.from_builtin_tensor %__auto.blk.18.attn_norm.weight : tensor<2048xf32> -> !torch.vtensor<[2048],f32>
    %__auto.blk.18.attn_q.weight = util.global.load @__auto.blk.18.attn_q.weight : tensor<2048x2176xi8>
    %221 = torch_c.from_builtin_tensor %__auto.blk.18.attn_q.weight : tensor<2048x2176xi8> -> !torch.vtensor<[2048,2176],ui8>
    %__auto.blk.18.attn_k.weight = util.global.load @__auto.blk.18.attn_k.weight : tensor<256x2176xi8>
    %222 = torch_c.from_builtin_tensor %__auto.blk.18.attn_k.weight : tensor<256x2176xi8> -> !torch.vtensor<[256,2176],ui8>
    %__auto.blk.18.attn_v.weight = util.global.load @__auto.blk.18.attn_v.weight : tensor<256x2176xi8>
    %223 = torch_c.from_builtin_tensor %__auto.blk.18.attn_v.weight : tensor<256x2176xi8> -> !torch.vtensor<[256,2176],ui8>
    %__auto.blk.18.attn_output.weight = util.global.load @__auto.blk.18.attn_output.weight : tensor<2048x2176xi8>
    %224 = torch_c.from_builtin_tensor %__auto.blk.18.attn_output.weight : tensor<2048x2176xi8> -> !torch.vtensor<[2048,2176],ui8>
    %__auto.blk.18.ffn_norm.weight = util.global.load @__auto.blk.18.ffn_norm.weight : tensor<2048xf32>
    %225 = torch_c.from_builtin_tensor %__auto.blk.18.ffn_norm.weight : tensor<2048xf32> -> !torch.vtensor<[2048],f32>
    %__auto.blk.18.ffn_gate.weight = util.global.load @__auto.blk.18.ffn_gate.weight : tensor<5632x2176xi8>
    %226 = torch_c.from_builtin_tensor %__auto.blk.18.ffn_gate.weight : tensor<5632x2176xi8> -> !torch.vtensor<[5632,2176],ui8>
    %__auto.blk.18.ffn_up.weight = util.global.load @__auto.blk.18.ffn_up.weight : tensor<5632x2176xi8>
    %227 = torch_c.from_builtin_tensor %__auto.blk.18.ffn_up.weight : tensor<5632x2176xi8> -> !torch.vtensor<[5632,2176],ui8>
    %__auto.blk.18.ffn_down.weight = util.global.load @__auto.blk.18.ffn_down.weight : tensor<2048x5984xi8>
    %228 = torch_c.from_builtin_tensor %__auto.blk.18.ffn_down.weight : tensor<2048x5984xi8> -> !torch.vtensor<[2048,5984],ui8>
    %229 = torch.vtensor.literal(dense<1.000000e+00> : tensor<f32>) : !torch.vtensor<[],f32>
    %230 = torch.vtensor.literal(dense<1.000000e+00> : tensor<f32>) : !torch.vtensor<[],f32>
    %231 = torch.vtensor.literal(dense<0xFC00> : tensor<f16>) : !torch.vtensor<[],f16>
    %__auto.blk.19.attn_norm.weight = util.global.load @__auto.blk.19.attn_norm.weight : tensor<2048xf32>
    %232 = torch_c.from_builtin_tensor %__auto.blk.19.attn_norm.weight : tensor<2048xf32> -> !torch.vtensor<[2048],f32>
    %__auto.blk.19.attn_q.weight = util.global.load @__auto.blk.19.attn_q.weight : tensor<2048x2176xi8>
    %233 = torch_c.from_builtin_tensor %__auto.blk.19.attn_q.weight : tensor<2048x2176xi8> -> !torch.vtensor<[2048,2176],ui8>
    %__auto.blk.19.attn_k.weight = util.global.load @__auto.blk.19.attn_k.weight : tensor<256x2176xi8>
    %234 = torch_c.from_builtin_tensor %__auto.blk.19.attn_k.weight : tensor<256x2176xi8> -> !torch.vtensor<[256,2176],ui8>
    %__auto.blk.19.attn_v.weight = util.global.load @__auto.blk.19.attn_v.weight : tensor<256x2176xi8>
    %235 = torch_c.from_builtin_tensor %__auto.blk.19.attn_v.weight : tensor<256x2176xi8> -> !torch.vtensor<[256,2176],ui8>
    %__auto.blk.19.attn_output.weight = util.global.load @__auto.blk.19.attn_output.weight : tensor<2048x2176xi8>
    %236 = torch_c.from_builtin_tensor %__auto.blk.19.attn_output.weight : tensor<2048x2176xi8> -> !torch.vtensor<[2048,2176],ui8>
    %__auto.blk.19.ffn_norm.weight = util.global.load @__auto.blk.19.ffn_norm.weight : tensor<2048xf32>
    %237 = torch_c.from_builtin_tensor %__auto.blk.19.ffn_norm.weight : tensor<2048xf32> -> !torch.vtensor<[2048],f32>
    %__auto.blk.19.ffn_gate.weight = util.global.load @__auto.blk.19.ffn_gate.weight : tensor<5632x2176xi8>
    %238 = torch_c.from_builtin_tensor %__auto.blk.19.ffn_gate.weight : tensor<5632x2176xi8> -> !torch.vtensor<[5632,2176],ui8>
    %__auto.blk.19.ffn_up.weight = util.global.load @__auto.blk.19.ffn_up.weight : tensor<5632x2176xi8>
    %239 = torch_c.from_builtin_tensor %__auto.blk.19.ffn_up.weight : tensor<5632x2176xi8> -> !torch.vtensor<[5632,2176],ui8>
    %__auto.blk.19.ffn_down.weight = util.global.load @__auto.blk.19.ffn_down.weight : tensor<2048x5984xi8>
    %240 = torch_c.from_builtin_tensor %__auto.blk.19.ffn_down.weight : tensor<2048x5984xi8> -> !torch.vtensor<[2048,5984],ui8>
    %241 = torch.vtensor.literal(dense<1.000000e+00> : tensor<f32>) : !torch.vtensor<[],f32>
    %242 = torch.vtensor.literal(dense<1.000000e+00> : tensor<f32>) : !torch.vtensor<[],f32>
    %243 = torch.vtensor.literal(dense<0xFC00> : tensor<f16>) : !torch.vtensor<[],f16>
    %__auto.blk.20.attn_norm.weight = util.global.load @__auto.blk.20.attn_norm.weight : tensor<2048xf32>
    %244 = torch_c.from_builtin_tensor %__auto.blk.20.attn_norm.weight : tensor<2048xf32> -> !torch.vtensor<[2048],f32>
    %__auto.blk.20.attn_q.weight = util.global.load @__auto.blk.20.attn_q.weight : tensor<2048x2176xi8>
    %245 = torch_c.from_builtin_tensor %__auto.blk.20.attn_q.weight : tensor<2048x2176xi8> -> !torch.vtensor<[2048,2176],ui8>
    %__auto.blk.20.attn_k.weight = util.global.load @__auto.blk.20.attn_k.weight : tensor<256x2176xi8>
    %246 = torch_c.from_builtin_tensor %__auto.blk.20.attn_k.weight : tensor<256x2176xi8> -> !torch.vtensor<[256,2176],ui8>
    %__auto.blk.20.attn_v.weight = util.global.load @__auto.blk.20.attn_v.weight : tensor<256x2176xi8>
    %247 = torch_c.from_builtin_tensor %__auto.blk.20.attn_v.weight : tensor<256x2176xi8> -> !torch.vtensor<[256,2176],ui8>
    %__auto.blk.20.attn_output.weight = util.global.load @__auto.blk.20.attn_output.weight : tensor<2048x2176xi8>
    %248 = torch_c.from_builtin_tensor %__auto.blk.20.attn_output.weight : tensor<2048x2176xi8> -> !torch.vtensor<[2048,2176],ui8>
    %__auto.blk.20.ffn_norm.weight = util.global.load @__auto.blk.20.ffn_norm.weight : tensor<2048xf32>
    %249 = torch_c.from_builtin_tensor %__auto.blk.20.ffn_norm.weight : tensor<2048xf32> -> !torch.vtensor<[2048],f32>
    %__auto.blk.20.ffn_gate.weight = util.global.load @__auto.blk.20.ffn_gate.weight : tensor<5632x2176xi8>
    %250 = torch_c.from_builtin_tensor %__auto.blk.20.ffn_gate.weight : tensor<5632x2176xi8> -> !torch.vtensor<[5632,2176],ui8>
    %__auto.blk.20.ffn_up.weight = util.global.load @__auto.blk.20.ffn_up.weight : tensor<5632x2176xi8>
    %251 = torch_c.from_builtin_tensor %__auto.blk.20.ffn_up.weight : tensor<5632x2176xi8> -> !torch.vtensor<[5632,2176],ui8>
    %__auto.blk.20.ffn_down.weight = util.global.load @__auto.blk.20.ffn_down.weight : tensor<2048x5984xi8>
    %252 = torch_c.from_builtin_tensor %__auto.blk.20.ffn_down.weight : tensor<2048x5984xi8> -> !torch.vtensor<[2048,5984],ui8>
    %253 = torch.vtensor.literal(dense<1.000000e+00> : tensor<f32>) : !torch.vtensor<[],f32>
    %254 = torch.vtensor.literal(dense<1.000000e+00> : tensor<f32>) : !torch.vtensor<[],f32>
    %255 = torch.vtensor.literal(dense<0xFC00> : tensor<f16>) : !torch.vtensor<[],f16>
    %__auto.blk.21.attn_norm.weight = util.global.load @__auto.blk.21.attn_norm.weight : tensor<2048xf32>
    %256 = torch_c.from_builtin_tensor %__auto.blk.21.attn_norm.weight : tensor<2048xf32> -> !torch.vtensor<[2048],f32>
    %__auto.blk.21.attn_q.weight = util.global.load @__auto.blk.21.attn_q.weight : tensor<2048x2176xi8>
    %257 = torch_c.from_builtin_tensor %__auto.blk.21.attn_q.weight : tensor<2048x2176xi8> -> !torch.vtensor<[2048,2176],ui8>
    %__auto.blk.21.attn_k.weight = util.global.load @__auto.blk.21.attn_k.weight : tensor<256x2176xi8>
    %258 = torch_c.from_builtin_tensor %__auto.blk.21.attn_k.weight : tensor<256x2176xi8> -> !torch.vtensor<[256,2176],ui8>
    %__auto.blk.21.attn_v.weight = util.global.load @__auto.blk.21.attn_v.weight : tensor<256x2176xi8>
    %259 = torch_c.from_builtin_tensor %__auto.blk.21.attn_v.weight : tensor<256x2176xi8> -> !torch.vtensor<[256,2176],ui8>
    %__auto.blk.21.attn_output.weight = util.global.load @__auto.blk.21.attn_output.weight : tensor<2048x2176xi8>
    %260 = torch_c.from_builtin_tensor %__auto.blk.21.attn_output.weight : tensor<2048x2176xi8> -> !torch.vtensor<[2048,2176],ui8>
    %__auto.blk.21.ffn_norm.weight = util.global.load @__auto.blk.21.ffn_norm.weight : tensor<2048xf32>
    %261 = torch_c.from_builtin_tensor %__auto.blk.21.ffn_norm.weight : tensor<2048xf32> -> !torch.vtensor<[2048],f32>
    %__auto.blk.21.ffn_gate.weight = util.global.load @__auto.blk.21.ffn_gate.weight : tensor<5632x2176xi8>
    %262 = torch_c.from_builtin_tensor %__auto.blk.21.ffn_gate.weight : tensor<5632x2176xi8> -> !torch.vtensor<[5632,2176],ui8>
    %__auto.blk.21.ffn_up.weight = util.global.load @__auto.blk.21.ffn_up.weight : tensor<5632x2176xi8>
    %263 = torch_c.from_builtin_tensor %__auto.blk.21.ffn_up.weight : tensor<5632x2176xi8> -> !torch.vtensor<[5632,2176],ui8>
    %__auto.blk.21.ffn_down.weight = util.global.load @__auto.blk.21.ffn_down.weight : tensor<2048x5984xi8>
    %264 = torch_c.from_builtin_tensor %__auto.blk.21.ffn_down.weight : tensor<2048x5984xi8> -> !torch.vtensor<[2048,5984],ui8>
    %__auto.output_norm.weight = util.global.load @__auto.output_norm.weight : tensor<2048xf32>
    %265 = torch_c.from_builtin_tensor %__auto.output_norm.weight : tensor<2048xf32> -> !torch.vtensor<[2048],f32>
    %__auto.output.weight = util.global.load @__auto.output.weight : tensor<32000x2176xi8>
    %266 = torch_c.from_builtin_tensor %__auto.output.weight : tensor<32000x2176xi8> -> !torch.vtensor<[32000,2176],ui8>
    %267 = torch.copy.to_vtensor %arg3 : !torch.vtensor<[?,360448],f16>
    %268 = torch.symbolic_int "32*s23" {min_val = 64, max_val = 2016} : !torch.int
    %269 = torch.symbolic_int "s23" {min_val = 2, max_val = 63} : !torch.int
    %270 = torch.symbolic_int "s39" {min_val = 0, max_val = 9223372036854775807} : !torch.int
    torch.bind_symbolic_shape %arg0, [%269], affine_map<()[s0] -> (4, s0 * 32)> : !torch.vtensor<[4,?],si64>
    torch.bind_symbolic_shape %arg2, [%269], affine_map<()[s0] -> (4, s0)> : !torch.vtensor<[4,?],si64>
    torch.bind_symbolic_shape %267, [%270], affine_map<()[s0] -> (s0, 360448)> : !torch.vtensor<[?,360448],f16>
    %int1 = torch.constant.int 1
    %271 = torch.aten.size.int %arg2, %int1 : !torch.vtensor<[4,?],si64>, !torch.int -> !torch.int
    %int0 = torch.constant.int 0
    %272 = torch.aten.size.int %267, %int0 : !torch.vtensor<[?,360448],f16>, !torch.int -> !torch.int
    %int1_0 = torch.constant.int 1
    %273 = torch.aten.size.int %arg0, %int1_0 : !torch.vtensor<[4,?],si64>, !torch.int -> !torch.int
    %int2 = torch.constant.int 2
    %274 = torch.aten.view.dtype %0, %int2 : !torch.vtensor<[32000,2176],ui8>, !torch.int -> !torch.vtensor<[32000,1088],si16>
    %275 = torch.aten.detach %274 : !torch.vtensor<[32000,1088],si16> -> !torch.vtensor<[32000,1088],si16>
    %int-1 = torch.constant.int -1
    %int17 = torch.constant.int 17
    %276 = torch.prim.ListConstruct %int-1, %int17 : (!torch.int, !torch.int) -> !torch.list<int>
    %277 = torch.aten.view %275, %276 : !torch.vtensor<[32000,1088],si16>, !torch.list<int> -> !torch.vtensor<[2048000,17],si16>
    %int32000 = torch.constant.int 32000
    %int-1_1 = torch.constant.int -1
    %int17_2 = torch.constant.int 17
    %278 = torch.prim.ListConstruct %int32000, %int-1_1, %int17_2 : (!torch.int, !torch.int, !torch.int) -> !torch.list<int>
    %279 = torch.aten.view %277, %278 : !torch.vtensor<[2048000,17],si16>, !torch.list<int> -> !torch.vtensor<[32000,64,17],si16>
    %int2_3 = torch.constant.int 2
    %int0_4 = torch.constant.int 0
    %int1_5 = torch.constant.int 1
    %int1_6 = torch.constant.int 1
    %280 = torch.aten.slice.Tensor %279, %int2_3, %int0_4, %int1_5, %int1_6 : !torch.vtensor<[32000,64,17],si16>, !torch.int, !torch.int, !torch.int, !torch.int -> !torch.vtensor<[32000,64,1],si16>
    %int5 = torch.constant.int 5
    %281 = torch.aten.view.dtype %280, %int5 : !torch.vtensor<[32000,64,1],si16>, !torch.int -> !torch.vtensor<[32000,64,1],f16>
    %282 = torch.aten.detach %281 : !torch.vtensor<[32000,64,1],f16> -> !torch.vtensor<[32000,64,1],f16>
    %int2_7 = torch.constant.int 2
    %int1_8 = torch.constant.int 1
    %int9223372036854775807 = torch.constant.int 9223372036854775807
    %int1_9 = torch.constant.int 1
    %283 = torch.aten.slice.Tensor %279, %int2_7, %int1_8, %int9223372036854775807, %int1_9 : !torch.vtensor<[32000,64,17],si16>, !torch.int, !torch.int, !torch.int, !torch.int -> !torch.vtensor<[32000,64,16],si16>
    %int1_10 = torch.constant.int 1
    %284 = torch.aten.view.dtype %283, %int1_10 : !torch.vtensor<[32000,64,16],si16>, !torch.int -> !torch.vtensor<[32000,64,32],si8>
    %285 = torch.aten.detach %284 : !torch.vtensor<[32000,64,32],si8> -> !torch.vtensor<[32000,64,32],si8>
    %none = torch.constant.none
    %none_11 = torch.constant.none
    %int5_12 = torch.constant.int 5
    %cpu = torch.constant.device "cpu"
    %int0_13 = torch.constant.int 0
    torch.aten._assert_tensor_metadata %282, %none, %none_11, %int5_12, %cpu, %int0_13 : !torch.vtensor<[32000,64,1],f16>, !torch.none, !torch.none, !torch.int, !torch.Device, !torch.int
    %none_14 = torch.constant.none
    %none_15 = torch.constant.none
    %int1_16 = torch.constant.int 1
    %cpu_17 = torch.constant.device "cpu"
    %int0_18 = torch.constant.int 0
    torch.aten._assert_tensor_metadata %285, %none_14, %none_15, %int1_16, %cpu_17, %int0_18 : !torch.vtensor<[32000,64,32],si8>, !torch.none, !torch.none, !torch.int, !torch.Device, !torch.int
    %int5_19 = torch.constant.int 5
    %286 = torch.prims.convert_element_type %285, %int5_19 : !torch.vtensor<[32000,64,32],si8>, !torch.int -> !torch.vtensor<[32000,64,32],f16>
    %287 = torch.aten.mul.Tensor %282, %286 : !torch.vtensor<[32000,64,1],f16>, !torch.vtensor<[32000,64,32],f16> -> !torch.vtensor<[32000,64,32],f16>
    %int32000_20 = torch.constant.int 32000
    %int2048 = torch.constant.int 2048
    %288 = torch.prim.ListConstruct %int32000_20, %int2048 : (!torch.int, !torch.int) -> !torch.list<int>
    %289 = torch.aten.view %287, %288 : !torch.vtensor<[32000,64,32],f16>, !torch.list<int> -> !torch.vtensor<[32000,2048],f16>
    %int-1_21 = torch.constant.int -1
    %false = torch.constant.bool false
    %false_22 = torch.constant.bool false
    %290 = torch.aten.embedding %289, %arg0, %int-1_21, %false, %false_22 : !torch.vtensor<[32000,2048],f16>, !torch.vtensor<[4,?],si64>, !torch.int, !torch.bool, !torch.bool -> !torch.vtensor<[4,?,2048],f16>
    torch.bind_symbolic_shape %290, [%269], affine_map<()[s0] -> (4, s0 * 32, 2048)> : !torch.vtensor<[4,?,2048],f16>
    %none_23 = torch.constant.none
    %none_24 = torch.constant.none
    %int5_25 = torch.constant.int 5
    %cpu_26 = torch.constant.device "cpu"
    %int0_27 = torch.constant.int 0
    torch.aten._assert_tensor_metadata %290, %none_23, %none_24, %int5_25, %cpu_26, %int0_27 : !torch.vtensor<[4,?,2048],f16>, !torch.none, !torch.none, !torch.int, !torch.Device, !torch.int
    %int6 = torch.constant.int 6
    %291 = torch.prims.convert_element_type %290, %int6 : !torch.vtensor<[4,?,2048],f16>, !torch.int -> !torch.vtensor<[4,?,2048],f32>
    torch.bind_symbolic_shape %291, [%269], affine_map<()[s0] -> (4, s0 * 32, 2048)> : !torch.vtensor<[4,?,2048],f32>
    %int2_28 = torch.constant.int 2
    %292 = torch.aten.pow.Tensor_Scalar %291, %int2_28 : !torch.vtensor<[4,?,2048],f32>, !torch.int -> !torch.vtensor<[4,?,2048],f32>
    torch.bind_symbolic_shape %292, [%269], affine_map<()[s0] -> (4, s0 * 32, 2048)> : !torch.vtensor<[4,?,2048],f32>
    %int-1_29 = torch.constant.int -1
    %293 = torch.prim.ListConstruct %int-1_29 : (!torch.int) -> !torch.list<int>
    %true = torch.constant.bool true
    %none_30 = torch.constant.none
    %294 = torch.aten.mean.dim %292, %293, %true, %none_30 : !torch.vtensor<[4,?,2048],f32>, !torch.list<int>, !torch.bool, !torch.none -> !torch.vtensor<[4,?,1],f32>
    torch.bind_symbolic_shape %294, [%269], affine_map<()[s0] -> (4, s0 * 32, 1)> : !torch.vtensor<[4,?,1],f32>
    %float9.999990e-06 = torch.constant.float 9.9999997473787516E-6
    %int1_31 = torch.constant.int 1
    %295 = torch.aten.add.Scalar %294, %float9.999990e-06, %int1_31 : !torch.vtensor<[4,?,1],f32>, !torch.float, !torch.int -> !torch.vtensor<[4,?,1],f32>
    torch.bind_symbolic_shape %295, [%269], affine_map<()[s0] -> (4, s0 * 32, 1)> : !torch.vtensor<[4,?,1],f32>
    %296 = torch.aten.rsqrt %295 : !torch.vtensor<[4,?,1],f32> -> !torch.vtensor<[4,?,1],f32>
    torch.bind_symbolic_shape %296, [%269], affine_map<()[s0] -> (4, s0 * 32, 1)> : !torch.vtensor<[4,?,1],f32>
    %297 = torch.aten.mul.Tensor %291, %296 : !torch.vtensor<[4,?,2048],f32>, !torch.vtensor<[4,?,1],f32> -> !torch.vtensor<[4,?,2048],f32>
    torch.bind_symbolic_shape %297, [%269], affine_map<()[s0] -> (4, s0 * 32, 2048)> : !torch.vtensor<[4,?,2048],f32>
    %none_32 = torch.constant.none
    %none_33 = torch.constant.none
    %int6_34 = torch.constant.int 6
    %cpu_35 = torch.constant.device "cpu"
    %int0_36 = torch.constant.int 0
    torch.aten._assert_tensor_metadata %297, %none_32, %none_33, %int6_34, %cpu_35, %int0_36 : !torch.vtensor<[4,?,2048],f32>, !torch.none, !torch.none, !torch.int, !torch.Device, !torch.int
    %int5_37 = torch.constant.int 5
    %298 = torch.prims.convert_element_type %297, %int5_37 : !torch.vtensor<[4,?,2048],f32>, !torch.int -> !torch.vtensor<[4,?,2048],f16>
    torch.bind_symbolic_shape %298, [%269], affine_map<()[s0] -> (4, s0 * 32, 2048)> : !torch.vtensor<[4,?,2048],f16>
    %299 = torch.aten.mul.Tensor %4, %298 : !torch.vtensor<[2048],f32>, !torch.vtensor<[4,?,2048],f16> -> !torch.vtensor<[4,?,2048],f32>
    torch.bind_symbolic_shape %299, [%269], affine_map<()[s0] -> (4, s0 * 32, 2048)> : !torch.vtensor<[4,?,2048],f32>
    %none_38 = torch.constant.none
    %none_39 = torch.constant.none
    %int6_40 = torch.constant.int 6
    %cpu_41 = torch.constant.device "cpu"
    %int0_42 = torch.constant.int 0
    torch.aten._assert_tensor_metadata %299, %none_38, %none_39, %int6_40, %cpu_41, %int0_42 : !torch.vtensor<[4,?,2048],f32>, !torch.none, !torch.none, !torch.int, !torch.Device, !torch.int
    %int5_43 = torch.constant.int 5
    %300 = torch.prims.convert_element_type %299, %int5_43 : !torch.vtensor<[4,?,2048],f32>, !torch.int -> !torch.vtensor<[4,?,2048],f16>
    torch.bind_symbolic_shape %300, [%269], affine_map<()[s0] -> (4, s0 * 32, 2048)> : !torch.vtensor<[4,?,2048],f16>
    %int2_44 = torch.constant.int 2
    %301 = torch.aten.view.dtype %5, %int2_44 : !torch.vtensor<[2048,2176],ui8>, !torch.int -> !torch.vtensor<[2048,1088],si16>
    %302 = torch.aten.detach %301 : !torch.vtensor<[2048,1088],si16> -> !torch.vtensor<[2048,1088],si16>
    %int-1_45 = torch.constant.int -1
    %int17_46 = torch.constant.int 17
    %303 = torch.prim.ListConstruct %int-1_45, %int17_46 : (!torch.int, !torch.int) -> !torch.list<int>
    %304 = torch.aten.view %302, %303 : !torch.vtensor<[2048,1088],si16>, !torch.list<int> -> !torch.vtensor<[131072,17],si16>
    %int2048_47 = torch.constant.int 2048
    %int-1_48 = torch.constant.int -1
    %int17_49 = torch.constant.int 17
    %305 = torch.prim.ListConstruct %int2048_47, %int-1_48, %int17_49 : (!torch.int, !torch.int, !torch.int) -> !torch.list<int>
    %306 = torch.aten.view %304, %305 : !torch.vtensor<[131072,17],si16>, !torch.list<int> -> !torch.vtensor<[2048,64,17],si16>
    %int2_50 = torch.constant.int 2
    %int0_51 = torch.constant.int 0
    %int1_52 = torch.constant.int 1
    %int1_53 = torch.constant.int 1
    %307 = torch.aten.slice.Tensor %306, %int2_50, %int0_51, %int1_52, %int1_53 : !torch.vtensor<[2048,64,17],si16>, !torch.int, !torch.int, !torch.int, !torch.int -> !torch.vtensor<[2048,64,1],si16>
    %int5_54 = torch.constant.int 5
    %308 = torch.aten.view.dtype %307, %int5_54 : !torch.vtensor<[2048,64,1],si16>, !torch.int -> !torch.vtensor<[2048,64,1],f16>
    %309 = torch.aten.detach %308 : !torch.vtensor<[2048,64,1],f16> -> !torch.vtensor<[2048,64,1],f16>
    %int2_55 = torch.constant.int 2
    %int1_56 = torch.constant.int 1
    %int9223372036854775807_57 = torch.constant.int 9223372036854775807
    %int1_58 = torch.constant.int 1
    %310 = torch.aten.slice.Tensor %306, %int2_55, %int1_56, %int9223372036854775807_57, %int1_58 : !torch.vtensor<[2048,64,17],si16>, !torch.int, !torch.int, !torch.int, !torch.int -> !torch.vtensor<[2048,64,16],si16>
    %int1_59 = torch.constant.int 1
    %311 = torch.aten.view.dtype %310, %int1_59 : !torch.vtensor<[2048,64,16],si16>, !torch.int -> !torch.vtensor<[2048,64,32],si8>
    %312 = torch.aten.detach %311 : !torch.vtensor<[2048,64,32],si8> -> !torch.vtensor<[2048,64,32],si8>
    %313 = torch_c.to_builtin_tensor %300 : !torch.vtensor<[4,?,2048],f16> -> tensor<4x?x2048xf16>
    %cast = tensor.cast %313 : tensor<4x?x2048xf16> to tensor<?x?x2048xf16>
    %314 = torch_c.to_builtin_tensor %309 : !torch.vtensor<[2048,64,1],f16> -> tensor<2048x64x1xf16>
    %315 = torch_c.to_builtin_tensor %312 : !torch.vtensor<[2048,64,32],si8> -> tensor<2048x64x32xi8>
    %316 = util.call @sharktank_mmt_block_scaled_q8_3d_2048_2048_32_f16(%cast, %314, %315) : (tensor<?x?x2048xf16>, tensor<2048x64x1xf16>, tensor<2048x64x32xi8>) -> tensor<?x?x2048xf16>
    %cast_60 = tensor.cast %316 : tensor<?x?x2048xf16> to tensor<4x?x2048xf16>
    %317 = torch_c.from_builtin_tensor %cast_60 : tensor<4x?x2048xf16> -> !torch.vtensor<[4,?,2048],f16>
    torch.bind_symbolic_shape %317, [%269], affine_map<()[s0] -> (4, s0 * 32, 2048)> : !torch.vtensor<[4,?,2048],f16>
    %int2_61 = torch.constant.int 2
    %318 = torch.aten.view.dtype %6, %int2_61 : !torch.vtensor<[256,2176],ui8>, !torch.int -> !torch.vtensor<[256,1088],si16>
    %319 = torch.aten.detach %318 : !torch.vtensor<[256,1088],si16> -> !torch.vtensor<[256,1088],si16>
    %int-1_62 = torch.constant.int -1
    %int17_63 = torch.constant.int 17
    %320 = torch.prim.ListConstruct %int-1_62, %int17_63 : (!torch.int, !torch.int) -> !torch.list<int>
    %321 = torch.aten.view %319, %320 : !torch.vtensor<[256,1088],si16>, !torch.list<int> -> !torch.vtensor<[16384,17],si16>
    %int256 = torch.constant.int 256
    %int-1_64 = torch.constant.int -1
    %int17_65 = torch.constant.int 17
    %322 = torch.prim.ListConstruct %int256, %int-1_64, %int17_65 : (!torch.int, !torch.int, !torch.int) -> !torch.list<int>
    %323 = torch.aten.view %321, %322 : !torch.vtensor<[16384,17],si16>, !torch.list<int> -> !torch.vtensor<[256,64,17],si16>
    %int2_66 = torch.constant.int 2
    %int0_67 = torch.constant.int 0
    %int1_68 = torch.constant.int 1
    %int1_69 = torch.constant.int 1
    %324 = torch.aten.slice.Tensor %323, %int2_66, %int0_67, %int1_68, %int1_69 : !torch.vtensor<[256,64,17],si16>, !torch.int, !torch.int, !torch.int, !torch.int -> !torch.vtensor<[256,64,1],si16>
    %int5_70 = torch.constant.int 5
    %325 = torch.aten.view.dtype %324, %int5_70 : !torch.vtensor<[256,64,1],si16>, !torch.int -> !torch.vtensor<[256,64,1],f16>
    %326 = torch.aten.detach %325 : !torch.vtensor<[256,64,1],f16> -> !torch.vtensor<[256,64,1],f16>
    %int2_71 = torch.constant.int 2
    %int1_72 = torch.constant.int 1
    %int9223372036854775807_73 = torch.constant.int 9223372036854775807
    %int1_74 = torch.constant.int 1
    %327 = torch.aten.slice.Tensor %323, %int2_71, %int1_72, %int9223372036854775807_73, %int1_74 : !torch.vtensor<[256,64,17],si16>, !torch.int, !torch.int, !torch.int, !torch.int -> !torch.vtensor<[256,64,16],si16>
    %int1_75 = torch.constant.int 1
    %328 = torch.aten.view.dtype %327, %int1_75 : !torch.vtensor<[256,64,16],si16>, !torch.int -> !torch.vtensor<[256,64,32],si8>
    %329 = torch.aten.detach %328 : !torch.vtensor<[256,64,32],si8> -> !torch.vtensor<[256,64,32],si8>
    %330 = torch_c.to_builtin_tensor %300 : !torch.vtensor<[4,?,2048],f16> -> tensor<4x?x2048xf16>
    %cast_76 = tensor.cast %330 : tensor<4x?x2048xf16> to tensor<?x?x2048xf16>
    %331 = torch_c.to_builtin_tensor %326 : !torch.vtensor<[256,64,1],f16> -> tensor<256x64x1xf16>
    %332 = torch_c.to_builtin_tensor %329 : !torch.vtensor<[256,64,32],si8> -> tensor<256x64x32xi8>
    %333 = util.call @sharktank_mmt_block_scaled_q8_3d_256_2048_32_f16(%cast_76, %331, %332) : (tensor<?x?x2048xf16>, tensor<256x64x1xf16>, tensor<256x64x32xi8>) -> tensor<?x?x256xf16>
    %cast_77 = tensor.cast %333 : tensor<?x?x256xf16> to tensor<4x?x256xf16>
    %334 = torch_c.from_builtin_tensor %cast_77 : tensor<4x?x256xf16> -> !torch.vtensor<[4,?,256],f16>
    torch.bind_symbolic_shape %334, [%269], affine_map<()[s0] -> (4, s0 * 32, 256)> : !torch.vtensor<[4,?,256],f16>
    %int2_78 = torch.constant.int 2
    %335 = torch.aten.view.dtype %7, %int2_78 : !torch.vtensor<[256,2176],ui8>, !torch.int -> !torch.vtensor<[256,1088],si16>
    %336 = torch.aten.detach %335 : !torch.vtensor<[256,1088],si16> -> !torch.vtensor<[256,1088],si16>
    %int-1_79 = torch.constant.int -1
    %int17_80 = torch.constant.int 17
    %337 = torch.prim.ListConstruct %int-1_79, %int17_80 : (!torch.int, !torch.int) -> !torch.list<int>
    %338 = torch.aten.view %336, %337 : !torch.vtensor<[256,1088],si16>, !torch.list<int> -> !torch.vtensor<[16384,17],si16>
    %int256_81 = torch.constant.int 256
    %int-1_82 = torch.constant.int -1
    %int17_83 = torch.constant.int 17
    %339 = torch.prim.ListConstruct %int256_81, %int-1_82, %int17_83 : (!torch.int, !torch.int, !torch.int) -> !torch.list<int>
    %340 = torch.aten.view %338, %339 : !torch.vtensor<[16384,17],si16>, !torch.list<int> -> !torch.vtensor<[256,64,17],si16>
    %int2_84 = torch.constant.int 2
    %int0_85 = torch.constant.int 0
    %int1_86 = torch.constant.int 1
    %int1_87 = torch.constant.int 1
    %341 = torch.aten.slice.Tensor %340, %int2_84, %int0_85, %int1_86, %int1_87 : !torch.vtensor<[256,64,17],si16>, !torch.int, !torch.int, !torch.int, !torch.int -> !torch.vtensor<[256,64,1],si16>
    %int5_88 = torch.constant.int 5
    %342 = torch.aten.view.dtype %341, %int5_88 : !torch.vtensor<[256,64,1],si16>, !torch.int -> !torch.vtensor<[256,64,1],f16>
    %343 = torch.aten.detach %342 : !torch.vtensor<[256,64,1],f16> -> !torch.vtensor<[256,64,1],f16>
    %int2_89 = torch.constant.int 2
    %int1_90 = torch.constant.int 1
    %int9223372036854775807_91 = torch.constant.int 9223372036854775807
    %int1_92 = torch.constant.int 1
    %344 = torch.aten.slice.Tensor %340, %int2_89, %int1_90, %int9223372036854775807_91, %int1_92 : !torch.vtensor<[256,64,17],si16>, !torch.int, !torch.int, !torch.int, !torch.int -> !torch.vtensor<[256,64,16],si16>
    %int1_93 = torch.constant.int 1
    %345 = torch.aten.view.dtype %344, %int1_93 : !torch.vtensor<[256,64,16],si16>, !torch.int -> !torch.vtensor<[256,64,32],si8>
    %346 = torch.aten.detach %345 : !torch.vtensor<[256,64,32],si8> -> !torch.vtensor<[256,64,32],si8>
    %347 = torch_c.to_builtin_tensor %300 : !torch.vtensor<[4,?,2048],f16> -> tensor<4x?x2048xf16>
    %cast_94 = tensor.cast %347 : tensor<4x?x2048xf16> to tensor<?x?x2048xf16>
    %348 = torch_c.to_builtin_tensor %343 : !torch.vtensor<[256,64,1],f16> -> tensor<256x64x1xf16>
    %349 = torch_c.to_builtin_tensor %346 : !torch.vtensor<[256,64,32],si8> -> tensor<256x64x32xi8>
    %350 = util.call @sharktank_mmt_block_scaled_q8_3d_256_2048_32_f16(%cast_94, %348, %349) : (tensor<?x?x2048xf16>, tensor<256x64x1xf16>, tensor<256x64x32xi8>) -> tensor<?x?x256xf16>
    %cast_95 = tensor.cast %350 : tensor<?x?x256xf16> to tensor<4x?x256xf16>
    %351 = torch_c.from_builtin_tensor %cast_95 : tensor<4x?x256xf16> -> !torch.vtensor<[4,?,256],f16>
    torch.bind_symbolic_shape %351, [%269], affine_map<()[s0] -> (4, s0 * 32, 256)> : !torch.vtensor<[4,?,256],f16>
    %int4 = torch.constant.int 4
    %int32 = torch.constant.int 32
    %int64 = torch.constant.int 64
    %352 = torch.prim.ListConstruct %int4, %273, %int32, %int64 : (!torch.int, !torch.int, !torch.int, !torch.int) -> !torch.list<int>
    %353 = torch.aten.view %317, %352 : !torch.vtensor<[4,?,2048],f16>, !torch.list<int> -> !torch.vtensor<[4,?,32,64],f16>
    torch.bind_symbolic_shape %353, [%269], affine_map<()[s0] -> (4, s0 * 32, 32, 64)> : !torch.vtensor<[4,?,32,64],f16>
    %int4_96 = torch.constant.int 4
    %int4_97 = torch.constant.int 4
    %int64_98 = torch.constant.int 64
    %354 = torch.prim.ListConstruct %int4_96, %273, %int4_97, %int64_98 : (!torch.int, !torch.int, !torch.int, !torch.int) -> !torch.list<int>
    %355 = torch.aten.view %334, %354 : !torch.vtensor<[4,?,256],f16>, !torch.list<int> -> !torch.vtensor<[4,?,4,64],f16>
    torch.bind_symbolic_shape %355, [%269], affine_map<()[s0] -> (4, s0 * 32, 4, 64)> : !torch.vtensor<[4,?,4,64],f16>
    %int4_99 = torch.constant.int 4
    %int4_100 = torch.constant.int 4
    %int64_101 = torch.constant.int 64
    %356 = torch.prim.ListConstruct %int4_99, %273, %int4_100, %int64_101 : (!torch.int, !torch.int, !torch.int, !torch.int) -> !torch.list<int>
    %357 = torch.aten.view %351, %356 : !torch.vtensor<[4,?,256],f16>, !torch.list<int> -> !torch.vtensor<[4,?,4,64],f16>
    torch.bind_symbolic_shape %357, [%269], affine_map<()[s0] -> (4, s0 * 32, 4, 64)> : !torch.vtensor<[4,?,4,64],f16>
    %int0_102 = torch.constant.int 0
    %none_103 = torch.constant.none
    %none_104 = torch.constant.none
    %cpu_105 = torch.constant.device "cpu"
    %false_106 = torch.constant.bool false
    %358 = torch.aten.arange.start %int0_102, %273, %none_103, %none_104, %cpu_105, %false_106 : !torch.int, !torch.int, !torch.none, !torch.none, !torch.Device, !torch.bool -> !torch.vtensor<[?],si64>
    torch.bind_symbolic_shape %358, [%269], affine_map<()[s0] -> (s0 * 32)> : !torch.vtensor<[?],si64>
    %int0_107 = torch.constant.int 0
    %359 = torch.aten.unsqueeze %358, %int0_107 : !torch.vtensor<[?],si64>, !torch.int -> !torch.vtensor<[1,?],si64>
    torch.bind_symbolic_shape %359, [%269], affine_map<()[s0] -> (1, s0 * 32)> : !torch.vtensor<[1,?],si64>
    %int0_108 = torch.constant.int 0
    %int64_109 = torch.constant.int 64
    %int2_110 = torch.constant.int 2
    %none_111 = torch.constant.none
    %none_112 = torch.constant.none
    %cpu_113 = torch.constant.device "cpu"
    %false_114 = torch.constant.bool false
    %360 = torch.aten.arange.start_step %int0_108, %int64_109, %int2_110, %none_111, %none_112, %cpu_113, %false_114 : !torch.int, !torch.int, !torch.int, !torch.none, !torch.none, !torch.Device, !torch.bool -> !torch.vtensor<[32],si64>
    %none_115 = torch.constant.none
    %none_116 = torch.constant.none
    %int4_117 = torch.constant.int 4
    %cpu_118 = torch.constant.device "cpu"
    %int0_119 = torch.constant.int 0
    torch.aten._assert_tensor_metadata %360, %none_115, %none_116, %int4_117, %cpu_118, %int0_119 : !torch.vtensor<[32],si64>, !torch.none, !torch.none, !torch.int, !torch.Device, !torch.int
    %int6_120 = torch.constant.int 6
    %361 = torch.prims.convert_element_type %360, %int6_120 : !torch.vtensor<[32],si64>, !torch.int -> !torch.vtensor<[32],f32>
    %int64_121 = torch.constant.int 64
    %362 = torch.aten.div.Scalar %361, %int64_121 : !torch.vtensor<[32],f32>, !torch.int -> !torch.vtensor<[32],f32>
    %float1.000000e04 = torch.constant.float 1.000000e+04
    %363 = torch.aten.pow.Scalar %float1.000000e04, %362 : !torch.float, !torch.vtensor<[32],f32> -> !torch.vtensor<[32],f32>
    %364 = torch.aten.reciprocal %363 : !torch.vtensor<[32],f32> -> !torch.vtensor<[32],f32>
    %float1.000000e00 = torch.constant.float 1.000000e+00
    %365 = torch.aten.mul.Scalar %364, %float1.000000e00 : !torch.vtensor<[32],f32>, !torch.float -> !torch.vtensor<[32],f32>
    %none_122 = torch.constant.none
    %366 = torch.aten.clone %1, %none_122 : !torch.vtensor<[],f32>, !torch.none -> !torch.vtensor<[],f32>
    %int0_123 = torch.constant.int 0
    %367 = torch.aten.unsqueeze %365, %int0_123 : !torch.vtensor<[32],f32>, !torch.int -> !torch.vtensor<[1,32],f32>
    %int2_124 = torch.constant.int 2
    %368 = torch.aten.unsqueeze %367, %int2_124 : !torch.vtensor<[1,32],f32>, !torch.int -> !torch.vtensor<[1,32,1],f32>
    %none_125 = torch.constant.none
    %none_126 = torch.constant.none
    %int6_127 = torch.constant.int 6
    %cpu_128 = torch.constant.device "cpu"
    %int0_129 = torch.constant.int 0
    torch.aten._assert_tensor_metadata %368, %none_125, %none_126, %int6_127, %cpu_128, %int0_129 : !torch.vtensor<[1,32,1],f32>, !torch.none, !torch.none, !torch.int, !torch.Device, !torch.int
    %int1_130 = torch.constant.int 1
    %int-1_131 = torch.constant.int -1
    %int1_132 = torch.constant.int 1
    %369 = torch.prim.ListConstruct %int1_130, %int-1_131, %int1_132 : (!torch.int, !torch.int, !torch.int) -> !torch.list<int>
    %false_133 = torch.constant.bool false
    %370 = torch.aten.expand %368, %369, %false_133 : !torch.vtensor<[1,32,1],f32>, !torch.list<int>, !torch.bool -> !torch.vtensor<[1,32,1],f32>
    %int1_134 = torch.constant.int 1
    %371 = torch.aten.unsqueeze %359, %int1_134 : !torch.vtensor<[1,?],si64>, !torch.int -> !torch.vtensor<[1,1,?],si64>
    torch.bind_symbolic_shape %371, [%269], affine_map<()[s0] -> (1, 1, s0 * 32)> : !torch.vtensor<[1,1,?],si64>
    %none_135 = torch.constant.none
    %none_136 = torch.constant.none
    %int4_137 = torch.constant.int 4
    %cpu_138 = torch.constant.device "cpu"
    %int0_139 = torch.constant.int 0
    torch.aten._assert_tensor_metadata %371, %none_135, %none_136, %int4_137, %cpu_138, %int0_139 : !torch.vtensor<[1,1,?],si64>, !torch.none, !torch.none, !torch.int, !torch.Device, !torch.int
    %int6_140 = torch.constant.int 6
    %372 = torch.prims.convert_element_type %371, %int6_140 : !torch.vtensor<[1,1,?],si64>, !torch.int -> !torch.vtensor<[1,1,?],f32>
    torch.bind_symbolic_shape %372, [%269], affine_map<()[s0] -> (1, 1, s0 * 32)> : !torch.vtensor<[1,1,?],f32>
    %373 = torch.aten.matmul %370, %372 : !torch.vtensor<[1,32,1],f32>, !torch.vtensor<[1,1,?],f32> -> !torch.vtensor<[1,32,?],f32>
    torch.bind_symbolic_shape %373, [%269], affine_map<()[s0] -> (1, 32, s0 * 32)> : !torch.vtensor<[1,32,?],f32>
    %int1_141 = torch.constant.int 1
    %int2_142 = torch.constant.int 2
    %374 = torch.aten.transpose.int %373, %int1_141, %int2_142 : !torch.vtensor<[1,32,?],f32>, !torch.int, !torch.int -> !torch.vtensor<[1,?,32],f32>
    torch.bind_symbolic_shape %374, [%269], affine_map<()[s0] -> (1, s0 * 32, 32)> : !torch.vtensor<[1,?,32],f32>
    %375 = torch.aten.cos %374 : !torch.vtensor<[1,?,32],f32> -> !torch.vtensor<[1,?,32],f32>
    torch.bind_symbolic_shape %375, [%269], affine_map<()[s0] -> (1, s0 * 32, 32)> : !torch.vtensor<[1,?,32],f32>
    %376 = torch.aten.mul.Tensor %375, %366 : !torch.vtensor<[1,?,32],f32>, !torch.vtensor<[],f32> -> !torch.vtensor<[1,?,32],f32>
    torch.bind_symbolic_shape %376, [%269], affine_map<()[s0] -> (1, s0 * 32, 32)> : !torch.vtensor<[1,?,32],f32>
    %none_143 = torch.constant.none
    %none_144 = torch.constant.none
    %int6_145 = torch.constant.int 6
    %cpu_146 = torch.constant.device "cpu"
    %int0_147 = torch.constant.int 0
    torch.aten._assert_tensor_metadata %376, %none_143, %none_144, %int6_145, %cpu_146, %int0_147 : !torch.vtensor<[1,?,32],f32>, !torch.none, !torch.none, !torch.int, !torch.Device, !torch.int
    %int5_148 = torch.constant.int 5
    %377 = torch.prims.convert_element_type %376, %int5_148 : !torch.vtensor<[1,?,32],f32>, !torch.int -> !torch.vtensor<[1,?,32],f16>
    torch.bind_symbolic_shape %377, [%269], affine_map<()[s0] -> (1, s0 * 32, 32)> : !torch.vtensor<[1,?,32],f16>
    %378 = torch.aten.sin %374 : !torch.vtensor<[1,?,32],f32> -> !torch.vtensor<[1,?,32],f32>
    torch.bind_symbolic_shape %378, [%269], affine_map<()[s0] -> (1, s0 * 32, 32)> : !torch.vtensor<[1,?,32],f32>
    %379 = torch.aten.mul.Tensor %378, %366 : !torch.vtensor<[1,?,32],f32>, !torch.vtensor<[],f32> -> !torch.vtensor<[1,?,32],f32>
    torch.bind_symbolic_shape %379, [%269], affine_map<()[s0] -> (1, s0 * 32, 32)> : !torch.vtensor<[1,?,32],f32>
    %none_149 = torch.constant.none
    %none_150 = torch.constant.none
    %int6_151 = torch.constant.int 6
    %cpu_152 = torch.constant.device "cpu"
    %int0_153 = torch.constant.int 0
    torch.aten._assert_tensor_metadata %379, %none_149, %none_150, %int6_151, %cpu_152, %int0_153 : !torch.vtensor<[1,?,32],f32>, !torch.none, !torch.none, !torch.int, !torch.Device, !torch.int
    %int5_154 = torch.constant.int 5
    %380 = torch.prims.convert_element_type %379, %int5_154 : !torch.vtensor<[1,?,32],f32>, !torch.int -> !torch.vtensor<[1,?,32],f16>
    torch.bind_symbolic_shape %380, [%269], affine_map<()[s0] -> (1, s0 * 32, 32)> : !torch.vtensor<[1,?,32],f16>
    %int2_155 = torch.constant.int 2
    %381 = torch.aten.unsqueeze %377, %int2_155 : !torch.vtensor<[1,?,32],f16>, !torch.int -> !torch.vtensor<[1,?,1,32],f16>
    torch.bind_symbolic_shape %381, [%269], affine_map<()[s0] -> (1, s0 * 32, 1, 32)> : !torch.vtensor<[1,?,1,32],f16>
    %int2_156 = torch.constant.int 2
    %382 = torch.aten.unsqueeze %380, %int2_156 : !torch.vtensor<[1,?,32],f16>, !torch.int -> !torch.vtensor<[1,?,1,32],f16>
    torch.bind_symbolic_shape %382, [%269], affine_map<()[s0] -> (1, s0 * 32, 1, 32)> : !torch.vtensor<[1,?,1,32],f16>
    %none_157 = torch.constant.none
    %none_158 = torch.constant.none
    %int5_159 = torch.constant.int 5
    %cpu_160 = torch.constant.device "cpu"
    %int0_161 = torch.constant.int 0
    torch.aten._assert_tensor_metadata %381, %none_157, %none_158, %int5_159, %cpu_160, %int0_161 : !torch.vtensor<[1,?,1,32],f16>, !torch.none, !torch.none, !torch.int, !torch.Device, !torch.int
    %none_162 = torch.constant.none
    %none_163 = torch.constant.none
    %int5_164 = torch.constant.int 5
    %cpu_165 = torch.constant.device "cpu"
    %int0_166 = torch.constant.int 0
    torch.aten._assert_tensor_metadata %382, %none_162, %none_163, %int5_164, %cpu_165, %int0_166 : !torch.vtensor<[1,?,1,32],f16>, !torch.none, !torch.none, !torch.int, !torch.Device, !torch.int
    %none_167 = torch.constant.none
    %none_168 = torch.constant.none
    %int5_169 = torch.constant.int 5
    %cpu_170 = torch.constant.device "cpu"
    %int0_171 = torch.constant.int 0
    torch.aten._assert_tensor_metadata %353, %none_167, %none_168, %int5_169, %cpu_170, %int0_171 : !torch.vtensor<[4,?,32,64],f16>, !torch.none, !torch.none, !torch.int, !torch.Device, !torch.int
    %int3 = torch.constant.int 3
    %int0_172 = torch.constant.int 0
    %int64_173 = torch.constant.int 64
    %int2_174 = torch.constant.int 2
    %383 = torch.aten.slice.Tensor %353, %int3, %int0_172, %int64_173, %int2_174 : !torch.vtensor<[4,?,32,64],f16>, !torch.int, !torch.int, !torch.int, !torch.int -> !torch.vtensor<[4,?,32,32],f16>
    torch.bind_symbolic_shape %383, [%269], affine_map<()[s0] -> (4, s0 * 32, 32, 32)> : !torch.vtensor<[4,?,32,32],f16>
    %int3_175 = torch.constant.int 3
    %int1_176 = torch.constant.int 1
    %int64_177 = torch.constant.int 64
    %int2_178 = torch.constant.int 2
    %384 = torch.aten.slice.Tensor %353, %int3_175, %int1_176, %int64_177, %int2_178 : !torch.vtensor<[4,?,32,64],f16>, !torch.int, !torch.int, !torch.int, !torch.int -> !torch.vtensor<[4,?,32,32],f16>
    torch.bind_symbolic_shape %384, [%269], affine_map<()[s0] -> (4, s0 * 32, 32, 32)> : !torch.vtensor<[4,?,32,32],f16>
    %385 = torch.aten.mul.Tensor %383, %381 : !torch.vtensor<[4,?,32,32],f16>, !torch.vtensor<[1,?,1,32],f16> -> !torch.vtensor<[4,?,32,32],f16>
    torch.bind_symbolic_shape %385, [%269], affine_map<()[s0] -> (4, s0 * 32, 32, 32)> : !torch.vtensor<[4,?,32,32],f16>
    %386 = torch.aten.mul.Tensor %384, %382 : !torch.vtensor<[4,?,32,32],f16>, !torch.vtensor<[1,?,1,32],f16> -> !torch.vtensor<[4,?,32,32],f16>
    torch.bind_symbolic_shape %386, [%269], affine_map<()[s0] -> (4, s0 * 32, 32, 32)> : !torch.vtensor<[4,?,32,32],f16>
    %int1_179 = torch.constant.int 1
    %387 = torch.aten.sub.Tensor %385, %386, %int1_179 : !torch.vtensor<[4,?,32,32],f16>, !torch.vtensor<[4,?,32,32],f16>, !torch.int -> !torch.vtensor<[4,?,32,32],f16>
    torch.bind_symbolic_shape %387, [%269], affine_map<()[s0] -> (4, s0 * 32, 32, 32)> : !torch.vtensor<[4,?,32,32],f16>
    %388 = torch.aten.mul.Tensor %384, %381 : !torch.vtensor<[4,?,32,32],f16>, !torch.vtensor<[1,?,1,32],f16> -> !torch.vtensor<[4,?,32,32],f16>
    torch.bind_symbolic_shape %388, [%269], affine_map<()[s0] -> (4, s0 * 32, 32, 32)> : !torch.vtensor<[4,?,32,32],f16>
    %389 = torch.aten.mul.Tensor %383, %382 : !torch.vtensor<[4,?,32,32],f16>, !torch.vtensor<[1,?,1,32],f16> -> !torch.vtensor<[4,?,32,32],f16>
    torch.bind_symbolic_shape %389, [%269], affine_map<()[s0] -> (4, s0 * 32, 32, 32)> : !torch.vtensor<[4,?,32,32],f16>
    %int1_180 = torch.constant.int 1
    %390 = torch.aten.add.Tensor %388, %389, %int1_180 : !torch.vtensor<[4,?,32,32],f16>, !torch.vtensor<[4,?,32,32],f16>, !torch.int -> !torch.vtensor<[4,?,32,32],f16>
    torch.bind_symbolic_shape %390, [%269], affine_map<()[s0] -> (4, s0 * 32, 32, 32)> : !torch.vtensor<[4,?,32,32],f16>
    %391 = torch_c.to_builtin_tensor %387 : !torch.vtensor<[4,?,32,32],f16> -> tensor<4x?x32x32xf16>
    %cast_181 = tensor.cast %391 : tensor<4x?x32x32xf16> to tensor<?x?x?x?xf16>
    %392 = torch_c.to_builtin_tensor %390 : !torch.vtensor<[4,?,32,32],f16> -> tensor<4x?x32x32xf16>
    %cast_182 = tensor.cast %392 : tensor<4x?x32x32xf16> to tensor<?x?x?x?xf16>
    %393 = util.call @rope_select_concat_BS_SL_HEADS_HALFDIM_f16_BS_SL_HEADS_HALFDIM_f16_BS_SL_HEADS_TWO_2_HALFDIM_f16(%cast_181, %cast_182) : (tensor<?x?x?x?xf16>, tensor<?x?x?x?xf16>) -> tensor<?x?x?x2x?xf16>
    %cast_183 = tensor.cast %393 : tensor<?x?x?x2x?xf16> to tensor<4x?x32x2x32xf16>
    %394 = torch_c.from_builtin_tensor %cast_183 : tensor<4x?x32x2x32xf16> -> !torch.vtensor<[4,?,32,2,32],f16>
    torch.bind_symbolic_shape %394, [%269], affine_map<()[s0] -> (4, s0 * 32, 32, 2, 32)> : !torch.vtensor<[4,?,32,2,32],f16>
    %int4_184 = torch.constant.int 4
    %int32_185 = torch.constant.int 32
    %int64_186 = torch.constant.int 64
    %395 = torch.prim.ListConstruct %int4_184, %273, %int32_185, %int64_186 : (!torch.int, !torch.int, !torch.int, !torch.int) -> !torch.list<int>
    %396 = torch.aten.view %394, %395 : !torch.vtensor<[4,?,32,2,32],f16>, !torch.list<int> -> !torch.vtensor<[4,?,32,64],f16>
    torch.bind_symbolic_shape %396, [%269], affine_map<()[s0] -> (4, s0 * 32, 32, 64)> : !torch.vtensor<[4,?,32,64],f16>
    %none_187 = torch.constant.none
    %none_188 = torch.constant.none
    %int5_189 = torch.constant.int 5
    %cpu_190 = torch.constant.device "cpu"
    %int0_191 = torch.constant.int 0
    torch.aten._assert_tensor_metadata %396, %none_187, %none_188, %int5_189, %cpu_190, %int0_191 : !torch.vtensor<[4,?,32,64],f16>, !torch.none, !torch.none, !torch.int, !torch.Device, !torch.int
    %int0_192 = torch.constant.int 0
    %none_193 = torch.constant.none
    %none_194 = torch.constant.none
    %cpu_195 = torch.constant.device "cpu"
    %false_196 = torch.constant.bool false
    %397 = torch.aten.arange.start %int0_192, %273, %none_193, %none_194, %cpu_195, %false_196 : !torch.int, !torch.int, !torch.none, !torch.none, !torch.Device, !torch.bool -> !torch.vtensor<[?],si64>
    torch.bind_symbolic_shape %397, [%269], affine_map<()[s0] -> (s0 * 32)> : !torch.vtensor<[?],si64>
    %int0_197 = torch.constant.int 0
    %398 = torch.aten.unsqueeze %397, %int0_197 : !torch.vtensor<[?],si64>, !torch.int -> !torch.vtensor<[1,?],si64>
    torch.bind_symbolic_shape %398, [%269], affine_map<()[s0] -> (1, s0 * 32)> : !torch.vtensor<[1,?],si64>
    %int0_198 = torch.constant.int 0
    %int64_199 = torch.constant.int 64
    %int2_200 = torch.constant.int 2
    %none_201 = torch.constant.none
    %none_202 = torch.constant.none
    %cpu_203 = torch.constant.device "cpu"
    %false_204 = torch.constant.bool false
    %399 = torch.aten.arange.start_step %int0_198, %int64_199, %int2_200, %none_201, %none_202, %cpu_203, %false_204 : !torch.int, !torch.int, !torch.int, !torch.none, !torch.none, !torch.Device, !torch.bool -> !torch.vtensor<[32],si64>
    %none_205 = torch.constant.none
    %none_206 = torch.constant.none
    %int4_207 = torch.constant.int 4
    %cpu_208 = torch.constant.device "cpu"
    %int0_209 = torch.constant.int 0
    torch.aten._assert_tensor_metadata %399, %none_205, %none_206, %int4_207, %cpu_208, %int0_209 : !torch.vtensor<[32],si64>, !torch.none, !torch.none, !torch.int, !torch.Device, !torch.int
    %int6_210 = torch.constant.int 6
    %400 = torch.prims.convert_element_type %399, %int6_210 : !torch.vtensor<[32],si64>, !torch.int -> !torch.vtensor<[32],f32>
    %int64_211 = torch.constant.int 64
    %401 = torch.aten.div.Scalar %400, %int64_211 : !torch.vtensor<[32],f32>, !torch.int -> !torch.vtensor<[32],f32>
    %float1.000000e04_212 = torch.constant.float 1.000000e+04
    %402 = torch.aten.pow.Scalar %float1.000000e04_212, %401 : !torch.float, !torch.vtensor<[32],f32> -> !torch.vtensor<[32],f32>
    %403 = torch.aten.reciprocal %402 : !torch.vtensor<[32],f32> -> !torch.vtensor<[32],f32>
    %float1.000000e00_213 = torch.constant.float 1.000000e+00
    %404 = torch.aten.mul.Scalar %403, %float1.000000e00_213 : !torch.vtensor<[32],f32>, !torch.float -> !torch.vtensor<[32],f32>
    %none_214 = torch.constant.none
    %405 = torch.aten.clone %2, %none_214 : !torch.vtensor<[],f32>, !torch.none -> !torch.vtensor<[],f32>
    %int0_215 = torch.constant.int 0
    %406 = torch.aten.unsqueeze %404, %int0_215 : !torch.vtensor<[32],f32>, !torch.int -> !torch.vtensor<[1,32],f32>
    %int2_216 = torch.constant.int 2
    %407 = torch.aten.unsqueeze %406, %int2_216 : !torch.vtensor<[1,32],f32>, !torch.int -> !torch.vtensor<[1,32,1],f32>
    %none_217 = torch.constant.none
    %none_218 = torch.constant.none
    %int6_219 = torch.constant.int 6
    %cpu_220 = torch.constant.device "cpu"
    %int0_221 = torch.constant.int 0
    torch.aten._assert_tensor_metadata %407, %none_217, %none_218, %int6_219, %cpu_220, %int0_221 : !torch.vtensor<[1,32,1],f32>, !torch.none, !torch.none, !torch.int, !torch.Device, !torch.int
    %int1_222 = torch.constant.int 1
    %int-1_223 = torch.constant.int -1
    %int1_224 = torch.constant.int 1
    %408 = torch.prim.ListConstruct %int1_222, %int-1_223, %int1_224 : (!torch.int, !torch.int, !torch.int) -> !torch.list<int>
    %false_225 = torch.constant.bool false
    %409 = torch.aten.expand %407, %408, %false_225 : !torch.vtensor<[1,32,1],f32>, !torch.list<int>, !torch.bool -> !torch.vtensor<[1,32,1],f32>
    %int1_226 = torch.constant.int 1
    %410 = torch.aten.unsqueeze %398, %int1_226 : !torch.vtensor<[1,?],si64>, !torch.int -> !torch.vtensor<[1,1,?],si64>
    torch.bind_symbolic_shape %410, [%269], affine_map<()[s0] -> (1, 1, s0 * 32)> : !torch.vtensor<[1,1,?],si64>
    %none_227 = torch.constant.none
    %none_228 = torch.constant.none
    %int4_229 = torch.constant.int 4
    %cpu_230 = torch.constant.device "cpu"
    %int0_231 = torch.constant.int 0
    torch.aten._assert_tensor_metadata %410, %none_227, %none_228, %int4_229, %cpu_230, %int0_231 : !torch.vtensor<[1,1,?],si64>, !torch.none, !torch.none, !torch.int, !torch.Device, !torch.int
    %int6_232 = torch.constant.int 6
    %411 = torch.prims.convert_element_type %410, %int6_232 : !torch.vtensor<[1,1,?],si64>, !torch.int -> !torch.vtensor<[1,1,?],f32>
    torch.bind_symbolic_shape %411, [%269], affine_map<()[s0] -> (1, 1, s0 * 32)> : !torch.vtensor<[1,1,?],f32>
    %412 = torch.aten.matmul %409, %411 : !torch.vtensor<[1,32,1],f32>, !torch.vtensor<[1,1,?],f32> -> !torch.vtensor<[1,32,?],f32>
    torch.bind_symbolic_shape %412, [%269], affine_map<()[s0] -> (1, 32, s0 * 32)> : !torch.vtensor<[1,32,?],f32>
    %int1_233 = torch.constant.int 1
    %int2_234 = torch.constant.int 2
    %413 = torch.aten.transpose.int %412, %int1_233, %int2_234 : !torch.vtensor<[1,32,?],f32>, !torch.int, !torch.int -> !torch.vtensor<[1,?,32],f32>
    torch.bind_symbolic_shape %413, [%269], affine_map<()[s0] -> (1, s0 * 32, 32)> : !torch.vtensor<[1,?,32],f32>
    %414 = torch.aten.cos %413 : !torch.vtensor<[1,?,32],f32> -> !torch.vtensor<[1,?,32],f32>
    torch.bind_symbolic_shape %414, [%269], affine_map<()[s0] -> (1, s0 * 32, 32)> : !torch.vtensor<[1,?,32],f32>
    %415 = torch.aten.mul.Tensor %414, %405 : !torch.vtensor<[1,?,32],f32>, !torch.vtensor<[],f32> -> !torch.vtensor<[1,?,32],f32>
    torch.bind_symbolic_shape %415, [%269], affine_map<()[s0] -> (1, s0 * 32, 32)> : !torch.vtensor<[1,?,32],f32>
    %none_235 = torch.constant.none
    %none_236 = torch.constant.none
    %int6_237 = torch.constant.int 6
    %cpu_238 = torch.constant.device "cpu"
    %int0_239 = torch.constant.int 0
    torch.aten._assert_tensor_metadata %415, %none_235, %none_236, %int6_237, %cpu_238, %int0_239 : !torch.vtensor<[1,?,32],f32>, !torch.none, !torch.none, !torch.int, !torch.Device, !torch.int
    %int5_240 = torch.constant.int 5
    %416 = torch.prims.convert_element_type %415, %int5_240 : !torch.vtensor<[1,?,32],f32>, !torch.int -> !torch.vtensor<[1,?,32],f16>
    torch.bind_symbolic_shape %416, [%269], affine_map<()[s0] -> (1, s0 * 32, 32)> : !torch.vtensor<[1,?,32],f16>
    %417 = torch.aten.sin %413 : !torch.vtensor<[1,?,32],f32> -> !torch.vtensor<[1,?,32],f32>
    torch.bind_symbolic_shape %417, [%269], affine_map<()[s0] -> (1, s0 * 32, 32)> : !torch.vtensor<[1,?,32],f32>
    %418 = torch.aten.mul.Tensor %417, %405 : !torch.vtensor<[1,?,32],f32>, !torch.vtensor<[],f32> -> !torch.vtensor<[1,?,32],f32>
    torch.bind_symbolic_shape %418, [%269], affine_map<()[s0] -> (1, s0 * 32, 32)> : !torch.vtensor<[1,?,32],f32>
    %none_241 = torch.constant.none
    %none_242 = torch.constant.none
    %int6_243 = torch.constant.int 6
    %cpu_244 = torch.constant.device "cpu"
    %int0_245 = torch.constant.int 0
    torch.aten._assert_tensor_metadata %418, %none_241, %none_242, %int6_243, %cpu_244, %int0_245 : !torch.vtensor<[1,?,32],f32>, !torch.none, !torch.none, !torch.int, !torch.Device, !torch.int
    %int5_246 = torch.constant.int 5
    %419 = torch.prims.convert_element_type %418, %int5_246 : !torch.vtensor<[1,?,32],f32>, !torch.int -> !torch.vtensor<[1,?,32],f16>
    torch.bind_symbolic_shape %419, [%269], affine_map<()[s0] -> (1, s0 * 32, 32)> : !torch.vtensor<[1,?,32],f16>
    %int2_247 = torch.constant.int 2
    %420 = torch.aten.unsqueeze %416, %int2_247 : !torch.vtensor<[1,?,32],f16>, !torch.int -> !torch.vtensor<[1,?,1,32],f16>
    torch.bind_symbolic_shape %420, [%269], affine_map<()[s0] -> (1, s0 * 32, 1, 32)> : !torch.vtensor<[1,?,1,32],f16>
    %int2_248 = torch.constant.int 2
    %421 = torch.aten.unsqueeze %419, %int2_248 : !torch.vtensor<[1,?,32],f16>, !torch.int -> !torch.vtensor<[1,?,1,32],f16>
    torch.bind_symbolic_shape %421, [%269], affine_map<()[s0] -> (1, s0 * 32, 1, 32)> : !torch.vtensor<[1,?,1,32],f16>
    %none_249 = torch.constant.none
    %none_250 = torch.constant.none
    %int5_251 = torch.constant.int 5
    %cpu_252 = torch.constant.device "cpu"
    %int0_253 = torch.constant.int 0
    torch.aten._assert_tensor_metadata %420, %none_249, %none_250, %int5_251, %cpu_252, %int0_253 : !torch.vtensor<[1,?,1,32],f16>, !torch.none, !torch.none, !torch.int, !torch.Device, !torch.int
    %none_254 = torch.constant.none
    %none_255 = torch.constant.none
    %int5_256 = torch.constant.int 5
    %cpu_257 = torch.constant.device "cpu"
    %int0_258 = torch.constant.int 0
    torch.aten._assert_tensor_metadata %421, %none_254, %none_255, %int5_256, %cpu_257, %int0_258 : !torch.vtensor<[1,?,1,32],f16>, !torch.none, !torch.none, !torch.int, !torch.Device, !torch.int
    %none_259 = torch.constant.none
    %none_260 = torch.constant.none
    %int5_261 = torch.constant.int 5
    %cpu_262 = torch.constant.device "cpu"
    %int0_263 = torch.constant.int 0
    torch.aten._assert_tensor_metadata %355, %none_259, %none_260, %int5_261, %cpu_262, %int0_263 : !torch.vtensor<[4,?,4,64],f16>, !torch.none, !torch.none, !torch.int, !torch.Device, !torch.int
    %int3_264 = torch.constant.int 3
    %int0_265 = torch.constant.int 0
    %int64_266 = torch.constant.int 64
    %int2_267 = torch.constant.int 2
    %422 = torch.aten.slice.Tensor %355, %int3_264, %int0_265, %int64_266, %int2_267 : !torch.vtensor<[4,?,4,64],f16>, !torch.int, !torch.int, !torch.int, !torch.int -> !torch.vtensor<[4,?,4,32],f16>
    torch.bind_symbolic_shape %422, [%269], affine_map<()[s0] -> (4, s0 * 32, 4, 32)> : !torch.vtensor<[4,?,4,32],f16>
    %int3_268 = torch.constant.int 3
    %int1_269 = torch.constant.int 1
    %int64_270 = torch.constant.int 64
    %int2_271 = torch.constant.int 2
    %423 = torch.aten.slice.Tensor %355, %int3_268, %int1_269, %int64_270, %int2_271 : !torch.vtensor<[4,?,4,64],f16>, !torch.int, !torch.int, !torch.int, !torch.int -> !torch.vtensor<[4,?,4,32],f16>
    torch.bind_symbolic_shape %423, [%269], affine_map<()[s0] -> (4, s0 * 32, 4, 32)> : !torch.vtensor<[4,?,4,32],f16>
    %424 = torch.aten.mul.Tensor %422, %420 : !torch.vtensor<[4,?,4,32],f16>, !torch.vtensor<[1,?,1,32],f16> -> !torch.vtensor<[4,?,4,32],f16>
    torch.bind_symbolic_shape %424, [%269], affine_map<()[s0] -> (4, s0 * 32, 4, 32)> : !torch.vtensor<[4,?,4,32],f16>
    %425 = torch.aten.mul.Tensor %423, %421 : !torch.vtensor<[4,?,4,32],f16>, !torch.vtensor<[1,?,1,32],f16> -> !torch.vtensor<[4,?,4,32],f16>
    torch.bind_symbolic_shape %425, [%269], affine_map<()[s0] -> (4, s0 * 32, 4, 32)> : !torch.vtensor<[4,?,4,32],f16>
    %int1_272 = torch.constant.int 1
    %426 = torch.aten.sub.Tensor %424, %425, %int1_272 : !torch.vtensor<[4,?,4,32],f16>, !torch.vtensor<[4,?,4,32],f16>, !torch.int -> !torch.vtensor<[4,?,4,32],f16>
    torch.bind_symbolic_shape %426, [%269], affine_map<()[s0] -> (4, s0 * 32, 4, 32)> : !torch.vtensor<[4,?,4,32],f16>
    %427 = torch.aten.mul.Tensor %423, %420 : !torch.vtensor<[4,?,4,32],f16>, !torch.vtensor<[1,?,1,32],f16> -> !torch.vtensor<[4,?,4,32],f16>
    torch.bind_symbolic_shape %427, [%269], affine_map<()[s0] -> (4, s0 * 32, 4, 32)> : !torch.vtensor<[4,?,4,32],f16>
    %428 = torch.aten.mul.Tensor %422, %421 : !torch.vtensor<[4,?,4,32],f16>, !torch.vtensor<[1,?,1,32],f16> -> !torch.vtensor<[4,?,4,32],f16>
    torch.bind_symbolic_shape %428, [%269], affine_map<()[s0] -> (4, s0 * 32, 4, 32)> : !torch.vtensor<[4,?,4,32],f16>
    %int1_273 = torch.constant.int 1
    %429 = torch.aten.add.Tensor %427, %428, %int1_273 : !torch.vtensor<[4,?,4,32],f16>, !torch.vtensor<[4,?,4,32],f16>, !torch.int -> !torch.vtensor<[4,?,4,32],f16>
    torch.bind_symbolic_shape %429, [%269], affine_map<()[s0] -> (4, s0 * 32, 4, 32)> : !torch.vtensor<[4,?,4,32],f16>
    %430 = torch_c.to_builtin_tensor %426 : !torch.vtensor<[4,?,4,32],f16> -> tensor<4x?x4x32xf16>
    %cast_274 = tensor.cast %430 : tensor<4x?x4x32xf16> to tensor<?x?x?x?xf16>
    %431 = torch_c.to_builtin_tensor %429 : !torch.vtensor<[4,?,4,32],f16> -> tensor<4x?x4x32xf16>
    %cast_275 = tensor.cast %431 : tensor<4x?x4x32xf16> to tensor<?x?x?x?xf16>
    %432 = util.call @rope_select_concat_BS_SL_HEADS_HALFDIM_f16_BS_SL_HEADS_HALFDIM_f16_BS_SL_HEADS_TWO_2_HALFDIM_f16(%cast_274, %cast_275) : (tensor<?x?x?x?xf16>, tensor<?x?x?x?xf16>) -> tensor<?x?x?x2x?xf16>
    %cast_276 = tensor.cast %432 : tensor<?x?x?x2x?xf16> to tensor<4x?x4x2x32xf16>
    %433 = torch_c.from_builtin_tensor %cast_276 : tensor<4x?x4x2x32xf16> -> !torch.vtensor<[4,?,4,2,32],f16>
    torch.bind_symbolic_shape %433, [%269], affine_map<()[s0] -> (4, s0 * 32, 4, 2, 32)> : !torch.vtensor<[4,?,4,2,32],f16>
    %int4_277 = torch.constant.int 4
    %int4_278 = torch.constant.int 4
    %int64_279 = torch.constant.int 64
    %434 = torch.prim.ListConstruct %int4_277, %273, %int4_278, %int64_279 : (!torch.int, !torch.int, !torch.int, !torch.int) -> !torch.list<int>
    %435 = torch.aten.view %433, %434 : !torch.vtensor<[4,?,4,2,32],f16>, !torch.list<int> -> !torch.vtensor<[4,?,4,64],f16>
    torch.bind_symbolic_shape %435, [%269], affine_map<()[s0] -> (4, s0 * 32, 4, 64)> : !torch.vtensor<[4,?,4,64],f16>
    %none_280 = torch.constant.none
    %none_281 = torch.constant.none
    %int5_282 = torch.constant.int 5
    %cpu_283 = torch.constant.device "cpu"
    %int0_284 = torch.constant.int 0
    torch.aten._assert_tensor_metadata %435, %none_280, %none_281, %int5_282, %cpu_283, %int0_284 : !torch.vtensor<[4,?,4,64],f16>, !torch.none, !torch.none, !torch.int, !torch.Device, !torch.int
    %int22 = torch.constant.int 22
    %int2_285 = torch.constant.int 2
    %int4_286 = torch.constant.int 4
    %int32_287 = torch.constant.int 32
    %int64_288 = torch.constant.int 64
    %436 = torch.prim.ListConstruct %272, %int22, %int2_285, %int4_286, %int32_287, %int64_288 : (!torch.int, !torch.int, !torch.int, !torch.int, !torch.int, !torch.int) -> !torch.list<int>
    %437 = torch.aten.view %267, %436 : !torch.vtensor<[?,360448],f16>, !torch.list<int> -> !torch.vtensor<[?,22,2,4,32,64],f16>
    torch.bind_symbolic_shape %437, [%270], affine_map<()[s0] -> (s0, 22, 2, 4, 32, 64)> : !torch.vtensor<[?,22,2,4,32,64],f16>
    %int22_289 = torch.constant.int 22
    %438 = torch.aten.mul.int %272, %int22_289 : !torch.int, !torch.int -> !torch.int
    %int2_290 = torch.constant.int 2
    %439 = torch.aten.mul.int %438, %int2_290 : !torch.int, !torch.int -> !torch.int
    %int4_291 = torch.constant.int 4
    %int32_292 = torch.constant.int 32
    %int64_293 = torch.constant.int 64
    %440 = torch.prim.ListConstruct %439, %int4_291, %int32_292, %int64_293 : (!torch.int, !torch.int, !torch.int, !torch.int) -> !torch.list<int>
    %441 = torch.aten.view %437, %440 : !torch.vtensor<[?,22,2,4,32,64],f16>, !torch.list<int> -> !torch.vtensor<[?,4,32,64],f16>
    torch.bind_symbolic_shape %441, [%270], affine_map<()[s0] -> (s0 * 44, 4, 32, 64)> : !torch.vtensor<[?,4,32,64],f16>
    %int22_294 = torch.constant.int 22
    %442 = torch.aten.mul.Scalar %arg2, %int22_294 : !torch.vtensor<[4,?],si64>, !torch.int -> !torch.vtensor<[4,?],si64>
    torch.bind_symbolic_shape %442, [%269], affine_map<()[s0] -> (4, s0)> : !torch.vtensor<[4,?],si64>
    %int0_295 = torch.constant.int 0
    %int1_296 = torch.constant.int 1
    %443 = torch.aten.add.Scalar %442, %int0_295, %int1_296 : !torch.vtensor<[4,?],si64>, !torch.int, !torch.int -> !torch.vtensor<[4,?],si64>
    torch.bind_symbolic_shape %443, [%269], affine_map<()[s0] -> (4, s0)> : !torch.vtensor<[4,?],si64>
    %int2_297 = torch.constant.int 2
    %444 = torch.aten.mul.Scalar %443, %int2_297 : !torch.vtensor<[4,?],si64>, !torch.int -> !torch.vtensor<[4,?],si64>
    torch.bind_symbolic_shape %444, [%269], affine_map<()[s0] -> (4, s0)> : !torch.vtensor<[4,?],si64>
    %int0_298 = torch.constant.int 0
    %int1_299 = torch.constant.int 1
    %445 = torch.aten.add.Scalar %444, %int0_298, %int1_299 : !torch.vtensor<[4,?],si64>, !torch.int, !torch.int -> !torch.vtensor<[4,?],si64>
    torch.bind_symbolic_shape %445, [%269], affine_map<()[s0] -> (4, s0)> : !torch.vtensor<[4,?],si64>
    %int4_300 = torch.constant.int 4
    %446 = torch.aten.mul.int %int4_300, %271 : !torch.int, !torch.int -> !torch.int
    %447 = torch.prim.ListConstruct %446 : (!torch.int) -> !torch.list<int>
    %448 = torch.aten.view %445, %447 : !torch.vtensor<[4,?],si64>, !torch.list<int> -> !torch.vtensor<[?],si64>
    torch.bind_symbolic_shape %448, [%269], affine_map<()[s0] -> (s0 * 4)> : !torch.vtensor<[?],si64>
    %int4_301 = torch.constant.int 4
    %int32_302 = torch.constant.int 32
    %int4_303 = torch.constant.int 4
    %int64_304 = torch.constant.int 64
    %449 = torch.prim.ListConstruct %int4_301, %271, %int32_302, %int4_303, %int64_304 : (!torch.int, !torch.int, !torch.int, !torch.int, !torch.int) -> !torch.list<int>
    %450 = torch.aten.view %435, %449 : !torch.vtensor<[4,?,4,64],f16>, !torch.list<int> -> !torch.vtensor<[4,?,32,4,64],f16>
    torch.bind_symbolic_shape %450, [%269], affine_map<()[s0] -> (4, s0, 32, 4, 64)> : !torch.vtensor<[4,?,32,4,64],f16>
    %int32_305 = torch.constant.int 32
    %int4_306 = torch.constant.int 4
    %int64_307 = torch.constant.int 64
    %451 = torch.prim.ListConstruct %446, %int32_305, %int4_306, %int64_307 : (!torch.int, !torch.int, !torch.int, !torch.int) -> !torch.list<int>
    %452 = torch.aten.view %450, %451 : !torch.vtensor<[4,?,32,4,64],f16>, !torch.list<int> -> !torch.vtensor<[?,32,4,64],f16>
    torch.bind_symbolic_shape %452, [%269], affine_map<()[s0] -> (s0 * 4, 32, 4, 64)> : !torch.vtensor<[?,32,4,64],f16>
    %int1_308 = torch.constant.int 1
    %int2_309 = torch.constant.int 2
    %453 = torch.aten.transpose.int %452, %int1_308, %int2_309 : !torch.vtensor<[?,32,4,64],f16>, !torch.int, !torch.int -> !torch.vtensor<[?,4,32,64],f16>
    torch.bind_symbolic_shape %453, [%269], affine_map<()[s0] -> (s0 * 4, 4, 32, 64)> : !torch.vtensor<[?,4,32,64],f16>
    %none_310 = torch.constant.none
    %none_311 = torch.constant.none
    %int5_312 = torch.constant.int 5
    %cpu_313 = torch.constant.device "cpu"
    %int0_314 = torch.constant.int 0
    torch.aten._assert_tensor_metadata %453, %none_310, %none_311, %int5_312, %cpu_313, %int0_314 : !torch.vtensor<[?,4,32,64],f16>, !torch.none, !torch.none, !torch.int, !torch.Device, !torch.int
    %454 = torch.prim.ListConstruct %448 : (!torch.vtensor<[?],si64>) -> !torch.list<optional<vtensor>>
    %false_315 = torch.constant.bool false
    %455 = torch.aten.index_put %441, %454, %453, %false_315 : !torch.vtensor<[?,4,32,64],f16>, !torch.list<optional<vtensor>>, !torch.vtensor<[?,4,32,64],f16>, !torch.bool -> !torch.vtensor<[?,4,32,64],f16>
    torch.bind_symbolic_shape %455, [%270], affine_map<()[s0] -> (s0 * 44, 4, 32, 64)> : !torch.vtensor<[?,4,32,64],f16>
    %int22_316 = torch.constant.int 22
    %int2_317 = torch.constant.int 2
    %int4_318 = torch.constant.int 4
    %int32_319 = torch.constant.int 32
    %int64_320 = torch.constant.int 64
    %456 = torch.prim.ListConstruct %272, %int22_316, %int2_317, %int4_318, %int32_319, %int64_320 : (!torch.int, !torch.int, !torch.int, !torch.int, !torch.int, !torch.int) -> !torch.list<int>
    %457 = torch.aten.view %455, %456 : !torch.vtensor<[?,4,32,64],f16>, !torch.list<int> -> !torch.vtensor<[?,22,2,4,32,64],f16>
    torch.bind_symbolic_shape %457, [%270], affine_map<()[s0] -> (s0, 22, 2, 4, 32, 64)> : !torch.vtensor<[?,22,2,4,32,64],f16>
    %int360448 = torch.constant.int 360448
    %458 = torch.prim.ListConstruct %272, %int360448 : (!torch.int, !torch.int) -> !torch.list<int>
    %459 = torch.aten.view %457, %458 : !torch.vtensor<[?,22,2,4,32,64],f16>, !torch.list<int> -> !torch.vtensor<[?,360448],f16>
    torch.bind_symbolic_shape %459, [%270], affine_map<()[s0] -> (s0, 360448)> : !torch.vtensor<[?,360448],f16>
    %int22_321 = torch.constant.int 22
    %int2_322 = torch.constant.int 2
    %int4_323 = torch.constant.int 4
    %int32_324 = torch.constant.int 32
    %int64_325 = torch.constant.int 64
    %460 = torch.prim.ListConstruct %272, %int22_321, %int2_322, %int4_323, %int32_324, %int64_325 : (!torch.int, !torch.int, !torch.int, !torch.int, !torch.int, !torch.int) -> !torch.list<int>
    %461 = torch.aten.view %459, %460 : !torch.vtensor<[?,360448],f16>, !torch.list<int> -> !torch.vtensor<[?,22,2,4,32,64],f16>
    torch.bind_symbolic_shape %461, [%270], affine_map<()[s0] -> (s0, 22, 2, 4, 32, 64)> : !torch.vtensor<[?,22,2,4,32,64],f16>
    %int4_326 = torch.constant.int 4
    %int32_327 = torch.constant.int 32
    %int64_328 = torch.constant.int 64
    %462 = torch.prim.ListConstruct %439, %int4_326, %int32_327, %int64_328 : (!torch.int, !torch.int, !torch.int, !torch.int) -> !torch.list<int>
    %463 = torch.aten.view %461, %462 : !torch.vtensor<[?,22,2,4,32,64],f16>, !torch.list<int> -> !torch.vtensor<[?,4,32,64],f16>
    torch.bind_symbolic_shape %463, [%270], affine_map<()[s0] -> (s0 * 44, 4, 32, 64)> : !torch.vtensor<[?,4,32,64],f16>
    %int22_329 = torch.constant.int 22
    %464 = torch.aten.mul.Scalar %arg2, %int22_329 : !torch.vtensor<[4,?],si64>, !torch.int -> !torch.vtensor<[4,?],si64>
    torch.bind_symbolic_shape %464, [%269], affine_map<()[s0] -> (4, s0)> : !torch.vtensor<[4,?],si64>
    %int0_330 = torch.constant.int 0
    %int1_331 = torch.constant.int 1
    %465 = torch.aten.add.Scalar %464, %int0_330, %int1_331 : !torch.vtensor<[4,?],si64>, !torch.int, !torch.int -> !torch.vtensor<[4,?],si64>
    torch.bind_symbolic_shape %465, [%269], affine_map<()[s0] -> (4, s0)> : !torch.vtensor<[4,?],si64>
    %int2_332 = torch.constant.int 2
    %466 = torch.aten.mul.Scalar %465, %int2_332 : !torch.vtensor<[4,?],si64>, !torch.int -> !torch.vtensor<[4,?],si64>
    torch.bind_symbolic_shape %466, [%269], affine_map<()[s0] -> (4, s0)> : !torch.vtensor<[4,?],si64>
    %int1_333 = torch.constant.int 1
    %int1_334 = torch.constant.int 1
    %467 = torch.aten.add.Scalar %466, %int1_333, %int1_334 : !torch.vtensor<[4,?],si64>, !torch.int, !torch.int -> !torch.vtensor<[4,?],si64>
    torch.bind_symbolic_shape %467, [%269], affine_map<()[s0] -> (4, s0)> : !torch.vtensor<[4,?],si64>
    %468 = torch.prim.ListConstruct %446 : (!torch.int) -> !torch.list<int>
    %469 = torch.aten.view %467, %468 : !torch.vtensor<[4,?],si64>, !torch.list<int> -> !torch.vtensor<[?],si64>
    torch.bind_symbolic_shape %469, [%269], affine_map<()[s0] -> (s0 * 4)> : !torch.vtensor<[?],si64>
    %int4_335 = torch.constant.int 4
    %int32_336 = torch.constant.int 32
    %int4_337 = torch.constant.int 4
    %int64_338 = torch.constant.int 64
    %470 = torch.prim.ListConstruct %int4_335, %271, %int32_336, %int4_337, %int64_338 : (!torch.int, !torch.int, !torch.int, !torch.int, !torch.int) -> !torch.list<int>
    %471 = torch.aten.view %357, %470 : !torch.vtensor<[4,?,4,64],f16>, !torch.list<int> -> !torch.vtensor<[4,?,32,4,64],f16>
    torch.bind_symbolic_shape %471, [%269], affine_map<()[s0] -> (4, s0, 32, 4, 64)> : !torch.vtensor<[4,?,32,4,64],f16>
    %int32_339 = torch.constant.int 32
    %int4_340 = torch.constant.int 4
    %int64_341 = torch.constant.int 64
    %472 = torch.prim.ListConstruct %446, %int32_339, %int4_340, %int64_341 : (!torch.int, !torch.int, !torch.int, !torch.int) -> !torch.list<int>
    %473 = torch.aten.view %471, %472 : !torch.vtensor<[4,?,32,4,64],f16>, !torch.list<int> -> !torch.vtensor<[?,32,4,64],f16>
    torch.bind_symbolic_shape %473, [%269], affine_map<()[s0] -> (s0 * 4, 32, 4, 64)> : !torch.vtensor<[?,32,4,64],f16>
    %int1_342 = torch.constant.int 1
    %int2_343 = torch.constant.int 2
    %474 = torch.aten.transpose.int %473, %int1_342, %int2_343 : !torch.vtensor<[?,32,4,64],f16>, !torch.int, !torch.int -> !torch.vtensor<[?,4,32,64],f16>
    torch.bind_symbolic_shape %474, [%269], affine_map<()[s0] -> (s0 * 4, 4, 32, 64)> : !torch.vtensor<[?,4,32,64],f16>
    %none_344 = torch.constant.none
    %none_345 = torch.constant.none
    %int5_346 = torch.constant.int 5
    %cpu_347 = torch.constant.device "cpu"
    %int0_348 = torch.constant.int 0
    torch.aten._assert_tensor_metadata %474, %none_344, %none_345, %int5_346, %cpu_347, %int0_348 : !torch.vtensor<[?,4,32,64],f16>, !torch.none, !torch.none, !torch.int, !torch.Device, !torch.int
    %475 = torch.prim.ListConstruct %469 : (!torch.vtensor<[?],si64>) -> !torch.list<optional<vtensor>>
    %false_349 = torch.constant.bool false
    %476 = torch.aten.index_put %463, %475, %474, %false_349 : !torch.vtensor<[?,4,32,64],f16>, !torch.list<optional<vtensor>>, !torch.vtensor<[?,4,32,64],f16>, !torch.bool -> !torch.vtensor<[?,4,32,64],f16>
    torch.bind_symbolic_shape %476, [%270], affine_map<()[s0] -> (s0 * 44, 4, 32, 64)> : !torch.vtensor<[?,4,32,64],f16>
    %int22_350 = torch.constant.int 22
    %int2_351 = torch.constant.int 2
    %int4_352 = torch.constant.int 4
    %int32_353 = torch.constant.int 32
    %int64_354 = torch.constant.int 64
    %477 = torch.prim.ListConstruct %272, %int22_350, %int2_351, %int4_352, %int32_353, %int64_354 : (!torch.int, !torch.int, !torch.int, !torch.int, !torch.int, !torch.int) -> !torch.list<int>
    %478 = torch.aten.view %476, %477 : !torch.vtensor<[?,4,32,64],f16>, !torch.list<int> -> !torch.vtensor<[?,22,2,4,32,64],f16>
    torch.bind_symbolic_shape %478, [%270], affine_map<()[s0] -> (s0, 22, 2, 4, 32, 64)> : !torch.vtensor<[?,22,2,4,32,64],f16>
    %int360448_355 = torch.constant.int 360448
    %479 = torch.prim.ListConstruct %272, %int360448_355 : (!torch.int, !torch.int) -> !torch.list<int>
    %480 = torch.aten.view %478, %479 : !torch.vtensor<[?,22,2,4,32,64],f16>, !torch.list<int> -> !torch.vtensor<[?,360448],f16>
    torch.bind_symbolic_shape %480, [%270], affine_map<()[s0] -> (s0, 360448)> : !torch.vtensor<[?,360448],f16>
    %int0_356 = torch.constant.int 0
    %int1_357 = torch.constant.int 1
    %none_358 = torch.constant.none
    %none_359 = torch.constant.none
    %cpu_360 = torch.constant.device "cpu"
    %false_361 = torch.constant.bool false
    %481 = torch.aten.arange.start_step %int0_356, %273, %int1_357, %none_358, %none_359, %cpu_360, %false_361 : !torch.int, !torch.int, !torch.int, !torch.none, !torch.none, !torch.Device, !torch.bool -> !torch.vtensor<[?],si64>
    torch.bind_symbolic_shape %481, [%269], affine_map<()[s0] -> (s0 * 32)> : !torch.vtensor<[?],si64>
    %int-1_362 = torch.constant.int -1
    %482 = torch.aten.unsqueeze %arg1, %int-1_362 : !torch.vtensor<[4],si64>, !torch.int -> !torch.vtensor<[4,1],si64>
    %483 = torch.aten.ge.Tensor %481, %482 : !torch.vtensor<[?],si64>, !torch.vtensor<[4,1],si64> -> !torch.vtensor<[4,?],i1>
    torch.bind_symbolic_shape %483, [%269], affine_map<()[s0] -> (4, s0 * 32)> : !torch.vtensor<[4,?],i1>
    %none_363 = torch.constant.none
    %none_364 = torch.constant.none
    %cpu_365 = torch.constant.device "cpu"
    %false_366 = torch.constant.bool false
    %484 = torch.aten.arange %273, %none_363, %none_364, %cpu_365, %false_366 : !torch.int, !torch.none, !torch.none, !torch.Device, !torch.bool -> !torch.vtensor<[?],si64>
    torch.bind_symbolic_shape %484, [%269], affine_map<()[s0] -> (s0 * 32)> : !torch.vtensor<[?],si64>
    %int0_367 = torch.constant.int 0
    %485 = torch.aten.unsqueeze %484, %int0_367 : !torch.vtensor<[?],si64>, !torch.int -> !torch.vtensor<[1,?],si64>
    torch.bind_symbolic_shape %485, [%269], affine_map<()[s0] -> (1, s0 * 32)> : !torch.vtensor<[1,?],si64>
    %int1_368 = torch.constant.int 1
    %486 = torch.aten.unsqueeze %485, %int1_368 : !torch.vtensor<[1,?],si64>, !torch.int -> !torch.vtensor<[1,1,?],si64>
    torch.bind_symbolic_shape %486, [%269], affine_map<()[s0] -> (1, 1, s0 * 32)> : !torch.vtensor<[1,1,?],si64>
    %int2_369 = torch.constant.int 2
    %487 = torch.aten.unsqueeze %486, %int2_369 : !torch.vtensor<[1,1,?],si64>, !torch.int -> !torch.vtensor<[1,1,1,?],si64>
    torch.bind_symbolic_shape %487, [%269], affine_map<()[s0] -> (1, 1, 1, s0 * 32)> : !torch.vtensor<[1,1,1,?],si64>
    %none_370 = torch.constant.none
    %none_371 = torch.constant.none
    %cpu_372 = torch.constant.device "cpu"
    %false_373 = torch.constant.bool false
    %488 = torch.aten.arange %273, %none_370, %none_371, %cpu_372, %false_373 : !torch.int, !torch.none, !torch.none, !torch.Device, !torch.bool -> !torch.vtensor<[?],si64>
    torch.bind_symbolic_shape %488, [%269], affine_map<()[s0] -> (s0 * 32)> : !torch.vtensor<[?],si64>
    %int0_374 = torch.constant.int 0
    %489 = torch.aten.unsqueeze %488, %int0_374 : !torch.vtensor<[?],si64>, !torch.int -> !torch.vtensor<[1,?],si64>
    torch.bind_symbolic_shape %489, [%269], affine_map<()[s0] -> (1, s0 * 32)> : !torch.vtensor<[1,?],si64>
    %int1_375 = torch.constant.int 1
    %490 = torch.aten.unsqueeze %489, %int1_375 : !torch.vtensor<[1,?],si64>, !torch.int -> !torch.vtensor<[1,1,?],si64>
    torch.bind_symbolic_shape %490, [%269], affine_map<()[s0] -> (1, 1, s0 * 32)> : !torch.vtensor<[1,1,?],si64>
    %int3_376 = torch.constant.int 3
    %491 = torch.aten.unsqueeze %490, %int3_376 : !torch.vtensor<[1,1,?],si64>, !torch.int -> !torch.vtensor<[1,1,?,1],si64>
    torch.bind_symbolic_shape %491, [%269], affine_map<()[s0] -> (1, 1, s0 * 32, 1)> : !torch.vtensor<[1,1,?,1],si64>
    %492 = torch.aten.gt.Tensor %487, %491 : !torch.vtensor<[1,1,1,?],si64>, !torch.vtensor<[1,1,?,1],si64> -> !torch.vtensor<[1,1,?,?],i1>
    torch.bind_symbolic_shape %492, [%269], affine_map<()[s0] -> (1, 1, s0 * 32, s0 * 32)> : !torch.vtensor<[1,1,?,?],i1>
    %int1_377 = torch.constant.int 1
    %493 = torch.aten.unsqueeze %483, %int1_377 : !torch.vtensor<[4,?],i1>, !torch.int -> !torch.vtensor<[4,1,?],i1>
    torch.bind_symbolic_shape %493, [%269], affine_map<()[s0] -> (4, 1, s0 * 32)> : !torch.vtensor<[4,1,?],i1>
    %int2_378 = torch.constant.int 2
    %494 = torch.aten.unsqueeze %493, %int2_378 : !torch.vtensor<[4,1,?],i1>, !torch.int -> !torch.vtensor<[4,1,1,?],i1>
    torch.bind_symbolic_shape %494, [%269], affine_map<()[s0] -> (4, 1, 1, s0 * 32)> : !torch.vtensor<[4,1,1,?],i1>
    %495 = torch.aten.logical_or %492, %494 : !torch.vtensor<[1,1,?,?],i1>, !torch.vtensor<[4,1,1,?],i1> -> !torch.vtensor<[4,1,?,?],i1>
    torch.bind_symbolic_shape %495, [%269], affine_map<()[s0] -> (4, 1, s0 * 32, s0 * 32)> : !torch.vtensor<[4,1,?,?],i1>
    %none_379 = torch.constant.none
    %496 = torch.aten.clone %3, %none_379 : !torch.vtensor<[],f16>, !torch.none -> !torch.vtensor<[],f16>
    %int0_380 = torch.constant.int 0
    %497 = torch.aten.where.ScalarOther %495, %496, %int0_380 : !torch.vtensor<[4,1,?,?],i1>, !torch.vtensor<[],f16>, !torch.int -> !torch.vtensor<[4,1,?,?],f16>
    torch.bind_symbolic_shape %497, [%269], affine_map<()[s0] -> (4, 1, s0 * 32, s0 * 32)> : !torch.vtensor<[4,1,?,?],f16>
    %none_381 = torch.constant.none
    %none_382 = torch.constant.none
    %int5_383 = torch.constant.int 5
    %cpu_384 = torch.constant.device "cpu"
    %int0_385 = torch.constant.int 0
    torch.aten._assert_tensor_metadata %497, %none_381, %none_382, %int5_383, %cpu_384, %int0_385 : !torch.vtensor<[4,1,?,?],f16>, !torch.none, !torch.none, !torch.int, !torch.Device, !torch.int
    %int-2 = torch.constant.int -2
    %498 = torch.aten.unsqueeze %435, %int-2 : !torch.vtensor<[4,?,4,64],f16>, !torch.int -> !torch.vtensor<[4,?,4,1,64],f16>
    torch.bind_symbolic_shape %498, [%269], affine_map<()[s0] -> (4, s0 * 32, 4, 1, 64)> : !torch.vtensor<[4,?,4,1,64],f16>
    %int4_386 = torch.constant.int 4
    %int4_387 = torch.constant.int 4
    %int8 = torch.constant.int 8
    %int64_388 = torch.constant.int 64
    %499 = torch.prim.ListConstruct %int4_386, %273, %int4_387, %int8, %int64_388 : (!torch.int, !torch.int, !torch.int, !torch.int, !torch.int) -> !torch.list<int>
    %false_389 = torch.constant.bool false
    %500 = torch.aten.expand %498, %499, %false_389 : !torch.vtensor<[4,?,4,1,64],f16>, !torch.list<int>, !torch.bool -> !torch.vtensor<[4,?,4,8,64],f16>
    torch.bind_symbolic_shape %500, [%269], affine_map<()[s0] -> (4, s0 * 32, 4, 8, 64)> : !torch.vtensor<[4,?,4,8,64],f16>
    %int0_390 = torch.constant.int 0
    %501 = torch.aten.clone %500, %int0_390 : !torch.vtensor<[4,?,4,8,64],f16>, !torch.int -> !torch.vtensor<[4,?,4,8,64],f16>
    torch.bind_symbolic_shape %501, [%269], affine_map<()[s0] -> (4, s0 * 32, 4, 8, 64)> : !torch.vtensor<[4,?,4,8,64],f16>
    %int4_391 = torch.constant.int 4
    %int32_392 = torch.constant.int 32
    %int64_393 = torch.constant.int 64
    %502 = torch.prim.ListConstruct %int4_391, %273, %int32_392, %int64_393 : (!torch.int, !torch.int, !torch.int, !torch.int) -> !torch.list<int>
    %503 = torch.aten._unsafe_view %501, %502 : !torch.vtensor<[4,?,4,8,64],f16>, !torch.list<int> -> !torch.vtensor<[4,?,32,64],f16>
    torch.bind_symbolic_shape %503, [%269], affine_map<()[s0] -> (4, s0 * 32, 32, 64)> : !torch.vtensor<[4,?,32,64],f16>
    %int-2_394 = torch.constant.int -2
    %504 = torch.aten.unsqueeze %357, %int-2_394 : !torch.vtensor<[4,?,4,64],f16>, !torch.int -> !torch.vtensor<[4,?,4,1,64],f16>
    torch.bind_symbolic_shape %504, [%269], affine_map<()[s0] -> (4, s0 * 32, 4, 1, 64)> : !torch.vtensor<[4,?,4,1,64],f16>
    %int4_395 = torch.constant.int 4
    %int4_396 = torch.constant.int 4
    %int8_397 = torch.constant.int 8
    %int64_398 = torch.constant.int 64
    %505 = torch.prim.ListConstruct %int4_395, %273, %int4_396, %int8_397, %int64_398 : (!torch.int, !torch.int, !torch.int, !torch.int, !torch.int) -> !torch.list<int>
    %false_399 = torch.constant.bool false
    %506 = torch.aten.expand %504, %505, %false_399 : !torch.vtensor<[4,?,4,1,64],f16>, !torch.list<int>, !torch.bool -> !torch.vtensor<[4,?,4,8,64],f16>
    torch.bind_symbolic_shape %506, [%269], affine_map<()[s0] -> (4, s0 * 32, 4, 8, 64)> : !torch.vtensor<[4,?,4,8,64],f16>
    %int0_400 = torch.constant.int 0
    %507 = torch.aten.clone %506, %int0_400 : !torch.vtensor<[4,?,4,8,64],f16>, !torch.int -> !torch.vtensor<[4,?,4,8,64],f16>
    torch.bind_symbolic_shape %507, [%269], affine_map<()[s0] -> (4, s0 * 32, 4, 8, 64)> : !torch.vtensor<[4,?,4,8,64],f16>
    %int4_401 = torch.constant.int 4
    %int32_402 = torch.constant.int 32
    %int64_403 = torch.constant.int 64
    %508 = torch.prim.ListConstruct %int4_401, %273, %int32_402, %int64_403 : (!torch.int, !torch.int, !torch.int, !torch.int) -> !torch.list<int>
    %509 = torch.aten._unsafe_view %507, %508 : !torch.vtensor<[4,?,4,8,64],f16>, !torch.list<int> -> !torch.vtensor<[4,?,32,64],f16>
    torch.bind_symbolic_shape %509, [%269], affine_map<()[s0] -> (4, s0 * 32, 32, 64)> : !torch.vtensor<[4,?,32,64],f16>
    %int1_404 = torch.constant.int 1
    %int2_405 = torch.constant.int 2
    %510 = torch.aten.transpose.int %396, %int1_404, %int2_405 : !torch.vtensor<[4,?,32,64],f16>, !torch.int, !torch.int -> !torch.vtensor<[4,32,?,64],f16>
    torch.bind_symbolic_shape %510, [%269], affine_map<()[s0] -> (4, 32, s0 * 32, 64)> : !torch.vtensor<[4,32,?,64],f16>
    %int1_406 = torch.constant.int 1
    %int2_407 = torch.constant.int 2
    %511 = torch.aten.transpose.int %503, %int1_406, %int2_407 : !torch.vtensor<[4,?,32,64],f16>, !torch.int, !torch.int -> !torch.vtensor<[4,32,?,64],f16>
    torch.bind_symbolic_shape %511, [%269], affine_map<()[s0] -> (4, 32, s0 * 32, 64)> : !torch.vtensor<[4,32,?,64],f16>
    %int1_408 = torch.constant.int 1
    %int2_409 = torch.constant.int 2
    %512 = torch.aten.transpose.int %509, %int1_408, %int2_409 : !torch.vtensor<[4,?,32,64],f16>, !torch.int, !torch.int -> !torch.vtensor<[4,32,?,64],f16>
    torch.bind_symbolic_shape %512, [%269], affine_map<()[s0] -> (4, 32, s0 * 32, 64)> : !torch.vtensor<[4,32,?,64],f16>
    %float0.000000e00 = torch.constant.float 0.000000e+00
    %false_410 = torch.constant.bool false
    %none_411 = torch.constant.none
    %false_412 = torch.constant.bool false
    %513 = torch.aten.scaled_dot_product_attention %510, %511, %512, %497, %float0.000000e00, %false_410, %none_411, %false_412 : !torch.vtensor<[4,32,?,64],f16>, !torch.vtensor<[4,32,?,64],f16>, !torch.vtensor<[4,32,?,64],f16>, !torch.vtensor<[4,1,?,?],f16>, !torch.float, !torch.bool, !torch.none, !torch.bool -> !torch.vtensor<[4,32,?,64],f16>
    torch.bind_symbolic_shape %513, [%269], affine_map<()[s0] -> (4, 32, s0 * 32, 64)> : !torch.vtensor<[4,32,?,64],f16>
    %int1_413 = torch.constant.int 1
    %int2_414 = torch.constant.int 2
    %514 = torch.aten.transpose.int %513, %int1_413, %int2_414 : !torch.vtensor<[4,32,?,64],f16>, !torch.int, !torch.int -> !torch.vtensor<[4,?,32,64],f16>
    torch.bind_symbolic_shape %514, [%269], affine_map<()[s0] -> (4, s0 * 32, 32, 64)> : !torch.vtensor<[4,?,32,64],f16>
    %int4_415 = torch.constant.int 4
    %int2048_416 = torch.constant.int 2048
    %515 = torch.prim.ListConstruct %int4_415, %273, %int2048_416 : (!torch.int, !torch.int, !torch.int) -> !torch.list<int>
    %516 = torch.aten.view %514, %515 : !torch.vtensor<[4,?,32,64],f16>, !torch.list<int> -> !torch.vtensor<[4,?,2048],f16>
    torch.bind_symbolic_shape %516, [%269], affine_map<()[s0] -> (4, s0 * 32, 2048)> : !torch.vtensor<[4,?,2048],f16>
    %int2_417 = torch.constant.int 2
…
    %int64_11763 = torch.constant.int 64
    %7637 = torch.prim.ListConstruct %381, %int22_11759, %int2_11760, %int4_11761, %int32_11762, %int64_11763 : (!torch.int, !torch.int, !torch.int, !torch.int, !torch.int, !torch.int) -> !torch.list<int>
    %7638 = torch.aten.view %7636, %7637 : !torch.vtensor<[?,64],f16>, !torch.list<int> -> !torch.vtensor<[?,22,2,4,32,64],f16>
    torch.bind_symbolic_shape %7638, [%379], affine_map<()[s0] -> (s0, 22, 2, 4, 32, 64)> : !torch.vtensor<[?,22,2,4,32,64],f16>
    %int360448_11764 = torch.constant.int 360448
    %7639 = torch.prim.ListConstruct %381, %int360448_11764 : (!torch.int, !torch.int) -> !torch.list<int>
    %7640 = torch.aten.view %7638, %7639 : !torch.vtensor<[?,22,2,4,32,64],f16>, !torch.list<int> -> !torch.vtensor<[?,360448],f16>
    torch.overwrite.tensor.contents %7640 overwrites %arg4 : !torch.vtensor<[?,360448],f16>, !torch.tensor<[?,360448],f16>
    torch.bind_symbolic_shape %7640, [%379], affine_map<()[s0] -> (s0, 360448)> : !torch.vtensor<[?,360448],f16>
    %none_11765 = torch.constant.none
    %7641 = torch.aten.clone %362, %none_11765 : !torch.vtensor<[],si64>, !torch.none -> !torch.vtensor<[],si64>
    %none_11766 = torch.constant.none
    %7642 = torch.aten.clone %363, %none_11766 : !torch.vtensor<[],si64>, !torch.none -> !torch.vtensor<[],si64>
    %none_11767 = torch.constant.none
    %7643 = torch.aten.clone %364, %none_11767 : !torch.vtensor<[],si64>, !torch.none -> !torch.vtensor<[],si64>
    %int22_11768 = torch.constant.int 22
    %int2_11769 = torch.constant.int 2
    %int4_11770 = torch.constant.int 4
    %int32_11771 = torch.constant.int 32
    %int64_11772 = torch.constant.int 64
    %7644 = torch.prim.ListConstruct %381, %int22_11768, %int2_11769, %int4_11770, %int32_11771, %int64_11772 : (!torch.int, !torch.int, !torch.int, !torch.int, !torch.int, !torch.int) -> !torch.list<int>
    %7645 = torch.aten.view %7640, %7644 : !torch.vtensor<[?,360448],f16>, !torch.list<int> -> !torch.vtensor<[?,22,2,4,32,64],f16>
    torch.bind_symbolic_shape %7645, [%379], affine_map<()[s0] -> (s0, 22, 2, 4, 32, 64)> : !torch.vtensor<[?,22,2,4,32,64],f16>
    %7646 = torch_c.to_builtin_tensor %7645 : !torch.vtensor<[?,22,2,4,32,64],f16> -> tensor<?x22x2x4x32x64xf16>
    %7647 = torch_c.to_builtin_tensor %arg3 : !torch.vtensor<[4,?],si64> -> tensor<4x?xi64>
    %cast_11773 = tensor.cast %7647 : tensor<4x?xi64> to tensor<?x?xi64>
    %7648 = torch_c.to_builtin_tensor %7641 : !torch.vtensor<[],si64> -> tensor<i64>
    %7649 = torch_c.to_builtin_tensor %7642 : !torch.vtensor<[],si64> -> tensor<i64>
    %7650 = util.call @paged_attention_kv_cache_gather_CACHE_SIZE_T_BLOCK_22_PART_2_HEAD_COUNT_KV_4_BLOCK_SEQ_STRIDE_32_ATTN_HEAD_DIM_64_f16_BATCH_PAGES_i64__i64__i64_BATCH_PAGES_HEAD_COUNT_KV_4_BLOCK_SEQ_STRIDE_32_ATTN_HEAD_DIM_64_f16(%7646, %cast_11773, %7648, %7649) : (tensor<?x22x2x4x32x64xf16>, tensor<?x?xi64>, tensor<i64>, tensor<i64>) -> tensor<?x?x4x32x64xf16>
    %cast_11774 = tensor.cast %7650 : tensor<?x?x4x32x64xf16> to tensor<4x?x4x32x64xf16>
    %7651 = torch_c.from_builtin_tensor %cast_11774 : tensor<4x?x4x32x64xf16> -> !torch.vtensor<[4,?,4,32,64],f16>
    torch.bind_symbolic_shape %7651, [%378], affine_map<()[s0] -> (4, s0, 4, 32, 64)> : !torch.vtensor<[4,?,4,32,64],f16>
    %7652 = torch_c.to_builtin_tensor %7645 : !torch.vtensor<[?,22,2,4,32,64],f16> -> tensor<?x22x2x4x32x64xf16>
    %7653 = torch_c.to_builtin_tensor %arg3 : !torch.vtensor<[4,?],si64> -> tensor<4x?xi64>
    %cast_11775 = tensor.cast %7653 : tensor<4x?xi64> to tensor<?x?xi64>
    %7654 = torch_c.to_builtin_tensor %7641 : !torch.vtensor<[],si64> -> tensor<i64>
    %7655 = torch_c.to_builtin_tensor %7643 : !torch.vtensor<[],si64> -> tensor<i64>
    %7656 = util.call @paged_attention_kv_cache_gather_CACHE_SIZE_T_BLOCK_22_PART_2_HEAD_COUNT_KV_4_BLOCK_SEQ_STRIDE_32_ATTN_HEAD_DIM_64_f16_BATCH_PAGES_i64__i64__i64_BATCH_PAGES_HEAD_COUNT_KV_4_BLOCK_SEQ_STRIDE_32_ATTN_HEAD_DIM_64_f16(%7652, %cast_11775, %7654, %7655) : (tensor<?x22x2x4x32x64xf16>, tensor<?x?xi64>, tensor<i64>, tensor<i64>) -> tensor<?x?x4x32x64xf16>
    %cast_11776 = tensor.cast %7656 : tensor<?x?x4x32x64xf16> to tensor<4x?x4x32x64xf16>
    %7657 = torch_c.from_builtin_tensor %cast_11776 : tensor<4x?x4x32x64xf16> -> !torch.vtensor<[4,?,4,32,64],f16>
    torch.bind_symbolic_shape %7657, [%378], affine_map<()[s0] -> (4, s0, 4, 32, 64)> : !torch.vtensor<[4,?,4,32,64],f16>
    %int2_11777 = torch.constant.int 2
    %int3_11778 = torch.constant.int 3
    %7658 = torch.aten.transpose.int %7651, %int2_11777, %int3_11778 : !torch.vtensor<[4,?,4,32,64],f16>, !torch.int, !torch.int -> !torch.vtensor<[4,?,32,4,64],f16>
    torch.bind_symbolic_shape %7658, [%378], affine_map<()[s0] -> (4, s0, 32, 4, 64)> : !torch.vtensor<[4,?,32,4,64],f16>
    %int0_11779 = torch.constant.int 0
    %7659 = torch.aten.clone %7658, %int0_11779 : !torch.vtensor<[4,?,32,4,64],f16>, !torch.int -> !torch.vtensor<[4,?,32,4,64],f16>
    torch.bind_symbolic_shape %7659, [%378], affine_map<()[s0] -> (4, s0, 32, 4, 64)> : !torch.vtensor<[4,?,32,4,64],f16>
    %int4_11780 = torch.constant.int 4
    %int4_11781 = torch.constant.int 4
    %int64_11782 = torch.constant.int 64
    %7660 = torch.prim.ListConstruct %int4_11780, %623, %int4_11781, %int64_11782 : (!torch.int, !torch.int, !torch.int, !torch.int) -> !torch.list<int>
    %7661 = torch.aten._unsafe_view %7659, %7660 : !torch.vtensor<[4,?,32,4,64],f16>, !torch.list<int> -> !torch.vtensor<[4,?,4,64],f16>
    torch.bind_symbolic_shape %7661, [%378], affine_map<()[s0] -> (4, s0 * 32, 4, 64)> : !torch.vtensor<[4,?,4,64],f16>
    %int2_11783 = torch.constant.int 2
    %int3_11784 = torch.constant.int 3
    %7662 = torch.aten.transpose.int %7657, %int2_11783, %int3_11784 : !torch.vtensor<[4,?,4,32,64],f16>, !torch.int, !torch.int -> !torch.vtensor<[4,?,32,4,64],f16>
    torch.bind_symbolic_shape %7662, [%378], affine_map<()[s0] -> (4, s0, 32, 4, 64)> : !torch.vtensor<[4,?,32,4,64],f16>
    %int0_11785 = torch.constant.int 0
    %7663 = torch.aten.clone %7662, %int0_11785 : !torch.vtensor<[4,?,32,4,64],f16>, !torch.int -> !torch.vtensor<[4,?,32,4,64],f16>
    torch.bind_symbolic_shape %7663, [%378], affine_map<()[s0] -> (4, s0, 32, 4, 64)> : !torch.vtensor<[4,?,32,4,64],f16>
    %int4_11786 = torch.constant.int 4
    %int4_11787 = torch.constant.int 4
    %int64_11788 = torch.constant.int 64
    %7664 = torch.prim.ListConstruct %int4_11786, %623, %int4_11787, %int64_11788 : (!torch.int, !torch.int, !torch.int, !torch.int) -> !torch.list<int>
    %7665 = torch.aten._unsafe_view %7663, %7664 : !torch.vtensor<[4,?,32,4,64],f16>, !torch.list<int> -> !torch.vtensor<[4,?,4,64],f16>
    torch.bind_symbolic_shape %7665, [%378], affine_map<()[s0] -> (4, s0 * 32, 4, 64)> : !torch.vtensor<[4,?,4,64],f16>
    %int0_11789 = torch.constant.int 0
    %int1_11790 = torch.constant.int 1
    %none_11791 = torch.constant.none
    %none_11792 = torch.constant.none
    %cpu_11793 = torch.constant.device "cpu"
    %false_11794 = torch.constant.bool false
    %7666 = torch.aten.arange.start_step %int0_11789, %623, %int1_11790, %none_11791, %none_11792, %cpu_11793, %false_11794 : !torch.int, !torch.int, !torch.int, !torch.none, !torch.none, !torch.Device, !torch.bool -> !torch.vtensor<[?],si64>
    torch.bind_symbolic_shape %7666, [%378], affine_map<()[s0] -> (s0 * 32)> : !torch.vtensor<[?],si64>
    %int-1_11795 = torch.constant.int -1
    %7667 = torch.aten.unsqueeze %arg1, %int-1_11795 : !torch.vtensor<[4],si64>, !torch.int -> !torch.vtensor<[4,1],si64>
    %7668 = torch.aten.ge.Tensor %7666, %7667 : !torch.vtensor<[?],si64>, !torch.vtensor<[4,1],si64> -> !torch.vtensor<[4,?],i1>
    torch.bind_symbolic_shape %7668, [%378], affine_map<()[s0] -> (4, s0 * 32)> : !torch.vtensor<[4,?],i1>
    %none_11796 = torch.constant.none
    %7669 = torch.aten.clone %365, %none_11796 : !torch.vtensor<[],f16>, !torch.none -> !torch.vtensor<[],f16>
    %int0_11797 = torch.constant.int 0
    %7670 = torch.aten.where.ScalarOther %7668, %7669, %int0_11797 : !torch.vtensor<[4,?],i1>, !torch.vtensor<[],f16>, !torch.int -> !torch.vtensor<[4,?],f16>
    torch.bind_symbolic_shape %7670, [%378], affine_map<()[s0] -> (4, s0 * 32)> : !torch.vtensor<[4,?],f16>
    %none_11798 = torch.constant.none
    %none_11799 = torch.constant.none
    %int5_11800 = torch.constant.int 5
    %cpu_11801 = torch.constant.device "cpu"
    %int0_11802 = torch.constant.int 0
    torch.aten._assert_tensor_metadata %7670, %none_11798, %none_11799, %int5_11800, %cpu_11801, %int0_11802 : !torch.vtensor<[4,?],f16>, !torch.none, !torch.none, !torch.int, !torch.Device, !torch.int
    %int1_11803 = torch.constant.int 1
    %7671 = torch.aten.unsqueeze %7670, %int1_11803 : !torch.vtensor<[4,?],f16>, !torch.int -> !torch.vtensor<[4,1,?],f16>
    torch.bind_symbolic_shape %7671, [%378], affine_map<()[s0] -> (4, 1, s0 * 32)> : !torch.vtensor<[4,1,?],f16>
    %int1_11804 = torch.constant.int 1
    %7672 = torch.aten.unsqueeze %7671, %int1_11804 : !torch.vtensor<[4,1,?],f16>, !torch.int -> !torch.vtensor<[4,1,1,?],f16>
    torch.bind_symbolic_shape %7672, [%378], affine_map<()[s0] -> (4, 1, 1, s0 * 32)> : !torch.vtensor<[4,1,1,?],f16>
    %int-2_11805 = torch.constant.int -2
    %7673 = torch.aten.unsqueeze %7661, %int-2_11805 : !torch.vtensor<[4,?,4,64],f16>, !torch.int -> !torch.vtensor<[4,?,4,1,64],f16>
    torch.bind_symbolic_shape %7673, [%378], affine_map<()[s0] -> (4, s0 * 32, 4, 1, 64)> : !torch.vtensor<[4,?,4,1,64],f16>
    %int4_11806 = torch.constant.int 4
    %int4_11807 = torch.constant.int 4
    %int8_11808 = torch.constant.int 8
    %int64_11809 = torch.constant.int 64
    %7674 = torch.prim.ListConstruct %int4_11806, %623, %int4_11807, %int8_11808, %int64_11809 : (!torch.int, !torch.int, !torch.int, !torch.int, !torch.int) -> !torch.list<int>
    %false_11810 = torch.constant.bool false
    %7675 = torch.aten.expand %7673, %7674, %false_11810 : !torch.vtensor<[4,?,4,1,64],f16>, !torch.list<int>, !torch.bool -> !torch.vtensor<[4,?,4,8,64],f16>
    torch.bind_symbolic_shape %7675, [%378], affine_map<()[s0] -> (4, s0 * 32, 4, 8, 64)> : !torch.vtensor<[4,?,4,8,64],f16>
    %int0_11811 = torch.constant.int 0
    %7676 = torch.aten.clone %7675, %int0_11811 : !torch.vtensor<[4,?,4,8,64],f16>, !torch.int -> !torch.vtensor<[4,?,4,8,64],f16>
    torch.bind_symbolic_shape %7676, [%378], affine_map<()[s0] -> (4, s0 * 32, 4, 8, 64)> : !torch.vtensor<[4,?,4,8,64],f16>
    %int4_11812 = torch.constant.int 4
    %int32_11813 = torch.constant.int 32
    %int64_11814 = torch.constant.int 64
    %7677 = torch.prim.ListConstruct %int4_11812, %623, %int32_11813, %int64_11814 : (!torch.int, !torch.int, !torch.int, !torch.int) -> !torch.list<int>
    %7678 = torch.aten._unsafe_view %7676, %7677 : !torch.vtensor<[4,?,4,8,64],f16>, !torch.list<int> -> !torch.vtensor<[4,?,32,64],f16>
    torch.bind_symbolic_shape %7678, [%378], affine_map<()[s0] -> (4, s0 * 32, 32, 64)> : !torch.vtensor<[4,?,32,64],f16>
    %int-2_11815 = torch.constant.int -2
    %7679 = torch.aten.unsqueeze %7665, %int-2_11815 : !torch.vtensor<[4,?,4,64],f16>, !torch.int -> !torch.vtensor<[4,?,4,1,64],f16>
    torch.bind_symbolic_shape %7679, [%378], affine_map<()[s0] -> (4, s0 * 32, 4, 1, 64)> : !torch.vtensor<[4,?,4,1,64],f16>
    %int4_11816 = torch.constant.int 4
    %int4_11817 = torch.constant.int 4
    %int8_11818 = torch.constant.int 8
    %int64_11819 = torch.constant.int 64
    %7680 = torch.prim.ListConstruct %int4_11816, %623, %int4_11817, %int8_11818, %int64_11819 : (!torch.int, !torch.int, !torch.int, !torch.int, !torch.int) -> !torch.list<int>
    %false_11820 = torch.constant.bool false
    %7681 = torch.aten.expand %7679, %7680, %false_11820 : !torch.vtensor<[4,?,4,1,64],f16>, !torch.list<int>, !torch.bool -> !torch.vtensor<[4,?,4,8,64],f16>
    torch.bind_symbolic_shape %7681, [%378], affine_map<()[s0] -> (4, s0 * 32, 4, 8, 64)> : !torch.vtensor<[4,?,4,8,64],f16>
    %int0_11821 = torch.constant.int 0
    %7682 = torch.aten.clone %7681, %int0_11821 : !torch.vtensor<[4,?,4,8,64],f16>, !torch.int -> !torch.vtensor<[4,?,4,8,64],f16>
    torch.bind_symbolic_shape %7682, [%378], affine_map<()[s0] -> (4, s0 * 32, 4, 8, 64)> : !torch.vtensor<[4,?,4,8,64],f16>
    %int4_11822 = torch.constant.int 4
    %int32_11823 = torch.constant.int 32
    %int64_11824 = torch.constant.int 64
    %7683 = torch.prim.ListConstruct %int4_11822, %623, %int32_11823, %int64_11824 : (!torch.int, !torch.int, !torch.int, !torch.int) -> !torch.list<int>
    %7684 = torch.aten._unsafe_view %7682, %7683 : !torch.vtensor<[4,?,4,8,64],f16>, !torch.list<int> -> !torch.vtensor<[4,?,32,64],f16>
    torch.bind_symbolic_shape %7684, [%378], affine_map<()[s0] -> (4, s0 * 32, 32, 64)> : !torch.vtensor<[4,?,32,64],f16>
    %int1_11825 = torch.constant.int 1
    %int2_11826 = torch.constant.int 2
    %7685 = torch.aten.transpose.int %7546, %int1_11825, %int2_11826 : !torch.vtensor<[4,1,32,64],f16>, !torch.int, !torch.int -> !torch.vtensor<[4,32,1,64],f16>
    %int1_11827 = torch.constant.int 1
    %int2_11828 = torch.constant.int 2
    %7686 = torch.aten.transpose.int %7678, %int1_11827, %int2_11828 : !torch.vtensor<[4,?,32,64],f16>, !torch.int, !torch.int -> !torch.vtensor<[4,32,?,64],f16>
    torch.bind_symbolic_shape %7686, [%378], affine_map<()[s0] -> (4, 32, s0 * 32, 64)> : !torch.vtensor<[4,32,?,64],f16>
    %int1_11829 = torch.constant.int 1
    %int2_11830 = torch.constant.int 2
    %7687 = torch.aten.transpose.int %7684, %int1_11829, %int2_11830 : !torch.vtensor<[4,?,32,64],f16>, !torch.int, !torch.int -> !torch.vtensor<[4,32,?,64],f16>
    torch.bind_symbolic_shape %7687, [%378], affine_map<()[s0] -> (4, 32, s0 * 32, 64)> : !torch.vtensor<[4,32,?,64],f16>
    %float0.000000e00_11831 = torch.constant.float 0.000000e+00
    %false_11832 = torch.constant.bool false
    %none_11833 = torch.constant.none
    %false_11834 = torch.constant.bool false
    %7688 = torch.aten.scaled_dot_product_attention %7685, %7686, %7687, %7672, %float0.000000e00_11831, %false_11832, %none_11833, %false_11834 : !torch.vtensor<[4,32,1,64],f16>, !torch.vtensor<[4,32,?,64],f16>, !torch.vtensor<[4,32,?,64],f16>, !torch.vtensor<[4,1,1,?],f16>, !torch.float, !torch.bool, !torch.none, !torch.bool -> !torch.vtensor<[4,32,1,64],f16>
    %int1_11835 = torch.constant.int 1
    %int2_11836 = torch.constant.int 2
    %7689 = torch.aten.transpose.int %7688, %int1_11835, %int2_11836 : !torch.vtensor<[4,32,1,64],f16>, !torch.int, !torch.int -> !torch.vtensor<[4,1,32,64],f16>
    %int4_11837 = torch.constant.int 4
    %int1_11838 = torch.constant.int 1
    %int2048_11839 = torch.constant.int 2048
    %7690 = torch.prim.ListConstruct %int4_11837, %int1_11838, %int2048_11839 : (!torch.int, !torch.int, !torch.int) -> !torch.list<int>
    %7691 = torch.aten.view %7689, %7690 : !torch.vtensor<[4,1,32,64],f16>, !torch.list<int> -> !torch.vtensor<[4,1,2048],f16>
    %int2_11840 = torch.constant.int 2
    %7692 = torch.aten.view.dtype %370, %int2_11840 : !torch.vtensor<[2048,2176],ui8>, !torch.int -> !torch.vtensor<[2048,1088],si16>
    %7693 = torch.aten.detach %7692 : !torch.vtensor<[2048,1088],si16> -> !torch.vtensor<[2048,1088],si16>
    %int-1_11841 = torch.constant.int -1
    %int17_11842 = torch.constant.int 17
    %7694 = torch.prim.ListConstruct %int-1_11841, %int17_11842 : (!torch.int, !torch.int) -> !torch.list<int>
    %7695 = torch.aten.view %7693, %7694 : !torch.vtensor<[2048,1088],si16>, !torch.list<int> -> !torch.vtensor<[131072,17],si16>
    %int2048_11843 = torch.constant.int 2048
    %int-1_11844 = torch.constant.int -1
    %int17_11845 = torch.constant.int 17
    %7696 = torch.prim.ListConstruct %int2048_11843, %int-1_11844, %int17_11845 : (!torch.int, !torch.int, !torch.int) -> !torch.list<int>
    %7697 = torch.aten.view %7695, %7696 : !torch.vtensor<[131072,17],si16>, !torch.list<int> -> !torch.vtensor<[2048,64,17],si16>
    %int2_11846 = torch.constant.int 2
    %int0_11847 = torch.constant.int 0
    %int1_11848 = torch.constant.int 1
    %int1_11849 = torch.constant.int 1
    %7698 = torch.aten.slice.Tensor %7697, %int2_11846, %int0_11847, %int1_11848, %int1_11849 : !torch.vtensor<[2048,64,17],si16>, !torch.int, !torch.int, !torch.int, !torch.int -> !torch.vtensor<[2048,64,1],si16>
    %int5_11850 = torch.constant.int 5
    %7699 = torch.aten.view.dtype %7698, %int5_11850 : !torch.vtensor<[2048,64,1],si16>, !torch.int -> !torch.vtensor<[2048,64,1],f16>
    %7700 = torch.aten.detach %7699 : !torch.vtensor<[2048,64,1],f16> -> !torch.vtensor<[2048,64,1],f16>
    %int2_11851 = torch.constant.int 2
    %int1_11852 = torch.constant.int 1
    %int9223372036854775807_11853 = torch.constant.int 9223372036854775807
    %int1_11854 = torch.constant.int 1
    %7701 = torch.aten.slice.Tensor %7697, %int2_11851, %int1_11852, %int9223372036854775807_11853, %int1_11854 : !torch.vtensor<[2048,64,17],si16>, !torch.int, !torch.int, !torch.int, !torch.int -> !torch.vtensor<[2048,64,16],si16>
    %int1_11855 = torch.constant.int 1
    %7702 = torch.aten.view.dtype %7701, %int1_11855 : !torch.vtensor<[2048,64,16],si16>, !torch.int -> !torch.vtensor<[2048,64,32],si8>
    %7703 = torch.aten.detach %7702 : !torch.vtensor<[2048,64,32],si8> -> !torch.vtensor<[2048,64,32],si8>
    %7704 = torch_c.to_builtin_tensor %7691 : !torch.vtensor<[4,1,2048],f16> -> tensor<4x1x2048xf16>
    %cast_11856 = tensor.cast %7704 : tensor<4x1x2048xf16> to tensor<?x?x2048xf16>
    %7705 = torch_c.to_builtin_tensor %7700 : !torch.vtensor<[2048,64,1],f16> -> tensor<2048x64x1xf16>
    %7706 = torch_c.to_builtin_tensor %7703 : !torch.vtensor<[2048,64,32],si8> -> tensor<2048x64x32xi8>
    %7707 = util.call @sharktank_mmt_block_scaled_q8_3d_2048_2048_32_f16(%cast_11856, %7705, %7706) : (tensor<?x?x2048xf16>, tensor<2048x64x1xf16>, tensor<2048x64x32xi8>) -> tensor<?x?x2048xf16>
    %cast_11857 = tensor.cast %7707 : tensor<?x?x2048xf16> to tensor<4x1x2048xf16>
    %7708 = torch_c.from_builtin_tensor %cast_11857 : tensor<4x1x2048xf16> -> !torch.vtensor<[4,1,2048],f16>
    %none_11858 = torch.constant.none
    %none_11859 = torch.constant.none
    %int5_11860 = torch.constant.int 5
    %cpu_11861 = torch.constant.device "cpu"
    %int0_11862 = torch.constant.int 0
    torch.aten._assert_tensor_metadata %7708, %none_11858, %none_11859, %int5_11860, %cpu_11861, %int0_11862 : !torch.vtensor<[4,1,2048],f16>, !torch.none, !torch.none, !torch.int, !torch.Device, !torch.int
    %int1_11863 = torch.constant.int 1
    %7709 = torch.aten.add.Tensor %7438, %7708, %int1_11863 : !torch.vtensor<[4,1,2048],f16>, !torch.vtensor<[4,1,2048],f16>, !torch.int -> !torch.vtensor<[4,1,2048],f16>
    %none_11864 = torch.constant.none
    %none_11865 = torch.constant.none
    %int5_11866 = torch.constant.int 5
    %cpu_11867 = torch.constant.device "cpu"
    %int0_11868 = torch.constant.int 0
    torch.aten._assert_tensor_metadata %7709, %none_11864, %none_11865, %int5_11866, %cpu_11867, %int0_11868 : !torch.vtensor<[4,1,2048],f16>, !torch.none, !torch.none, !torch.int, !torch.Device, !torch.int
    %int6_11869 = torch.constant.int 6
    %7710 = torch.prims.convert_element_type %7709, %int6_11869 : !torch.vtensor<[4,1,2048],f16>, !torch.int -> !torch.vtensor<[4,1,2048],f32>
    %int2_11870 = torch.constant.int 2
    %7711 = torch.aten.pow.Tensor_Scalar %7710, %int2_11870 : !torch.vtensor<[4,1,2048],f32>, !torch.int -> !torch.vtensor<[4,1,2048],f32>
    %int-1_11871 = torch.constant.int -1
    %7712 = torch.prim.ListConstruct %int-1_11871 : (!torch.int) -> !torch.list<int>
    %true_11872 = torch.constant.bool true
    %none_11873 = torch.constant.none
    %7713 = torch.aten.mean.dim %7711, %7712, %true_11872, %none_11873 : !torch.vtensor<[4,1,2048],f32>, !torch.list<int>, !torch.bool, !torch.none -> !torch.vtensor<[4,1,1],f32>
    %float9.999990e-06_11874 = torch.constant.float 9.9999997473787516E-6
    %int1_11875 = torch.constant.int 1
    %7714 = torch.aten.add.Scalar %7713, %float9.999990e-06_11874, %int1_11875 : !torch.vtensor<[4,1,1],f32>, !torch.float, !torch.int -> !torch.vtensor<[4,1,1],f32>
    %7715 = torch.aten.rsqrt %7714 : !torch.vtensor<[4,1,1],f32> -> !torch.vtensor<[4,1,1],f32>
    %7716 = torch.aten.mul.Tensor %7710, %7715 : !torch.vtensor<[4,1,2048],f32>, !torch.vtensor<[4,1,1],f32> -> !torch.vtensor<[4,1,2048],f32>
    %none_11876 = torch.constant.none
    %none_11877 = torch.constant.none
    %int6_11878 = torch.constant.int 6
    %cpu_11879 = torch.constant.device "cpu"
    %int0_11880 = torch.constant.int 0
    torch.aten._assert_tensor_metadata %7716, %none_11876, %none_11877, %int6_11878, %cpu_11879, %int0_11880 : !torch.vtensor<[4,1,2048],f32>, !torch.none, !torch.none, !torch.int, !torch.Device, !torch.int
    %int5_11881 = torch.constant.int 5
    %7717 = torch.prims.convert_element_type %7716, %int5_11881 : !torch.vtensor<[4,1,2048],f32>, !torch.int -> !torch.vtensor<[4,1,2048],f16>
    %7718 = torch.aten.mul.Tensor %371, %7717 : !torch.vtensor<[2048],f32>, !torch.vtensor<[4,1,2048],f16> -> !torch.vtensor<[4,1,2048],f32>
    %none_11882 = torch.constant.none
    %none_11883 = torch.constant.none
    %int6_11884 = torch.constant.int 6
    %cpu_11885 = torch.constant.device "cpu"
    %int0_11886 = torch.constant.int 0
    torch.aten._assert_tensor_metadata %7718, %none_11882, %none_11883, %int6_11884, %cpu_11885, %int0_11886 : !torch.vtensor<[4,1,2048],f32>, !torch.none, !torch.none, !torch.int, !torch.Device, !torch.int
    %int5_11887 = torch.constant.int 5
    %7719 = torch.prims.convert_element_type %7718, %int5_11887 : !torch.vtensor<[4,1,2048],f32>, !torch.int -> !torch.vtensor<[4,1,2048],f16>
    %int2_11888 = torch.constant.int 2
    %7720 = torch.aten.view.dtype %372, %int2_11888 : !torch.vtensor<[5632,2176],ui8>, !torch.int -> !torch.vtensor<[5632,1088],si16>
    %7721 = torch.aten.detach %7720 : !torch.vtensor<[5632,1088],si16> -> !torch.vtensor<[5632,1088],si16>
    %int-1_11889 = torch.constant.int -1
    %int17_11890 = torch.constant.int 17
    %7722 = torch.prim.ListConstruct %int-1_11889, %int17_11890 : (!torch.int, !torch.int) -> !torch.list<int>
    %7723 = torch.aten.view %7721, %7722 : !torch.vtensor<[5632,1088],si16>, !torch.list<int> -> !torch.vtensor<[360448,17],si16>
    %int5632_11891 = torch.constant.int 5632
    %int-1_11892 = torch.constant.int -1
    %int17_11893 = torch.constant.int 17
    %7724 = torch.prim.ListConstruct %int5632_11891, %int-1_11892, %int17_11893 : (!torch.int, !torch.int, !torch.int) -> !torch.list<int>
    %7725 = torch.aten.view %7723, %7724 : !torch.vtensor<[360448,17],si16>, !torch.list<int> -> !torch.vtensor<[5632,64,17],si16>
    %int2_11894 = torch.constant.int 2
    %int0_11895 = torch.constant.int 0
    %int1_11896 = torch.constant.int 1
    %int1_11897 = torch.constant.int 1
    %7726 = torch.aten.slice.Tensor %7725, %int2_11894, %int0_11895, %int1_11896, %int1_11897 : !torch.vtensor<[5632,64,17],si16>, !torch.int, !torch.int, !torch.int, !torch.int -> !torch.vtensor<[5632,64,1],si16>
    %int5_11898 = torch.constant.int 5
    %7727 = torch.aten.view.dtype %7726, %int5_11898 : !torch.vtensor<[5632,64,1],si16>, !torch.int -> !torch.vtensor<[5632,64,1],f16>
    %7728 = torch.aten.detach %7727 : !torch.vtensor<[5632,64,1],f16> -> !torch.vtensor<[5632,64,1],f16>
    %int2_11899 = torch.constant.int 2
    %int1_11900 = torch.constant.int 1
    %int9223372036854775807_11901 = torch.constant.int 9223372036854775807
    %int1_11902 = torch.constant.int 1
    %7729 = torch.aten.slice.Tensor %7725, %int2_11899, %int1_11900, %int9223372036854775807_11901, %int1_11902 : !torch.vtensor<[5632,64,17],si16>, !torch.int, !torch.int, !torch.int, !torch.int -> !torch.vtensor<[5632,64,16],si16>
    %int1_11903 = torch.constant.int 1
    %7730 = torch.aten.view.dtype %7729, %int1_11903 : !torch.vtensor<[5632,64,16],si16>, !torch.int -> !torch.vtensor<[5632,64,32],si8>
    %7731 = torch.aten.detach %7730 : !torch.vtensor<[5632,64,32],si8> -> !torch.vtensor<[5632,64,32],si8>
    %7732 = torch_c.to_builtin_tensor %7719 : !torch.vtensor<[4,1,2048],f16> -> tensor<4x1x2048xf16>
    %cast_11904 = tensor.cast %7732 : tensor<4x1x2048xf16> to tensor<?x?x2048xf16>
    %7733 = torch_c.to_builtin_tensor %7728 : !torch.vtensor<[5632,64,1],f16> -> tensor<5632x64x1xf16>
    %7734 = torch_c.to_builtin_tensor %7731 : !torch.vtensor<[5632,64,32],si8> -> tensor<5632x64x32xi8>
    %7735 = util.call @sharktank_mmt_block_scaled_q8_3d_5632_2048_32_f16(%cast_11904, %7733, %7734) : (tensor<?x?x2048xf16>, tensor<5632x64x1xf16>, tensor<5632x64x32xi8>) -> tensor<?x?x5632xf16>
    %cast_11905 = tensor.cast %7735 : tensor<?x?x5632xf16> to tensor<4x1x5632xf16>
    %7736 = torch_c.from_builtin_tensor %cast_11905 : tensor<4x1x5632xf16> -> !torch.vtensor<[4,1,5632],f16>
    %7737 = torch.aten.silu %7736 : !torch.vtensor<[4,1,5632],f16> -> !torch.vtensor<[4,1,5632],f16>
    %int2_11906 = torch.constant.int 2
    %7738 = torch.aten.view.dtype %373, %int2_11906 : !torch.vtensor<[5632,2176],ui8>, !torch.int -> !torch.vtensor<[5632,1088],si16>
    %7739 = torch.aten.detach %7738 : !torch.vtensor<[5632,1088],si16> -> !torch.vtensor<[5632,1088],si16>
    %int-1_11907 = torch.constant.int -1
    %int17_11908 = torch.constant.int 17
    %7740 = torch.prim.ListConstruct %int-1_11907, %int17_11908 : (!torch.int, !torch.int) -> !torch.list<int>
    %7741 = torch.aten.view %7739, %7740 : !torch.vtensor<[5632,1088],si16>, !torch.list<int> -> !torch.vtensor<[360448,17],si16>
    %int5632_11909 = torch.constant.int 5632
    %int-1_11910 = torch.constant.int -1
    %int17_11911 = torch.constant.int 17
    %7742 = torch.prim.ListConstruct %int5632_11909, %int-1_11910, %int17_11911 : (!torch.int, !torch.int, !torch.int) -> !torch.list<int>
    %7743 = torch.aten.view %7741, %7742 : !torch.vtensor<[360448,17],si16>, !torch.list<int> -> !torch.vtensor<[5632,64,17],si16>
    %int2_11912 = torch.constant.int 2
    %int0_11913 = torch.constant.int 0
    %int1_11914 = torch.constant.int 1
    %int1_11915 = torch.constant.int 1
    %7744 = torch.aten.slice.Tensor %7743, %int2_11912, %int0_11913, %int1_11914, %int1_11915 : !torch.vtensor<[5632,64,17],si16>, !torch.int, !torch.int, !torch.int, !torch.int -> !torch.vtensor<[5632,64,1],si16>
    %int5_11916 = torch.constant.int 5
    %7745 = torch.aten.view.dtype %7744, %int5_11916 : !torch.vtensor<[5632,64,1],si16>, !torch.int -> !torch.vtensor<[5632,64,1],f16>
    %7746 = torch.aten.detach %7745 : !torch.vtensor<[5632,64,1],f16> -> !torch.vtensor<[5632,64,1],f16>
    %int2_11917 = torch.constant.int 2
    %int1_11918 = torch.constant.int 1
    %int9223372036854775807_11919 = torch.constant.int 9223372036854775807
    %int1_11920 = torch.constant.int 1
    %7747 = torch.aten.slice.Tensor %7743, %int2_11917, %int1_11918, %int9223372036854775807_11919, %int1_11920 : !torch.vtensor<[5632,64,17],si16>, !torch.int, !torch.int, !torch.int, !torch.int -> !torch.vtensor<[5632,64,16],si16>
    %int1_11921 = torch.constant.int 1
    %7748 = torch.aten.view.dtype %7747, %int1_11921 : !torch.vtensor<[5632,64,16],si16>, !torch.int -> !torch.vtensor<[5632,64,32],si8>
    %7749 = torch.aten.detach %7748 : !torch.vtensor<[5632,64,32],si8> -> !torch.vtensor<[5632,64,32],si8>
    %7750 = torch_c.to_builtin_tensor %7719 : !torch.vtensor<[4,1,2048],f16> -> tensor<4x1x2048xf16>
    %cast_11922 = tensor.cast %7750 : tensor<4x1x2048xf16> to tensor<?x?x2048xf16>
    %7751 = torch_c.to_builtin_tensor %7746 : !torch.vtensor<[5632,64,1],f16> -> tensor<5632x64x1xf16>
    %7752 = torch_c.to_builtin_tensor %7749 : !torch.vtensor<[5632,64,32],si8> -> tensor<5632x64x32xi8>
    %7753 = util.call @sharktank_mmt_block_scaled_q8_3d_5632_2048_32_f16(%cast_11922, %7751, %7752) : (tensor<?x?x2048xf16>, tensor<5632x64x1xf16>, tensor<5632x64x32xi8>) -> tensor<?x?x5632xf16>
    %cast_11923 = tensor.cast %7753 : tensor<?x?x5632xf16> to tensor<4x1x5632xf16>
    %7754 = torch_c.from_builtin_tensor %cast_11923 : tensor<4x1x5632xf16> -> !torch.vtensor<[4,1,5632],f16>
    %7755 = torch.aten.mul.Tensor %7737, %7754 : !torch.vtensor<[4,1,5632],f16>, !torch.vtensor<[4,1,5632],f16> -> !torch.vtensor<[4,1,5632],f16>
    %int2_11924 = torch.constant.int 2
    %7756 = torch.aten.view.dtype %374, %int2_11924 : !torch.vtensor<[2048,5984],ui8>, !torch.int -> !torch.vtensor<[2048,2992],si16>
    %7757 = torch.aten.detach %7756 : !torch.vtensor<[2048,2992],si16> -> !torch.vtensor<[2048,2992],si16>
    %int-1_11925 = torch.constant.int -1
    %int17_11926 = torch.constant.int 17
    %7758 = torch.prim.ListConstruct %int-1_11925, %int17_11926 : (!torch.int, !torch.int) -> !torch.list<int>
    %7759 = torch.aten.view %7757, %7758 : !torch.vtensor<[2048,2992],si16>, !torch.list<int> -> !torch.vtensor<[360448,17],si16>
    %int2048_11927 = torch.constant.int 2048
    %int-1_11928 = torch.constant.int -1
    %int17_11929 = torch.constant.int 17
    %7760 = torch.prim.ListConstruct %int2048_11927, %int-1_11928, %int17_11929 : (!torch.int, !torch.int, !torch.int) -> !torch.list<int>
    %7761 = torch.aten.view %7759, %7760 : !torch.vtensor<[360448,17],si16>, !torch.list<int> -> !torch.vtensor<[2048,176,17],si16>
    %int2_11930 = torch.constant.int 2
    %int0_11931 = torch.constant.int 0
    %int1_11932 = torch.constant.int 1
    %int1_11933 = torch.constant.int 1
    %7762 = torch.aten.slice.Tensor %7761, %int2_11930, %int0_11931, %int1_11932, %int1_11933 : !torch.vtensor<[2048,176,17],si16>, !torch.int, !torch.int, !torch.int, !torch.int -> !torch.vtensor<[2048,176,1],si16>
    %int5_11934 = torch.constant.int 5
    %7763 = torch.aten.view.dtype %7762, %int5_11934 : !torch.vtensor<[2048,176,1],si16>, !torch.int -> !torch.vtensor<[2048,176,1],f16>
    %7764 = torch.aten.detach %7763 : !torch.vtensor<[2048,176,1],f16> -> !torch.vtensor<[2048,176,1],f16>
    %int2_11935 = torch.constant.int 2
    %int1_11936 = torch.constant.int 1
    %int9223372036854775807_11937 = torch.constant.int 9223372036854775807
    %int1_11938 = torch.constant.int 1
    %7765 = torch.aten.slice.Tensor %7761, %int2_11935, %int1_11936, %int9223372036854775807_11937, %int1_11938 : !torch.vtensor<[2048,176,17],si16>, !torch.int, !torch.int, !torch.int, !torch.int -> !torch.vtensor<[2048,176,16],si16>
    %int1_11939 = torch.constant.int 1
    %7766 = torch.aten.view.dtype %7765, %int1_11939 : !torch.vtensor<[2048,176,16],si16>, !torch.int -> !torch.vtensor<[2048,176,32],si8>
    %7767 = torch.aten.detach %7766 : !torch.vtensor<[2048,176,32],si8> -> !torch.vtensor<[2048,176,32],si8>
    %7768 = torch_c.to_builtin_tensor %7755 : !torch.vtensor<[4,1,5632],f16> -> tensor<4x1x5632xf16>
    %cast_11940 = tensor.cast %7768 : tensor<4x1x5632xf16> to tensor<?x?x5632xf16>
    %7769 = torch_c.to_builtin_tensor %7764 : !torch.vtensor<[2048,176,1],f16> -> tensor<2048x176x1xf16>
    %7770 = torch_c.to_builtin_tensor %7767 : !torch.vtensor<[2048,176,32],si8> -> tensor<2048x176x32xi8>
    %7771 = util.call @sharktank_mmt_block_scaled_q8_3d_2048_5632_32_f16(%cast_11940, %7769, %7770) : (tensor<?x?x5632xf16>, tensor<2048x176x1xf16>, tensor<2048x176x32xi8>) -> tensor<?x?x2048xf16>
    %cast_11941 = tensor.cast %7771 : tensor<?x?x2048xf16> to tensor<4x1x2048xf16>
    %7772 = torch_c.from_builtin_tensor %cast_11941 : tensor<4x1x2048xf16> -> !torch.vtensor<[4,1,2048],f16>
    %int1_11942 = torch.constant.int 1
    %7773 = torch.aten.add.Tensor %7709, %7772, %int1_11942 : !torch.vtensor<[4,1,2048],f16>, !torch.vtensor<[4,1,2048],f16>, !torch.int -> !torch.vtensor<[4,1,2048],f16>
    %none_11943 = torch.constant.none
    %none_11944 = torch.constant.none
    %int5_11945 = torch.constant.int 5
    %cpu_11946 = torch.constant.device "cpu"
    %int0_11947 = torch.constant.int 0
    torch.aten._assert_tensor_metadata %7773, %none_11943, %none_11944, %int5_11945, %cpu_11946, %int0_11947 : !torch.vtensor<[4,1,2048],f16>, !torch.none, !torch.none, !torch.int, !torch.Device, !torch.int
    %none_11948 = torch.constant.none
    %none_11949 = torch.constant.none
    %int5_11950 = torch.constant.int 5
    %cpu_11951 = torch.constant.device "cpu"
    %int0_11952 = torch.constant.int 0
    torch.aten._assert_tensor_metadata %7773, %none_11948, %none_11949, %int5_11950, %cpu_11951, %int0_11952 : !torch.vtensor<[4,1,2048],f16>, !torch.none, !torch.none, !torch.int, !torch.Device, !torch.int
    %int6_11953 = torch.constant.int 6
    %7774 = torch.prims.convert_element_type %7773, %int6_11953 : !torch.vtensor<[4,1,2048],f16>, !torch.int -> !torch.vtensor<[4,1,2048],f32>
    %int2_11954 = torch.constant.int 2
    %7775 = torch.aten.pow.Tensor_Scalar %7774, %int2_11954 : !torch.vtensor<[4,1,2048],f32>, !torch.int -> !torch.vtensor<[4,1,2048],f32>
    %int-1_11955 = torch.constant.int -1
    %7776 = torch.prim.ListConstruct %int-1_11955 : (!torch.int) -> !torch.list<int>
    %true_11956 = torch.constant.bool true
    %none_11957 = torch.constant.none
    %7777 = torch.aten.mean.dim %7775, %7776, %true_11956, %none_11957 : !torch.vtensor<[4,1,2048],f32>, !torch.list<int>, !torch.bool, !torch.none -> !torch.vtensor<[4,1,1],f32>
    %float9.999990e-06_11958 = torch.constant.float 9.9999997473787516E-6
    %int1_11959 = torch.constant.int 1
    %7778 = torch.aten.add.Scalar %7777, %float9.999990e-06_11958, %int1_11959 : !torch.vtensor<[4,1,1],f32>, !torch.float, !torch.int -> !torch.vtensor<[4,1,1],f32>
    %7779 = torch.aten.rsqrt %7778 : !torch.vtensor<[4,1,1],f32> -> !torch.vtensor<[4,1,1],f32>
    %7780 = torch.aten.mul.Tensor %7774, %7779 : !torch.vtensor<[4,1,2048],f32>, !torch.vtensor<[4,1,1],f32> -> !torch.vtensor<[4,1,2048],f32>
    %none_11960 = torch.constant.none
    %none_11961 = torch.constant.none
    %int6_11962 = torch.constant.int 6
    %cpu_11963 = torch.constant.device "cpu"
    %int0_11964 = torch.constant.int 0
    torch.aten._assert_tensor_metadata %7780, %none_11960, %none_11961, %int6_11962, %cpu_11963, %int0_11964 : !torch.vtensor<[4,1,2048],f32>, !torch.none, !torch.none, !torch.int, !torch.Device, !torch.int
    %int5_11965 = torch.constant.int 5
    %7781 = torch.prims.convert_element_type %7780, %int5_11965 : !torch.vtensor<[4,1,2048],f32>, !torch.int -> !torch.vtensor<[4,1,2048],f16>
    %7782 = torch.aten.mul.Tensor %375, %7781 : !torch.vtensor<[2048],f32>, !torch.vtensor<[4,1,2048],f16> -> !torch.vtensor<[4,1,2048],f32>
    %none_11966 = torch.constant.none
    %none_11967 = torch.constant.none
    %int6_11968 = torch.constant.int 6
    %cpu_11969 = torch.constant.device "cpu"
    %int0_11970 = torch.constant.int 0
    torch.aten._assert_tensor_metadata %7782, %none_11966, %none_11967, %int6_11968, %cpu_11969, %int0_11970 : !torch.vtensor<[4,1,2048],f32>, !torch.none, !torch.none, !torch.int, !torch.Device, !torch.int
    %int5_11971 = torch.constant.int 5
    %7783 = torch.prims.convert_element_type %7782, %int5_11971 : !torch.vtensor<[4,1,2048],f32>, !torch.int -> !torch.vtensor<[4,1,2048],f16>
    %int2_11972 = torch.constant.int 2
    %7784 = torch.aten.view.dtype %376, %int2_11972 : !torch.vtensor<[32000,2176],ui8>, !torch.int -> !torch.vtensor<[32000,1088],si16>
    %7785 = torch.aten.detach %7784 : !torch.vtensor<[32000,1088],si16> -> !torch.vtensor<[32000,1088],si16>
    %int-1_11973 = torch.constant.int -1
    %int17_11974 = torch.constant.int 17
    %7786 = torch.prim.ListConstruct %int-1_11973, %int17_11974 : (!torch.int, !torch.int) -> !torch.list<int>
    %7787 = torch.aten.view %7785, %7786 : !torch.vtensor<[32000,1088],si16>, !torch.list<int> -> !torch.vtensor<[2048000,17],si16>
    %int32000_11975 = torch.constant.int 32000
    %int-1_11976 = torch.constant.int -1
    %int17_11977 = torch.constant.int 17
    %7788 = torch.prim.ListConstruct %int32000_11975, %int-1_11976, %int17_11977 : (!torch.int, !torch.int, !torch.int) -> !torch.list<int>
    %7789 = torch.aten.view %7787, %7788 : !torch.vtensor<[2048000,17],si16>, !torch.list<int> -> !torch.vtensor<[32000,64,17],si16>
    %int2_11978 = torch.constant.int 2
    %int0_11979 = torch.constant.int 0
    %int1_11980 = torch.constant.int 1
    %int1_11981 = torch.constant.int 1
    %7790 = torch.aten.slice.Tensor %7789, %int2_11978, %int0_11979, %int1_11980, %int1_11981 : !torch.vtensor<[32000,64,17],si16>, !torch.int, !torch.int, !torch.int, !torch.int -> !torch.vtensor<[32000,64,1],si16>
    %int5_11982 = torch.constant.int 5
    %7791 = torch.aten.view.dtype %7790, %int5_11982 : !torch.vtensor<[32000,64,1],si16>, !torch.int -> !torch.vtensor<[32000,64,1],f16>
    %7792 = torch.aten.detach %7791 : !torch.vtensor<[32000,64,1],f16> -> !torch.vtensor<[32000,64,1],f16>
    %int2_11983 = torch.constant.int 2
    %int1_11984 = torch.constant.int 1
    %int9223372036854775807_11985 = torch.constant.int 9223372036854775807
    %int1_11986 = torch.constant.int 1
    %7793 = torch.aten.slice.Tensor %7789, %int2_11983, %int1_11984, %int9223372036854775807_11985, %int1_11986 : !torch.vtensor<[32000,64,17],si16>, !torch.int, !torch.int, !torch.int, !torch.int -> !torch.vtensor<[32000,64,16],si16>
    %int1_11987 = torch.constant.int 1
    %7794 = torch.aten.view.dtype %7793, %int1_11987 : !torch.vtensor<[32000,64,16],si16>, !torch.int -> !torch.vtensor<[32000,64,32],si8>
    %7795 = torch.aten.detach %7794 : !torch.vtensor<[32000,64,32],si8> -> !torch.vtensor<[32000,64,32],si8>
    %7796 = torch_c.to_builtin_tensor %7783 : !torch.vtensor<[4,1,2048],f16> -> tensor<4x1x2048xf16>
    %cast_11988 = tensor.cast %7796 : tensor<4x1x2048xf16> to tensor<?x?x2048xf16>
    %7797 = torch_c.to_builtin_tensor %7792 : !torch.vtensor<[32000,64,1],f16> -> tensor<32000x64x1xf16>
    %7798 = torch_c.to_builtin_tensor %7795 : !torch.vtensor<[32000,64,32],si8> -> tensor<32000x64x32xi8>
    %7799 = util.call @sharktank_mmt_block_scaled_q8_3d_32000_2048_32_f16(%cast_11988, %7797, %7798) : (tensor<?x?x2048xf16>, tensor<32000x64x1xf16>, tensor<32000x64x32xi8>) -> tensor<?x?x32000xf16>
    %cast_11989 = tensor.cast %7799 : tensor<?x?x32000xf16> to tensor<4x1x32000xf16>
    %7800 = torch_c.from_builtin_tensor %cast_11989 : tensor<4x1x32000xf16> -> !torch.vtensor<[4,1,32000],f16>
    return %7800 : !torch.vtensor<[4,1,32000],f16>
  }
  util.func private @sharktank_mmt_block_scaled_q8_3d_2048_2048_32_f16(%arg0: tensor<?x?x2048xf16>, %arg1: tensor<2048x64x1xf16>, %arg2: tensor<2048x64x32xi8>) -> tensor<?x?x2048xf16> {
    %cst = arith.constant 0.000000e+00 : f32
    %c0 = arith.constant 0 : index
    %c1 = arith.constant 1 : index
    %dim = tensor.dim %arg0, %c0 : tensor<?x?x2048xf16>
    %dim_0 = tensor.dim %arg0, %c1 : tensor<?x?x2048xf16>
    %0 = tensor.empty() : tensor<2048x64x32xf16>
    %1 = linalg.generic {indexing_maps = [#map, #map1, #map1], iterator_types = ["parallel", "parallel", "parallel"]} ins(%arg1, %arg2 : tensor<2048x64x1xf16>, tensor<2048x64x32xi8>) outs(%0 : tensor<2048x64x32xf16>) {
    ^bb0(%in: f16, %in_1: i8, %out: f16):
      %7 = arith.extsi %in_1 : i8 to i32
      %8 = arith.sitofp %7 : i32 to f16
      %9 = arith.mulf %8, %in : f16
      linalg.yield %9 : f16
    } -> tensor<2048x64x32xf16>
    %expanded = tensor.expand_shape %arg0 [[0], [1], [2, 3]] output_shape [%dim, %dim_0, 64, 32] : tensor<?x?x2048xf16> into tensor<?x?x64x32xf16>
    %2 = tensor.empty(%dim, %dim_0) : tensor<?x?x2048xf32>
    %3 = linalg.fill ins(%cst : f32) outs(%2 : tensor<?x?x2048xf32>) -> tensor<?x?x2048xf32>
    %4 = linalg.generic {indexing_maps = [#map2, #map3, #map4], iterator_types = ["parallel", "parallel", "parallel", "reduction", "reduction"]} ins(%expanded, %1 : tensor<?x?x64x32xf16>, tensor<2048x64x32xf16>) outs(%3 : tensor<?x?x2048xf32>) {
    ^bb0(%in: f16, %in_1: f16, %out: f32):
      %7 = arith.mulf %in, %in_1 : f16
      %8 = arith.extf %7 : f16 to f32
      %9 = arith.addf %8, %out : f32
      linalg.yield %9 : f32
    } -> tensor<?x?x2048xf32>
    %5 = tensor.empty(%dim, %dim_0) : tensor<?x?x2048xf16>
    %6 = linalg.copy ins(%4 : tensor<?x?x2048xf32>) outs(%5 : tensor<?x?x2048xf16>) -> tensor<?x?x2048xf16>
    util.return %6 : tensor<?x?x2048xf16>
  }
  util.func private @sharktank_mmt_block_scaled_q8_3d_256_2048_32_f16(%arg0: tensor<?x?x2048xf16>, %arg1: tensor<256x64x1xf16>, %arg2: tensor<256x64x32xi8>) -> tensor<?x?x256xf16> {
    %cst = arith.constant 0.000000e+00 : f32
    %c0 = arith.constant 0 : index
    %c1 = arith.constant 1 : index
    %dim = tensor.dim %arg0, %c0 : tensor<?x?x2048xf16>
    %dim_0 = tensor.dim %arg0, %c1 : tensor<?x?x2048xf16>
    %0 = tensor.empty() : tensor<256x64x32xf16>
    %1 = linalg.generic {indexing_maps = [#map, #map1, #map1], iterator_types = ["parallel", "parallel", "parallel"]} ins(%arg1, %arg2 : tensor<256x64x1xf16>, tensor<256x64x32xi8>) outs(%0 : tensor<256x64x32xf16>) {
    ^bb0(%in: f16, %in_1: i8, %out: f16):
      %7 = arith.extsi %in_1 : i8 to i32
      %8 = arith.sitofp %7 : i32 to f16
      %9 = arith.mulf %8, %in : f16
      linalg.yield %9 : f16
    } -> tensor<256x64x32xf16>
    %expanded = tensor.expand_shape %arg0 [[0], [1], [2, 3]] output_shape [%dim, %dim_0, 64, 32] : tensor<?x?x2048xf16> into tensor<?x?x64x32xf16>
    %2 = tensor.empty(%dim, %dim_0) : tensor<?x?x256xf32>
    %3 = linalg.fill ins(%cst : f32) outs(%2 : tensor<?x?x256xf32>) -> tensor<?x?x256xf32>
    %4 = linalg.generic {indexing_maps = [#map2, #map3, #map4], iterator_types = ["parallel", "parallel", "parallel", "reduction", "reduction"]} ins(%expanded, %1 : tensor<?x?x64x32xf16>, tensor<256x64x32xf16>) outs(%3 : tensor<?x?x256xf32>) {
    ^bb0(%in: f16, %in_1: f16, %out: f32):
      %7 = arith.mulf %in, %in_1 : f16
      %8 = arith.extf %7 : f16 to f32
      %9 = arith.addf %8, %out : f32
      linalg.yield %9 : f32
    } -> tensor<?x?x256xf32>
    %5 = tensor.empty(%dim, %dim_0) : tensor<?x?x256xf16>
    %6 = linalg.copy ins(%4 : tensor<?x?x256xf32>) outs(%5 : tensor<?x?x256xf16>) -> tensor<?x?x256xf16>
    util.return %6 : tensor<?x?x256xf16>
  }
  util.func private @rope_select_concat_BS_SL_HEADS_HALFDIM_f16_BS_SL_HEADS_HALFDIM_f16_BS_SL_HEADS_TWO_2_HALFDIM_f16(%arg0: tensor<?x?x?x?xf16>, %arg1: tensor<?x?x?x?xf16>) -> tensor<?x?x?x2x?xf16> {
    %c0 = arith.constant 0 : index
    %c1 = arith.constant 1 : index
    %c2 = arith.constant 2 : index
    %c3 = arith.constant 3 : index
    %dim = tensor.dim %arg0, %c0 : tensor<?x?x?x?xf16>
    %dim_0 = tensor.dim %arg0, %c1 : tensor<?x?x?x?xf16>
    %dim_1 = tensor.dim %arg0, %c2 : tensor<?x?x?x?xf16>
    %dim_2 = tensor.dim %arg0, %c3 : tensor<?x?x?x?xf16>
    %0 = tensor.empty(%dim, %dim_0, %dim_1, %dim_2) : tensor<?x?x?x2x?xf16>
    %1 = linalg.generic {indexing_maps = [#map5, #map5, #map6], iterator_types = ["parallel", "parallel", "parallel", "parallel", "parallel"]} ins(%arg0, %arg1 : tensor<?x?x?x?xf16>, tensor<?x?x?x?xf16>) outs(%0 : tensor<?x?x?x2x?xf16>) {
    ^bb0(%in: f16, %in_3: f16, %out: f16):
      %2 = linalg.index 3 : index
      %3 = arith.cmpi eq, %2, %c0 : index
      %4 = arith.select %3, %in, %in_3 : f16
      linalg.yield %4 : f16
    } -> tensor<?x?x?x2x?xf16>
    util.return %1 : tensor<?x?x?x2x?xf16>
  }
  util.func private @sharktank_mmt_block_scaled_q8_3d_5632_2048_32_f16(%arg0: tensor<?x?x2048xf16>, %arg1: tensor<5632x64x1xf16>, %arg2: tensor<5632x64x32xi8>) -> tensor<?x?x5632xf16> {
    %cst = arith.constant 0.000000e+00 : f32
    %c0 = arith.constant 0 : index
    %c1 = arith.constant 1 : index
    %dim = tensor.dim %arg0, %c0 : tensor<?x?x2048xf16>
    %dim_0 = tensor.dim %arg0, %c1 : tensor<?x?x2048xf16>
    %0 = tensor.empty() : tensor<5632x64x32xf16>
    %1 = linalg.generic {indexing_maps = [#map, #map1, #map1], iterator_types = ["parallel", "parallel", "parallel"]} ins(%arg1, %arg2 : tensor<5632x64x1xf16>, tensor<5632x64x32xi8>) outs(%0 : tensor<5632x64x32xf16>) {
    ^bb0(%in: f16, %in_1: i8, %out: f16):
      %7 = arith.extsi %in_1 : i8 to i32
      %8 = arith.sitofp %7 : i32 to f16
      %9 = arith.mulf %8, %in : f16
      linalg.yield %9 : f16
    } -> tensor<5632x64x32xf16>
    %expanded = tensor.expand_shape %arg0 [[0], [1], [2, 3]] output_shape [%dim, %dim_0, 64, 32] : tensor<?x?x2048xf16> into tensor<?x?x64x32xf16>
    %2 = tensor.empty(%dim, %dim_0) : tensor<?x?x5632xf32>
    %3 = linalg.fill ins(%cst : f32) outs(%2 : tensor<?x?x5632xf32>) -> tensor<?x?x5632xf32>
    %4 = linalg.generic {indexing_maps = [#map2, #map3, #map4], iterator_types = ["parallel", "parallel", "parallel", "reduction", "reduction"]} ins(%expanded, %1 : tensor<?x?x64x32xf16>, tensor<5632x64x32xf16>) outs(%3 : tensor<?x?x5632xf32>) {
    ^bb0(%in: f16, %in_1: f16, %out: f32):
      %7 = arith.mulf %in, %in_1 : f16
      %8 = arith.extf %7 : f16 to f32
      %9 = arith.addf %8, %out : f32
      linalg.yield %9 : f32
    } -> tensor<?x?x5632xf32>
    %5 = tensor.empty(%dim, %dim_0) : tensor<?x?x5632xf16>
    %6 = linalg.copy ins(%4 : tensor<?x?x5632xf32>) outs(%5 : tensor<?x?x5632xf16>) -> tensor<?x?x5632xf16>
    util.return %6 : tensor<?x?x5632xf16>
  }
  util.func private @sharktank_mmt_block_scaled_q8_3d_2048_5632_32_f16(%arg0: tensor<?x?x5632xf16>, %arg1: tensor<2048x176x1xf16>, %arg2: tensor<2048x176x32xi8>) -> tensor<?x?x2048xf16> {
    %cst = arith.constant 0.000000e+00 : f32
    %c0 = arith.constant 0 : index
    %c1 = arith.constant 1 : index
    %dim = tensor.dim %arg0, %c0 : tensor<?x?x5632xf16>
    %dim_0 = tensor.dim %arg0, %c1 : tensor<?x?x5632xf16>
    %0 = tensor.empty() : tensor<2048x176x32xf16>
    %1 = linalg.generic {indexing_maps = [#map, #map1, #map1], iterator_types = ["parallel", "parallel", "parallel"]} ins(%arg1, %arg2 : tensor<2048x176x1xf16>, tensor<2048x176x32xi8>) outs(%0 : tensor<2048x176x32xf16>) {
    ^bb0(%in: f16, %in_1: i8, %out: f16):
      %7 = arith.extsi %in_1 : i8 to i32
      %8 = arith.sitofp %7 : i32 to f16
      %9 = arith.mulf %8, %in : f16
      linalg.yield %9 : f16
    } -> tensor<2048x176x32xf16>
    %expanded = tensor.expand_shape %arg0 [[0], [1], [2, 3]] output_shape [%dim, %dim_0, 176, 32] : tensor<?x?x5632xf16> into tensor<?x?x176x32xf16>
    %2 = tensor.empty(%dim, %dim_0) : tensor<?x?x2048xf32>
    %3 = linalg.fill ins(%cst : f32) outs(%2 : tensor<?x?x2048xf32>) -> tensor<?x?x2048xf32>
    %4 = linalg.generic {indexing_maps = [#map2, #map3, #map4], iterator_types = ["parallel", "parallel", "parallel", "reduction", "reduction"]} ins(%expanded, %1 : tensor<?x?x176x32xf16>, tensor<2048x176x32xf16>) outs(%3 : tensor<?x?x2048xf32>) {
    ^bb0(%in: f16, %in_1: f16, %out: f32):
      %7 = arith.mulf %in, %in_1 : f16
      %8 = arith.extf %7 : f16 to f32
      %9 = arith.addf %8, %out : f32
      linalg.yield %9 : f32
    } -> tensor<?x?x2048xf32>
    %5 = tensor.empty(%dim, %dim_0) : tensor<?x?x2048xf16>
    %6 = linalg.copy ins(%4 : tensor<?x?x2048xf32>) outs(%5 : tensor<?x?x2048xf16>) -> tensor<?x?x2048xf16>
    util.return %6 : tensor<?x?x2048xf16>
  }
  util.func private @sharktank_mmt_block_scaled_q8_3d_32000_2048_32_f16(%arg0: tensor<?x?x2048xf16>, %arg1: tensor<32000x64x1xf16>, %arg2: tensor<32000x64x32xi8>) -> tensor<?x?x32000xf16> {
    %cst = arith.constant 0.000000e+00 : f32
    %c0 = arith.constant 0 : index
    %c1 = arith.constant 1 : index
    %dim = tensor.dim %arg0, %c0 : tensor<?x?x2048xf16>
    %dim_0 = tensor.dim %arg0, %c1 : tensor<?x?x2048xf16>
    %0 = tensor.empty() : tensor<32000x64x32xf16>
    %1 = linalg.generic {indexing_maps = [#map, #map1, #map1], iterator_types = ["parallel", "parallel", "parallel"]} ins(%arg1, %arg2 : tensor<32000x64x1xf16>, tensor<32000x64x32xi8>) outs(%0 : tensor<32000x64x32xf16>) {
    ^bb0(%in: f16, %in_1: i8, %out: f16):
      %7 = arith.extsi %in_1 : i8 to i32
      %8 = arith.sitofp %7 : i32 to f16
      %9 = arith.mulf %8, %in : f16
      linalg.yield %9 : f16
    } -> tensor<32000x64x32xf16>
    %expanded = tensor.expand_shape %arg0 [[0], [1], [2, 3]] output_shape [%dim, %dim_0, 64, 32] : tensor<?x?x2048xf16> into tensor<?x?x64x32xf16>
    %2 = tensor.empty(%dim, %dim_0) : tensor<?x?x32000xf32>
    %3 = linalg.fill ins(%cst : f32) outs(%2 : tensor<?x?x32000xf32>) -> tensor<?x?x32000xf32>
    %4 = linalg.generic {indexing_maps = [#map2, #map3, #map4], iterator_types = ["parallel", "parallel", "parallel", "reduction", "reduction"]} ins(%expanded, %1 : tensor<?x?x64x32xf16>, tensor<32000x64x32xf16>) outs(%3 : tensor<?x?x32000xf32>) {
    ^bb0(%in: f16, %in_1: f16, %out: f32):
      %7 = arith.mulf %in, %in_1 : f16
      %8 = arith.extf %7 : f16 to f32
      %9 = arith.addf %8, %out : f32
      linalg.yield %9 : f32
    } -> tensor<?x?x32000xf32>
    %5 = tensor.empty(%dim, %dim_0) : tensor<?x?x32000xf16>
    %6 = linalg.copy ins(%4 : tensor<?x?x32000xf32>) outs(%5 : tensor<?x?x32000xf16>) -> tensor<?x?x32000xf16>
    util.return %6 : tensor<?x?x32000xf16>
  }
  util.func private @paged_attention_kv_cache_gather_CACHE_SIZE_T_BLOCK_22_PART_2_HEAD_COUNT_KV_4_BLOCK_SEQ_STRIDE_32_ATTN_HEAD_DIM_64_f16_BATCH_PAGES_i64__i64__i64_BATCH_PAGES_HEAD_COUNT_KV_4_BLOCK_SEQ_STRIDE_32_ATTN_HEAD_DIM_64_f16(%arg0: tensor<?x22x2x4x32x64xf16>, %arg1: tensor<?x?xi64>, %arg2: tensor<i64>, %arg3: tensor<i64>) -> tensor<?x?x4x32x64xf16> {
    %c0 = arith.constant 0 : index
    %c1 = arith.constant 1 : index
    %extracted = tensor.extract %arg2[] : tensor<i64>
    %extracted_0 = tensor.extract %arg3[] : tensor<i64>
    %0 = arith.index_cast %extracted : i64 to index
    %1 = arith.index_cast %extracted_0 : i64 to index
    %dim = tensor.dim %arg0, %c0 : tensor<?x22x2x4x32x64xf16>
    %dim_1 = tensor.dim %arg1, %c0 : tensor<?x?xi64>
    %dim_2 = tensor.dim %arg1, %c1 : tensor<?x?xi64>
    %extracted_slice = tensor.extract_slice %arg0[0, %0, %1, 0, 0, 0] [%dim, 1, 1, 4, 32, 64] [1, 1, 1, 1, 1, 1] : tensor<?x22x2x4x32x64xf16> to tensor<?x4x32x64xf16>
    %2 = tensor.empty(%dim_1, %dim_2) : tensor<?x?x4x32x64xf16>
    %3 = iree_linalg_ext.gather dimension_map = [0] ins(%extracted_slice, %arg1 : tensor<?x4x32x64xf16>, tensor<?x?xi64>) outs(%2 : tensor<?x?x4x32x64xf16>) -> tensor<?x?x4x32x64xf16>
    util.return %3 : tensor<?x?x4x32x64xf16>
  }
}
