#executable_target_embedded_elf_x86_64 = #hal.executable.target<"llvm-cpu", "embedded-elf-x86_64", {cpu = "znver3", cpu_features = "+prfchw,-cldemote,+avx,+aes,+sahf,+pclmul,-xop,+crc32,-amx-fp8,+xsaves,-avx512fp16,-usermsr,-sm4,-egpr,+sse4.1,-avx512ifma,+xsave,+sse4.2,-tsxldtrk,-sm3,-ptwrite,-widekl,-movrs,+invpcid,+64bit,+xsavec,-avx10.1-512,-avx512vpopcntdq,+cmov,-avx512vp2intersect,-avx512cd,+movbe,-avxvnniint8,-ccmp,-amx-int8,-kl,-avx10.1-256,-sha512,-avxvnni,-rtm,+adx,+avx2,-hreset,-movdiri,-serialize,+vpclmulqdq,-avx512vl,-uintr,-cf,+clflushopt,-raoint,-cmpccxadd,+bmi,-amx-tile,+sse,-avx10.2-256,-gfni,-avxvnniint16,-amx-fp16,-zu,-ndd,+xsaveopt,+rdrnd,-avx512f,-amx-bf16,-avx512bf16,-avx512vnni,-push2pop2,+cx8,-avx512bw,+sse3,+pku,-nf,-amx-tf32,-amx-avx512,+fsgsbase,+clzero,+mwaitx,-lwp,+lzcnt,+sha,-movdir64b,-ppx,+wbnoinvd,-enqcmd,-amx-transpose,-avx10.2-512,-avxneconvert,-tbm,-pconfig,-amx-complex,+ssse3,+cx16,+bmi2,+fma,+popcnt,-avxifma,+f16c,-avx512bitalg,+rdpru,+clwb,+mmx,+sse2,+rdseed,-avx512vbmi2,-prefetchi,-amx-movrs,+rdpid,-fma4,-avx512vbmi,+shstk,+vaes,-waitpkg,-sgx,+fxsr,-avx512dq,+sse4a", data_layout = "e-m:e-p270:32:32-p271:32:32-p272:64:64-i64:64-i128:128-f80:128-n8:16:32:64-S128", iree.encoding.resolver = #iree_cpu.cpu_encoding_resolver<>, max_stack_allocation_size = 32768 : i64, native_vector_size = 32 : i64, target_triple = "x86_64-unknown-unknown-eabi-elf"}>
#map = affine_map<() -> ()>
#map1 = affine_map<(d0, d1, d2, d3, d4, d5) -> (d3, d1 * 4 + d4, d2 * 4 + d5)>
#map2 = affine_map<(d0, d1, d2, d3, d4, d5) -> (d0, d3, d4, d5)>
#map3 = affine_map<(d0, d1, d2, d3, d4, d5) -> (d0, d1, d2)>
#map4 = affine_map<(d0, d1, d2) -> (d0, d1, d2)>
#map5 = affine_map<(d0, d1, d2) -> (d0)>
#map6 = affine_map<(d0, d1, d2, d3, d4) -> (d0, d1 * 2 + d3, d2 * 2 + d4)>
#map7 = affine_map<(d0, d1, d2, d3, d4) -> (d3, d4)>
#map8 = affine_map<(d0, d1, d2, d3, d4) -> (d0, d1, d2)>
#map9 = affine_map<(d0, d1) -> (d0, d1)>
#map10 = affine_map<(d0) -> (d0)>
#map11 = affine_map<(d0, d1) -> (d1)>
#map12 = affine_map<(d0, d1) -> (d0)>
#device_target_local = #hal.device.target<"local", [#executable_target_embedded_elf_x86_64]> : !hal.device
module attributes {stream.affinity.default = #hal.device.affinity<@__device_0>} {
  util.global private @__device_0 = #device_target_local
  util.func public @main_graph$async(%arg0: !hal.buffer_view, %arg1: !hal.buffer_view, %arg2: !hal.buffer_view, %arg3: !hal.buffer_view, %arg4: !hal.fence, %arg5: !hal.fence) -> (!hal.buffer_view, !hal.buffer_view) attributes {inlining_policy = #util.inline.never, iree.abi.model = "coarse-fences", iree.abi.stub} {
    %c10 = arith.constant 10 : index
    %c2 = arith.constant 2 : index
    %c1 = arith.constant 1 : index
    %c0 = arith.constant 0 : index
    %cst = arith.constant 0.000000e+00 : f32
    %cst_0 = arith.constant dense<"…"> : tensor<4x3x4x4xf32>
    %cst_1 = arith.constant dense<"…"> : tensor<1x256x8x1xf32>
    %0 = hal.tensor.import wait(%arg4) => %arg0 : !hal.buffer_view -> tensor<1x3x64x64xf32>
    %1 = hal.tensor.import wait(%arg4) => %arg1 : !hal.buffer_view -> tensor<3xf32>
    %2 = hal.tensor.import wait(%arg4) => %arg2 : !hal.buffer_view -> tensor<2xf32>
    %3 = hal.tensor.import wait(%arg4) => %arg3 : !hal.buffer_view -> tensor<2xf32>
    %4:3 = flow.dispatch.workgroups(%3, %1) : (tensor<2xf32>, tensor<3xf32>) -> (tensor<f32>, tensor<f32>, tensor<f32>) =
        (%arg6: !iree_tensor_ext.dispatch.tensor<readonly:tensor<2xf32>>, %arg7: !iree_tensor_ext.dispatch.tensor<readonly:tensor<3xf32>>, %arg8: !iree_tensor_ext.dispatch.tensor<writeonly:tensor<f32>>, %arg9: !iree_tensor_ext.dispatch.tensor<writeonly:tensor<f32>>, %arg10: !iree_tensor_ext.dispatch.tensor<writeonly:tensor<f32>>) {
      %cst_2 = arith.constant 9.99999974E-5 : f32
      %cst_3 = arith.constant 2.000000e+00 : f32
      %cst_4 = arith.constant 5.000000e-01 : f32
      %c0_5 = arith.constant 0 : index
      %c1_6 = arith.constant 1 : index
      %c2_7 = arith.constant 2 : index
      %397 = iree_tensor_ext.dispatch.tensor.load %arg6, offsets = [0], sizes = [2], strides = [1] : !iree_tensor_ext.dispatch.tensor<readonly:tensor<2xf32>> -> tensor<2xf32>
      %398 = iree_tensor_ext.dispatch.tensor.load %arg7, offsets = [0], sizes = [3], strides = [1] : !iree_tensor_ext.dispatch.tensor<readonly:tensor<3xf32>> -> tensor<3xf32>
      %399 = tensor.empty() : tensor<f32>
      %400 = linalg.generic {indexing_maps = [#map], iterator_types = []} outs(%399 : tensor<f32>) {
      ^bb0(%out: f32):
        %extracted = tensor.extract %397[%c0_5] : tensor<2xf32>
        %403 = arith.mulf %extracted, %cst_2 : f32
        %extracted_8 = tensor.extract %397[%c1_6] : tensor<2xf32>
        %404 = arith.mulf %extracted_8, %cst_2 : f32
        %405 = arith.addf %403, %404 : f32
        %406 = arith.divf %405, %cst_3 : f32
        %407 = arith.subf %404, %403 : f32
        %408 = arith.divf %407, %cst_4 : f32
        %extracted_9 = tensor.extract %398[%c2_7] : tensor<3xf32>
        %409 = arith.divf %408, %cst_3 : f32
        %410 = arith.addf %extracted_9, %409 : f32
        %411 = math.sin %410 : f32
        %412 = arith.mulf %406, %411 : f32
        %extracted_10 = tensor.extract %398[%c1_6] : tensor<3xf32>
        %413 = arith.addf %extracted_10, %412 : f32
        linalg.yield %413 : f32
      } -> tensor<f32>
      %401 = linalg.generic {indexing_maps = [#map], iterator_types = []} outs(%399 : tensor<f32>) {
      ^bb0(%out: f32):
        %extracted = tensor.extract %397[%c0_5] : tensor<2xf32>
        %403 = arith.mulf %extracted, %cst_2 : f32
        %extracted_8 = tensor.extract %397[%c1_6] : tensor<2xf32>
        %404 = arith.mulf %extracted_8, %cst_2 : f32
        %405 = arith.addf %403, %404 : f32
        %406 = arith.divf %405, %cst_3 : f32
        %407 = arith.subf %404, %403 : f32
        %408 = arith.divf %407, %cst_4 : f32
        %extracted_9 = tensor.extract %398[%c2_7] : tensor<3xf32>
        %409 = arith.divf %408, %cst_3 : f32
        %410 = arith.addf %extracted_9, %409 : f32
        %411 = math.cos %410 : f32
        %412 = arith.mulf %406, %411 : f32
        %extracted_10 = tensor.extract %398[%c0_5] : tensor<3xf32>
        %413 = arith.addf %extracted_10, %412 : f32
        linalg.yield %413 : f32
      } -> tensor<f32>
      %402 = linalg.generic {indexing_maps = [#map], iterator_types = []} outs(%399 : tensor<f32>) {
      ^bb0(%out: f32):
        %extracted = tensor.extract %397[%c0_5] : tensor<2xf32>
        %403 = arith.mulf %extracted, %cst_2 : f32
        %extracted_8 = tensor.extract %397[%c1_6] : tensor<2xf32>
        %404 = arith.mulf %extracted_8, %cst_2 : f32
        %405 = arith.subf %404, %403 : f32
        %406 = arith.divf %405, %cst_4 : f32
        %extracted_9 = tensor.extract %398[%c2_7] : tensor<3xf32>
        %407 = arith.addf %extracted_9, %406 : f32
        linalg.yield %407 : f32
      } -> tensor<f32>
      iree_tensor_ext.dispatch.tensor.store %402, %arg8, offsets = [], sizes = [], strides = [] : tensor<f32> -> !iree_tensor_ext.dispatch.tensor<writeonly:tensor<f32>>
      iree_tensor_ext.dispatch.tensor.store %401, %arg9, offsets = [], sizes = [], strides = [] : tensor<f32> -> !iree_tensor_ext.dispatch.tensor<writeonly:tensor<f32>>
      iree_tensor_ext.dispatch.tensor.store %400, %arg10, offsets = [], sizes = [], strides = [] : tensor<f32> -> !iree_tensor_ext.dispatch.tensor<writeonly:tensor<f32>>
      flow.return
    } count() -> (index, index, index) {
      %c1_2 = arith.constant 1 : index
      flow.return %c1_2, %c1_2, %c1_2 : index, index, index
    }
    %5 = flow.tensor.reshape %4#1 : tensor<f32> -> tensor<1xf32>
    %6 = flow.tensor.reshape %4#2 : tensor<f32> -> tensor<1xf32>
    %7 = flow.tensor.reshape %4#0 : tensor<f32> -> tensor<1xf32>
    %8 = tensor.empty() : tensor<3xf32>
    %9 = flow.tensor.update %5, %8[%c0] : tensor<1xf32> -> %8 as tensor<3xf32>
    %10 = flow.tensor.update %6, %9[%c1] : tensor<1xf32> -> %9 as tensor<3xf32>
    %11 = flow.tensor.update %7, %10[%c2] : tensor<1xf32> -> %10 as tensor<3xf32>
    %12 = flow.tensor.reshape %0 : tensor<1x3x64x64xf32> -> tensor<3x64x64xf32>
    %13 = flow.tensor.splat %cst : tensor<3x66x66xf32>
    %14 = flow.dispatch.workgroups(%12, %13) : (tensor<3x64x64xf32>, tensor<3x66x66xf32>) -> %13 =
        (%arg6: !iree_tensor_ext.dispatch.tensor<readonly:tensor<3x64x64xf32>>, %arg7: !iree_tensor_ext.dispatch.tensor<readwrite:tensor<3x66x66xf32>>) {
      %397 = iree_tensor_ext.dispatch.tensor.load %arg6, offsets = [0, 0, 0], sizes = [3, 64, 64], strides = [1, 1, 1] : !iree_tensor_ext.dispatch.tensor<readonly:tensor<3x64x64xf32>> -> tensor<3x64x64xf32>
      iree_tensor_ext.dispatch.tensor.store %397, %arg7, offsets = [0, 1, 1], sizes = [3, 64, 64], strides = [1, 1, 1] : tensor<3x64x64xf32> -> !iree_tensor_ext.dispatch.tensor<readwrite:tensor<3x66x66xf32>>
      flow.return
    } count() -> (index, index, index) {
      %x, %y, %z = iree_tensor_ext.dispatch.workgroup_count_from_slice()
      flow.return %x, %y, %z : index, index, index
    }
    %15 = flow.dispatch.workgroups(%14, %cst_0) : (tensor<3x66x66xf32>, tensor<4x3x4x4xf32>) -> tensor<4x16x16xf32> =
        (%arg6: !iree_tensor_ext.dispatch.tensor<readonly:tensor<3x66x66xf32>>, %arg7: !iree_tensor_ext.dispatch.tensor<readonly:tensor<4x3x4x4xf32>>, %arg8: !iree_tensor_ext.dispatch.tensor<writeonly:tensor<4x16x16xf32>>) {
      %cst_2 = arith.constant 0.000000e+00 : f32
      %cst_3 = arith.constant dense<[-0.0291617829, 0.0185516253, -0.0336317755, 0.0323117375]> : tensor<4xf32>
      %397 = iree_tensor_ext.dispatch.tensor.load %arg6, offsets = [0, 0, 0], sizes = [3, 66, 66], strides = [1, 1, 1] : !iree_tensor_ext.dispatch.tensor<readonly:tensor<3x66x66xf32>> -> tensor<3x66x66xf32>
      %398 = iree_tensor_ext.dispatch.tensor.load %arg7, offsets = [0, 0, 0, 0], sizes = [4, 3, 4, 4], strides = [1, 1, 1, 1] : !iree_tensor_ext.dispatch.tensor<readonly:tensor<4x3x4x4xf32>> -> tensor<4x3x4x4xf32>
      %399 = tensor.empty() : tensor<4x16x16xf32>
      %400 = linalg.fill ins(%cst_2 : f32) outs(%399 : tensor<4x16x16xf32>) -> tensor<4x16x16xf32>
      %401 = linalg.generic {indexing_maps = [#map1, #map2, #map3], iterator_types = ["parallel", "parallel", "parallel", "reduction", "reduction", "reduction"]} ins(%397, %398 : tensor<3x66x66xf32>, tensor<4x3x4x4xf32>) outs(%400 : tensor<4x16x16xf32>) {
      ^bb0(%in: f32, %in_4: f32, %out: f32):
        %403 = arith.mulf %in, %in_4 : f32
        %404 = arith.addf %out, %403 : f32
        linalg.yield %404 : f32
      } -> tensor<4x16x16xf32>
      %402 = linalg.generic {indexing_maps = [#map4, #map5, #map4], iterator_types = ["parallel", "parallel", "parallel"]} ins(%401, %cst_3 : tensor<4x16x16xf32>, tensor<4xf32>) outs(%399 : tensor<4x16x16xf32>) {
      ^bb0(%in: f32, %in_4: f32, %out: f32):
        %403 = arith.addf %in, %in_4 : f32
        %404 = arith.cmpf ugt, %403, %cst_2 : f32
        %405 = arith.select %404, %403, %cst_2 : f32
        linalg.yield %405 : f32
      } -> tensor<4x16x16xf32>
      iree_tensor_ext.dispatch.tensor.store %402, %arg8, offsets = [0, 0, 0], sizes = [4, 16, 16], strides = [1, 1, 1] : tensor<4x16x16xf32> -> !iree_tensor_ext.dispatch.tensor<writeonly:tensor<4x16x16xf32>>
      flow.return
    } count() -> (index, index, index) {
      %x, %y, %z = iree_tensor_ext.dispatch.workgroup_count_from_slice()
      flow.return %x, %y, %z : index, index, index
    }
    %16 = flow.dispatch.workgroups(%15) : (tensor<4x16x16xf32>) -> tensor<4x8x8xf32> =
        (%arg6: !iree_tensor_ext.dispatch.tensor<readonly:tensor<4x16x16xf32>>, %arg7: !iree_tensor_ext.dispatch.tensor<writeonly:tensor<4x8x8xf32>>) {
      %cst_2 = arith.constant 0xFF800000 : f32
      %397 = iree_tensor_ext.dispatch.tensor.load %arg6, offsets = [0, 0, 0], sizes = [4, 16, 16], strides = [1, 1, 1] : !iree_tensor_ext.dispatch.tensor<readonly:tensor<4x16x16xf32>> -> tensor<4x16x16xf32>
      %398 = tensor.empty() : tensor<4x8x8xf32>
      %399 = tensor.empty() : tensor<2x2xf32>
      %400 = linalg.fill ins(%cst_2 : f32) outs(%398 : tensor<4x8x8xf32>) -> tensor<4x8x8xf32>
      %401 = linalg.generic {indexing_maps = [#map6, #map7, #map8], iterator_types = ["parallel", "parallel", "parallel", "reduction", "reduction"]} ins(%397, %399 : tensor<4x16x16xf32>, tensor<2x2xf32>) outs(%400 : tensor<4x8x8xf32>) {
      ^bb0(%in: f32, %in_3: f32, %out: f32):
        %402 = arith.maximumf %out, %in : f32
        linalg.yield %402 : f32
      } -> tensor<4x8x8xf32>
      iree_tensor_ext.dispatch.tensor.store %401, %arg7, offsets = [0, 0, 0], sizes = [4, 8, 8], strides = [1, 1, 1] : tensor<4x8x8xf32> -> !iree_tensor_ext.dispatch.tensor<writeonly:tensor<4x8x8xf32>>
      flow.return
    } count() -> (index, index, index) {
      %x, %y, %z = iree_tensor_ext.dispatch.workgroup_count_from_slice()
      flow.return %x, %y, %z : index, index, index
    }
    %17 = flow.tensor.reshape %16 : tensor<4x8x8xf32> -> tensor<1x256x1x1xf32>
    %18 = flow.dispatch.workgroups(%17, %cst_1) : (tensor<1x256x1x1xf32>, tensor<1x256x8x1xf32>) -> tensor<1x1x1x8xf32> =
        (%arg6: !iree_tensor_ext.dispatch.tensor<readonly:tensor<1x256x1x1xf32>>, %arg7: !iree_tensor_ext.dispatch.tensor<readonly:tensor<1x256x8x1xf32>>, %arg8: !iree_tensor_ext.dispatch.tensor<writeonly:tensor<1x1x1x8xf32>>) {
      %cst_2 = arith.constant 0.000000e+00 : f32
      %397 = iree_tensor_ext.dispatch.tensor.load %arg6, offsets = [0, 0, 0, 0], sizes = [1, 256, 1, 1], strides = [1, 1, 1, 1] : !iree_tensor_ext.dispatch.tensor<readonly:tensor<1x256x1x1xf32>> -> tensor<1x256x1x1xf32>
      %398 = iree_tensor_ext.dispatch.tensor.load %arg7, offsets = [0, 0, 0, 0], sizes = [1, 256, 8, 1], strides = [1, 1, 1, 1] : !iree_tensor_ext.dispatch.tensor<readonly:tensor<1x256x8x1xf32>> -> tensor<1x256x8x1xf32>
      %399 = tensor.empty() : tensor<1x1x1x8xf32>
      %400 = linalg.fill ins(%cst_2 : f32) outs(%399 : tensor<1x1x1x8xf32>) -> tensor<1x1x1x8xf32>
      %401 = linalg.mmt4d ins(%397, %398 : tensor<1x256x1x1xf32>, tensor<1x256x8x1xf32>) outs(%400 : tensor<1x1x1x8xf32>) -> tensor<1x1x1x8xf32>
      iree_tensor_ext.dispatch.tensor.store %401, %arg8, offsets = [0, 0, 0, 0], sizes = [1, 1, 1, 8], strides = [1, 1, 1, 1] : tensor<1x1x1x8xf32> -> !iree_tensor_ext.dispatch.tensor<writeonly:tensor<1x1x1x8xf32>>
      flow.return
    } count() -> (index, index, index) {
      %x, %y, %z = iree_tensor_ext.dispatch.workgroup_count_from_slice()
      flow.return %x, %y, %z : index, index, index
    }
    %19:3 = flow.dispatch.workgroups(%2) : (tensor<2xf32>) -> (tensor<f32>, tensor<f32>, tensor<f32>) =
        (%arg6: !iree_tensor_ext.dispatch.tensor<readonly:tensor<2xf32>>, %arg7: !iree_tensor_ext.dispatch.tensor<writeonly:tensor<f32>>, %arg8: !iree_tensor_ext.dispatch.tensor<writeonly:tensor<f32>>, %arg9: !iree_tensor_ext.dispatch.tensor<writeonly:tensor<f32>>) {
      %c0_2 = arith.constant 0 : index
      %c1_3 = arith.constant 1 : index
      %397 = iree_tensor_ext.dispatch.tensor.load %arg6, offsets = [0], sizes = [2], strides = [1] : !iree_tensor_ext.dispatch.tensor<readonly:tensor<2xf32>> -> tensor<2xf32>
      %398 = tensor.empty() : tensor<f32>
      %399 = linalg.generic {indexing_maps = [#map], iterator_types = []} outs(%398 : tensor<f32>) {
      ^bb0(%out: f32):
        %extracted = tensor.extract %397[%c0_2] : tensor<2xf32>
        %extracted_4 = tensor.extract %397[%c1_3] : tensor<2xf32>
        %402 = arith.addf %extracted, %extracted_4 : f32
        %403 = math.cos %402 : f32
        %404 = math.cos %extracted : f32
        %405 = arith.addf %404, %403 : f32
        linalg.yield %405 : f32
      } -> tensor<f32>
      %400 = linalg.generic {indexing_maps = [#map], iterator_types = []} outs(%398 : tensor<f32>) {
      ^bb0(%out: f32):
        %extracted = tensor.extract %397[%c0_2] : tensor<2xf32>
        %extracted_4 = tensor.extract %397[%c1_3] : tensor<2xf32>
        %402 = arith.addf %extracted, %extracted_4 : f32
        %403 = math.cos %402 : f32
        linalg.yield %403 : f32
      } -> tensor<f32>
      %401 = linalg.generic {indexing_maps = [#map], iterator_types = []} outs(%398 : tensor<f32>) {
      ^bb0(%out: f32):
        %extracted = tensor.extract %397[%c0_2] : tensor<2xf32>
        %extracted_4 = tensor.extract %397[%c1_3] : tensor<2xf32>
        %402 = arith.addf %extracted, %extracted_4 : f32
        %403 = math.sin %402 : f32
        %404 = math.sin %extracted : f32
        %405 = arith.addf %404, %403 : f32
        linalg.yield %405 : f32
      } -> tensor<f32>
      iree_tensor_ext.dispatch.tensor.store %401, %arg7, offsets = [], sizes = [], strides = [] : tensor<f32> -> !iree_tensor_ext.dispatch.tensor<writeonly:tensor<f32>>
      iree_tensor_ext.dispatch.tensor.store %400, %arg8, offsets = [], sizes = [], strides = [] : tensor<f32> -> !iree_tensor_ext.dispatch.tensor<writeonly:tensor<f32>>
      iree_tensor_ext.dispatch.tensor.store %399, %arg9, offsets = [], sizes = [], strides = [] : tensor<f32> -> !iree_tensor_ext.dispatch.tensor<writeonly:tensor<f32>>
      flow.return
    } count() -> (index, index, index) {
      %c1_2 = arith.constant 1 : index
      flow.return %c1_2, %c1_2, %c1_2 : index, index, index
    }
    %20 = flow.tensor.reshape %19#2 : tensor<f32> -> tensor<1xf32>
    %21 = flow.tensor.reshape %19#0 : tensor<f32> -> tensor<1xf32>
    %22 = tensor.empty() : tensor<2xf32>
    %23 = flow.tensor.update %20, %22[%c0] : tensor<1xf32> -> %22 as tensor<2xf32>
    %24 = flow.tensor.update %21, %23[%c1] : tensor<1xf32> -> %23 as tensor<2xf32>
    %25 = flow.tensor.reshape %24 : tensor<2xf32> -> tensor<1x2xf32>
    %26:2 = flow.dispatch.workgroups(%18, %25) : (tensor<1x1x1x8xf32>, tensor<1x2xf32>) -> (tensor<1x2xf32>, tensor<1x2xf32>) =
        (%arg6: !iree_tensor_ext.dispatch.tensor<readonly:tensor<1x1x1x8xf32>>, %arg7: !iree_tensor_ext.dispatch.tensor<readonly:tensor<1x2xf32>>, %arg8: !iree_tensor_ext.dispatch.tensor<writeonly:tensor<1x2xf32>>, %arg9: !iree_tensor_ext.dispatch.tensor<writeonly:tensor<1x2xf32>>) {
      %cst_2 = arith.constant dense<[[-0.0322122052, -0.0469594523]]> : tensor<1x2xf32>
      %397 = iree_tensor_ext.dispatch.tensor.load %arg6, offsets = [0, 0, 0, 0], sizes = [1, 1, 1, 8], strides = [1, 1, 1, 1] : !iree_tensor_ext.dispatch.tensor<readonly:tensor<1x1x1x8xf32>> -> tensor<1x1x1x8xf32>
      %398 = iree_tensor_ext.dispatch.tensor.load %arg7, offsets = [0, 0], sizes = [1, 2], strides = [1, 1] : !iree_tensor_ext.dispatch.tensor<readonly:tensor<1x2xf32>> -> tensor<1x2xf32>
      %399 = tensor.empty() : tensor<1x2xf32>
      %unpack = linalg.unpack %397 outer_dims_perm = [0, 1] inner_dims_pos = [0, 1] inner_tiles = [1, 8] into %399 : tensor<1x1x1x8xf32> -> tensor<1x2xf32>
      %400:2 = linalg.generic {indexing_maps = [#map9, #map9, #map9, #map9, #map9], iterator_types = ["parallel", "parallel"]} ins(%unpack, %cst_2, %398 : tensor<1x2xf32>, tensor<1x2xf32>, tensor<1x2xf32>) outs(%399, %399 : tensor<1x2xf32>, tensor<1x2xf32>) {
      ^bb0(%in: f32, %in_3: f32, %in_4: f32, %out: f32, %out_5: f32):
        %401 = arith.addf %in, %in_3 : f32
        %402 = arith.subf %401, %in_4 : f32
        linalg.yield %401, %402 : f32, f32
      } -> (tensor<1x2xf32>, tensor<1x2xf32>)
      iree_tensor_ext.dispatch.tensor.store %400#0, %arg8, offsets = [0, 0], sizes = [1, 2], strides = [1, 1] : tensor<1x2xf32> -> !iree_tensor_ext.dispatch.tensor<writeonly:tensor<1x2xf32>>
      iree_tensor_ext.dispatch.tensor.store %400#1, %arg9, offsets = [0, 0], sizes = [1, 2], strides = [1, 1] : tensor<1x2xf32> -> !iree_tensor_ext.dispatch.tensor<writeonly:tensor<1x2xf32>>
      flow.return
    } count() -> (index, index, index) {
      %x, %y, %z = iree_tensor_ext.dispatch.workgroup_count_from_slice()
      flow.return %x, %y, %z : index, index, index
    }
    %27 = flow.tensor.reshape %26#1 : tensor<1x2xf32> -> tensor<1x2x1x1xf32>
    %28:2 = flow.dispatch.workgroups(%2) : (tensor<2xf32>) -> (tensor<f32>, tensor<f32>) =
        (%arg6: !iree_tensor_ext.dispatch.tensor<readonly:tensor<2xf32>>, %arg7: !iree_tensor_ext.dispatch.tensor<writeonly:tensor<f32>>, %arg8: !iree_tensor_ext.dispatch.tensor<writeonly:tensor<f32>>) {
      %cst_2 = arith.constant -1.000000e+00 : f32
      %c0_3 = arith.constant 0 : index
      %c1_4 = arith.constant 1 : index
      %397 = iree_tensor_ext.dispatch.tensor.load %arg6, offsets = [0], sizes = [2], strides = [1] : !iree_tensor_ext.dispatch.tensor<readonly:tensor<2xf32>> -> tensor<2xf32>
      %398 = tensor.empty() : tensor<f32>
      %399 = linalg.generic {indexing_maps = [#map], iterator_types = []} outs(%398 : tensor<f32>) {
      ^bb0(%out: f32):
        %extracted = tensor.extract %397[%c0_3] : tensor<2xf32>
        %extracted_5 = tensor.extract %397[%c1_4] : tensor<2xf32>
        %401 = arith.addf %extracted, %extracted_5 : f32
        %402 = math.sin %401 : f32
        %403 = math.sin %extracted : f32
        %404 = arith.mulf %403, %cst_2 : f32
        %405 = arith.subf %404, %402 : f32
        linalg.yield %405 : f32
      } -> tensor<f32>
      %400 = linalg.generic {indexing_maps = [#map], iterator_types = []} outs(%398 : tensor<f32>) {
      ^bb0(%out: f32):
        %extracted = tensor.extract %397[%c0_3] : tensor<2xf32>
        %extracted_5 = tensor.extract %397[%c1_4] : tensor<2xf32>
        %401 = arith.addf %extracted, %extracted_5 : f32
        %402 = math.sin %401 : f32
        %403 = arith.mulf %402, %cst_2 : f32
        linalg.yield %403 : f32
      } -> tensor<f32>
      iree_tensor_ext.dispatch.tensor.store %400, %arg7, offsets = [], sizes = [], strides = [] : tensor<f32> -> !iree_tensor_ext.dispatch.tensor<writeonly:tensor<f32>>
      iree_tensor_ext.dispatch.tensor.store %399, %arg8, offsets = [], sizes = [], strides = [] : tensor<f32> -> !iree_tensor_ext.dispatch.tensor<writeonly:tensor<f32>>
      flow.return
    } count() -> (index, index, index) {
      %c1_2 = arith.constant 1 : index
      flow.return %c1_2, %c1_2, %c1_2 : index, index, index
    }
    %29 = flow.tensor.reshape %28#1 : tensor<f32> -> tensor<1xf32>
    %30 = flow.tensor.reshape %28#0 : tensor<f32> -> tensor<1xf32>
    %31 = flow.tensor.update %29, %22[%c0] : tensor<1xf32> -> %22 as tensor<2xf32>
    %32 = flow.tensor.update %30, %31[%c1] : tensor<1xf32> -> %31 as tensor<2xf32>
    %33 = flow.tensor.reshape %19#1 : tensor<f32> -> tensor<1xf32>
    %34 = flow.tensor.update %33, %23[%c1] : tensor<1xf32> -> %23 as tensor<2xf32>
    %35 = flow.tensor.reshape %32 : tensor<2xf32> -> tensor<1x2xf32>
    %36 = flow.tensor.reshape %34 : tensor<2xf32> -> tensor<1x2xf32>
    %37 = tensor.empty() : tensor<2x2xf32>
    %38 = flow.tensor.update %35, %37[%c0, %c0] : tensor<1x2xf32> -> %37 as tensor<2x2xf32>
    %39 = flow.tensor.update %36, %38[%c1, %c0] : tensor<1x2xf32> -> %38 as tensor<2x2xf32>
    %40 = flow.dispatch.workgroups(%39) : (tensor<2x2xf32>) -> tensor<2xf32> =
        (%arg6: !iree_tensor_ext.dispatch.tensor<readonly:tensor<2x2xf32>>, %arg7: !iree_tensor_ext.dispatch.tensor<writeonly:tensor<2xf32>>) {
      %c0_2 = arith.constant 0 : index
      %397 = iree_tensor_ext.dispatch.tensor.load %arg6, offsets = [0, 0], sizes = [2, 2], strides = [1, 1] : !iree_tensor_ext.dispatch.tensor<readonly:tensor<2x2xf32>> -> tensor<2x2xf32>
      %398 = tensor.empty() : tensor<2xf32>
      %399 = linalg.generic {indexing_maps = [#map10], iterator_types = ["parallel"]} outs(%398 : tensor<2xf32>) {
      ^bb0(%out: f32):
        %400 = linalg.index 0 : index
        %extracted = tensor.extract %397[%c0_2, %400] : tensor<2x2xf32>
        linalg.yield %extracted : f32
      } -> tensor<2xf32>
      iree_tensor_ext.dispatch.tensor.store %399, %arg7, offsets = [0], sizes = [2], strides = [1] : tensor<2xf32> -> !iree_tensor_ext.dispatch.tensor<writeonly:tensor<2xf32>>
      flow.return
    } count() -> (index, index, index) {
      %x, %y, %z = iree_tensor_ext.dispatch.workgroup_count_from_slice()
      flow.return %x, %y, %z : index, index, index
    }
    %41 = flow.dispatch.workgroups(%40) : (tensor<2xf32>) -> tensor<f32> =
        (%arg6: !iree_tensor_ext.dispatch.tensor<readonly:tensor<2xf32>>, %arg7: !iree_tensor_ext.dispatch.tensor<writeonly:tensor<f32>>) {
      %c0_2 = arith.constant 0 : index
      %397 = iree_tensor_ext.dispatch.tensor.load %arg6, offsets = [0], sizes = [2], strides = [1] : !iree_tensor_ext.dispatch.tensor<readonly:tensor<2xf32>> -> tensor<2xf32>
      %398 = tensor.empty() : tensor<f32>
      %399 = linalg.generic {indexing_maps = [#map], iterator_types = []} outs(%398 : tensor<f32>) {
      ^bb0(%out: f32):
        %extracted = tensor.extract %397[%c0_2] : tensor<2xf32>
        linalg.yield %extracted : f32
      } -> tensor<f32>
      iree_tensor_ext.dispatch.tensor.store %399, %arg7, offsets = [], sizes = [], strides = [] : tensor<f32> -> !iree_tensor_ext.dispatch.tensor<writeonly:tensor<f32>>
      flow.return
    } count() -> (index, index, index) {
      %c1_2 = arith.constant 1 : index
      flow.return %c1_2, %c1_2, %c1_2 : index, index, index
    }
    %42 = flow.tensor.reshape %41 : tensor<f32> -> tensor<1xf32>
    %43 = flow.dispatch.workgroups(%39) : (tensor<2x2xf32>) -> tensor<2xf32> =
        (%arg6: !iree_tensor_ext.dispatch.tensor<readonly:tensor<2x2xf32>>, %arg7: !iree_tensor_ext.dispatch.tensor<writeonly:tensor<2xf32>>) {
      %c1_2 = arith.constant 1 : index
      %397 = iree_tensor_ext.dispatch.tensor.load %arg6, offsets = [0, 0], sizes = [2, 2], strides = [1, 1] : !iree_tensor_ext.dispatch.tensor<readonly:tensor<2x2xf32>> -> tensor<2x2xf32>
      %398 = tensor.empty() : tensor<2xf32>
      %399 = linalg.generic {indexing_maps = [#map10], iterator_types = ["parallel"]} outs(%398 : tensor<2xf32>) {
      ^bb0(%out: f32):
        %400 = linalg.index 0 : index
        %extracted = tensor.extract %397[%c1_2, %400] : tensor<2x2xf32>
        linalg.yield %extracted : f32
      } -> tensor<2xf32>
      iree_tensor_ext.dispatch.tensor.store %399, %arg7, offsets = [0], sizes = [2], strides = [1] : tensor<2xf32> -> !iree_tensor_ext.dispatch.tensor<writeonly:tensor<2xf32>>
      flow.return
    } count() -> (index, index, index) {
      %x, %y, %z = iree_tensor_ext.dispatch.workgroup_count_from_slice()
      flow.return %x, %y, %z : index, index, index
    }
    %44 = flow.dispatch.workgroups(%43) : (tensor<2xf32>) -> tensor<f32> =
        (%arg6: !iree_tensor_ext.dispatch.tensor<readonly:tensor<2xf32>>, %arg7: !iree_tensor_ext.dispatch.tensor<writeonly:tensor<f32>>) {
      %c1_2 = arith.constant 1 : index
      %397 = iree_tensor_ext.dispatch.tensor.load %arg6, offsets = [0], sizes = [2], strides = [1] : !iree_tensor_ext.dispatch.tensor<readonly:tensor<2xf32>> -> tensor<2xf32>
      %398 = tensor.empty() : tensor<f32>
      %399 = linalg.generic {indexing_maps = [#map], iterator_types = []} outs(%398 : tensor<f32>) {
      ^bb0(%out: f32):
        %extracted = tensor.extract %397[%c1_2] : tensor<2xf32>
        linalg.yield %extracted : f32
      } -> tensor<f32>
      iree_tensor_ext.dispatch.tensor.store %399, %arg7, offsets = [], sizes = [], strides = [] : tensor<f32> -> !iree_tensor_ext.dispatch.tensor<writeonly:tensor<f32>>
      flow.return
    } count() -> (index, index, index) {
      %c1_2 = arith.constant 1 : index
      flow.return %c1_2, %c1_2, %c1_2 : index, index, index
    }
    %45 = flow.tensor.reshape %44 : tensor<f32> -> tensor<1xf32>
    %46 = flow.dispatch.workgroups(%40, %43) : (tensor<2xf32>, tensor<2xf32>) -> tensor<f32> =
        (%arg6: !iree_tensor_ext.dispatch.tensor<readonly:tensor<2xf32>>, %arg7: !iree_tensor_ext.dispatch.tensor<readonly:tensor<2xf32>>, %arg8: !iree_tensor_ext.dispatch.tensor<writeonly:tensor<f32>>) {
      %cst_2 = arith.constant 9.99999997E-7 : f32
      %cst_3 = arith.constant 0.000000e+00 : f32
      %c0_4 = arith.constant 0 : index
      %c1_5 = arith.constant 1 : index
      %397 = iree_tensor_ext.dispatch.tensor.load %arg6, offsets = [0], sizes = [2], strides = [1] : !iree_tensor_ext.dispatch.tensor<readonly:tensor<2xf32>> -> tensor<2xf32>
      %398 = iree_tensor_ext.dispatch.tensor.load %arg7, offsets = [0], sizes = [2], strides = [1] : !iree_tensor_ext.dispatch.tensor<readonly:tensor<2xf32>> -> tensor<2xf32>
      %399 = tensor.empty() : tensor<f32>
      linalg.generic {indexing_maps = [], iterator_types = []} {
        %extracted = tensor.extract %397[%c0_4] : tensor<2xf32>
        %extracted_6 = tensor.extract %398[%c1_5] : tensor<2xf32>
        %extracted_7 = tensor.extract %397[%c1_5] : tensor<2xf32>
        %extracted_8 = tensor.extract %398[%c0_4] : tensor<2xf32>
        %401 = arith.mulf %extracted_7, %extracted_8 : f32
        %402 = arith.mulf %extracted, %extracted_6 : f32
        %403 = arith.subf %402, %401 : f32
        %404 = arith.addf %403, %cst_2 : f32
        %405 = arith.cmpf one, %404, %cst_3 : f32
        cf.assert %405, "unimplemented: tensor with zero element"
        linalg.yield
      }
      %400 = linalg.generic {indexing_maps = [#map], iterator_types = []} outs(%399 : tensor<f32>) {
      ^bb0(%out: f32):
        %extracted = tensor.extract %397[%c1_5] : tensor<2xf32>
        %401 = arith.negf %extracted : f32
        linalg.yield %401 : f32
      } -> tensor<f32>
      iree_tensor_ext.dispatch.tensor.store %400, %arg8, offsets = [], sizes = [], strides = [] : tensor<f32> -> !iree_tensor_ext.dispatch.tensor<writeonly:tensor<f32>>
      flow.return
    } count() -> (index, index, index) {
      %c1_2 = arith.constant 1 : index
      flow.return %c1_2, %c1_2, %c1_2 : index, index, index
    }
    %47 = flow.tensor.reshape %46 : tensor<f32> -> tensor<1xf32>
    %48 = flow.tensor.update %45, %22[%c0] : tensor<1xf32> -> %22 as tensor<2xf32>
    %49 = flow.tensor.update %47, %48[%c1] : tensor<1xf32> -> %48 as tensor<2xf32>
    %50 = flow.dispatch.workgroups(%43) : (tensor<2xf32>) -> tensor<f32> =
        (%arg6: !iree_tensor_ext.dispatch.tensor<readonly:tensor<2xf32>>, %arg7: !iree_tensor_ext.dispatch.tensor<writeonly:tensor<f32>>) {
      %c0_2 = arith.constant 0 : index
      %397 = iree_tensor_ext.dispatch.tensor.load %arg6, offsets = [0], sizes = [2], strides = [1] : !iree_tensor_ext.dispatch.tensor<readonly:tensor<2xf32>> -> tensor<2xf32>
      %398 = tensor.empty() : tensor<f32>
      %399 = linalg.generic {indexing_maps = [#map], iterator_types = []} outs(%398 : tensor<f32>) {
      ^bb0(%out: f32):
        %extracted = tensor.extract %397[%c0_2] : tensor<2xf32>
        %400 = arith.negf %extracted : f32
        linalg.yield %400 : f32
      } -> tensor<f32>
      iree_tensor_ext.dispatch.tensor.store %399, %arg7, offsets = [], sizes = [], strides = [] : tensor<f32> -> !iree_tensor_ext.dispatch.tensor<writeonly:tensor<f32>>
      flow.return
    } count() -> (index, index, index) {
      %c1_2 = arith.constant 1 : index
      flow.return %c1_2, %c1_2, %c1_2 : index, index, index
    }
    %51 = flow.tensor.reshape %50 : tensor<f32> -> tensor<1xf32>
    %52 = flow.tensor.update %51, %22[%c0] : tensor<1xf32> -> %22 as tensor<2xf32>
    %53 = flow.tensor.update %42, %52[%c1] : tensor<1xf32> -> %52 as tensor<2xf32>
    %54 = flow.tensor.reshape %49 : tensor<2xf32> -> tensor<1x2xf32>
    %55 = flow.tensor.reshape %53 : tensor<2xf32> -> tensor<1x2xf32>
    %56 = flow.tensor.update %54, %37[%c0, %c0] : tensor<1x2xf32> -> %37 as tensor<2x2xf32>
    %57 = flow.tensor.update %55, %56[%c1, %c0] : tensor<1x2xf32> -> %56 as tensor<2x2xf32>
    %58 = flow.dispatch.workgroups(%40, %43, %57) : (tensor<2xf32>, tensor<2xf32>, tensor<2x2xf32>) -> tensor<1x2x8x1xf32> =
        (%arg6: !iree_tensor_ext.dispatch.tensor<readonly:tensor<2xf32>>, %arg7: !iree_tensor_ext.dispatch.tensor<readonly:tensor<2xf32>>, %arg8: !iree_tensor_ext.dispatch.tensor<readonly:tensor<2x2xf32>>, %arg9: !iree_tensor_ext.dispatch.tensor<writeonly:tensor<1x2x8x1xf32>>) {
      %cst_2 = arith.constant 9.99999997E-7 : f32
      %cst_3 = arith.constant 0.000000e+00 : f32
      %cst_4 = arith.constant 1.000000e+00 : f32
      %c0_5 = arith.constant 0 : index
      %c1_6 = arith.constant 1 : index
      %397 = iree_tensor_ext.dispatch.tensor.load %arg6, offsets = [0], sizes = [2], strides = [1] : !iree_tensor_ext.dispatch.tensor<readonly:tensor<2xf32>> -> tensor<2xf32>
      %398 = iree_tensor_ext.dispatch.tensor.load %arg7, offsets = [0], sizes = [2], strides = [1] : !iree_tensor_ext.dispatch.tensor<readonly:tensor<2xf32>> -> tensor<2xf32>
      %399 = iree_tensor_ext.dispatch.tensor.load %arg8, offsets = [0, 0], sizes = [2, 2], strides = [1, 1] : !iree_tensor_ext.dispatch.tensor<readonly:tensor<2x2xf32>> -> tensor<2x2xf32>
      %400 = tensor.empty() : tensor<1x2x8x1xf32>
      %401 = tensor.empty() : tensor<2x2xf32>
      %402 = linalg.generic {indexing_maps = [#map9, #map9], iterator_types = ["parallel", "parallel"]} ins(%399 : tensor<2x2xf32>) outs(%401 : tensor<2x2xf32>) {
      ^bb0(%in: f32, %out: f32):
        %extracted = tensor.extract %397[%c0_5] : tensor<2xf32>
        %extracted_7 = tensor.extract %398[%c1_6] : tensor<2xf32>
        %extracted_8 = tensor.extract %397[%c1_6] : tensor<2xf32>
        %extracted_9 = tensor.extract %398[%c0_5] : tensor<2xf32>
        %403 = arith.mulf %extracted_8, %extracted_9 : f32
        %404 = arith.mulf %extracted, %extracted_7 : f32
        %405 = arith.subf %404, %403 : f32
        %406 = arith.addf %405, %cst_2 : f32
        %407 = arith.cmpf one, %406, %cst_3 : f32
        cf.assert %407, "unimplemented: tensor with zero element"
        %408 = arith.divf %cst_4, %406 : f32
        %409 = arith.mulf %in, %408 : f32
        linalg.yield %409 : f32
      } -> tensor<2x2xf32>
      %pack = linalg.pack %402 padding_value(%cst_3 : f32) outer_dims_perm = [0, 1] inner_dims_pos = [0, 1] inner_tiles = [8, 1] into %400 : tensor<2x2xf32> -> tensor<1x2x8x1xf32>
      iree_tensor_ext.dispatch.tensor.store %pack, %arg9, offsets = [0, 0, 0, 0], sizes = [1, 2, 8, 1], strides = [1, 1, 1, 1] : tensor<1x2x8x1xf32> -> !iree_tensor_ext.dispatch.tensor<writeonly:tensor<1x2x8x1xf32>>
      flow.return
    } count() -> (index, index, index) {
      %x, %y, %z = iree_tensor_ext.dispatch.workgroup_count_from_slice()
      flow.return %x, %y, %z : index, index, index
    }
    %59 = flow.dispatch.workgroups(%27, %58) : (tensor<1x2x1x1xf32>, tensor<1x2x8x1xf32>) -> tensor<1x1x1x8xf32> =
        (%arg6: !iree_tensor_ext.dispatch.tensor<readonly:tensor<1x2x1x1xf32>>, %arg7: !iree_tensor_ext.dispatch.tensor<readonly:tensor<1x2x8x1xf32>>, %arg8: !iree_tensor_ext.dispatch.tensor<writeonly:tensor<1x1x1x8xf32>>) {
      %cst_2 = arith.constant 0.000000e+00 : f32
      %397 = iree_tensor_ext.dispatch.tensor.load %arg6, offsets = [0, 0, 0, 0], sizes = [1, 2, 1, 1], strides = [1, 1, 1, 1] : !iree_tensor_ext.dispatch.tensor<readonly:tensor<1x2x1x1xf32>> -> tensor<1x2x1x1xf32>
      %398 = iree_tensor_ext.dispatch.tensor.load %arg7, offsets = [0, 0, 0, 0], sizes = [1, 2, 8, 1], strides = [1, 1, 1, 1] : !iree_tensor_ext.dispatch.tensor<readonly:tensor<1x2x8x1xf32>> -> tensor<1x2x8x1xf32>
      %399 = tensor.empty() : tensor<1x1x1x8xf32>
      %400 = linalg.fill ins(%cst_2 : f32) outs(%399 : tensor<1x1x1x8xf32>) -> tensor<1x1x1x8xf32>
      %401 = linalg.mmt4d ins(%397, %398 : tensor<1x2x1x1xf32>, tensor<1x2x8x1xf32>) outs(%400 : tensor<1x1x1x8xf32>) -> tensor<1x1x1x8xf32>
      iree_tensor_ext.dispatch.tensor.store %401, %arg8, offsets = [0, 0, 0, 0], sizes = [1, 1, 1, 8], strides = [1, 1, 1, 1] : tensor<1x1x1x8xf32> -> !iree_tensor_ext.dispatch.tensor<writeonly:tensor<1x1x1x8xf32>>
      flow.return
    } count() -> (index, index, index) {
      %x, %y, %z = iree_tensor_ext.dispatch.workgroup_count_from_slice()
      flow.return %x, %y, %z : index, index, index
    }
    %60 = flow.tensor.reshape %59 : tensor<1x1x1x8xf32> -> tensor<1x8xf32>
    %61 = flow.dispatch.workgroups(%60, %2) : (tensor<1x8xf32>, tensor<2xf32>) -> tensor<2xf32> =
        (%arg6: !iree_tensor_ext.dispatch.tensor<readonly:tensor<1x8xf32>>, %arg7: !iree_tensor_ext.dispatch.tensor<readonly:tensor<2xf32>>, %arg8: !iree_tensor_ext.dispatch.tensor<writeonly:tensor<2xf32>>) {
      %cst_2 = arith.constant 1.000000e-01 : f32
      %397 = iree_tensor_ext.dispatch.tensor.load %arg6, offsets = [0, 0], sizes = [1, 8], strides = [1, 1] : !iree_tensor_ext.dispatch.tensor<readonly:tensor<1x8xf32>> -> tensor<1x8xf32>
      %398 = iree_tensor_ext.dispatch.tensor.load %arg7, offsets = [0], sizes = [2], strides = [1] : !iree_tensor_ext.dispatch.tensor<readonly:tensor<2xf32>> -> tensor<2xf32>
      %399 = tensor.empty() : tensor<2xf32>
      %unpack = linalg.unpack %397 outer_dims_perm = [0] inner_dims_pos = [0] inner_tiles = [8] into %399 : tensor<1x8xf32> -> tensor<2xf32>
      %400 = linalg.generic {indexing_maps = [#map10, #map10, #map10], iterator_types = ["parallel"]} ins(%398, %unpack : tensor<2xf32>, tensor<2xf32>) outs(%399 : tensor<2xf32>) {
      ^bb0(%in: f32, %in_3: f32, %out: f32):
        %401 = arith.mulf %in_3, %cst_2 : f32
        %402 = arith.addf %in, %401 : f32
        linalg.yield %402 : f32
      } -> tensor<2xf32>
      iree_tensor_ext.dispatch.tensor.store %400, %arg8, offsets = [0], sizes = [2], strides = [1] : tensor<2xf32> -> !iree_tensor_ext.dispatch.tensor<writeonly:tensor<2xf32>>
      flow.return
    } count() -> (index, index, index) {
      %x, %y, %z = iree_tensor_ext.dispatch.workgroup_count_from_slice()
      flow.return %x, %y, %z : index, index, index
    }
    %62:3 = flow.dispatch.workgroups(%61) : (tensor<2xf32>) -> (tensor<f32>, tensor<f32>, tensor<f32>) =
        (%arg6: !iree_tensor_ext.dispatch.tensor<readonly:tensor<2xf32>>, %arg7: !iree_tensor_ext.dispatch.tensor<writeonly:tensor<f32>>, %arg8: !iree_tensor_ext.dispatch.tensor<writeonly:tensor<f32>>, %arg9: !iree_tensor_ext.dispatch.tensor<writeonly:tensor<f32>>) {
      %c0_2 = arith.constant 0 : index
      %c1_3 = arith.constant 1 : index
      %397 = iree_tensor_ext.dispatch.tensor.load %arg6, offsets = [0], sizes = [2], strides = [1] : !iree_tensor_ext.dispatch.tensor<readonly:tensor<2xf32>> -> tensor<2xf32>
      %398 = tensor.empty() : tensor<f32>
      %399 = linalg.generic {indexing_maps = [#map], iterator_types = []} outs(%398 : tensor<f32>) {
      ^bb0(%out: f32):
        %extracted = tensor.extract %397[%c0_2] : tensor<2xf32>
        %extracted_4 = tensor.extract %397[%c1_3] : tensor<2xf32>
        %402 = arith.addf %extracted, %extracted_4 : f32
        %403 = math.cos %402 : f32
        %404 = math.cos %extracted : f32
        %405 = arith.addf %404, %403 : f32
        linalg.yield %405 : f32
      } -> tensor<f32>
      %400 = linalg.generic {indexing_maps = [#map], iterator_types = []} outs(%398 : tensor<f32>) {
      ^bb0(%out: f32):
        %extracted = tensor.extract %397[%c0_2] : tensor<2xf32>
        %extracted_4 = tensor.extract %397[%c1_3] : tensor<2xf32>
        %402 = arith.addf %extracted, %extracted_4 : f32
        %403 = math.cos %402 : f32
        linalg.yield %403 : f32
      } -> tensor<f32>
      %401 = linalg.generic {indexing_maps = [#map], iterator_types = []} outs(%398 : tensor<f32>) {
      ^bb0(%out: f32):
        %extracted = tensor.extract %397[%c0_2] : tensor<2xf32>
        %extracted_4 = tensor.extract %397[%c1_3] : tensor<2xf32>
        %402 = arith.addf %extracted, %extracted_4 : f32
        %403 = math.sin %402 : f32
        %404 = math.sin %extracted : f32
        %405 = arith.addf %404, %403 : f32
        linalg.yield %405 : f32
      } -> tensor<f32>
      iree_tensor_ext.dispatch.tensor.store %401, %arg7, offsets = [], sizes = [], strides = [] : tensor<f32> -> !iree_tensor_ext.dispatch.tensor<writeonly:tensor<f32>>
      iree_tensor_ext.dispatch.tensor.store %400, %arg8, offsets = [], sizes = [], strides = [] : tensor<f32> -> !iree_tensor_ext.dispatch.tensor<writeonly:tensor<f32>>
      iree_tensor_ext.dispatch.tensor.store %399, %arg9, offsets = [], sizes = [], strides = [] : tensor<f32> -> !iree_tensor_ext.dispatch.tensor<writeonly:tensor<f32>>
      flow.return
    } count() -> (index, index, index) {
      %c1_2 = arith.constant 1 : index
      flow.return %c1_2, %c1_2, %c1_2 : index, index, index
    }
    %63 = flow.tensor.reshape %62#2 : tensor<f32> -> tensor<1xf32>
    %64 = flow.tensor.reshape %62#0 : tensor<f32> -> tensor<1xf32>
    %65 = flow.tensor.update %63, %22[%c0] : tensor<1xf32> -> %22 as tensor<2xf32>
    %66 = flow.tensor.update %64, %65[%c1] : tensor<1xf32> -> %65 as tensor<2xf32>
    %67 = flow.tensor.reshape %26#0 : tensor<1x2xf32> -> tensor<2xf32>
    %68 = flow.dispatch.workgroups(%67, %66) : (tensor<2xf32>, tensor<2xf32>) -> tensor<2xf32> =
        (%arg6: !iree_tensor_ext.dispatch.tensor<readonly:tensor<2xf32>>, %arg7: !iree_tensor_ext.dispatch.tensor<readonly:tensor<2xf32>>, %arg8: !iree_tensor_ext.dispatch.tensor<writeonly:tensor<2xf32>>) {
      %397 = iree_tensor_ext.dispatch.tensor.load %arg6, offsets = [0], sizes = [2], strides = [1] : !iree_tensor_ext.dispatch.tensor<readonly:tensor<2xf32>> -> tensor<2xf32>
      %398 = iree_tensor_ext.dispatch.tensor.load %arg7, offsets = [0], sizes = [2], strides = [1] : !iree_tensor_ext.dispatch.tensor<readonly:tensor<2xf32>> -> tensor<2xf32>
      %399 = tensor.empty() : tensor<2xf32>
      %400 = linalg.generic {indexing_maps = [#map10, #map10, #map10], iterator_types = ["parallel"]} ins(%397, %398 : tensor<2xf32>, tensor<2xf32>) outs(%399 : tensor<2xf32>) {
      ^bb0(%in: f32, %in_2: f32, %out: f32):
        %401 = arith.subf %in, %in_2 : f32
        linalg.yield %401 : f32
      } -> tensor<2xf32>
      iree_tensor_ext.dispatch.tensor.store %400, %arg8, offsets = [0], sizes = [2], strides = [1] : tensor<2xf32> -> !iree_tensor_ext.dispatch.tensor<writeonly:tensor<2xf32>>
      flow.return
    } count() -> (index, index, index) {
      %x, %y, %z = iree_tensor_ext.dispatch.workgroup_count_from_slice()
      flow.return %x, %y, %z : index, index, index
    }
    %69 = flow.tensor.reshape %68 : tensor<2xf32> -> tensor<1x2x1x1xf32>
    %70:2 = flow.dispatch.workgroups(%61) : (tensor<2xf32>) -> (tensor<f32>, tensor<f32>) =
        (%arg6: !iree_tensor_ext.dispatch.tensor<readonly:tensor<2xf32>>, %arg7: !iree_tensor_ext.dispatch.tensor<writeonly:tensor<f32>>, %arg8: !iree_tensor_ext.dispatch.tensor<writeonly:tensor<f32>>) {
      %cst_2 = arith.constant -1.000000e+00 : f32
      %c0_3 = arith.constant 0 : index
      %c1_4 = arith.constant 1 : index
      %397 = iree_tensor_ext.dispatch.tensor.load %arg6, offsets = [0], sizes = [2], strides = [1] : !iree_tensor_ext.dispatch.tensor<readonly:tensor<2xf32>> -> tensor<2xf32>
      %398 = tensor.empty() : tensor<f32>
      %399 = linalg.generic {indexing_maps = [#map], iterator_types = []} outs(%398 : tensor<f32>) {
      ^bb0(%out: f32):
        %extracted = tensor.extract %397[%c0_3] : tensor<2xf32>
        %extracted_5 = tensor.extract %397[%c1_4] : tensor<2xf32>
        %401 = arith.addf %extracted, %extracted_5 : f32
        %402 = math.sin %401 : f32
        %403 = math.sin %extracted : f32
        %404 = arith.mulf %403, %cst_2 : f32
        %405 = arith.subf %404, %402 : f32
        linalg.yield %405 : f32
      } -> tensor<f32>
      %400 = linalg.generic {indexing_maps = [#map], iterator_types = []} outs(%398 : tensor<f32>) {
      ^bb0(%out: f32):
        %extracted = tensor.extract %397[%c0_3] : tensor<2xf32>
        %extracted_5 = tensor.extract %397[%c1_4] : tensor<2xf32>
        %401 = arith.addf %extracted, %extracted_5 : f32
        %402 = math.sin %401 : f32
        %403 = arith.mulf %402, %cst_2 : f32
        linalg.yield %403 : f32
      } -> tensor<f32>
      iree_tensor_ext.dispatch.tensor.store %400, %arg7, offsets = [], sizes = [], strides = [] : tensor<f32> -> !iree_tensor_ext.dispatch.tensor<writeonly:tensor<f32>>
      iree_tensor_ext.dispatch.tensor.store %399, %arg8, offsets = [], sizes = [], strides = [] : tensor<f32> -> !iree_tensor_ext.dispatch.tensor<writeonly:tensor<f32>>
      flow.return
    } count() -> (index, index, index) {
      %c1_2 = arith.constant 1 : index
      flow.return %c1_2, %c1_2, %c1_2 : index, index, index
    }
    %71 = flow.tensor.reshape %70#1 : tensor<f32> -> tensor<1xf32>
    %72 = flow.tensor.reshape %70#0 : tensor<f32> -> tensor<1xf32>
    %73 = flow.tensor.update %71, %22[%c0] : tensor<1xf32> -> %22 as tensor<2xf32>
    %74 = flow.tensor.update %72, %73[%c1] : tensor<1xf32> -> %73 as tensor<2xf32>
    %75 = flow.tensor.reshape %62#1 : tensor<f32> -> tensor<1xf32>
    %76 = flow.tensor.update %75, %65[%c1] : tensor<1xf32> -> %65 as tensor<2xf32>
    %77 = flow.tensor.reshape %74 : tensor<2xf32> -> tensor<1x2xf32>
    %78 = flow.tensor.reshape %76 : tensor<2xf32> -> tensor<1x2xf32>
    %79 = flow.tensor.update %77, %37[%c0, %c0] : tensor<1x2xf32> -> %37 as tensor<2x2xf32>
    %80 = flow.tensor.update %78, %79[%c1, %c0] : tensor<1x2xf32> -> %79 as tensor<2x2xf32>
    %81 = flow.dispatch.workgroups(%80) : (tensor<2x2xf32>) -> tensor<2xf32> =
        (%arg6: !iree_tensor_ext.dispatch.tensor<readonly:tensor<2x2xf32>>, %arg7: !iree_tensor_ext.dispatch.tensor<writeonly:tensor<2xf32>>) {
      %c0_2 = arith.constant 0 : index
      %397 = iree_tensor_ext.dispatch.tensor.load %arg6, offsets = [0, 0], sizes = [2, 2], strides = [1, 1] : !iree_tensor_ext.dispatch.tensor<readonly:tensor<2x2xf32>> -> tensor<2x2xf32>
      %398 = tensor.empty() : tensor<2xf32>
      %399 = linalg.generic {indexing_maps = [#map10], iterator_types = ["parallel"]} outs(%398 : tensor<2xf32>) {
      ^bb0(%out: f32):
        %400 = linalg.index 0 : index
        %extracted = tensor.extract %397[%c0_2, %400] : tensor<2x2xf32>
        linalg.yield %extracted : f32
      } -> tensor<2xf32>
      iree_tensor_ext.dispatch.tensor.store %399, %arg7, offsets = [0], sizes = [2], strides = [1] : tensor<2xf32> -> !iree_tensor_ext.dispatch.tensor<writeonly:tensor<2xf32>>
      flow.return
    } count() -> (index, index, index) {
      %x, %y, %z = iree_tensor_ext.dispatch.workgroup_count_from_slice()
      flow.return %x, %y, %z : index, index, index
    }
    %82 = flow.dispatch.workgroups(%81) : (tensor<2xf32>) -> tensor<f32> =
        (%arg6: !iree_tensor_ext.dispatch.tensor<readonly:tensor<2xf32>>, %arg7: !iree_tensor_ext.dispatch.tensor<writeonly:tensor<f32>>) {
      %c0_2 = arith.constant 0 : index
      %397 = iree_tensor_ext.dispatch.tensor.load %arg6, offsets = [0], sizes = [2], strides = [1] : !iree_tensor_ext.dispatch.tensor<readonly:tensor<2xf32>> -> tensor<2xf32>
      %398 = tensor.empty() : tensor<f32>
      %399 = linalg.generic {indexing_maps = [#map], iterator_types = []} outs(%398 : tensor<f32>) {
      ^bb0(%out: f32):
        %extracted = tensor.extract %397[%c0_2] : tensor<2xf32>
        linalg.yield %extracted : f32
      } -> tensor<f32>
      iree_tensor_ext.dispatch.tensor.store %399, %arg7, offsets = [], sizes = [], strides = [] : tensor<f32> -> !iree_tensor_ext.dispatch.tensor<writeonly:tensor<f32>>
      flow.return
    } count() -> (index, index, index) {
      %c1_2 = arith.constant 1 : index
      flow.return %c1_2, %c1_2, %c1_2 : index, index, index
    }
    %83 = flow.tensor.reshape %82 : tensor<f32> -> tensor<1xf32>
    %84 = flow.dispatch.workgroups(%80) : (tensor<2x2xf32>) -> tensor<2xf32> =
        (%arg6: !iree_tensor_ext.dispatch.tensor<readonly:tensor<2x2xf32>>, %arg7: !iree_tensor_ext.dispatch.tensor<writeonly:tensor<2xf32>>) {
      %c1_2 = arith.constant 1 : index
      %397 = iree_tensor_ext.dispatch.tensor.load %arg6, offsets = [0, 0], sizes = [2, 2], strides = [1, 1] : !iree_tensor_ext.dispatch.tensor<readonly:tensor<2x2xf32>> -> tensor<2x2xf32>
      %398 = tensor.empty() : tensor<2xf32>
      %399 = linalg.generic {indexing_maps = [#map10], iterator_types = ["parallel"]} outs(%398 : tensor<2xf32>) {
      ^bb0(%out: f32):
        %400 = linalg.index 0 : index
        %extracted = tensor.extract %397[%c1_2, %400] : tensor<2x2xf32>
        linalg.yield %extracted : f32
      } -> tensor<2xf32>
      iree_tensor_ext.dispatch.tensor.store %399, %arg7, offsets = [0], sizes = [2], strides = [1] : tensor<2xf32> -> !iree_tensor_ext.dispatch.tensor<writeonly:tensor<2xf32>>
      flow.return
    } count() -> (index, index, index) {
      %x, %y, %z = iree_tensor_ext.dispatch.workgroup_count_from_slice()
      flow.return %x, %y, %z : index, index, index
    }
    %85 = flow.dispatch.workgroups(%84) : (tensor<2xf32>) -> tensor<f32> =
        (%arg6: !iree_tensor_ext.dispatch.tensor<readonly:tensor<2xf32>>, %arg7: !iree_tensor_ext.dispatch.tensor<writeonly:tensor<f32>>) {
      %c1_2 = arith.constant 1 : index
      %397 = iree_tensor_ext.dispatch.tensor.load %arg6, offsets = [0], sizes = [2], strides = [1] : !iree_tensor_ext.dispatch.tensor<readonly:tensor<2xf32>> -> tensor<2xf32>
      %398 = tensor.empty() : tensor<f32>
      %399 = linalg.generic {indexing_maps = [#map], iterator_types = []} outs(%398 : tensor<f32>) {
      ^bb0(%out: f32):
        %extracted = tensor.extract %397[%c1_2] : tensor<2xf32>
        linalg.yield %extracted : f32
      } -> tensor<f32>
      iree_tensor_ext.dispatch.tensor.store %399, %arg7, offsets = [], sizes = [], strides = [] : tensor<f32> -> !iree_tensor_ext.dispatch.tensor<writeonly:tensor<f32>>
      flow.return
    } count() -> (index, index, index) {
      %c1_2 = arith.constant 1 : index
      flow.return %c1_2, %c1_2, %c1_2 : index, index, index
    }
    %86 = flow.tensor.reshape %85 : tensor<f32> -> tensor<1xf32>
    %87 = flow.dispatch.workgroups(%81, %84) : (tensor<2xf32>, tensor<2xf32>) -> tensor<f32> =
        (%arg6: !iree_tensor_ext.dispatch.tensor<readonly:tensor<2xf32>>, %arg7: !iree_tensor_ext.dispatch.tensor<readonly:tensor<2xf32>>, %arg8: !iree_tensor_ext.dispatch.tensor<writeonly:tensor<f32>>) {
      %cst_2 = arith.constant 9.99999997E-7 : f32
      %cst_3 = arith.constant 0.000000e+00 : f32
      %c0_4 = arith.constant 0 : index
      %c1_5 = arith.constant 1 : index
      %397 = iree_tensor_ext.dispatch.tensor.load %arg6, offsets = [0], sizes = [2], strides = [1] : !iree_tensor_ext.dispatch.tensor<readonly:tensor<2xf32>> -> tensor<2xf32>
      %398 = iree_tensor_ext.dispatch.tensor.load %arg7, offsets = [0], sizes = [2], strides = [1] : !iree_tensor_ext.dispatch.tensor<readonly:tensor<2xf32>> -> tensor<2xf32>
      %399 = tensor.empty() : tensor<f32>
      linalg.generic {indexing_maps = [], iterator_types = []} {
        %extracted = tensor.extract %397[%c0_4] : tensor<2xf32>
        %extracted_6 = tensor.extract %398[%c1_5] : tensor<2xf32>
        %extracted_7 = tensor.extract %397[%c1_5] : tensor<2xf32>
        %extracted_8 = tensor.extract %398[%c0_4] : tensor<2xf32>
        %401 = arith.mulf %extracted_7, %extracted_8 : f32
        %402 = arith.mulf %extracted, %extracted_6 : f32
        %403 = arith.subf %402, %401 : f32
        %404 = arith.addf %403, %cst_2 : f32
        %405 = arith.cmpf one, %404, %cst_3 : f32
        cf.assert %405, "unimplemented: tensor with zero element"
        linalg.yield
      }
      %400 = linalg.generic {indexing_maps = [#map], iterator_types = []} outs(%399 : tensor<f32>) {
      ^bb0(%out: f32):
        %extracted = tensor.extract %397[%c1_5] : tensor<2xf32>
        %401 = arith.negf %extracted : f32
        linalg.yield %401 : f32
      } -> tensor<f32>
      iree_tensor_ext.dispatch.tensor.store %400, %arg8, offsets = [], sizes = [], strides = [] : tensor<f32> -> !iree_tensor_ext.dispatch.tensor<writeonly:tensor<f32>>
      flow.return
    } count() -> (index, index, index) {
      %c1_2 = arith.constant 1 : index
      flow.return %c1_2, %c1_2, %c1_2 : index, index, index
    }
    %88 = flow.tensor.reshape %87 : tensor<f32> -> tensor<1xf32>
    %89 = flow.tensor.update %86, %22[%c0] : tensor<1xf32> -> %22 as tensor<2xf32>
    %90 = flow.tensor.update %88, %89[%c1] : tensor<1xf32> -> %89 as tensor<2xf32>
    %91 = flow.dispatch.workgroups(%84) : (tensor<2xf32>) -> tensor<f32> =
        (%arg6: !iree_tensor_ext.dispatch.tensor<readonly:tensor<2xf32>>, %arg7: !iree_tensor_ext.dispatch.tensor<writeonly:tensor<f32>>) {
      %c0_2 = arith.constant 0 : index
      %397 = iree_tensor_ext.dispatch.tensor.load %arg6, offsets = [0], sizes = [2], strides = [1] : !iree_tensor_ext.dispatch.tensor<readonly:tensor<2xf32>> -> tensor<2xf32>
      %398 = tensor.empty() : tensor<f32>
      %399 = linalg.generic {indexing_maps = [#map], iterator_types = []} outs(%398 : tensor<f32>) {
      ^bb0(%out: f32):
        %extracted = tensor.extract %397[%c0_2] : tensor<2xf32>
        %400 = arith.negf %extracted : f32
        linalg.yield %400 : f32
      } -> tensor<f32>
      iree_tensor_ext.dispatch.tensor.store %399, %arg7, offsets = [], sizes = [], strides = [] : tensor<f32> -> !iree_tensor_ext.dispatch.tensor<writeonly:tensor<f32>>
      flow.return
    } count() -> (index, index, index) {
      %c1_2 = arith.constant 1 : index
      flow.return %c1_2, %c1_2, %c1_2 : index, index, index
    }
    %92 = flow.tensor.reshape %91 : tensor<f32> -> tensor<1xf32>
    %93 = flow.tensor.update %92, %22[%c0] : tensor<1xf32> -> %22 as tensor<2xf32>
    %94 = flow.tensor.update %83, %93[%c1] : tensor<1xf32> -> %93 as tensor<2xf32>
    %95 = flow.tensor.reshape %90 : tensor<2xf32> -> tensor<1x2xf32>
    %96 = flow.tensor.reshape %94 : tensor<2xf32> -> tensor<1x2xf32>
    %97 = flow.tensor.update %95, %37[%c0, %c0] : tensor<1x2xf32> -> %37 as tensor<2x2xf32>
    %98 = flow.tensor.update %96, %97[%c1, %c0] : tensor<1x2xf32> -> %97 as tensor<2x2xf32>
    %99 = flow.dispatch.workgroups(%81, %84, %98) : (tensor<2xf32>, tensor<2xf32>, tensor<2x2xf32>) -> tensor<1x2x8x1xf32> =
        (%arg6: !iree_tensor_ext.dispatch.tensor<readonly:tensor<2xf32>>, %arg7: !iree_tensor_ext.dispatch.tensor<readonly:tensor<2xf32>>, %arg8: !iree_tensor_ext.dispatch.tensor<readonly:tensor<2x2xf32>>, %arg9: !iree_tensor_ext.dispatch.tensor<writeonly:tensor<1x2x8x1xf32>>) {
      %cst_2 = arith.constant 9.99999997E-7 : f32
      %cst_3 = arith.constant 0.000000e+00 : f32
      %cst_4 = arith.constant 1.000000e+00 : f32
      %c0_5 = arith.constant 0 : index
      %c1_6 = arith.constant 1 : index
      %397 = iree_tensor_ext.dispatch.tensor.load %arg6, offsets = [0], sizes = [2], strides = [1] : !iree_tensor_ext.dispatch.tensor<readonly:tensor<2xf32>> -> tensor<2xf32>
      %398 = iree_tensor_ext.dispatch.tensor.load %arg7, offsets = [0], sizes = [2], strides = [1] : !iree_tensor_ext.dispatch.tensor<readonly:tensor<2xf32>> -> tensor<2xf32>
      %399 = iree_tensor_ext.dispatch.tensor.load %arg8, offsets = [0, 0], sizes = [2, 2], strides = [1, 1] : !iree_tensor_ext.dispatch.tensor<readonly:tensor<2x2xf32>> -> tensor<2x2xf32>
      %400 = tensor.empty() : tensor<1x2x8x1xf32>
      %401 = tensor.empty() : tensor<2x2xf32>
      %402 = linalg.generic {indexing_maps = [#map9, #map9], iterator_types = ["parallel", "parallel"]} ins(%399 : tensor<2x2xf32>) outs(%401 : tensor<2x2xf32>) {
      ^bb0(%in: f32, %out: f32):
        %extracted = tensor.extract %397[%c0_5] : tensor<2xf32>
        %extracted_7 = tensor.extract %398[%c1_6] : tensor<2xf32>
        %extracted_8 = tensor.extract %397[%c1_6] : tensor<2xf32>
        %extracted_9 = tensor.extract %398[%c0_5] : tensor<2xf32>
        %403 = arith.mulf %extracted_8, %extracted_9 : f32
        %404 = arith.mulf %extracted, %extracted_7 : f32
        %405 = arith.subf %404, %403 : f32
        %406 = arith.addf %405, %cst_2 : f32
        %407 = arith.cmpf one, %406, %cst_3 : f32
        cf.assert %407, "unimplemented: tensor with zero element"
        %408 = arith.divf %cst_4, %406 : f32
        %409 = arith.mulf %in, %408 : f32
        linalg.yield %409 : f32
      } -> tensor<2x2xf32>
      %pack = linalg.pack %402 padding_value(%cst_3 : f32) outer_dims_perm = [0, 1] inner_dims_pos = [0, 1] inner_tiles = [8, 1] into %400 : tensor<2x2xf32> -> tensor<1x2x8x1xf32>
      iree_tensor_ext.dispatch.tensor.store %pack, %arg9, offsets = [0, 0, 0, 0], sizes = [1, 2, 8, 1], strides = [1, 1, 1, 1] : tensor<1x2x8x1xf32> -> !iree_tensor_ext.dispatch.tensor<writeonly:tensor<1x2x8x1xf32>>
      flow.return
    } count() -> (index, index, index) {
      %x, %y, %z = iree_tensor_ext.dispatch.workgroup_count_from_slice()
      flow.return %x, %y, %z : index, index, index
    }
    %100 = flow.dispatch.workgroups(%69, %99) : (tensor<1x2x1x1xf32>, tensor<1x2x8x1xf32>) -> tensor<1x1x1x8xf32> =
        (%arg6: !iree_tensor_ext.dispatch.tensor<readonly:tensor<1x2x1x1xf32>>, %arg7: !iree_tensor_ext.dispatch.tensor<readonly:tensor<1x2x8x1xf32>>, %arg8: !iree_tensor_ext.dispatch.tensor<writeonly:tensor<1x1x1x8xf32>>) {
      %cst_2 = arith.constant 0.000000e+00 : f32
      %397 = iree_tensor_ext.dispatch.tensor.load %arg6, offsets = [0, 0, 0, 0], sizes = [1, 2, 1, 1], strides = [1, 1, 1, 1] : !iree_tensor_ext.dispatch.tensor<readonly:tensor<1x2x1x1xf32>> -> tensor<1x2x1x1xf32>
      %398 = iree_tensor_ext.dispatch.tensor.load %arg7, offsets = [0, 0, 0, 0], sizes = [1, 2, 8, 1], strides = [1, 1, 1, 1] : !iree_tensor_ext.dispatch.tensor<readonly:tensor<1x2x8x1xf32>> -> tensor<1x2x8x1xf32>
      %399 = tensor.empty() : tensor<1x1x1x8xf32>
      %400 = linalg.fill ins(%cst_2 : f32) outs(%399 : tensor<1x1x1x8xf32>) -> tensor<1x1x1x8xf32>
      %401 = linalg.mmt4d ins(%397, %398 : tensor<1x2x1x1xf32>, tensor<1x2x8x1xf32>) outs(%400 : tensor<1x1x1x8xf32>) -> tensor<1x1x1x8xf32>
      iree_tensor_ext.dispatch.tensor.store %401, %arg8, offsets = [0, 0, 0, 0], sizes = [1, 1, 1, 8], strides = [1, 1, 1, 1] : tensor<1x1x1x8xf32> -> !iree_tensor_ext.dispatch.tensor<writeonly:tensor<1x1x1x8xf32>>
      flow.return
    } count() -> (index, index, index) {
      %x, %y, %z = iree_tensor_ext.dispatch.workgroup_count_from_slice()
      flow.return %x, %y, %z : index, index, index
    }
    %101 = flow.tensor.reshape %100 : tensor<1x1x1x8xf32> -> tensor<1x8xf32>
    %102 = flow.dispatch.workgroups(%101, %61) : (tensor<1x8xf32>, tensor<2xf32>) -> tensor<2xf32> =
        (%arg6: !iree_tensor_ext.dispatch.tensor<readonly:tensor<1x8xf32>>, %arg7: !iree_tensor_ext.dispatch.tensor<readonly:tensor<2xf32>>, %arg8: !iree_tensor_ext.dispatch.tensor<writeonly:tensor<2xf32>>) {
      %cst_2 = arith.constant 1.000000e-01 : f32
      %397 = iree_tensor_ext.dispatch.tensor.load %arg6, offsets = [0, 0], sizes = [1, 8], strides = [1, 1] : !iree_tensor_ext.dispatch.tensor<readonly:tensor<1x8xf32>> -> tensor<1x8xf32>
      %398 = iree_tensor_ext.dispatch.tensor.load %arg7, offsets = [0], sizes = [2], strides = [1] : !iree_tensor_ext.dispatch.tensor<readonly:tensor<2xf32>> -> tensor<2xf32>
      %399 = tensor.empty() : tensor<2xf32>
      %unpack = linalg.unpack %397 outer_dims_perm = [0] inner_dims_pos = [0] inner_tiles = [8] into %399 : tensor<1x8xf32> -> tensor<2xf32>
      %400 = linalg.generic {indexing_maps = [#map10, #map10, #map10], iterator_types = ["parallel"]} ins(%398, %unpack : tensor<2xf32>, tensor<2xf32>) outs(%399 : tensor<2xf32>) {
      ^bb0(%in: f32, %in_3: f32, %out: f32):
        %401 = arith.mulf %in_3, %cst_2 : f32
        %402 = arith.addf %in, %401 : f32
        linalg.yield %402 : f32
      } -> tensor<2xf32>
      iree_tensor_ext.dispatch.tensor.store %400, %arg8, offsets = [0], sizes = [2], strides = [1] : tensor<2xf32> -> !iree_tensor_ext.dispatch.tensor<writeonly:tensor<2xf32>>
      flow.return
    } count() -> (index, index, index) {
      %x, %y, %z = iree_tensor_ext.dispatch.workgroup_count_from_slice()
      flow.return %x, %y, %z : index, index, index
    }
    %103:3 = flow.dispatch.workgroups(%102) : (tensor<2xf32>) -> (tensor<f32>, tensor<f32>, tensor<f32>) =
        (%arg6: !iree_tensor_ext.dispatch.tensor<readonly:tensor<2xf32>>, %arg7: !iree_tensor_ext.dispatch.tensor<writeonly:tensor<f32>>, %arg8: !iree_tensor_ext.dispatch.tensor<writeonly:tensor<f32>>, %arg9: !iree_tensor_ext.dispatch.tensor<writeonly:tensor<f32>>) {
      %c0_2 = arith.constant 0 : index
      %c1_3 = arith.constant 1 : index
      %397 = iree_tensor_ext.dispatch.tensor.load %arg6, offsets = [0], sizes = [2], strides = [1] : !iree_tensor_ext.dispatch.tensor<readonly:tensor<2xf32>> -> tensor<2xf32>
      %398 = tensor.empty() : tensor<f32>
      %399 = linalg.generic {indexing_maps = [#map], iterator_types = []} outs(%398 : tensor<f32>) {
      ^bb0(%out: f32):
        %extracted = tensor.extract %397[%c0_2] : tensor<2xf32>
        %extracted_4 = tensor.extract %397[%c1_3] : tensor<2xf32>
        %402 = arith.addf %extracted, %extracted_4 : f32
        %403 = math.cos %402 : f32
        %404 = math.cos %extracted : f32
        %405 = arith.addf %404, %403 : f32
        linalg.yield %405 : f32
      } -> tensor<f32>
      %400 = linalg.generic {indexing_maps = [#map], iterator_types = []} outs(%398 : tensor<f32>) {
      ^bb0(%out: f32):
        %extracted = tensor.extract %397[%c0_2] : tensor<2xf32>
        %extracted_4 = tensor.extract %397[%c1_3] : tensor<2xf32>
        %402 = arith.addf %extracted, %extracted_4 : f32
        %403 = math.cos %402 : f32
        linalg.yield %403 : f32
      } -> tensor<f32>
      %401 = linalg.generic {indexing_maps = [#map], iterator_types = []} outs(%398 : tensor<f32>) {
      ^bb0(%out: f32):
        %extracted = tensor.extract %397[%c0_2] : tensor<2xf32>
        %extracted_4 = tensor.extract %397[%c1_3] : tensor<2xf32>
        %402 = arith.addf %extracted, %extracted_4 : f32
        %403 = math.sin %402 : f32
        %404 = math.sin %extracted : f32
        %405 = arith.addf %404, %403 : f32
        linalg.yield %405 : f32
      } -> tensor<f32>
      iree_tensor_ext.dispatch.tensor.store %401, %arg7, offsets = [], sizes = [], strides = [] : tensor<f32> -> !iree_tensor_ext.dispatch.tensor<writeonly:tensor<f32>>
      iree_tensor_ext.dispatch.tensor.store %400, %arg8, offsets = [], sizes = [], strides = [] : tensor<f32> -> !iree_tensor_ext.dispatch.tensor<writeonly:tensor<f32>>
      iree_tensor_ext.dispatch.tensor.store %399, %arg9, offsets = [], sizes = [], strides = [] : tensor<f32> -> !iree_tensor_ext.dispatch.tensor<writeonly:tensor<f32>>
      flow.return
    } count() -> (index, index, index) {
      %c1_2 = arith.constant 1 : index
      flow.return %c1_2, %c1_2, %c1_2 : index, index, index
    }
    %104 = flow.tensor.reshape %103#2 : tensor<f32> -> tensor<1xf32>
    %105 = flow.tensor.reshape %103#0 : tensor<f32> -> tensor<1xf32>
    %106 = flow.tensor.update %104, %22[%c0] : tensor<1xf32> -> %22 as tensor<2xf32>
    %107 = flow.tensor.update %105, %106[%c1] : tensor<1xf32> -> %106 as tensor<2xf32>
    %108 = flow.dispatch.workgroups(%67, %107) : (tensor<2xf32>, tensor<2xf32>) -> tensor<2xf32> =
        (%arg6: !iree_tensor_ext.dispatch.tensor<readonly:tensor<2xf32>>, %arg7: !iree_tensor_ext.dispatch.tensor<readonly:tensor<2xf32>>, %arg8: !iree_tensor_ext.dispatch.tensor<writeonly:tensor<2xf32>>) {
      %397 = iree_tensor_ext.dispatch.tensor.load %arg6, offsets = [0], sizes = [2], strides = [1] : !iree_tensor_ext.dispatch.tensor<readonly:tensor<2xf32>> -> tensor<2xf32>
      %398 = iree_tensor_ext.dispatch.tensor.load %arg7, offsets = [0], sizes = [2], strides = [1] : !iree_tensor_ext.dispatch.tensor<readonly:tensor<2xf32>> -> tensor<2xf32>
      %399 = tensor.empty() : tensor<2xf32>
      %400 = linalg.generic {indexing_maps = [#map10, #map10, #map10], iterator_types = ["parallel"]} ins(%397, %398 : tensor<2xf32>, tensor<2xf32>) outs(%399 : tensor<2xf32>) {
      ^bb0(%in: f32, %in_2: f32, %out: f32):
        %401 = arith.subf %in, %in_2 : f32
        linalg.yield %401 : f32
      } -> tensor<2xf32>
      iree_tensor_ext.dispatch.tensor.store %400, %arg8, offsets = [0], sizes = [2], strides = [1] : tensor<2xf32> -> !iree_tensor_ext.dispatch.tensor<writeonly:tensor<2xf32>>
      flow.return
    } count() -> (index, index, index) {
      %x, %y, %z = iree_tensor_ext.dispatch.workgroup_count_from_slice()
      flow.return %x, %y, %z : index, index, index
    }
    %109 = flow.tensor.reshape %108 : tensor<2xf32> -> tensor<1x2x1x1xf32>
    %110:2 = flow.dispatch.workgroups(%102) : (tensor<2xf32>) -> (tensor<f32>, tensor<f32>) =
        (%arg6: !iree_tensor_ext.dispatch.tensor<readonly:tensor<2xf32>>, %arg7: !iree_tensor_ext.dispatch.tensor<writeonly:tensor<f32>>, %arg8: !iree_tensor_ext.dispatch.tensor<writeonly:tensor<f32>>) {
      %cst_2 = arith.constant -1.000000e+00 : f32
      %c0_3 = arith.constant 0 : index
      %c1_4 = arith.constant 1 : index
      %397 = iree_tensor_ext.dispatch.tensor.load %arg6, offsets = [0], sizes = [2], strides = [1] : !iree_tensor_ext.dispatch.tensor<readonly:tensor<2xf32>> -> tensor<2xf32>
      %398 = tensor.empty() : tensor<f32>
      %399 = linalg.generic {indexing_maps = [#map], iterator_types = []} outs(%398 : tensor<f32>) {
      ^bb0(%out: f32):
        %extracted = tensor.extract %397[%c0_3] : tensor<2xf32>
        %extracted_5 = tensor.extract %397[%c1_4] : tensor<2xf32>
        %401 = arith.addf %extracted, %extracted_5 : f32
        %402 = math.sin %401 : f32
        %403 = math.sin %extracted : f32
        %404 = arith.mulf %403, %cst_2 : f32
        %405 = arith.subf %404, %402 : f32
        linalg.yield %405 : f32
      } -> tensor<f32>
      %400 = linalg.generic {indexing_maps = [#map], iterator_types = []} outs(%398 : tensor<f32>) {
      ^bb0(%out: f32):
        %extracted = tensor.extract %397[%c0_3] : tensor<2xf32>
        %extracted_5 = tensor.extract %397[%c1_4] : tensor<2xf32>
        %401 = arith.addf %extracted, %extracted_5 : f32
        %402 = math.sin %401 : f32
        %403 = arith.mulf %402, %cst_2 : f32
        linalg.yield %403 : f32
      } -> tensor<f32>
      iree_tensor_ext.dispatch.tensor.store %400, %arg7, offsets = [], sizes = [], strides = [] : tensor<f32> -> !iree_tensor_ext.dispatch.tensor<writeonly:tensor<f32>>
      iree_tensor_ext.dispatch.tensor.store %399, %arg8, offsets = [], sizes = [], strides = [] : tensor<f32> -> !iree_tensor_ext.dispatch.tensor<writeonly:tensor<f32>>
      flow.return
    } count() -> (index, index, index) {
      %c1_2 = arith.constant 1 : index
      flow.return %c1_2, %c1_2, %c1_2 : index, index, index
    }
    %111 = flow.tensor.reshape %110#1 : tensor<f32> -> tensor<1xf32>
    %112 = flow.tensor.reshape %110#0 : tensor<f32> -> tensor<1xf32>
    %113 = flow.tensor.update %111, %22[%c0] : tensor<1xf32> -> %22 as tensor<2xf32>
    %114 = flow.tensor.update %112, %113[%c1] : tensor<1xf32> -> %113 as tensor<2xf32>
    %115 = flow.tensor.reshape %103#1 : tensor<f32> -> tensor<1xf32>
    %116 = flow.tensor.update %115, %106[%c1] : tensor<1xf32> -> %106 as tensor<2xf32>
    %117 = flow.tensor.reshape %114 : tensor<2xf32> -> tensor<1x2xf32>
    %118 = flow.tensor.reshape %116 : tensor<2xf32> -> tensor<1x2xf32>
    %119 = flow.tensor.update %117, %37[%c0, %c0] : tensor<1x2xf32> -> %37 as tensor<2x2xf32>
    %120 = flow.tensor.update %118, %119[%c1, %c0] : tensor<1x2xf32> -> %119 as tensor<2x2xf32>
    %121 = flow.dispatch.workgroups(%120) : (tensor<2x2xf32>) -> tensor<2xf32> =
        (%arg6: !iree_tensor_ext.dispatch.tensor<readonly:tensor<2x2xf32>>, %arg7: !iree_tensor_ext.dispatch.tensor<writeonly:tensor<2xf32>>) {
      %c0_2 = arith.constant 0 : index
      %397 = iree_tensor_ext.dispatch.tensor.load %arg6, offsets = [0, 0], sizes = [2, 2], strides = [1, 1] : !iree_tensor_ext.dispatch.tensor<readonly:tensor<2x2xf32>> -> tensor<2x2xf32>
      %398 = tensor.empty() : tensor<2xf32>
      %399 = linalg.generic {indexing_maps = [#map10], iterator_types = ["parallel"]} outs(%398 : tensor<2xf32>) {
      ^bb0(%out: f32):
        %400 = linalg.index 0 : index
        %extracted = tensor.extract %397[%c0_2, %400] : tensor<2x2xf32>
        linalg.yield %extracted : f32
      } -> tensor<2xf32>
      iree_tensor_ext.dispatch.tensor.store %399, %arg7, offsets = [0], sizes = [2], strides = [1] : tensor<2xf32> -> !iree_tensor_ext.dispatch.tensor<writeonly:tensor<2xf32>>
      flow.return
    } count() -> (index, index, index) {
      %x, %y, %z = iree_tensor_ext.dispatch.workgroup_count_from_slice()
      flow.return %x, %y, %z : index, index, index
    }
    %122 = flow.dispatch.workgroups(%121) : (tensor<2xf32>) -> tensor<f32> =
        (%arg6: !iree_tensor_ext.dispatch.tensor<readonly:tensor<2xf32>>, %arg7: !iree_tensor_ext.dispatch.tensor<writeonly:tensor<f32>>) {
      %c0_2 = arith.constant 0 : index
      %397 = iree_tensor_ext.dispatch.tensor.load %arg6, offsets = [0], sizes = [2], strides = [1] : !iree_tensor_ext.dispatch.tensor<readonly:tensor<2xf32>> -> tensor<2xf32>
      %398 = tensor.empty() : tensor<f32>
      %399 = linalg.generic {indexing_maps = [#map], iterator_types = []} outs(%398 : tensor<f32>) {
      ^bb0(%out: f32):
        %extracted = tensor.extract %397[%c0_2] : tensor<2xf32>
        linalg.yield %extracted : f32
      } -> tensor<f32>
      iree_tensor_ext.dispatch.tensor.store %399, %arg7, offsets = [], sizes = [], strides = [] : tensor<f32> -> !iree_tensor_ext.dispatch.tensor<writeonly:tensor<f32>>
      flow.return
    } count() -> (index, index, index) {
      %c1_2 = arith.constant 1 : index
      flow.return %c1_2, %c1_2, %c1_2 : index, index, index
    }
    %123 = flow.tensor.reshape %122 : tensor<f32> -> tensor<1xf32>
    %124 = flow.dispatch.workgroups(%120) : (tensor<2x2xf32>) -> tensor<2xf32> =
        (%arg6: !iree_tensor_ext.dispatch.tensor<readonly:tensor<2x2xf32>>, %arg7: !iree_tensor_ext.dispatch.tensor<writeonly:tensor<2xf32>>) {
      %c1_2 = arith.constant 1 : index
      %397 = iree_tensor_ext.dispatch.tensor.load %arg6, offsets = [0, 0], sizes = [2, 2], strides = [1, 1] : !iree_tensor_ext.dispatch.tensor<readonly:tensor<2x2xf32>> -> tensor<2x2xf32>
      %398 = tensor.empty() : tensor<2xf32>
      %399 = linalg.generic {indexing_maps = [#map10], iterator_types = ["parallel"]} outs(%398 : tensor<2xf32>) {
      ^bb0(%out: f32):
        %400 = linalg.index 0 : index
        %extracted = tensor.extract %397[%c1_2, %400] : tensor<2x2xf32>
        linalg.yield %extracted : f32
      } -> tensor<2xf32>
      iree_tensor_ext.dispatch.tensor.store %399, %arg7, offsets = [0], sizes = [2], strides = [1] : tensor<2xf32> -> !iree_tensor_ext.dispatch.tensor<writeonly:tensor<2xf32>>
      flow.return
    } count() -> (index, index, index) {
      %x, %y, %z = iree_tensor_ext.dispatch.workgroup_count_from_slice()
      flow.return %x, %y, %z : index, index, index
    }
    %125 = flow.dispatch.workgroups(%124) : (tensor<2xf32>) -> tensor<f32> =
        (%arg6: !iree_tensor_ext.dispatch.tensor<readonly:tensor<2xf32>>, %arg7: !iree_tensor_ext.dispatch.tensor<writeonly:tensor<f32>>) {
      %c1_2 = arith.constant 1 : index
      %397 = iree_tensor_ext.dispatch.tensor.load %arg6, offsets = [0], sizes = [2], strides = [1] : !iree_tensor_ext.dispatch.tensor<readonly:tensor<2xf32>> -> tensor<2xf32>
      %398 = tensor.empty() : tensor<f32>
      %399 = linalg.generic {indexing_maps = [#map], iterator_types = []} outs(%398 : tensor<f32>) {
      ^bb0(%out: f32):
        %extracted = tensor.extract %397[%c1_2] : tensor<2xf32>
        linalg.yield %extracted : f32
      } -> tensor<f32>
      iree_tensor_ext.dispatch.tensor.store %399, %arg7, offsets = [], sizes = [], strides = [] : tensor<f32> -> !iree_tensor_ext.dispatch.tensor<writeonly:tensor<f32>>
      flow.return
    } count() -> (index, index, index) {
      %c1_2 = arith.constant 1 : index
      flow.return %c1_2, %c1_2, %c1_2 : index, index, index
    }
    %126 = flow.tensor.reshape %125 : tensor<f32> -> tensor<1xf32>
    %127 = flow.dispatch.workgroups(%121, %124) : (tensor<2xf32>, tensor<2xf32>) -> tensor<f32> =
        (%arg6: !iree_tensor_ext.dispatch.tensor<readonly:tensor<2xf32>>, %arg7: !iree_tensor_ext.dispatch.tensor<readonly:tensor<2xf32>>, %arg8: !iree_tensor_ext.dispatch.tensor<writeonly:tensor<f32>>) {
      %cst_2 = arith.constant 9.99999997E-7 : f32
      %cst_3 = arith.constant 0.000000e+00 : f32
      %c0_4 = arith.constant 0 : index
      %c1_5 = arith.constant 1 : index
      %397 = iree_tensor_ext.dispatch.tensor.load %arg6, offsets = [0], sizes = [2], strides = [1] : !iree_tensor_ext.dispatch.tensor<readonly:tensor<2xf32>> -> tensor<2xf32>
      %398 = iree_tensor_ext.dispatch.tensor.load %arg7, offsets = [0], sizes = [2], strides = [1] : !iree_tensor_ext.dispatch.tensor<readonly:tensor<2xf32>> -> tensor<2xf32>
      %399 = tensor.empty() : tensor<f32>
      linalg.generic {indexing_maps = [], iterator_types = []} {
        %extracted = tensor.extract %397[%c0_4] : tensor<2xf32>
        %extracted_6 = tensor.extract %398[%c1_5] : tensor<2xf32>
        %extracted_7 = tensor.extract %397[%c1_5] : tensor<2xf32>
        %extracted_8 = tensor.extract %398[%c0_4] : tensor<2xf32>
        %401 = arith.mulf %extracted_7, %extracted_8 : f32
        %402 = arith.mulf %extracted, %extracted_6 : f32
        %403 = arith.subf %402, %401 : f32
        %404 = arith.addf %403, %cst_2 : f32
        %405 = arith.cmpf one, %404, %cst_3 : f32
        cf.assert %405, "unimplemented: tensor with zero element"
        linalg.yield
      }
      %400 = linalg.generic {indexing_maps = [#map], iterator_types = []} outs(%399 : tensor<f32>) {
      ^bb0(%out: f32):
        %extracted = tensor.extract %397[%c1_5] : tensor<2xf32>
        %401 = arith.negf %extracted : f32
        linalg.yield %401 : f32
      } -> tensor<f32>
      iree_tensor_ext.dispatch.tensor.store %400, %arg8, offsets = [], sizes = [], strides = [] : tensor<f32> -> !iree_tensor_ext.dispatch.tensor<writeonly:tensor<f32>>
      flow.return
    } count() -> (index, index, index) {
      %c1_2 = arith.constant 1 : index
      flow.return %c1_2, %c1_2, %c1_2 : index, index, index
    }
    %128 = flow.tensor.reshape %127 : tensor<f32> -> tensor<1xf32>
    %129 = flow.tensor.update %126, %22[%c0] : tensor<1xf32> -> %22 as tensor<2xf32>
    %130 = flow.tensor.update %128, %129[%c1] : tensor<1xf32> -> %129 as tensor<2xf32>
    %131 = flow.dispatch.workgroups(%124) : (tensor<2xf32>) -> tensor<f32> =
        (%arg6: !iree_tensor_ext.dispatch.tensor<readonly:tensor<2xf32>>, %arg7: !iree_tensor_ext.dispatch.tensor<writeonly:tensor<f32>>) {
      %c0_2 = arith.constant 0 : index
      %397 = iree_tensor_ext.dispatch.tensor.load %arg6, offsets = [0], sizes = [2], strides = [1] : !iree_tensor_ext.dispatch.tensor<readonly:tensor<2xf32>> -> tensor<2xf32>
      %398 = tensor.empty() : tensor<f32>
      %399 = linalg.generic {indexing_maps = [#map], iterator_types = []} outs(%398 : tensor<f32>) {
      ^bb0(%out: f32):
        %extracted = tensor.extract %397[%c0_2] : tensor<2xf32>
        %400 = arith.negf %extracted : f32
        linalg.yield %400 : f32
      } -> tensor<f32>
      iree_tensor_ext.dispatch.tensor.store %399, %arg7, offsets = [], sizes = [], strides = [] : tensor<f32> -> !iree_tensor_ext.dispatch.tensor<writeonly:tensor<f32>>
      flow.return
    } count() -> (index, index, index) {
      %c1_2 = arith.constant 1 : index
      flow.return %c1_2, %c1_2, %c1_2 : index, index, index
    }
    %132 = flow.tensor.reshape %131 : tensor<f32> -> tensor<1xf32>
    %133 = flow.tensor.update %132, %22[%c0] : tensor<1xf32> -> %22 as tensor<2xf32>
    %134 = flow.tensor.update %123, %133[%c1] : tensor<1xf32> -> %133 as tensor<2xf32>
    %135 = flow.tensor.reshape %130 : tensor<2xf32> -> tensor<1x2xf32>
    %136 = flow.tensor.reshape %134 : tensor<2xf32> -> tensor<1x2xf32>
    %137 = flow.tensor.update %135, %37[%c0, %c0] : tensor<1x2xf32> -> %37 as tensor<2x2xf32>
    %138 = flow.tensor.update %136, %137[%c1, %c0] : tensor<1x2xf32> -> %137 as tensor<2x2xf32>
    %139 = flow.dispatch.workgroups(%121, %124, %138) : (tensor<2xf32>, tensor<2xf32>, tensor<2x2xf32>) -> tensor<1x2x8x1xf32> =
        (%arg6: !iree_tensor_ext.dispatch.tensor<readonly:tensor<2xf32>>, %arg7: !iree_tensor_ext.dispatch.tensor<readonly:tensor<2xf32>>, %arg8: !iree_tensor_ext.dispatch.tensor<readonly:tensor<2x2xf32>>, %arg9: !iree_tensor_ext.dispatch.tensor<writeonly:tensor<1x2x8x1xf32>>) {
      %cst_2 = arith.constant 9.99999997E-7 : f32
      %cst_3 = arith.constant 0.000000e+00 : f32
      %cst_4 = arith.constant 1.000000e+00 : f32
      %c0_5 = arith.constant 0 : index
      %c1_6 = arith.constant 1 : index
      %397 = iree_tensor_ext.dispatch.tensor.load %arg6, offsets = [0], sizes = [2], strides = [1] : !iree_tensor_ext.dispatch.tensor<readonly:tensor<2xf32>> -> tensor<2xf32>
      %398 = iree_tensor_ext.dispatch.tensor.load %arg7, offsets = [0], sizes = [2], strides = [1] : !iree_tensor_ext.dispatch.tensor<readonly:tensor<2xf32>> -> tensor<2xf32>
      %399 = iree_tensor_ext.dispatch.tensor.load %arg8, offsets = [0, 0], sizes = [2, 2], strides = [1, 1] : !iree_tensor_ext.dispatch.tensor<readonly:tensor<2x2xf32>> -> tensor<2x2xf32>
      %400 = tensor.empty() : tensor<1x2x8x1xf32>
      %401 = tensor.empty() : tensor<2x2xf32>
      %402 = linalg.generic {indexing_maps = [#map9, #map9], iterator_types = ["parallel", "parallel"]} ins(%399 : tensor<2x2xf32>) outs(%401 : tensor<2x2xf32>) {
      ^bb0(%in: f32, %out: f32):
        %extracted = tensor.extract %397[%c0_5] : tensor<2xf32>
        %extracted_7 = tensor.extract %398[%c1_6] : tensor<2xf32>
        %extracted_8 = tensor.extract %397[%c1_6] : tensor<2xf32>
        %extracted_9 = tensor.extract %398[%c0_5] : tensor<2xf32>
        %403 = arith.mulf %extracted_8, %extracted_9 : f32
        %404 = arith.mulf %extracted, %extracted_7 : f32
        %405 = arith.subf %404, %403 : f32
        %406 = arith.addf %405, %cst_2 : f32
        %407 = arith.cmpf one, %406, %cst_3 : f32
        cf.assert %407, "unimplemented: tensor with zero element"
        %408 = arith.divf %cst_4, %406 : f32
        %409 = arith.mulf %in, %408 : f32
        linalg.yield %409 : f32
      } -> tensor<2x2xf32>
      %pack = linalg.pack %402 padding_value(%cst_3 : f32) outer_dims_perm = [0, 1] inner_dims_pos = [0, 1] inner_tiles = [8, 1] into %400 : tensor<2x2xf32> -> tensor<1x2x8x1xf32>
      iree_tensor_ext.dispatch.tensor.store %pack, %arg9, offsets = [0, 0, 0, 0], sizes = [1, 2, 8, 1], strides = [1, 1, 1, 1] : tensor<1x2x8x1xf32> -> !iree_tensor_ext.dispatch.tensor<writeonly:tensor<1x2x8x1xf32>>
      flow.return
    } count() -> (index, index, index) {
      %x, %y, %z = iree_tensor_ext.dispatch.workgroup_count_from_slice()
      flow.return %x, %y, %z : index, index, index
    }
    %140 = flow.dispatch.workgroups(%109, %139) : (tensor<1x2x1x1xf32>, tensor<1x2x8x1xf32>) -> tensor<1x1x1x8xf32> =
        (%arg6: !iree_tensor_ext.dispatch.tensor<readonly:tensor<1x2x1x1xf32>>, %arg7: !iree_tensor_ext.dispatch.tensor<readonly:tensor<1x2x8x1xf32>>, %arg8: !iree_tensor_ext.dispatch.tensor<writeonly:tensor<1x1x1x8xf32>>) {
      %cst_2 = arith.constant 0.000000e+00 : f32
      %397 = iree_tensor_ext.dispatch.tensor.load %arg6, offsets = [0, 0, 0, 0], sizes = [1, 2, 1, 1], strides = [1, 1, 1, 1] : !iree_tensor_ext.dispatch.tensor<readonly:tensor<1x2x1x1xf32>> -> tensor<1x2x1x1xf32>
      %398 = iree_tensor_ext.dispatch.tensor.load %arg7, offsets = [0, 0, 0, 0], sizes = [1, 2, 8, 1], strides = [1, 1, 1, 1] : !iree_tensor_ext.dispatch.tensor<readonly:tensor<1x2x8x1xf32>> -> tensor<1x2x8x1xf32>
      %399 = tensor.empty() : tensor<1x1x1x8xf32>
      %400 = linalg.fill ins(%cst_2 : f32) outs(%399 : tensor<1x1x1x8xf32>) -> tensor<1x1x1x8xf32>
      %401 = linalg.mmt4d ins(%397, %398 : tensor<1x2x1x1xf32>, tensor<1x2x8x1xf32>) outs(%400 : tensor<1x1x1x8xf32>) -> tensor<1x1x1x8xf32>
      iree_tensor_ext.dispatch.tensor.store %401, %arg8, offsets = [0, 0, 0, 0], sizes = [1, 1, 1, 8], strides = [1, 1, 1, 1] : tensor<1x1x1x8xf32> -> !iree_tensor_ext.dispatch.tensor<writeonly:tensor<1x1x1x8xf32>>
      flow.return
    } count() -> (index, index, index) {
      %x, %y, %z = iree_tensor_ext.dispatch.workgroup_count_from_slice()
      flow.return %x, %y, %z : index, index, index
    }
    %141 = flow.tensor.reshape %140 : tensor<1x1x1x8xf32> -> tensor<1x8xf32>
    %142 = flow.dispatch.workgroups(%141, %102) : (tensor<1x8xf32>, tensor<2xf32>) -> tensor<2xf32> =
        (%arg6: !iree_tensor_ext.dispatch.tensor<readonly:tensor<1x8xf32>>, %arg7: !iree_tensor_ext.dispatch.tensor<readonly:tensor<2xf32>>, %arg8: !iree_tensor_ext.dispatch.tensor<writeonly:tensor<2xf32>>) {
      %cst_2 = arith.constant 1.000000e-01 : f32
      %397 = iree_tensor_ext.dispatch.tensor.load %arg6, offsets = [0, 0], sizes = [1, 8], strides = [1, 1] : !iree_tensor_ext.dispatch.tensor<readonly:tensor<1x8xf32>> -> tensor<1x8xf32>
      %398 = iree_tensor_ext.dispatch.tensor.load %arg7, offsets = [0], sizes = [2], strides = [1] : !iree_tensor_ext.dispatch.tensor<readonly:tensor<2xf32>> -> tensor<2xf32>
      %399 = tensor.empty() : tensor<2xf32>
      %unpack = linalg.unpack %397 outer_dims_perm = [0] inner_dims_pos = [0] inner_tiles = [8] into %399 : tensor<1x8xf32> -> tensor<2xf32>
      %400 = linalg.generic {indexing_maps = [#map10, #map10, #map10], iterator_types = ["parallel"]} ins(%398, %unpack : tensor<2xf32>, tensor<2xf32>) outs(%399 : tensor<2xf32>) {
      ^bb0(%in: f32, %in_3: f32, %out: f32):
        %401 = arith.mulf %in_3, %cst_2 : f32
        %402 = arith.addf %in, %401 : f32
        linalg.yield %402 : f32
      } -> tensor<2xf32>
      iree_tensor_ext.dispatch.tensor.store %400, %arg8, offsets = [0], sizes = [2], strides = [1] : tensor<2xf32> -> !iree_tensor_ext.dispatch.tensor<writeonly:tensor<2xf32>>
      flow.return
    } count() -> (index, index, index) {
      %x, %y, %z = iree_tensor_ext.dispatch.workgroup_count_from_slice()
      flow.return %x, %y, %z : index, index, index
    }
    %143:3 = flow.dispatch.workgroups(%142) : (tensor<2xf32>) -> (tensor<f32>, tensor<f32>, tensor<f32>) =
        (%arg6: !iree_tensor_ext.dispatch.tensor<readonly:tensor<2xf32>>, %arg7: !iree_tensor_ext.dispatch.tensor<writeonly:tensor<f32>>, %arg8: !iree_tensor_ext.dispatch.tensor<writeonly:tensor<f32>>, %arg9: !iree_tensor_ext.dispatch.tensor<writeonly:tensor<f32>>) {
      %c0_2 = arith.constant 0 : index
      %c1_3 = arith.constant 1 : index
      %397 = iree_tensor_ext.dispatch.tensor.load %arg6, offsets = [0], sizes = [2], strides = [1] : !iree_tensor_ext.dispatch.tensor<readonly:tensor<2xf32>> -> tensor<2xf32>
      %398 = tensor.empty() : tensor<f32>
      %399 = linalg.generic {indexing_maps = [#map], iterator_types = []} outs(%398 : tensor<f32>) {
      ^bb0(%out: f32):
        %extracted = tensor.extract %397[%c0_2] : tensor<2xf32>
        %extracted_4 = tensor.extract %397[%c1_3] : tensor<2xf32>
        %402 = arith.addf %extracted, %extracted_4 : f32
        %403 = math.cos %402 : f32
        %404 = math.cos %extracted : f32
        %405 = arith.addf %404, %403 : f32
        linalg.yield %405 : f32
      } -> tensor<f32>
      %400 = linalg.generic {indexing_maps = [#map], iterator_types = []} outs(%398 : tensor<f32>) {
      ^bb0(%out: f32):
        %extracted = tensor.extract %397[%c0_2] : tensor<2xf32>
        %extracted_4 = tensor.extract %397[%c1_3] : tensor<2xf32>
        %402 = arith.addf %extracted, %extracted_4 : f32
        %403 = math.cos %402 : f32
        linalg.yield %403 : f32
      } -> tensor<f32>
      %401 = linalg.generic {indexing_maps = [#map], iterator_types = []} outs(%398 : tensor<f32>) {
      ^bb0(%out: f32):
        %extracted = tensor.extract %397[%c0_2] : tensor<2xf32>
        %extracted_4 = tensor.extract %397[%c1_3] : tensor<2xf32>
        %402 = arith.addf %extracted, %extracted_4 : f32
        %403 = math.sin %402 : f32
        %404 = math.sin %extracted : f32
        %405 = arith.addf %404, %403 : f32
        linalg.yield %405 : f32
      } -> tensor<f32>
      iree_tensor_ext.dispatch.tensor.store %401, %arg7, offsets = [], sizes = [], strides = [] : tensor<f32> -> !iree_tensor_ext.dispatch.tensor<writeonly:tensor<f32>>
      iree_tensor_ext.dispatch.tensor.store %400, %arg8, offsets = [], sizes = [], strides = [] : tensor<f32> -> !iree_tensor_ext.dispatch.tensor<writeonly:tensor<f32>>
      iree_tensor_ext.dispatch.tensor.store %399, %arg9, offsets = [], sizes = [], strides = [] : tensor<f32> -> !iree_tensor_ext.dispatch.tensor<writeonly:tensor<f32>>
      flow.return
    } count() -> (index, index, index) {
      %c1_2 = arith.constant 1 : index
      flow.return %c1_2, %c1_2, %c1_2 : index, index, index
    }
    %144 = flow.tensor.reshape %143#2 : tensor<f32> -> tensor<1xf32>
    %145 = flow.tensor.reshape %143#0 : tensor<f32> -> tensor<1xf32>
    %146 = flow.tensor.update %144, %22[%c0] : tensor<1xf32> -> %22 as tensor<2xf32>
    %147 = flow.tensor.update %145, %146[%c1] : tensor<1xf32> -> %146 as tensor<2xf32>
    %148 = flow.dispatch.workgroups(%67, %147) : (tensor<2xf32>, tensor<2xf32>) -> tensor<2xf32> =
        (%arg6: !iree_tensor_ext.dispatch.tensor<readonly:tensor<2xf32>>, %arg7: !iree_tensor_ext.dispatch.tensor<readonly:tensor<2xf32>>, %arg8: !iree_tensor_ext.dispatch.tensor<writeonly:tensor<2xf32>>) {
      %397 = iree_tensor_ext.dispatch.tensor.load %arg6, offsets = [0], sizes = [2], strides = [1] : !iree_tensor_ext.dispatch.tensor<readonly:tensor<2xf32>> -> tensor<2xf32>
      %398 = iree_tensor_ext.dispatch.tensor.load %arg7, offsets = [0], sizes = [2], strides = [1] : !iree_tensor_ext.dispatch.tensor<readonly:tensor<2xf32>> -> tensor<2xf32>
      %399 = tensor.empty() : tensor<2xf32>
      %400 = linalg.generic {indexing_maps = [#map10, #map10, #map10], iterator_types = ["parallel"]} ins(%397, %398 : tensor<2xf32>, tensor<2xf32>) outs(%399 : tensor<2xf32>) {
      ^bb0(%in: f32, %in_2: f32, %out: f32):
        %401 = arith.subf %in, %in_2 : f32
        linalg.yield %401 : f32
      } -> tensor<2xf32>
      iree_tensor_ext.dispatch.tensor.store %400, %arg8, offsets = [0], sizes = [2], strides = [1] : tensor<2xf32> -> !iree_tensor_ext.dispatch.tensor<writeonly:tensor<2xf32>>
      flow.return
    } count() -> (index, index, index) {
      %x, %y, %z = iree_tensor_ext.dispatch.workgroup_count_from_slice()
      flow.return %x, %y, %z : index, index, index
    }
    %149 = flow.tensor.reshape %148 : tensor<2xf32> -> tensor<1x2x1x1xf32>
    %150:2 = flow.dispatch.workgroups(%142) : (tensor<2xf32>) -> (tensor<f32>, tensor<f32>) =
        (%arg6: !iree_tensor_ext.dispatch.tensor<readonly:tensor<2xf32>>, %arg7: !iree_tensor_ext.dispatch.tensor<writeonly:tensor<f32>>, %arg8: !iree_tensor_ext.dispatch.tensor<writeonly:tensor<f32>>) {
      %cst_2 = arith.constant -1.000000e+00 : f32
      %c0_3 = arith.constant 0 : index
      %c1_4 = arith.constant 1 : index
      %397 = iree_tensor_ext.dispatch.tensor.load %arg6, offsets = [0], sizes = [2], strides = [1] : !iree_tensor_ext.dispatch.tensor<readonly:tensor<2xf32>> -> tensor<2xf32>
      %398 = tensor.empty() : tensor<f32>
      %399 = linalg.generic {indexing_maps = [#map], iterator_types = []} outs(%398 : tensor<f32>) {
      ^bb0(%out: f32):
        %extracted = tensor.extract %397[%c0_3] : tensor<2xf32>
        %extracted_5 = tensor.extract %397[%c1_4] : tensor<2xf32>
        %401 = arith.addf %extracted, %extracted_5 : f32
        %402 = math.sin %401 : f32
        %403 = math.sin %extracted : f32
        %404 = arith.mulf %403, %cst_2 : f32
        %405 = arith.subf %404, %402 : f32
        linalg.yield %405 : f32
      } -> tensor<f32>
      %400 = linalg.generic {indexing_maps = [#map], iterator_types = []} outs(%398 : tensor<f32>) {
      ^bb0(%out: f32):
        %extracted = tensor.extract %397[%c0_3] : tensor<2xf32>
        %extracted_5 = tensor.extract %397[%c1_4] : tensor<2xf32>
        %401 = arith.addf %extracted, %extracted_5 : f32
        %402 = math.sin %401 : f32
        %403 = arith.mulf %402, %cst_2 : f32
        linalg.yield %403 : f32
      } -> tensor<f32>
      iree_tensor_ext.dispatch.tensor.store %400, %arg7, offsets = [], sizes = [], strides = [] : tensor<f32> -> !iree_tensor_ext.dispatch.tensor<writeonly:tensor<f32>>
      iree_tensor_ext.dispatch.tensor.store %399, %arg8, offsets = [], sizes = [], strides = [] : tensor<f32> -> !iree_tensor_ext.dispatch.tensor<writeonly:tensor<f32>>
      flow.return
    } count() -> (index, index, index) {
      %c1_2 = arith.constant 1 : index
      flow.return %c1_2, %c1_2, %c1_2 : index, index, index
    }
    %151 = flow.tensor.reshape %150#1 : tensor<f32> -> tensor<1xf32>
    %152 = flow.tensor.reshape %150#0 : tensor<f32> -> tensor<1xf32>
    %153 = flow.tensor.update %151, %22[%c0] : tensor<1xf32> -> %22 as tensor<2xf32>
    %154 = flow.tensor.update %152, %153[%c1] : tensor<1xf32> -> %153 as tensor<2xf32>
    %155 = flow.tensor.reshape %143#1 : tensor<f32> -> tensor<1xf32>
    %156 = flow.tensor.update %155, %146[%c1] : tensor<1xf32> -> %146 as tensor<2xf32>
    %157 = flow.tensor.reshape %154 : tensor<2xf32> -> tensor<1x2xf32>
    %158 = flow.tensor.reshape %156 : tensor<2xf32> -> tensor<1x2xf32>
    %159 = flow.tensor.update %157, %37[%c0, %c0] : tensor<1x2xf32> -> %37 as tensor<2x2xf32>
    %160 = flow.tensor.update %158, %159[%c1, %c0] : tensor<1x2xf32> -> %159 as tensor<2x2xf32>
    %161 = flow.dispatch.workgroups(%160) : (tensor<2x2xf32>) -> tensor<2xf32> =
        (%arg6: !iree_tensor_ext.dispatch.tensor<readonly:tensor<2x2xf32>>, %arg7: !iree_tensor_ext.dispatch.tensor<writeonly:tensor<2xf32>>) {
      %c0_2 = arith.constant 0 : index
      %397 = iree_tensor_ext.dispatch.tensor.load %arg6, offsets = [0, 0], sizes = [2, 2], strides = [1, 1] : !iree_tensor_ext.dispatch.tensor<readonly:tensor<2x2xf32>> -> tensor<2x2xf32>
      %398 = tensor.empty() : tensor<2xf32>
      %399 = linalg.generic {indexing_maps = [#map10], iterator_types = ["parallel"]} outs(%398 : tensor<2xf32>) {
      ^bb0(%out: f32):
        %400 = linalg.index 0 : index
        %extracted = tensor.extract %397[%c0_2, %400] : tensor<2x2xf32>
        linalg.yield %extracted : f32
      } -> tensor<2xf32>
      iree_tensor_ext.dispatch.tensor.store %399, %arg7, offsets = [0], sizes = [2], strides = [1] : tensor<2xf32> -> !iree_tensor_ext.dispatch.tensor<writeonly:tensor<2xf32>>
      flow.return
    } count() -> (index, index, index) {
      %x, %y, %z = iree_tensor_ext.dispatch.workgroup_count_from_slice()
      flow.return %x, %y, %z : index, index, index
    }
    %162 = flow.dispatch.workgroups(%161) : (tensor<2xf32>) -> tensor<f32> =
        (%arg6: !iree_tensor_ext.dispatch.tensor<readonly:tensor<2xf32>>, %arg7: !iree_tensor_ext.dispatch.tensor<writeonly:tensor<f32>>) {
      %c0_2 = arith.constant 0 : index
      %397 = iree_tensor_ext.dispatch.tensor.load %arg6, offsets = [0], sizes = [2], strides = [1] : !iree_tensor_ext.dispatch.tensor<readonly:tensor<2xf32>> -> tensor<2xf32>
      %398 = tensor.empty() : tensor<f32>
      %399 = linalg.generic {indexing_maps = [#map], iterator_types = []} outs(%398 : tensor<f32>) {
      ^bb0(%out: f32):
        %extracted = tensor.extract %397[%c0_2] : tensor<2xf32>
        linalg.yield %extracted : f32
      } -> tensor<f32>
      iree_tensor_ext.dispatch.tensor.store %399, %arg7, offsets = [], sizes = [], strides = [] : tensor<f32> -> !iree_tensor_ext.dispatch.tensor<writeonly:tensor<f32>>
      flow.return
    } count() -> (index, index, index) {
      %c1_2 = arith.constant 1 : index
      flow.return %c1_2, %c1_2, %c1_2 : index, index, index
    }
    %163 = flow.tensor.reshape %162 : tensor<f32> -> tensor<1xf32>
    %164 = flow.dispatch.workgroups(%160) : (tensor<2x2xf32>) -> tensor<2xf32> =
        (%arg6: !iree_tensor_ext.dispatch.tensor<readonly:tensor<2x2xf32>>, %arg7: !iree_tensor_ext.dispatch.tensor<writeonly:tensor<2xf32>>) {
      %c1_2 = arith.constant 1 : index
      %397 = iree_tensor_ext.dispatch.tensor.load %arg6, offsets = [0, 0], sizes = [2, 2], strides = [1, 1] : !iree_tensor_ext.dispatch.tensor<readonly:tensor<2x2xf32>> -> tensor<2x2xf32>
      %398 = tensor.empty() : tensor<2xf32>
      %399 = linalg.generic {indexing_maps = [#map10], iterator_types = ["parallel"]} outs(%398 : tensor<2xf32>) {
      ^bb0(%out: f32):
        %400 = linalg.index 0 : index
        %extracted = tensor.extract %397[%c1_2, %400] : tensor<2x2xf32>
        linalg.yield %extracted : f32
      } -> tensor<2xf32>
      iree_tensor_ext.dispatch.tensor.store %399, %arg7, offsets = [0], sizes = [2], strides = [1] : tensor<2xf32> -> !iree_tensor_ext.dispatch.tensor<writeonly:tensor<2xf32>>
      flow.return
    } count() -> (index, index, index) {
      %x, %y, %z = iree_tensor_ext.dispatch.workgroup_count_from_slice()
      flow.return %x, %y, %z : index, index, index
    }
    %165 = flow.dispatch.workgroups(%164) : (tensor<2xf32>) -> tensor<f32> =
        (%arg6: !iree_tensor_ext.dispatch.tensor<readonly:tensor<2xf32>>, %arg7: !iree_tensor_ext.dispatch.tensor<writeonly:tensor<f32>>) {
      %c1_2 = arith.constant 1 : index
      %397 = iree_tensor_ext.dispatch.tensor.load %arg6, offsets = [0], sizes = [2], strides = [1] : !iree_tensor_ext.dispatch.tensor<readonly:tensor<2xf32>> -> tensor<2xf32>
      %398 = tensor.empty() : tensor<f32>
      %399 = linalg.generic {indexing_maps = [#map], iterator_types = []} outs(%398 : tensor<f32>) {
      ^bb0(%out: f32):
        %extracted = tensor.extract %397[%c1_2] : tensor<2xf32>
        linalg.yield %extracted : f32
      } -> tensor<f32>
      iree_tensor_ext.dispatch.tensor.store %399, %arg7, offsets = [], sizes = [], strides = [] : tensor<f32> -> !iree_tensor_ext.dispatch.tensor<writeonly:tensor<f32>>
      flow.return
    } count() -> (index, index, index) {
      %c1_2 = arith.constant 1 : index
      flow.return %c1_2, %c1_2, %c1_2 : index, index, index
    }
    %166 = flow.tensor.reshape %165 : tensor<f32> -> tensor<1xf32>
    %167 = flow.dispatch.workgroups(%161, %164) : (tensor<2xf32>, tensor<2xf32>) -> tensor<f32> =
        (%arg6: !iree_tensor_ext.dispatch.tensor<readonly:tensor<2xf32>>, %arg7: !iree_tensor_ext.dispatch.tensor<readonly:tensor<2xf32>>, %arg8: !iree_tensor_ext.dispatch.tensor<writeonly:tensor<f32>>) {
      %cst_2 = arith.constant 9.99999997E-7 : f32
      %cst_3 = arith.constant 0.000000e+00 : f32
      %c0_4 = arith.constant 0 : index
      %c1_5 = arith.constant 1 : index
      %397 = iree_tensor_ext.dispatch.tensor.load %arg6, offsets = [0], sizes = [2], strides = [1] : !iree_tensor_ext.dispatch.tensor<readonly:tensor<2xf32>> -> tensor<2xf32>
      %398 = iree_tensor_ext.dispatch.tensor.load %arg7, offsets = [0], sizes = [2], strides = [1] : !iree_tensor_ext.dispatch.tensor<readonly:tensor<2xf32>> -> tensor<2xf32>
      %399 = tensor.empty() : tensor<f32>
      linalg.generic {indexing_maps = [], iterator_types = []} {
        %extracted = tensor.extract %397[%c0_4] : tensor<2xf32>
        %extracted_6 = tensor.extract %398[%c1_5] : tensor<2xf32>
        %extracted_7 = tensor.extract %397[%c1_5] : tensor<2xf32>
        %extracted_8 = tensor.extract %398[%c0_4] : tensor<2xf32>
        %401 = arith.mulf %extracted_7, %extracted_8 : f32
        %402 = arith.mulf %extracted, %extracted_6 : f32
        %403 = arith.subf %402, %401 : f32
        %404 = arith.addf %403, %cst_2 : f32
        %405 = arith.cmpf one, %404, %cst_3 : f32
        cf.assert %405, "unimplemented: tensor with zero element"
        linalg.yield
      }
      %400 = linalg.generic {indexing_maps = [#map], iterator_types = []} outs(%399 : tensor<f32>) {
      ^bb0(%out: f32):
        %extracted = tensor.extract %397[%c1_5] : tensor<2xf32>
        %401 = arith.negf %extracted : f32
        linalg.yield %401 : f32
      } -> tensor<f32>
      iree_tensor_ext.dispatch.tensor.store %400, %arg8, offsets = [], sizes = [], strides = [] : tensor<f32> -> !iree_tensor_ext.dispatch.tensor<writeonly:tensor<f32>>
      flow.return
    } count() -> (index, index, index) {
      %c1_2 = arith.constant 1 : index
      flow.return %c1_2, %c1_2, %c1_2 : index, index, index
    }
    %168 = flow.tensor.reshape %167 : tensor<f32> -> tensor<1xf32>
    %169 = flow.tensor.update %166, %22[%c0] : tensor<1xf32> -> %22 as tensor<2xf32>
    %170 = flow.tensor.update %168, %169[%c1] : tensor<1xf32> -> %169 as tensor<2xf32>
    %171 = flow.dispatch.workgroups(%164) : (tensor<2xf32>) -> tensor<f32> =
        (%arg6: !iree_tensor_ext.dispatch.tensor<readonly:tensor<2xf32>>, %arg7: !iree_tensor_ext.dispatch.tensor<writeonly:tensor<f32>>) {
      %c0_2 = arith.constant 0 : index
      %397 = iree_tensor_ext.dispatch.tensor.load %arg6, offsets = [0], sizes = [2], strides = [1] : !iree_tensor_ext.dispatch.tensor<readonly:tensor<2xf32>> -> tensor<2xf32>
      %398 = tensor.empty() : tensor<f32>
      %399 = linalg.generic {indexing_maps = [#map], iterator_types = []} outs(%398 : tensor<f32>) {
      ^bb0(%out: f32):
        %extracted = tensor.extract %397[%c0_2] : tensor<2xf32>
        %400 = arith.negf %extracted : f32
        linalg.yield %400 : f32
      } -> tensor<f32>
      iree_tensor_ext.dispatch.tensor.store %399, %arg7, offsets = [], sizes = [], strides = [] : tensor<f32> -> !iree_tensor_ext.dispatch.tensor<writeonly:tensor<f32>>
      flow.return
    } count() -> (index, index, index) {
      %c1_2 = arith.constant 1 : index
      flow.return %c1_2, %c1_2, %c1_2 : index, index, index
    }
    %172 = flow.tensor.reshape %171 : tensor<f32> -> tensor<1xf32>
    %173 = flow.tensor.update %172, %22[%c0] : tensor<1xf32> -> %22 as tensor<2xf32>
    %174 = flow.tensor.update %163, %173[%c1] : tensor<1xf32> -> %173 as tensor<2xf32>
    %175 = flow.tensor.reshape %170 : tensor<2xf32> -> tensor<1x2xf32>
    %176 = flow.tensor.reshape %174 : tensor<2xf32> -> tensor<1x2xf32>
    %177 = flow.tensor.update %175, %37[%c0, %c0] : tensor<1x2xf32> -> %37 as tensor<2x2xf32>
    %178 = flow.tensor.update %176, %177[%c1, %c0] : tensor<1x2xf32> -> %177 as tensor<2x2xf32>
    %179 = flow.dispatch.workgroups(%161, %164, %178) : (tensor<2xf32>, tensor<2xf32>, tensor<2x2xf32>) -> tensor<1x2x8x1xf32> =
        (%arg6: !iree_tensor_ext.dispatch.tensor<readonly:tensor<2xf32>>, %arg7: !iree_tensor_ext.dispatch.tensor<readonly:tensor<2xf32>>, %arg8: !iree_tensor_ext.dispatch.tensor<readonly:tensor<2x2xf32>>, %arg9: !iree_tensor_ext.dispatch.tensor<writeonly:tensor<1x2x8x1xf32>>) {
      %cst_2 = arith.constant 9.99999997E-7 : f32
      %cst_3 = arith.constant 0.000000e+00 : f32
      %cst_4 = arith.constant 1.000000e+00 : f32
      %c0_5 = arith.constant 0 : index
      %c1_6 = arith.constant 1 : index
      %397 = iree_tensor_ext.dispatch.tensor.load %arg6, offsets = [0], sizes = [2], strides = [1] : !iree_tensor_ext.dispatch.tensor<readonly:tensor<2xf32>> -> tensor<2xf32>
      %398 = iree_tensor_ext.dispatch.tensor.load %arg7, offsets = [0], sizes = [2], strides = [1] : !iree_tensor_ext.dispatch.tensor<readonly:tensor<2xf32>> -> tensor<2xf32>
      %399 = iree_tensor_ext.dispatch.tensor.load %arg8, offsets = [0, 0], sizes = [2, 2], strides = [1, 1] : !iree_tensor_ext.dispatch.tensor<readonly:tensor<2x2xf32>> -> tensor<2x2xf32>
      %400 = tensor.empty() : tensor<1x2x8x1xf32>
      %401 = tensor.empty() : tensor<2x2xf32>
      %402 = linalg.generic {indexing_maps = [#map9, #map9], iterator_types = ["parallel", "parallel"]} ins(%399 : tensor<2x2xf32>) outs(%401 : tensor<2x2xf32>) {
      ^bb0(%in: f32, %out: f32):
        %extracted = tensor.extract %397[%c0_5] : tensor<2xf32>
        %extracted_7 = tensor.extract %398[%c1_6] : tensor<2xf32>
        %extracted_8 = tensor.extract %397[%c1_6] : tensor<2xf32>
        %extracted_9 = tensor.extract %398[%c0_5] : tensor<2xf32>
        %403 = arith.mulf %extracted_8, %extracted_9 : f32
        %404 = arith.mulf %extracted, %extracted_7 : f32
        %405 = arith.subf %404, %403 : f32
        %406 = arith.addf %405, %cst_2 : f32
        %407 = arith.cmpf one, %406, %cst_3 : f32
        cf.assert %407, "unimplemented: tensor with zero element"
        %408 = arith.divf %cst_4, %406 : f32
        %409 = arith.mulf %in, %408 : f32
        linalg.yield %409 : f32
      } -> tensor<2x2xf32>
      %pack = linalg.pack %402 padding_value(%cst_3 : f32) outer_dims_perm = [0, 1] inner_dims_pos = [0, 1] inner_tiles = [8, 1] into %400 : tensor<2x2xf32> -> tensor<1x2x8x1xf32>
      iree_tensor_ext.dispatch.tensor.store %pack, %arg9, offsets = [0, 0, 0, 0], sizes = [1, 2, 8, 1], strides = [1, 1, 1, 1] : tensor<1x2x8x1xf32> -> !iree_tensor_ext.dispatch.tensor<writeonly:tensor<1x2x8x1xf32>>
      flow.return
    } count() -> (index, index, index) {
      %x, %y, %z = iree_tensor_ext.dispatch.workgroup_count_from_slice()
      flow.return %x, %y, %z : index, index, index
    }
    %180 = flow.dispatch.workgroups(%149, %179) : (tensor<1x2x1x1xf32>, tensor<1x2x8x1xf32>) -> tensor<1x1x1x8xf32> =
        (%arg6: !iree_tensor_ext.dispatch.tensor<readonly:tensor<1x2x1x1xf32>>, %arg7: !iree_tensor_ext.dispatch.tensor<readonly:tensor<1x2x8x1xf32>>, %arg8: !iree_tensor_ext.dispatch.tensor<writeonly:tensor<1x1x1x8xf32>>) {
      %cst_2 = arith.constant 0.000000e+00 : f32
      %397 = iree_tensor_ext.dispatch.tensor.load %arg6, offsets = [0, 0, 0, 0], sizes = [1, 2, 1, 1], strides = [1, 1, 1, 1] : !iree_tensor_ext.dispatch.tensor<readonly:tensor<1x2x1x1xf32>> -> tensor<1x2x1x1xf32>
      %398 = iree_tensor_ext.dispatch.tensor.load %arg7, offsets = [0, 0, 0, 0], sizes = [1, 2, 8, 1], strides = [1, 1, 1, 1] : !iree_tensor_ext.dispatch.tensor<readonly:tensor<1x2x8x1xf32>> -> tensor<1x2x8x1xf32>
      %399 = tensor.empty() : tensor<1x1x1x8xf32>
      %400 = linalg.fill ins(%cst_2 : f32) outs(%399 : tensor<1x1x1x8xf32>) -> tensor<1x1x1x8xf32>
      %401 = linalg.mmt4d ins(%397, %398 : tensor<1x2x1x1xf32>, tensor<1x2x8x1xf32>) outs(%400 : tensor<1x1x1x8xf32>) -> tensor<1x1x1x8xf32>
      iree_tensor_ext.dispatch.tensor.store %401, %arg8, offsets = [0, 0, 0, 0], sizes = [1, 1, 1, 8], strides = [1, 1, 1, 1] : tensor<1x1x1x8xf32> -> !iree_tensor_ext.dispatch.tensor<writeonly:tensor<1x1x1x8xf32>>
      flow.return
    } count() -> (index, index, index) {
      %x, %y, %z = iree_tensor_ext.dispatch.workgroup_count_from_slice()
      flow.return %x, %y, %z : index, index, index
    }
    %181 = flow.tensor.reshape %180 : tensor<1x1x1x8xf32> -> tensor<1x8xf32>
    %182 = flow.dispatch.workgroups(%181, %142) : (tensor<1x8xf32>, tensor<2xf32>) -> tensor<2xf32> =
        (%arg6: !iree_tensor_ext.dispatch.tensor<readonly:tensor<1x8xf32>>, %arg7: !iree_tensor_ext.dispatch.tensor<readonly:tensor<2xf32>>, %arg8: !iree_tensor_ext.dispatch.tensor<writeonly:tensor<2xf32>>) {
      %cst_2 = arith.constant 1.000000e-01 : f32
      %397 = iree_tensor_ext.dispatch.tensor.load %arg6, offsets = [0, 0], sizes = [1, 8], strides = [1, 1] : !iree_tensor_ext.dispatch.tensor<readonly:tensor<1x8xf32>> -> tensor<1x8xf32>
      %398 = iree_tensor_ext.dispatch.tensor.load %arg7, offsets = [0], sizes = [2], strides = [1] : !iree_tensor_ext.dispatch.tensor<readonly:tensor<2xf32>> -> tensor<2xf32>
      %399 = tensor.empty() : tensor<2xf32>
      %unpack = linalg.unpack %397 outer_dims_perm = [0] inner_dims_pos = [0] inner_tiles = [8] into %399 : tensor<1x8xf32> -> tensor<2xf32>
      %400 = linalg.generic {indexing_maps = [#map10, #map10, #map10], iterator_types = ["parallel"]} ins(%398, %unpack : tensor<2xf32>, tensor<2xf32>) outs(%399 : tensor<2xf32>) {
      ^bb0(%in: f32, %in_3: f32, %out: f32):
        %401 = arith.mulf %in_3, %cst_2 : f32
        %402 = arith.addf %in, %401 : f32
        linalg.yield %402 : f32
      } -> tensor<2xf32>
      iree_tensor_ext.dispatch.tensor.store %400, %arg8, offsets = [0], sizes = [2], strides = [1] : tensor<2xf32> -> !iree_tensor_ext.dispatch.tensor<writeonly:tensor<2xf32>>
      flow.return
    } count() -> (index, index, index) {
      %x, %y, %z = iree_tensor_ext.dispatch.workgroup_count_from_slice()
      flow.return %x, %y, %z : index, index, index
    }
    %183:3 = flow.dispatch.workgroups(%182) : (tensor<2xf32>) -> (tensor<f32>, tensor<f32>, tensor<f32>) =
        (%arg6: !iree_tensor_ext.dispatch.tensor<readonly:tensor<2xf32>>, %arg7: !iree_tensor_ext.dispatch.tensor<writeonly:tensor<f32>>, %arg8: !iree_tensor_ext.dispatch.tensor<writeonly:tensor<f32>>, %arg9: !iree_tensor_ext.dispatch.tensor<writeonly:tensor<f32>>) {
      %c0_2 = arith.constant 0 : index
      %c1_3 = arith.constant 1 : index
      %397 = iree_tensor_ext.dispatch.tensor.load %arg6, offsets = [0], sizes = [2], strides = [1] : !iree_tensor_ext.dispatch.tensor<readonly:tensor<2xf32>> -> tensor<2xf32>
      %398 = tensor.empty() : tensor<f32>
      %399 = linalg.generic {indexing_maps = [#map], iterator_types = []} outs(%398 : tensor<f32>) {
      ^bb0(%out: f32):
        %extracted = tensor.extract %397[%c0_2] : tensor<2xf32>
        %extracted_4 = tensor.extract %397[%c1_3] : tensor<2xf32>
        %402 = arith.addf %extracted, %extracted_4 : f32
        %403 = math.cos %402 : f32
        %404 = math.cos %extracted : f32
        %405 = arith.addf %404, %403 : f32
        linalg.yield %405 : f32
      } -> tensor<f32>
      %400 = linalg.generic {indexing_maps = [#map], iterator_types = []} outs(%398 : tensor<f32>) {
      ^bb0(%out: f32):
        %extracted = tensor.extract %397[%c0_2] : tensor<2xf32>
        %extracted_4 = tensor.extract %397[%c1_3] : tensor<2xf32>
        %402 = arith.addf %extracted, %extracted_4 : f32
        %403 = math.cos %402 : f32
        linalg.yield %403 : f32
      } -> tensor<f32>
      %401 = linalg.generic {indexing_maps = [#map], iterator_types = []} outs(%398 : tensor<f32>) {
      ^bb0(%out: f32):
        %extracted = tensor.extract %397[%c0_2] : tensor<2xf32>
        %extracted_4 = tensor.extract %397[%c1_3] : tensor<2xf32>
        %402 = arith.addf %extracted, %extracted_4 : f32
        %403 = math.sin %402 : f32
        %404 = math.sin %extracted : f32
        %405 = arith.addf %404, %403 : f32
        linalg.yield %405 : f32
      } -> tensor<f32>
      iree_tensor_ext.dispatch.tensor.store %401, %arg7, offsets = [], sizes = [], strides = [] : tensor<f32> -> !iree_tensor_ext.dispatch.tensor<writeonly:tensor<f32>>
      iree_tensor_ext.dispatch.tensor.store %400, %arg8, offsets = [], sizes = [], strides = [] : tensor<f32> -> !iree_tensor_ext.dispatch.tensor<writeonly:tensor<f32>>
      iree_tensor_ext.dispatch.tensor.store %399, %arg9, offsets = [], sizes = [], strides = [] : tensor<f32> -> !iree_tensor_ext.dispatch.tensor<writeonly:tensor<f32>>
      flow.return
    } count() -> (index, index, index) {
      %c1_2 = arith.constant 1 : index
      flow.return %c1_2, %c1_2, %c1_2 : index, index, index
    }
    %184 = flow.tensor.reshape %183#2 : tensor<f32> -> tensor<1xf32>
    %185 = flow.tensor.reshape %183#0 : tensor<f32> -> tensor<1xf32>
    %186 = flow.tensor.update %184, %22[%c0] : tensor<1xf32> -> %22 as tensor<2xf32>
    %187 = flow.tensor.update %185, %186[%c1] : tensor<1xf32> -> %186 as tensor<2xf32>
    %188 = flow.dispatch.workgroups(%67, %187) : (tensor<2xf32>, tensor<2xf32>) -> tensor<2xf32> =
        (%arg6: !iree_tensor_ext.dispatch.tensor<readonly:tensor<2xf32>>, %arg7: !iree_tensor_ext.dispatch.tensor<readonly:tensor<2xf32>>, %arg8: !iree_tensor_ext.dispatch.tensor<writeonly:tensor<2xf32>>) {
      %397 = iree_tensor_ext.dispatch.tensor.load %arg6, offsets = [0], sizes = [2], strides = [1] : !iree_tensor_ext.dispatch.tensor<readonly:tensor<2xf32>> -> tensor<2xf32>
      %398 = iree_tensor_ext.dispatch.tensor.load %arg7, offsets = [0], sizes = [2], strides = [1] : !iree_tensor_ext.dispatch.tensor<readonly:tensor<2xf32>> -> tensor<2xf32>
      %399 = tensor.empty() : tensor<2xf32>
      %400 = linalg.generic {indexing_maps = [#map10, #map10, #map10], iterator_types = ["parallel"]} ins(%397, %398 : tensor<2xf32>, tensor<2xf32>) outs(%399 : tensor<2xf32>) {
      ^bb0(%in: f32, %in_2: f32, %out: f32):
        %401 = arith.subf %in, %in_2 : f32
        linalg.yield %401 : f32
      } -> tensor<2xf32>
      iree_tensor_ext.dispatch.tensor.store %400, %arg8, offsets = [0], sizes = [2], strides = [1] : tensor<2xf32> -> !iree_tensor_ext.dispatch.tensor<writeonly:tensor<2xf32>>
      flow.return
    } count() -> (index, index, index) {
      %x, %y, %z = iree_tensor_ext.dispatch.workgroup_count_from_slice()
      flow.return %x, %y, %z : index, index, index
    }
    %189 = flow.tensor.reshape %188 : tensor<2xf32> -> tensor<1x2x1x1xf32>
    %190:2 = flow.dispatch.workgroups(%182) : (tensor<2xf32>) -> (tensor<f32>, tensor<f32>) =
        (%arg6: !iree_tensor_ext.dispatch.tensor<readonly:tensor<2xf32>>, %arg7: !iree_tensor_ext.dispatch.tensor<writeonly:tensor<f32>>, %arg8: !iree_tensor_ext.dispatch.tensor<writeonly:tensor<f32>>) {
      %cst_2 = arith.constant -1.000000e+00 : f32
      %c0_3 = arith.constant 0 : index
      %c1_4 = arith.constant 1 : index
      %397 = iree_tensor_ext.dispatch.tensor.load %arg6, offsets = [0], sizes = [2], strides = [1] : !iree_tensor_ext.dispatch.tensor<readonly:tensor<2xf32>> -> tensor<2xf32>
      %398 = tensor.empty() : tensor<f32>
      %399 = linalg.generic {indexing_maps = [#map], iterator_types = []} outs(%398 : tensor<f32>) {
      ^bb0(%out: f32):
        %extracted = tensor.extract %397[%c0_3] : tensor<2xf32>
        %extracted_5 = tensor.extract %397[%c1_4] : tensor<2xf32>
        %401 = arith.addf %extracted, %extracted_5 : f32
        %402 = math.sin %401 : f32
        %403 = math.sin %extracted : f32
        %404 = arith.mulf %403, %cst_2 : f32
        %405 = arith.subf %404, %402 : f32
        linalg.yield %405 : f32
      } -> tensor<f32>
      %400 = linalg.generic {indexing_maps = [#map], iterator_types = []} outs(%398 : tensor<f32>) {
      ^bb0(%out: f32):
        %extracted = tensor.extract %397[%c0_3] : tensor<2xf32>
        %extracted_5 = tensor.extract %397[%c1_4] : tensor<2xf32>
        %401 = arith.addf %extracted, %extracted_5 : f32
        %402 = math.sin %401 : f32
        %403 = arith.mulf %402, %cst_2 : f32
        linalg.yield %403 : f32
      } -> tensor<f32>
      iree_tensor_ext.dispatch.tensor.store %400, %arg7, offsets = [], sizes = [], strides = [] : tensor<f32> -> !iree_tensor_ext.dispatch.tensor<writeonly:tensor<f32>>
      iree_tensor_ext.dispatch.tensor.store %399, %arg8, offsets = [], sizes = [], strides = [] : tensor<f32> -> !iree_tensor_ext.dispatch.tensor<writeonly:tensor<f32>>
      flow.return
    } count() -> (index, index, index) {
      %c1_2 = arith.constant 1 : index
      flow.return %c1_2, %c1_2, %c1_2 : index, index, index
    }
    %191 = flow.tensor.reshape %190#1 : tensor<f32> -> tensor<1xf32>
    %192 = flow.tensor.reshape %190#0 : tensor<f32> -> tensor<1xf32>
    %193 = flow.tensor.update %191, %22[%c0] : tensor<1xf32> -> %22 as tensor<2xf32>
    %194 = flow.tensor.update %192, %193[%c1] : tensor<1xf32> -> %193 as tensor<2xf32>
    %195 = flow.tensor.reshape %183#1 : tensor<f32> -> tensor<1xf32>
    %196 = flow.tensor.update %195, %186[%c1] : tensor<1xf32> -> %186 as tensor<2xf32>
    %197 = flow.tensor.reshape %194 : tensor<2xf32> -> tensor<1x2xf32>
    %198 = flow.tensor.reshape %196 : tensor<2xf32> -> tensor<1x2xf32>
    %199 = flow.tensor.update %197, %37[%c0, %c0] : tensor<1x2xf32> -> %37 as tensor<2x2xf32>
    %200 = flow.tensor.update %198, %199[%c1, %c0] : tensor<1x2xf32> -> %199 as tensor<2x2xf32>
    %201 = flow.dispatch.workgroups(%200) : (tensor<2x2xf32>) -> tensor<2xf32> =
        (%arg6: !iree_tensor_ext.dispatch.tensor<readonly:tensor<2x2xf32>>, %arg7: !iree_tensor_ext.dispatch.tensor<writeonly:tensor<2xf32>>) {
      %c0_2 = arith.constant 0 : index
      %397 = iree_tensor_ext.dispatch.tensor.load %arg6, offsets = [0, 0], sizes = [2, 2], strides = [1, 1] : !iree_tensor_ext.dispatch.tensor<readonly:tensor<2x2xf32>> -> tensor<2x2xf32>
      %398 = tensor.empty() : tensor<2xf32>
      %399 = linalg.generic {indexing_maps = [#map10], iterator_types = ["parallel"]} outs(%398 : tensor<2xf32>) {
      ^bb0(%out: f32):
        %400 = linalg.index 0 : index
        %extracted = tensor.extract %397[%c0_2, %400] : tensor<2x2xf32>
        linalg.yield %extracted : f32
      } -> tensor<2xf32>
      iree_tensor_ext.dispatch.tensor.store %399, %arg7, offsets = [0], sizes = [2], strides = [1] : tensor<2xf32> -> !iree_tensor_ext.dispatch.tensor<writeonly:tensor<2xf32>>
      flow.return
    } count() -> (index, index, index) {
      %x, %y, %z = iree_tensor_ext.dispatch.workgroup_count_from_slice()
      flow.return %x, %y, %z : index, index, index
    }
    %202 = flow.dispatch.workgroups(%201) : (tensor<2xf32>) -> tensor<f32> =
        (%arg6: !iree_tensor_ext.dispatch.tensor<readonly:tensor<2xf32>>, %arg7: !iree_tensor_ext.dispatch.tensor<writeonly:tensor<f32>>) {
      %c0_2 = arith.constant 0 : index
      %397 = iree_tensor_ext.dispatch.tensor.load %arg6, offsets = [0], sizes = [2], strides = [1] : !iree_tensor_ext.dispatch.tensor<readonly:tensor<2xf32>> -> tensor<2xf32>
      %398 = tensor.empty() : tensor<f32>
      %399 = linalg.generic {indexing_maps = [#map], iterator_types = []} outs(%398 : tensor<f32>) {
      ^bb0(%out: f32):
        %extracted = tensor.extract %397[%c0_2] : tensor<2xf32>
        linalg.yield %extracted : f32
      } -> tensor<f32>
      iree_tensor_ext.dispatch.tensor.store %399, %arg7, offsets = [], sizes = [], strides = [] : tensor<f32> -> !iree_tensor_ext.dispatch.tensor<writeonly:tensor<f32>>
      flow.return
    } count() -> (index, index, index) {
      %c1_2 = arith.constant 1 : index
      flow.return %c1_2, %c1_2, %c1_2 : index, index, index
    }
    %203 = flow.tensor.reshape %202 : tensor<f32> -> tensor<1xf32>
    %204 = flow.dispatch.workgroups(%200) : (tensor<2x2xf32>) -> tensor<2xf32> =
        (%arg6: !iree_tensor_ext.dispatch.tensor<readonly:tensor<2x2xf32>>, %arg7: !iree_tensor_ext.dispatch.tensor<writeonly:tensor<2xf32>>) {
      %c1_2 = arith.constant 1 : index
      %397 = iree_tensor_ext.dispatch.tensor.load %arg6, offsets = [0, 0], sizes = [2, 2], strides = [1, 1] : !iree_tensor_ext.dispatch.tensor<readonly:tensor<2x2xf32>> -> tensor<2x2xf32>
      %398 = tensor.empty() : tensor<2xf32>
      %399 = linalg.generic {indexing_maps = [#map10], iterator_types = ["parallel"]} outs(%398 : tensor<2xf32>) {
      ^bb0(%out: f32):
        %400 = linalg.index 0 : index
        %extracted = tensor.extract %397[%c1_2, %400] : tensor<2x2xf32>
        linalg.yield %extracted : f32
      } -> tensor<2xf32>
      iree_tensor_ext.dispatch.tensor.store %399, %arg7, offsets = [0], sizes = [2], strides = [1] : tensor<2xf32> -> !iree_tensor_ext.dispatch.tensor<writeonly:tensor<2xf32>>
      flow.return
    } count() -> (index, index, index) {
      %x, %y, %z = iree_tensor_ext.dispatch.workgroup_count_from_slice()
      flow.return %x, %y, %z : index, index, index
    }
    %205 = flow.dispatch.workgroups(%204) : (tensor<2xf32>) -> tensor<f32> =
        (%arg6: !iree_tensor_ext.dispatch.tensor<readonly:tensor<2xf32>>, %arg7: !iree_tensor_ext.dispatch.tensor<writeonly:tensor<f32>>) {
      %c1_2 = arith.constant 1 : index
      %397 = iree_tensor_ext.dispatch.tensor.load %arg6, offsets = [0], sizes = [2], strides = [1] : !iree_tensor_ext.dispatch.tensor<readonly:tensor<2xf32>> -> tensor<2xf32>
      %398 = tensor.empty() : tensor<f32>
      %399 = linalg.generic {indexing_maps = [#map], iterator_types = []} outs(%398 : tensor<f32>) {
      ^bb0(%out: f32):
        %extracted = tensor.extract %397[%c1_2] : tensor<2xf32>
        linalg.yield %extracted : f32
      } -> tensor<f32>
      iree_tensor_ext.dispatch.tensor.store %399, %arg7, offsets = [], sizes = [], strides = [] : tensor<f32> -> !iree_tensor_ext.dispatch.tensor<writeonly:tensor<f32>>
      flow.return
    } count() -> (index, index, index) {
      %c1_2 = arith.constant 1 : index
      flow.return %c1_2, %c1_2, %c1_2 : index, index, index
    }
    %206 = flow.tensor.reshape %205 : tensor<f32> -> tensor<1xf32>
    %207 = flow.dispatch.workgroups(%201, %204) : (tensor<2xf32>, tensor<2xf32>) -> tensor<f32> =
        (%arg6: !iree_tensor_ext.dispatch.tensor<readonly:tensor<2xf32>>, %arg7: !iree_tensor_ext.dispatch.tensor<readonly:tensor<2xf32>>, %arg8: !iree_tensor_ext.dispatch.tensor<writeonly:tensor<f32>>) {
      %cst_2 = arith.constant 9.99999997E-7 : f32
      %cst_3 = arith.constant 0.000000e+00 : f32
      %c0_4 = arith.constant 0 : index
      %c1_5 = arith.constant 1 : index
      %397 = iree_tensor_ext.dispatch.tensor.load %arg6, offsets = [0], sizes = [2], strides = [1] : !iree_tensor_ext.dispatch.tensor<readonly:tensor<2xf32>> -> tensor<2xf32>
      %398 = iree_tensor_ext.dispatch.tensor.load %arg7, offsets = [0], sizes = [2], strides = [1] : !iree_tensor_ext.dispatch.tensor<readonly:tensor<2xf32>> -> tensor<2xf32>
      %399 = tensor.empty() : tensor<f32>
      linalg.generic {indexing_maps = [], iterator_types = []} {
        %extracted = tensor.extract %397[%c0_4] : tensor<2xf32>
        %extracted_6 = tensor.extract %398[%c1_5] : tensor<2xf32>
        %extracted_7 = tensor.extract %397[%c1_5] : tensor<2xf32>
        %extracted_8 = tensor.extract %398[%c0_4] : tensor<2xf32>
        %401 = arith.mulf %extracted_7, %extracted_8 : f32
        %402 = arith.mulf %extracted, %extracted_6 : f32
        %403 = arith.subf %402, %401 : f32
        %404 = arith.addf %403, %cst_2 : f32
        %405 = arith.cmpf one, %404, %cst_3 : f32
        cf.assert %405, "unimplemented: tensor with zero element"
        linalg.yield
      }
      %400 = linalg.generic {indexing_maps = [#map], iterator_types = []} outs(%399 : tensor<f32>) {
      ^bb0(%out: f32):
        %extracted = tensor.extract %397[%c1_5] : tensor<2xf32>
        %401 = arith.negf %extracted : f32
        linalg.yield %401 : f32
      } -> tensor<f32>
      iree_tensor_ext.dispatch.tensor.store %400, %arg8, offsets = [], sizes = [], strides = [] : tensor<f32> -> !iree_tensor_ext.dispatch.tensor<writeonly:tensor<f32>>
      flow.return
    } count() -> (index, index, index) {
      %c1_2 = arith.constant 1 : index
      flow.return %c1_2, %c1_2, %c1_2 : index, index, index
    }
    %208 = flow.tensor.reshape %207 : tensor<f32> -> tensor<1xf32>
    %209 = flow.tensor.update %206, %22[%c0] : tensor<1xf32> -> %22 as tensor<2xf32>
    %210 = flow.tensor.update %208, %209[%c1] : tensor<1xf32> -> %209 as tensor<2xf32>
    %211 = flow.dispatch.workgroups(%204) : (tensor<2xf32>) -> tensor<f32> =
        (%arg6: !iree_tensor_ext.dispatch.tensor<readonly:tensor<2xf32>>, %arg7: !iree_tensor_ext.dispatch.tensor<writeonly:tensor<f32>>) {
      %c0_2 = arith.constant 0 : index
      %397 = iree_tensor_ext.dispatch.tensor.load %arg6, offsets = [0], sizes = [2], strides = [1] : !iree_tensor_ext.dispatch.tensor<readonly:tensor<2xf32>> -> tensor<2xf32>
      %398 = tensor.empty() : tensor<f32>
      %399 = linalg.generic {indexing_maps = [#map], iterator_types = []} outs(%398 : tensor<f32>) {
      ^bb0(%out: f32):
        %extracted = tensor.extract %397[%c0_2] : tensor<2xf32>
        %400 = arith.negf %extracted : f32
        linalg.yield %400 : f32
      } -> tensor<f32>
      iree_tensor_ext.dispatch.tensor.store %399, %arg7, offsets = [], sizes = [], strides = [] : tensor<f32> -> !iree_tensor_ext.dispatch.tensor<writeonly:tensor<f32>>
      flow.return
    } count() -> (index, index, index) {
      %c1_2 = arith.constant 1 : index
      flow.return %c1_2, %c1_2, %c1_2 : index, index, index
    }
    %212 = flow.tensor.reshape %211 : tensor<f32> -> tensor<1xf32>
    %213 = flow.tensor.update %212, %22[%c0] : tensor<1xf32> -> %22 as tensor<2xf32>
    %214 = flow.tensor.update %203, %213[%c1] : tensor<1xf32> -> %213 as tensor<2xf32>
    %215 = flow.tensor.reshape %210 : tensor<2xf32> -> tensor<1x2xf32>
    %216 = flow.tensor.reshape %214 : tensor<2xf32> -> tensor<1x2xf32>
    %217 = flow.tensor.update %215, %37[%c0, %c0] : tensor<1x2xf32> -> %37 as tensor<2x2xf32>
    %218 = flow.tensor.update %216, %217[%c1, %c0] : tensor<1x2xf32> -> %217 as tensor<2x2xf32>
    %219 = flow.dispatch.workgroups(%201, %204, %218) : (tensor<2xf32>, tensor<2xf32>, tensor<2x2xf32>) -> tensor<1x2x8x1xf32> =
        (%arg6: !iree_tensor_ext.dispatch.tensor<readonly:tensor<2xf32>>, %arg7: !iree_tensor_ext.dispatch.tensor<readonly:tensor<2xf32>>, %arg8: !iree_tensor_ext.dispatch.tensor<readonly:tensor<2x2xf32>>, %arg9: !iree_tensor_ext.dispatch.tensor<writeonly:tensor<1x2x8x1xf32>>) {
      %cst_2 = arith.constant 9.99999997E-7 : f32
      %cst_3 = arith.constant 0.000000e+00 : f32
      %cst_4 = arith.constant 1.000000e+00 : f32
      %c0_5 = arith.constant 0 : index
      %c1_6 = arith.constant 1 : index
      %397 = iree_tensor_ext.dispatch.tensor.load %arg6, offsets = [0], sizes = [2], strides = [1] : !iree_tensor_ext.dispatch.tensor<readonly:tensor<2xf32>> -> tensor<2xf32>
      %398 = iree_tensor_ext.dispatch.tensor.load %arg7, offsets = [0], sizes = [2], strides = [1] : !iree_tensor_ext.dispatch.tensor<readonly:tensor<2xf32>> -> tensor<2xf32>
      %399 = iree_tensor_ext.dispatch.tensor.load %arg8, offsets = [0, 0], sizes = [2, 2], strides = [1, 1] : !iree_tensor_ext.dispatch.tensor<readonly:tensor<2x2xf32>> -> tensor<2x2xf32>
      %400 = tensor.empty() : tensor<1x2x8x1xf32>
      %401 = tensor.empty() : tensor<2x2xf32>
      %402 = linalg.generic {indexing_maps = [#map9, #map9], iterator_types = ["parallel", "parallel"]} ins(%399 : tensor<2x2xf32>) outs(%401 : tensor<2x2xf32>) {
      ^bb0(%in: f32, %out: f32):
        %extracted = tensor.extract %397[%c0_5] : tensor<2xf32>
        %extracted_7 = tensor.extract %398[%c1_6] : tensor<2xf32>
        %extracted_8 = tensor.extract %397[%c1_6] : tensor<2xf32>
        %extracted_9 = tensor.extract %398[%c0_5] : tensor<2xf32>
        %403 = arith.mulf %extracted_8, %extracted_9 : f32
        %404 = arith.mulf %extracted, %extracted_7 : f32
        %405 = arith.subf %404, %403 : f32
        %406 = arith.addf %405, %cst_2 : f32
        %407 = arith.cmpf one, %406, %cst_3 : f32
        cf.assert %407, "unimplemented: tensor with zero element"
        %408 = arith.divf %cst_4, %406 : f32
        %409 = arith.mulf %in, %408 : f32
        linalg.yield %409 : f32
      } -> tensor<2x2xf32>
      %pack = linalg.pack %402 padding_value(%cst_3 : f32) outer_dims_perm = [0, 1] inner_dims_pos = [0, 1] inner_tiles = [8, 1] into %400 : tensor<2x2xf32> -> tensor<1x2x8x1xf32>
      iree_tensor_ext.dispatch.tensor.store %pack, %arg9, offsets = [0, 0, 0, 0], sizes = [1, 2, 8, 1], strides = [1, 1, 1, 1] : tensor<1x2x8x1xf32> -> !iree_tensor_ext.dispatch.tensor<writeonly:tensor<1x2x8x1xf32>>
      flow.return
    } count() -> (index, index, index) {
      %x, %y, %z = iree_tensor_ext.dispatch.workgroup_count_from_slice()
      flow.return %x, %y, %z : index, index, index
    }
    %220 = flow.dispatch.workgroups(%189, %219) : (tensor<1x2x1x1xf32>, tensor<1x2x8x1xf32>) -> tensor<1x1x1x8xf32> =
        (%arg6: !iree_tensor_ext.dispatch.tensor<readonly:tensor<1x2x1x1xf32>>, %arg7: !iree_tensor_ext.dispatch.tensor<readonly:tensor<1x2x8x1xf32>>, %arg8: !iree_tensor_ext.dispatch.tensor<writeonly:tensor<1x1x1x8xf32>>) {
      %cst_2 = arith.constant 0.000000e+00 : f32
      %397 = iree_tensor_ext.dispatch.tensor.load %arg6, offsets = [0, 0, 0, 0], sizes = [1, 2, 1, 1], strides = [1, 1, 1, 1] : !iree_tensor_ext.dispatch.tensor<readonly:tensor<1x2x1x1xf32>> -> tensor<1x2x1x1xf32>
      %398 = iree_tensor_ext.dispatch.tensor.load %arg7, offsets = [0, 0, 0, 0], sizes = [1, 2, 8, 1], strides = [1, 1, 1, 1] : !iree_tensor_ext.dispatch.tensor<readonly:tensor<1x2x8x1xf32>> -> tensor<1x2x8x1xf32>
      %399 = tensor.empty() : tensor<1x1x1x8xf32>
      %400 = linalg.fill ins(%cst_2 : f32) outs(%399 : tensor<1x1x1x8xf32>) -> tensor<1x1x1x8xf32>
      %401 = linalg.mmt4d ins(%397, %398 : tensor<1x2x1x1xf32>, tensor<1x2x8x1xf32>) outs(%400 : tensor<1x1x1x8xf32>) -> tensor<1x1x1x8xf32>
      iree_tensor_ext.dispatch.tensor.store %401, %arg8, offsets = [0, 0, 0, 0], sizes = [1, 1, 1, 8], strides = [1, 1, 1, 1] : tensor<1x1x1x8xf32> -> !iree_tensor_ext.dispatch.tensor<writeonly:tensor<1x1x1x8xf32>>
      flow.return
    } count() -> (index, index, index) {
      %x, %y, %z = iree_tensor_ext.dispatch.workgroup_count_from_slice()
      flow.return %x, %y, %z : index, index, index
    }
    %221 = flow.tensor.reshape %220 : tensor<1x1x1x8xf32> -> tensor<1x8xf32>
    %222 = flow.dispatch.workgroups(%221, %182) : (tensor<1x8xf32>, tensor<2xf32>) -> tensor<2xf32> =
        (%arg6: !iree_tensor_ext.dispatch.tensor<readonly:tensor<1x8xf32>>, %arg7: !iree_tensor_ext.dispatch.tensor<readonly:tensor<2xf32>>, %arg8: !iree_tensor_ext.dispatch.tensor<writeonly:tensor<2xf32>>) {
      %cst_2 = arith.constant 1.000000e-01 : f32
      %397 = iree_tensor_ext.dispatch.tensor.load %arg6, offsets = [0, 0], sizes = [1, 8], strides = [1, 1] : !iree_tensor_ext.dispatch.tensor<readonly:tensor<1x8xf32>> -> tensor<1x8xf32>
      %398 = iree_tensor_ext.dispatch.tensor.load %arg7, offsets = [0], sizes = [2], strides = [1] : !iree_tensor_ext.dispatch.tensor<readonly:tensor<2xf32>> -> tensor<2xf32>
      %399 = tensor.empty() : tensor<2xf32>
      %unpack = linalg.unpack %397 outer_dims_perm = [0] inner_dims_pos = [0] inner_tiles = [8] into %399 : tensor<1x8xf32> -> tensor<2xf32>
      %400 = linalg.generic {indexing_maps = [#map10, #map10, #map10], iterator_types = ["parallel"]} ins(%398, %unpack : tensor<2xf32>, tensor<2xf32>) outs(%399 : tensor<2xf32>) {
      ^bb0(%in: f32, %in_3: f32, %out: f32):
        %401 = arith.mulf %in_3, %cst_2 : f32
        %402 = arith.addf %in, %401 : f32
        linalg.yield %402 : f32
      } -> tensor<2xf32>
      iree_tensor_ext.dispatch.tensor.store %400, %arg8, offsets = [0], sizes = [2], strides = [1] : tensor<2xf32> -> !iree_tensor_ext.dispatch.tensor<writeonly:tensor<2xf32>>
      flow.return
    } count() -> (index, index, index) {
      %x, %y, %z = iree_tensor_ext.dispatch.workgroup_count_from_slice()
      flow.return %x, %y, %z : index, index, index
    }
    %223:3 = flow.dispatch.workgroups(%222) : (tensor<2xf32>) -> (tensor<f32>, tensor<f32>, tensor<f32>) =
        (%arg6: !iree_tensor_ext.dispatch.tensor<readonly:tensor<2xf32>>, %arg7: !iree_tensor_ext.dispatch.tensor<writeonly:tensor<f32>>, %arg8: !iree_tensor_ext.dispatch.tensor<writeonly:tensor<f32>>, %arg9: !iree_tensor_ext.dispatch.tensor<writeonly:tensor<f32>>) {
      %c0_2 = arith.constant 0 : index
      %c1_3 = arith.constant 1 : index
      %397 = iree_tensor_ext.dispatch.tensor.load %arg6, offsets = [0], sizes = [2], strides = [1] : !iree_tensor_ext.dispatch.tensor<readonly:tensor<2xf32>> -> tensor<2xf32>
      %398 = tensor.empty() : tensor<f32>
      %399 = linalg.generic {indexing_maps = [#map], iterator_types = []} outs(%398 : tensor<f32>) {
      ^bb0(%out: f32):
        %extracted = tensor.extract %397[%c0_2] : tensor<2xf32>
        %extracted_4 = tensor.extract %397[%c1_3] : tensor<2xf32>
        %402 = arith.addf %extracted, %extracted_4 : f32
        %403 = math.cos %402 : f32
        %404 = math.cos %extracted : f32
        %405 = arith.addf %404, %403 : f32
        linalg.yield %405 : f32
      } -> tensor<f32>
      %400 = linalg.generic {indexing_maps = [#map], iterator_types = []} outs(%398 : tensor<f32>) {
      ^bb0(%out: f32):
        %extracted = tensor.extract %397[%c0_2] : tensor<2xf32>
        %extracted_4 = tensor.extract %397[%c1_3] : tensor<2xf32>
        %402 = arith.addf %extracted, %extracted_4 : f32
        %403 = math.cos %402 : f32
        linalg.yield %403 : f32
      } -> tensor<f32>
      %401 = linalg.generic {indexing_maps = [#map], iterator_types = []} outs(%398 : tensor<f32>) {
      ^bb0(%out: f32):
        %extracted = tensor.extract %397[%c0_2] : tensor<2xf32>
        %extracted_4 = tensor.extract %397[%c1_3] : tensor<2xf32>
        %402 = arith.addf %extracted, %extracted_4 : f32
        %403 = math.sin %402 : f32
        %404 = math.sin %extracted : f32
        %405 = arith.addf %404, %403 : f32
        linalg.yield %405 : f32
      } -> tensor<f32>
      iree_tensor_ext.dispatch.tensor.store %401, %arg7, offsets = [], sizes = [], strides = [] : tensor<f32> -> !iree_tensor_ext.dispatch.tensor<writeonly:tensor<f32>>
      iree_tensor_ext.dispatch.tensor.store %400, %arg8, offsets = [], sizes = [], strides = [] : tensor<f32> -> !iree_tensor_ext.dispatch.tensor<writeonly:tensor<f32>>
      iree_tensor_ext.dispatch.tensor.store %399, %arg9, offsets = [], sizes = [], strides = [] : tensor<f32> -> !iree_tensor_ext.dispatch.tensor<writeonly:tensor<f32>>
      flow.return
    } count() -> (index, index, index) {
      %c1_2 = arith.constant 1 : index
      flow.return %c1_2, %c1_2, %c1_2 : index, index, index
    }
    %224 = flow.tensor.reshape %223#2 : tensor<f32> -> tensor<1xf32>
    %225 = flow.tensor.reshape %223#0 : tensor<f32> -> tensor<1xf32>
    %226 = flow.tensor.update %224, %22[%c0] : tensor<1xf32> -> %22 as tensor<2xf32>
    %227 = flow.tensor.update %225, %226[%c1] : tensor<1xf32> -> %226 as tensor<2xf32>
    %228 = flow.dispatch.workgroups(%67, %227) : (tensor<2xf32>, tensor<2xf32>) -> tensor<2xf32> =
        (%arg6: !iree_tensor_ext.dispatch.tensor<readonly:tensor<2xf32>>, %arg7: !iree_tensor_ext.dispatch.tensor<readonly:tensor<2xf32>>, %arg8: !iree_tensor_ext.dispatch.tensor<writeonly:tensor<2xf32>>) {
      %397 = iree_tensor_ext.dispatch.tensor.load %arg6, offsets = [0], sizes = [2], strides = [1] : !iree_tensor_ext.dispatch.tensor<readonly:tensor<2xf32>> -> tensor<2xf32>
      %398 = iree_tensor_ext.dispatch.tensor.load %arg7, offsets = [0], sizes = [2], strides = [1] : !iree_tensor_ext.dispatch.tensor<readonly:tensor<2xf32>> -> tensor<2xf32>
      %399 = tensor.empty() : tensor<2xf32>
      %400 = linalg.generic {indexing_maps = [#map10, #map10, #map10], iterator_types = ["parallel"]} ins(%397, %398 : tensor<2xf32>, tensor<2xf32>) outs(%399 : tensor<2xf32>) {
      ^bb0(%in: f32, %in_2: f32, %out: f32):
        %401 = arith.subf %in, %in_2 : f32
        linalg.yield %401 : f32
      } -> tensor<2xf32>
      iree_tensor_ext.dispatch.tensor.store %400, %arg8, offsets = [0], sizes = [2], strides = [1] : tensor<2xf32> -> !iree_tensor_ext.dispatch.tensor<writeonly:tensor<2xf32>>
      flow.return
    } count() -> (index, index, index) {
      %x, %y, %z = iree_tensor_ext.dispatch.workgroup_count_from_slice()
      flow.return %x, %y, %z : index, index, index
    }
    %229 = flow.tensor.reshape %228 : tensor<2xf32> -> tensor<1x2x1x1xf32>
    %230:2 = flow.dispatch.workgroups(%222) : (tensor<2xf32>) -> (tensor<f32>, tensor<f32>) =
        (%arg6: !iree_tensor_ext.dispatch.tensor<readonly:tensor<2xf32>>, %arg7: !iree_tensor_ext.dispatch.tensor<writeonly:tensor<f32>>, %arg8: !iree_tensor_ext.dispatch.tensor<writeonly:tensor<f32>>) {
      %cst_2 = arith.constant -1.000000e+00 : f32
      %c0_3 = arith.constant 0 : index
      %c1_4 = arith.constant 1 : index
      %397 = iree_tensor_ext.dispatch.tensor.load %arg6, offsets = [0], sizes = [2], strides = [1] : !iree_tensor_ext.dispatch.tensor<readonly:tensor<2xf32>> -> tensor<2xf32>
      %398 = tensor.empty() : tensor<f32>
      %399 = linalg.generic {indexing_maps = [#map], iterator_types = []} outs(%398 : tensor<f32>) {
      ^bb0(%out: f32):
        %extracted = tensor.extract %397[%c0_3] : tensor<2xf32>
        %extracted_5 = tensor.extract %397[%c1_4] : tensor<2xf32>
        %401 = arith.addf %extracted, %extracted_5 : f32
        %402 = math.sin %401 : f32
        %403 = math.sin %extracted : f32
        %404 = arith.mulf %403, %cst_2 : f32
        %405 = arith.subf %404, %402 : f32
        linalg.yield %405 : f32
      } -> tensor<f32>
      %400 = linalg.generic {indexing_maps = [#map], iterator_types = []} outs(%398 : tensor<f32>) {
      ^bb0(%out: f32):
        %extracted = tensor.extract %397[%c0_3] : tensor<2xf32>
        %extracted_5 = tensor.extract %397[%c1_4] : tensor<2xf32>
        %401 = arith.addf %extracted, %extracted_5 : f32
        %402 = math.sin %401 : f32
        %403 = arith.mulf %402, %cst_2 : f32
        linalg.yield %403 : f32
      } -> tensor<f32>
      iree_tensor_ext.dispatch.tensor.store %400, %arg7, offsets = [], sizes = [], strides = [] : tensor<f32> -> !iree_tensor_ext.dispatch.tensor<writeonly:tensor<f32>>
      iree_tensor_ext.dispatch.tensor.store %399, %arg8, offsets = [], sizes = [], strides = [] : tensor<f32> -> !iree_tensor_ext.dispatch.tensor<writeonly:tensor<f32>>
      flow.return
    } count() -> (index, index, index) {
      %c1_2 = arith.constant 1 : index
      flow.return %c1_2, %c1_2, %c1_2 : index, index, index
    }
    %231 = flow.tensor.reshape %230#1 : tensor<f32> -> tensor<1xf32>
    %232 = flow.tensor.reshape %230#0 : tensor<f32> -> tensor<1xf32>
    %233 = flow.tensor.update %231, %22[%c0] : tensor<1xf32> -> %22 as tensor<2xf32>
    %234 = flow.tensor.update %232, %233[%c1] : tensor<1xf32> -> %233 as tensor<2xf32>
    %235 = flow.tensor.reshape %223#1 : tensor<f32> -> tensor<1xf32>
    %236 = flow.tensor.update %235, %226[%c1] : tensor<1xf32> -> %226 as tensor<2xf32>
    %237 = flow.tensor.reshape %234 : tensor<2xf32> -> tensor<1x2xf32>
    %238 = flow.tensor.reshape %236 : tensor<2xf32> -> tensor<1x2xf32>
    %239 = flow.tensor.update %237, %37[%c0, %c0] : tensor<1x2xf32> -> %37 as tensor<2x2xf32>
    %240 = flow.tensor.update %238, %239[%c1, %c0] : tensor<1x2xf32> -> %239 as tensor<2x2xf32>
    %241 = flow.dispatch.workgroups(%240) : (tensor<2x2xf32>) -> tensor<2xf32> =
        (%arg6: !iree_tensor_ext.dispatch.tensor<readonly:tensor<2x2xf32>>, %arg7: !iree_tensor_ext.dispatch.tensor<writeonly:tensor<2xf32>>) {
      %c0_2 = arith.constant 0 : index
      %397 = iree_tensor_ext.dispatch.tensor.load %arg6, offsets = [0, 0], sizes = [2, 2], strides = [1, 1] : !iree_tensor_ext.dispatch.tensor<readonly:tensor<2x2xf32>> -> tensor<2x2xf32>
      %398 = tensor.empty() : tensor<2xf32>
      %399 = linalg.generic {indexing_maps = [#map10], iterator_types = ["parallel"]} outs(%398 : tensor<2xf32>) {
      ^bb0(%out: f32):
        %400 = linalg.index 0 : index
        %extracted = tensor.extract %397[%c0_2, %400] : tensor<2x2xf32>
        linalg.yield %extracted : f32
      } -> tensor<2xf32>
      iree_tensor_ext.dispatch.tensor.store %399, %arg7, offsets = [0], sizes = [2], strides = [1] : tensor<2xf32> -> !iree_tensor_ext.dispatch.tensor<writeonly:tensor<2xf32>>
      flow.return
    } count() -> (index, index, index) {
      %x, %y, %z = iree_tensor_ext.dispatch.workgroup_count_from_slice()
      flow.return %x, %y, %z : index, index, index
    }
    %242 = flow.dispatch.workgroups(%241) : (tensor<2xf32>) -> tensor<f32> =
        (%arg6: !iree_tensor_ext.dispatch.tensor<readonly:tensor<2xf32>>, %arg7: !iree_tensor_ext.dispatch.tensor<writeonly:tensor<f32>>) {
      %c0_2 = arith.constant 0 : index
      %397 = iree_tensor_ext.dispatch.tensor.load %arg6, offsets = [0], sizes = [2], strides = [1] : !iree_tensor_ext.dispatch.tensor<readonly:tensor<2xf32>> -> tensor<2xf32>
      %398 = tensor.empty() : tensor<f32>
      %399 = linalg.generic {indexing_maps = [#map], iterator_types = []} outs(%398 : tensor<f32>) {
      ^bb0(%out: f32):
        %extracted = tensor.extract %397[%c0_2] : tensor<2xf32>
        linalg.yield %extracted : f32
      } -> tensor<f32>
      iree_tensor_ext.dispatch.tensor.store %399, %arg7, offsets = [], sizes = [], strides = [] : tensor<f32> -> !iree_tensor_ext.dispatch.tensor<writeonly:tensor<f32>>
      flow.return
    } count() -> (index, index, index) {
      %c1_2 = arith.constant 1 : index
      flow.return %c1_2, %c1_2, %c1_2 : index, index, index
    }
    %243 = flow.tensor.reshape %242 : tensor<f32> -> tensor<1xf32>
    %244 = flow.dispatch.workgroups(%240) : (tensor<2x2xf32>) -> tensor<2xf32> =
        (%arg6: !iree_tensor_ext.dispatch.tensor<readonly:tensor<2x2xf32>>, %arg7: !iree_tensor_ext.dispatch.tensor<writeonly:tensor<2xf32>>) {
      %c1_2 = arith.constant 1 : index
      %397 = iree_tensor_ext.dispatch.tensor.load %arg6, offsets = [0, 0], sizes = [2, 2], strides = [1, 1] : !iree_tensor_ext.dispatch.tensor<readonly:tensor<2x2xf32>> -> tensor<2x2xf32>
      %398 = tensor.empty() : tensor<2xf32>
      %399 = linalg.generic {indexing_maps = [#map10], iterator_types = ["parallel"]} outs(%398 : tensor<2xf32>) {
      ^bb0(%out: f32):
        %400 = linalg.index 0 : index
        %extracted = tensor.extract %397[%c1_2, %400] : tensor<2x2xf32>
        linalg.yield %extracted : f32
      } -> tensor<2xf32>
      iree_tensor_ext.dispatch.tensor.store %399, %arg7, offsets = [0], sizes = [2], strides = [1] : tensor<2xf32> -> !iree_tensor_ext.dispatch.tensor<writeonly:tensor<2xf32>>
      flow.return
    } count() -> (index, index, index) {
      %x, %y, %z = iree_tensor_ext.dispatch.workgroup_count_from_slice()
      flow.return %x, %y, %z : index, index, index
    }
    %245 = flow.dispatch.workgroups(%244) : (tensor<2xf32>) -> tensor<f32> =
        (%arg6: !iree_tensor_ext.dispatch.tensor<readonly:tensor<2xf32>>, %arg7: !iree_tensor_ext.dispatch.tensor<writeonly:tensor<f32>>) {
      %c1_2 = arith.constant 1 : index
      %397 = iree_tensor_ext.dispatch.tensor.load %arg6, offsets = [0], sizes = [2], strides = [1] : !iree_tensor_ext.dispatch.tensor<readonly:tensor<2xf32>> -> tensor<2xf32>
      %398 = tensor.empty() : tensor<f32>
      %399 = linalg.generic {indexing_maps = [#map], iterator_types = []} outs(%398 : tensor<f32>) {
      ^bb0(%out: f32):
        %extracted = tensor.extract %397[%c1_2] : tensor<2xf32>
        linalg.yield %extracted : f32
      } -> tensor<f32>
      iree_tensor_ext.dispatch.tensor.store %399, %arg7, offsets = [], sizes = [], strides = [] : tensor<f32> -> !iree_tensor_ext.dispatch.tensor<writeonly:tensor<f32>>
      flow.return
    } count() -> (index, index, index) {
      %c1_2 = arith.constant 1 : index
      flow.return %c1_2, %c1_2, %c1_2 : index, index, index
    }
    %246 = flow.tensor.reshape %245 : tensor<f32> -> tensor<1xf32>
    %247 = flow.dispatch.workgroups(%241, %244) : (tensor<2xf32>, tensor<2xf32>) -> tensor<f32> =
        (%arg6: !iree_tensor_ext.dispatch.tensor<readonly:tensor<2xf32>>, %arg7: !iree_tensor_ext.dispatch.tensor<readonly:tensor<2xf32>>, %arg8: !iree_tensor_ext.dispatch.tensor<writeonly:tensor<f32>>) {
      %cst_2 = arith.constant 9.99999997E-7 : f32
      %cst_3 = arith.constant 0.000000e+00 : f32
      %c0_4 = arith.constant 0 : index
      %c1_5 = arith.constant 1 : index
      %397 = iree_tensor_ext.dispatch.tensor.load %arg6, offsets = [0], sizes = [2], strides = [1] : !iree_tensor_ext.dispatch.tensor<readonly:tensor<2xf32>> -> tensor<2xf32>
      %398 = iree_tensor_ext.dispatch.tensor.load %arg7, offsets = [0], sizes = [2], strides = [1] : !iree_tensor_ext.dispatch.tensor<readonly:tensor<2xf32>> -> tensor<2xf32>
      %399 = tensor.empty() : tensor<f32>
      linalg.generic {indexing_maps = [], iterator_types = []} {
        %extracted = tensor.extract %397[%c0_4] : tensor<2xf32>
        %extracted_6 = tensor.extract %398[%c1_5] : tensor<2xf32>
        %extracted_7 = tensor.extract %397[%c1_5] : tensor<2xf32>
        %extracted_8 = tensor.extract %398[%c0_4] : tensor<2xf32>
        %401 = arith.mulf %extracted_7, %extracted_8 : f32
        %402 = arith.mulf %extracted, %extracted_6 : f32
        %403 = arith.subf %402, %401 : f32
        %404 = arith.addf %403, %cst_2 : f32
        %405 = arith.cmpf one, %404, %cst_3 : f32
        cf.assert %405, "unimplemented: tensor with zero element"
        linalg.yield
      }
      %400 = linalg.generic {indexing_maps = [#map], iterator_types = []} outs(%399 : tensor<f32>) {
      ^bb0(%out: f32):
        %extracted = tensor.extract %397[%c1_5] : tensor<2xf32>
        %401 = arith.negf %extracted : f32
        linalg.yield %401 : f32
      } -> tensor<f32>
      iree_tensor_ext.dispatch.tensor.store %400, %arg8, offsets = [], sizes = [], strides = [] : tensor<f32> -> !iree_tensor_ext.dispatch.tensor<writeonly:tensor<f32>>
      flow.return
    } count() -> (index, index, index) {
      %c1_2 = arith.constant 1 : index
      flow.return %c1_2, %c1_2, %c1_2 : index, index, index
    }
    %248 = flow.tensor.reshape %247 : tensor<f32> -> tensor<1xf32>
    %249 = flow.tensor.update %246, %22[%c0] : tensor<1xf32> -> %22 as tensor<2xf32>
    %250 = flow.tensor.update %248, %249[%c1] : tensor<1xf32> -> %249 as tensor<2xf32>
    %251 = flow.dispatch.workgroups(%244) : (tensor<2xf32>) -> tensor<f32> =
        (%arg6: !iree_tensor_ext.dispatch.tensor<readonly:tensor<2xf32>>, %arg7: !iree_tensor_ext.dispatch.tensor<writeonly:tensor<f32>>) {
      %c0_2 = arith.constant 0 : index
      %397 = iree_tensor_ext.dispatch.tensor.load %arg6, offsets = [0], sizes = [2], strides = [1] : !iree_tensor_ext.dispatch.tensor<readonly:tensor<2xf32>> -> tensor<2xf32>
      %398 = tensor.empty() : tensor<f32>
      %399 = linalg.generic {indexing_maps = [#map], iterator_types = []} outs(%398 : tensor<f32>) {
      ^bb0(%out: f32):
        %extracted = tensor.extract %397[%c0_2] : tensor<2xf32>
        %400 = arith.negf %extracted : f32
        linalg.yield %400 : f32
      } -> tensor<f32>
      iree_tensor_ext.dispatch.tensor.store %399, %arg7, offsets = [], sizes = [], strides = [] : tensor<f32> -> !iree_tensor_ext.dispatch.tensor<writeonly:tensor<f32>>
      flow.return
    } count() -> (index, index, index) {
      %c1_2 = arith.constant 1 : index
      flow.return %c1_2, %c1_2, %c1_2 : index, index, index
    }
    %252 = flow.tensor.reshape %251 : tensor<f32> -> tensor<1xf32>
    %253 = flow.tensor.update %252, %22[%c0] : tensor<1xf32> -> %22 as tensor<2xf32>
    %254 = flow.tensor.update %243, %253[%c1] : tensor<1xf32> -> %253 as tensor<2xf32>
    %255 = flow.tensor.reshape %250 : tensor<2xf32> -> tensor<1x2xf32>
    %256 = flow.tensor.reshape %254 : tensor<2xf32> -> tensor<1x2xf32>
    %257 = flow.tensor.update %255, %37[%c0, %c0] : tensor<1x2xf32> -> %37 as tensor<2x2xf32>
    %258 = flow.tensor.update %256, %257[%c1, %c0] : tensor<1x2xf32> -> %257 as tensor<2x2xf32>
    %259 = flow.dispatch.workgroups(%241, %244, %258) : (tensor<2xf32>, tensor<2xf32>, tensor<2x2xf32>) -> tensor<1x2x8x1xf32> =
        (%arg6: !iree_tensor_ext.dispatch.tensor<readonly:tensor<2xf32>>, %arg7: !iree_tensor_ext.dispatch.tensor<readonly:tensor<2xf32>>, %arg8: !iree_tensor_ext.dispatch.tensor<readonly:tensor<2x2xf32>>, %arg9: !iree_tensor_ext.dispatch.tensor<writeonly:tensor<1x2x8x1xf32>>) {
      %cst_2 = arith.constant 9.99999997E-7 : f32
      %cst_3 = arith.constant 0.000000e+00 : f32
      %cst_4 = arith.constant 1.000000e+00 : f32
      %c0_5 = arith.constant 0 : index
      %c1_6 = arith.constant 1 : index
      %397 = iree_tensor_ext.dispatch.tensor.load %arg6, offsets = [0], sizes = [2], strides = [1] : !iree_tensor_ext.dispatch.tensor<readonly:tensor<2xf32>> -> tensor<2xf32>
      %398 = iree_tensor_ext.dispatch.tensor.load %arg7, offsets = [0], sizes = [2], strides = [1] : !iree_tensor_ext.dispatch.tensor<readonly:tensor<2xf32>> -> tensor<2xf32>
      %399 = iree_tensor_ext.dispatch.tensor.load %arg8, offsets = [0, 0], sizes = [2, 2], strides = [1, 1] : !iree_tensor_ext.dispatch.tensor<readonly:tensor<2x2xf32>> -> tensor<2x2xf32>
      %400 = tensor.empty() : tensor<1x2x8x1xf32>
      %401 = tensor.empty() : tensor<2x2xf32>
      %402 = linalg.generic {indexing_maps = [#map9, #map9], iterator_types = ["parallel", "parallel"]} ins(%399 : tensor<2x2xf32>) outs(%401 : tensor<2x2xf32>) {
      ^bb0(%in: f32, %out: f32):
        %extracted = tensor.extract %397[%c0_5] : tensor<2xf32>
        %extracted_7 = tensor.extract %398[%c1_6] : tensor<2xf32>
        %extracted_8 = tensor.extract %397[%c1_6] : tensor<2xf32>
        %extracted_9 = tensor.extract %398[%c0_5] : tensor<2xf32>
        %403 = arith.mulf %extracted_8, %extracted_9 : f32
        %404 = arith.mulf %extracted, %extracted_7 : f32
        %405 = arith.subf %404, %403 : f32
        %406 = arith.addf %405, %cst_2 : f32
        %407 = arith.cmpf one, %406, %cst_3 : f32
        cf.assert %407, "unimplemented: tensor with zero element"
        %408 = arith.divf %cst_4, %406 : f32
        %409 = arith.mulf %in, %408 : f32
        linalg.yield %409 : f32
      } -> tensor<2x2xf32>
      %pack = linalg.pack %402 padding_value(%cst_3 : f32) outer_dims_perm = [0, 1] inner_dims_pos = [0, 1] inner_tiles = [8, 1] into %400 : tensor<2x2xf32> -> tensor<1x2x8x1xf32>
      iree_tensor_ext.dispatch.tensor.store %pack, %arg9, offsets = [0, 0, 0, 0], sizes = [1, 2, 8, 1], strides = [1, 1, 1, 1] : tensor<1x2x8x1xf32> -> !iree_tensor_ext.dispatch.tensor<writeonly:tensor<1x2x8x1xf32>>
      flow.return
    } count() -> (index, index, index) {
      %x, %y, %z = iree_tensor_ext.dispatch.workgroup_count_from_slice()
      flow.return %x, %y, %z : index, index, index
    }
    %260 = flow.dispatch.workgroups(%229, %259) : (tensor<1x2x1x1xf32>, tensor<1x2x8x1xf32>) -> tensor<1x1x1x8xf32> =
        (%arg6: !iree_tensor_ext.dispatch.tensor<readonly:tensor<1x2x1x1xf32>>, %arg7: !iree_tensor_ext.dispatch.tensor<readonly:tensor<1x2x8x1xf32>>, %arg8: !iree_tensor_ext.dispatch.tensor<writeonly:tensor<1x1x1x8xf32>>) {
      %cst_2 = arith.constant 0.000000e+00 : f32
      %397 = iree_tensor_ext.dispatch.tensor.load %arg6, offsets = [0, 0, 0, 0], sizes = [1, 2, 1, 1], strides = [1, 1, 1, 1] : !iree_tensor_ext.dispatch.tensor<readonly:tensor<1x2x1x1xf32>> -> tensor<1x2x1x1xf32>
      %398 = iree_tensor_ext.dispatch.tensor.load %arg7, offsets = [0, 0, 0, 0], sizes = [1, 2, 8, 1], strides = [1, 1, 1, 1] : !iree_tensor_ext.dispatch.tensor<readonly:tensor<1x2x8x1xf32>> -> tensor<1x2x8x1xf32>
      %399 = tensor.empty() : tensor<1x1x1x8xf32>
      %400 = linalg.fill ins(%cst_2 : f32) outs(%399 : tensor<1x1x1x8xf32>) -> tensor<1x1x1x8xf32>
      %401 = linalg.mmt4d ins(%397, %398 : tensor<1x2x1x1xf32>, tensor<1x2x8x1xf32>) outs(%400 : tensor<1x1x1x8xf32>) -> tensor<1x1x1x8xf32>
      iree_tensor_ext.dispatch.tensor.store %401, %arg8, offsets = [0, 0, 0, 0], sizes = [1, 1, 1, 8], strides = [1, 1, 1, 1] : tensor<1x1x1x8xf32> -> !iree_tensor_ext.dispatch.tensor<writeonly:tensor<1x1x1x8xf32>>
      flow.return
    } count() -> (index, index, index) {
      %x, %y, %z = iree_tensor_ext.dispatch.workgroup_count_from_slice()
      flow.return %x, %y, %z : index, index, index
    }
    %261 = flow.tensor.reshape %260 : tensor<1x1x1x8xf32> -> tensor<1x8xf32>
    %262 = flow.dispatch.workgroups(%261, %222) : (tensor<1x8xf32>, tensor<2xf32>) -> tensor<2xf32> =
        (%arg6: !iree_tensor_ext.dispatch.tensor<readonly:tensor<1x8xf32>>, %arg7: !iree_tensor_ext.dispatch.tensor<readonly:tensor<2xf32>>, %arg8: !iree_tensor_ext.dispatch.tensor<writeonly:tensor<2xf32>>) {
      %cst_2 = arith.constant 1.000000e-01 : f32
      %397 = iree_tensor_ext.dispatch.tensor.load %arg6, offsets = [0, 0], sizes = [1, 8], strides = [1, 1] : !iree_tensor_ext.dispatch.tensor<readonly:tensor<1x8xf32>> -> tensor<1x8xf32>
      %398 = iree_tensor_ext.dispatch.tensor.load %arg7, offsets = [0], sizes = [2], strides = [1] : !iree_tensor_ext.dispatch.tensor<readonly:tensor<2xf32>> -> tensor<2xf32>
      %399 = tensor.empty() : tensor<2xf32>
      %unpack = linalg.unpack %397 outer_dims_perm = [0] inner_dims_pos = [0] inner_tiles = [8] into %399 : tensor<1x8xf32> -> tensor<2xf32>
      %400 = linalg.generic {indexing_maps = [#map10, #map10, #map10], iterator_types = ["parallel"]} ins(%398, %unpack : tensor<2xf32>, tensor<2xf32>) outs(%399 : tensor<2xf32>) {
      ^bb0(%in: f32, %in_3: f32, %out: f32):
        %401 = arith.mulf %in_3, %cst_2 : f32
        %402 = arith.addf %in, %401 : f32
        linalg.yield %402 : f32
      } -> tensor<2xf32>
      iree_tensor_ext.dispatch.tensor.store %400, %arg8, offsets = [0], sizes = [2], strides = [1] : tensor<2xf32> -> !iree_tensor_ext.dispatch.tensor<writeonly:tensor<2xf32>>
      flow.return
    } count() -> (index, index, index) {
      %x, %y, %z = iree_tensor_ext.dispatch.workgroup_count_from_slice()
      flow.return %x, %y, %z : index, index, index
    }
    %263:3 = flow.dispatch.workgroups(%262) : (tensor<2xf32>) -> (tensor<f32>, tensor<f32>, tensor<f32>) =
        (%arg6: !iree_tensor_ext.dispatch.tensor<readonly:tensor<2xf32>>, %arg7: !iree_tensor_ext.dispatch.tensor<writeonly:tensor<f32>>, %arg8: !iree_tensor_ext.dispatch.tensor<writeonly:tensor<f32>>, %arg9: !iree_tensor_ext.dispatch.tensor<writeonly:tensor<f32>>) {
      %c0_2 = arith.constant 0 : index
      %c1_3 = arith.constant 1 : index
      %397 = iree_tensor_ext.dispatch.tensor.load %arg6, offsets = [0], sizes = [2], strides = [1] : !iree_tensor_ext.dispatch.tensor<readonly:tensor<2xf32>> -> tensor<2xf32>
      %398 = tensor.empty() : tensor<f32>
      %399 = linalg.generic {indexing_maps = [#map], iterator_types = []} outs(%398 : tensor<f32>) {
      ^bb0(%out: f32):
        %extracted = tensor.extract %397[%c0_2] : tensor<2xf32>
        %extracted_4 = tensor.extract %397[%c1_3] : tensor<2xf32>
        %402 = arith.addf %extracted, %extracted_4 : f32
        %403 = math.cos %402 : f32
        %404 = math.cos %extracted : f32
        %405 = arith.addf %404, %403 : f32
        linalg.yield %405 : f32
      } -> tensor<f32>
      %400 = linalg.generic {indexing_maps = [#map], iterator_types = []} outs(%398 : tensor<f32>) {
      ^bb0(%out: f32):
        %extracted = tensor.extract %397[%c0_2] : tensor<2xf32>
        %extracted_4 = tensor.extract %397[%c1_3] : tensor<2xf32>
        %402 = arith.addf %extracted, %extracted_4 : f32
        %403 = math.cos %402 : f32
        linalg.yield %403 : f32
      } -> tensor<f32>
      %401 = linalg.generic {indexing_maps = [#map], iterator_types = []} outs(%398 : tensor<f32>) {
      ^bb0(%out: f32):
        %extracted = tensor.extract %397[%c0_2] : tensor<2xf32>
        %extracted_4 = tensor.extract %397[%c1_3] : tensor<2xf32>
        %402 = arith.addf %extracted, %extracted_4 : f32
        %403 = math.sin %402 : f32
        %404 = math.sin %extracted : f32
        %405 = arith.addf %404, %403 : f32
        linalg.yield %405 : f32
      } -> tensor<f32>
      iree_tensor_ext.dispatch.tensor.store %401, %arg7, offsets = [], sizes = [], strides = [] : tensor<f32> -> !iree_tensor_ext.dispatch.tensor<writeonly:tensor<f32>>
…
        (%arg6: !iree_tensor_ext.dispatch.tensor<readonly:tensor<2xf32>>, %arg7: !iree_tensor_ext.dispatch.tensor<readonly:tensor<2xf32>>, %arg8: !iree_tensor_ext.dispatch.tensor<writeonly:tensor<2xf32>>) {
      %397 = iree_tensor_ext.dispatch.tensor.load %arg6, offsets = [0], sizes = [2], strides = [1] : !iree_tensor_ext.dispatch.tensor<readonly:tensor<2xf32>> -> tensor<2xf32>
      %398 = iree_tensor_ext.dispatch.tensor.load %arg7, offsets = [0], sizes = [2], strides = [1] : !iree_tensor_ext.dispatch.tensor<readonly:tensor<2xf32>> -> tensor<2xf32>
      %399 = tensor.empty() : tensor<2xf32>
      %400 = linalg.generic {indexing_maps = [#map10, #map10, #map10], iterator_types = ["parallel"]} ins(%397, %398 : tensor<2xf32>, tensor<2xf32>) outs(%399 : tensor<2xf32>) {
      ^bb0(%in: f32, %in_2: f32, %out: f32):
        %401 = arith.subf %in, %in_2 : f32
        linalg.yield %401 : f32
      } -> tensor<2xf32>
      iree_tensor_ext.dispatch.tensor.store %400, %arg8, offsets = [0], sizes = [2], strides = [1] : tensor<2xf32> -> !iree_tensor_ext.dispatch.tensor<writeonly:tensor<2xf32>>
      flow.return
    } count() -> (index, index, index) {
      %x, %y, %z = iree_tensor_ext.dispatch.workgroup_count_from_slice()
      flow.return %x, %y, %z : index, index, index
    }
    %309 = flow.tensor.reshape %308 : tensor<2xf32> -> tensor<1x2x1x1xf32>
    %310:2 = flow.dispatch.workgroups(%302) : (tensor<2xf32>) -> (tensor<f32>, tensor<f32>) =
        (%arg6: !iree_tensor_ext.dispatch.tensor<readonly:tensor<2xf32>>, %arg7: !iree_tensor_ext.dispatch.tensor<writeonly:tensor<f32>>, %arg8: !iree_tensor_ext.dispatch.tensor<writeonly:tensor<f32>>) {
      %cst_2 = arith.constant -1.000000e+00 : f32
      %c0_3 = arith.constant 0 : index
      %c1_4 = arith.constant 1 : index
      %397 = iree_tensor_ext.dispatch.tensor.load %arg6, offsets = [0], sizes = [2], strides = [1] : !iree_tensor_ext.dispatch.tensor<readonly:tensor<2xf32>> -> tensor<2xf32>
      %398 = tensor.empty() : tensor<f32>
      %399 = linalg.generic {indexing_maps = [#map], iterator_types = []} outs(%398 : tensor<f32>) {
      ^bb0(%out: f32):
        %extracted = tensor.extract %397[%c0_3] : tensor<2xf32>
        %extracted_5 = tensor.extract %397[%c1_4] : tensor<2xf32>
        %401 = arith.addf %extracted, %extracted_5 : f32
        %402 = math.sin %401 : f32
        %403 = math.sin %extracted : f32
        %404 = arith.mulf %403, %cst_2 : f32
        %405 = arith.subf %404, %402 : f32
        linalg.yield %405 : f32
      } -> tensor<f32>
      %400 = linalg.generic {indexing_maps = [#map], iterator_types = []} outs(%398 : tensor<f32>) {
      ^bb0(%out: f32):
        %extracted = tensor.extract %397[%c0_3] : tensor<2xf32>
        %extracted_5 = tensor.extract %397[%c1_4] : tensor<2xf32>
        %401 = arith.addf %extracted, %extracted_5 : f32
        %402 = math.sin %401 : f32
        %403 = arith.mulf %402, %cst_2 : f32
        linalg.yield %403 : f32
      } -> tensor<f32>
      iree_tensor_ext.dispatch.tensor.store %400, %arg7, offsets = [], sizes = [], strides = [] : tensor<f32> -> !iree_tensor_ext.dispatch.tensor<writeonly:tensor<f32>>
      iree_tensor_ext.dispatch.tensor.store %399, %arg8, offsets = [], sizes = [], strides = [] : tensor<f32> -> !iree_tensor_ext.dispatch.tensor<writeonly:tensor<f32>>
      flow.return
    } count() -> (index, index, index) {
      %c1_2 = arith.constant 1 : index
      flow.return %c1_2, %c1_2, %c1_2 : index, index, index
    }
    %311 = flow.tensor.reshape %310#1 : tensor<f32> -> tensor<1xf32>
    %312 = flow.tensor.reshape %310#0 : tensor<f32> -> tensor<1xf32>
    %313 = flow.tensor.update %311, %22[%c0] : tensor<1xf32> -> %22 as tensor<2xf32>
    %314 = flow.tensor.update %312, %313[%c1] : tensor<1xf32> -> %313 as tensor<2xf32>
    %315 = flow.tensor.reshape %303#1 : tensor<f32> -> tensor<1xf32>
    %316 = flow.tensor.update %315, %306[%c1] : tensor<1xf32> -> %306 as tensor<2xf32>
    %317 = flow.tensor.reshape %314 : tensor<2xf32> -> tensor<1x2xf32>
    %318 = flow.tensor.reshape %316 : tensor<2xf32> -> tensor<1x2xf32>
    %319 = flow.tensor.update %317, %37[%c0, %c0] : tensor<1x2xf32> -> %37 as tensor<2x2xf32>
    %320 = flow.tensor.update %318, %319[%c1, %c0] : tensor<1x2xf32> -> %319 as tensor<2x2xf32>
    %321 = flow.dispatch.workgroups(%320) : (tensor<2x2xf32>) -> tensor<2xf32> =
        (%arg6: !iree_tensor_ext.dispatch.tensor<readonly:tensor<2x2xf32>>, %arg7: !iree_tensor_ext.dispatch.tensor<writeonly:tensor<2xf32>>) {
      %c0_2 = arith.constant 0 : index
      %397 = iree_tensor_ext.dispatch.tensor.load %arg6, offsets = [0, 0], sizes = [2, 2], strides = [1, 1] : !iree_tensor_ext.dispatch.tensor<readonly:tensor<2x2xf32>> -> tensor<2x2xf32>
      %398 = tensor.empty() : tensor<2xf32>
      %399 = linalg.generic {indexing_maps = [#map10], iterator_types = ["parallel"]} outs(%398 : tensor<2xf32>) {
      ^bb0(%out: f32):
        %400 = linalg.index 0 : index
        %extracted = tensor.extract %397[%c0_2, %400] : tensor<2x2xf32>
        linalg.yield %extracted : f32
      } -> tensor<2xf32>
      iree_tensor_ext.dispatch.tensor.store %399, %arg7, offsets = [0], sizes = [2], strides = [1] : tensor<2xf32> -> !iree_tensor_ext.dispatch.tensor<writeonly:tensor<2xf32>>
      flow.return
    } count() -> (index, index, index) {
      %x, %y, %z = iree_tensor_ext.dispatch.workgroup_count_from_slice()
      flow.return %x, %y, %z : index, index, index
    }
    %322 = flow.dispatch.workgroups(%321) : (tensor<2xf32>) -> tensor<f32> =
        (%arg6: !iree_tensor_ext.dispatch.tensor<readonly:tensor<2xf32>>, %arg7: !iree_tensor_ext.dispatch.tensor<writeonly:tensor<f32>>) {
      %c0_2 = arith.constant 0 : index
      %397 = iree_tensor_ext.dispatch.tensor.load %arg6, offsets = [0], sizes = [2], strides = [1] : !iree_tensor_ext.dispatch.tensor<readonly:tensor<2xf32>> -> tensor<2xf32>
      %398 = tensor.empty() : tensor<f32>
      %399 = linalg.generic {indexing_maps = [#map], iterator_types = []} outs(%398 : tensor<f32>) {
      ^bb0(%out: f32):
        %extracted = tensor.extract %397[%c0_2] : tensor<2xf32>
        linalg.yield %extracted : f32
      } -> tensor<f32>
      iree_tensor_ext.dispatch.tensor.store %399, %arg7, offsets = [], sizes = [], strides = [] : tensor<f32> -> !iree_tensor_ext.dispatch.tensor<writeonly:tensor<f32>>
      flow.return
    } count() -> (index, index, index) {
      %c1_2 = arith.constant 1 : index
      flow.return %c1_2, %c1_2, %c1_2 : index, index, index
    }
    %323 = flow.tensor.reshape %322 : tensor<f32> -> tensor<1xf32>
    %324 = flow.dispatch.workgroups(%320) : (tensor<2x2xf32>) -> tensor<2xf32> =
        (%arg6: !iree_tensor_ext.dispatch.tensor<readonly:tensor<2x2xf32>>, %arg7: !iree_tensor_ext.dispatch.tensor<writeonly:tensor<2xf32>>) {
      %c1_2 = arith.constant 1 : index
      %397 = iree_tensor_ext.dispatch.tensor.load %arg6, offsets = [0, 0], sizes = [2, 2], strides = [1, 1] : !iree_tensor_ext.dispatch.tensor<readonly:tensor<2x2xf32>> -> tensor<2x2xf32>
      %398 = tensor.empty() : tensor<2xf32>
      %399 = linalg.generic {indexing_maps = [#map10], iterator_types = ["parallel"]} outs(%398 : tensor<2xf32>) {
      ^bb0(%out: f32):
        %400 = linalg.index 0 : index
        %extracted = tensor.extract %397[%c1_2, %400] : tensor<2x2xf32>
        linalg.yield %extracted : f32
      } -> tensor<2xf32>
      iree_tensor_ext.dispatch.tensor.store %399, %arg7, offsets = [0], sizes = [2], strides = [1] : tensor<2xf32> -> !iree_tensor_ext.dispatch.tensor<writeonly:tensor<2xf32>>
      flow.return
    } count() -> (index, index, index) {
      %x, %y, %z = iree_tensor_ext.dispatch.workgroup_count_from_slice()
      flow.return %x, %y, %z : index, index, index
    }
    %325 = flow.dispatch.workgroups(%324) : (tensor<2xf32>) -> tensor<f32> =
        (%arg6: !iree_tensor_ext.dispatch.tensor<readonly:tensor<2xf32>>, %arg7: !iree_tensor_ext.dispatch.tensor<writeonly:tensor<f32>>) {
      %c1_2 = arith.constant 1 : index
      %397 = iree_tensor_ext.dispatch.tensor.load %arg6, offsets = [0], sizes = [2], strides = [1] : !iree_tensor_ext.dispatch.tensor<readonly:tensor<2xf32>> -> tensor<2xf32>
      %398 = tensor.empty() : tensor<f32>
      %399 = linalg.generic {indexing_maps = [#map], iterator_types = []} outs(%398 : tensor<f32>) {
      ^bb0(%out: f32):
        %extracted = tensor.extract %397[%c1_2] : tensor<2xf32>
        linalg.yield %extracted : f32
      } -> tensor<f32>
      iree_tensor_ext.dispatch.tensor.store %399, %arg7, offsets = [], sizes = [], strides = [] : tensor<f32> -> !iree_tensor_ext.dispatch.tensor<writeonly:tensor<f32>>
      flow.return
    } count() -> (index, index, index) {
      %c1_2 = arith.constant 1 : index
      flow.return %c1_2, %c1_2, %c1_2 : index, index, index
    }
    %326 = flow.tensor.reshape %325 : tensor<f32> -> tensor<1xf32>
    %327 = flow.dispatch.workgroups(%321, %324) : (tensor<2xf32>, tensor<2xf32>) -> tensor<f32> =
        (%arg6: !iree_tensor_ext.dispatch.tensor<readonly:tensor<2xf32>>, %arg7: !iree_tensor_ext.dispatch.tensor<readonly:tensor<2xf32>>, %arg8: !iree_tensor_ext.dispatch.tensor<writeonly:tensor<f32>>) {
      %cst_2 = arith.constant 9.99999997E-7 : f32
      %cst_3 = arith.constant 0.000000e+00 : f32
      %c0_4 = arith.constant 0 : index
      %c1_5 = arith.constant 1 : index
      %397 = iree_tensor_ext.dispatch.tensor.load %arg6, offsets = [0], sizes = [2], strides = [1] : !iree_tensor_ext.dispatch.tensor<readonly:tensor<2xf32>> -> tensor<2xf32>
      %398 = iree_tensor_ext.dispatch.tensor.load %arg7, offsets = [0], sizes = [2], strides = [1] : !iree_tensor_ext.dispatch.tensor<readonly:tensor<2xf32>> -> tensor<2xf32>
      %399 = tensor.empty() : tensor<f32>
      linalg.generic {indexing_maps = [], iterator_types = []} {
        %extracted = tensor.extract %397[%c0_4] : tensor<2xf32>
        %extracted_6 = tensor.extract %398[%c1_5] : tensor<2xf32>
        %extracted_7 = tensor.extract %397[%c1_5] : tensor<2xf32>
        %extracted_8 = tensor.extract %398[%c0_4] : tensor<2xf32>
        %401 = arith.mulf %extracted_7, %extracted_8 : f32
        %402 = arith.mulf %extracted, %extracted_6 : f32
        %403 = arith.subf %402, %401 : f32
        %404 = arith.addf %403, %cst_2 : f32
        %405 = arith.cmpf one, %404, %cst_3 : f32
        cf.assert %405, "unimplemented: tensor with zero element"
        linalg.yield
      }
      %400 = linalg.generic {indexing_maps = [#map], iterator_types = []} outs(%399 : tensor<f32>) {
      ^bb0(%out: f32):
        %extracted = tensor.extract %397[%c1_5] : tensor<2xf32>
        %401 = arith.negf %extracted : f32
        linalg.yield %401 : f32
      } -> tensor<f32>
      iree_tensor_ext.dispatch.tensor.store %400, %arg8, offsets = [], sizes = [], strides = [] : tensor<f32> -> !iree_tensor_ext.dispatch.tensor<writeonly:tensor<f32>>
      flow.return
    } count() -> (index, index, index) {
      %c1_2 = arith.constant 1 : index
      flow.return %c1_2, %c1_2, %c1_2 : index, index, index
    }
    %328 = flow.tensor.reshape %327 : tensor<f32> -> tensor<1xf32>
    %329 = flow.tensor.update %326, %22[%c0] : tensor<1xf32> -> %22 as tensor<2xf32>
    %330 = flow.tensor.update %328, %329[%c1] : tensor<1xf32> -> %329 as tensor<2xf32>
    %331 = flow.dispatch.workgroups(%324) : (tensor<2xf32>) -> tensor<f32> =
        (%arg6: !iree_tensor_ext.dispatch.tensor<readonly:tensor<2xf32>>, %arg7: !iree_tensor_ext.dispatch.tensor<writeonly:tensor<f32>>) {
      %c0_2 = arith.constant 0 : index
      %397 = iree_tensor_ext.dispatch.tensor.load %arg6, offsets = [0], sizes = [2], strides = [1] : !iree_tensor_ext.dispatch.tensor<readonly:tensor<2xf32>> -> tensor<2xf32>
      %398 = tensor.empty() : tensor<f32>
      %399 = linalg.generic {indexing_maps = [#map], iterator_types = []} outs(%398 : tensor<f32>) {
      ^bb0(%out: f32):
        %extracted = tensor.extract %397[%c0_2] : tensor<2xf32>
        %400 = arith.negf %extracted : f32
        linalg.yield %400 : f32
      } -> tensor<f32>
      iree_tensor_ext.dispatch.tensor.store %399, %arg7, offsets = [], sizes = [], strides = [] : tensor<f32> -> !iree_tensor_ext.dispatch.tensor<writeonly:tensor<f32>>
      flow.return
    } count() -> (index, index, index) {
      %c1_2 = arith.constant 1 : index
      flow.return %c1_2, %c1_2, %c1_2 : index, index, index
    }
    %332 = flow.tensor.reshape %331 : tensor<f32> -> tensor<1xf32>
    %333 = flow.tensor.update %332, %22[%c0] : tensor<1xf32> -> %22 as tensor<2xf32>
    %334 = flow.tensor.update %323, %333[%c1] : tensor<1xf32> -> %333 as tensor<2xf32>
    %335 = flow.tensor.reshape %330 : tensor<2xf32> -> tensor<1x2xf32>
    %336 = flow.tensor.reshape %334 : tensor<2xf32> -> tensor<1x2xf32>
    %337 = flow.tensor.update %335, %37[%c0, %c0] : tensor<1x2xf32> -> %37 as tensor<2x2xf32>
    %338 = flow.tensor.update %336, %337[%c1, %c0] : tensor<1x2xf32> -> %337 as tensor<2x2xf32>
    %339 = flow.dispatch.workgroups(%321, %324, %338) : (tensor<2xf32>, tensor<2xf32>, tensor<2x2xf32>) -> tensor<1x2x8x1xf32> =
        (%arg6: !iree_tensor_ext.dispatch.tensor<readonly:tensor<2xf32>>, %arg7: !iree_tensor_ext.dispatch.tensor<readonly:tensor<2xf32>>, %arg8: !iree_tensor_ext.dispatch.tensor<readonly:tensor<2x2xf32>>, %arg9: !iree_tensor_ext.dispatch.tensor<writeonly:tensor<1x2x8x1xf32>>) {
      %cst_2 = arith.constant 9.99999997E-7 : f32
      %cst_3 = arith.constant 0.000000e+00 : f32
      %cst_4 = arith.constant 1.000000e+00 : f32
      %c0_5 = arith.constant 0 : index
      %c1_6 = arith.constant 1 : index
      %397 = iree_tensor_ext.dispatch.tensor.load %arg6, offsets = [0], sizes = [2], strides = [1] : !iree_tensor_ext.dispatch.tensor<readonly:tensor<2xf32>> -> tensor<2xf32>
      %398 = iree_tensor_ext.dispatch.tensor.load %arg7, offsets = [0], sizes = [2], strides = [1] : !iree_tensor_ext.dispatch.tensor<readonly:tensor<2xf32>> -> tensor<2xf32>
      %399 = iree_tensor_ext.dispatch.tensor.load %arg8, offsets = [0, 0], sizes = [2, 2], strides = [1, 1] : !iree_tensor_ext.dispatch.tensor<readonly:tensor<2x2xf32>> -> tensor<2x2xf32>
      %400 = tensor.empty() : tensor<1x2x8x1xf32>
      %401 = tensor.empty() : tensor<2x2xf32>
      %402 = linalg.generic {indexing_maps = [#map9, #map9], iterator_types = ["parallel", "parallel"]} ins(%399 : tensor<2x2xf32>) outs(%401 : tensor<2x2xf32>) {
      ^bb0(%in: f32, %out: f32):
        %extracted = tensor.extract %397[%c0_5] : tensor<2xf32>
        %extracted_7 = tensor.extract %398[%c1_6] : tensor<2xf32>
        %extracted_8 = tensor.extract %397[%c1_6] : tensor<2xf32>
        %extracted_9 = tensor.extract %398[%c0_5] : tensor<2xf32>
        %403 = arith.mulf %extracted_8, %extracted_9 : f32
        %404 = arith.mulf %extracted, %extracted_7 : f32
        %405 = arith.subf %404, %403 : f32
        %406 = arith.addf %405, %cst_2 : f32
        %407 = arith.cmpf one, %406, %cst_3 : f32
        cf.assert %407, "unimplemented: tensor with zero element"
        %408 = arith.divf %cst_4, %406 : f32
        %409 = arith.mulf %in, %408 : f32
        linalg.yield %409 : f32
      } -> tensor<2x2xf32>
      %pack = linalg.pack %402 padding_value(%cst_3 : f32) outer_dims_perm = [0, 1] inner_dims_pos = [0, 1] inner_tiles = [8, 1] into %400 : tensor<2x2xf32> -> tensor<1x2x8x1xf32>
      iree_tensor_ext.dispatch.tensor.store %pack, %arg9, offsets = [0, 0, 0, 0], sizes = [1, 2, 8, 1], strides = [1, 1, 1, 1] : tensor<1x2x8x1xf32> -> !iree_tensor_ext.dispatch.tensor<writeonly:tensor<1x2x8x1xf32>>
      flow.return
    } count() -> (index, index, index) {
      %x, %y, %z = iree_tensor_ext.dispatch.workgroup_count_from_slice()
      flow.return %x, %y, %z : index, index, index
    }
    %340 = flow.dispatch.workgroups(%309, %339) : (tensor<1x2x1x1xf32>, tensor<1x2x8x1xf32>) -> tensor<1x1x1x8xf32> =
        (%arg6: !iree_tensor_ext.dispatch.tensor<readonly:tensor<1x2x1x1xf32>>, %arg7: !iree_tensor_ext.dispatch.tensor<readonly:tensor<1x2x8x1xf32>>, %arg8: !iree_tensor_ext.dispatch.tensor<writeonly:tensor<1x1x1x8xf32>>) {
      %cst_2 = arith.constant 0.000000e+00 : f32
      %397 = iree_tensor_ext.dispatch.tensor.load %arg6, offsets = [0, 0, 0, 0], sizes = [1, 2, 1, 1], strides = [1, 1, 1, 1] : !iree_tensor_ext.dispatch.tensor<readonly:tensor<1x2x1x1xf32>> -> tensor<1x2x1x1xf32>
      %398 = iree_tensor_ext.dispatch.tensor.load %arg7, offsets = [0, 0, 0, 0], sizes = [1, 2, 8, 1], strides = [1, 1, 1, 1] : !iree_tensor_ext.dispatch.tensor<readonly:tensor<1x2x8x1xf32>> -> tensor<1x2x8x1xf32>
      %399 = tensor.empty() : tensor<1x1x1x8xf32>
      %400 = linalg.fill ins(%cst_2 : f32) outs(%399 : tensor<1x1x1x8xf32>) -> tensor<1x1x1x8xf32>
      %401 = linalg.mmt4d ins(%397, %398 : tensor<1x2x1x1xf32>, tensor<1x2x8x1xf32>) outs(%400 : tensor<1x1x1x8xf32>) -> tensor<1x1x1x8xf32>
      iree_tensor_ext.dispatch.tensor.store %401, %arg8, offsets = [0, 0, 0, 0], sizes = [1, 1, 1, 8], strides = [1, 1, 1, 1] : tensor<1x1x1x8xf32> -> !iree_tensor_ext.dispatch.tensor<writeonly:tensor<1x1x1x8xf32>>
      flow.return
    } count() -> (index, index, index) {
      %x, %y, %z = iree_tensor_ext.dispatch.workgroup_count_from_slice()
      flow.return %x, %y, %z : index, index, index
    }
    %341 = flow.tensor.reshape %340 : tensor<1x1x1x8xf32> -> tensor<1x8xf32>
    %342 = flow.dispatch.workgroups(%341, %302) : (tensor<1x8xf32>, tensor<2xf32>) -> tensor<2xf32> =
        (%arg6: !iree_tensor_ext.dispatch.tensor<readonly:tensor<1x8xf32>>, %arg7: !iree_tensor_ext.dispatch.tensor<readonly:tensor<2xf32>>, %arg8: !iree_tensor_ext.dispatch.tensor<writeonly:tensor<2xf32>>) {
      %cst_2 = arith.constant 1.000000e-01 : f32
      %397 = iree_tensor_ext.dispatch.tensor.load %arg6, offsets = [0, 0], sizes = [1, 8], strides = [1, 1] : !iree_tensor_ext.dispatch.tensor<readonly:tensor<1x8xf32>> -> tensor<1x8xf32>
      %398 = iree_tensor_ext.dispatch.tensor.load %arg7, offsets = [0], sizes = [2], strides = [1] : !iree_tensor_ext.dispatch.tensor<readonly:tensor<2xf32>> -> tensor<2xf32>
      %399 = tensor.empty() : tensor<2xf32>
      %unpack = linalg.unpack %397 outer_dims_perm = [0] inner_dims_pos = [0] inner_tiles = [8] into %399 : tensor<1x8xf32> -> tensor<2xf32>
      %400 = linalg.generic {indexing_maps = [#map10, #map10, #map10], iterator_types = ["parallel"]} ins(%398, %unpack : tensor<2xf32>, tensor<2xf32>) outs(%399 : tensor<2xf32>) {
      ^bb0(%in: f32, %in_3: f32, %out: f32):
        %401 = arith.mulf %in_3, %cst_2 : f32
        %402 = arith.addf %in, %401 : f32
        linalg.yield %402 : f32
      } -> tensor<2xf32>
      iree_tensor_ext.dispatch.tensor.store %400, %arg8, offsets = [0], sizes = [2], strides = [1] : tensor<2xf32> -> !iree_tensor_ext.dispatch.tensor<writeonly:tensor<2xf32>>
      flow.return
    } count() -> (index, index, index) {
      %x, %y, %z = iree_tensor_ext.dispatch.workgroup_count_from_slice()
      flow.return %x, %y, %z : index, index, index
    }
    %343:3 = flow.dispatch.workgroups(%342) : (tensor<2xf32>) -> (tensor<f32>, tensor<f32>, tensor<f32>) =
        (%arg6: !iree_tensor_ext.dispatch.tensor<readonly:tensor<2xf32>>, %arg7: !iree_tensor_ext.dispatch.tensor<writeonly:tensor<f32>>, %arg8: !iree_tensor_ext.dispatch.tensor<writeonly:tensor<f32>>, %arg9: !iree_tensor_ext.dispatch.tensor<writeonly:tensor<f32>>) {
      %c0_2 = arith.constant 0 : index
      %c1_3 = arith.constant 1 : index
      %397 = iree_tensor_ext.dispatch.tensor.load %arg6, offsets = [0], sizes = [2], strides = [1] : !iree_tensor_ext.dispatch.tensor<readonly:tensor<2xf32>> -> tensor<2xf32>
      %398 = tensor.empty() : tensor<f32>
      %399 = linalg.generic {indexing_maps = [#map], iterator_types = []} outs(%398 : tensor<f32>) {
      ^bb0(%out: f32):
        %extracted = tensor.extract %397[%c0_2] : tensor<2xf32>
        %extracted_4 = tensor.extract %397[%c1_3] : tensor<2xf32>
        %402 = arith.addf %extracted, %extracted_4 : f32
        %403 = math.cos %402 : f32
        %404 = math.cos %extracted : f32
        %405 = arith.addf %404, %403 : f32
        linalg.yield %405 : f32
      } -> tensor<f32>
      %400 = linalg.generic {indexing_maps = [#map], iterator_types = []} outs(%398 : tensor<f32>) {
      ^bb0(%out: f32):
        %extracted = tensor.extract %397[%c0_2] : tensor<2xf32>
        %extracted_4 = tensor.extract %397[%c1_3] : tensor<2xf32>
        %402 = arith.addf %extracted, %extracted_4 : f32
        %403 = math.cos %402 : f32
        linalg.yield %403 : f32
      } -> tensor<f32>
      %401 = linalg.generic {indexing_maps = [#map], iterator_types = []} outs(%398 : tensor<f32>) {
      ^bb0(%out: f32):
        %extracted = tensor.extract %397[%c0_2] : tensor<2xf32>
        %extracted_4 = tensor.extract %397[%c1_3] : tensor<2xf32>
        %402 = arith.addf %extracted, %extracted_4 : f32
        %403 = math.sin %402 : f32
        %404 = math.sin %extracted : f32
        %405 = arith.addf %404, %403 : f32
        linalg.yield %405 : f32
      } -> tensor<f32>
      iree_tensor_ext.dispatch.tensor.store %401, %arg7, offsets = [], sizes = [], strides = [] : tensor<f32> -> !iree_tensor_ext.dispatch.tensor<writeonly:tensor<f32>>
      iree_tensor_ext.dispatch.tensor.store %400, %arg8, offsets = [], sizes = [], strides = [] : tensor<f32> -> !iree_tensor_ext.dispatch.tensor<writeonly:tensor<f32>>
      iree_tensor_ext.dispatch.tensor.store %399, %arg9, offsets = [], sizes = [], strides = [] : tensor<f32> -> !iree_tensor_ext.dispatch.tensor<writeonly:tensor<f32>>
      flow.return
    } count() -> (index, index, index) {
      %c1_2 = arith.constant 1 : index
      flow.return %c1_2, %c1_2, %c1_2 : index, index, index
    }
    %344 = flow.tensor.reshape %343#2 : tensor<f32> -> tensor<1xf32>
    %345 = flow.tensor.reshape %343#0 : tensor<f32> -> tensor<1xf32>
    %346 = flow.tensor.update %344, %22[%c0] : tensor<1xf32> -> %22 as tensor<2xf32>
    %347 = flow.tensor.update %345, %346[%c1] : tensor<1xf32> -> %346 as tensor<2xf32>
    %348 = flow.dispatch.workgroups(%67, %347) : (tensor<2xf32>, tensor<2xf32>) -> tensor<2xf32> =
        (%arg6: !iree_tensor_ext.dispatch.tensor<readonly:tensor<2xf32>>, %arg7: !iree_tensor_ext.dispatch.tensor<readonly:tensor<2xf32>>, %arg8: !iree_tensor_ext.dispatch.tensor<writeonly:tensor<2xf32>>) {
      %397 = iree_tensor_ext.dispatch.tensor.load %arg6, offsets = [0], sizes = [2], strides = [1] : !iree_tensor_ext.dispatch.tensor<readonly:tensor<2xf32>> -> tensor<2xf32>
      %398 = iree_tensor_ext.dispatch.tensor.load %arg7, offsets = [0], sizes = [2], strides = [1] : !iree_tensor_ext.dispatch.tensor<readonly:tensor<2xf32>> -> tensor<2xf32>
      %399 = tensor.empty() : tensor<2xf32>
      %400 = linalg.generic {indexing_maps = [#map10, #map10, #map10], iterator_types = ["parallel"]} ins(%397, %398 : tensor<2xf32>, tensor<2xf32>) outs(%399 : tensor<2xf32>) {
      ^bb0(%in: f32, %in_2: f32, %out: f32):
        %401 = arith.subf %in, %in_2 : f32
        linalg.yield %401 : f32
      } -> tensor<2xf32>
      iree_tensor_ext.dispatch.tensor.store %400, %arg8, offsets = [0], sizes = [2], strides = [1] : tensor<2xf32> -> !iree_tensor_ext.dispatch.tensor<writeonly:tensor<2xf32>>
      flow.return
    } count() -> (index, index, index) {
      %x, %y, %z = iree_tensor_ext.dispatch.workgroup_count_from_slice()
      flow.return %x, %y, %z : index, index, index
    }
    %349 = flow.tensor.reshape %348 : tensor<2xf32> -> tensor<1x2x1x1xf32>
    %350:2 = flow.dispatch.workgroups(%342) : (tensor<2xf32>) -> (tensor<f32>, tensor<f32>) =
        (%arg6: !iree_tensor_ext.dispatch.tensor<readonly:tensor<2xf32>>, %arg7: !iree_tensor_ext.dispatch.tensor<writeonly:tensor<f32>>, %arg8: !iree_tensor_ext.dispatch.tensor<writeonly:tensor<f32>>) {
      %cst_2 = arith.constant -1.000000e+00 : f32
      %c0_3 = arith.constant 0 : index
      %c1_4 = arith.constant 1 : index
      %397 = iree_tensor_ext.dispatch.tensor.load %arg6, offsets = [0], sizes = [2], strides = [1] : !iree_tensor_ext.dispatch.tensor<readonly:tensor<2xf32>> -> tensor<2xf32>
      %398 = tensor.empty() : tensor<f32>
      %399 = linalg.generic {indexing_maps = [#map], iterator_types = []} outs(%398 : tensor<f32>) {
      ^bb0(%out: f32):
        %extracted = tensor.extract %397[%c0_3] : tensor<2xf32>
        %extracted_5 = tensor.extract %397[%c1_4] : tensor<2xf32>
        %401 = arith.addf %extracted, %extracted_5 : f32
        %402 = math.sin %401 : f32
        %403 = math.sin %extracted : f32
        %404 = arith.mulf %403, %cst_2 : f32
        %405 = arith.subf %404, %402 : f32
        linalg.yield %405 : f32
      } -> tensor<f32>
      %400 = linalg.generic {indexing_maps = [#map], iterator_types = []} outs(%398 : tensor<f32>) {
      ^bb0(%out: f32):
        %extracted = tensor.extract %397[%c0_3] : tensor<2xf32>
        %extracted_5 = tensor.extract %397[%c1_4] : tensor<2xf32>
        %401 = arith.addf %extracted, %extracted_5 : f32
        %402 = math.sin %401 : f32
        %403 = arith.mulf %402, %cst_2 : f32
        linalg.yield %403 : f32
      } -> tensor<f32>
      iree_tensor_ext.dispatch.tensor.store %400, %arg7, offsets = [], sizes = [], strides = [] : tensor<f32> -> !iree_tensor_ext.dispatch.tensor<writeonly:tensor<f32>>
      iree_tensor_ext.dispatch.tensor.store %399, %arg8, offsets = [], sizes = [], strides = [] : tensor<f32> -> !iree_tensor_ext.dispatch.tensor<writeonly:tensor<f32>>
      flow.return
    } count() -> (index, index, index) {
      %c1_2 = arith.constant 1 : index
      flow.return %c1_2, %c1_2, %c1_2 : index, index, index
    }
    %351 = flow.tensor.reshape %350#1 : tensor<f32> -> tensor<1xf32>
    %352 = flow.tensor.reshape %350#0 : tensor<f32> -> tensor<1xf32>
    %353 = flow.tensor.update %351, %22[%c0] : tensor<1xf32> -> %22 as tensor<2xf32>
    %354 = flow.tensor.update %352, %353[%c1] : tensor<1xf32> -> %353 as tensor<2xf32>
    %355 = flow.tensor.reshape %343#1 : tensor<f32> -> tensor<1xf32>
    %356 = flow.tensor.update %355, %346[%c1] : tensor<1xf32> -> %346 as tensor<2xf32>
    %357 = flow.tensor.reshape %354 : tensor<2xf32> -> tensor<1x2xf32>
    %358 = flow.tensor.reshape %356 : tensor<2xf32> -> tensor<1x2xf32>
    %359 = flow.tensor.update %357, %37[%c0, %c0] : tensor<1x2xf32> -> %37 as tensor<2x2xf32>
    %360 = flow.tensor.update %358, %359[%c1, %c0] : tensor<1x2xf32> -> %359 as tensor<2x2xf32>
    %361 = flow.dispatch.workgroups(%360) : (tensor<2x2xf32>) -> tensor<2xf32> =
        (%arg6: !iree_tensor_ext.dispatch.tensor<readonly:tensor<2x2xf32>>, %arg7: !iree_tensor_ext.dispatch.tensor<writeonly:tensor<2xf32>>) {
      %c0_2 = arith.constant 0 : index
      %397 = iree_tensor_ext.dispatch.tensor.load %arg6, offsets = [0, 0], sizes = [2, 2], strides = [1, 1] : !iree_tensor_ext.dispatch.tensor<readonly:tensor<2x2xf32>> -> tensor<2x2xf32>
      %398 = tensor.empty() : tensor<2xf32>
      %399 = linalg.generic {indexing_maps = [#map10], iterator_types = ["parallel"]} outs(%398 : tensor<2xf32>) {
      ^bb0(%out: f32):
        %400 = linalg.index 0 : index
        %extracted = tensor.extract %397[%c0_2, %400] : tensor<2x2xf32>
        linalg.yield %extracted : f32
      } -> tensor<2xf32>
      iree_tensor_ext.dispatch.tensor.store %399, %arg7, offsets = [0], sizes = [2], strides = [1] : tensor<2xf32> -> !iree_tensor_ext.dispatch.tensor<writeonly:tensor<2xf32>>
      flow.return
    } count() -> (index, index, index) {
      %x, %y, %z = iree_tensor_ext.dispatch.workgroup_count_from_slice()
      flow.return %x, %y, %z : index, index, index
    }
    %362 = flow.dispatch.workgroups(%361) : (tensor<2xf32>) -> tensor<f32> =
        (%arg6: !iree_tensor_ext.dispatch.tensor<readonly:tensor<2xf32>>, %arg7: !iree_tensor_ext.dispatch.tensor<writeonly:tensor<f32>>) {
      %c0_2 = arith.constant 0 : index
      %397 = iree_tensor_ext.dispatch.tensor.load %arg6, offsets = [0], sizes = [2], strides = [1] : !iree_tensor_ext.dispatch.tensor<readonly:tensor<2xf32>> -> tensor<2xf32>
      %398 = tensor.empty() : tensor<f32>
      %399 = linalg.generic {indexing_maps = [#map], iterator_types = []} outs(%398 : tensor<f32>) {
      ^bb0(%out: f32):
        %extracted = tensor.extract %397[%c0_2] : tensor<2xf32>
        linalg.yield %extracted : f32
      } -> tensor<f32>
      iree_tensor_ext.dispatch.tensor.store %399, %arg7, offsets = [], sizes = [], strides = [] : tensor<f32> -> !iree_tensor_ext.dispatch.tensor<writeonly:tensor<f32>>
      flow.return
    } count() -> (index, index, index) {
      %c1_2 = arith.constant 1 : index
      flow.return %c1_2, %c1_2, %c1_2 : index, index, index
    }
    %363 = flow.tensor.reshape %362 : tensor<f32> -> tensor<1xf32>
    %364 = flow.dispatch.workgroups(%360) : (tensor<2x2xf32>) -> tensor<2xf32> =
        (%arg6: !iree_tensor_ext.dispatch.tensor<readonly:tensor<2x2xf32>>, %arg7: !iree_tensor_ext.dispatch.tensor<writeonly:tensor<2xf32>>) {
      %c1_2 = arith.constant 1 : index
      %397 = iree_tensor_ext.dispatch.tensor.load %arg6, offsets = [0, 0], sizes = [2, 2], strides = [1, 1] : !iree_tensor_ext.dispatch.tensor<readonly:tensor<2x2xf32>> -> tensor<2x2xf32>
      %398 = tensor.empty() : tensor<2xf32>
      %399 = linalg.generic {indexing_maps = [#map10], iterator_types = ["parallel"]} outs(%398 : tensor<2xf32>) {
      ^bb0(%out: f32):
        %400 = linalg.index 0 : index
        %extracted = tensor.extract %397[%c1_2, %400] : tensor<2x2xf32>
        linalg.yield %extracted : f32
      } -> tensor<2xf32>
      iree_tensor_ext.dispatch.tensor.store %399, %arg7, offsets = [0], sizes = [2], strides = [1] : tensor<2xf32> -> !iree_tensor_ext.dispatch.tensor<writeonly:tensor<2xf32>>
      flow.return
    } count() -> (index, index, index) {
      %x, %y, %z = iree_tensor_ext.dispatch.workgroup_count_from_slice()
      flow.return %x, %y, %z : index, index, index
    }
    %365 = flow.dispatch.workgroups(%364) : (tensor<2xf32>) -> tensor<f32> =
        (%arg6: !iree_tensor_ext.dispatch.tensor<readonly:tensor<2xf32>>, %arg7: !iree_tensor_ext.dispatch.tensor<writeonly:tensor<f32>>) {
      %c1_2 = arith.constant 1 : index
      %397 = iree_tensor_ext.dispatch.tensor.load %arg6, offsets = [0], sizes = [2], strides = [1] : !iree_tensor_ext.dispatch.tensor<readonly:tensor<2xf32>> -> tensor<2xf32>
      %398 = tensor.empty() : tensor<f32>
      %399 = linalg.generic {indexing_maps = [#map], iterator_types = []} outs(%398 : tensor<f32>) {
      ^bb0(%out: f32):
        %extracted = tensor.extract %397[%c1_2] : tensor<2xf32>
        linalg.yield %extracted : f32
      } -> tensor<f32>
      iree_tensor_ext.dispatch.tensor.store %399, %arg7, offsets = [], sizes = [], strides = [] : tensor<f32> -> !iree_tensor_ext.dispatch.tensor<writeonly:tensor<f32>>
      flow.return
    } count() -> (index, index, index) {
      %c1_2 = arith.constant 1 : index
      flow.return %c1_2, %c1_2, %c1_2 : index, index, index
    }
    %366 = flow.tensor.reshape %365 : tensor<f32> -> tensor<1xf32>
    %367 = flow.dispatch.workgroups(%361, %364) : (tensor<2xf32>, tensor<2xf32>) -> tensor<f32> =
        (%arg6: !iree_tensor_ext.dispatch.tensor<readonly:tensor<2xf32>>, %arg7: !iree_tensor_ext.dispatch.tensor<readonly:tensor<2xf32>>, %arg8: !iree_tensor_ext.dispatch.tensor<writeonly:tensor<f32>>) {
      %cst_2 = arith.constant 9.99999997E-7 : f32
      %cst_3 = arith.constant 0.000000e+00 : f32
      %c0_4 = arith.constant 0 : index
      %c1_5 = arith.constant 1 : index
      %397 = iree_tensor_ext.dispatch.tensor.load %arg6, offsets = [0], sizes = [2], strides = [1] : !iree_tensor_ext.dispatch.tensor<readonly:tensor<2xf32>> -> tensor<2xf32>
      %398 = iree_tensor_ext.dispatch.tensor.load %arg7, offsets = [0], sizes = [2], strides = [1] : !iree_tensor_ext.dispatch.tensor<readonly:tensor<2xf32>> -> tensor<2xf32>
      %399 = tensor.empty() : tensor<f32>
      linalg.generic {indexing_maps = [], iterator_types = []} {
        %extracted = tensor.extract %397[%c0_4] : tensor<2xf32>
        %extracted_6 = tensor.extract %398[%c1_5] : tensor<2xf32>
        %extracted_7 = tensor.extract %397[%c1_5] : tensor<2xf32>
        %extracted_8 = tensor.extract %398[%c0_4] : tensor<2xf32>
        %401 = arith.mulf %extracted_7, %extracted_8 : f32
        %402 = arith.mulf %extracted, %extracted_6 : f32
        %403 = arith.subf %402, %401 : f32
        %404 = arith.addf %403, %cst_2 : f32
        %405 = arith.cmpf one, %404, %cst_3 : f32
        cf.assert %405, "unimplemented: tensor with zero element"
        linalg.yield
      }
      %400 = linalg.generic {indexing_maps = [#map], iterator_types = []} outs(%399 : tensor<f32>) {
      ^bb0(%out: f32):
        %extracted = tensor.extract %397[%c1_5] : tensor<2xf32>
        %401 = arith.negf %extracted : f32
        linalg.yield %401 : f32
      } -> tensor<f32>
      iree_tensor_ext.dispatch.tensor.store %400, %arg8, offsets = [], sizes = [], strides = [] : tensor<f32> -> !iree_tensor_ext.dispatch.tensor<writeonly:tensor<f32>>
      flow.return
    } count() -> (index, index, index) {
      %c1_2 = arith.constant 1 : index
      flow.return %c1_2, %c1_2, %c1_2 : index, index, index
    }
    %368 = flow.tensor.reshape %367 : tensor<f32> -> tensor<1xf32>
    %369 = flow.tensor.update %366, %22[%c0] : tensor<1xf32> -> %22 as tensor<2xf32>
    %370 = flow.tensor.update %368, %369[%c1] : tensor<1xf32> -> %369 as tensor<2xf32>
    %371 = flow.dispatch.workgroups(%364) : (tensor<2xf32>) -> tensor<f32> =
        (%arg6: !iree_tensor_ext.dispatch.tensor<readonly:tensor<2xf32>>, %arg7: !iree_tensor_ext.dispatch.tensor<writeonly:tensor<f32>>) {
      %c0_2 = arith.constant 0 : index
      %397 = iree_tensor_ext.dispatch.tensor.load %arg6, offsets = [0], sizes = [2], strides = [1] : !iree_tensor_ext.dispatch.tensor<readonly:tensor<2xf32>> -> tensor<2xf32>
      %398 = tensor.empty() : tensor<f32>
      %399 = linalg.generic {indexing_maps = [#map], iterator_types = []} outs(%398 : tensor<f32>) {
      ^bb0(%out: f32):
        %extracted = tensor.extract %397[%c0_2] : tensor<2xf32>
        %400 = arith.negf %extracted : f32
        linalg.yield %400 : f32
      } -> tensor<f32>
      iree_tensor_ext.dispatch.tensor.store %399, %arg7, offsets = [], sizes = [], strides = [] : tensor<f32> -> !iree_tensor_ext.dispatch.tensor<writeonly:tensor<f32>>
      flow.return
    } count() -> (index, index, index) {
      %c1_2 = arith.constant 1 : index
      flow.return %c1_2, %c1_2, %c1_2 : index, index, index
    }
    %372 = flow.tensor.reshape %371 : tensor<f32> -> tensor<1xf32>
    %373 = flow.tensor.update %372, %22[%c0] : tensor<1xf32> -> %22 as tensor<2xf32>
    %374 = flow.tensor.update %363, %373[%c1] : tensor<1xf32> -> %373 as tensor<2xf32>
    %375 = flow.tensor.reshape %370 : tensor<2xf32> -> tensor<1x2xf32>
    %376 = flow.tensor.reshape %374 : tensor<2xf32> -> tensor<1x2xf32>
    %377 = flow.tensor.update %375, %37[%c0, %c0] : tensor<1x2xf32> -> %37 as tensor<2x2xf32>
    %378 = flow.tensor.update %376, %377[%c1, %c0] : tensor<1x2xf32> -> %377 as tensor<2x2xf32>
    %379 = flow.dispatch.workgroups(%361, %364, %378) : (tensor<2xf32>, tensor<2xf32>, tensor<2x2xf32>) -> tensor<1x2x8x1xf32> =
        (%arg6: !iree_tensor_ext.dispatch.tensor<readonly:tensor<2xf32>>, %arg7: !iree_tensor_ext.dispatch.tensor<readonly:tensor<2xf32>>, %arg8: !iree_tensor_ext.dispatch.tensor<readonly:tensor<2x2xf32>>, %arg9: !iree_tensor_ext.dispatch.tensor<writeonly:tensor<1x2x8x1xf32>>) {
      %cst_2 = arith.constant 9.99999997E-7 : f32
      %cst_3 = arith.constant 0.000000e+00 : f32
      %cst_4 = arith.constant 1.000000e+00 : f32
      %c0_5 = arith.constant 0 : index
      %c1_6 = arith.constant 1 : index
      %397 = iree_tensor_ext.dispatch.tensor.load %arg6, offsets = [0], sizes = [2], strides = [1] : !iree_tensor_ext.dispatch.tensor<readonly:tensor<2xf32>> -> tensor<2xf32>
      %398 = iree_tensor_ext.dispatch.tensor.load %arg7, offsets = [0], sizes = [2], strides = [1] : !iree_tensor_ext.dispatch.tensor<readonly:tensor<2xf32>> -> tensor<2xf32>
      %399 = iree_tensor_ext.dispatch.tensor.load %arg8, offsets = [0, 0], sizes = [2, 2], strides = [1, 1] : !iree_tensor_ext.dispatch.tensor<readonly:tensor<2x2xf32>> -> tensor<2x2xf32>
      %400 = tensor.empty() : tensor<1x2x8x1xf32>
      %401 = tensor.empty() : tensor<2x2xf32>
      %402 = linalg.generic {indexing_maps = [#map9, #map9], iterator_types = ["parallel", "parallel"]} ins(%399 : tensor<2x2xf32>) outs(%401 : tensor<2x2xf32>) {
      ^bb0(%in: f32, %out: f32):
        %extracted = tensor.extract %397[%c0_5] : tensor<2xf32>
        %extracted_7 = tensor.extract %398[%c1_6] : tensor<2xf32>
        %extracted_8 = tensor.extract %397[%c1_6] : tensor<2xf32>
        %extracted_9 = tensor.extract %398[%c0_5] : tensor<2xf32>
        %403 = arith.mulf %extracted_8, %extracted_9 : f32
        %404 = arith.mulf %extracted, %extracted_7 : f32
        %405 = arith.subf %404, %403 : f32
        %406 = arith.addf %405, %cst_2 : f32
        %407 = arith.cmpf one, %406, %cst_3 : f32
        cf.assert %407, "unimplemented: tensor with zero element"
        %408 = arith.divf %cst_4, %406 : f32
        %409 = arith.mulf %in, %408 : f32
        linalg.yield %409 : f32
      } -> tensor<2x2xf32>
      %pack = linalg.pack %402 padding_value(%cst_3 : f32) outer_dims_perm = [0, 1] inner_dims_pos = [0, 1] inner_tiles = [8, 1] into %400 : tensor<2x2xf32> -> tensor<1x2x8x1xf32>
      iree_tensor_ext.dispatch.tensor.store %pack, %arg9, offsets = [0, 0, 0, 0], sizes = [1, 2, 8, 1], strides = [1, 1, 1, 1] : tensor<1x2x8x1xf32> -> !iree_tensor_ext.dispatch.tensor<writeonly:tensor<1x2x8x1xf32>>
      flow.return
    } count() -> (index, index, index) {
      %x, %y, %z = iree_tensor_ext.dispatch.workgroup_count_from_slice()
      flow.return %x, %y, %z : index, index, index
    }
    %380 = flow.dispatch.workgroups(%349, %379) : (tensor<1x2x1x1xf32>, tensor<1x2x8x1xf32>) -> tensor<1x1x1x8xf32> =
        (%arg6: !iree_tensor_ext.dispatch.tensor<readonly:tensor<1x2x1x1xf32>>, %arg7: !iree_tensor_ext.dispatch.tensor<readonly:tensor<1x2x8x1xf32>>, %arg8: !iree_tensor_ext.dispatch.tensor<writeonly:tensor<1x1x1x8xf32>>) {
      %cst_2 = arith.constant 0.000000e+00 : f32
      %397 = iree_tensor_ext.dispatch.tensor.load %arg6, offsets = [0, 0, 0, 0], sizes = [1, 2, 1, 1], strides = [1, 1, 1, 1] : !iree_tensor_ext.dispatch.tensor<readonly:tensor<1x2x1x1xf32>> -> tensor<1x2x1x1xf32>
      %398 = iree_tensor_ext.dispatch.tensor.load %arg7, offsets = [0, 0, 0, 0], sizes = [1, 2, 8, 1], strides = [1, 1, 1, 1] : !iree_tensor_ext.dispatch.tensor<readonly:tensor<1x2x8x1xf32>> -> tensor<1x2x8x1xf32>
      %399 = tensor.empty() : tensor<1x1x1x8xf32>
      %400 = linalg.fill ins(%cst_2 : f32) outs(%399 : tensor<1x1x1x8xf32>) -> tensor<1x1x1x8xf32>
      %401 = linalg.mmt4d ins(%397, %398 : tensor<1x2x1x1xf32>, tensor<1x2x8x1xf32>) outs(%400 : tensor<1x1x1x8xf32>) -> tensor<1x1x1x8xf32>
      iree_tensor_ext.dispatch.tensor.store %401, %arg8, offsets = [0, 0, 0, 0], sizes = [1, 1, 1, 8], strides = [1, 1, 1, 1] : tensor<1x1x1x8xf32> -> !iree_tensor_ext.dispatch.tensor<writeonly:tensor<1x1x1x8xf32>>
      flow.return
    } count() -> (index, index, index) {
      %x, %y, %z = iree_tensor_ext.dispatch.workgroup_count_from_slice()
      flow.return %x, %y, %z : index, index, index
    }
    %381 = flow.tensor.reshape %380 : tensor<1x1x1x8xf32> -> tensor<1x8xf32>
    %382 = flow.dispatch.workgroups(%381, %342) : (tensor<1x8xf32>, tensor<2xf32>) -> tensor<2xf32> =
        (%arg6: !iree_tensor_ext.dispatch.tensor<readonly:tensor<1x8xf32>>, %arg7: !iree_tensor_ext.dispatch.tensor<readonly:tensor<2xf32>>, %arg8: !iree_tensor_ext.dispatch.tensor<writeonly:tensor<2xf32>>) {
      %cst_2 = arith.constant 1.000000e-01 : f32
      %397 = iree_tensor_ext.dispatch.tensor.load %arg6, offsets = [0, 0], sizes = [1, 8], strides = [1, 1] : !iree_tensor_ext.dispatch.tensor<readonly:tensor<1x8xf32>> -> tensor<1x8xf32>
      %398 = iree_tensor_ext.dispatch.tensor.load %arg7, offsets = [0], sizes = [2], strides = [1] : !iree_tensor_ext.dispatch.tensor<readonly:tensor<2xf32>> -> tensor<2xf32>
      %399 = tensor.empty() : tensor<2xf32>
      %unpack = linalg.unpack %397 outer_dims_perm = [0] inner_dims_pos = [0] inner_tiles = [8] into %399 : tensor<1x8xf32> -> tensor<2xf32>
      %400 = linalg.generic {indexing_maps = [#map10, #map10, #map10], iterator_types = ["parallel"]} ins(%398, %unpack : tensor<2xf32>, tensor<2xf32>) outs(%399 : tensor<2xf32>) {
      ^bb0(%in: f32, %in_3: f32, %out: f32):
        %401 = arith.mulf %in_3, %cst_2 : f32
        %402 = arith.addf %in, %401 : f32
        linalg.yield %402 : f32
      } -> tensor<2xf32>
      iree_tensor_ext.dispatch.tensor.store %400, %arg8, offsets = [0], sizes = [2], strides = [1] : tensor<2xf32> -> !iree_tensor_ext.dispatch.tensor<writeonly:tensor<2xf32>>
      flow.return
    } count() -> (index, index, index) {
      %x, %y, %z = iree_tensor_ext.dispatch.workgroup_count_from_slice()
      flow.return %x, %y, %z : index, index, index
    }
    %383:2 = flow.dispatch.workgroups(%382) : (tensor<2xf32>) -> (tensor<f32>, tensor<f32>) =
        (%arg6: !iree_tensor_ext.dispatch.tensor<readonly:tensor<2xf32>>, %arg7: !iree_tensor_ext.dispatch.tensor<writeonly:tensor<f32>>, %arg8: !iree_tensor_ext.dispatch.tensor<writeonly:tensor<f32>>) {
      %c0_2 = arith.constant 0 : index
      %c1_3 = arith.constant 1 : index
      %397 = iree_tensor_ext.dispatch.tensor.load %arg6, offsets = [0], sizes = [2], strides = [1] : !iree_tensor_ext.dispatch.tensor<readonly:tensor<2xf32>> -> tensor<2xf32>
      %398 = tensor.empty() : tensor<f32>
      %399 = linalg.generic {indexing_maps = [#map], iterator_types = []} outs(%398 : tensor<f32>) {
      ^bb0(%out: f32):
        %extracted = tensor.extract %397[%c0_2] : tensor<2xf32>
        %extracted_4 = tensor.extract %397[%c1_3] : tensor<2xf32>
        %401 = arith.addf %extracted, %extracted_4 : f32
        %402 = math.cos %401 : f32
        %403 = math.cos %extracted : f32
        %404 = arith.addf %403, %402 : f32
        linalg.yield %404 : f32
      } -> tensor<f32>
      %400 = linalg.generic {indexing_maps = [#map], iterator_types = []} outs(%398 : tensor<f32>) {
      ^bb0(%out: f32):
        %extracted = tensor.extract %397[%c0_2] : tensor<2xf32>
        %extracted_4 = tensor.extract %397[%c1_3] : tensor<2xf32>
        %401 = arith.addf %extracted, %extracted_4 : f32
        %402 = math.sin %401 : f32
        %403 = math.sin %extracted : f32
        %404 = arith.addf %403, %402 : f32
        linalg.yield %404 : f32
      } -> tensor<f32>
      iree_tensor_ext.dispatch.tensor.store %400, %arg7, offsets = [], sizes = [], strides = [] : tensor<f32> -> !iree_tensor_ext.dispatch.tensor<writeonly:tensor<f32>>
      iree_tensor_ext.dispatch.tensor.store %399, %arg8, offsets = [], sizes = [], strides = [] : tensor<f32> -> !iree_tensor_ext.dispatch.tensor<writeonly:tensor<f32>>
      flow.return
    } count() -> (index, index, index) {
      %c1_2 = arith.constant 1 : index
      flow.return %c1_2, %c1_2, %c1_2 : index, index, index
    }
    %384 = flow.tensor.reshape %383#1 : tensor<f32> -> tensor<1xf32>
    %385 = flow.tensor.reshape %383#0 : tensor<f32> -> tensor<1xf32>
    %386 = flow.tensor.update %384, %22[%c0] : tensor<1xf32> -> %22 as tensor<2xf32>
    %387 = flow.tensor.update %385, %386[%c1] : tensor<1xf32> -> %386 as tensor<2xf32>
    %388 = flow.dispatch.workgroups(%387) : (tensor<2xf32>) -> tensor<2xf32> =
        (%arg6: !iree_tensor_ext.dispatch.tensor<readonly:tensor<2xf32>>, %arg7: !iree_tensor_ext.dispatch.tensor<writeonly:tensor<2xf32>>) {
      %cst_2 = arith.constant dense<[-2.000000e-01, 0.000000e+00]> : tensor<2xf32>
      %397 = iree_tensor_ext.dispatch.tensor.load %arg6, offsets = [0], sizes = [2], strides = [1] : !iree_tensor_ext.dispatch.tensor<readonly:tensor<2xf32>> -> tensor<2xf32>
      %398 = tensor.empty() : tensor<2xf32>
      %399 = linalg.generic {indexing_maps = [#map10, #map10, #map10], iterator_types = ["parallel"]} ins(%397, %cst_2 : tensor<2xf32>, tensor<2xf32>) outs(%398 : tensor<2xf32>) {
      ^bb0(%in: f32, %in_3: f32, %out: f32):
        %400 = arith.addf %in, %in_3 : f32
        linalg.yield %400 : f32
      } -> tensor<2xf32>
      iree_tensor_ext.dispatch.tensor.store %399, %arg7, offsets = [0], sizes = [2], strides = [1] : tensor<2xf32> -> !iree_tensor_ext.dispatch.tensor<writeonly:tensor<2xf32>>
      flow.return
    } count() -> (index, index, index) {
      %x, %y, %z = iree_tensor_ext.dispatch.workgroup_count_from_slice()
      flow.return %x, %y, %z : index, index, index
    }
    %389 = flow.dispatch.workgroups(%387, %388) : (tensor<2xf32>, tensor<2xf32>) -> tensor<10x2xf32> =
        (%arg6: !iree_tensor_ext.dispatch.tensor<readonly:tensor<2xf32>>, %arg7: !iree_tensor_ext.dispatch.tensor<readonly:tensor<2xf32>>, %arg8: !iree_tensor_ext.dispatch.tensor<writeonly:tensor<10x2xf32>>) {
      %cst_2 = arith.constant dense<[1.000000e+00, 0.888888895, 0.777777791, 0.666666627, 0.555555582, 0.444444418, 0.333333313, 0.222222209, 0.111111104, 0.000000e+00]> : tensor<10xf32>
      %cst_3 = arith.constant dense<[0.000000e+00, 0.111111112, 0.222222224, 0.333333343, 0.444444448, 0.555555582, 0.666666686, 0.777777791, 0.888888895, 1.000000e+00]> : tensor<10xf32>
      %397 = iree_tensor_ext.dispatch.tensor.load %arg6, offsets = [0], sizes = [2], strides = [1] : !iree_tensor_ext.dispatch.tensor<readonly:tensor<2xf32>> -> tensor<2xf32>
      %398 = iree_tensor_ext.dispatch.tensor.load %arg7, offsets = [0], sizes = [2], strides = [1] : !iree_tensor_ext.dispatch.tensor<readonly:tensor<2xf32>> -> tensor<2xf32>
      %399 = tensor.empty() : tensor<10x2xf32>
      %400 = linalg.generic {indexing_maps = [#map11, #map12, #map11, #map12, #map9], iterator_types = ["parallel", "parallel"]} ins(%397, %cst_2, %398, %cst_3 : tensor<2xf32>, tensor<10xf32>, tensor<2xf32>, tensor<10xf32>) outs(%399 : tensor<10x2xf32>) {
      ^bb0(%in: f32, %in_4: f32, %in_5: f32, %in_6: f32, %out: f32):
        %401 = arith.mulf %in_5, %in_6 : f32
        %402 = arith.mulf %in, %in_4 : f32
        %403 = arith.addf %402, %401 : f32
        linalg.yield %403 : f32
      } -> tensor<10x2xf32>
      iree_tensor_ext.dispatch.tensor.store %400, %arg8, offsets = [0, 0], sizes = [10, 2], strides = [1, 1] : tensor<10x2xf32> -> !iree_tensor_ext.dispatch.tensor<writeonly:tensor<10x2xf32>>
      flow.return
    } count() -> (index, index, index) {
      %x, %y, %z = iree_tensor_ext.dispatch.workgroup_count_from_slice()
      flow.return %x, %y, %z : index, index, index
    }
    %390 = flow.dispatch.workgroups(%388) : (tensor<2xf32>) -> tensor<9x2xf32> =
        (%arg6: !iree_tensor_ext.dispatch.tensor<readonly:tensor<2xf32>>, %arg7: !iree_tensor_ext.dispatch.tensor<writeonly:tensor<9x2xf32>>) {
      %cst_2 = arith.constant dense<[1.000000e+00, 0.888888895, 0.777777791, 0.666666627, 0.555555582, 0.444444418, 0.333333313, 0.222222209, 0.111111104, 0.000000e+00]> : tensor<10xf32>
      %cst_3 = arith.constant dense<[0.000000e+00, -1.000000e-01]> : tensor<2xf32>
      %cst_4 = arith.constant dense<[0.000000e+00, 0.111111112, 0.222222224, 0.333333343, 0.444444448, 0.555555582, 0.666666686, 0.777777791, 0.888888895, 1.000000e+00]> : tensor<10xf32>
      %397 = iree_tensor_ext.dispatch.tensor.load %arg6, offsets = [0], sizes = [2], strides = [1] : !iree_tensor_ext.dispatch.tensor<readonly:tensor<2xf32>> -> tensor<2xf32>
      %398 = tensor.empty() : tensor<9x2xf32>
      %extracted_slice = tensor.extract_slice %cst_2[1] [9] [1] : tensor<10xf32> to tensor<9xf32>
      %extracted_slice_5 = tensor.extract_slice %cst_4[1] [9] [1] : tensor<10xf32> to tensor<9xf32>
      %399 = linalg.generic {indexing_maps = [#map11, #map12, #map11, #map12, #map9], iterator_types = ["parallel", "parallel"]} ins(%397, %extracted_slice, %cst_3, %extracted_slice_5 : tensor<2xf32>, tensor<9xf32>, tensor<2xf32>, tensor<9xf32>) outs(%398 : tensor<9x2xf32>) {
      ^bb0(%in: f32, %in_6: f32, %in_7: f32, %in_8: f32, %out: f32):
        %400 = arith.addf %in, %in_7 : f32
        %401 = arith.mulf %400, %in_8 : f32
        %402 = arith.mulf %in, %in_6 : f32
        %403 = arith.addf %402, %401 : f32
        linalg.yield %403 : f32
      } -> tensor<9x2xf32>
      iree_tensor_ext.dispatch.tensor.store %399, %arg7, offsets = [0, 0], sizes = [9, 2], strides = [1, 1] : tensor<9x2xf32> -> !iree_tensor_ext.dispatch.tensor<writeonly:tensor<9x2xf32>>
      flow.return
    } count() -> (index, index, index) {
      %x, %y, %z = iree_tensor_ext.dispatch.workgroup_count_from_slice()
      flow.return %x, %y, %z : index, index, index
    }
    %391 = tensor.empty() : tensor<19x2xf32>
    %392 = flow.tensor.update %389, %391[%c0, %c0] : tensor<10x2xf32> -> %391 as tensor<19x2xf32>
    %393 = flow.tensor.update %390, %392[%c10, %c0] : tensor<9x2xf32> -> %392 as tensor<19x2xf32>
    %394:2 = hal.tensor.barrier join(%393, %11 : tensor<19x2xf32>, tensor<3xf32>) => %arg5 : !hal.fence
    %395 = hal.tensor.export %394#0 : tensor<19x2xf32> -> !hal.buffer_view
    %396 = hal.tensor.export %394#1 : tensor<3xf32> -> !hal.buffer_view
    util.return %395, %396 : !hal.buffer_view, !hal.buffer_view
  }
  util.func public @main_graph(%arg0: !hal.buffer_view, %arg1: !hal.buffer_view, %arg2: !hal.buffer_view, %arg3: !hal.buffer_view) -> (!hal.buffer_view, !hal.buffer_view) attributes {iree.abi.stub} {
    %0 = util.null : !hal.fence
    %c-1_i32 = arith.constant -1 : i32
    %c0 = arith.constant 0 : index
    %device_0 = hal.devices.get %c0 : !hal.device
    %fence = hal.fence.create device(%device_0 : !hal.device) flags("None") : !hal.fence
    %1:2 = util.call @main_graph$async(%arg0, %arg1, %arg2, %arg3, %0, %fence) : (!hal.buffer_view, !hal.buffer_view, !hal.buffer_view, !hal.buffer_view, !hal.fence, !hal.fence) -> (!hal.buffer_view, !hal.buffer_view)
    %status = hal.fence.await until([%fence]) timeout_millis(%c-1_i32) flags("None") : i32
    util.return %1#0, %1#1 : !hal.buffer_view, !hal.buffer_view
  }
}
