#map = affine_map<(d0) -> (d0)>
#map1 = affine_map<() -> ()>
#map2 = affine_map<(d0, d1, d2, d3) -> (d0, d1, d2, d3)>
#map3 = affine_map<(d0, d1) -> (d0, d1)>
#map4 = affine_map<(d0, d1) -> (d1)>
#map5 = affine_map<(d0, d1) -> (d0)>
#map6 = affine_map<(d0, d1) -> ()>
#map7 = affine_map<(d0) -> ()>
#map8 = affine_map<(d0, d1) -> (d0, 0)>
module {
  util.func public @main_graph$async(%arg0: !hal.buffer_view, %arg1: !hal.buffer_view, %arg2: !hal.buffer_view, %arg3: !hal.buffer_view, %arg4: !hal.fence, %arg5: !hal.fence) -> (!hal.buffer_view, !hal.buffer_view) attributes {inlining_policy = #util.inline.never, iree.abi.model = "coarse-fences", iree.abi.stub} {
    %cst = arith.constant dense<2> : tensor<1xi64>
    %cst_0 = arith.constant dense<1> : tensor<1xi64>
    %cst_1 = arith.constant dense<[[0.000000e+00], [0.111111112], [0.222222224], [0.333333343], [0.444444448], [0.555555582], [0.666666686], [0.777777791], [0.888888895], [1.000000e+00]]> : tensor<10x1xf32>
    %cst_2 = arith.constant dense<[[1.000000e+00], [0.888888895], [0.777777791], [0.666666627], [0.555555582], [0.444444418], [0.333333313], [0.222222209], [0.111111104], [0.000000e+00]]> : tensor<10x1xf32>
    %cst_3 = arith.constant dense<[0.000000e+00, -1.000000e-01]> : tensor<2xf32>
    %cst_4 = arith.constant dense<[-2.000000e-01, 0.000000e+00]> : tensor<2xf32>
    %cst_5 = arith.constant dense<1.000000e-01> : tensor<f32>
    %cst_6 = arith.constant dense<9.99999997E-7> : tensor<f32>
    %cst_7 = arith.constant dense<-1.000000e+00> : tensor<f32>
    %cst_8 = arith.constant dense<1.000000e+00> : tensor<f32>
    %cst_9 = arith.constant dense<5.000000e-01> : tensor<f32>
    %cst_10 = arith.constant dense<2.000000e+00> : tensor<f32>
    %cst_11 = arith.constant dense<9.99999974E-5> : tensor<f32>
    %cst_12 = arith.constant dense<"…"> : tensor<4x3x4x4xf32>
    %cst_13 = arith.constant dense<[-0.0291617829, 0.0185516253, -0.0336317755, 0.0323117375]> : tensor<4xf32>
    %cst_14 = arith.constant dense<"…"> : tensor<2x256xf32>
    %cst_15 = arith.constant dense<[-0.0322122052, -0.0469594523]> : tensor<2xf32>
    %cst_16 = arith.constant dense<0> : tensor<1xi64>
    %cst_17 = arith.constant 0.000000e+00 : f32
    %cst_18 = arith.constant 0xFF800000 : f32
    %cst_19 = arith.constant 1.000000e+00 : f32
    %0 = hal.tensor.import wait(%arg4) => %arg0 : !hal.buffer_view -> tensor<1x3x64x64xf32>
    %1 = hal.tensor.import wait(%arg4) => %arg1 : !hal.buffer_view -> tensor<3xf32>
    %2 = hal.tensor.import wait(%arg4) => %arg2 : !hal.buffer_view -> tensor<2xf32>
    %3 = hal.tensor.import wait(%arg4) => %arg3 : !hal.buffer_view -> tensor<2xf32>
    %4 = tensor.empty() : tensor<1xf32>
    %5 = linalg.generic {indexing_maps = [#map, #map], iterator_types = ["parallel"]} ins(%cst_16 : tensor<1xi64>) outs(%4 : tensor<1xf32>) {
    ^bb0(%in: i64, %out: f32):
      %380 = arith.index_cast %in : i64 to index
      %extracted = tensor.extract %3[%380] : tensor<2xf32>
      linalg.yield %extracted : f32
    } -> tensor<1xf32>
    %collapsed = tensor.collapse_shape %5 [] : tensor<1xf32> into tensor<f32>
    %6 = tensor.empty() : tensor<f32>
    %7 = linalg.generic {indexing_maps = [#map1, #map1, #map1], iterator_types = []} ins(%collapsed, %cst_11 : tensor<f32>, tensor<f32>) outs(%6 : tensor<f32>) {
    ^bb0(%in: f32, %in_268: f32, %out: f32):
      %380 = arith.mulf %in, %in_268 : f32
      linalg.yield %380 : f32
    } -> tensor<f32>
    %8 = linalg.generic {indexing_maps = [#map, #map], iterator_types = ["parallel"]} ins(%cst_0 : tensor<1xi64>) outs(%4 : tensor<1xf32>) {
    ^bb0(%in: i64, %out: f32):
      %380 = arith.index_cast %in : i64 to index
      %extracted = tensor.extract %3[%380] : tensor<2xf32>
      linalg.yield %extracted : f32
    } -> tensor<1xf32>
    %collapsed_20 = tensor.collapse_shape %8 [] : tensor<1xf32> into tensor<f32>
    %9 = linalg.generic {indexing_maps = [#map1, #map1, #map1], iterator_types = []} ins(%collapsed_20, %cst_11 : tensor<f32>, tensor<f32>) outs(%6 : tensor<f32>) {
    ^bb0(%in: f32, %in_268: f32, %out: f32):
      %380 = arith.mulf %in, %in_268 : f32
      linalg.yield %380 : f32
    } -> tensor<f32>
    %10 = linalg.generic {indexing_maps = [#map1, #map1, #map1], iterator_types = []} ins(%7, %9 : tensor<f32>, tensor<f32>) outs(%6 : tensor<f32>) {
    ^bb0(%in: f32, %in_268: f32, %out: f32):
      %380 = arith.addf %in, %in_268 : f32
      linalg.yield %380 : f32
    } -> tensor<f32>
    %11 = linalg.generic {indexing_maps = [#map1, #map1, #map1], iterator_types = []} ins(%10, %cst_10 : tensor<f32>, tensor<f32>) outs(%6 : tensor<f32>) {
    ^bb0(%in: f32, %in_268: f32, %out: f32):
      %380 = arith.divf %in, %in_268 : f32
      linalg.yield %380 : f32
    } -> tensor<f32>
    %12 = linalg.generic {indexing_maps = [#map1, #map1, #map1], iterator_types = []} ins(%9, %7 : tensor<f32>, tensor<f32>) outs(%6 : tensor<f32>) {
    ^bb0(%in: f32, %in_268: f32, %out: f32):
      %380 = arith.subf %in, %in_268 : f32
      linalg.yield %380 : f32
    } -> tensor<f32>
    %13 = linalg.generic {indexing_maps = [#map1, #map1, #map1], iterator_types = []} ins(%12, %cst_9 : tensor<f32>, tensor<f32>) outs(%6 : tensor<f32>) {
    ^bb0(%in: f32, %in_268: f32, %out: f32):
      %380 = arith.divf %in, %in_268 : f32
      linalg.yield %380 : f32
    } -> tensor<f32>
    %14 = linalg.generic {indexing_maps = [#map, #map], iterator_types = ["parallel"]} ins(%cst : tensor<1xi64>) outs(%4 : tensor<1xf32>) {
    ^bb0(%in: i64, %out: f32):
      %380 = arith.index_cast %in : i64 to index
      %extracted = tensor.extract %1[%380] : tensor<3xf32>
      linalg.yield %extracted : f32
    } -> tensor<1xf32>
    %collapsed_21 = tensor.collapse_shape %14 [] : tensor<1xf32> into tensor<f32>
    %15 = linalg.generic {indexing_maps = [#map1, #map1, #map1], iterator_types = []} ins(%13, %cst_10 : tensor<f32>, tensor<f32>) outs(%6 : tensor<f32>) {
    ^bb0(%in: f32, %in_268: f32, %out: f32):
      %380 = arith.divf %in, %in_268 : f32
      linalg.yield %380 : f32
    } -> tensor<f32>
    %16 = linalg.generic {indexing_maps = [#map1, #map1, #map1], iterator_types = []} ins(%collapsed_21, %15 : tensor<f32>, tensor<f32>) outs(%6 : tensor<f32>) {
    ^bb0(%in: f32, %in_268: f32, %out: f32):
      %380 = arith.addf %in, %in_268 : f32
      linalg.yield %380 : f32
    } -> tensor<f32>
    %17 = linalg.generic {indexing_maps = [#map, #map], iterator_types = ["parallel"]} ins(%cst_16 : tensor<1xi64>) outs(%4 : tensor<1xf32>) {
    ^bb0(%in: i64, %out: f32):
      %380 = arith.index_cast %in : i64 to index
      %extracted = tensor.extract %1[%380] : tensor<3xf32>
      linalg.yield %extracted : f32
    } -> tensor<1xf32>
    %collapsed_22 = tensor.collapse_shape %17 [] : tensor<1xf32> into tensor<f32>
    %18 = linalg.generic {indexing_maps = [#map1, #map1], iterator_types = []} ins(%16 : tensor<f32>) outs(%6 : tensor<f32>) {
    ^bb0(%in: f32, %out: f32):
      %380 = math.cos %in : f32
      linalg.yield %380 : f32
    } -> tensor<f32>
    %19 = linalg.generic {indexing_maps = [#map1, #map1, #map1], iterator_types = []} ins(%11, %18 : tensor<f32>, tensor<f32>) outs(%6 : tensor<f32>) {
    ^bb0(%in: f32, %in_268: f32, %out: f32):
      %380 = arith.mulf %in, %in_268 : f32
      linalg.yield %380 : f32
    } -> tensor<f32>
    %20 = linalg.generic {indexing_maps = [#map1, #map1, #map1], iterator_types = []} ins(%collapsed_22, %19 : tensor<f32>, tensor<f32>) outs(%6 : tensor<f32>) {
    ^bb0(%in: f32, %in_268: f32, %out: f32):
      %380 = arith.addf %in, %in_268 : f32
      linalg.yield %380 : f32
    } -> tensor<f32>
    %21 = linalg.generic {indexing_maps = [#map, #map], iterator_types = ["parallel"]} ins(%cst_0 : tensor<1xi64>) outs(%4 : tensor<1xf32>) {
    ^bb0(%in: i64, %out: f32):
      %380 = arith.index_cast %in : i64 to index
      %extracted = tensor.extract %1[%380] : tensor<3xf32>
      linalg.yield %extracted : f32
    } -> tensor<1xf32>
    %collapsed_23 = tensor.collapse_shape %21 [] : tensor<1xf32> into tensor<f32>
    %22 = linalg.generic {indexing_maps = [#map1, #map1], iterator_types = []} ins(%16 : tensor<f32>) outs(%6 : tensor<f32>) {
    ^bb0(%in: f32, %out: f32):
      %380 = math.sin %in : f32
      linalg.yield %380 : f32
    } -> tensor<f32>
    %23 = linalg.generic {indexing_maps = [#map1, #map1, #map1], iterator_types = []} ins(%11, %22 : tensor<f32>, tensor<f32>) outs(%6 : tensor<f32>) {
    ^bb0(%in: f32, %in_268: f32, %out: f32):
      %380 = arith.mulf %in, %in_268 : f32
      linalg.yield %380 : f32
    } -> tensor<f32>
    %24 = linalg.generic {indexing_maps = [#map1, #map1, #map1], iterator_types = []} ins(%collapsed_23, %23 : tensor<f32>, tensor<f32>) outs(%6 : tensor<f32>) {
    ^bb0(%in: f32, %in_268: f32, %out: f32):
      %380 = arith.addf %in, %in_268 : f32
      linalg.yield %380 : f32
    } -> tensor<f32>
    %25 = linalg.generic {indexing_maps = [#map1, #map1, #map1], iterator_types = []} ins(%collapsed_21, %13 : tensor<f32>, tensor<f32>) outs(%6 : tensor<f32>) {
    ^bb0(%in: f32, %in_268: f32, %out: f32):
      %380 = arith.addf %in, %in_268 : f32
      linalg.yield %380 : f32
    } -> tensor<f32>
    %expanded = tensor.expand_shape %20 [] output_shape [1] : tensor<f32> into tensor<1xf32>
    %expanded_24 = tensor.expand_shape %24 [] output_shape [1] : tensor<f32> into tensor<1xf32>
    %expanded_25 = tensor.expand_shape %25 [] output_shape [1] : tensor<f32> into tensor<1xf32>
    %concat = tensor.concat dim(0) %expanded, %expanded_24, %expanded_25 : (tensor<1xf32>, tensor<1xf32>, tensor<1xf32>) -> tensor<3xf32>
    %padded = tensor.pad %0 low[0, 0, 1, 1] high[0, 0, 1, 1] {
    ^bb0(%arg6: index, %arg7: index, %arg8: index, %arg9: index):
      tensor.yield %cst_17 : f32
    } : tensor<1x3x64x64xf32> to tensor<1x3x66x66xf32>
    %26 = tensor.empty() : tensor<1x4x16x16xf32>
    %broadcasted = linalg.broadcast ins(%cst_13 : tensor<4xf32>) outs(%26 : tensor<1x4x16x16xf32>) dimensions = [0, 2, 3] 
    %27 = linalg.conv_2d_nchw_fchw {dilations = dense<1> : vector<2xi64>, strides = dense<4> : vector<2xi64>} ins(%padded, %cst_12 : tensor<1x3x66x66xf32>, tensor<4x3x4x4xf32>) outs(%broadcasted : tensor<1x4x16x16xf32>) -> tensor<1x4x16x16xf32>
    %28 = linalg.generic {indexing_maps = [#map2, #map2], iterator_types = ["parallel", "parallel", "parallel", "parallel"]} ins(%27 : tensor<1x4x16x16xf32>) outs(%26 : tensor<1x4x16x16xf32>) {
    ^bb0(%in: f32, %out: f32):
      %380 = arith.cmpf ugt, %in, %cst_17 : f32
      %381 = arith.select %380, %in, %cst_17 : f32
      linalg.yield %381 : f32
    } -> tensor<1x4x16x16xf32>
    %29 = tensor.empty() : tensor<1x4x8x8xf32>
    %30 = linalg.fill ins(%cst_18 : f32) outs(%29 : tensor<1x4x8x8xf32>) -> tensor<1x4x8x8xf32>
    %31 = tensor.empty() : tensor<2x2xf32>
    %32 = linalg.pooling_nchw_max {dilations = dense<1> : vector<2xi64>, strides = dense<2> : vector<2xi64>} ins(%28, %31 : tensor<1x4x16x16xf32>, tensor<2x2xf32>) outs(%30 : tensor<1x4x8x8xf32>) -> tensor<1x4x8x8xf32>
    %collapsed_26 = tensor.collapse_shape %32 [[0], [1, 2, 3]] : tensor<1x4x8x8xf32> into tensor<1x256xf32>
    %33 = tensor.empty() : tensor<256x2xf32>
    %transposed = linalg.transpose ins(%cst_14 : tensor<2x256xf32>) outs(%33 : tensor<256x2xf32>) permutation = [1, 0] 
    %34 = tensor.empty() : tensor<1x2xf32>
    %35 = linalg.fill ins(%cst_17 : f32) outs(%34 : tensor<1x2xf32>) -> tensor<1x2xf32>
    %36 = linalg.matmul ins(%collapsed_26, %transposed : tensor<1x256xf32>, tensor<256x2xf32>) outs(%35 : tensor<1x2xf32>) -> tensor<1x2xf32>
    %37 = linalg.generic {indexing_maps = [#map3, #map4, #map3], iterator_types = ["parallel", "parallel"]} ins(%36, %cst_15 : tensor<1x2xf32>, tensor<2xf32>) outs(%34 : tensor<1x2xf32>) {
    ^bb0(%in: f32, %in_268: f32, %out: f32):
      %380 = arith.addf %in, %in_268 : f32
      linalg.yield %380 : f32
    } -> tensor<1x2xf32>
    %collapsed_27 = tensor.collapse_shape %37 [[0, 1]] : tensor<1x2xf32> into tensor<2xf32>
    %38 = linalg.generic {indexing_maps = [#map, #map], iterator_types = ["parallel"]} ins(%cst_16 : tensor<1xi64>) outs(%4 : tensor<1xf32>) {
    ^bb0(%in: i64, %out: f32):
      %380 = arith.index_cast %in : i64 to index
      %extracted = tensor.extract %2[%380] : tensor<2xf32>
      linalg.yield %extracted : f32
    } -> tensor<1xf32>
    %collapsed_28 = tensor.collapse_shape %38 [] : tensor<1xf32> into tensor<f32>
    %39 = linalg.generic {indexing_maps = [#map, #map], iterator_types = ["parallel"]} ins(%cst_0 : tensor<1xi64>) outs(%4 : tensor<1xf32>) {
    ^bb0(%in: i64, %out: f32):
      %380 = arith.index_cast %in : i64 to index
      %extracted = tensor.extract %2[%380] : tensor<2xf32>
      linalg.yield %extracted : f32
    } -> tensor<1xf32>
    %collapsed_29 = tensor.collapse_shape %39 [] : tensor<1xf32> into tensor<f32>
    %40 = linalg.generic {indexing_maps = [#map1, #map1], iterator_types = []} ins(%collapsed_28 : tensor<f32>) outs(%6 : tensor<f32>) {
    ^bb0(%in: f32, %out: f32):
      %380 = math.cos %in : f32
      linalg.yield %380 : f32
    } -> tensor<f32>
    %41 = linalg.generic {indexing_maps = [#map1, #map1, #map1], iterator_types = []} ins(%40, %cst_8 : tensor<f32>, tensor<f32>) outs(%6 : tensor<f32>) {
    ^bb0(%in: f32, %in_268: f32, %out: f32):
      %380 = arith.mulf %in, %in_268 : f32
      linalg.yield %380 : f32
    } -> tensor<f32>
    %42 = linalg.generic {indexing_maps = [#map1, #map1, #map1], iterator_types = []} ins(%collapsed_28, %collapsed_29 : tensor<f32>, tensor<f32>) outs(%6 : tensor<f32>) {
    ^bb0(%in: f32, %in_268: f32, %out: f32):
      %380 = arith.addf %in, %in_268 : f32
      linalg.yield %380 : f32
    } -> tensor<f32>
    %43 = linalg.generic {indexing_maps = [#map1, #map1], iterator_types = []} ins(%42 : tensor<f32>) outs(%6 : tensor<f32>) {
    ^bb0(%in: f32, %out: f32):
      %380 = math.cos %in : f32
      linalg.yield %380 : f32
    } -> tensor<f32>
    %44 = linalg.generic {indexing_maps = [#map1, #map1, #map1], iterator_types = []} ins(%43, %cst_8 : tensor<f32>, tensor<f32>) outs(%6 : tensor<f32>) {
    ^bb0(%in: f32, %in_268: f32, %out: f32):
      %380 = arith.mulf %in, %in_268 : f32
      linalg.yield %380 : f32
    } -> tensor<f32>
    %45 = linalg.generic {indexing_maps = [#map1, #map1, #map1], iterator_types = []} ins(%41, %44 : tensor<f32>, tensor<f32>) outs(%6 : tensor<f32>) {
    ^bb0(%in: f32, %in_268: f32, %out: f32):
      %380 = arith.addf %in, %in_268 : f32
      linalg.yield %380 : f32
    } -> tensor<f32>
    %46 = linalg.generic {indexing_maps = [#map1, #map1], iterator_types = []} ins(%collapsed_28 : tensor<f32>) outs(%6 : tensor<f32>) {
    ^bb0(%in: f32, %out: f32):
      %380 = math.sin %in : f32
      linalg.yield %380 : f32
    } -> tensor<f32>
    %47 = linalg.generic {indexing_maps = [#map1, #map1, #map1], iterator_types = []} ins(%46, %cst_8 : tensor<f32>, tensor<f32>) outs(%6 : tensor<f32>) {
    ^bb0(%in: f32, %in_268: f32, %out: f32):
      %380 = arith.mulf %in, %in_268 : f32
      linalg.yield %380 : f32
    } -> tensor<f32>
    %48 = linalg.generic {indexing_maps = [#map1, #map1], iterator_types = []} ins(%42 : tensor<f32>) outs(%6 : tensor<f32>) {
    ^bb0(%in: f32, %out: f32):
      %380 = math.sin %in : f32
      linalg.yield %380 : f32
    } -> tensor<f32>
    %49 = linalg.generic {indexing_maps = [#map1, #map1, #map1], iterator_types = []} ins(%48, %cst_8 : tensor<f32>, tensor<f32>) outs(%6 : tensor<f32>) {
    ^bb0(%in: f32, %in_268: f32, %out: f32):
      %380 = arith.mulf %in, %in_268 : f32
      linalg.yield %380 : f32
    } -> tensor<f32>
    %50 = linalg.generic {indexing_maps = [#map1, #map1, #map1], iterator_types = []} ins(%47, %49 : tensor<f32>, tensor<f32>) outs(%6 : tensor<f32>) {
    ^bb0(%in: f32, %in_268: f32, %out: f32):
      %380 = arith.addf %in, %in_268 : f32
      linalg.yield %380 : f32
    } -> tensor<f32>
    %expanded_30 = tensor.expand_shape %45 [] output_shape [1] : tensor<f32> into tensor<1xf32>
    %expanded_31 = tensor.expand_shape %50 [] output_shape [1] : tensor<f32> into tensor<1xf32>
    %concat_32 = tensor.concat dim(0) %expanded_30, %expanded_31 : (tensor<1xf32>, tensor<1xf32>) -> tensor<2xf32>
    %51 = tensor.empty() : tensor<2xf32>
    %52 = linalg.generic {indexing_maps = [#map, #map, #map], iterator_types = ["parallel"]} ins(%collapsed_27, %concat_32 : tensor<2xf32>, tensor<2xf32>) outs(%51 : tensor<2xf32>) {
    ^bb0(%in: f32, %in_268: f32, %out: f32):
      %380 = arith.subf %in, %in_268 : f32
      linalg.yield %380 : f32
    } -> tensor<2xf32>
    %53 = linalg.generic {indexing_maps = [#map1, #map1, #map1], iterator_types = []} ins(%46, %cst_7 : tensor<f32>, tensor<f32>) outs(%6 : tensor<f32>) {
    ^bb0(%in: f32, %in_268: f32, %out: f32):
      %380 = arith.mulf %in, %in_268 : f32
      linalg.yield %380 : f32
    } -> tensor<f32>
    %54 = linalg.generic {indexing_maps = [#map1, #map1, #map1], iterator_types = []} ins(%53, %49 : tensor<f32>, tensor<f32>) outs(%6 : tensor<f32>) {
    ^bb0(%in: f32, %in_268: f32, %out: f32):
      %380 = arith.subf %in, %in_268 : f32
      linalg.yield %380 : f32
    } -> tensor<f32>
    %55 = linalg.generic {indexing_maps = [#map1, #map1, #map1], iterator_types = []} ins(%48, %cst_7 : tensor<f32>, tensor<f32>) outs(%6 : tensor<f32>) {
    ^bb0(%in: f32, %in_268: f32, %out: f32):
      %380 = arith.mulf %in, %in_268 : f32
      linalg.yield %380 : f32
    } -> tensor<f32>
    %expanded_33 = tensor.expand_shape %54 [] output_shape [1] : tensor<f32> into tensor<1xf32>
    %expanded_34 = tensor.expand_shape %55 [] output_shape [1] : tensor<f32> into tensor<1xf32>
    %concat_35 = tensor.concat dim(0) %expanded_33, %expanded_34 : (tensor<1xf32>, tensor<1xf32>) -> tensor<2xf32>
    %expanded_36 = tensor.expand_shape %44 [] output_shape [1] : tensor<f32> into tensor<1xf32>
    %concat_37 = tensor.concat dim(0) %expanded_30, %expanded_36 : (tensor<1xf32>, tensor<1xf32>) -> tensor<2xf32>
    %expanded_38 = tensor.expand_shape %concat_35 [[0, 1]] output_shape [1, 2] : tensor<2xf32> into tensor<1x2xf32>
    %expanded_39 = tensor.expand_shape %concat_37 [[0, 1]] output_shape [1, 2] : tensor<2xf32> into tensor<1x2xf32>
    %concat_40 = tensor.concat dim(0) %expanded_38, %expanded_39 : (tensor<1x2xf32>, tensor<1x2xf32>) -> tensor<2x2xf32>
    %56 = linalg.generic {indexing_maps = [#map5, #map3], iterator_types = ["parallel", "parallel"]} ins(%cst_16 : tensor<1xi64>) outs(%34 : tensor<1x2xf32>) {
    ^bb0(%in: i64, %out: f32):
      %380 = arith.index_cast %in : i64 to index
      %381 = linalg.index 1 : index
      %extracted = tensor.extract %concat_40[%380, %381] : tensor<2x2xf32>
      linalg.yield %extracted : f32
    } -> tensor<1x2xf32>
    %collapsed_41 = tensor.collapse_shape %56 [[0, 1]] : tensor<1x2xf32> into tensor<2xf32>
    %57 = linalg.generic {indexing_maps = [#map, #map], iterator_types = ["parallel"]} ins(%cst_16 : tensor<1xi64>) outs(%4 : tensor<1xf32>) {
    ^bb0(%in: i64, %out: f32):
      %380 = arith.index_cast %in : i64 to index
      %extracted = tensor.extract %collapsed_41[%380] : tensor<2xf32>
      linalg.yield %extracted : f32
    } -> tensor<1xf32>
    %collapsed_42 = tensor.collapse_shape %57 [] : tensor<1xf32> into tensor<f32>
    %58 = linalg.generic {indexing_maps = [#map5, #map3], iterator_types = ["parallel", "parallel"]} ins(%cst_0 : tensor<1xi64>) outs(%34 : tensor<1x2xf32>) {
    ^bb0(%in: i64, %out: f32):
      %380 = arith.index_cast %in : i64 to index
      %381 = linalg.index 1 : index
      %extracted = tensor.extract %concat_40[%380, %381] : tensor<2x2xf32>
      linalg.yield %extracted : f32
    } -> tensor<1x2xf32>
    %collapsed_43 = tensor.collapse_shape %58 [[0, 1]] : tensor<1x2xf32> into tensor<2xf32>
    %59 = linalg.generic {indexing_maps = [#map, #map], iterator_types = ["parallel"]} ins(%cst_0 : tensor<1xi64>) outs(%4 : tensor<1xf32>) {
    ^bb0(%in: i64, %out: f32):
      %380 = arith.index_cast %in : i64 to index
      %extracted = tensor.extract %collapsed_43[%380] : tensor<2xf32>
      linalg.yield %extracted : f32
    } -> tensor<1xf32>
    %collapsed_44 = tensor.collapse_shape %59 [] : tensor<1xf32> into tensor<f32>
    %60 = linalg.generic {indexing_maps = [#map1, #map1, #map1], iterator_types = []} ins(%collapsed_42, %collapsed_44 : tensor<f32>, tensor<f32>) outs(%6 : tensor<f32>) {
    ^bb0(%in: f32, %in_268: f32, %out: f32):
      %380 = arith.mulf %in, %in_268 : f32
      linalg.yield %380 : f32
    } -> tensor<f32>
    %61 = linalg.generic {indexing_maps = [#map, #map], iterator_types = ["parallel"]} ins(%cst_0 : tensor<1xi64>) outs(%4 : tensor<1xf32>) {
    ^bb0(%in: i64, %out: f32):
      %380 = arith.index_cast %in : i64 to index
      %extracted = tensor.extract %collapsed_41[%380] : tensor<2xf32>
      linalg.yield %extracted : f32
    } -> tensor<1xf32>
    %collapsed_45 = tensor.collapse_shape %61 [] : tensor<1xf32> into tensor<f32>
    %62 = linalg.generic {indexing_maps = [#map, #map], iterator_types = ["parallel"]} ins(%cst_16 : tensor<1xi64>) outs(%4 : tensor<1xf32>) {
    ^bb0(%in: i64, %out: f32):
      %380 = arith.index_cast %in : i64 to index
      %extracted = tensor.extract %collapsed_43[%380] : tensor<2xf32>
      linalg.yield %extracted : f32
    } -> tensor<1xf32>
    %collapsed_46 = tensor.collapse_shape %62 [] : tensor<1xf32> into tensor<f32>
    %63 = linalg.generic {indexing_maps = [#map1, #map1, #map1], iterator_types = []} ins(%collapsed_45, %collapsed_46 : tensor<f32>, tensor<f32>) outs(%6 : tensor<f32>) {
    ^bb0(%in: f32, %in_268: f32, %out: f32):
      %380 = arith.mulf %in, %in_268 : f32
      linalg.yield %380 : f32
    } -> tensor<f32>
    %64 = linalg.generic {indexing_maps = [#map1, #map1, #map1], iterator_types = []} ins(%60, %63 : tensor<f32>, tensor<f32>) outs(%6 : tensor<f32>) {
    ^bb0(%in: f32, %in_268: f32, %out: f32):
      %380 = arith.subf %in, %in_268 : f32
      linalg.yield %380 : f32
    } -> tensor<f32>
    %65 = linalg.generic {indexing_maps = [#map1, #map1, #map1], iterator_types = []} ins(%64, %cst_6 : tensor<f32>, tensor<f32>) outs(%6 : tensor<f32>) {
    ^bb0(%in: f32, %in_268: f32, %out: f32):
      %380 = arith.addf %in, %in_268 : f32
      linalg.yield %380 : f32
    } -> tensor<f32>
    %66 = linalg.generic {indexing_maps = [#map1, #map1], iterator_types = []} ins(%65 : tensor<f32>) outs(%6 : tensor<f32>) {
    ^bb0(%in: f32, %out: f32):
      %380 = arith.cmpf one, %in, %cst_17 : f32
      cf.assert %380, "unimplemented: tensor with zero element"
      %381 = arith.divf %cst_19, %in : f32
      linalg.yield %381 : f32
    } -> tensor<f32>
    %67 = linalg.generic {indexing_maps = [#map1, #map1, #map1], iterator_types = []} ins(%66, %cst_8 : tensor<f32>, tensor<f32>) outs(%6 : tensor<f32>) {
    ^bb0(%in: f32, %in_268: f32, %out: f32):
      %380 = arith.mulf %in, %in_268 : f32
      linalg.yield %380 : f32
    } -> tensor<f32>
    %68 = linalg.generic {indexing_maps = [#map1, #map1], iterator_types = []} ins(%collapsed_45 : tensor<f32>) outs(%6 : tensor<f32>) {
    ^bb0(%in: f32, %out: f32):
      %380 = arith.negf %in : f32
      linalg.yield %380 : f32
    } -> tensor<f32>
    %expanded_47 = tensor.expand_shape %68 [] output_shape [1] : tensor<f32> into tensor<1xf32>
    %concat_48 = tensor.concat dim(0) %59, %expanded_47 : (tensor<1xf32>, tensor<1xf32>) -> tensor<2xf32>
    %69 = linalg.generic {indexing_maps = [#map1, #map1], iterator_types = []} ins(%collapsed_46 : tensor<f32>) outs(%6 : tensor<f32>) {
    ^bb0(%in: f32, %out: f32):
      %380 = arith.negf %in : f32
      linalg.yield %380 : f32
    } -> tensor<f32>
    %expanded_49 = tensor.expand_shape %69 [] output_shape [1] : tensor<f32> into tensor<1xf32>
    %concat_50 = tensor.concat dim(0) %expanded_49, %57 : (tensor<1xf32>, tensor<1xf32>) -> tensor<2xf32>
    %expanded_51 = tensor.expand_shape %concat_48 [[0, 1]] output_shape [1, 2] : tensor<2xf32> into tensor<1x2xf32>
    %expanded_52 = tensor.expand_shape %concat_50 [[0, 1]] output_shape [1, 2] : tensor<2xf32> into tensor<1x2xf32>
    %concat_53 = tensor.concat dim(0) %expanded_51, %expanded_52 : (tensor<1x2xf32>, tensor<1x2xf32>) -> tensor<2x2xf32>
    %70 = linalg.generic {indexing_maps = [#map3, #map6, #map3], iterator_types = ["parallel", "parallel"]} ins(%concat_53, %67 : tensor<2x2xf32>, tensor<f32>) outs(%31 : tensor<2x2xf32>) {
    ^bb0(%in: f32, %in_268: f32, %out: f32):
      %380 = arith.mulf %in, %in_268 : f32
      linalg.yield %380 : f32
    } -> tensor<2x2xf32>
    %71 = linalg.fill ins(%cst_17 : f32) outs(%51 : tensor<2xf32>) -> tensor<2xf32>
    %72 = linalg.matvec ins(%70, %52 : tensor<2x2xf32>, tensor<2xf32>) outs(%71 : tensor<2xf32>) -> tensor<2xf32>
    %73 = linalg.generic {indexing_maps = [#map, #map7, #map], iterator_types = ["parallel"]} ins(%72, %cst_5 : tensor<2xf32>, tensor<f32>) outs(%51 : tensor<2xf32>) {
    ^bb0(%in: f32, %in_268: f32, %out: f32):
      %380 = arith.mulf %in, %in_268 : f32
      linalg.yield %380 : f32
    } -> tensor<2xf32>
    %74 = linalg.generic {indexing_maps = [#map, #map, #map], iterator_types = ["parallel"]} ins(%2, %73 : tensor<2xf32>, tensor<2xf32>) outs(%51 : tensor<2xf32>) {
    ^bb0(%in: f32, %in_268: f32, %out: f32):
      %380 = arith.addf %in, %in_268 : f32
      linalg.yield %380 : f32
    } -> tensor<2xf32>
    %75 = linalg.generic {indexing_maps = [#map, #map], iterator_types = ["parallel"]} ins(%cst_16 : tensor<1xi64>) outs(%4 : tensor<1xf32>) {
    ^bb0(%in: i64, %out: f32):
      %380 = arith.index_cast %in : i64 to index
      %extracted = tensor.extract %74[%380] : tensor<2xf32>
      linalg.yield %extracted : f32
    } -> tensor<1xf32>
    %collapsed_54 = tensor.collapse_shape %75 [] : tensor<1xf32> into tensor<f32>
    %76 = linalg.generic {indexing_maps = [#map, #map], iterator_types = ["parallel"]} ins(%cst_0 : tensor<1xi64>) outs(%4 : tensor<1xf32>) {
    ^bb0(%in: i64, %out: f32):
      %380 = arith.index_cast %in : i64 to index
      %extracted = tensor.extract %74[%380] : tensor<2xf32>
      linalg.yield %extracted : f32
    } -> tensor<1xf32>
    %collapsed_55 = tensor.collapse_shape %76 [] : tensor<1xf32> into tensor<f32>
    %77 = linalg.generic {indexing_maps = [#map1, #map1], iterator_types = []} ins(%collapsed_54 : tensor<f32>) outs(%6 : tensor<f32>) {
    ^bb0(%in: f32, %out: f32):
      %380 = math.cos %in : f32
      linalg.yield %380 : f32
    } -> tensor<f32>
    %78 = linalg.generic {indexing_maps = [#map1, #map1, #map1], iterator_types = []} ins(%77, %cst_8 : tensor<f32>, tensor<f32>) outs(%6 : tensor<f32>) {
    ^bb0(%in: f32, %in_268: f32, %out: f32):
      %380 = arith.mulf %in, %in_268 : f32
      linalg.yield %380 : f32
    } -> tensor<f32>
    %79 = linalg.generic {indexing_maps = [#map1, #map1, #map1], iterator_types = []} ins(%collapsed_54, %collapsed_55 : tensor<f32>, tensor<f32>) outs(%6 : tensor<f32>) {
    ^bb0(%in: f32, %in_268: f32, %out: f32):
      %380 = arith.addf %in, %in_268 : f32
      linalg.yield %380 : f32
    } -> tensor<f32>
    %80 = linalg.generic {indexing_maps = [#map1, #map1], iterator_types = []} ins(%79 : tensor<f32>) outs(%6 : tensor<f32>) {
    ^bb0(%in: f32, %out: f32):
      %380 = math.cos %in : f32
      linalg.yield %380 : f32
    } -> tensor<f32>
    %81 = linalg.generic {indexing_maps = [#map1, #map1, #map1], iterator_types = []} ins(%80, %cst_8 : tensor<f32>, tensor<f32>) outs(%6 : tensor<f32>) {
    ^bb0(%in: f32, %in_268: f32, %out: f32):
      %380 = arith.mulf %in, %in_268 : f32
      linalg.yield %380 : f32
    } -> tensor<f32>
    %82 = linalg.generic {indexing_maps = [#map1, #map1, #map1], iterator_types = []} ins(%78, %81 : tensor<f32>, tensor<f32>) outs(%6 : tensor<f32>) {
    ^bb0(%in: f32, %in_268: f32, %out: f32):
      %380 = arith.addf %in, %in_268 : f32
      linalg.yield %380 : f32
    } -> tensor<f32>
    %83 = linalg.generic {indexing_maps = [#map1, #map1], iterator_types = []} ins(%collapsed_54 : tensor<f32>) outs(%6 : tensor<f32>) {
    ^bb0(%in: f32, %out: f32):
      %380 = math.sin %in : f32
      linalg.yield %380 : f32
    } -> tensor<f32>
    %84 = linalg.generic {indexing_maps = [#map1, #map1, #map1], iterator_types = []} ins(%83, %cst_8 : tensor<f32>, tensor<f32>) outs(%6 : tensor<f32>) {
    ^bb0(%in: f32, %in_268: f32, %out: f32):
      %380 = arith.mulf %in, %in_268 : f32
      linalg.yield %380 : f32
    } -> tensor<f32>
    %85 = linalg.generic {indexing_maps = [#map1, #map1], iterator_types = []} ins(%79 : tensor<f32>) outs(%6 : tensor<f32>) {
    ^bb0(%in: f32, %out: f32):
      %380 = math.sin %in : f32
      linalg.yield %380 : f32
    } -> tensor<f32>
    %86 = linalg.generic {indexing_maps = [#map1, #map1, #map1], iterator_types = []} ins(%85, %cst_8 : tensor<f32>, tensor<f32>) outs(%6 : tensor<f32>) {
    ^bb0(%in: f32, %in_268: f32, %out: f32):
      %380 = arith.mulf %in, %in_268 : f32
      linalg.yield %380 : f32
    } -> tensor<f32>
    %87 = linalg.generic {indexing_maps = [#map1, #map1, #map1], iterator_types = []} ins(%84, %86 : tensor<f32>, tensor<f32>) outs(%6 : tensor<f32>) {
    ^bb0(%in: f32, %in_268: f32, %out: f32):
      %380 = arith.addf %in, %in_268 : f32
      linalg.yield %380 : f32
    } -> tensor<f32>
    %expanded_56 = tensor.expand_shape %82 [] output_shape [1] : tensor<f32> into tensor<1xf32>
    %expanded_57 = tensor.expand_shape %87 [] output_shape [1] : tensor<f32> into tensor<1xf32>
    %concat_58 = tensor.concat dim(0) %expanded_56, %expanded_57 : (tensor<1xf32>, tensor<1xf32>) -> tensor<2xf32>
    %88 = linalg.generic {indexing_maps = [#map, #map, #map], iterator_types = ["parallel"]} ins(%collapsed_27, %concat_58 : tensor<2xf32>, tensor<2xf32>) outs(%51 : tensor<2xf32>) {
    ^bb0(%in: f32, %in_268: f32, %out: f32):
      %380 = arith.subf %in, %in_268 : f32
      linalg.yield %380 : f32
    } -> tensor<2xf32>
    %89 = linalg.generic {indexing_maps = [#map1, #map1, #map1], iterator_types = []} ins(%83, %cst_7 : tensor<f32>, tensor<f32>) outs(%6 : tensor<f32>) {
    ^bb0(%in: f32, %in_268: f32, %out: f32):
      %380 = arith.mulf %in, %in_268 : f32
      linalg.yield %380 : f32
    } -> tensor<f32>
    %90 = linalg.generic {indexing_maps = [#map1, #map1, #map1], iterator_types = []} ins(%89, %86 : tensor<f32>, tensor<f32>) outs(%6 : tensor<f32>) {
    ^bb0(%in: f32, %in_268: f32, %out: f32):
      %380 = arith.subf %in, %in_268 : f32
      linalg.yield %380 : f32
    } -> tensor<f32>
    %91 = linalg.generic {indexing_maps = [#map1, #map1, #map1], iterator_types = []} ins(%85, %cst_7 : tensor<f32>, tensor<f32>) outs(%6 : tensor<f32>) {
    ^bb0(%in: f32, %in_268: f32, %out: f32):
      %380 = arith.mulf %in, %in_268 : f32
      linalg.yield %380 : f32
    } -> tensor<f32>
    %expanded_59 = tensor.expand_shape %90 [] output_shape [1] : tensor<f32> into tensor<1xf32>
    %expanded_60 = tensor.expand_shape %91 [] output_shape [1] : tensor<f32> into tensor<1xf32>
    %concat_61 = tensor.concat dim(0) %expanded_59, %expanded_60 : (tensor<1xf32>, tensor<1xf32>) -> tensor<2xf32>
    %expanded_62 = tensor.expand_shape %81 [] output_shape [1] : tensor<f32> into tensor<1xf32>
    %concat_63 = tensor.concat dim(0) %expanded_56, %expanded_62 : (tensor<1xf32>, tensor<1xf32>) -> tensor<2xf32>
    %expanded_64 = tensor.expand_shape %concat_61 [[0, 1]] output_shape [1, 2] : tensor<2xf32> into tensor<1x2xf32>
    %expanded_65 = tensor.expand_shape %concat_63 [[0, 1]] output_shape [1, 2] : tensor<2xf32> into tensor<1x2xf32>
    %concat_66 = tensor.concat dim(0) %expanded_64, %expanded_65 : (tensor<1x2xf32>, tensor<1x2xf32>) -> tensor<2x2xf32>
    %92 = linalg.generic {indexing_maps = [#map5, #map3], iterator_types = ["parallel", "parallel"]} ins(%cst_16 : tensor<1xi64>) outs(%34 : tensor<1x2xf32>) {
    ^bb0(%in: i64, %out: f32):
      %380 = arith.index_cast %in : i64 to index
      %381 = linalg.index 1 : index
      %extracted = tensor.extract %concat_66[%380, %381] : tensor<2x2xf32>
      linalg.yield %extracted : f32
    } -> tensor<1x2xf32>
    %collapsed_67 = tensor.collapse_shape %92 [[0, 1]] : tensor<1x2xf32> into tensor<2xf32>
    %93 = linalg.generic {indexing_maps = [#map, #map], iterator_types = ["parallel"]} ins(%cst_16 : tensor<1xi64>) outs(%4 : tensor<1xf32>) {
    ^bb0(%in: i64, %out: f32):
      %380 = arith.index_cast %in : i64 to index
      %extracted = tensor.extract %collapsed_67[%380] : tensor<2xf32>
      linalg.yield %extracted : f32
    } -> tensor<1xf32>
    %collapsed_68 = tensor.collapse_shape %93 [] : tensor<1xf32> into tensor<f32>
    %94 = linalg.generic {indexing_maps = [#map5, #map3], iterator_types = ["parallel", "parallel"]} ins(%cst_0 : tensor<1xi64>) outs(%34 : tensor<1x2xf32>) {
    ^bb0(%in: i64, %out: f32):
      %380 = arith.index_cast %in : i64 to index
      %381 = linalg.index 1 : index
      %extracted = tensor.extract %concat_66[%380, %381] : tensor<2x2xf32>
      linalg.yield %extracted : f32
    } -> tensor<1x2xf32>
    %collapsed_69 = tensor.collapse_shape %94 [[0, 1]] : tensor<1x2xf32> into tensor<2xf32>
    %95 = linalg.generic {indexing_maps = [#map, #map], iterator_types = ["parallel"]} ins(%cst_0 : tensor<1xi64>) outs(%4 : tensor<1xf32>) {
    ^bb0(%in: i64, %out: f32):
      %380 = arith.index_cast %in : i64 to index
      %extracted = tensor.extract %collapsed_69[%380] : tensor<2xf32>
      linalg.yield %extracted : f32
    } -> tensor<1xf32>
    %collapsed_70 = tensor.collapse_shape %95 [] : tensor<1xf32> into tensor<f32>
    %96 = linalg.generic {indexing_maps = [#map1, #map1, #map1], iterator_types = []} ins(%collapsed_68, %collapsed_70 : tensor<f32>, tensor<f32>) outs(%6 : tensor<f32>) {
    ^bb0(%in: f32, %in_268: f32, %out: f32):
      %380 = arith.mulf %in, %in_268 : f32
      linalg.yield %380 : f32
    } -> tensor<f32>
    %97 = linalg.generic {indexing_maps = [#map, #map], iterator_types = ["parallel"]} ins(%cst_0 : tensor<1xi64>) outs(%4 : tensor<1xf32>) {
    ^bb0(%in: i64, %out: f32):
      %380 = arith.index_cast %in : i64 to index
      %extracted = tensor.extract %collapsed_67[%380] : tensor<2xf32>
      linalg.yield %extracted : f32
    } -> tensor<1xf32>
    %collapsed_71 = tensor.collapse_shape %97 [] : tensor<1xf32> into tensor<f32>
    %98 = linalg.generic {indexing_maps = [#map, #map], iterator_types = ["parallel"]} ins(%cst_16 : tensor<1xi64>) outs(%4 : tensor<1xf32>) {
    ^bb0(%in: i64, %out: f32):
      %380 = arith.index_cast %in : i64 to index
      %extracted = tensor.extract %collapsed_69[%380] : tensor<2xf32>
      linalg.yield %extracted : f32
    } -> tensor<1xf32>
    %collapsed_72 = tensor.collapse_shape %98 [] : tensor<1xf32> into tensor<f32>
    %99 = linalg.generic {indexing_maps = [#map1, #map1, #map1], iterator_types = []} ins(%collapsed_71, %collapsed_72 : tensor<f32>, tensor<f32>) outs(%6 : tensor<f32>) {
    ^bb0(%in: f32, %in_268: f32, %out: f32):
      %380 = arith.mulf %in, %in_268 : f32
      linalg.yield %380 : f32
    } -> tensor<f32>
    %100 = linalg.generic {indexing_maps = [#map1, #map1, #map1], iterator_types = []} ins(%96, %99 : tensor<f32>, tensor<f32>) outs(%6 : tensor<f32>) {
    ^bb0(%in: f32, %in_268: f32, %out: f32):
      %380 = arith.subf %in, %in_268 : f32
      linalg.yield %380 : f32
    } -> tensor<f32>
    %101 = linalg.generic {indexing_maps = [#map1, #map1, #map1], iterator_types = []} ins(%100, %cst_6 : tensor<f32>, tensor<f32>) outs(%6 : tensor<f32>) {
    ^bb0(%in: f32, %in_268: f32, %out: f32):
      %380 = arith.addf %in, %in_268 : f32
      linalg.yield %380 : f32
    } -> tensor<f32>
    %102 = linalg.generic {indexing_maps = [#map1, #map1], iterator_types = []} ins(%101 : tensor<f32>) outs(%6 : tensor<f32>) {
    ^bb0(%in: f32, %out: f32):
      %380 = arith.cmpf one, %in, %cst_17 : f32
      cf.assert %380, "unimplemented: tensor with zero element"
      %381 = arith.divf %cst_19, %in : f32
      linalg.yield %381 : f32
    } -> tensor<f32>
    %103 = linalg.generic {indexing_maps = [#map1, #map1, #map1], iterator_types = []} ins(%102, %cst_8 : tensor<f32>, tensor<f32>) outs(%6 : tensor<f32>) {
    ^bb0(%in: f32, %in_268: f32, %out: f32):
      %380 = arith.mulf %in, %in_268 : f32
      linalg.yield %380 : f32
    } -> tensor<f32>
    %104 = linalg.generic {indexing_maps = [#map1, #map1], iterator_types = []} ins(%collapsed_71 : tensor<f32>) outs(%6 : tensor<f32>) {
    ^bb0(%in: f32, %out: f32):
      %380 = arith.negf %in : f32
      linalg.yield %380 : f32
    } -> tensor<f32>
    %expanded_73 = tensor.expand_shape %104 [] output_shape [1] : tensor<f32> into tensor<1xf32>
    %concat_74 = tensor.concat dim(0) %95, %expanded_73 : (tensor<1xf32>, tensor<1xf32>) -> tensor<2xf32>
    %105 = linalg.generic {indexing_maps = [#map1, #map1], iterator_types = []} ins(%collapsed_72 : tensor<f32>) outs(%6 : tensor<f32>) {
    ^bb0(%in: f32, %out: f32):
      %380 = arith.negf %in : f32
      linalg.yield %380 : f32
    } -> tensor<f32>
    %expanded_75 = tensor.expand_shape %105 [] output_shape [1] : tensor<f32> into tensor<1xf32>
    %concat_76 = tensor.concat dim(0) %expanded_75, %93 : (tensor<1xf32>, tensor<1xf32>) -> tensor<2xf32>
    %expanded_77 = tensor.expand_shape %concat_74 [[0, 1]] output_shape [1, 2] : tensor<2xf32> into tensor<1x2xf32>
    %expanded_78 = tensor.expand_shape %concat_76 [[0, 1]] output_shape [1, 2] : tensor<2xf32> into tensor<1x2xf32>
    %concat_79 = tensor.concat dim(0) %expanded_77, %expanded_78 : (tensor<1x2xf32>, tensor<1x2xf32>) -> tensor<2x2xf32>
    %106 = linalg.generic {indexing_maps = [#map3, #map6, #map3], iterator_types = ["parallel", "parallel"]} ins(%concat_79, %103 : tensor<2x2xf32>, tensor<f32>) outs(%31 : tensor<2x2xf32>) {
    ^bb0(%in: f32, %in_268: f32, %out: f32):
      %380 = arith.mulf %in, %in_268 : f32
      linalg.yield %380 : f32
    } -> tensor<2x2xf32>
    %107 = linalg.matvec ins(%106, %88 : tensor<2x2xf32>, tensor<2xf32>) outs(%71 : tensor<2xf32>) -> tensor<2xf32>
    %108 = linalg.generic {indexing_maps = [#map, #map7, #map], iterator_types = ["parallel"]} ins(%107, %cst_5 : tensor<2xf32>, tensor<f32>) outs(%51 : tensor<2xf32>) {
    ^bb0(%in: f32, %in_268: f32, %out: f32):
      %380 = arith.mulf %in, %in_268 : f32
      linalg.yield %380 : f32
    } -> tensor<2xf32>
    %109 = linalg.generic {indexing_maps = [#map, #map, #map], iterator_types = ["parallel"]} ins(%74, %108 : tensor<2xf32>, tensor<2xf32>) outs(%51 : tensor<2xf32>) {
    ^bb0(%in: f32, %in_268: f32, %out: f32):
      %380 = arith.addf %in, %in_268 : f32
      linalg.yield %380 : f32
    } -> tensor<2xf32>
    %110 = linalg.generic {indexing_maps = [#map, #map], iterator_types = ["parallel"]} ins(%cst_16 : tensor<1xi64>) outs(%4 : tensor<1xf32>) {
    ^bb0(%in: i64, %out: f32):
      %380 = arith.index_cast %in : i64 to index
      %extracted = tensor.extract %109[%380] : tensor<2xf32>
      linalg.yield %extracted : f32
    } -> tensor<1xf32>
    %collapsed_80 = tensor.collapse_shape %110 [] : tensor<1xf32> into tensor<f32>
    %111 = linalg.generic {indexing_maps = [#map, #map], iterator_types = ["parallel"]} ins(%cst_0 : tensor<1xi64>) outs(%4 : tensor<1xf32>) {
    ^bb0(%in: i64, %out: f32):
      %380 = arith.index_cast %in : i64 to index
      %extracted = tensor.extract %109[%380] : tensor<2xf32>
      linalg.yield %extracted : f32
    } -> tensor<1xf32>
    %collapsed_81 = tensor.collapse_shape %111 [] : tensor<1xf32> into tensor<f32>
    %112 = linalg.generic {indexing_maps = [#map1, #map1], iterator_types = []} ins(%collapsed_80 : tensor<f32>) outs(%6 : tensor<f32>) {
    ^bb0(%in: f32, %out: f32):
      %380 = math.cos %in : f32
      linalg.yield %380 : f32
    } -> tensor<f32>
    %113 = linalg.generic {indexing_maps = [#map1, #map1, #map1], iterator_types = []} ins(%112, %cst_8 : tensor<f32>, tensor<f32>) outs(%6 : tensor<f32>) {
    ^bb0(%in: f32, %in_268: f32, %out: f32):
      %380 = arith.mulf %in, %in_268 : f32
      linalg.yield %380 : f32
    } -> tensor<f32>
    %114 = linalg.generic {indexing_maps = [#map1, #map1, #map1], iterator_types = []} ins(%collapsed_80, %collapsed_81 : tensor<f32>, tensor<f32>) outs(%6 : tensor<f32>) {
    ^bb0(%in: f32, %in_268: f32, %out: f32):
      %380 = arith.addf %in, %in_268 : f32
      linalg.yield %380 : f32
    } -> tensor<f32>
    %115 = linalg.generic {indexing_maps = [#map1, #map1], iterator_types = []} ins(%114 : tensor<f32>) outs(%6 : tensor<f32>) {
    ^bb0(%in: f32, %out: f32):
      %380 = math.cos %in : f32
      linalg.yield %380 : f32
    } -> tensor<f32>
    %116 = linalg.generic {indexing_maps = [#map1, #map1, #map1], iterator_types = []} ins(%115, %cst_8 : tensor<f32>, tensor<f32>) outs(%6 : tensor<f32>) {
    ^bb0(%in: f32, %in_268: f32, %out: f32):
      %380 = arith.mulf %in, %in_268 : f32
      linalg.yield %380 : f32
    } -> tensor<f32>
    %117 = linalg.generic {indexing_maps = [#map1, #map1, #map1], iterator_types = []} ins(%113, %116 : tensor<f32>, tensor<f32>) outs(%6 : tensor<f32>) {
    ^bb0(%in: f32, %in_268: f32, %out: f32):
      %380 = arith.addf %in, %in_268 : f32
      linalg.yield %380 : f32
    } -> tensor<f32>
    %118 = linalg.generic {indexing_maps = [#map1, #map1], iterator_types = []} ins(%collapsed_80 : tensor<f32>) outs(%6 : tensor<f32>) {
    ^bb0(%in: f32, %out: f32):
      %380 = math.sin %in : f32
      linalg.yield %380 : f32
    } -> tensor<f32>
    %119 = linalg.generic {indexing_maps = [#map1, #map1, #map1], iterator_types = []} ins(%118, %cst_8 : tensor<f32>, tensor<f32>) outs(%6 : tensor<f32>) {
    ^bb0(%in: f32, %in_268: f32, %out: f32):
      %380 = arith.mulf %in, %in_268 : f32
      linalg.yield %380 : f32
    } -> tensor<f32>
    %120 = linalg.generic {indexing_maps = [#map1, #map1], iterator_types = []} ins(%114 : tensor<f32>) outs(%6 : tensor<f32>) {
    ^bb0(%in: f32, %out: f32):
      %380 = math.sin %in : f32
      linalg.yield %380 : f32
    } -> tensor<f32>
    %121 = linalg.generic {indexing_maps = [#map1, #map1, #map1], iterator_types = []} ins(%120, %cst_8 : tensor<f32>, tensor<f32>) outs(%6 : tensor<f32>) {
    ^bb0(%in: f32, %in_268: f32, %out: f32):
      %380 = arith.mulf %in, %in_268 : f32
      linalg.yield %380 : f32
    } -> tensor<f32>
    %122 = linalg.generic {indexing_maps = [#map1, #map1, #map1], iterator_types = []} ins(%119, %121 : tensor<f32>, tensor<f32>) outs(%6 : tensor<f32>) {
    ^bb0(%in: f32, %in_268: f32, %out: f32):
      %380 = arith.addf %in, %in_268 : f32
      linalg.yield %380 : f32
    } -> tensor<f32>
    %expanded_82 = tensor.expand_shape %117 [] output_shape [1] : tensor<f32> into tensor<1xf32>
    %expanded_83 = tensor.expand_shape %122 [] output_shape [1] : tensor<f32> into tensor<1xf32>
    %concat_84 = tensor.concat dim(0) %expanded_82, %expanded_83 : (tensor<1xf32>, tensor<1xf32>) -> tensor<2xf32>
    %123 = linalg.generic {indexing_maps = [#map, #map, #map], iterator_types = ["parallel"]} ins(%collapsed_27, %concat_84 : tensor<2xf32>, tensor<2xf32>) outs(%51 : tensor<2xf32>) {
    ^bb0(%in: f32, %in_268: f32, %out: f32):
      %380 = arith.subf %in, %in_268 : f32
      linalg.yield %380 : f32
    } -> tensor<2xf32>
    %124 = linalg.generic {indexing_maps = [#map1, #map1, #map1], iterator_types = []} ins(%118, %cst_7 : tensor<f32>, tensor<f32>) outs(%6 : tensor<f32>) {
    ^bb0(%in: f32, %in_268: f32, %out: f32):
      %380 = arith.mulf %in, %in_268 : f32
      linalg.yield %380 : f32
    } -> tensor<f32>
    %125 = linalg.generic {indexing_maps = [#map1, #map1, #map1], iterator_types = []} ins(%124, %121 : tensor<f32>, tensor<f32>) outs(%6 : tensor<f32>) {
    ^bb0(%in: f32, %in_268: f32, %out: f32):
      %380 = arith.subf %in, %in_268 : f32
      linalg.yield %380 : f32
    } -> tensor<f32>
    %126 = linalg.generic {indexing_maps = [#map1, #map1, #map1], iterator_types = []} ins(%120, %cst_7 : tensor<f32>, tensor<f32>) outs(%6 : tensor<f32>) {
    ^bb0(%in: f32, %in_268: f32, %out: f32):
      %380 = arith.mulf %in, %in_268 : f32
      linalg.yield %380 : f32
    } -> tensor<f32>
    %expanded_85 = tensor.expand_shape %125 [] output_shape [1] : tensor<f32> into tensor<1xf32>
    %expanded_86 = tensor.expand_shape %126 [] output_shape [1] : tensor<f32> into tensor<1xf32>
    %concat_87 = tensor.concat dim(0) %expanded_85, %expanded_86 : (tensor<1xf32>, tensor<1xf32>) -> tensor<2xf32>
    %expanded_88 = tensor.expand_shape %116 [] output_shape [1] : tensor<f32> into tensor<1xf32>
    %concat_89 = tensor.concat dim(0) %expanded_82, %expanded_88 : (tensor<1xf32>, tensor<1xf32>) -> tensor<2xf32>
    %expanded_90 = tensor.expand_shape %concat_87 [[0, 1]] output_shape [1, 2] : tensor<2xf32> into tensor<1x2xf32>
    %expanded_91 = tensor.expand_shape %concat_89 [[0, 1]] output_shape [1, 2] : tensor<2xf32> into tensor<1x2xf32>
    %concat_92 = tensor.concat dim(0) %expanded_90, %expanded_91 : (tensor<1x2xf32>, tensor<1x2xf32>) -> tensor<2x2xf32>
    %127 = linalg.generic {indexing_maps = [#map5, #map3], iterator_types = ["parallel", "parallel"]} ins(%cst_16 : tensor<1xi64>) outs(%34 : tensor<1x2xf32>) {
    ^bb0(%in: i64, %out: f32):
      %380 = arith.index_cast %in : i64 to index
      %381 = linalg.index 1 : index
      %extracted = tensor.extract %concat_92[%380, %381] : tensor<2x2xf32>
      linalg.yield %extracted : f32
    } -> tensor<1x2xf32>
    %collapsed_93 = tensor.collapse_shape %127 [[0, 1]] : tensor<1x2xf32> into tensor<2xf32>
    %128 = linalg.generic {indexing_maps = [#map, #map], iterator_types = ["parallel"]} ins(%cst_16 : tensor<1xi64>) outs(%4 : tensor<1xf32>) {
    ^bb0(%in: i64, %out: f32):
      %380 = arith.index_cast %in : i64 to index
      %extracted = tensor.extract %collapsed_93[%380] : tensor<2xf32>
      linalg.yield %extracted : f32
    } -> tensor<1xf32>
    %collapsed_94 = tensor.collapse_shape %128 [] : tensor<1xf32> into tensor<f32>
    %129 = linalg.generic {indexing_maps = [#map5, #map3], iterator_types = ["parallel", "parallel"]} ins(%cst_0 : tensor<1xi64>) outs(%34 : tensor<1x2xf32>) {
    ^bb0(%in: i64, %out: f32):
      %380 = arith.index_cast %in : i64 to index
      %381 = linalg.index 1 : index
      %extracted = tensor.extract %concat_92[%380, %381] : tensor<2x2xf32>
      linalg.yield %extracted : f32
    } -> tensor<1x2xf32>
    %collapsed_95 = tensor.collapse_shape %129 [[0, 1]] : tensor<1x2xf32> into tensor<2xf32>
    %130 = linalg.generic {indexing_maps = [#map, #map], iterator_types = ["parallel"]} ins(%cst_0 : tensor<1xi64>) outs(%4 : tensor<1xf32>) {
    ^bb0(%in: i64, %out: f32):
      %380 = arith.index_cast %in : i64 to index
      %extracted = tensor.extract %collapsed_95[%380] : tensor<2xf32>
      linalg.yield %extracted : f32
    } -> tensor<1xf32>
    %collapsed_96 = tensor.collapse_shape %130 [] : tensor<1xf32> into tensor<f32>
    %131 = linalg.generic {indexing_maps = [#map1, #map1, #map1], iterator_types = []} ins(%collapsed_94, %collapsed_96 : tensor<f32>, tensor<f32>) outs(%6 : tensor<f32>) {
    ^bb0(%in: f32, %in_268: f32, %out: f32):
      %380 = arith.mulf %in, %in_268 : f32
      linalg.yield %380 : f32
    } -> tensor<f32>
    %132 = linalg.generic {indexing_maps = [#map, #map], iterator_types = ["parallel"]} ins(%cst_0 : tensor<1xi64>) outs(%4 : tensor<1xf32>) {
    ^bb0(%in: i64, %out: f32):
      %380 = arith.index_cast %in : i64 to index
      %extracted = tensor.extract %collapsed_93[%380] : tensor<2xf32>
      linalg.yield %extracted : f32
    } -> tensor<1xf32>
    %collapsed_97 = tensor.collapse_shape %132 [] : tensor<1xf32> into tensor<f32>
    %133 = linalg.generic {indexing_maps = [#map, #map], iterator_types = ["parallel"]} ins(%cst_16 : tensor<1xi64>) outs(%4 : tensor<1xf32>) {
    ^bb0(%in: i64, %out: f32):
      %380 = arith.index_cast %in : i64 to index
      %extracted = tensor.extract %collapsed_95[%380] : tensor<2xf32>
      linalg.yield %extracted : f32
    } -> tensor<1xf32>
    %collapsed_98 = tensor.collapse_shape %133 [] : tensor<1xf32> into tensor<f32>
    %134 = linalg.generic {indexing_maps = [#map1, #map1, #map1], iterator_types = []} ins(%collapsed_97, %collapsed_98 : tensor<f32>, tensor<f32>) outs(%6 : tensor<f32>) {
    ^bb0(%in: f32, %in_268: f32, %out: f32):
      %380 = arith.mulf %in, %in_268 : f32
      linalg.yield %380 : f32
    } -> tensor<f32>
    %135 = linalg.generic {indexing_maps = [#map1, #map1, #map1], iterator_types = []} ins(%131, %134 : tensor<f32>, tensor<f32>) outs(%6 : tensor<f32>) {
    ^bb0(%in: f32, %in_268: f32, %out: f32):
      %380 = arith.subf %in, %in_268 : f32
      linalg.yield %380 : f32
    } -> tensor<f32>
    %136 = linalg.generic {indexing_maps = [#map1, #map1, #map1], iterator_types = []} ins(%135, %cst_6 : tensor<f32>, tensor<f32>) outs(%6 : tensor<f32>) {
    ^bb0(%in: f32, %in_268: f32, %out: f32):
      %380 = arith.addf %in, %in_268 : f32
      linalg.yield %380 : f32
    } -> tensor<f32>
    %137 = linalg.generic {indexing_maps = [#map1, #map1], iterator_types = []} ins(%136 : tensor<f32>) outs(%6 : tensor<f32>) {
    ^bb0(%in: f32, %out: f32):
      %380 = arith.cmpf one, %in, %cst_17 : f32
      cf.assert %380, "unimplemented: tensor with zero element"
      %381 = arith.divf %cst_19, %in : f32
      linalg.yield %381 : f32
    } -> tensor<f32>
    %138 = linalg.generic {indexing_maps = [#map1, #map1, #map1], iterator_types = []} ins(%137, %cst_8 : tensor<f32>, tensor<f32>) outs(%6 : tensor<f32>) {
    ^bb0(%in: f32, %in_268: f32, %out: f32):
      %380 = arith.mulf %in, %in_268 : f32
      linalg.yield %380 : f32
    } -> tensor<f32>
    %139 = linalg.generic {indexing_maps = [#map1, #map1], iterator_types = []} ins(%collapsed_97 : tensor<f32>) outs(%6 : tensor<f32>) {
    ^bb0(%in: f32, %out: f32):
      %380 = arith.negf %in : f32
      linalg.yield %380 : f32
    } -> tensor<f32>
    %expanded_99 = tensor.expand_shape %139 [] output_shape [1] : tensor<f32> into tensor<1xf32>
    %concat_100 = tensor.concat dim(0) %130, %expanded_99 : (tensor<1xf32>, tensor<1xf32>) -> tensor<2xf32>
    %140 = linalg.generic {indexing_maps = [#map1, #map1], iterator_types = []} ins(%collapsed_98 : tensor<f32>) outs(%6 : tensor<f32>) {
    ^bb0(%in: f32, %out: f32):
      %380 = arith.negf %in : f32
      linalg.yield %380 : f32
    } -> tensor<f32>
    %expanded_101 = tensor.expand_shape %140 [] output_shape [1] : tensor<f32> into tensor<1xf32>
    %concat_102 = tensor.concat dim(0) %expanded_101, %128 : (tensor<1xf32>, tensor<1xf32>) -> tensor<2xf32>
    %expanded_103 = tensor.expand_shape %concat_100 [[0, 1]] output_shape [1, 2] : tensor<2xf32> into tensor<1x2xf32>
    %expanded_104 = tensor.expand_shape %concat_102 [[0, 1]] output_shape [1, 2] : tensor<2xf32> into tensor<1x2xf32>
    %concat_105 = tensor.concat dim(0) %expanded_103, %expanded_104 : (tensor<1x2xf32>, tensor<1x2xf32>) -> tensor<2x2xf32>
    %141 = linalg.generic {indexing_maps = [#map3, #map6, #map3], iterator_types = ["parallel", "parallel"]} ins(%concat_105, %138 : tensor<2x2xf32>, tensor<f32>) outs(%31 : tensor<2x2xf32>) {
    ^bb0(%in: f32, %in_268: f32, %out: f32):
      %380 = arith.mulf %in, %in_268 : f32
      linalg.yield %380 : f32
    } -> tensor<2x2xf32>
    %142 = linalg.matvec ins(%141, %123 : tensor<2x2xf32>, tensor<2xf32>) outs(%71 : tensor<2xf32>) -> tensor<2xf32>
    %143 = linalg.generic {indexing_maps = [#map, #map7, #map], iterator_types = ["parallel"]} ins(%142, %cst_5 : tensor<2xf32>, tensor<f32>) outs(%51 : tensor<2xf32>) {
    ^bb0(%in: f32, %in_268: f32, %out: f32):
      %380 = arith.mulf %in, %in_268 : f32
      linalg.yield %380 : f32
    } -> tensor<2xf32>
    %144 = linalg.generic {indexing_maps = [#map, #map, #map], iterator_types = ["parallel"]} ins(%109, %143 : tensor<2xf32>, tensor<2xf32>) outs(%51 : tensor<2xf32>) {
    ^bb0(%in: f32, %in_268: f32, %out: f32):
      %380 = arith.addf %in, %in_268 : f32
      linalg.yield %380 : f32
    } -> tensor<2xf32>
    %145 = linalg.generic {indexing_maps = [#map, #map], iterator_types = ["parallel"]} ins(%cst_16 : tensor<1xi64>) outs(%4 : tensor<1xf32>) {
    ^bb0(%in: i64, %out: f32):
      %380 = arith.index_cast %in : i64 to index
      %extracted = tensor.extract %144[%380] : tensor<2xf32>
      linalg.yield %extracted : f32
    } -> tensor<1xf32>
    %collapsed_106 = tensor.collapse_shape %145 [] : tensor<1xf32> into tensor<f32>
    %146 = linalg.generic {indexing_maps = [#map, #map], iterator_types = ["parallel"]} ins(%cst_0 : tensor<1xi64>) outs(%4 : tensor<1xf32>) {
    ^bb0(%in: i64, %out: f32):
      %380 = arith.index_cast %in : i64 to index
      %extracted = tensor.extract %144[%380] : tensor<2xf32>
      linalg.yield %extracted : f32
    } -> tensor<1xf32>
    %collapsed_107 = tensor.collapse_shape %146 [] : tensor<1xf32> into tensor<f32>
    %147 = linalg.generic {indexing_maps = [#map1, #map1], iterator_types = []} ins(%collapsed_106 : tensor<f32>) outs(%6 : tensor<f32>) {
    ^bb0(%in: f32, %out: f32):
      %380 = math.cos %in : f32
      linalg.yield %380 : f32
    } -> tensor<f32>
    %148 = linalg.generic {indexing_maps = [#map1, #map1, #map1], iterator_types = []} ins(%147, %cst_8 : tensor<f32>, tensor<f32>) outs(%6 : tensor<f32>) {
    ^bb0(%in: f32, %in_268: f32, %out: f32):
      %380 = arith.mulf %in, %in_268 : f32
      linalg.yield %380 : f32
    } -> tensor<f32>
    %149 = linalg.generic {indexing_maps = [#map1, #map1, #map1], iterator_types = []} ins(%collapsed_106, %collapsed_107 : tensor<f32>, tensor<f32>) outs(%6 : tensor<f32>) {
    ^bb0(%in: f32, %in_268: f32, %out: f32):
      %380 = arith.addf %in, %in_268 : f32
      linalg.yield %380 : f32
    } -> tensor<f32>
    %150 = linalg.generic {indexing_maps = [#map1, #map1], iterator_types = []} ins(%149 : tensor<f32>) outs(%6 : tensor<f32>) {
    ^bb0(%in: f32, %out: f32):
      %380 = math.cos %in : f32
      linalg.yield %380 : f32
    } -> tensor<f32>
    %151 = linalg.generic {indexing_maps = [#map1, #map1, #map1], iterator_types = []} ins(%150, %cst_8 : tensor<f32>, tensor<f32>) outs(%6 : tensor<f32>) {
    ^bb0(%in: f32, %in_268: f32, %out: f32):
      %380 = arith.mulf %in, %in_268 : f32
      linalg.yield %380 : f32
    } -> tensor<f32>
    %152 = linalg.generic {indexing_maps = [#map1, #map1, #map1], iterator_types = []} ins(%148, %151 : tensor<f32>, tensor<f32>) outs(%6 : tensor<f32>) {
    ^bb0(%in: f32, %in_268: f32, %out: f32):
      %380 = arith.addf %in, %in_268 : f32
      linalg.yield %380 : f32
    } -> tensor<f32>
    %153 = linalg.generic {indexing_maps = [#map1, #map1], iterator_types = []} ins(%collapsed_106 : tensor<f32>) outs(%6 : tensor<f32>) {
    ^bb0(%in: f32, %out: f32):
      %380 = math.sin %in : f32
      linalg.yield %380 : f32
    } -> tensor<f32>
    %154 = linalg.generic {indexing_maps = [#map1, #map1, #map1], iterator_types = []} ins(%153, %cst_8 : tensor<f32>, tensor<f32>) outs(%6 : tensor<f32>) {
    ^bb0(%in: f32, %in_268: f32, %out: f32):
      %380 = arith.mulf %in, %in_268 : f32
      linalg.yield %380 : f32
    } -> tensor<f32>
    %155 = linalg.generic {indexing_maps = [#map1, #map1], iterator_types = []} ins(%149 : tensor<f32>) outs(%6 : tensor<f32>) {
    ^bb0(%in: f32, %out: f32):
      %380 = math.sin %in : f32
      linalg.yield %380 : f32
    } -> tensor<f32>
    %156 = linalg.generic {indexing_maps = [#map1, #map1, #map1], iterator_types = []} ins(%155, %cst_8 : tensor<f32>, tensor<f32>) outs(%6 : tensor<f32>) {
    ^bb0(%in: f32, %in_268: f32, %out: f32):
      %380 = arith.mulf %in, %in_268 : f32
      linalg.yield %380 : f32
    } -> tensor<f32>
    %157 = linalg.generic {indexing_maps = [#map1, #map1, #map1], iterator_types = []} ins(%154, %156 : tensor<f32>, tensor<f32>) outs(%6 : tensor<f32>) {
    ^bb0(%in: f32, %in_268: f32, %out: f32):
      %380 = arith.addf %in, %in_268 : f32
      linalg.yield %380 : f32
    } -> tensor<f32>
    %expanded_108 = tensor.expand_shape %152 [] output_shape [1] : tensor<f32> into tensor<1xf32>
    %expanded_109 = tensor.expand_shape %157 [] output_shape [1] : tensor<f32> into tensor<1xf32>
    %concat_110 = tensor.concat dim(0) %expanded_108, %expanded_109 : (tensor<1xf32>, tensor<1xf32>) -> tensor<2xf32>
    %158 = linalg.generic {indexing_maps = [#map, #map, #map], iterator_types = ["parallel"]} ins(%collapsed_27, %concat_110 : tensor<2xf32>, tensor<2xf32>) outs(%51 : tensor<2xf32>) {
    ^bb0(%in: f32, %in_268: f32, %out: f32):
      %380 = arith.subf %in, %in_268 : f32
      linalg.yield %380 : f32
    } -> tensor<2xf32>
    %159 = linalg.generic {indexing_maps = [#map1, #map1, #map1], iterator_types = []} ins(%153, %cst_7 : tensor<f32>, tensor<f32>) outs(%6 : tensor<f32>) {
    ^bb0(%in: f32, %in_268: f32, %out: f32):
      %380 = arith.mulf %in, %in_268 : f32
      linalg.yield %380 : f32
    } -> tensor<f32>
    %160 = linalg.generic {indexing_maps = [#map1, #map1, #map1], iterator_types = []} ins(%159, %156 : tensor<f32>, tensor<f32>) outs(%6 : tensor<f32>) {
    ^bb0(%in: f32, %in_268: f32, %out: f32):
      %380 = arith.subf %in, %in_268 : f32
      linalg.yield %380 : f32
    } -> tensor<f32>
    %161 = linalg.generic {indexing_maps = [#map1, #map1, #map1], iterator_types = []} ins(%155, %cst_7 : tensor<f32>, tensor<f32>) outs(%6 : tensor<f32>) {
    ^bb0(%in: f32, %in_268: f32, %out: f32):
      %380 = arith.mulf %in, %in_268 : f32
      linalg.yield %380 : f32
    } -> tensor<f32>
    %expanded_111 = tensor.expand_shape %160 [] output_shape [1] : tensor<f32> into tensor<1xf32>
    %expanded_112 = tensor.expand_shape %161 [] output_shape [1] : tensor<f32> into tensor<1xf32>
    %concat_113 = tensor.concat dim(0) %expanded_111, %expanded_112 : (tensor<1xf32>, tensor<1xf32>) -> tensor<2xf32>
    %expanded_114 = tensor.expand_shape %151 [] output_shape [1] : tensor<f32> into tensor<1xf32>
    %concat_115 = tensor.concat dim(0) %expanded_108, %expanded_114 : (tensor<1xf32>, tensor<1xf32>) -> tensor<2xf32>
    %expanded_116 = tensor.expand_shape %concat_113 [[0, 1]] output_shape [1, 2] : tensor<2xf32> into tensor<1x2xf32>
    %expanded_117 = tensor.expand_shape %concat_115 [[0, 1]] output_shape [1, 2] : tensor<2xf32> into tensor<1x2xf32>
    %concat_118 = tensor.concat dim(0) %expanded_116, %expanded_117 : (tensor<1x2xf32>, tensor<1x2xf32>) -> tensor<2x2xf32>
    %162 = linalg.generic {indexing_maps = [#map5, #map3], iterator_types = ["parallel", "parallel"]} ins(%cst_16 : tensor<1xi64>) outs(%34 : tensor<1x2xf32>) {
    ^bb0(%in: i64, %out: f32):
      %380 = arith.index_cast %in : i64 to index
      %381 = linalg.index 1 : index
      %extracted = tensor.extract %concat_118[%380, %381] : tensor<2x2xf32>
      linalg.yield %extracted : f32
    } -> tensor<1x2xf32>
    %collapsed_119 = tensor.collapse_shape %162 [[0, 1]] : tensor<1x2xf32> into tensor<2xf32>
    %163 = linalg.generic {indexing_maps = [#map, #map], iterator_types = ["parallel"]} ins(%cst_16 : tensor<1xi64>) outs(%4 : tensor<1xf32>) {
    ^bb0(%in: i64, %out: f32):
      %380 = arith.index_cast %in : i64 to index
      %extracted = tensor.extract %collapsed_119[%380] : tensor<2xf32>
      linalg.yield %extracted : f32
    } -> tensor<1xf32>
    %collapsed_120 = tensor.collapse_shape %163 [] : tensor<1xf32> into tensor<f32>
    %164 = linalg.generic {indexing_maps = [#map5, #map3], iterator_types = ["parallel", "parallel"]} ins(%cst_0 : tensor<1xi64>) outs(%34 : tensor<1x2xf32>) {
    ^bb0(%in: i64, %out: f32):
      %380 = arith.index_cast %in : i64 to index
      %381 = linalg.index 1 : index
      %extracted = tensor.extract %concat_118[%380, %381] : tensor<2x2xf32>
      linalg.yield %extracted : f32
    } -> tensor<1x2xf32>
    %collapsed_121 = tensor.collapse_shape %164 [[0, 1]] : tensor<1x2xf32> into tensor<2xf32>
    %165 = linalg.generic {indexing_maps = [#map, #map], iterator_types = ["parallel"]} ins(%cst_0 : tensor<1xi64>) outs(%4 : tensor<1xf32>) {
    ^bb0(%in: i64, %out: f32):
      %380 = arith.index_cast %in : i64 to index
      %extracted = tensor.extract %collapsed_121[%380] : tensor<2xf32>
      linalg.yield %extracted : f32
    } -> tensor<1xf32>
    %collapsed_122 = tensor.collapse_shape %165 [] : tensor<1xf32> into tensor<f32>
    %166 = linalg.generic {indexing_maps = [#map1, #map1, #map1], iterator_types = []} ins(%collapsed_120, %collapsed_122 : tensor<f32>, tensor<f32>) outs(%6 : tensor<f32>) {
    ^bb0(%in: f32, %in_268: f32, %out: f32):
      %380 = arith.mulf %in, %in_268 : f32
      linalg.yield %380 : f32
    } -> tensor<f32>
    %167 = linalg.generic {indexing_maps = [#map, #map], iterator_types = ["parallel"]} ins(%cst_0 : tensor<1xi64>) outs(%4 : tensor<1xf32>) {
    ^bb0(%in: i64, %out: f32):
      %380 = arith.index_cast %in : i64 to index
      %extracted = tensor.extract %collapsed_119[%380] : tensor<2xf32>
      linalg.yield %extracted : f32
    } -> tensor<1xf32>
    %collapsed_123 = tensor.collapse_shape %167 [] : tensor<1xf32> into tensor<f32>
    %168 = linalg.generic {indexing_maps = [#map, #map], iterator_types = ["parallel"]} ins(%cst_16 : tensor<1xi64>) outs(%4 : tensor<1xf32>) {
    ^bb0(%in: i64, %out: f32):
      %380 = arith.index_cast %in : i64 to index
      %extracted = tensor.extract %collapsed_121[%380] : tensor<2xf32>
      linalg.yield %extracted : f32
    } -> tensor<1xf32>
    %collapsed_124 = tensor.collapse_shape %168 [] : tensor<1xf32> into tensor<f32>
    %169 = linalg.generic {indexing_maps = [#map1, #map1, #map1], iterator_types = []} ins(%collapsed_123, %collapsed_124 : tensor<f32>, tensor<f32>) outs(%6 : tensor<f32>) {
    ^bb0(%in: f32, %in_268: f32, %out: f32):
      %380 = arith.mulf %in, %in_268 : f32
      linalg.yield %380 : f32
    } -> tensor<f32>
    %170 = linalg.generic {indexing_maps = [#map1, #map1, #map1], iterator_types = []} ins(%166, %169 : tensor<f32>, tensor<f32>) outs(%6 : tensor<f32>) {
    ^bb0(%in: f32, %in_268: f32, %out: f32):
      %380 = arith.subf %in, %in_268 : f32
      linalg.yield %380 : f32
    } -> tensor<f32>
    %171 = linalg.generic {indexing_maps = [#map1, #map1, #map1], iterator_types = []} ins(%170, %cst_6 : tensor<f32>, tensor<f32>) outs(%6 : tensor<f32>) {
    ^bb0(%in: f32, %in_268: f32, %out: f32):
      %380 = arith.addf %in, %in_268 : f32
      linalg.yield %380 : f32
    } -> tensor<f32>
    %172 = linalg.generic {indexing_maps = [#map1, #map1], iterator_types = []} ins(%171 : tensor<f32>) outs(%6 : tensor<f32>) {
    ^bb0(%in: f32, %out: f32):
      %380 = arith.cmpf one, %in, %cst_17 : f32
      cf.assert %380, "unimplemented: tensor with zero element"
      %381 = arith.divf %cst_19, %in : f32
      linalg.yield %381 : f32
    } -> tensor<f32>
    %173 = linalg.generic {indexing_maps = [#map1, #map1, #map1], iterator_types = []} ins(%172, %cst_8 : tensor<f32>, tensor<f32>) outs(%6 : tensor<f32>) {
    ^bb0(%in: f32, %in_268: f32, %out: f32):
      %380 = arith.mulf %in, %in_268 : f32
      linalg.yield %380 : f32
    } -> tensor<f32>
    %174 = linalg.generic {indexing_maps = [#map1, #map1], iterator_types = []} ins(%collapsed_123 : tensor<f32>) outs(%6 : tensor<f32>) {
    ^bb0(%in: f32, %out: f32):
      %380 = arith.negf %in : f32
      linalg.yield %380 : f32
    } -> tensor<f32>
    %expanded_125 = tensor.expand_shape %174 [] output_shape [1] : tensor<f32> into tensor<1xf32>
    %concat_126 = tensor.concat dim(0) %165, %expanded_125 : (tensor<1xf32>, tensor<1xf32>) -> tensor<2xf32>
    %175 = linalg.generic {indexing_maps = [#map1, #map1], iterator_types = []} ins(%collapsed_124 : tensor<f32>) outs(%6 : tensor<f32>) {
    ^bb0(%in: f32, %out: f32):
      %380 = arith.negf %in : f32
      linalg.yield %380 : f32
    } -> tensor<f32>
    %expanded_127 = tensor.expand_shape %175 [] output_shape [1] : tensor<f32> into tensor<1xf32>
    %concat_128 = tensor.concat dim(0) %expanded_127, %163 : (tensor<1xf32>, tensor<1xf32>) -> tensor<2xf32>
    %expanded_129 = tensor.expand_shape %concat_126 [[0, 1]] output_shape [1, 2] : tensor<2xf32> into tensor<1x2xf32>
    %expanded_130 = tensor.expand_shape %concat_128 [[0, 1]] output_shape [1, 2] : tensor<2xf32> into tensor<1x2xf32>
    %concat_131 = tensor.concat dim(0) %expanded_129, %expanded_130 : (tensor<1x2xf32>, tensor<1x2xf32>) -> tensor<2x2xf32>
    %176 = linalg.generic {indexing_maps = [#map3, #map6, #map3], iterator_types = ["parallel", "parallel"]} ins(%concat_131, %173 : tensor<2x2xf32>, tensor<f32>) outs(%31 : tensor<2x2xf32>) {
    ^bb0(%in: f32, %in_268: f32, %out: f32):
      %380 = arith.mulf %in, %in_268 : f32
      linalg.yield %380 : f32
    } -> tensor<2x2xf32>
    %177 = linalg.matvec ins(%176, %158 : tensor<2x2xf32>, tensor<2xf32>) outs(%71 : tensor<2xf32>) -> tensor<2xf32>
    %178 = linalg.generic {indexing_maps = [#map, #map7, #map], iterator_types = ["parallel"]} ins(%177, %cst_5 : tensor<2xf32>, tensor<f32>) outs(%51 : tensor<2xf32>) {
    ^bb0(%in: f32, %in_268: f32, %out: f32):
      %380 = arith.mulf %in, %in_268 : f32
      linalg.yield %380 : f32
    } -> tensor<2xf32>
    %179 = linalg.generic {indexing_maps = [#map, #map, #map], iterator_types = ["parallel"]} ins(%144, %178 : tensor<2xf32>, tensor<2xf32>) outs(%51 : tensor<2xf32>) {
    ^bb0(%in: f32, %in_268: f32, %out: f32):
      %380 = arith.addf %in, %in_268 : f32
      linalg.yield %380 : f32
    } -> tensor<2xf32>
    %180 = linalg.generic {indexing_maps = [#map, #map], iterator_types = ["parallel"]} ins(%cst_16 : tensor<1xi64>) outs(%4 : tensor<1xf32>) {
    ^bb0(%in: i64, %out: f32):
      %380 = arith.index_cast %in : i64 to index
      %extracted = tensor.extract %179[%380] : tensor<2xf32>
      linalg.yield %extracted : f32
    } -> tensor<1xf32>
    %collapsed_132 = tensor.collapse_shape %180 [] : tensor<1xf32> into tensor<f32>
    %181 = linalg.generic {indexing_maps = [#map, #map], iterator_types = ["parallel"]} ins(%cst_0 : tensor<1xi64>) outs(%4 : tensor<1xf32>) {
    ^bb0(%in: i64, %out: f32):
      %380 = arith.index_cast %in : i64 to index
      %extracted = tensor.extract %179[%380] : tensor<2xf32>
      linalg.yield %extracted : f32
    } -> tensor<1xf32>
    %collapsed_133 = tensor.collapse_shape %181 [] : tensor<1xf32> into tensor<f32>
    %182 = linalg.generic {indexing_maps = [#map1, #map1], iterator_types = []} ins(%collapsed_132 : tensor<f32>) outs(%6 : tensor<f32>) {
    ^bb0(%in: f32, %out: f32):
      %380 = math.cos %in : f32
      linalg.yield %380 : f32
    } -> tensor<f32>
    %183 = linalg.generic {indexing_maps = [#map1, #map1, #map1], iterator_types = []} ins(%182, %cst_8 : tensor<f32>, tensor<f32>) outs(%6 : tensor<f32>) {
    ^bb0(%in: f32, %in_268: f32, %out: f32):
      %380 = arith.mulf %in, %in_268 : f32
      linalg.yield %380 : f32
    } -> tensor<f32>
    %184 = linalg.generic {indexing_maps = [#map1, #map1, #map1], iterator_types = []} ins(%collapsed_132, %collapsed_133 : tensor<f32>, tensor<f32>) outs(%6 : tensor<f32>) {
    ^bb0(%in: f32, %in_268: f32, %out: f32):
      %380 = arith.addf %in, %in_268 : f32
      linalg.yield %380 : f32
    } -> tensor<f32>
    %185 = linalg.generic {indexing_maps = [#map1, #map1], iterator_types = []} ins(%184 : tensor<f32>) outs(%6 : tensor<f32>) {
    ^bb0(%in: f32, %out: f32):
      %380 = math.cos %in : f32
      linalg.yield %380 : f32
    } -> tensor<f32>
    %186 = linalg.generic {indexing_maps = [#map1, #map1, #map1], iterator_types = []} ins(%185, %cst_8 : tensor<f32>, tensor<f32>) outs(%6 : tensor<f32>) {
    ^bb0(%in: f32, %in_268: f32, %out: f32):
      %380 = arith.mulf %in, %in_268 : f32
      linalg.yield %380 : f32
    } -> tensor<f32>
    %187 = linalg.generic {indexing_maps = [#map1, #map1, #map1], iterator_types = []} ins(%183, %186 : tensor<f32>, tensor<f32>) outs(%6 : tensor<f32>) {
    ^bb0(%in: f32, %in_268: f32, %out: f32):
      %380 = arith.addf %in, %in_268 : f32
      linalg.yield %380 : f32
    } -> tensor<f32>
    %188 = linalg.generic {indexing_maps = [#map1, #map1], iterator_types = []} ins(%collapsed_132 : tensor<f32>) outs(%6 : tensor<f32>) {
    ^bb0(%in: f32, %out: f32):
      %380 = math.sin %in : f32
      linalg.yield %380 : f32
    } -> tensor<f32>
    %189 = linalg.generic {indexing_maps = [#map1, #map1, #map1], iterator_types = []} ins(%188, %cst_8 : tensor<f32>, tensor<f32>) outs(%6 : tensor<f32>) {
    ^bb0(%in: f32, %in_268: f32, %out: f32):
      %380 = arith.mulf %in, %in_268 : f32
      linalg.yield %380 : f32
    } -> tensor<f32>
    %190 = linalg.generic {indexing_maps = [#map1, #map1], iterator_types = []} ins(%184 : tensor<f32>) outs(%6 : tensor<f32>) {
    ^bb0(%in: f32, %out: f32):
      %380 = math.sin %in : f32
      linalg.yield %380 : f32
    } -> tensor<f32>
    %191 = linalg.generic {indexing_maps = [#map1, #map1, #map1], iterator_types = []} ins(%190, %cst_8 : tensor<f32>, tensor<f32>) outs(%6 : tensor<f32>) {
    ^bb0(%in: f32, %in_268: f32, %out: f32):
      %380 = arith.mulf %in, %in_268 : f32
      linalg.yield %380 : f32
    } -> tensor<f32>
    %192 = linalg.generic {indexing_maps = [#map1, #map1, #map1], iterator_types = []} ins(%189, %191 : tensor<f32>, tensor<f32>) outs(%6 : tensor<f32>) {
    ^bb0(%in: f32, %in_268: f32, %out: f32):
      %380 = arith.addf %in, %in_268 : f32
      linalg.yield %380 : f32
    } -> tensor<f32>
    %expanded_134 = tensor.expand_shape %187 [] output_shape [1] : tensor<f32> into tensor<1xf32>
    %expanded_135 = tensor.expand_shape %192 [] output_shape [1] : tensor<f32> into tensor<1xf32>
    %concat_136 = tensor.concat dim(0) %expanded_134, %expanded_135 : (tensor<1xf32>, tensor<1xf32>) -> tensor<2xf32>
    %193 = linalg.generic {indexing_maps = [#map, #map, #map], iterator_types = ["parallel"]} ins(%collapsed_27, %concat_136 : tensor<2xf32>, tensor<2xf32>) outs(%51 : tensor<2xf32>) {
    ^bb0(%in: f32, %in_268: f32, %out: f32):
      %380 = arith.subf %in, %in_268 : f32
      linalg.yield %380 : f32
    } -> tensor<2xf32>
    %194 = linalg.generic {indexing_maps = [#map1, #map1, #map1], iterator_types = []} ins(%188, %cst_7 : tensor<f32>, tensor<f32>) outs(%6 : tensor<f32>) {
    ^bb0(%in: f32, %in_268: f32, %out: f32):
      %380 = arith.mulf %in, %in_268 : f32
      linalg.yield %380 : f32
    } -> tensor<f32>
    %195 = linalg.generic {indexing_maps = [#map1, #map1, #map1], iterator_types = []} ins(%194, %191 : tensor<f32>, tensor<f32>) outs(%6 : tensor<f32>) {
    ^bb0(%in: f32, %in_268: f32, %out: f32):
      %380 = arith.subf %in, %in_268 : f32
      linalg.yield %380 : f32
    } -> tensor<f32>
    %196 = linalg.generic {indexing_maps = [#map1, #map1, #map1], iterator_types = []} ins(%190, %cst_7 : tensor<f32>, tensor<f32>) outs(%6 : tensor<f32>) {
    ^bb0(%in: f32, %in_268: f32, %out: f32):
      %380 = arith.mulf %in, %in_268 : f32
      linalg.yield %380 : f32
    } -> tensor<f32>
    %expanded_137 = tensor.expand_shape %195 [] output_shape [1] : tensor<f32> into tensor<1xf32>
    %expanded_138 = tensor.expand_shape %196 [] output_shape [1] : tensor<f32> into tensor<1xf32>
    %concat_139 = tensor.concat dim(0) %expanded_137, %expanded_138 : (tensor<1xf32>, tensor<1xf32>) -> tensor<2xf32>
    %expanded_140 = tensor.expand_shape %186 [] output_shape [1] : tensor<f32> into tensor<1xf32>
    %concat_141 = tensor.concat dim(0) %expanded_134, %expanded_140 : (tensor<1xf32>, tensor<1xf32>) -> tensor<2xf32>
    %expanded_142 = tensor.expand_shape %concat_139 [[0, 1]] output_shape [1, 2] : tensor<2xf32> into tensor<1x2xf32>
    %expanded_143 = tensor.expand_shape %concat_141 [[0, 1]] output_shape [1, 2] : tensor<2xf32> into tensor<1x2xf32>
    %concat_144 = tensor.concat dim(0) %expanded_142, %expanded_143 : (tensor<1x2xf32>, tensor<1x2xf32>) -> tensor<2x2xf32>
    %197 = linalg.generic {indexing_maps = [#map5, #map3], iterator_types = ["parallel", "parallel"]} ins(%cst_16 : tensor<1xi64>) outs(%34 : tensor<1x2xf32>) {
    ^bb0(%in: i64, %out: f32):
      %380 = arith.index_cast %in : i64 to index
      %381 = linalg.index 1 : index
      %extracted = tensor.extract %concat_144[%380, %381] : tensor<2x2xf32>
      linalg.yield %extracted : f32
    } -> tensor<1x2xf32>
    %collapsed_145 = tensor.collapse_shape %197 [[0, 1]] : tensor<1x2xf32> into tensor<2xf32>
    %198 = linalg.generic {indexing_maps = [#map, #map], iterator_types = ["parallel"]} ins(%cst_16 : tensor<1xi64>) outs(%4 : tensor<1xf32>) {
    ^bb0(%in: i64, %out: f32):
      %380 = arith.index_cast %in : i64 to index
      %extracted = tensor.extract %collapsed_145[%380] : tensor<2xf32>
      linalg.yield %extracted : f32
    } -> tensor<1xf32>
    %collapsed_146 = tensor.collapse_shape %198 [] : tensor<1xf32> into tensor<f32>
    %199 = linalg.generic {indexing_maps = [#map5, #map3], iterator_types = ["parallel", "parallel"]} ins(%cst_0 : tensor<1xi64>) outs(%34 : tensor<1x2xf32>) {
    ^bb0(%in: i64, %out: f32):
      %380 = arith.index_cast %in : i64 to index
      %381 = linalg.index 1 : index
      %extracted = tensor.extract %concat_144[%380, %381] : tensor<2x2xf32>
      linalg.yield %extracted : f32
    } -> tensor<1x2xf32>
    %collapsed_147 = tensor.collapse_shape %199 [[0, 1]] : tensor<1x2xf32> into tensor<2xf32>
    %200 = linalg.generic {indexing_maps = [#map, #map], iterator_types = ["parallel"]} ins(%cst_0 : tensor<1xi64>) outs(%4 : tensor<1xf32>) {
    ^bb0(%in: i64, %out: f32):
      %380 = arith.index_cast %in : i64 to index
      %extracted = tensor.extract %collapsed_147[%380] : tensor<2xf32>
      linalg.yield %extracted : f32
    } -> tensor<1xf32>
    %collapsed_148 = tensor.collapse_shape %200 [] : tensor<1xf32> into tensor<f32>
    %201 = linalg.generic {indexing_maps = [#map1, #map1, #map1], iterator_types = []} ins(%collapsed_146, %collapsed_148 : tensor<f32>, tensor<f32>) outs(%6 : tensor<f32>) {
    ^bb0(%in: f32, %in_268: f32, %out: f32):
      %380 = arith.mulf %in, %in_268 : f32
      linalg.yield %380 : f32
    } -> tensor<f32>
    %202 = linalg.generic {indexing_maps = [#map, #map], iterator_types = ["parallel"]} ins(%cst_0 : tensor<1xi64>) outs(%4 : tensor<1xf32>) {
    ^bb0(%in: i64, %out: f32):
      %380 = arith.index_cast %in : i64 to index
      %extracted = tensor.extract %collapsed_145[%380] : tensor<2xf32>
      linalg.yield %extracted : f32
    } -> tensor<1xf32>
    %collapsed_149 = tensor.collapse_shape %202 [] : tensor<1xf32> into tensor<f32>
    %203 = linalg.generic {indexing_maps = [#map, #map], iterator_types = ["parallel"]} ins(%cst_16 : tensor<1xi64>) outs(%4 : tensor<1xf32>) {
    ^bb0(%in: i64, %out: f32):
      %380 = arith.index_cast %in : i64 to index
      %extracted = tensor.extract %collapsed_147[%380] : tensor<2xf32>
      linalg.yield %extracted : f32
    } -> tensor<1xf32>
    %collapsed_150 = tensor.collapse_shape %203 [] : tensor<1xf32> into tensor<f32>
    %204 = linalg.generic {indexing_maps = [#map1, #map1, #map1], iterator_types = []} ins(%collapsed_149, %collapsed_150 : tensor<f32>, tensor<f32>) outs(%6 : tensor<f32>) {
    ^bb0(%in: f32, %in_268: f32, %out: f32):
      %380 = arith.mulf %in, %in_268 : f32
      linalg.yield %380 : f32
    } -> tensor<f32>
    %205 = linalg.generic {indexing_maps = [#map1, #map1, #map1], iterator_types = []} ins(%201, %204 : tensor<f32>, tensor<f32>) outs(%6 : tensor<f32>) {
    ^bb0(%in: f32, %in_268: f32, %out: f32):
      %380 = arith.subf %in, %in_268 : f32
      linalg.yield %380 : f32
    } -> tensor<f32>
    %206 = linalg.generic {indexing_maps = [#map1, #map1, #map1], iterator_types = []} ins(%205, %cst_6 : tensor<f32>, tensor<f32>) outs(%6 : tensor<f32>) {
    ^bb0(%in: f32, %in_268: f32, %out: f32):
      %380 = arith.addf %in, %in_268 : f32
      linalg.yield %380 : f32
    } -> tensor<f32>
    %207 = linalg.generic {indexing_maps = [#map1, #map1], iterator_types = []} ins(%206 : tensor<f32>) outs(%6 : tensor<f32>) {
    ^bb0(%in: f32, %out: f32):
      %380 = arith.cmpf one, %in, %cst_17 : f32
      cf.assert %380, "unimplemented: tensor with zero element"
      %381 = arith.divf %cst_19, %in : f32
      linalg.yield %381 : f32
    } -> tensor<f32>
    %208 = linalg.generic {indexing_maps = [#map1, #map1, #map1], iterator_types = []} ins(%207, %cst_8 : tensor<f32>, tensor<f32>) outs(%6 : tensor<f32>) {
    ^bb0(%in: f32, %in_268: f32, %out: f32):
      %380 = arith.mulf %in, %in_268 : f32
      linalg.yield %380 : f32
    } -> tensor<f32>
    %209 = linalg.generic {indexing_maps = [#map1, #map1], iterator_types = []} ins(%collapsed_149 : tensor<f32>) outs(%6 : tensor<f32>) {
    ^bb0(%in: f32, %out: f32):
      %380 = arith.negf %in : f32
      linalg.yield %380 : f32
    } -> tensor<f32>
    %expanded_151 = tensor.expand_shape %209 [] output_shape [1] : tensor<f32> into tensor<1xf32>
    %concat_152 = tensor.concat dim(0) %200, %expanded_151 : (tensor<1xf32>, tensor<1xf32>) -> tensor<2xf32>
    %210 = linalg.generic {indexing_maps = [#map1, #map1], iterator_types = []} ins(%collapsed_150 : tensor<f32>) outs(%6 : tensor<f32>) {
    ^bb0(%in: f32, %out: f32):
      %380 = arith.negf %in : f32
      linalg.yield %380 : f32
    } -> tensor<f32>
    %expanded_153 = tensor.expand_shape %210 [] output_shape [1] : tensor<f32> into tensor<1xf32>
    %concat_154 = tensor.concat dim(0) %expanded_153, %198 : (tensor<1xf32>, tensor<1xf32>) -> tensor<2xf32>
    %expanded_155 = tensor.expand_shape %concat_152 [[0, 1]] output_shape [1, 2] : tensor<2xf32> into tensor<1x2xf32>
    %expanded_156 = tensor.expand_shape %concat_154 [[0, 1]] output_shape [1, 2] : tensor<2xf32> into tensor<1x2xf32>
    %concat_157 = tensor.concat dim(0) %expanded_155, %expanded_156 : (tensor<1x2xf32>, tensor<1x2xf32>) -> tensor<2x2xf32>
    %211 = linalg.generic {indexing_maps = [#map3, #map6, #map3], iterator_types = ["parallel", "parallel"]} ins(%concat_157, %208 : tensor<2x2xf32>, tensor<f32>) outs(%31 : tensor<2x2xf32>) {
    ^bb0(%in: f32, %in_268: f32, %out: f32):
      %380 = arith.mulf %in, %in_268 : f32
      linalg.yield %380 : f32
    } -> tensor<2x2xf32>
    %212 = linalg.matvec ins(%211, %193 : tensor<2x2xf32>, tensor<2xf32>) outs(%71 : tensor<2xf32>) -> tensor<2xf32>
    %213 = linalg.generic {indexing_maps = [#map, #map7, #map], iterator_types = ["parallel"]} ins(%212, %cst_5 : tensor<2xf32>, tensor<f32>) outs(%51 : tensor<2xf32>) {
    ^bb0(%in: f32, %in_268: f32, %out: f32):
      %380 = arith.mulf %in, %in_268 : f32
      linalg.yield %380 : f32
    } -> tensor<2xf32>
    %214 = linalg.generic {indexing_maps = [#map, #map, #map], iterator_types = ["parallel"]} ins(%179, %213 : tensor<2xf32>, tensor<2xf32>) outs(%51 : tensor<2xf32>) {
    ^bb0(%in: f32, %in_268: f32, %out: f32):
      %380 = arith.addf %in, %in_268 : f32
      linalg.yield %380 : f32
    } -> tensor<2xf32>
    %215 = linalg.generic {indexing_maps = [#map, #map], iterator_types = ["parallel"]} ins(%cst_16 : tensor<1xi64>) outs(%4 : tensor<1xf32>) {
    ^bb0(%in: i64, %out: f32):
      %380 = arith.index_cast %in : i64 to index
      %extracted = tensor.extract %214[%380] : tensor<2xf32>
      linalg.yield %extracted : f32
    } -> tensor<1xf32>
    %collapsed_158 = tensor.collapse_shape %215 [] : tensor<1xf32> into tensor<f32>
    %216 = linalg.generic {indexing_maps = [#map, #map], iterator_types = ["parallel"]} ins(%cst_0 : tensor<1xi64>) outs(%4 : tensor<1xf32>) {
    ^bb0(%in: i64, %out: f32):
      %380 = arith.index_cast %in : i64 to index
      %extracted = tensor.extract %214[%380] : tensor<2xf32>
      linalg.yield %extracted : f32
    } -> tensor<1xf32>
    %collapsed_159 = tensor.collapse_shape %216 [] : tensor<1xf32> into tensor<f32>
    %217 = linalg.generic {indexing_maps = [#map1, #map1], iterator_types = []} ins(%collapsed_158 : tensor<f32>) outs(%6 : tensor<f32>) {
    ^bb0(%in: f32, %out: f32):
      %380 = math.cos %in : f32
      linalg.yield %380 : f32
    } -> tensor<f32>
    %218 = linalg.generic {indexing_maps = [#map1, #map1, #map1], iterator_types = []} ins(%217, %cst_8 : tensor<f32>, tensor<f32>) outs(%6 : tensor<f32>) {
    ^bb0(%in: f32, %in_268: f32, %out: f32):
      %380 = arith.mulf %in, %in_268 : f32
      linalg.yield %380 : f32
    } -> tensor<f32>
    %219 = linalg.generic {indexing_maps = [#map1, #map1, #map1], iterator_types = []} ins(%collapsed_158, %collapsed_159 : tensor<f32>, tensor<f32>) outs(%6 : tensor<f32>) {
    ^bb0(%in: f32, %in_268: f32, %out: f32):
      %380 = arith.addf %in, %in_268 : f32
      linalg.yield %380 : f32
    } -> tensor<f32>
    %220 = linalg.generic {indexing_maps = [#map1, #map1], iterator_types = []} ins(%219 : tensor<f32>) outs(%6 : tensor<f32>) {
    ^bb0(%in: f32, %out: f32):
      %380 = math.cos %in : f32
      linalg.yield %380 : f32
    } -> tensor<f32>
    %221 = linalg.generic {indexing_maps = [#map1, #map1, #map1], iterator_types = []} ins(%220, %cst_8 : tensor<f32>, tensor<f32>) outs(%6 : tensor<f32>) {
    ^bb0(%in: f32, %in_268: f32, %out: f32):
      %380 = arith.mulf %in, %in_268 : f32
      linalg.yield %380 : f32
    } -> tensor<f32>
    %222 = linalg.generic {indexing_maps = [#map1, #map1, #map1], iterator_types = []} ins(%218, %221 : tensor<f32>, tensor<f32>) outs(%6 : tensor<f32>) {
    ^bb0(%in: f32, %in_268: f32, %out: f32):
      %380 = arith.addf %in, %in_268 : f32
      linalg.yield %380 : f32
    } -> tensor<f32>
    %223 = linalg.generic {indexing_maps = [#map1, #map1], iterator_types = []} ins(%collapsed_158 : tensor<f32>) outs(%6 : tensor<f32>) {
    ^bb0(%in: f32, %out: f32):
      %380 = math.sin %in : f32
      linalg.yield %380 : f32
    } -> tensor<f32>
    %224 = linalg.generic {indexing_maps = [#map1, #map1, #map1], iterator_types = []} ins(%223, %cst_8 : tensor<f32>, tensor<f32>) outs(%6 : tensor<f32>) {
    ^bb0(%in: f32, %in_268: f32, %out: f32):
      %380 = arith.mulf %in, %in_268 : f32
      linalg.yield %380 : f32
    } -> tensor<f32>
    %225 = linalg.generic {indexing_maps = [#map1, #map1], iterator_types = []} ins(%219 : tensor<f32>) outs(%6 : tensor<f32>) {
    ^bb0(%in: f32, %out: f32):
      %380 = math.sin %in : f32
      linalg.yield %380 : f32
    } -> tensor<f32>
    %226 = linalg.generic {indexing_maps = [#map1, #map1, #map1], iterator_types = []} ins(%225, %cst_8 : tensor<f32>, tensor<f32>) outs(%6 : tensor<f32>) {
    ^bb0(%in: f32, %in_268: f32, %out: f32):
      %380 = arith.mulf %in, %in_268 : f32
      linalg.yield %380 : f32
    } -> tensor<f32>
    %227 = linalg.generic {indexing_maps = [#map1, #map1, #map1], iterator_types = []} ins(%224, %226 : tensor<f32>, tensor<f32>) outs(%6 : tensor<f32>) {
    ^bb0(%in: f32, %in_268: f32, %out: f32):
      %380 = arith.addf %in, %in_268 : f32
      linalg.yield %380 : f32
    } -> tensor<f32>
    %expanded_160 = tensor.expand_shape %222 [] output_shape [1] : tensor<f32> into tensor<1xf32>
    %expanded_161 = tensor.expand_shape %227 [] output_shape [1] : tensor<f32> into tensor<1xf32>
    %concat_162 = tensor.concat dim(0) %expanded_160, %expanded_161 : (tensor<1xf32>, tensor<1xf32>) -> tensor<2xf32>
    %228 = linalg.generic {indexing_maps = [#map, #map, #map], iterator_types = ["parallel"]} ins(%collapsed_27, %concat_162 : tensor<2xf32>, tensor<2xf32>) outs(%51 : tensor<2xf32>) {
    ^bb0(%in: f32, %in_268: f32, %out: f32):
      %380 = arith.subf %in, %in_268 : f32
      linalg.yield %380 : f32
    } -> tensor<2xf32>
    %229 = linalg.generic {indexing_maps = [#map1, #map1, #map1], iterator_types = []} ins(%223, %cst_7 : tensor<f32>, tensor<f32>) outs(%6 : tensor<f32>) {
    ^bb0(%in: f32, %in_268: f32, %out: f32):
      %380 = arith.mulf %in, %in_268 : f32
      linalg.yield %380 : f32
    } -> tensor<f32>
    %230 = linalg.generic {indexing_maps = [#map1, #map1, #map1], iterator_types = []} ins(%229, %226 : tensor<f32>, tensor<f32>) outs(%6 : tensor<f32>) {
    ^bb0(%in: f32, %in_268: f32, %out: f32):
      %380 = arith.subf %in, %in_268 : f32
      linalg.yield %380 : f32
    } -> tensor<f32>
    %231 = linalg.generic {indexing_maps = [#map1, #map1, #map1], iterator_types = []} ins(%225, %cst_7 : tensor<f32>, tensor<f32>) outs(%6 : tensor<f32>) {
    ^bb0(%in: f32, %in_268: f32, %out: f32):
      %380 = arith.mulf %in, %in_268 : f32
      linalg.yield %380 : f32
    } -> tensor<f32>
    %expanded_163 = tensor.expand_shape %230 [] output_shape [1] : tensor<f32> into tensor<1xf32>
    %expanded_164 = tensor.expand_shape %231 [] output_shape [1] : tensor<f32> into tensor<1xf32>
    %concat_165 = tensor.concat dim(0) %expanded_163, %expanded_164 : (tensor<1xf32>, tensor<1xf32>) -> tensor<2xf32>
    %expanded_166 = tensor.expand_shape %221 [] output_shape [1] : tensor<f32> into tensor<1xf32>
    %concat_167 = tensor.concat dim(0) %expanded_160, %expanded_166 : (tensor<1xf32>, tensor<1xf32>) -> tensor<2xf32>
    %expanded_168 = tensor.expand_shape %concat_165 [[0, 1]] output_shape [1, 2] : tensor<2xf32> into tensor<1x2xf32>
    %expanded_169 = tensor.expand_shape %concat_167 [[0, 1]] output_shape [1, 2] : tensor<2xf32> into tensor<1x2xf32>
    %concat_170 = tensor.concat dim(0) %expanded_168, %expanded_169 : (tensor<1x2xf32>, tensor<1x2xf32>) -> tensor<2x2xf32>
    %232 = linalg.generic {indexing_maps = [#map5, #map3], iterator_types = ["parallel", "parallel"]} ins(%cst_16 : tensor<1xi64>) outs(%34 : tensor<1x2xf32>) {
    ^bb0(%in: i64, %out: f32):
      %380 = arith.index_cast %in : i64 to index
      %381 = linalg.index 1 : index
      %extracted = tensor.extract %concat_170[%380, %381] : tensor<2x2xf32>
      linalg.yield %extracted : f32
    } -> tensor<1x2xf32>
    %collapsed_171 = tensor.collapse_shape %232 [[0, 1]] : tensor<1x2xf32> into tensor<2xf32>
    %233 = linalg.generic {indexing_maps = [#map, #map], iterator_types = ["parallel"]} ins(%cst_16 : tensor<1xi64>) outs(%4 : tensor<1xf32>) {
    ^bb0(%in: i64, %out: f32):
      %380 = arith.index_cast %in : i64 to index
      %extracted = tensor.extract %collapsed_171[%380] : tensor<2xf32>
      linalg.yield %extracted : f32
    } -> tensor<1xf32>
    %collapsed_172 = tensor.collapse_shape %233 [] : tensor<1xf32> into tensor<f32>
    %234 = linalg.generic {indexing_maps = [#map5, #map3], iterator_types = ["parallel", "parallel"]} ins(%cst_0 : tensor<1xi64>) outs(%34 : tensor<1x2xf32>) {
    ^bb0(%in: i64, %out: f32):
      %380 = arith.index_cast %in : i64 to index
      %381 = linalg.index 1 : index
      %extracted = tensor.extract %concat_170[%380, %381] : tensor<2x2xf32>
      linalg.yield %extracted : f32
    } -> tensor<1x2xf32>
    %collapsed_173 = tensor.collapse_shape %234 [[0, 1]] : tensor<1x2xf32> into tensor<2xf32>
    %235 = linalg.generic {indexing_maps = [#map, #map], iterator_types = ["parallel"]} ins(%cst_0 : tensor<1xi64>) outs(%4 : tensor<1xf32>) {
    ^bb0(%in: i64, %out: f32):
      %380 = arith.index_cast %in : i64 to index
      %extracted = tensor.extract %collapsed_173[%380] : tensor<2xf32>
      linalg.yield %extracted : f32
    } -> tensor<1xf32>
    %collapsed_174 = tensor.collapse_shape %235 [] : tensor<1xf32> into tensor<f32>
    %236 = linalg.generic {indexing_maps = [#map1, #map1, #map1], iterator_types = []} ins(%collapsed_172, %collapsed_174 : tensor<f32>, tensor<f32>) outs(%6 : tensor<f32>) {
    ^bb0(%in: f32, %in_268: f32, %out: f32):
      %380 = arith.mulf %in, %in_268 : f32
      linalg.yield %380 : f32
    } -> tensor<f32>
    %237 = linalg.generic {indexing_maps = [#map, #map], iterator_types = ["parallel"]} ins(%cst_0 : tensor<1xi64>) outs(%4 : tensor<1xf32>) {
    ^bb0(%in: i64, %out: f32):
      %380 = arith.index_cast %in : i64 to index
      %extracted = tensor.extract %collapsed_171[%380] : tensor<2xf32>
      linalg.yield %extracted : f32
    } -> tensor<1xf32>
    %collapsed_175 = tensor.collapse_shape %237 [] : tensor<1xf32> into tensor<f32>
    %238 = linalg.generic {indexing_maps = [#map, #map], iterator_types = ["parallel"]} ins(%cst_16 : tensor<1xi64>) outs(%4 : tensor<1xf32>) {
    ^bb0(%in: i64, %out: f32):
      %380 = arith.index_cast %in : i64 to index
      %extracted = tensor.extract %collapsed_173[%380] : tensor<2xf32>
      linalg.yield %extracted : f32
    } -> tensor<1xf32>
    %collapsed_176 = tensor.collapse_shape %238 [] : tensor<1xf32> into tensor<f32>
    %239 = linalg.generic {indexing_maps = [#map1, #map1, #map1], iterator_types = []} ins(%collapsed_175, %collapsed_176 : tensor<f32>, tensor<f32>) outs(%6 : tensor<f32>) {
    ^bb0(%in: f32, %in_268: f32, %out: f32):
      %380 = arith.mulf %in, %in_268 : f32
      linalg.yield %380 : f32
    } -> tensor<f32>
    %240 = linalg.generic {indexing_maps = [#map1, #map1, #map1], iterator_types = []} ins(%236, %239 : tensor<f32>, tensor<f32>) outs(%6 : tensor<f32>) {
    ^bb0(%in: f32, %in_268: f32, %out: f32):
      %380 = arith.subf %in, %in_268 : f32
      linalg.yield %380 : f32
    } -> tensor<f32>
    %241 = linalg.generic {indexing_maps = [#map1, #map1, #map1], iterator_types = []} ins(%240, %cst_6 : tensor<f32>, tensor<f32>) outs(%6 : tensor<f32>) {
    ^bb0(%in: f32, %in_268: f32, %out: f32):
      %380 = arith.addf %in, %in_268 : f32
      linalg.yield %380 : f32
    } -> tensor<f32>
    %242 = linalg.generic {indexing_maps = [#map1, #map1], iterator_types = []} ins(%241 : tensor<f32>) outs(%6 : tensor<f32>) {
    ^bb0(%in: f32, %out: f32):
      %380 = arith.cmpf one, %in, %cst_17 : f32
      cf.assert %380, "unimplemented: tensor with zero element"
      %381 = arith.divf %cst_19, %in : f32
      linalg.yield %381 : f32
    } -> tensor<f32>
    %243 = linalg.generic {indexing_maps = [#map1, #map1, #map1], iterator_types = []} ins(%242, %cst_8 : tensor<f32>, tensor<f32>) outs(%6 : tensor<f32>) {
    ^bb0(%in: f32, %in_268: f32, %out: f32):
      %380 = arith.mulf %in, %in_268 : f32
      linalg.yield %380 : f32
    } -> tensor<f32>
    %244 = linalg.generic {indexing_maps = [#map1, #map1], iterator_types = []} ins(%collapsed_175 : tensor<f32>) outs(%6 : tensor<f32>) {
    ^bb0(%in: f32, %out: f32):
      %380 = arith.negf %in : f32
      linalg.yield %380 : f32
    } -> tensor<f32>
    %expanded_177 = tensor.expand_shape %244 [] output_shape [1] : tensor<f32> into tensor<1xf32>
    %concat_178 = tensor.concat dim(0) %235, %expanded_177 : (tensor<1xf32>, tensor<1xf32>) -> tensor<2xf32>
    %245 = linalg.generic {indexing_maps = [#map1, #map1], iterator_types = []} ins(%collapsed_176 : tensor<f32>) outs(%6 : tensor<f32>) {
    ^bb0(%in: f32, %out: f32):
      %380 = arith.negf %in : f32
      linalg.yield %380 : f32
    } -> tensor<f32>
    %expanded_179 = tensor.expand_shape %245 [] output_shape [1] : tensor<f32> into tensor<1xf32>
    %concat_180 = tensor.concat dim(0) %expanded_179, %233 : (tensor<1xf32>, tensor<1xf32>) -> tensor<2xf32>
    %expanded_181 = tensor.expand_shape %concat_178 [[0, 1]] output_shape [1, 2] : tensor<2xf32> into tensor<1x2xf32>
    %expanded_182 = tensor.expand_shape %concat_180 [[0, 1]] output_shape [1, 2] : tensor<2xf32> into tensor<1x2xf32>
    %concat_183 = tensor.concat dim(0) %expanded_181, %expanded_182 : (tensor<1x2xf32>, tensor<1x2xf32>) -> tensor<2x2xf32>
    %246 = linalg.generic {indexing_maps = [#map3, #map6, #map3], iterator_types = ["parallel", "parallel"]} ins(%concat_183, %243 : tensor<2x2xf32>, tensor<f32>) outs(%31 : tensor<2x2xf32>) {
    ^bb0(%in: f32, %in_268: f32, %out: f32):
      %380 = arith.mulf %in, %in_268 : f32
      linalg.yield %380 : f32
    } -> tensor<2x2xf32>
    %247 = linalg.matvec ins(%246, %228 : tensor<2x2xf32>, tensor<2xf32>) outs(%71 : tensor<2xf32>) -> tensor<2xf32>
    %248 = linalg.generic {indexing_maps = [#map, #map7, #map], iterator_types = ["parallel"]} ins(%247, %cst_5 : tensor<2xf32>, tensor<f32>) outs(%51 : tensor<2xf32>) {
    ^bb0(%in: f32, %in_268: f32, %out: f32):
      %380 = arith.mulf %in, %in_268 : f32
      linalg.yield %380 : f32
    } -> tensor<2xf32>
    %249 = linalg.generic {indexing_maps = [#map, #map, #map], iterator_types = ["parallel"]} ins(%214, %248 : tensor<2xf32>, tensor<2xf32>) outs(%51 : tensor<2xf32>) {
    ^bb0(%in: f32, %in_268: f32, %out: f32):
      %380 = arith.addf %in, %in_268 : f32
      linalg.yield %380 : f32
    } -> tensor<2xf32>
    %250 = linalg.generic {indexing_maps = [#map, #map], iterator_types = ["parallel"]} ins(%cst_16 : tensor<1xi64>) outs(%4 : tensor<1xf32>) {
    ^bb0(%in: i64, %out: f32):
      %380 = arith.index_cast %in : i64 to index
      %extracted = tensor.extract %249[%380] : tensor<2xf32>
      linalg.yield %extracted : f32
    } -> tensor<1xf32>
    %collapsed_184 = tensor.collapse_shape %250 [] : tensor<1xf32> into tensor<f32>
    %251 = linalg.generic {indexing_maps = [#map, #map], iterator_types = ["parallel"]} ins(%cst_0 : tensor<1xi64>) outs(%4 : tensor<1xf32>) {
    ^bb0(%in: i64, %out: f32):
      %380 = arith.index_cast %in : i64 to index
      %extracted = tensor.extract %249[%380] : tensor<2xf32>
      linalg.yield %extracted : f32
    } -> tensor<1xf32>
    %collapsed_185 = tensor.collapse_shape %251 [] : tensor<1xf32> into tensor<f32>
    %252 = linalg.generic {indexing_maps = [#map1, #map1], iterator_types = []} ins(%collapsed_184 : tensor<f32>) outs(%6 : tensor<f32>) {
    ^bb0(%in: f32, %out: f32):
      %380 = math.cos %in : f32
      linalg.yield %380 : f32
    } -> tensor<f32>
    %253 = linalg.generic {indexing_maps = [#map1, #map1, #map1], iterator_types = []} ins(%252, %cst_8 : tensor<f32>, tensor<f32>) outs(%6 : tensor<f32>) {
    ^bb0(%in: f32, %in_268: f32, %out: f32):
      %380 = arith.mulf %in, %in_268 : f32
      linalg.yield %380 : f32
    } -> tensor<f32>
    %254 = linalg.generic {indexing_maps = [#map1, #map1, #map1], iterator_types = []} ins(%collapsed_184, %collapsed_185 : tensor<f32>, tensor<f32>) outs(%6 : tensor<f32>) {
    ^bb0(%in: f32, %in_268: f32, %out: f32):
      %380 = arith.addf %in, %in_268 : f32
      linalg.yield %380 : f32
    } -> tensor<f32>
    %255 = linalg.generic {indexing_maps = [#map1, #map1], iterator_types = []} ins(%254 : tensor<f32>) outs(%6 : tensor<f32>) {
    ^bb0(%in: f32, %out: f32):
      %380 = math.cos %in : f32
      linalg.yield %380 : f32
    } -> tensor<f32>
    %256 = linalg.generic {indexing_maps = [#map1, #map1, #map1], iterator_types = []} ins(%255, %cst_8 : tensor<f32>, tensor<f32>) outs(%6 : tensor<f32>) {
    ^bb0(%in: f32, %in_268: f32, %out: f32):
      %380 = arith.mulf %in, %in_268 : f32
      linalg.yield %380 : f32
    } -> tensor<f32>
    %257 = linalg.generic {indexing_maps = [#map1, #map1, #map1], iterator_types = []} ins(%253, %256 : tensor<f32>, tensor<f32>) outs(%6 : tensor<f32>) {
    ^bb0(%in: f32, %in_268: f32, %out: f32):
      %380 = arith.addf %in, %in_268 : f32
      linalg.yield %380 : f32
    } -> tensor<f32>
    %258 = linalg.generic {indexing_maps = [#map1, #map1], iterator_types = []} ins(%collapsed_184 : tensor<f32>) outs(%6 : tensor<f32>) {
    ^bb0(%in: f32, %out: f32):
      %380 = math.sin %in : f32
      linalg.yield %380 : f32
    } -> tensor<f32>
    %259 = linalg.generic {indexing_maps = [#map1, #map1, #map1], iterator_types = []} ins(%258, %cst_8 : tensor<f32>, tensor<f32>) outs(%6 : tensor<f32>) {
    ^bb0(%in: f32, %in_268: f32, %out: f32):
      %380 = arith.mulf %in, %in_268 : f32
      linalg.yield %380 : f32
    } -> tensor<f32>
    %260 = linalg.generic {indexing_maps = [#map1, #map1], iterator_types = []} ins(%254 : tensor<f32>) outs(%6 : tensor<f32>) {
    ^bb0(%in: f32, %out: f32):
      %380 = math.sin %in : f32
      linalg.yield %380 : f32
    } -> tensor<f32>
    %261 = linalg.generic {indexing_maps = [#map1, #map1, #map1], iterator_types = []} ins(%260, %cst_8 : tensor<f32>, tensor<f32>) outs(%6 : tensor<f32>) {
    ^bb0(%in: f32, %in_268: f32, %out: f32):
      %380 = arith.mulf %in, %in_268 : f32
      linalg.yield %380 : f32
    } -> tensor<f32>
    %262 = linalg.generic {indexing_maps = [#map1, #map1, #map1], iterator_types = []} ins(%259, %261 : tensor<f32>, tensor<f32>) outs(%6 : tensor<f32>) {
    ^bb0(%in: f32, %in_268: f32, %out: f32):
      %380 = arith.addf %in, %in_268 : f32
      linalg.yield %380 : f32
    } -> tensor<f32>
    %expanded_186 = tensor.expand_shape %257 [] output_shape [1] : tensor<f32> into tensor<1xf32>
    %expanded_187 = tensor.expand_shape %262 [] output_shape [1] : tensor<f32> into tensor<1xf32>
    %concat_188 = tensor.concat dim(0) %expanded_186, %expanded_187 : (tensor<1xf32>, tensor<1xf32>) -> tensor<2xf32>
    %263 = linalg.generic {indexing_maps = [#map, #map, #map], iterator_types = ["parallel"]} ins(%collapsed_27, %concat_188 : tensor<2xf32>, tensor<2xf32>) outs(%51 : tensor<2xf32>) {
    ^bb0(%in: f32, %in_268: f32, %out: f32):
      %380 = arith.subf %in, %in_268 : f32
      linalg.yield %380 : f32
    } -> tensor<2xf32>
    %264 = linalg.generic {indexing_maps = [#map1, #map1, #map1], iterator_types = []} ins(%258, %cst_7 : tensor<f32>, tensor<f32>) outs(%6 : tensor<f32>) {
    ^bb0(%in: f32, %in_268: f32, %out: f32):
      %380 = arith.mulf %in, %in_268 : f32
      linalg.yield %380 : f32
    } -> tensor<f32>
    %265 = linalg.generic {indexing_maps = [#map1, #map1, #map1], iterator_types = []} ins(%264, %261 : tensor<f32>, tensor<f32>) outs(%6 : tensor<f32>) {
    ^bb0(%in: f32, %in_268: f32, %out: f32):
      %380 = arith.subf %in, %in_268 : f32
      linalg.yield %380 : f32
    } -> tensor<f32>
    %266 = linalg.generic {indexing_maps = [#map1, #map1, #map1], iterator_types = []} ins(%260, %cst_7 : tensor<f32>, tensor<f32>) outs(%6 : tensor<f32>) {
    ^bb0(%in: f32, %in_268: f32, %out: f32):
      %380 = arith.mulf %in, %in_268 : f32
      linalg.yield %380 : f32
    } -> tensor<f32>
    %expanded_189 = tensor.expand_shape %265 [] output_shape [1] : tensor<f32> into tensor<1xf32>
    %expanded_190 = tensor.expand_shape %266 [] output_shape [1] : tensor<f32> into tensor<1xf32>
    %concat_191 = tensor.concat dim(0) %expanded_189, %expanded_190 : (tensor<1xf32>, tensor<1xf32>) -> tensor<2xf32>
    %expanded_192 = tensor.expand_shape %256 [] output_shape [1] : tensor<f32> into tensor<1xf32>
    %concat_193 = tensor.concat dim(0) %expanded_186, %expanded_192 : (tensor<1xf32>, tensor<1xf32>) -> tensor<2xf32>
    %expanded_194 = tensor.expand_shape %concat_191 [[0, 1]] output_shape [1, 2] : tensor<2xf32> into tensor<1x2xf32>
    %expanded_195 = tensor.expand_shape %concat_193 [[0, 1]] output_shape [1, 2] : tensor<2xf32> into tensor<1x2xf32>
    %concat_196 = tensor.concat dim(0) %expanded_194, %expanded_195 : (tensor<1x2xf32>, tensor<1x2xf32>) -> tensor<2x2xf32>
    %267 = linalg.generic {indexing_maps = [#map5, #map3], iterator_types = ["parallel", "parallel"]} ins(%cst_16 : tensor<1xi64>) outs(%34 : tensor<1x2xf32>) {
    ^bb0(%in: i64, %out: f32):
      %380 = arith.index_cast %in : i64 to index
      %381 = linalg.index 1 : index
      %extracted = tensor.extract %concat_196[%380, %381] : tensor<2x2xf32>
      linalg.yield %extracted : f32
    } -> tensor<1x2xf32>
    %collapsed_197 = tensor.collapse_shape %267 [[0, 1]] : tensor<1x2xf32> into tensor<2xf32>
    %268 = linalg.generic {indexing_maps = [#map, #map], iterator_types = ["parallel"]} ins(%cst_16 : tensor<1xi64>) outs(%4 : tensor<1xf32>) {
    ^bb0(%in: i64, %out: f32):
      %380 = arith.index_cast %in : i64 to index
      %extracted = tensor.extract %collapsed_197[%380] : tensor<2xf32>
      linalg.yield %extracted : f32
    } -> tensor<1xf32>
    %collapsed_198 = tensor.collapse_shape %268 [] : tensor<1xf32> into tensor<f32>
    %269 = linalg.generic {indexing_maps = [#map5, #map3], iterator_types = ["parallel", "parallel"]} ins(%cst_0 : tensor<1xi64>) outs(%34 : tensor<1x2xf32>) {
    ^bb0(%in: i64, %out: f32):
      %380 = arith.index_cast %in : i64 to index
      %381 = linalg.index 1 : index
      %extracted = tensor.extract %concat_196[%380, %381] : tensor<2x2xf32>
      linalg.yield %extracted : f32
    } -> tensor<1x2xf32>
    %collapsed_199 = tensor.collapse_shape %269 [[0, 1]] : tensor<1x2xf32> into tensor<2xf32>
    %270 = linalg.generic {indexing_maps = [#map, #map], iterator_types = ["parallel"]} ins(%cst_0 : tensor<1xi64>) outs(%4 : tensor<1xf32>) {
    ^bb0(%in: i64, %out: f32):
      %380 = arith.index_cast %in : i64 to index
      %extracted = tensor.extract %collapsed_199[%380] : tensor<2xf32>
      linalg.yield %extracted : f32
    } -> tensor<1xf32>
    %collapsed_200 = tensor.collapse_shape %270 [] : tensor<1xf32> into tensor<f32>
    %271 = linalg.generic {indexing_maps = [#map1, #map1, #map1], iterator_types = []} ins(%collapsed_198, %collapsed_200 : tensor<f32>, tensor<f32>) outs(%6 : tensor<f32>) {
    ^bb0(%in: f32, %in_268: f32, %out: f32):
      %380 = arith.mulf %in, %in_268 : f32
      linalg.yield %380 : f32
    } -> tensor<f32>
    %272 = linalg.generic {indexing_maps = [#map, #map], iterator_types = ["parallel"]} ins(%cst_0 : tensor<1xi64>) outs(%4 : tensor<1xf32>) {
    ^bb0(%in: i64, %out: f32):
      %380 = arith.index_cast %in : i64 to index
      %extracted = tensor.extract %collapsed_197[%380] : tensor<2xf32>
      linalg.yield %extracted : f32
    } -> tensor<1xf32>
    %collapsed_201 = tensor.collapse_shape %272 [] : tensor<1xf32> into tensor<f32>
    %273 = linalg.generic {indexing_maps = [#map, #map], iterator_types = ["parallel"]} ins(%cst_16 : tensor<1xi64>) outs(%4 : tensor<1xf32>) {
    ^bb0(%in: i64, %out: f32):
      %380 = arith.index_cast %in : i64 to index
      %extracted = tensor.extract %collapsed_199[%380] : tensor<2xf32>
      linalg.yield %extracted : f32
    } -> tensor<1xf32>
    %collapsed_202 = tensor.collapse_shape %273 [] : tensor<1xf32> into tensor<f32>
    %274 = linalg.generic {indexing_maps = [#map1, #map1, #map1], iterator_types = []} ins(%collapsed_201, %collapsed_202 : tensor<f32>, tensor<f32>) outs(%6 : tensor<f32>) {
    ^bb0(%in: f32, %in_268: f32, %out: f32):
      %380 = arith.mulf %in, %in_268 : f32
      linalg.yield %380 : f32
    } -> tensor<f32>
    %275 = linalg.generic {indexing_maps = [#map1, #map1, #map1], iterator_types = []} ins(%271, %274 : tensor<f32>, tensor<f32>) outs(%6 : tensor<f32>) {
    ^bb0(%in: f32, %in_268: f32, %out: f32):
      %380 = arith.subf %in, %in_268 : f32
      linalg.yield %380 : f32
    } -> tensor<f32>
    %276 = linalg.generic {indexing_maps = [#map1, #map1, #map1], iterator_types = []} ins(%275, %cst_6 : tensor<f32>, tensor<f32>) outs(%6 : tensor<f32>) {
    ^bb0(%in: f32, %in_268: f32, %out: f32):
      %380 = arith.addf %in, %in_268 : f32
      linalg.yield %380 : f32
    } -> tensor<f32>
    %277 = linalg.generic {indexing_maps = [#map1, #map1], iterator_types = []} ins(%276 : tensor<f32>) outs(%6 : tensor<f32>) {
    ^bb0(%in: f32, %out: f32):
      %380 = arith.cmpf one, %in, %cst_17 : f32
      cf.assert %380, "unimplemented: tensor with zero element"
      %381 = arith.divf %cst_19, %in : f32
      linalg.yield %381 : f32
    } -> tensor<f32>
    %278 = linalg.generic {indexing_maps = [#map1, #map1, #map1], iterator_types = []} ins(%277, %cst_8 : tensor<f32>, tensor<f32>) outs(%6 : tensor<f32>) {
    ^bb0(%in: f32, %in_268: f32, %out: f32):
      %380 = arith.mulf %in, %in_268 : f32
      linalg.yield %380 : f32
    } -> tensor<f32>
    %279 = linalg.generic {indexing_maps = [#map1, #map1], iterator_types = []} ins(%collapsed_201 : tensor<f32>) outs(%6 : tensor<f32>) {
    ^bb0(%in: f32, %out: f32):
      %380 = arith.negf %in : f32
      linalg.yield %380 : f32
    } -> tensor<f32>
    %expanded_203 = tensor.expand_shape %279 [] output_shape [1] : tensor<f32> into tensor<1xf32>
    %concat_204 = tensor.concat dim(0) %270, %expanded_203 : (tensor<1xf32>, tensor<1xf32>) -> tensor<2xf32>
    %280 = linalg.generic {indexing_maps = [#map1, #map1], iterator_types = []} ins(%collapsed_202 : tensor<f32>) outs(%6 : tensor<f32>) {
    ^bb0(%in: f32, %out: f32):
      %380 = arith.negf %in : f32
      linalg.yield %380 : f32
    } -> tensor<f32>
    %expanded_205 = tensor.expand_shape %280 [] output_shape [1] : tensor<f32> into tensor<1xf32>
    %concat_206 = tensor.concat dim(0) %expanded_205, %268 : (tensor<1xf32>, tensor<1xf32>) -> tensor<2xf32>
    %expanded_207 = tensor.expand_shape %concat_204 [[0, 1]] output_shape [1, 2] : tensor<2xf32> into tensor<1x2xf32>
    %expanded_208 = tensor.expand_shape %concat_206 [[0, 1]] output_shape [1, 2] : tensor<2xf32> into tensor<1x2xf32>
    %concat_209 = tensor.concat dim(0) %expanded_207, %expanded_208 : (tensor<1x2xf32>, tensor<1x2xf32>) -> tensor<2x2xf32>
    %281 = linalg.generic {indexing_maps = [#map3, #map6, #map3], iterator_types = ["parallel", "parallel"]} ins(%concat_209, %278 : tensor<2x2xf32>, tensor<f32>) outs(%31 : tensor<2x2xf32>) {
    ^bb0(%in: f32, %in_268: f32, %out: f32):
      %380 = arith.mulf %in, %in_268 : f32
      linalg.yield %380 : f32
    } -> tensor<2x2xf32>
    %282 = linalg.matvec ins(%281, %263 : tensor<2x2xf32>, tensor<2xf32>) outs(%71 : tensor<2xf32>) -> tensor<2xf32>
    %283 = linalg.generic {indexing_maps = [#map, #map7, #map], iterator_types = ["parallel"]} ins(%282, %cst_5 : tensor<2xf32>, tensor<f32>) outs(%51 : tensor<2xf32>) {
    ^bb0(%in: f32, %in_268: f32, %out: f32):
      %380 = arith.mulf %in, %in_268 : f32
      linalg.yield %380 : f32
    } -> tensor<2xf32>
    %284 = linalg.generic {indexing_maps = [#map, #map, #map], iterator_types = ["parallel"]} ins(%249, %283 : tensor<2xf32>, tensor<2xf32>) outs(%51 : tensor<2xf32>) {
    ^bb0(%in: f32, %in_268: f32, %out: f32):
      %380 = arith.addf %in, %in_268 : f32
      linalg.yield %380 : f32
    } -> tensor<2xf32>
    %285 = linalg.generic {indexing_maps = [#map, #map], iterator_types = ["parallel"]} ins(%cst_16 : tensor<1xi64>) outs(%4 : tensor<1xf32>) {
    ^bb0(%in: i64, %out: f32):
      %380 = arith.index_cast %in : i64 to index
      %extracted = tensor.extract %284[%380] : tensor<2xf32>
      linalg.yield %extracted : f32
    } -> tensor<1xf32>
    %collapsed_210 = tensor.collapse_shape %285 [] : tensor<1xf32> into tensor<f32>
    %286 = linalg.generic {indexing_maps = [#map, #map], iterator_types = ["parallel"]} ins(%cst_0 : tensor<1xi64>) outs(%4 : tensor<1xf32>) {
    ^bb0(%in: i64, %out: f32):
      %380 = arith.index_cast %in : i64 to index
      %extracted = tensor.extract %284[%380] : tensor<2xf32>
      linalg.yield %extracted : f32
    } -> tensor<1xf32>
    %collapsed_211 = tensor.collapse_shape %286 [] : tensor<1xf32> into tensor<f32>
    %287 = linalg.generic {indexing_maps = [#map1, #map1], iterator_types = []} ins(%collapsed_210 : tensor<f32>) outs(%6 : tensor<f32>) {
    ^bb0(%in: f32, %out: f32):
      %380 = math.cos %in : f32
      linalg.yield %380 : f32
    } -> tensor<f32>
    %288 = linalg.generic {indexing_maps = [#map1, #map1, #map1], iterator_types = []} ins(%287, %cst_8 : tensor<f32>, tensor<f32>) outs(%6 : tensor<f32>) {
    ^bb0(%in: f32, %in_268: f32, %out: f32):
      %380 = arith.mulf %in, %in_268 : f32
      linalg.yield %380 : f32
    } -> tensor<f32>
    %289 = linalg.generic {indexing_maps = [#map1, #map1, #map1], iterator_types = []} ins(%collapsed_210, %collapsed_211 : tensor<f32>, tensor<f32>) outs(%6 : tensor<f32>) {
    ^bb0(%in: f32, %in_268: f32, %out: f32):
      %380 = arith.addf %in, %in_268 : f32
      linalg.yield %380 : f32
    } -> tensor<f32>
    %290 = linalg.generic {indexing_maps = [#map1, #map1], iterator_types = []} ins(%289 : tensor<f32>) outs(%6 : tensor<f32>) {
    ^bb0(%in: f32, %out: f32):
      %380 = math.cos %in : f32
      linalg.yield %380 : f32
    } -> tensor<f32>
    %291 = linalg.generic {indexing_maps = [#map1, #map1, #map1], iterator_types = []} ins(%290, %cst_8 : tensor<f32>, tensor<f32>) outs(%6 : tensor<f32>) {
    ^bb0(%in: f32, %in_268: f32, %out: f32):
      %380 = arith.mulf %in, %in_268 : f32
      linalg.yield %380 : f32
    } -> tensor<f32>
    %292 = linalg.generic {indexing_maps = [#map1, #map1, #map1], iterator_types = []} ins(%288, %291 : tensor<f32>, tensor<f32>) outs(%6 : tensor<f32>) {
    ^bb0(%in: f32, %in_268: f32, %out: f32):
      %380 = arith.addf %in, %in_268 : f32
      linalg.yield %380 : f32
    } -> tensor<f32>
    %293 = linalg.generic {indexing_maps = [#map1, #map1], iterator_types = []} ins(%collapsed_210 : tensor<f32>) outs(%6 : tensor<f32>) {
    ^bb0(%in: f32, %out: f32):
      %380 = math.sin %in : f32
      linalg.yield %380 : f32
    } -> tensor<f32>
    %294 = linalg.generic {indexing_maps = [#map1, #map1, #map1], iterator_types = []} ins(%293, %cst_8 : tensor<f32>, tensor<f32>) outs(%6 : tensor<f32>) {
    ^bb0(%in: f32, %in_268: f32, %out: f32):
      %380 = arith.mulf %in, %in_268 : f32
      linalg.yield %380 : f32
    } -> tensor<f32>
    %295 = linalg.generic {indexing_maps = [#map1, #map1], iterator_types = []} ins(%289 : tensor<f32>) outs(%6 : tensor<f32>) {
    ^bb0(%in: f32, %out: f32):
      %380 = math.sin %in : f32
      linalg.yield %380 : f32
    } -> tensor<f32>
    %296 = linalg.generic {indexing_maps = [#map1, #map1, #map1], iterator_types = []} ins(%295, %cst_8 : tensor<f32>, tensor<f32>) outs(%6 : tensor<f32>) {
    ^bb0(%in: f32, %in_268: f32, %out: f32):
      %380 = arith.mulf %in, %in_268 : f32
      linalg.yield %380 : f32
    } -> tensor<f32>
    %297 = linalg.generic {indexing_maps = [#map1, #map1, #map1], iterator_types = []} ins(%294, %296 : tensor<f32>, tensor<f32>) outs(%6 : tensor<f32>) {
    ^bb0(%in: f32, %in_268: f32, %out: f32):
      %380 = arith.addf %in, %in_268 : f32
      linalg.yield %380 : f32
    } -> tensor<f32>
    %expanded_212 = tensor.expand_shape %292 [] output_shape [1] : tensor<f32> into tensor<1xf32>
    %expanded_213 = tensor.expand_shape %297 [] output_shape [1] : tensor<f32> into tensor<1xf32>
    %concat_214 = tensor.concat dim(0) %expanded_212, %expanded_213 : (tensor<1xf32>, tensor<1xf32>) -> tensor<2xf32>
    %298 = linalg.generic {indexing_maps = [#map, #map, #map], iterator_types = ["parallel"]} ins(%collapsed_27, %concat_214 : tensor<2xf32>, tensor<2xf32>) outs(%51 : tensor<2xf32>) {
    ^bb0(%in: f32, %in_268: f32, %out: f32):
      %380 = arith.subf %in, %in_268 : f32
      linalg.yield %380 : f32
    } -> tensor<2xf32>
    %299 = linalg.generic {indexing_maps = [#map1, #map1, #map1], iterator_types = []} ins(%293, %cst_7 : tensor<f32>, tensor<f32>) outs(%6 : tensor<f32>) {
    ^bb0(%in: f32, %in_268: f32, %out: f32):
      %380 = arith.mulf %in, %in_268 : f32
      linalg.yield %380 : f32
    } -> tensor<f32>
    %300 = linalg.generic {indexing_maps = [#map1, #map1, #map1], iterator_types = []} ins(%299, %296 : tensor<f32>, tensor<f32>) outs(%6 : tensor<f32>) {
    ^bb0(%in: f32, %in_268: f32, %out: f32):
      %380 = arith.subf %in, %in_268 : f32
      linalg.yield %380 : f32
    } -> tensor<f32>
    %301 = linalg.generic {indexing_maps = [#map1, #map1, #map1], iterator_types = []} ins(%295, %cst_7 : tensor<f32>, tensor<f32>) outs(%6 : tensor<f32>) {
    ^bb0(%in: f32, %in_268: f32, %out: f32):
      %380 = arith.mulf %in, %in_268 : f32
      linalg.yield %380 : f32
    } -> tensor<f32>
    %expanded_215 = tensor.expand_shape %300 [] output_shape [1] : tensor<f32> into tensor<1xf32>
    %expanded_216 = tensor.expand_shape %301 [] output_shape [1] : tensor<f32> into tensor<1xf32>
    %concat_217 = tensor.concat dim(0) %expanded_215, %expanded_216 : (tensor<1xf32>, tensor<1xf32>) -> tensor<2xf32>
    %expanded_218 = tensor.expand_shape %291 [] output_shape [1] : tensor<f32> into tensor<1xf32>
    %concat_219 = tensor.concat dim(0) %expanded_212, %expanded_218 : (tensor<1xf32>, tensor<1xf32>) -> tensor<2xf32>
    %expanded_220 = tensor.expand_shape %concat_217 [[0, 1]] output_shape [1, 2] : tensor<2xf32> into tensor<1x2xf32>
    %expanded_221 = tensor.expand_shape %concat_219 [[0, 1]] output_shape [1, 2] : tensor<2xf32> into tensor<1x2xf32>
    %concat_222 = tensor.concat dim(0) %expanded_220, %expanded_221 : (tensor<1x2xf32>, tensor<1x2xf32>) -> tensor<2x2xf32>
    %302 = linalg.generic {indexing_maps = [#map5, #map3], iterator_types = ["parallel", "parallel"]} ins(%cst_16 : tensor<1xi64>) outs(%34 : tensor<1x2xf32>) {
    ^bb0(%in: i64, %out: f32):
      %380 = arith.index_cast %in : i64 to index
      %381 = linalg.index 1 : index
      %extracted = tensor.extract %concat_222[%380, %381] : tensor<2x2xf32>
      linalg.yield %extracted : f32
    } -> tensor<1x2xf32>
    %collapsed_223 = tensor.collapse_shape %302 [[0, 1]] : tensor<1x2xf32> into tensor<2xf32>
    %303 = linalg.generic {indexing_maps = [#map, #map], iterator_types = ["parallel"]} ins(%cst_16 : tensor<1xi64>) outs(%4 : tensor<1xf32>) {
    ^bb0(%in: i64, %out: f32):
      %380 = arith.index_cast %in : i64 to index
      %extracted = tensor.extract %collapsed_223[%380] : tensor<2xf32>
      linalg.yield %extracted : f32
    } -> tensor<1xf32>
    %collapsed_224 = tensor.collapse_shape %303 [] : tensor<1xf32> into tensor<f32>
    %304 = linalg.generic {indexing_maps = [#map5, #map3], iterator_types = ["parallel", "parallel"]} ins(%cst_0 : tensor<1xi64>) outs(%34 : tensor<1x2xf32>) {
    ^bb0(%in: i64, %out: f32):
      %380 = arith.index_cast %in : i64 to index
      %381 = linalg.index 1 : index
      %extracted = tensor.extract %concat_222[%380, %381] : tensor<2x2xf32>
      linalg.yield %extracted : f32
    } -> tensor<1x2xf32>
    %collapsed_225 = tensor.collapse_shape %304 [[0, 1]] : tensor<1x2xf32> into tensor<2xf32>
    %305 = linalg.generic {indexing_maps = [#map, #map], iterator_types = ["parallel"]} ins(%cst_0 : tensor<1xi64>) outs(%4 : tensor<1xf32>) {
    ^bb0(%in: i64, %out: f32):
      %380 = arith.index_cast %in : i64 to index
      %extracted = tensor.extract %collapsed_225[%380] : tensor<2xf32>
      linalg.yield %extracted : f32
    } -> tensor<1xf32>
    %collapsed_226 = tensor.collapse_shape %305 [] : tensor<1xf32> into tensor<f32>
    %306 = linalg.generic {indexing_maps = [#map1, #map1, #map1], iterator_types = []} ins(%collapsed_224, %collapsed_226 : tensor<f32>, tensor<f32>) outs(%6 : tensor<f32>) {
    ^bb0(%in: f32, %in_268: f32, %out: f32):
      %380 = arith.mulf %in, %in_268 : f32
      linalg.yield %380 : f32
    } -> tensor<f32>
    %307 = linalg.generic {indexing_maps = [#map, #map], iterator_types = ["parallel"]} ins(%cst_0 : tensor<1xi64>) outs(%4 : tensor<1xf32>) {
    ^bb0(%in: i64, %out: f32):
      %380 = arith.index_cast %in : i64 to index
      %extracted = tensor.extract %collapsed_223[%380] : tensor<2xf32>
      linalg.yield %extracted : f32
    } -> tensor<1xf32>
    %collapsed_227 = tensor.collapse_shape %307 [] : tensor<1xf32> into tensor<f32>
    %308 = linalg.generic {indexing_maps = [#map, #map], iterator_types = ["parallel"]} ins(%cst_16 : tensor<1xi64>) outs(%4 : tensor<1xf32>) {
    ^bb0(%in: i64, %out: f32):
      %380 = arith.index_cast %in : i64 to index
      %extracted = tensor.extract %collapsed_225[%380] : tensor<2xf32>
      linalg.yield %extracted : f32
    } -> tensor<1xf32>
    %collapsed_228 = tensor.collapse_shape %308 [] : tensor<1xf32> into tensor<f32>
    %309 = linalg.generic {indexing_maps = [#map1, #map1, #map1], iterator_types = []} ins(%collapsed_227, %collapsed_228 : tensor<f32>, tensor<f32>) outs(%6 : tensor<f32>) {
    ^bb0(%in: f32, %in_268: f32, %out: f32):
      %380 = arith.mulf %in, %in_268 : f32
      linalg.yield %380 : f32
    } -> tensor<f32>
    %310 = linalg.generic {indexing_maps = [#map1, #map1, #map1], iterator_types = []} ins(%306, %309 : tensor<f32>, tensor<f32>) outs(%6 : tensor<f32>) {
    ^bb0(%in: f32, %in_268: f32, %out: f32):
      %380 = arith.subf %in, %in_268 : f32
      linalg.yield %380 : f32
    } -> tensor<f32>
    %311 = linalg.generic {indexing_maps = [#map1, #map1, #map1], iterator_types = []} ins(%310, %cst_6 : tensor<f32>, tensor<f32>) outs(%6 : tensor<f32>) {
    ^bb0(%in: f32, %in_268: f32, %out: f32):
      %380 = arith.addf %in, %in_268 : f32
      linalg.yield %380 : f32
    } -> tensor<f32>
    %312 = linalg.generic {indexing_maps = [#map1, #map1], iterator_types = []} ins(%311 : tensor<f32>) outs(%6 : tensor<f32>) {
    ^bb0(%in: f32, %out: f32):
      %380 = arith.cmpf one, %in, %cst_17 : f32
      cf.assert %380, "unimplemented: tensor with zero element"
      %381 = arith.divf %cst_19, %in : f32
      linalg.yield %381 : f32
    } -> tensor<f32>
    %313 = linalg.generic {indexing_maps = [#map1, #map1, #map1], iterator_types = []} ins(%312, %cst_8 : tensor<f32>, tensor<f32>) outs(%6 : tensor<f32>) {
    ^bb0(%in: f32, %in_268: f32, %out: f32):
      %380 = arith.mulf %in, %in_268 : f32
      linalg.yield %380 : f32
    } -> tensor<f32>
    %314 = linalg.generic {indexing_maps = [#map1, #map1], iterator_types = []} ins(%collapsed_227 : tensor<f32>) outs(%6 : tensor<f32>) {
    ^bb0(%in: f32, %out: f32):
      %380 = arith.negf %in : f32
      linalg.yield %380 : f32
    } -> tensor<f32>
    %expanded_229 = tensor.expand_shape %314 [] output_shape [1] : tensor<f32> into tensor<1xf32>
    %concat_230 = tensor.concat dim(0) %305, %expanded_229 : (tensor<1xf32>, tensor<1xf32>) -> tensor<2xf32>
    %315 = linalg.generic {indexing_maps = [#map1, #map1], iterator_types = []} ins(%collapsed_228 : tensor<f32>) outs(%6 : tensor<f32>) {
    ^bb0(%in: f32, %out: f32):
      %380 = arith.negf %in : f32
      linalg.yield %380 : f32
    } -> tensor<f32>
    %expanded_231 = tensor.expand_shape %315 [] output_shape [1] : tensor<f32> into tensor<1xf32>
    %concat_232 = tensor.concat dim(0) %expanded_231, %303 : (tensor<1xf32>, tensor<1xf32>) -> tensor<2xf32>
    %expanded_233 = tensor.expand_shape %concat_230 [[0, 1]] output_shape [1, 2] : tensor<2xf32> into tensor<1x2xf32>
    %expanded_234 = tensor.expand_shape %concat_232 [[0, 1]] output_shape [1, 2] : tensor<2xf32> into tensor<1x2xf32>
    %concat_235 = tensor.concat dim(0) %expanded_233, %expanded_234 : (tensor<1x2xf32>, tensor<1x2xf32>) -> tensor<2x2xf32>
    %316 = linalg.generic {indexing_maps = [#map3, #map6, #map3], iterator_types = ["parallel", "parallel"]} ins(%concat_235, %313 : tensor<2x2xf32>, tensor<f32>) outs(%31 : tensor<2x2xf32>) {
    ^bb0(%in: f32, %in_268: f32, %out: f32):
      %380 = arith.mulf %in, %in_268 : f32
      linalg.yield %380 : f32
    } -> tensor<2x2xf32>
    %317 = linalg.matvec ins(%316, %298 : tensor<2x2xf32>, tensor<2xf32>) outs(%71 : tensor<2xf32>) -> tensor<2xf32>
    %318 = linalg.generic {indexing_maps = [#map, #map7, #map], iterator_types = ["parallel"]} ins(%317, %cst_5 : tensor<2xf32>, tensor<f32>) outs(%51 : tensor<2xf32>) {
    ^bb0(%in: f32, %in_268: f32, %out: f32):
      %380 = arith.mulf %in, %in_268 : f32
      linalg.yield %380 : f32
    } -> tensor<2xf32>
    %319 = linalg.generic {indexing_maps = [#map, #map, #map], iterator_types = ["parallel"]} ins(%284, %318 : tensor<2xf32>, tensor<2xf32>) outs(%51 : tensor<2xf32>) {
    ^bb0(%in: f32, %in_268: f32, %out: f32):
      %380 = arith.addf %in, %in_268 : f32
      linalg.yield %380 : f32
    } -> tensor<2xf32>
    %320 = linalg.generic {indexing_maps = [#map, #map], iterator_types = ["parallel"]} ins(%cst_16 : tensor<1xi64>) outs(%4 : tensor<1xf32>) {
    ^bb0(%in: i64, %out: f32):
      %380 = arith.index_cast %in : i64 to index
      %extracted = tensor.extract %319[%380] : tensor<2xf32>
      linalg.yield %extracted : f32
    } -> tensor<1xf32>
    %collapsed_236 = tensor.collapse_shape %320 [] : tensor<1xf32> into tensor<f32>
    %321 = linalg.generic {indexing_maps = [#map, #map], iterator_types = ["parallel"]} ins(%cst_0 : tensor<1xi64>) outs(%4 : tensor<1xf32>) {
    ^bb0(%in: i64, %out: f32):
      %380 = arith.index_cast %in : i64 to index
      %extracted = tensor.extract %319[%380] : tensor<2xf32>
      linalg.yield %extracted : f32
    } -> tensor<1xf32>
    %collapsed_237 = tensor.collapse_shape %321 [] : tensor<1xf32> into tensor<f32>
    %322 = linalg.generic {indexing_maps = [#map1, #map1], iterator_types = []} ins(%collapsed_236 : tensor<f32>) outs(%6 : tensor<f32>) {
    ^bb0(%in: f32, %out: f32):
      %380 = math.cos %in : f32
      linalg.yield %380 : f32
    } -> tensor<f32>
    %323 = linalg.generic {indexing_maps = [#map1, #map1, #map1], iterator_types = []} ins(%322, %cst_8 : tensor<f32>, tensor<f32>) outs(%6 : tensor<f32>) {
    ^bb0(%in: f32, %in_268: f32, %out: f32):
      %380 = arith.mulf %in, %in_268 : f32
      linalg.yield %380 : f32
    } -> tensor<f32>
    %324 = linalg.generic {indexing_maps = [#map1, #map1, #map1], iterator_types = []} ins(%collapsed_236, %collapsed_237 : tensor<f32>, tensor<f32>) outs(%6 : tensor<f32>) {
    ^bb0(%in: f32, %in_268: f32, %out: f32):
      %380 = arith.addf %in, %in_268 : f32
      linalg.yield %380 : f32
    } -> tensor<f32>
    %325 = linalg.generic {indexing_maps = [#map1, #map1], iterator_types = []} ins(%324 : tensor<f32>) outs(%6 : tensor<f32>) {
    ^bb0(%in: f32, %out: f32):
      %380 = math.cos %in : f32
      linalg.yield %380 : f32
    } -> tensor<f32>
    %326 = linalg.generic {indexing_maps = [#map1, #map1, #map1], iterator_types = []} ins(%325, %cst_8 : tensor<f32>, tensor<f32>) outs(%6 : tensor<f32>) {
    ^bb0(%in: f32, %in_268: f32, %out: f32):
      %380 = arith.mulf %in, %in_268 : f32
      linalg.yield %380 : f32
    } -> tensor<f32>
    %327 = linalg.generic {indexing_maps = [#map1, #map1, #map1], iterator_types = []} ins(%323, %326 : tensor<f32>, tensor<f32>) outs(%6 : tensor<f32>) {
    ^bb0(%in: f32, %in_268: f32, %out: f32):
      %380 = arith.addf %in, %in_268 : f32
      linalg.yield %380 : f32
    } -> tensor<f32>
    %328 = linalg.generic {indexing_maps = [#map1, #map1], iterator_types = []} ins(%collapsed_236 : tensor<f32>) outs(%6 : tensor<f32>) {
    ^bb0(%in: f32, %out: f32):
      %380 = math.sin %in : f32
      linalg.yield %380 : f32
    } -> tensor<f32>
    %329 = linalg.generic {indexing_maps = [#map1, #map1, #map1], iterator_types = []} ins(%328, %cst_8 : tensor<f32>, tensor<f32>) outs(%6 : tensor<f32>) {
    ^bb0(%in: f32, %in_268: f32, %out: f32):
      %380 = arith.mulf %in, %in_268 : f32
      linalg.yield %380 : f32
    } -> tensor<f32>
    %330 = linalg.generic {indexing_maps = [#map1, #map1], iterator_types = []} ins(%324 : tensor<f32>) outs(%6 : tensor<f32>) {
    ^bb0(%in: f32, %out: f32):
      %380 = math.sin %in : f32
      linalg.yield %380 : f32
    } -> tensor<f32>
    %331 = linalg.generic {indexing_maps = [#map1, #map1, #map1], iterator_types = []} ins(%330, %cst_8 : tensor<f32>, tensor<f32>) outs(%6 : tensor<f32>) {
    ^bb0(%in: f32, %in_268: f32, %out: f32):
      %380 = arith.mulf %in, %in_268 : f32
      linalg.yield %380 : f32
    } -> tensor<f32>
    %332 = linalg.generic {indexing_maps = [#map1, #map1, #map1], iterator_types = []} ins(%329, %331 : tensor<f32>, tensor<f32>) outs(%6 : tensor<f32>) {
    ^bb0(%in: f32, %in_268: f32, %out: f32):
      %380 = arith.addf %in, %in_268 : f32
      linalg.yield %380 : f32
    } -> tensor<f32>
    %expanded_238 = tensor.expand_shape %327 [] output_shape [1] : tensor<f32> into tensor<1xf32>
    %expanded_239 = tensor.expand_shape %332 [] output_shape [1] : tensor<f32> into tensor<1xf32>
    %concat_240 = tensor.concat dim(0) %expanded_238, %expanded_239 : (tensor<1xf32>, tensor<1xf32>) -> tensor<2xf32>
    %333 = linalg.generic {indexing_maps = [#map, #map, #map], iterator_types = ["parallel"]} ins(%collapsed_27, %concat_240 : tensor<2xf32>, tensor<2xf32>) outs(%51 : tensor<2xf32>) {
    ^bb0(%in: f32, %in_268: f32, %out: f32):
      %380 = arith.subf %in, %in_268 : f32
      linalg.yield %380 : f32
    } -> tensor<2xf32>
    %334 = linalg.generic {indexing_maps = [#map1, #map1, #map1], iterator_types = []} ins(%328, %cst_7 : tensor<f32>, tensor<f32>) outs(%6 : tensor<f32>) {
    ^bb0(%in: f32, %in_268: f32, %out: f32):
      %380 = arith.mulf %in, %in_268 : f32
      linalg.yield %380 : f32
    } -> tensor<f32>
    %335 = linalg.generic {indexing_maps = [#map1, #map1, #map1], iterator_types = []} ins(%334, %331 : tensor<f32>, tensor<f32>) outs(%6 : tensor<f32>) {
    ^bb0(%in: f32, %in_268: f32, %out: f32):
      %380 = arith.subf %in, %in_268 : f32
      linalg.yield %380 : f32
    } -> tensor<f32>
    %336 = linalg.generic {indexing_maps = [#map1, #map1, #map1], iterator_types = []} ins(%330, %cst_7 : tensor<f32>, tensor<f32>) outs(%6 : tensor<f32>) {
    ^bb0(%in: f32, %in_268: f32, %out: f32):
      %380 = arith.mulf %in, %in_268 : f32
      linalg.yield %380 : f32
    } -> tensor<f32>
    %expanded_241 = tensor.expand_shape %335 [] output_shape [1] : tensor<f32> into tensor<1xf32>
    %expanded_242 = tensor.expand_shape %336 [] output_shape [1] : tensor<f32> into tensor<1xf32>
    %concat_243 = tensor.concat dim(0) %expanded_241, %expanded_242 : (tensor<1xf32>, tensor<1xf32>) -> tensor<2xf32>
    %expanded_244 = tensor.expand_shape %326 [] output_shape [1] : tensor<f32> into tensor<1xf32>
    %concat_245 = tensor.concat dim(0) %expanded_238, %expanded_244 : (tensor<1xf32>, tensor<1xf32>) -> tensor<2xf32>
    %expanded_246 = tensor.expand_shape %concat_243 [[0, 1]] output_shape [1, 2] : tensor<2xf32> into tensor<1x2xf32>
    %expanded_247 = tensor.expand_shape %concat_245 [[0, 1]] output_shape [1, 2] : tensor<2xf32> into tensor<1x2xf32>
    %concat_248 = tensor.concat dim(0) %expanded_246, %expanded_247 : (tensor<1x2xf32>, tensor<1x2xf32>) -> tensor<2x2xf32>
    %337 = linalg.generic {indexing_maps = [#map5, #map3], iterator_types = ["parallel", "parallel"]} ins(%cst_16 : tensor<1xi64>) outs(%34 : tensor<1x2xf32>) {
    ^bb0(%in: i64, %out: f32):
      %380 = arith.index_cast %in : i64 to index
      %381 = linalg.index 1 : index
      %extracted = tensor.extract %concat_248[%380, %381] : tensor<2x2xf32>
      linalg.yield %extracted : f32
    } -> tensor<1x2xf32>
    %collapsed_249 = tensor.collapse_shape %337 [[0, 1]] : tensor<1x2xf32> into tensor<2xf32>
    %338 = linalg.generic {indexing_maps = [#map, #map], iterator_types = ["parallel"]} ins(%cst_16 : tensor<1xi64>) outs(%4 : tensor<1xf32>) {
    ^bb0(%in: i64, %out: f32):
      %380 = arith.index_cast %in : i64 to index
      %extracted = tensor.extract %collapsed_249[%380] : tensor<2xf32>
      linalg.yield %extracted : f32
    } -> tensor<1xf32>
    %collapsed_250 = tensor.collapse_shape %338 [] : tensor<1xf32> into tensor<f32>
    %339 = linalg.generic {indexing_maps = [#map5, #map3], iterator_types = ["parallel", "parallel"]} ins(%cst_0 : tensor<1xi64>) outs(%34 : tensor<1x2xf32>) {
    ^bb0(%in: i64, %out: f32):
      %380 = arith.index_cast %in : i64 to index
      %381 = linalg.index 1 : index
      %extracted = tensor.extract %concat_248[%380, %381] : tensor<2x2xf32>
      linalg.yield %extracted : f32
    } -> tensor<1x2xf32>
    %collapsed_251 = tensor.collapse_shape %339 [[0, 1]] : tensor<1x2xf32> into tensor<2xf32>
    %340 = linalg.generic {indexing_maps = [#map, #map], iterator_types = ["parallel"]} ins(%cst_0 : tensor<1xi64>) outs(%4 : tensor<1xf32>) {
    ^bb0(%in: i64, %out: f32):
      %380 = arith.index_cast %in : i64 to index
      %extracted = tensor.extract %collapsed_251[%380] : tensor<2xf32>
      linalg.yield %extracted : f32
    } -> tensor<1xf32>
    %collapsed_252 = tensor.collapse_shape %340 [] : tensor<1xf32> into tensor<f32>
    %341 = linalg.generic {indexing_maps = [#map1, #map1, #map1], iterator_types = []} ins(%collapsed_250, %collapsed_252 : tensor<f32>, tensor<f32>) outs(%6 : tensor<f32>) {
    ^bb0(%in: f32, %in_268: f32, %out: f32):
      %380 = arith.mulf %in, %in_268 : f32
      linalg.yield %380 : f32
    } -> tensor<f32>
    %342 = linalg.generic {indexing_maps = [#map, #map], iterator_types = ["parallel"]} ins(%cst_0 : tensor<1xi64>) outs(%4 : tensor<1xf32>) {
    ^bb0(%in: i64, %out: f32):
      %380 = arith.index_cast %in : i64 to index
      %extracted = tensor.extract %collapsed_249[%380] : tensor<2xf32>
      linalg.yield %extracted : f32
    } -> tensor<1xf32>
    %collapsed_253 = tensor.collapse_shape %342 [] : tensor<1xf32> into tensor<f32>
    %343 = linalg.generic {indexing_maps = [#map, #map], iterator_types = ["parallel"]} ins(%cst_16 : tensor<1xi64>) outs(%4 : tensor<1xf32>) {
    ^bb0(%in: i64, %out: f32):
      %380 = arith.index_cast %in : i64 to index
      %extracted = tensor.extract %collapsed_251[%380] : tensor<2xf32>
      linalg.yield %extracted : f32
    } -> tensor<1xf32>
    %collapsed_254 = tensor.collapse_shape %343 [] : tensor<1xf32> into tensor<f32>
    %344 = linalg.generic {indexing_maps = [#map1, #map1, #map1], iterator_types = []} ins(%collapsed_253, %collapsed_254 : tensor<f32>, tensor<f32>) outs(%6 : tensor<f32>) {
    ^bb0(%in: f32, %in_268: f32, %out: f32):
      %380 = arith.mulf %in, %in_268 : f32
      linalg.yield %380 : f32
    } -> tensor<f32>
    %345 = linalg.generic {indexing_maps = [#map1, #map1, #map1], iterator_types = []} ins(%341, %344 : tensor<f32>, tensor<f32>) outs(%6 : tensor<f32>) {
    ^bb0(%in: f32, %in_268: f32, %out: f32):
      %380 = arith.subf %in, %in_268 : f32
      linalg.yield %380 : f32
    } -> tensor<f32>
    %346 = linalg.generic {indexing_maps = [#map1, #map1, #map1], iterator_types = []} ins(%345, %cst_6 : tensor<f32>, tensor<f32>) outs(%6 : tensor<f32>) {
    ^bb0(%in: f32, %in_268: f32, %out: f32):
      %380 = arith.addf %in, %in_268 : f32
      linalg.yield %380 : f32
    } -> tensor<f32>
    %347 = linalg.generic {indexing_maps = [#map1, #map1], iterator_types = []} ins(%346 : tensor<f32>) outs(%6 : tensor<f32>) {
    ^bb0(%in: f32, %out: f32):
      %380 = arith.cmpf one, %in, %cst_17 : f32
      cf.assert %380, "unimplemented: tensor with zero element"
      %381 = arith.divf %cst_19, %in : f32
      linalg.yield %381 : f32
    } -> tensor<f32>
    %348 = linalg.generic {indexing_maps = [#map1, #map1, #map1], iterator_types = []} ins(%347, %cst_8 : tensor<f32>, tensor<f32>) outs(%6 : tensor<f32>) {
    ^bb0(%in: f32, %in_268: f32, %out: f32):
      %380 = arith.mulf %in, %in_268 : f32
      linalg.yield %380 : f32
    } -> tensor<f32>
    %349 = linalg.generic {indexing_maps = [#map1, #map1], iterator_types = []} ins(%collapsed_253 : tensor<f32>) outs(%6 : tensor<f32>) {
    ^bb0(%in: f32, %out: f32):
      %380 = arith.negf %in : f32
      linalg.yield %380 : f32
    } -> tensor<f32>
    %expanded_255 = tensor.expand_shape %349 [] output_shape [1] : tensor<f32> into tensor<1xf32>
    %concat_256 = tensor.concat dim(0) %340, %expanded_255 : (tensor<1xf32>, tensor<1xf32>) -> tensor<2xf32>
    %350 = linalg.generic {indexing_maps = [#map1, #map1], iterator_types = []} ins(%collapsed_254 : tensor<f32>) outs(%6 : tensor<f32>) {
    ^bb0(%in: f32, %out: f32):
      %380 = arith.negf %in : f32
      linalg.yield %380 : f32
    } -> tensor<f32>
    %expanded_257 = tensor.expand_shape %350 [] output_shape [1] : tensor<f32> into tensor<1xf32>
    %concat_258 = tensor.concat dim(0) %expanded_257, %338 : (tensor<1xf32>, tensor<1xf32>) -> tensor<2xf32>
    %expanded_259 = tensor.expand_shape %concat_256 [[0, 1]] output_shape [1, 2] : tensor<2xf32> into tensor<1x2xf32>
    %expanded_260 = tensor.expand_shape %concat_258 [[0, 1]] output_shape [1, 2] : tensor<2xf32> into tensor<1x2xf32>
    %concat_261 = tensor.concat dim(0) %expanded_259, %expanded_260 : (tensor<1x2xf32>, tensor<1x2xf32>) -> tensor<2x2xf32>
    %351 = linalg.generic {indexing_maps = [#map3, #map6, #map3], iterator_types = ["parallel", "parallel"]} ins(%concat_261, %348 : tensor<2x2xf32>, tensor<f32>) outs(%31 : tensor<2x2xf32>) {
    ^bb0(%in: f32, %in_268: f32, %out: f32):
      %380 = arith.mulf %in, %in_268 : f32
      linalg.yield %380 : f32
    } -> tensor<2x2xf32>
    %352 = linalg.matvec ins(%351, %333 : tensor<2x2xf32>, tensor<2xf32>) outs(%71 : tensor<2xf32>) -> tensor<2xf32>
    %353 = linalg.generic {indexing_maps = [#map, #map7, #map], iterator_types = ["parallel"]} ins(%352, %cst_5 : tensor<2xf32>, tensor<f32>) outs(%51 : tensor<2xf32>) {
    ^bb0(%in: f32, %in_268: f32, %out: f32):
      %380 = arith.mulf %in, %in_268 : f32
      linalg.yield %380 : f32
    } -> tensor<2xf32>
    %354 = linalg.generic {indexing_maps = [#map, #map, #map], iterator_types = ["parallel"]} ins(%319, %353 : tensor<2xf32>, tensor<2xf32>) outs(%51 : tensor<2xf32>) {
    ^bb0(%in: f32, %in_268: f32, %out: f32):
      %380 = arith.addf %in, %in_268 : f32
      linalg.yield %380 : f32
    } -> tensor<2xf32>
    %355 = linalg.generic {indexing_maps = [#map, #map], iterator_types = ["parallel"]} ins(%cst_16 : tensor<1xi64>) outs(%4 : tensor<1xf32>) {
    ^bb0(%in: i64, %out: f32):
      %380 = arith.index_cast %in : i64 to index
      %extracted = tensor.extract %354[%380] : tensor<2xf32>
      linalg.yield %extracted : f32
    } -> tensor<1xf32>
    %collapsed_262 = tensor.collapse_shape %355 [] : tensor<1xf32> into tensor<f32>
    %356 = linalg.generic {indexing_maps = [#map, #map], iterator_types = ["parallel"]} ins(%cst_0 : tensor<1xi64>) outs(%4 : tensor<1xf32>) {
    ^bb0(%in: i64, %out: f32):
      %380 = arith.index_cast %in : i64 to index
      %extracted = tensor.extract %354[%380] : tensor<2xf32>
      linalg.yield %extracted : f32
    } -> tensor<1xf32>
    %collapsed_263 = tensor.collapse_shape %356 [] : tensor<1xf32> into tensor<f32>
    %357 = linalg.generic {indexing_maps = [#map1, #map1], iterator_types = []} ins(%collapsed_262 : tensor<f32>) outs(%6 : tensor<f32>) {
    ^bb0(%in: f32, %out: f32):
      %380 = math.cos %in : f32
      linalg.yield %380 : f32
    } -> tensor<f32>
    %358 = linalg.generic {indexing_maps = [#map1, #map1, #map1], iterator_types = []} ins(%357, %cst_8 : tensor<f32>, tensor<f32>) outs(%6 : tensor<f32>) {
    ^bb0(%in: f32, %in_268: f32, %out: f32):
      %380 = arith.mulf %in, %in_268 : f32
      linalg.yield %380 : f32
    } -> tensor<f32>
    %359 = linalg.generic {indexing_maps = [#map1, #map1, #map1], iterator_types = []} ins(%collapsed_262, %collapsed_263 : tensor<f32>, tensor<f32>) outs(%6 : tensor<f32>) {
    ^bb0(%in: f32, %in_268: f32, %out: f32):
      %380 = arith.addf %in, %in_268 : f32
      linalg.yield %380 : f32
    } -> tensor<f32>
    %360 = linalg.generic {indexing_maps = [#map1, #map1], iterator_types = []} ins(%359 : tensor<f32>) outs(%6 : tensor<f32>) {
    ^bb0(%in: f32, %out: f32):
      %380 = math.cos %in : f32
      linalg.yield %380 : f32
    } -> tensor<f32>
    %361 = linalg.generic {indexing_maps = [#map1, #map1, #map1], iterator_types = []} ins(%360, %cst_8 : tensor<f32>, tensor<f32>) outs(%6 : tensor<f32>) {
    ^bb0(%in: f32, %in_268: f32, %out: f32):
      %380 = arith.mulf %in, %in_268 : f32
      linalg.yield %380 : f32
    } -> tensor<f32>
    %362 = linalg.generic {indexing_maps = [#map1, #map1, #map1], iterator_types = []} ins(%358, %361 : tensor<f32>, tensor<f32>) outs(%6 : tensor<f32>) {
    ^bb0(%in: f32, %in_268: f32, %out: f32):
      %380 = arith.addf %in, %in_268 : f32
      linalg.yield %380 : f32
    } -> tensor<f32>
    %363 = linalg.generic {indexing_maps = [#map1, #map1], iterator_types = []} ins(%collapsed_262 : tensor<f32>) outs(%6 : tensor<f32>) {
    ^bb0(%in: f32, %out: f32):
      %380 = math.sin %in : f32
      linalg.yield %380 : f32
    } -> tensor<f32>
    %364 = linalg.generic {indexing_maps = [#map1, #map1, #map1], iterator_types = []} ins(%363, %cst_8 : tensor<f32>, tensor<f32>) outs(%6 : tensor<f32>) {
    ^bb0(%in: f32, %in_268: f32, %out: f32):
      %380 = arith.mulf %in, %in_268 : f32
      linalg.yield %380 : f32
    } -> tensor<f32>
    %365 = linalg.generic {indexing_maps = [#map1, #map1], iterator_types = []} ins(%359 : tensor<f32>) outs(%6 : tensor<f32>) {
    ^bb0(%in: f32, %out: f32):
      %380 = math.sin %in : f32
      linalg.yield %380 : f32
    } -> tensor<f32>
    %366 = linalg.generic {indexing_maps = [#map1, #map1, #map1], iterator_types = []} ins(%365, %cst_8 : tensor<f32>, tensor<f32>) outs(%6 : tensor<f32>) {
    ^bb0(%in: f32, %in_268: f32, %out: f32):
      %380 = arith.mulf %in, %in_268 : f32
      linalg.yield %380 : f32
    } -> tensor<f32>
    %367 = linalg.generic {indexing_maps = [#map1, #map1, #map1], iterator_types = []} ins(%364, %366 : tensor<f32>, tensor<f32>) outs(%6 : tensor<f32>) {
    ^bb0(%in: f32, %in_268: f32, %out: f32):
      %380 = arith.addf %in, %in_268 : f32
      linalg.yield %380 : f32
    } -> tensor<f32>
    %expanded_264 = tensor.expand_shape %362 [] output_shape [1] : tensor<f32> into tensor<1xf32>
    %expanded_265 = tensor.expand_shape %367 [] output_shape [1] : tensor<f32> into tensor<1xf32>
    %concat_266 = tensor.concat dim(0) %expanded_264, %expanded_265 : (tensor<1xf32>, tensor<1xf32>) -> tensor<2xf32>
    %368 = linalg.generic {indexing_maps = [#map, #map, #map], iterator_types = ["parallel"]} ins(%concat_266, %cst_4 : tensor<2xf32>, tensor<2xf32>) outs(%51 : tensor<2xf32>) {
    ^bb0(%in: f32, %in_268: f32, %out: f32):
      %380 = arith.addf %in, %in_268 : f32
      linalg.yield %380 : f32
    } -> tensor<2xf32>
    %369 = linalg.generic {indexing_maps = [#map, #map, #map], iterator_types = ["parallel"]} ins(%368, %cst_3 : tensor<2xf32>, tensor<2xf32>) outs(%51 : tensor<2xf32>) {
    ^bb0(%in: f32, %in_268: f32, %out: f32):
      %380 = arith.addf %in, %in_268 : f32
      linalg.yield %380 : f32
    } -> tensor<2xf32>
    %370 = tensor.empty() : tensor<10x2xf32>
    %371 = linalg.generic {indexing_maps = [#map4, #map8, #map3], iterator_types = ["parallel", "parallel"]} ins(%concat_266, %cst_2 : tensor<2xf32>, tensor<10x1xf32>) outs(%370 : tensor<10x2xf32>) {
    ^bb0(%in: f32, %in_268: f32, %out: f32):
      %380 = arith.mulf %in, %in_268 : f32
      linalg.yield %380 : f32
    } -> tensor<10x2xf32>
    %372 = linalg.generic {indexing_maps = [#map4, #map8, #map3], iterator_types = ["parallel", "parallel"]} ins(%368, %cst_1 : tensor<2xf32>, tensor<10x1xf32>) outs(%370 : tensor<10x2xf32>) {
    ^bb0(%in: f32, %in_268: f32, %out: f32):
      %380 = arith.mulf %in, %in_268 : f32
      linalg.yield %380 : f32
    } -> tensor<10x2xf32>
    %373 = linalg.generic {indexing_maps = [#map3, #map3, #map3], iterator_types = ["parallel", "parallel"]} ins(%371, %372 : tensor<10x2xf32>, tensor<10x2xf32>) outs(%370 : tensor<10x2xf32>) {
    ^bb0(%in: f32, %in_268: f32, %out: f32):
      %380 = arith.addf %in, %in_268 : f32
      linalg.yield %380 : f32
    } -> tensor<10x2xf32>
    %374 = linalg.generic {indexing_maps = [#map4, #map8, #map3], iterator_types = ["parallel", "parallel"]} ins(%368, %cst_2 : tensor<2xf32>, tensor<10x1xf32>) outs(%370 : tensor<10x2xf32>) {
    ^bb0(%in: f32, %in_268: f32, %out: f32):
      %380 = arith.mulf %in, %in_268 : f32
      linalg.yield %380 : f32
    } -> tensor<10x2xf32>
    %375 = linalg.generic {indexing_maps = [#map4, #map8, #map3], iterator_types = ["parallel", "parallel"]} ins(%369, %cst_1 : tensor<2xf32>, tensor<10x1xf32>) outs(%370 : tensor<10x2xf32>) {
    ^bb0(%in: f32, %in_268: f32, %out: f32):
      %380 = arith.mulf %in, %in_268 : f32
      linalg.yield %380 : f32
    } -> tensor<10x2xf32>
    %376 = linalg.generic {indexing_maps = [#map3, #map3, #map3], iterator_types = ["parallel", "parallel"]} ins(%374, %375 : tensor<10x2xf32>, tensor<10x2xf32>) outs(%370 : tensor<10x2xf32>) {
    ^bb0(%in: f32, %in_268: f32, %out: f32):
      %380 = arith.addf %in, %in_268 : f32
      linalg.yield %380 : f32
    } -> tensor<10x2xf32>
    %extracted_slice = tensor.extract_slice %376[1, 0] [9, 2] [1, 1] : tensor<10x2xf32> to tensor<9x2xf32>
    %concat_267 = tensor.concat dim(0) %373, %extracted_slice : (tensor<10x2xf32>, tensor<9x2xf32>) -> tensor<19x2xf32>
    %377:2 = hal.tensor.barrier join(%concat_267, %concat : tensor<19x2xf32>, tensor<3xf32>) => %arg5 : !hal.fence
    %378 = hal.tensor.export %377#0 : tensor<19x2xf32> -> !hal.buffer_view
    %379 = hal.tensor.export %377#1 : tensor<3xf32> -> !hal.buffer_view
    util.return %378, %379 : !hal.buffer_view, !hal.buffer_view
  }
  util.func public @main_graph(%arg0: !hal.buffer_view, %arg1: !hal.buffer_view, %arg2: !hal.buffer_view, %arg3: !hal.buffer_view) -> (!hal.buffer_view, !hal.buffer_view) attributes {iree.abi.stub} {
    %0 = util.null : !hal.fence
    %c-1_i32 = arith.constant -1 : i32
    %c0 = arith.constant 0 : index
    %device_0 = hal.devices.get %c0 : !hal.device
    %fence = hal.fence.create device(%device_0 : !hal.device) flags("None") : !hal.fence
    %1:2 = util.call @main_graph$async(%arg0, %arg1, %arg2, %arg3, %0, %fence) : (!hal.buffer_view, !hal.buffer_view, !hal.buffer_view, !hal.buffer_view, !hal.fence, !hal.fence) -> (!hal.buffer_view, !hal.buffer_view)
    %status = hal.fence.await until([%fence]) timeout_millis(%c-1_i32) flags("None") : i32
    util.return %1#0, %1#1 : !hal.buffer_view, !hal.buffer_view
  }
}
