// TODO: Try $async blocks for the func calls

#map = affine_map<(d0, d1, d2, d3) -> (d0, d1, d2, d3)>
#map1 = affine_map<(d0, d1) -> (d0, d1)>
#map2 = affine_map<(d0, d1) -> (d1)>

#map3 = affine_map<(d0) -> (d0)>
#map4 = affine_map<() -> ()>
#map5 = affine_map<(d0, d1) -> (d0)>
#map6 = affine_map<(d0, d1) -> ()>
#map7 = affine_map<(d0) -> ()>

#map8 = affine_map<(d0, d1) -> (d0, 0)>

module @integrated_robot_application {
  // ============================================================================
  // KERNEL DEFINITIONS
  // ============================================================================

  // --- Op A: Perception Kernel ---
  func.func private @op_a_kernel(%a_arg0: tensor<1x3x64x64xf32>) -> tensor<2xf32> {
    %a_cst = arith.constant dense<"…"> : tensor<4x3x4x4xf32>
    %a_cst_0 = arith.constant dense<[0.0602946617, 0.0679099783, 0.0262253601, 2.52176687E-4]> : tensor<4xf32>
    %a_cst_1 = arith.constant dense<"…"> : tensor<2x256xf32>
    %a_cst_2 = arith.constant dense<[0.036251314, -0.0380887836]> : tensor<2xf32>
    %a_cst_3 = arith.constant 0.000000e+00 : f32
    %a_cst_4 = arith.constant 0xFF800000 : f32
    %padded_empty = tensor.empty() : tensor<1x3x66x66xf32>
    // 2. Fill the new tensor with the padding value (%a_cst_3 which is 0.0).
    %padded_filled = linalg.fill ins(%a_cst_3 : f32) outs(%padded_empty : tensor<1x3x66x66xf32>) -> tensor<1x3x66x66xf32>
    // 3. Insert the original tensor (%a_arg0) into a slice of the filled tensor.
    // The offsets [0, 0, 1, 1] correspond to the 'low' padding values.
    %a_padded = tensor.insert_slice %a_arg0 into %padded_filled[0, 0, 1, 1] [1, 3, 64, 64] [1, 1, 1, 1] : tensor<1x3x64x64xf32> into tensor<1x3x66x66xf32>
    %a_1 = tensor.empty() : tensor<1x4x16x16xf32>
    %a_broadcasted = linalg.broadcast ins(%a_cst_0 : tensor<4xf32>) outs(%a_1 : tensor<1x4x16x16xf32>) dimensions = [0, 2, 3] 
    %a_2 = linalg.conv_2d_nchw_fchw {dilations = dense<1> : vector<2xi64>, strides = dense<4> : vector<2xi64>} ins(%a_padded, %a_cst : tensor<1x3x66x66xf32>, tensor<4x3x4x4xf32>) outs(%a_broadcasted : tensor<1x4x16x16xf32>) -> tensor<1x4x16x16xf32>
    %a_3 = linalg.generic {indexing_maps = [#map, #map], iterator_types = ["parallel", "parallel", "parallel", "parallel"]} ins(%a_2 : tensor<1x4x16x16xf32>) outs(%a_1 : tensor<1x4x16x16xf32>) {
    ^bb0(%a_in: f32, %a_out: f32):
      %a_15 = arith.cmpf ugt, %a_in, %a_cst_3 : f32
      %a_16 = arith.select %a_15, %a_in, %a_cst_3 : f32
      linalg.yield %a_16 : f32
    } -> tensor<1x4x16x16xf32>
    %a_4 = tensor.empty() : tensor<1x4x8x8xf32>
    %a_5 = linalg.fill ins(%a_cst_4 : f32) outs(%a_4 : tensor<1x4x8x8xf32>) -> tensor<1x4x8x8xf32>
    %a_6 = tensor.empty() : tensor<2x2xf32>
    %a_7 = linalg.pooling_nchw_max {dilations = dense<1> : vector<2xi64>, strides = dense<2> : vector<2xi64>} ins(%a_3, %a_6 : tensor<1x4x16x16xf32>, tensor<2x2xf32>) outs(%a_5 : tensor<1x4x8x8xf32>) -> tensor<1x4x8x8xf32>
    %a_collapsed = tensor.collapse_shape %a_7 [[0], [1, 2, 3]] : tensor<1x4x8x8xf32> into tensor<1x256xf32>
    %a_8 = tensor.empty() : tensor<256x2xf32>
    %a_transposed = linalg.transpose ins(%a_cst_1 : tensor<2x256xf32>) outs(%a_8 : tensor<256x2xf32>) permutation = [1, 0] 
    %a_9 = tensor.empty() : tensor<1x2xf32>
    %a_10 = linalg.fill ins(%a_cst_3 : f32) outs(%a_9 : tensor<1x2xf32>) -> tensor<1x2xf32>
    %a_11 = linalg.matmul ins(%a_collapsed, %a_transposed : tensor<1x256xf32>, tensor<256x2xf32>) outs(%a_10 : tensor<1x2xf32>) -> tensor<1x2xf32>
    %a_12 = linalg.generic {indexing_maps = [#map1, #map2, #map1], iterator_types = ["parallel", "parallel"]} ins(%a_11, %a_cst_2 : tensor<1x2xf32>, tensor<2xf32>) outs(%a_9 : tensor<1x2xf32>) {
    ^bb0(%a_in: f32, %a_in_6: f32, %a_out: f32):
      %a_15 = arith.addf %a_in, %a_in_6 : f32
      linalg.yield %a_15 : f32
    } -> tensor<1x2xf32>
    %a_collapsed_5 = tensor.collapse_shape %a_12 [[0, 1]] : tensor<1x2xf32> into tensor<2xf32>
    func.return %a_collapsed_5 : tensor<2xf32>
  }

  // --- Op B: IK Solver Step Kernel ---
  func.func private @op_b_kernel(%b_arg0: tensor<2xf32>, %b_arg1: tensor<2xf32>) -> tensor<2xf32> {
    // Body from op_b MLIR file...
    %b_cst = arith.constant dense<1> : tensor<1xi64>
    %b_cst_0 = arith.constant dense<1.000000e-01> : tensor<f32>
    %b_cst_1 = arith.constant dense<9.99999997E-7> : tensor<f32>
    %b_cst_2 = arith.constant dense<-1.000000e+00> : tensor<f32>
    %b_cst_3 = arith.constant dense<1.000000e+00> : tensor<f32>
    %b_cst_4 = arith.constant dense<0> : tensor<1xi64>
    %b_cst_5 = arith.constant 0.000000e+00 : f32
    %b_cst_6 = arith.constant 1.000000e+00 : f32
    %b_2 = tensor.empty() : tensor<1xf32>
    %b_3 = linalg.generic {indexing_maps = [#map3, #map3], iterator_types = ["parallel"]} ins(%b_cst_4 : tensor<1xi64>) outs(%b_2 : tensor<1xf32>) {
    ^bb0(%b_in: i64, %b_out: f32):
      %b_45 = arith.index_cast %b_in : i64 to index
      %b_extracted = tensor.extract %b_arg0[%b_45] : tensor<2xf32>
      linalg.yield %b_extracted : f32
    } -> tensor<1xf32>
    %b_collapsed = tensor.collapse_shape %b_3 [] : tensor<1xf32> into tensor<f32>
    %b_4 = linalg.generic {indexing_maps = [#map3, #map3], iterator_types = ["parallel"]} ins(%b_cst : tensor<1xi64>) outs(%b_2 : tensor<1xf32>) {
    ^bb0(%b_in: i64, %b_out: f32):
      %b_45 = arith.index_cast %b_in : i64 to index
      %b_extracted = tensor.extract %b_arg0[%b_45] : tensor<2xf32>
      linalg.yield %b_extracted : f32
    } -> tensor<1xf32>
    %b_collapsed_7 = tensor.collapse_shape %b_4 [] : tensor<1xf32> into tensor<f32>
    %b_5 = tensor.empty() : tensor<f32>
    %b_6 = linalg.generic {indexing_maps = [#map4, #map4], iterator_types = []} ins(%b_collapsed : tensor<f32>) outs(%b_5 : tensor<f32>) {
    ^bb0(%b_in: f32, %b_out: f32):
      %b_45 = math.cos %b_in : f32
      linalg.yield %b_45 : f32
    } -> tensor<f32>
    %b_7 = linalg.generic {indexing_maps = [#map4, #map4, #map4], iterator_types = []} ins(%b_6, %b_cst_3 : tensor<f32>, tensor<f32>) outs(%b_5 : tensor<f32>) {
    ^bb0(%b_in: f32, %b_in_30: f32, %b_out: f32):
      %b_45 = arith.mulf %b_in, %b_in_30 : f32
      linalg.yield %b_45 : f32
    } -> tensor<f32>
    %b_8 = linalg.generic {indexing_maps = [#map4, #map4, #map4], iterator_types = []} ins(%b_collapsed, %b_collapsed_7 : tensor<f32>, tensor<f32>) outs(%b_5 : tensor<f32>) {
    ^bb0(%b_in: f32, %b_in_30: f32, %b_out: f32):
      %b_45 = arith.addf %b_in, %b_in_30 : f32
      linalg.yield %b_45 : f32
    } -> tensor<f32>
    %b_9 = linalg.generic {indexing_maps = [#map4, #map4], iterator_types = []} ins(%b_8 : tensor<f32>) outs(%b_5 : tensor<f32>) {
    ^bb0(%b_in: f32, %b_out: f32):
      %b_45 = math.cos %b_in : f32
      linalg.yield %b_45 : f32
    } -> tensor<f32>
    %b_10 = linalg.generic {indexing_maps = [#map4, #map4, #map4], iterator_types = []} ins(%b_9, %b_cst_3 : tensor<f32>, tensor<f32>) outs(%b_5 : tensor<f32>) {
    ^bb0(%b_in: f32, %b_in_30: f32, %b_out: f32):
      %b_45 = arith.mulf %b_in, %b_in_30 : f32
      linalg.yield %b_45 : f32
    } -> tensor<f32>
    %b_11 = linalg.generic {indexing_maps = [#map4, #map4, #map4], iterator_types = []} ins(%b_7, %b_10 : tensor<f32>, tensor<f32>) outs(%b_5 : tensor<f32>) {
    ^bb0(%b_in: f32, %b_in_30: f32, %b_out: f32):
      %b_45 = arith.addf %b_in, %b_in_30 : f32
      linalg.yield %b_45 : f32
    } -> tensor<f32>
    %b_12 = linalg.generic {indexing_maps = [#map4, #map4], iterator_types = []} ins(%b_collapsed : tensor<f32>) outs(%b_5 : tensor<f32>) {
    ^bb0(%b_in: f32, %b_out: f32):
      %b_45 = math.sin %b_in : f32
      linalg.yield %b_45 : f32
    } -> tensor<f32>
    %b_13 = linalg.generic {indexing_maps = [#map4, #map4, #map4], iterator_types = []} ins(%b_12, %b_cst_3 : tensor<f32>, tensor<f32>) outs(%b_5 : tensor<f32>) {
    ^bb0(%b_in: f32, %b_in_30: f32, %b_out: f32):
      %b_45 = arith.mulf %b_in, %b_in_30 : f32
      linalg.yield %b_45 : f32
    } -> tensor<f32>
    %b_14 = linalg.generic {indexing_maps = [#map4, #map4], iterator_types = []} ins(%b_8 : tensor<f32>) outs(%b_5 : tensor<f32>) {
    ^bb0(%b_in: f32, %b_out: f32):
      %b_45 = math.sin %b_in : f32
      linalg.yield %b_45 : f32
    } -> tensor<f32>
    %b_15 = linalg.generic {indexing_maps = [#map4, #map4, #map4], iterator_types = []} ins(%b_14, %b_cst_3 : tensor<f32>, tensor<f32>) outs(%b_5 : tensor<f32>) {
    ^bb0(%b_in: f32, %b_in_30: f32, %b_out: f32):
      %b_45 = arith.mulf %b_in, %b_in_30 : f32
      linalg.yield %b_45 : f32
    } -> tensor<f32>
    %b_16 = linalg.generic {indexing_maps = [#map4, #map4, #map4], iterator_types = []} ins(%b_13, %b_15 : tensor<f32>, tensor<f32>) outs(%b_5 : tensor<f32>) {
    ^bb0(%b_in: f32, %b_in_30: f32, %b_out: f32):
      %b_45 = arith.addf %b_in, %b_in_30 : f32
      linalg.yield %b_45 : f32
    } -> tensor<f32>
    %b_expanded = tensor.expand_shape %b_11 [] output_shape [1] : tensor<f32> into tensor<1xf32>
    %b_expanded_8 = tensor.expand_shape %b_16 [] output_shape [1] : tensor<f32> into tensor<1xf32>
    %b_concat = tensor.concat dim(0) %b_expanded, %b_expanded_8 : (tensor<1xf32>, tensor<1xf32>) -> tensor<2xf32>
    %b_17 = tensor.empty() : tensor<2xf32>
    %b_18 = linalg.generic {indexing_maps = [#map3, #map3, #map3], iterator_types = ["parallel"]} ins(%b_arg1, %b_concat : tensor<2xf32>, tensor<2xf32>) outs(%b_17 : tensor<2xf32>) {
    ^bb0(%b_in: f32, %b_in_30: f32, %b_out: f32):
      %b_45 = arith.subf %b_in, %b_in_30 : f32
      linalg.yield %b_45 : f32
    } -> tensor<2xf32>
    %b_19 = linalg.generic {indexing_maps = [#map4, #map4, #map4], iterator_types = []} ins(%b_12, %b_cst_2 : tensor<f32>, tensor<f32>) outs(%b_5 : tensor<f32>) {
    ^bb0(%b_in: f32, %b_in_30: f32, %b_out: f32):
      %b_45 = arith.mulf %b_in, %b_in_30 : f32
      linalg.yield %b_45 : f32
    } -> tensor<f32>
    %b_20 = linalg.generic {indexing_maps = [#map4, #map4, #map4], iterator_types = []} ins(%b_19, %b_15 : tensor<f32>, tensor<f32>) outs(%b_5 : tensor<f32>) {
    ^bb0(%b_in: f32, %b_in_30: f32, %b_out: f32):
      %b_45 = arith.subf %b_in, %b_in_30 : f32
      linalg.yield %b_45 : f32
    } -> tensor<f32>
    %b_21 = linalg.generic {indexing_maps = [#map4, #map4, #map4], iterator_types = []} ins(%b_14, %b_cst_2 : tensor<f32>, tensor<f32>) outs(%b_5 : tensor<f32>) {
    ^bb0(%b_in: f32, %b_in_30: f32, %b_out: f32):
      %b_45 = arith.mulf %b_in, %b_in_30 : f32
      linalg.yield %b_45 : f32
    } -> tensor<f32>
    %b_expanded_9 = tensor.expand_shape %b_20 [] output_shape [1] : tensor<f32> into tensor<1xf32>
    %b_expanded_10 = tensor.expand_shape %b_21 [] output_shape [1] : tensor<f32> into tensor<1xf32>
    %b_concat_11 = tensor.concat dim(0) %b_expanded_9, %b_expanded_10 : (tensor<1xf32>, tensor<1xf32>) -> tensor<2xf32>
    %b_expanded_12 = tensor.expand_shape %b_10 [] output_shape [1] : tensor<f32> into tensor<1xf32>
    %b_concat_13 = tensor.concat dim(0) %b_expanded, %b_expanded_12 : (tensor<1xf32>, tensor<1xf32>) -> tensor<2xf32>
    %b_expanded_14 = tensor.expand_shape %b_concat_11 [[0, 1]] output_shape [1, 2] : tensor<2xf32> into tensor<1x2xf32>
    %b_expanded_15 = tensor.expand_shape %b_concat_13 [[0, 1]] output_shape [1, 2] : tensor<2xf32> into tensor<1x2xf32>
    %b_concat_16 = tensor.concat dim(0) %b_expanded_14, %b_expanded_15 : (tensor<1x2xf32>, tensor<1x2xf32>) -> tensor<2x2xf32>
    %b_22 = tensor.empty() : tensor<1x2xf32>
    %b_23 = linalg.generic {indexing_maps = [#map5, #map1], iterator_types = ["parallel", "parallel"]} ins(%b_cst_4 : tensor<1xi64>) outs(%b_22 : tensor<1x2xf32>) {
    ^bb0(%b_in: i64, %b_out: f32):
      %b_45 = arith.index_cast %b_in : i64 to index
      %b_46 = linalg.index 1 : index
      %b_extracted = tensor.extract %b_concat_16[%b_45, %b_46] : tensor<2x2xf32>
      linalg.yield %b_extracted : f32
    } -> tensor<1x2xf32>
    %b_collapsed_17 = tensor.collapse_shape %b_23 [[0, 1]] : tensor<1x2xf32> into tensor<2xf32>
    %b_24 = linalg.generic {indexing_maps = [#map3, #map3], iterator_types = ["parallel"]} ins(%b_cst_4 : tensor<1xi64>) outs(%b_2 : tensor<1xf32>) {
    ^bb0(%b_in: i64, %b_out: f32):
      %b_45 = arith.index_cast %b_in : i64 to index
      %b_extracted = tensor.extract %b_collapsed_17[%b_45] : tensor<2xf32>
      linalg.yield %b_extracted : f32
    } -> tensor<1xf32>
    %b_collapsed_18 = tensor.collapse_shape %b_24 [] : tensor<1xf32> into tensor<f32>
    %b_25 = linalg.generic {indexing_maps = [#map5, #map1], iterator_types = ["parallel", "parallel"]} ins(%b_cst : tensor<1xi64>) outs(%b_22 : tensor<1x2xf32>) {
    ^bb0(%b_in: i64, %b_out: f32):
      %b_45 = arith.index_cast %b_in : i64 to index
      %b_46 = linalg.index 1 : index
      %b_extracted = tensor.extract %b_concat_16[%b_45, %b_46] : tensor<2x2xf32>
      linalg.yield %b_extracted : f32
    } -> tensor<1x2xf32>
    %b_collapsed_19 = tensor.collapse_shape %b_25 [[0, 1]] : tensor<1x2xf32> into tensor<2xf32>
    %b_26 = linalg.generic {indexing_maps = [#map3, #map3], iterator_types = ["parallel"]} ins(%b_cst : tensor<1xi64>) outs(%b_2 : tensor<1xf32>) {
    ^bb0(%b_in: i64, %b_out: f32):
      %b_45 = arith.index_cast %b_in : i64 to index
      %b_extracted = tensor.extract %b_collapsed_19[%b_45] : tensor<2xf32>
      linalg.yield %b_extracted : f32
    } -> tensor<1xf32>
    %b_collapsed_20 = tensor.collapse_shape %b_26 [] : tensor<1xf32> into tensor<f32>
    %b_27 = linalg.generic {indexing_maps = [#map4, #map4, #map4], iterator_types = []} ins(%b_collapsed_18, %b_collapsed_20 : tensor<f32>, tensor<f32>) outs(%b_5 : tensor<f32>) {
    ^bb0(%b_in: f32, %b_in_30: f32, %b_out: f32):
      %b_45 = arith.mulf %b_in, %b_in_30 : f32
      linalg.yield %b_45 : f32
    } -> tensor<f32>
    %b_28 = linalg.generic {indexing_maps = [#map3, #map3], iterator_types = ["parallel"]} ins(%b_cst : tensor<1xi64>) outs(%b_2 : tensor<1xf32>) {
    ^bb0(%b_in: i64, %b_out: f32):
      %b_45 = arith.index_cast %b_in : i64 to index
      %b_extracted = tensor.extract %b_collapsed_17[%b_45] : tensor<2xf32>
      linalg.yield %b_extracted : f32
    } -> tensor<1xf32>
    %b_collapsed_21 = tensor.collapse_shape %b_28 [] : tensor<1xf32> into tensor<f32>
    %b_29 = linalg.generic {indexing_maps = [#map3, #map3], iterator_types = ["parallel"]} ins(%b_cst_4 : tensor<1xi64>) outs(%b_2 : tensor<1xf32>) {
    ^bb0(%b_in: i64, %b_out: f32):
      %b_45 = arith.index_cast %b_in : i64 to index
      %b_extracted = tensor.extract %b_collapsed_19[%b_45] : tensor<2xf32>
      linalg.yield %b_extracted : f32
    } -> tensor<1xf32>
    %b_collapsed_22 = tensor.collapse_shape %b_29 [] : tensor<1xf32> into tensor<f32>
    %b_30 = linalg.generic {indexing_maps = [#map4, #map4, #map4], iterator_types = []} ins(%b_collapsed_21, %b_collapsed_22 : tensor<f32>, tensor<f32>) outs(%b_5 : tensor<f32>) {
    ^bb0(%b_in: f32, %b_in_30: f32, %b_out: f32):
      %b_45 = arith.mulf %b_in, %b_in_30 : f32
      linalg.yield %b_45 : f32
    } -> tensor<f32>
    %b_31 = linalg.generic {indexing_maps = [#map4, #map4, #map4], iterator_types = []} ins(%b_27, %b_30 : tensor<f32>, tensor<f32>) outs(%b_5 : tensor<f32>) {
    ^bb0(%b_in: f32, %b_in_30: f32, %b_out: f32):
      %b_45 = arith.subf %b_in, %b_in_30 : f32
      linalg.yield %b_45 : f32
    } -> tensor<f32>
    %b_32 = linalg.generic {indexing_maps = [#map4, #map4, #map4], iterator_types = []} ins(%b_31, %b_cst_1 : tensor<f32>, tensor<f32>) outs(%b_5 : tensor<f32>) {
    ^bb0(%b_in: f32, %b_in_30: f32, %b_out: f32):
      %b_45 = arith.addf %b_in, %b_in_30 : f32
      linalg.yield %b_45 : f32
    } -> tensor<f32>
    %b_33 = linalg.generic {indexing_maps = [#map4, #map4], iterator_types = []} ins(%b_32 : tensor<f32>) outs(%b_5 : tensor<f32>) {
    ^bb0(%b_in: f32, %b_out: f32):
      %b_45 = arith.cmpf one, %b_in, %b_cst_5 : f32
      cf.assert %b_45, "unimplemented: tensor with zero element"
      %b_46 = arith.divf %b_cst_6, %b_in : f32
      linalg.yield %b_46 : f32
    } -> tensor<f32>
    %b_34 = linalg.generic {indexing_maps = [#map4, #map4, #map4], iterator_types = []} ins(%b_33, %b_cst_3 : tensor<f32>, tensor<f32>) outs(%b_5 : tensor<f32>) {
    ^bb0(%b_in: f32, %b_in_30: f32, %b_out: f32):
      %b_45 = arith.mulf %b_in, %b_in_30 : f32
      linalg.yield %b_45 : f32
    } -> tensor<f32>
    %b_35 = linalg.generic {indexing_maps = [#map4, #map4], iterator_types = []} ins(%b_collapsed_21 : tensor<f32>) outs(%b_5 : tensor<f32>) {
    ^bb0(%b_in: f32, %b_out: f32):
      %b_45 = arith.negf %b_in : f32
      linalg.yield %b_45 : f32
    } -> tensor<f32>
    %b_expanded_23 = tensor.expand_shape %b_35 [] output_shape [1] : tensor<f32> into tensor<1xf32>
    %b_concat_24 = tensor.concat dim(0) %b_26, %b_expanded_23 : (tensor<1xf32>, tensor<1xf32>) -> tensor<2xf32>
    %b_36 = linalg.generic {indexing_maps = [#map4, #map4], iterator_types = []} ins(%b_collapsed_22 : tensor<f32>) outs(%b_5 : tensor<f32>) {
    ^bb0(%b_in: f32, %b_out: f32):
      %b_45 = arith.negf %b_in : f32
      linalg.yield %b_45 : f32
    } -> tensor<f32>
    %b_expanded_25 = tensor.expand_shape %b_36 [] output_shape [1] : tensor<f32> into tensor<1xf32>
    %b_concat_26 = tensor.concat dim(0) %b_expanded_25, %b_24 : (tensor<1xf32>, tensor<1xf32>) -> tensor<2xf32>
    %b_expanded_27 = tensor.expand_shape %b_concat_24 [[0, 1]] output_shape [1, 2] : tensor<2xf32> into tensor<1x2xf32>
    %b_expanded_28 = tensor.expand_shape %b_concat_26 [[0, 1]] output_shape [1, 2] : tensor<2xf32> into tensor<1x2xf32>
    %b_concat_29 = tensor.concat dim(0) %b_expanded_27, %b_expanded_28 : (tensor<1x2xf32>, tensor<1x2xf32>) -> tensor<2x2xf32>
    %b_37 = tensor.empty() : tensor<2x2xf32>
    %b_38 = linalg.generic {indexing_maps = [#map1, #map6, #map1], iterator_types = ["parallel", "parallel"]} ins(%b_concat_29, %b_34 : tensor<2x2xf32>, tensor<f32>) outs(%b_37 : tensor<2x2xf32>) {
    ^bb0(%b_in: f32, %b_in_30: f32, %b_out: f32):
      %b_45 = arith.mulf %b_in, %b_in_30 : f32
      linalg.yield %b_45 : f32
    } -> tensor<2x2xf32>
    %b_39 = linalg.fill ins(%b_cst_5 : f32) outs(%b_17 : tensor<2xf32>) -> tensor<2xf32>
    %b_40 = linalg.matvec ins(%b_38, %b_18 : tensor<2x2xf32>, tensor<2xf32>) outs(%b_39 : tensor<2xf32>) -> tensor<2xf32>
    %b_41 = linalg.generic {indexing_maps = [#map3, #map7, #map3], iterator_types = ["parallel"]} ins(%b_40, %b_cst_0 : tensor<2xf32>, tensor<f32>) outs(%b_17 : tensor<2xf32>) {
    ^bb0(%b_in: f32, %b_in_30: f32, %b_out: f32):
      %b_45 = arith.mulf %b_in, %b_in_30 : f32
      linalg.yield %b_45 : f32
    } -> tensor<2xf32>
    %b_42 = linalg.generic {indexing_maps = [#map3, #map3, #map3], iterator_types = ["parallel"]} ins(%b_arg0, %b_41 : tensor<2xf32>, tensor<2xf32>) outs(%b_17 : tensor<2xf32>) {
    ^bb0(%b_in: f32, %b_in_30: f32, %b_out: f32):
      %b_45 = arith.addf %b_in, %b_in_30 : f32
      linalg.yield %b_45 : f32
    } -> tensor<2xf32>
    func.return %b_42 : tensor<2xf32>
  }

  // --- Op C: Simple Motion Kernel ---
  func.func private @op_c_kernel(%c_arg0: tensor<2xf32>) -> tensor<10x2xf32> {
    // Body from op_c MLIR file...
    %c_cst = arith.constant dense<1> : tensor<1xi64>
    %c_cst_0 = arith.constant dense<[[0.000000e+00], [0.111111112], [0.222222224], [0.333333343], [0.444444448], [0.555555582], [0.666666686], [0.777777791], [0.888888895], [1.000000e+00]]> : tensor<10x1xf32>
    %c_cst_1 = arith.constant dense<[[1.000000e+00], [0.888888895], [0.777777791], [0.666666627], [0.555555582], [0.444444418], [0.333333313], [0.222222209], [0.111111104], [0.000000e+00]]> : tensor<10x1xf32>
    %c_cst_2 = arith.constant dense<[0.000000e+00, -1.000000e-01]> : tensor<2xf32>
    %c_cst_3 = arith.constant dense<1.000000e+00> : tensor<f32>
    %c_cst_4 = arith.constant dense<0> : tensor<1xi64>
    %c_1 = tensor.empty() : tensor<1xf32>
    %c_2 = linalg.generic {indexing_maps = [#map3, #map3], iterator_types = ["parallel"]} ins(%c_cst_4 : tensor<1xi64>) outs(%c_1 : tensor<1xf32>) {
    ^bb0(%c_in: i64, %c_out: f32):
      %c_24 = arith.index_cast %c_in : i64 to index
      %c_extracted = tensor.extract %c_arg0[%c_24] : tensor<2xf32>
      linalg.yield %c_extracted : f32
    } -> tensor<1xf32>
    %c_collapsed = tensor.collapse_shape %c_2 [] : tensor<1xf32> into tensor<f32>
    %c_3 = linalg.generic {indexing_maps = [#map3, #map3], iterator_types = ["parallel"]} ins(%c_cst : tensor<1xi64>) outs(%c_1 : tensor<1xf32>) {
    ^bb0(%c_in: i64, %c_out: f32):
      %c_24 = arith.index_cast %c_in : i64 to index
      %c_extracted = tensor.extract %c_arg0[%c_24] : tensor<2xf32>
      linalg.yield %c_extracted : f32
    } -> tensor<1xf32>
    %c_collapsed_5 = tensor.collapse_shape %c_3 [] : tensor<1xf32> into tensor<f32>
    %c_4 = tensor.empty() : tensor<f32>
    %c_5 = linalg.generic {indexing_maps = [#map4, #map4], iterator_types = []} ins(%c_collapsed : tensor<f32>) outs(%c_4 : tensor<f32>) {
    ^bb0(%c_in: f32, %c_out: f32):
      %c_24 = math.cos %c_in : f32
      linalg.yield %c_24 : f32
    } -> tensor<f32>
    %c_6 = linalg.generic {indexing_maps = [#map4, #map4, #map4], iterator_types = []} ins(%c_5, %c_cst_3 : tensor<f32>, tensor<f32>) outs(%c_4 : tensor<f32>) {
    ^bb0(%c_in: f32, %c_in_7: f32, %c_out: f32):
      %c_24 = arith.mulf %c_in, %c_in_7 : f32
      linalg.yield %c_24 : f32
    } -> tensor<f32>
    %c_7 = linalg.generic {indexing_maps = [#map4, #map4, #map4], iterator_types = []} ins(%c_collapsed, %c_collapsed_5 : tensor<f32>, tensor<f32>) outs(%c_4 : tensor<f32>) {
    ^bb0(%c_in: f32, %c_in_7: f32, %c_out: f32):
      %c_24 = arith.addf %c_in, %c_in_7 : f32
      linalg.yield %c_24 : f32
    } -> tensor<f32>
    %c_8 = linalg.generic {indexing_maps = [#map4, #map4], iterator_types = []} ins(%c_7 : tensor<f32>) outs(%c_4 : tensor<f32>) {
    ^bb0(%c_in: f32, %c_out: f32):
      %c_24 = math.cos %c_in : f32
      linalg.yield %c_24 : f32
    } -> tensor<f32>
    %c_9 = linalg.generic {indexing_maps = [#map4, #map4, #map4], iterator_types = []} ins(%c_8, %c_cst_3 : tensor<f32>, tensor<f32>) outs(%c_4 : tensor<f32>) {
    ^bb0(%c_in: f32, %c_in_7: f32, %c_out: f32):
      %c_24 = arith.mulf %c_in, %c_in_7 : f32
      linalg.yield %c_24 : f32
    } -> tensor<f32>
    %c_10 = linalg.generic {indexing_maps = [#map4, #map4, #map4], iterator_types = []} ins(%c_6, %c_9 : tensor<f32>, tensor<f32>) outs(%c_4 : tensor<f32>) {
    ^bb0(%c_in: f32, %c_in_7: f32, %c_out: f32):
      %c_24 = arith.addf %c_in, %c_in_7 : f32
      linalg.yield %c_24 : f32
    } -> tensor<f32>
    %c_11 = linalg.generic {indexing_maps = [#map4, #map4], iterator_types = []} ins(%c_collapsed : tensor<f32>) outs(%c_4 : tensor<f32>) {
    ^bb0(%c_in: f32, %c_out: f32):
      %c_24 = math.sin %c_in : f32
      linalg.yield %c_24 : f32
    } -> tensor<f32>
    %c_12 = linalg.generic {indexing_maps = [#map4, #map4, #map4], iterator_types = []} ins(%c_11, %c_cst_3 : tensor<f32>, tensor<f32>) outs(%c_4 : tensor<f32>) {
    ^bb0(%c_in: f32, %c_in_7: f32, %c_out: f32):
      %c_24 = arith.mulf %c_in, %c_in_7 : f32
      linalg.yield %c_24 : f32
    } -> tensor<f32>
    %c_13 = linalg.generic {indexing_maps = [#map4, #map4], iterator_types = []} ins(%c_7 : tensor<f32>) outs(%c_4 : tensor<f32>) {
    ^bb0(%c_in: f32, %c_out: f32):
      %c_24 = math.sin %c_in : f32
      linalg.yield %c_24 : f32
    } -> tensor<f32>
    %c_14 = linalg.generic {indexing_maps = [#map4, #map4, #map4], iterator_types = []} ins(%c_13, %c_cst_3 : tensor<f32>, tensor<f32>) outs(%c_4 : tensor<f32>) {
    ^bb0(%c_in: f32, %c_in_7: f32, %c_out: f32):
      %c_24 = arith.mulf %c_in, %c_in_7 : f32
      linalg.yield %c_24 : f32
    } -> tensor<f32>
    %c_15 = linalg.generic {indexing_maps = [#map4, #map4, #map4], iterator_types = []} ins(%c_12, %c_14 : tensor<f32>, tensor<f32>) outs(%c_4 : tensor<f32>) {
    ^bb0(%c_in: f32, %c_in_7: f32, %c_out: f32):
      %c_24 = arith.addf %c_in, %c_in_7 : f32
      linalg.yield %c_24 : f32
    } -> tensor<f32>
    %c_expanded = tensor.expand_shape %c_10 [] output_shape [1] : tensor<f32> into tensor<1xf32>
    %c_expanded_6 = tensor.expand_shape %c_15 [] output_shape [1] : tensor<f32> into tensor<1xf32>
    %c_concat = tensor.concat dim(0) %c_expanded, %c_expanded_6 : (tensor<1xf32>, tensor<1xf32>) -> tensor<2xf32>
    %c_16 = tensor.empty() : tensor<2xf32>
    %c_17 = linalg.generic {indexing_maps = [#map3, #map3, #map3], iterator_types = ["parallel"]} ins(%c_concat, %c_cst_2 : tensor<2xf32>, tensor<2xf32>) outs(%c_16 : tensor<2xf32>) {
    ^bb0(%c_in: f32, %c_in_7: f32, %c_out: f32):
      %c_24 = arith.addf %c_in, %c_in_7 : f32
      linalg.yield %c_24 : f32
    } -> tensor<2xf32>
    %c_18 = tensor.empty() : tensor<10x2xf32>
    %c_19 = linalg.generic {indexing_maps = [#map2, #map8, #map1], iterator_types = ["parallel", "parallel"]} ins(%c_concat, %c_cst_1 : tensor<2xf32>, tensor<10x1xf32>) outs(%c_18 : tensor<10x2xf32>) {
    ^bb0(%c_in: f32, %c_in_7: f32, %c_out: f32):
      %c_24 = arith.mulf %c_in, %c_in_7 : f32
      linalg.yield %c_24 : f32
    } -> tensor<10x2xf32>
    %c_20 = linalg.generic {indexing_maps = [#map2, #map8, #map1], iterator_types = ["parallel", "parallel"]} ins(%c_17, %c_cst_0 : tensor<2xf32>, tensor<10x1xf32>) outs(%c_18 : tensor<10x2xf32>) {
    ^bb0(%c_in: f32, %c_in_7: f32, %c_out: f32):
      %c_24 = arith.mulf %c_in, %c_in_7 : f32
      linalg.yield %c_24 : f32
    } -> tensor<10x2xf32>
    %c_21 = linalg.generic {indexing_maps = [#map1, #map1, #map1], iterator_types = ["parallel", "parallel"]} ins(%c_19, %c_20 : tensor<10x2xf32>, tensor<10x2xf32>) outs(%c_18 : tensor<10x2xf32>) {
    ^bb0(%c_in: f32, %c_in_7: f32, %c_out: f32):
      %c_24 = arith.addf %c_in, %c_in_7 : f32
      linalg.yield %c_24 : f32
    } -> tensor<10x2xf32>
    func.return %c_21 : tensor<10x2xf32>
  }

  // --- Op D: Complex Motion Kernel ---
  func.func private @op_d_kernel(%d_arg0: tensor<2xf32>) -> tensor<19x2xf32>  {
    // Body from op_d MLIR file...
    %d_cst = arith.constant dense<1> : tensor<1xi64>
    %d_cst_0 = arith.constant dense<[[0.000000e+00], [0.111111112], [0.222222224], [0.333333343], [0.444444448], [0.555555582], [0.666666686], [0.777777791], [0.888888895], [1.000000e+00]]> : tensor<10x1xf32>
    %d_cst_1 = arith.constant dense<[[1.000000e+00], [0.888888895], [0.777777791], [0.666666627], [0.555555582], [0.444444418], [0.333333313], [0.222222209], [0.111111104], [0.000000e+00]]> : tensor<10x1xf32>
    %d_cst_2 = arith.constant dense<[0.000000e+00, -1.000000e-01]> : tensor<2xf32>
    %d_cst_3 = arith.constant dense<[-2.000000e-01, 0.000000e+00]> : tensor<2xf32>
    %d_cst_4 = arith.constant dense<1.000000e+00> : tensor<f32>
    %d_cst_5 = arith.constant dense<0> : tensor<1xi64>
    %d_1 = tensor.empty() : tensor<1xf32>
    %d_2 = linalg.generic {indexing_maps = [#map3, #map3], iterator_types = ["parallel"]} ins(%d_cst_5 : tensor<1xi64>) outs(%d_1 : tensor<1xf32>) {
    ^bb0(%d_in: i64, %d_out: f32):
      %d_28 = arith.index_cast %d_in : i64 to index
      %d_extracted = tensor.extract %d_arg0[%d_28] : tensor<2xf32>
      linalg.yield %d_extracted : f32
    } -> tensor<1xf32>
    %d_collapsed = tensor.collapse_shape %d_2 [] : tensor<1xf32> into tensor<f32>
    %d_3 = linalg.generic {indexing_maps = [#map3, #map3], iterator_types = ["parallel"]} ins(%d_cst : tensor<1xi64>) outs(%d_1 : tensor<1xf32>) {
    ^bb0(%d_in: i64, %d_out: f32):
      %d_28 = arith.index_cast %d_in : i64 to index
      %d_extracted = tensor.extract %d_arg0[%d_28] : tensor<2xf32>
      linalg.yield %d_extracted : f32
    } -> tensor<1xf32>
    %d_collapsed_6 = tensor.collapse_shape %d_3 [] : tensor<1xf32> into tensor<f32>
    %d_4 = tensor.empty() : tensor<f32>
    %d_5 = linalg.generic {indexing_maps = [#map4, #map4], iterator_types = []} ins(%d_collapsed : tensor<f32>) outs(%d_4 : tensor<f32>) {
    ^bb0(%d_in: f32, %d_out: f32):
      %d_28 = math.cos %d_in : f32
      linalg.yield %d_28 : f32
    } -> tensor<f32>
    %d_6 = linalg.generic {indexing_maps = [#map4, #map4, #map4], iterator_types = []} ins(%d_5, %d_cst_4 : tensor<f32>, tensor<f32>) outs(%d_4 : tensor<f32>) {
    ^bb0(%d_in: f32, %d_in_9: f32, %d_out: f32):
      %d_28 = arith.mulf %d_in, %d_in_9 : f32
      linalg.yield %d_28 : f32
    } -> tensor<f32>
    %d_7 = linalg.generic {indexing_maps = [#map4, #map4, #map4], iterator_types = []} ins(%d_collapsed, %d_collapsed_6 : tensor<f32>, tensor<f32>) outs(%d_4 : tensor<f32>) {
    ^bb0(%d_in: f32, %d_in_9: f32, %d_out: f32):
      %d_28 = arith.addf %d_in, %d_in_9 : f32
      linalg.yield %d_28 : f32
    } -> tensor<f32>
    %d_8 = linalg.generic {indexing_maps = [#map4, #map4], iterator_types = []} ins(%d_7 : tensor<f32>) outs(%d_4 : tensor<f32>) {
    ^bb0(%d_in: f32, %d_out: f32):
      %d_28 = math.cos %d_in : f32
      linalg.yield %d_28 : f32
    } -> tensor<f32>
    %d_9 = linalg.generic {indexing_maps = [#map4, #map4, #map4], iterator_types = []} ins(%d_8, %d_cst_4 : tensor<f32>, tensor<f32>) outs(%d_4 : tensor<f32>) {
    ^bb0(%d_in: f32, %d_in_9: f32, %d_out: f32):
      %d_28 = arith.mulf %d_in, %d_in_9 : f32
      linalg.yield %d_28 : f32
    } -> tensor<f32>
    %d_10 = linalg.generic {indexing_maps = [#map4, #map4, #map4], iterator_types = []} ins(%d_6, %d_9 : tensor<f32>, tensor<f32>) outs(%d_4 : tensor<f32>) {
    ^bb0(%d_in: f32, %d_in_9: f32, %d_out: f32):
      %d_28 = arith.addf %d_in, %d_in_9 : f32
      linalg.yield %d_28 : f32
    } -> tensor<f32>
    %d_11 = linalg.generic {indexing_maps = [#map4, #map4], iterator_types = []} ins(%d_collapsed : tensor<f32>) outs(%d_4 : tensor<f32>) {
    ^bb0(%d_in: f32, %d_out: f32):
      %d_28 = math.sin %d_in : f32
      linalg.yield %d_28 : f32
    } -> tensor<f32>
    %d_12 = linalg.generic {indexing_maps = [#map4, #map4, #map4], iterator_types = []} ins(%d_11, %d_cst_4 : tensor<f32>, tensor<f32>) outs(%d_4 : tensor<f32>) {
    ^bb0(%d_in: f32, %d_in_9: f32, %d_out: f32):
      %d_28 = arith.mulf %d_in, %d_in_9 : f32
      linalg.yield %d_28 : f32
    } -> tensor<f32>
    %d_13 = linalg.generic {indexing_maps = [#map4, #map4], iterator_types = []} ins(%d_7 : tensor<f32>) outs(%d_4 : tensor<f32>) {
    ^bb0(%d_in: f32, %d_out: f32):
      %d_28 = math.sin %d_in : f32
      linalg.yield %d_28 : f32
    } -> tensor<f32>
    %d_14 = linalg.generic {indexing_maps = [#map4, #map4, #map4], iterator_types = []} ins(%d_13, %d_cst_4 : tensor<f32>, tensor<f32>) outs(%d_4 : tensor<f32>) {
    ^bb0(%d_in: f32, %d_in_9: f32, %d_out: f32):
      %d_28 = arith.mulf %d_in, %d_in_9 : f32
      linalg.yield %d_28 : f32
    } -> tensor<f32>
    %d_15 = linalg.generic {indexing_maps = [#map4, #map4, #map4], iterator_types = []} ins(%d_12, %d_14 : tensor<f32>, tensor<f32>) outs(%d_4 : tensor<f32>) {
    ^bb0(%d_in: f32, %d_in_9: f32, %d_out: f32):
      %d_28 = arith.addf %d_in, %d_in_9 : f32
      linalg.yield %d_28 : f32
    } -> tensor<f32>
    %d_expanded = tensor.expand_shape %d_10 [] output_shape [1] : tensor<f32> into tensor<1xf32>
    %d_expanded_7 = tensor.expand_shape %d_15 [] output_shape [1] : tensor<f32> into tensor<1xf32>
    %d_concat = tensor.concat dim(0) %d_expanded, %d_expanded_7 : (tensor<1xf32>, tensor<1xf32>) -> tensor<2xf32>
    %d_16 = tensor.empty() : tensor<2xf32>
    %d_17 = linalg.generic {indexing_maps = [#map3, #map3, #map3], iterator_types = ["parallel"]} ins(%d_concat, %d_cst_3 : tensor<2xf32>, tensor<2xf32>) outs(%d_16 : tensor<2xf32>) {
    ^bb0(%d_in: f32, %d_in_9: f32, %d_out: f32):
      %d_28 = arith.addf %d_in, %d_in_9 : f32
      linalg.yield %d_28 : f32
    } -> tensor<2xf32>
    %d_18 = linalg.generic {indexing_maps = [#map3, #map3, #map3], iterator_types = ["parallel"]} ins(%d_17, %d_cst_2 : tensor<2xf32>, tensor<2xf32>) outs(%d_16 : tensor<2xf32>) {
    ^bb0(%d_in: f32, %d_in_9: f32, %d_out: f32):
      %d_28 = arith.addf %d_in, %d_in_9 : f32
      linalg.yield %d_28 : f32
    } -> tensor<2xf32>
    %d_19 = tensor.empty() : tensor<10x2xf32>
    %d_20 = linalg.generic {indexing_maps = [#map2, #map8, #map1], iterator_types = ["parallel", "parallel"]} ins(%d_concat, %d_cst_1 : tensor<2xf32>, tensor<10x1xf32>) outs(%d_19 : tensor<10x2xf32>) {
    ^bb0(%d_in: f32, %d_in_9: f32, %d_out: f32):
      %d_28 = arith.mulf %d_in, %d_in_9 : f32
      linalg.yield %d_28 : f32
    } -> tensor<10x2xf32>
    %d_21 = linalg.generic {indexing_maps = [#map2, #map8, #map1], iterator_types = ["parallel", "parallel"]} ins(%d_17, %d_cst_0 : tensor<2xf32>, tensor<10x1xf32>) outs(%d_19 : tensor<10x2xf32>) {
    ^bb0(%d_in: f32, %d_in_9: f32, %d_out: f32):
      %d_28 = arith.mulf %d_in, %d_in_9 : f32
      linalg.yield %d_28 : f32
    } -> tensor<10x2xf32>
    %d_22 = linalg.generic {indexing_maps = [#map1, #map1, #map1], iterator_types = ["parallel", "parallel"]} ins(%d_20, %d_21 : tensor<10x2xf32>, tensor<10x2xf32>) outs(%d_19 : tensor<10x2xf32>) {
    ^bb0(%d_in: f32, %d_in_9: f32, %d_out: f32):
      %d_28 = arith.addf %d_in, %d_in_9 : f32
      linalg.yield %d_28 : f32
    } -> tensor<10x2xf32>
    %d_23 = linalg.generic {indexing_maps = [#map2, #map8, #map1], iterator_types = ["parallel", "parallel"]} ins(%d_17, %d_cst_1 : tensor<2xf32>, tensor<10x1xf32>) outs(%d_19 : tensor<10x2xf32>) {
    ^bb0(%d_in: f32, %d_in_9: f32, %d_out: f32):
      %d_28 = arith.mulf %d_in, %d_in_9 : f32
      linalg.yield %d_28 : f32
    } -> tensor<10x2xf32>
    %d_24 = linalg.generic {indexing_maps = [#map2, #map8, #map1], iterator_types = ["parallel", "parallel"]} ins(%d_18, %d_cst_0 : tensor<2xf32>, tensor<10x1xf32>) outs(%d_19 : tensor<10x2xf32>) {
    ^bb0(%d_in: f32, %d_in_9: f32, %d_out: f32):
      %d_28 = arith.mulf %d_in, %d_in_9 : f32
      linalg.yield %d_28 : f32
    } -> tensor<10x2xf32>
    %d_25 = linalg.generic {indexing_maps = [#map1, #map1, #map1], iterator_types = ["parallel", "parallel"]} ins(%d_23, %d_24 : tensor<10x2xf32>, tensor<10x2xf32>) outs(%d_19 : tensor<10x2xf32>) {
    ^bb0(%d_in: f32, %d_in_9: f32, %d_out: f32):
      %d_28 = arith.addf %d_in, %d_in_9 : f32
      linalg.yield %d_28 : f32
    } -> tensor<10x2xf32>
    %extracted_slice = tensor.extract_slice %d_25[1, 0] [9, 2] [1, 1] : tensor<10x2xf32> to tensor<9x2xf32>
    %concat_8 = tensor.concat dim(0) %d_22, %extracted_slice : (tensor<10x2xf32>, tensor<9x2xf32>) -> tensor<19x2xf32>
    func.return %concat_8 : tensor<19x2xf32>
  }

  // --- Op E: Odometry Kernel ---
  func.func private @op_e_kernel(%e_arg0: tensor<3xf32>, %e_arg1: tensor<2xf32>) -> tensor<3xf32> {
    // Body from op_e MLIR file...
    %e_cst = arith.constant dense<2> : tensor<1xi64>
    %e_cst_0 = arith.constant dense<1> : tensor<1xi64>
    %e_cst_1 = arith.constant dense<5.000000e-01> : tensor<f32>
    %e_cst_2 = arith.constant dense<2.000000e+00> : tensor<f32>
    %e_cst_3 = arith.constant dense<9.99999974E-5> : tensor<f32>
    %e_cst_4 = arith.constant dense<0> : tensor<1xi64>
    %e_2 = tensor.empty() : tensor<1xf32>
    %e_3 = linalg.generic {indexing_maps = [#map3, #map3], iterator_types = ["parallel"]} ins(%e_cst_4 : tensor<1xi64>) outs(%e_2 : tensor<1xf32>) {
    ^bb0(%e_in: i64, %e_out: f32):
      %e_26 = arith.index_cast %e_in : i64 to index
      %e_extracted = tensor.extract %e_arg1[%e_26] : tensor<2xf32>
      linalg.yield %e_extracted : f32
    } -> tensor<1xf32>
    %e_collapsed = tensor.collapse_shape %e_3 [] : tensor<1xf32> into tensor<f32>
    %e_4 = tensor.empty() : tensor<f32>
    %e_5 = linalg.generic {indexing_maps = [#map4, #map4, #map4], iterator_types = []} ins(%e_collapsed, %e_cst_3 : tensor<f32>, tensor<f32>) outs(%e_4 : tensor<f32>) {
    ^bb0(%e_in: f32, %e_in_11: f32, %e_out: f32):
      %e_26 = arith.mulf %e_in, %e_in_11 : f32
      linalg.yield %e_26 : f32
    } -> tensor<f32>
    %e_6 = linalg.generic {indexing_maps = [#map3, #map3], iterator_types = ["parallel"]} ins(%e_cst_0 : tensor<1xi64>) outs(%e_2 : tensor<1xf32>) {
    ^bb0(%e_in: i64, %e_out: f32):
      %e_26 = arith.index_cast %e_in : i64 to index
      %e_extracted = tensor.extract %e_arg1[%e_26] : tensor<2xf32>
      linalg.yield %e_extracted : f32
    } -> tensor<1xf32>
    %e_collapsed_5 = tensor.collapse_shape %e_6 [] : tensor<1xf32> into tensor<f32>
    %e_7 = linalg.generic {indexing_maps = [#map4, #map4, #map4], iterator_types = []} ins(%e_collapsed_5, %e_cst_3 : tensor<f32>, tensor<f32>) outs(%e_4 : tensor<f32>) {
    ^bb0(%e_in: f32, %e_in_11: f32, %e_out: f32):
      %e_26 = arith.mulf %e_in, %e_in_11 : f32
      linalg.yield %e_26 : f32
    } -> tensor<f32>
    %e_8 = linalg.generic {indexing_maps = [#map4, #map4, #map4], iterator_types = []} ins(%e_5, %e_7 : tensor<f32>, tensor<f32>) outs(%e_4 : tensor<f32>) {
    ^bb0(%e_in: f32, %e_in_11: f32, %e_out: f32):
      %e_26 = arith.addf %e_in, %e_in_11 : f32
      linalg.yield %e_26 : f32
    } -> tensor<f32>
    %e_9 = linalg.generic {indexing_maps = [#map4, #map4, #map4], iterator_types = []} ins(%e_8, %e_cst_2 : tensor<f32>, tensor<f32>) outs(%e_4 : tensor<f32>) {
    ^bb0(%e_in: f32, %e_in_11: f32, %e_out: f32):
      %e_26 = arith.divf %e_in, %e_in_11 : f32
      linalg.yield %e_26 : f32
    } -> tensor<f32>
    %e_10 = linalg.generic {indexing_maps = [#map4, #map4, #map4], iterator_types = []} ins(%e_7, %e_5 : tensor<f32>, tensor<f32>) outs(%e_4 : tensor<f32>) {
    ^bb0(%e_in: f32, %e_in_11: f32, %e_out: f32):
      %e_26 = arith.subf %e_in, %e_in_11 : f32
      linalg.yield %e_26 : f32
    } -> tensor<f32>
    %e_11 = linalg.generic {indexing_maps = [#map4, #map4, #map4], iterator_types = []} ins(%e_10, %e_cst_1 : tensor<f32>, tensor<f32>) outs(%e_4 : tensor<f32>) {
    ^bb0(%e_in: f32, %e_in_11: f32, %e_out: f32):
      %e_26 = arith.divf %e_in, %e_in_11 : f32
      linalg.yield %e_26 : f32
    } -> tensor<f32>
    %e_12 = linalg.generic {indexing_maps = [#map3, #map3], iterator_types = ["parallel"]} ins(%e_cst : tensor<1xi64>) outs(%e_2 : tensor<1xf32>) {
    ^bb0(%e_in: i64, %e_out: f32):
      %e_26 = arith.index_cast %e_in : i64 to index
      %e_extracted = tensor.extract %e_arg0[%e_26] : tensor<3xf32>
      linalg.yield %e_extracted : f32
    } -> tensor<1xf32>
    %e_collapsed_6 = tensor.collapse_shape %e_12 [] : tensor<1xf32> into tensor<f32>
    %e_13 = linalg.generic {indexing_maps = [#map4, #map4, #map4], iterator_types = []} ins(%e_11, %e_cst_2 : tensor<f32>, tensor<f32>) outs(%e_4 : tensor<f32>) {
    ^bb0(%e_in: f32, %e_in_11: f32, %e_out: f32):
      %e_26 = arith.divf %e_in, %e_in_11 : f32
      linalg.yield %e_26 : f32
    } -> tensor<f32>
    %e_14 = linalg.generic {indexing_maps = [#map4, #map4, #map4], iterator_types = []} ins(%e_collapsed_6, %e_13 : tensor<f32>, tensor<f32>) outs(%e_4 : tensor<f32>) {
    ^bb0(%e_in: f32, %e_in_11: f32, %e_out: f32):
      %e_26 = arith.addf %e_in, %e_in_11 : f32
      linalg.yield %e_26 : f32
    } -> tensor<f32>
    %e_15 = linalg.generic {indexing_maps = [#map3, #map3], iterator_types = ["parallel"]} ins(%e_cst_4 : tensor<1xi64>) outs(%e_2 : tensor<1xf32>) {
    ^bb0(%e_in: i64, %e_out: f32):
      %e_26 = arith.index_cast %e_in : i64 to index
      %e_extracted = tensor.extract %e_arg0[%e_26] : tensor<3xf32>
      linalg.yield %e_extracted : f32
    } -> tensor<1xf32>
    %e_collapsed_7 = tensor.collapse_shape %e_15 [] : tensor<1xf32> into tensor<f32>
    %e_16 = linalg.generic {indexing_maps = [#map4, #map4], iterator_types = []} ins(%e_14 : tensor<f32>) outs(%e_4 : tensor<f32>) {
    ^bb0(%e_in: f32, %e_out: f32):
      %e_26 = math.cos %e_in : f32
      linalg.yield %e_26 : f32
    } -> tensor<f32>
    %e_17 = linalg.generic {indexing_maps = [#map4, #map4, #map4], iterator_types = []} ins(%e_9, %e_16 : tensor<f32>, tensor<f32>) outs(%e_4 : tensor<f32>) {
    ^bb0(%e_in: f32, %e_in_11: f32, %e_out: f32):
      %e_26 = arith.mulf %e_in, %e_in_11 : f32
      linalg.yield %e_26 : f32
    } -> tensor<f32>
    %e_18 = linalg.generic {indexing_maps = [#map4, #map4, #map4], iterator_types = []} ins(%e_collapsed_7, %e_17 : tensor<f32>, tensor<f32>) outs(%e_4 : tensor<f32>) {
    ^bb0(%e_in: f32, %e_in_11: f32, %e_out: f32):
      %e_26 = arith.addf %e_in, %e_in_11 : f32
      linalg.yield %e_26 : f32
    } -> tensor<f32>
    %e_19 = linalg.generic {indexing_maps = [#map3, #map3], iterator_types = ["parallel"]} ins(%e_cst_0 : tensor<1xi64>) outs(%e_2 : tensor<1xf32>) {
    ^bb0(%e_in: i64, %e_out: f32):
      %e_26 = arith.index_cast %e_in : i64 to index
      %e_extracted = tensor.extract %e_arg0[%e_26] : tensor<3xf32>
      linalg.yield %e_extracted : f32
    } -> tensor<1xf32>
    %e_collapsed_8 = tensor.collapse_shape %e_19 [] : tensor<1xf32> into tensor<f32>
    %e_20 = linalg.generic {indexing_maps = [#map4, #map4], iterator_types = []} ins(%e_14 : tensor<f32>) outs(%e_4 : tensor<f32>) {
    ^bb0(%e_in: f32, %e_out: f32):
      %e_26 = math.sin %e_in : f32
      linalg.yield %e_26 : f32
    } -> tensor<f32>
    %e_21 = linalg.generic {indexing_maps = [#map4, #map4, #map4], iterator_types = []} ins(%e_9, %e_20 : tensor<f32>, tensor<f32>) outs(%e_4 : tensor<f32>) {
    ^bb0(%e_in: f32, %e_in_11: f32, %e_out: f32):
      %e_26 = arith.mulf %e_in, %e_in_11 : f32
      linalg.yield %e_26 : f32
    } -> tensor<f32>
    %e_22 = linalg.generic {indexing_maps = [#map4, #map4, #map4], iterator_types = []} ins(%e_collapsed_8, %e_21 : tensor<f32>, tensor<f32>) outs(%e_4 : tensor<f32>) {
    ^bb0(%e_in: f32, %e_in_11: f32, %e_out: f32):
      %e_26 = arith.addf %e_in, %e_in_11 : f32
      linalg.yield %e_26 : f32
    } -> tensor<f32>
    %e_23 = linalg.generic {indexing_maps = [#map4, #map4, #map4], iterator_types = []} ins(%e_collapsed_6, %e_11 : tensor<f32>, tensor<f32>) outs(%e_4 : tensor<f32>) {
    ^bb0(%e_in: f32, %e_in_11: f32, %e_out: f32):
      %e_26 = arith.addf %e_in, %e_in_11 : f32
      linalg.yield %e_26 : f32
    } -> tensor<f32>
    %e_expanded = tensor.expand_shape %e_18 [] output_shape [1] : tensor<f32> into tensor<1xf32>
    %e_expanded_9 = tensor.expand_shape %e_22 [] output_shape [1] : tensor<f32> into tensor<1xf32>
    %e_expanded_10 = tensor.expand_shape %e_23 [] output_shape [1] : tensor<f32> into tensor<1xf32>
    %e_concat = tensor.concat dim(0) %e_expanded, %e_expanded_9, %e_expanded_10 : (tensor<1xf32>, tensor<1xf32>, tensor<1xf32>) -> tensor<3xf32>
    func.return %e_concat : tensor<3xf32>
  }


  // ============================================================================
  // MAIN ORCHESTRATION LOGIC
  // ============================================================================
  util.func public @main$async(
      %sensor_input_bv: !hal.buffer_view,
      %initial_pose_bv: !hal.buffer_view,
      %initial_angles_bv: !hal.buffer_view,
      %wheel_ticks_bv: !hal.buffer_view,
      %wait_fence: !hal.fence,
      %signal_fence: !hal.fence
  ) -> (!hal.buffer_view, !hal.buffer_view) attributes {
      inlining_policy = #util.inline.never,
      iree.abi.model = "coarse-fences"
    }
  {
    // --- Import initial tensors from HAL buffer views ---
    %sensor_input = hal.tensor.import wait(%wait_fence) => %sensor_input_bv : !hal.buffer_view -> tensor<1x3x64x64xf32>
    %initial_pose = hal.tensor.import wait(%wait_fence) => %initial_pose_bv : !hal.buffer_view -> tensor<3xf32>
    %initial_angles = hal.tensor.import wait(%wait_fence) => %initial_angles_bv : !hal.buffer_view -> tensor<2xf32>
    %wheel_ticks = hal.tensor.import wait(%wait_fence) => %wheel_ticks_bv : !hal.buffer_view -> tensor<2xf32>

    // --- Op E: Parallel Task ---
    // A->D chain, Ideally IREE compiler will schedule it to run concurrently
    %new_pose = func.call @op_e_kernel(%initial_pose, %wheel_ticks) : (tensor<3xf32>, tensor<2xf32>) -> tensor<3xf32>

    // --- Op A: Perception Stage ---
    %target_pos = func.call @op_a_kernel(%sensor_input) : (tensor<1x3x64x64xf32>) -> tensor<2xf32>

    // --- Op B: Iterative IK Solver (while loop) ---
    %tolerance_sq = arith.constant 1.0e-8 : f32 
    %final_angles = scf.while (%iter_angles = %initial_angles) : (tensor<2xf32>) -> (tensor<2xf32>) {
      %next_angles = func.call @op_b_kernel(%iter_angles, %target_pos) : (tensor<2xf32>, tensor<2xf32>) -> tensor<2xf32>
      
      %empty_sub = tensor.empty() : tensor<2xf32>
      %diff = linalg.sub ins(%next_angles, %iter_angles : tensor<2xf32>, tensor<2xf32>) outs(%empty_sub : tensor<2xf32>) -> tensor<2xf32>
      %empty_mul = tensor.empty() : tensor<2xf32>
      %sq_diff = linalg.mul ins(%diff, %diff : tensor<2xf32>, tensor<2xf32>) outs(%empty_mul : tensor<2xf32>) -> tensor<2xf32>
      
      %c0f_tensor = arith.constant dense<0.0> : tensor<f32>
      
      %norm_sq_tensor = linalg.reduce ins(%sq_diff : tensor<2xf32>) outs(%c0f_tensor : tensor<f32>) dimensions = [0] (%in: f32, %out: f32) {
        %sum = arith.addf %in, %out : f32
        linalg.yield %sum : f32
      }
      
      %norm_sq = tensor.extract %norm_sq_tensor[] : tensor<f32>

      %should_continue = arith.cmpf "ogt", %norm_sq, %tolerance_sq : f32
      scf.condition(%should_continue) %next_angles : tensor<2xf32>
    } do {
    ^bb0(%cond_angles: tensor<2xf32>):
      // 'after' region: yield result to next iteration
      scf.yield %cond_angles : tensor<2xf32>
    }

    // --- Op C/D: Conditional Motion Planning (if statement) ---
    // Condition: Choose path based on the final joint angles.
    // Here, we check if the second joint angle is positive.
    %c1_idx = arith.constant 1 : index
    %angle_2 = tensor.extract %final_angles[%c1_idx] : tensor<2xf32>
    %c0f_if = arith.constant 0.0 : f32
    %is_positive = arith.cmpf "ogt", %angle_2, %c0f_if : f32
    %trajectory = scf.if %is_positive -> (tensor<19x2xf32>) {
      // 'then' block: Call Op C and pad the result.
      %traj_c = func.call @op_c_kernel(%final_angles) : (tensor<2xf32>) -> tensor<10x2xf32>
      %c0f_pad = arith.constant 0.0 : f32
      %padded_traj_c = tensor.pad %traj_c low[0, 0] high[9, 0] {
      ^bb0(%arg0: index, %arg1: index):
        tensor.yield %c0f_pad : f32
      } : tensor<10x2xf32> to tensor<19x2xf32>
      scf.yield %padded_traj_c : tensor<19x2xf32>
    } else {
      // 'else' block: Call Op D.
      %traj_d = func.call @op_d_kernel(%final_angles) : (tensor<2xf32>) -> tensor<19x2xf32>
      scf.yield %traj_d : tensor<19x2xf32>
    }

    // --- Export final results ---
    %trajectory_bv = hal.tensor.export %trajectory : tensor<19x2xf32> -> !hal.buffer_view
    %new_pose_bv = hal.tensor.export %new_pose : tensor<3xf32> -> !hal.buffer_view
    hal.fence.signal<%signal_fence : !hal.fence>
    util.return %trajectory_bv, %new_pose_bv : !hal.buffer_view, !hal.buffer_view
  }

  // --- Synchronous Wrapper for easy calling ---
  util.func public @main(
      %sensor_input_bv: !hal.buffer_view,
      %initial_pose_bv: !hal.buffer_view,
      %initial_angles_bv: !hal.buffer_view,
      %wheel_ticks_bv: !hal.buffer_view
  ) -> (!hal.buffer_view, !hal.buffer_view) attributes {iree.abi.stub}
  {
    %c0 = arith.constant 0 : index
    %device = hal.devices.get %c0 : !hal.device
    %wait_fence = util.null : !hal.fence
    %signal_fence = hal.fence.create device(%device : !hal.device)  flags("None") : !hal.fence
    %results:2 = util.call @main$async(
      %sensor_input_bv, %initial_pose_bv, %initial_angles_bv, %wheel_ticks_bv, %wait_fence, %signal_fence
    ) : (!hal.buffer_view, !hal.buffer_view, !hal.buffer_view, !hal.buffer_view, !hal.fence, !hal.fence) -> (!hal.buffer_view, !hal.buffer_view)
    %timeout_millis = arith.constant -1 : i32
    hal.fence.await until([%signal_fence]) timeout_millis(%timeout_millis) flags("None") : i32
    util.return %results#0, %results#1 : !hal.buffer_view, !hal.buffer_view
  }
}
