#executable_target_embedded_elf_x86_64 = #hal.executable.target<"llvm-cpu", "embedded-elf-x86_64", {cpu = "znver3", cpu_features = "+prfchw,-cldemote,+avx,+aes,+sahf,+pclmul,-xop,+crc32,-amx-fp8,+xsaves,-avx512fp16,-usermsr,-sm4,-egpr,+sse4.1,-avx512ifma,+xsave,+sse4.2,-tsxldtrk,-sm3,-ptwrite,-widekl,-movrs,+invpcid,+64bit,+xsavec,-avx10.1-512,-avx512vpopcntdq,+cmov,-avx512vp2intersect,-avx512cd,+movbe,-avxvnniint8,-ccmp,-amx-int8,-kl,-avx10.1-256,-sha512,-avxvnni,-rtm,+adx,+avx2,-hreset,-movdiri,-serialize,+vpclmulqdq,-avx512vl,-uintr,-cf,+clflushopt,-raoint,-cmpccxadd,+bmi,-amx-tile,+sse,-avx10.2-256,-gfni,-avxvnniint16,-amx-fp16,-zu,-ndd,+xsaveopt,+rdrnd,-avx512f,-amx-bf16,-avx512bf16,-avx512vnni,-push2pop2,+cx8,-avx512bw,+sse3,+pku,-nf,-amx-tf32,-amx-avx512,+fsgsbase,+clzero,+mwaitx,-lwp,+lzcnt,+sha,-movdir64b,-ppx,+wbnoinvd,-enqcmd,-amx-transpose,-avx10.2-512,-avxneconvert,-tbm,-pconfig,-amx-complex,+ssse3,+cx16,+bmi2,+fma,+popcnt,-avxifma,+f16c,-avx512bitalg,+rdpru,+clwb,+mmx,+sse2,+rdseed,-avx512vbmi2,-prefetchi,-amx-movrs,+rdpid,-fma4,-avx512vbmi,+shstk,+vaes,-waitpkg,-sgx,+fxsr,-avx512dq,+sse4a", data_layout = "e-m:e-p270:32:32-p271:32:32-p272:64:64-i64:64-i128:128-f80:128-n8:16:32:64-S128", iree.encoding.resolver = #iree_cpu.cpu_encoding_resolver<>, max_stack_allocation_size = 32768 : i64, native_vector_size = 32 : i64, target_triple = "x86_64-unknown-unknown-eabi-elf"}>
#map = affine_map<() -> ()>
#map1 = affine_map<(d0, d1, d2) -> (d0)>
#map2 = affine_map<(d0, d1, d2) -> (d0, d1, d2)>
#map3 = affine_map<(d0, d1, d2, d3, d4, d5) -> (d3, d1 * 4 + d4, d2 * 4 + d5)>
#map4 = affine_map<(d0, d1, d2, d3, d4, d5) -> (d0, d3, d4, d5)>
#map5 = affine_map<(d0, d1, d2, d3, d4, d5) -> (d0, d1, d2)>
#map6 = affine_map<(d0, d1, d2, d3, d4) -> (d0, d1 * 2 + d3, d2 * 2 + d4)>
#map7 = affine_map<(d0, d1, d2, d3, d4) -> (d3, d4)>
#map8 = affine_map<(d0, d1, d2, d3, d4) -> (d0, d1, d2)>
#map9 = affine_map<(d0) -> (d0)>
#map10 = affine_map<(d0) -> ()>
#map11 = affine_map<(d0, d1) -> (d0, d1)>
#map12 = affine_map<(d0, d1) -> ()>
#map13 = affine_map<(d0, d1) -> (d1)>
#map14 = affine_map<(d0, d1) -> (d0)>
#device_target_local = #hal.device.target<"local", [#executable_target_embedded_elf_x86_64]> : !hal.device
module @integrated_robot_application attributes {stream.affinity.default = #hal.device.affinity<@__device_0>} {
  util.global private @__device_0 = #device_target_local
  util.func public @main$async(%arg0: !hal.buffer_view, %arg1: !hal.buffer_view, %arg2: !hal.buffer_view, %arg3: !hal.buffer_view, %arg4: !hal.fence, %arg5: !hal.fence, %arg6: !hal.fence, %arg7: !hal.fence) -> (!hal.buffer_view, !hal.buffer_view) attributes {iree.abi.stub, iree.reflection = {iree.abi.declaration = "async func @main$async(%input0: !hal.buffer_view, %input1: !hal.buffer_view, %input2: !hal.buffer_view, %input3: !hal.buffer_view, %input4: !hal.fence, %input5: !hal.fence) -> (%output0: !hal.buffer_view, %output1: !hal.buffer_view)", iree.abi.model = "coarse-fences"}} {
    %0:2 = util.call @_main$async(%arg0, %arg1, %arg2, %arg3, %arg4, %arg5) : (!hal.buffer_view, !hal.buffer_view, !hal.buffer_view, !hal.buffer_view, !hal.fence, !hal.fence) -> (!hal.buffer_view, !hal.buffer_view)
    hal.fence.signal<%arg7 : !hal.fence>
    util.return %0#0, %0#1 : !hal.buffer_view, !hal.buffer_view
  }
  util.global private @__hoisted_tensor_1x256x8x1xf32 {stream.affinity.default = #hal.device.affinity<@__device_0>} = dense<"…"> : tensor<1x256x8x1xf32>
  util.func private @_main$async(%arg0: !hal.buffer_view, %arg1: !hal.buffer_view, %arg2: !hal.buffer_view, %arg3: !hal.buffer_view, %arg4: !hal.fence, %arg5: !hal.fence) -> (!hal.buffer_view, !hal.buffer_view) attributes {inlining_policy = #util.inline.never} {
    %cst = arith.constant dense<[0.000000e+00, 0.111111112, 0.222222224, 0.333333343, 0.444444448, 0.555555582, 0.666666686, 0.777777791, 0.888888895, 1.000000e+00]> : tensor<10xf32>
    %cst_0 = arith.constant dense<[1.000000e+00, 0.888888895, 0.777777791, 0.666666627, 0.555555582, 0.444444418, 0.333333313, 0.222222209, 0.111111104, 0.000000e+00]> : tensor<10xf32>
    %cst_1 = arith.constant dense<2> : tensor<i64>
    %cst_2 = arith.constant dense<1> : tensor<i64>
    %cst_3 = arith.constant dense<0> : tensor<i64>
    %cst_4 = arith.constant dense<[-2.000000e-01, 0.000000e+00]> : tensor<2xf32>
    %cst_5 = arith.constant dense<[0.000000e+00, -1.000000e-01]> : tensor<2xf32>
    %cst_6 = arith.constant 1.000000e+00 : f32
    %cst_7 = arith.constant dense<1.000000e+00> : tensor<f32>
    %cst_8 = arith.constant dense<-1.000000e+00> : tensor<f32>
    %cst_9 = arith.constant dense<9.99999997E-7> : tensor<f32>
    %cst_10 = arith.constant dense<1.000000e-01> : tensor<f32>
    %cst_11 = arith.constant 0xFF800000 : f32
    %cst_12 = arith.constant dense<[0.036251314, -0.0380887836]> : tensor<2xf32>
    %cst_13 = arith.constant dense<[0.0602946617, 0.0679099783, 0.0262253601, 2.52176687E-4]> : tensor<4xf32>
    %cst_14 = arith.constant dense<"…"> : tensor<4x3x4x4xf32>
    %cst_15 = arith.constant dense<9.99999974E-5> : tensor<f32>
    %cst_16 = arith.constant dense<2.000000e+00> : tensor<f32>
    %cst_17 = arith.constant dense<5.000000e-01> : tensor<f32>
    %cst_18 = arith.constant 0.000000e+00 : f32
    %c1 = arith.constant 1 : index
    %cst_19 = arith.constant 9.99999993E-9 : f32
    %0 = hal.tensor.import wait(%arg4) => %arg0 : !hal.buffer_view -> tensor<1x3x64x64xf32>
    %1 = hal.tensor.import wait(%arg4) => %arg1 : !hal.buffer_view -> tensor<3xf32>
    %2 = hal.tensor.import wait(%arg4) => %arg2 : !hal.buffer_view -> tensor<2xf32>
    %3 = hal.tensor.import wait(%arg4) => %arg3 : !hal.buffer_view -> tensor<2xf32>
    %4 = tensor.empty() : tensor<f32>
    %5 = linalg.generic {indexing_maps = [#map, #map], iterator_types = []} ins(%cst_3 : tensor<i64>) outs(%4 : tensor<f32>) {
    ^bb0(%in: i64, %out: f32):
      %49 = arith.index_cast %in : i64 to index
      %extracted_27 = tensor.extract %3[%49] : tensor<2xf32>
      linalg.yield %extracted_27 : f32
    } -> tensor<f32>
    %6 = linalg.generic {indexing_maps = [#map, #map, #map], iterator_types = []} ins(%5, %cst_15 : tensor<f32>, tensor<f32>) outs(%4 : tensor<f32>) {
    ^bb0(%in: f32, %in_27: f32, %out: f32):
      %49 = arith.mulf %in, %in_27 : f32
      linalg.yield %49 : f32
    } -> tensor<f32>
    %7 = linalg.generic {indexing_maps = [#map, #map], iterator_types = []} ins(%cst_2 : tensor<i64>) outs(%4 : tensor<f32>) {
    ^bb0(%in: i64, %out: f32):
      %49 = arith.index_cast %in : i64 to index
      %extracted_27 = tensor.extract %3[%49] : tensor<2xf32>
      linalg.yield %extracted_27 : f32
    } -> tensor<f32>
    %8 = linalg.generic {indexing_maps = [#map, #map, #map], iterator_types = []} ins(%7, %cst_15 : tensor<f32>, tensor<f32>) outs(%4 : tensor<f32>) {
    ^bb0(%in: f32, %in_27: f32, %out: f32):
      %49 = arith.mulf %in, %in_27 : f32
      linalg.yield %49 : f32
    } -> tensor<f32>
    %9 = linalg.generic {indexing_maps = [#map, #map, #map], iterator_types = []} ins(%6, %8 : tensor<f32>, tensor<f32>) outs(%4 : tensor<f32>) {
    ^bb0(%in: f32, %in_27: f32, %out: f32):
      %49 = arith.addf %in, %in_27 : f32
      linalg.yield %49 : f32
    } -> tensor<f32>
    %10 = linalg.generic {indexing_maps = [#map, #map, #map], iterator_types = []} ins(%9, %cst_16 : tensor<f32>, tensor<f32>) outs(%4 : tensor<f32>) {
    ^bb0(%in: f32, %in_27: f32, %out: f32):
      %49 = arith.divf %in, %in_27 : f32
      linalg.yield %49 : f32
    } -> tensor<f32>
    %11 = linalg.generic {indexing_maps = [#map, #map, #map], iterator_types = []} ins(%8, %6 : tensor<f32>, tensor<f32>) outs(%4 : tensor<f32>) {
    ^bb0(%in: f32, %in_27: f32, %out: f32):
      %49 = arith.subf %in, %in_27 : f32
      linalg.yield %49 : f32
    } -> tensor<f32>
    %12 = linalg.generic {indexing_maps = [#map, #map, #map], iterator_types = []} ins(%11, %cst_17 : tensor<f32>, tensor<f32>) outs(%4 : tensor<f32>) {
    ^bb0(%in: f32, %in_27: f32, %out: f32):
      %49 = arith.divf %in, %in_27 : f32
      linalg.yield %49 : f32
    } -> tensor<f32>
    %13 = linalg.generic {indexing_maps = [#map, #map], iterator_types = []} ins(%cst_1 : tensor<i64>) outs(%4 : tensor<f32>) {
    ^bb0(%in: i64, %out: f32):
      %49 = arith.index_cast %in : i64 to index
      %extracted_27 = tensor.extract %1[%49] : tensor<3xf32>
      linalg.yield %extracted_27 : f32
    } -> tensor<f32>
    %14 = linalg.generic {indexing_maps = [#map, #map, #map], iterator_types = []} ins(%12, %cst_16 : tensor<f32>, tensor<f32>) outs(%4 : tensor<f32>) {
    ^bb0(%in: f32, %in_27: f32, %out: f32):
      %49 = arith.divf %in, %in_27 : f32
      linalg.yield %49 : f32
    } -> tensor<f32>
    %15 = linalg.generic {indexing_maps = [#map, #map, #map], iterator_types = []} ins(%13, %14 : tensor<f32>, tensor<f32>) outs(%4 : tensor<f32>) {
    ^bb0(%in: f32, %in_27: f32, %out: f32):
      %49 = arith.addf %in, %in_27 : f32
      linalg.yield %49 : f32
    } -> tensor<f32>
    %16 = linalg.generic {indexing_maps = [#map, #map], iterator_types = []} ins(%cst_3 : tensor<i64>) outs(%4 : tensor<f32>) {
    ^bb0(%in: i64, %out: f32):
      %49 = arith.index_cast %in : i64 to index
      %extracted_27 = tensor.extract %1[%49] : tensor<3xf32>
      linalg.yield %extracted_27 : f32
    } -> tensor<f32>
    %17 = linalg.generic {indexing_maps = [#map, #map], iterator_types = []} ins(%15 : tensor<f32>) outs(%4 : tensor<f32>) {
    ^bb0(%in: f32, %out: f32):
      %49 = math.cos %in : f32
      linalg.yield %49 : f32
    } -> tensor<f32>
    %18 = linalg.generic {indexing_maps = [#map, #map, #map], iterator_types = []} ins(%10, %17 : tensor<f32>, tensor<f32>) outs(%4 : tensor<f32>) {
    ^bb0(%in: f32, %in_27: f32, %out: f32):
      %49 = arith.mulf %in, %in_27 : f32
      linalg.yield %49 : f32
    } -> tensor<f32>
    %19 = linalg.generic {indexing_maps = [#map, #map, #map], iterator_types = []} ins(%16, %18 : tensor<f32>, tensor<f32>) outs(%4 : tensor<f32>) {
    ^bb0(%in: f32, %in_27: f32, %out: f32):
      %49 = arith.addf %in, %in_27 : f32
      linalg.yield %49 : f32
    } -> tensor<f32>
    %20 = linalg.generic {indexing_maps = [#map, #map], iterator_types = []} ins(%cst_2 : tensor<i64>) outs(%4 : tensor<f32>) {
    ^bb0(%in: i64, %out: f32):
      %49 = arith.index_cast %in : i64 to index
      %extracted_27 = tensor.extract %1[%49] : tensor<3xf32>
      linalg.yield %extracted_27 : f32
    } -> tensor<f32>
    %21 = linalg.generic {indexing_maps = [#map, #map], iterator_types = []} ins(%15 : tensor<f32>) outs(%4 : tensor<f32>) {
    ^bb0(%in: f32, %out: f32):
      %49 = math.sin %in : f32
      linalg.yield %49 : f32
    } -> tensor<f32>
    %22 = linalg.generic {indexing_maps = [#map, #map, #map], iterator_types = []} ins(%10, %21 : tensor<f32>, tensor<f32>) outs(%4 : tensor<f32>) {
    ^bb0(%in: f32, %in_27: f32, %out: f32):
      %49 = arith.mulf %in, %in_27 : f32
      linalg.yield %49 : f32
    } -> tensor<f32>
    %23 = linalg.generic {indexing_maps = [#map, #map, #map], iterator_types = []} ins(%20, %22 : tensor<f32>, tensor<f32>) outs(%4 : tensor<f32>) {
    ^bb0(%in: f32, %in_27: f32, %out: f32):
      %49 = arith.addf %in, %in_27 : f32
      linalg.yield %49 : f32
    } -> tensor<f32>
    %24 = linalg.generic {indexing_maps = [#map, #map, #map], iterator_types = []} ins(%13, %12 : tensor<f32>, tensor<f32>) outs(%4 : tensor<f32>) {
    ^bb0(%in: f32, %in_27: f32, %out: f32):
      %49 = arith.addf %in, %in_27 : f32
      linalg.yield %49 : f32
    } -> tensor<f32>
    %expanded = tensor.expand_shape %19 [] output_shape [1] : tensor<f32> into tensor<1xf32>
    %expanded_20 = tensor.expand_shape %23 [] output_shape [1] : tensor<f32> into tensor<1xf32>
    %expanded_21 = tensor.expand_shape %24 [] output_shape [1] : tensor<f32> into tensor<1xf32>
    %concat = tensor.concat dim(0) %expanded, %expanded_20, %expanded_21 : (tensor<1xf32>, tensor<1xf32>, tensor<1xf32>) -> tensor<3xf32>
    %25 = tensor.empty() : tensor<1x3x66x66xf32>
    %26 = linalg.fill ins(%cst_18 : f32) outs(%25 : tensor<1x3x66x66xf32>) -> tensor<1x3x66x66xf32>
    %collapsed = tensor.collapse_shape %0 [[0, 1], [2], [3]] : tensor<1x3x64x64xf32> into tensor<3x64x64xf32>
    %inserted_slice = tensor.insert_slice %collapsed into %26[0, 0, 1, 1] [1, 3, 64, 64] [1, 1, 1, 1] : tensor<3x64x64xf32> into tensor<1x3x66x66xf32>
    %27 = tensor.empty() : tensor<4x16x16xf32>
    %28 = linalg.generic {indexing_maps = [#map1, #map2], iterator_types = ["parallel", "parallel", "parallel"]} ins(%cst_13 : tensor<4xf32>) outs(%27 : tensor<4x16x16xf32>) {
    ^bb0(%in: f32, %out: f32):
      linalg.yield %in : f32
    } -> tensor<4x16x16xf32>
    %collapsed_22 = tensor.collapse_shape %inserted_slice [[0, 1], [2], [3]] : tensor<1x3x66x66xf32> into tensor<3x66x66xf32>
    %29 = linalg.fill ins(%cst_18 : f32) outs(%27 : tensor<4x16x16xf32>) -> tensor<4x16x16xf32>
    %30 = linalg.generic {indexing_maps = [#map3, #map4, #map5], iterator_types = ["parallel", "parallel", "parallel", "reduction", "reduction", "reduction"]} ins(%collapsed_22, %cst_14 : tensor<3x66x66xf32>, tensor<4x3x4x4xf32>) outs(%29 : tensor<4x16x16xf32>) {
    ^bb0(%in: f32, %in_27: f32, %out: f32):
      %49 = arith.mulf %in, %in_27 : f32
      %50 = arith.addf %out, %49 : f32
      linalg.yield %50 : f32
    } -> tensor<4x16x16xf32>
    %31 = linalg.generic {indexing_maps = [#map2, #map2, #map2], iterator_types = ["parallel", "parallel", "parallel"]} ins(%30, %28 : tensor<4x16x16xf32>, tensor<4x16x16xf32>) outs(%29 : tensor<4x16x16xf32>) {
    ^bb0(%in: f32, %in_27: f32, %out: f32):
      %49 = arith.addf %in, %in_27 : f32
      linalg.yield %49 : f32
    } -> tensor<4x16x16xf32>
    %32 = linalg.generic {indexing_maps = [#map2, #map2], iterator_types = ["parallel", "parallel", "parallel"]} ins(%31 : tensor<4x16x16xf32>) outs(%27 : tensor<4x16x16xf32>) {
    ^bb0(%in: f32, %out: f32):
      %49 = arith.cmpf ugt, %in, %cst_18 : f32
      %50 = arith.select %49, %in, %cst_18 : f32
      linalg.yield %50 : f32
    } -> tensor<4x16x16xf32>
    %33 = tensor.empty() : tensor<2x2xf32>
    %34 = tensor.empty() : tensor<4x8x8xf32>
    %35 = linalg.fill ins(%cst_11 : f32) outs(%34 : tensor<4x8x8xf32>) -> tensor<4x8x8xf32>
    %36 = linalg.generic {indexing_maps = [#map6, #map7, #map8], iterator_types = ["parallel", "parallel", "parallel", "reduction", "reduction"]} ins(%32, %33 : tensor<4x16x16xf32>, tensor<2x2xf32>) outs(%35 : tensor<4x8x8xf32>) {
    ^bb0(%in: f32, %in_27: f32, %out: f32):
      %49 = arith.maximumf %out, %in : f32
      linalg.yield %49 : f32
    } -> tensor<4x8x8xf32>
    %expanded_23 = tensor.expand_shape %36 [[0, 1], [2], [3]] output_shape [1, 4, 8, 8] : tensor<4x8x8xf32> into tensor<1x4x8x8xf32>
    %collapsed_24 = tensor.collapse_shape %expanded_23 [[0], [1, 2, 3]] : tensor<1x4x8x8xf32> into tensor<1x256xf32>
    %expanded_25 = tensor.expand_shape %collapsed_24 [[0], [1, 2, 3]] output_shape [1, 256, 1, 1] : tensor<1x256xf32> into tensor<1x256x1x1xf32>
    %__hoisted_tensor_1x256x8x1xf32 = util.global.load immutable @__hoisted_tensor_1x256x8x1xf32 : tensor<1x256x8x1xf32>
    %37 = tensor.empty() : tensor<1x1x1x8xf32>
    %38 = linalg.fill ins(%cst_18 : f32) outs(%37 : tensor<1x1x1x8xf32>) -> tensor<1x1x1x8xf32>
    %39 = linalg.mmt4d ins(%expanded_25, %__hoisted_tensor_1x256x8x1xf32 : tensor<1x256x1x1xf32>, tensor<1x256x8x1xf32>) outs(%38 : tensor<1x1x1x8xf32>) -> tensor<1x1x1x8xf32>
    %40 = tensor.empty() : tensor<1x2xf32>
    %unpack = linalg.unpack %39 outer_dims_perm = [0, 1] inner_dims_pos = [0, 1] inner_tiles = [1, 8] into %40 : tensor<1x1x1x8xf32> -> tensor<1x2xf32>
    %collapsed_26 = tensor.collapse_shape %unpack [[0, 1]] : tensor<1x2xf32> into tensor<2xf32>
    %41 = tensor.empty() : tensor<2xf32>
    %42 = linalg.generic {indexing_maps = [#map9, #map9, #map9], iterator_types = ["parallel"]} ins(%collapsed_26, %cst_12 : tensor<2xf32>, tensor<2xf32>) outs(%41 : tensor<2xf32>) {
    ^bb0(%in: f32, %in_27: f32, %out: f32):
      %49 = arith.addf %in, %in_27 : f32
      linalg.yield %49 : f32
    } -> tensor<2xf32>
    %43 = tensor.empty() : tensor<1x2x8x1xf32>
    %44 = scf.while (%arg6 = %2) : (tensor<2xf32>) -> tensor<2xf32> {
      %49 = linalg.generic {indexing_maps = [#map, #map], iterator_types = []} ins(%cst_3 : tensor<i64>) outs(%4 : tensor<f32>) {
      ^bb0(%in: i64, %out: f32):
        %89 = arith.index_cast %in : i64 to index
        %extracted_51 = tensor.extract %arg6[%89] : tensor<2xf32>
        linalg.yield %extracted_51 : f32
      } -> tensor<f32>
      %50 = linalg.generic {indexing_maps = [#map, #map], iterator_types = []} ins(%cst_2 : tensor<i64>) outs(%4 : tensor<f32>) {
      ^bb0(%in: i64, %out: f32):
        %89 = arith.index_cast %in : i64 to index
        %extracted_51 = tensor.extract %arg6[%89] : tensor<2xf32>
        linalg.yield %extracted_51 : f32
      } -> tensor<f32>
      %51 = linalg.generic {indexing_maps = [#map, #map], iterator_types = []} ins(%49 : tensor<f32>) outs(%4 : tensor<f32>) {
      ^bb0(%in: f32, %out: f32):
        %89 = math.cos %in : f32
        linalg.yield %89 : f32
      } -> tensor<f32>
      %52 = linalg.generic {indexing_maps = [#map, #map, #map], iterator_types = []} ins(%51, %cst_7 : tensor<f32>, tensor<f32>) outs(%4 : tensor<f32>) {
      ^bb0(%in: f32, %in_51: f32, %out: f32):
        %89 = arith.mulf %in, %in_51 : f32
        linalg.yield %89 : f32
      } -> tensor<f32>
      %53 = linalg.generic {indexing_maps = [#map, #map, #map], iterator_types = []} ins(%49, %50 : tensor<f32>, tensor<f32>) outs(%4 : tensor<f32>) {
      ^bb0(%in: f32, %in_51: f32, %out: f32):
        %89 = arith.addf %in, %in_51 : f32
        linalg.yield %89 : f32
      } -> tensor<f32>
      %54 = linalg.generic {indexing_maps = [#map, #map], iterator_types = []} ins(%53 : tensor<f32>) outs(%4 : tensor<f32>) {
      ^bb0(%in: f32, %out: f32):
        %89 = math.cos %in : f32
        linalg.yield %89 : f32
      } -> tensor<f32>
      %55 = linalg.generic {indexing_maps = [#map, #map, #map], iterator_types = []} ins(%54, %cst_7 : tensor<f32>, tensor<f32>) outs(%4 : tensor<f32>) {
      ^bb0(%in: f32, %in_51: f32, %out: f32):
        %89 = arith.mulf %in, %in_51 : f32
        linalg.yield %89 : f32
      } -> tensor<f32>
      %56 = linalg.generic {indexing_maps = [#map, #map, #map], iterator_types = []} ins(%52, %55 : tensor<f32>, tensor<f32>) outs(%4 : tensor<f32>) {
      ^bb0(%in: f32, %in_51: f32, %out: f32):
        %89 = arith.addf %in, %in_51 : f32
        linalg.yield %89 : f32
      } -> tensor<f32>
      %57 = linalg.generic {indexing_maps = [#map, #map], iterator_types = []} ins(%49 : tensor<f32>) outs(%4 : tensor<f32>) {
      ^bb0(%in: f32, %out: f32):
        %89 = math.sin %in : f32
        linalg.yield %89 : f32
      } -> tensor<f32>
      %58 = linalg.generic {indexing_maps = [#map, #map, #map], iterator_types = []} ins(%57, %cst_7 : tensor<f32>, tensor<f32>) outs(%4 : tensor<f32>) {
      ^bb0(%in: f32, %in_51: f32, %out: f32):
        %89 = arith.mulf %in, %in_51 : f32
        linalg.yield %89 : f32
      } -> tensor<f32>
      %59 = linalg.generic {indexing_maps = [#map, #map], iterator_types = []} ins(%53 : tensor<f32>) outs(%4 : tensor<f32>) {
      ^bb0(%in: f32, %out: f32):
        %89 = math.sin %in : f32
        linalg.yield %89 : f32
      } -> tensor<f32>
      %60 = linalg.generic {indexing_maps = [#map, #map, #map], iterator_types = []} ins(%59, %cst_7 : tensor<f32>, tensor<f32>) outs(%4 : tensor<f32>) {
      ^bb0(%in: f32, %in_51: f32, %out: f32):
        %89 = arith.mulf %in, %in_51 : f32
        linalg.yield %89 : f32
      } -> tensor<f32>
      %61 = linalg.generic {indexing_maps = [#map, #map, #map], iterator_types = []} ins(%58, %60 : tensor<f32>, tensor<f32>) outs(%4 : tensor<f32>) {
      ^bb0(%in: f32, %in_51: f32, %out: f32):
        %89 = arith.addf %in, %in_51 : f32
        linalg.yield %89 : f32
      } -> tensor<f32>
      %expanded_27 = tensor.expand_shape %56 [] output_shape [1] : tensor<f32> into tensor<1xf32>
      %expanded_28 = tensor.expand_shape %61 [] output_shape [1] : tensor<f32> into tensor<1xf32>
      %concat_29 = tensor.concat dim(0) %expanded_27, %expanded_28 : (tensor<1xf32>, tensor<1xf32>) -> tensor<2xf32>
      %62 = linalg.generic {indexing_maps = [#map9, #map9, #map9], iterator_types = ["parallel"]} ins(%42, %concat_29 : tensor<2xf32>, tensor<2xf32>) outs(%41 : tensor<2xf32>) {
      ^bb0(%in: f32, %in_51: f32, %out: f32):
        %89 = arith.subf %in, %in_51 : f32
        linalg.yield %89 : f32
      } -> tensor<2xf32>
      %63 = linalg.generic {indexing_maps = [#map, #map, #map], iterator_types = []} ins(%57, %cst_8 : tensor<f32>, tensor<f32>) outs(%4 : tensor<f32>) {
      ^bb0(%in: f32, %in_51: f32, %out: f32):
        %89 = arith.mulf %in, %in_51 : f32
        linalg.yield %89 : f32
      } -> tensor<f32>
      %64 = linalg.generic {indexing_maps = [#map, #map, #map], iterator_types = []} ins(%63, %60 : tensor<f32>, tensor<f32>) outs(%4 : tensor<f32>) {
      ^bb0(%in: f32, %in_51: f32, %out: f32):
        %89 = arith.subf %in, %in_51 : f32
        linalg.yield %89 : f32
      } -> tensor<f32>
      %65 = linalg.generic {indexing_maps = [#map, #map, #map], iterator_types = []} ins(%59, %cst_8 : tensor<f32>, tensor<f32>) outs(%4 : tensor<f32>) {
      ^bb0(%in: f32, %in_51: f32, %out: f32):
        %89 = arith.mulf %in, %in_51 : f32
        linalg.yield %89 : f32
      } -> tensor<f32>
      %expanded_30 = tensor.expand_shape %64 [] output_shape [1] : tensor<f32> into tensor<1xf32>
      %expanded_31 = tensor.expand_shape %65 [] output_shape [1] : tensor<f32> into tensor<1xf32>
      %concat_32 = tensor.concat dim(0) %expanded_30, %expanded_31 : (tensor<1xf32>, tensor<1xf32>) -> tensor<2xf32>
      %expanded_33 = tensor.expand_shape %55 [] output_shape [1] : tensor<f32> into tensor<1xf32>
      %concat_34 = tensor.concat dim(0) %expanded_27, %expanded_33 : (tensor<1xf32>, tensor<1xf32>) -> tensor<2xf32>
      %expanded_35 = tensor.expand_shape %concat_32 [[0, 1]] output_shape [1, 2] : tensor<2xf32> into tensor<1x2xf32>
      %expanded_36 = tensor.expand_shape %concat_34 [[0, 1]] output_shape [1, 2] : tensor<2xf32> into tensor<1x2xf32>
      %concat_37 = tensor.concat dim(0) %expanded_35, %expanded_36 : (tensor<1x2xf32>, tensor<1x2xf32>) -> tensor<2x2xf32>
      %66 = linalg.generic {indexing_maps = [#map10, #map9], iterator_types = ["parallel"]} ins(%cst_3 : tensor<i64>) outs(%41 : tensor<2xf32>) {
      ^bb0(%in: i64, %out: f32):
        %89 = arith.index_cast %in : i64 to index
        %90 = linalg.index 0 : index
        %extracted_51 = tensor.extract %concat_37[%89, %90] : tensor<2x2xf32>
        linalg.yield %extracted_51 : f32
      } -> tensor<2xf32>
      %67 = linalg.generic {indexing_maps = [#map, #map], iterator_types = []} ins(%cst_3 : tensor<i64>) outs(%4 : tensor<f32>) {
      ^bb0(%in: i64, %out: f32):
        %89 = arith.index_cast %in : i64 to index
        %extracted_51 = tensor.extract %66[%89] : tensor<2xf32>
        linalg.yield %extracted_51 : f32
      } -> tensor<f32>
      %expanded_38 = tensor.expand_shape %67 [] output_shape [1] : tensor<f32> into tensor<1xf32>
      %68 = linalg.generic {indexing_maps = [#map10, #map9], iterator_types = ["parallel"]} ins(%cst_2 : tensor<i64>) outs(%41 : tensor<2xf32>) {
      ^bb0(%in: i64, %out: f32):
        %89 = arith.index_cast %in : i64 to index
        %90 = linalg.index 0 : index
        %extracted_51 = tensor.extract %concat_37[%89, %90] : tensor<2x2xf32>
        linalg.yield %extracted_51 : f32
      } -> tensor<2xf32>
      %69 = linalg.generic {indexing_maps = [#map, #map], iterator_types = []} ins(%cst_2 : tensor<i64>) outs(%4 : tensor<f32>) {
      ^bb0(%in: i64, %out: f32):
        %89 = arith.index_cast %in : i64 to index
        %extracted_51 = tensor.extract %68[%89] : tensor<2xf32>
        linalg.yield %extracted_51 : f32
      } -> tensor<f32>
      %expanded_39 = tensor.expand_shape %69 [] output_shape [1] : tensor<f32> into tensor<1xf32>
      %70 = linalg.generic {indexing_maps = [#map, #map, #map], iterator_types = []} ins(%67, %69 : tensor<f32>, tensor<f32>) outs(%4 : tensor<f32>) {
      ^bb0(%in: f32, %in_51: f32, %out: f32):
        %89 = arith.mulf %in, %in_51 : f32
        linalg.yield %89 : f32
      } -> tensor<f32>
      %71 = linalg.generic {indexing_maps = [#map, #map], iterator_types = []} ins(%cst_2 : tensor<i64>) outs(%4 : tensor<f32>) {
      ^bb0(%in: i64, %out: f32):
        %89 = arith.index_cast %in : i64 to index
        %extracted_51 = tensor.extract %66[%89] : tensor<2xf32>
        linalg.yield %extracted_51 : f32
      } -> tensor<f32>
      %72 = linalg.generic {indexing_maps = [#map, #map], iterator_types = []} ins(%cst_3 : tensor<i64>) outs(%4 : tensor<f32>) {
      ^bb0(%in: i64, %out: f32):
        %89 = arith.index_cast %in : i64 to index
        %extracted_51 = tensor.extract %68[%89] : tensor<2xf32>
        linalg.yield %extracted_51 : f32
      } -> tensor<f32>
      %73 = linalg.generic {indexing_maps = [#map, #map, #map], iterator_types = []} ins(%71, %72 : tensor<f32>, tensor<f32>) outs(%4 : tensor<f32>) {
      ^bb0(%in: f32, %in_51: f32, %out: f32):
        %89 = arith.mulf %in, %in_51 : f32
        linalg.yield %89 : f32
      } -> tensor<f32>
      %74 = linalg.generic {indexing_maps = [#map, #map, #map], iterator_types = []} ins(%70, %73 : tensor<f32>, tensor<f32>) outs(%4 : tensor<f32>) {
      ^bb0(%in: f32, %in_51: f32, %out: f32):
        %89 = arith.subf %in, %in_51 : f32
        linalg.yield %89 : f32
      } -> tensor<f32>
      %75 = linalg.generic {indexing_maps = [#map, #map, #map], iterator_types = []} ins(%74, %cst_9 : tensor<f32>, tensor<f32>) outs(%4 : tensor<f32>) {
      ^bb0(%in: f32, %in_51: f32, %out: f32):
        %89 = arith.addf %in, %in_51 : f32
        linalg.yield %89 : f32
      } -> tensor<f32>
      %76 = linalg.generic {indexing_maps = [#map, #map], iterator_types = []} ins(%75 : tensor<f32>) outs(%4 : tensor<f32>) {
      ^bb0(%in: f32, %out: f32):
        %89 = arith.cmpf one, %in, %cst_18 : f32
        cf.assert %89, "unimplemented: tensor with zero element"
        %90 = arith.divf %cst_6, %in : f32
        linalg.yield %90 : f32
      } -> tensor<f32>
      %77 = linalg.generic {indexing_maps = [#map, #map, #map], iterator_types = []} ins(%76, %cst_7 : tensor<f32>, tensor<f32>) outs(%4 : tensor<f32>) {
      ^bb0(%in: f32, %in_51: f32, %out: f32):
        %89 = arith.mulf %in, %in_51 : f32
        linalg.yield %89 : f32
      } -> tensor<f32>
      %78 = linalg.generic {indexing_maps = [#map, #map], iterator_types = []} ins(%71 : tensor<f32>) outs(%4 : tensor<f32>) {
      ^bb0(%in: f32, %out: f32):
        %89 = arith.negf %in : f32
        linalg.yield %89 : f32
      } -> tensor<f32>
      %expanded_40 = tensor.expand_shape %78 [] output_shape [1] : tensor<f32> into tensor<1xf32>
      %concat_41 = tensor.concat dim(0) %expanded_39, %expanded_40 : (tensor<1xf32>, tensor<1xf32>) -> tensor<2xf32>
      %79 = linalg.generic {indexing_maps = [#map, #map], iterator_types = []} ins(%72 : tensor<f32>) outs(%4 : tensor<f32>) {
      ^bb0(%in: f32, %out: f32):
        %89 = arith.negf %in : f32
        linalg.yield %89 : f32
      } -> tensor<f32>
      %expanded_42 = tensor.expand_shape %79 [] output_shape [1] : tensor<f32> into tensor<1xf32>
      %concat_43 = tensor.concat dim(0) %expanded_42, %expanded_38 : (tensor<1xf32>, tensor<1xf32>) -> tensor<2xf32>
      %expanded_44 = tensor.expand_shape %concat_41 [[0, 1]] output_shape [1, 2] : tensor<2xf32> into tensor<1x2xf32>
      %expanded_45 = tensor.expand_shape %concat_43 [[0, 1]] output_shape [1, 2] : tensor<2xf32> into tensor<1x2xf32>
      %concat_46 = tensor.concat dim(0) %expanded_44, %expanded_45 : (tensor<1x2xf32>, tensor<1x2xf32>) -> tensor<2x2xf32>
      %80 = linalg.generic {indexing_maps = [#map11, #map12, #map11], iterator_types = ["parallel", "parallel"]} ins(%concat_46, %77 : tensor<2x2xf32>, tensor<f32>) outs(%33 : tensor<2x2xf32>) {
      ^bb0(%in: f32, %in_51: f32, %out: f32):
        %89 = arith.mulf %in, %in_51 : f32
        linalg.yield %89 : f32
      } -> tensor<2x2xf32>
      %pack = linalg.pack %80 padding_value(%cst_18 : f32) outer_dims_perm = [0, 1] inner_dims_pos = [0, 1] inner_tiles = [8, 1] into %43 : tensor<2x2xf32> -> tensor<1x2x8x1xf32>
      %expanded_47 = tensor.expand_shape %62 [[0, 1, 2, 3]] output_shape [1, 2, 1, 1] : tensor<2xf32> into tensor<1x2x1x1xf32>
      %81 = linalg.mmt4d ins(%expanded_47, %pack : tensor<1x2x1x1xf32>, tensor<1x2x8x1xf32>) outs(%38 : tensor<1x1x1x8xf32>) -> tensor<1x1x1x8xf32>
      %collapsed_48 = tensor.collapse_shape %81 [[0, 1], [2, 3]] : tensor<1x1x1x8xf32> into tensor<1x8xf32>
      %unpack_49 = linalg.unpack %collapsed_48 outer_dims_perm = [0] inner_dims_pos = [0] inner_tiles = [8] into %41 : tensor<1x8xf32> -> tensor<2xf32>
      %82 = linalg.generic {indexing_maps = [#map9, #map10, #map9], iterator_types = ["parallel"]} ins(%unpack_49, %cst_10 : tensor<2xf32>, tensor<f32>) outs(%41 : tensor<2xf32>) {
      ^bb0(%in: f32, %in_51: f32, %out: f32):
        %89 = arith.mulf %in, %in_51 : f32
        linalg.yield %89 : f32
      } -> tensor<2xf32>
      %83 = linalg.generic {indexing_maps = [#map9, #map9, #map9], iterator_types = ["parallel"]} ins(%arg6, %82 : tensor<2xf32>, tensor<2xf32>) outs(%41 : tensor<2xf32>) {
      ^bb0(%in: f32, %in_51: f32, %out: f32):
        %89 = arith.addf %in, %in_51 : f32
        linalg.yield %89 : f32
      } -> tensor<2xf32>
      %84 = linalg.generic {indexing_maps = [#map9, #map9, #map9], iterator_types = ["parallel"]} ins(%83, %arg6 : tensor<2xf32>, tensor<2xf32>) outs(%41 : tensor<2xf32>) {
      ^bb0(%in: f32, %in_51: f32, %out: f32):
        %89 = arith.subf %in, %in_51 : f32
        linalg.yield %89 : f32
      } -> tensor<2xf32>
      %85 = linalg.generic {indexing_maps = [#map9, #map9, #map9], iterator_types = ["parallel"]} ins(%84, %84 : tensor<2xf32>, tensor<2xf32>) outs(%41 : tensor<2xf32>) {
      ^bb0(%in: f32, %in_51: f32, %out: f32):
        %89 = arith.mulf %in, %in_51 : f32
        linalg.yield %89 : f32
      } -> tensor<2xf32>
      %86 = linalg.fill ins(%cst_18 : f32) outs(%4 : tensor<f32>) -> tensor<f32>
      %87 = linalg.generic {indexing_maps = [#map9, #map10], iterator_types = ["reduction"]} ins(%85 : tensor<2xf32>) outs(%86 : tensor<f32>) {
      ^bb0(%in: f32, %out: f32):
        %89 = arith.addf %in, %out : f32
        linalg.yield %89 : f32
      } -> tensor<f32>
      %extracted_50 = tensor.extract %87[] : tensor<f32>
      %88 = arith.cmpf ogt, %extracted_50, %cst_19 : f32
      scf.condition(%88) %83 : tensor<2xf32>
    } do {
    ^bb0(%arg6: tensor<2xf32>):
      scf.yield %arg6 : tensor<2xf32>
    }
    %extracted = tensor.extract %44[%c1] : tensor<2xf32>
    %45 = arith.cmpf ogt, %extracted, %cst_18 : f32
    %46 = scf.if %45 -> (tensor<19x2xf32>) {
      %49 = linalg.generic {indexing_maps = [#map, #map], iterator_types = []} ins(%cst_3 : tensor<i64>) outs(%4 : tensor<f32>) {
      ^bb0(%in: i64, %out: f32):
        %67 = arith.index_cast %in : i64 to index
        %extracted_30 = tensor.extract %44[%67] : tensor<2xf32>
        linalg.yield %extracted_30 : f32
      } -> tensor<f32>
      %50 = linalg.generic {indexing_maps = [#map, #map], iterator_types = []} ins(%cst_2 : tensor<i64>) outs(%4 : tensor<f32>) {
      ^bb0(%in: i64, %out: f32):
        %67 = arith.index_cast %in : i64 to index
        %extracted_30 = tensor.extract %44[%67] : tensor<2xf32>
        linalg.yield %extracted_30 : f32
      } -> tensor<f32>
      %51 = linalg.generic {indexing_maps = [#map, #map], iterator_types = []} ins(%49 : tensor<f32>) outs(%4 : tensor<f32>) {
      ^bb0(%in: f32, %out: f32):
        %67 = math.cos %in : f32
        linalg.yield %67 : f32
      } -> tensor<f32>
      %52 = linalg.generic {indexing_maps = [#map, #map, #map], iterator_types = []} ins(%51, %cst_7 : tensor<f32>, tensor<f32>) outs(%4 : tensor<f32>) {
      ^bb0(%in: f32, %in_30: f32, %out: f32):
        %67 = arith.mulf %in, %in_30 : f32
        linalg.yield %67 : f32
      } -> tensor<f32>
      %53 = linalg.generic {indexing_maps = [#map, #map, #map], iterator_types = []} ins(%49, %50 : tensor<f32>, tensor<f32>) outs(%4 : tensor<f32>) {
      ^bb0(%in: f32, %in_30: f32, %out: f32):
        %67 = arith.addf %in, %in_30 : f32
        linalg.yield %67 : f32
      } -> tensor<f32>
      %54 = linalg.generic {indexing_maps = [#map, #map], iterator_types = []} ins(%53 : tensor<f32>) outs(%4 : tensor<f32>) {
      ^bb0(%in: f32, %out: f32):
        %67 = math.cos %in : f32
        linalg.yield %67 : f32
      } -> tensor<f32>
      %55 = linalg.generic {indexing_maps = [#map, #map, #map], iterator_types = []} ins(%54, %cst_7 : tensor<f32>, tensor<f32>) outs(%4 : tensor<f32>) {
      ^bb0(%in: f32, %in_30: f32, %out: f32):
        %67 = arith.mulf %in, %in_30 : f32
        linalg.yield %67 : f32
      } -> tensor<f32>
      %56 = linalg.generic {indexing_maps = [#map, #map, #map], iterator_types = []} ins(%52, %55 : tensor<f32>, tensor<f32>) outs(%4 : tensor<f32>) {
      ^bb0(%in: f32, %in_30: f32, %out: f32):
        %67 = arith.addf %in, %in_30 : f32
        linalg.yield %67 : f32
      } -> tensor<f32>
      %57 = linalg.generic {indexing_maps = [#map, #map], iterator_types = []} ins(%49 : tensor<f32>) outs(%4 : tensor<f32>) {
      ^bb0(%in: f32, %out: f32):
        %67 = math.sin %in : f32
        linalg.yield %67 : f32
      } -> tensor<f32>
      %58 = linalg.generic {indexing_maps = [#map, #map, #map], iterator_types = []} ins(%57, %cst_7 : tensor<f32>, tensor<f32>) outs(%4 : tensor<f32>) {
      ^bb0(%in: f32, %in_30: f32, %out: f32):
        %67 = arith.mulf %in, %in_30 : f32
        linalg.yield %67 : f32
      } -> tensor<f32>
      %59 = linalg.generic {indexing_maps = [#map, #map], iterator_types = []} ins(%53 : tensor<f32>) outs(%4 : tensor<f32>) {
      ^bb0(%in: f32, %out: f32):
        %67 = math.sin %in : f32
        linalg.yield %67 : f32
      } -> tensor<f32>
      %60 = linalg.generic {indexing_maps = [#map, #map, #map], iterator_types = []} ins(%59, %cst_7 : tensor<f32>, tensor<f32>) outs(%4 : tensor<f32>) {
      ^bb0(%in: f32, %in_30: f32, %out: f32):
        %67 = arith.mulf %in, %in_30 : f32
        linalg.yield %67 : f32
      } -> tensor<f32>
      %61 = linalg.generic {indexing_maps = [#map, #map, #map], iterator_types = []} ins(%58, %60 : tensor<f32>, tensor<f32>) outs(%4 : tensor<f32>) {
      ^bb0(%in: f32, %in_30: f32, %out: f32):
        %67 = arith.addf %in, %in_30 : f32
        linalg.yield %67 : f32
      } -> tensor<f32>
      %expanded_27 = tensor.expand_shape %56 [] output_shape [1] : tensor<f32> into tensor<1xf32>
      %expanded_28 = tensor.expand_shape %61 [] output_shape [1] : tensor<f32> into tensor<1xf32>
      %concat_29 = tensor.concat dim(0) %expanded_27, %expanded_28 : (tensor<1xf32>, tensor<1xf32>) -> tensor<2xf32>
      %62 = linalg.generic {indexing_maps = [#map9, #map9, #map9], iterator_types = ["parallel"]} ins(%concat_29, %cst_5 : tensor<2xf32>, tensor<2xf32>) outs(%41 : tensor<2xf32>) {
      ^bb0(%in: f32, %in_30: f32, %out: f32):
        %67 = arith.addf %in, %in_30 : f32
        linalg.yield %67 : f32
      } -> tensor<2xf32>
      %63 = tensor.empty() : tensor<10x2xf32>
      %64 = linalg.generic {indexing_maps = [#map13, #map14, #map11], iterator_types = ["parallel", "parallel"]} ins(%concat_29, %cst_0 : tensor<2xf32>, tensor<10xf32>) outs(%63 : tensor<10x2xf32>) {
      ^bb0(%in: f32, %in_30: f32, %out: f32):
        %67 = arith.mulf %in, %in_30 : f32
        linalg.yield %67 : f32
      } -> tensor<10x2xf32>
      %65 = linalg.generic {indexing_maps = [#map13, #map14, #map11], iterator_types = ["parallel", "parallel"]} ins(%62, %cst : tensor<2xf32>, tensor<10xf32>) outs(%63 : tensor<10x2xf32>) {
      ^bb0(%in: f32, %in_30: f32, %out: f32):
        %67 = arith.mulf %in, %in_30 : f32
        linalg.yield %67 : f32
      } -> tensor<10x2xf32>
      %66 = linalg.generic {indexing_maps = [#map11, #map11, #map11], iterator_types = ["parallel", "parallel"]} ins(%64, %65 : tensor<10x2xf32>, tensor<10x2xf32>) outs(%63 : tensor<10x2xf32>) {
      ^bb0(%in: f32, %in_30: f32, %out: f32):
        %67 = arith.addf %in, %in_30 : f32
        linalg.yield %67 : f32
      } -> tensor<10x2xf32>
      %padded = tensor.pad %66 low[0, 0] high[9, 0] {
      ^bb0(%arg6: index, %arg7: index):
        tensor.yield %cst_18 : f32
      } : tensor<10x2xf32> to tensor<19x2xf32>
      scf.yield %padded : tensor<19x2xf32>
    } else {
      %49 = linalg.generic {indexing_maps = [#map, #map], iterator_types = []} ins(%cst_3 : tensor<i64>) outs(%4 : tensor<f32>) {
      ^bb0(%in: i64, %out: f32):
        %71 = arith.index_cast %in : i64 to index
        %extracted_31 = tensor.extract %44[%71] : tensor<2xf32>
        linalg.yield %extracted_31 : f32
      } -> tensor<f32>
      %50 = linalg.generic {indexing_maps = [#map, #map], iterator_types = []} ins(%cst_2 : tensor<i64>) outs(%4 : tensor<f32>) {
      ^bb0(%in: i64, %out: f32):
        %71 = arith.index_cast %in : i64 to index
        %extracted_31 = tensor.extract %44[%71] : tensor<2xf32>
        linalg.yield %extracted_31 : f32
      } -> tensor<f32>
      %51 = linalg.generic {indexing_maps = [#map, #map], iterator_types = []} ins(%49 : tensor<f32>) outs(%4 : tensor<f32>) {
      ^bb0(%in: f32, %out: f32):
        %71 = math.cos %in : f32
        linalg.yield %71 : f32
      } -> tensor<f32>
      %52 = linalg.generic {indexing_maps = [#map, #map, #map], iterator_types = []} ins(%51, %cst_7 : tensor<f32>, tensor<f32>) outs(%4 : tensor<f32>) {
      ^bb0(%in: f32, %in_31: f32, %out: f32):
        %71 = arith.mulf %in, %in_31 : f32
        linalg.yield %71 : f32
      } -> tensor<f32>
      %53 = linalg.generic {indexing_maps = [#map, #map, #map], iterator_types = []} ins(%49, %50 : tensor<f32>, tensor<f32>) outs(%4 : tensor<f32>) {
      ^bb0(%in: f32, %in_31: f32, %out: f32):
        %71 = arith.addf %in, %in_31 : f32
        linalg.yield %71 : f32
      } -> tensor<f32>
      %54 = linalg.generic {indexing_maps = [#map, #map], iterator_types = []} ins(%53 : tensor<f32>) outs(%4 : tensor<f32>) {
      ^bb0(%in: f32, %out: f32):
        %71 = math.cos %in : f32
        linalg.yield %71 : f32
      } -> tensor<f32>
      %55 = linalg.generic {indexing_maps = [#map, #map, #map], iterator_types = []} ins(%54, %cst_7 : tensor<f32>, tensor<f32>) outs(%4 : tensor<f32>) {
      ^bb0(%in: f32, %in_31: f32, %out: f32):
        %71 = arith.mulf %in, %in_31 : f32
        linalg.yield %71 : f32
      } -> tensor<f32>
      %56 = linalg.generic {indexing_maps = [#map, #map, #map], iterator_types = []} ins(%52, %55 : tensor<f32>, tensor<f32>) outs(%4 : tensor<f32>) {
      ^bb0(%in: f32, %in_31: f32, %out: f32):
        %71 = arith.addf %in, %in_31 : f32
        linalg.yield %71 : f32
      } -> tensor<f32>
      %57 = linalg.generic {indexing_maps = [#map, #map], iterator_types = []} ins(%49 : tensor<f32>) outs(%4 : tensor<f32>) {
      ^bb0(%in: f32, %out: f32):
        %71 = math.sin %in : f32
        linalg.yield %71 : f32
      } -> tensor<f32>
      %58 = linalg.generic {indexing_maps = [#map, #map, #map], iterator_types = []} ins(%57, %cst_7 : tensor<f32>, tensor<f32>) outs(%4 : tensor<f32>) {
      ^bb0(%in: f32, %in_31: f32, %out: f32):
        %71 = arith.mulf %in, %in_31 : f32
        linalg.yield %71 : f32
      } -> tensor<f32>
      %59 = linalg.generic {indexing_maps = [#map, #map], iterator_types = []} ins(%53 : tensor<f32>) outs(%4 : tensor<f32>) {
      ^bb0(%in: f32, %out: f32):
        %71 = math.sin %in : f32
        linalg.yield %71 : f32
      } -> tensor<f32>
      %60 = linalg.generic {indexing_maps = [#map, #map, #map], iterator_types = []} ins(%59, %cst_7 : tensor<f32>, tensor<f32>) outs(%4 : tensor<f32>) {
      ^bb0(%in: f32, %in_31: f32, %out: f32):
        %71 = arith.mulf %in, %in_31 : f32
        linalg.yield %71 : f32
      } -> tensor<f32>
      %61 = linalg.generic {indexing_maps = [#map, #map, #map], iterator_types = []} ins(%58, %60 : tensor<f32>, tensor<f32>) outs(%4 : tensor<f32>) {
      ^bb0(%in: f32, %in_31: f32, %out: f32):
        %71 = arith.addf %in, %in_31 : f32
        linalg.yield %71 : f32
      } -> tensor<f32>
      %expanded_27 = tensor.expand_shape %56 [] output_shape [1] : tensor<f32> into tensor<1xf32>
      %expanded_28 = tensor.expand_shape %61 [] output_shape [1] : tensor<f32> into tensor<1xf32>
      %concat_29 = tensor.concat dim(0) %expanded_27, %expanded_28 : (tensor<1xf32>, tensor<1xf32>) -> tensor<2xf32>
      %62 = linalg.generic {indexing_maps = [#map9, #map9, #map9], iterator_types = ["parallel"]} ins(%concat_29, %cst_4 : tensor<2xf32>, tensor<2xf32>) outs(%41 : tensor<2xf32>) {
      ^bb0(%in: f32, %in_31: f32, %out: f32):
        %71 = arith.addf %in, %in_31 : f32
        linalg.yield %71 : f32
      } -> tensor<2xf32>
      %63 = linalg.generic {indexing_maps = [#map9, #map9, #map9], iterator_types = ["parallel"]} ins(%62, %cst_5 : tensor<2xf32>, tensor<2xf32>) outs(%41 : tensor<2xf32>) {
      ^bb0(%in: f32, %in_31: f32, %out: f32):
        %71 = arith.addf %in, %in_31 : f32
        linalg.yield %71 : f32
      } -> tensor<2xf32>
      %64 = tensor.empty() : tensor<10x2xf32>
      %65 = linalg.generic {indexing_maps = [#map13, #map14, #map11], iterator_types = ["parallel", "parallel"]} ins(%concat_29, %cst_0 : tensor<2xf32>, tensor<10xf32>) outs(%64 : tensor<10x2xf32>) {
      ^bb0(%in: f32, %in_31: f32, %out: f32):
        %71 = arith.mulf %in, %in_31 : f32
        linalg.yield %71 : f32
      } -> tensor<10x2xf32>
      %66 = linalg.generic {indexing_maps = [#map13, #map14, #map11], iterator_types = ["parallel", "parallel"]} ins(%62, %cst : tensor<2xf32>, tensor<10xf32>) outs(%64 : tensor<10x2xf32>) {
      ^bb0(%in: f32, %in_31: f32, %out: f32):
        %71 = arith.mulf %in, %in_31 : f32
        linalg.yield %71 : f32
      } -> tensor<10x2xf32>
      %67 = linalg.generic {indexing_maps = [#map11, #map11, #map11], iterator_types = ["parallel", "parallel"]} ins(%65, %66 : tensor<10x2xf32>, tensor<10x2xf32>) outs(%64 : tensor<10x2xf32>) {
      ^bb0(%in: f32, %in_31: f32, %out: f32):
        %71 = arith.addf %in, %in_31 : f32
        linalg.yield %71 : f32
      } -> tensor<10x2xf32>
      %68 = linalg.generic {indexing_maps = [#map13, #map14, #map11], iterator_types = ["parallel", "parallel"]} ins(%62, %cst_0 : tensor<2xf32>, tensor<10xf32>) outs(%64 : tensor<10x2xf32>) {
      ^bb0(%in: f32, %in_31: f32, %out: f32):
        %71 = arith.mulf %in, %in_31 : f32
        linalg.yield %71 : f32
      } -> tensor<10x2xf32>
      %69 = linalg.generic {indexing_maps = [#map13, #map14, #map11], iterator_types = ["parallel", "parallel"]} ins(%63, %cst : tensor<2xf32>, tensor<10xf32>) outs(%64 : tensor<10x2xf32>) {
      ^bb0(%in: f32, %in_31: f32, %out: f32):
        %71 = arith.mulf %in, %in_31 : f32
        linalg.yield %71 : f32
      } -> tensor<10x2xf32>
      %70 = linalg.generic {indexing_maps = [#map11, #map11, #map11], iterator_types = ["parallel", "parallel"]} ins(%68, %69 : tensor<10x2xf32>, tensor<10x2xf32>) outs(%64 : tensor<10x2xf32>) {
      ^bb0(%in: f32, %in_31: f32, %out: f32):
        %71 = arith.addf %in, %in_31 : f32
        linalg.yield %71 : f32
      } -> tensor<10x2xf32>
      %extracted_slice = tensor.extract_slice %70[1, 0] [9, 2] [1, 1] : tensor<10x2xf32> to tensor<9x2xf32>
      %concat_30 = tensor.concat dim(0) %67, %extracted_slice : (tensor<10x2xf32>, tensor<9x2xf32>) -> tensor<19x2xf32>
      scf.yield %concat_30 : tensor<19x2xf32>
    }
    %47 = hal.tensor.export %46 : tensor<19x2xf32> -> !hal.buffer_view
    %48 = hal.tensor.export %concat : tensor<3xf32> -> !hal.buffer_view
    hal.fence.signal<%arg5 : !hal.fence>
    util.return %47, %48 : !hal.buffer_view, !hal.buffer_view
  }
  util.func public @main(%arg0: !hal.buffer_view, %arg1: !hal.buffer_view, %arg2: !hal.buffer_view, %arg3: !hal.buffer_view) -> (!hal.buffer_view, !hal.buffer_view) attributes {iree.abi.stub} {
    %c-1_i32 = arith.constant -1 : i32
    %0 = util.null : !hal.fence
    %c0 = arith.constant 0 : index
    %device_0 = hal.devices.get %c0 : !hal.device
    %fence = hal.fence.create device(%device_0 : !hal.device) flags("None") : !hal.fence
    %1:2 = util.call @_main$async(%arg0, %arg1, %arg2, %arg3, %0, %fence) : (!hal.buffer_view, !hal.buffer_view, !hal.buffer_view, !hal.buffer_view, !hal.fence, !hal.fence) -> (!hal.buffer_view, !hal.buffer_view)
    %status = hal.fence.await until([%fence]) timeout_millis(%c-1_i32) flags("None") : i32
    util.return %1#0, %1#1 : !hal.buffer_view, !hal.buffer_view
  }
}
