#executable_target_embedded_elf_x86_64 = #hal.executable.target<"llvm-cpu", "embedded-elf-x86_64", {cpu = "znver3", cpu_features = "+prfchw,-cldemote,+avx,+aes,+sahf,+pclmul,-xop,+crc32,-amx-fp8,+xsaves,-avx512fp16,-usermsr,-sm4,-egpr,+sse4.1,-avx512ifma,+xsave,+sse4.2,-tsxldtrk,-sm3,-ptwrite,-widekl,-movrs,+invpcid,+64bit,+xsavec,-avx10.1-512,-avx512vpopcntdq,+cmov,-avx512vp2intersect,-avx512cd,+movbe,-avxvnniint8,-ccmp,-amx-int8,-kl,-avx10.1-256,-sha512,-avxvnni,-rtm,+adx,+avx2,-hreset,-movdiri,-serialize,+vpclmulqdq,-avx512vl,-uintr,-cf,+clflushopt,-raoint,-cmpccxadd,+bmi,-amx-tile,+sse,-avx10.2-256,-gfni,-avxvnniint16,-amx-fp16,-zu,-ndd,+xsaveopt,+rdrnd,-avx512f,-amx-bf16,-avx512bf16,-avx512vnni,-push2pop2,+cx8,-avx512bw,+sse3,+pku,-nf,-amx-tf32,-amx-avx512,+fsgsbase,+clzero,+mwaitx,-lwp,+lzcnt,+sha,-movdir64b,-ppx,+wbnoinvd,-enqcmd,-amx-transpose,-avx10.2-512,-avxneconvert,-tbm,-pconfig,-amx-complex,+ssse3,+cx16,+bmi2,+fma,+popcnt,-avxifma,+f16c,-avx512bitalg,+rdpru,+clwb,+mmx,+sse2,+rdseed,-avx512vbmi2,-prefetchi,-amx-movrs,+rdpid,-fma4,-avx512vbmi,+shstk,+vaes,-waitpkg,-sgx,+fxsr,-avx512dq,+sse4a", data_layout = "e-m:e-p270:32:32-p271:32:32-p272:64:64-i64:64-i128:128-f80:128-n8:16:32:64-S128", iree.encoding.resolver = #iree_cpu.cpu_encoding_resolver<>, max_stack_allocation_size = 32768 : i64, native_vector_size = 32 : i64, target_triple = "x86_64-unknown-unknown-eabi-elf", ukernels = "all"}>
#map = affine_map<(d0) -> (d0)>
#map1 = affine_map<(d0, d1, d2, d3) -> (d1, d2, d0, d3)>
#map2 = affine_map<(d0, d1, d2, d3) -> (d0, d1, d2, d3)>
#map3 = affine_map<(d0, d1) -> (d0, d1)>
#map4 = affine_map<(d0, d1) -> (d0)>
#map5 = affine_map<(d0, d1, d2) -> (d1, d0, d2)>
#map6 = affine_map<(d0, d1, d2) -> (d0, d1)>
#map7 = affine_map<(d0, d1, d2) -> (d0, d1, d2)>
#map8 = affine_map<(d0, d1, d2) -> (d0, d2)>
#map9 = affine_map<(d0, d1, d2) -> (d0, d2, d1)>
#map10 = affine_map<(d0, d1, d2) -> (d1, d0)>
#map11 = affine_map<(d0, d1, d2) -> (d1, d2)>
#map12 = affine_map<(d0, d1) -> (d1)>
#map13 = affine_map<(d0, d1, d2) -> (d2)>
#device_target_local = #hal.device.target<"local", [#executable_target_embedded_elf_x86_64]> : !hal.device
module attributes {stream.affinity.default = #hal.device.affinity<@__device_0>} {
  util.global private @__device_0 = #device_target_local
  util.func public @main_graph$async(%arg0: !hal.buffer_view, %arg1: !hal.fence, %arg2: !hal.fence) -> !hal.buffer_view attributes {inlining_policy = #util.inline.never, iree.abi.model = "coarse-fences", iree.abi.stub} {
    %cst = arith.constant dense<"…"> : tensor<1024xi8>
    %cst_0 = arith.constant dense<"…"> : tensor<16x1x3x64xi32>
    %cst_1 = arith.constant dense<"…"> : tensor<16x24x32x8x2xi8>
    %cst_2 = arith.constant dense<"…"> : tensor<8x32x8x2xi8>
    %cst_3 = arith.constant dense<"…"> : tensor<1x16x32x8x2xi8>
    %cst_4 = arith.constant dense<"…"> : tensor<128xi32>
    %cst_5 = arith.constant dense<"…"> : tensor<1x8x64x8x2xi8>
    %0 = hal.tensor.import wait(%arg1) => %arg0 : !hal.buffer_view -> tensor<1x16x64xf32>
    %1 = flow.tensor.reshape %0 : tensor<1x16x64xf32> -> tensor<1024xf32>
    %2 = flow.dispatch.workgroups(%1, %cst) : (tensor<1024xf32>, tensor<1024xi8>) -> tensor<1024xi8> =
        (%arg3: !iree_tensor_ext.dispatch.tensor<readonly:tensor<1024xf32>>, %arg4: !iree_tensor_ext.dispatch.tensor<readonly:tensor<1024xi8>>, %arg5: !iree_tensor_ext.dispatch.tensor<writeonly:tensor<1024xi8>>) {
      %cst_6 = arith.constant 0.0221813489 : f32
      %cst_7 = arith.constant 0.0305404775 : f32
      %cst_8 = arith.constant 6.000000e+00 : f32
      %cst_9 = arith.constant -1.280000e+02 : f32
      %cst_10 = arith.constant 1.270000e+02 : f32
      %cst_11 = arith.constant 0.0401942097 : f32
      %cst_12 = arith.constant -6.000000e+00 : f32
      %c-11_i32 = arith.constant -11 : i32
      %c6_i32 = arith.constant 6 : i32
      %51 = iree_tensor_ext.dispatch.tensor.load %arg3, offsets = [0], sizes = [1024], strides = [1] : !iree_tensor_ext.dispatch.tensor<readonly:tensor<1024xf32>> -> tensor<1024xf32>
      %52 = iree_tensor_ext.dispatch.tensor.load %arg4, offsets = [0], sizes = [1024], strides = [1] : !iree_tensor_ext.dispatch.tensor<readonly:tensor<1024xi8>> -> tensor<1024xi8>
      %53 = tensor.empty() : tensor<1024xi8>
      %54 = linalg.generic {indexing_maps = [#map, #map, #map], iterator_types = ["parallel"]} ins(%51, %52 : tensor<1024xf32>, tensor<1024xi8>) outs(%53 : tensor<1024xi8>) {
      ^bb0(%in: f32, %in_13: i8, %out: i8):
        %55 = arith.extsi %in_13 : i8 to i32
        %56 = arith.subi %55, %c-11_i32 : i32
        %57 = arith.sitofp %56 : i32 to f32
        %58 = arith.mulf %57, %cst_6 : f32
        %59 = arith.divf %in, %cst_7 : f32
        %60 = math.roundeven %59 : f32
        %61 = arith.addf %60, %cst_8 : f32
        %62 = arith.maximumf %61, %cst_9 : f32
        %63 = arith.minimumf %62, %cst_10 : f32
        %64 = arith.fptosi %63 : f32 to i8
        %65 = arith.extsi %64 : i8 to i32
        %66 = arith.subi %65, %c6_i32 : i32
        %67 = arith.sitofp %66 : i32 to f32
        %68 = arith.mulf %67, %cst_7 : f32
        %69 = arith.addf %68, %58 : f32
        %70 = arith.divf %69, %cst_11 : f32
        %71 = math.roundeven %70 : f32
        %72 = arith.addf %71, %cst_12 : f32
        %73 = arith.maximumf %72, %cst_9 : f32
        %74 = arith.minimumf %73, %cst_10 : f32
        %75 = arith.fptosi %74 : f32 to i8
        linalg.yield %75 : i8
      } -> tensor<1024xi8>
      iree_tensor_ext.dispatch.tensor.store %54, %arg5, offsets = [0], sizes = [1024], strides = [1] : tensor<1024xi8> -> !iree_tensor_ext.dispatch.tensor<writeonly:tensor<1024xi8>>
      flow.return
    } count() -> (index, index, index) {
      %x, %y, %z = iree_tensor_ext.dispatch.workgroup_count_from_slice()
      flow.return %x, %y, %z : index, index, index
    }
    %3 = flow.tensor.reshape %2 : tensor<1024xi8> -> tensor<16x64xi8>
    %4 = flow.dispatch.workgroups(%2) : (tensor<1024xi8>) -> tensor<1024xi8> =
        (%arg3: !iree_tensor_ext.dispatch.tensor<readonly:tensor<1024xi8>>, %arg4: !iree_tensor_ext.dispatch.tensor<writeonly:tensor<1024xi8>>) {
      %cst_6 = arith.constant -6.000000e+00 : f32
      %cst_7 = arith.constant -1.280000e+02 : f32
      %cst_8 = arith.constant 1.270000e+02 : f32
      %cst_9 = arith.constant 0.0401942097 : f32
      %c-6_i32 = arith.constant -6 : i32
      %51 = iree_tensor_ext.dispatch.tensor.load %arg3, offsets = [0], sizes = [1024], strides = [1] : !iree_tensor_ext.dispatch.tensor<readonly:tensor<1024xi8>> -> tensor<1024xi8>
      %52 = tensor.empty() : tensor<1024xf32>
      %53 = linalg.generic {indexing_maps = [#map, #map], iterator_types = ["parallel"]} ins(%51 : tensor<1024xi8>) outs(%52 : tensor<1024xf32>) {
      ^bb0(%in: i8, %out: f32):
        %56 = arith.extsi %in : i8 to i32
        %57 = arith.subi %56, %c-6_i32 : i32
        %58 = arith.sitofp %57 : i32 to f32
        %59 = arith.mulf %58, %cst_9 : f32
        linalg.yield %59 : f32
      } -> tensor<1024xf32>
      %54 = tensor.empty() : tensor<1024xi8>
      %55 = linalg.generic {indexing_maps = [#map, #map], iterator_types = ["parallel"]} ins(%53 : tensor<1024xf32>) outs(%54 : tensor<1024xi8>) {
      ^bb0(%in: f32, %out: i8):
        %56 = arith.divf %in, %cst_9 : f32
        %57 = math.roundeven %56 : f32
        %58 = arith.addf %57, %cst_6 : f32
        %59 = arith.maximumf %58, %cst_7 : f32
        %60 = arith.minimumf %59, %cst_8 : f32
        %61 = arith.fptosi %60 : f32 to i8
        linalg.yield %61 : i8
      } -> tensor<1024xi8>
      iree_tensor_ext.dispatch.tensor.store %55, %arg4, offsets = [0], sizes = [1024], strides = [1] : tensor<1024xi8> -> !iree_tensor_ext.dispatch.tensor<writeonly:tensor<1024xi8>>
      flow.return
    } count() -> (index, index, index) {
      %x, %y, %z = iree_tensor_ext.dispatch.workgroup_count_from_slice()
      flow.return %x, %y, %z : index, index, index
    }
    %5 = flow.tensor.reshape %4 : tensor<1024xi8> -> tensor<16x1x64xi8>
    %6 = flow.dispatch.workgroups(%5) : (tensor<16x1x64xi8>) -> tensor<16x1x32x1x2xi8> =
        (%arg3: !iree_tensor_ext.dispatch.tensor<readonly:tensor<16x1x64xi8>>, %arg4: !iree_tensor_ext.dispatch.tensor<writeonly:tensor<16x1x32x1x2xi8>>) {
      %51 = iree_tensor_ext.dispatch.tensor.load %arg3, offsets = [0, 0, 0], sizes = [16, 1, 64], strides = [1, 1, 1] : !iree_tensor_ext.dispatch.tensor<readonly:tensor<16x1x64xi8>> -> tensor<16x1x64xi8>
      %52 = tensor.empty() : tensor<16x1x32x1x2xi8>
      %pack = linalg.pack %51 outer_dims_perm = [0, 1, 2] inner_dims_pos = [1, 2] inner_tiles = [1, 2] into %52 : tensor<16x1x64xi8> -> tensor<16x1x32x1x2xi8>
      iree_tensor_ext.dispatch.tensor.store %pack, %arg4, offsets = [0, 0, 0, 0, 0], sizes = [16, 1, 32, 1, 2], strides = [1, 1, 1, 1, 1] : tensor<16x1x32x1x2xi8> -> !iree_tensor_ext.dispatch.tensor<writeonly:tensor<16x1x32x1x2xi8>>
      flow.return
    } count() -> (index, index, index) {
      %x, %y, %z = iree_tensor_ext.dispatch.workgroup_count_from_slice()
      flow.return %x, %y, %z : index, index, index
    }
    %7 = flow.dispatch.workgroups(%6, %cst_1) : (tensor<16x1x32x1x2xi8>, tensor<16x24x32x8x2xi8>) -> tensor<16x1x24x1x8xi32> =
        (%arg3: !iree_tensor_ext.dispatch.tensor<readonly:tensor<16x1x32x1x2xi8>>, %arg4: !iree_tensor_ext.dispatch.tensor<readonly:tensor<16x24x32x8x2xi8>>, %arg5: !iree_tensor_ext.dispatch.tensor<writeonly:tensor<16x1x24x1x8xi32>>) {
      %c0_i32 = arith.constant 0 : i32
      %51 = iree_tensor_ext.dispatch.tensor.load %arg3, offsets = [0, 0, 0, 0, 0], sizes = [16, 1, 32, 1, 2], strides = [1, 1, 1, 1, 1] : !iree_tensor_ext.dispatch.tensor<readonly:tensor<16x1x32x1x2xi8>> -> tensor<16x1x32x1x2xi8>
      %52 = iree_tensor_ext.dispatch.tensor.load %arg4, offsets = [0, 0, 0, 0, 0], sizes = [16, 24, 32, 8, 2], strides = [1, 1, 1, 1, 1] : !iree_tensor_ext.dispatch.tensor<readonly:tensor<16x24x32x8x2xi8>> -> tensor<16x24x32x8x2xi8>
      %53 = tensor.empty() : tensor<16x1x24x1x8xi32>
      %54 = linalg.fill ins(%c0_i32 : i32) outs(%53 : tensor<16x1x24x1x8xi32>) -> tensor<16x1x24x1x8xi32>
      %55 = linalg.batch_mmt4d ins(%51, %52 : tensor<16x1x32x1x2xi8>, tensor<16x24x32x8x2xi8>) outs(%54 : tensor<16x1x24x1x8xi32>) -> tensor<16x1x24x1x8xi32>
      iree_tensor_ext.dispatch.tensor.store %55, %arg5, offsets = [0, 0, 0, 0, 0], sizes = [16, 1, 24, 1, 8], strides = [1, 1, 1, 1, 1] : tensor<16x1x24x1x8xi32> -> !iree_tensor_ext.dispatch.tensor<writeonly:tensor<16x1x24x1x8xi32>>
      flow.return
    } count() -> (index, index, index) {
      %x, %y, %z = iree_tensor_ext.dispatch.workgroup_count_from_slice()
      flow.return %x, %y, %z : index, index, index
    }
    %8 = flow.tensor.reshape %7 : tensor<16x1x24x1x8xi32> -> tensor<16x1x3x8x1x8xi32>
    %9 = flow.dispatch.workgroups(%8, %cst_0) : (tensor<16x1x3x8x1x8xi32>, tensor<16x1x3x64xi32>) -> tensor<3x16x1x64xi8> =
        (%arg3: !iree_tensor_ext.dispatch.tensor<readonly:tensor<16x1x3x8x1x8xi32>>, %arg4: !iree_tensor_ext.dispatch.tensor<readonly:tensor<16x1x3x64xi32>>, %arg5: !iree_tensor_ext.dispatch.tensor<writeonly:tensor<3x16x1x64xi8>>) {
      %cst_6 = arith.constant 4.84503726E-5 : f32
      %cst_7 = arith.constant 0.0303649548 : f32
      %cst_8 = arith.constant -3.000000e+00 : f32
      %cst_9 = arith.constant -1.280000e+02 : f32
      %cst_10 = arith.constant 1.270000e+02 : f32
      %cst_11 = arith.constant 0.000000e+00 : f32
      %c-6_i32 = arith.constant -6 : i32
      %c-3_i32 = arith.constant -3 : i32
      %51 = iree_tensor_ext.dispatch.tensor.load %arg3, offsets = [0, 0, 0, 0, 0, 0], sizes = [16, 1, 3, 8, 1, 8], strides = [1, 1, 1, 1, 1, 1] : !iree_tensor_ext.dispatch.tensor<readonly:tensor<16x1x3x8x1x8xi32>> -> tensor<16x1x3x8x1x8xi32>
      %52 = iree_tensor_ext.dispatch.tensor.load %arg4, offsets = [0, 0, 0, 0], sizes = [16, 1, 3, 64], strides = [1, 1, 1, 1] : !iree_tensor_ext.dispatch.tensor<readonly:tensor<16x1x3x64xi32>> -> tensor<16x1x3x64xi32>
      %53 = tensor.empty() : tensor<3x16x1x64xi8>
      %54 = tensor.empty() : tensor<16x1x3x64xi32>
      %unpack = linalg.unpack %51 outer_dims_perm = [0, 1, 2, 3] inner_dims_pos = [1, 3] inner_tiles = [1, 8] into %54 : tensor<16x1x3x8x1x8xi32> -> tensor<16x1x3x64xi32>
      %55 = linalg.generic {indexing_maps = [#map1, #map1, #map2], iterator_types = ["parallel", "parallel", "parallel", "parallel"]} ins(%unpack, %52 : tensor<16x1x3x64xi32>, tensor<16x1x3x64xi32>) outs(%53 : tensor<3x16x1x64xi8>) {
      ^bb0(%in: i32, %in_12: i32, %out: i8):
        %56 = arith.muli %in_12, %c-6_i32 : i32
        %57 = arith.subi %in, %56 : i32
        %58 = arith.sitofp %57 : i32 to f32
        %59 = arith.mulf %58, %cst_6 : f32
        %60 = arith.divf %59, %cst_7 : f32
        %61 = math.roundeven %60 : f32
        %62 = arith.addf %61, %cst_8 : f32
        %63 = arith.maximumf %62, %cst_9 : f32
        %64 = arith.minimumf %63, %cst_10 : f32
        %65 = arith.fptosi %64 : f32 to i8
        %66 = arith.extsi %65 : i8 to i32
        %67 = arith.subi %66, %c-3_i32 : i32
        %68 = arith.sitofp %67 : i32 to f32
        %69 = arith.mulf %68, %cst_7 : f32
        %70 = arith.addf %69, %cst_11 : f32
        %71 = arith.divf %70, %cst_7 : f32
        %72 = math.roundeven %71 : f32
        %73 = arith.addf %72, %cst_8 : f32
        %74 = arith.maximumf %73, %cst_9 : f32
        %75 = arith.minimumf %74, %cst_10 : f32
        %76 = arith.fptosi %75 : f32 to i8
        %77 = arith.extsi %76 : i8 to i32
        %78 = arith.subi %77, %c-3_i32 : i32
        %79 = arith.sitofp %78 : i32 to f32
        %80 = arith.mulf %79, %cst_7 : f32
        %81 = arith.divf %80, %cst_7 : f32
        %82 = math.roundeven %81 : f32
        %83 = arith.addf %82, %cst_8 : f32
        %84 = arith.maximumf %83, %cst_9 : f32
        %85 = arith.minimumf %84, %cst_10 : f32
        %86 = arith.fptosi %85 : f32 to i8
        %87 = arith.extsi %86 : i8 to i32
        %88 = arith.subi %87, %c-3_i32 : i32
        %89 = arith.sitofp %88 : i32 to f32
        %90 = arith.mulf %89, %cst_7 : f32
        %91 = arith.divf %90, %cst_7 : f32
        %92 = math.roundeven %91 : f32
        %93 = arith.addf %92, %cst_8 : f32
        %94 = arith.maximumf %93, %cst_9 : f32
        %95 = arith.minimumf %94, %cst_10 : f32
        %96 = arith.fptosi %95 : f32 to i8
        %97 = arith.extsi %96 : i8 to i32
        %98 = arith.subi %97, %c-3_i32 : i32
        %99 = arith.sitofp %98 : i32 to f32
        %100 = arith.mulf %99, %cst_7 : f32
        %101 = arith.divf %100, %cst_7 : f32
        %102 = math.roundeven %101 : f32
        %103 = arith.addf %102, %cst_8 : f32
        %104 = arith.maximumf %103, %cst_9 : f32
        %105 = arith.minimumf %104, %cst_10 : f32
        %106 = arith.fptosi %105 : f32 to i8
        %107 = arith.extsi %106 : i8 to i32
        %108 = arith.subi %107, %c-3_i32 : i32
        %109 = arith.sitofp %108 : i32 to f32
        %110 = arith.mulf %109, %cst_7 : f32
        %111 = arith.divf %110, %cst_7 : f32
        %112 = math.roundeven %111 : f32
        %113 = arith.addf %112, %cst_8 : f32
        %114 = arith.maximumf %113, %cst_9 : f32
        %115 = arith.minimumf %114, %cst_10 : f32
        %116 = arith.fptosi %115 : f32 to i8
        linalg.yield %116 : i8
      } -> tensor<3x16x1x64xi8>
      iree_tensor_ext.dispatch.tensor.store %55, %arg5, offsets = [0, 0, 0, 0], sizes = [3, 16, 1, 64], strides = [1, 1, 1, 1] : tensor<3x16x1x64xi8> -> !iree_tensor_ext.dispatch.tensor<writeonly:tensor<3x16x1x64xi8>>
      flow.return
    } count() -> (index, index, index) {
      %x, %y, %z = iree_tensor_ext.dispatch.workgroup_count_from_slice()
      flow.return %x, %y, %z : index, index, index
    }
    %10 = flow.dispatch.workgroups(%9) : (tensor<3x16x1x64xi8>) -> tensor<1024xi8> =
        (%arg3: !iree_tensor_ext.dispatch.tensor<readonly:tensor<3x16x1x64xi8>>, %arg4: !iree_tensor_ext.dispatch.tensor<writeonly:tensor<1024xi8>>) {
      %c16 = arith.constant 16 : index
      %cst_6 = arith.constant 0.0303649548 : f32
      %cst_7 = arith.constant -3.000000e+00 : f32
      %cst_8 = arith.constant -1.280000e+02 : f32
      %cst_9 = arith.constant 1.270000e+02 : f32
      %c8 = arith.constant 8 : index
      %c2 = arith.constant 2 : index
      %c0 = arith.constant 0 : index
      %c-3_i32 = arith.constant -3 : i32
      %51 = iree_tensor_ext.dispatch.tensor.load %arg3, offsets = [0, 0, 0, 0], sizes = [3, 16, 1, 64], strides = [1, 1, 1, 1] : !iree_tensor_ext.dispatch.tensor<readonly:tensor<3x16x1x64xi8>> -> tensor<3x16x1x64xi8>
      %52 = tensor.empty() : tensor<1024xi8>
      %53 = linalg.generic {indexing_maps = [#map], iterator_types = ["parallel"]} outs(%52 : tensor<1024xi8>) {
      ^bb0(%out: i8):
        %54 = linalg.index 0 : index
        %55 = arith.remsi %54, %c8 : index
        %56 = arith.divsi %54, %c8 : index
        %57 = arith.remsi %56, %c16 : index
        %58 = arith.divsi %56, %c16 : index
        %59 = arith.muli %58, %c8 overflow<nsw> : index
        %60 = arith.addi %55, %59 : index
        %extracted = tensor.extract %51[%c2, %57, %c0, %60] : tensor<3x16x1x64xi8>
        %61 = arith.extsi %extracted : i8 to i32
        %62 = arith.subi %61, %c-3_i32 : i32
        %63 = arith.sitofp %62 : i32 to f32
        %64 = arith.mulf %63, %cst_6 : f32
        %65 = arith.divf %64, %cst_6 : f32
        %66 = math.roundeven %65 : f32
        %67 = arith.addf %66, %cst_7 : f32
        %68 = arith.maximumf %67, %cst_8 : f32
        %69 = arith.minimumf %68, %cst_9 : f32
        %70 = arith.fptosi %69 : f32 to i8
        %71 = arith.extsi %70 : i8 to i32
        %72 = arith.subi %71, %c-3_i32 : i32
        %73 = arith.sitofp %72 : i32 to f32
        %74 = arith.mulf %73, %cst_6 : f32
        %75 = arith.divf %74, %cst_6 : f32
        %76 = math.roundeven %75 : f32
        %77 = arith.addf %76, %cst_7 : f32
        %78 = arith.maximumf %77, %cst_8 : f32
        %79 = arith.minimumf %78, %cst_9 : f32
        %80 = arith.fptosi %79 : f32 to i8
        %81 = arith.extsi %80 : i8 to i32
        %82 = arith.subi %81, %c-3_i32 : i32
        %83 = arith.sitofp %82 : i32 to f32
        %84 = arith.mulf %83, %cst_6 : f32
        %85 = arith.divf %84, %cst_6 : f32
        %86 = math.roundeven %85 : f32
        %87 = arith.addf %86, %cst_7 : f32
        %88 = arith.maximumf %87, %cst_8 : f32
        %89 = arith.minimumf %88, %cst_9 : f32
        %90 = arith.fptosi %89 : f32 to i8
        %91 = arith.extsi %90 : i8 to i32
        %92 = arith.subi %91, %c-3_i32 : i32
        %93 = arith.sitofp %92 : i32 to f32
        %94 = arith.mulf %93, %cst_6 : f32
        %95 = arith.divf %94, %cst_6 : f32
        %96 = math.roundeven %95 : f32
        %97 = arith.addf %96, %cst_7 : f32
        %98 = arith.maximumf %97, %cst_8 : f32
        %99 = arith.minimumf %98, %cst_9 : f32
        %100 = arith.fptosi %99 : f32 to i8
        linalg.yield %100 : i8
      } -> tensor<1024xi8>
      iree_tensor_ext.dispatch.tensor.store %53, %arg4, offsets = [0], sizes = [1024], strides = [1] : tensor<1024xi8> -> !iree_tensor_ext.dispatch.tensor<writeonly:tensor<1024xi8>>
      flow.return
    } count() -> (index, index, index) {
      %x, %y, %z = iree_tensor_ext.dispatch.workgroup_count_from_slice()
      flow.return %x, %y, %z : index, index, index
    }
    %11 = flow.tensor.reshape %10 : tensor<1024xi8> -> tensor<8x16x8xi8>
    %12 = flow.dispatch.workgroups(%9) : (tensor<3x16x1x64xi8>) -> tensor<1024xi8> =
        (%arg3: !iree_tensor_ext.dispatch.tensor<readonly:tensor<3x16x1x64xi8>>, %arg4: !iree_tensor_ext.dispatch.tensor<writeonly:tensor<1024xi8>>) {
      %c16 = arith.constant 16 : index
      %cst_6 = arith.constant 0.0303649548 : f32
      %cst_7 = arith.constant -3.000000e+00 : f32
      %cst_8 = arith.constant -1.280000e+02 : f32
      %cst_9 = arith.constant 1.270000e+02 : f32
      %cst_10 = arith.constant 0.594603539 : f32
      %cst_11 = arith.constant 0.0174676217 : f32
      %cst_12 = arith.constant -7.000000e+00 : f32
      %c8 = arith.constant 8 : index
      %c0 = arith.constant 0 : index
      %c-3_i32 = arith.constant -3 : i32
      %51 = iree_tensor_ext.dispatch.tensor.load %arg3, offsets = [0, 0, 0, 0], sizes = [3, 16, 1, 64], strides = [1, 1, 1, 1] : !iree_tensor_ext.dispatch.tensor<readonly:tensor<3x16x1x64xi8>> -> tensor<3x16x1x64xi8>
      %52 = tensor.empty() : tensor<1024xi8>
      %53 = linalg.generic {indexing_maps = [#map], iterator_types = ["parallel"]} outs(%52 : tensor<1024xi8>) {
      ^bb0(%out: i8):
        %54 = linalg.index 0 : index
        %55 = arith.remsi %54, %c8 : index
        %56 = arith.divsi %54, %c8 : index
        %57 = arith.remsi %56, %c16 : index
        %58 = arith.divsi %56, %c16 : index
        %59 = arith.muli %58, %c8 overflow<nsw> : index
        %60 = arith.addi %55, %59 : index
        %extracted = tensor.extract %51[%c0, %57, %c0, %60] : tensor<3x16x1x64xi8>
        %61 = arith.extsi %extracted : i8 to i32
        %62 = arith.subi %61, %c-3_i32 : i32
        %63 = arith.sitofp %62 : i32 to f32
        %64 = arith.mulf %63, %cst_6 : f32
        %65 = arith.divf %64, %cst_6 : f32
        %66 = math.roundeven %65 : f32
        %67 = arith.addf %66, %cst_7 : f32
        %68 = arith.maximumf %67, %cst_8 : f32
        %69 = arith.minimumf %68, %cst_9 : f32
        %70 = arith.fptosi %69 : f32 to i8
        %71 = arith.extsi %70 : i8 to i32
        %72 = arith.subi %71, %c-3_i32 : i32
        %73 = arith.sitofp %72 : i32 to f32
        %74 = arith.mulf %73, %cst_6 : f32
        %75 = arith.divf %74, %cst_6 : f32
        %76 = math.roundeven %75 : f32
        %77 = arith.addf %76, %cst_7 : f32
        %78 = arith.maximumf %77, %cst_8 : f32
        %79 = arith.minimumf %78, %cst_9 : f32
        %80 = arith.fptosi %79 : f32 to i8
        %81 = arith.extsi %80 : i8 to i32
        %82 = arith.subi %81, %c-3_i32 : i32
        %83 = arith.sitofp %82 : i32 to f32
        %84 = arith.mulf %83, %cst_6 : f32
        %85 = arith.divf %84, %cst_6 : f32
        %86 = math.roundeven %85 : f32
        %87 = arith.addf %86, %cst_7 : f32
        %88 = arith.maximumf %87, %cst_8 : f32
        %89 = arith.minimumf %88, %cst_9 : f32
        %90 = arith.fptosi %89 : f32 to i8
        %91 = arith.extsi %90 : i8 to i32
        %92 = arith.subi %91, %c-3_i32 : i32
        %93 = arith.sitofp %92 : i32 to f32
        %94 = arith.mulf %93, %cst_6 : f32
        %95 = arith.divf %94, %cst_6 : f32
        %96 = math.roundeven %95 : f32
        %97 = arith.addf %96, %cst_7 : f32
        %98 = arith.maximumf %97, %cst_8 : f32
        %99 = arith.minimumf %98, %cst_9 : f32
        %100 = arith.fptosi %99 : f32 to i8
        %101 = arith.extsi %100 : i8 to i32
        %102 = arith.subi %101, %c-3_i32 : i32
        %103 = arith.sitofp %102 : i32 to f32
        %104 = arith.mulf %103, %cst_6 : f32
        %105 = arith.mulf %104, %cst_10 : f32
        %106 = arith.divf %105, %cst_11 : f32
        %107 = math.roundeven %106 : f32
        %108 = arith.addf %107, %cst_12 : f32
        %109 = arith.maximumf %108, %cst_8 : f32
        %110 = arith.minimumf %109, %cst_9 : f32
        %111 = arith.fptosi %110 : f32 to i8
        linalg.yield %111 : i8
      } -> tensor<1024xi8>
      iree_tensor_ext.dispatch.tensor.store %53, %arg4, offsets = [0], sizes = [1024], strides = [1] : tensor<1024xi8> -> !iree_tensor_ext.dispatch.tensor<writeonly:tensor<1024xi8>>
      flow.return
    } count() -> (index, index, index) {
      %x, %y, %z = iree_tensor_ext.dispatch.workgroup_count_from_slice()
      flow.return %x, %y, %z : index, index, index
    }
    %13 = flow.tensor.reshape %12 : tensor<1024xi8> -> tensor<8x16x8xi8>
    %14 = flow.dispatch.workgroups(%9) : (tensor<3x16x1x64xi8>) -> tensor<1024xi8> =
        (%arg3: !iree_tensor_ext.dispatch.tensor<readonly:tensor<3x16x1x64xi8>>, %arg4: !iree_tensor_ext.dispatch.tensor<writeonly:tensor<1024xi8>>) {
      %cst_6 = arith.constant 0.0303649548 : f32
      %cst_7 = arith.constant -3.000000e+00 : f32
      %cst_8 = arith.constant -1.280000e+02 : f32
      %cst_9 = arith.constant 1.270000e+02 : f32
      %cst_10 = arith.constant 0.594603539 : f32
      %cst_11 = arith.constant 0.0163703207 : f32
      %cst_12 = arith.constant 7.000000e+00 : f32
      %c8 = arith.constant 8 : index
      %c1 = arith.constant 1 : index
      %c0 = arith.constant 0 : index
      %c-3_i32 = arith.constant -3 : i32
      %51 = iree_tensor_ext.dispatch.tensor.load %arg3, offsets = [0, 0, 0, 0], sizes = [3, 16, 1, 64], strides = [1, 1, 1, 1] : !iree_tensor_ext.dispatch.tensor<readonly:tensor<3x16x1x64xi8>> -> tensor<3x16x1x64xi8>
      %52 = tensor.empty() : tensor<1024xi8>
      %53 = linalg.generic {indexing_maps = [#map], iterator_types = ["parallel"]} outs(%52 : tensor<1024xi8>) {
      ^bb0(%out: i8):
        %54 = linalg.index 0 : index
        %55 = arith.remsi %54, %c8 : index
        %56 = arith.divsi %54, %c8 : index
        %57 = arith.remsi %56, %c8 : index
        %58 = arith.divsi %56, %c8 : index
        %59 = arith.muli %57, %c8 overflow<nsw> : index
        %60 = arith.addi %55, %59 : index
        %extracted = tensor.extract %51[%c1, %58, %c0, %60] : tensor<3x16x1x64xi8>
        %61 = arith.extsi %extracted : i8 to i32
        %62 = arith.subi %61, %c-3_i32 : i32
        %63 = arith.sitofp %62 : i32 to f32
        %64 = arith.mulf %63, %cst_6 : f32
        %65 = arith.divf %64, %cst_6 : f32
        %66 = math.roundeven %65 : f32
        %67 = arith.addf %66, %cst_7 : f32
        %68 = arith.maximumf %67, %cst_8 : f32
        %69 = arith.minimumf %68, %cst_9 : f32
        %70 = arith.fptosi %69 : f32 to i8
        %71 = arith.extsi %70 : i8 to i32
        %72 = arith.subi %71, %c-3_i32 : i32
        %73 = arith.sitofp %72 : i32 to f32
        %74 = arith.mulf %73, %cst_6 : f32
        %75 = arith.divf %74, %cst_6 : f32
        %76 = math.roundeven %75 : f32
        %77 = arith.addf %76, %cst_7 : f32
        %78 = arith.maximumf %77, %cst_8 : f32
        %79 = arith.minimumf %78, %cst_9 : f32
        %80 = arith.fptosi %79 : f32 to i8
        %81 = arith.extsi %80 : i8 to i32
        %82 = arith.subi %81, %c-3_i32 : i32
        %83 = arith.sitofp %82 : i32 to f32
        %84 = arith.mulf %83, %cst_6 : f32
        %85 = arith.divf %84, %cst_6 : f32
        %86 = math.roundeven %85 : f32
        %87 = arith.addf %86, %cst_7 : f32
        %88 = arith.maximumf %87, %cst_8 : f32
        %89 = arith.minimumf %88, %cst_9 : f32
        %90 = arith.fptosi %89 : f32 to i8
        %91 = arith.extsi %90 : i8 to i32
        %92 = arith.subi %91, %c-3_i32 : i32
        %93 = arith.sitofp %92 : i32 to f32
        %94 = arith.mulf %93, %cst_6 : f32
        %95 = arith.divf %94, %cst_6 : f32
        %96 = math.roundeven %95 : f32
        %97 = arith.addf %96, %cst_7 : f32
        %98 = arith.maximumf %97, %cst_8 : f32
        %99 = arith.minimumf %98, %cst_9 : f32
        %100 = arith.fptosi %99 : f32 to i8
        %101 = arith.extsi %100 : i8 to i32
        %102 = arith.subi %101, %c-3_i32 : i32
        %103 = arith.sitofp %102 : i32 to f32
        %104 = arith.mulf %103, %cst_6 : f32
        %105 = arith.divf %104, %cst_6 : f32
        %106 = math.roundeven %105 : f32
        %107 = arith.addf %106, %cst_7 : f32
        %108 = arith.maximumf %107, %cst_8 : f32
        %109 = arith.minimumf %108, %cst_9 : f32
        %110 = arith.fptosi %109 : f32 to i8
        %111 = arith.extsi %110 : i8 to i32
        %112 = arith.subi %111, %c-3_i32 : i32
        %113 = arith.sitofp %112 : i32 to f32
        %114 = arith.mulf %113, %cst_6 : f32
        %115 = arith.mulf %114, %cst_10 : f32
        %116 = arith.divf %115, %cst_11 : f32
        %117 = math.roundeven %116 : f32
        %118 = arith.addf %117, %cst_12 : f32
        %119 = arith.maximumf %118, %cst_8 : f32
        %120 = arith.minimumf %119, %cst_9 : f32
        %121 = arith.fptosi %120 : f32 to i8
        linalg.yield %121 : i8
      } -> tensor<1024xi8>
      iree_tensor_ext.dispatch.tensor.store %53, %arg4, offsets = [0], sizes = [1024], strides = [1] : tensor<1024xi8> -> !iree_tensor_ext.dispatch.tensor<writeonly:tensor<1024xi8>>
      flow.return
    } count() -> (index, index, index) {
      %x, %y, %z = iree_tensor_ext.dispatch.workgroup_count_from_slice()
      flow.return %x, %y, %z : index, index, index
    }
    %15 = flow.tensor.reshape %14 : tensor<1024xi8> -> tensor<16x8x8xi8>
    %16 = flow.dispatch.workgroups(%13) : (tensor<8x16x8xi8>) -> tensor<8x2x4x8x2xi8> =
        (%arg3: !iree_tensor_ext.dispatch.tensor<readonly:tensor<8x16x8xi8>>, %arg4: !iree_tensor_ext.dispatch.tensor<writeonly:tensor<8x2x4x8x2xi8>>) {
      %51 = iree_tensor_ext.dispatch.tensor.load %arg3, offsets = [0, 0, 0], sizes = [8, 16, 8], strides = [1, 1, 1] : !iree_tensor_ext.dispatch.tensor<readonly:tensor<8x16x8xi8>> -> tensor<8x16x8xi8>
      %52 = tensor.empty() : tensor<8x2x4x8x2xi8>
      %pack = linalg.pack %51 outer_dims_perm = [0, 1, 2] inner_dims_pos = [1, 2] inner_tiles = [8, 2] into %52 : tensor<8x16x8xi8> -> tensor<8x2x4x8x2xi8>
      iree_tensor_ext.dispatch.tensor.store %pack, %arg4, offsets = [0, 0, 0, 0, 0], sizes = [8, 2, 4, 8, 2], strides = [1, 1, 1, 1, 1] : tensor<8x2x4x8x2xi8> -> !iree_tensor_ext.dispatch.tensor<writeonly:tensor<8x2x4x8x2xi8>>
      flow.return
    } count() -> (index, index, index) {
      %x, %y, %z = iree_tensor_ext.dispatch.workgroup_count_from_slice()
      flow.return %x, %y, %z : index, index, index
    }
    %17 = flow.dispatch.workgroups(%15) : (tensor<16x8x8xi8>) -> tensor<8x2x4x8x2xi8> =
        (%arg3: !iree_tensor_ext.dispatch.tensor<readonly:tensor<16x8x8xi8>>, %arg4: !iree_tensor_ext.dispatch.tensor<writeonly:tensor<8x2x4x8x2xi8>>) {
      %51 = iree_tensor_ext.dispatch.tensor.load %arg3, offsets = [0, 0, 0], sizes = [16, 8, 8], strides = [1, 1, 1] : !iree_tensor_ext.dispatch.tensor<readonly:tensor<16x8x8xi8>> -> tensor<16x8x8xi8>
      %52 = tensor.empty() : tensor<8x2x4x8x2xi8>
      %pack = linalg.pack %51 outer_dims_perm = [1, 0, 2] inner_dims_pos = [0, 2] inner_tiles = [8, 2] into %52 : tensor<16x8x8xi8> -> tensor<8x2x4x8x2xi8>
      iree_tensor_ext.dispatch.tensor.store %pack, %arg4, offsets = [0, 0, 0, 0, 0], sizes = [8, 2, 4, 8, 2], strides = [1, 1, 1, 1, 1] : tensor<8x2x4x8x2xi8> -> !iree_tensor_ext.dispatch.tensor<writeonly:tensor<8x2x4x8x2xi8>>
      flow.return
    } count() -> (index, index, index) {
      %x, %y, %z = iree_tensor_ext.dispatch.workgroup_count_from_slice()
      flow.return %x, %y, %z : index, index, index
    }
    %18 = flow.dispatch.workgroups(%16, %17) : (tensor<8x2x4x8x2xi8>, tensor<8x2x4x8x2xi8>) -> tensor<8x2x2x8x8xi32> =
        (%arg3: !iree_tensor_ext.dispatch.tensor<readonly:tensor<8x2x4x8x2xi8>>, %arg4: !iree_tensor_ext.dispatch.tensor<readonly:tensor<8x2x4x8x2xi8>>, %arg5: !iree_tensor_ext.dispatch.tensor<writeonly:tensor<8x2x2x8x8xi32>>) {
      %c0_i32 = arith.constant 0 : i32
      %51 = iree_tensor_ext.dispatch.tensor.load %arg3, offsets = [0, 0, 0, 0, 0], sizes = [8, 2, 4, 8, 2], strides = [1, 1, 1, 1, 1] : !iree_tensor_ext.dispatch.tensor<readonly:tensor<8x2x4x8x2xi8>> -> tensor<8x2x4x8x2xi8>
      %52 = iree_tensor_ext.dispatch.tensor.load %arg4, offsets = [0, 0, 0, 0, 0], sizes = [8, 2, 4, 8, 2], strides = [1, 1, 1, 1, 1] : !iree_tensor_ext.dispatch.tensor<readonly:tensor<8x2x4x8x2xi8>> -> tensor<8x2x4x8x2xi8>
      %53 = tensor.empty() : tensor<8x2x2x8x8xi32>
      %54 = linalg.fill ins(%c0_i32 : i32) outs(%53 : tensor<8x2x2x8x8xi32>) -> tensor<8x2x2x8x8xi32>
      %55 = linalg.batch_mmt4d ins(%51, %52 : tensor<8x2x4x8x2xi8>, tensor<8x2x4x8x2xi8>) outs(%54 : tensor<8x2x2x8x8xi32>) -> tensor<8x2x2x8x8xi32>
      iree_tensor_ext.dispatch.tensor.store %55, %arg5, offsets = [0, 0, 0, 0, 0], sizes = [8, 2, 2, 8, 8], strides = [1, 1, 1, 1, 1] : tensor<8x2x2x8x8xi32> -> !iree_tensor_ext.dispatch.tensor<writeonly:tensor<8x2x2x8x8xi32>>
      flow.return
    } count() -> (index, index, index) {
      %x, %y, %z = iree_tensor_ext.dispatch.workgroup_count_from_slice()
      flow.return %x, %y, %z : index, index, index
    }
    %19 = flow.tensor.reshape %12 : tensor<1024xi8> -> tensor<128x8xi8>
    %20 = flow.dispatch.workgroups(%19) : (tensor<128x8xi8>) -> tensor<128xi32> =
        (%arg3: !iree_tensor_ext.dispatch.tensor<readonly:tensor<128x8xi8>>, %arg4: !iree_tensor_ext.dispatch.tensor<writeonly:tensor<128xi32>>) {
      %c0_i32 = arith.constant 0 : i32
      %51 = iree_tensor_ext.dispatch.tensor.load %arg3, offsets = [0, 0], sizes = [128, 8], strides = [1, 1] : !iree_tensor_ext.dispatch.tensor<readonly:tensor<128x8xi8>> -> tensor<128x8xi8>
      %52 = tensor.empty() : tensor<128xi32>
      %53 = linalg.fill ins(%c0_i32 : i32) outs(%52 : tensor<128xi32>) -> tensor<128xi32>
      %54 = linalg.generic {indexing_maps = [#map3, #map4], iterator_types = ["parallel", "reduction"]} ins(%51 : tensor<128x8xi8>) outs(%53 : tensor<128xi32>) {
      ^bb0(%in: i8, %out: i32):
        %55 = arith.extsi %in : i8 to i32
        %56 = arith.addi %55, %out : i32
        linalg.yield %56 : i32
      } -> tensor<128xi32>
      iree_tensor_ext.dispatch.tensor.store %54, %arg4, offsets = [0], sizes = [128], strides = [1] : tensor<128xi32> -> !iree_tensor_ext.dispatch.tensor<writeonly:tensor<128xi32>>
      flow.return
    } count() -> (index, index, index) {
      %x, %y, %z = iree_tensor_ext.dispatch.workgroup_count_from_slice()
      flow.return %x, %y, %z : index, index, index
    }
    %21 = flow.tensor.reshape %20 : tensor<128xi32> -> tensor<8x16xi32>
    %22 = flow.dispatch.workgroups(%15) : (tensor<16x8x8xi8>) -> tensor<8x16xi32> =
        (%arg3: !iree_tensor_ext.dispatch.tensor<readonly:tensor<16x8x8xi8>>, %arg4: !iree_tensor_ext.dispatch.tensor<writeonly:tensor<8x16xi32>>) {
      %c0_i32 = arith.constant 0 : i32
      %51 = iree_tensor_ext.dispatch.tensor.load %arg3, offsets = [0, 0, 0], sizes = [16, 8, 8], strides = [1, 1, 1] : !iree_tensor_ext.dispatch.tensor<readonly:tensor<16x8x8xi8>> -> tensor<16x8x8xi8>
      %52 = tensor.empty() : tensor<8x16xi32>
      %53 = linalg.fill ins(%c0_i32 : i32) outs(%52 : tensor<8x16xi32>) -> tensor<8x16xi32>
      %54 = linalg.generic {indexing_maps = [#map5, #map6], iterator_types = ["parallel", "parallel", "reduction"]} ins(%51 : tensor<16x8x8xi8>) outs(%53 : tensor<8x16xi32>) {
      ^bb0(%in: i8, %out: i32):
        %55 = arith.extsi %in : i8 to i32
        %56 = arith.addi %55, %out : i32
        linalg.yield %56 : i32
      } -> tensor<8x16xi32>
      iree_tensor_ext.dispatch.tensor.store %54, %arg4, offsets = [0, 0], sizes = [8, 16], strides = [1, 1] : tensor<8x16xi32> -> !iree_tensor_ext.dispatch.tensor<writeonly:tensor<8x16xi32>>
      flow.return
    } count() -> (index, index, index) {
      %x, %y, %z = iree_tensor_ext.dispatch.workgroup_count_from_slice()
      flow.return %x, %y, %z : index, index, index
    }
    %23 = flow.dispatch.workgroups(%18, %21, %22) : (tensor<8x2x2x8x8xi32>, tensor<8x16xi32>, tensor<8x16xi32>) -> tensor<8x16x16xf32> =
        (%arg3: !iree_tensor_ext.dispatch.tensor<readonly:tensor<8x2x2x8x8xi32>>, %arg4: !iree_tensor_ext.dispatch.tensor<readonly:tensor<8x16xi32>>, %arg5: !iree_tensor_ext.dispatch.tensor<readonly:tensor<8x16xi32>>, %arg6: !iree_tensor_ext.dispatch.tensor<writeonly:tensor<8x16x16xf32>>) {
      %cst_6 = arith.constant 2.85950548E-4 : f32
      %cst_7 = arith.constant 0.0439176746 : f32
      %cst_8 = arith.constant -1.900000e+01 : f32
      %cst_9 = arith.constant -1.280000e+02 : f32
      %cst_10 = arith.constant 1.270000e+02 : f32
      %c7_i32 = arith.constant 7 : i32
      %c-7_i32 = arith.constant -7 : i32
      %c-392_i32 = arith.constant -392 : i32
      %c-19_i32 = arith.constant -19 : i32
      %51 = iree_tensor_ext.dispatch.tensor.load %arg3, offsets = [0, 0, 0, 0, 0], sizes = [8, 2, 2, 8, 8], strides = [1, 1, 1, 1, 1] : !iree_tensor_ext.dispatch.tensor<readonly:tensor<8x2x2x8x8xi32>> -> tensor<8x2x2x8x8xi32>
      %52 = iree_tensor_ext.dispatch.tensor.load %arg4, offsets = [0, 0], sizes = [8, 16], strides = [1, 1] : !iree_tensor_ext.dispatch.tensor<readonly:tensor<8x16xi32>> -> tensor<8x16xi32>
      %53 = iree_tensor_ext.dispatch.tensor.load %arg5, offsets = [0, 0], sizes = [8, 16], strides = [1, 1] : !iree_tensor_ext.dispatch.tensor<readonly:tensor<8x16xi32>> -> tensor<8x16xi32>
      %54 = tensor.empty() : tensor<8x16x16xf32>
      %55 = tensor.empty() : tensor<8x16x16xi32>
      %unpack = linalg.unpack %51 outer_dims_perm = [0, 1, 2] inner_dims_pos = [1, 2] inner_tiles = [8, 8] into %55 : tensor<8x2x2x8x8xi32> -> tensor<8x16x16xi32>
      %56 = linalg.generic {indexing_maps = [#map7, #map6, #map8, #map7], iterator_types = ["parallel", "parallel", "parallel"]} ins(%unpack, %52, %53 : tensor<8x16x16xi32>, tensor<8x16xi32>, tensor<8x16xi32>) outs(%54 : tensor<8x16x16xf32>) {
      ^bb0(%in: i32, %in_11: i32, %in_12: i32, %out: f32):
        %57 = arith.muli %in_11, %c7_i32 : i32
        %58 = arith.subi %in, %57 : i32
        %59 = arith.muli %in_12, %c-7_i32 : i32
        %60 = arith.subi %58, %59 : i32
        %61 = arith.addi %60, %c-392_i32 : i32
        %62 = arith.sitofp %61 : i32 to f32
        %63 = arith.mulf %62, %cst_6 : f32
        %64 = arith.divf %63, %cst_7 : f32
        %65 = math.roundeven %64 : f32
        %66 = arith.addf %65, %cst_8 : f32
        %67 = arith.maximumf %66, %cst_9 : f32
        %68 = arith.minimumf %67, %cst_10 : f32
        %69 = arith.fptosi %68 : f32 to i8
        %70 = arith.extsi %69 : i8 to i32
        %71 = arith.subi %70, %c-19_i32 : i32
        %72 = arith.sitofp %71 : i32 to f32
        %73 = arith.mulf %72, %cst_7 : f32
        linalg.yield %73 : f32
      } -> tensor<8x16x16xf32>
      iree_tensor_ext.dispatch.tensor.store %56, %arg6, offsets = [0, 0, 0], sizes = [8, 16, 16], strides = [1, 1, 1] : tensor<8x16x16xf32> -> !iree_tensor_ext.dispatch.tensor<writeonly:tensor<8x16x16xf32>>
      flow.return
    } count() -> (index, index, index) {
      %x, %y, %z = iree_tensor_ext.dispatch.workgroup_count_from_slice()
      flow.return %x, %y, %z : index, index, index
    }
    %24 = flow.dispatch.workgroups(%23) : (tensor<8x16x16xf32>) -> tensor<8x16x16xi8> =
        (%arg3: !iree_tensor_ext.dispatch.tensor<readonly:tensor<8x16x16xf32>>, %arg4: !iree_tensor_ext.dispatch.tensor<writeonly:tensor<8x16x16xi8>>) {
      %cst_6 = arith.constant 0.00392156886 : f32
      %cst_7 = arith.constant -1.280000e+02 : f32
      %cst_8 = arith.constant 1.270000e+02 : f32
      %51 = iree_tensor_ext.dispatch.tensor.load %arg3, offsets = [0, 0, 0], sizes = [8, 16, 16], strides = [1, 1, 1] : !iree_tensor_ext.dispatch.tensor<readonly:tensor<8x16x16xf32>> -> tensor<8x16x16xf32>
      %52 = tensor.empty() : tensor<8x16x16xi8>
      %53 = tensor.empty() : tensor<8x16x16xf32>
      %54 = linalg.softmax dimension(2) ins(%51 : tensor<8x16x16xf32>) outs(%53 : tensor<8x16x16xf32>) -> tensor<8x16x16xf32>
      %55 = linalg.generic {indexing_maps = [#map7, #map7], iterator_types = ["parallel", "parallel", "parallel"]} ins(%54 : tensor<8x16x16xf32>) outs(%52 : tensor<8x16x16xi8>) {
      ^bb0(%in: f32, %out: i8):
        %56 = arith.divf %in, %cst_6 : f32
        %57 = math.roundeven %56 : f32
        %58 = arith.addf %57, %cst_7 : f32
        %59 = arith.maximumf %58, %cst_7 : f32
        %60 = arith.minimumf %59, %cst_8 : f32
        %61 = arith.fptosi %60 : f32 to i8
        linalg.yield %61 : i8
      } -> tensor<8x16x16xi8>
      iree_tensor_ext.dispatch.tensor.store %55, %arg4, offsets = [0, 0, 0], sizes = [8, 16, 16], strides = [1, 1, 1] : tensor<8x16x16xi8> -> !iree_tensor_ext.dispatch.tensor<writeonly:tensor<8x16x16xi8>>
      flow.return
    } count() -> (index, index, index) {
      %x, %y, %z = iree_tensor_ext.dispatch.workgroup_count_from_slice()
      flow.return %x, %y, %z : index, index, index
    }
    %25 = flow.dispatch.workgroups(%24) : (tensor<8x16x16xi8>) -> tensor<8x2x8x8x2xi8> =
        (%arg3: !iree_tensor_ext.dispatch.tensor<readonly:tensor<8x16x16xi8>>, %arg4: !iree_tensor_ext.dispatch.tensor<writeonly:tensor<8x2x8x8x2xi8>>) {
      %51 = iree_tensor_ext.dispatch.tensor.load %arg3, offsets = [0, 0, 0], sizes = [8, 16, 16], strides = [1, 1, 1] : !iree_tensor_ext.dispatch.tensor<readonly:tensor<8x16x16xi8>> -> tensor<8x16x16xi8>
      %52 = tensor.empty() : tensor<8x2x8x8x2xi8>
      %pack = linalg.pack %51 outer_dims_perm = [0, 1, 2] inner_dims_pos = [1, 2] inner_tiles = [8, 2] into %52 : tensor<8x16x16xi8> -> tensor<8x2x8x8x2xi8>
      iree_tensor_ext.dispatch.tensor.store %pack, %arg4, offsets = [0, 0, 0, 0, 0], sizes = [8, 2, 8, 8, 2], strides = [1, 1, 1, 1, 1] : tensor<8x2x8x8x2xi8> -> !iree_tensor_ext.dispatch.tensor<writeonly:tensor<8x2x8x8x2xi8>>
      flow.return
    } count() -> (index, index, index) {
      %x, %y, %z = iree_tensor_ext.dispatch.workgroup_count_from_slice()
      flow.return %x, %y, %z : index, index, index
    }
    %26 = flow.dispatch.workgroups(%11) : (tensor<8x16x8xi8>) -> tensor<8x1x8x8x2xi8> =
        (%arg3: !iree_tensor_ext.dispatch.tensor<readonly:tensor<8x16x8xi8>>, %arg4: !iree_tensor_ext.dispatch.tensor<writeonly:tensor<8x1x8x8x2xi8>>) {
      %51 = iree_tensor_ext.dispatch.tensor.load %arg3, offsets = [0, 0, 0], sizes = [8, 16, 8], strides = [1, 1, 1] : !iree_tensor_ext.dispatch.tensor<readonly:tensor<8x16x8xi8>> -> tensor<8x16x8xi8>
      %52 = tensor.empty() : tensor<8x1x8x8x2xi8>
      %pack = linalg.pack %51 outer_dims_perm = [0, 2, 1] inner_dims_pos = [2, 1] inner_tiles = [8, 2] into %52 : tensor<8x16x8xi8> -> tensor<8x1x8x8x2xi8>
      iree_tensor_ext.dispatch.tensor.store %pack, %arg4, offsets = [0, 0, 0, 0, 0], sizes = [8, 1, 8, 8, 2], strides = [1, 1, 1, 1, 1] : tensor<8x1x8x8x2xi8> -> !iree_tensor_ext.dispatch.tensor<writeonly:tensor<8x1x8x8x2xi8>>
      flow.return
    } count() -> (index, index, index) {
      %x, %y, %z = iree_tensor_ext.dispatch.workgroup_count_from_slice()
      flow.return %x, %y, %z : index, index, index
    }
    %27 = flow.dispatch.workgroups(%26, %25) : (tensor<8x1x8x8x2xi8>, tensor<8x2x8x8x2xi8>) -> tensor<8x1x2x8x8xi32> =
        (%arg3: !iree_tensor_ext.dispatch.tensor<readonly:tensor<8x1x8x8x2xi8>>, %arg4: !iree_tensor_ext.dispatch.tensor<readonly:tensor<8x2x8x8x2xi8>>, %arg5: !iree_tensor_ext.dispatch.tensor<writeonly:tensor<8x1x2x8x8xi32>>) {
      %c0_i32 = arith.constant 0 : i32
      %51 = iree_tensor_ext.dispatch.tensor.load %arg3, offsets = [0, 0, 0, 0, 0], sizes = [8, 1, 8, 8, 2], strides = [1, 1, 1, 1, 1] : !iree_tensor_ext.dispatch.tensor<readonly:tensor<8x1x8x8x2xi8>> -> tensor<8x1x8x8x2xi8>
      %52 = iree_tensor_ext.dispatch.tensor.load %arg4, offsets = [0, 0, 0, 0, 0], sizes = [8, 2, 8, 8, 2], strides = [1, 1, 1, 1, 1] : !iree_tensor_ext.dispatch.tensor<readonly:tensor<8x2x8x8x2xi8>> -> tensor<8x2x8x8x2xi8>
      %53 = tensor.empty() : tensor<8x1x2x8x8xi32>
      %54 = linalg.fill ins(%c0_i32 : i32) outs(%53 : tensor<8x1x2x8x8xi32>) -> tensor<8x1x2x8x8xi32>
      %55 = linalg.batch_mmt4d ins(%51, %52 : tensor<8x1x8x8x2xi8>, tensor<8x2x8x8x2xi8>) outs(%54 : tensor<8x1x2x8x8xi32>) -> tensor<8x1x2x8x8xi32>
      iree_tensor_ext.dispatch.tensor.store %55, %arg5, offsets = [0, 0, 0, 0, 0], sizes = [8, 1, 2, 8, 8], strides = [1, 1, 1, 1, 1] : tensor<8x1x2x8x8xi32> -> !iree_tensor_ext.dispatch.tensor<writeonly:tensor<8x1x2x8x8xi32>>
      flow.return
    } count() -> (index, index, index) {
      %x, %y, %z = iree_tensor_ext.dispatch.workgroup_count_from_slice()
      flow.return %x, %y, %z : index, index, index
    }
    %28 = flow.tensor.reshape %24 : tensor<8x16x16xi8> -> tensor<128x16xi8>
    %29 = flow.dispatch.workgroups(%28) : (tensor<128x16xi8>) -> tensor<128xi32> =
        (%arg3: !iree_tensor_ext.dispatch.tensor<readonly:tensor<128x16xi8>>, %arg4: !iree_tensor_ext.dispatch.tensor<writeonly:tensor<128xi32>>) {
      %c0_i32 = arith.constant 0 : i32
      %51 = iree_tensor_ext.dispatch.tensor.load %arg3, offsets = [0, 0], sizes = [128, 16], strides = [1, 1] : !iree_tensor_ext.dispatch.tensor<readonly:tensor<128x16xi8>> -> tensor<128x16xi8>
      %52 = tensor.empty() : tensor<128xi32>
      %53 = linalg.fill ins(%c0_i32 : i32) outs(%52 : tensor<128xi32>) -> tensor<128xi32>
      %54 = linalg.generic {indexing_maps = [#map3, #map4], iterator_types = ["parallel", "reduction"]} ins(%51 : tensor<128x16xi8>) outs(%53 : tensor<128xi32>) {
      ^bb0(%in: i8, %out: i32):
        %55 = arith.extsi %in : i8 to i32
        %56 = arith.addi %55, %out : i32
        linalg.yield %56 : i32
      } -> tensor<128xi32>
      iree_tensor_ext.dispatch.tensor.store %54, %arg4, offsets = [0], sizes = [128], strides = [1] : tensor<128xi32> -> !iree_tensor_ext.dispatch.tensor<writeonly:tensor<128xi32>>
      flow.return
    } count() -> (index, index, index) {
      %x, %y, %z = iree_tensor_ext.dispatch.workgroup_count_from_slice()
      flow.return %x, %y, %z : index, index, index
    }
    %30 = flow.tensor.reshape %29 : tensor<128xi32> -> tensor<8x16xi32>
    %31 = flow.dispatch.workgroups(%11) : (tensor<8x16x8xi8>) -> tensor<8x8xi32> =
        (%arg3: !iree_tensor_ext.dispatch.tensor<readonly:tensor<8x16x8xi8>>, %arg4: !iree_tensor_ext.dispatch.tensor<writeonly:tensor<8x8xi32>>) {
      %c0_i32 = arith.constant 0 : i32
      %51 = iree_tensor_ext.dispatch.tensor.load %arg3, offsets = [0, 0, 0], sizes = [8, 16, 8], strides = [1, 1, 1] : !iree_tensor_ext.dispatch.tensor<readonly:tensor<8x16x8xi8>> -> tensor<8x16x8xi8>
      %52 = tensor.empty() : tensor<8x8xi32>
      %53 = linalg.fill ins(%c0_i32 : i32) outs(%52 : tensor<8x8xi32>) -> tensor<8x8xi32>
      %54 = linalg.generic {indexing_maps = [#map9, #map6], iterator_types = ["parallel", "parallel", "reduction"]} ins(%51 : tensor<8x16x8xi8>) outs(%53 : tensor<8x8xi32>) {
      ^bb0(%in: i8, %out: i32):
        %55 = arith.extsi %in : i8 to i32
        %56 = arith.addi %55, %out : i32
        linalg.yield %56 : i32
      } -> tensor<8x8xi32>
      iree_tensor_ext.dispatch.tensor.store %54, %arg4, offsets = [0, 0], sizes = [8, 8], strides = [1, 1] : tensor<8x8xi32> -> !iree_tensor_ext.dispatch.tensor<writeonly:tensor<8x8xi32>>
      flow.return
    } count() -> (index, index, index) {
      %x, %y, %z = iree_tensor_ext.dispatch.workgroup_count_from_slice()
      flow.return %x, %y, %z : index, index, index
    }
    %32 = flow.dispatch.workgroups(%27, %30, %31) : (tensor<8x1x2x8x8xi32>, tensor<8x16xi32>, tensor<8x8xi32>) -> tensor<16x8x8xi8> =
        (%arg3: !iree_tensor_ext.dispatch.tensor<readonly:tensor<8x1x2x8x8xi32>>, %arg4: !iree_tensor_ext.dispatch.tensor<readonly:tensor<8x16xi32>>, %arg5: !iree_tensor_ext.dispatch.tensor<readonly:tensor<8x8xi32>>, %arg6: !iree_tensor_ext.dispatch.tensor<writeonly:tensor<16x8x8xi8>>) {
      %cst_6 = arith.constant 1.19078257E-4 : f32
      %cst_7 = arith.constant 0.0169109609 : f32
      %cst_8 = arith.constant -1.700000e+01 : f32
      %cst_9 = arith.constant -1.280000e+02 : f32
      %cst_10 = arith.constant 1.270000e+02 : f32
      %c-3_i32 = arith.constant -3 : i32
      %c-128_i32 = arith.constant -128 : i32
      %c6144_i32 = arith.constant 6144 : i32
      %c-17_i32 = arith.constant -17 : i32
      %51 = iree_tensor_ext.dispatch.tensor.load %arg3, offsets = [0, 0, 0, 0, 0], sizes = [8, 1, 2, 8, 8], strides = [1, 1, 1, 1, 1] : !iree_tensor_ext.dispatch.tensor<readonly:tensor<8x1x2x8x8xi32>> -> tensor<8x1x2x8x8xi32>
      %52 = iree_tensor_ext.dispatch.tensor.load %arg4, offsets = [0, 0], sizes = [8, 16], strides = [1, 1] : !iree_tensor_ext.dispatch.tensor<readonly:tensor<8x16xi32>> -> tensor<8x16xi32>
      %53 = iree_tensor_ext.dispatch.tensor.load %arg5, offsets = [0, 0], sizes = [8, 8], strides = [1, 1] : !iree_tensor_ext.dispatch.tensor<readonly:tensor<8x8xi32>> -> tensor<8x8xi32>
      %54 = tensor.empty() : tensor<16x8x8xi8>
      %55 = tensor.empty() : tensor<8x16x8xi32>
      %unpack = linalg.unpack %51 outer_dims_perm = [0, 2, 1] inner_dims_pos = [2, 1] inner_tiles = [8, 8] into %55 : tensor<8x1x2x8x8xi32> -> tensor<8x16x8xi32>
      %56 = linalg.generic {indexing_maps = [#map5, #map10, #map11, #map7], iterator_types = ["parallel", "parallel", "parallel"]} ins(%unpack, %52, %53 : tensor<8x16x8xi32>, tensor<8x16xi32>, tensor<8x8xi32>) outs(%54 : tensor<16x8x8xi8>) {
      ^bb0(%in: i32, %in_11: i32, %in_12: i32, %out: i8):
        %57 = arith.muli %in_11, %c-3_i32 : i32
        %58 = arith.subi %in, %57 : i32
        %59 = arith.muli %in_12, %c-128_i32 : i32
        %60 = arith.subi %58, %59 : i32
        %61 = arith.addi %60, %c6144_i32 : i32
        %62 = arith.sitofp %61 : i32 to f32
        %63 = arith.mulf %62, %cst_6 : f32
        %64 = arith.divf %63, %cst_7 : f32
        %65 = math.roundeven %64 : f32
        %66 = arith.addf %65, %cst_8 : f32
        %67 = arith.maximumf %66, %cst_9 : f32
        %68 = arith.minimumf %67, %cst_10 : f32
        %69 = arith.fptosi %68 : f32 to i8
        %70 = arith.extsi %69 : i8 to i32
        %71 = arith.subi %70, %c-17_i32 : i32
        %72 = arith.sitofp %71 : i32 to f32
        %73 = arith.mulf %72, %cst_7 : f32
        %74 = arith.divf %73, %cst_7 : f32
        %75 = math.roundeven %74 : f32
        %76 = arith.addf %75, %cst_8 : f32
        %77 = arith.maximumf %76, %cst_9 : f32
        %78 = arith.minimumf %77, %cst_10 : f32
        %79 = arith.fptosi %78 : f32 to i8
        %80 = arith.extsi %79 : i8 to i32
        %81 = arith.subi %80, %c-17_i32 : i32
        %82 = arith.sitofp %81 : i32 to f32
        %83 = arith.mulf %82, %cst_7 : f32
        %84 = arith.divf %83, %cst_7 : f32
        %85 = math.roundeven %84 : f32
        %86 = arith.addf %85, %cst_8 : f32
        %87 = arith.maximumf %86, %cst_9 : f32
        %88 = arith.minimumf %87, %cst_10 : f32
        %89 = arith.fptosi %88 : f32 to i8
        linalg.yield %89 : i8
      } -> tensor<16x8x8xi8>
      iree_tensor_ext.dispatch.tensor.store %56, %arg6, offsets = [0, 0, 0], sizes = [16, 8, 8], strides = [1, 1, 1] : tensor<16x8x8xi8> -> !iree_tensor_ext.dispatch.tensor<writeonly:tensor<16x8x8xi8>>
      flow.return
    } count() -> (index, index, index) {
      %x, %y, %z = iree_tensor_ext.dispatch.workgroup_count_from_slice()
      flow.return %x, %y, %z : index, index, index
    }
    %33 = flow.tensor.reshape %32 : tensor<16x8x8xi8> -> tensor<16x64xi8>
    %34 = flow.dispatch.workgroups(%33) : (tensor<16x64xi8>) -> tensor<2x32x8x2xi8> =
        (%arg3: !iree_tensor_ext.dispatch.tensor<readonly:tensor<16x64xi8>>, %arg4: !iree_tensor_ext.dispatch.tensor<writeonly:tensor<2x32x8x2xi8>>) {
      %51 = iree_tensor_ext.dispatch.tensor.load %arg3, offsets = [0, 0], sizes = [16, 64], strides = [1, 1] : !iree_tensor_ext.dispatch.tensor<readonly:tensor<16x64xi8>> -> tensor<16x64xi8>
      %52 = tensor.empty() : tensor<2x32x8x2xi8>
      %pack = linalg.pack %51 outer_dims_perm = [0, 1] inner_dims_pos = [0, 1] inner_tiles = [8, 2] into %52 : tensor<16x64xi8> -> tensor<2x32x8x2xi8>
      iree_tensor_ext.dispatch.tensor.store %pack, %arg4, offsets = [0, 0, 0, 0], sizes = [2, 32, 8, 2], strides = [1, 1, 1, 1] : tensor<2x32x8x2xi8> -> !iree_tensor_ext.dispatch.tensor<writeonly:tensor<2x32x8x2xi8>>
      flow.return
    } count() -> (index, index, index) {
      %x, %y, %z = iree_tensor_ext.dispatch.workgroup_count_from_slice()
      flow.return %x, %y, %z : index, index, index
    }
    %35 = flow.dispatch.workgroups(%34, %cst_2) : (tensor<2x32x8x2xi8>, tensor<8x32x8x2xi8>) -> tensor<2x8x8x8xi32> =
        (%arg3: !iree_tensor_ext.dispatch.tensor<readonly:tensor<2x32x8x2xi8>>, %arg4: !iree_tensor_ext.dispatch.tensor<readonly:tensor<8x32x8x2xi8>>, %arg5: !iree_tensor_ext.dispatch.tensor<writeonly:tensor<2x8x8x8xi32>>) {
      %c0_i32 = arith.constant 0 : i32
      %51 = iree_tensor_ext.dispatch.tensor.load %arg3, offsets = [0, 0, 0, 0], sizes = [2, 32, 8, 2], strides = [1, 1, 1, 1] : !iree_tensor_ext.dispatch.tensor<readonly:tensor<2x32x8x2xi8>> -> tensor<2x32x8x2xi8>
      %52 = iree_tensor_ext.dispatch.tensor.load %arg4, offsets = [0, 0, 0, 0], sizes = [8, 32, 8, 2], strides = [1, 1, 1, 1] : !iree_tensor_ext.dispatch.tensor<readonly:tensor<8x32x8x2xi8>> -> tensor<8x32x8x2xi8>
      %53 = tensor.empty() : tensor<2x8x8x8xi32>
      %54 = linalg.fill ins(%c0_i32 : i32) outs(%53 : tensor<2x8x8x8xi32>) -> tensor<2x8x8x8xi32>
      %55 = linalg.mmt4d ins(%51, %52 : tensor<2x32x8x2xi8>, tensor<8x32x8x2xi8>) outs(%54 : tensor<2x8x8x8xi32>) -> tensor<2x8x8x8xi32>
      iree_tensor_ext.dispatch.tensor.store %55, %arg5, offsets = [0, 0, 0, 0], sizes = [2, 8, 8, 8], strides = [1, 1, 1, 1] : tensor<2x8x8x8xi32> -> !iree_tensor_ext.dispatch.tensor<writeonly:tensor<2x8x8x8xi32>>
      flow.return
    } count() -> (index, index, index) {
      %x, %y, %z = iree_tensor_ext.dispatch.workgroup_count_from_slice()
      flow.return %x, %y, %z : index, index, index
    }
    %36 = flow.dispatch.workgroups(%3, %35) : (tensor<16x64xi8>, tensor<2x8x8x8xi32>) -> tensor<16x64xi8> =
        (%arg3: !iree_tensor_ext.dispatch.tensor<readonly:tensor<16x64xi8>>, %arg4: !iree_tensor_ext.dispatch.tensor<readonly:tensor<2x8x8x8xi32>>, %arg5: !iree_tensor_ext.dispatch.tensor<writeonly:tensor<16x64xi8>>) {
      %cst_6 = arith.constant 1.66415284E-5 : f32
      %cst_7 = arith.constant 0.000000e+00 : f32
      %cst_8 = arith.constant 0.00713164685 : f32
      %cst_9 = arith.constant 1.000000e+01 : f32
      %cst_10 = arith.constant -1.280000e+02 : f32
      %cst_11 = arith.constant 1.270000e+02 : f32
      %cst_12 = arith.constant 0.0410950892 : f32
      %cst_13 = arith.constant -4.000000e+00 : f32
      %cst_14 = arith.constant 0.0401942097 : f32
      %cst_15 = arith.constant dense<[619, 216, -240, 888, -122, 490, -285, -1, -352, 449, -993, -1408, -1052, -118, 479, 285, 536, -81, 381, -13, 548, 775, 965, -898, 83, 967, -125, -669, -521, 141, -58, 14, 926, -62, -47, 207, 268, -1555, -1214, 40, -484, 625, -183, -63, 210, -429, 672, -262, -230, 460, -1108, -830, 31, 311, 500, -382, 350, -740, 371, -13, -153, -520, 42, -385]> : tensor<64xi32>
      %c-6_i32 = arith.constant -6 : i32
      %c-17_i32 = arith.constant -17 : i32
      %c10_i32 = arith.constant 10 : i32
      %51 = iree_tensor_ext.dispatch.tensor.load %arg3, offsets = [0, 0], sizes = [16, 64], strides = [1, 1] : !iree_tensor_ext.dispatch.tensor<readonly:tensor<16x64xi8>> -> tensor<16x64xi8>
      %52 = iree_tensor_ext.dispatch.tensor.load %arg4, offsets = [0, 0, 0, 0], sizes = [2, 8, 8, 8], strides = [1, 1, 1, 1] : !iree_tensor_ext.dispatch.tensor<readonly:tensor<2x8x8x8xi32>> -> tensor<2x8x8x8xi32>
      %53 = tensor.empty() : tensor<16x64xi8>
      %54 = tensor.empty() : tensor<16x64xf32>
      %55 = tensor.empty() : tensor<16x64xi32>
      %56 = linalg.generic {indexing_maps = [#map3, #map3], iterator_types = ["parallel", "parallel"]} ins(%51 : tensor<16x64xi8>) outs(%54 : tensor<16x64xf32>) {
      ^bb0(%in: i8, %out: f32):
        %58 = arith.extsi %in : i8 to i32
        %59 = arith.subi %58, %c-6_i32 : i32
        %60 = arith.sitofp %59 : i32 to f32
        %61 = arith.mulf %60, %cst_14 : f32
        linalg.yield %61 : f32
      } -> tensor<16x64xf32>
      %unpack = linalg.unpack %52 outer_dims_perm = [0, 1] inner_dims_pos = [0, 1] inner_tiles = [8, 8] into %55 : tensor<2x8x8x8xi32> -> tensor<16x64xi32>
      %57 = linalg.generic {indexing_maps = [#map3, #map3, #map12, #map3], iterator_types = ["parallel", "parallel"]} ins(%56, %unpack, %cst_15 : tensor<16x64xf32>, tensor<16x64xi32>, tensor<64xi32>) outs(%53 : tensor<16x64xi8>) {
      ^bb0(%in: f32, %in_16: i32, %in_17: i32, %out: i8):
        %58 = arith.muli %in_17, %c-17_i32 : i32
        %59 = arith.subi %in_16, %58 : i32
        %60 = arith.sitofp %59 : i32 to f32
        %61 = arith.mulf %60, %cst_6 : f32
        %62 = arith.addf %61, %cst_7 : f32
        %63 = arith.divf %62, %cst_8 : f32
        %64 = math.roundeven %63 : f32
        %65 = arith.addf %64, %cst_9 : f32
        %66 = arith.maximumf %65, %cst_10 : f32
        %67 = arith.minimumf %66, %cst_11 : f32
        %68 = arith.fptosi %67 : f32 to i8
        %69 = arith.extsi %68 : i8 to i32
        %70 = arith.subi %69, %c10_i32 : i32
        %71 = arith.sitofp %70 : i32 to f32
        %72 = arith.mulf %71, %cst_8 : f32
        %73 = arith.divf %72, %cst_8 : f32
        %74 = math.roundeven %73 : f32
        %75 = arith.addf %74, %cst_9 : f32
        %76 = arith.maximumf %75, %cst_10 : f32
        %77 = arith.minimumf %76, %cst_11 : f32
        %78 = arith.fptosi %77 : f32 to i8
        %79 = arith.extsi %78 : i8 to i32
        %80 = arith.subi %79, %c10_i32 : i32
        %81 = arith.sitofp %80 : i32 to f32
        %82 = arith.mulf %81, %cst_8 : f32
        %83 = arith.divf %82, %cst_8 : f32
        %84 = math.roundeven %83 : f32
        %85 = arith.addf %84, %cst_9 : f32
        %86 = arith.maximumf %85, %cst_10 : f32
        %87 = arith.minimumf %86, %cst_11 : f32
        %88 = arith.fptosi %87 : f32 to i8
        %89 = arith.extsi %88 : i8 to i32
        %90 = arith.subi %89, %c10_i32 : i32
        %91 = arith.sitofp %90 : i32 to f32
        %92 = arith.mulf %91, %cst_8 : f32
        %93 = arith.addf %in, %92 : f32
        %94 = arith.divf %93, %cst_12 : f32
        %95 = math.roundeven %94 : f32
        %96 = arith.addf %95, %cst_13 : f32
        %97 = arith.maximumf %96, %cst_10 : f32
        %98 = arith.minimumf %97, %cst_11 : f32
        %99 = arith.fptosi %98 : f32 to i8
        linalg.yield %99 : i8
      } -> tensor<16x64xi8>
      iree_tensor_ext.dispatch.tensor.store %57, %arg5, offsets = [0, 0], sizes = [16, 64], strides = [1, 1] : tensor<16x64xi8> -> !iree_tensor_ext.dispatch.tensor<writeonly:tensor<16x64xi8>>
      flow.return
    } count() -> (index, index, index) {
      %x, %y, %z = iree_tensor_ext.dispatch.workgroup_count_from_slice()
      flow.return %x, %y, %z : index, index, index
    }
    %37 = flow.dispatch.workgroups(%36) : (tensor<16x64xi8>) -> tensor<16x64xf32> =
        (%arg3: !iree_tensor_ext.dispatch.tensor<readonly:tensor<16x64xi8>>, %arg4: !iree_tensor_ext.dispatch.tensor<writeonly:tensor<16x64xf32>>) {
      %cst_6 = arith.constant 0.0410950892 : f32
      %cst_7 = arith.constant 0.000000e+00 : f32
      %cst_8 = arith.constant 6.400000e+01 : f32
      %c-4_i32 = arith.constant -4 : i32
      %51 = iree_tensor_ext.dispatch.tensor.load %arg3, offsets = [0, 0], sizes = [16, 64], strides = [1, 1] : !iree_tensor_ext.dispatch.tensor<readonly:tensor<16x64xi8>> -> tensor<16x64xi8>
      %52 = tensor.empty() : tensor<16x64xf32>
      %53 = tensor.empty() : tensor<16xf32>
      %54 = linalg.fill ins(%cst_7 : f32) outs(%53 : tensor<16xf32>) -> tensor<16xf32>
      %55 = linalg.generic {indexing_maps = [#map3, #map3], iterator_types = ["parallel", "parallel"]} ins(%51 : tensor<16x64xi8>) outs(%52 : tensor<16x64xf32>) {
      ^bb0(%in: i8, %out: f32):
        %58 = arith.extsi %in : i8 to i32
        %59 = arith.subi %58, %c-4_i32 : i32
        %60 = arith.sitofp %59 : i32 to f32
        %61 = arith.mulf %60, %cst_6 : f32
        linalg.yield %61 : f32
      } -> tensor<16x64xf32>
      %56 = linalg.generic {indexing_maps = [#map3, #map4], iterator_types = ["parallel", "reduction"]} ins(%55 : tensor<16x64xf32>) outs(%54 : tensor<16xf32>) {
      ^bb0(%in: f32, %out: f32):
        %58 = arith.addf %in, %out : f32
        linalg.yield %58 : f32
      } -> tensor<16xf32>
      %57 = linalg.generic {indexing_maps = [#map3, #map4, #map3], iterator_types = ["parallel", "parallel"]} ins(%55, %56 : tensor<16x64xf32>, tensor<16xf32>) outs(%52 : tensor<16x64xf32>) {
      ^bb0(%in: f32, %in_9: f32, %out: f32):
        %58 = arith.divf %in_9, %cst_8 : f32
        %59 = arith.subf %in, %58 : f32
        linalg.yield %59 : f32
      } -> tensor<16x64xf32>
      iree_tensor_ext.dispatch.tensor.store %57, %arg4, offsets = [0, 0], sizes = [16, 64], strides = [1, 1] : tensor<16x64xf32> -> !iree_tensor_ext.dispatch.tensor<writeonly:tensor<16x64xf32>>
      flow.return
    } count() -> (index, index, index) {
      %x, %y, %z = iree_tensor_ext.dispatch.workgroup_count_from_slice()
      flow.return %x, %y, %z : index, index, index
    }
    %38 = flow.dispatch.workgroups(%37) : (tensor<16x64xf32>) -> tensor<16x64xi8> =
        (%arg3: !iree_tensor_ext.dispatch.tensor<readonly:tensor<16x64xf32>>, %arg4: !iree_tensor_ext.dispatch.tensor<writeonly:tensor<16x64xi8>>) {
      %cst_6 = arith.constant 6.400000e+01 : f32
      %cst_7 = arith.constant 9.99999974E-6 : f32
      %cst_8 = arith.constant 0.000000e+00 : f32
      %cst_9 = arith.constant 0.0279397592 : f32
      %cst_10 = arith.constant -1.000000e+00 : f32
      %cst_11 = arith.constant -1.280000e+02 : f32
      %cst_12 = arith.constant 1.270000e+02 : f32
      %51 = iree_tensor_ext.dispatch.tensor.load %arg3, offsets = [0, 0], sizes = [16, 64], strides = [1, 1] : !iree_tensor_ext.dispatch.tensor<readonly:tensor<16x64xf32>> -> tensor<16x64xf32>
      %52 = tensor.empty() : tensor<16x64xi8>
      %53 = tensor.empty() : tensor<16xf32>
      %54 = linalg.fill ins(%cst_8 : f32) outs(%53 : tensor<16xf32>) -> tensor<16xf32>
      %55 = linalg.generic {indexing_maps = [#map3, #map4], iterator_types = ["parallel", "reduction"]} ins(%51 : tensor<16x64xf32>) outs(%54 : tensor<16xf32>) {
      ^bb0(%in: f32, %out: f32):
        %57 = arith.mulf %in, %in : f32
        %58 = arith.addf %57, %out : f32
        linalg.yield %58 : f32
      } -> tensor<16xf32>
      %56 = linalg.generic {indexing_maps = [#map3, #map4, #map3], iterator_types = ["parallel", "parallel"]} ins(%51, %55 : tensor<16x64xf32>, tensor<16xf32>) outs(%52 : tensor<16x64xi8>) {
      ^bb0(%in: f32, %in_13: f32, %out: i8):
        %57 = arith.divf %in_13, %cst_6 : f32
        %58 = arith.addf %57, %cst_7 : f32
        %59 = math.rsqrt %58 : f32
        %60 = arith.mulf %in, %59 : f32
        %61 = arith.addf %60, %cst_8 : f32
        %62 = arith.divf %61, %cst_9 : f32
        %63 = math.roundeven %62 : f32
        %64 = arith.addf %63, %cst_10 : f32
        %65 = arith.maximumf %64, %cst_11 : f32
        %66 = arith.minimumf %65, %cst_12 : f32
        %67 = arith.fptosi %66 : f32 to i8
        linalg.yield %67 : i8
      } -> tensor<16x64xi8>
      iree_tensor_ext.dispatch.tensor.store %56, %arg4, offsets = [0, 0], sizes = [16, 64], strides = [1, 1] : tensor<16x64xi8> -> !iree_tensor_ext.dispatch.tensor<writeonly:tensor<16x64xi8>>
      flow.return
    } count() -> (index, index, index) {
      %x, %y, %z = iree_tensor_ext.dispatch.workgroup_count_from_slice()
      flow.return %x, %y, %z : index, index, index
    }
    %39 = flow.tensor.reshape %38 : tensor<16x64xi8> -> tensor<1x16x64xi8>
    %40 = flow.dispatch.workgroups(%39) : (tensor<1x16x64xi8>) -> tensor<1x2x32x8x2xi8> =
        (%arg3: !iree_tensor_ext.dispatch.tensor<readonly:tensor<1x16x64xi8>>, %arg4: !iree_tensor_ext.dispatch.tensor<writeonly:tensor<1x2x32x8x2xi8>>) {
      %51 = iree_tensor_ext.dispatch.tensor.load %arg3, offsets = [0, 0, 0], sizes = [1, 16, 64], strides = [1, 1, 1] : !iree_tensor_ext.dispatch.tensor<readonly:tensor<1x16x64xi8>> -> tensor<1x16x64xi8>
      %52 = tensor.empty() : tensor<1x2x32x8x2xi8>
      %pack = linalg.pack %51 outer_dims_perm = [0, 1, 2] inner_dims_pos = [1, 2] inner_tiles = [8, 2] into %52 : tensor<1x16x64xi8> -> tensor<1x2x32x8x2xi8>
      iree_tensor_ext.dispatch.tensor.store %pack, %arg4, offsets = [0, 0, 0, 0, 0], sizes = [1, 2, 32, 8, 2], strides = [1, 1, 1, 1, 1] : tensor<1x2x32x8x2xi8> -> !iree_tensor_ext.dispatch.tensor<writeonly:tensor<1x2x32x8x2xi8>>
      flow.return
    } count() -> (index, index, index) {
      %x, %y, %z = iree_tensor_ext.dispatch.workgroup_count_from_slice()
      flow.return %x, %y, %z : index, index, index
    }
    %41 = flow.dispatch.workgroups(%40, %cst_3) : (tensor<1x2x32x8x2xi8>, tensor<1x16x32x8x2xi8>) -> tensor<1x2x16x8x8xi32> =
        (%arg3: !iree_tensor_ext.dispatch.tensor<readonly:tensor<1x2x32x8x2xi8>>, %arg4: !iree_tensor_ext.dispatch.tensor<readonly:tensor<1x16x32x8x2xi8>>, %arg5: !iree_tensor_ext.dispatch.tensor<writeonly:tensor<1x2x16x8x8xi32>>) {
      %c0_i32 = arith.constant 0 : i32
      %51 = iree_tensor_ext.dispatch.tensor.load %arg3, offsets = [0, 0, 0, 0, 0], sizes = [1, 2, 32, 8, 2], strides = [1, 1, 1, 1, 1] : !iree_tensor_ext.dispatch.tensor<readonly:tensor<1x2x32x8x2xi8>> -> tensor<1x2x32x8x2xi8>
      %52 = iree_tensor_ext.dispatch.tensor.load %arg4, offsets = [0, 0, 0, 0, 0], sizes = [1, 16, 32, 8, 2], strides = [1, 1, 1, 1, 1] : !iree_tensor_ext.dispatch.tensor<readonly:tensor<1x16x32x8x2xi8>> -> tensor<1x16x32x8x2xi8>
      %53 = tensor.empty() : tensor<1x2x16x8x8xi32>
      %54 = linalg.fill ins(%c0_i32 : i32) outs(%53 : tensor<1x2x16x8x8xi32>) -> tensor<1x2x16x8x8xi32>
      %55 = linalg.batch_mmt4d ins(%51, %52 : tensor<1x2x32x8x2xi8>, tensor<1x16x32x8x2xi8>) outs(%54 : tensor<1x2x16x8x8xi32>) -> tensor<1x2x16x8x8xi32>
      iree_tensor_ext.dispatch.tensor.store %55, %arg5, offsets = [0, 0, 0, 0, 0], sizes = [1, 2, 16, 8, 8], strides = [1, 1, 1, 1, 1] : tensor<1x2x16x8x8xi32> -> !iree_tensor_ext.dispatch.tensor<writeonly:tensor<1x2x16x8x8xi32>>
      flow.return
    } count() -> (index, index, index) {
      %x, %y, %z = iree_tensor_ext.dispatch.workgroup_count_from_slice()
      flow.return %x, %y, %z : index, index, index
    }
    %42 = flow.dispatch.workgroups(%41, %cst_4) : (tensor<1x2x16x8x8xi32>, tensor<128xi32>) -> tensor<1x2x64x8x2xi8> =
        (%arg3: !iree_tensor_ext.dispatch.tensor<readonly:tensor<1x2x16x8x8xi32>>, %arg4: !iree_tensor_ext.dispatch.tensor<readonly:tensor<128xi32>>, %arg5: !iree_tensor_ext.dispatch.tensor<writeonly:tensor<1x2x64x8x2xi8>>) {
      %cst_6 = arith.constant 2.74959439E-5 : f32
      %cst_7 = arith.constant 9.55601921E-4 : f32
      %cst_8 = arith.constant 0.0161407888 : f32
      %cst_9 = arith.constant -7.000000e+00 : f32
      %cst_10 = arith.constant -1.280000e+02 : f32
      %cst_11 = arith.constant 1.270000e+02 : f32
      %cst_12 = arith.constant 8.898490e-03 : f32
      %cst_13 = arith.constant dense<"…"> : tensor<128xi8>
      %c-1_i32 = arith.constant -1 : i32
      %c-2_i32 = arith.constant -2 : i32
      %c-7_i32 = arith.constant -7 : i32
      %51 = iree_tensor_ext.dispatch.tensor.load %arg3, offsets = [0, 0, 0, 0, 0], sizes = [1, 2, 16, 8, 8], strides = [1, 1, 1, 1, 1] : !iree_tensor_ext.dispatch.tensor<readonly:tensor<1x2x16x8x8xi32>> -> tensor<1x2x16x8x8xi32>
      %52 = iree_tensor_ext.dispatch.tensor.load %arg4, offsets = [0], sizes = [128], strides = [1] : !iree_tensor_ext.dispatch.tensor<readonly:tensor<128xi32>> -> tensor<128xi32>
      %53 = tensor.empty() : tensor<1x2x64x8x2xi8>
      %54 = tensor.empty() : tensor<1x16x128xi8>
      %55 = tensor.empty() : tensor<1x16x128xi32>
      %unpack = linalg.unpack %51 outer_dims_perm = [0, 1, 2] inner_dims_pos = [1, 2] inner_tiles = [8, 8] into %55 : tensor<1x2x16x8x8xi32> -> tensor<1x16x128xi32>
      %56 = linalg.generic {indexing_maps = [#map7, #map13, #map13, #map7], iterator_types = ["parallel", "parallel", "parallel"]} ins(%unpack, %52, %cst_13 : tensor<1x16x128xi32>, tensor<128xi32>, tensor<128xi8>) outs(%54 : tensor<1x16x128xi8>) {
      ^bb0(%in: i32, %in_14: i32, %in_15: i8, %out: i8):
        %57 = arith.muli %in_14, %c-1_i32 : i32
        %58 = arith.subi %in, %57 : i32
        %59 = arith.sitofp %58 : i32 to f32
        %60 = arith.mulf %59, %cst_6 : f32
        %61 = arith.extsi %in_15 : i8 to i32
        %62 = arith.subi %61, %c-2_i32 : i32
        %63 = arith.sitofp %62 : i32 to f32
        %64 = arith.mulf %63, %cst_7 : f32
        %65 = arith.divf %60, %cst_8 : f32
        %66 = math.roundeven %65 : f32
        %67 = arith.addf %66, %cst_9 : f32
        %68 = arith.maximumf %67, %cst_10 : f32
        %69 = arith.minimumf %68, %cst_11 : f32
        %70 = arith.fptosi %69 : f32 to i8
        %71 = arith.extsi %70 : i8 to i32
        %72 = arith.subi %71, %c-7_i32 : i32
        %73 = arith.sitofp %72 : i32 to f32
        %74 = arith.mulf %73, %cst_8 : f32
        %75 = arith.addf %74, %64 : f32
        %76 = arith.divf %75, %cst_12 : f32
        %77 = math.roundeven %76 : f32
        %78 = arith.addf %77, %cst_10 : f32
        %79 = arith.maximumf %78, %cst_10 : f32
        %80 = arith.minimumf %79, %cst_11 : f32
        %81 = arith.fptosi %80 : f32 to i8
        linalg.yield %81 : i8
      } -> tensor<1x16x128xi8>
      %pack = linalg.pack %56 outer_dims_perm = [0, 1, 2] inner_dims_pos = [1, 2] inner_tiles = [8, 2] into %53 : tensor<1x16x128xi8> -> tensor<1x2x64x8x2xi8>
      iree_tensor_ext.dispatch.tensor.store %pack, %arg5, offsets = [0, 0, 0, 0, 0], sizes = [1, 2, 64, 8, 2], strides = [1, 1, 1, 1, 1] : tensor<1x2x64x8x2xi8> -> !iree_tensor_ext.dispatch.tensor<writeonly:tensor<1x2x64x8x2xi8>>
      flow.return
    } count() -> (index, index, index) {
      %x, %y, %z = iree_tensor_ext.dispatch.workgroup_count_from_slice()
      flow.return %x, %y, %z : index, index, index
    }
    %43 = flow.dispatch.workgroups(%42, %cst_5) : (tensor<1x2x64x8x2xi8>, tensor<1x8x64x8x2xi8>) -> tensor<1x2x8x8x8xi32> =
        (%arg3: !iree_tensor_ext.dispatch.tensor<readonly:tensor<1x2x64x8x2xi8>>, %arg4: !iree_tensor_ext.dispatch.tensor<readonly:tensor<1x8x64x8x2xi8>>, %arg5: !iree_tensor_ext.dispatch.tensor<writeonly:tensor<1x2x8x8x8xi32>>) {
      %c0_i32 = arith.constant 0 : i32
      %51 = iree_tensor_ext.dispatch.tensor.load %arg3, offsets = [0, 0, 0, 0, 0], sizes = [1, 2, 64, 8, 2], strides = [1, 1, 1, 1, 1] : !iree_tensor_ext.dispatch.tensor<readonly:tensor<1x2x64x8x2xi8>> -> tensor<1x2x64x8x2xi8>
      %52 = iree_tensor_ext.dispatch.tensor.load %arg4, offsets = [0, 0, 0, 0, 0], sizes = [1, 8, 64, 8, 2], strides = [1, 1, 1, 1, 1] : !iree_tensor_ext.dispatch.tensor<readonly:tensor<1x8x64x8x2xi8>> -> tensor<1x8x64x8x2xi8>
      %53 = tensor.empty() : tensor<1x2x8x8x8xi32>
      %54 = linalg.fill ins(%c0_i32 : i32) outs(%53 : tensor<1x2x8x8x8xi32>) -> tensor<1x2x8x8x8xi32>
      %55 = linalg.batch_mmt4d ins(%51, %52 : tensor<1x2x64x8x2xi8>, tensor<1x8x64x8x2xi8>) outs(%54 : tensor<1x2x8x8x8xi32>) -> tensor<1x2x8x8x8xi32>
      iree_tensor_ext.dispatch.tensor.store %55, %arg5, offsets = [0, 0, 0, 0, 0], sizes = [1, 2, 8, 8, 8], strides = [1, 1, 1, 1, 1] : tensor<1x2x8x8x8xi32> -> !iree_tensor_ext.dispatch.tensor<writeonly:tensor<1x2x8x8x8xi32>>
      flow.return
    } count() -> (index, index, index) {
      %x, %y, %z = iree_tensor_ext.dispatch.workgroup_count_from_slice()
      flow.return %x, %y, %z : index, index, index
    }
    %44 = flow.dispatch.workgroups(%43, %39) : (tensor<1x2x8x8x8xi32>, tensor<1x16x64xi8>) -> tensor<1x16x64xi8> =
        (%arg3: !iree_tensor_ext.dispatch.tensor<readonly:tensor<1x2x8x8x8xi32>>, %arg4: !iree_tensor_ext.dispatch.tensor<readonly:tensor<1x16x64xi8>>, %arg5: !iree_tensor_ext.dispatch.tensor<writeonly:tensor<1x16x64xi8>>) {
      %cst_6 = arith.constant 6.19276352E-6 : f32
      %cst_7 = arith.constant 0.00703363306 : f32
      %cst_8 = arith.constant 6.000000e+00 : f32
      %cst_9 = arith.constant -1.280000e+02 : f32
      %cst_10 = arith.constant 1.270000e+02 : f32
      %cst_11 = arith.constant 6.60440361E-4 : f32
      %cst_12 = arith.constant 0.00705281319 : f32
      %cst_13 = arith.constant 8.000000e+00 : f32
      %cst_14 = arith.constant 0.0279397592 : f32
      %cst_15 = arith.constant 0.0281235855 : f32
      %cst_16 = arith.constant -2.000000e+00 : f32
      %cst_17 = arith.constant dense<[704, 492, 704, 553, 291, 268, -417, -126, -461, -957, 662, -157, -1308, -277, -394, -480, 488, -604, 406, -1283, -251, -619, -656, 720, -230, -934, 423, 446, -5, 789, -743, -449, 575, -1397, -530, 1340, 241, 581, -837, 342, 740, -24, 472, -272, 37, -1169, 1310, 2, -50, 151, -500, -2304, 676, 63, 758, -592, -546, -990, 1308, -454, 125, 936, -782, 186]> : tensor<64xi32>
      %cst_18 = arith.constant dense<[-73, -71, 51, 54, 21, -114, 127, 29, 105, -128, 21, 87, -92, 5, -101, 3, 56, 17, -75, 48, -3, -3, -28, 4, 99, 20, -67, -44, 70, 80, -31, 122, 76, 53, 90, -10, -20, 53, 72, 3, 96, 80, 13, 62, -111, 26, 116, -58, 93, -15, -96, -69, 109, -106, -43, 38, 97, 104, -7, -69, -113, 6, -61, -74]> : tensor<64xi8>
      %c-128_i32 = arith.constant -128 : i32
      %c1_i32 = arith.constant 1 : i32
      %c6_i32 = arith.constant 6 : i32
      %c8_i32 = arith.constant 8 : i32
      %c-1_i32 = arith.constant -1 : i32
      %51 = iree_tensor_ext.dispatch.tensor.load %arg3, offsets = [0, 0, 0, 0, 0], sizes = [1, 2, 8, 8, 8], strides = [1, 1, 1, 1, 1] : !iree_tensor_ext.dispatch.tensor<readonly:tensor<1x2x8x8x8xi32>> -> tensor<1x2x8x8x8xi32>
      %52 = iree_tensor_ext.dispatch.tensor.load %arg4, offsets = [0, 0, 0], sizes = [1, 16, 64], strides = [1, 1, 1] : !iree_tensor_ext.dispatch.tensor<readonly:tensor<1x16x64xi8>> -> tensor<1x16x64xi8>
      %53 = tensor.empty() : tensor<1x16x64xi8>
      %54 = tensor.empty() : tensor<1x16x64xi32>
      %unpack = linalg.unpack %51 outer_dims_perm = [0, 1, 2] inner_dims_pos = [1, 2] inner_tiles = [8, 8] into %54 : tensor<1x2x8x8x8xi32> -> tensor<1x16x64xi32>
      %55 = linalg.generic {indexing_maps = [#map7, #map7, #map13, #map13, #map7], iterator_types = ["parallel", "parallel", "parallel"]} ins(%52, %unpack, %cst_17, %cst_18 : tensor<1x16x64xi8>, tensor<1x16x64xi32>, tensor<64xi32>, tensor<64xi8>) outs(%53 : tensor<1x16x64xi8>) {
      ^bb0(%in: i8, %in_19: i32, %in_20: i32, %in_21: i8, %out: i8):
        %56 = arith.muli %in_20, %c-128_i32 : i32
        %57 = arith.subi %in_19, %56 : i32
        %58 = arith.sitofp %57 : i32 to f32
        %59 = arith.mulf %58, %cst_6 : f32
        %60 = arith.divf %59, %cst_7 : f32
        %61 = math.roundeven %60 : f32
        %62 = arith.addf %61, %cst_8 : f32
        %63 = arith.maximumf %62, %cst_9 : f32
        %64 = arith.minimumf %63, %cst_10 : f32
        %65 = arith.fptosi %64 : f32 to i8
        %66 = arith.extsi %in_21 : i8 to i32
        %67 = arith.subi %66, %c1_i32 : i32
        %68 = arith.sitofp %67 : i32 to f32
        %69 = arith.mulf %68, %cst_11 : f32
        %70 = arith.extsi %65 : i8 to i32
        %71 = arith.subi %70, %c6_i32 : i32
        %72 = arith.sitofp %71 : i32 to f32
        %73 = arith.mulf %72, %cst_7 : f32
        %74 = arith.addf %73, %69 : f32
        %75 = arith.divf %74, %cst_12 : f32
        %76 = math.roundeven %75 : f32
        %77 = arith.addf %76, %cst_13 : f32
        %78 = arith.maximumf %77, %cst_9 : f32
        %79 = arith.minimumf %78, %cst_10 : f32
        %80 = arith.fptosi %79 : f32 to i8
        %81 = arith.extsi %80 : i8 to i32
        %82 = arith.subi %81, %c8_i32 : i32
        %83 = arith.sitofp %82 : i32 to f32
        %84 = arith.mulf %83, %cst_12 : f32
        %85 = arith.extsi %in : i8 to i32
        %86 = arith.subi %85, %c-1_i32 : i32
        %87 = arith.sitofp %86 : i32 to f32
        %88 = arith.mulf %87, %cst_14 : f32
        %89 = arith.addf %88, %84 : f32
        %90 = arith.divf %89, %cst_15 : f32
        %91 = math.roundeven %90 : f32
        %92 = arith.addf %91, %cst_16 : f32
        %93 = arith.maximumf %92, %cst_9 : f32
        %94 = arith.minimumf %93, %cst_10 : f32
        %95 = arith.fptosi %94 : f32 to i8
        linalg.yield %95 : i8
      } -> tensor<1x16x64xi8>
      iree_tensor_ext.dispatch.tensor.store %55, %arg5, offsets = [0, 0, 0], sizes = [1, 16, 64], strides = [1, 1, 1] : tensor<1x16x64xi8> -> !iree_tensor_ext.dispatch.tensor<writeonly:tensor<1x16x64xi8>>
      flow.return
    } count() -> (index, index, index) {
      %x, %y, %z = iree_tensor_ext.dispatch.workgroup_count_from_slice()
      flow.return %x, %y, %z : index, index, index
    }
    %45 = flow.tensor.reshape %44 : tensor<1x16x64xi8> -> tensor<16x64xi8>
    %46 = flow.dispatch.workgroups(%45) : (tensor<16x64xi8>) -> tensor<16x64xf32> =
        (%arg3: !iree_tensor_ext.dispatch.tensor<readonly:tensor<16x64xi8>>, %arg4: !iree_tensor_ext.dispatch.tensor<writeonly:tensor<16x64xf32>>) {
      %cst_6 = arith.constant 0.0281235855 : f32
      %cst_7 = arith.constant 0.000000e+00 : f32
      %cst_8 = arith.constant 6.400000e+01 : f32
      %c-2_i32 = arith.constant -2 : i32
      %51 = iree_tensor_ext.dispatch.tensor.load %arg3, offsets = [0, 0], sizes = [16, 64], strides = [1, 1] : !iree_tensor_ext.dispatch.tensor<readonly:tensor<16x64xi8>> -> tensor<16x64xi8>
      %52 = tensor.empty() : tensor<16x64xf32>
      %53 = tensor.empty() : tensor<16xf32>
      %54 = linalg.fill ins(%cst_7 : f32) outs(%53 : tensor<16xf32>) -> tensor<16xf32>
      %55 = linalg.generic {indexing_maps = [#map3, #map3], iterator_types = ["parallel", "parallel"]} ins(%51 : tensor<16x64xi8>) outs(%52 : tensor<16x64xf32>) {
      ^bb0(%in: i8, %out: f32):
        %58 = arith.extsi %in : i8 to i32
        %59 = arith.subi %58, %c-2_i32 : i32
        %60 = arith.sitofp %59 : i32 to f32
        %61 = arith.mulf %60, %cst_6 : f32
        linalg.yield %61 : f32
      } -> tensor<16x64xf32>
      %56 = linalg.generic {indexing_maps = [#map3, #map4], iterator_types = ["parallel", "reduction"]} ins(%55 : tensor<16x64xf32>) outs(%54 : tensor<16xf32>) {
      ^bb0(%in: f32, %out: f32):
        %58 = arith.addf %in, %out : f32
        linalg.yield %58 : f32
      } -> tensor<16xf32>
      %57 = linalg.generic {indexing_maps = [#map3, #map4, #map3], iterator_types = ["parallel", "parallel"]} ins(%55, %56 : tensor<16x64xf32>, tensor<16xf32>) outs(%52 : tensor<16x64xf32>) {
      ^bb0(%in: f32, %in_9: f32, %out: f32):
        %58 = arith.divf %in_9, %cst_8 : f32
        %59 = arith.subf %in, %58 : f32
        linalg.yield %59 : f32
      } -> tensor<16x64xf32>
      iree_tensor_ext.dispatch.tensor.store %57, %arg4, offsets = [0, 0], sizes = [16, 64], strides = [1, 1] : tensor<16x64xf32> -> !iree_tensor_ext.dispatch.tensor<writeonly:tensor<16x64xf32>>
      flow.return
    } count() -> (index, index, index) {
      %x, %y, %z = iree_tensor_ext.dispatch.workgroup_count_from_slice()
      flow.return %x, %y, %z : index, index, index
    }
    %47 = flow.dispatch.workgroups(%46) : (tensor<16x64xf32>) -> tensor<16x64xf32> =
        (%arg3: !iree_tensor_ext.dispatch.tensor<readonly:tensor<16x64xf32>>, %arg4: !iree_tensor_ext.dispatch.tensor<writeonly:tensor<16x64xf32>>) {
      %cst_6 = arith.constant 6.400000e+01 : f32
      %cst_7 = arith.constant 9.99999974E-6 : f32
      %cst_8 = arith.constant 0.000000e+00 : f32
      %cst_9 = arith.constant 0.0272927526 : f32
      %cst_10 = arith.constant -1.280000e+02 : f32
      %cst_11 = arith.constant 1.270000e+02 : f32
      %51 = iree_tensor_ext.dispatch.tensor.load %arg3, offsets = [0, 0], sizes = [16, 64], strides = [1, 1] : !iree_tensor_ext.dispatch.tensor<readonly:tensor<16x64xf32>> -> tensor<16x64xf32>
      %52 = tensor.empty() : tensor<16x64xf32>
      %53 = tensor.empty() : tensor<16xf32>
      %54 = linalg.fill ins(%cst_8 : f32) outs(%53 : tensor<16xf32>) -> tensor<16xf32>
      %55 = linalg.generic {indexing_maps = [#map3, #map4], iterator_types = ["parallel", "reduction"]} ins(%51 : tensor<16x64xf32>) outs(%54 : tensor<16xf32>) {
      ^bb0(%in: f32, %out: f32):
        %57 = arith.mulf %in, %in : f32
        %58 = arith.addf %57, %out : f32
        linalg.yield %58 : f32
      } -> tensor<16xf32>
      %56 = linalg.generic {indexing_maps = [#map3, #map4, #map3], iterator_types = ["parallel", "parallel"]} ins(%51, %55 : tensor<16x64xf32>, tensor<16xf32>) outs(%52 : tensor<16x64xf32>) {
      ^bb0(%in: f32, %in_12: f32, %out: f32):
        %57 = arith.divf %in_12, %cst_6 : f32
        %58 = arith.addf %57, %cst_7 : f32
        %59 = math.rsqrt %58 : f32
        %60 = arith.mulf %in, %59 : f32
        %61 = arith.addf %60, %cst_8 : f32
        %62 = arith.divf %61, %cst_9 : f32
        %63 = math.roundeven %62 : f32
        %64 = arith.addf %63, %cst_8 : f32
        %65 = arith.maximumf %64, %cst_10 : f32
        %66 = arith.minimumf %65, %cst_11 : f32
        %67 = arith.fptosi %66 : f32 to i8
        %68 = arith.extsi %67 : i8 to i32
        %69 = arith.sitofp %68 : i32 to f32
        %70 = arith.mulf %69, %cst_9 : f32
        linalg.yield %70 : f32
      } -> tensor<16x64xf32>
      iree_tensor_ext.dispatch.tensor.store %56, %arg4, offsets = [0, 0], sizes = [16, 64], strides = [1, 1] : tensor<16x64xf32> -> !iree_tensor_ext.dispatch.tensor<writeonly:tensor<16x64xf32>>
      flow.return
    } count() -> (index, index, index) {
      %x, %y, %z = iree_tensor_ext.dispatch.workgroup_count_from_slice()
      flow.return %x, %y, %z : index, index, index
    }
    %48 = flow.tensor.reshape %47 : tensor<16x64xf32> -> tensor<1x16x64xf32>
    %49 = hal.tensor.barrier join(%48 : tensor<1x16x64xf32>) => %arg2 : !hal.fence
    %50 = hal.tensor.export %49 : tensor<1x16x64xf32> -> !hal.buffer_view
    util.return %50 : !hal.buffer_view
  }
  util.func public @main_graph(%arg0: !hal.buffer_view) -> !hal.buffer_view attributes {iree.abi.stub} {
    %0 = util.null : !hal.fence
    %c-1_i32 = arith.constant -1 : i32
    %c0 = arith.constant 0 : index
    %device_0 = hal.devices.get %c0 : !hal.device
    %fence = hal.fence.create device(%device_0 : !hal.device) flags("None") : !hal.fence
    %1 = util.call @main_graph$async(%arg0, %0, %fence) : (!hal.buffer_view, !hal.fence, !hal.fence) -> !hal.buffer_view
    %status = hal.fence.await until([%fence]) timeout_millis(%c-1_i32) flags("None") : i32
    util.return %1 : !hal.buffer_view
  }
}
