module {
  func.func @main_graph(%arg0: !torch.vtensor<[1,16,64],f32>) -> !torch.vtensor<[1,16,64],f32> attributes {torch.onnx_meta.ir_version = 10 : si64, torch.onnx_meta.opset_version = 18 : si64, torch.onnx_meta.producer_name = "onnx.quantize", torch.onnx_meta.producer_version = "0.1.0"} {
    %0 = torch.operator "onnx.Constant"() {torch.onnx.value = dense_resource<val_7> : tensor<4xsi64>} : () -> !torch.vtensor<[4],si64> 
    %1 = torch.operator "onnx.Constant"() {torch.onnx.value = dense_resource<val_8> : tensor<1xsi64>} : () -> !torch.vtensor<[1],si64> 
    %2 = torch.operator "onnx.Constant"() {torch.onnx.value = dense_resource<val_9> : tensor<1xsi64>} : () -> !torch.vtensor<[1],si64> 
    %3 = torch.operator "onnx.Constant"() {torch.onnx.value = dense_resource<val_10> : tensor<si64>} : () -> !torch.vtensor<[],si64> 
    %4 = torch.operator "onnx.Constant"() {torch.onnx.value = dense_resource<val_11> : tensor<si64>} : () -> !torch.vtensor<[],si64> 
    %5 = torch.operator "onnx.Constant"() {torch.onnx.value = dense_resource<val_12> : tensor<si64>} : () -> !torch.vtensor<[],si64> 
    %6 = torch.operator "onnx.Constant"() {torch.onnx.value = dense_resource<val_17> : tensor<3xsi64>} : () -> !torch.vtensor<[3],si64> 
    %7 = torch.operator "onnx.Constant"() {torch.onnx.value = dense_resource<val_33> : tensor<4xsi64>} : () -> !torch.vtensor<[4],si64> 
    %8 = torch.operator "onnx.Constant"() {torch.onnx.value = dense_resource<val_66> : tensor<4xsi64>} : () -> !torch.vtensor<[4],si64> 
    %9 = torch.operator "onnx.Constant"() {torch.onnx.value = dense_resource<val_78> : tensor<2xsi64>} : () -> !torch.vtensor<[2],si64> 
    %10 = torch.operator "onnx.Constant"() {torch.onnx.value = dense_resource<val_83> : tensor<3xsi64>} : () -> !torch.vtensor<[3],si64> 
    %11 = torch.operator "onnx.Constant"() {torch.onnx.value = dense<6> : tensor<si8>} : () -> !torch.vtensor<[],si8> 
    %12 = torch.operator "onnx.Constant"() {torch.onnx.value = dense<0.0305404775> : tensor<f32>} : () -> !torch.vtensor<[],f32> 
    %13 = torch.operator "onnx.Constant"() {torch.onnx.value = dense<-11> : tensor<si8>} : () -> !torch.vtensor<[],si8> 
    %14 = torch.operator "onnx.Constant"() {torch.onnx.value = dense<0.0221813489> : tensor<f32>} : () -> !torch.vtensor<[],f32> 
    %15 = torch.operator "onnx.Constant"() {torch.onnx.value = dense_resource<pos_embedding_quantized> : tensor<1x16x64xsi8>} : () -> !torch.vtensor<[1,16,64],si8> 
    %16 = torch.operator "onnx.Constant"() {torch.onnx.value = dense<-6> : tensor<si8>} : () -> !torch.vtensor<[],si8> 
    %17 = torch.operator "onnx.Constant"() {torch.onnx.value = dense<0.0401942097> : tensor<f32>} : () -> !torch.vtensor<[],f32> 
    %18 = torch.operator "onnx.Constant"() {torch.onnx.value = dense<0> : tensor<si8>} : () -> !torch.vtensor<[],si8> 
    %19 = torch.operator "onnx.Constant"() {torch.onnx.value = dense<0.00120540685> : tensor<f32>} : () -> !torch.vtensor<[],f32> 
    %20 = torch.operator "onnx.Constant"() {torch.onnx.value = dense_resource<val_0_quantized> : tensor<64x192xsi8>} : () -> !torch.vtensor<[64,192],si8> 
    %21 = torch.operator "onnx.Constant"() {torch.onnx.value = dense<-3> : tensor<si8>} : () -> !torch.vtensor<[],si8> 
    %22 = torch.operator "onnx.Constant"() {torch.onnx.value = dense<0.0303649548> : tensor<f32>} : () -> !torch.vtensor<[],f32> 
    %23 = torch.operator "onnx.Constant"() {torch.onnx.value = dense<0> : tensor<si8>} : () -> !torch.vtensor<[],si8> 
    %24 = torch.operator "onnx.Constant"() {torch.onnx.value = dense<1.000000e+00> : tensor<f32>} : () -> !torch.vtensor<[],f32> 
    %25 = torch.operator "onnx.Constant"() {torch.onnx.value = dense_resource<_encoder.layers.0.self_attn.in_proj_bias_quantized> : tensor<192xsi8>} : () -> !torch.vtensor<[192],si8> 
    %26 = torch.operator "onnx.Constant"() {torch.onnx.value = dense<-3> : tensor<si8>} : () -> !torch.vtensor<[],si8> 
    %27 = torch.operator "onnx.Constant"() {torch.onnx.value = dense<0.0303649548> : tensor<f32>} : () -> !torch.vtensor<[],f32> 
    %28 = torch.operator "onnx.Constant"() {torch.onnx.value = dense<-128> : tensor<si8>} : () -> !torch.vtensor<[],si8> 
    %29 = torch.operator "onnx.Constant"() {torch.onnx.value = dense<0.00233177864> : tensor<f32>} : () -> !torch.vtensor<[],f32> 
    %30 = torch.operator "onnx.Constant"() {torch.onnx.value = dense_resource<val_68_quantized> : tensor<1xsi8>} : () -> !torch.vtensor<[1],si8> 
    %31 = torch.operator "onnx.Constant"() {torch.onnx.value = dense<-7> : tensor<si8>} : () -> !torch.vtensor<[],si8> 
    %32 = torch.operator "onnx.Constant"() {torch.onnx.value = dense<0.0174676217> : tensor<f32>} : () -> !torch.vtensor<[],f32> 
    %33 = torch.operator "onnx.Constant"() {torch.onnx.value = dense<7> : tensor<si8>} : () -> !torch.vtensor<[],si8> 
    %34 = torch.operator "onnx.Constant"() {torch.onnx.value = dense<0.0163703207> : tensor<f32>} : () -> !torch.vtensor<[],f32> 
    %35 = torch.operator "onnx.Constant"() {torch.onnx.value = dense<-19> : tensor<si8>} : () -> !torch.vtensor<[],si8> 
    %36 = torch.operator "onnx.Constant"() {torch.onnx.value = dense<0.0439176746> : tensor<f32>} : () -> !torch.vtensor<[],f32> 
    %37 = torch.operator "onnx.Constant"() {torch.onnx.value = dense<-128> : tensor<si8>} : () -> !torch.vtensor<[],si8> 
    %38 = torch.operator "onnx.Constant"() {torch.onnx.value = dense<0.00392156886> : tensor<f32>} : () -> !torch.vtensor<[],f32> 
    %39 = torch.operator "onnx.Constant"() {torch.onnx.value = dense<-17> : tensor<si8>} : () -> !torch.vtensor<[],si8> 
    %40 = torch.operator "onnx.Constant"() {torch.onnx.value = dense<0.0169109609> : tensor<f32>} : () -> !torch.vtensor<[],f32> 
    %41 = torch.operator "onnx.Constant"() {torch.onnx.value = dense<10> : tensor<si8>} : () -> !torch.vtensor<[],si8> 
    %42 = torch.operator "onnx.Constant"() {torch.onnx.value = dense<0.00713164685> : tensor<f32>} : () -> !torch.vtensor<[],f32> 
    %43 = torch.operator "onnx.Constant"() {torch.onnx.value = dense<0> : tensor<si8>} : () -> !torch.vtensor<[],si8> 
    %44 = torch.operator "onnx.Constant"() {torch.onnx.value = dense<9.84067679E-4> : tensor<f32>} : () -> !torch.vtensor<[],f32> 
    %45 = torch.operator "onnx.Constant"() {torch.onnx.value = dense_resource<_encoder.layers.0.self_attn.out_proj.weight_quantized> : tensor<64x64xsi8>} : () -> !torch.vtensor<[64,64],si8> 
    %46 = torch.operator "onnx.Constant"() {torch.onnx.value = dense<-4> : tensor<si8>} : () -> !torch.vtensor<[],si8> 
    %47 = torch.operator "onnx.Constant"() {torch.onnx.value = dense<0.0410950892> : tensor<f32>} : () -> !torch.vtensor<[],f32> 
    %48 = torch.operator "onnx.Constant"() {torch.onnx.value = dense<0> : tensor<si8>} : () -> !torch.vtensor<[],si8> 
    %49 = torch.operator "onnx.Constant"() {torch.onnx.value = dense<0.00787401571> : tensor<f32>} : () -> !torch.vtensor<[],f32> 
    %50 = torch.operator "onnx.Constant"() {torch.onnx.value = dense_resource<_encoder.layers.0.norm1.weight_quantized> : tensor<64xsi8>} : () -> !torch.vtensor<[64],si8> 
    %51 = torch.operator "onnx.Constant"() {torch.onnx.value = dense<-1> : tensor<si8>} : () -> !torch.vtensor<[],si8> 
    %52 = torch.operator "onnx.Constant"() {torch.onnx.value = dense<0.0279397592> : tensor<f32>} : () -> !torch.vtensor<[],f32> 
    %53 = torch.operator "onnx.Constant"() {torch.onnx.value = dense<0> : tensor<si8>} : () -> !torch.vtensor<[],si8> 
    %54 = torch.operator "onnx.Constant"() {torch.onnx.value = dense<9.84115293E-4> : tensor<f32>} : () -> !torch.vtensor<[],f32> 
    %55 = torch.operator "onnx.Constant"() {torch.onnx.value = dense_resource<val_86_quantized> : tensor<64x128xsi8>} : () -> !torch.vtensor<[64,128],si8> 
    %56 = torch.operator "onnx.Constant"() {torch.onnx.value = dense<-7> : tensor<si8>} : () -> !torch.vtensor<[],si8> 
    %57 = torch.operator "onnx.Constant"() {torch.onnx.value = dense<0.0161407888> : tensor<f32>} : () -> !torch.vtensor<[],f32> 
    %58 = torch.operator "onnx.Constant"() {torch.onnx.value = dense<-2> : tensor<si8>} : () -> !torch.vtensor<[],si8> 
    %59 = torch.operator "onnx.Constant"() {torch.onnx.value = dense<9.55601921E-4> : tensor<f32>} : () -> !torch.vtensor<[],f32> 
    %60 = torch.operator "onnx.Constant"() {torch.onnx.value = dense_resource<_encoder.layers.0.linear1.bias_quantized> : tensor<128xsi8>} : () -> !torch.vtensor<[128],si8> 
    %61 = torch.operator "onnx.Constant"() {torch.onnx.value = dense<-128> : tensor<si8>} : () -> !torch.vtensor<[],si8> 
    %62 = torch.operator "onnx.Constant"() {torch.onnx.value = dense<8.898490e-03> : tensor<f32>} : () -> !torch.vtensor<[],f32> 
    %63 = torch.operator "onnx.Constant"() {torch.onnx.value = dense<0> : tensor<si8>} : () -> !torch.vtensor<[],si8> 
    %64 = torch.operator "onnx.Constant"() {torch.onnx.value = dense<6.95934228E-4> : tensor<f32>} : () -> !torch.vtensor<[],f32> 
    %65 = torch.operator "onnx.Constant"() {torch.onnx.value = dense_resource<val_88_quantized> : tensor<128x64xsi8>} : () -> !torch.vtensor<[128,64],si8> 
    %66 = torch.operator "onnx.Constant"() {torch.onnx.value = dense<6> : tensor<si8>} : () -> !torch.vtensor<[],si8> 
    %67 = torch.operator "onnx.Constant"() {torch.onnx.value = dense<0.00703363306> : tensor<f32>} : () -> !torch.vtensor<[],f32> 
    %68 = torch.operator "onnx.Constant"() {torch.onnx.value = dense<1> : tensor<si8>} : () -> !torch.vtensor<[],si8> 
    %69 = torch.operator "onnx.Constant"() {torch.onnx.value = dense<6.60440361E-4> : tensor<f32>} : () -> !torch.vtensor<[],f32> 
    %70 = torch.operator "onnx.Constant"() {torch.onnx.value = dense_resource<_encoder.layers.0.linear2.bias_quantized> : tensor<64xsi8>} : () -> !torch.vtensor<[64],si8> 
    %71 = torch.operator "onnx.Constant"() {torch.onnx.value = dense<8> : tensor<si8>} : () -> !torch.vtensor<[],si8> 
    %72 = torch.operator "onnx.Constant"() {torch.onnx.value = dense<0.00705281319> : tensor<f32>} : () -> !torch.vtensor<[],f32> 
    %73 = torch.operator "onnx.Constant"() {torch.onnx.value = dense<-2> : tensor<si8>} : () -> !torch.vtensor<[],si8> 
    %74 = torch.operator "onnx.Constant"() {torch.onnx.value = dense<0.0281235855> : tensor<f32>} : () -> !torch.vtensor<[],f32> 
    %75 = torch.operator "onnx.Constant"() {torch.onnx.value = dense<0> : tensor<si8>} : () -> !torch.vtensor<[],si8> 
    %76 = torch.operator "onnx.Constant"() {torch.onnx.value = dense<0.0272927526> : tensor<f32>} : () -> !torch.vtensor<[],f32> 
    %77 = torch.operator "onnx.Constant"() {torch.onnx.value = dense_resource<_encoder.layers.0.self_attn.out_proj.bias_quantized> : tensor<64xsi32>} : () -> !torch.vtensor<[64],si32> 
    %78 = torch.operator "onnx.Constant"() {torch.onnx.value = dense_resource<_encoder.layers.0.self_attn.out_proj.bias_quantized_scale> : tensor<1xf32>} : () -> !torch.vtensor<[1],f32> 
    %79 = torch.operator "onnx.Constant"() {torch.onnx.value = dense<0> : tensor<si32>} : () -> !torch.vtensor<[],si32> 
    %80 = torch.operator "onnx.Constant"() {torch.onnx.value = dense_resource<_encoder.layers.0.self_attn.out_proj.bias0_quantized> : tensor<64xsi32>} : () -> !torch.vtensor<[64],si32> 
    %81 = torch.operator "onnx.Constant"() {torch.onnx.value = dense_resource<_encoder.layers.0.self_attn.out_proj.bias0_quantized_scale> : tensor<1xf32>} : () -> !torch.vtensor<[1],f32> 
    %82 = torch.operator "onnx.Constant"() {torch.onnx.value = dense<0> : tensor<si32>} : () -> !torch.vtensor<[],si32> 
    %83 = torch.operator "onnx.Constant"() {torch.onnx.value = dense_resource<_encoder.layers.0.self_attn.out_proj.bias1_quantized> : tensor<64xsi32>} : () -> !torch.vtensor<[64],si32> 
    %84 = torch.operator "onnx.Constant"() {torch.onnx.value = dense_resource<_encoder.layers.0.self_attn.out_proj.bias1_quantized_scale> : tensor<1xf32>} : () -> !torch.vtensor<[1],f32> 
    %85 = torch.operator "onnx.Constant"() {torch.onnx.value = dense<0> : tensor<si32>} : () -> !torch.vtensor<[],si32> 
    %none = torch.constant.none
    %86 = torch.operator "onnx.DequantizeLinear"(%60, %59, %58) : (!torch.vtensor<[128],si8>, !torch.vtensor<[],f32>, !torch.vtensor<[],si8>) -> !torch.vtensor<[128],f32> 
    %87 = torch.operator "onnx.DequantizeLinear"(%70, %69, %68) : (!torch.vtensor<[64],si8>, !torch.vtensor<[],f32>, !torch.vtensor<[],si8>) -> !torch.vtensor<[64],f32> 
    %88 = torch.operator "onnx.DequantizeLinear"(%50, %49, %48) : (!torch.vtensor<[64],si8>, !torch.vtensor<[],f32>, !torch.vtensor<[],si8>) -> !torch.vtensor<[64],f32> 
    %89 = torch.operator "onnx.DequantizeLinear"(%25, %24, %23) : (!torch.vtensor<[192],si8>, !torch.vtensor<[],f32>, !torch.vtensor<[],si8>) -> !torch.vtensor<[192],f32> 
    %90 = torch.operator "onnx.DequantizeLinear"(%80, %81, %82) : (!torch.vtensor<[64],si32>, !torch.vtensor<[1],f32>, !torch.vtensor<[],si32>) -> !torch.vtensor<[64],f32> 
    %91 = torch.operator "onnx.DequantizeLinear"(%83, %84, %85) : (!torch.vtensor<[64],si32>, !torch.vtensor<[1],f32>, !torch.vtensor<[],si32>) -> !torch.vtensor<[64],f32> 
    %92 = torch.operator "onnx.DequantizeLinear"(%77, %78, %79) : (!torch.vtensor<[64],si32>, !torch.vtensor<[1],f32>, !torch.vtensor<[],si32>) -> !torch.vtensor<[64],f32> 
    %93 = torch.operator "onnx.DequantizeLinear"(%45, %44, %43) : (!torch.vtensor<[64,64],si8>, !torch.vtensor<[],f32>, !torch.vtensor<[],si8>) -> !torch.vtensor<[64,64],f32> 
    %94 = torch.operator "onnx.QuantizeLinear"(%arg0, %12, %11) : (!torch.vtensor<[1,16,64],f32>, !torch.vtensor<[],f32>, !torch.vtensor<[],si8>) -> !torch.vtensor<[1,16,64],si8> 
    %95 = torch.operator "onnx.DequantizeLinear"(%15, %14, %13) : (!torch.vtensor<[1,16,64],si8>, !torch.vtensor<[],f32>, !torch.vtensor<[],si8>) -> !torch.vtensor<[1,16,64],f32> 
    %96 = torch.operator "onnx.DequantizeLinear"(%20, %19, %18) : (!torch.vtensor<[64,192],si8>, !torch.vtensor<[],f32>, !torch.vtensor<[],si8>) -> !torch.vtensor<[64,192],f32> 
    %97 = torch.operator "onnx.DequantizeLinear"(%30, %29, %28) : (!torch.vtensor<[1],si8>, !torch.vtensor<[],f32>, !torch.vtensor<[],si8>) -> !torch.vtensor<[1],f32> 
    %98 = torch.operator "onnx.DequantizeLinear"(%55, %54, %53) : (!torch.vtensor<[64,128],si8>, !torch.vtensor<[],f32>, !torch.vtensor<[],si8>) -> !torch.vtensor<[64,128],f32> 
    %99 = torch.operator "onnx.DequantizeLinear"(%65, %64, %63) : (!torch.vtensor<[128,64],si8>, !torch.vtensor<[],f32>, !torch.vtensor<[],si8>) -> !torch.vtensor<[128,64],f32> 
    %100 = torch.operator "onnx.DequantizeLinear"(%94, %12, %11) : (!torch.vtensor<[1,16,64],si8>, !torch.vtensor<[],f32>, !torch.vtensor<[],si8>) -> !torch.vtensor<[1,16,64],f32> 
    %101 = torch.operator "onnx.Add"(%100, %95) : (!torch.vtensor<[1,16,64],f32>, !torch.vtensor<[1,16,64],f32>) -> !torch.vtensor<[1,16,64],f32> 
    %102 = torch.operator "onnx.QuantizeLinear"(%101, %17, %16) : (!torch.vtensor<[1,16,64],f32>, !torch.vtensor<[],f32>, !torch.vtensor<[],si8>) -> !torch.vtensor<[1,16,64],si8> 
    %103 = torch.operator "onnx.DequantizeLinear"(%102, %17, %16) : (!torch.vtensor<[1,16,64],si8>, !torch.vtensor<[],f32>, !torch.vtensor<[],si8>) -> !torch.vtensor<[1,16,64],f32> 
    %104 = torch.operator "onnx.Transpose"(%103) {torch.onnx.perm = [1 : si64, 0 : si64, 2 : si64]} : (!torch.vtensor<[1,16,64],f32>) -> !torch.vtensor<[16,1,64],f32> 
    %105 = torch.operator "onnx.QuantizeLinear"(%104, %17, %16) : (!torch.vtensor<[16,1,64],f32>, !torch.vtensor<[],f32>, !torch.vtensor<[],si8>) -> !torch.vtensor<[16,1,64],si8> 
    %106 = torch.operator "onnx.DequantizeLinear"(%105, %17, %16) : (!torch.vtensor<[16,1,64],si8>, !torch.vtensor<[],f32>, !torch.vtensor<[],si8>) -> !torch.vtensor<[16,1,64],f32> 
    %107 = torch.operator "onnx.MatMul"(%106, %96) : (!torch.vtensor<[16,1,64],f32>, !torch.vtensor<[64,192],f32>) -> !torch.vtensor<[16,1,192],f32> 
    %108 = torch.operator "onnx.QuantizeLinear"(%107, %22, %21) : (!torch.vtensor<[16,1,192],f32>, !torch.vtensor<[],f32>, !torch.vtensor<[],si8>) -> !torch.vtensor<[16,1,192],si8> 
    %109 = torch.operator "onnx.DequantizeLinear"(%108, %22, %21) : (!torch.vtensor<[16,1,192],si8>, !torch.vtensor<[],f32>, !torch.vtensor<[],si8>) -> !torch.vtensor<[16,1,192],f32> 
    %110 = torch.operator "onnx.Add"(%109, %89) : (!torch.vtensor<[16,1,192],f32>, !torch.vtensor<[192],f32>) -> !torch.vtensor<[16,1,192],f32> 
    %111 = torch.operator "onnx.QuantizeLinear"(%110, %27, %26) : (!torch.vtensor<[16,1,192],f32>, !torch.vtensor<[],f32>, !torch.vtensor<[],si8>) -> !torch.vtensor<[16,1,192],si8> 
    %112 = torch.operator "onnx.DequantizeLinear"(%111, %27, %26) : (!torch.vtensor<[16,1,192],si8>, !torch.vtensor<[],f32>, !torch.vtensor<[],si8>) -> !torch.vtensor<[16,1,192],f32> 
    %113 = torch.operator "onnx.Reshape"(%112, %0) {torch.onnx.allowzero = 1 : si64} : (!torch.vtensor<[16,1,192],f32>, !torch.vtensor<[4],si64>) -> !torch.vtensor<[16,1,3,64],f32> 
    %114 = torch.operator "onnx.QuantizeLinear"(%113, %27, %26) : (!torch.vtensor<[16,1,3,64],f32>, !torch.vtensor<[],f32>, !torch.vtensor<[],si8>) -> !torch.vtensor<[16,1,3,64],si8> 
    %115 = torch.operator "onnx.DequantizeLinear"(%114, %27, %26) : (!torch.vtensor<[16,1,3,64],si8>, !torch.vtensor<[],f32>, !torch.vtensor<[],si8>) -> !torch.vtensor<[16,1,3,64],f32> 
    %116 = torch.operator "onnx.Unsqueeze"(%115, %1) : (!torch.vtensor<[16,1,3,64],f32>, !torch.vtensor<[1],si64>) -> !torch.vtensor<[1,16,1,3,64],f32> 
    %117 = torch.operator "onnx.QuantizeLinear"(%116, %27, %26) : (!torch.vtensor<[1,16,1,3,64],f32>, !torch.vtensor<[],f32>, !torch.vtensor<[],si8>) -> !torch.vtensor<[1,16,1,3,64],si8> 
    %118 = torch.operator "onnx.DequantizeLinear"(%117, %27, %26) : (!torch.vtensor<[1,16,1,3,64],si8>, !torch.vtensor<[],f32>, !torch.vtensor<[],si8>) -> !torch.vtensor<[1,16,1,3,64],f32> 
    %119 = torch.operator "onnx.Transpose"(%118) {torch.onnx.perm = [3 : si64, 1 : si64, 2 : si64, 0 : si64, 4 : si64]} : (!torch.vtensor<[1,16,1,3,64],f32>) -> !torch.vtensor<[3,16,1,1,64],f32> 
    %120 = torch.operator "onnx.QuantizeLinear"(%119, %27, %26) : (!torch.vtensor<[3,16,1,1,64],f32>, !torch.vtensor<[],f32>, !torch.vtensor<[],si8>) -> !torch.vtensor<[3,16,1,1,64],si8> 
    %121 = torch.operator "onnx.DequantizeLinear"(%120, %27, %26) : (!torch.vtensor<[3,16,1,1,64],si8>, !torch.vtensor<[],f32>, !torch.vtensor<[],si8>) -> !torch.vtensor<[3,16,1,1,64],f32> 
    %122 = torch.operator "onnx.Squeeze"(%121, %2) : (!torch.vtensor<[3,16,1,1,64],f32>, !torch.vtensor<[1],si64>) -> !torch.vtensor<[3,16,1,64],f32> 
    %123 = torch.operator "onnx.QuantizeLinear"(%122, %27, %26) : (!torch.vtensor<[3,16,1,64],f32>, !torch.vtensor<[],f32>, !torch.vtensor<[],si8>) -> !torch.vtensor<[3,16,1,64],si8> 
    %124 = torch.operator "onnx.DequantizeLinear"(%123, %27, %26) : (!torch.vtensor<[3,16,1,64],si8>, !torch.vtensor<[],f32>, !torch.vtensor<[],si8>) -> !torch.vtensor<[3,16,1,64],f32> 
    %125 = torch.operator "onnx.Gather"(%124, %3) {torch.onnx.axis = 0 : si64} : (!torch.vtensor<[3,16,1,64],f32>, !torch.vtensor<[],si64>) -> !torch.vtensor<[16,1,64],f32> 
    %126 = torch.operator "onnx.Gather"(%124, %4) {torch.onnx.axis = 0 : si64} : (!torch.vtensor<[3,16,1,64],f32>, !torch.vtensor<[],si64>) -> !torch.vtensor<[16,1,64],f32> 
    %127 = torch.operator "onnx.Gather"(%124, %5) {torch.onnx.axis = 0 : si64} : (!torch.vtensor<[3,16,1,64],f32>, !torch.vtensor<[],si64>) -> !torch.vtensor<[16,1,64],f32> 
    %128 = torch.operator "onnx.QuantizeLinear"(%125, %27, %26) : (!torch.vtensor<[16,1,64],f32>, !torch.vtensor<[],f32>, !torch.vtensor<[],si8>) -> !torch.vtensor<[16,1,64],si8> 
    %129 = torch.operator "onnx.QuantizeLinear"(%126, %27, %26) : (!torch.vtensor<[16,1,64],f32>, !torch.vtensor<[],f32>, !torch.vtensor<[],si8>) -> !torch.vtensor<[16,1,64],si8> 
    %130 = torch.operator "onnx.QuantizeLinear"(%127, %27, %26) : (!torch.vtensor<[16,1,64],f32>, !torch.vtensor<[],f32>, !torch.vtensor<[],si8>) -> !torch.vtensor<[16,1,64],si8> 
    %131 = torch.operator "onnx.DequantizeLinear"(%128, %27, %26) : (!torch.vtensor<[16,1,64],si8>, !torch.vtensor<[],f32>, !torch.vtensor<[],si8>) -> !torch.vtensor<[16,1,64],f32> 
    %132 = torch.operator "onnx.DequantizeLinear"(%129, %27, %26) : (!torch.vtensor<[16,1,64],si8>, !torch.vtensor<[],f32>, !torch.vtensor<[],si8>) -> !torch.vtensor<[16,1,64],f32> 
    %133 = torch.operator "onnx.DequantizeLinear"(%130, %27, %26) : (!torch.vtensor<[16,1,64],si8>, !torch.vtensor<[],f32>, !torch.vtensor<[],si8>) -> !torch.vtensor<[16,1,64],f32> 
    %134 = torch.operator "onnx.Reshape"(%131, %6) {torch.onnx.allowzero = 1 : si64} : (!torch.vtensor<[16,1,64],f32>, !torch.vtensor<[3],si64>) -> !torch.vtensor<[16,8,8],f32> 
    %135 = torch.operator "onnx.Reshape"(%132, %6) {torch.onnx.allowzero = 1 : si64} : (!torch.vtensor<[16,1,64],f32>, !torch.vtensor<[3],si64>) -> !torch.vtensor<[16,8,8],f32> 
    %136 = torch.operator "onnx.Reshape"(%133, %6) {torch.onnx.allowzero = 1 : si64} : (!torch.vtensor<[16,1,64],f32>, !torch.vtensor<[3],si64>) -> !torch.vtensor<[16,8,8],f32> 
    %137 = torch.operator "onnx.QuantizeLinear"(%134, %27, %26) : (!torch.vtensor<[16,8,8],f32>, !torch.vtensor<[],f32>, !torch.vtensor<[],si8>) -> !torch.vtensor<[16,8,8],si8> 
    %138 = torch.operator "onnx.QuantizeLinear"(%135, %27, %26) : (!torch.vtensor<[16,8,8],f32>, !torch.vtensor<[],f32>, !torch.vtensor<[],si8>) -> !torch.vtensor<[16,8,8],si8> 
    %139 = torch.operator "onnx.QuantizeLinear"(%136, %27, %26) : (!torch.vtensor<[16,8,8],f32>, !torch.vtensor<[],f32>, !torch.vtensor<[],si8>) -> !torch.vtensor<[16,8,8],si8> 
    %140 = torch.operator "onnx.DequantizeLinear"(%137, %27, %26) : (!torch.vtensor<[16,8,8],si8>, !torch.vtensor<[],f32>, !torch.vtensor<[],si8>) -> !torch.vtensor<[16,8,8],f32> 
    %141 = torch.operator "onnx.DequantizeLinear"(%138, %27, %26) : (!torch.vtensor<[16,8,8],si8>, !torch.vtensor<[],f32>, !torch.vtensor<[],si8>) -> !torch.vtensor<[16,8,8],f32> 
    %142 = torch.operator "onnx.DequantizeLinear"(%139, %27, %26) : (!torch.vtensor<[16,8,8],si8>, !torch.vtensor<[],f32>, !torch.vtensor<[],si8>) -> !torch.vtensor<[16,8,8],f32> 
    %143 = torch.operator "onnx.Transpose"(%140) {torch.onnx.perm = [1 : si64, 0 : si64, 2 : si64]} : (!torch.vtensor<[16,8,8],f32>) -> !torch.vtensor<[8,16,8],f32> 
    %144 = torch.operator "onnx.Transpose"(%141) {torch.onnx.perm = [1 : si64, 0 : si64, 2 : si64]} : (!torch.vtensor<[16,8,8],f32>) -> !torch.vtensor<[8,16,8],f32> 
    %145 = torch.operator "onnx.Transpose"(%142) {torch.onnx.perm = [1 : si64, 0 : si64, 2 : si64]} : (!torch.vtensor<[16,8,8],f32>) -> !torch.vtensor<[8,16,8],f32> 
    %146 = torch.operator "onnx.QuantizeLinear"(%143, %27, %26) : (!torch.vtensor<[8,16,8],f32>, !torch.vtensor<[],f32>, !torch.vtensor<[],si8>) -> !torch.vtensor<[8,16,8],si8> 
    %147 = torch.operator "onnx.QuantizeLinear"(%144, %27, %26) : (!torch.vtensor<[8,16,8],f32>, !torch.vtensor<[],f32>, !torch.vtensor<[],si8>) -> !torch.vtensor<[8,16,8],si8> 
    %148 = torch.operator "onnx.QuantizeLinear"(%145, %27, %26) : (!torch.vtensor<[8,16,8],f32>, !torch.vtensor<[],f32>, !torch.vtensor<[],si8>) -> !torch.vtensor<[8,16,8],si8> 
    %149 = torch.operator "onnx.DequantizeLinear"(%146, %27, %26) : (!torch.vtensor<[8,16,8],si8>, !torch.vtensor<[],f32>, !torch.vtensor<[],si8>) -> !torch.vtensor<[8,16,8],f32> 
    %150 = torch.operator "onnx.DequantizeLinear"(%147, %27, %26) : (!torch.vtensor<[8,16,8],si8>, !torch.vtensor<[],f32>, !torch.vtensor<[],si8>) -> !torch.vtensor<[8,16,8],f32> 
    %151 = torch.operator "onnx.DequantizeLinear"(%148, %27, %26) : (!torch.vtensor<[8,16,8],si8>, !torch.vtensor<[],f32>, !torch.vtensor<[],si8>) -> !torch.vtensor<[8,16,8],f32> 
    %152 = torch.operator "onnx.Reshape"(%149, %7) {torch.onnx.allowzero = 1 : si64} : (!torch.vtensor<[8,16,8],f32>, !torch.vtensor<[4],si64>) -> !torch.vtensor<[1,8,16,8],f32> 
    %153 = torch.operator "onnx.Transpose"(%150) {torch.onnx.perm = [0 : si64, 2 : si64, 1 : si64]} : (!torch.vtensor<[8,16,8],f32>) -> !torch.vtensor<[8,8,16],f32> 
    %154 = torch.operator "onnx.Reshape"(%151, %7) {torch.onnx.allowzero = 1 : si64} : (!torch.vtensor<[8,16,8],f32>, !torch.vtensor<[4],si64>) -> !torch.vtensor<[1,8,16,8],f32> 
    %155 = torch.operator "onnx.QuantizeLinear"(%152, %27, %26) : (!torch.vtensor<[1,8,16,8],f32>, !torch.vtensor<[],f32>, !torch.vtensor<[],si8>) -> !torch.vtensor<[1,8,16,8],si8> 
    %156 = torch.operator "onnx.QuantizeLinear"(%153, %27, %26) : (!torch.vtensor<[8,8,16],f32>, !torch.vtensor<[],f32>, !torch.vtensor<[],si8>) -> !torch.vtensor<[8,8,16],si8> 
    %157 = torch.operator "onnx.QuantizeLinear"(%154, %27, %26) : (!torch.vtensor<[1,8,16,8],f32>, !torch.vtensor<[],f32>, !torch.vtensor<[],si8>) -> !torch.vtensor<[1,8,16,8],si8> 
    %158 = torch.operator "onnx.DequantizeLinear"(%155, %27, %26) : (!torch.vtensor<[1,8,16,8],si8>, !torch.vtensor<[],f32>, !torch.vtensor<[],si8>) -> !torch.vtensor<[1,8,16,8],f32> 
    %159 = torch.operator "onnx.DequantizeLinear"(%156, %27, %26) : (!torch.vtensor<[8,8,16],si8>, !torch.vtensor<[],f32>, !torch.vtensor<[],si8>) -> !torch.vtensor<[8,8,16],f32> 
    %160 = torch.operator "onnx.DequantizeLinear"(%157, %27, %26) : (!torch.vtensor<[1,8,16,8],si8>, !torch.vtensor<[],f32>, !torch.vtensor<[],si8>) -> !torch.vtensor<[1,8,16,8],f32> 
    %161 = torch.operator "onnx.Mul"(%158, %97) : (!torch.vtensor<[1,8,16,8],f32>, !torch.vtensor<[1],f32>) -> !torch.vtensor<[1,8,16,8],f32> 
    %162 = torch.operator "onnx.Reshape"(%159, %8) {torch.onnx.allowzero = 0 : si64} : (!torch.vtensor<[8,8,16],f32>, !torch.vtensor<[4],si64>) -> !torch.vtensor<[1,8,8,16],f32> 
    %163 = torch.operator "onnx.QuantizeLinear"(%161, %32, %31) : (!torch.vtensor<[1,8,16,8],f32>, !torch.vtensor<[],f32>, !torch.vtensor<[],si8>) -> !torch.vtensor<[1,8,16,8],si8> 
    %164 = torch.operator "onnx.QuantizeLinear"(%162, %27, %26) : (!torch.vtensor<[1,8,8,16],f32>, !torch.vtensor<[],f32>, !torch.vtensor<[],si8>) -> !torch.vtensor<[1,8,8,16],si8> 
    %165 = torch.operator "onnx.DequantizeLinear"(%163, %32, %31) : (!torch.vtensor<[1,8,16,8],si8>, !torch.vtensor<[],f32>, !torch.vtensor<[],si8>) -> !torch.vtensor<[1,8,16,8],f32> 
    %166 = torch.operator "onnx.DequantizeLinear"(%164, %27, %26) : (!torch.vtensor<[1,8,8,16],si8>, !torch.vtensor<[],f32>, !torch.vtensor<[],si8>) -> !torch.vtensor<[1,8,8,16],f32> 
    %167 = torch.operator "onnx.Mul"(%166, %97) : (!torch.vtensor<[1,8,8,16],f32>, !torch.vtensor<[1],f32>) -> !torch.vtensor<[1,8,8,16],f32> 
    %168 = torch.operator "onnx.QuantizeLinear"(%167, %34, %33) : (!torch.vtensor<[1,8,8,16],f32>, !torch.vtensor<[],f32>, !torch.vtensor<[],si8>) -> !torch.vtensor<[1,8,8,16],si8> 
    %169 = torch.operator "onnx.DequantizeLinear"(%168, %34, %33) : (!torch.vtensor<[1,8,8,16],si8>, !torch.vtensor<[],f32>, !torch.vtensor<[],si8>) -> !torch.vtensor<[1,8,8,16],f32> 
    %170 = torch.operator "onnx.MatMul"(%165, %169) : (!torch.vtensor<[1,8,16,8],f32>, !torch.vtensor<[1,8,8,16],f32>) -> !torch.vtensor<[1,8,16,16],f32> 
    %171 = torch.operator "onnx.QuantizeLinear"(%170, %36, %35) : (!torch.vtensor<[1,8,16,16],f32>, !torch.vtensor<[],f32>, !torch.vtensor<[],si8>) -> !torch.vtensor<[1,8,16,16],si8> 
    %172 = torch.operator "onnx.DequantizeLinear"(%171, %36, %35) : (!torch.vtensor<[1,8,16,16],si8>, !torch.vtensor<[],f32>, !torch.vtensor<[],si8>) -> !torch.vtensor<[1,8,16,16],f32> 
    %173 = torch.operator "onnx.Softmax"(%172) {torch.onnx.axis = -1 : si64} : (!torch.vtensor<[1,8,16,16],f32>) -> !torch.vtensor<[1,8,16,16],f32> 
    %174 = torch.operator "onnx.QuantizeLinear"(%173, %38, %37) : (!torch.vtensor<[1,8,16,16],f32>, !torch.vtensor<[],f32>, !torch.vtensor<[],si8>) -> !torch.vtensor<[1,8,16,16],si8> 
    %175 = torch.operator "onnx.DequantizeLinear"(%174, %38, %37) : (!torch.vtensor<[1,8,16,16],si8>, !torch.vtensor<[],f32>, !torch.vtensor<[],si8>) -> !torch.vtensor<[1,8,16,16],f32> 
    %176 = torch.operator "onnx.MatMul"(%175, %160) : (!torch.vtensor<[1,8,16,16],f32>, !torch.vtensor<[1,8,16,8],f32>) -> !torch.vtensor<[1,8,16,8],f32> 
    %177 = torch.operator "onnx.QuantizeLinear"(%176, %40, %39) : (!torch.vtensor<[1,8,16,8],f32>, !torch.vtensor<[],f32>, !torch.vtensor<[],si8>) -> !torch.vtensor<[1,8,16,8],si8> 
    %178 = torch.operator "onnx.DequantizeLinear"(%177, %40, %39) : (!torch.vtensor<[1,8,16,8],si8>, !torch.vtensor<[],f32>, !torch.vtensor<[],si8>) -> !torch.vtensor<[1,8,16,8],f32> 
    %179 = torch.operator "onnx.Transpose"(%178) {torch.onnx.perm = [2 : si64, 0 : si64, 1 : si64, 3 : si64]} : (!torch.vtensor<[1,8,16,8],f32>) -> !torch.vtensor<[16,1,8,8],f32> 
    %180 = torch.operator "onnx.QuantizeLinear"(%179, %40, %39) : (!torch.vtensor<[16,1,8,8],f32>, !torch.vtensor<[],f32>, !torch.vtensor<[],si8>) -> !torch.vtensor<[16,1,8,8],si8> 
    %181 = torch.operator "onnx.DequantizeLinear"(%180, %40, %39) : (!torch.vtensor<[16,1,8,8],si8>, !torch.vtensor<[],f32>, !torch.vtensor<[],si8>) -> !torch.vtensor<[16,1,8,8],f32> 
    %182 = torch.operator "onnx.Reshape"(%181, %9) {torch.onnx.allowzero = 1 : si64} : (!torch.vtensor<[16,1,8,8],f32>, !torch.vtensor<[2],si64>) -> !torch.vtensor<[16,64],f32> 
    %183 = torch.operator "onnx.QuantizeLinear"(%182, %40, %39) : (!torch.vtensor<[16,64],f32>, !torch.vtensor<[],f32>, !torch.vtensor<[],si8>) -> !torch.vtensor<[16,64],si8> 
    %184 = torch.operator "onnx.DequantizeLinear"(%183, %40, %39) : (!torch.vtensor<[16,64],si8>, !torch.vtensor<[],f32>, !torch.vtensor<[],si8>) -> !torch.vtensor<[16,64],f32> 
    %185 = torch.operator "onnx.Gemm"(%184, %93, %92) {torch.onnx.alpha = 1.000000e+00 : f32, torch.onnx.beta = 1.000000e+00 : f32, torch.onnx.transA = 0 : si64, torch.onnx.transB = 1 : si64} : (!torch.vtensor<[16,64],f32>, !torch.vtensor<[64,64],f32>, !torch.vtensor<[64],f32>) -> !torch.vtensor<[16,64],f32> 
    %186 = torch.operator "onnx.QuantizeLinear"(%185, %42, %41) : (!torch.vtensor<[16,64],f32>, !torch.vtensor<[],f32>, !torch.vtensor<[],si8>) -> !torch.vtensor<[16,64],si8> 
    %187 = torch.operator "onnx.DequantizeLinear"(%186, %42, %41) : (!torch.vtensor<[16,64],si8>, !torch.vtensor<[],f32>, !torch.vtensor<[],si8>) -> !torch.vtensor<[16,64],f32> 
    %188 = torch.operator "onnx.Reshape"(%187, %10) {torch.onnx.allowzero = 1 : si64} : (!torch.vtensor<[16,64],f32>, !torch.vtensor<[3],si64>) -> !torch.vtensor<[16,1,64],f32> 
    %189 = torch.operator "onnx.QuantizeLinear"(%188, %42, %41) : (!torch.vtensor<[16,1,64],f32>, !torch.vtensor<[],f32>, !torch.vtensor<[],si8>) -> !torch.vtensor<[16,1,64],si8> 
    %190 = torch.operator "onnx.DequantizeLinear"(%189, %42, %41) : (!torch.vtensor<[16,1,64],si8>, !torch.vtensor<[],f32>, !torch.vtensor<[],si8>) -> !torch.vtensor<[16,1,64],f32> 
    %191 = torch.operator "onnx.Transpose"(%190) {torch.onnx.perm = [1 : si64, 0 : si64, 2 : si64]} : (!torch.vtensor<[16,1,64],f32>) -> !torch.vtensor<[1,16,64],f32> 
    %192 = torch.operator "onnx.QuantizeLinear"(%191, %42, %41) : (!torch.vtensor<[1,16,64],f32>, !torch.vtensor<[],f32>, !torch.vtensor<[],si8>) -> !torch.vtensor<[1,16,64],si8> 
    %193 = torch.operator "onnx.DequantizeLinear"(%192, %42, %41) : (!torch.vtensor<[1,16,64],si8>, !torch.vtensor<[],f32>, !torch.vtensor<[],si8>) -> !torch.vtensor<[1,16,64],f32> 
    %194 = torch.operator "onnx.Add"(%103, %193) : (!torch.vtensor<[1,16,64],f32>, !torch.vtensor<[1,16,64],f32>) -> !torch.vtensor<[1,16,64],f32> 
    %195 = torch.operator "onnx.QuantizeLinear"(%194, %47, %46) : (!torch.vtensor<[1,16,64],f32>, !torch.vtensor<[],f32>, !torch.vtensor<[],si8>) -> !torch.vtensor<[1,16,64],si8> 
    %196 = torch.operator "onnx.DequantizeLinear"(%195, %47, %46) : (!torch.vtensor<[1,16,64],si8>, !torch.vtensor<[],f32>, !torch.vtensor<[],si8>) -> !torch.vtensor<[1,16,64],f32> 
    %197 = torch.operator "onnx.LayerNormalization"(%196, %88, %90) {torch.onnx.axis = -1 : si64, torch.onnx.epsilon = 9.99999974E-6 : f32, torch.onnx.stash_type = 1 : si64} : (!torch.vtensor<[1,16,64],f32>, !torch.vtensor<[64],f32>, !torch.vtensor<[64],f32>) -> !torch.vtensor<[1,16,64],f32> 
    %198 = torch.operator "onnx.QuantizeLinear"(%197, %52, %51) : (!torch.vtensor<[1,16,64],f32>, !torch.vtensor<[],f32>, !torch.vtensor<[],si8>) -> !torch.vtensor<[1,16,64],si8> 
    %199 = torch.operator "onnx.DequantizeLinear"(%198, %52, %51) : (!torch.vtensor<[1,16,64],si8>, !torch.vtensor<[],f32>, !torch.vtensor<[],si8>) -> !torch.vtensor<[1,16,64],f32> 
    %200 = torch.operator "onnx.MatMul"(%199, %98) : (!torch.vtensor<[1,16,64],f32>, !torch.vtensor<[64,128],f32>) -> !torch.vtensor<[1,16,128],f32> 
    %201 = torch.operator "onnx.QuantizeLinear"(%200, %57, %56) : (!torch.vtensor<[1,16,128],f32>, !torch.vtensor<[],f32>, !torch.vtensor<[],si8>) -> !torch.vtensor<[1,16,128],si8> 
    %202 = torch.operator "onnx.DequantizeLinear"(%201, %57, %56) : (!torch.vtensor<[1,16,128],si8>, !torch.vtensor<[],f32>, !torch.vtensor<[],si8>) -> !torch.vtensor<[1,16,128],f32> 
    %203 = torch.operator "onnx.Add"(%202, %86) : (!torch.vtensor<[1,16,128],f32>, !torch.vtensor<[128],f32>) -> !torch.vtensor<[1,16,128],f32> 
    %204 = torch.operator "onnx.QuantizeLinear"(%203, %62, %61) : (!torch.vtensor<[1,16,128],f32>, !torch.vtensor<[],f32>, !torch.vtensor<[],si8>) -> !torch.vtensor<[1,16,128],si8> 
    %205 = torch.operator "onnx.DequantizeLinear"(%204, %62, %61) : (!torch.vtensor<[1,16,128],si8>, !torch.vtensor<[],f32>, !torch.vtensor<[],si8>) -> !torch.vtensor<[1,16,128],f32> 
    %206 = torch.operator "onnx.MatMul"(%205, %99) : (!torch.vtensor<[1,16,128],f32>, !torch.vtensor<[128,64],f32>) -> !torch.vtensor<[1,16,64],f32> 
    %207 = torch.operator "onnx.QuantizeLinear"(%206, %67, %66) : (!torch.vtensor<[1,16,64],f32>, !torch.vtensor<[],f32>, !torch.vtensor<[],si8>) -> !torch.vtensor<[1,16,64],si8> 
    %208 = torch.operator "onnx.DequantizeLinear"(%207, %67, %66) : (!torch.vtensor<[1,16,64],si8>, !torch.vtensor<[],f32>, !torch.vtensor<[],si8>) -> !torch.vtensor<[1,16,64],f32> 
    %209 = torch.operator "onnx.Add"(%208, %87) : (!torch.vtensor<[1,16,64],f32>, !torch.vtensor<[64],f32>) -> !torch.vtensor<[1,16,64],f32> 
    %210 = torch.operator "onnx.QuantizeLinear"(%209, %72, %71) : (!torch.vtensor<[1,16,64],f32>, !torch.vtensor<[],f32>, !torch.vtensor<[],si8>) -> !torch.vtensor<[1,16,64],si8> 
    %211 = torch.operator "onnx.DequantizeLinear"(%210, %72, %71) : (!torch.vtensor<[1,16,64],si8>, !torch.vtensor<[],f32>, !torch.vtensor<[],si8>) -> !torch.vtensor<[1,16,64],f32> 
    %212 = torch.operator "onnx.Add"(%199, %211) : (!torch.vtensor<[1,16,64],f32>, !torch.vtensor<[1,16,64],f32>) -> !torch.vtensor<[1,16,64],f32> 
    %213 = torch.operator "onnx.QuantizeLinear"(%212, %74, %73) : (!torch.vtensor<[1,16,64],f32>, !torch.vtensor<[],f32>, !torch.vtensor<[],si8>) -> !torch.vtensor<[1,16,64],si8> 
    %214 = torch.operator "onnx.DequantizeLinear"(%213, %74, %73) : (!torch.vtensor<[1,16,64],si8>, !torch.vtensor<[],f32>, !torch.vtensor<[],si8>) -> !torch.vtensor<[1,16,64],f32> 
    %215 = torch.operator "onnx.LayerNormalization"(%214, %88, %91) {torch.onnx.axis = -1 : si64, torch.onnx.epsilon = 9.99999974E-6 : f32, torch.onnx.stash_type = 1 : si64} : (!torch.vtensor<[1,16,64],f32>, !torch.vtensor<[64],f32>, !torch.vtensor<[64],f32>) -> !torch.vtensor<[1,16,64],f32> 
    %216 = torch.operator "onnx.QuantizeLinear"(%215, %76, %75) : (!torch.vtensor<[1,16,64],f32>, !torch.vtensor<[],f32>, !torch.vtensor<[],si8>) -> !torch.vtensor<[1,16,64],si8> 
    %217 = torch.operator "onnx.DequantizeLinear"(%216, %76, %75) : (!torch.vtensor<[1,16,64],si8>, !torch.vtensor<[],f32>, !torch.vtensor<[],si8>) -> !torch.vtensor<[1,16,64],f32> 
    return %217 : !torch.vtensor<[1,16,64],f32>
  }
}

{-#
  dialect_resources: {
    builtin: {
      val_7: "…",
      val_8: "0x080000000000000000000000",
      val_9: "0x08000000FEFFFFFFFFFFFFFF",
      val_10: "0x080000000000000000000000",
      val_11: "0x080000000100000000000000",
      val_12: "0x080000000200000000000000",
      val_17: "0x08000000100000000000000008000000000000000800000000000000",
      val_33: "…",
      val_66: "…",
      val_78: "0x0800000010000000000000004000000000000000",
      val_83: "0x08000000100000000000000001000000000000004000000000000000",
      pos_embedding_quantized: "…",
      val_0_quantized: "…",
      _encoder.layers.0.self_attn.in_proj_bias_quantized: "…",
      val_68_quantized: "0x080000007F",
      _encoder.layers.0.self_attn.out_proj.weight_quantized: "…",
      _encoder.layers.0.norm1.weight_quantized: "…",
      val_86_quantized: "…",
      _encoder.layers.0.linear1.bias_quantized: "…",
      val_88_quantized: "…",
      _encoder.layers.0.linear2.bias_quantized: "…",
      _encoder.layers.0.self_attn.out_proj.bias_quantized: "…",
      _encoder.layers.0.self_attn.out_proj.bias_quantized_scale: "0x080000006A998B37",
      _encoder.layers.0.self_attn.out_proj.bias0_quantized: "…",
      _encoder.layers.0.self_attn.out_proj.bias0_quantized_scale: "0x08000000A0A6A939",
      _encoder.layers.0.self_attn.out_proj.bias1_quantized: "…",
      _encoder.layers.0.self_attn.out_proj.bias1_quantized_scale: "0x08000000D7336839"
    }
  }
#-}

