digraph G {
  compound = true;
  subgraph cluster_1 {
    v2 [shape = plain, label = " "];
    label = "";
    v3 [shape = box, label = "arg0"];
    v4 [shape = box, label = "arg1"];
    v5 [shape = box, label = "arg2"];
    v6 [shape = ellipse, label = "%__constant_tensor_32x64xf32 = util.global.load\ntensor<32x64xf32>"];
    v7 [shape = ellipse, label = "%__constant_tensor_64x128xf32 = util.global.load\ntensor<64x128xf32>"];
    v8 [shape = ellipse, label = "%__constant_tensor_128x256xf32 = util.global.load\ntensor<128x256xf32>"];
    v9 [shape = ellipse, label = "%__constant_tensor_256x512xf32 = util.global.load\ntensor<256x512xf32>"];
    v10 [shape = ellipse, label = "%__constant_tensor_512x1024xf32 = util.global.load\ntensor<512x1024xf32>"];
    v11 [shape = ellipse, label = "%__constant_tensor_1024x1024xf32 = util.global.load\ntensor<1024x1024xf32>"];
    v12 [shape = ellipse, label = "%__constant_tensor_1024x512xf32 = util.global.load\ntensor<1024x512xf32>"];
    v13 [shape = ellipse, label = "%__constant_tensor_512x512xf32 = util.global.load\ntensor<512x512xf32>"];
    v14 [shape = ellipse, label = "%__constant_tensor_512x512xf32_0 = util.global.load\ntensor<512x512xf32>"];
    v15 [shape = ellipse, label = "%__constant_tensor_512x512xf32_1 = util.global.load\ntensor<512x512xf32>"];
    v16 [shape = ellipse, label = "%__constant_tensor_512x512xf32_2 = util.global.load\ntensor<512x512xf32>"];
    v17 [shape = ellipse, label = "%__constant_tensor_512x512xf32_3 = util.global.load\ntensor<512x512xf32>"];
    v18 [shape = ellipse, label = "%__constant_tensor_512x256xf32 = util.global.load\ntensor<512x256xf32>"];
    v19 [shape = ellipse, label = "%__constant_tensor_256x256xf32 = util.global.load\ntensor<256x256xf32>"];
    v20 [shape = ellipse, label = "%__constant_tensor_256x128xf32 = util.global.load\ntensor<256x128xf32>"];
    v21 [shape = ellipse, label = "%__constant_tensor_128x128xf32 = util.global.load\ntensor<128x128xf32>"];
    v22 [shape = ellipse, label = "%__constant_tensor_128x64xf32 = util.global.load\ntensor<128x64xf32>"];
    v23 [shape = ellipse, label = "%__constant_tensor_64x32xf32 = util.global.load\ntensor<64x32xf32>"];
    v24 [shape = ellipse, label = "%__constant_tensor_64x5x5xf32 = util.global.load\ntensor<64x5x5xf32>"];
    v25 [shape = ellipse, label = "%__constant_tensor_128x5x5xf32 = util.global.load\ntensor<128x5x5xf32>"];
    v26 [shape = ellipse, label = "%__constant_tensor_256x5x5xf32 = util.global.load\ntensor<256x5x5xf32>"];
    v27 [shape = ellipse, label = "%__constant_tensor_512x5x5xf32 = util.global.load\ntensor<512x5x5xf32>"];
    v28 [shape = ellipse, label = "%__constant_tensor_1024x5x5xf32 = util.global.load\ntensor<1024x5x5xf32>"];
    v29 [shape = ellipse, label = "%__constant_tensor_1024x3x3xf32 = util.global.load\ntensor<1024x3x3xf32>"];
    v30 [shape = ellipse, label = "%__constant_tensor_512x3x3xf32 = util.global.load\ntensor<512x3x3xf32>"];
    v31 [shape = ellipse, label = "%__constant_tensor_512x3x3xf32_4 = util.global.load\ntensor<512x3x3xf32>"];
    v32 [shape = ellipse, label = "%__constant_tensor_512x3x3xf32_5 = util.global.load\ntensor<512x3x3xf32>"];
    v33 [shape = ellipse, label = "%__constant_tensor_512x3x3xf32_6 = util.global.load\ntensor<512x3x3xf32>"];
    v34 [shape = ellipse, label = "%__constant_tensor_512x3x3xf32_7 = util.global.load\ntensor<512x3x3xf32>"];
    v35 [shape = ellipse, label = "%__constant_tensor_512x3x3xf32_8 = util.global.load\ntensor<512x3x3xf32>"];
    v36 [shape = ellipse, label = "%__constant_tensor_256x3x3xf32 = util.global.load\ntensor<256x3x3xf32>"];
    v37 [shape = ellipse, label = "%__constant_tensor_256x3x3xf32_9 = util.global.load\ntensor<256x3x3xf32>"];
    v38 [shape = ellipse, label = "%__constant_tensor_128x3x3xf32 = util.global.load\ntensor<128x3x3xf32>"];
    v39 [shape = ellipse, label = "%__constant_tensor_128x3x3xf32_10 = util.global.load\ntensor<128x3x3xf32>"];
    v40 [shape = ellipse, label = "%__constant_tensor_64x3x3xf32 = util.global.load\ntensor<64x3x3xf32>"];
    v41 [shape = ellipse, label = "%__constant_tensor_32x3x3xf32 = util.global.load\ntensor<32x3x3xf32>"];
    v42 [shape = ellipse, label = "%__constant_tensor_32x3x3x3xf32 = util.global.load\ntensor<32x3x3x3xf32>"];
    v43 [shape = ellipse, label = "%0 = hal.tensor.import\n<<NULL ATTRIBUTE>>\ntensor<1x3x224x224xf32>"];
    v44 [shape = ellipse, label = "%1 = flow.tensor.reshape\ntensor<3x224x224xf32>"];
    v45 [shape = ellipse, label = "%2 = flow.tensor.splat\n<<NULL ATTRIBUTE>>\ntensor<3x226x226xf32>"];
    v46 [shape = box, label = "%3 = flow.dispatch[]\n@main_graph$async_dispatch_0::@main_graph$async_dispatch_0_slow_memcpy(%1, %2)\n<<NULL ATTRIBUTE>>\ntensor<3x226x226xf32>"];
    v47 [shape = ellipse, label = "%4 = flow.tensor.splat\n<<NULL ATTRIBUTE>>\ntensor<32x114x114xf32>"];
    v48 [shape = box, label = "%5 = flow.dispatch[]\n@main_graph$async_dispatch_1::@main_graph$async_dispatch_1_conv_32x112x112x3x3x3_f32(%3, %__constant_tensor_32x3x3x3xf32, %4)\n<<NULL ATTRIBUTE>>\ntensor<32x114x114xf32>"];
    v49 [shape = box, label = "%6 = flow.dispatch[]\n@main_graph$async_dispatch_2::@main_graph$async_dispatch_2_conv_112x112x32x3x3_f32(%5, %__constant_tensor_32x3x3xf32)\n<<NULL ATTRIBUTE>>\ntensor<32x112x112xf32>"];
    v50 [shape = ellipse, label = "%7 = flow.tensor.reshape\ntensor<32x12544xf32>"];
    v51 [shape = box, label = "%8 = flow.dispatch[]\n@main_graph$async_dispatch_3::@main_graph$async_dispatch_3_matmul_like_64x12544x32_f32(%7, %__constant_tensor_64x32xf32)\n<<NULL ATTRIBUTE>>\ntensor<64x12544xf32>"];
    v52 [shape = ellipse, label = "%9 = flow.tensor.reshape\ntensor<64x112x112xf32>"];
    v53 [shape = ellipse, label = "%10 = flow.tensor.splat\n<<NULL ATTRIBUTE>>\ntensor<64x114x114xf32>"];
    v54 [shape = box, label = "%11 = flow.dispatch[]\n@main_graph$async_dispatch_4::@main_graph$async_dispatch_4_slow_memcpy(%9, %10)\n<<NULL ATTRIBUTE>>\ntensor<64x114x114xf32>"];
    v55 [shape = box, label = "%12 = flow.dispatch[]\n@main_graph$async_dispatch_5::@main_graph$async_dispatch_5_conv_56x56x64x3x3_f32(%11, %__constant_tensor_64x3x3xf32)\n<<NULL ATTRIBUTE>>\ntensor<64x56x56xf32>"];
    v56 [shape = ellipse, label = "%13 = flow.tensor.splat\n<<NULL ATTRIBUTE>>\ntensor<128x58x58xf32>"];
    v57 [shape = box, label = "%14 = flow.dispatch[]\n@main_graph$async_dispatch_6::@main_graph$async_dispatch_6_matmul_like_128x56x56x64_f32(%12, %__constant_tensor_128x64xf32, %13)\n<<NULL ATTRIBUTE>>\ntensor<128x58x58xf32>"];
    v58 [shape = box, label = "%15 = flow.dispatch[]\n@main_graph$async_dispatch_7::@main_graph$async_dispatch_7_conv_56x56x128x3x3_f32(%14, %__constant_tensor_128x3x3xf32_10)\n<<NULL ATTRIBUTE>>\ntensor<128x56x56xf32>"];
    v59 [shape = ellipse, label = "%16 = flow.tensor.reshape\ntensor<128x3136xf32>"];
    v60 [shape = box, label = "%17 = flow.dispatch[]\n@main_graph$async_dispatch_8::@main_graph$async_dispatch_8_matmul_like_128x3136x128_f32(%16, %__constant_tensor_128x128xf32)\n<<NULL ATTRIBUTE>>\ntensor<128x3136xf32>"];
    v61 [shape = ellipse, label = "%18 = flow.tensor.reshape\ntensor<128x56x56xf32>"];
    v62 [shape = box, label = "%19 = flow.dispatch[]\n@main_graph$async_dispatch_9::@main_graph$async_dispatch_9_slow_memcpy(%18, %13)\n<<NULL ATTRIBUTE>>\ntensor<128x58x58xf32>"];
    v63 [shape = box, label = "%20 = flow.dispatch[]\n@main_graph$async_dispatch_10::@main_graph$async_dispatch_10_conv_28x28x128x3x3_f32(%19, %__constant_tensor_128x3x3xf32)\n<<NULL ATTRIBUTE>>\ntensor<128x28x28xf32>"];
    v64 [shape = ellipse, label = "%21 = flow.tensor.splat\n<<NULL ATTRIBUTE>>\ntensor<256x30x30xf32>"];
    v65 [shape = box, label = "%22 = flow.dispatch[]\n@main_graph$async_dispatch_11::@main_graph$async_dispatch_11_matmul_like_256x28x28x128_f32(%20, %__constant_tensor_256x128xf32, %21)\n<<NULL ATTRIBUTE>>\ntensor<256x30x30xf32>"];
    v66 [shape = box, label = "%23 = flow.dispatch[]\n@main_graph$async_dispatch_12::@main_graph$async_dispatch_12_conv_28x28x256x3x3_f32(%22, %__constant_tensor_256x3x3xf32_9)\n<<NULL ATTRIBUTE>>\ntensor<256x28x28xf32>"];
    v67 [shape = ellipse, label = "%24 = flow.tensor.reshape\ntensor<256x784xf32>"];
    v68 [shape = box, label = "%25 = flow.dispatch[]\n@main_graph$async_dispatch_13::@main_graph$async_dispatch_13_matmul_like_256x784x256_f32(%24, %__constant_tensor_256x256xf32)\n<<NULL ATTRIBUTE>>\ntensor<256x784xf32>"];
    v69 [shape = ellipse, label = "%26 = flow.tensor.reshape\ntensor<256x28x28xf32>"];
    v70 [shape = box, label = "%27 = flow.dispatch[]\n@main_graph$async_dispatch_14::@main_graph$async_dispatch_14_slow_memcpy(%26, %21)\n<<NULL ATTRIBUTE>>\ntensor<256x30x30xf32>"];
    v71 [shape = box, label = "%28 = flow.dispatch[]\n@main_graph$async_dispatch_15::@main_graph$async_dispatch_15_conv_14x14x256x3x3_f32(%27, %__constant_tensor_256x3x3xf32)\n<<NULL ATTRIBUTE>>\ntensor<256x14x14xf32>"];
    v72 [shape = ellipse, label = "%29 = flow.tensor.splat\n<<NULL ATTRIBUTE>>\ntensor<512x16x16xf32>"];
    v73 [shape = box, label = "%30 = flow.dispatch[]\n@main_graph$async_dispatch_16::@main_graph$async_dispatch_16_matmul_like_512x14x14x256_f32(%28, %__constant_tensor_512x256xf32, %29)\n<<NULL ATTRIBUTE>>\ntensor<512x16x16xf32>"];
    v74 [shape = box, label = "%31 = flow.dispatch[]\n@main_graph$async_dispatch_17::@main_graph$async_dispatch_17_conv_14x14x512x3x3_f32(%30, %__constant_tensor_512x3x3xf32_8)\n<<NULL ATTRIBUTE>>\ntensor<512x14x14xf32>"];
    v75 [shape = box, label = "%32 = flow.dispatch[]\n@main_graph$async_dispatch_18::@main_graph$async_dispatch_18_matmul_like_512x14x14x512_f32(%31, %__constant_tensor_512x512xf32_3, %29)\n<<NULL ATTRIBUTE>>\ntensor<512x16x16xf32>"];
    v76 [shape = box, label = "%33 = flow.dispatch[]\n@main_graph$async_dispatch_17::@main_graph$async_dispatch_17_conv_14x14x512x3x3_f32(%32, %__constant_tensor_512x3x3xf32_7)\n<<NULL ATTRIBUTE>>\ntensor<512x14x14xf32>"];
    v77 [shape = box, label = "%34 = flow.dispatch[]\n@main_graph$async_dispatch_18::@main_graph$async_dispatch_18_matmul_like_512x14x14x512_f32(%33, %__constant_tensor_512x512xf32_2, %29)\n<<NULL ATTRIBUTE>>\ntensor<512x16x16xf32>"];
    v78 [shape = box, label = "%35 = flow.dispatch[]\n@main_graph$async_dispatch_17::@main_graph$async_dispatch_17_conv_14x14x512x3x3_f32(%34, %__constant_tensor_512x3x3xf32_6)\n<<NULL ATTRIBUTE>>\ntensor<512x14x14xf32>"];
    v79 [shape = box, label = "%36 = flow.dispatch[]\n@main_graph$async_dispatch_18::@main_graph$async_dispatch_18_matmul_like_512x14x14x512_f32(%35, %__constant_tensor_512x512xf32_1, %29)\n<<NULL ATTRIBUTE>>\ntensor<512x16x16xf32>"];
    v80 [shape = box, label = "%37 = flow.dispatch[]\n@main_graph$async_dispatch_17::@main_graph$async_dispatch_17_conv_14x14x512x3x3_f32(%36, %__constant_tensor_512x3x3xf32_5)\n<<NULL ATTRIBUTE>>\ntensor<512x14x14xf32>"];
    v81 [shape = box, label = "%38 = flow.dispatch[]\n@main_graph$async_dispatch_18::@main_graph$async_dispatch_18_matmul_like_512x14x14x512_f32(%37, %__constant_tensor_512x512xf32_0, %29)\n<<NULL ATTRIBUTE>>\ntensor<512x16x16xf32>"];
    v82 [shape = box, label = "%39 = flow.dispatch[]\n@main_graph$async_dispatch_17::@main_graph$async_dispatch_17_conv_14x14x512x3x3_f32(%38, %__constant_tensor_512x3x3xf32_4)\n<<NULL ATTRIBUTE>>\ntensor<512x14x14xf32>"];
    v83 [shape = box, label = "%40 = flow.dispatch[]\n@main_graph$async_dispatch_18::@main_graph$async_dispatch_18_matmul_like_512x14x14x512_f32(%39, %__constant_tensor_512x512xf32, %29)\n<<NULL ATTRIBUTE>>\ntensor<512x16x16xf32>"];
    v84 [shape = box, label = "%41 = flow.dispatch[]\n@main_graph$async_dispatch_27::@main_graph$async_dispatch_27_conv_7x7x512x3x3_f32(%40, %__constant_tensor_512x3x3xf32)\n<<NULL ATTRIBUTE>>\ntensor<512x7x7xf32>"];
    v85 [shape = ellipse, label = "%42 = flow.tensor.splat\n<<NULL ATTRIBUTE>>\ntensor<1024x9x9xf32>"];
    v86 [shape = box, label = "%43 = flow.dispatch[]\n@main_graph$async_dispatch_28::@main_graph$async_dispatch_28_matmul_like_1024x7x7x512_f32(%41, %__constant_tensor_1024x512xf32, %42)\n<<NULL ATTRIBUTE>>\ntensor<1024x9x9xf32>"];
    v87 [shape = box, label = "%44 = flow.dispatch[]\n@main_graph$async_dispatch_29::@main_graph$async_dispatch_29_conv_7x7x1024x3x3_f32(%43, %__constant_tensor_1024x3x3xf32)\n<<NULL ATTRIBUTE>>\ntensor<1024x7x7xf32>"];
    v88 [shape = ellipse, label = "%45 = flow.tensor.splat\n<<NULL ATTRIBUTE>>\ntensor<1024x11x11xf32>"];
    v89 [shape = box, label = "%46 = flow.dispatch[]\n@main_graph$async_dispatch_30::@main_graph$async_dispatch_30_matmul_like_1024x7x7x1024_f32(%44, %__constant_tensor_1024x1024xf32, %45)\n<<NULL ATTRIBUTE>>\ntensor<1024x11x11xf32>"];
    v90 [shape = box, label = "%47 = flow.dispatch[]\n@main_graph$async_dispatch_31::@main_graph$async_dispatch_31_conv_7x7x1024x5x5_f32(%46, %__constant_tensor_1024x5x5xf32)\n<<NULL ATTRIBUTE>>\ntensor<1024x7x7xf32>"];
    v91 [shape = ellipse, label = "%48 = flow.tensor.reshape\ntensor<1024x49xf32>"];
    v92 [shape = box, label = "%49 = flow.dispatch[]\n@main_graph$async_dispatch_32::@main_graph$async_dispatch_32_matmul_like_512x49x1024_f32(%48, %__constant_tensor_512x1024xf32)\n<<NULL ATTRIBUTE>>\ntensor<512x49xf32>"];
    v93 [shape = ellipse, label = "%50 = flow.tensor.reshape\ntensor<1x512x7x7xf32>"];
    v94 [shape = ellipse, label = "%51 = flow.tensor.splat\n<<NULL ATTRIBUTE>>\ntensor<512x18x18xf32>"];
    v95 [shape = box, label = "%52 = flow.dispatch[]\n@main_graph$async_dispatch_33::@main_graph$async_dispatch_33_elementwise_broadcast_512x14x14_f32(%50, %51)\n<<NULL ATTRIBUTE>>\ntensor<512x18x18xf32>"];
    v96 [shape = box, label = "%53 = flow.dispatch[]\n@main_graph$async_dispatch_34::@main_graph$async_dispatch_34_conv_14x14x512x5x5_f32(%52, %__constant_tensor_512x5x5xf32)\n<<NULL ATTRIBUTE>>\ntensor<512x14x14xf32>"];
    v97 [shape = ellipse, label = "%54 = flow.tensor.reshape\ntensor<512x196xf32>"];
    v98 [shape = box, label = "%55 = flow.dispatch[]\n@main_graph$async_dispatch_35::@main_graph$async_dispatch_35_matmul_like_256x196x512_f32(%54, %__constant_tensor_256x512xf32)\n<<NULL ATTRIBUTE>>\ntensor<256x196xf32>"];
    v99 [shape = ellipse, label = "%56 = flow.tensor.reshape\ntensor<1x256x14x14xf32>"];
    v100 [shape = ellipse, label = "%57 = flow.tensor.splat\n<<NULL ATTRIBUTE>>\ntensor<256x32x32xf32>"];
    v101 [shape = box, label = "%58 = flow.dispatch[]\n@main_graph$async_dispatch_36::@main_graph$async_dispatch_36_elementwise_256x28x28_f32(%56, %26, %57)\n<<NULL ATTRIBUTE>>\ntensor<256x32x32xf32>"];
    v102 [shape = box, label = "%59 = flow.dispatch[]\n@main_graph$async_dispatch_37::@main_graph$async_dispatch_37_conv_28x28x256x5x5_f32(%58, %__constant_tensor_256x5x5xf32)\n<<NULL ATTRIBUTE>>\ntensor<256x28x28xf32>"];
    v103 [shape = ellipse, label = "%60 = flow.tensor.reshape\ntensor<256x784xf32>"];
    v104 [shape = box, label = "%61 = flow.dispatch[]\n@main_graph$async_dispatch_38::@main_graph$async_dispatch_38_matmul_like_128x784x256_f32(%60, %__constant_tensor_128x256xf32)\n<<NULL ATTRIBUTE>>\ntensor<128x784xf32>"];
    v105 [shape = ellipse, label = "%62 = flow.tensor.reshape\ntensor<1x128x28x28xf32>"];
    v106 [shape = ellipse, label = "%63 = flow.tensor.splat\n<<NULL ATTRIBUTE>>\ntensor<128x60x60xf32>"];
    v107 [shape = box, label = "%64 = flow.dispatch[]\n@main_graph$async_dispatch_39::@main_graph$async_dispatch_39_elementwise_128x56x56_f32(%62, %18, %63)\n<<NULL ATTRIBUTE>>\ntensor<128x60x60xf32>"];
    v108 [shape = box, label = "%65 = flow.dispatch[]\n@main_graph$async_dispatch_40::@main_graph$async_dispatch_40_conv_56x56x128x5x5_f32(%64, %__constant_tensor_128x5x5xf32)\n<<NULL ATTRIBUTE>>\ntensor<128x56x56xf32>"];
    v109 [shape = ellipse, label = "%66 = flow.tensor.reshape\ntensor<128x3136xf32>"];
    v110 [shape = box, label = "%67 = flow.dispatch[]\n@main_graph$async_dispatch_41::@main_graph$async_dispatch_41_matmul_like_64x3136x128_f32(%66, %__constant_tensor_64x128xf32)\n<<NULL ATTRIBUTE>>\ntensor<64x3136xf32>"];
    v111 [shape = ellipse, label = "%68 = flow.tensor.reshape\ntensor<1x64x56x56xf32>"];
    v112 [shape = ellipse, label = "%69 = flow.tensor.splat\n<<NULL ATTRIBUTE>>\ntensor<64x116x116xf32>"];
    v113 [shape = box, label = "%70 = flow.dispatch[]\n@main_graph$async_dispatch_42::@main_graph$async_dispatch_42_elementwise_64x112x112_f32(%68, %9, %69)\n<<NULL ATTRIBUTE>>\ntensor<64x116x116xf32>"];
    v114 [shape = box, label = "%71 = flow.dispatch[]\n@main_graph$async_dispatch_43::@main_graph$async_dispatch_43_conv_112x112x64x5x5_f32(%70, %__constant_tensor_64x5x5xf32)\n<<NULL ATTRIBUTE>>\ntensor<64x112x112xf32>"];
    v115 [shape = ellipse, label = "%72 = flow.tensor.reshape\ntensor<64x12544xf32>"];
    v116 [shape = box, label = "%73 = flow.dispatch[]\n@main_graph$async_dispatch_44::@main_graph$async_dispatch_44_matmul_like_32x12544x64_f32(%72, %__constant_tensor_32x64xf32)\n<<NULL ATTRIBUTE>>\ntensor<32x12544xf32>"];
    v117 [shape = ellipse, label = "%74 = flow.tensor.reshape\ntensor<1x32x112x112xf32>"];
    v118 [shape = box, label = "%75 = flow.dispatch[]\n@main_graph$async_dispatch_45::@main_graph$async_dispatch_45_matvec_like_50176x32_f32(%74)\n<<NULL ATTRIBUTE>>\ntensor<50176xf32>"];
    v119 [shape = ellipse, label = "%76 = flow.tensor.reshape\ntensor<1x1x224x224xf32>"];
    v120 [shape = ellipse, label = "%77 = hal.tensor.barrier\ntensor<1x1x224x224xf32>"];
    v121 [shape = ellipse, label = "%78 = hal.tensor.export\n<<NULL ATTRIBUTE>>\n!hal.buffer_view"];
    v122 [shape = ellipse, label = " = util.return\n"];
  }
  subgraph cluster_123 {
    v124 [shape = plain, label = " "];
    label = "";
    v125 [shape = box, label = "arg0"];
    v126 [shape = ellipse, label = "%0 = util.null\n!hal.fence"];
    v127 [shape = ellipse, label = "%device_0 = hal.devices.get\n!hal.device"];
    v128 [shape = ellipse, label = "%fence = hal.fence.create\n!hal.fence"];
    v129 [shape = ellipse, label = "%1 = util.call\n!hal.buffer_view"];
    v130 [shape = ellipse, label = "%status = hal.fence.await\ni32"];
    v131 [shape = ellipse, label = " = util.return\n"];
  }
  v3 -> v43 [style = solid, label = "0"];
  v4 -> v43 [style = solid, label = "1"];
  v43 -> v44 [style = solid, label = ""];
  v44 -> v46 [style = solid, label = "0"];
  v45 -> v46 [style = solid, label = "1"];
  v46 -> v48 [style = solid, label = "0"];
  v42 -> v48 [style = solid, label = "1"];
  v47 -> v48 [style = solid, label = "2"];
  v48 -> v49 [style = solid, label = "0"];
  v41 -> v49 [style = solid, label = "1"];
  v49 -> v50 [style = solid, label = ""];
  v50 -> v51 [style = solid, label = "0"];
  v23 -> v51 [style = solid, label = "1"];
  v51 -> v52 [style = solid, label = ""];
  v52 -> v54 [style = solid, label = "0"];
  v53 -> v54 [style = solid, label = "1"];
  v54 -> v55 [style = solid, label = "0"];
  v40 -> v55 [style = solid, label = "1"];
  v55 -> v57 [style = solid, label = "0"];
  v22 -> v57 [style = solid, label = "1"];
  v56 -> v57 [style = solid, label = "2"];
  v57 -> v58 [style = solid, label = "0"];
  v39 -> v58 [style = solid, label = "1"];
  v58 -> v59 [style = solid, label = ""];
  v59 -> v60 [style = solid, label = "0"];
  v21 -> v60 [style = solid, label = "1"];
  v60 -> v61 [style = solid, label = ""];
  v61 -> v62 [style = solid, label = "0"];
  v56 -> v62 [style = solid, label = "1"];
  v62 -> v63 [style = solid, label = "0"];
  v38 -> v63 [style = solid, label = "1"];
  v63 -> v65 [style = solid, label = "0"];
  v20 -> v65 [style = solid, label = "1"];
  v64 -> v65 [style = solid, label = "2"];
  v65 -> v66 [style = solid, label = "0"];
  v37 -> v66 [style = solid, label = "1"];
  v66 -> v67 [style = solid, label = ""];
  v67 -> v68 [style = solid, label = "0"];
  v19 -> v68 [style = solid, label = "1"];
  v68 -> v69 [style = solid, label = ""];
  v69 -> v70 [style = solid, label = "0"];
  v64 -> v70 [style = solid, label = "1"];
  v70 -> v71 [style = solid, label = "0"];
  v36 -> v71 [style = solid, label = "1"];
  v71 -> v73 [style = solid, label = "0"];
  v18 -> v73 [style = solid, label = "1"];
  v72 -> v73 [style = solid, label = "2"];
  v73 -> v74 [style = solid, label = "0"];
  v35 -> v74 [style = solid, label = "1"];
  v74 -> v75 [style = solid, label = "0"];
  v17 -> v75 [style = solid, label = "1"];
  v72 -> v75 [style = solid, label = "2"];
  v75 -> v76 [style = solid, label = "0"];
  v34 -> v76 [style = solid, label = "1"];
  v76 -> v77 [style = solid, label = "0"];
  v16 -> v77 [style = solid, label = "1"];
  v72 -> v77 [style = solid, label = "2"];
  v77 -> v78 [style = solid, label = "0"];
  v33 -> v78 [style = solid, label = "1"];
  v78 -> v79 [style = solid, label = "0"];
  v15 -> v79 [style = solid, label = "1"];
  v72 -> v79 [style = solid, label = "2"];
  v79 -> v80 [style = solid, label = "0"];
  v32 -> v80 [style = solid, label = "1"];
  v80 -> v81 [style = solid, label = "0"];
  v14 -> v81 [style = solid, label = "1"];
  v72 -> v81 [style = solid, label = "2"];
  v81 -> v82 [style = solid, label = "0"];
  v31 -> v82 [style = solid, label = "1"];
  v82 -> v83 [style = solid, label = "0"];
  v13 -> v83 [style = solid, label = "1"];
  v72 -> v83 [style = solid, label = "2"];
  v83 -> v84 [style = solid, label = "0"];
  v30 -> v84 [style = solid, label = "1"];
  v84 -> v86 [style = solid, label = "0"];
  v12 -> v86 [style = solid, label = "1"];
  v85 -> v86 [style = solid, label = "2"];
  v86 -> v87 [style = solid, label = "0"];
  v29 -> v87 [style = solid, label = "1"];
  v87 -> v89 [style = solid, label = "0"];
  v11 -> v89 [style = solid, label = "1"];
  v88 -> v89 [style = solid, label = "2"];
  v89 -> v90 [style = solid, label = "0"];
  v28 -> v90 [style = solid, label = "1"];
  v90 -> v91 [style = solid, label = ""];
  v91 -> v92 [style = solid, label = "0"];
  v10 -> v92 [style = solid, label = "1"];
  v92 -> v93 [style = solid, label = ""];
  v93 -> v95 [style = solid, label = "0"];
  v94 -> v95 [style = solid, label = "1"];
  v95 -> v96 [style = solid, label = "0"];
  v27 -> v96 [style = solid, label = "1"];
  v96 -> v97 [style = solid, label = ""];
  v97 -> v98 [style = solid, label = "0"];
  v9 -> v98 [style = solid, label = "1"];
  v98 -> v99 [style = solid, label = ""];
  v99 -> v101 [style = solid, label = "0"];
  v69 -> v101 [style = solid, label = "1"];
  v100 -> v101 [style = solid, label = "2"];
  v101 -> v102 [style = solid, label = "0"];
  v26 -> v102 [style = solid, label = "1"];
  v102 -> v103 [style = solid, label = ""];
  v103 -> v104 [style = solid, label = "0"];
  v8 -> v104 [style = solid, label = "1"];
  v104 -> v105 [style = solid, label = ""];
  v105 -> v107 [style = solid, label = "0"];
  v61 -> v107 [style = solid, label = "1"];
  v106 -> v107 [style = solid, label = "2"];
  v107 -> v108 [style = solid, label = "0"];
  v25 -> v108 [style = solid, label = "1"];
  v108 -> v109 [style = solid, label = ""];
  v109 -> v110 [style = solid, label = "0"];
  v7 -> v110 [style = solid, label = "1"];
  v110 -> v111 [style = solid, label = ""];
  v111 -> v113 [style = solid, label = "0"];
  v52 -> v113 [style = solid, label = "1"];
  v112 -> v113 [style = solid, label = "2"];
  v113 -> v114 [style = solid, label = "0"];
  v24 -> v114 [style = solid, label = "1"];
  v114 -> v115 [style = solid, label = ""];
  v115 -> v116 [style = solid, label = "0"];
  v6 -> v116 [style = solid, label = "1"];
  v116 -> v117 [style = solid, label = ""];
  v117 -> v118 [style = solid, label = ""];
  v118 -> v119 [style = solid, label = ""];
  v119 -> v120 [style = solid, label = "0"];
  v5 -> v120 [style = solid, label = "1"];
  v120 -> v121 [style = solid, label = ""];
  v121 -> v122 [style = solid, label = ""];
  v127 -> v128 [style = solid, label = ""];
  v125 -> v129 [style = solid, label = "0"];
  v126 -> v129 [style = solid, label = "1"];
  v128 -> v129 [style = solid, label = "2"];
  v128 -> v130 [style = solid, label = "1"];
  v129 -> v131 [style = solid, label = ""];
}
